CausalCVR/logs/simu2/eval/95/Vcnet_tr_ckpt.pth.tar (torch, 123637 bytes, 18 tensors)

feature_weight.weight f4 [50, 8]
00000000: 6249 693c 2981 51bc 2cf4 af3b d536 3b3b
00000010: b081 9f3b ab20 9fbb 2110 98bb 5a71 933b
00000020: f4da 3a3c 6994 deb9 0556 a03b 87ca b3bc
00000030: 624f 98bb ed51 39bc d01a 73bc 43be 64bc
00000040: cb79 44bc 237c b83b c4e9 4abc b11d b9bb
00000050: e1a6 6abc b2ec efbb fa55 a7bb aa45 e5ba
00000060: 5c74 043c bcfb edbb dd8b 813c 7557 18bc
00000070: 066e 3c3b b2e7 c8bb 15e0 433b ca53 cfbc
00000080: 4aae 43bb a34b 103c b064 973b d653 9bbc
00000090: e669 20bc 100e 33bb 30d9 1cbc 68a3 333c
000000a0: e097 73bc a3ea 32bc e1e6 183b c19d 9ebc
000000b0: e778 d03a 6c09 753b 1cd7 413c 38cb 3bbb
000000c0: 68cf 373b 8355 d73a 01e2 91bc b612 c43b
000000d0: 7a9d d9bb 69ff f33b 333e 3c3b a678 d1bb
000000e0: d73b d53a f695 133b 647a 2f3c 7b5b ed3b
000000f0: 4868 f4bb a772 343b 676a 14bc 6f59 11bc
00000100: f1be 83bc dac3 a43c 4731 babc 6062 943b
00000110: cae7 efbb ecef d23b 6b81 043d 2510 c2bb
00000120: 8077 363c 1c42 dbbb aa6a 3fbc f78d 8dbc
00000130: 50f8 073c 6883 8439 9b1e 41bc ee4c 72bb
00000140: c4fa 2c3c 4311 633c 1571 2a3b 4379 8eb8
00000150: 110f b6bb 5c1f 1bbc 957f c1bc d306 db3c
00000160: f89e 683b 952e c23c 0f64 6dbc 5e21 75bc
00000170: 6960 e2bb 89ac 1abc 8367 3bbc 87bd 443c
00000180: 4c50 833b 5237 ae3c e9b8 32bc e2c7 5c3c
00000190: c09b 7f3c ba90 47bc a036 e6bc afca 343c
000001a0: 9ef2 033c 6a1a 76ba 905b babb deb8 07ba
000001b0: 546f 29bc 77c3 8d3a 7816 00bc 1e2b 863c
000001c0: 8c73 85bc fc5d 2ebc a22a b537 5f26 f5bb
000001d0: ffbb 81bb ecf8 4dbc ae87 b53a 217f 6fbb
000001e0: 9d78 523b 871c 5dbc 5b97 ae3b 0e26 553a
000001f0: d783 43bc d747 b8bb 47c6 1d3c dcea 2839
00000200: a6f3 fd39 74d7 d7bb 6ae5 d5bc 6cc6 9cbb
00000210: b080 b6bc ff75 fbbb 1a49 9a3b 99b8 9abb
00000220: c178 443b abab 543b d0d3 ea3a 2ef9 f43b
00000230: 989e 953c a44b 553a 6c26 e8b9 2197 21bc
00000240: 908c e23c 299d c63a 45d0 79bc 73fa 353b
00000250: 5cb0 d03c a786 8bbb 174b 2e3d ac2d 4c3c
00000260: 66d1 833b e218 2d3c bf41 8ebc 7b2b 36bb
00000270: c50a 34bb 9bf4 473b 7414 bf3c 5539 2c3c
00000280: ba11 ea3b 6ec6 00bc 862f 023c e1c2 813c
00000290: 6cb9 2c3b e6e5 98bb 2382 0cbb 7436 84bb
000002a0: 7c3f 16bc bf69 773c c3ba bd3c 85a9 df3b
000002b0: b14b f6bb 37a7 d43a 4f31 b2bc 210d faba
000002c0: e25a 97bb dbda c0bb 6a3d 393c 61a8 f83b
000002d0: 0ba0 c5bc 2761 a1bc c17b 04bc f29b d33c
000002e0: 3066 d2bc f757 753c 74d0 8f3c 34d5 9ebc
000002f0: 29d2 c0bb cecc ee3b 60bd 14bc ebac 42bb
00000300: 36fa 533c ae32 083c 928a 21bb a14c a93c
00000310: 51fb c93c 2279 533c 1447 173d ceab f23b
00000320: 078f 4ebb 045b 9dbc ec19 423b eccd 16bc
00000330: c0e4 86bc ae79 f13b 893e 2bba c408 11bc
00000340: a6df 54ba 3164 223b 31f5 5bbb db72 4abb
00000350: 9fd6 a7bc 5122 20bc 37a2 95bc 7973 423a
00000360: fb9b 2fbc b4c9 4dbc 3a96 0cbc 8050 a8bc
00000370: 6a63 223c 7016 973c 36a7 c33b 932c f83b
00000380: 98c0 3d3c 102b e7bb 45b9 383c fe69 57bc
00000390: 4e85 b13c e013 e13c b2bd 2f3d 04cf 823c
000003a0: 99af e63c 3323 583b 856b 07bb 4ff1 0abc
000003b0: 2833 c43c a2e5 353c 9d7c 353d 70b6 163c
000003c0: 2169 d2bb 5700 8ebc 9c59 aabb 0eb0 56bc
000003d0: 7da1 07bc d542 b2bc 15cb d33a ee2f 913b
000003e0: fb73 eb3a e619 adbc 381f 23b9 a6a6 36bb
000003f0: f37c 19bc 1320 1ebc 5661 eebc 45f3 543c
0.014238687 -0.012787142 0.0053696837 0.0028566618 0.004867755 -0.0048561892 -0.0046405946 0.0044995965
0.011404742 -0.00042453714 0.004893067 -0.021947159 -0.004648135 -0.011311037 -0.014837936 -0.013961378
-0.011991928 0.0056300326 -0.012384836 -0.0056492914 -0.014322014 -0.0073219175 -0.0051066848 -0.0017492075
0.008084383 -0.007262675 0.015813762 -0.009298195 0.0028752103 -0.006131136 0.0029888202 -0.025308508
-0.0029858523 0.008807096 0.004620157 -0.018960875 -0.009790873 -0.0027321614 -0.009573266 0.010964252
-0.014867753 -0.0109202 0.0023330974 -0.019362332 0.0015905172 0.003738965 0.011831071 -0.0028655063
0.0028047208 0.0016428683 -0.017807962 0.005983676 -0.006641087 0.0074462187 0.0028723597 -0.0063925562
0.0016268444 0.0022519804 0.010710333 0.0072435713 -0.0074587204 0.0027534158 -0.009058571 -0.00887142
-0.016082259 0.02011292 -0.022728575 0.004528329 -0.0073213326 0.0064372923 0.032349985 -0.0059223347
0.011136889 -0.0066912305 -0.011683146 -0.017279608 0.008298948 0.00025274907 -0.011787082 -0.0036972123
0.010557834 0.013859096 0.0026007344 -6.7936744e-05 -0.0055559953 -0.009467926 -0.023620406 0.026736652
0.0035495143 0.023703853 -0.014489188 -0.014961569 -0.0069084656 -0.00944055 -0.011438253 0.012008077
0.004007375 0.021266613 -0.010908344 0.01347539 0.015601099 -0.012180502 -0.02810222 0.011034652
0.00805345 -0.0009388091 -0.0056871846 -0.00051773887 -0.010341484 0.0010815699 -0.007817857 0.016377982
-0.016290449 -0.010642525 2.1596734e-05 -0.007481381 -0.0039591785 -0.012571555 0.001384964 -0.003654428
0.0032115348 -0.013495571 0.0053281016 0.0008130976 -0.011933289 -0.0056237984 0.0096297925 0.0001610922
0.00048437453 -0.0065869633 -0.02611037 -0.004784396 -0.02227816 -0.0076739783 0.0047084214 -0.004721713
0.0029979201 0.0032450955 0.0017915908 0.0074759936 0.0182641 0.00081365765 -0.00044279115 -0.009862692
0.027654916 0.0015153039 -0.015247409 0.0027767688 0.02547472 -0.004257995 0.04255208 0.012462061
0.004022765 0.010565015 -0.017365335 -0.0027796912 -0.002747224 0.0030510786 0.023325182 0.010511716
0.0071432265 -0.007859809 0.007945901 0.015839996 0.0026355637 -0.004666078 -0.0021439872 -0.0040348116
-0.009170409 0.015100895 0.023160344 0.006825628 -0.0075163473 0.001622415 -0.021752028 -0.0019077399
-0.0046189884 -0.0058854646 0.011306146 0.0075884317 -0.024124166 -0.019699646 -0.008086146 0.025831196
-0.025683492 0.014974586 0.017555453 -0.019388773 -0.005884428 0.007287598 -0.009078354 -0.0029705118
0.012938073 0.008312864 -0.0024649245 0.020666422 0.02465597 0.012907298 0.03693302 0.0074057346
-0.0031518356 -0.019208439 0.0029617501 -0.009204369 -0.016466498 0.0073692417 -0.0006532451 -0.008852188
-0.00081204844 0.0024778957 -0.0033562894 -0.0030891213 -0.020488081 -0.009773807 -0.018265827 0.00074177195
-0.010718341 -0.012560297 -0.008580739 -0.020546198 0.0099113975 0.018443316 0.005970861 0.007573673
0.011581562 -0.007054694 0.01127464 -0.013147829 0.02167001 0.027475297 0.042905517 0.015967853
0.028159903 0.0032979965 -0.0020663452 -0.008480384 0.023950174 0.011102112 0.044308294 0.00919877
-0.0064212237 -0.017334146 -0.0051986706 -0.013103498 -0.008278248 -0.021760384 0.0016158546 0.0044307625
0.0017963642 -0.021130513 -0.00015556521 -0.0027870326 -0.009368169 -0.009651202 -0.029099148 0.012997453

feature_weight.bias f4 [50]
00000000: 6155 8ebb 9679 bd38 0000 0000 3731 00bb
00000010: 770a 05bb ec14 4eb7 df9c 833a 15ad d43a
00000020: bf1f 11bb 13ea 76ba 4d84 343c 4bbd 6c3b
00000030: 7db7 923b 2fe1 3e3b 0000 0000 93f3 f93a
00000040: 0000 0000 8e0c d438 8a5c c1ba bf36 9dbb
00000050: bfdf e53a e8d1 823b 8c97 183c 9674 9bba
00000060: 3b3a 853a eb5c 22b9 0000 0000 0aa2 dbba
00000070: 48e8 a93a 1317 f33a 0000 0000 c883 1fba
00000080: 05d4 fd3a b9b1 123b 8dbd 0a3a fa90 9f39
00000090: 972e 52ba bfa5 a6ba 9d2a 48b9 0000 0000
000000a0: 660b 293b 4f83 733b a6e7 79bb e4f6 543b
000000b0: 8001 0ab9 9e9f 6eba 30d1 623b c2ad 31bb
000000c0: 4630 9bbb 9561 49ba
-0.004343674 9.0348694e-05 0.0 -0.0019560584 -0.0020300427 -1.2283428e-05 0.0010041258 0.0016225899
-0.0022144166 -0.0009419035 0.011017871 0.003612357 0.00447744 0.002912592 0.0 0.0019069783
0.0 0.00010111286 -0.001475231 -0.004797786 0.0017537995 0.003992308 0.009313475 -0.0011860307
0.0010164449 -0.00015484139 0.0 -0.0016756665 0.0012962902 0.0018546305 0.0 -0.00060850056
0.0019365555 0.0022383763 0.00052925275 0.0003043486 -0.00080178067 -0.0012714191 -0.00019089361 0.0
0.0025794148 0.0037157123 -0.0038132458 0.003249579 -0.00013161264 -0.00091027643 0.0034609549 -0.0027111624
-0.0047359793 -0.00076820824

hidden_features.0.weight f4 [50, 8]
00000000: 6249 693c 2981 51bc 2cf4 af3b d536 3b3b
00000010: b081 9f3b ab20 9fbb 2110 98bb 5a71 933b
00000020: f4da 3a3c 6994 deb9 0556 a03b 87ca b3bc
00000030: 624f 98bb ed51 39bc d01a 73bc 43be 64bc
00000040: cb79 44bc 237c b83b c4e9 4abc b11d b9bb
00000050: e1a6 6abc b2ec efbb fa55 a7bb aa45 e5ba
00000060: 5c74 043c bcfb edbb dd8b 813c 7557 18bc
00000070: 066e 3c3b b2e7 c8bb 15e0 433b ca53 cfbc
00000080: 4aae 43bb a34b 103c b064 973b d653 9bbc
00000090: e669 20bc 100e 33bb 30d9 1cbc 68a3 333c
000000a0: e097 73bc a3ea 32bc e1e6 183b c19d 9ebc
000000b0: e778 d03a 6c09 753b 1cd7 413c 38cb 3bbb
000000c0: 68cf 373b 8355 d73a 01e2 91bc b612 c43b
000000d0: 7a9d d9bb 69ff f33b 333e 3c3b a678 d1bb
000000e0: d73b d53a f695 133b 647a 2f3c 7b5b ed3b
000000f0: 4868 f4bb a772 343b 676a 14bc 6f59 11bc
00000100: f1be 83bc dac3 a43c 4731 babc 6062 943b
00000110: cae7 efbb ecef d23b 6b81 043d 2510 c2bb
00000120: 8077 363c 1c42 dbbb aa6a 3fbc f78d 8dbc
00000130: 50f8 073c 6883 8439 9b1e 41bc ee4c 72bb
00000140: c4fa 2c3c 4311 633c 1571 2a3b 4379 8eb8
00000150: 110f b6bb 5c1f 1bbc 957f c1bc d306 db3c
00000160: f89e 683b 952e c23c 0f64 6dbc 5e21 75bc
00000170: 6960 e2bb 89ac 1abc 8367 3bbc 87bd 443c
00000180: 4c50 833b 5237 ae3c e9b8 32bc e2c7 5c3c
00000190: c09b 7f3c ba90 47bc a036 e6bc afca 343c
000001a0: 9ef2 033c 6a1a 76ba 905b babb deb8 07ba
000001b0: 546f 29bc 77c3 8d3a 7816 00bc 1e2b 863c
000001c0: 8c73 85bc fc5d 2ebc a22a b537 5f26 f5bb
000001d0: ffbb 81bb ecf8 4dbc ae87 b53a 217f 6fbb
000001e0: 9d78 523b 871c 5dbc 5b97 ae3b 0e26 553a
000001f0: d783 43bc d747 b8bb 47c6 1d3c dcea 2839
00000200: a6f3 fd39 74d7 d7bb 6ae5 d5bc 6cc6 9cbb
00000210: b080 b6bc ff75 fbbb 1a49 9a3b 99b8 9abb
00000220: c178 443b abab 543b d0d3 ea3a 2ef9 f43b
00000230: 989e 953c a44b 553a 6c26 e8b9 2197 21bc
00000240: 908c e23c 299d c63a 45d0 79bc 73fa 353b
00000250: 5cb0 d03c a786 8bbb 174b 2e3d ac2d 4c3c
00000260: 66d1 833b e218 2d3c bf41 8ebc 7b2b 36bb
00000270: c50a 34bb 9bf4 473b 7414 bf3c 5539 2c3c
00000280: ba11 ea3b 6ec6 00bc 862f 023c e1c2 813c
00000290: 6cb9 2c3b e6e5 98bb 2382 0cbb 7436 84bb
000002a0: 7c3f 16bc bf69 773c c3ba bd3c 85a9 df3b
000002b0: b14b f6bb 37a7 d43a 4f31 b2bc 210d faba
000002c0: e25a 97bb dbda c0bb 6a3d 393c 61a8 f83b
000002d0: 0ba0 c5bc 2761 a1bc c17b 04bc f29b d33c
000002e0: 3066 d2bc f757 753c 74d0 8f3c 34d5 9ebc
000002f0: 29d2 c0bb cecc ee3b 60bd 14bc ebac 42bb
00000300: 36fa 533c ae32 083c 928a 21bb a14c a93c
00000310: 51fb c93c 2279 533c 1447 173d ceab f23b
00000320: 078f 4ebb 045b 9dbc ec19 423b eccd 16bc
00000330: c0e4 86bc ae79 f13b 893e 2bba c408 11bc
00000340: a6df 54ba 3164 223b 31f5 5bbb db72 4abb
00000350: 9fd6 a7bc 5122 20bc 37a2 95bc 7973 423a
00000360: fb9b 2fbc b4c9 4dbc 3a96 0cbc 8050 a8bc
00000370: 6a63 223c 7016 973c 36a7 c33b 932c f83b
00000380: 98c0 3d3c 102b e7bb 45b9 383c fe69 57bc
00000390: 4e85 b13c e013 e13c b2bd 2f3d 04cf 823c
000003a0: 99af e63c 3323 583b 856b 07bb 4ff1 0abc
000003b0: 2833 c43c a2e5 353c 9d7c 353d 70b6 163c
000003c0: 2169 d2bb 5700 8ebc 9c59 aabb 0eb0 56bc
000003d0: 7da1 07bc d542 b2bc 15cb d33a ee2f 913b
000003e0: fb73 eb3a e619 adbc 381f 23b9 a6a6 36bb
000003f0: f37c 19bc 1320 1ebc 5661 eebc 45f3 543c
0.014238687 -0.012787142 0.0053696837 0.0028566618 0.004867755 -0.0048561892 -0.0046405946 0.0044995965
0.011404742 -0.00042453714 0.004893067 -0.021947159 -0.004648135 -0.011311037 -0.014837936 -0.013961378
-0.011991928 0.0056300326 -0.012384836 -0.0056492914 -0.014322014 -0.0073219175 -0.0051066848 -0.0017492075
0.008084383 -0.007262675 0.015813762 -0.009298195 0.0028752103 -0.006131136 0.0029888202 -0.025308508
-0.0029858523 0.008807096 0.004620157 -0.018960875 -0.009790873 -0.0027321614 -0.009573266 0.010964252
-0.014867753 -0.0109202 0.0023330974 -0.019362332 0.0015905172 0.003738965 0.011831071 -0.0028655063
0.0028047208 0.0016428683 -0.017807962 0.005983676 -0.006641087 0.0074462187 0.0028723597 -0.0063925562
0.0016268444 0.0022519804 0.010710333 0.0072435713 -0.0074587204 0.0027534158 -0.009058571 -0.00887142
-0.016082259 0.02011292 -0.022728575 0.004528329 -0.0073213326 0.0064372923 0.032349985 -0.0059223347
0.011136889 -0.0066912305 -0.011683146 -0.017279608 0.008298948 0.00025274907 -0.011787082 -0.0036972123
0.010557834 0.013859096 0.0026007344 -6.7936744e-05 -0.0055559953 -0.009467926 -0.023620406 0.026736652
0.0035495143 0.023703853 -0.014489188 -0.014961569 -0.0069084656 -0.00944055 -0.011438253 0.012008077
0.004007375 0.021266613 -0.010908344 0.01347539 0.015601099 -0.012180502 -0.02810222 0.011034652
0.00805345 -0.0009388091 -0.0056871846 -0.00051773887 -0.010341484 0.0010815699 -0.007817857 0.016377982
-0.016290449 -0.010642525 2.1596734e-05 -0.007481381 -0.0039591785 -0.012571555 0.001384964 -0.003654428
0.0032115348 -0.013495571 0.0053281016 0.0008130976 -0.011933289 -0.0056237984 0.0096297925 0.0001610922
0.00048437453 -0.0065869633 -0.02611037 -0.004784396 -0.02227816 -0.0076739783 0.0047084214 -0.004721713
0.0029979201 0.0032450955 0.0017915908 0.0074759936 0.0182641 0.00081365765 -0.00044279115 -0.009862692
0.027654916 0.0015153039 -0.015247409 0.0027767688 0.02547472 -0.004257995 0.04255208 0.012462061
0.004022765 0.010565015 -0.017365335 -0.0027796912 -0.002747224 0.0030510786 0.023325182 0.010511716
0.0071432265 -0.007859809 0.007945901 0.015839996 0.0026355637 -0.004666078 -0.0021439872 -0.0040348116
-0.009170409 0.015100895 0.023160344 0.006825628 -0.0075163473 0.001622415 -0.021752028 -0.0019077399
-0.0046189884 -0.0058854646 0.011306146 0.0075884317 -0.024124166 -0.019699646 -0.008086146 0.025831196
-0.025683492 0.014974586 0.017555453 -0.019388773 -0.005884428 0.007287598 -0.009078354 -0.0029705118
0.012938073 0.008312864 -0.0024649245 0.020666422 0.02465597 0.012907298 0.03693302 0.0074057346
-0.0031518356 -0.019208439 0.0029617501 -0.009204369 -0.016466498 0.0073692417 -0.0006532451 -0.008852188
-0.00081204844 0.0024778957 -0.0033562894 -0.0030891213 -0.020488081 -0.009773807 -0.018265827 0.00074177195
-0.010718341 -0.012560297 -0.008580739 -0.020546198 0.0099113975 0.018443316 0.005970861 0.007573673
0.011581562 -0.007054694 0.01127464 -0.013147829 0.02167001 0.027475297 0.042905517 0.015967853
0.028159903 0.0032979965 -0.0020663452 -0.008480384 0.023950174 0.011102112 0.044308294 0.00919877
-0.0064212237 -0.017334146 -0.0051986706 -0.013103498 -0.008278248 -0.021760384 0.0016158546 0.0044307625
0.0017963642 -0.021130513 -0.00015556521 -0.0027870326 -0.009368169 -0.009651202 -0.029099148 0.012997453

hidden_features.0.bias f4 [50]
00000000: 6155 8ebb 9679 bd38 0000 0000 3731 00bb
00000010: 770a 05bb ec14 4eb7 df9c 833a 15ad d43a
00000020: bf1f 11bb 13ea 76ba 4d84 343c 4bbd 6c3b
00000030: 7db7 923b 2fe1 3e3b 0000 0000 93f3 f93a
00000040: 0000 0000 8e0c d438 8a5c c1ba bf36 9dbb
00000050: bfdf e53a e8d1 823b 8c97 183c 9674 9bba
00000060: 3b3a 853a eb5c 22b9 0000 0000 0aa2 dbba
00000070: 48e8 a93a 1317 f33a 0000 0000 c883 1fba
00000080: 05d4 fd3a b9b1 123b 8dbd 0a3a fa90 9f39
00000090: 972e 52ba bfa5 a6ba 9d2a 48b9 0000 0000
000000a0: 660b 293b 4f83 733b a6e7 79bb e4f6 543b
000000b0: 8001 0ab9 9e9f 6eba 30d1 623b c2ad 31bb
000000c0: 4630 9bbb 9561 49ba
-0.004343674 9.0348694e-05 0.0 -0.0019560584 -0.0020300427 -1.2283428e-05 0.0010041258 0.0016225899
-0.0022144166 -0.0009419035 0.011017871 0.003612357 0.00447744 0.002912592 0.0 0.0019069783
0.0 0.00010111286 -0.001475231 -0.004797786 0.0017537995 0.003992308 0.009313475 -0.0011860307
0.0010164449 -0.00015484139 0.0 -0.0016756665 0.0012962902 0.0018546305 0.0 -0.00060850056
0.0019365555 0.0022383763 0.00052925275 0.0003043486 -0.00080178067 -0.0012714191 -0.00019089361 0.0
0.0025794148 0.0037157123 -0.0038132458 0.003249579 -0.00013161264 -0.00091027643 0.0034609549 -0.0027111624
-0.0047359793 -0.00076820824

hidden_features.2.weight f4 [50, 50]
00000000: 62b9 6fbc 92e4 cc3c e2df ca3b a55c 5d3c
00000010: 5421 cebc 71e9 9e3c 21e6 a0bc 7e82 153b
00000020: c769 1d3c 72a6 a0bb 42c3 43bc c7f6 2a3b
00000030: 850f 733c 0923 8ab8 a9dc d3bb 112b 8e3a
00000040: 0c82 e7bb e25c 643b d24a 273c ade5 c0bb
00000050: 3a88 23bc 7021 563c 7aab 0bbc 2e35 59ba
00000060: 7262 80bc 7535 2c3c ab68 793b 9cad 823b
00000070: f145 17bc a0f7 49bc 3c46 e2ba fc9e 63bc
00000080: 64c2 7e3b a96b 053c 0b67 9dbc 7bc9 5cbc
00000090: 7675 463b 6827 dbbb 3c0e 33bc cf27 c6bc
000000a0: 160e b13b 3aad abbb b9cc db3b 9b60 37bc
000000b0: 2400 3e3b cda5 573c 7b6d 0bbc 4187 243b
000000c0: 5078 593b 4185 08bc 0a2e 97bc 50fb 473a
000000d0: 027d 5d3c 2fd1 eb3b 8dbe d8bb fdc4 a53a
000000e0: c4a0 52bc 3721 103b 9d62 babc 8273 173b
000000f0: a487 093d efa2 583a f0f4 8d3c fa50 a33c
00000100: 4f6a c739 766a 5d3c 8d36 8a3a 44de 55bc
00000110: d8b9 02bd 4fb3 acbc 9a53 a93c 4407 b93b
00000120: 57d2 083d e67a a2bc ea6c 55bc 2059 c13b
00000130: a772 cebb ea4c 2bbc 9bfb ebbc a7a7 13bd
00000140: bfd8 683c 4967 563c 7fbc 9f3b 99f3 e7bb
00000150: ff15 383c 2a6c 97bb 167b 20bc 9123 a53b
00000160: a455 1ebc 3f0d 0d3c 28ad 4d3c ace7 11bc
00000170: 8b36 04bd 7c86 153c a104 aa3a ff75 303b
00000180: fb0d 0f3c edb3 01bd f306 b13b 0e97 6e3c
00000190: 273e cbbb 671b 13bc 5434 a7bc 147e 053c
000001a0: 195e 08bb 0394 423c 9959 203c 1ca6 33bb
000001b0: e4b0 8ebb 17f8 d5bb b290 05bc 712b 853c
000001c0: e693 a73c e52f bcbb 8db7 03bc 8808 1d3b
000001d0: 80c0 84ba 268f cb3c 6010 04bc e540 50bc
000001e0: d7f2 803a 7487 acbb e3fd 63bb 2793 a33c
000001f0: 787d e73b bc75 6c3c f834 b63c 7651 37bc
00000200: 75bd 06bc c7b2 ae3b ef77 653c 9e71 63bb
00000210: 9187 85ba af33 6dbc e440 96bc e8d5 083c
00000220: 0779 69bb 482e 233b f585 1d3c 23d6 ac38
00000230: 85d7 0ebc d863 53bc e705 bbbc a740 b4bb
00000240: b0f7 513c ca9b 2d3c e01d b8bb e60e b6bb
00000250: c21f c0bb 9d3a a7bb 2d6a 75bc 8f85 e9bb
00000260: b19f 83b9 9c11 6dbb 37c4 8a3c 8379 0fbc
00000270: cbd7 863a 147f 58bb 1ffc 60bc 02ed 3d3c
00000280: 1784 2c3c ff75 2bbc 8624 82bb 695d 473c
00000290: 8f4d 403b 8ada 3f3b 581e 853b 9499 ceba
000002a0: 057e c63b e4e3 85bc 1b55 2e3b 14d9 8a3c
000002b0: 167a 9cbb 83e6 ccbc dcad 81bb 9f11 6a3c
000002c0: 39e7 af3c 56f1 24bc 9fa7 29bc a853 983c
000002d0: ecf1 793b 8bd5 933b c71e 54ba d84c 533c
000002e0: d026 033c 9175 ac3a 42e8 8f3c eea3 013b
000002f0: d35a 9cbb 06b8 a8bb 992b 1ebc ecca b3b9
00000300: 7e63 9d3b 9bb9 753c 8ac7 8ebb 8031 773a
00000310: 6336 b4bc 0930 4b3c 1777 8dbc 9331 2cbc
00000320: a17b 52bb 3a11 413c d3a3 29bc 9daf 95bb
00000330: d856 333b 96a9 463a d329 7b3c 3a83 893b
00000340: 9816 78bc d3b6 93bc fd16 05bc c1c4 fc3b
00000350: 02b6 8b3b 088f bd3c 80eb 0d3c 42b3 25bc
00000360: ff21 5e3b 1650 043b bfd0 a03c 3bc1 be3b
00000370: 6a0a 2f3b c8da e13b cece 573b 0533 9e3c
00000380: b2d3 f43b 46c3 ba3b c0fa adbb 602c b9bc
00000390: 24e1 abbb d0f8 55bc 97ae e73b 2d30 9bbb
000003a0: 9805 7c3b 4005 6e3c 598c a2ba 96a8 1cbc
000003b0: fc48 a7bc 729b 943a 1311 09bc 4ccb d63b
000003c0: f303 383c 40a6 573b ec10 33bc f2fb a23a
000003d0: 65ae 41bb 8355 33bb 9532 f73b eb09 efbb
000003e0: a4d6 c5bc e353 cdbc 2567 183c a17d 233c
000003f0: 9649 92bc 97c1 913c 0938 ae39 9f3a 48bc
-0.014631601 0.025011335 0.0061912397 0.013510858 -0.025162376 0.019398423 -0.019640984 0.0022813375
0.009607739 -0.0049026543 -0.011948409 0.0026087032 0.014835243 -6.5868786e-05 -0.0064655137 0.0010846575
-0.0070650633 0.0034845402 0.01021071 -0.0058867545 -0.009981209 0.013069496 -0.00852477 -0.00082858175
-0.015671942 0.010510792 0.0038056772 0.003987981 -0.009232984 -0.012327105 -0.0017263363 -0.013892885
0.003887319 0.008143344 -0.019214174 -0.013475771 0.0030282415 -0.006688047 -0.010928687 -0.024188904
0.0054032905 -0.005239156 0.0067077545 -0.011192466 0.0028991783 0.013162089 -0.008509989 0.0025105032
0.0033183284 -0.008332551 -0.01845457 0.0007628696 0.013518574 0.0071965675 -0.0066145123 0.0012647208
-0.012855712 0.0021992454 -0.0227521 0.002310962 0.033576623 0.0008264025 0.01732871 0.019936074
0.00038035444 0.013514152 0.0010544822 -0.013053481 -0.031915516 -0.021081595 0.020669747 0.005646618
0.03340372 -0.019833993 -0.013026455 0.005900517 -0.0063002887 -0.010455349 -0.028806498 -0.036048558
0.014211833 0.013086149 0.0048747654 -0.0070785997 0.011235713 -0.0046210485 -0.009794971 0.0050396402
-0.009663973 0.008609115 0.012553491 -0.008905333 -0.03227858 0.009126302 0.001297135 0.00269258
0.008731361 -0.03166573 0.0054024397 0.014562381 -0.0062024775 -0.008978701 -0.020410694 0.008147735
-0.002080804 0.011876109 0.009786987 -0.0027412241 -0.004354583 -0.0065298188 -0.008152174 0.016256066
0.020456266 -0.005743014 -0.008039367 0.0023961384 -0.001012817 0.024848532 -0.008060545 -0.012710785
0.0009837997 -0.0052651707 -0.003478878 0.019967629 0.0070645176 0.014432367 0.022242054 -0.011188855
-0.008223881 0.0053313705 0.014005645 -0.0034705172 -0.0010187497 -0.014477654 -0.01834149 0.0083517805
-0.0035625116 0.0024899412 0.009614457 8.241485e-05 -0.008718376 -0.012902223 -0.022829963 -0.005500871
0.012815401 0.010596225 -0.0056187958 -0.0055559753 -0.005863161 -0.005103423 -0.014978928 -0.007126517
-0.00025105246 -0.0036173826 0.016939266 -0.008756998 0.00102877 -0.003303473 -0.013731985 0.011592152
0.01052954 -0.010465144 -0.003971639 0.012168267 0.0029343104 0.0029274547 0.004062455 -0.0015762323
0.006057503 -0.016344018 0.002660102 0.016949214 -0.004775296 -0.02501226 -0.003957493 0.014286428
0.02147256 -0.010067305 -0.010354905 0.018594578 0.0038138581 0.0045115403 -0.00080917444 0.012896739
0.008004859 0.0013157596 0.017566804 0.0019781548 -0.0047715693 -0.0051488904 -0.009653949 -0.0003429273
0.00480312 0.014997865 -0.004357283 0.00094296783 -0.02199859 0.012401589 -0.0172687 -0.010509866
-0.0032117146 0.011783892 -0.010354 -0.004568054 0.0027364995 0.0007578371 0.015329796 0.0041965516
-0.0151421055 -0.018031513 -0.008123157 0.0077138846 0.0042636404 0.023139492 0.008662105 -0.010113539
0.0033894775 0.0020189337 0.019630788 0.0058213747 0.0026709088 0.006892536 0.0032929662 0.019311437
0.007471525 0.005699548 -0.0053094327 -0.022604167 -0.0052453447 -0.01305981 0.0070703733 -0.0047359676
0.0038455483 0.014527619 -0.0012401446 -0.009561678 -0.020420544 0.001133783 -0.008365887 0.0065549966
0.01123141 0.003290549 -0.010929327 0.0012434705 -0.002955341 -0.0027364201 0.0075438716 -0.0072948835
-0.0241502 -0.025064414 0.009301935 0.009978683 -0.017857354 0.017792506 0.00033229616 -0.012221008

hidden_features.2.bias f4 [50]
00000000: 164d 0c34 cc9b 293d ae35 a4ba c434 ea3c
00000010: 323f 9aba 9c5b b0ba 7756 95b9 9280 0aba
00000020: 9bc3 46bb 0d00 62bb 5693 3cbb c4ad 7bbb
00000030: e9b2 f73c acff feba ab8a 3638 5ddf 1abb
00000040: 02e6 a3bb d12a c43b 2e7f 12bb 53d2 8bba
00000050: b79b 543c f9d2 fb36 afbe 063c 893d 373c
00000060: 8413 8739 edbf 8c3c 6551 89bb 2454 d03c
00000070: bff3 763c 4c10 33bb 6569 713c 5e5f 16bb
00000080: 6d71 35bb cd36 993c 4fa5 2abb 0000 0000
00000090: b51c 353b c7af 17bb 9355 7cba 8f62 083d
000000a0: 72b1 aeba d8cf 143d a864 43bb 0000 0000
000000b0: 968d 9cba fb70 f03c cb93 8aba 2a1c a435
000000c0: c8f1 bdba bd52 303c
1.306656e-07 0.041408345 -0.0012528205 0.028589614 -0.0011768101 -0.0013455036 -0.00028483916 -0.00052834407
-0.0030328992 -0.0034484894 -0.0028774342 -0.0038403133 0.030236678 -0.0019454858 4.3521326e-05 -0.002363167
-0.0050017843 0.0059865494 -0.0022353637 -0.001066754 0.012976578 7.5049434e-06 0.008224173 0.011184105
0.00025763747 0.017181361 -0.004190611 0.025430746 0.015072762 -0.0027322946 0.014734601 -0.0022945027
-0.0027686015 0.018702889 -0.0026038473 0.0 0.002763552 -0.0023145543 -0.00096257887 0.033297118
-0.0013328029 0.036331028 -0.0029814634 0.0 -0.0011944051 0.029350748 -0.001057261 1.2227149e-06
-0.0014491612 0.010761914

density_estimator_head.weight f4 [50, 11]
00000000: f57b 273a 6320 1d3b aafb 123a 0954 55bc
00000010: 091d 523c 9566 a03a c2bf 703a a993 103c
00000020: be5d 383c 3ee7 aabb d081 23bb b1f5 d6ba
00000030: ef21 35bb 36c4 c6bb ee99 0cbc d1b8 763c
00000040: 8223 b4bb 6f1f 563b d01f e0bb 2069 0c3b
00000050: a93f 033c 77d5 2c3c bb2c 553c 990c 7abb
00000060: ea0d e63b d1bd 8ebc 487b b0bb f86c 623a
00000070: b8e5 7cbb 6721 253c f660 7639 a370 da3b
00000080: 5020 8bbc c5ef d5bb 72a6 343a 8552 a43b
00000090: c95a 223b 0256 4bbc 8f06 a23b c579 3f3b
000000a0: 4cb0 643c c774 313c 8b37 4bbc fe7e d93b
000000b0: 4d71 2ebc a597 93bb 3eab 1dbb c77c 9a39
000000c0: 24cd 91bc 37d7 813c 0088 953b 56dc 86bc
000000d0: 73fb 56bc 2174 29bc f8be d13b bc0d 7fbb
000000e0: 29d6 d93b 8b8d 03bc 6ce9 93bb 139c 8abc
000000f0: 0576 8c3a 8538 0abc f1e5 80bb 2c7e c2bc
00000100: c1f4 d638 3933 023c 7213 23bc 4ff6 8b3b
00000110: e4f6 693a cf34 5cb8 9888 0dbc 0b8d 05bc
00000120: 023b 1c3c 4c38 0b3c 1d71 8d3b 943b 2e3c
00000130: 16dd b8ba 445e 42bb fc7d c0ba 0c22 d93a
00000140: ca62 e8bb 9429 5f3b cd68 ecbb 2a86 8cbb
00000150: c4e6 87bb 3b7c ab3b 7213 a6bc ee42 adbc
00000160: d665 acbb 29fd 3b3c e080 e1bb c108 c1bc
00000170: db7f 1f3c ce0f 993b e976 35bb 87e9 49bc
00000180: b0cc 28bb 2359 21bc 9788 fd3a f0ed 603c
00000190: 0002 01bc ce8f 3ebb fea2 4c3c 6ba3 003c
000001a0: af8a 1abb 8c88 5b3c 2575 f33c b763 953a
000001b0: 5172 83bc fea8 02bb ec51 323b 6d77 f73b
000001c0: b2ed 273c c179 943b 3b31 50bc ea2c 623b
000001d0: 49c9 34bc de28 84bc 38c8 edbb e47c bd3b
000001e0: b4fb ea3b b55c 41bb 37f8 71bb cdc3 03bc
000001f0: 4ef9 a0bb dc00 96bb 392c ae3b f3e1 003c
00000200: 7869 513b 705a c63b 64b2 543b 3e65 f93b
00000210: 7e22 a03c ccb7 9c3c f853 7cbb 812a df3b
00000220: 0e37 5c3c 9eb7 5abc 9755 1f3b 9962 b53b
00000230: 0b42 313c 6c12 0e3c 7775 013c abbd ecbb
00000240: 6dfb 06bc b1fb 1fbc 5559 a5bb f36a b33b
00000250: 09f2 bf3a eeb2 bebb 3079 983c 0554 fbba
00000260: f9fe f83b 55c2 c6b9 77f8 8c3a 52bf 1d3c
00000270: 35d7 c33a bf50 a83b 6ae4 9d3c 1bcb 0a3d
00000280: 79b9 77bc afbf 203c 0a8f 6c3b 57c8 a13c
00000290: 3bdd 633c 46ec 983b 4f04 89bc e802 2dbc
000002a0: ac87 ac3c 893e 273a f852 2b3b 2208 47bb
000002b0: e0ff 70bc 9812 43bb f0c6 2e3c 4d6d db3b
000002c0: 5c22 0f3c 6506 e8bb 5f11 d33c 797d 0e3c
000002d0: babf 6ebc 3e44 5739 1d19 02bc a629 b83b
000002e0: bbb4 34bc 67a0 2bbc 77e3 d83b 855a b73b
000002f0: c727 b2bb b853 bcba 3cb6 323c 0d8e 913b
00000300: eaea 73bc 4ee8 3dbc 78be 4fbc 36b6 253c
00000310: 13db 083c 67c6 4abb d2d8 e23b cbc7 423c
00000320: a6f9 38bc f4d8 54ba 0fc1 0bbb d4bc 993c
00000330: 3aa5 80bc d17c d2ba b738 8ebc 5495 9b3b
00000340: 56f9 34bc 90f9 51bb 6c64 28ba f603 793a
00000350: 5ee8 8fbc acb8 0f3c 9fbd 993b 51d4 393b
00000360: c51d 6fbc c540 52bc 66d6 863c 1eee a23a
00000370: 877f 593c 2f0c cabb dadb e6bb 682c 4c39
00000380: 78f2 af3b 758a 623c 9640 32bc 44a1 e1bb
00000390: 366f e2ba a706 fe3a 7d58 49bc 7b09 853c
000003a0: 3179 59ba 2e10 a7ba 072c 65bb f72a 8cbb
000003b0: 2c18 443c 3530 a6bb 39a2 95bc 91ee 303b
000003c0: 4871 d43b e414 bbbc fd97 723c c62d a63b
000003d0: 1587 e5bb 5940 68bc a069 293c 3002 1f3c
000003e0: 4f72 903c 7576 c4bb d1fa 753c 6be5 3a3c
000003f0: 56ce 393c 42f2 2a3c 3734 a43c e531 97ba
0.00063890155 0.0023975603 0.0005606959 -0.013020524 0.012824305 0.0012237603 0.00091838476 0.008824267
0.011252819 -0.0052155545 -0.00249492 -0.0016400126 -0.0027638634 -0.0060658706 -0.008581622 0.015058712
-0.005497397 0.0032672544 -0.00683973 0.0021424964 0.008010783 0.010548941 0.013011153 -0.0038154481
0.0070207017 -0.017424496 -0.00538579 0.00086374534 -0.0038589071 0.0100787645 0.00023496509 0.0066662594
-0.016983181 -0.006528827 0.00068912574 0.00501472 0.002477335 -0.012410643 0.0049446295 0.0029216867
0.013958048 0.010831065 -0.012403379 0.006637453 -0.01064713 -0.0045041614 -0.0024058367 0.00029466135
-0.017798014 0.015849693 0.0045633316 -0.016462486 -0.013121474 -0.010342629 0.006400939 -0.0038918098
0.0066478443 -0.008029352 -0.00451391 -0.016920125 0.0010716325 -0.008436327 -0.003933661 -0.023741804
0.00010249904 0.007946783 -0.009953367 0.0042713056 0.0008925034 -5.250127e-05 -0.0086385235 -0.008151303
0.009535553 0.008497309 0.0043164627 0.010634322 -0.0014103975 -0.0029658237 -0.0014685984 0.0016565933
-0.0070918547 0.0034051882 -0.0072146417 -0.0042884545 -0.0041473825 0.0052333153 -0.020272944 -0.021150079
-0.005261163 0.011473932 -0.006881818 -0.023563745 0.009735073 0.0046710735 -0.0027689284 -0.012323744
-0.002575677 -0.009847912 0.0019343075 0.013728604 -0.007874012 -0.0029077413 0.012490032 0.007851462
-0.0023581197 0.0133992545 0.029718945 0.0011397515 -0.016045721 -0.0019937153 0.0027209474 0.0075520785
0.010249542 0.0045311158 -0.01270705 0.0034511634 -0.011034318 -0.016132768 -0.007256534 0.0057827104
0.0071711186 -0.002950472 -0.003692163 -0.008042288 -0.004912532 -0.004577739 0.0053153303 0.0078663705
0.0031953733 0.0060532615 0.0032454962 0.007610946 0.019547697 0.01913061 -0.0038502198 0.006810487
0.01344086 -0.013349442 0.002431249 0.0055354354 0.0108189685 0.008671384 0.007901541 -0.0072247586
-0.0082386555 -0.009764598 -0.0050460496 0.005475396 0.0014644276 -0.00581967 0.018612474 -0.001917482
0.0075987545 -0.00037910292 0.0010755201 0.009628134 0.0014941456 0.005136579 0.019273955 0.033885103
-0.015119904 0.009811326 0.0036096 0.01974885 0.013907726 0.004666838 -0.016725687 -0.010559775
0.021060787 0.0006379863 0.0026141983 -0.0030369838 -0.014709443 -0.0029765721 0.010667548 0.0066963793
0.008736219 -0.0070808404 0.02576512 0.008696907 -0.014572078 0.0002052942 -0.007940558 0.0056201993
-0.011029418 -0.010475255 0.006618913 0.0055955076 -0.0054368707 -0.0014368212 0.010907706 0.0044419826
-0.014887551 -0.01159103 -0.012679689 0.010114243 0.008353013 -0.003094101 0.0069228197 0.011888455
-0.01128999 -0.0008119487 -0.0021324789 0.018766798 -0.015703786 -0.0016058927 -0.017361028 0.004748026
-0.011045774 -0.003203962 -0.00064236554 0.00094991864 -0.017566856 0.008772057 0.004691794 0.002835531
-0.0145945 -0.012832825 0.016459655 0.0012430584 0.013275034 -0.006166003 -0.0070452513 0.00019471499
0.0053694807 0.013826956 -0.010879656 -0.0068856794 -0.0017275575 0.0019380645 -0.012289164 0.016239872
-0.0008295952 -0.0012745911 -0.003496887 -0.0042775827 0.011968654 -0.0050716647 -0.01826583 0.0026997665
0.0064832307 -0.02283711 0.014806745 0.0050713746 -0.0070046284 -0.014175498 0.010340124 0.009705111
0.017632632 -0.0059955665 0.015013413 0.011407237 0.011340698 0.010433735 0.02004443 -0.0011535255

density_estimator_head.bias f4 [11]
00000000: f650 0ebd bf51 c8bc 616f dfbb 466c 23bc
00000010: 93fd 643a 7516 ee3a 15ee c63b 065c 933b
00000020: 3641 a53b 5b6c 0c3d adc0 bf3c
-0.03474518 -0.024453042 -0.0068186973 -0.009974545 0.0008735295 0.0018164652 0.006070862 0.004497054
0.005043174 0.034283023 0.023407305

Q1.0.weight f4 [50, 50, 5]
00000000: 051d b1be 9217 a43f d7cd 023f 37d8 09be
00000010: 8340 e5be 9e4b 1ebf b841 2bbe e34d 66bf
00000020: 1daf 853e 6bfb ba3f 7077 a2bf 652c 6fbf
00000030: d342 92bf a2c0 8c3e f916 c83d ad9b cfbf
00000040: 9986 e7be 8379 18bf fba4 4e3c 7df7 5ebe
00000050: fa02 83be efb4 1bbe a0b2 af3d 8c46 5dbe
00000060: d0b4 9cbf a8ce aebf 0c78 c03f 143e bb3f
00000070: c81b ecbe 5256 ca3e 0c56 e03d 5396 abbf
00000080: d2ad c23e 1285 87bf 81c1 5ebf 0037 b4bc
00000090: 68ee 7fbf 1b80 fcbe b6a9 ff3e 104b 513f
000000a0: 9d3f 51bf bd22 d13b e13f 483d 3f50 953d
000000b0: 1237 72bf e4b6 5fbf 8559 d43e 661f 273f
000000c0: 0ea9 533e 17c1 b9be d823 383f 7489 ee3f
000000d0: eb8c d8bf ed75 923f 2a9f b43f c845 77bf
000000e0: ead3 16c0 d55f 1d3f b962 3dbf 864b 70bf
000000f0: 39fa 3f3e 1a7d 593f 15c6 903e ce47 6dbf
00000100: 47f8 24bf 7ed6 20bf fb63 1bc0 1c1c 39be
00000110: da36 653f 5897 dabe 2a3b 2abf d2fd 04bf
00000120: 0c58 c33e 5361 28bf de7b a03f 0090 943f
00000130: d240 70bf b5e1 7cbf dbf4 a4bf 114e d43e
00000140: 0759 5fbf a393 68bf dc98 babf 12ef f4be
00000150: 5b15 3dbf 385e 95bf d4ef e13d 4955 a43e
00000160: b8e8 843e ec39 143e f7d7 edbd a1d3 9c3e
00000170: 608c 70bf 1d9f b73d f6c8 c0bd 9b01 88bd
00000180: af43 78bf d96c f83d f257 60bf c996 ddbf
00000190: 387c 3dbe 2f4b 8bbf ec0e bebf 5278 4ebe
000001a0: e417 293f e99c 4fbf 2aa5 ddbe f890 2b3f
000001b0: 08f9 203e 696f 923e b351 a7bf 45d3 7dbf
000001c0: c06d f43e 40e3 4cbf 52e6 b73d dc76 0340
000001d0: 287e e93f b7bc 03be 8401 a3be 64cc 843f
000001e0: 299b bfbf 12c4 e03e fb56 3fbf 895a 3e3f
000001f0: ff10 143f 3e6b 19bf b3a5 f13e 19a1 96bf
00000200: a38d 2ebf 572c 75bf a033 f8bf 0b2f a6bc
00000210: 9fe1 1abf 75a7 8ebe 9f43 343f 7683 9e3f
00000220: 64f0 a8bf 79af 12bf a6c4 03bf be59 d5bf
00000230: 483c ac3e 17f7 763f f931 aabf d5a6 ad3f
00000240: d78f 2cbf 6fab 6bbf 41c5 303f 54c5 1c3f
00000250: a90b 90bf 7b87 4b3f 3247 eb3f ccde 083f
00000260: bfef 91bf b259 4abf 6f83 9ebf 7c00 c23e
00000270: 7341 1640 048e 473e fcd6 b73f fd75 cb3f
00000280: 68d0 463f d977 d83e 7a50 8e3f 2d17 453f
00000290: b520 d93e 066c cd3f 4027 d7bf 6265 0ebf
000002a0: e769 c53e 2357 5f3f 3bfb 943e 71ac 8ebe
000002b0: dd4f 04bf f735 a0bf cb8b 1cbf bdbc fbbc
000002c0: f847 0dc0 46b8 dabd 40db 543f 29b6 ccbe
000002d0: c351 fa3f c26d 83bf becb 0bbe 664f 4d3e
000002e0: 6bab e43f 0d7d 9cbf 3f33 663f ecd0 c3bf
000002f0: 7b28 e93f 8767 d73e 0689 5f3f 8f87 aebf
00000300: 72fe 63bf 919d bebf de37 d0bd 7337 493e
00000310: 3dc7 db3e ae2f ad3e 1b05 173f a950 bdbe
00000320: 0e50 0e3f bb7e 143f a85e 70bf 45a1 09bf
00000330: 1fdc 183f dd93 383f 4851 3abf 4528 dd3e
00000340: f663 933e 7800 613e 6137 e0bf 8b0e 603d
00000350: 922f 55bf 7943 8f3f a565 423d c3cc aa3d
00000360: 05f7 80bf f81d 83be 1b9e a23d 9adc 673f
00000370: 3234 c7be 5cb4 eabf d574 f03d 70a5 8ebf
00000380: cf3b 26be 0277 cdbf e094 223f c529 0c3f
00000390: 2a95 b6bf 2773 62bf 2e5b 7fbe a438 9abe
000003a0: 78fe 103f d56d 3e3f 4ed0 613f 88f9 523e
000003b0: 2872 2a3f cff8 62bf b9a7 df3e 3a93 0cbf
000003c0: 7346 773f 68de 0640 4874 51bf 5648 05bf
000003d0: 032b 26bf 8b73 2e40 b4be 923f dd88 b5bf
000003e0: 7bd1 dc3e bdf5 c13e 8c39 a03e 79f8 0340
000003f0: c2ff e53d d498 34be 7b02 213f 7e4a 1d3f
-0.34592453 1.2819693 0.51095337 -0.13461386 -0.4477578 -0.6183413 -0.16724288 -0.89962596
0.26110163 1.4607977 -1.26927 -0.93427116 -1.1426643 0.27490717 0.09770007 -1.6219383
-0.45219877 -0.5956041 0.012612577 -0.21774097 -0.25588208 -0.1520574 0.08578992 -0.21608943
-1.224268 -1.3656816 1.5036635 1.462832 -0.46114945 0.39518982 0.10953912 -1.340525
0.3802324 -1.0587485 -0.87014014 -0.021998882 -0.99973154 -0.49316487 0.49934167 0.8175516
-0.8173769 0.006382315 0.048889045 0.07290696 -0.9461528 -0.87388444 0.41474548 0.65282285
0.20669958 -0.36280128 0.71929693 1.8635697 -1.6918005 1.1442238 1.4111073 -0.9659085
-2.3566842 0.61474353 -0.73978764 -0.9386524 0.18747796 0.84956515 0.28276125 -0.9268769
-0.6444134 -0.6282729 -2.4279773 -0.18077129 0.8953682 -0.4269359 -0.6649653 -0.519498
0.38153112 -0.65773505 1.2537801 1.1606445 -0.9384891 -0.987819 -1.2887224 0.4146581
-0.8724522 -0.90850276 -1.4577899 -0.47838646 -0.7386071 -1.1669378 0.11032072 0.32096317
0.259588 0.1447522 -0.11613458 0.3063021 -0.93964195 0.08965895 -0.0941333 -0.06640931
-0.96978277 0.12130136 -0.87634194 -1.7311641 -0.18504417 -1.0882319 -1.4848304 -0.20163086
0.6605208 -0.810988 -0.43290073 0.6701808 0.15719998 0.28600624 -1.3071808 -0.99150497
0.47739983 -0.80034256 0.08979477 2.0541296 1.8241625 -0.12864958 -0.31837094 1.0374875
-1.4969226 0.4389959 -0.74742097 0.74356896 0.57838434 -0.59929264 0.4719673 -1.1767913
-0.6818487 -0.9577078 -1.9390755 -0.020286104 -0.6050052 -0.27862135 0.7041568 1.2383869
-1.3198361 -0.57299 -0.51471937 -1.6668012 0.3363974 0.9647078 -1.32965 1.3566538
-0.6740698 -0.9205846 0.69050986 0.612386 -1.1253558 0.795036 1.8381102 0.5346496
-1.140129 -0.79043114 -1.238386 0.37890995 2.3477447 0.19487768 1.4362483 1.5895382
0.7766175 0.42278937 1.111831 0.7698849 0.42407766 1.6048591 -1.6808853 -0.5562345
0.3855736 0.87242335 0.29097924 -0.27865937 -0.5168436 -1.2516469 -0.6115081 -0.030729646
-2.2075176 -0.106796786 0.8314705 -0.39982727 1.9556202 -1.026787 -0.1365194 0.2004982
1.7864813 -1.2225662 0.89921945 -1.5298133 1.8215479 0.42071173 0.87318456 -1.3635119
-0.8906013 -1.4891835 -0.10166906 0.19650058 0.42925444 0.3382544 0.58992165 -0.369756
0.55590904 0.58005875 -0.93894434 -0.537617 0.5971088 0.7210062 -0.72780275 0.43194786
0.28787202 0.21972835 -1.75169 0.05470137 -0.8327571 1.1192466 0.047460217 0.083398364
-1.0075384 -0.25608802 0.079403125 0.90570986 -0.3890701 -1.8336291 0.11741034 -1.1144238
-0.16233753 -1.6051943 0.63508415 0.54751235 -1.4264271 -0.8845696 -0.24937126 -0.30121338
0.5663829 0.7438634 0.8820847 0.20603001 0.6658044 -0.886609 0.4368265 -0.5491215
0.9659187 2.1073246 -0.81818056 -0.520635 -0.6490938 2.7258022 1.1464448 -1.4182392
0.4312857 0.37882796 0.31293905 2.0620406 0.112304226 -0.17636424 0.6289441 0.6144179

Q1.0.bias f4 [50, 5]
00000000: 816c 1d37 0410 0a39 9073 2939 114e 9d38
00000010: cc25 8337 07b5 6e33 30e3 0335 5874 dd34
00000020: cea8 af33 0000 0000 0b0c 9bbb 74fc 99bb
00000030: a8f6 98bb 4f79 08bb c5e5 09ba 6849 b539
00000040: 763f c93a 1521 f23a 50c7 663a 4281 44b8
00000050: 1753 7cb8 0b3c 70b8 ac16 65b8 590c c4b7
00000060: 62c5 adb6 5c65 043b 3c96 1d3b f1ec 373b
00000070: 7cea bc3a 181b 043a 18be 903a f7d9 a73b
00000080: 31b2 e03b 6199 6a3b 9ac6 103a 0ff9 393b
00000090: 5fe8 673a 67a4 94ba 289e aeba be7e 0dba
000000a0: 685b 1abb a642 e6ba 2faa 2bba 70f3 5239
000000b0: 863e 8939 40f8 923a dc02 88b9 bec4 61bb
000000c0: 5c3b 37bb 19e3 f4b9 0000 0000 0000 0000
000000d0: 0000 0000 0000 0000 0000 0000 478a fe38
000000e0: 74de 37bb 1863 26bb 6fec 65ba af63 0438
000000f0: 3d79 573a 93ce 7f3b ab2b 3d3b 2a39 403a
00000100: 13d1 9fb9 8ed7 78bb 77f6 92ba e935 30ba
00000110: f969 e5b8 2925 cc36 47b4 89b9 1889 24bb
00000120: 8b93 09ba 3a64 2e3a cb19 e739 a2b2 70ba
00000130: ea0a 49b9 f1eb af3a 9cae 9f3a 4c3d 8639
00000140: 0000 0000 0000 0000 0000 0000 0000 0000
00000150: 0000 0000 fc72 bd39 6ad6 d139 9397 d539
00000160: 5162 3f39 eb89 2938 a578 26b9 542c 85b9
00000170: 72f9 8eb9 b24e 01b9 0820 dab7 f722 d3b8
00000180: 49c6 963a 073b ff3a 331f 963a 3320 9738
00000190: 9681 a6bb 0496 913a ab2a 7e3b 3803 2e3b
000001a0: 55af c239 3d12 3e39 5272 2cba fa92 4bba
000001b0: 9c71 bbb9 74d7 a7b8 a265 d7b9 6437 e8ba
000001c0: 9f71 baba 7ec4 e1b9 8971 a238 2dde f33a
000001d0: 0630 a7b9 c2ce b4ba 18bb 84ba 5624 1eb9
000001e0: 9d05 73b9 96c2 7639 ed55 1139 e5ea 1a38
000001f0: 1dbf d436 0000 0000 0000 0000 0000 0000
00000200: 0000 0000 0000 0000 0000 0000 0000 0000
00000210: 0000 0000 0000 0000 0000 0000 cec2 b7b9
00000220: 3b4d 99b9 a46c 89b9 8a51 e0b8 c562 bdb7
00000230: 4a44 f1ba 4073 323b a985 673b 0e23 e93a
00000240: 18cb 3738 7ec5 ca37 ec0c e5b5 4efe 07b7
00000250: 8f36 97b6 d5bd 56b5 71ac 69b6 97a7 5bb6
00000260: 21c9 4eb6 d360 aeb5 c890 94b4 86c9 3bba
00000270: 3e0a 40b8 8db4 5839 17b2 2a39 b10b 3838
00000280: 0c19 a9bb a021 763b 7041 e93b 1f02 853b
00000290: 8bfa d139 1462 e7ba 72e5 9f3a 5f35 263b
000002a0: 8c25 d13a 350d 4739 d3b5 7eb7 ea5d edb6
000002b0: 4c53 d3b5 38a2 bd35 147c 7935 911f 62b6
000002c0: 87c4 00b7 29c7 eeb6 8094 2db6 0ed5 acb4
000002d0: 00a1 6d38 3be2 8738 76de 8f38 433b 0638
000002e0: 72cc 0737 7e9b 3fb8 0879 2eb8 438c 21b8
000002f0: e085 86b7 49c1 64b6 8f31 82ba 3500 f63a
00000300: 26b2 5d3a f04d 01b9 9e56 70b9 3694 8638
00000310: 890c a6b7 1547 38b8 05b3 c9b7 f9c0 acb6
00000320: 70a1 863a cc8d 193b a461 e83a fdda fa39
00000330: 9d84 39b9 b74d 96ba 05b5 fab8 f55c b439
00000340: a19e af39 27b3 ce38 75f2 11bc 7901 53b9
00000350: 5036 803b a16f 483b f3fa c539 195d b7ba
00000360: 0392 88bb a101 7abb f5cc c0ba 8ee8 14b9
00000370: 3a49 333b 5a74 813b e230 213b 7911 df39
00000380: 643b 48b9 af69 e33a 02ac 973a 0c42 90ba
00000390: 118a bbba f52d d4b9 0cea b137 3ff6 2538
000003a0: a634 3338 9633 a137 6546 8336 9926 4d36
000003b0: 75c4 be35 b486 4935 afc1 0034 0000 0000
000003c0: c4cf 0f3b bb96 f43a 74b8 87ba 5f9d daba
000003d0: 86e7 b8b9 6924 5437 ed78 5137 9d6e 4b37
000003e0: 878c b036 a61b a435
9.383192e-06 0.00013166672 0.00016160146 7.5008844e-05 1.5634017e-05 5.5578337e-08 4.9131904e-07 4.124911e-07
8.179778e-08 0.0 -0.0047316602 -0.004699284 -0.0046680756 -0.0020824259 -0.00052603736 0.00034577702
0.0015353996 0.0018472994 0.00088035036 -4.6850422e-05 -6.0158865e-05 -5.727638e-05 -5.461897e-05 -2.337077e-05
-5.17878e-06 0.0020202016 0.0024045845 0.0028064812 0.0014413144 0.00050394377 0.001104298 0.005122419
0.0068571796 0.0035796987 0.0005522758 0.002837721 0.00088465767 -0.00113405 -0.0013322281 -0.0005397609
-0.0023553018 -0.001756747 -0.00065484917 0.00020117848 0.0002617726 0.00112129 -0.00025942072 -0.0034449543
-0.0027958965 -0.00046708508 0.0 0.0 0.0 0.0 0.0 0.0001213742
-0.0028056176 -0.0025388654 -0.0008770888 3.156409e-05 0.0008219665 0.003903304 0.002886514 0.0007332737
-0.00030482616 -0.0037970277 -0.0011212368 -0.00067219004 -0.0001093931 6.084e-06 -0.00026264993 -0.0025106128
-0.0005248121 0.0006652508 0.0004407897 -0.0009181892 -0.0001917292 0.0013421756 0.0012182775 0.0002560414
0.0 0.0 0.0 0.0 0.0 0.0003613456 0.00040023337 0.00040739457
0.00018251805 4.0421186e-05 -0.00015875937 -0.00025400764 -0.00027270202 -0.00012331715 -2.600254e-05 -0.00010067777
0.0011503185 0.0019472548 0.001145339 7.206239e-05 -0.005081366 0.001110733 0.0038782756 0.0026552211
0.00037133196 0.00018126606 -0.00065783144 -0.00077657367 -0.00035752065 -8.003312e-05 -0.00041083718 -0.0017716703
-0.0014224536 -0.00043061742 7.7459095e-05 0.0018605642 -0.00031888502 -0.0013794529 -0.0010126559 -0.0001508159
-0.00023176377 0.00023532877 0.00013860287 3.6935224e-05 6.340341e-06 0.0 0.0 0.0
0.0 0.0 0.0 0.0 0.0 0.0 0.0 -0.0003504962
-0.00029239975 -0.0002621162 -0.0001069634 -2.2576549e-05 -0.0018407193 0.002722934 0.003532747 0.0017786936
4.3819746e-05 2.4172241e-05 -1.706559e-06 -8.105837e-06 -4.506502e-06 -7.9997454e-07 -3.482008e-06 -3.2731093e-06
-3.0813464e-06 -1.299219e-06 -2.767249e-07 -0.0007163513 -4.5785906e-05 0.00020666626 0.00016278807 4.3879907e-05
-0.0051604565 0.0037556663 0.0071183965 0.0040590907 0.00040050255 -0.0017653131 0.0012199117 0.0025361401
0.0015956624 0.00018983039 -1.5181914e-05 -7.0740834e-06 -1.5744968e-06 1.4128809e-06 9.2940286e-07 -3.3694998e-06
-7.675152e-06 -7.116138e-06 -2.5865447e-06 -3.2192514e-07 5.6655146e-05 6.47944e-05 6.860208e-05 3.200328e-05
8.094228e-06 -4.5682762e-05 -4.1597552e-05 -3.851602e-05 -1.6036385e-05 -3.4087154e-06 -0.0009932983 0.0018768372
0.0008457027 -0.00012331433 -0.00022920451 6.417224e-05 -1.979458e-05 -4.393522e-05 -2.404443e-05 -5.1484644e-06
0.0010271501 0.0023430465 0.0017729294 0.00047846875 -0.00017692377 -0.0011467253 -0.000119546465 0.00034401534
0.0003349679 9.856215e-05 -0.008907904 -0.00020123077 0.0039127246 0.0030584114 0.0003776174 -0.0013989537
-0.0041677966 -0.0038147944 -0.001470952 -0.00014201013 0.002735688 0.0039506378 0.0024595787 0.00042546893
-0.00019095611 0.0017350222 0.0011571648 -0.0011006012 -0.0014308115 -0.00040470032 2.120903e-05 3.95684e-05
4.272596e-05 1.9216717e-05 3.9122992e-06 3.0569847e-06 1.421328e-06 7.5074354e-07 1.199139e-07 0.0
0.0021943906 0.0018660644 -0.0010354654 -0.001667898 -0.00035267713 1.2644662e-05 1.2485526e-05 1.2125497e-05
5.2615683e-06 1.2226999e-06

Q1.1.weight f4 [50, 1, 5]
00000000: e093 7abf b3f0 59be 53f0 c8be 579e 963f
00000010: 9119 17bf c02c debe 1332 09bf 56a4 893d
00000020: dc64 bcbf 5057 ffbe 5ab2 ee3d 9888 f6be
00000030: 6409 78bd 0027 f3be 3362 df3f 78fc 313d
00000040: b7bb 973e 44ae bbbf 34aa fabe 2947 463f
00000050: b74d 27be 1f32 8d3f cd0e 4f3e ee48 b43d
00000060: f9fb b23f ac98 f03e f18e f03f 9bd5 c2bf
00000070: 2915 dc3e a5e9 9dbf 93e2 e2bf 04ca 19bf
00000080: c46e 9cbd ce71 c23f 2ae3 92be bc18 7c3e
00000090: 9823 303f 34e3 053e 900b ad3e 1b02 343f
000000a0: fdeb 1bbe de18 29bf ee36 0abe 3a7f 0940
000000b0: 9e41 803f 98a4 983f 8c77 9e3f adc5 c13f
000000c0: 664c 80bf 9d52 393f 12be 18bf f43c 0bbd
000000d0: ce36 b23f 6d48 8f3d e781 e2bc d2ef 3ebf
000000e0: f793 bbbe 99d2 0ebf 72be a53f 97cb 873f
000000f0: 1e77 9e3f eba7 96be 70eb a2bf 7689 90bf
00000100: 02ea 6e3d 319d 633f 0c97 88bf b7bd f0bf
00000110: df15 89bf fbed ca3e 2409 cabf 8f93 fcbd
00000120: 9986 513f c499 5eba b6e9 413f 71f6 04bf
00000130: ac6b 51be 60e3 bebf e3fa eb3f 26c7 e73b
00000140: 84d4 433f 9b75 ab3f 4616 b1bf 519c 3f3f
00000150: 31f1 093f f819 3dbf c64d 0abe 86d3 1ebe
00000160: 1860 fe3d 6f78 0c3f 727d 833f 0c56 763e
00000170: c376 1e3f 624c 5c3f 8a15 c4bd 156f a6bd
00000180: 6306 02bf fbe3 72bf 7fe8 be3e 43cb 7fbf
00000190: a48d 20be 4d89 b7bf 34f4 f5bf 5438 a83f
000001a0: 50c2 b03f 72db 1e40 4184 923f 0f3c 03bf
000001b0: a2df d4bf 03a2 a03f 4d4a 18bf 8da6 623d
000001c0: 5029 4d3f 500e 153e eef8 61bf a9b3 74be
000001d0: 3151 c13f 8cc6 d63d 26c6 48bf 0303 d43e
000001e0: 6465 963e 699c c8be 3df9 29bf 21fd 72bf
000001f0: ecf6 d5bf 0328 64be da10 b2bf 37c6 f73e
00000200: 6ab7 16bf 3685 a6bf 2a0c a13e fa71 3a3f
00000210: e71c 913f 62b4 c2bf 94f2 1dbf 9350 f73d
00000220: 4585 a0bf 4ec9 b23f 1b31 8b3f 29d6 8bbf
00000230: 11d4 763f 375c b3bf 7e0b edbf 9086 743f
00000240: 88de 903f 9a49 fa3f 813e 17c0 cb8e 6c3f
00000250: c987 c4be ead8 87be f70b ebbe aa16 3c3f
00000260: afef c43d 10c8 7fbe 045f cc3d e821 32c0
00000270: 95c0 dd3f 2b5e 583e 4173 02bf 3341 e9bf
00000280: c49e 87bf 7da0 4bbf bad1 d3bf 063a f2bb
00000290: 369a d23e 2adb a63e 0b6f 1fc0 678e 9b3f
000002a0: 68d2 e6bf 4828 913f 06d2 b6bd 47a0 693f
000002b0: aa55 dfbf 4224 8abf 6e19 73bf 9799 9b3e
000002c0: 8238 c33f f75d 0640 0524 bb3e 50d1 973f
000002d0: f4cf 2abf ad9f cebd a2cd 003f 0597 82bf
000002e0: 6e6d 1ec0 67a5 4fbf 8d80 9b3e 1e1c b43f
000002f0: 6e3b 0c3f 36bd fd3e 69e5 b33f 5802 85bf
00000300: c0aa 973e afa3 2cbf ec80 1c3f f8af c33f
00000310: e080 87be f0c3 a5bf f1be 093f 547a b3be
00000320: 8b99 083f abf9 97be 7107 90bd 13f7 e6bf
00000330: 3522 83bd 1f9b 213e 5d57 1abf b89b b1b9
00000340: 49d2 db3e cda7 773f 5c6f a0bf 2aa3 3fbf
00000350: 19f9 7ebf 28b6 8c3f b2ad 12c0 a23c 6fbf
00000360: ccdc 7b3e 223f 383f a2c7 5fbe 7ee1 97bf
00000370: 9d71 843f f421 80bf 9132 783f 7975 8fbf
00000380: 31e1 783d 9dfb 4a3f b5ed f63f c334 96bf
00000390: b4a1 9f3e ca03 f73d a421 d5bf 2b62 89be
000003a0: cc79 cdbe f643 f63e 51f3 96bf 761d ff3e
000003b0: 9d69 e9bd 8d98 623f 62fc ad3f 4fa0 11bf
000003c0: e09f 9a3f a9a7 b63f 79e1 483f c833 bdbf
000003d0: 5001 a23f c53f d1be b668 103f 872f 253e
000003e0: ad8c 9cbf 5155 9bbb
-0.9788189 -0.21283226 -0.39245853 1.1767071 -0.59023386 -0.43393517 -0.5359203 0.06720798
-1.471828 -0.49871302 0.116551116 -0.48151088 -0.06055583 -0.47490692 1.7451843 0.043453664
0.29635403 -1.4662557 -0.4895798 0.7745233 -0.1633824 1.1030921 0.2022049 0.08802973
1.3983146 0.4699148 1.8793622 -1.5221437 0.42984894 -1.2336928 -1.7725395 -0.60073876
-0.07638314 1.519098 -0.28688937 0.2461881 0.6880431 0.13074952 0.33797884 0.7031571
-0.15226741 -0.6605357 -0.13497517 2.1483903 1.0020025 1.192523 1.2380233 1.5138451
-1.0023315 0.7239168 -0.59665024 -0.033993676 1.3922975 0.06996236 -0.027649833 -0.74584687
-0.36636326 -0.55790097 1.2948744 1.0609006 1.2380102 -0.29424986 -1.27281 -1.129195
0.058328636 0.8891173 -1.0671096 -1.8807896 -1.07098 0.3963469 -1.578404 -0.12332832
0.81846005 -0.0008491541 0.7574724 -0.5193854 -0.2045123 -1.4913139 1.843594 0.007073301
0.7649615 1.3395265 -1.3834922 0.74847895 0.53883654 -0.7386775 -0.1350623 -0.15510377
0.12420672 0.5487127 1.0272658 0.24056262 0.61899966 0.8605405 -0.09574421 -0.08126656
-0.50790995 -0.9487912 0.37286755 -0.9991953 -0.15679032 -1.4338776 -1.921515 1.314219
1.38093 2.4821439 1.1446611 -0.5126352 -1.6630747 1.2549442 -0.59488374 0.055334616
0.8014116 0.14556241 -0.8827046 -0.2389666 1.5102903 0.104870886 -0.7842735 0.41408548
0.2937423 -0.3918183 -0.6639593 -0.94917494 -1.671598 -0.22280888 -1.3911393 0.48393413
-0.5887362 -1.3009403 0.31454593 0.72830164 1.1336945 -1.5211298 -0.6169827 0.12075915
-1.2540671 1.3967683 1.0874361 -1.0924731 0.9641734 -1.4012517 -1.8519132 0.95517826
1.1317911 1.9553711 -2.36319 0.92405385 -0.38384846 -0.2653268 -0.45907566 0.7347208
0.096160285 -0.24978662 0.0997906 -2.7833195 1.7324396 0.21129672 -0.50957114 -1.8223022
-1.0595326 -0.7954176 -1.6548378 -0.007392171 0.4113328 0.32589084 -2.4911525 1.2152833
-1.8032961 1.1340418 -0.089267775 0.9126019 -1.7448018 -1.0792315 -0.9496068 0.30390617
1.525162 2.0994852 0.36550918 1.1860752 -0.6672356 -0.100890495 0.5031377 -1.0202338
-2.475429 -0.8111176 0.30371514 1.4071081 0.5477818 0.4955842 1.4054385 -1.039134
0.2962246 -0.6743726 0.6113422 1.5288076 -0.2646551 -1.295042 0.5380698 -0.35054266
0.5335929 -0.2968267 -0.07032669 -1.8044151 -0.06403009 0.1578183 -0.60289556 -0.0003387609
0.42933872 0.9674042 -1.2533984 -0.74858344 -0.9959884 1.099309 -2.2918515 -0.93451893
0.24595946 0.71971333 -0.21853498 -1.186569 1.0347172 -1.0010362 0.9695216 -1.1207725
0.060761634 0.7929018 1.9291292 -1.1734852 0.31178057 0.120612696 -1.6650891 -0.2683271
-0.40131986 0.48098725 -1.1793004 0.49827164 -0.11397097 0.88514024 1.3592646 -0.56885237
1.208004 1.4269916 0.78469044 -1.4781427 1.265665 -0.40868965 0.56409776 0.16131411
-1.2230431 -0.004740395

Q1.1.bias f4 [1, 5]
00000000: 9d82 69b9 b12d 6c3a 96db d9b9 4a0c 46ba
00000010: 44c4 85b9
-0.00022269269 0.0009009494 -0.0004155307 -0.0007554932 -0.00025513966
