CausalCVR/logs/simu3/eval/41/Vcnet_ckpt.pth.tar (torch, 123067 bytes, 16 tensors)

feature_weight.weight f4 [50, 8]
00000000: 13a9 113a 5581 93b9 9ef5 57bb f074 bf3c
00000010: 1e99 adbc 4fd5 3cbb 14e2 ecbb b647 2dbc
00000020: c683 88bc 0908 db3c a55b a1bb 14f1 203c
00000030: 8fae 2439 890c 8fbb 9d2c 32bc 7558 733c
00000040: 13ca 6c3c fb55 17bc 7ea6 d0bb f7e2 feba
00000050: fe54 85bc 11a6 023b 7ad2 2b3b 3c05 263b
00000060: 8d87 8f3c eb54 123c 5bf0 4b3c 7ba1 2a3c
00000070: eb26 403c aa4f 75bb cb47 9b3b ba01 9cbc
00000080: 4e19 663b 04dc 35bc 07fa 9bbc cb53 033c
00000090: 6849 e7ba 2f31 8f3b 6133 fabb fa29 2bbb
000000a0: 3cb7 a63c 3a30 9dbb e80a a1bb 6984 5c3c
000000b0: 7e2a e6bb 6026 e33a 2898 6f3b d2c2 14bb
000000c0: 1f98 84bb 8c1b e239 79e4 763c 23f6 bf3b
000000d0: 6a2e feb8 ebee 083c c996 ad3b 4a47 a3bb
000000e0: 3be7 d13b 82de 973a eea5 b5bb ab9b a4bb
000000f0: 5d80 013c b7e6 b339 6699 883c 76a3 203c
00000100: 238b 7dbb 90e3 863c 3a67 f5bb 48c7 00bc
00000110: f713 183b b05e 6a3c e5f8 eebb 274b f63b
00000120: ceb7 9bba 3c83 ac3c 867e d63b 4d49 5b3a
00000130: 9771 62bc b414 55bc 11ed b03a a1af ae3b
00000140: 80f0 633c 753a 1b3a 6fc5 9e3b f61c 3bbc
00000150: eabc 92ba 6e43 453c 36d5 4b3c 2310 29bc
00000160: 4599 313a b44a 953c 58ce 86bb 46f2 42bb
00000170: 6ed9 c5bb 5860 eebb e383 c43b 7a02 1fbc
00000180: 3e32 e7bb 887e 073c 17fb bcbb ef6d d93c
00000190: 7f90 8fbb 229b 333c 41a6 a73b 0e48 123c
000001a0: c077 21bc d7fc 14bc 7d5a 6f3c 1f7d 213c
000001b0: 0238 dd39 5ad8 1a3b e323 87b9 8759 3bbc
000001c0: f7c5 95bc 71b0 18bb ca92 87bb b918 43ba
000001d0: dd60 90ba 0f35 aa3b c055 40bb 41f2 653c
000001e0: dc08 cfba 1d93 af3b 3e33 9ebc 4ee9 b7bb
000001f0: 2ce6 16bc 666e 423a d694 393c eede f83b
00000200: e6f1 863b 12dd 16bb 77a6 babb c3a6 c0bb
00000210: 391b e0bb d19b f6bb ec08 603c a4b1 223b
00000220: e6d0 81bb ac9e adbb bbb4 adbc 55dc 653c
00000230: fee2 f13b ff7a 5fbb 6c1c 2b3c 933d 273c
00000240: 896b 85bc 3040 a4bc ec03 3bbc 92c4 b03c
00000250: ddef 753b 4fda d8bb a54d 843a 49a4 81bb
00000260: e93e ee3a e1ac 513c ec06 b83b fc9a d5bb
00000270: 50ab 413c 501b f73b 3172 13bc 2a04 f33a
00000280: c32b 993a 5648 d73b 13f4 9d39 844f 6abc
00000290: aa5a 09bb 24aa 1a3b 1c50 17bc d3c6 213b
000002a0: 847e 513c 59dd 9bbb 2cf5 89bc 3528 2d3c
000002b0: ae7f 6ebc 38bc cb3b af48 07bb 223c 0d3b
000002c0: 794e 04bb 0c4a 043c cd2d bfbb efae 9f3b
000002d0: 6304 ff39 32b7 453b 35b8 9cbc 4979 c9bb
000002e0: 4259 953b 0eba 05bc d026 353c eb39 9cbb
000002f0: afaa fc3b f866 9b3a 7e38 eebb 3ff8 f837
00000300: fb69 98bc a37c 15bc d92f 5e3c c2f8 88bb
00000310: 3371 c73b 9973 e8b7 eced 7d3b a8e8 0ebb
00000320: 4bd2 5f3c 98c5 14bc 6b1d 2cbc e890 a53c
00000330: 3bc9 6ebc a98d 453b 2111 89bb e877 73bb
00000340: ff73 0d3a 4034 84bb 7d01 5e3c 4092 0d3c
00000350: 87ff 00bc e8d5 2cbc d9cb 9b3b 69a9 bbbb
00000360: 93f0 edb8 691e a0ba 0871 37bc 0fed e23a
00000370: dbe0 b93b 6acd bdba 3375 743b 169e 053b
00000380: 1c60 57bc 28b8 9abb 5f6c f93b 376a 513a
00000390: 0ba6 893b 075e 3a3b c51c 89bc 2330 a0ba
000003a0: 6e12 7bbc ca60 a93b f91a 8c3b 3213 c338
000003b0: 3369 c43b cf38 a13b 13fc 183b 6dea 153c
000003c0: cc31 4a3c e69f c5bb 1a4e 8c3c 2002 cc3b
000003d0: 55c9 9a3c cd79 c03b fd87 bbbb 63cb 2abb
000003e0: c6b6 f63b 6785 543c f804 9eba 9d9e 5bbc
000003f0: 2a0d f8b9 1f68 6bbc f47d 0bbc 1c71 a2bc
0.0005556505 -0.00028134385 -0.0032952796 0.02337119 -0.021191176 -0.0028813665 -0.007229099 -0.010576179
-0.016664397 0.02673723 -0.004924255 0.0098231025 0.00015705287 -0.004365508 -0.010874894 0.014852633
0.014452475 -0.009236808 -0.0063675037 -0.0019446303 -0.016275879 0.001993541 0.0026217983 0.002533271
0.01752069 0.008931379 0.012447442 0.0104144765 0.011728029 -0.0037431517 0.004738783 -0.019043792
0.0035110298 -0.011099819 -0.01904012 0.008015583 -0.0017645778 0.004369877 -0.0076355194 -0.002611755
0.020351045 -0.004797009 -0.00491463 0.013459303 -0.0070241084 0.0017330162 0.0036559198 -0.002269913
-0.0040464546 0.00043126603 0.015069121 0.005858199 -0.00012120309 0.008357744 0.005297516 -0.0049828636
0.0064057386 0.0011586698 -0.005543462 -0.00502344 0.007904139 0.00034313436 0.016674709 0.009804597
-0.0038687668 0.016465932 -0.007489112 -0.007860012 0.002320526 0.014304802 -0.007292854 0.007516283
-0.001188034 0.021058671 0.0065458445 0.00083651097 -0.013821027 -0.013005424 0.0013498386 0.005330995
0.01391232 0.00059214915 0.0048453133 -0.011420479 -0.0011195217 0.012040002 0.01244097 -0.010318789
0.0006774853 0.018224098 -0.0041139536 -0.0029746457 -0.0060378825 -0.0072746687 0.0059971674 -0.00970518
-0.00705555 0.0082699135 -0.005767237 0.026541678 -0.004381239 0.0109622795 0.0051162546 0.008928312
-0.009855211 -0.009093485 0.014608976 0.009856491 0.00042194134 0.002362749 -0.00025775944 -0.011434919
-0.018282874 -0.0023298527 -0.0041373717 -0.00074423436 -0.0011015196 0.0051943134 -0.0029347986 0.014034809
-0.0015795487 0.0053581134 -0.019311544 -0.005612529 -0.009210151 0.00074169633 0.011326989 0.0075949347
0.004118192 -0.0023019952 -0.0056961137 -0.0058792545 -0.0068391827 -0.007525899 0.013674002 0.002482512
-0.00396167 -0.005298456 -0.021204343 0.014029582 0.007381796 -0.003410041 0.010443788 0.0102075515
-0.016286628 -0.020050138 -0.011414509 0.021578107 0.0037527003 -0.0066178213 0.0010093941 -0.003956352
0.0018176708 0.012797565 0.0056160595 -0.0065187197 0.011820629 0.0075410977 -0.008999393 0.001854067
0.0011686016 0.0065699024 0.00030127223 -0.014301185 -0.002095858 0.0023599947 -0.009235408 0.002468516
0.012786511 -0.0047566113 -0.01684054 0.010568668 -0.014556808 0.006217506 -0.0020642688 0.0021550735
-0.0020188375 0.008074295 -0.0058343173 0.0048731486 0.00048640658 0.0030169007 -0.019130806 -0.0061484915
0.0045577595 -0.008162035 0.011056617 -0.0047676465 0.0077107768 0.0011856249 -0.007269918 2.9679502e-05
-0.018605223 -0.009123954 0.013561212 -0.004180045 0.0060864924 -2.7710385e-05 0.0038746549 -0.0021806154
0.013660978 -0.009080313 -0.010505061 0.020210698 -0.014574344 0.003014425 -0.00418295 -0.0037150327
0.0005396008 -0.004034549 0.0135501595 0.008640826 -0.0078734225 -0.010549046 0.004754525 -0.0057269824
-0.00011345851 -0.0012216094 -0.011196382 0.0017313081 0.005672557 -0.0014480774 0.0037301301 0.0020388416
-0.013145473 -0.00472166 0.007611796 0.00079885445 0.004200702 0.0028437392 -0.016737351 -0.0012221377
-0.015324218 0.005169009 0.0042756763 9.3019e-05 0.005993986 0.004920102 0.0023343607 0.00915013
0.012340974 -0.0060310243 0.017127085 0.0062258393 0.01889483 0.005873895 -0.005722998 -0.002606117
0.0075291125 0.012971259 -0.0012055924 -0.013404516 -0.00047312054 -0.014368086 -0.008513916 -0.019829325

feature_weight.bias f4 [50]
00000000: a5c2 2337 75f9 0337 10ce 5937 38d1 1238
00000010: 0acc 3fb6 f050 03b8 3f89 dcb7 f5dc f3b6
00000020: abc1 f237 5526 5db7 fb03 0f38 aa24 c736
00000030: 4342 c8b7 a4f3 ea37 9dd5 7436 facb 9eb6
00000040: d833 db35 c69a 6a37 d610 31b5 40aa 16b7
00000050: 4ee0 f335 d4f9 9a33 fa7d ecb4 5f2b dd35
00000060: b745 4eb7 4e3a 0a37 c248 9c37 27ae 47b7
00000070: ac1f bd36 1b32 2bb7 82a8 acb7 5ff1 9fb5
00000080: 2b71 2036 6be7 1c38 5aa1 1537 4560 18b7
00000090: a112 f4b6 e51f 29b8 f4a3 57b7 39c6 0438
000000a0: 99d1 da36 9c0a 8eb6 0d4c 8137 9003 3d37
000000b0: 7216 aab7 9ba2 aa37 0000 0000 83a4 b5b6
000000c0: fdeb 8336 065b f8b5
9.760876e-06 7.86629e-06 1.2982186e-05 3.5003963e-05 -2.8579984e-06 -3.1308213e-05 -2.6289954e-05 -7.267687e-06
2.8938832e-05 -1.3181551e-05 3.4097564e-05 5.9349304e-06 -2.3872713e-05 2.8008428e-05 3.6483173e-06 -4.732513e-06
1.633186e-06 1.3983523e-05 -6.596214e-07 -8.980336e-06 1.8170192e-06 7.216627e-08 -4.4050086e-07 1.6478406e-06
-1.2294789e-05 8.239016e-06 1.863053e-05 -1.1901872e-05 5.636326e-06 -1.020406e-05 -2.0582465e-05 -1.1916671e-06
2.390773e-06 3.7408823e-05 8.91866e-06 -9.0823205e-06 -7.2739354e-06 -4.0322444e-05 -1.2853172e-05 3.165586e-05
6.5213067e-06 -4.233165e-06 1.5413412e-05 1.1266107e-05 -2.0276031e-05 2.0341298e-05 0.0 -5.413372e-06
3.931577e-06 -1.8503931e-06

hidden_features.0.weight f4 [50, 8]
00000000: 13a9 113a 5581 93b9 9ef5 57bb f074 bf3c
00000010: 1e99 adbc 4fd5 3cbb 14e2 ecbb b647 2dbc
00000020: c683 88bc 0908 db3c a55b a1bb 14f1 203c
00000030: 8fae 2439 890c 8fbb 9d2c 32bc 7558 733c
00000040: 13ca 6c3c fb55 17bc 7ea6 d0bb f7e2 feba
00000050: fe54 85bc 11a6 023b 7ad2 2b3b 3c05 263b
00000060: 8d87 8f3c eb54 123c 5bf0 4b3c 7ba1 2a3c
00000070: eb26 403c aa4f 75bb cb47 9b3b ba01 9cbc
00000080: 4e19 663b 04dc 35bc 07fa 9bbc cb53 033c
00000090: 6849 e7ba 2f31 8f3b 6133 fabb fa29 2bbb
000000a0: 3cb7 a63c 3a30 9dbb e80a a1bb 6984 5c3c
000000b0: 7e2a e6bb 6026 e33a 2898 6f3b d2c2 14bb
000000c0: 1f98 84bb 8c1b e239 79e4 763c 23f6 bf3b
000000d0: 6a2e feb8 ebee 083c c996 ad3b 4a47 a3bb
000000e0: 3be7 d13b 82de 973a eea5 b5bb ab9b a4bb
000000f0: 5d80 013c b7e6 b339 6699 883c 76a3 203c
00000100: 238b 7dbb 90e3 863c 3a67 f5bb 48c7 00bc
00000110: f713 183b b05e 6a3c e5f8 eebb 274b f63b
00000120: ceb7 9bba 3c83 ac3c 867e d63b 4d49 5b3a
00000130: 9771 62bc b414 55bc 11ed b03a a1af ae3b
00000140: 80f0 633c 753a 1b3a 6fc5 9e3b f61c 3bbc
00000150: eabc 92ba 6e43 453c 36d5 4b3c 2310 29bc
00000160: 4599 313a b44a 953c 58ce 86bb 46f2 42bb
00000170: 6ed9 c5bb 5860 eebb e383 c43b 7a02 1fbc
00000180: 3e32 e7bb 887e 073c 17fb bcbb ef6d d93c
00000190: 7f90 8fbb 229b 333c 41a6 a73b 0e48 123c
000001a0: c077 21bc d7fc 14bc 7d5a 6f3c 1f7d 213c
000001b0: 0238 dd39 5ad8 1a3b e323 87b9 8759 3bbc
000001c0: f7c5 95bc 71b0 18bb ca92 87bb b918 43ba
000001d0: dd60 90ba 0f35 aa3b c055 40bb 41f2 653c
000001e0: dc08 cfba 1d93 af3b 3e33 9ebc 4ee9 b7bb
000001f0: 2ce6 16bc 666e 423a d694 393c eede f83b
00000200: e6f1 863b 12dd 16bb 77a6 babb c3a6 c0bb
00000210: 391b e0bb d19b f6bb ec08 603c a4b1 223b
00000220: e6d0 81bb ac9e adbb bbb4 adbc 55dc 653c
00000230: fee2 f13b ff7a 5fbb 6c1c 2b3c 933d 273c
00000240: 896b 85bc 3040 a4bc ec03 3bbc 92c4 b03c
00000250: ddef 753b 4fda d8bb a54d 843a 49a4 81bb
00000260: e93e ee3a e1ac 513c ec06 b83b fc9a d5bb
00000270: 50ab 413c 501b f73b 3172 13bc 2a04 f33a
00000280: c32b 993a 5648 d73b 13f4 9d39 844f 6abc
00000290: aa5a 09bb 24aa 1a3b 1c50 17bc d3c6 213b
000002a0: 847e 513c 59dd 9bbb 2cf5 89bc 3528 2d3c
000002b0: ae7f 6ebc 38bc cb3b af48 07bb 223c 0d3b
000002c0: 794e 04bb 0c4a 043c cd2d bfbb efae 9f3b
000002d0: 6304 ff39 32b7 453b 35b8 9cbc 4979 c9bb
000002e0: 4259 953b 0eba 05bc d026 353c eb39 9cbb
000002f0: afaa fc3b f866 9b3a 7e38 eebb 3ff8 f837
00000300: fb69 98bc a37c 15bc d92f 5e3c c2f8 88bb
00000310: 3371 c73b 9973 e8b7 eced 7d3b a8e8 0ebb
00000320: 4bd2 5f3c 98c5 14bc 6b1d 2cbc e890 a53c
00000330: 3bc9 6ebc a98d 453b 2111 89bb e877 73bb
00000340: ff73 0d3a 4034 84bb 7d01 5e3c 4092 0d3c
00000350: 87ff 00bc e8d5 2cbc d9cb 9b3b 69a9 bbbb
00000360: 93f0 edb8 691e a0ba 0871 37bc 0fed e23a
00000370: dbe0 b93b 6acd bdba 3375 743b 169e 053b
00000380: 1c60 57bc 28b8 9abb 5f6c f93b 376a 513a
00000390: 0ba6 893b 075e 3a3b c51c 89bc 2330 a0ba
000003a0: 6e12 7bbc ca60 a93b f91a 8c3b 3213 c338
000003b0: 3369 c43b cf38 a13b 13fc 183b 6dea 153c
000003c0: cc31 4a3c e69f c5bb 1a4e 8c3c 2002 cc3b
000003d0: 55c9 9a3c cd79 c03b fd87 bbbb 63cb 2abb
000003e0: c6b6 f63b 6785 543c f804 9eba 9d9e 5bbc
000003f0: 2a0d f8b9 1f68 6bbc f47d 0bbc 1c71 a2bc
0.0005556505 -0.00028134385 -0.0032952796 0.02337119 -0.021191176 -0.0028813665 -0.007229099 -0.010576179
-0.016664397 0.02673723 -0.004924255 0.0098231025 0.00015705287 -0.004365508 -0.010874894 0.014852633
0.014452475 -0.009236808 -0.0063675037 -0.0019446303 -0.016275879 0.001993541 0.0026217983 0.002533271
0.01752069 0.008931379 0.012447442 0.0104144765 0.011728029 -0.0037431517 0.004738783 -0.019043792
0.0035110298 -0.011099819 -0.01904012 0.008015583 -0.0017645778 0.004369877 -0.0076355194 -0.002611755
0.020351045 -0.004797009 -0.00491463 0.013459303 -0.0070241084 0.0017330162 0.0036559198 -0.002269913
-0.0040464546 0.00043126603 0.015069121 0.005858199 -0.00012120309 0.008357744 0.005297516 -0.0049828636
0.0064057386 0.0011586698 -0.005543462 -0.00502344 0.007904139 0.00034313436 0.016674709 0.009804597
-0.0038687668 0.016465932 -0.007489112 -0.007860012 0.002320526 0.014304802 -0.007292854 0.007516283
-0.001188034 0.021058671 0.0065458445 0.00083651097 -0.013821027 -0.013005424 0.0013498386 0.005330995
0.01391232 0.00059214915 0.0048453133 -0.011420479 -0.0011195217 0.012040002 0.01244097 -0.010318789
0.0006774853 0.018224098 -0.0041139536 -0.0029746457 -0.0060378825 -0.0072746687 0.0059971674 -0.00970518
-0.00705555 0.0082699135 -0.005767237 0.026541678 -0.004381239 0.0109622795 0.0051162546 0.008928312
-0.009855211 -0.009093485 0.014608976 0.009856491 0.00042194134 0.002362749 -0.00025775944 -0.011434919
-0.018282874 -0.0023298527 -0.0041373717 -0.00074423436 -0.0011015196 0.0051943134 -0.0029347986 0.014034809
-0.0015795487 0.0053581134 -0.019311544 -0.005612529 -0.009210151 0.00074169633 0.011326989 0.0075949347
0.004118192 -0.0023019952 -0.0056961137 -0.0058792545 -0.0068391827 -0.007525899 0.013674002 0.002482512
-0.00396167 -0.005298456 -0.021204343 0.014029582 0.007381796 -0.003410041 0.010443788 0.0102075515
-0.016286628 -0.020050138 -0.011414509 0.021578107 0.0037527003 -0.0066178213 0.0010093941 -0.003956352
0.0018176708 0.012797565 0.0056160595 -0.0065187197 0.011820629 0.0075410977 -0.008999393 0.001854067
0.0011686016 0.0065699024 0.00030127223 -0.014301185 -0.002095858 0.0023599947 -0.009235408 0.002468516
0.012786511 -0.0047566113 -0.01684054 0.010568668 -0.014556808 0.006217506 -0.0020642688 0.0021550735
-0.0020188375 0.008074295 -0.0058343173 0.0048731486 0.00048640658 0.0030169007 -0.019130806 -0.0061484915
0.0045577595 -0.008162035 0.011056617 -0.0047676465 0.0077107768 0.0011856249 -0.007269918 2.9679502e-05
-0.018605223 -0.009123954 0.013561212 -0.004180045 0.0060864924 -2.7710385e-05 0.0038746549 -0.0021806154
0.013660978 -0.009080313 -0.010505061 0.020210698 -0.014574344 0.003014425 -0.00418295 -0.0037150327
0.0005396008 -0.004034549 0.0135501595 0.008640826 -0.0078734225 -0.010549046 0.004754525 -0.0057269824
-0.00011345851 -0.0012216094 -0.011196382 0.0017313081 0.005672557 -0.0014480774 0.0037301301 0.0020388416
-0.013145473 -0.00472166 0.007611796 0.00079885445 0.004200702 0.0028437392 -0.016737351 -0.0012221377
-0.015324218 0.005169009 0.0042756763 9.3019e-05 0.005993986 0.004920102 0.0023343607 0.00915013
0.012340974 -0.0060310243 0.017127085 0.0062258393 0.01889483 0.005873895 -0.005722998 -0.002606117
0.0075291125 0.012971259 -0.0012055924 -0.013404516 -0.00047312054 -0.014368086 -0.008513916 -0.019829325

hidden_features.0.bias f4 [50]
00000000: a5c2 2337 75f9 0337 10ce 5937 38d1 1238
00000010: 0acc 3fb6 f050 03b8 3f89 dcb7 f5dc f3b6
00000020: abc1 f237 5526 5db7 fb03 0f38 aa24 c736
00000030: 4342 c8b7 a4f3 ea37 9dd5 7436 facb 9eb6
00000040: d833 db35 c69a 6a37 d610 31b5 40aa 16b7
00000050: 4ee0 f335 d4f9 9a33 fa7d ecb4 5f2b dd35
00000060: b745 4eb7 4e3a 0a37 c248 9c37 27ae 47b7
00000070: ac1f bd36 1b32 2bb7 82a8 acb7 5ff1 9fb5
00000080: 2b71 2036 6be7 1c38 5aa1 1537 4560 18b7
00000090: a112 f4b6 e51f 29b8 f4a3 57b7 39c6 0438
000000a0: 99d1 da36 9c0a 8eb6 0d4c 8137 9003 3d37
000000b0: 7216 aab7 9ba2 aa37 0000 0000 83a4 b5b6
000000c0: fdeb 8336 065b f8b5
9.760876e-06 7.86629e-06 1.2982186e-05 3.5003963e-05 -2.8579984e-06 -3.1308213e-05 -2.6289954e-05 -7.267687e-06
2.8938832e-05 -1.3181551e-05 3.4097564e-05 5.9349304e-06 -2.3872713e-05 2.8008428e-05 3.6483173e-06 -4.732513e-06
1.633186e-06 1.3983523e-05 -6.596214e-07 -8.980336e-06 1.8170192e-06 7.216627e-08 -4.4050086e-07 1.6478406e-06
-1.2294789e-05 8.239016e-06 1.863053e-05 -1.1901872e-05 5.636326e-06 -1.020406e-05 -2.0582465e-05 -1.1916671e-06
2.390773e-06 3.7408823e-05 8.91866e-06 -9.0823205e-06 -7.2739354e-06 -4.0322444e-05 -1.2853172e-05 3.165586e-05
6.5213067e-06 -4.233165e-06 1.5413412e-05 1.1266107e-05 -2.0276031e-05 2.0341298e-05 0.0 -5.413372e-06
3.931577e-06 -1.8503931e-06

hidden_features.2.weight f4 [50, 50]
00000000: 0db8 8b3c f073 b5bc 6def 533b 5b6e 98b8
00000010: e203 18bc 87f6 b13b 793a de3b e5f9 c73b
00000020: c2aa 4f3b 65fe 0abb d8ba 5dbb b77c aabc
00000030: 13f9 aa3c 7e31 7abb 852e 5b3b 7c39 7e3c
00000040: d16d 88bc 8d30 bc3b dd84 5dbc ee1e 04bc
00000050: 27b1 903c dc5d 90bb f811 a7bc d1c1 08ba
00000060: da4d 9d3b d8ed 9c3b 7d76 07bc bd06 adbb
00000070: 706e 7d3b b06a 9ebb 4129 463c ca09 683c
00000080: cedc c73b 2f1f e33a 10fb 953b 1374 543a
00000090: b1ef bdba 4647 6b3a 03df 17bb fdf3 45ba
000000a0: 4d70 a53b 65bf 4ebc bc86 cfbc 440f 19bc
000000b0: 7b20 2dbc 0e72 66bb 2a37 e13a d9fe 1fbc
000000c0: 2b85 43bc 14cd 763c 16f6 bfbb 36d5 10bb
000000d0: 2450 4cbc a566 813c 80cc d3bb 4322 b6ba
000000e0: 88fa ecbb 0db8 98bc 0d1c ecbb 649a 13bb
000000f0: df89 c23b 399b 17bc cf73 e73b c3c8 e0ba
00000100: 516a e7bb af26 d73b 7b6a 2c3c ae9a 053c
00000110: 4919 8137 4978 c5bb 5fb0 183c a672 3e3b
00000120: 0563 64bb 0029 1337 8575 9fbc 0fc1 01bc
00000130: c680 103c 5bac 2dbb f445 0e3c 9bc8 2e3b
00000140: 1929 813b ef9a 10bc bee4 923b 2ebc 983b
00000150: bacb 2cbc 8bae 1cbb f18f b6bb 213b 0abc
00000160: 0246 953c 59c9 e63b fc24 f7b9 edd1 6c3c
00000170: 646a dd3a 0810 43bb 9499 383b 33d8 273c
00000180: d6a5 6b3b 085c db3b 0a25 383c 405d 0b3c
00000190: 8018 293c 9482 373b 8247 a1ba af95 143c
000001a0: 7f97 993b 9062 e0ba 99b0 55bb 9bd1 c4bb
000001b0: 8f82 4c3b d0ce 6e3b 87a7 cc3a 5112 423c
000001c0: 1f2a 40b9 14c9 d9bb 5020 4e3b b0d9 26bc
000001d0: 9bf8 13bc 110d 9bbb 9cf0 e93b dc86 623b
000001e0: a386 0c3c 5d7e 85bc caf9 af3a a2c3 36bb
000001f0: 0e93 49bb 09ea 14bb 7aa9 113c d3e7 d33b
00000200: ca71 b6bb f803 93bb 388d 9639 ace5 8ebb
00000210: b20e 8f3a 3f12 81bc c2fb d23b 7f2a 063c
00000220: f355 b4b9 fe03 6abc 2f51 96ba e4d3 8e3c
00000230: df93 1b3c 7214 143c d97d fbbb 9505 43bb
00000240: bf26 d33b 557e cfbb 972e 963c 0751 fe3b
00000250: 79d1 0dbb 2fb8 533b 6567 97bc fffc 853b
00000260: 57ce d23b 359d 3938 76bd 633c f65d b6bc
00000270: 4ebd 113c 8b38 68bb 26f3 26bc 5b96 373c
00000280: d789 13bc 1a3f 71bc c35e 31bc 760b 02bc
00000290: b5b1 a03b 4d29 863b fd37 723c 52ce 82bb
000002a0: 1390 733a ec75 c0ba 180f e939 efb0 27bc
000002b0: bc7d ed3b 7fb5 30bc af85 0a3a e027 643c
000002c0: 9953 553c 013a ddbb 1fce 1fbc 5917 d53b
000002d0: 5a52 97bc 34a7 57bc 9e69 21bb afe7 37bc
000002e0: 5387 1a3c 317b c03b 34b4 21bc e55a 553c
000002f0: 4158 383c d334 f43a cd5b 80b9 d0ac 8bbc
00000300: 2f89 5cbc f461 7b3c 0bf0 fcbb d7d5 303c
00000310: fef8 cebc e127 563c 4cf8 143b ff9a d539
00000320: 5f94 4e3c 320e 483c 41b2 333c 5656 fd3b
00000330: d321 563b bb14 89bb 71db 92ba efe7 acbc
00000340: 4b4a 32bc 0614 04bc 3511 843c 4bf0 e13b
00000350: a731 3c3b 5556 da3a 1f48 8dbb 8a4a 593c
00000360: a8bd b7bb 0d22 003c c391 243c 8804 973b
00000370: 9624 dfbc 638f cdbb 688c 5b3c abb8 10bc
00000380: 5db3 a1bc 6910 3a3b 3681 e439 8120 ebbc
00000390: f2fd 70bc 4a73 59bb e586 263c ba42 05bc
000003a0: 3036 abbb 3f03 953b 4bbe 013c 91f4 cb3a
000003b0: 6295 55bc 9d19 903c 080e 9f3b 98f1 c23b
000003c0: 7617 f63b f676 06bc 8cbf 2bbc e951 2f3a
000003d0: 8f93 52bc c757 03bc 4eb5 00bb 8d54 1abb
000003e0: d318 e53c a6a5 18bb d135 803c 6891 0d3a
000003f0: bc79 e9bb 2632 bfba 17a8 0cbc 5667 d33b
0.017055536 -0.02215001 0.0032338754 -7.26848e-05 -0.0092782695 0.0054309997 0.006781873 0.006102788
0.0031687473 -0.002120876 -0.0033833291 -0.020811422 0.020870721 -0.0038176472 0.0033444476 0.015516635
-0.016653927 0.0057430924 -0.013520447 -0.008064015 0.017662598 -0.00440572 -0.02039431 -0.0005216869
0.0048005404 0.0047890954 -0.008267996 -0.0052803443 0.0038670562 -0.0048344955 0.012094797 0.01416249
0.00609932 0.0017328019 0.004577048 0.00081044546 -0.0014490989 0.0008975159 -0.0023173697 -0.00075513107
0.0050487877 -0.012618874 -0.025332801 -0.0093420185 -0.010566826 -0.0035163197 0.0017182578 -0.00976535
-0.011933605 0.015063543 -0.005858193 -0.002209974 -0.012470279 0.015796015 -0.0064635873 -0.0013895709
-0.007232014 -0.01864245 -0.0072054924 -0.0022522444 0.0059368457 -0.009253317 0.007063366 -0.0017149675
-0.0070622345 0.0065658907 0.010523434 0.008154554 1.5389773e-05 -0.006026302 0.009319394 0.0029060035
-0.003484906 8.771429e-06 -0.019465217 -0.007919564 0.0088197645 -0.0026500437 0.00868367 0.0026669863
0.003941667 -0.008826002 0.0044828346 0.0046611046 -0.010546619 -0.0023907747 -0.0055713584 -0.008436949
0.018221859 0.0070430455 -0.00047139067 0.014454347 0.0016892669 -0.0029764194 0.0028167712 0.010244417
0.0035957 0.0066943206 0.0112393 0.008506119 0.010320783 0.0028001415 -0.0012304636 0.0090688905
0.004687249 -0.0017119218 -0.003260648 -0.006006432 0.0031205749 0.0036439188 0.0015613892 0.011845187
-0.00018326238 -0.006646285 0.0031452365 -0.010183737 -0.00903144 -0.0047317822 0.0071392786 0.0034565246
0.008577022 -0.016295606 0.0013425883 -0.0027887602 -0.0030757817 -0.0022722504 0.008890504 0.0064668446
-0.005567764 -0.004486557 0.00028715446 -0.004360875 0.0010914414 -0.01575577 0.0064387033 0.008188843
-0.00034396313 -0.014283178 -0.0011468286 0.017435022 0.009495704 0.009038078 -0.0076749143 -0.0029757966
0.006443828 -0.0063321986 0.018332763 0.007761124 -0.0021639748 0.0032305827 -0.01848192 0.0040889974
0.006433289 4.4253848e-05 0.0139001515 -0.022261601 0.008895231 -0.0035434093 -0.010189807 0.011205281
-0.009005032 -0.014724517 -0.010825816 -0.007937303 0.004903997 0.004094279 0.014783856 -0.0039918805
0.0009291183 -0.0014683581 0.0004445247 -0.010235055 0.0072476547 -0.01078546 0.00052842026 0.013925523
0.0130204195 -0.0067512994 -0.009753733 0.0065030274 -0.018471885 -0.013162423 -0.0024629603 -0.011224671
0.009431678 0.0058740606 -0.009869624 0.013022159 0.01125151 0.0018631466 -0.0002448246 -0.017050177
-0.0134604415 0.015343178 -0.007719045 0.010793171 -0.025265213 0.013071031 0.0022731004 0.00040742007
0.012608617 0.012210416 0.010967792 0.0077312393 0.003267397 -0.0041833795 -0.0011204315 -0.021106688
-0.010881971 -0.008061415 0.016121486 0.0068951 0.0028716119 0.0016657809 -0.004311576 0.0132624
-0.0056073256 0.007820618 0.010044518 0.0046086945 -0.027239125 -0.0062731965 0.013400175 -0.008833091
-0.019738847 0.002839113 0.00043583818 -0.028702023 -0.014708983 -0.003318029 0.010163997 -0.008133585
-0.0052249655 0.004547506 0.007918905 0.0015560557 -0.013036104 0.017590338 0.0048539676 0.0059492104
0.007510121 -0.008207073 -0.01048268 0.0006687926 -0.0128525635 -0.008016533 -0.0019639316 -0.0023548931
0.027965939 -0.0023292094 0.015650662 0.00054003904 -0.0071251076 -0.0014587089 -0.008584998 0.0064515276

hidden_features.2.bias f4 [50]
00000000: eb5e 93b9 599e 603a ac90 c539 9fac 3d35
00000010: 153c ddb9 06a5 a538 af86 ccb9 067a 4639
00000020: 93cc d6b9 af17 4939 1a86 adb9 3029 a637
00000030: 2fed c839 0000 0000 4a10 8939 f18b 463a
00000040: ee01 b5b9 54bc 343a bcaa c1b7 7d29 1cb9
00000050: 9f61 18b8 4ba7 95b9 0000 0000 ae3f fd35
00000060: 8910 103a 5bb0 cab6 8546 b8b9 08be bfb9
00000070: 9262 3bba d64d 5c3a 0e58 01ba d8b1 cb38
00000080: a672 ce39 74cb 7d38 4561 ac38 33e8 043a
00000090: a904 05ba 4d3e b339 e420 f339 79fd 1b3a
000000a0: af81 1c39 5fde e4b8 780b ec39 39c2 7bb9
000000b0: 3c32 03b8 ed9b fab9 16e1 1eb4 a017 a3b8
000000c0: 74ae c9b6 ec67 a53a
-0.00028108744 0.00085685175 0.00037682557 7.0659183e-07 -0.0004219717 7.898551e-05 -0.0003901026 0.00018928209
-0.0004096968 0.00019177677 -0.00033097045 1.9807921e-05 0.00038323688 0.0 0.00026142813 0.00075739535
-0.00034524448 0.0006894518 -2.3086897e-05 -0.00014892775 -3.633054e-05 -0.00028544138 0.0 1.8868502e-06
0.0005495628 -6.0405996e-06 -0.00035147756 -0.00036571943 -0.0007148172 0.00084039324 -0.00049340806 9.71292e-05
0.00039376802 6.050938e-05 8.219717e-05 0.0005070001 -0.0005074242 0.00034187958 0.00046373077 0.0005950551
0.0001492563 -0.00010913307 0.00045021973 -0.00024009579 -3.127962e-05 -0.0004779989 -1.4796782e-07 -7.776846e-05
-6.010576e-06 0.0012619472

density_estimator_head.weight f4 [50, 11]
00000000: 81ca 05bb b68b 793c 4303 853c 8767 0a3b
00000010: f55a 9c3b 0ddd 8bba ebec bc3b 4c29 28bc
00000020: be8f 6db9 a4e4 7e3b acaa bdbb 5247 253b
00000030: 3fda 55bc 54ef 1dbc 12bb 963b ae4b 8f3b
00000040: adae 4a3b ca16 773c f603 a33c cd96 0d3c
00000050: 78a7 fd3b 52dc 613b 1adb c9bb 5ee5 51ba
00000060: 9fc8 3bbc 0dfb c3bb 7119 2e3c 1698 93bb
00000070: bcbc 02bc 6f91 753c fdf5 0ebc 6e93 543a
00000080: d78b bf39 db7e 17bc 0936 b33b 706d 173b
00000090: 1032 673b 8863 6d3c 6a5a 39bc 0c90 46bb
000000a0: aa25 533b ca87 dfb7 33db 8aba d196 4bbb
000000b0: d775 d8bb e2bb a53b 9a62 833c 4c00 e03a
000000c0: 7c68 963b 0699 b4b9 3ac5 7abb 2672 15bb
000000d0: e463 f33b 2c0d 4dbc 7310 debb c53f 063c
000000e0: 63df 453b 3178 763b d1b8 cbbc e2e0 4abc
000000f0: 1db5 e4b8 1fd8 823c cea1 03bc 341b afbb
00000100: 0005 b73c 8b70 0dbb b997 683c 2571 64bc
00000110: a18e 2cbb f549 57bc 1370 3b3c 975d 7c3c
00000120: da34 4abc 92df d2bc a8d2 243c 6aa4 a43b
00000130: 19e8 29bc 9fa3 3bba 2353 2e3b c4f3 beb8
00000140: bd91 143c c311 1dbb 5f2b c0bb 7431 373c
00000150: ba58 f03b 8cbb 763a 2ba0 bebb 9b69 883c
00000160: a6a5 383c b676 903c db8b 1a3c 20e2 0dbc
00000170: c46d 2c3c afd9 8f3c 04c2 883c 3902 6fbb
00000180: ebe5 913b 5142 45bc b38c cf3c 64cc 47bc
00000190: b0e6 e03a 38d1 7a3b bf67 b0bc 7051 8abb
000001a0: 3d08 853b 0b1c c0bb e457 4b3c 9ecd 953b
000001b0: fca7 8bbb 0f9f 6cbb ce52 2b3c d69a 853a
000001c0: 4fd8 9d3c 423c 99bc 014b 0abc ae95 003c
000001d0: 6de6 0ab8 fdc5 b53b eaaa f5bb c811 2eba
000001e0: 51d6 a7bb 4039 d63b 05d7 54bc 12e5 a2bc
000001f0: 12af 3fba d051 b7bb 5138 13bc c3d8 2cbc
00000200: a281 bfbb 9591 2fbb 304d d83b ce17 36bc
00000210: c72e 9abc 5741 aa3b 179e 9cbc 393d fd3a
00000220: 46ea a23b 7cbb b03b f483 88bc f1b1 313c
00000230: c578 8c3b abc4 a9bb ec85 9abb 7b79 cb3b
00000240: 405e 843b a233 843c 1dd3 05bc 049b 183c
00000250: e8a1 453c bac5 8cbb 114f 9ebb 2831 98bb
00000260: dc35 463c dbf9 98bc 9f8e 73bc 424e 20bc
00000270: 6841 94ba aca7 ac3b 7e65 9b3c 2247 04bc
00000280: cca0 9cbc 682c 223c d83f db3b a40a 86bb
00000290: c018 ba3a 44dd 9dbc 25d9 213c e8e0 7dbb
000002a0: 7fa7 95bb 86bd 053c 5a18 0f3c 6949 d2bc
000002b0: f2a2 25bb d6bd c9bb 53bd 5b3c d84d 233c
000002c0: 9168 323c 937d d9bb fa64 b5bb c4d5 7abc
000002d0: c73c 4b3c 45f2 57bc 362a 8a3c 0cb8 e2b9
000002e0: 992d b6bb cb14 34bc 79fd 50bb d69d d0bb
000002f0: c8e8 81bb 6ffb d53b 2781 77bc a254 b0bb
00000300: f427 7f3b 208e 11bc 5cf9 eebb 391d 183c
00000310: 024f 383c 87aa d43b d5f9 023b 7d02 1f3b
00000320: ba61 103c ceff adbb 8d87 95bb d23d 91bc
00000330: a3fd 183a 5891 593b 8720 273c 19b8 f43a
00000340: 0e67 2b3c 34f8 4c3b 6e8f 7a3b 9ef8 40bc
00000350: 5924 debb f7ee d23c 4e25 853b 6d59 f3bb
00000360: da9c 35bb babe b13a 63a6 b2b9 ed06 b1bb
00000370: d8e2 143c fdfc 8ebc e7e9 bcb9 ced2 263b
00000380: 5f22 5bbc 2e90 7d3a 97c9 52bc ced4 ba3b
00000390: 3b45 6f3c 786e f43a 9f01 6d3b 90e0 62bc
000003a0: 60fa 263c de41 77bc a373 763a 47d7 e93b
000003b0: d590 84bc bff3 803c f88f 593b 9a1c 93bc
000003c0: 132d dabc b13c 72bb 994a 683c 651c 803c
000003d0: df8d 16bc 6c89 1cbc 3fa3 363c b46b 92bc
000003e0: 7c34 c4ba f3a0 b53b 2157 1b3c 07c0 05bc
000003f0: 58d0 b43c 6374 253b 5104 deba f503 71bb
-0.0020414891 0.015231064 0.016236907 0.0021118836 0.004771585 -0.0010670737 0.0057655475 -0.010263752
-0.0002265563 0.0038893605 -0.005788168 0.0025219512 -0.013052522 -0.00963958 0.0045999372 0.0043730354
0.0030926869 0.015081117 0.01989935 0.008641911 0.007740911 0.0034463597 -0.006160152 -0.00080068957
-0.011461406 -0.0059808553 0.010626183 -0.004504214 -0.007979568 0.014988287 -0.00872564 0.0008109127
0.00036534548 -0.009246553 0.005469088 0.0023106001 0.0035277642 0.014489062 -0.01131306 -0.003029826
0.0032218494 -2.6646903e-05 -0.0010593891 -0.0031065235 -0.0066058445 0.005057798 0.016038228 0.0017089932
0.004590092 -0.00034446287 -0.003826453 -0.0022803633 0.0074276794 -0.012515347 -0.0067768632 0.008193915
0.0030192963 0.003760826 -0.0248684 -0.012382718 -0.00010905622 0.015972195 -0.008034183 -0.005343819
0.022341251 -0.0021581973 0.01419633 -0.013942991 -0.002633013 -0.013140191 0.011440295 0.015403173
-0.012341702 -0.025741372 0.01005999 0.0050244825 -0.010370278 -0.00071578653 0.0026599846 -9.105311e-05
0.00906795 -0.0023966886 -0.0058645452 0.011181224 0.007334796 0.0009412102 -0.0058174334 0.01665192
0.011269962 0.01763473 0.009432758 -0.008659869 0.010524217 0.017559854 0.016694076 -0.003646983
0.004452457 -0.012039737 0.025335645 -0.012194727 0.0017158594 0.0038271677 -0.021533845 -0.004221134
0.00405982 -0.005862718 0.0124110915 0.0045716306 -0.0042619687 -0.0036105548 0.010456754 0.001019324
0.019268183 -0.018705491 -0.008440734 0.007848186 -3.3116365e-05 0.0055472837 -0.007497181 -0.0006640223
-0.005121984 0.0065375865 -0.012990718 -0.01988462 -0.0007312159 -0.0055944696 -0.008985595 -0.010549727
-0.005844311 -0.0026789655 0.0066009983 -0.011114074 -0.018821133 0.0051957774 -0.019118352 0.0019320614
0.004971775 0.0053934436 -0.016664483 0.010845647 0.004286858 -0.0051809154 -0.0047156718 0.00620955
0.004039556 0.016137902 -0.008168009 0.009314302 0.012062527 -0.004296032 -0.004831203 -0.0046445318
0.012097802 -0.018673828 -0.0148655465 -0.009784283 -0.0011310996 0.0052690115 0.018969294 -0.0080736
-0.019119643 0.009898283 0.0066909604 -0.004090624 0.001419805 -0.019270547 0.009878431 -0.003873879
-0.004567086 0.008162862 0.008733833 -0.02566977 -0.0025274125 -0.0061566634 0.013411838 0.00996729
0.010889188 -0.006637284 -0.005535719 -0.015309755 0.012404627 -0.01318032 0.01686583 -0.00043243205
-0.005559635 -0.010991286 -0.0031889363 -0.0063664718 -0.0039645173 0.0065302174 -0.015106476 -0.005381183
0.0038933726 -0.008883983 -0.0072929095 0.009284311 0.011249306 0.006490055 0.0019985337 0.0024262958
0.008812362 -0.0053100353 -0.004563278 -0.017729674 0.00058361347 0.0033198204 0.010200626 0.0018670588
0.010461582 0.003127587 0.0038232463 -0.011778025 -0.0067792353 0.025748713 0.004063285 -0.007426432
-0.00277119 0.0013560869 -0.00034074773 -0.005402437 0.009087287 -0.017454619 -0.00036032425 0.002545524
-0.013374894 0.00096726685 -0.012865446 0.005701638 0.014603908 0.0018648645 0.0036164296 -0.013847485
0.01019153 -0.015091388 0.00094013865 0.0071362588 -0.016182343 0.015741227 0.0033197384 -0.017957974
-0.026632821 -0.0036962444 0.014177942 0.01563854 -0.009189098 -0.009554248 0.011147319 -0.017873622
-0.0014969255 0.0055428683 0.009481222 -0.008163459 0.022072002 0.0025246374 -0.0016938542 -0.003677604

density_estimator_head.bias f4 [11]
00000000: 5fb2 0cbd f38b 9abc 69df 31bc 7ad8 cabb
00000010: ed9b 4eba d7f0 383b ade0 d93b b33f 4a3c
00000020: 750a 0f3c 809f a93c 9230 a23c
-0.034349795 -0.018865561 -0.010856488 -0.006190357 -0.0007881511 0.0028219724 0.006649098 0.012344289
0.0087305205 0.020705938 0.01979855

Q1.0.weight f4 [50, 50, 5]
00000000: 8a82 c53f 57fe fc3f e974 1ebe b41f 37bf
00000010: d40f 353f db10 1bbf cb89 5cbf 9ff4 023f
00000020: d92b 96bf 5a16 013f 3889 85bf 2bfc 5ebf
00000030: 3975 53bf e494 febe 0cda 0cc0 b30d 0e40
00000040: 1f51 e9be 38e1 a4be e4f9 5bbf 4c0e 523f
00000050: c612 5b3f 6cf9 d0bd e9e3 36bf cbec e6bf
00000060: 8009 e1bd d110 51be 4d19 383f 664c 0140
00000070: 259d c83f d9d2 cf3e b1e3 223f efa9 953d
00000080: bffe 873f 8c68 1bbe cff4 cd3f 3c54 003f
00000090: 2de5 d1bd 5da1 d5be aec7 b7be 8ece 503e
000000a0: 47e2 28bf c17d 0abf 5710 b93d c9d3 5ebf
000000b0: 23e0 03c0 05f4 3b3f 8645 9bbf 2540 e7bf
000000c0: a36a e5bf 68ee 9dbe 1d95 ad3f 67f2 fbbe
000000d0: 7b5e ae3d decd 16bf a390 30bf 2aa4 ebbf
000000e0: dcc6 91be 84b1 58bf 8daa fbbd 0c76 9c3e
000000f0: e301 a6bf 42f3 d83e 698d 67be ecdb fabd
00000100: 610f 2a3f 72a7 173f 46a7 6dbf 3142 ca3f
00000110: 0fa6 763f ee63 a83f fbff 0d3f 5c78 9f3e
00000120: 6c1a 733e 1371 87bd f868 9abf 7768 03bc
00000130: ac56 8abf 7208 b53f af28 ae3e 6a90 cabf
00000140: 10fa a63e 2b56 293f 0d1a 3d3e 7e07 473f
00000150: 63b9 4a3f 8f6a fdbf dceb b43f 456a d93f
00000160: 603f 53bf 72b3 a8be 6e0a 08be 5f9f 85be
00000170: a31f 133e 0278 6b3e 0a4f 0b40 fd9b b9be
00000180: 7fa8 34be 68c0 453a e6fd 97bf cdcf 8fbf
00000190: 536a 20be c0f6 6f3d 8169 c13f 58f2 4a3f
000001a0: 71c9 5c3f d03f e8be 4a25 3b3f a68b b1bf
000001b0: 3ab2 903f 3241 6f3d d5ce 103f b0ba 7b3f
000001c0: e4b7 8dbe c66d 7f3f bb94 d6bf e928 c5be
000001d0: 082d 4abf bcb4 903e 4972 be3e a56e 0b3f
000001e0: 9cc0 ad3f ae8f 53bf 89f0 543f 402c 783f
000001f0: a721 00c0 d187 12c0 539f 64bf ba7b 3e3f
00000200: c0f9 6abe 18af 0a3f 34f0 9ebe 9a88 74bf
00000210: 1190 ab3d 8a15 68bf 43f5 453f 2c52 dabe
00000220: bd11 813d fe23 1d3f 998e a9bf 121a b03f
00000230: a8ee 5e3f 1ada f03d c97d ca3d d25c 99bf
00000240: b90b 62bf fcd6 ebbe c0a6 0dbf 52a8 63bf
00000250: f02a e93f f8fb 973f 2e21 183f a9fd 38bf
00000260: d8d8 e43f ff19 93be a607 f2be e641 f33e
00000270: c5fb a53f 0a38 273f a2ae 443f 4431 a93e
00000280: 380e 883f 72b6 cdbe be8a 98bf 7f7f bfbf
00000290: f063 3a3f 2489 b0be 3843 8abe 4c3f 05be
000002a0: 81df 20bf 04f2 cd3e 54fa 9d3f e72b 52be
000002b0: 73d0 53bf c9fe fe3d 7e48 a83f 4e36 57be
000002c0: 5a92 15be c91e 80be 71a2 fd3e 1619 573f
000002d0: 7879 013f f486 6bbf 9c32 69bf 0ef2 04be
000002e0: 3327 95be 301f e6bf b803 8e3f ce99 0d3e
000002f0: 5289 51bf 768b cfbe 84ee 4a3e c4ea 8c3f
00000300: 0910 e43e b455 afbf 5c69 933f 099c 0ac0
00000310: 1c00 703d eba7 cebf 4f56 fe3d 7e01 1ebf
00000320: cfb6 2d3f a2c7 3d3f 06df 01bf 4c9e 07bf
00000330: 2876 92bf 5c5e ad3e 0271 4a3e c0dd 0e3f
00000340: 114f ec3e ff55 5fbe e5c7 11bf e5e0 513f
00000350: 04e9 c13c e8f9 863f 3a4c dcbf 0d30 5cbf
00000360: f9b0 2cbe e239 eb3f 5cb7 683f d680 1a40
00000370: e2f0 81be 9075 7d3f eb5a a2bf 9cd0 62bf
00000380: 2505 e6be 4aac a63f 9720 5bbe cf8b 4f3f
00000390: 96b1 a7bf fcc5 4dbf 93ec 423f f6fe 8fbf
000003a0: f880 99bf 984d f8bf d7f1 a33d a802 3abe
000003b0: 9a83 30bd 2fe9 0dc0 c5a3 423f 4115 86bf
000003c0: 4a17 f73e 9d4c b8bd 0fcd 0c3f 7376 8cbf
000003d0: 25a4 aa3e 79f9 57be 98e2 893e c475 b53e
000003e0: 7544 00bf e6cf 75bf 1c38 6bbf 55a7 4abe
000003f0: a744 4f3d f061 033e 0fc2 f5be 5535 1f3f
1.5430462 1.9765118 -0.15474285 -0.7153275 0.70727277 -0.60572594 -0.86147755 0.5115451
-1.1732131 0.5042473 -1.0432501 -0.8710353 -0.8260074 -0.4972297 -2.2008085 2.2195861
-0.45569703 -0.32203078 -0.8592818 0.82053065 0.8557552 -0.102038234 -0.71441513 -1.8041013
-0.1098814 -0.20416571 0.71913606 2.020288 1.5672957 0.40590551 0.6362868 0.07307803
1.0624617 -0.151766 1.6090335 0.5012853 -0.1024879 -0.41724673 -0.3589453 0.20391294
-0.6597027 -0.54098135 0.0903632 -0.8704191 -2.0605552 0.7341922 -1.2130592 -1.806645
-1.7923168 -0.30845952 1.3561131 -0.49208376 0.085141145 -0.5890788 -0.689707 -1.8409474
-0.2847203 -0.8464587 -0.12288389 0.30558813 -1.2969326 0.4237309 -0.22612537 -0.12248978
0.66429716 0.59239876 -0.92833364 1.580145 0.96347135 1.3155496 0.5546872 0.31146514
0.23740548 -0.06613364 -1.2063284 -0.008020512 -1.08077 1.4143202 0.34015414 -1.5825322
0.32612658 0.66147107 0.18466969 0.7774581 0.7918913 -1.9798144 1.4134479 1.6985556
-0.8251858 -0.32949406 -0.13285229 -0.26098153 0.14367537 0.22994998 2.1766992 -0.36251822
-0.17642401 0.00075436244 -1.1874359 -1.1235291 -0.1566556 0.05858493 1.5110322 0.7927604
0.86244875 -0.45361185 0.73103774 -1.3870742 1.130439 0.058411784 0.565656 0.9833174
-0.2767936 0.99776876 -1.6764139 -0.38507774 -0.7897496 0.2826289 0.37196568 0.54465705
1.3574405 -0.8264111 0.8317953 0.9694252 -2.002054 -2.2895396 -0.8930561 0.7440754
-0.22946835 0.5417342 -0.31042635 -0.9552094 0.08377088 -0.90657866 0.77327365 -0.42640817
0.063022114 0.61383045 -1.3246642 1.3757956 0.8708291 0.117603496 0.09887273 -1.1981452
-0.8829914 -0.46062458 -0.55332565 -0.8892871 1.8216228 1.187377 0.5942563 -0.72262055
1.7878675 -0.2873077 -0.4727146 0.47511214 1.2967459 0.65319884 0.7682897 0.330454
1.0629339 -0.40178257 -1.1917341 -1.4960784 0.7280874 -0.3447963 -0.2700441 -0.13012427
-0.6284104 0.40223706 1.2342019 -0.2052456 -0.82739943 0.1245094 1.3147123 -0.2101681
-0.1460661 -0.25023487 0.49537995 0.84022653 0.5057597 -0.920028 -0.9109285 -0.12982962
-0.2913147 -1.7978268 1.1094885 0.13828203 -0.8185016 -0.40536088 0.19817549 1.1009145
0.44543484 -1.369803 1.1516528 -2.1657736 0.058593854 -1.6144994 0.12418806 -0.61721027
0.6785707 0.7413274 -0.5073093 -0.52975917 -1.1442308 0.33861053 0.19769672 0.55807114
0.46154073 -0.21810149 -0.5694564 0.81983787 0.02367068 1.0545015 -1.7210763 -0.8601082
-0.16864385 1.837704 0.90904784 2.4141135 -0.25379092 0.9900751 -1.2683996 -0.8859956
-0.449258 1.3021328 -0.21399151 0.81072706 -1.310107 -0.80380225 0.76142234 -1.1249683
-1.1992483 -1.939868 0.08005112 -0.18165076 -0.043094255 -2.2173574 0.7603114 -1.0475236
0.48259956 -0.08998988 0.55000395 -1.0973648 0.33328357 -0.2109126 0.2693069 0.3544141
-0.5010446 -0.9602035 -0.9188249 -0.19790395 0.05060258 0.12830329 -0.47999617 0.62190753

Q1.0.bias f4 [50, 5]
00000000: 5d8b 5c3a c213 9939 4b98 15b9 23b0 7eb9
00000010: 4b88 11b9 748b ea3b 80dc eb3b b43e e53b
00000020: 8d3e 493b 18cc 323a c984 87bb ee68 49bb
00000030: bdc5 34bb 6458 99ba 09cd 8db9 b08a 1a3a
00000040: 5541 bab9 e487 abb9 c6a0 8eb8 93db 9ab6
00000050: 1093 22ba ad8b c8b9 3641 acb9 3533 0db9
00000060: 9f96 1bb8 86d1 ffba 8ec4 12bb f01f 13bb
00000070: 1fa5 81ba 5a6b 6fb9 4c1c 823a b1f0 2f3a
00000080: a9d7 033a 18f9 2b39 089d 3f38 19b0 a53c
00000090: 5dbf 9f3c d1ec 993c 2a02 053c 7b2a e83a
000000a0: a3f2 c5bb 3b79 b5bb 47b3 a8bb 57ed 0cbb
000000b0: 9a4e f1b9 45ee 5eba b35f 5eba c04c 44ba
000000c0: f8f0 96b9 f3b3 5fb8 7e36 bcba 0371 91ba
000000d0: 725a 61ba 9d3f 94b9 8f58 9db7 5868 0bbb
000000e0: 578d 07bb 6311 04bb 1228 67ba 7555 5db9
000000f0: 96a8 7e3c 1f2c 773c acb1 6c3c 1479 cb3b
00000100: 1fde b13a 22f2 e13a 2506 453a c8ec 403a
00000110: 9d66 bc39 29fd ce38 47d9 77bb 699e 93bb
00000120: 517b 98bb c933 09bb 4b94 f6b9 2600 a83c
00000130: 7f7b ab3c 49de a73c 9cd6 133c 57ae 033b
00000140: 13e7 daba 432a c3ba 6ce1 b4ba e2d0 17ba
00000150: 2832 07b9 a86e e73c 4154 e33c 66ac dc3c
00000160: 6d54 403c 8c09 293b bfff 883b 81b4 9e3b
00000170: 939e 9d3b 2397 0d3b b536 013a f868 7abb
00000180: 71a5 65bb 49a3 54bb a5b2 b0ba 7379 94b9
00000190: 8038 b13b 9ed5 b03b 97be ac3b aa01 183b
000001a0: 79af 053a b6b1 e0ba 8ee5 29ba 6b53 c2b9
000001b0: 0f2c d7b8 b0a4 5db7 44de 103c 3808 103c
000001c0: 4db7 0b3c f28d 743b 74e7 583a 9d53 843c
000001d0: edc1 7f3c 3b3e 763c 73a4 d43b 2464 ba3a
000001e0: 203c 99ba 345c b6b8 d237 03b7 0000 0000
000001f0: 0000 0000 f17a 713b 3d8f 8b3b ce3b 8b3b
00000200: 15b1 fa3a 3a4a e639 388e c237 f40c d2b9
00000210: 9dca 50ba 7278 0bba 9bc8 5cb9 b7aa 513c
00000220: 23b2 4e3c 2e3d 4a3c 91fa b03b 3f21 9d3a
00000230: a97f f139 1d8f 83b7 89d8 a238 2b2a a538
00000240: 11b1 b037 f689 5aba fec7 adb9 1f7a 57b9
00000250: 2969 9ab8 3b6e 88b8 b4ea b63b 4e8e bb3b
00000260: e0bd b53b 08f4 1f3b 6e45 0f3a 6dde bbbb
00000270: e090 abbb 9d69 9ebb 264e 03bb a6eb dcb9
00000280: d54f 833b 0b37 783b 90eb 663b 4036 c03a
00000290: c410 a739 83dc f0ba 882c edba 0521 e9ba
000002a0: bfc4 4dba a4d2 44b9 8527 debb 8e00 57bb
000002b0: 3fde 1abb 4709 67ba a50e 7cb9 7ee2 443a
000002c0: 7bb7 a43a f459 b83a 0ce4 2e3a 7099 2539
000002d0: b818 16b8 a7ba 15b8 cd49 15b8 40ad 85b7
000002e0: 7cae 88b6 982e 9b3c 109c a43c d518 a53c
000002f0: 99ca 133c e0a2 063b 7dd6 54bb 654c 52ba
00000300: cfd6 8f3a 83de a53a 5e58 3d3a 0000 0000
00000310: 0000 0000 0000 0000 0000 0000 0000 0000
00000320: bda4 a13c 24f6 9f3c 6296 9b3c 9f2c 083c
00000330: f5ad f13a 1bf6 dc3c 9690 d53c c7c8 cd3c
00000340: 8de1 313c 8b9a 1b3b 0000 0000 0000 0000
00000350: 0000 0000 0000 0000 0000 0000 63e7 2dbb
00000360: f897 3ebb f94f 4ebb bd64 c1ba 282e c8b9
00000370: 6ffd 033b 47fd e9ba 341b 2ebb b4ca bcba
00000380: 27cd dab9 2858 15bb 3519 a1ba 5057 68ba
00000390: 4ca3 96b9 e33a e5b7 c527 00bb 2d0f 6aba
000003a0: ac18 52b9 b83f 3b39 10c4 3d39 b145 673c
000003b0: 2d72 7a3c 403c 7d3c 96d6 e43b d3e2 d23a
000003c0: 87bd 1e3c 696b 5d3c 6f7c 793c 27c3 f33b
000003d0: 058b f23a 0ddf 103b d4a9 093b c27a e33a
000003e0: 033a 263a c89b 0c39
0.0008413101 0.00029197155 -0.00014266481 -0.00024288944 -0.0001387905 0.0071577374 0.0071979165 0.006996
0.003070745 0.00068205735 -0.0041357023 -0.003073271 -0.0027583682 -0.0011699316 -0.0002704638 0.00058953
-0.0003552536 -0.00032716908 -6.801034e-05 -4.6151195e-06 -0.00062017236 -0.0003825104 -0.00032854982 -0.00013465884
-3.7095157e-05 -0.0019517399 -0.0022394988 -0.0022449456 -0.0009891129 -0.00022832808 0.0009926646 0.0006711586
0.0005029389 0.00016400625 4.5684195e-05 0.020225571 0.019500429 0.01878968 0.008118192 0.0017712855
-0.0060408874 -0.0055381334 -0.0051483246 -0.002150377 -0.00046025665 -0.0008504133 -0.0008482888 -0.0007488243
-0.00028789765 -5.3334934e-05 -0.0014359502 -0.0011096302 -0.0008596546 -0.00028276155 -1.8757097e-05 -0.002127191
-0.002068361 -0.0020151965 -0.00088179216 -0.00021108038 0.015543124 0.015086203 0.014446657 0.006209502
0.0013570226 0.0017238299 0.0007515869 0.0007359502 0.00035934607 9.87e-05 -0.0037818716 -0.004504968
-0.0046533723 -0.0020935407 -0.00047031263 0.020507883 0.020932911 0.020491736 0.009023335 0.0020092928
-0.0016700946 -0.0014889914 -0.0013800091 -0.0005791319 -0.00012893288 0.028251007 0.027750136 0.026937675
0.011738879 0.0025793044 0.004180878 0.004843295 0.0048101633 0.0021604977 0.00049291115 -0.003820954
-0.0035041238 -0.0032445958 -0.0013480975 -0.00028319246 0.0054083467 0.005396559 0.0052717435 0.0023194351
0.0005099695 -0.0017142806 -0.00064810447 -0.00037064715 -0.000102602055 -1.3210971e-05 0.008842055 0.008791022
0.008527589 0.0037316051 0.00082742353 0.016153151 0.0156102 0.015029485 0.0064893304 0.0014220518
-0.0011690892 -8.6956104e-05 -7.821205e-06 0.0 0.0 0.003684696 0.0042590187 0.0042490726
0.0019126261 0.00043924322 2.3192828e-05 -0.00040063972 -0.0007964762 -0.0005320377 -0.00021055566 0.012797049
0.012615713 0.012343688 0.0054009636 0.0011988058 0.00046062216 -1.568306e-05 7.765095e-05 7.8756675e-05
2.1063288e-05 -0.0008336598 -0.00033146137 -0.00020549491 -7.36288e-05 -6.5055174e-05 0.005582178 0.005723751
0.0055463165 0.0024406929 0.0005465363 -0.0057333023 -0.0052357763 -0.0048343674 -0.0020035594 -0.00042137242
0.0040073195 0.0037874605 0.003523562 0.0014664605 0.00031865214 -0.0018376264 -0.0018094936 -0.001778633
-0.0007849447 -0.00018770486 -0.0067796134 -0.0032806727 -0.0023631004 -0.0008813333 -0.00024038048 0.00075105566
0.0012566888 0.0014064894 0.0006671555 0.00015792786 -3.5785808e-05 -3.5698202e-05 -3.55931e-05 -1.5935511e-05
-4.0734285e-06 0.018943116 0.020093948 0.020153442 0.009020471 0.0020543858 -0.0032476478 -0.0008022248
0.0010974052 0.0012654815 0.00072229456 0.0 0.0 0.0 0.0 0.0
0.019731874 0.019526549 0.018992607 0.00831142 0.0018438684 0.026972821 0.02606992 0.025120152
0.010856998 0.0023743238 0.0 0.0 0.0 0.0 0.0 -0.0026535622
-0.002908228 -0.0031480773 -0.0014754754 -0.00038181362 0.0020140072 -0.0017851972 -0.0026566507 -0.0014403672
-0.0004173305 -0.002278814 -0.0012290837 -0.0008863108 -0.00028731895 -2.7326349e-05 -0.0019554954 -0.0008928653
-0.00020036352 0.00017857447 0.00018097484 0.014115737 0.015286011 0.015456259 0.0069835884 0.0016089327
0.0096887415 0.013514378 0.015227421 0.0074390355 0.0018504566 0.0022105605 0.0021005766 0.001735531
0.0006341042 0.00013409473

Q1.1.weight f4 [50, 1, 5]
00000000: 3a8b ebbc 5250 553f 12ef a53e 228b 2bbf
00000010: 2df3 2a3f b358 13bf 27ff 3dbf 7414 8a3f
00000020: b87e 57bf 1cee c03e c81d 7d3e d3d0 84be
00000030: add8 f93e 5523 a73d ba19 38bf 80be 04bf
00000040: 8056 1b3e c29e e73e 15b0 573d f1d8 873f
00000050: 82dd 84be 7368 25bf c9c5 e9bf f80e ef3f
00000060: 3fa6 8d3e 9750 59bf 7b2c 06be 8408 fd3f
00000070: 1662 c9be 46c6 8c3e 571f 2cbf eca6 3b40
00000080: 7c24 27bf bfd3 423f 1722 943f 57f3 9f3d
00000090: 582e acbf 2e3e 41be 6133 1cbf 5744 3a3f
000000a0: 5e94 9d3e 0c0f 013d 7354 923f 4ad6 95be
000000b0: 1e13 a13e 3d02 8b3d 2aa7 28bf a14a 4bbd
000000c0: 467a f93f 61fc 003e 7b52 e93c c14e 7bbe
000000d0: 3bfd 953f ebd8 a13e d902 d7be 24ff fcbe
000000e0: 124b 0b3f faab aa3f e3f2 083f 64e9 983e
000000f0: 18ef b1be 0851 123f abae 7fbf e759 95bf
00000100: 13ac 97be f0df c23e 8375 7cbf 3453 0c3f
00000110: 80cb 4ebe e272 0ebf cb5a 41be 0f91 c23e
00000120: 3795 313f f728 003f 7d0d a9be 4234 b6bf
00000130: 9657 89bf 890b e23e 5243 fd3e bfe1 833e
00000140: f0f5 8d3e d96e 673c c411 113f 704d 23bd
00000150: 693d bb3f a388 f9be 2c88 cebf 09cb 1abf
00000160: 9540 e8be 5988 0340 d5dc 8ebf 6b02 2a3e
00000170: f201 213f ec61 8fbb 5b6a d3be c6f6 cfbe
00000180: 1a38 5b3f 90f4 913f 2ed7 be3f fa56 2cbf
00000190: 69a8 8ebe 1fd5 94be 82c5 41bf 2336 e93f
000001a0: ce1b 453f ea53 0fbf bb2b b23f f506 543f
000001b0: 8655 5a3f c771 3fbe e913 11bf 355a c6be
000001c0: d803 0bbe 5454 763f fe4f b8be 2e6b c0bc
000001d0: 19d8 3cbf b1ee 8dbe b7ab e7be 06b5 80bf
000001e0: 63a0 ccbf 12b7 c13e fd4f 7ebf 24da 69bf
000001f0: 8590 6ebe b293 66bf c571 a13e a44e ad3e
00000200: d504 f7bd b2d1 02bf 72d5 25bd 4864 603f
00000210: d206 a3be c38b d63d 53be 4dbd cdff 1e3e
00000220: 4b9d 84bf bca9 42be cd86 97be ee6f 23be
00000230: de80 b6bf 6b22 773f 111d 993d 1474 1b40
00000240: feb4 553f 2cb1 bfbd f106 1a3f 3607 cb3e
00000250: 0ba8 17be 1be6 22bf 37ac 57bf ce38 583e
00000260: 5e22 143e 0f68 803d 8ab2 223e eac4 fabe
00000270: 0e1e 703f c108 d03f 2cab 593f e093 913f
00000280: cb9f aabd ea4a 783f 96fb 2fbf ce61 44bf
00000290: 4cf1 44c0 52b1 323f f233 93bd 436c 57bf
000002a0: 088d f23f 81e6 3a3f 9317 013f 53f6 843f
000002b0: be2e 79be 2448 2b3e 12a4 7f3d a899 8bbe
000002c0: b612 aa3f 1c3b 6dbf 1359 4bbf e14d 76be
000002d0: 0a68 9cbf 560d b33f 1364 e53d a2f0 aebe
000002e0: a725 9f3f e588 53bf 411d 7dbe e61e babf
000002f0: 839c 233f f262 173f 61fd 0740 0065 f63f
00000300: a927 933f fa27 03bf 4882 11bf 49b5 6bbf
00000310: cb96 113f 4d08 aebe 7a81 a03f f20b a4bf
00000320: 7548 39bf cf5c cdbf acfa 793f d751 63bf
00000330: 823a 123e 4533 52bd b2cd a3bf 8be4 83bf
00000340: 63d8 e53e 776f febe b849 b3bf 95bf d43f
00000350: 31f0 48be ba3b 763f 8525 fd3d cf09 05bf
00000360: a7eb 233e ec89 d23f a1aa b2bf 85a5 2b3e
00000370: 41b7 0340 8625 943f b1ca 25bf 6039 e0be
00000380: c95b ec3e 2d60 123f 6458 7cbf afe1 6e3f
00000390: a758 e03d 6407 aabf 88d2 1cbd 8bee 1140
000003a0: ea9d f73e 0cc5 0d3f 41be d43e 31da 7abf
000003b0: 3f3a 8fbe 0af0 04bf 0587 97be c188 f0bd
000003c0: 86aa 67bf 3440 b4bf 0768 6cbf 5023 943e
000003d0: 381d 1cbf c136 d1be e433 24be 43e0 05bf
000003e0: 4056 3dbf 2327 0bc0
-0.028752912 0.83325684 0.3240896 -0.67009175 0.66777307 -0.5755722 -0.74217457 1.0787492
-0.8417773 0.37681663 0.24718392 -0.2594057 0.48798123 0.08161036 -0.71914256 -0.5185318
0.15169716 0.4523831 0.05265816 1.061308 -0.25950247 -0.646125 -1.8263484 1.8676443
0.27665898 -0.84888595 -0.13102905 1.9768224 -0.39332646 0.2749502 -0.6723532 2.932063
-0.65290046 0.7610435 1.1572903 0.07810085 -1.3451643 -0.18871376 -0.610159 0.7276053
0.30777258 0.03150849 1.1432022 -0.29265052 0.31459898 0.06787536 -0.6588007 -0.04963172
1.949044 0.12596275 0.028481713 -0.24541761 1.1717905 0.31610808 -0.4199436 -0.49413407
0.54411423 1.3333733 0.53495616 0.29865563 -0.34752727 0.57154894 -0.998759 -1.1668061
-0.2962347 0.38061476 -0.9861681 0.5481446 -0.20194817 -0.5564405 -0.18882291 0.38001296
0.6936831 0.5006251 -0.33018103 -1.4234698 -1.0729854 0.44149426 0.49465424 0.25758168
0.27726698 0.014125549 0.56667733 -0.039868772 1.4628116 -0.48737058 -1.6135306 -0.6046606
-0.45361772 2.055197 -1.1161143 0.16602485 0.62893593 -0.004375687 -0.4129208 -0.4061796
0.8563248 1.140276 1.4909418 -0.67320216 -0.27862862 -0.29068848 -0.75692 1.8219646
0.7699555 -0.5598742 1.3919595 0.82823116 0.8528675 -0.18695746 -0.56671005 -0.38740698
-0.13575685 0.96222425 -0.3599853 -0.023488607 -0.7376724 -0.2772117 -0.45248196 -1.0055244
-1.5986446 0.37834984 -0.993408 -0.9134848 -0.23297317 -0.90069115 0.31532112 0.3384906
-0.120614685 -0.5110122 -0.04048676 0.8765302 -0.3184114 0.10475876 -0.050230335 0.15527268
-1.0360502 -0.19010061 -0.29595032 -0.15960667 -1.4258077 0.9653689 0.07476247 2.4289598
0.834793 -0.09359965 0.6016684 0.3965394 -0.14810197 -0.63632363 -0.84247154 0.2111542
0.14466235 0.062698476 0.1588842 -0.48978359 0.9379586 1.6252671 0.8502681 1.1373253
-0.08331259 0.9698931 -0.68743265 -0.7671174 -3.0772276 0.6980182 -0.07187642 -0.8414957
1.8949289 0.7300797 0.50426596 1.0387672 -0.24334237 0.16726738 0.06241233 -0.27265668
1.328696 -0.9266832 -0.7943279 -0.24053146 -1.221925 1.3988445 0.11200728 -0.34167963
1.2433366 -0.8263076 -0.2471819 -1.454068 0.6391069 0.59135354 2.12484 1.9249573
1.1496478 -0.51232874 -0.5683942 -0.92073494 0.56870717 -0.33990708 1.2539513 -1.2816145
-0.72376186 -1.6043948 0.9764812 -0.8879675 0.14280131 -0.051318426 -1.2797148 -1.0304121
0.44891652 -0.49694416 -1.4006872 1.6620966 -0.19622876 0.96184886 0.12360672 -0.5196809
0.16007863 1.644834 -1.3958322 0.1676236 2.05806 1.1573951 -0.6476241 -0.43793774
0.46163777 0.57178 -0.98572373 0.93313116 0.10954409 -1.3283505 -0.038286716 2.2801845
0.48362666 0.55378795 0.41551402 -0.97989184 -0.27974126 -0.5192877 -0.295952 -0.11744834
-0.90494573 -1.4082093 -0.92346233 0.2893319 -0.60982084 -0.40862086 -0.1603542 -0.5229532
-0.7395973 -2.1742637

Q1.1.bias f4 [1, 5]
00000000: f2fb 4abc 7b20 4abc 7829 43bc 2e3a aabb
00000010: 6ddf 96ba
-0.01238917 -0.0123368455 -0.011911742 -0.005194924 -0.0011510678
