CausalCVR/logs/simu3/eval/72/Vcnet_tr_ckpt.pth.tar (torch, 123637 bytes, 18 tensors)

feature_weight.weight f4 [50, 8]
0.005400848 0.0037619458 -0.019330014 0.012413864 -0.00028439122 0.009347829 0.010625172 -0.007950573
0.0062179277 0.023612754 -0.0016127247 0.028137516 0.034273416 0.0021563305 -0.019987628 0.023929475
-0.007266836 0.016135281 -0.012080733 -0.008737756 0.0032403863 0.0004436592 -0.0036041366 0.0038106204
-0.0028673888 0.008887845 0.0008579802 -0.006751175 -0.0047631687 -0.006215117 0.0008836244 -0.00026846895
-0.016777694 0.011289836 0.0038736481 -0.015038472 0.0108463075 -0.004516357 -0.0012423109 0.012526738
0.013272453 0.0056611593 0.007031121 0.01141496 -0.001482745 0.013671988 0.005886242 0.0051153977
-0.012867827 -0.017642418 -0.007728431 0.00470182 -0.0072529935 -0.007489398 0.0045662425 -0.005864258
-0.0020462284 0.0042427136 -0.018379228 -0.010800504 -0.00790263 0.020565728 -0.012698644 -0.006388069
-0.0011376727 -0.0031955023 0.005948966 -0.0069239535 -0.002209078 -0.0066445637 0.0072234203 0.0012235007
-0.009995337 -0.0011728212 0.009885992 0.004947911 0.013577819 0.018116297 -0.014422016 -0.013955654
-0.008492168 -0.007948869 -0.010506597 -0.0021753206 -0.006061405 0.0058649853 -0.0063748285 -0.01401458
0.004431763 -0.0034702057 0.00413293 -0.0025157086 -0.01057797 0.0052100616 0.0070050764 0.008633682
0.0016203659 0.003104165 -0.003241105 -0.008820447 -0.0072053764 0.0005598598 0.009145134 0.002952773
0.0069589512 0.023419634 -0.0020587193 0.0063741123 0.0025348377 0.00961666 -0.007773892 -0.0030321374
-0.0057296334 -0.0070913206 0.0066118035 0.00079798204 -0.004780986 -0.00032854575 0.0057246815 0.010850867
0.0042876727 0.0064527723 -0.010732813 0.008563902 0.0061554005 -0.010584875 0.015585408 -0.010397716
-0.013329455 0.009739608 0.007700121 0.0055950456 0.007943034 0.010541005 0.026460242 -0.02243248
-0.011926726 0.02057057 -0.01478484 0.014220503 -0.010583955 -0.008884167 -0.010448834 -0.009873073
0.020827949 0.0012530668 -0.0029655234 -0.0075436793 -0.01435224 0.007786736 -0.002465832 0.0042902883
-0.0016591375 -0.00027887835 0.0061628562 0.009995085 -0.0007727406 0.013512011 0.01342461 -0.0024729383
-0.014898617 0.009692774 0.017163698 0.012918616 -0.006458771 -0.011695495 -0.012040128 0.012790397
0.00025899513 0.0120446235 0.0015876075 0.0011444805 0.009022009 -0.0030049293 0.009744973 -0.0074090436
-0.0012980977 -0.007396859 -0.015281502 0.0016371178 0.008505223 -0.0033981309 0.0046949782 -0.009764577
0.001497466 0.0074891574 0.008591399 0.0054763462 -0.0023841553 0.016716827 -0.003458915 -0.0017353877
-0.0011355949 0.0022150362 0.012104752 0.00056934124 0.003097924 0.008466997 -0.014853268 -0.0026372683
-0.018179415 0.013158597 -0.015077019 0.0012022868 -0.01526525 0.0129304025 -0.0022443747 0.01156358
0.0043224534 -0.011211387 0.0004751835 0.004946191 0.003589763 0.011829006 -0.0020444156 -0.008163902
-0.0043379664 -0.016755419 -0.0060918373 -0.0038397221 0.014387198 -0.0078094914 0.0046242364 -0.009819895
-0.00094583846 0.004851444 -0.018093867 0.0100717405 0.017776618 0.0017852554 0.0044419435 0.012211535
0.0039289417 -0.0054267356 0.0117096845 0.012991983 0.015753552 -0.013155683 -0.016290823 0.021491926
-0.009651965 -0.002267109 -0.014908662 -0.001066617 0.005817423 -0.016542498 -0.0022600975 0.0045074574
-0.01651244 0.0017335399 -0.0028434137 -0.027027056 -0.0010542155 0.012318308 0.012565838 -0.009913405
00000000: 99f9 b03b fa8a 763b fa59 9ebc 8563 4b3c
00000010: 581a 95b9 a327 193c 3415 2e3c 1f43 02bc
00000020: c2bf cb3b 896f c13c 1062 d3ba a680 e63c
00000030: 4862 0c3d 3951 0d3b 18bd a3bc bf07 c43c
00000040: a31e eebb 232e 843c 44ee 45bc ce28 0fbc
00000050: a95c 543b ee9a e839 6133 6cbb 9abb 793b
00000060: cdea 3bbb 539e 113c 14ea 603a f638 ddbb
00000070: 5b14 9cbb 2ea8 cbbb 08a3 673a 4bc1 8cb9
00000080: 6071 89bc 01f9 383c 08dd 7d3b ec63 76bc
00000090: b6b4 313c f3fd 93bb 09d5 a2ba f33c 4d3c
000000a0: b474 593c 3f81 b93b 5165 e63b d005 3b3c
000000b0: ab58 c2ba 7900 603c 60e1 c03b 119f a73b
000000c0: 94d3 52bc d586 90bc c73e fdbb ba11 9a3b
000000d0: 85aa edbb a069 f5bb 6ba0 953b f628 c0bb
000000e0: 041a 06bb 7606 8b3b 0990 96bc 99f4 30bc
000000f0: 087a 01bc 7579 a83c f90d 50bc 0253 d1bb
00000100: f61d 95ba a26b 51bb 8bef c23b 55e2 e2bb
00000110: 2ec6 10bb a4ba d9bb 71b2 ec3b df5d a03a
00000120: 7bc3 23bc 59b9 99ba dbf8 213c 1622 a23b
00000130: 8075 5e3c a168 943c 524a 6cbc 41a6 64bc
00000140: bc22 0bbc f93b 02bc dd23 2cbc d38f 0ebb
00000150: c09e c6bb 102f c03b f0e3 d0bb 699d 65bc
00000160: 5338 913b 646c 63bb 886d 873b 96de 24bb
00000170: 394f 2dbc 2ab9 aa3b d78a e53b 4974 0d3c
00000180: 7562 d43a 3f6f 4b3b b868 54bb a383 10bc
00000190: 141b ecbb 8ec3 123a 79d5 153c 4f83 413b
000001a0: ea07 e43b 88da bf3c 94eb 06bb eedd d03b
000001b0: 851f 263b 328f 1d3c 22bc febb d3b6 46bb
000001c0: a6bf bbbb 4f5e e8bb d4a7 d83b ab2f 513a
000001d0: d1a9 9cbb aa40 acb9 1c96 bb3b d6c7 313c
000001e0: 9b7f 8c3b c771 d33b aed8 2fbc 9c4f 0c3c
000001f0: 3eb3 c93b 2f6c 2dbc f059 7f3c 2f5b 2abc
00000200: c963 5abc e092 1f3c 4c51 fc3b a556 b73b
00000210: 8023 023c 2eb4 2c3c 26c3 d83c 52c4 b7bc
00000220: 5168 43bc 9d83 a83c 1d3c 72bc 1dfd 683c
00000230: 5368 2dbc e68e 11bc 9631 2bbc abc2 21bc
00000240: 609f aa3c f23d a43a 3a59 42bb f830 f7bb
00000250: a825 6bbc e027 ff3b cc99 21bb 8c95 8c3b
00000260: 6b77 d9ba 6b36 92b9 c9f1 c93b 6dc2 233c
00000270: be91 4aba 7b61 5d3c e5f2 5b3c 0511 22bb
00000280: 5419 74bc 71ce 1e3c e29a 8c3c 9aa8 533c
00000290: 19a4 d3bb 769e 3fbc f543 45bc d08e 513c
000002a0: bdc9 8739 d056 453c 4517 d03a 6502 963a
000002b0: 0cd1 133c 59ee 44bb 61a9 1f3c 90c7 f2bb
000002c0: ee24 aaba 5a61 f2bb 445f 7abc 8f94 d63a
000002d0: 7e59 0b3c 2db3 5ebb 55d8 993b 9bfb 1fbc
000002e0: 9f46 c43a 9b67 f53b f0c2 0c3c ec72 b33b
000002f0: 7d3f 1cbb baf1 883c f7ae 62bb f375 e3ba
00000300: 3ed8 94ba 242a 113b 0253 463c d83f 153a
00000310: 8a06 4b3b 29b9 0a3c 1f5b 73bc 05d6 2cbb
00000320: ffec 94bc 2897 573c 9a05 77bc 0d96 9d3a
00000330: 191b 7abc 0ada 533c 5c16 13bb 2b75 3d3c
00000340: 5ea3 8d3b f7af 37bc 0d22 f939 a813 a23b
00000350: 3b42 6b3b 72ce 413c 9afb 05bb e3c1 05bc
00000360: 8025 8ebb a942 89bc 099e c7bb d9a3 7bbb
00000370: 48b8 6b3c c3e6 ffbb e886 973b a0e3 20bc
00000380: 25f2 77ba ddf8 9e3b 9739 94bc f103 253c
00000390: 45a0 913c 3bff e93a b98d 913b e412 483c
000003a0: 5abe 803b c2d2 b1bb fad9 3f3c 54dc 543c
000003b0: 980d 813c ef8a 57bc 5574 85bc d60f b03c
000003c0: 4723 1ebc c793 14bb 7643 74bc bacd 8bba
000003d0: 15a0 be3b 2284 87bc 251e 14bb 4bb3 933b
000003e0: 1945 87bc f237 e33a 9158 3abb d867 ddbc
000003f0: 9a2d 8aba bbd2 493c f2e0 4d3c d66b 22bc

feature_weight.bias f4 [50]
-1.3357684e-05 -2.9867333e-05 -4.942751e-06 -2.4802487e-06 8.86979e-06 -1.3152722e-05 0.0 -4.2202407e-07
6.15354e-06 -1.0261337e-05 0.0 -1.1733403e-06 7.0555966e-06 1.6303042e-06 1.2334601e-05 -1.898912e-05
1.1609429e-05 -2.9454225e-06 8.071778e-06 -1.57455e-05 1.0765497e-07 -1.12586e-05 1.6638019e-06 -3.4093107e-05
3.0843465e-05 -2.9735538e-06 2.4281799e-06 1.8389215e-06 -6.9435155e-06 -1.6869028e-05 -3.34302e-08 -1.7056917e-06
-5.985632e-07 -6.332501e-08 -2.696238e-05 3.7950958e-06 -5.629226e-05 -4.478484e-07 -3.853744e-06 -1.8824634e-05
-6.133564e-06 2.0687612e-06 7.1992945e-06 -6.833526e-06 -9.3082883e-07 1.0849945e-05 -1.7632563e-05 4.6411728e-07
1.0569654e-06 7.8812e-06
00000000: d11a 60b7 9c8b fab7 e8d9 a5b6 5972 26b6
00000010: 75cf 1437 83aa 5cb7 0000 0000 8c92 e2b4
00000020: 827a ce36 1b28 2cb7 0000 0000 aa7b 9db5
00000030: 1dbf ec36 d3d0 da35 b5f0 4e37 d34a 9fb7
00000040: 1ec6 4237 f9a9 45b6 066c 0737 3415 84b7
00000050: f22f e733 52e3 3cb7 cc4f df35 32ff 0eb8
00000060: eb5d 0138 448d 47b6 d0f3 2236 ddd0 f635
00000070: 58fc e8b6 f681 8db7 e594 0fb3 1fef e4b5
00000080: f3ac 20b5 4bfd 87b3 452d e2b7 40af 7e36
00000090: 5b1b 6cb8 d16f f0b4 694f 81b6 98e9 9db7
000000a0: eace cdb6 0cd5 0a36 7891 f136 8b4b e5b6
000000b0: 12de 79b5 2908 3637 a4e9 93b7 cb2b f934
000000c0: 0edd 8d35 7f39 0437

hidden_features.0.weight f4 [50, 8]
0.005400848 0.0037619458 -0.019330014 0.012413864 -0.00028439122 0.009347829 0.010625172 -0.007950573
0.0062179277 0.023612754 -0.0016127247 0.028137516 0.034273416 0.0021563305 -0.019987628 0.023929475
-0.007266836 0.016135281 -0.012080733 -0.008737756 0.0032403863 0.0004436592 -0.0036041366 0.0038106204
-0.0028673888 0.008887845 0.0008579802 -0.006751175 -0.0047631687 -0.006215117 0.0008836244 -0.00026846895
-0.016777694 0.011289836 0.0038736481 -0.015038472 0.0108463075 -0.004516357 -0.0012423109 0.012526738
0.013272453 0.0056611593 0.007031121 0.01141496 -0.001482745 0.013671988 0.005886242 0.0051153977
-0.012867827 -0.017642418 -0.007728431 0.00470182 -0.0072529935 -0.007489398 0.0045662425 -0.005864258
-0.0020462284 0.0042427136 -0.018379228 -0.010800504 -0.00790263 0.020565728 -0.012698644 -0.006388069
-0.0011376727 -0.0031955023 0.005948966 -0.0069239535 -0.002209078 -0.0066445637 0.0072234203 0.0012235007
-0.009995337 -0.0011728212 0.009885992 0.004947911 0.013577819 0.018116297 -0.014422016 -0.013955654
-0.008492168 -0.007948869 -0.010506597 -0.0021753206 -0.006061405 0.0058649853 -0.0063748285 -0.01401458
0.004431763 -0.0034702057 0.00413293 -0.0025157086 -0.01057797 0.0052100616 0.0070050764 0.008633682
0.0016203659 0.003104165 -0.003241105 -0.008820447 -0.0072053764 0.0005598598 0.009145134 0.002952773
0.0069589512 0.023419634 -0.0020587193 0.0063741123 0.0025348377 0.00961666 -0.007773892 -0.0030321374
-0.0057296334 -0.0070913206 0.0066118035 0.00079798204 -0.004780986 -0.00032854575 0.0057246815 0.010850867
0.0042876727 0.0064527723 -0.010732813 0.008563902 0.0061554005 -0.010584875 0.015585408 -0.010397716
-0.013329455 0.009739608 0.007700121 0.0055950456 0.007943034 0.010541005 0.026460242 -0.02243248
-0.011926726 0.02057057 -0.01478484 0.014220503 -0.010583955 -0.008884167 -0.010448834 -0.009873073
0.020827949 0.0012530668 -0.0029655234 -0.0075436793 -0.01435224 0.007786736 -0.002465832 0.0042902883
-0.0016591375 -0.00027887835 0.0061628562 0.009995085 -0.0007727406 0.013512011 0.01342461 -0.0024729383
-0.014898617 0.009692774 0.017163698 0.012918616 -0.006458771 -0.011695495 -0.012040128 0.012790397
0.00025899513 0.0120446235 0.0015876075 0.0011444805 0.009022009 -0.0030049293 0.009744973 -0.0074090436
-0.0012980977 -0.007396859 -0.015281502 0.0016371178 0.008505223 -0.0033981309 0.0046949782 -0.009764577
0.001497466 0.0074891574 0.008591399 0.0054763462 -0.0023841553 0.016716827 -0.003458915 -0.0017353877
-0.0011355949 0.0022150362 0.012104752 0.00056934124 0.003097924 0.008466997 -0.014853268 -0.0026372683
-0.018179415 0.013158597 -0.015077019 0.0012022868 -0.01526525 0.0129304025 -0.0022443747 0.01156358
0.0043224534 -0.011211387 0.0004751835 0.004946191 0.003589763 0.011829006 -0.0020444156 -0.008163902
-0.0043379664 -0.016755419 -0.0060918373 -0.0038397221 0.014387198 -0.0078094914 0.0046242364 -0.009819895
-0.00094583846 0.004851444 -0.018093867 0.0100717405 0.017776618 0.0017852554 0.0044419435 0.012211535
0.0039289417 -0.0054267356 0.0117096845 0.012991983 0.015753552 -0.013155683 -0.016290823 0.021491926
-0.009651965 -0.002267109 -0.014908662 -0.001066617 0.005817423 -0.016542498 -0.0022600975 0.0045074574
-0.01651244 0.0017335399 -0.0028434137 -0.027027056 -0.0010542155 0.012318308 0.012565838 -0.009913405
00000000: 99f9 b03b fa8a 763b fa59 9ebc 8563 4b3c
00000010: 581a 95b9 a327 193c 3415 2e3c 1f43 02bc
00000020: c2bf cb3b 896f c13c 1062 d3ba a680 e63c
00000030: 4862 0c3d 3951 0d3b 18bd a3bc bf07 c43c
00000040: a31e eebb 232e 843c 44ee 45bc ce28 0fbc
00000050: a95c 543b ee9a e839 6133 6cbb 9abb 793b
00000060: cdea 3bbb 539e 113c 14ea 603a f638 ddbb
00000070: 5b14 9cbb 2ea8 cbbb 08a3 673a 4bc1 8cb9
00000080: 6071 89bc 01f9 383c 08dd 7d3b ec63 76bc
00000090: b6b4 313c f3fd 93bb 09d5 a2ba f33c 4d3c
000000a0: b474 593c 3f81 b93b 5165 e63b d005 3b3c
000000b0: ab58 c2ba 7900 603c 60e1 c03b 119f a73b
000000c0: 94d3 52bc d586 90bc c73e fdbb ba11 9a3b
000000d0: 85aa edbb a069 f5bb 6ba0 953b f628 c0bb
000000e0: 041a 06bb 7606 8b3b 0990 96bc 99f4 30bc
000000f0: 087a 01bc 7579 a83c f90d 50bc 0253 d1bb
00000100: f61d 95ba a26b 51bb 8bef c23b 55e2 e2bb
00000110: 2ec6 10bb a4ba d9bb 71b2 ec3b df5d a03a
00000120: 7bc3 23bc 59b9 99ba dbf8 213c 1622 a23b
00000130: 8075 5e3c a168 943c 524a 6cbc 41a6 64bc
00000140: bc22 0bbc f93b 02bc dd23 2cbc d38f 0ebb
00000150: c09e c6bb 102f c03b f0e3 d0bb 699d 65bc
00000160: 5338 913b 646c 63bb 886d 873b 96de 24bb
00000170: 394f 2dbc 2ab9 aa3b d78a e53b 4974 0d3c
00000180: 7562 d43a 3f6f 4b3b b868 54bb a383 10bc
00000190: 141b ecbb 8ec3 123a 79d5 153c 4f83 413b
000001a0: ea07 e43b 88da bf3c 94eb 06bb eedd d03b
000001b0: 851f 263b 328f 1d3c 22bc febb d3b6 46bb
000001c0: a6bf bbbb 4f5e e8bb d4a7 d83b ab2f 513a
000001d0: d1a9 9cbb aa40 acb9 1c96 bb3b d6c7 313c
000001e0: 9b7f 8c3b c771 d33b aed8 2fbc 9c4f 0c3c
000001f0: 3eb3 c93b 2f6c 2dbc f059 7f3c 2f5b 2abc
00000200: c963 5abc e092 1f3c 4c51 fc3b a556 b73b
00000210: 8023 023c 2eb4 2c3c 26c3 d83c 52c4 b7bc
00000220: 5168 43bc 9d83 a83c 1d3c 72bc 1dfd 683c
00000230: 5368 2dbc e68e 11bc 9631 2bbc abc2 21bc
00000240: 609f aa3c f23d a43a 3a59 42bb f830 f7bb
00000250: a825 6bbc e027 ff3b cc99 21bb 8c95 8c3b
00000260: 6b77 d9ba 6b36 92b9 c9f1 c93b 6dc2 233c
00000270: be91 4aba 7b61 5d3c e5f2 5b3c 0511 22bb
00000280: 5419 74bc 71ce 1e3c e29a 8c3c 9aa8 533c
00000290: 19a4 d3bb 769e 3fbc f543 45bc d08e 513c
000002a0: bdc9 8739 d056 453c 4517 d03a 6502 963a
000002b0: 0cd1 133c 59ee 44bb 61a9 1f3c 90c7 f2bb
000002c0: ee24 aaba 5a61 f2bb 445f 7abc 8f94 d63a
000002d0: 7e59 0b3c 2db3 5ebb 55d8 993b 9bfb 1fbc
000002e0: 9f46 c43a 9b67 f53b f0c2 0c3c ec72 b33b
000002f0: 7d3f 1cbb baf1 883c f7ae 62bb f375 e3ba
00000300: 3ed8 94ba 242a 113b 0253 463c d83f 153a
00000310: 8a06 4b3b 29b9 0a3c 1f5b 73bc 05d6 2cbb
00000320: ffec 94bc 2897 573c 9a05 77bc 0d96 9d3a
00000330: 191b 7abc 0ada 533c 5c16 13bb 2b75 3d3c
00000340: 5ea3 8d3b f7af 37bc 0d22 f939 a813 a23b
00000350: 3b42 6b3b 72ce 413c 9afb 05bb e3c1 05bc
00000360: 8025 8ebb a942 89bc 099e c7bb d9a3 7bbb
00000370: 48b8 6b3c c3e6 ffbb e886 973b a0e3 20bc
00000380: 25f2 77ba ddf8 9e3b 9739 94bc f103 253c
00000390: 45a0 913c 3bff e93a b98d 913b e412 483c
000003a0: 5abe 803b c2d2 b1bb fad9 3f3c 54dc 543c
000003b0: 980d 813c ef8a 57bc 5574 85bc d60f b03c
000003c0: 4723 1ebc c793 14bb 7643 74bc bacd 8bba
000003d0: 15a0 be3b 2284 87bc 251e 14bb 4bb3 933b
000003e0: 1945 87bc f237 e33a 9158 3abb d867 ddbc
000003f0: 9a2d 8aba bbd2 493c f2e0 4d3c d66b 22bc

hidden_features.0.bias f4 [50]
-1.3357684e-05 -2.9867333e-05 -4.942751e-06 -2.4802487e-06 8.86979e-06 -1.3152722e-05 0.0 -4.2202407e-07
6.15354e-06 -1.0261337e-05 0.0 -1.1733403e-06 7.0555966e-06 1.6303042e-06 1.2334601e-05 -1.898912e-05
1.1609429e-05 -2.9454225e-06 8.071778e-06 -1.57455e-05 1.0765497e-07 -1.12586e-05 1.6638019e-06 -3.4093107e-05
3.0843465e-05 -2.9735538e-06 2.4281799e-06 1.8389215e-06 -6.9435155e-06 -1.6869028e-05 -3.34302e-08 -1.7056917e-06
-5.985632e-07 -6.332501e-08 -2.696238e-05 3.7950958e-06 -5.629226e-05 -4.478484e-07 -3.853744e-06 -1.8824634e-05
-6.133564e-06 2.0687612e-06 7.1992945e-06 -6.833526e-06 -9.3082883e-07 1.0849945e-05 -1.7632563e-05 4.6411728e-07
1.0569654e-06 7.8812e-06
00000000: d11a 60b7 9c8b fab7 e8d9 a5b6 5972 26b6
00000010: 75cf 1437 83aa 5cb7 0000 0000 8c92 e2b4
00000020: 827a ce36 1b28 2cb7 0000 0000 aa7b 9db5
00000030: 1dbf ec36 d3d0 da35 b5f0 4e37 d34a 9fb7
00000040: 1ec6 4237 f9a9 45b6 066c 0737 3415 84b7
00000050: f22f e733 52e3 3cb7 cc4f df35 32ff 0eb8
00000060: eb5d 0138 448d 47b6 d0f3 2236 ddd0 f635
00000070: 58fc e8b6 f681 8db7 e594 0fb3 1fef e4b5
00000080: f3ac 20b5 4bfd 87b3 452d e2b7 40af 7e36
00000090: 5b1b 6cb8 d16f f0b4 694f 81b6 98e9 9db7
000000a0: eace cdb6 0cd5 0a36 7891 f136 8b4b e5b6
000000b0: 12de 79b5 2908 3637 a4e9 93b7 cb2b f934
000000c0: 0edd 8d35 7f39 0437

hidden_features.2.weight f4 [50, 50]
0.014309758 -0.00501207 0.00017357199 0.006625255 0.010519408 0.0017777506 -0.0058069285 0.028500965
-0.003662132 0.008089382 0.0017983046 0.005393632 -0.006379096 -0.005433594 -0.02712671 -0.01787414
0.0022077074 -0.0009382353 0.005852601 -0.018264696 -0.02088262 0.0146048 0.0066808956 -0.0038071359
0.007338023 0.0012882903 0.005748342 0.0143368235 0.0021342202 -0.011715893 0.009703378 -0.020138338
-0.0041180504 0.0063550393 0.0067480765 0.004009788 -0.019189574 -0.0024060325 -0.00792176 -0.01991251
-0.007363051 0.015944455 -0.021430997 -0.008156897 0.00018871667 0.00093004835 -0.0035758107 0.0013232871
-0.010571418 -0.010270921 -0.0035678681 -0.0037301811 -0.0027046541 0.004135555 -0.0018729088 0.006166478
0.015874254 0.016201343 0.007071017 0.003344334 -0.0013542334 0.011740086 -0.007947067 -0.0017894084
0.01630691 -0.01093195 -0.0034075035 0.009410445 -0.010439544 0.005481206 0.0026578247 0.0054242527
0.0070305653 -0.016897704 -0.0044225515 0.00069951173 0.01765988 0.0025860418 0.018101921 -0.018810038
0.010367008 0.0020041254 0.0074105095 0.007317793 -0.0058884476 -0.0066785254 0.0038501187 0.018483864
-0.001794288 -0.016562391 -0.02407657 0.0017673294 0.0039507975 -0.0002518611 0.011885017 -0.00095752394
0.016990718 0.006446245 0.0063192365 -0.020773206 0.0071164086 -0.0061737895 0.0013968467 -0.010084124
0.011863787 -0.0053704944 -0.014621143 0.008316807 0.013286069 0.00040355243 -0.007882683 -0.00444181
-0.007691858 0.010371131 0.009559484 0.0018111627 0.0066917883 -0.0054213246 0.0041779242 -0.0059695793
-0.0037750867 -0.0046118353 -0.027015014 -0.002755182 -0.012472371 0.0056441184 -0.015116202 -0.0049500647
0.009821099 0.00072064943 -0.016576817 0.0026215634 0.007933035 -0.00571987 -0.0049751718 -0.02029087
-0.007340704 0.003427419 -0.00024315758 0.0034249527 0.012688003 0.012823155 0.011700212 -0.007023496
0.008018712 -0.017776683 0.017739229 0.004555765 0.007083593 -0.006733664 0.0020516873 -0.019450437
-0.0051255603 0.019836647 -0.014782307 0.0027265863 0.0039061997 0.01757036 -0.002911085 -0.021811591
-0.0012923082 -0.005820881 -0.004108576 -0.0032492871 -0.0059417426 -0.009058085 0.018147092 0.005375377
0.00091704406 -0.0008473014 0.006967079 0.0148631865 -0.013954663 -0.010539663 0.0023017009 0.016537463
-0.006572344 -0.0021131507 -0.0057980847 -0.015442504 0.0025959047 -0.020150075 -0.0023780137 0.00825807
0.0059191417 0.014246397 0.026841454 0.0009799431 -0.033322636 0.00789256 0.00053004414 -0.0081537515
0.002717845 -0.0031590434 0.007004678 0.012881748 0.00539595 -0.008121487 -0.0047637164 0.0102325
0.017009687 -0.014291816 0.007190814 -0.0006390097 -0.0016930434 0.0106405895 0.0019057915 -0.009011804
-0.013550319 0.0002076992 0.0036184532 0.006084561 0.011002821 -0.0068864967 -0.004708155 0.0107936505
-0.010508441 0.006842663 0.0030332366 0.0075771324 -0.019834397 0.0032283906 -0.0012915377 0.018152365
-0.011725789 0.0010986477 0.007128777 -0.0008045363 0.0095522 0.005278098 -0.008960801 0.0031251214
0.0067212027 -0.024293596 -0.008800325 0.020721572 0.016511137 -0.007093479 0.0024967291 -0.0017680475
3.9047078e-05 -0.0072452226 0.010690112 0.010876087 -0.0071962196 -0.019233001 0.010329665 -0.011904025
-0.01249921 -0.0071546976 0.017494416 -0.00444979 0.0022102005 0.0059082396 -0.013049577 -0.010301784
00000000: 7a73 6a3c 4a3c a4bb e000 3639 ab18 d93b
00000010: 9859 2c3c 6903 e93a 0c48 bebb db7a e93c
00000020: 6100 70bb 5489 043c 17b5 eb3a 11bd b03b
00000030: bc07 d1bb 4a0c b2bb d638 debc ca6c 92bc
00000040: 2faf 103b e8f3 75ba 2dc7 bf3b d89f 95bc
00000050: 0712 abbc f948 6f3c 6aeb da3b 2481 79bb
00000060: cc73 f03b d9db a83a 965c bc3b ffe4 6a3c
00000070: 46de 0b3b 04f4 3fbc ebfa 1e3c 28f9 a4bc
00000080: b6f0 86bb ef3d d03b f81e dd3b 8a64 833b
00000090: 7433 9dbc 87ae 1dbb 45ca 01bc 8f1f a3bc
000000a0: c045 f1bb f29d 823c 0f90 afbc 81a4 05bc
000000b0: 3fe2 4539 7dce 733a 2658 6abb 2672 ad3a
000000c0: be33 2dbc 5d47 28bc e5d2 69bb 0e76 74bb
000000d0: 9140 31bb 8d83 873b 647c f5ba 2b10 ca3b
000000e0: b90a 823c aeb8 843c fdb3 e73b 9d2c 5b3b
000000f0: 8880 b1ba 7d59 403c 6a34 02bc 958a eaba
00000100: 1296 853c ec1b 33bc 6c50 5fbb 442e 1a3c
00000110: 9f0a 2bbc b09b b33b e62e 2e3b eebd b13b
00000120: a860 e63b 0e6d 8abc 0deb 90bb 705f 373a
00000130: 74ab 903c 957a 293b 7b4a 943c 8217 9abc
00000140: 62da 293c a557 033b dcd3 f23b 19ca ef3b
00000150: e1f3 c0bb 88d7 dabb 4652 7c3b 796b 973c
00000160: 512e ebba daad 87bc 3a3c c5bc bca5 e73a
00000170: b175 813b 3a0c 84b9 60b9 423c 5802 7bba
00000180: 1e30 8b3c 063b d33b 9911 cf3b 922c aabc
00000190: c330 e93b 804d cabb 6616 b73a e237 25bc
000001a0: 5460 423c f9fa afbb 858d 6fbc 3843 083c
000001b0: d0ad 593c e493 d339 5e26 01bc 9a8c 91bb
000001c0: fb0b fcbb adeb 293c 629f 1c3c 8964 ed3a
000001d0: ca46 db3b 5ea5 b1bb f8e6 883b 769c c3bb
000001e0: 7267 77bb e11e 97bb 974e ddbc 4990 34bb
000001f0: ea58 4cbc 4cf2 b83b f2a9 77bc 2734 a2bb
00000200: ade8 203c f7e9 3c3a 1bcc 87bc 89ce 2b3b
00000210: 8ff9 013c bf6d bbbb c406 a3bb 0a39 a6bc
00000220: 4a8a f0bb 8d9e 603b 1ef8 7eb9 2c75 603b
00000230: 57e1 4f3c 3618 523c 3fb2 3f3c 5b25 e6bb
00000240: ea60 033c 68a0 91bc dc51 913c 8748 953b
00000250: 7c1d e83b 11a6 dcbb 9a75 063b 8656 9fbc
00000260: 51f4 a7bb 7780 a23c 7d31 72bc 87b0 323b
00000270: 28ff 7f3b b7ef 8f3c e7c7 3ebb 39ae b2bc
00000280: ab62 a9ba 17bd bebb 3ca1 86bb fef1 54bb
00000290: f3b2 c2bb 5d68 14bc 36a9 943c ee23 b03b
000002a0: c965 703a 6f1d 5eba 184c e43b b984 733c
000002b0: 19a2 64bc 8dae 2cbc 22d8 163b 9379 873c
000002c0: d15c d7bb c97c 0abb dcfd bdbb 8e02 7dbc
000002d0: 0e20 2a3b c511 a5bc 73d8 1bbb db4c 073c
000002e0: 5cf5 c13b b869 693c 9ce2 db3c 6f71 803a
000002f0: 517d 08bd cc4f 013c a9f2 0a3a 5097 05bc
00000300: df1d 323b f407 4fbb 7f87 e53b f80d 533c
00000310: 82d0 b03b fc0f 05bc f318 9cbb 37a6 273c
00000320: e657 8b3c 3928 6abc eba0 eb3b 3783 27ba
00000330: 1ce9 ddba de55 2e3c c0cb f93a 3fa6 13bc
00000340: 2802 5ebc d4c9 5939 9223 6d3b ff60 c73b
00000350: 2d45 343c 1fa8 e1bb de46 9abb dad7 303c
00000360: 992b 2cbc 6b38 e03b 44c9 463b 9849 f83b
00000370: bf7b a2bc 6893 533b d048 a9ba 45b4 943c
00000380: 861d 40bc 8000 903a 8498 e93b 84e7 52ba
00000390: d580 1c3c e5f3 ac3b 53d0 12bc d6ce 4c3b
000003a0: 893d dc3b 5d03 c7bc 3d2f 10bc 49c0 a93c
000003b0: 5d42 873c 6a70 e8bb 2aa0 233b d4bd e7ba
000003c0: 7bc6 2338 5569 edbb 9425 2f3c 9d31 323c
000003d0: 44ce ebbb 878e 9dbc c13d 293c 1a09 43bc
000003e0: 7dc9 4cbc f471 eabb 7350 8f3c 8bcf 91bb
000003f0: 03d9 103b e899 c13b e5cd 55bc d0c8 28bc

hidden_features.2.bias f4 [50]
0.0 -4.8304504e-05 0.0001530114 1.9890098e-05 -0.00022240602 0.00013840097 -8.3580926e-05 0.0007327236
-0.0003717598 -0.00032334676 -0.00085613236 1.2670468e-05 -4.3996165e-06 -0.000389852 -0.0007902357 -0.00062911643
-0.0002058766 -3.4662694e-06 0.0 6.4713466e-05 -1.41945e-05 8.1736944e-05 0.0007898582 -0.00030670554
-0.00010632353 -0.00021904732 -0.00030033986 0.00020007104 0.0 -0.00010267274 6.77548e-05 -2.3830058e-05
9.0792935e-05 -3.1911623e-05 -8.140867e-05 7.2145995e-05 -9.891735e-05 -0.00033157118 -8.2592225e-05 -6.530289e-05
-0.0002949621 -0.00015731971 -0.00024621884 -0.00037131913 7.331531e-06 0.0 0.0 -0.00054509286
1.1859715e-05 0.0
00000000: 0000 0000 919a 4ab8 af71 2039 a9d9 a637
00000010: a935 69b9 ba1f 1139 2b48 afb8 4014 403a
00000020: c1e8 c2b9 de86 a9b9 126e 60ba 3f93 5437
00000030: 6ba0 93b6 0d65 ccb9 d227 4fba 4aeb 24ba
00000040: 94e0 57b9 0e9e 68b6 0000 0000 c7b6 8738
00000050: ea24 6eb7 306a ab38 7d0e 4f3a 52cd a0b9
00000060: 03fa deb8 11b0 65b9 ef76 9db9 29ca 5139
00000070: 0000 0000 0252 d7b8 9517 8e38 a9e6 c7b7
00000080: 1668 be38 d8d8 05b8 f2b9 aab8 164d 9738
00000090: d971 cfb8 bbd6 adb9 5d35 adb8 39f3 88b8
000000a0: 25a5 9ab9 30f6 24b9 ef16 81b9 9cad c2b9
000000b0: 5f01 f636 0000 0000 0000 0000 90e4 0eba
000000c0: 17f9 4637 0000 0000

density_estimator_head.weight f4 [50, 11]
-0.0054936055 0.006058668 0.012869381 0.011672766 -0.0018360827 -0.012247058 0.01340096 0.0015425961
0.0016129166 -0.0106671285 -0.006691719 0.0048424425 -0.01055635 -0.009621577 0.00019173024 0.0005606143
0.013191143 0.0010427218 0.011556839 0.009902032 -0.0026984941 0.0022031888 -0.0037734269 0.0091338875
-0.011859677 -0.01947539 -0.0024179562 0.0037197669 0.0038391056 -0.003670246 0.010781708 0.005214054
0.007441618 -0.020251106 -0.010873769 -0.0040584877 -0.00516316 0.0029219394 -0.000949967 -0.0023773087
-0.016018676 0.0015595825 -0.0034395666 -0.008756432 -0.012883531 0.0026418052 -0.0040977066 0.019721344
0.007937887 0.0056406027 0.0069519575 0.014696505 0.0056990744 -0.007731488 -0.014407083 0.00056906114
-0.016440248 0.0112795485 -0.0048119826 0.0086883465 -0.01945958 -0.017241778 -0.009571503 0.0020922304
0.001855286 0.0067459117 0.0035658507 0.0042685107 -0.014214068 -0.0070861736 -0.0022021565 -0.0072926003
-0.026126415 -0.0077959658 -4.716568e-05 -0.018580493 0.017000627 0.00891676 -0.013334326 0.013217828
-0.0020483432 -0.0039021783 0.009931455 0.005344674 0.011616717 0.00021062793 0.017907847 0.006305254
0.0025864332 0.0011758879 -0.003717626 -0.0019288578 -0.0041923574 -0.011169029 -0.005101934 0.01132377
-0.00017711976 -0.00680352 -0.004223447 -0.0031834857 0.015564317 0.014909658 -0.0069484785 0.008615538
0.0064147133 -0.006040714 -0.0015200864 0.011397397 0.0039305114 -0.009200345 0.007786457 0.015701937
0.0021902786 0.004140502 0.011140551 -0.005881465 -0.0067688343 -0.00033642486 -0.003299759 0.00075248553
-0.005573377 0.012121409 0.007199828 -0.0066620647 0.005488427 0.011139696 0.011204595 -0.030436033
-0.009301034 -0.0064067864 0.007012105 0.011024327 -0.008846631 0.008447549 -0.026320493 -0.0003206873
-0.0076025184 0.011072714 0.0035738607 0.0044231233 0.011476905 0.0044993786 -0.0063868854 0.010831867
-0.004088044 -0.009511084 0.008357762 -0.007097811 -0.009633437 0.01543984 0.011420487 -0.010212486
-0.015510772 0.006525378 0.016088836 0.00012170542 0.012537514 0.002552809 -0.012706457 -0.010063883
0.009662899 -0.014527786 -0.012294591 0.0031431124 -0.0057249474 0.010792464 0.018431567 0.015862923
0.0055529154 -0.0003599503 -0.012182744 0.0034062874 0.00475797 -0.0030592806 -0.007767084 -0.0031192566
0.005596249 -0.0020631284 -0.0025691125 0.010751245 0.018811058 0.009426419 -0.012946138 -0.01570645
0.012062952 -0.008503396 0.009144046 0.0006584248 -0.00230388 -0.006793664 -0.017802233 -0.016469415
0.0070162746 0.017014563 -0.009816955 -0.003069921 -0.0056208503 0.0065521984 0.018187007 -0.010916471
-0.0047736675 0.0006079907 -0.00029890006 0.006497569 -0.012191706 -0.0072786957 0.0018348382 0.00056404294
0.005923192 -0.008839685 -0.0030244454 -0.004825502 -0.007674223 -0.0016532745 -0.008111701 0.014886927
-0.007975984 0.0039985096 -0.016701711 0.005049152 0.0123195425 -0.008318758 0.004047057 -0.0015490908
0.021074068 0.0005086929 0.001644838 0.005456485 -0.016924921 -0.0016825001 0.004124937 0.015364622
0.012645886 -0.028772676 -0.0017712237 -0.007281036 -0.011222608 0.008893573 -0.00274781 -0.017542217
0.0026720697 -0.003846425 -0.0063413535 0.00014920242 0.0029086764 0.0075643715 0.0067688595 0.0032380247
-0.0033158723 0.0008052687 -0.0017979543 0.019684793 0.00039998876 0.004976258 0.0054587983 0.0043757786
00000000: b403 b4bb ca87 c63b 19da 523c 213f 3f3c
00000010: b6a8 f0ba e2a7 48bc b38f 5b3c f030 ca3a
00000020: 8068 d33a 2ec5 2ebc 3546 dbbb 5aad 9e3b
00000030: 8bf4 2cbc d2a3 1dbc 320b 4939 30f6 123a
00000040: aa1f 583c f0ab 883a e558 3d3c 223c 223c
00000050: 38d9 30bb 6063 103b 994b 77bb 4da6 153c
00000060: 174f 42bc da8a 9fbc 9376 1ebb 55c7 733b
00000070: 8199 7b3b 8388 70bb c3a5 303c a8da aa3b
00000080: d1d8 f33b a6e5 a5bc e527 32bc 10fd 84bb
00000090: ba2f a9bb 027e 3f3b 3507 79ba 9fcc 1bbb
000000a0: 9939 83bc e86a cc3a 5a6a 61bb 2377 0fbc
000000b0: 7215 53bc 2322 2d3b 0e46 86bb a88e a13c
000000c0: e90d 023c ced4 b83b 3fcd e33b 9cc9 703c
000000d0: 4dbf ba3b 6c58 fdbb b00b 6cbc 0c2d 153a
000000e0: b3ad 86bc dbcd 383c d6ad 9dbb 9159 0e3c
000000f0: b269 9fbc a13e 8dbc cbd1 1cbc cd1d 093b
00000100: 112d f33a cf0c dd3b 0cb1 693b ddde 8b3b
00000110: 1fe2 68bc 2233 e8bb 0e52 10bb c4f6 eebb
00000120: 1007 d6bc 4d75 ffbb c3d3 45b8 1e36 98bc
00000130: e644 8b3c 9a17 123c 3878 5abc 978f 583c
00000140: 7f3d 06bb b0bb 7fbb 8bb7 223c 6022 af3b
00000150: 0b54 3e3c 01dc 5c39 7ab3 923c 4e9c ce3b
00000160: 2681 293b 4020 9a3a 6aa3 73bb bad1 fcba
00000170: 0b60 89bb 4efe 36bc 202e a7bb 5587 393c
00000180: 39b9 39b9 10f0 debb d764 8abb 07a2 50bb
00000190: 7a01 7f3c a347 743c 10b0 e3bb 2f28 0d3c
000001a0: 8432 d23b 2ff1 c5bb a33d c7ba 26bc 3a3c
000001b0: 85cb 803b 0bbd 16bc 8925 ff3b 59a1 803c
000001c0: c78a 0f3b 0cad 873b dc86 363c 4eb9 c0bb
000001d0: 19cd ddbb 2e62 b0b9 c540 58bb 7342 453a
000001e0: e0a0 b6bb e098 463c 89ec eb3b 734d dabb
000001f0: 43d8 b33b 4683 363c 7a93 373c fd54 f9bc
00000200: 5d63 18bc 05f0 d1bb cdc5 e53b 619f 343c
00000210: 76f1 10bc 9767 0a3c 139e d7bc ec21 a8b9
00000220: 8c1e f9bb 546a 353c 6f37 6a3b d9ef 903b
00000230: a109 3c3c 866f 933b 1449 d1bb 2578 313c
00000240: 00f5 85bb 61d4 1bbc ffee 083c c194 e8bb
00000250: 90d5 1dbc 62f7 7c3c ff1c 3b3c 4552 27bc
00000260: e520 7ebc d7d2 d53b bccc 833c 1a3c ff38
00000270: 256a 4d3c 074d 273b be2e 50bc fce2 24bc
00000280: 2351 1e3c f305 6ebc 416f 49bc adfc 4d3b
00000290: 5798 bbbb e0d2 303c ccfd 963c f6f2 813c
000002a0: 3bf5 b53b b6b7 bcb9 229a 47bc 053c 5f3b
000002b0: bfe8 9b3b 367e 48bb 0683 febb 716c 4cbb
000002c0: bd60 b73b 8d35 07bb 8e5e 28bb fd25 303c
000002d0: a619 9a3c 4471 1a3c 0a1c 54bc d0aa 80bc
000002e0: b0a3 453c d451 0bbc e9d0 153c 249a 2c3a
000002f0: b1fc 16bb 629d debb fdd5 91bc deea 86bc
00000300: c7e8 e53b 2062 8b3c 4bd7 20bc ba30 49bb
00000310: 1c2f b8bb d3b3 d63b ebfc 943c ffda 32bc
00000320: 6d6c 9cbb 9161 1f3a b0b5 9cb9 8fe9 d43b
00000330: b9bf 47bc 2082 eebb f47e f03a 48dc 133a
00000340: 5617 c23b 53d4 10bc c635 46bb 3f1f 9ebb
00000350: 0c78 fbbb b0b2 d8ba f1e6 04bc 4ce8 733c
00000360: b4ad 02bc ee05 833b 07d2 88bc 5b73 a53b
00000370: e8d7 493c 664b 08bc 2d9d 843b dd0a cbba
00000380: 86a3 ac3c cd59 053a 9b97 d73a 50cc b23b
00000390: 22a6 8abc 5687 dcba 7b2a 873b e5bb 7b3c
000003a0: b130 4f3c adb4 ebbc 6828 e8ba c295 eebb
000003b0: 08df 37bc 59b6 113c 9a14 34bb b2b4 8fbc
000003c0: e41d 2f3b 4e14 7cbb 21cb cfbb 3873 1c39
000003d0: 7e9f 3e3b 8cde f73b 4fcd dd3b 0a35 543b
000003e0: 1b4f 59bb ab18 533a 56a9 ebba 0142 a13c
000003f0: 95b5 d139 e10f a33b b8df b23b b162 8f3b

density_estimator_head.bias f4 [11]
-0.03196286 -0.024876826 -0.009080916 -0.006739654 -0.0023446362 -0.008862929 -0.0016449635 -0.002367437
0.0125692375 0.040994696 0.034316298
00000000: 7deb 02bd 7cca cbbc 1fc8 14bc 51d8 dcbb
00000010: 78a8 19bb d235 11bc d19b d7ba 0027 1bbb
00000020: 34ef 4d3c 0eea 273d 3f8f 0c3d

Q1.0.weight f4 [50, 50, 5]
-0.3905352 0.095973656 -0.8213806 -0.3735618 -1.5103418 -0.7681448 -0.74769497 0.7460714
-0.6316496 0.44213706 0.4438425 -1.1038668 -1.8414483 -1.2033712 -0.25053257 -1.3994863
-1.5940343 0.34701318 2.1082976 -1.2851864 1.6512722 -0.8998923 -0.7759379 -1.024512
0.6340949 2.1644268 -0.18562472 -1.5989059 0.3097333 0.72229046 0.36574072 1.7342116
-1.8381624 -1.1316451 -0.7216505 0.039371055 0.7072682 0.15890417 -0.39808953 -0.50119007
1.4679474 0.18102556 0.8938479 -1.9858093 -1.0898007 -0.85325253 -0.4118602 0.8775571
0.582191 2.5716453 -0.19275555 -0.77467644 -0.7470932 0.6064445 -1.4787891 0.28731906
0.81235397 0.6817898 -1.2431362 -1.9090114 -0.012900936 1.2184931 -0.31812832 -0.8663489
-0.18837255 -0.26248863 -0.7314292 0.25675234 -0.8730534 0.8049427 -0.2626773 0.5859736
0.37453622 -0.9504837 1.6643869 -1.1068244 -0.789191 0.026207916 -0.033733264 -0.472398
0.07388586 -2.1156642 -0.6237623 -0.11403331 0.82420194 -0.27095044 -1.5187236 -0.7635471
2.4092917 -1.8807716 -1.1858523 0.9989506 -0.056784395 0.4210701 0.65940803 -0.15466146
0.2789158 0.10542338 1.6289182 1.0510577 0.73569345 -0.241387 -0.38080797 0.9174949
1.6892871 0.31030357 0.53541577 1.1608971 -1.1366568 0.8050466 1.2341107 1.7693114
1.6572527 1.1635447 0.17789888 0.5237694 1.8167634 0.30984333 -0.7385768 1.0273936
0.5597626 0.9456241 -2.2381375 0.916658 -1.3707366 -0.5293612 -1.1906832 0.15928432
1.1802955 0.920499 0.60545677 1.1127156 0.252553 -0.54717296 0.029368546 -0.57006943
0.10476918 1.0112791 0.17974909 0.21746625 -0.586883 0.9194966 0.6520372 -0.7078571
-0.105981655 -0.58781195 -0.69289994 0.119706236 0.03464961 0.24321117 0.7970339 -0.42820343
-0.8923067 -0.34874308 0.3483959 2.045315 -0.026771981 -1.2323487 0.45411474 -1.157537
0.17069414 -0.80030775 -1.0485079 1.2062067 1.9571558 0.7283645 -0.6691404 -0.05837567
-0.6101153 0.5366566 0.8307882 0.81311107 1.5703931 -0.30666074 0.11401881 0.46278664
0.73550385 1.1655028 0.44743076 0.24505976 0.35525864 -0.2968696 -0.30864778 -2.3242424
-0.605353 -1.0555571 -1.077625 -0.42809573 -2.0483277 0.44982097 -1.3209451 -0.8783361
0.269813 -0.33406964 -0.18693747 -0.1717188 -1.0446632 1.67479 0.2598469 -0.88366014
-0.14191547 0.5012182 -1.0577117 0.95958906 0.06988733 -0.30524808 -0.0054438715 0.82211715
-0.6459939 -0.69609064 0.060977917 -0.052480254 0.88874733 1.3256766 -1.5064615 -0.7115547
-1.1643026 -0.3925199 -0.31947333 0.42165092 0.92525953 -0.3064454 -0.84075606 0.13009562
-0.21128994 0.70138615 2.2104018 0.21151173 0.15155086 1.7821279 -0.65802467 0.7716013
1.2976881 -1.5247562 -1.5692687 1.2371765 -2.3493001 -0.22509639 -1.5013531 -0.09632485
0.37006143 -0.3147941 0.624082 1.3606344 0.7195434 -1.1287712 2.4546661 -1.9445479
-0.48848763 -0.7243234 -0.4244485 -0.7810311 1.837757 1.0534445 0.9810882 0.81844854
00000000: 3bf4 c7be d68d c43d 0046 52bf 7e43 bfbe
00000010: e152 c1bf 23a5 44bf f068 3fbf 89fe 3e3f
00000020: cab3 21bf ca5f e23e 533f e33e 824b 8dbf
00000030: 94b4 ebbf 1108 9abf ce45 80be 5e22 b3bf
00000040: 5109 ccbf b6ab b13e 59ee 0640 fd80 a4bf
00000050: e35c d33f 575f 66bf dea3 46bf 3623 83bf
00000060: 0b54 223f f885 0a40 6814 3ebe f3a8 ccbf
00000070: 5d95 9e3e 07e8 383f 5e42 bb3e a5fa dd3f
00000080: e848 ebbf bfd9 90bf 16be 38bf 8b43 213d
00000090: 870f 353f c6b7 223e 64d2 cbbe fe4d 00bf
000000a0: b3e5 bb3f c45e 393e 37d3 643f 002f febf
000000b0: 977e 8bbf c26e 5abf 57df d2be 95a7 603f
000000c0: 780a 153f d695 2440 b661 45be 3251 46bf
000000d0: 8041 3fbf f23f 1b3f f648 bdbf 7c1b 933e
000000e0: 6ef6 4f3f c789 2e3f 161f 9fbf 7c5a f4bf
000000f0: 735e 53bc 95f7 9b3f b7e1 a2be 0bc9 5dbf
00000100: bce4 40be e964 86be f23e 3bbf 0b75 833e
00000110: 6d80 5fbf ba10 4e3f a47d 86be 5e02 163f
00000120: 36c3 bf3e e652 73bf a10a d53f 6cac 8dbf
00000130: 6c08 4abf fcb1 d63c e42b 0abd 27de f1be
00000140: 7851 973d 0b67 07c0 e3ae 1fbf 4c8a e9bd
00000150: e6fe 523f 04ba 8abe 8965 c2bf d377 43bf
00000160: d631 1a40 20bd f0bf 02ca 97bf 3abb 7f3f
00000170: c196 68bd 8096 d73e f7ce 283f 935f 1ebe
00000180: 0dce 8e3e 37e8 d73d 6480 d03f 0f89 863f
00000190: 6856 3c3f 272e 77be 43f9 c2be f2e0 6a3f
000001a0: 8f3a d83f 1ce0 9e3e 0211 093f 4798 943f
000001b0: f87d 91bf 8917 4e3f 57f7 9d3f cc78 e23f
000001c0: db20 d43f 08ef 943f 202b 363e c015 063f
000001d0: b48b e83f c9a3 9e3e 5f13 3dbf a281 833f
000001e0: 9a4c 0f3f 6c14 723f a53d 0fc0 19aa 6a3f
000001f0: 4c74 afbf 3784 07bf 4f68 98bf 6e1b 233e
00000200: ec13 973f d3a5 6b3f 37ff 1a3f 776d 8e3f
00000210: a04e 813e 8713 0cbf 4e96 f03c 12f0 11bf
00000220: 3991 d63d 9871 813f 2510 383e 79af 5e3e
00000230: f73d 16bf 2164 6b3f e9eb 263f 1f36 35bf
00000240: e90c d9bd d87a 16bf e461 31bf 8b28 f53d
00000250: c0ec 0d3d 590c 793e 6a0a 4c3f 7b3d dbbe
00000260: 366e 64bf 748e b2be f360 b23e 71e6 0240
00000270: ea50 dbbc 9abd 9dbf ba81 e83e 2c2a 94bf
00000280: 72ca 2e3e f8e0 4cbf 8235 86bf fb64 9a3f
00000290: 1584 fa3f 1976 3a3f c94c 2bbf 541b 6fbd
000002a0: 8430 1cbf 5462 093f 89ae 543f 0c28 503f
000002b0: a402 c93f a302 9dbe b282 e93d 5ff2 ec3e
000002c0: fb49 3c3f 322f 953f a515 e53e f2f0 7a3e
000002d0: 76e4 b53e 4bff 97be 1507 9ebe 63c0 14c0
000002e0: 6af8 1abf 7f1c 87bf 9eef 89bf 5d2f dbbe
000002f0: cd17 03c0 ef4e e63e bb14 a9bf a2da 60bf
00000300: ee24 8a3e 2d0b abbe 896c 3fbe 0ed7 2fbe
00000310: 86b7 85bf 855f d63f a70a 853e 8d37 62bf
00000320: 4a52 11be d64f 003f 1963 87bf a1a7 753f
00000330: 1721 8f3d 7a49 9cbe 8162 b2bb 4576 523f
00000340: db5f 25bf ff32 32bf fbc3 793d 89f5 56bd
00000350: f284 633f c5af a93f bbd3 c0bf 7328 36bf
00000360: de07 95bf 5ef8 c8be 0292 a3be a1e2 d73e
00000370: cfdd 6c3f 69e6 9cbe ca3b 57bf c937 053e
00000380: 645c 58be 0b8e 333f 3977 0d40 8896 583e
00000390: 2630 1b3e c41c e43f 4e74 28bf aa87 453f
000003a0: a51a a63f 362b c3bf ccdd c8bf cd5b 9e3f
000003b0: ef5a 16c0 ab7f 66be 572c c0bf f745 c5bd
000003c0: b178 bd3e b12c a1be d7c3 1f3f 4529 ae3f
000003d0: ff33 383f 937b 90bf 4019 1d40 f2e6 f8bf
000003e0: 0d1b fabe 426d 39bf 5051 d9be a7f1 47bf
000003f0: 9f3b eb3f 45d7 863f 9928 7b3f d885 513f

Q1.0.bias f4 [50, 5]
0.028310476 0.01069773 0.006360764 0.0020674297 0.0005917034 0.009214142 -0.0092497915 -0.013013655
-0.0061323917 -0.00085205544 0.012182576 -0.0068005696 -0.012291541 -0.006779605 -0.0019476302 -0.00359699
0.005553519 0.008003835 0.0039978344 0.0010699024 0.00037484412 -4.0669267e-05 0.00025375152 0.00030731288
0.000241422 -0.004736888 -0.0053938655 -0.0053873807 -0.0023582303 -0.0005256027 0.0023135534 0.001612827
0.00032832893 -0.0003901619 -0.00024445975 0.020757884 0.008760287 0.005752849 0.0020334355 0.0005757507
0.00823601 -0.0069492296 -0.009230345 -0.00396219 -0.00043456012 0.007395532 -0.002692537 -0.004895862
-0.0024668463 -0.00034643285 0.0 0.0 0.0 0.0 0.0 0.024438389
0.003039651 -0.002491683 -0.0021507994 -0.00053865125 -0.0001755893 -0.00015767018 -0.00014163743 -5.6672096e-05
-9.950838e-06 0.0009696229 0.011441579 0.012616764 0.005382888 0.0012775401 7.6836244e-05 -0.0005715309
-0.0002782069 0.00011410565 2.255936e-06 0.026731253 0.010184792 0.005785546 0.0017809494 0.00052859506
-0.0020666549 -8.841282e-05 -4.9547554e-05 -0.00016582978 -0.00010696096 0.015393986 -0.0062948577 -0.00590289
-0.000541629 0.0014815298 0.00017688218 0.0014941833 0.0019790623 0.0009950933 0.00025561146 -0.0030954496
0.0039753206 0.004666987 0.0018997078 0.00066033023 -0.0012052133 -0.0011950616 -0.0011789857 -0.00052174827
-0.0001280485 0.0002328888 0.0014141098 0.0021756552 0.001242743 0.0005728091 -0.0041694823 -0.0040747104
-0.003991058 -0.001754816 -0.000425195 0.0125279855 0.0007018769 -0.0025770662 -0.0017847912 -0.0004570701
-0.0025614048 0.0022751458 0.004353675 0.0026359411 0.00042216567 -0.0051996456 0.009285254 0.013350049
0.0067664557 0.0017797482 0.000395586 -0.00011982791 -0.00018467712 -8.0675294e-05 -1.5157438e-05 -0.004062439
0.005797922 0.008915147 0.0046958765 0.0012299564 -0.0028658763 -0.0018902736 -0.0017514325 -0.00074856513
-0.000171191 0.0020650136 0.007632019 0.006579322 0.002057216 0.00022624835 0.010114565 0.0055066138
0.004318534 0.001723673 0.00048479342 0.019782763 -0.0060614254 -0.012993604 -0.0071343402 -0.0017718094
-8.507476e-05 0.00055725157 0.0008670621 0.000436807 0.00010387533 0.0028882169 2.801937e-05 -0.0006313815
-0.00039359773 -3.320521e-05 -0.004129378 0.0070556807 0.010320639 0.0052350746 0.0013748772 -0.0012806655
-0.0014488014 -0.0014980098 -0.0007021425 -0.00019046855 0.0020854988 0.0021513808 0.001978324 0.00079001684
0.0001841304 -0.0023633614 0.0029418874 0.001433187 -0.00018962203 -5.5739412e-05 -0.0039457185 -0.0012200134
-0.00043755118 -3.8899863e-05 -3.8549783e-06 -0.0041584508 0.02011844 0.027059803 0.013523756 0.0036085858
-0.0019387269 -0.000858507 -0.0004987184 -8.3801664e-05 7.4264295e-05 -0.0021997374 -0.0014272062 -0.0011031331
-0.00039936512 -9.507616e-05 0.03580093 0.007259117 -0.00032730668 -0.0016114868 -0.00044444713 -0.004846634
0.009502912 0.014451779 0.0076510166 0.0020158982 -0.0012178678 -0.00015426704 -2.5755766e-05 -1.1940245e-08
0.0 0.0040970864 0.0028797404 0.0014936071 0.00010177681 -8.901956e-05 -0.012238881 -0.0016289693
0.0023575507 0.0021729325 0.0006914752 0.0018278962 -0.0005743192 -0.00089833274 -0.00027901478 -4.440875e-05
0.009378927 0.0020105254 -6.2123077e-06 -0.00038556874 -7.400165e-05 -0.006260114 -0.0056809364 -0.005393291
-0.0023142656 -0.00051892333
00000000: 5feb e73c 8845 2f3c f56d d03b b77d 073b
00000010: 8b1c 1b3a eaf6 163c 708c 17bc 3a37 55bc
00000020: 3bf2 c8bb 795c 5fba 6d99 473c 50d7 debb
00000030: 7662 49bc 7327 debb a047 ffba 7abb 6bbb
00000040: 4bfa b53b 8422 033c 4400 833b f83b 8c3a
00000050: ba86 c439 4b94 2ab8 f409 8539 d61e a139
00000060: 3a26 7d39 e637 9bbb 06bf b0bb a088 b0bb
00000070: 8a8c 1abb 9ac8 09ba fc9e 173b 7e65 d33a
00000080: 9023 ac39 a58e ccb9 d52a 80b9 700c aa3c
00000090: 4f87 0f3c 6582 bc3b 6343 053b faed 163a
000000a0: 54f0 063c 5db6 e3bb df3a 17bc 42d5 81bb
000000b0: acd5 e3b9 3856 f23b 4675 30bb 786d a0bb
000000c0: d0aa 21bb 6ea1 b5b9 0000 0000 0000 0000
000000d0: 0000 0000 0000 0000 0000 0000 0433 c83c
000000e0: e234 473b 814b 23bb 6df4 0cbb 4634 0dba
000000f0: 651e 38b9 4454 25b9 8284 14b9 33b3 6db8
00000100: 86f2 26b7 4b2e 7e3a 7675 3b3c 8bb6 4e3c
00000110: f062 b03b 2273 a73a 2523 a138 cad2 15ba
00000120: 4cdc 91b9 014c ef38 af64 1736 80fb da3c
00000130: 1dde 263c ad94 bd3b bf6e e93a 6a91 0a3a
00000140: b770 07bb 456a b9b8 48d1 4fb8 98e2 2db9
00000150: 3a50 e0b8 0f37 7c3c 1845 cebb 086d c1bb
00000160: 1bfc 0dba e42f c23a 7379 3939 79d8 c33a
00000170: 28b3 013b ca6d 823a 9703 8639 07dd 4abb
00000180: 6843 823b 86ed 983b 9eff f83a 031a 2d3a
00000190: 3ff8 9dba 9da3 9cba 3288 9aba efc5 08ba
000001a0: c244 06b9 9c33 7439 a759 b93a 7095 0e3b
000001b0: 89e3 a23a 9128 163a 27a0 88bb 2685 85bb
000001c0: 6cc7 82bb db01 e6ba b5ec deb9 2e42 4d3c
000001d0: 29fe 373a ffe3 28bb a8ef e9ba e9a2 efb9
000001e0: 3edd 27bb 9d1a 153b 46a9 8e3b c1bf 2c3b
000001f0: 1e56 dd39 ca61 aabb 2e21 183c 2aba 5a3c
00000200: 25b9 dd3b 7146 e93a a766 cf39 1f4c fbb8
00000210: e3a5 41b9 3830 a9b8 b34c 7eb7 351e 85bb
00000220: 7ffc bd3b d610 123c dedf 993b 7d36 a13a
00000230: 6dd1 3bbb 0fc3 f7ba 5390 e5ba 5b3b 44ba
00000240: bc81 33b9 2e55 073b 0416 fa3b 5a97 d73b
00000250: 5bd2 063b 143d 6d39 8fb7 253c d370 b43b
00000260: 7d82 8d3b deec e13a df2b fe39 760f a23c
00000270: ec9e c6bb 20e3 54bc 2fc7 e9bb 0f3c e8ba
00000280: 2a6a b2b8 8514 123a 8d4b 633a 3e03 e539
00000290: a5d7 d938 3d48 3d3b 240b eb37 4c83 25ba
000002a0: cb5b ceb9 d345 0bb8 bc4f 87bb 5733 e73b
000002b0: e617 293c fd8a ab3b 3935 b43a 01dc a7ba
000002c0: b5e5 bdba de58 c4ba fc0f 38ba 83b8 47b9
000002d0: ddac 083b 2efe 0c3b c5a6 013b 2219 4f3a
000002e0: 2113 4139 a0e2 1abb aecc 403b c7d9 bb3a
000002f0: 47d5 46b9 bdc9 69b8 164b 81bb dbe8 9fba
00000300: 2067 e5b9 6928 23b8 035a 81b6 9d43 88bb
00000310: 6dcf a43c 85ac dd3c be92 5d3c 067e 6c3b
00000320: e11c feba 6e0d 61ba 6dbc 02ba adbe afb8
00000330: 57be 9b38 7829 10bb 1811 bbba 0197 90ba
00000340: e161 d1b9 a063 c7b8 ffa3 123d e3dd ed3b
00000350: 5c9a abb9 8638 d3ba af04 e9b9 83d0 9ebb
00000360: 1ab2 1b3c 28c7 6c3c 61b5 fa3b 291d 043b
00000370: dda0 9fba bec2 21b9 160e d8b7 c121 4db2
00000380: 0000 0000 da40 863b 07ba 3c3b 23c5 c33a
00000390: 0271 d538 03b0 bab8 9685 48bc 2483 d5ba
000003a0: 2381 1a3b c267 0e3b 1d44 353a 0596 ef3a
000003b0: e98d 16ba 177e 6bba bb48 92b9 8843 3ab8
000003c0: 12aa 193c 05c3 033b 5173 d0b6 2926 cab9
000003d0: 5531 9bb8 a421 cdbb 2627 babb 34ba b0bb
000003e0: efaa 17bb 5b08 08ba

Q1.1.weight f4 [50, 1, 5]
1.1082766 -1.2114292 -0.48317897 -0.17550153 0.22683996 0.61725026 -0.04525185 2.7798138
-0.40768746 -1.2849412 1.4790537 1.6004894 0.18573198 0.13560261 -0.11482797 -1.245936
0.2189055 -0.74573773 0.038887944 2.5853405 0.34741396 -0.8719907 0.6036201 -1.3747083
0.11514229 0.771401 1.0770109 1.6789376 -1.000742 2.127766 -1.7883118 2.9888246
-1.1558706 1.4212557 -0.4730083 0.6433281 -0.19586645 -1.1019034 -0.03898836 0.41661736
0.54780054 0.94549173 0.57085764 -0.43521315 1.2614911 0.5244347 -0.7531373 1.3731408
-0.41295028 -0.527189 0.7493094 0.31411952 0.0026986098 -2.166351 -0.16310558 1.0221761
-0.4218055 -0.04065973 0.12489699 0.34860885 0.22962478 1.6575358 -0.1549957 1.9860516
-0.5613885 -1.5352983 0.07742809 -0.56750566 -0.02116951 0.49803624 0.49666685 0.7564424
-0.0041208374 -0.02478705 0.38651425 0.43774444 1.4566246 -1.5281785 -1.8092811 -0.7410168
-0.43177482 -0.3690733 1.383045 -1.2210672 1.3775462 1.3777306 0.70062596 2.186937
1.1664026 -0.57569593 0.09685081 -0.9176257 0.968463 -0.4375171 -2.098428 -0.51569796
-1.884167 0.20733252 -0.0829747 0.20101638 0.27060452 0.9320619 0.73590064 1.1678783
-1.1233468 -0.26046106 0.6748138 -2.1345375 0.3275793 0.65025306 0.16198443 -0.2814648
1.3500625 1.5842118 -0.57907706 0.522696 0.042197537 -0.05152971 0.5194931 -1.464491
0.59029645 1.3544796 -0.7809807 -0.75506854 -1.3124416 -0.638887 -0.87951857 -0.706106
-0.071656294 -1.100558 -0.5111551 0.26464096 0.9494449 -1.1422532 -1.5919144 -0.80518395
-0.002395851 -0.3599966 -0.6319176 0.098733835 -0.4173484 0.69406813 0.7013378 -0.09724912
-0.22686578 -0.8348187 0.49023476 -1.1422938 1.6433929 -0.10742117 0.17357972 0.42908183
-1.0614119 -0.349103 0.40504935 0.7296951 0.9499308 1.3852856 0.73328763 1.4674107
-1.1348541 0.034438405 0.12731607 -1.0334433 -0.9091556 0.7779401 0.13546726 1.1034038
0.966984 -0.27217504 -0.5851911 -0.53541344 -1.2395402 1.774122 -0.48740202 0.044554815
-0.18088365 -1.665923 -1.2186807 1.0298008 -0.03386372 0.1356441 -0.48518214 0.1528284
-0.008322828 -1.7865344 -1.4606915 -0.13006882 -0.22616902 1.418431 -0.2576319 0.6113968
-0.42319345 0.10404334 0.19277485 -0.66448003 -1.1854881 -1.4544997 -1.6700906 -1.3079419
1.6157048 0.8004969 0.6762564 -1.0601407 0.0323217 1.3502356 1.1488769 0.82473564
-1.5375702 -0.34218723 2.0404317 -1.063898 -0.41639876 0.8124127 -1.5070475 -1.2624646
-0.2025341 -1.2839998 0.30175248 1.1972988 0.899221 -0.12658924 1.2196732 -0.21498919
-0.9726177 -0.16449656 -0.8208225 0.4610288 0.26710543 1.1052053 -1.6605932 0.43798542
-0.2867903 1.155371 0.07152697 0.51313645 -0.23912682 0.04472575 0.37680274 -2.3624928
0.14360215 0.855165 -0.7685838 -0.5107914 1.088716 -0.82747716 1.7311037 0.9739433
0.7609457 0.009342423
00000000: 02dc 8d3f 1d10 9bbf 3c63 f7be acb6 33be
00000010: bc48 683e 1d04 1e3f 015a 39bd 78e8 3140
00000020: 69bc d0be f478 a4bf a251 bd3f d6dc cc3f
00000030: 8630 3e3e 69db 0a3e ed2a ebbd d57a 9fbf
00000040: c328 603e abe8 3ebf f748 1f3d 3876 2540
00000050: 3ee0 b13e c83a 5fbf d986 1a3f 71f6 afbf
00000060: b9cf eb3d 897a 453f 7edb 893f 6de7 d63f
00000070: 5018 80bf 512d 0840 67e7 e4bf e748 3f40
00000080: 91f3 93bf b5eb b53f 252e f2be 26b1 243f
00000090: 3791 48be 2c0b 8dbf 42b2 1fbd df4e d53e
000000a0: a83c 0c3f bf0b 723f ba23 123f 42d4 debe
000000b0: 8a78 a13f 5a41 063f 9bcd 40bf 14c3 af3f
000000c0: 386e d3be dcf5 06bf bed2 3f3f 46d4 a03e
000000d0: 29db 303b 7fa5 0ac0 2605 27be abd6 823f
000000e0: e4f6 d7be d18a 26bd fec9 ff3d dc7c b23e
000000f0: c222 6b3e 222a d43f 31b7 1ebe f036 fe3f
00000100: 28b7 0fbf a884 c4bf 9e92 9e3d 0d48 11bf
00000110: ae6b adbc 9bfe fe3e 1e4b fe3e 36a6 413f
00000120: 1708 87bb 360e cbbc 32e5 c53e 0a20 e03e
00000130: ad72 ba3f 5a9b c3bf 8696 e7bf 47b3 3dbf
00000140: 9711 ddbe 2df7 bcbe 9e07 b13f ee4b 9cbf
00000150: 6f53 b03f 7a59 b03f 395c 333f c7f6 0b40
00000160: ae4c 953f cf60 13bf b859 c63d 85e9 6abf
00000170: 31ed 773f 3e02 e0be a54c 06c0 c804 04bf
00000180: 622c f1bf fa4e 543e a4ee a9bd 3dd7 4d3e
00000190: ad8c 8a3e 9c9b 6e3f fc63 3c3f 097d 953f
000001a0: d4c9 8fbf 275b 85be 99c0 2c3f 439c 08c0
000001b0: 79b8 a73e fc76 263f 3fdf 253e 271c 90be
000001c0: d9ce ac3f 74c7 ca3f 653e 14bf 68cf 053f
000001d0: 53d7 2c3d d110 53bd 80fd 043f 7174 bbbf
000001e0: ab1d 173f 965f ad3f 5aee 47bf 2c4c 41bf
000001f0: 16fe a7bf 198e 23bf 2128 61bf 5dc3 34bf
00000200: 89c0 92bd 16df 8cbf 10db 02bf 057f 873e
00000210: d20e 733f 5a35 92bf dac3 cbbf 8920 4ebf
00000220: b603 1dbb 7951 b8be 5ac5 21bf f734 ca3d
00000230: b1ae d5be 73ae 313f e08a 333f 8c2a c7bd
00000240: 814f 68be aeb6 55bf 0d00 fb3e af36 92bf
00000250: b35a d23f a1ff dbbd e2be 313e 9db0 db3e
00000260: 58dc 87bf a1bd b2be a162 cf3e 4ccd 3a3f
00000270: aa2e 733f 0a51 b13f bdb8 3b3f 1dd4 bb3f
00000280: e642 91bf 490f 0d3d 255f 023e df47 84bf
00000290: 6cbe 68bf 1527 473f eeb7 0a3e 563c 8d3f
000002a0: 438c 773f 875a 8bbe 15cf 15bf db10 09bf
000002b0: 41a9 9ebf 6e16 e33f c28c f9be 1c7f 363d
000002c0: 9039 39be f73c d5bf bbfd 9bbf 83d0 833f
000002d0: afb4 0abd 49e6 0a3e cb69 f8be 0c7f 1c3e
000002e0: 795c 08bc 29ad e4bf f0f7 babf c330 05be
000002f0: da98 67be 268f b53f 54e8 83be 8084 1c3f
00000300: d0ac d8be ad14 d53d c566 453e 5d1b 2abf
00000310: 13be 97bf 0c2d babf 87c5 d5bf a46a a7bf
00000320: 6acf ce3f 5ded 4c3f 241f 2d3f b1b2 87bf
00000330: c263 043d 85d4 ac3f 660e 933f e021 533f
00000340: 1acf c4bf 2a33 afbe 6f96 0240 cf2d 88bf
00000350: 3832 d5be 47fa 4f3f efe6 c0bf 7198 a1bf
00000360: 1965 4fbe 1b5a a4bf 4d7f 9a3e 1641 993f
00000370: 5933 663f 9ca0 01be 401e 9c3f 2026 5cbe
00000380: 79fd 78bf c971 28be 6c21 52bf f80b ec3e
00000390: 0bc2 883e 5e77 8d3f 518e d4bf a03f e03e
000003a0: 2ed6 92be 32e3 933f bb7c 923d e95c 033f
000003b0: a9dd 74be 5932 373d 4aec c03e 1533 17c0
000003c0: 710c 133e 18ec 5a3f e8c1 44bf 3ac3 02bf
000003d0: 0c5b 8b3f 8bd5 53bf ce94 dd3f 5954 793f
000003e0: 56cd 423f f610 193c

Q1.1.bias f4 [1, 5]
0.024956863 0.0014737878 -0.0046723154 -0.0032493554 -0.00082969066
00000000: 5672 cc3c 1d2c c13a 391a 99bb 23f3 54bb
00000010: 997f 59ba
