CausalCVR/logs/simu2/eval/29/Vcnet_tr_ckpt.pth.tar (torch, 123637 bytes, 18 tensors)

feature_weight.weight f4 [50, 8]
000000 77 8f a3 3b 6a ee cd bb c0 69 5c 3b 3c 9e 7b bb
       0.0049914676 -0.0062845247 0.0033632368 -0.0038393876
000010 74 18 b3 3b 7a de 44 3c 3b b0 3d 3c b7 97 a4 3b
       0.0054655615 0.012015933 0.011577661 0.0050229686
000020 9b fe a5 b9 b6 39 cb 3c 69 dd 49 bc f2 0f d9 bb
       -0.00031660948 0.024807792 -0.012320855 -0.0066242153
000030 4d 54 4e 3b de 6c 0a 3c 67 ee 9f 3b cb 27 4c bc
       0.0031483353 0.0084488075 0.0048807147 -0.012460659
000040 e1 1c 8e bc 19 f9 41 3c bd 7d 37 bc 5b de bd bc
       -0.017347755 0.011839175 -0.011199412 -0.023177316
000050 c1 6b ae b9 17 6e 15 bc ce 2b ad 3b ab e7 5c 3a
       -0.0003326815 -0.009120486 0.005284763 0.0008426855
000060 86 3e c8 3c 87 be a1 3c 17 33 67 3b 23 c8 b7 3a
       0.024443876 0.01974417 0.0035278255 0.0014021437
000070 93 54 30 3b 28 1a 11 3c ca db ce 3c 2d ab 5e 3c
       0.002690588 0.008856334 0.025251288 0.013590616
000080 28 74 97 3c 13 91 8f 3b e2 85 aa 3a b2 1b 25 3c
       0.018488005 0.004381308 0.0013009871 0.010077404
000090 36 d9 d8 39 7a 4f ae 3a 8a 5d 5a 3b 6b fd 5e 3c
       0.00041360565 0.0013298832 0.0033319914 0.013610224
0000a0 2c 34 97 3b 96 24 61 3b 7a 5f bf bc fc 2b 22 bc
       0.0046143737 0.0034354082 -0.023360956 -0.009898182
0000b0 0a 1f 50 bc 58 a7 9f bb c8 2e 68 bc 2c 97 67 bb
       -0.012702713 -0.004872244 -0.01417131 -0.0035337908
0000c0 ee 53 59 3c c0 fc 66 bc 07 81 89 3c bd 7a e9 bb
       0.013264639 -0.014098346 0.016785158 -0.0071252272
0000d0 99 0d cb bb ee 00 86 3c f1 a4 04 bc ec c1 c3 bb
       -0.0061966893 0.016357865 -0.008095966 -0.005974045
0000e0 ff ab d3 bb 0d 90 f4 bb 93 bd a0 3c a2 36 2e bc
       -0.0064597125 -0.0074634613 0.019621646 -0.010633143
0000f0 47 83 60 3c 00 ea fa bb 38 07 ad 3b e0 39 76 bb
       0.013703174 -0.0076572895 0.0052804016 -0.0037571117
000100 b9 b9 af 3c 4e b5 67 3c d4 10 b4 ba 9d c5 88 3a
       0.021450864 0.0141423475 -0.0013737925 0.001043487
000110 28 76 00 3c 86 5f 1f bc 04 8e 5d 3b 02 3a c8 3c
       0.007840671 -0.009727364 0.0033806572 0.024441723
000120 93 de 47 3b 10 9a 00 bb f5 9a d7 3b d6 eb 00 bc
       0.0030497655 -0.0019623078 0.0065797516 -0.007868728
000130 ad b3 25 bc ab c1 95 bb 1a 66 b7 3c aa e7 a0 3a
       -0.010113639 -0.004570206 0.022387553 0.0012276073
000140 87 bc d4 bb 47 b3 19 bc bd 51 99 bc f0 82 b2 b8
       -0.006492201 -0.009381122 -0.018715734 -8.5120904e-05
000150 b1 2a 1d 3c 7c c0 84 bc 90 9b 61 3b 71 1d 25 3c
       0.009592698 -0.016205065 0.0034424998 0.01007782
000160 63 a0 0e bc 01 ac 39 bb bd 66 ba bb ad aa 02 bb
       -0.008705231 -0.0028331282 -0.005688517 -0.0019938156
000170 f2 2c 51 bb bc 8c df bb c5 06 8f 3c 78 e7 b8 bb
       -0.0031917659 -0.0068221968 0.017459283 -0.0056428276
000180 54 7f ab bc 71 07 8a bc b5 40 4f bb e3 14 9f 3b
       -0.020934738 -0.016849251 -0.0031624262 0.004854785
000190 6e ed 95 3c 2a 73 b5 bc 0a 0d 5e bc 45 bd 8e bb
       0.018301692 -0.022149641 -0.013552913 -0.004356059
0001a0 f3 c1 2b bc d2 00 e8 bb 63 fc 95 bc c1 76 f0 3b
       -0.010483253 -0.007080176 -0.018308824 0.0073383753
0001b0 de b5 8b 3c 1b a5 02 3b 2f 23 5f 3c 89 5a 54 bc
       0.017054494 0.0019934836 0.013619228 -0.012961038
0001c0 b3 b1 50 bb fc 6b 32 bc 5c f8 e6 3a 5e c9 94 3c
       -0.0031844198 -0.010890003 0.0017621624 0.018162426
0001d0 4d de 78 bb e4 d6 4b 3b 6a e3 85 ba f9 06 a1 3c
       -0.0037974298 0.0031103427 -0.0010214869 0.019656645
0001e0 99 26 16 3b 2f f3 15 3c 0e e4 94 bc 9c 95 55 3c
       0.002291119 0.009152218 -0.018175151 0.013036158
0001f0 71 96 71 bc 65 30 df 3b 84 03 f4 b9 d7 1a 64 3c
       -0.014745341 0.006811189 -0.00046541926 0.013922415
000200 fd 91 8e 3b a4 6c 8e bc d6 5b bc bc 68 2c 06 bb
       0.0043508993 -0.017385788 -0.02299301 -0.0020473246
000210 99 ae 69 bc 70 34 56 3b 11 02 52 3b 0b d6 d5 3b
       -0.014262819 0.0032685064 0.0032044689 0.00652576
000220 32 81 ff 3b b0 0f 63 3b 73 0e 71 bb a5 84 49 3c
       0.0077973837 0.0034646802 -0.0036782294 0.012299691
000230 c6 ee 82 ba be c7 99 bc 48 9a 77 bb 5d c6 85 3b
       -0.0009989373 -0.018772002 -0.0037781168 0.0040824846
000240 ba 96 9e 3c 32 b8 c6 3b be fd 08 3a a2 24 8b 3c
       0.019358981 0.0060644383 0.0005225799 0.016985241
000250 b4 74 06 bc aa cc 95 bc 38 50 2e bc ce 45 f4 bb
       -0.008206535 -0.018286068 -0.010639243 -0.0074546104
000260 36 02 a1 3b 25 79 68 bc 4a f4 c9 bb ef 60 35 3c
       0.0049135936 -0.014189039 -0.0061631547 0.011070474
000270 e0 3f 28 b9 b2 f9 41 3c 6c 01 8c 3b ad 99 93 3c
       -0.00016045524 0.011839317 0.0042726304 0.018017614
000280 41 20 1c bc 43 7e 69 3b 6f b4 a0 bc b0 74 d2 bb
       -0.009529174 0.0035628236 -0.019617287 -0.0064226016
000290 da df e3 3a 80 ce da bb b9 6a d6 3b ad 36 37 bc
       0.0017385439 -0.0066774487 0.006543484 -0.011182469
0002a0 23 95 06 bb 2a 24 ad ba 9e cd 61 3b 0f 5e 9f 3c
       -0.002053567 -0.001320963 0.0034454833 0.01945403
0002b0 2b 3d 05 bb 4f 6d 39 bb 43 b3 43 bb 88 8c bf bb
       -0.0020330648 -0.0028293913 -0.0029861487 -0.00584561
0002c0 90 89 bd 3c 69 e1 d6 bb 69 fd 2d 3c bc 42 74 3a
       0.023136884 -0.0065576327 0.0106195 0.00093178055
0002d0 2b 1f 6f b9 9d 10 25 3c 15 31 d1 3a 3a 7c d7 bb
       -0.00022804427 0.010074762 0.0015960062 -0.0065760883
0002e0 4f b5 36 3c 3e b6 62 bb d3 17 13 3c 8d 76 cd 3c
       0.011151626 -0.0034593488 0.008977848 0.025080943
0002f0 20 4f c2 ba b5 e7 fd 3a bf 77 04 bc 0d 30 ac bc
       -0.0014824606 0.0019371422 -0.00808519 -0.021019006
000300 77 c9 a6 3b ca 46 12 3b 17 86 90 3b 11 5f 5d bc
       0.0050899344 0.0022320026 0.004410516 -0.013511435
000310 c4 0d da 3a 91 9e 3f ba ae 8f 8d 3c e8 e1 3f 3d
       0.0016636183 -0.00073097 0.017280426 0.0468463
000320 5f 67 76 3c 96 3d c0 3c af e1 6c 37 d4 0a 85 bc
       0.015039294 0.023466866 1.4119242e-05 -0.016240515
000330 79 c4 6e 3c 7e ae c0 3c ab a2 cb 3c dc 84 d1 3b
       0.01457321 0.023520704 0.02485784 0.006394012
000340 47 27 a5 bb 07 6d 87 bc 91 bf 05 bb da 77 91 bc
       -0.0050400826 -0.01653148 -0.0020408372 -0.017757345
000350 01 69 9f 3b 42 29 99 bc cc b4 5a bc 20 10 e9 3b
       0.0048648124 -0.018696431 -0.013348769 0.007112518
000360 82 20 fb bb cb fb c5 3b 7b da 4e 3c 6e 20 b7 39
       -0.0076637873 0.006041979 0.012625332 0.00034928642
000370 a6 7a d4 3b dd 11 18 bc 10 bb 9e 3b eb 73 de bb
       0.0064843474 -0.009281603 0.004844077 -0.006788721
000380 d5 41 74 39 5b e4 13 3a b2 d2 9e bb e3 fd 1c bc
       0.00023294178 0.00056416326 -0.004846894 -0.009582016
000390 5d 7b c7 3a c1 9d 6b bc 5c ad 1c 3c a0 da e7 3b
       0.001521926 -0.014380873 0.0095628165 0.0070756227
0003a0 87 d2 57 bc 9c 6d 1d 39 44 84 51 3b b0 3c 90 bc
       -0.013172752 0.0001501352 0.0031969706 -0.017607063
0003b0 a2 9c 0c 3a 6e da 87 bb 63 4c 09 3c 1e f2 71 bb
       0.0005363916 -0.004145912 0.008380028 -0.0036917995
0003c0 0e 4a 99 3c 53 c8 63 3b 3e 9d c7 3a c9 f4 d9 3a
       0.01871207 0.0034756854 0.0015229357 0.0016628738
0003d0 d2 47 c2 3c fa 13 9b bc 82 53 0f 3c 2b be 1f ba
       0.023715887 -0.018930424 0.008747937 -0.0006093706
0003e0 cb f3 5a 3c 19 7c 54 3b 65 99 9a 3c 79 70 a1 bb
       0.013363789 0.00324226 0.018871972 -0.004926738
0003f0 1e 3c eb b9 8e 33 0c 3b 22 13 71 3b ca 54 ab 3b
       -0.00044867484 0.0021393034 0.0036785086 0.0052286135

feature_weight.bias f4 [50]
000000 21 5b a7 ba 31 d6 e2 3a d5 00 47 39 b1 5d 19 ba
       -0.0012768247 0.0017306266 0.00018978429 -0.0005850448
000010 84 70 f1 39 00 00 00 00 64 41 76 3b 91 f4 5e 3b
       0.00046050933 0.0 0.0037575597 0.0034020285
000020 66 01 1a 3b b3 f8 0a 3b d3 77 42 bb 00 d4 96 ba
       0.0023499369 0.0021205365 -0.0029673472 -0.0011507273
000030 70 1a 52 ba 6d 74 ab b9 43 4a da ba 55 14 ae 39
       -0.0008014804 -0.00032702406 -0.0016654212 0.00033203015
000040 f3 98 43 b9 e1 da 6b ba 38 89 bb ba 3c e4 12 ba
       -0.00018653627 -0.0008997154 -0.0014307862 -0.00056034676
000050 00 00 00 00 6e dc 09 3b de 86 b2 b9 b8 d6 b5 3b
       0.0 0.0021035927 -0.0003405129 0.005549278
000060 62 56 cb 3a 80 a8 19 3b 72 51 17 ba 21 ae d4 39
       0.0015513415 0.002344638 -0.0005772329 0.00040565527
000070 8b ee 73 3b af f4 b4 ba 03 60 f6 3a f6 97 fe b9
       0.003722104 -0.0013805832 0.0018796924 -0.00048559875
000080 c6 9b e0 3a c3 2a d4 b9 fb fe 10 3a f7 66 80 3b
       0.0017136268 -0.0004046765 0.0005531159 0.0039185244
000090 bb 15 e6 ba dc 0f da 39 89 92 37 b9 d7 57 09 3a
       -0.0017554084 0.00041592016 -0.00017506829 0.00052392244
0000a0 9c e2 8c 3b bc e8 41 b9 00 00 00 00 e6 f7 be b8
       0.004299475 -0.00018492615 0.0 -9.106081e-05
0000b0 62 6a 54 3b e7 75 b5 ba db 0f 15 3a 95 ce 0b 3b
       0.0032412042 -0.0013844342 0.00056862616 0.002133285
0000c0 14 85 d7 3a c3 0a cd 3a
       0.0016442859 0.0015643466

hidden_features.0.weight f4 [50, 8]
000000 77 8f a3 3b 6a ee cd bb c0 69 5c 3b 3c 9e 7b bb
       0.0049914676 -0.0062845247 0.0033632368 -0.0038393876
000010 74 18 b3 3b 7a de 44 3c 3b b0 3d 3c b7 97 a4 3b
       0.0054655615 0.012015933 0.011577661 0.0050229686
000020 9b fe a5 b9 b6 39 cb 3c 69 dd 49 bc f2 0f d9 bb
       -0.00031660948 0.024807792 -0.012320855 -0.0066242153
000030 4d 54 4e 3b de 6c 0a 3c 67 ee 9f 3b cb 27 4c bc
       0.0031483353 0.0084488075 0.0048807147 -0.012460659
000040 e1 1c 8e bc 19 f9 41 3c bd 7d 37 bc 5b de bd bc
       -0.017347755 0.011839175 -0.011199412 -0.023177316
000050 c1 6b ae b9 17 6e 15 bc ce 2b ad 3b ab e7 5c 3a
       -0.0003326815 -0.009120486 0.005284763 0.0008426855
000060 86 3e c8 3c 87 be a1 3c 17 33 67 3b 23 c8 b7 3a
       0.024443876 0.01974417 0.0035278255 0.0014021437
000070 93 54 30 3b 28 1a 11 3c ca db ce 3c 2d ab 5e 3c
       0.002690588 0.008856334 0.025251288 0.013590616
000080 28 74 97 3c 13 91 8f 3b e2 85 aa 3a b2 1b 25 3c
       0.018488005 0.004381308 0.0013009871 0.010077404
000090 36 d9 d8 39 7a 4f ae 3a 8a 5d 5a 3b 6b fd 5e 3c
       0.00041360565 0.0013298832 0.0033319914 0.013610224
0000a0 2c 34 97 3b 96 24 61 3b 7a 5f bf bc fc 2b 22 bc
       0.0046143737 0.0034354082 -0.023360956 -0.009898182
0000b0 0a 1f 50 bc 58 a7 9f bb c8 2e 68 bc 2c 97 67 bb
       -0.012702713 -0.004872244 -0.01417131 -0.0035337908
0000c0 ee 53 59 3c c0 fc 66 bc 07 81 89 3c bd 7a e9 bb
       0.013264639 -0.014098346 0.016785158 -0.0071252272
0000d0 99 0d cb bb ee 00 86 3c f1 a4 04 bc ec c1 c3 bb
       -0.0061966893 0.016357865 -0.008095966 -0.005974045
0000e0 ff ab d3 bb 0d 90 f4 bb 93 bd a0 3c a2 36 2e bc
       -0.0064597125 -0.0074634613 0.019621646 -0.010633143
0000f0 47 83 60 3c 00 ea fa bb 38 07 ad 3b e0 39 76 bb
       0.013703174 -0.0076572895 0.0052804016 -0.0037571117
000100 b9 b9 af 3c 4e b5 67 3c d4 10 b4 ba 9d c5 88 3a
       0.021450864 0.0141423475 -0.0013737925 0.001043487
000110 28 76 00 3c 86 5f 1f bc 04 8e 5d 3b 02 3a c8 3c
       0.007840671 -0.009727364 0.0033806572 0.024441723
000120 93 de 47 3b 10 9a 00 bb f5 9a d7 3b d6 eb 00 bc
       0.0030497655 -0.0019623078 0.0065797516 -0.007868728
000130 ad b3 25 bc ab c1 95 bb 1a 66 b7 3c aa e7 a0 3a
       -0.010113639 -0.004570206 0.022387553 0.0012276073
000140 87 bc d4 bb 47 b3 19 bc bd 51 99 bc f0 82 b2 b8
       -0.006492201 -0.009381122 -0.018715734 -8.5120904e-05
000150 b1 2a 1d 3c 7c c0 84 bc 90 9b 61 3b 71 1d 25 3c
       0.009592698 -0.016205065 0.0034424998 0.01007782
000160 63 a0 0e bc 01 ac 39 bb bd 66 ba bb ad aa 02 bb
       -0.008705231 -0.0028331282 -0.005688517 -0.0019938156
000170 f2 2c 51 bb bc 8c df bb c5 06 8f 3c 78 e7 b8 bb
       -0.0031917659 -0.0068221968 0.017459283 -0.0056428276
000180 54 7f ab bc 71 07 8a bc b5 40 4f bb e3 14 9f 3b
       -0.020934738 -0.016849251 -0.0031624262 0.004854785
000190 6e ed 95 3c 2a 73 b5 bc 0a 0d 5e bc 45 bd 8e bb
       0.018301692 -0.022149641 -0.013552913 -0.004356059
0001a0 f3 c1 2b bc d2 00 e8 bb 63 fc 95 bc c1 76 f0 3b
       -0.010483253 -0.007080176 -0.018308824 0.0073383753
0001b0 de b5 8b 3c 1b a5 02 3b 2f 23 5f 3c 89 5a 54 bc
       0.017054494 0.0019934836 0.013619228 -0.012961038
0001c0 b3 b1 50 bb fc 6b 32 bc 5c f8 e6 3a 5e c9 94 3c
       -0.0031844198 -0.010890003 0.0017621624 0.018162426
0001d0 4d de 78 bb e4 d6 4b 3b 6a e3 85 ba f9 06 a1 3c
       -0.0037974298 0.0031103427 -0.0010214869 0.019656645
0001e0 99 26 16 3b 2f f3 15 3c 0e e4 94 bc 9c 95 55 3c
       0.002291119 0.009152218 -0.018175151 0.013036158
0001f0 71 96 71 bc 65 30 df 3b 84 03 f4 b9 d7 1a 64 3c
       -0.014745341 0.006811189 -0.00046541926 0.013922415
000200 fd 91 8e 3b a4 6c 8e bc d6 5b bc bc 68 2c 06 bb
       0.0043508993 -0.017385788 -0.02299301 -0.0020473246
000210 99 ae 69 bc 70 34 56 3b 11 02 52 3b 0b d6 d5 3b
       -0.014262819 0.0032685064 0.0032044689 0.00652576
000220 32 81 ff 3b b0 0f 63 3b 73 0e 71 bb a5 84 49 3c
       0.0077973837 0.0034646802 -0.0036782294 0.012299691
000230 c6 ee 82 ba be c7 99 bc 48 9a 77 bb 5d c6 85 3b
       -0.0009989373 -0.018772002 -0.0037781168 0.0040824846
000240 ba 96 9e 3c 32 b8 c6 3b be fd 08 3a a2 24 8b 3c
       0.019358981 0.0060644383 0.0005225799 0.016985241
000250 b4 74 06 bc aa cc 95 bc 38 50 2e bc ce 45 f4 bb
       -0.008206535 -0.018286068 -0.010639243 -0.0074546104
000260 36 02 a1 3b 25 79 68 bc 4a f4 c9 bb ef 60 35 3c
       0.0049135936 -0.014189039 -0.0061631547 0.011070474
000270 e0 3f 28 b9 b2 f9 41 3c 6c 01 8c 3b ad 99 93 3c
       -0.00016045524 0.011839317 0.0042726304 0.018017614
000280 41 20 1c bc 43 7e 69 3b 6f b4 a0 bc b0 74 d2 bb
       -0.009529174 0.0035628236 -0.019617287 -0.0064226016
000290 da df e3 3a 80 ce da bb b9 6a d6 3b ad 36 37 bc
       0.0017385439 -0.0066774487 0.006543484 -0.011182469
0002a0 23 95 06 bb 2a 24 ad ba 9e cd 61 3b 0f 5e 9f 3c
       -0.002053567 -0.001320963 0.0034454833 0.01945403
0002b0 2b 3d 05 bb 4f 6d 39 bb 43 b3 43 bb 88 8c bf bb
       -0.0020330648 -0.0028293913 -0.0029861487 -0.00584561
0002c0 90 89 bd 3c 69 e1 d6 bb 69 fd 2d 3c bc 42 74 3a
       0.023136884 -0.0065576327 0.0106195 0.00093178055
0002d0 2b 1f 6f b9 9d 10 25 3c 15 31 d1 3a 3a 7c d7 bb
       -0.00022804427 0.010074762 0.0015960062 -0.0065760883
0002e0 4f b5 36 3c 3e b6 62 bb d3 17 13 3c 8d 76 cd 3c
       0.011151626 -0.0034593488 0.008977848 0.025080943
0002f0 20 4f c2 ba b5 e7 fd 3a bf 77 04 bc 0d 30 ac bc
       -0.0014824606 0.0019371422 -0.00808519 -0.021019006
000300 77 c9 a6 3b ca 46 12 3b 17 86 90 3b 11 5f 5d bc
       0.0050899344 0.0022320026 0.004410516 -0.013511435
000310 c4 0d da 3a 91 9e 3f ba ae 8f 8d 3c e8 e1 3f 3d
       0.0016636183 -0.00073097 0.017280426 0.0468463
000320 5f 67 76 3c 96 3d c0 3c af e1 6c 37 d4 0a 85 bc
       0.015039294 0.023466866 1.4119242e-05 -0.016240515
000330 79 c4 6e 3c 7e ae c0 3c ab a2 cb 3c dc 84 d1 3b
       0.01457321 0.023520704 0.02485784 0.006394012
000340 47 27 a5 bb 07 6d 87 bc 91 bf 05 bb da 77 91 bc
       -0.0050400826 -0.01653148 -0.0020408372 -0.017757345
000350 01 69 9f 3b 42 29 99 bc cc b4 5a bc 20 10 e9 3b
       0.0048648124 -0.018696431 -0.013348769 0.007112518
000360 82 20 fb bb cb fb c5 3b 7b da 4e 3c 6e 20 b7 39
       -0.0076637873 0.006041979 0.012625332 0.00034928642
000370 a6 7a d4 3b dd 11 18 bc 10 bb 9e 3b eb 73 de bb
       0.0064843474 -0.009281603 0.004844077 -0.006788721
000380 d5 41 74 39 5b e4 13 3a b2 d2 9e bb e3 fd 1c bc
       0.00023294178 0.00056416326 -0.004846894 -0.009582016
000390 5d 7b c7 3a c1 9d 6b bc 5c ad 1c 3c a0 da e7 3b
       0.001521926 -0.014380873 0.0095628165 0.0070756227
0003a0 87 d2 57 bc 9c 6d 1d 39 44 84 51 3b b0 3c 90 bc
       -0.013172752 0.0001501352 0.0031969706 -0.017607063
0003b0 a2 9c 0c 3a 6e da 87 bb 63 4c 09 3c 1e f2 71 bb
       0.0005363916 -0.004145912 0.008380028 -0.0036917995
0003c0 0e 4a 99 3c 53 c8 63 3b 3e 9d c7 3a c9 f4 d9 3a
       0.01871207 0.0034756854 0.0015229357 0.0016628738
0003d0 d2 47 c2 3c fa 13 9b bc 82 53 0f 3c 2b be 1f ba
       0.023715887 -0.018930424 0.008747937 -0.0006093706
0003e0 cb f3 5a 3c 19 7c 54 3b 65 99 9a 3c 79 70 a1 bb
       0.013363789 0.00324226 0.018871972 -0.004926738
0003f0 1e 3c eb b9 8e 33 0c 3b 22 13 71 3b ca 54 ab 3b
       -0.00044867484 0.0021393034 0.0036785086 0.0052286135

hidden_features.0.bias f4 [50]
000000 21 5b a7 ba 31 d6 e2 3a d5 00 47 39 b1 5d 19 ba
       -0.0012768247 0.0017306266 0.00018978429 -0.0005850448
000010 84 70 f1 39 00 00 00 00 64 41 76 3b 91 f4 5e 3b
       0.00046050933 0.0 0.0037575597 0.0034020285
000020 66 01 1a 3b b3 f8 0a 3b d3 77 42 bb 00 d4 96 ba
       0.0023499369 0.0021205365 -0.0029673472 -0.0011507273
000030 70 1a 52 ba 6d 74 ab b9 43 4a da ba 55 14 ae 39
       -0.0008014804 -0.00032702406 -0.0016654212 0.00033203015
000040 f3 98 43 b9 e1 da 6b ba 38 89 bb ba 3c e4 12 ba
       -0.00018653627 -0.0008997154 -0.0014307862 -0.00056034676
000050 00 00 00 00 6e dc 09 3b de 86 b2 b9 b8 d6 b5 3b
       0.0 0.0021035927 -0.0003405129 0.005549278
000060 62 56 cb 3a 80 a8 19 3b 72 51 17 ba 21 ae d4 39
       0.0015513415 0.002344638 -0.0005772329 0.00040565527
000070 8b ee 73 3b af f4 b4 ba 03 60 f6 3a f6 97 fe b9
       0.003722104 -0.0013805832 0.0018796924 -0.00048559875
000080 c6 9b e0 3a c3 2a d4 b9 fb fe 10 3a f7 66 80 3b
       0.0017136268 -0.0004046765 0.0005531159 0.0039185244
000090 bb 15 e6 ba dc 0f da 39 89 92 37 b9 d7 57 09 3a
       -0.0017554084 0.00041592016 -0.00017506829 0.00052392244
0000a0 9c e2 8c 3b bc e8 41 b9 00 00 00 00 e6 f7 be b8
       0.004299475 -0.00018492615 0.0 -9.106081e-05
0000b0 62 6a 54 3b e7 75 b5 ba db 0f 15 3a 95 ce 0b 3b
       0.0032412042 -0.0013844342 0.00056862616 0.002133285
0000c0 14 85 d7 3a c3 0a cd 3a
       0.0016442859 0.0015643466

hidden_features.2.weight f4 [50, 50]
000000 72 fe b7 bc 46 d3 27 bb 77 42 d9 3b 8c b1 5e 3c
       -0.022460196 -0.0025608107 0.0066302377 0.013592135
000010 f5 ac 94 bc 16 4a 7a 3b 5b 26 29 bb 27 56 aa 3c
       -0.018148879 0.0038191131 -0.0025810215 0.020793034
000020 ae a2 db ba a9 f5 ff 39 5e 01 d3 39 cd 3c f4 bb
       -0.0016756856 0.0004882042 0.00040246075 -0.007453537
000030 31 59 05 bc 10 fb 52 3c 80 93 2c 3c 32 fc 2b bb
       -0.008138941 0.012877241 0.010533214 -0.002624285
000040 71 a9 22 3b 2e 98 ca 3b 89 3c 14 bc b6 5e 22 bc
       0.0024820233 0.006182692 -0.009047636 -0.009910276
000050 15 68 09 3b f5 b3 87 bc da e3 15 bb 35 a8 47 3c
       0.0020966579 -0.016565302 -0.0022871406 0.0121861
000060 a2 21 d0 bb b8 d6 ad bb 53 a3 fd 3b 4e bd ab bb
       -0.0063516656 -0.0053051375 0.007740417 -0.0052410727
000070 03 d5 a5 3b 3e c3 0d bc 38 c7 16 3c 07 1e a8 3b
       0.0050607934 -0.008652506 0.009202771 0.0051305327
000080 94 3e 26 3b 83 84 10 bc 5f a5 e4 bb f8 68 96 bb
       0.002536689 -0.008820656 -0.0069777216 -0.00459015
000090 83 c8 68 3b 16 6a 0f 3c 0d 0f c7 bb df f7 97 bc
       0.0035519905 0.00875332 -0.0060747922 -0.018550811
0000a0 c8 77 f1 bb 8f 17 7c 3c d8 bf 8c 3b 8b 81 13 bb
       -0.0073690154 0.015386476 0.0042953305 -0.0022507634
0000b0 c9 c4 8f 3b 86 bb fd ba 44 6c 22 bb b4 bd 7d 3c
       0.0043874723 -0.0019358255 -0.002478377 0.015487123
0000c0 b9 e6 34 bc 9e b7 4e bc fb 94 65 3b 1c c9 c8 38
       -0.011041337 -0.01261702 0.0035031426 9.574203e-05
0000d0 cd 94 da 3c 8f c2 ca 3b d7 c0 b8 ba 7a 8b 74 bc
       0.026682282 0.006187744 -0.0014095557 -0.014925832
0000e0 1a f9 65 ba 38 9b 63 bc 5c ee b0 bb 58 78 c9 bb
       -0.0008772776 -0.0138919875 -0.0053995084 -0.0061483793
0000f0 e0 64 ee ba 3a 93 99 3b b1 5a 32 bc 68 8a 6d 3b
       -0.0018188022 0.00468674 -0.01088588 0.0036245827
000100 bf 77 48 3b 94 14 61 bc f0 15 82 bb 91 5c cf 3b
       0.0030588952 -0.013737816 -0.0039699003 0.0063281734
000110 34 8b 16 bc 33 ac eb bc 20 6e 1d 3b dd e4 69 3c
       -0.009188462 -0.028768634 0.0024021938 0.014275757
000120 b5 09 29 bc e6 b6 5d 3c dc b7 83 3b 32 f1 fd 3a
       -0.010317256 0.013532376 0.0040197205 0.001937425
000130 ca de 87 3b 6d af b5 3b 11 23 1d bb bb d9 46 3c
       0.0041464316 0.005544594 -0.00239772 0.012136872
000140 94 76 f8 3a 1e c6 48 bc 61 c1 12 bb 69 5c a6 ba
       0.0018956237 -0.012254266 -0.0022393095 -0.0012692335
000150 52 66 18 3c 2b 0a 01 bc cf b8 16 3b 57 13 dd 3b
       0.009301739 -0.007875959 0.0022998338 0.0067466903
000160 e7 c8 07 3b dc 87 e0 bb ba 04 51 bb a3 8a ad 3c
       0.0020719112 -0.006852133 -0.0031893686 0.021184271
000170 78 85 ab bc c6 c7 d5 3b c3 63 9d ba 12 37 7f 3b
       -0.020937666 0.006524059 -0.0012007881 0.0038942737
000180 25 34 84 bb 0d 37 48 ba 40 76 4b b9 d7 5c 98 3b
       -0.0040345364 -0.0007637598 -0.0001940364 0.0046497392
000190 7f ca bb bb fe d8 e8 3b 24 21 8d 3c 23 6d f6 3b
       -0.0057309265 0.0071059456 0.017227717 0.0075203343
0001a0 e5 78 d3 ba 88 d7 48 bc fe 7c b6 bb 4f a6 22 3c
       -0.0016134052 -0.012258418 -0.0055690994 0.009927346
0001b0 cd bd f1 3b f1 88 d1 3c 26 14 8b 3b f9 f5 a9 ba
       0.0073773623 0.025577994 0.0042443452 -0.0012966982
0001c0 88 f9 5d bb bf c0 2d bb 2f fc 48 3c b5 41 65 3c
       -0.0033870656 -0.002651259 0.0122671565 0.013992717
0001d0 f3 e2 94 3b 1d ac dd bb 9e bf 15 3c 7e 2a a3 b9
       0.004543656 -0.0067649023 0.009139923 -0.00031121442
0001e0 14 f9 13 bc 10 34 22 3a ad d0 3c 3c 21 ae ad 3c
       -0.009031553 0.00061875675 0.011524362 0.021201195
0001f0 4b aa ae bb d6 15 cf bb 85 37 34 bb 65 87 73 3c
       -0.005330359 -0.0063197417 -0.0027498913 0.014863824
000200 bf 24 dc 3b ad f9 66 3b 4a cb 9e bb fe f2 ed bb
       0.0067182477 0.0035244033 -0.0048460113 -0.007261633
000210 be 47 37 bc b9 a6 03 bc 2c ab 24 bb 18 a2 e2 3b
       -0.011186538 -0.008035355 -0.002512644 0.0069162957
000220 92 a0 f3 3b b8 3b 3b bb ea 30 44 bc 5f 0a 71 3c
       0.007434913 -0.002856953 -0.011974553 0.014711945
000230 9d 94 fc bb 2d 34 4b bc 7b d8 1f 3b 58 0c d8 3a
       -0.007708146 -0.012402576 0.0024390507 0.0016483171
000240 c2 2e cb 3b af 61 67 3c 0d 4f c2 3a 86 98 6d 3c
       0.0062006423 0.014122411 0.0014824584 0.014501696
000250 0f aa 2d 3c 0f 41 43 ba d2 be 06 3c 8e a9 1b bc
       0.010599627 -0.0007448354 0.008224206 -0.009500874
000260 81 55 45 3b 2d 0f e9 bb 4f 7f a5 3b 2b f9 79 3c
       0.0030110779 -0.007112405 0.0050505768 0.01525716
000270 4c d7 98 3c ac 17 2b bc c7 72 23 bc a3 48 6c bc
       0.018657349 -0.0104426555 -0.0099760955 -0.014421615
000280 62 e5 65 3c 5d 3e 52 3c 03 72 b4 bc 96 00 0f 3c
       0.01403174 0.012832251 -0.022027021 0.008728167
000290 1d 54 ef bb 5c 01 0c bc 18 32 2f 3c 8a 9a 9a bb
       -0.0073037283 -0.008545246 0.010693096 -0.0047181295
0002a0 6b 04 ab bb d2 49 c1 3b aa 95 80 bc 0b 23 49 bc
       -0.0052190325 0.0058986926 -0.015696365 -0.012276421
0002b0 ba c7 dd 3b d6 a5 83 3b d7 56 a4 bc c3 cd a5 3c
       0.006768194 0.004017572 -0.02006094 0.020239716
0002c0 97 44 98 bc 62 7e 96 ba f2 0e 0e ba 0b 4d 0f 3a
       -0.018587394 -0.0011481757 -0.0005419097 0.00054664974
0002d0 7c 76 3f bc cd 0b a1 bb db 24 eb 3c 4d 18 ce 3b
       -0.011685964 -0.004914737 0.028704097 0.006289518
0002e0 72 71 2e 39 c2 2a fb ba 36 ff ba 3b 71 47 86 3c
       0.00016636195 -0.0019162523 0.005706693 0.016391488
0002f0 ef 44 6f 3c 58 d3 1d bc 9b 4e 07 3a bd 84 c6 3b
       0.014603837 -0.009632908 0.00051615544 0.006058304
000300 58 54 09 bd c7 76 5a 3b 0f 47 85 bc bf 0f 4c 3b
       -0.033527702 0.0033334957 -0.016269235 0.0031137315
000310 8e 78 e2 bb 77 0f b4 3a be 03 3d bc 43 57 ff 3b
       -0.006911344 0.0013737519 -0.011536537 0.007792385
000320 e3 a1 7e bc d7 43 f9 bb a7 b0 d5 3b 28 96 25 bb
       -0.0155415265 -0.007606964 0.0065213027 -0.0025266502
000330 32 13 32 3a 44 b3 70 3c 10 94 66 bc 2a a8 1e 3b
       0.00067930215 0.014691178 -0.014073387 0.002420912
000340 dc 03 2e bc e2 d5 de bc 8b 53 98 bb dc 73 b0 bb
       -0.010621037 -0.027201597 -0.004648631 -0.0053849053
000350 de ce ba 3b c5 0f 40 3c 34 b5 00 3b ba 86 c4 39
       0.00570093 0.01172251 0.0019639255 0.00037484412
000360 0b e8 5e bc a3 95 3f 39 e2 e3 40 bc 01 3a b8 bc
       -0.013605128 0.00018270923 -0.0117730815 -0.022488596
000370 15 de e2 3c 19 ef 2f bb 36 e1 29 3c 10 b1 2f 3b
       0.027693788 -0.0026845394 0.010368636 0.0026808418
000380 84 92 0d bc 60 eb 1a bc de 80 73 bb 73 92 d5 3b
       -0.008640889 -0.009455532 -0.0037155668 0.0065177022
000390 2a 63 1c 3b 03 53 c0 ba 31 70 00 bb 33 4b 7f bc
       0.0023862817 -0.0014673177 -0.0019598121 -0.015581894
0003a0 ff cb 69 3c 74 80 4c bc a5 ba 85 3c 3e 8a 21 3c
       0.014269828 -0.0124817975 0.01632435 0.00985962
0003b0 c4 79 00 bb dc a8 5b 3c a1 cf 91 3c 85 a3 93 bc
       -0.0019603828 0.013406958 0.0177992 -0.018022308
0003c0 0f 70 d9 bb b1 f5 20 ba 50 e6 1b 3c f9 5a aa 3b
       -0.006635673 -0.00061401265 0.00951536 0.005198833
0003d0 01 76 38 bc ca a1 6b 3b 68 f3 b7 3c f8 15 a0 ba
       -0.011258603 0.0035954588 0.022454932 -0.0012213578
0003e0 01 a7 93 bb ce af bf 3c 3b 2e 6c bb 67 9f ec ba
       -0.0045059924 0.02339926 -0.0036038298 -0.0018052877
0003f0 b4 69 f3 ba 2e 1b 90 3c f5 fd b2 bb aa e6 1f 3c
       -0.0018570931 0.017591085 -0.005462403 0.009759584

hidden_features.2.bias f4 [50]
000000 a6 18 bd 39 48 62 e4 b9 ab 55 08 3b 30 a2 cb 3c
       0.00036067254 -0.00043560774 0.0020803015 0.02485761
000010 20 4b 2b ba 80 c0 56 3c 0d b7 c6 bb 98 d6 6c 3c
       -0.0006534327 0.013107419 -0.006064302 0.01445546
000020 d2 c3 19 3b a8 62 df ba 56 f3 cf ba c8 e9 99 3c
       0.0023462665 -0.0017042952 -0.0015865366 0.018788233
000030 be 85 3e bb 22 9d bc bb 48 9f 86 3a 00 00 00 00
       -0.0029071416 -0.0057560364 0.0010270858 0.0
000040 f3 d2 bb 3c 96 ec 69 bb 00 00 00 00 da ae 6c 3b
       0.022927737 -0.0035693995 0.0 0.0036114962
000050 25 d8 c3 3c af 70 95 38 79 c8 86 bb da 1d 0f bc
       0.023906777 7.1258626e-05 -0.0041132537 -0.0087351445
000060 03 1c e2 ba f9 89 3e 3d 45 83 f0 3c a5 e6 be bb
       -0.001725078 0.0465183 0.02935947 -0.005825835
000070 52 98 e2 3c 8d e3 5e bb 75 cf 1a 3b f8 be 6f 3c
       0.027660523 -0.0034010143 0.002362219 0.014632933
000080 e8 2b 1a 3b 45 22 b0 3c b2 fa 10 bb 0f 6e e5 ba
       0.0023524705 0.021500716 -0.0022122082 -0.0017504113
000090 30 9e 87 ba 93 c1 83 3d a3 76 bf 3c 89 ba 28 bb
       -0.0010346826 0.06433406 0.023372 -0.002574595
0000a0 4b f9 01 bb 2f 1e f0 39 b4 ad ff b8 66 ae 8a b8
       -0.0019832428 0.00045798856 -0.00012191702 -6.612837e-05
0000b0 2e 0c 46 bb 31 3a 35 ba be 85 be bb 00 00 00 00
       -0.0030219662 -0.0006913273 -0.005814283 0.0
0000c0 e4 47 63 ba aa cb d0 bb
       -0.00086700753 -0.006371935

density_estimator_head.weight f4 [50, 11]
000000 97 51 86 3b ae b0 b1 3b 89 4e 20 bc f3 cc 9b bb
       0.0040990817 0.005422673 -0.009784349 -0.0047546565
000010 26 5b 20 3c 10 bd c1 bc 3e 2b 6f 3b 62 0e d1 b9
       0.0097873565 -0.023649722 0.003649428 -0.00039874302
000020 1b af a4 3b c6 47 12 3a dc 73 85 b9 70 d9 99 3a
       0.005025757 0.0005580153 -0.0002545406 0.0011737775
000030 5b 19 9d 3a 7d 76 79 bc 68 c7 f7 bb 90 7c ac 3b
       0.0011985706 -0.015226004 -0.007561613 0.0052638724
000040 b8 11 8c 3c ff 92 5e 3c af 0e 3e 3c 43 ab 9b ba
       0.017098293 0.013584851 0.0116001805 -0.0011876601
000050 da ca 84 3c 21 fb 49 bc 6c 95 e0 3a 6f 6a e0 3b
       0.016210008 -0.01232794 0.0017134375 0.0068486254
000060 57 21 4b bc 90 f4 db 37 8e 11 dc ba cc 4f 23 3c
       -0.012398086 2.6220718e-05 -0.00167899 0.0099677555
000070 db ba 75 3c d8 84 0f 3c 83 45 41 3c f8 6a 39 3c
       0.014998163 0.0087597 0.011796358 0.011317007
000080 9a 75 32 bc 37 d6 16 bc 91 f9 4c 3b d2 c4 d9 bb
       -0.010892296 -0.009206346 0.0031276683 -0.0066457773
000090 50 b4 9f 3a 64 29 0c 3b 36 e0 c3 bb 1a 2b 83 bc
       0.0012184475 0.0021386975 -0.0059776558 -0.016011763
0000a0 03 0d 0e bc 0f e5 85 3c 5a c8 5b 3b b3 4c 09 3b
       -0.008670094 0.016344575 0.0033536167 0.0020950257
0000b0 3e f0 9f 3b 53 e8 0d 3c c9 79 5f 3b 18 69 9a ba
       0.004880934 0.008661347 0.003409969 -0.0011780588
0000c0 3e 69 b6 3b d0 82 50 bc 6f 0f cb 3b c8 7e ed 3b
       0.005566745 -0.012726501 0.006196908 0.0072477795
0000d0 73 2f 47 bc 2b 8c 63 3b e8 d2 5a bc 09 28 af 3b
       -0.012157309 0.0034720998 -0.013355948 0.0053453487
0000e0 a0 99 bb 3b e3 2c e3 3b 71 8d 74 3c f7 49 d8 3a
       0.0057251006 0.006932841 0.0149263 0.0016501535
0000f0 f1 01 af 3b 60 54 95 3b d4 a1 4c 3b 68 66 cc bb
       0.0053408076 0.0045571774 0.0031224387 -0.0062377937
000100 35 60 07 bc 5f 99 97 bb fe b5 02 bc 12 8f 68 3c
       -0.008262684 -0.0046264376 -0.007977961 0.014194267
000110 05 05 1e bb d5 10 5c 3c e3 28 ef bb 51 f8 27 3c
       -0.0024111879 0.013431747 -0.0072985752 0.010252074
000120 20 b2 94 39 bc fd 93 3a c4 13 0d bc a2 ba 3f bc
       0.00028361473 0.0011290829 -0.0086106695 -0.011702212
000130 40 ee a9 3b 81 0f b9 3c 80 d5 5d bb 16 d1 ff 3b
       0.0051858723 0.0225904 -0.003384918 0.0078069074
000140 00 f9 5d bc 52 82 5b bb 22 f9 86 bb d7 b8 8e bc
       -0.013548136 -0.0033494425 -0.0041190544 -0.017422123
000150 ed 97 22 bc b6 6c 5e bb 5d 89 2a 3c 5f 3b 3e ba
       -0.009923917 -0.0033939308 0.0104087265 -0.0007256772
000160 92 a3 88 3c f3 39 eb ba ae 36 07 bc 16 7d 20 bc
       0.016679559 -0.0017946347 -0.008252783 -0.009795448
000170 93 9e 40 3c 68 ed 1c 3c c0 bf 50 3c 9e df e8 3b
       0.011756557 0.009578086 0.012741029 0.0071067354
000180 8d bb f2 ba 40 35 77 39 37 00 1c bc e5 57 8c bb
       -0.0018519029 0.00023575593 -0.009521536 -0.004282939
000190 f7 3a 4a bb ae b7 43 3a 36 d0 0d 3c 11 95 de 3b
       -0.00308579 0.000746603 0.008655598 0.0067926724
0001a0 38 1f d5 bb 41 6e 25 3a c3 46 d7 3b 9d ad 92 bb
       -0.0065039657 0.00063106796 0.0065697148 -0.0044762627
0001b0 b7 8a 8a bb 99 ff a0 3b f1 bf 07 3c 84 c3 0a bb
       -0.004227962 0.004913282 0.0082855085 -0.0021173665
0001c0 e2 71 a9 3b cb b1 5b 3c 6d cd 3e bc f9 58 72 bc
       0.0051710466 0.013409088 -0.011645657 -0.014791721
0001d0 9a 0c 23 3b c1 bc 45 bc 31 6d 8b ba 76 71 08 bb
       0.0024879337 -0.012068928 -0.00106374 -0.002081958
0001e0 cd 1e 20 bc d5 70 e8 3a f4 78 83 bc 51 b5 b4 ba
       -0.0097729685 0.0017733822 -0.016048886 -0.0013786947
0001f0 53 7b db 3b 52 a2 95 bc 7d 39 a2 3b 20 0b 2f bb
       0.006698051 -0.018265877 0.004950701 -0.0026709512
000200 ed 1d 94 ba 42 09 19 bc 62 bd 13 bc dc 3b 2c 3c
       -0.0011300422 -0.009340586 -0.00901732 0.010512318
000210 2a 84 1c 3b ed 12 48 bc 48 4a 9a 3b 9e b2 13 bb
       0.0023882487 -0.0122115435 0.004708562 -0.0022536884
000220 e4 71 18 3c 0f 6e 8f 3b 0c 4d b6 3b a5 36 4e 3c
       0.009304497 0.0043771337 0.005563384 0.01258627
000230 1f 88 cb 3b fe ae 99 3c a2 2d ab bc 03 75 16 3c
       0.0062112953 0.0187602 -0.020895783 0.009183171
000240 54 9f b0 3b e0 42 8e 3c 3f a5 53 3c 56 b9 cd bb
       0.005390087 0.017365873 0.012917816 -0.0062781973
000250 7e 2d 13 3b 69 82 b6 bb 2e 0b c5 3b ff 41 8d bb
       0.0022457535 -0.0055697453 0.0060132956 -0.004310846
000260 02 6b 44 3c f0 30 b1 bb 7a ee 4b 3c f0 c8 82 bc
       0.011988403 -0.005407445 0.012446994 -0.015964955
000270 d2 e2 8d bb 70 4d 60 3c a5 34 24 bc 1a 46 20 3b
       -0.0043300176 0.013690338 -0.010022317 0.0024455846
000280 9b f9 05 bb 63 99 c9 39 5c ca b4 3a 42 77 74 3b
       -0.0020442966 0.0003845199 0.0013793218 0.0037302529
000290 a8 2f 39 bc 58 1d 6e bb 8b ce df bb 0b 51 f0 ba
       -0.011302866 -0.0036333408 -0.0068300418 -0.00183347
0002a0 1c c9 bf 3b d7 cb b4 bb 61 ad fe ba f4 d7 d6 bb
       0.0058528315 -0.0055174637 -0.0019430333 -0.0065565053
0002b0 a5 06 f8 39 1a ba f1 bb a3 b5 7c 3c 78 f6 2f bc
       0.00047307197 -0.0073769214 0.015424165 -0.010739915
0002c0 7f 19 50 bc 86 7c 34 3c 9e e3 50 bc 48 e3 28 bc
       -0.012701391 0.011016017 -0.012749581 -0.010308094
0002d0 b8 54 02 bc 87 29 06 3b e0 75 55 3c 6b a9 82 3c
       -0.007954769 0.002047153 0.013028592 0.015949925
0002e0 8e b8 07 3d 60 61 aa bc 8d 65 11 bb 5e 81 19 3c
       0.03313499 -0.020798385 -0.0022185773 0.009369222
0002f0 6f 3e 33 3b e5 d2 61 3b f7 01 46 3c ac ec 11 3c
       0.0027350446 0.0034457978 0.012085429 0.008906525
000300 61 94 b7 ba 0f 6a 6a 3c 79 22 e8 bb e1 f8 f0 3a
       -0.0014006012 0.014307513 -0.0070841876 0.0018384719
000310 2e 5b 1c bb b5 ca c3 3b 7d 38 37 3b 00 e7 06 bc
       -0.0023858058 0.0059750923 0.0027957254 -0.008233786
000320 ec f4 1d 3c cd 4c 15 b9 5b 0f 86 3c 77 1d d2 3b
       0.009640913 -0.00014238358 0.016364744 0.006412204
000330 12 02 f9 bb e2 37 84 bb 6d ec 29 bc 65 d5 79 3c
       -0.0075991238 -0.004034982 -0.01037131 0.015248631
000340 11 33 0b bc 85 2a 86 3b c2 ef 86 3c 11 7c f3 bb
       -0.008496062 0.004094424 0.016471747 -0.0074305614
000350 30 9c 20 3b 52 f6 18 3b e8 a0 1a bc 19 20 01 3b
       0.0024507158 0.0023340178 -0.009437777 0.001970297
000360 6b d3 47 3b 8f ee a2 bb c0 fe 5e bb 6b 70 8e 3b
       0.0030491005 -0.004972286 -0.0034026355 0.0043468974
000370 7e 81 ab bb b5 11 a2 ba 7d 4d c1 3c af 29 cd bb
       -0.0052339425 -0.0012364896 0.02359652 -0.0062610726
000380 a8 55 c9 3a f0 84 55 3a e8 ee 3e bb ce 41 1b 3c
       0.001536061 0.00081451144 -0.0029134098 0.009476138
000390 d3 dc a3 3b 87 59 d9 3b b9 df 63 bc d9 eb f1 bb
       0.0050006895 0.006632987 -0.01390832 -0.0073828516
0003a0 b6 d7 44 3c c5 39 7d 3b 12 bc 43 bc 3d a0 6e bc
       0.01201432 0.003863917 -0.011946695 -0.014564571
0003b0 f8 3a cf bb b6 04 62 bc a0 d5 57 3c 2e f6 e4 3a
       -0.0063241683 -0.0137950685 0.013173491 0.0017468387
0003c0 ee 1b 52 3c 17 85 16 bc f6 59 76 bb a2 b0 8a bb
       0.012824042 -0.0091870045 -0.0037590242 -0.004232482
0003d0 4f d2 6a 3c a4 67 06 bc cb 56 5d 3b 9c b3 41 bc
       0.014332368 -0.008203421 0.0033773656 -0.011822607
0003e0 30 28 ed bb 82 49 46 bc 9e 72 7e 3c fe ab ba 3b
       -0.0072374567 -0.012102487 0.015530257 0.0056967726
0003f0 f3 73 a4 ba 78 5f 8a 3c a0 21 8b 3a 72 e9 2f 3b
       -0.0012546763 0.016891226 0.001061488 0.0026842025

density_estimator_head.bias f4 [11]
000000 1e ee 06 bd 0c 75 b8 bc 19 58 81 bc 16 f2 b2 bb
       -0.03294193 -0.02251675 -0.015789079 -0.005460988
000010 77 dc 49 ba 7d 96 72 3b a2 45 c4 3b e2 a2 4e 3c
       -0.00077003933 0.0037015968 0.005989746 0.0126120765
000020 37 29 6b 3b 2a 21 05 3d a5 57 9c 3c
       0.003588272 0.03250233 0.01908476

Q1.0.weight f4 [50, 50, 5]
000000 60 1c 7d bf 4d 02 8f bf 35 ca fa be ec f4 86 3f
       -0.9887142 -1.1172577 -0.48982397 1.0543494
000010 69 b6 3a bf 9b 8d 0e 40 8a 73 5a be 37 6a 83 be
       -0.72934586 2.227393 -0.21333137 -0.25666973
000020 61 fe c7 bf 39 ef 32 bf c2 6e c9 bd f4 ed 64 be
       -1.5624505 -0.69896275 -0.098355785 -0.22356397
000030 a4 e8 0f bf ad 39 26 3e 02 77 06 3e 3c b8 19 c0
       -0.56214356 0.16232939 0.13131335 -2.4018698
000040 14 33 32 3f 13 f8 c2 3e f5 16 3d 3f df b0 85 3f
       0.6960919 0.3807989 0.73863155 1.0444602
000050 d5 7d 95 3f 5a 7f 92 bf ec d0 d6 be ef df 2f 3f
       1.1679026 -1.1445115 -0.4195627 0.6870107
000060 e6 b4 b2 3f 57 0a dd 3e 2d 86 cd 3e 8c c7 d4 bd
       1.3961456 0.4317195 0.4014143 -0.10389623
000070 1f c7 8c 3f 07 04 61 be c0 a3 95 3f bf 94 17 3f
       1.0998267 -0.21974193 1.1690598 0.59211344
000080 61 6f 55 bf d0 34 ff 3e ab 11 e3 be a4 2d 85 bf
       -0.83373076 0.4984498 -0.44349417 -1.0404553
000090 24 d5 a4 bf d0 02 13 3c a5 aa 92 bf 8f ef 5e 3f
       -1.2877545 0.0089728385 -1.1458327 0.8708429
0000a0 8d 11 d9 3e fc 7f a0 3f 2d db df 3f b6 bc 0c bf
       0.42396203 1.2539058 1.7488762 -0.5497545
0000b0 8d 0d 24 40 5e d9 a8 3f 8e b1 59 bf 43 51 08 bf
       2.563327 1.3191335 -0.8503655 -0.53248996
0000c0 1f e3 23 3f d8 3a 48 3d f1 ff 10 be 5f bb 24 3f
       0.64018434 0.048884243 -0.14160134 0.64348406
0000d0 1c 4b 1b 40 5e 00 9d 3e c1 50 0a 3f 09 99 e0 bf
       2.4264593 0.30664343 0.5402947 -1.7546703
0000e0 0a bc 4a 3f 4a 85 d3 be bd 4e 59 bf 7a 29 a4 3e
       0.79193175 -0.4131263 -0.8488577 0.32062894
0000f0 e1 6c 9f 3e a6 57 98 3d 93 3b b7 3f f3 66 d6 3f
       0.31137756 0.074385926 1.4315056 1.6750168
000100 92 d5 49 3e 82 f3 cc bd 5f 29 ed be 7e f3 ac bd
       0.19710377 -0.10007383 -0.46320626 -0.0844488
000110 3e 7c cb 3e 16 11 c1 bf 00 64 4e 3f b3 40 5f 3f
       0.39743227 -1.5083339 0.8062134 0.872081
000120 07 e3 95 be b2 df 80 3f cd 09 79 3f 38 4a 2f 3f
       -0.2927477 1.0068266 0.9728058 0.68472624
000130 19 26 ba 3f 3c 3e f2 bf c6 5d 83 3e 98 42 97 be
       1.4542876 -1.8925242 0.2565748 -0.29542994
000140 9e d9 1b 3f b4 06 70 bf 5c 46 07 bf 14 2d 69 3f
       0.6087893 -0.9376023 -0.52841735 0.9108441
000150 d8 35 92 bf 6c 77 ee bd 1d ad 7d 3f 25 32 e0 3e
       -1.1422682 -0.11643872 0.99092275 0.43788257
000160 52 31 53 3f e8 4a 77 3f e7 3a c8 bd eb 3c a2 bf
       0.8249713 0.9659867 -0.0977686 -1.2674841
000170 51 50 e3 be d3 98 93 3f 15 37 f9 3d 99 19 2a bf
       -0.44397214 1.1531013 0.12168709 -0.6644531
000180 bd 1b 6e 3f 1f 4d 1b 40 bc 52 8c 3e cc 7f 0e be
       0.93011075 2.426582 0.2740687 -0.13915938
000190 ae b6 84 3f 14 d6 50 3f d4 71 a2 be ec c2 19 bf
       1.036825 0.8157666 -0.3172747 -0.6006305
0001a0 8a 9d 03 3c e2 66 e6 bf f0 ed 2e 3f fc f1 0f bf
       0.008033166 -1.8000147 0.68331814 -0.56228614
0001b0 07 af c6 bf 31 64 b6 be 1e d9 9b 3e cc aa 5d 3f
       -1.5522164 -0.35623315 0.30439085 0.8658874
0001c0 05 5a 44 3f de dd 31 bf 21 b1 70 3f f5 38 31 c0
       0.7669986 -0.6947917 0.9402028 -2.7691014
0001d0 ec ab f6 bd 96 15 df bf 17 83 06 40 dc 15 13 40
       -0.1204451 -1.7428463 2.101751 2.2982092
0001e0 ed c3 4b 3f 21 3d a8 3f bb 3f 1d 3e 60 e3 6b be
       0.79595834 1.3143655 0.15356342 -0.23035955
0001f0 1a fa 57 3f 98 b3 ad 3e 90 f7 74 3e 5a 98 5b bf
       0.84366 0.33926082 0.23922563 -0.85779345
000200 dc b3 88 3f 81 b2 2a bf 5a 0d 96 3f 9d 53 1b bf
       1.0679889 -0.66678625 1.1722825 -0.6067446
000210 d1 de a5 bd cc f9 0d bf de eb ad bd f0 aa 5c be
       -0.080991395 -0.55459285 -0.08492254 -0.21549582
000220 81 ee 44 3f f3 3a 17 40 d9 6d 69 3f dd f7 60 3e
       0.7692643 2.362973 0.9118324 0.21969552
000230 c3 6c 52 bf a2 67 77 bf 4e 28 88 3e ce 95 0f 40
       -0.8219721 -0.96642506 0.2659325 2.2435184
000240 67 7a 82 bf d1 29 5d bf a6 f3 54 bf bd 16 75 3f
       -1.0193604 -0.8639193 -0.8318428 0.9573782
000250 70 c6 ab 3f ed 97 a3 bf e7 3d cc 3e 04 83 23 c0
       1.3419933 -1.2780739 0.39890978 -2.5548716
000260 05 6b 7c be ec cc 6f 3f f4 23 8c be 74 f2 6f be
       -0.246502 0.9367206 -0.2737118 -0.23432332
000270 c7 59 66 3f bc 19 ee bf d3 ea b9 3f a8 7a d1 be
       0.8998074 -1.8601604 1.4524788 -0.40913892
000280 91 58 07 40 05 cb 9f bf bb 3a fd 3f 4d c3 ae be
       2.1147807 -1.2483832 1.9783548 -0.34133378
000290 39 22 15 c0 22 e2 d1 be 5a db 0c 3d e5 79 90 3f
       -2.3302138 -0.40992838 0.034388877 1.1287199
0002a0 78 87 ed 3e 8c fc d7 bf 88 01 42 3f 66 14 c6 bc
       0.46392417 -1.6873946 0.75783587 -0.024179649
0002b0 bc 50 29 3f e6 a5 5f be ba be 7c bf 81 ed de 3f
       0.66138816 -0.21840629 -0.98728526 1.741623
0002c0 b5 af f2 3f 43 d9 71 3f 1f 9c 50 3f b8 6d 8b 3e
       1.8959872 0.9447214 0.8148822 0.27232146
0002d0 b2 f2 67 bf 1b d9 80 3f 9d 74 e7 bf 01 f6 4d 3f
       -0.906047 1.0066255 -1.8082463 0.804535
0002e0 a7 28 93 3e 1b 2a 4b 3e 6e e9 72 bf 59 4a 02 3f
       0.28741953 0.1984028 -0.94887435 0.50894696
0002f0 38 bd ba 3f f7 58 bc 3e 8f 02 bf be 89 9a d8 be
       1.4588995 0.36786625 -0.3730664 -0.423054
000300 b2 f5 78 bf d6 6e a3 3f 60 81 2f 3f 38 22 84 3f
       -0.972499 1.27682 0.68556786 1.0322943
000310 e5 70 23 bf b2 44 40 3e ec bd 83 3e c4 e6 02 bf
       -0.6384414 0.18776205 0.25730836 -0.5113337
000320 f1 7d 88 3d 24 7e 06 bf a4 81 21 3f 1c 69 c8 bf
       0.066646464 -0.52536225 0.6308844 -1.5657077
000330 03 e3 0f 3f a9 9f 05 c0 cd 55 1e 3f 17 89 bc be
       0.5620577 -2.08787 0.6184967 -0.3682334
000340 05 71 c6 3e 6f ab a4 bf 9d 58 a7 bf d3 44 84 bf
       0.38758102 -1.2864817 -1.3073918 -1.0333503
000350 98 a8 11 bf 42 b0 87 3f 9c 68 af bf 5c 33 50 3e
       -0.5689788 1.0600665 -1.3703799 0.20332092
000360 e6 fa ba bf 47 3c 14 3f 43 f2 75 3f db 3a 63 bf
       -1.4607818 0.57904476 0.9607279 -0.8876168
000370 e2 09 94 be 2a 79 62 3d 60 e6 b6 bf 92 55 94 3e
       -0.2891379 0.055291332 -1.4289055 0.28971535
000380 7a de da 3f ee df 4a 3e 9e c6 1b 3e d5 e8 71 3e
       1.7099144 0.19811985 0.15212485 0.23623975
000390 d8 9c 74 3e 2b df 7e bf 11 f8 e8 3e 67 85 be bf
       0.23887956 -0.9955928 0.4550176 -1.4884461
0003a0 0c 15 c3 bf b8 36 cf be 42 0d cf bb 2d 5f 2e 3e
       -1.5240798 -0.40471435 -0.006318719 0.17028494
0003b0 72 c7 3e bf c7 c3 17 40 6e 19 85 bf 7a 09 67 bf
       -0.7452308 2.3713243 -1.0398386 -0.90248835
0003c0 e4 8b 3b bf f4 bb 91 be 7c c3 60 3f a3 41 8f 3f
       -0.7326033 -0.2846371 0.87798285 1.1191906
0003d0 45 69 42 bf 8c 02 07 be 87 68 85 bf 8a 01 65 3e
       -0.7594188 -0.13184565 -1.0422524 0.22363868
0003e0 a1 bb a8 bf c0 94 8b be dc 81 eb bd cc 1a aa bf
       -1.318226 -0.27261925 -0.11499378 -1.3289428
0003f0 57 b0 5c 3f df 79 1b be 16 df 62 bf f3 43 67 bf
       0.86206573 -0.15183209 -0.8862165 -0.9033806

Q1.0.bias f4 [50, 5]
000000 76 b9 02 b9 19 80 03 bb 46 f6 86 bb 3f 14 39 bb
       -0.00012466856 -0.0020065366 -0.0041187136 -0.0028240827
000010 d2 12 e6 b9 7d 4f 6a b8 c9 e5 69 b8 fb dc 65 b8
       -0.0004388304 -5.5863977e-05 -5.5765533e-05 -5.480366e-05
000020 4c 2d cb b7 93 c8 ca b6 f9 82 aa b8 00 87 2f b8
       -2.4220579e-05 -6.043419e-06 -8.130627e-05 -4.184898e-05
000030 34 fb 6e 37 d0 c2 05 38 18 41 29 37 54 54 32 b9
       1.4244393e-05 3.1891104e-05 1.0088341e-05 -0.00017006818
000040 47 ef 33 b9 7e 97 32 b9 b0 84 9e b8 5e bf 95 b7
       -0.00017159908 -0.00017031838 -7.558742e-05 -1.7851296e-05
000050 eb 88 8e b8 82 e0 64 b8 59 d7 d1 b9 e8 a1 bc b9
       -6.7965906e-05 -5.4568525e-05 -0.00040024033 -0.00035978784
000060 33 33 86 b8 9b db d0 3b dc 1c b6 3b dc 07 00 b8
       -6.3991545e-05 0.0063738353 0.0055576395 -3.0524898e-05
000070 c3 83 3e bb 7f 7f 28 ba 63 f2 13 ba 97 18 2f 3b
       -0.0029070235 -0.000642769 -0.00056437234 0.0026717538
000080 3a df 75 3b 4c 08 fa 3a b4 aa 6d 39 23 c2 82 bb
       0.0037517087 0.0019075959 0.00022665673 -0.003990428
000090 3a a4 18 3b 8e 62 32 3b 91 eb 2d 3a 7a 53 ce 36
       0.0023291246 0.0027219388 0.00066345284 6.1489964e-06
0000a0 0e 09 1f 3c 65 c2 2c ba 6b fd 14 bb bc b0 34 ba
       0.009706749 -0.00065902463 -0.0022734057 -0.00068927906
0000b0 9a d1 34 36 0f 57 42 bb 15 6c 79 ba ff b0 ff b9
       2.6944094e-06 -0.0029653942 -0.00095147017 -0.00048769263
0000c0 d3 8b 1b b9 7a 43 0a b8 44 d1 28 3a 6e 35 d9 39
       -0.0001483404 -3.2964606e-05 0.00064398744 0.00041429274
0000d0 fc ec 15 b9 dc ce b2 b9 c8 c0 85 b8 4a f3 1b b6
       -0.00014298031 -0.00034104928 -6.3778425e-05 -2.3238413e-06
0000e0 4d ea 68 b5 fb 00 06 b5 9e 95 41 b4 1b 5f 14 b3
       -8.676769e-07 -4.9920317e-07 -1.8028956e-07 -3.4545433e-08
0000f0 a4 d9 60 bb d3 6f 88 3b 8c 3e 79 3b bc e5 0e 3a
       -0.0034309411 0.004163721 0.0038031666 0.0005451103
000100 b8 b5 07 b9 18 91 2e 3b 1b ba 8c 3b 0d 78 29 3b
       -0.00012942299 0.0026636776 0.0042946464 0.002585891
000110 2f 27 87 38 db f6 ef b8 06 00 0e 3a f3 00 27 3a
       6.4446e-05 -0.000114423885 0.00054168736 0.0006370686
000120 2a 50 25 ba af 88 80 ba f6 6e 32 b9 52 90 a1 38
       -0.0006306196 -0.000980636 -0.00017016739 7.70396e-05
000130 cb be f2 36 c6 b9 d2 b6 74 25 6b b6 6b 2e 2d b5
       7.2343732e-06 -6.2801146e-06 -3.503953e-06 -6.451507e-07
000140 9a fb ca 39 7e f6 a9 39 44 35 8d 39 3b 33 ce 38
       0.000387159 0.00032417843 0.00026933302 9.832388e-05
000150 cf 62 d9 37 78 26 a4 bb 42 1d 17 3b a6 3a 48 3a
       2.5914427e-05 -0.0050094686 0.002305821 0.0007638134
000160 2f f9 b6 ba d0 91 b4 b9 23 da 1f 3a 4c fe 0e 3a
       -0.001395976 -0.00034440914 0.00060978736 0.00054547633
000170 5d 21 fb 39 08 56 43 39 6b 65 1c 38 5b 28 2e 3b
       0.00047899308 0.00018628698 3.728775e-05 0.0026574347
000180 1b 86 99 ba 44 83 0f bb 85 8b 8e ba ec 8e 06 b9
       -0.001171294 -0.0021898309 -0.001087532 -0.00012832478
000190 61 ee 99 b6 8d 9b 96 b6 63 67 93 b6 a3 85 01 b6
       -4.5875063e-06 -4.488457e-06 -4.392977e-06 -1.9300285e-06
0001a0 48 8a fa b4 a4 61 32 3c 2d d5 4f ba 29 7e 2c bb
       -4.6666742e-07 0.010887537 -0.0007928189 -0.0026320315
0001b0 e5 1e 57 ba 23 55 15 37 79 db b5 b8 5d 1a a3 b8
       -0.0008206203 8.9009145e-06 -8.6716325e-05 -7.777356e-05
0001c0 78 48 95 b8 4d a0 f3 b7 95 b9 cb b6 39 ce 4d ba
       -7.118372e-05 -2.9042503e-05 -6.071476e-06 -0.0007850859
0001d0 44 36 45 b9 30 4b 07 ba 2c ae 00 ba 75 1d b0 b8
       -0.000188076 -0.0005161045 -0.0004908766 -8.397821e-05
0001e0 ab d0 58 b6 5e 90 56 b6 3e 57 54 b6 17 b4 bc b5
       -3.230797e-06 -3.1972518e-06 -3.1641243e-06 -1.4059505e-06
0001f0 fa 81 bc b4 e8 8b ff ba 01 58 6f ba a1 6e ba b9
       -3.51123e-07 -0.0019496651 -0.000913024 -0.0003555911
000200 99 8f 11 38 ee 7a 2e 38 ed bc 1a 37 0b c2 a6 36
       3.470443e-05 4.159932e-05 9.223103e-06 4.969775e-06
000210 b6 75 4b 36 eb e8 4e 35 a2 d7 4e 33 d0 ae 20 ba
       3.0317874e-06 7.707992e-07 4.815923e-08 -0.0006129565
000220 eb 79 89 ba b4 47 24 ba af fe 4b b8 8e e7 19 38
       -0.0010488605 -0.0006266788 -4.8636164e-05 3.6693695e-05
000230 0b 33 bf b9 e7 be c2 b9 07 d5 bf b9 5a 4c 28 b9
       -0.0003646839 -0.00037144797 -0.00036589077 -0.00016050172
000240 19 42 14 b8 39 4c 94 bb d5 a4 c2 ba cb 2c e2 b9
       -3.5347508e-05 -0.004525688 -0.0014850149 -0.00043139452
000250 f0 27 ac b7 0d 7b b2 b6 8c 32 b1 3b e9 04 08 ba
       -2.0522595e-05 -5.3191384e-06 0.005407637 -0.000518872
000260 df 0b 9c ba 46 63 a3 b9 ff 6e 22 37 09 09 89 bb
       -0.0011905393 -0.00031163747 9.681796e-06 -0.0041819853
000270 92 39 89 3a 7c 7f 09 3b 14 e4 62 3a 0e fb ba b6
       0.0010469428 0.0020980528 0.0008655202 -5.5724586e-06
000280 04 f6 7d bb 97 15 b1 ba 61 13 35 3b 2d 5a 50 3b
       -0.0038751373 -0.0013510463 0.002762996 0.003179203
000290 b2 9b 17 3a 73 57 0f 3c 04 e1 ad ba ea 34 e3 39
       0.0005783393 0.008748877 -0.0013265912 0.00043336238
0002a0 94 ac 1f 3b 88 57 18 3a 0e de 77 ba b3 28 1a ba
       0.002436434 0.0005811383 -0.0009455391 -0.00058806984
0002b0 f1 92 92 b9 48 bc 31 36 2f 0b b3 38 16 05 c5 ba
       -0.0002795677 2.648465e-06 8.537468e-05 -0.0015031423
0002c0 c0 20 be b9 46 f6 0a b9 ea 6c 23 b6 6d 44 8d 34
       -0.00036264025 -0.0001325245 -2.435229e-06 2.6313083e-07
0002d0 1c 0c 85 b6 ea 94 c1 b5 d9 a2 24 34 e7 9a 2d 35
       -3.9651186e-06 -1.442296e-06 1.5332934e-07 6.4672935e-07
0002e0 1c 29 89 34 83 77 39 39 13 79 42 39 44 f6 41 39
       2.554815e-07 0.00017687496 0.00018546385 0.00018497655
0002f0 e5 65 ab 38 29 c2 96 37 bd db 76 b8 ba 07 7d b7
       8.172895e-05 1.7971806e-05 -5.8855618e-05 -1.5081774e-05
000300 30 62 71 b6 66 4c 32 34 5e 64 16 b1 c9 a6 fe bb
       -3.596895e-06 1.6605335e-07 -2.1884925e-09 -0.007771347
000310 ea e4 81 ba 50 9b 04 bb b9 48 19 bb 3e 97 e9 b9
       -0.0009910141 -0.0020234175 -0.0023389293 -0.00044553907
000320 b9 d1 d8 3a bb ac 69 3a 13 de df b7 91 cf e9 b9
       0.0016541994 0.00089139835 -2.6687083e-05 -0.00044595872
000330 39 1f 3b b9 ac 41 5d ba 2b 97 e7 39 6e 5d 74 b9
       -0.00017845341 -0.0008440267 0.00044172382 -0.00023304459
000340 98 a9 26 ba 25 47 02 b9 8e 97 70 b4 2d 8a 9b b1
       -0.0006357669 -0.0001242427 -2.2406877e-07 -4.5268025e-09
000350 f7 3c c9 ae 00 00 00 00 00 00 00 00 e0 64 e2 bb
       -9.151251e-11 0.0 0.0 -0.006908998
000360 66 ee b9 bb 32 2d cd bb bb 01 56 bb 46 3b 4d ba
       -0.0056741713 -0.006261491 -0.003265484 -0.0007828962
000370 31 3d 0a 3c a1 7a 8b ba 18 eb 32 bb 04 74 77 ba
       0.008437441 -0.0010641405 -0.0027300771 -0.000943959
000380 52 17 01 b8 15 a2 ec 35 c7 49 36 36 cb 9a 64 36
       -3.0777715e-05 1.7630542e-06 2.7163057e-06 3.406475e-06
000390 6a 1f f2 35 2a 5c 1d 35 d0 06 15 3a 54 ad 45 3a
       1.8039548e-06 5.8621174e-07 0.0005684914 0.00075407815
0003a0 57 19 5e 3a 7f 10 d8 39 ac 42 cb 38 db a9 02 3b
       0.0008472404 0.0004121102 9.692213e-05 0.0019937668
0003b0 26 77 d2 3a 3c 17 94 3b f1 cc 72 3b 4c 0c 28 3a
       0.0016057238 0.0045193713 0.0037048424 0.0006410524
0003c0 55 ec 9c bb 29 07 d2 3b 1b 57 b4 3b 27 27 3f 3a
       -0.004788915 0.006409545 0.005503548 0.0007291906
0003d0 3b 21 1a 38 41 1d 29 b9 37 6a c3 3a fe c0 ac ba
       3.674741e-05 -0.00016127994 0.0014908974 -0.0013180075
0003e0 3a 3b 19 bb 6a a5 ee b9
       -0.002338125 -0.0004551814
