CausalCVR/logs/simu3/eval/76/Vcnet_ckpt.pth.tar (torch, 123067 bytes, 16 tensors)

feature_weight.weight f4 [50, 8]
00000000: 894a 92bb 2413 073c 6067 36bc bd72 e6bb
00000010: 0ace 3fbc 0f89 d23a a2ac d8bc cbb8 ed3a
00000020: 5828 e23b 197e 303c b94a 9c3b 5685 e93b
00000030: 85f4 d6ba 8f90 b2ba d1ca 00bc 6d02 edbb
00000040: 2b35 49bc 493b 33bc 6ea8 72bc af71 b73a
00000050: d66b 2b3c e2f1 51bc cb9f b2bb 55f4 c8bb
00000060: 00dd 3ebc 2806 293b c576 213b e99c 453a
00000070: 7b43 e73b 8c75 0b3c 7174 88bc 7e9d 1c3a
00000080: fa71 813b 1a7a 66ba f8dc f2bb 5a18 ffbb
00000090: 8b84 eb3b 1192 89bc b6ef a13b 1e08 aabb
000000a0: b154 91bc 4b7c 13bc 5080 06bb 964f 023c
000000b0: ce9e cfbb 7ada 6dbb 2a14 30bc b642 e53b
000000c0: 708a d43b 42fb 123a facc 4bb9 d55b babc
000000d0: d345 df3b 165c f3bb 3e6e 6abc b6d8 313a
000000e0: 76d6 523b a9a2 ba3a 4b8a 57bc 4cfd d43b
000000f0: 591d edbb 4a2a 483c 1ba5 9a3b df5f b1bb
00000100: ba2a e2bb 6e25 0c3b 4a96 90bc 6f81 973a
00000110: db96 af3b c464 0d3c 70c1 a53c f8c0 023b
00000120: 1041 4c3c 85cd 2d3b e694 73bc 106d fc3a
00000130: a641 aebb 1114 2abb c4b7 823b 3392 cd3a
00000140: e204 c43a eeae 46bc 644d ffbb 585c acbc
00000150: 4f79 62b7 5dd5 8fbc eb7d d8bb 0239 dcbb
00000160: 205a 94ba 29a1 e33b 92c6 d0bb 0ac5 49bc
00000170: 1c96 a2bc a93f a6b9 0dca 3a3c aeb5 86ba
00000180: 32f3 ee3b 1ae2 beba 460c bcbb 334b 093c
00000190: a18d 243c ab62 da3b ad55 46bc 343f 65bc
000001a0: 6c49 703c 4d95 b6bb a408 7dbc 4394 acbc
000001b0: 198e c93c 64ae 65bc 1fd2 413b 36dc b5b9
000001c0: b055 aabc b348 e63a e7f1 8b3c 0308 873c
000001d0: f538 bb3b 0cf0 853b b023 e43b fed6 4bba
000001e0: 813b fa3b 7547 e33c 33f0 52bc eef3 00bc
000001f0: 0cdc 84bb 3d72 89bb d947 67bc 65ca 4bbb
00000200: 3353 0dba 822c 7e3b d119 2b3c f758 32bb
00000210: e4a2 a8ba 5d01 74ba 683a 84bb 1cdc 373b
00000220: 2fc6 913c 04c8 93bb 8bb6 ee3c 15a1 dbba
00000230: f6f4 19bc 612f 8f3c 667d bbbb 6b04 ad3b
00000240: 5fa0 f2bb 80b8 64ba e8fb 6abc 7029 933c
00000250: bb7b 65bb 3604 e63b bff1 81ba 81f9 173b
00000260: 089c 72bb dc07 333b 3229 a4bb dd4a 08bc
00000270: 993d d5bb f210 053c fe75 3c3a 426d 0abb
00000280: 2dd9 23bc ae70 eebb 8e8d 8fbb ed7e 56bb
00000290: 8d56 373c 04a0 023b e47f 9c3b bb87 7bbc
000002a0: 49c2 8abc 4103 12bc 503f 713c 69f3 873b
000002b0: 3687 0dbc 7ce2 e93b a373 893a 7b73 2d3c
000002c0: 38b7 b93b ebdf 143c 57d8 a43a dcf8 b9bc
000002d0: ff40 d6bb 0bcb 863b a150 e4bb 5060 2bba
000002e0: 8e94 61bc d446 0f3c 22c5 423b 0c81 8cbc
000002f0: 5ef4 18ba 11c3 84bc cb97 2dbc 78b3 013c
00000300: 777d ad3a e3e1 36bc 2f83 b9bb 30c9 2dbc
00000310: aca5 2b3b 8069 803a a63d cabb f7c7 2dbb
00000320: fc91 323b f9dd 073c f0d5 51bb af2d 74bb
00000330: dbfd 25bb e488 04bc 2328 e7bb 187b a539
00000340: 4a18 17ba 8a68 22bb 0ef1 1f3c 0fab acbb
00000350: 7432 62ba 7732 f53b ba68 efb7 0952 423c
00000360: 03c6 cd3c c8e9 65bb 17a7 63bc 7826 913b
00000370: 92f4 47bb b036 2b3c 0448 6abc fac6 143b
00000380: af8a 7b3b 55e1 65bc 0e6b 87bc 3022 e0ba
00000390: cf37 f6bb 4feb 5c3c 6dd4 983a 2517 113a
000003a0: ec1e 41bc 680c fd3a f22e 8d3c ce58 0739
000003b0: 475f ff3b e718 163b d52b 1bbc 612f 42ba
000003c0: 0035 013c e520 493c 04e1 0f3b 5507 143c
000003d0: 27a0 12bc 9319 bc3b bfe0 9bbb 9ab6 50bc
000003e0: a20a 1f3c c8af 753c 0e4b 633c 16e9 c2bc
000003f0: bc38 1dba 8b81 533c 0220 6c3c eadd 2abc
-0.0044644517 0.00824431 -0.011133045 -0.007032721 -0.011706838 0.0016062575 -0.026449505 0.0018136738
0.006901782 0.0107722515 0.00476965 0.0071264906 -0.0016399777 -0.0013623404 -0.007860855 -0.007232955
-0.012280743 -0.010939428 -0.014810665 0.0013995672 0.010462722 -0.012814017 -0.0054511777 -0.0061326423
-0.01164937 0.0025791023 0.0024637443 0.0007538335 0.007057605 0.008511912 -0.016657086 0.0005974396
0.0039503546 -0.0008791998 -0.0074115954 -0.0077848854 0.007187431 -0.016793283 0.004941906 -0.005188956
-0.01774058 -0.009001802 -0.0020523258 0.007953545 -0.0063360697 -0.0036293552 -0.010746995 0.006996478
0.0064862296 0.00056068983 -0.00019435948 -0.022748867 0.0068137436 -0.007426749 -0.01430851 0.00067843066
0.0032171286 0.001423915 -0.01315553 0.006499922 -0.0072361645 0.012217114 0.004719389 -0.00541304
-0.006902066 0.0021384615 -0.017649788 0.001155896 0.0053585595 0.008629981 0.02023384 0.0019951444
0.012466684 0.0026520204 -0.014867043 0.0019258577 -0.0053178845 -0.0025951902 0.0039891917 0.001568383
0.0014955068 -0.012126667 -0.007791208 -0.021040127 -1.3498894e-05 -0.017557794 -0.0066068075 -0.006720663
-0.0011318363 0.006946702 -0.0063713277 -0.012315044 -0.019846968 -0.00031709418 0.011400712 -0.0010277533
0.0072921747 -0.0014563233 -0.005738768 0.008379745 0.010043533 0.006664594 -0.012105388 -0.01399212
0.014665943 -0.0055719973 -0.015443955 -0.02106679 0.02460389 -0.014018629 0.0029574705 -0.0003468708
-0.020792812 0.0017569273 0.017083121 0.016483312 0.005713577 0.0040874537 0.006962262 -0.0007775872
0.007636488 0.027744034 -0.012874651 -0.007870657 -0.004054552 -0.0041945265 -0.014116251 -0.0031095978
-0.0005391121 0.0038783853 0.010443167 -0.0027213672 -0.0012865928 -0.00093080645 -0.004035283 0.002805478
0.017794697 -0.0045099277 0.029139778 -0.001675638 -0.009396782 0.017478647 -0.005721736 0.0052800677
-0.0074043716 -0.00087250024 -0.014342286 0.017964095 -0.0035016376 0.007019545 -0.0009913965 0.0023189487
-0.0037019271 0.0027317917 -0.0050097937 -0.00831863 -0.006507587 0.008121716 0.0007189213 -0.0021122252
-0.010000509 -0.007276616 -0.0043808883 -0.0032729462 0.011190069 0.0019931803 0.004775988 -0.015352185
-0.016938346 -0.008911909 0.0147245675 0.00414889 -0.008638194 0.0071375947 0.0010486733 0.010586615
0.0056675933 0.009086589 0.0012576681 -0.022701673 -0.00653851 0.00411356 -0.0069676195 -0.0006537484
-0.013768328 0.008744914 0.002971955 -0.017151378 -0.00058347534 -0.016206296 -0.010595272 0.007916324
0.0013236244 -0.011162254 -0.0056613903 -0.010607049 0.0026191277 0.0009797066 -0.0061719 -0.0026516893
0.0027247658 0.0082926685 -0.0032018386 -0.0037258675 -0.0025328312 -0.008089278 -0.007054345 0.00031562964
-0.0005763812 -0.0024781548 0.009762062 -0.005269415 -0.0008628734 0.0074828225 -2.8539787e-05 0.011860379
0.025118833 -0.0035081971 -0.013894818 0.0044296347 -0.0030510766 0.01045005 -0.014299396 0.0022701607
0.0038382222 -0.014030774 -0.01653054 -0.0017100032 -0.007513977 0.013483836 0.0011659988 0.000553476
-0.0117871575 0.0019306066 0.0172343 0.00012907686 0.0077933404 0.0022903027 -0.0094709 -0.00074075727
0.007886171 0.012275909 0.0021954188 0.009034951 -0.008949316 0.0057403534 -0.0047570164 -0.012738848
0.009707125 0.014995523 0.013872875 -0.023792785 -0.0005997529 0.012909303 0.014411928 -0.010428885

feature_weight.bias f4 [50]
00000000: cfa1 2a32 5c20 0738 0000 0000 a1b3 3e37
00000010: 3419 e335 d47c ab34 3c7c 3536 7778 87b7
00000020: 4173 5037 66cc ecb6 0000 0000 8ca1 0bb6
00000030: a0c3 6937 7f0d c336 9209 1db7 94c8 97b2
00000040: 6a21 4c38 543c e5b3 84fe f9b6 56e7 1635
00000050: 6f33 13b4 2db4 e935 ecc2 1b36 1845 1435
00000060: 0000 0000 3afe b335 8413 3f37 662b 75b7
00000070: 4458 1b37 c46d 14b7 8a2b 5137 66c2 1ab8
00000080: 85c8 8635 029f 2338 dd4f b9b6 a602 aa33
00000090: cacd b037 189b 91b7 103b 1b36 e6e7 2537
000000a0: 73be b238 23df a2b5 0000 0000 bb3f b737
000000b0: 2983 a3b4 1eae 14b7 d8c9 2eb7 71d0 e436
000000c0: da55 eab7 120c b0b7
9.932093e-09 3.2216645e-05 0.0 1.1366706e-05 1.6920153e-06 3.1942056e-07 2.7043416e-06 -1.614935e-05
1.2424601e-05 -7.057143e-06 0.0 -2.0806647e-06 1.393343e-05 5.813024e-06 -9.3601575e-06 -1.7669926e-08
4.866851e-05 -1.0674617e-07 -7.450408e-06 5.621599e-07 -1.3709153e-07 1.7412291e-06 2.321026e-06 5.523484e-07
0.0 1.3410529e-06 1.1389031e-05 -1.46132425e-05 9.259271e-06 -8.847044e-06 1.2467508e-05 -3.689751e-05
1.0042137e-06 3.9010316e-05 -5.522727e-06 7.9167236e-08 2.1076663e-05 -1.7357568e-05 2.3131179e-06 9.888759e-06
8.523175e-05 -1.2134882e-06 0.0 2.1844977e-05 -3.0456548e-07 -8.862027e-06 -1.0418204e-05 6.8191953e-06
-2.7934952e-05 -2.0986456e-05

hidden_features.0.weight f4 [50, 8]
00000000: 894a 92bb 2413 073c 6067 36bc bd72 e6bb
00000010: 0ace 3fbc 0f89 d23a a2ac d8bc cbb8 ed3a
00000020: 5828 e23b 197e 303c b94a 9c3b 5685 e93b
00000030: 85f4 d6ba 8f90 b2ba d1ca 00bc 6d02 edbb
00000040: 2b35 49bc 493b 33bc 6ea8 72bc af71 b73a
00000050: d66b 2b3c e2f1 51bc cb9f b2bb 55f4 c8bb
00000060: 00dd 3ebc 2806 293b c576 213b e99c 453a
00000070: 7b43 e73b 8c75 0b3c 7174 88bc 7e9d 1c3a
00000080: fa71 813b 1a7a 66ba f8dc f2bb 5a18 ffbb
00000090: 8b84 eb3b 1192 89bc b6ef a13b 1e08 aabb
000000a0: b154 91bc 4b7c 13bc 5080 06bb 964f 023c
000000b0: ce9e cfbb 7ada 6dbb 2a14 30bc b642 e53b
000000c0: 708a d43b 42fb 123a facc 4bb9 d55b babc
000000d0: d345 df3b 165c f3bb 3e6e 6abc b6d8 313a
000000e0: 76d6 523b a9a2 ba3a 4b8a 57bc 4cfd d43b
000000f0: 591d edbb 4a2a 483c 1ba5 9a3b df5f b1bb
00000100: ba2a e2bb 6e25 0c3b 4a96 90bc 6f81 973a
00000110: db96 af3b c464 0d3c 70c1 a53c f8c0 023b
00000120: 1041 4c3c 85cd 2d3b e694 73bc 106d fc3a
00000130: a641 aebb 1114 2abb c4b7 823b 3392 cd3a
00000140: e204 c43a eeae 46bc 644d ffbb 585c acbc
00000150: 4f79 62b7 5dd5 8fbc eb7d d8bb 0239 dcbb
00000160: 205a 94ba 29a1 e33b 92c6 d0bb 0ac5 49bc
00000170: 1c96 a2bc a93f a6b9 0dca 3a3c aeb5 86ba
00000180: 32f3 ee3b 1ae2 beba 460c bcbb 334b 093c
00000190: a18d 243c ab62 da3b ad55 46bc 343f 65bc
000001a0: 6c49 703c 4d95 b6bb a408 7dbc 4394 acbc
000001b0: 198e c93c 64ae 65bc 1fd2 413b 36dc b5b9
000001c0: b055 aabc b348 e63a e7f1 8b3c 0308 873c
000001d0: f538 bb3b 0cf0 853b b023 e43b fed6 4bba
000001e0: 813b fa3b 7547 e33c 33f0 52bc eef3 00bc
000001f0: 0cdc 84bb 3d72 89bb d947 67bc 65ca 4bbb
00000200: 3353 0dba 822c 7e3b d119 2b3c f758 32bb
00000210: e4a2 a8ba 5d01 74ba 683a 84bb 1cdc 373b
00000220: 2fc6 913c 04c8 93bb 8bb6 ee3c 15a1 dbba
00000230: f6f4 19bc 612f 8f3c 667d bbbb 6b04 ad3b
00000240: 5fa0 f2bb 80b8 64ba e8fb 6abc 7029 933c
00000250: bb7b 65bb 3604 e63b bff1 81ba 81f9 173b
00000260: 089c 72bb dc07 333b 3229 a4bb dd4a 08bc
00000270: 993d d5bb f210 053c fe75 3c3a 426d 0abb
00000280: 2dd9 23bc ae70 eebb 8e8d 8fbb ed7e 56bb
00000290: 8d56 373c 04a0 023b e47f 9c3b bb87 7bbc
000002a0: 49c2 8abc 4103 12bc 503f 713c 69f3 873b
000002b0: 3687 0dbc 7ce2 e93b a373 893a 7b73 2d3c
000002c0: 38b7 b93b ebdf 143c 57d8 a43a dcf8 b9bc
000002d0: ff40 d6bb 0bcb 863b a150 e4bb 5060 2bba
000002e0: 8e94 61bc d446 0f3c 22c5 423b 0c81 8cbc
000002f0: 5ef4 18ba 11c3 84bc cb97 2dbc 78b3 013c
00000300: 777d ad3a e3e1 36bc 2f83 b9bb 30c9 2dbc
00000310: aca5 2b3b 8069 803a a63d cabb f7c7 2dbb
00000320: fc91 323b f9dd 073c f0d5 51bb af2d 74bb
00000330: dbfd 25bb e488 04bc 2328 e7bb 187b a539
00000340: 4a18 17ba 8a68 22bb 0ef1 1f3c 0fab acbb
00000350: 7432 62ba 7732 f53b ba68 efb7 0952 423c
00000360: 03c6 cd3c c8e9 65bb 17a7 63bc 7826 913b
00000370: 92f4 47bb b036 2b3c 0448 6abc fac6 143b
00000380: af8a 7b3b 55e1 65bc 0e6b 87bc 3022 e0ba
00000390: cf37 f6bb 4feb 5c3c 6dd4 983a 2517 113a
000003a0: ec1e 41bc 680c fd3a f22e 8d3c ce58 0739
000003b0: 475f ff3b e718 163b d52b 1bbc 612f 42ba
000003c0: 0035 013c e520 493c 04e1 0f3b 5507 143c
000003d0: 27a0 12bc 9319 bc3b bfe0 9bbb 9ab6 50bc
000003e0: a20a 1f3c c8af 753c 0e4b 633c 16e9 c2bc
000003f0: bc38 1dba 8b81 533c 0220 6c3c eadd 2abc
-0.0044644517 0.00824431 -0.011133045 -0.007032721 -0.011706838 0.0016062575 -0.026449505 0.0018136738
0.006901782 0.0107722515 0.00476965 0.0071264906 -0.0016399777 -0.0013623404 -0.007860855 -0.007232955
-0.012280743 -0.010939428 -0.014810665 0.0013995672 0.010462722 -0.012814017 -0.0054511777 -0.0061326423
-0.01164937 0.0025791023 0.0024637443 0.0007538335 0.007057605 0.008511912 -0.016657086 0.0005974396
0.0039503546 -0.0008791998 -0.0074115954 -0.0077848854 0.007187431 -0.016793283 0.004941906 -0.005188956
-0.01774058 -0.009001802 -0.0020523258 0.007953545 -0.0063360697 -0.0036293552 -0.010746995 0.006996478
0.0064862296 0.00056068983 -0.00019435948 -0.022748867 0.0068137436 -0.007426749 -0.01430851 0.00067843066
0.0032171286 0.001423915 -0.01315553 0.006499922 -0.0072361645 0.012217114 0.004719389 -0.00541304
-0.006902066 0.0021384615 -0.017649788 0.001155896 0.0053585595 0.008629981 0.02023384 0.0019951444
0.012466684 0.0026520204 -0.014867043 0.0019258577 -0.0053178845 -0.0025951902 0.0039891917 0.001568383
0.0014955068 -0.012126667 -0.007791208 -0.021040127 -1.3498894e-05 -0.017557794 -0.0066068075 -0.006720663
-0.0011318363 0.006946702 -0.0063713277 -0.012315044 -0.019846968 -0.00031709418 0.011400712 -0.0010277533
0.0072921747 -0.0014563233 -0.005738768 0.008379745 0.010043533 0.006664594 -0.012105388 -0.01399212
0.014665943 -0.0055719973 -0.015443955 -0.02106679 0.02460389 -0.014018629 0.0029574705 -0.0003468708
-0.020792812 0.0017569273 0.017083121 0.016483312 0.005713577 0.0040874537 0.006962262 -0.0007775872
0.007636488 0.027744034 -0.012874651 -0.007870657 -0.004054552 -0.0041945265 -0.014116251 -0.0031095978
-0.0005391121 0.0038783853 0.010443167 -0.0027213672 -0.0012865928 -0.00093080645 -0.004035283 0.002805478
0.017794697 -0.0045099277 0.029139778 -0.001675638 -0.009396782 0.017478647 -0.005721736 0.0052800677
-0.0074043716 -0.00087250024 -0.014342286 0.017964095 -0.0035016376 0.007019545 -0.0009913965 0.0023189487
-0.0037019271 0.0027317917 -0.0050097937 -0.00831863 -0.006507587 0.008121716 0.0007189213 -0.0021122252
-0.010000509 -0.007276616 -0.0043808883 -0.0032729462 0.011190069 0.0019931803 0.004775988 -0.015352185
-0.016938346 -0.008911909 0.0147245675 0.00414889 -0.008638194 0.0071375947 0.0010486733 0.010586615
0.0056675933 0.009086589 0.0012576681 -0.022701673 -0.00653851 0.00411356 -0.0069676195 -0.0006537484
-0.013768328 0.008744914 0.002971955 -0.017151378 -0.00058347534 -0.016206296 -0.010595272 0.007916324
0.0013236244 -0.011162254 -0.0056613903 -0.010607049 0.0026191277 0.0009797066 -0.0061719 -0.0026516893
0.0027247658 0.0082926685 -0.0032018386 -0.0037258675 -0.0025328312 -0.008089278 -0.007054345 0.00031562964
-0.0005763812 -0.0024781548 0.009762062 -0.005269415 -0.0008628734 0.0074828225 -2.8539787e-05 0.011860379
0.025118833 -0.0035081971 -0.013894818 0.0044296347 -0.0030510766 0.01045005 -0.014299396 0.0022701607
0.0038382222 -0.014030774 -0.01653054 -0.0017100032 -0.007513977 0.013483836 0.0011659988 0.000553476
-0.0117871575 0.0019306066 0.0172343 0.00012907686 0.0077933404 0.0022903027 -0.0094709 -0.00074075727
0.007886171 0.012275909 0.0021954188 0.009034951 -0.008949316 0.0057403534 -0.0047570164 -0.012738848
0.009707125 0.014995523 0.013872875 -0.023792785 -0.0005997529 0.012909303 0.014411928 -0.010428885

hidden_features.0.bias f4 [50]
00000000: cfa1 2a32 5c20 0738 0000 0000 a1b3 3e37
00000010: 3419 e335 d47c ab34 3c7c 3536 7778 87b7
00000020: 4173 5037 66cc ecb6 0000 0000 8ca1 0bb6
00000030: a0c3 6937 7f0d c336 9209 1db7 94c8 97b2
00000040: 6a21 4c38 543c e5b3 84fe f9b6 56e7 1635
00000050: 6f33 13b4 2db4 e935 ecc2 1b36 1845 1435
00000060: 0000 0000 3afe b335 8413 3f37 662b 75b7
00000070: 4458 1b37 c46d 14b7 8a2b 5137 66c2 1ab8
00000080: 85c8 8635 029f 2338 dd4f b9b6 a602 aa33
00000090: cacd b037 189b 91b7 103b 1b36 e6e7 2537
000000a0: 73be b238 23df a2b5 0000 0000 bb3f b737
000000b0: 2983 a3b4 1eae 14b7 d8c9 2eb7 71d0 e436
000000c0: da55 eab7 120c b0b7
9.932093e-09 3.2216645e-05 0.0 1.1366706e-05 1.6920153e-06 3.1942056e-07 2.7043416e-06 -1.614935e-05
1.2424601e-05 -7.057143e-06 0.0 -2.0806647e-06 1.393343e-05 5.813024e-06 -9.3601575e-06 -1.7669926e-08
4.866851e-05 -1.0674617e-07 -7.450408e-06 5.621599e-07 -1.3709153e-07 1.7412291e-06 2.321026e-06 5.523484e-07
0.0 1.3410529e-06 1.1389031e-05 -1.46132425e-05 9.259271e-06 -8.847044e-06 1.2467508e-05 -3.689751e-05
1.0042137e-06 3.9010316e-05 -5.522727e-06 7.9167236e-08 2.1076663e-05 -1.7357568e-05 2.3131179e-06 9.888759e-06
8.523175e-05 -1.2134882e-06 0.0 2.1844977e-05 -3.0456548e-07 -8.862027e-06 -1.0418204e-05 6.8191953e-06
-2.7934952e-05 -2.0986456e-05

hidden_features.2.weight f4 [50, 50]
00000000: f77c f1ba abc9 d9bb 0bf0 4abc 7826 5f3c
00000010: 4a1a 11bb c617 3dbc 5c2f 813c e3a6 8b3b
00000020: 513d cebb d92f c9bb cc81 16bc 33da 31bc
00000030: a9ce ca3c 4cb6 89bc c4fd 2d3c 32db d93b
00000040: b5dd 5a3c ee87 babb f149 cbbb 16b0 83bb
00000050: aa42 46bb a3df 343b c6cf 43b9 4cf4 2dbc
00000060: 947d 5abb 0ef0 e13b 6d42 213c 6a6e 443c
00000070: c59a 93bc b6f7 b23c 9872 bcbb 583c 63ba
00000080: 96f6 b5bb a9f1 143c c9a7 fcbb 665d aaba
00000090: 507f 213b 5d08 9ebb 11d8 07bb f2b2 b83c
000000a0: 870d 5c3c 8182 c23a 8dde 413c a32e 333c
000000b0: 349d d0bc f538 fb3a c87e 3a3c 0cf7 6a3c
000000c0: 878d 7c3c 450f 67bc a0aa 41bc acac feb8
000000d0: 0d8e 8d3c c3bd 823c 9b20 70b9 ce41 5d3b
000000e0: 652e 94ba 6f16 f3ba 52f3 143c 91d8 ab3a
000000f0: 3af5 7fbc 883e c0ba 4304 85bb f54d b23b
00000100: e53e 64bc 0a49 53bb 3875 e7bb fc2d 08bc
00000110: 7384 43bc 0722 863b d192 97bc f4ce 4d3c
00000120: 991f deb9 9446 983b 8b14 9a3c 0f52 7ebb
00000130: e580 c7bc 635b 8939 8c5b 92bb 3a89 72bc
00000140: 1ceb afbb 2dd8 b6bb 3ce4 85ba 5637 283a
00000150: 2d22 0cbc f64d 183c 87d8 58ba 57d3 213c
00000160: 4a54 c8ba b648 1fbc b92c c2bc 9729 053c
00000170: 8e87 043b 9d94 44bc 9120 99b9 d804 093c
00000180: 9616 62ba a157 f73b c390 25bb ec87 dd3b
00000190: 9cec 08bc 0352 09bb d118 efbb c1f7 b03b
000001a0: 99c4 3cbb 8fb0 8dba 0e16 db3a 0d6b 1fbc
000001b0: 5c24 46bc e308 1e3c 4cac da3b 7f46 e13b
000001c0: 5283 363c f95d 7abb 0344 52bc d5e0 c5ba
000001d0: 8237 d83b 57e3 8abc 1a32 043a abc5 1a3b
000001e0: 30ed 4cbc d6be c6bb c78a 863b 44ca 743c
000001f0: a278 993c 925f 3ebb 751f 893c c07c 8db9
00000200: 5f20 82bc 1b3e d03b 8904 fbbb d046 30bb
00000210: 4fa5 d63b c4e2 883c 0a4d 9ebb 6c00 b63b
00000220: 9dd3 56bc 5cd3 80bc 370e 7ebc fd3d f5bb
00000230: 842b 9abb 1861 9d3c eaac 473c 1616 6bbb
00000240: 312f 67bc c064 21ba b602 73bb 723c 08bc
00000250: e4b6 403c 1641 b93b 2586 41ba 3e9b 30bc
00000260: e5b2 85bb 07e5 903b 66a6 253c 5bf3 2fbc
00000270: b83c fdbb 39f1 2bbc bae7 8cbb 219a 143c
00000280: b2a8 2a3b 5c79 1a3c 86dc 9f3b 7053 39bc
00000290: c29d 283c 44c8 853c e3d6 cebb 4c0f ed3b
000002a0: 0536 ccba 0bd7 303b 7600 afbb e42b 143c
000002b0: 9320 cfbb 306f 15b9 8693 25bc ee8a 70bc
000002c0: 389b cb3b e43a 83bc 8122 2bbc 7422 2c3b
000002d0: 3607 cbbb 1d95 963b ae72 883c 4f89 5cbc
000002e0: 51b3 5c3a f55e 08bc db6a 813b 48d4 c7b8
000002f0: e286 75bc c79c babb 4fba 4bbc aa31 80bc
00000300: 59d6 b33c baae bfb8 0e38 673c 5388 91bb
00000310: 2935 5b3b c84e 5abb dd2d 8e3b b8f8 d6bc
00000320: bfc8 1abc b25b 42bc c83f 4fbc cde8 943b
00000330: f821 66bc 5e32 d1bb bbf8 c4bb 85ab a5bc
00000340: 1576 50bc f57e 93bb cc3a f83b 5d99 923c
00000350: 813e 193c 5d3c f8bb b6a0 6ebb 4ed1 5dbc
00000360: e112 b53b 0a16 5ebc b556 3a3c cd0c c53a
00000370: 041f b8bb 0fa5 b3bb a960 8cb6 7225 d13a
00000380: 1122 ca3b 00d9 38bc d570 6ebb a22b d53b
00000390: 3aaa 763c df23 0abc fa12 943c 5d95 823c
000003a0: 2b8a 0cbc ad33 8bbc 322a 203b 2174 2b3c
000003b0: 4626 c23b 7f29 783c 0be9 47bc 36fd 4bbb
000003c0: 35be 053c 982a 443b 178b 72bc ac0a 323b
000003d0: d489 503c 64ce bcbb 1939 2f3c 0f25 a43c
000003e0: 30d4 483c e8fb 0d3c b704 eabb 441a 7abc
000003f0: 8b82 8a39 7f7d a93a b75b 53bc 3ca2 d139
-0.0018424083 -0.006646355 -0.012386332 0.0136200115 -0.0022140914 -0.011541313 0.015769653 0.004261838
-0.0062939306 -0.006139737 -0.009186219 -0.010855245 0.024756746 -0.016810559 0.0106195845 0.0066484446
0.013358523 -0.0056924736 -0.006203883 -0.004018794 -0.0030252137 0.0027599118 -0.00018674051 -0.010617327
-0.003333901 0.006895072 0.009842497 0.011989215 -0.018018136 0.021846633 -0.0057509653 -0.0008668355
-0.005553077 0.009090819 -0.0077104312 -0.0012997806 0.0024642535 -0.0048227743 -0.002072815 0.022546265
0.01343096 0.0014839919 0.011832845 0.010936412 -0.025465585 0.0019166755 0.011382766 0.014341127
0.015414602 -0.014102762 -0.011820465 -0.000121438265 0.01727965 0.015959626 -0.0002290033 0.0033761146
-0.001130533 -0.0018546114 0.009091215 0.0013110806 -0.015622431 -0.0014667073 -0.004059346 0.005441422
-0.013931011 -0.003223958 -0.007063534 -0.008311745 -0.011933434 0.004093412 -0.018502625 0.0125615485
-0.00042366682 0.0046470854 0.018808624 -0.0038806235 -0.024353454 0.00026198765 -0.0044664796 -0.014803225
-0.0053686034 -0.0055799694 -0.0010215114 0.0006416937 -0.00855307 0.009295931 -0.0008272011 0.0098770475
-0.0015283909 -0.0097219255 -0.023702966 0.008127592 0.0020222398 -0.011998323 -0.00029206698 0.008362971
-0.00086245814 0.007548288 -0.0025263287 0.006760588 -0.008357193 -0.0020953424 -0.0072966595 0.0054006283
-0.0028803705 -0.0010810065 0.0016714947 -0.009730113 -0.01209363 0.009645673 0.0066733714 0.006874859
0.011139708 -0.0038202985 -0.012833598 -0.0015096912 0.006598414 -0.016954107 0.0005042866 0.0023616354
-0.012507722 -0.00606523 0.004105899 0.014940802 0.01873428 -0.0029048664 0.016738633 -0.00026986562
-0.015884576 0.00635506 -0.0076604527 -0.0026897676 0.006550468 0.016709693 -0.004830961 0.0055542495
-0.013111976 -0.015725784 -0.015506319 -0.007484196 -0.0047048945 0.019211337 0.012187222 -0.0035871319
-0.014110372 -0.00061566755 -0.0037080473 -0.008315193 0.0117623545 0.005653511 -0.0007382355 -0.0107792
-0.004080164 0.0044218334 0.010110473 -0.010739173 -0.0077281855 -0.010494524 -0.004300085 0.00906995
0.0026040492 0.009428348 0.0048785834 -0.011311397 0.010291519 0.016330846 -0.0063122376 0.0072344895
-0.0015580064 0.0026983644 -0.005340631 0.009043667 -0.006321022 -0.00014251168 -0.010105973 -0.014681561
0.006213572 -0.016019292 -0.010445238 0.0026265653 -0.006195928 0.0045954124 0.016656246 -0.013460471
0.0008419054 -0.008323421 0.0039495057 -9.5286e-05 -0.014985772 -0.005694959 -0.012434556 -0.015648682
0.021952795 -9.140135e-05 0.014112486 -0.0044413 0.0033448434 -0.0033311117 0.0043389634 -0.026241645
-0.009447276 -0.011862682 -0.012649484 0.0045443536 -0.014046185 -0.006384178 -0.0060110963 -0.020223388
-0.012723465 -0.0045012184 0.0075753685 0.017895395 0.009353281 -0.0075755552 -0.003641171 -0.013538672
0.005525932 -0.013555059 0.011373212 0.0015033722 -0.0056189317 -0.005482323 -4.183578e-06 0.0015956594
0.006168612 -0.011282206 -0.003638317 0.0065054456 0.015055234 -0.008431404 0.018075455 0.015940363
-0.008577864 -0.016992414 0.0024439213 0.010464699 0.0059249727 0.015146612 -0.012201558 -0.0031126267
0.008163025 0.0029932614 -0.014803669 0.0027167005 0.012728173 -0.0057619084 0.0106947655 0.020037202
0.012257621 0.008666016 -0.0071416753 -0.015265051 0.00026418673 0.0012931078 -0.0129002845 0.0003998446

hidden_features.2.bias f4 [50]
00000000: be94 033a 0000 0000 c77f 4f38 b2f7 23b9
00000010: 1312 f638 70c4 6d39 c4d4 20b9 53fd 12b9
00000020: 6be7 2439 0f83 103a 8513 4f37 ea57 e3b9
00000030: e7ab 1cb9 4ef9 3d39 2b2b 713a 7636 35ba
00000040: 5b27 1637 a624 a438 82c7 5337 5ea9 b9b9
00000050: 8029 df37 b83a 08b6 83f1 213a 3d34 03b9
00000060: 8361 ad39 a815 903a b234 6c36 3934 9eb9
00000070: c472 fd34 6c73 8238 a1ec 95b9 6faa 8cb8
00000080: 720f fd37 1bd0 f439 a214 2bba d11a 0039
00000090: 34fc 7db9 a21d 773a 85b7 ec39 0000 0000
000000a0: ffd1 f739 4c9d c936 fb34 66b8 a009 54b9
000000b0: 57b0 f2b9 ce5d 8739 cdc1 253a e039 ebb8
000000c0: f2bc c6b7 04f5 623a
0.0005019418 0.0 4.9471648e-05 -0.00015637165 0.00011733561 0.0002267526 -0.0001533805 -0.00014018016
0.00015726469 0.00055126933 1.2342706e-05 -0.00043362315 -0.00014941358 0.00018117318 0.0009199853 -0.00069127174
8.94986e-06 7.826956e-05 1.2623032e-05 -0.00035412138 2.6602997e-05 -2.0299758e-06 0.00061776506 -0.00012512594
0.00033069783 0.0010992782 3.5197413e-06 -0.00030175017 4.7208425e-07 6.220382e-05 -0.00028595797 -6.707466e-05
3.0167143e-05 0.00046694357 -0.0006526207 0.00012217021 -0.00024221913 0.0009426718 0.0004515016 0.0
0.0004726797 6.0085786e-06 -5.4885615e-05 -0.00020221481 -0.0004628922 0.00025819096 0.0006323129 -0.00011216453
-2.3691424e-05 0.0008657726

density_estimator_head.weight f4 [50, 11]
00000000: 86c4 a4bc cbe4 a7bb 17ea 443b b9cc 703b
00000010: 037d d1bb b540 793b 2bec cc3a 60f4 a3bc
00000020: 39d3 2ebc c218 ceba ebc6 a13c ccf8 1a39
00000030: 1110 a8bb 737d c5bc 87a4 86b9 2834 d5bb
00000040: ff9e cfbc 08af adbc 6791 46bb efa5 213c
00000050: 1291 2d3a d82a 1cbc 874c 09bb e3db 003c
00000060: f51b 7bbc 4925 ca3b 30dd 813b 30f8 b4bc
00000070: be96 1c3c ac2a a3bb 9004 68ba e82c 49bc
00000080: 0f98 3b3b cd74 bd3c 5926 943c ebb2 c9bb
00000090: 2c45 423a 4fa3 7039 2852 cc3c 75f6 4d3c
000000a0: d1b1 c839 88f4 b1bb 0436 20bb 15c8 1abc
000000b0: 209d 1cbc 8b45 1dbb 838b 5e3b 82fd 193c
000000c0: 9a98 a1ba daf1 f43b de87 dc3a bb97 0e3c
000000d0: 7d11 17bc 4451 0cbb bc44 b0ba 5000 64bc
000000e0: d3dc a9ba b2f0 3d3c 2d6b 26bb 7ba3 6fbc
000000f0: b255 b13b 0527 51bc acc9 d73a d879 0e3c
00000100: 1953 d83a 0a87 bbba dc33 843b e58d fb3a
00000110: f6aa 64ba ec39 813b 2b8a abbb e8e4 043b
00000120: 0e5a 2a3c ec11 203c e598 7bbc 20b8 26bc
00000130: 4b3c 8d3c 5ba3 8e3c 46b6 99bc 1f34 52bb
00000140: b353 36bc 0e44 263c 5daa c73c c0f7 6fbc
00000150: b16a a6bc ebd3 d03b c8f2 40bb 7db7 173c
00000160: ae5d 32bc 3fe0 71ba f59b cabb eb7b f83b
00000170: 1a22 7e3b 0485 25bb 98b8 b93b 9c81 babb
00000180: f5b9 2abb 170b 4fbc 4dc4 7f3c b070 64bc
00000190: 7500 013c 4629 3bbb 1555 0a3c 6035 473b
000001a0: 241c 80bb 6378 fabb 7dfa ab3a 49b4 8b3b
000001b0: 56fd e93b 290f b33b 802d bfbb 5c19 e03a
000001c0: 5398 8839 3906 273c 0454 40bc 6b21 723c
000001d0: fb22 db3b 1bbc e03b de26 3f3c 36cd 023c
000001e0: eac3 8b3b d5d1 8b3b 60af 0cbb e3d7 863b
000001f0: 43b3 44ba 382f 1fbb bce9 723b fe31 923b
00000200: f353 533a 151f 66bc 4475 ce3a 187e 43bc
00000210: eb18 533b be28 bb3b bbd7 133c 099e dd3b
00000220: a96d 0abb e4dd 743c 4690 17bc 9179 a1bb
00000230: d010 083c e710 e53b 49cc 583c 85d1 df39
00000240: 89d2 043b 69d9 3a3c f13b 09bc e11d 49bb
00000250: 8bc4 043b 41ee 113c 9f2c a939 c816 b13c
00000260: 9f6e d1bb 5760 b13b 5030 b2bc 1f3c 4cba
00000270: 65c4 d13b eda2 133c 5d65 25bc 7640 373a
00000280: adae 993c 2e6c 85bc 3118 c839 9d0e ec3b
00000290: e06c 523b 7cfc 213c f40e 85bb 45b2 013c
000002a0: c3b5 893c 9c38 62bb 0a82 6aba 1027 673a
000002b0: 8d61 e3ba 8c75 6abb 7908 e7bb bea8 793b
000002c0: cc3f cd3c b086 46bc 0359 2cbc ad32 69bc
000002d0: e936 63bc 017d f9ba 5444 333b e702 caba
000002e0: 4a59 563c 82a5 11bc 22f7 d13b 3bdc 9fbb
000002f0: 3d2c 2b3c 00d7 513b 1f17 53bc 698c 8ebb
00000300: e4a3 4f3c 913c 443c 23cc 5bbc 3072 c83b
00000310: f2ad 5cbb 1eec 59bc 9e5b 0a3a d29c c1bb
00000320: 0fb9 6bbc d071 943b 3467 d4bb 09ae 35bc
00000330: 2ac0 3cb9 8a36 60bc d435 c23b 797a b73b
00000340: eada 7e3a b1b2 e5ba f7a6 d9bb 8530 373b
00000350: 847c a53c 6ee8 d5b8 55c1 b63b cd00 3c3b
00000360: 601b 453a efd9 2ebc 160c a0bc ca0d 2b3c
00000370: 3a7d 93bb 2609 943c 9e1c 8dba 6af7 fcb8
00000380: c01f f5bb 6a11 0dbc fe58 debb dc1b 1f3c
00000390: 41d2 e23a 495a dbbb de25 40bc 56ff 8fbc
000003a0: 350e 80bc b3b2 27bc bce0 a2bc 0d15 eb3b
000003b0: 9385 41bc 1965 92bb 08f3 1d3a 43e9 ab3b
000003c0: dc7f 5ebc c1b6 043b ba76 46bc b447 80ba
000003d0: 829b 1fbb 5ff6 3f3b 2116 20bc ec38 033c
000003e0: 1d49 2c3b 90fb 15ba 61ad 2e3c 220c b0b9
000003f0: 8ca4 2fbc ce79 653b 3441 3dbb a69b 6b3c
-0.02011324 -0.00512371 0.0030046755 0.0036743118 -0.0063930764 0.0038032953 0.0015634348 -0.020013988
-0.010670477 -0.0015723931 0.019748172 0.00014779269 -0.0051288684 -0.02410767 -0.00025681054 -0.0065064617
-0.02534437 -0.021201625 -0.003029907 0.009866222 0.00066210434 -0.009531699 -0.0020950155 0.007864925
-0.01532649 0.0061689955 0.003963135 -0.022091001 0.009557424 -0.004979452 -0.00088507775 -0.012278773
0.002862457 0.023126984 0.018084692 -0.006155362 0.000741082 0.00022949021 0.024941519 0.012570967
0.00038279456 -0.0054307617 -0.0024446258 -0.009447117 -0.009558946 -0.002399775 0.0033957667 0.00939882
-0.0012328804 0.00747512 0.001682516 0.008703168 -0.009220478 -0.0021410743 -0.0013448219 -0.01391609
-0.0012959488 0.011593031 -0.0025393472 -0.014626379 0.005411827 -0.012765651 0.0016463301 0.008696042
0.0016504257 -0.0014307213 0.0040345024 0.0019192068 -0.0008722985 0.0039436724 -0.0052349768 0.002027804
0.010397447 0.009769898 -0.015356277 -0.010175735 0.017240664 0.017411878 -0.018763673 -0.0032074524
-0.011128354 0.010148061 0.024373228 -0.014646471 -0.020314546 0.006372919 -0.0029441584 0.009260056
-0.010886593 -0.00092268357 -0.0061831423 0.0075831315 0.003877765 -0.0025256285 0.0056677572 -0.00569172
-0.002605078 -0.012636921 0.015610767 -0.013942882 0.007873644 -0.0028558536 0.008443137 0.0030396804
-0.0039096046 -0.0076437457 0.0013120916 0.004263435 0.0071407957 0.0054644537 -0.0058342814 0.0017097401
0.00026053432 0.010194355 -0.011738781 0.014778475 0.0066875196 0.0068583614 0.0116669815 0.007983496
0.004265298 0.0042669573 -0.0021466836 0.004115091 -0.0007503519 -0.002428962 0.0037065586 0.004461526
0.00080615206 -0.0140454965 0.0015751501 -0.011931919 0.0032210897 0.005711644 0.009023602 0.006763224
-0.0021122491 0.014945481 -0.009250706 -0.004927822 0.00830479 0.0069905403 0.013232299 0.0004268998
0.002026709 0.011404374 -0.008376108 -0.0030687975 0.002025875 0.008906902 0.00032267437 0.021617308
-0.006391361 0.005413096 -0.021751553 -0.0007790941 0.006401586 0.0090110125 -0.010094968 0.00069905014
0.01876005 -0.016286936 0.00038164997 0.0072038905 0.0032108352 0.009886857 -0.0040606204 0.007916038
0.016810304 -0.0034518605 -0.0008945769 0.00088177714 -0.0017347798 -0.003577563 -0.0070505706 0.0038094963
0.025054835 -0.012117073 -0.010519269 -0.014233273 -0.013868072 -0.0019034446 0.002735396 -0.0015412242
0.013082812 -0.008889558 0.0064076344 -0.0048785484 0.010447559 0.003201902 -0.0128839305 -0.0043502343
0.012673352 0.011977331 -0.013415369 0.006117128 -0.0033673015 -0.013300924 0.0005277934 -0.005908587
-0.014387383 0.004530169 -0.0064820293 -0.0110888565 -0.00018000664 -0.013684878 0.005926827 0.0055993167
0.0009721952 -0.0017524568 -0.006642218 0.0027952504 0.020200975 -0.00010199925 0.005577246 0.0028687
0.0007519033 -0.010672077 -0.019537013 0.010440299 -0.004501012 0.018070769 -0.0010765975 -0.00012062381
-0.0074805915 -0.008610109 -0.006785511 0.009711232 0.0017305092 -0.0066941124 -0.011727778 -0.017577808
-0.015631774 -0.010235476 -0.019882552 0.0071741403 -0.011811632 -0.004467618 0.0006025289 0.005246313
-0.013580289 0.0020250531 -0.012113268 -0.0009786994 -0.0024354164 0.0029291136 -0.009770901 0.008009177
0.0026288696 -0.00057213847 0.010661454 -0.00033578376 -0.010720383 0.0035015228 -0.0028877975 0.014380371

density_estimator_head.bias f4 [11]
00000000: d668 0cbd d12e b6bc f336 5dbc 08d1 acbb
00000010: c956 0b3a 0e28 5aba 7c7b fd3b 1a07 cd3b
00000020: 903d ba3c c9fb f73c 97d9 0c3c
-0.034279667 -0.02223912 -0.01350187 -0.005273942 0.0005315361 -0.00083220087 0.0077356678 0.00625695
0.022734433 0.030271428 0.008596799

Q1.0.weight f4 [50, 50, 5]
00000000: b54f 31be 1a92 9a3f d933 cfbf 5848 aabf
00000010: f2ba dd3f d0f1 b0bf b5ae e2bf 5782 fcbe
00000020: 809f e5bf b5ce 0340 e634 8bbd 66fb 6bbe
00000030: d8ef d03f d378 c23e bf7a 8f3f 8231 a6bd
00000040: 46fc 623f cdc5 03bf 5917 b33f 43c4 4f3f
00000050: 2753 83bf 4156 b4bf e349 3b3f ce43 613f
00000060: b74f 8bbf 527e 9fbf 1a41 743f d6ff b0be
00000070: 35af 4fbf 4bf8 54be 98e2 80bf 839d df3d
00000080: 5b96 0dbe 94a3 043f 77fd 963f 360e 213f
00000090: da3f 0bbe 1ee6 b33e d5b4 423f ba21 8f3f
000000a0: 5792 b73f 5cdf 4cbf b4fb 1fbd eae0 d13e
000000b0: 2317 f8bf 1b40 643f 5655 323f 2d25 e3bf
000000c0: 2a23 0fbf e463 0340 cb7c cebd 2d0d 7ebe
000000d0: d5f1 dd3e c7e4 18bf e107 89bf c43d 0abf
000000e0: 5ff3 103f 1780 143f 3176 62bf edc4 463e
000000f0: 2001 22bf 1747 b23f 817e f8be e4af a3bf
00000100: dcb2 0c3f b8ab 623e f67f a33f b8fb 503d
00000110: 31b1 78bf 5d04 4abf dfa5 043e 0a7b 92bf
00000120: c72c 863f 2439 66bd 39fb 003f ad41 1f3f
00000130: 786c 8bbf 0612 81bf 16bb 813f 2a61 773f
00000140: 844e 54bf 4191 833f da31 3d39 8606 503f
00000150: 9a08 fd3e 158e 14bf bdbc 60be ee89 4c3f
00000160: 01eb d43f aefd cfbf 64b5 723f ce01 2c3f
00000170: d736 94bf ea85 393f d09e 66bf 27c8 0d3e
00000180: 3548 5d3f 2889 ee3f 1dfa 3fbd 7f40 0b40
00000190: 8e03 5cbf 67c0 8fbf 0117 01c0 3af9 9b3e
000001a0: f31b 5dbf a903 063e faa9 963f 5cce d53e
000001b0: a4f7 383e 7319 c03d d403 eb3f c090 a23e
000001c0: 19c9 a43f c78f 0d3f 0890 5c3f 9a6c 53bd
000001d0: adbc 77bf 547c f13f 88c9 54bf 21e8 c63f
000001e0: 5707 a63e 9395 ecbe f592 c9bf 1cf8 b9bf
000001f0: d518 b03f 3e79 803f 2782 d5be c775 eb3f
00000200: 23f9 f13e af3b 4abe 10d9 0ec0 f9a5 b83f
00000210: 3cdd 99bf b5fa 74bf f30e 9dbd 5dfb b0bf
00000220: 9d94 b93f 35ba fbbe fcbc 643f 3e70 37bf
00000230: 960e 8dbe 8544 cd3f 50b3 e9be 082b 16bf
00000240: 61a4 61be 6844 3e3f 23d5 7b3f 7f53 3cbf
00000250: be32 05bb 01fb 2abf 7789 2ebf d750 aa3f
00000260: 94ee dbbd dbe2 4b3f d843 bdbe e287 bfbd
00000270: dc05 00be e152 19bf f298 223f 2806 063f
00000280: 741a 71bb bc31 4c3d 65f2 663e 8edd c73f
00000290: 6fe8 593d ab4b aa3f b0e8 ac3f 914d 33bf
000002a0: f4d7 debe 823f c9bf 51c0 83be e118 98bf
000002b0: af7f acbd c8e9 d5bf 7529 22c0 9979 18bf
000002c0: 8445 b6be 4b80 e9be bc74 653f b676 f23c
000002d0: 7d31 d03e dafb 113c 4a04 49bf dbf8 96bf
000002e0: 8d32 04bf b2f3 20c0 51c2 b4bf 3539 c9bd
000002f0: 0d7c 82be 3916 a83d 16c7 a43e 1443 d8be
00000300: 1d0e c33f 29bd 89bf bb7c d1be 8039 5d3e
00000310: 56ab bdbd 493c 9b3d f807 2ebf f4e1 f4bd
00000320: 2863 983f 95fc 31c0 402a 52bf da2d 9abf
00000330: 81cb e0bf c356 0e3d ee4a b8bf 9c10 29bf
00000340: daab c4be 0502 893e 70d3 a53f 3d27 6a3f
00000350: 39f6 9bbf 70a5 853e 5163 18bf c849 e73d
00000360: 3f86 413e 28e7 52bf b2fe 073f 37d4 833f
00000370: 7d1f 74bf 2895 40be aa1f 34bf 61f7 03bf
00000380: 5aca 21bf a2f2 a5bf b676 19bf 899a 0fc0
00000390: d8cf b0be c2ca b53f 6a56 9dbf 7ffa ba3f
000003a0: f725 ee3e 4888 75bf 0ae4 c03e 794f f13e
000003b0: d771 903f f7dc 2abe 05ac 683f d2a6 0d3f
000003c0: da33 ec3e 2643 91bf c033 d1bd 3352 eb3f
000003d0: c410 683f b40c 973d 2ffc 553f b404 b6be
000003e0: 0a76 d3bd 819a 973f 8774 0a3f 3280 a8be
000003f0: 4492 e3bf 0fab b8be 0ddb 6ebf 6f7c 36bf
-0.17315562 1.2075837 -1.6187698 -1.3303328 1.7322676 -1.3823795 -1.7709566 -0.4931819
-1.79393 2.0594914 -0.06797199 -0.2304512 1.6323195 0.37982807 1.1209334 -0.081149116
0.8866619 -0.51473695 1.39915 0.81158847 -1.0259751 -1.4088823 0.7315962 0.87994087
-1.0883702 -1.2460425 0.9541184 -0.34570187 -0.8112672 -0.20797841 -1.0069151 0.10918715
-0.13826887 0.518121 1.1796101 0.6291231 -0.13598576 0.35136503 0.7605718 1.1182168
1.4341534 -0.8002832 -0.039058402 0.40991908 -1.9382061 0.8916032 0.6966146 -1.774572
-0.5591303 2.0529718 -0.10082396 -0.24809714 0.43348566 -0.59724087 -1.070553 -0.54000497
0.56621355 0.5800795 -0.88461596 0.19411059 -0.63282967 1.3927945 -0.48534015 -1.2788053
0.5496042 0.22135818 1.2773426 0.051021308 -0.9714537 -0.7891291 0.129539 -1.1443799
1.0482415 -0.056206837 0.50383335 0.6220959 -1.0892477 -1.0083625 1.0135219 0.96632636
-0.82932305 1.0278703 0.00018043016 0.81259954 0.49420625 -0.580293 -0.21946998 0.79897964
1.6634218 -1.6249292 0.9480803 0.67190254 -1.1579236 0.7246996 -0.9008608 0.13845883
0.86438304 1.8635607 -0.046869386 2.1758115 -0.85942924 -1.1230592 -2.017029 0.30463582
-0.8637077 0.13087334 1.1770623 0.41759002 0.18063217 0.09379854 1.8360543 0.3175106
1.287387 0.5529751 0.86157274 -0.051617242 -0.9677227 1.8866067 -0.8312001 1.553959
0.32427475 -0.46207866 -1.5747973 -1.4528842 1.3757578 1.0037 -0.4170086 1.8395318
0.4726039 -0.1974933 -2.2319984 1.4425651 -1.202064 -0.9569505 -0.07668867 -1.382671
1.4498478 -0.49165502 0.8935087 -0.71655643 -0.2755019 1.6036536 -0.45644617 -0.5865941
-0.22035362 0.7432313 0.98372096 -0.73564905 -0.0020324434 -0.6678925 -0.68178505 1.330592
-0.107388645 0.7964303 -0.36965823 -0.093520895 -0.12502235 -0.5989209 0.63514626 0.52353144
-0.003678945 0.049852118 0.22553404 1.5614488 0.05320018 1.3304342 1.350851 -0.7004023
-0.43524134 -1.5722506 -0.25732663 -1.1882592 -0.08422791 -1.6711969 -2.5337803 -0.59560543
-0.3559991 -0.45605692 0.8963125 0.029597621 0.40662757 0.008910144 -0.7852217 -1.1794695
-0.51639634 -2.514874 -1.4121801 -0.098253645 -0.25485268 0.08207364 0.3218314 -0.42238677
1.5238682 -1.0760852 -0.40915474 0.21603966 -0.09261195 0.07579858 -0.6798091 -0.1195716
1.190526 -2.7810414 -0.8209572 -1.2045243 -1.7562104 0.03475071 -1.4397867 -0.6604097
-0.38412362 0.26759353 1.2955151 0.9146612 -1.2184516 0.2610278 -0.59526545 0.112933695
0.18898867 -0.82383966 0.5312301 1.0299138 -0.9536055 -0.18806899 -0.70360816 -0.51549345
-0.6319939 -1.2964671 -0.59946764 -2.243807 -0.34533572 1.4202502 -1.2291996 1.4607695
0.4651334 -0.95911074 0.3767398 0.47130945 1.1284741 -0.16685854 0.9088748 0.5533267
0.4613331 -1.1348617 -0.10214949 1.838446 0.9065058 0.0737547 0.83587927 -0.35550463
-0.103252485 1.1844026 0.54084057 -0.32910305 -1.7779012 -0.36068007 -0.93302995 -0.7128362

Q1.0.bias f4 [50, 5]
00000000: f778 d6bb 8c27 8dbb 387a 58bb d2c1 97ba
00000010: bb19 4bb9 fc13 273b bcc2 163c b531 193c
00000020: 653d 7b3b 902b 403a 0468 6b3c 298f ff3b
00000030: 4323 063c 89b0 8a3b 2bb0 713a f21b 833b
00000040: 44cf 1c3c 4160 1b3c acde 7c3b 18aa 413a
00000050: 549d c1bb 17dc 88bb 87b5 59bb 5b55 9cba
00000060: 475c 49b9 21d4 0e3c eb2a 3aba 7b86 95b9
00000070: b79c 283a 604d 7139 d069 7b3b 094e deb6
00000080: 6ba2 9239 df2c ff39 1b10 2a39 2272 133c
00000090: ca39 1c3c 914b 2e3c 1e53 ab3b 1bc9 923a
000000a0: ef71 85bb 3c7f d5ba 4a21 96ba c79b edb9
000000b0: 6036 01b9 f155 23bb 815a b6ba 687f 88ba
000000c0: 7ec9 c1b9 69b4 6ab8 3582 a2bb 2388 8cbb
000000d0: 6a61 7abb 9c4a c8ba 564a 97b9 17d2 c7bb
000000e0: 957f 75bb 5f3a 3bbb 3b11 85ba bfbc 2cb9
000000f0: 0000 0000 0000 0000 0000 0000 0000 0000
00000100: 0000 0000 309e e0bb 301f b3bb fefc 9bbb
00000110: 26f9 f3ba 9fe9 a8b9 0000 0000 0000 0000
00000120: 0000 0000 0000 0000 0000 0000 364b 10bb
00000130: 1400 f2ba 6952 daba 2fdf 32ba b4ba 13b9
00000140: 64e3 303d 021c e13c f7ee ec3c 19e7 6d3c
00000150: 501d 4d3b 9f0e 133d d271 fb3c b14b 013d
00000160: 70ae 723c 9610 4a3b 18d5 f0bb c2f2 cabb
00000170: f4a5 b2bb fc8c 0dbb 7a7d d5b9 a928 fbba
00000180: da4e e4ba 9c6c ccba 4b43 22ba a6db dcb8
00000190: 4aa9 d53c 48ca 783c b743 923c a697 213c
000001a0: 6d98 133b 9bc0 00bb a2d2 63ba b01c 8dba
000001b0: 911a 30ba 801b 1db9 9b4d 3f3c 1c80 843c
000001c0: 825e 8c3c 7136 003c 2b5d d03a e916 023d
000001d0: a39e 643c 0ea5 723c 3834 043c 719c ee3a
000001e0: 900f 4a3c 368d c23b 91d6 af3b 9a69 243b
000001f0: 17b9 0b3a 0fa1 973a efc4 b2ba 7ff4 8bba
00000200: 4182 46b9 19e2 ddb6 6de6 82bb de38 49bb
00000210: e4dc 24bb 0280 71ba b6bc 14b9 36ce 2b3c
00000220: 76e7 edba 4bfb 0fbb 2229 f2b9 fd57 e535
00000230: ef7c ebba d98e 683c f0bc 623c 7fc4 a43b
00000240: 0f43 643a ea37 82bb 5d6a 58bb ee7a 3fbb
00000250: 387b 99ba 24dd 6cb9 0000 0000 0000 0000
00000260: 0000 0000 0000 0000 0000 0000 1120 a3ba
00000270: 3d60 b6b9 c136 39b9 0778 46b8 0d51 aeb6
00000280: 85ad f03a 2d3e 853a 8ae6 a2b9 374a 3aba
00000290: 5bb6 55b9 1014 deba 0272 3aba 43c7 f8b9
000002a0: c783 2fb9 0ecb 9fb7 4819 0c3b 0f3d cf3a
000002b0: a2cf 8b39 3f39 ecb9 3a89 42b9 4e3f 933c
000002c0: 3f09 9c3c 6af0 a43c 7455 1a3c 9c98 003b
000002d0: de06 b2ba dbb7 6aba 90be a3b9 c9c7 ef38
000002e0: 0de7 4038 df37 b8b9 f1c7 da3a d939 1f3b
000002f0: 17e3 aa3a 7f7a 8439 f7db 3f3c d71c 81bb
00000300: 2d48 78bb df98 33ba f707 5138 edb9 653c
00000310: 0720 293b 71a4 933b 7c2b 6a3b 4f39 743a
00000320: 5946 bdbb db07 34bb bf59 e0ba 93c4 00ba
00000330: 1a93 8bb8 1932 42bb c2c9 6fba a3ab adb9
00000340: 4d63 b6b7 5dd8 51b5 e5d3 10bb e4aa 06bb
00000350: 1521 00bb 8284 5bba d996 48b9 969c 8ebb
00000360: 83a9 08bb 28f5 a1ba ba9d a1b9 695b 08b8
00000370: 7cf6 023d 8b85 f83c 0552 093d 8f92 873c
00000380: c902 663b a32c d3ba bcee 78b9 c415 2bb8
00000390: e3d2 c331 0000 0000 3072 733b eda8 27bb
000003a0: 399f 52bb f332 b0ba c1b3 89b9 059d a93b
000003b0: ce51 4f3b 802b 783b 00ae 093b 0ca5 f739
000003c0: 876c a4bb c3b6 47bb 22cb 43bb 66b5 b9ba
000003d0: 6e19 93b9 1ccc c8bb 1627 acbb d61b 98bb
000003e0: 9f41 f1ba d1e9 b5b9
-0.006545182 -0.004307693 -0.0033031832 -0.0011578149 -0.00019369174 0.002549409 0.009201702 0.00935023
0.0038336155 0.000733071 0.014368061 0.0077990484 0.008187118 0.0042324704 0.00092196715 0.004001134
0.0095709 0.009483398 0.0038584871 0.00073877117 -0.0059086476 -0.0041766274 -0.003321977 -0.0011927293
-0.0001920323 0.008717568 -0.0007101732 -0.0002851969 0.0006432044 0.00023012375 0.003836263 -6.6252e-06
0.000279683 0.00048670822 0.00016218463 0.008999379 0.009535262 0.010638134 0.005228414 0.001119885
-0.00407242 -0.0016288529 -0.0011454013 -0.00045320226 -0.00012322655 -0.0024923051 -0.001391247 -0.0010413947
-0.00036961952 -5.5957968e-05 -0.0049593695 -0.0042886897 -0.0038205036 -0.0015281024 -0.0002885635 -0.0060980427
-0.0037460078 -0.0028568727 -0.001015223 -0.00016473512 0.0 0.0 0.0 0.0
0.0 -0.006854795 -0.0054663643 -0.0047603836 -0.0018613681 -0.00032217518 0.0 0.0
0.0 0.0 0.0 -0.0022017485 -0.0018463158 -0.001665664 -0.0006823418 -0.00014088565
0.043185607 0.027479175 0.028922541 0.01452043 0.003129799 0.035902616 0.030693922 0.031566326
0.014812097 0.003083264 -0.0073496215 -0.00619349 -0.005451912 -0.0021598926 -0.00040720013 -0.0019161898
-0.0017418519 -0.0015596333 -0.0006189837 -0.0001053133 0.0260817 0.015184946 0.017854555 0.009862816
0.0022521273 -0.0019646052 -0.00086907495 -0.0010765996 -0.0006717826 -0.00014982931 0.011676217 0.016174369
0.017134909 0.00782548 0.0015896907 0.03176013 0.013953838 0.01480986 0.008069091 0.0018204582
0.012332812 0.005937244 0.0053661545 0.0025087357 0.000533001 0.0011568385 -0.0013639013 -0.0010677724
-0.00018931275 -6.6126345e-06 -0.003994754 -0.0030704062 -0.0025156075 -0.0009212495 -0.0001418468 0.010486176
-0.0018150646 -0.002196985 -0.00046188483 1.7087438e-06 -0.001796631 0.014194214 0.0138389915 0.005028307
0.0008707502 -0.0039739506 -0.0033022382 -0.002921756 -0.0011709696 -0.00022589095 0.0 0.0
0.0 0.0 0.0 -0.001244547 -0.00034785448 -0.00017663372 -4.7318663e-05 -5.1950396e-06
0.001836226 0.0010165625 -0.00031070813 -0.0007106396 -0.00020381196 -0.0016943235 -0.00071123254 -0.00047450708
-0.00016738391 -1.9048832e-05 0.0021377373 0.0015811044 0.00026666844 -0.0004505608 -0.00018552403 0.017974522
0.019047378 0.02013417 0.009419788 0.0019622212 -0.0013582369 -0.0008953788 -0.00031231763 0.00011433621
4.599155e-05 -0.00035136842 0.0016691667 0.0024295954 0.0013037649 0.0002526827 0.011710159 -0.0039402056
-0.0037884817 -0.00068510877 4.98369e-05 0.014021379 0.0025806443 0.004505687 0.0035731485 0.0009316401
-0.0057762084 -0.0027470503 -0.001711659 -0.00049121043 -6.655436e-05 -0.0029631911 -0.0009147191 -0.0003312501
-2.1742331e-05 -7.817342e-07 -0.0022098955 -0.0020548636 -0.0019550968 -0.0008373932 -0.00019129681 -0.0043521626
-0.002085299 -0.0012356387 -0.00030825828 -3.251006e-05 0.031973347 0.030337116 0.033525486 0.016549377
0.0035096875 -0.0016111325 -0.00023740059 -4.0789848e-05 5.699222e-09 0.0 0.0037146918 -0.0025582865
-0.003213836 -0.0013442918 -0.00026264603 0.005176189 0.0031634453 0.0037867725 0.0021008253 0.0004723448
-0.0050178203 -0.0030473925 -0.0029875715 -0.0014168441 -0.00028056971 -0.0061278474 -0.005253683 -0.00464199
-0.0018406397 -0.00034697217

Q1.1.weight f4 [50, 1, 5]
00000000: 2e3f 1a3f e6ab c73f cabd 3fbf 9e37 4abf
00000010: 49dc 663f 90b7 0c3f 76e9 debd 6b19 afbf
00000020: f60f 193f 0a31 c1bf 2ada 05bf 69ac 10bf
00000030: 0153 e53e 4f23 c3be ed38 e43e 3f85 fa3e
00000040: 3ee4 0bbf 21eb a7bc 14ff c6bf 833f dbbe
00000050: 5d6f 2940 8ef7 4bbf fa2a 74bf 49c6 483f
00000060: e4dc 08c0 1dd6 46bf b268 86be 987d 533f
00000070: 6dae a03e 91a5 76be f154 c4be 5862 cd3e
00000080: fadf cabe 1ca2 723e 8e4b a3be aba0 2abd
00000090: 9fc4 70bf ca00 d23e 45f1 0ec0 55d1 863f
000000a0: 4bca db3e 842d 173e 265d 013f 8688 163f
000000b0: 92a1 47be 60dd 7f3d b5a0 18bd 081b 28be
000000c0: b40d 3840 703e 67bd 5ac4 f33e be51 ed3d
000000d0: 566c c6be a0c8 ab3f 5c08 65bf 11a2 b53f
000000e0: bd8d f5bb 80bc e1be 0cfd 533f a1cf a5bf
000000f0: 8799 5b3e c928 6ebf 3a34 02bf b8d9 cf3f
00000100: 2821 aabe 0847 3540 4520 84bf f492 90bd
00000110: a588 4f3f 87fc 9b3e f276 2d3f ecf8 4abd
00000120: 16d1 253e fae4 8cbf 8b58 1f3f c5b2 2d3f
00000130: d365 7b3f aab5 a23f b56a 79bd 7a17 713e
00000140: a2e4 b7bf 0e9c 32bf 05d5 69bf dfb5 043f
00000150: a7aa fe3c 36d9 dcbe 0a14 cebf e1f8 9ebc
00000160: d708 a9bf 5667 f0bf 904b f13e 7aea 773f
00000170: 4716 da3e e27e 653f fc73 b33e 8978 1dbf
00000180: e064 9a3f fbac 443f ba53 6cbf d193 873f
00000190: 6643 97bf c0f2 9cbf 58b3 453e 9636 a0bc
000001a0: 8b5e 1abf 20a8 0a40 2206 d9be 1ba0 f9be
000001b0: 954e ae3e 47d1 0f3d 8791 8f3e e434 56bf
000001c0: 077a 94bf c291 173f bcc3 31bf 6817 cebf
000001d0: 69b4 223e 5a62 e1be 1a87 723f 95e7 c8be
000001e0: 06c6 f5be bc25 353e ec49 133f 404f eabf
000001f0: 4f1a 82bf a6bf a4be a643 c53e 5122 fdbe
00000200: 93ea 853f c68e 973e bda2 bd3f c90b 9e3f
00000210: 7b68 e7be 5530 b7bf 12db 1ebe d708 a5bf
00000220: 8950 8c3f 5b6c a2bc 1db3 1d3f 58bf c8be
00000230: 740f 9a3f 906c 173f ad22 2cc0 1ccb f3be
00000240: e1e0 ad3d ff6d 4c3e c8b9 293f b180 853d
00000250: cb28 5fbe 8eaa 7c3e 90d9 61be a78e c7bf
00000260: e495 3abf 0ac3 403f 1576 f0be 031d 563f
00000270: 3cb0 c23e 3cb3 3f3f da65 a03f 0085 f73d
00000280: d264 b73c cb39 c93f 22f8 39bf f183 b2bf
00000290: 6931 523f 2f35 3c3e cbed 553e d864 c53e
000002a0: 7adc d33e b52e 953c 67b2 ee3e 572c 473f
000002b0: fb88 af3f 9ead 14bf efd9 3a3c 5400 8fbd
000002c0: 8d9e 19bf a56c 5ebf a58e cebf 05df 13bf
000002d0: 79c4 70bc a2ae c0bf 7c3f f23f 9cba 70bf
000002e0: 9ba6 12bf 86b6 73bf d831 fbbe 84ed cd3d
000002f0: 99a6 223f 54ad 633f f06a a2bf fc9c bf3d
00000300: bcc4 c03f 76ee d83d 4726 163f a406 a1bf
00000310: cb11 9c3e 72b8 d3be fd79 5ebe 7941 123f
00000320: 5c95 bc3e eb33 8b3f 23b2 183e c40f 2fbf
00000330: ee99 113f 129d dd3f 1f2d 883f 87d6 2dc0
00000340: 5f22 b03f 1b02 653d 4914 7b3f c4b6 0ebf
00000350: effc 1340 dae7 e73e a369 163e 2265 5a3f
00000360: 9ac1 803f 09c4 13bf 4e4e 19bf 31a3 87be
00000370: 851d b3be 014d 28c0 237b d2be 4d28 fabe
00000380: 4d5a 29bf eb65 473f a7bc 853f 2979 92bf
00000390: 77d4 8abf 2063 4abe 5247 b5be 58c9 0bbf
000003a0: b3d8 6a3f fc73 b83f 5024 2cbe 0423 6abe
000003b0: 69f6 21be 8218 afbe dc6e d13e 113f 3b3f
000003c0: 818b c73e d390 02bf 79d1 c63e 775f d43f
000003d0: 01a1 193f d392 783d f1cd ac3f 8634 3840
000003e0: b7bf 3c3f 548d 46bf
0.60252655 1.5599334 -0.7489897 -0.78991115 0.9017988 0.54967594 -0.10884373 -1.3679632
0.5978998 -1.509309 -0.52286017 -0.5651308 0.4478989 -0.38112876 0.4457468 0.48929784
-0.54645145 -0.02049786 -1.5546594 -0.42821893 2.647422 -0.79674613 -0.9537808 0.7842756
-2.138482 -0.7767046 -0.2625175 0.82613516 0.31383076 -0.24086596 -0.38346055 0.40114093
-0.39624006 0.23694652 -0.3189358 -0.04165713 -0.9405002 0.41016227 -2.233476 1.0532633
0.42927775 0.14763457 0.5053276 0.5880207 -0.19495228 0.06246698 -0.037262637 -0.16416562
2.8758364 -0.05645603 0.47610742 0.11587857 -0.3875453 1.3420601 -0.8946588 1.4190084
-0.007493703 -0.44089127 0.82807994 -1.2953988 0.21445285 -0.93030983 -0.5086094 1.6238317
-0.3322842 2.8324604 -1.0322348 -0.07059279 0.8106788 0.304661 0.6775962 -0.049553797
0.16193041 -1.1007378 0.6224448 0.67850906 0.98202246 1.271169 -0.06089278 0.23544112
-1.4366648 -0.6976937 -0.91340667 0.51840013 0.031087233 -0.4313447 -1.6099865 -0.019405784
-1.3205823 -1.8781536 0.47127962 0.9684216 0.4259512 0.8964673 0.35049427 -0.6151205
1.2062035 0.7682645 -0.92315257 1.0591985 -1.1817443 -1.2261581 0.19306695 -0.019557279
-0.6030051 2.1665115 -0.4238749 -0.48754963 0.34044328 0.03511169 0.28040716 -0.83674455
-1.159974 0.59206784 -0.6943929 -1.6100893 0.15889134 -0.4402035 0.947374 -0.39239183
-0.48002642 0.17690176 0.5753467 -1.8305435 -1.0164279 -0.32177466 0.38528174 -0.49440244
1.0462211 0.29601115 1.4815289 1.2347347 -0.451969 -1.4311625 -0.15513256 -1.2893323
1.0962077 -0.019827059 0.6160143 -0.39208484 1.2035966 0.5915003 -2.6896164 -0.47615898
0.08490158 0.19963835 0.66299105 0.065186866 -0.21792905 0.24674436 -0.2205565 -1.5590409
-0.72884965 0.75297606 -0.4696509 0.8363802 0.3802508 0.74882865 1.2531083 0.120859146
0.022386942 1.5720762 -0.72644246 -1.3946515 0.82106644 0.18379663 0.20891492 0.385535
0.41379148 0.018210748 0.46620485 0.7780203 1.3713678 -0.5807742 0.0114044985 -0.069824845
-0.60007554 -0.8688453 -1.6137282 -0.57762176 -0.01469528 -1.5053294 1.8925624 -0.94034743
-0.5728547 -0.95200384 -0.49061465 0.10055068 0.6353546 0.8893635 -1.2688885 0.09356114
1.5060039 0.10592358 0.58652157 -1.2580152 0.30482325 -0.41351658 -0.21726222 0.57131153
0.36832702 1.0875219 0.14911704 -0.6838343 0.56875503 1.7313559 1.063877 -2.7162187
1.3760489 0.05591021 0.9807783 -0.5574763 2.3123128 0.45294076 0.14688735 0.85310566
1.0059083 -0.57721 -0.5988511 -0.26491693 -0.3498346 -2.6297 -0.4110957 -0.48858872
-0.66153413 0.7788989 1.0448197 -1.1443225 -1.0846089 -0.19764376 -0.35405976 -0.546041
0.91736907 1.4410396 -0.16810727 -0.2286492 -0.15816654 -0.34198385 0.40904891 0.73143107
0.3897362 -0.51002234 0.3883169 1.6591634 0.600113 0.060686897 1.3500348 2.8782058
0.73730034 -0.775594

Q1.1.bias f4 [1, 5]
00000000: f1c4 b6bc effb 27bc 9bb1 2abc 8c93 b2bb
00000010: 9eeb 9dba
-0.022310706 -0.010252937 -0.010418321 -0.005449718 -0.0012048369
