CausalCVR/logs/simu3/eval/90/Vcnet_ckpt.pth.tar (torch, 123067 bytes, 16 tensors)

feature_weight.weight f4 [50, 8]
0.0010242068 0.0025266618 -0.010243377 0.004378073 0.013687038 -0.009479873 -0.0018816256 0.013671698
0.0013630339 0.026568456 0.0008247276 -0.0013722271 -0.006142511 -0.013774451 -0.013146023 0.009139504
0.0024756012 0.008114353 0.010073385 -0.0052823815 -0.0090019535 -0.0015969898 -0.0044528423 0.0013252742
0.02006606 -0.0047256267 -0.0137346955 -0.00024435524 -0.008804321 -0.012951052 0.008173273 0.010286439
-0.005000267 -0.01649012 0.00052905094 0.017994246 0.006963304 0.011782405 -0.0006730401 -0.0042259456
-0.013760926 0.002673805 -0.020823833 -0.024926573 -0.0026192444 0.0022549785 -0.0067842132 -0.002719965
0.007145886 -0.008153012 0.0011041644 -0.0033533447 0.005035229 -0.0070448676 0.0038814144 0.013360979
0.0055901837 0.008102311 -0.02028848 -0.0071859043 0.009364817 0.0018887281 -0.013050154 -0.0070779915
0.0005985064 -0.0041833445 -0.012097893 -0.0037712906 0.026854085 -0.012408829 0.0064879726 -0.000881964
0.013484989 0.014599588 -0.004982588 -0.0059561334 0.00653468 -0.0079529565 0.00061009167 0.005938362
-0.0036062314 0.016113097 -0.015958983 -0.0125690885 0.001513152 0.0045485306 0.0062062778 -0.009372874
0.006103839 0.0061793462 0.006938673 -0.00038824388 -0.0064231185 0.005933274 0.008569519 0.011618508
0.011926172 -0.004536563 0.006045437 0.0049221255 -0.0033777673 0.0036244835 0.0131167 0.0040352633
0.0053863954 -0.0038236463 -0.014492203 0.007694263 0.008972052 -0.006975071 0.005937252 0.0052767387
-0.00815824 0.0020049445 0.006689057 -0.0021755984 -0.012991343 0.0030341533 0.0021566458 0.0020167378
0.017126875 -0.0067877886 0.01602185 -0.011577906 0.0148590375 0.001054976 0.005092773 0.0010876424
-0.015144549 -0.00088715885 -0.0032782697 -0.008207064 0.0023715456 0.023274263 -0.0057682344 0.0048518437
-0.009725446 -0.00053179584 -0.007085641 -0.004149506 0.004576888 -0.003119567 0.003517039 -0.0011861944
0.009179242 0.021306798 0.019152578 -0.009757561 -0.023242088 0.00038697218 0.008062079 -0.008352903
0.008437614 0.0016047056 0.016426673 -0.006059413 -0.005512649 0.002485664 0.0060234093 0.002340495
-0.0150550725 -0.0054619503 0.008344947 0.0077190283 -0.012348339 0.015767884 0.0071793604 0.001473899
-0.0031963852 0.0012519766 0.0039024062 0.004263434 0.0013321338 -0.005850683 0.0019562962 0.012830643
0.0013609328 0.00054650864 -0.01398767 -0.003708521 -0.006950317 -0.0014490952 -0.0074609937 -0.007378216
0.00049908255 -0.014457603 -0.008724069 0.013745675 -0.0032665455 -0.0009859601 0.005781666 0.024269512
-0.009751585 0.0002798401 0.014535593 -0.0003170655 0.0031932767 -0.00908392 -0.014354362 -0.005261868
-0.0007014926 -0.016419891 -0.020141516 -0.0029024163 0.0061977394 0.014894517 -0.0053459387 0.009085472
-0.0028756137 -0.0066908896 -0.00450676 0.0013976836 0.0013599994 -0.0048924354 0.010512301 0.014054417
-0.00584865 -0.006321621 0.0061109513 -0.0052904594 0.00903902 0.0077600484 -0.018683573 -0.014168982
0.0051330393 0.013755311 -0.009128876 0.011789144 0.0043951385 -0.012753697 0.0037820188 0.012900021
0.005344759 -0.0022444876 0.0028668402 -0.006683326 0.0068854825 -0.00028817955 -0.007065411 -0.00222343
0.0010096709 -0.0009973191 -0.007106567 -0.00058749947 0.00604264 -0.0023825925 0.00016550183 0.0006492648
-0.0034763434 0.00721916 -0.00131859 0.012634773 0.01741023 0.0015787449 -0.016248183 0.0105063375
00000000: ad3e 863a 5a96 253b d6d3 27bc f075 8f3b
00000010: 993f 603c 7851 1bbc e1a0 f6ba 42ff 5f3c
00000020: d4a7 b23a 17a6 d93c 8832 583a 4ddc b3ba
00000030: 1e47 c9bb 3cae 61bc 6b62 57bc dcbd 153c
00000040: b23d 223b 10f2 043c d70a 253c d417 adbb
00000050: ee7c 13bc 1652 d1ba 26e9 91bb d3b4 ad3a
00000060: 9461 a43c 6ed9 9abb 7d07 61bc ce1c 80b9
00000070: 0040 10bc a630 54bc 31e9 053c 7488 283c
00000080: 48d9 a3bb 4a16 87bc 02b0 0a3a ab68 933c
00000090: 6d2c e43b fd0a 413c f56e 30ba cd79 8abb
000000a0: 8275 61bc 013b 2f3b be96 aabc d032 ccbc
000000b0: a1a7 2bbb 43c8 133b 1b4e debb 7141 32bb
000000c0: 0928 ea3b 3694 05bc 9cb9 903a cac3 5bbb
000000d0: 90fe a43b a2d8 e6bb 545f 7e3b 02e8 5a3c
000000e0: dc2d b73b 8ebf 043c 0734 a6bc bc77 ebbb
000000f0: e46e 193c 338f f73a 50d0 55bc 7fee e7bb
00000100: 16e5 1c3a 7014 89bb 3e36 46bc c227 77bb
00000110: 19fd db3c 674e 4bbc 0f99 d43b 9a33 67ba
00000120: 25f0 5c3c 1c33 6f3c fa44 a3bb ab2b c3bb
00000130: de20 d63b 1e4d 02bc 8fee 1f3a 9796 c23b
00000140: 8656 6cbb 9dff 833c 6abc 82bc 94ee 4dbc
00000150: f554 c63a d70b 953b 085e cb3b af90 19bc
00000160: b602 c83b 1d7c ca3b cf5d e33b 368d cbb9
00000170: 0679 d2bb e96b c23b 2b67 0c3c 8e5b 3e3c
00000180: fe65 433c 73a7 94bb cd18 c63b c849 a13b
00000190: 885d 5dbb be88 6d3b 6de7 563c 3e3a 843b
000001a0: 5c80 b03b 2496 7abb b470 6dbc 2820 fc3b
000001b0: 83ff 123c 238f e4bb 488d c23b 7ee8 ac3b
000001c0: 23aa 05bc 6365 033b e12f db3b 7c94 0ebb
000001d0: a4d9 54bc a5d8 463b 8356 0d3b 3f2b 043b
000001e0: a94d 8c3c 196c debb 4140 833c 42b1 3dbc
000001f0: 5273 733c 1f47 8a3a 47e1 a63b 398f 8e3a
00000200: d820 78bc 3990 68ba 3dd8 56bb ec76 06bc
00000210: ef6b 1b3b aba9 be3c 7503 bdbb 37fc 9e3b
00000220: 7a57 1fbc 3768 0bba aa2e e8bb 94f8 87bb
00000230: b8f9 953b a671 4cbb 1f7e 663b 147a 9bba
00000240: 8864 163c 988b ae3c dee5 9c3c 2dde 1fbc
00000250: 3166 bebc 87e2 ca39 cf16 043c 9dda 08bc
00000260: eb3d 0a3c fc54 d23a 3b91 863c 0a8e c6bb
00000270: 74a3 b4bb 86e6 223b 0560 c53b fd62 193b
00000280: 8da9 76bc 29fa b2bb 3fb9 083c e7ef fc3b
00000290: b050 4abc a62b 813c d740 eb3b d82f c13a
000002a0: 727a 51bb 5d19 a43a 83bf 7f3b 47b4 8b3b
000002b0: fe9a ae3a 16b7 bfbb 3435 003b 9e37 523c
000002c0: 5461 b23a 9343 0f3a 8a2c 65bc a80a 73bb
000002d0: 7cbf e3bb 91ef bdba 5a7b f4bb f6c4 f1bb
000002e0: ddd4 023a 95df 6cbc 66ef 0ebc 8a35 613c
000002f0: 8a13 56bb 553b 81ba 2174 bd3b dbd0 c63c
00000300: 1dc5 1fbc 81b7 9239 b226 6e3c d03b a6b9
00000310: 4b46 513b b9d4 14bc 8f2e 6bbc bf6b acbb
00000320: 5fe4 37ba 0283 86bc d2ff a4bc 7736 3ebb
00000330: 6816 cb3b 2208 743c fc2c afbb 3bdb 143c
00000340: cb74 3cbb 403f dbbb 71ad 93bb 7b32 b73a
00000350: 0242 b23a b950 a0bb c93b 2c3c 7f44 663c
00000360: 08a6 bfbb 9a25 cfbb 603e c83b 975b adbb
00000370: 6618 143c 0148 fe3b 4b0e 99bc 0525 68bc
00000380: 0e33 a83b f55d 613c 4891 15bc 4127 413c
00000390: 1805 903b e2f4 50bc bfdb 773b 9c5a 533c
000003a0: 1723 af3b 4118 13bb 99e1 3b3b cdff dabb
000003b0: 9d9f e13b ce16 97b9 f784 e7bb f7b6 11bb
000003c0: ef56 843a 7ab8 82ba 34de e8bb 6c02 1aba
000003d0: 5701 c63b 4525 1cbb 8f8a 2d39 6c33 2a3a
000003e0: 5dd3 63bb b48e ec3b 8ad4 acba 1402 4f3c
000003f0: e69f 8e3c e3ed ce3a e91a 85bc c622 2c3c

feature_weight.bias f4 [50]
-3.7627597e-05 -4.391812e-05 3.7571896e-05 9.94328e-06 2.0534448e-05 0.0 -1.7929278e-06 -3.8304993e-06
-1.3775939e-05 5.8302294e-06 1.7042164e-06 -3.4337085e-05 5.7763555e-06 -1.0407788e-05 3.123461e-06 1.5088802e-05
5.710948e-06 2.5485718e-07 -3.965365e-05 -5.6419394e-05 -2.3935325e-05 -5.261586e-05 0.0 9.019684e-06
-1.0035674e-06 -3.4312034e-06 8.118825e-06 1.664933e-06 -2.1374228e-05 1.0264347e-05 -3.3552003e-06 9.8335595e-06
3.0256946e-05 -2.522722e-05 -1.0575475e-05 -1.817807e-07 -4.19558e-06 2.271395e-05 2.1485495e-05 -6.1772253e-06
8.225357e-06 -1.5951706e-06 1.280181e-05 1.3099456e-05 -5.6918702e-06 5.1611918e-05 -3.2889522e-05 7.839157e-06
1.1054144e-05 1.9865161e-05
00000000: 53d2 1db8 b934 38b8 8496 1d38 10d2 2637
00000010: 6441 ac37 0000 0000 88a4 f0b5 bd87 80b6
00000020: 351f 67b7 4aa1 c336 6ebc e435 2a05 10b8
00000030: 84d2 c136 1c9d 2eb7 a79c 5136 e925 7d37
00000040: aba0 bf36 4ed3 8834 c851 26b8 dda3 6cb8
00000050: b8c8 c8b7 d9af 5cb8 0000 0000 3f53 1737
00000060: 50b2 86b5 a043 66b6 1636 0837 aa76 df35
00000070: ce4c b3b7 0935 2c37 e729 61b6 d1fa 2437
00000080: 4cd0 fd37 0b9f d3b7 526d 31b7 802f 43b4
00000090: c2c7 8cb6 d689 be37 c03b b437 f645 cfb6
000000a0: a4ff 0937 a519 d6b5 5bc7 5637 bcc5 5b37
000000b0: cbfc beb6 e079 5838 dbf2 09b8 ec84 0337
000000c0: 3075 3937 1ca4 a637

hidden_features.0.weight f4 [50, 8]
0.0010242068 0.0025266618 -0.010243377 0.004378073 0.013687038 -0.009479873 -0.0018816256 0.013671698
0.0013630339 0.026568456 0.0008247276 -0.0013722271 -0.006142511 -0.013774451 -0.013146023 0.009139504
0.0024756012 0.008114353 0.010073385 -0.0052823815 -0.0090019535 -0.0015969898 -0.0044528423 0.0013252742
0.02006606 -0.0047256267 -0.0137346955 -0.00024435524 -0.008804321 -0.012951052 0.008173273 0.010286439
-0.005000267 -0.01649012 0.00052905094 0.017994246 0.006963304 0.011782405 -0.0006730401 -0.0042259456
-0.013760926 0.002673805 -0.020823833 -0.024926573 -0.0026192444 0.0022549785 -0.0067842132 -0.002719965
0.007145886 -0.008153012 0.0011041644 -0.0033533447 0.005035229 -0.0070448676 0.0038814144 0.013360979
0.0055901837 0.008102311 -0.02028848 -0.0071859043 0.009364817 0.0018887281 -0.013050154 -0.0070779915
0.0005985064 -0.0041833445 -0.012097893 -0.0037712906 0.026854085 -0.012408829 0.0064879726 -0.000881964
0.013484989 0.014599588 -0.004982588 -0.0059561334 0.00653468 -0.0079529565 0.00061009167 0.005938362
-0.0036062314 0.016113097 -0.015958983 -0.0125690885 0.001513152 0.0045485306 0.0062062778 -0.009372874
0.006103839 0.0061793462 0.006938673 -0.00038824388 -0.0064231185 0.005933274 0.008569519 0.011618508
0.011926172 -0.004536563 0.006045437 0.0049221255 -0.0033777673 0.0036244835 0.0131167 0.0040352633
0.0053863954 -0.0038236463 -0.014492203 0.007694263 0.008972052 -0.006975071 0.005937252 0.0052767387
-0.00815824 0.0020049445 0.006689057 -0.0021755984 -0.012991343 0.0030341533 0.0021566458 0.0020167378
0.017126875 -0.0067877886 0.01602185 -0.011577906 0.0148590375 0.001054976 0.005092773 0.0010876424
-0.015144549 -0.00088715885 -0.0032782697 -0.008207064 0.0023715456 0.023274263 -0.0057682344 0.0048518437
-0.009725446 -0.00053179584 -0.007085641 -0.004149506 0.004576888 -0.003119567 0.003517039 -0.0011861944
0.009179242 0.021306798 0.019152578 -0.009757561 -0.023242088 0.00038697218 0.008062079 -0.008352903
0.008437614 0.0016047056 0.016426673 -0.006059413 -0.005512649 0.002485664 0.0060234093 0.002340495
-0.0150550725 -0.0054619503 0.008344947 0.0077190283 -0.012348339 0.015767884 0.0071793604 0.001473899
-0.0031963852 0.0012519766 0.0039024062 0.004263434 0.0013321338 -0.005850683 0.0019562962 0.012830643
0.0013609328 0.00054650864 -0.01398767 -0.003708521 -0.006950317 -0.0014490952 -0.0074609937 -0.007378216
0.00049908255 -0.014457603 -0.008724069 0.013745675 -0.0032665455 -0.0009859601 0.005781666 0.024269512
-0.009751585 0.0002798401 0.014535593 -0.0003170655 0.0031932767 -0.00908392 -0.014354362 -0.005261868
-0.0007014926 -0.016419891 -0.020141516 -0.0029024163 0.0061977394 0.014894517 -0.0053459387 0.009085472
-0.0028756137 -0.0066908896 -0.00450676 0.0013976836 0.0013599994 -0.0048924354 0.010512301 0.014054417
-0.00584865 -0.006321621 0.0061109513 -0.0052904594 0.00903902 0.0077600484 -0.018683573 -0.014168982
0.0051330393 0.013755311 -0.009128876 0.011789144 0.0043951385 -0.012753697 0.0037820188 0.012900021
0.005344759 -0.0022444876 0.0028668402 -0.006683326 0.0068854825 -0.00028817955 -0.007065411 -0.00222343
0.0010096709 -0.0009973191 -0.007106567 -0.00058749947 0.00604264 -0.0023825925 0.00016550183 0.0006492648
-0.0034763434 0.00721916 -0.00131859 0.012634773 0.01741023 0.0015787449 -0.016248183 0.0105063375
00000000: ad3e 863a 5a96 253b d6d3 27bc f075 8f3b
00000010: 993f 603c 7851 1bbc e1a0 f6ba 42ff 5f3c
00000020: d4a7 b23a 17a6 d93c 8832 583a 4ddc b3ba
00000030: 1e47 c9bb 3cae 61bc 6b62 57bc dcbd 153c
00000040: b23d 223b 10f2 043c d70a 253c d417 adbb
00000050: ee7c 13bc 1652 d1ba 26e9 91bb d3b4 ad3a
00000060: 9461 a43c 6ed9 9abb 7d07 61bc ce1c 80b9
00000070: 0040 10bc a630 54bc 31e9 053c 7488 283c
00000080: 48d9 a3bb 4a16 87bc 02b0 0a3a ab68 933c
00000090: 6d2c e43b fd0a 413c f56e 30ba cd79 8abb
000000a0: 8275 61bc 013b 2f3b be96 aabc d032 ccbc
000000b0: a1a7 2bbb 43c8 133b 1b4e debb 7141 32bb
000000c0: 0928 ea3b 3694 05bc 9cb9 903a cac3 5bbb
000000d0: 90fe a43b a2d8 e6bb 545f 7e3b 02e8 5a3c
000000e0: dc2d b73b 8ebf 043c 0734 a6bc bc77 ebbb
000000f0: e46e 193c 338f f73a 50d0 55bc 7fee e7bb
00000100: 16e5 1c3a 7014 89bb 3e36 46bc c227 77bb
00000110: 19fd db3c 674e 4bbc 0f99 d43b 9a33 67ba
00000120: 25f0 5c3c 1c33 6f3c fa44 a3bb ab2b c3bb
00000130: de20 d63b 1e4d 02bc 8fee 1f3a 9796 c23b
00000140: 8656 6cbb 9dff 833c 6abc 82bc 94ee 4dbc
00000150: f554 c63a d70b 953b 085e cb3b af90 19bc
00000160: b602 c83b 1d7c ca3b cf5d e33b 368d cbb9
00000170: 0679 d2bb e96b c23b 2b67 0c3c 8e5b 3e3c
00000180: fe65 433c 73a7 94bb cd18 c63b c849 a13b
00000190: 885d 5dbb be88 6d3b 6de7 563c 3e3a 843b
000001a0: 5c80 b03b 2496 7abb b470 6dbc 2820 fc3b
000001b0: 83ff 123c 238f e4bb 488d c23b 7ee8 ac3b
000001c0: 23aa 05bc 6365 033b e12f db3b 7c94 0ebb
000001d0: a4d9 54bc a5d8 463b 8356 0d3b 3f2b 043b
000001e0: a94d 8c3c 196c debb 4140 833c 42b1 3dbc
000001f0: 5273 733c 1f47 8a3a 47e1 a63b 398f 8e3a
00000200: d820 78bc 3990 68ba 3dd8 56bb ec76 06bc
00000210: ef6b 1b3b aba9 be3c 7503 bdbb 37fc 9e3b
00000220: 7a57 1fbc 3768 0bba aa2e e8bb 94f8 87bb
00000230: b8f9 953b a671 4cbb 1f7e 663b 147a 9bba
00000240: 8864 163c 988b ae3c dee5 9c3c 2dde 1fbc
00000250: 3166 bebc 87e2 ca39 cf16 043c 9dda 08bc
00000260: eb3d 0a3c fc54 d23a 3b91 863c 0a8e c6bb
00000270: 74a3 b4bb 86e6 223b 0560 c53b fd62 193b
00000280: 8da9 76bc 29fa b2bb 3fb9 083c e7ef fc3b
00000290: b050 4abc a62b 813c d740 eb3b d82f c13a
000002a0: 727a 51bb 5d19 a43a 83bf 7f3b 47b4 8b3b
000002b0: fe9a ae3a 16b7 bfbb 3435 003b 9e37 523c
000002c0: 5461 b23a 9343 0f3a 8a2c 65bc a80a 73bb
000002d0: 7cbf e3bb 91ef bdba 5a7b f4bb f6c4 f1bb
000002e0: ddd4 023a 95df 6cbc 66ef 0ebc 8a35 613c
000002f0: 8a13 56bb 553b 81ba 2174 bd3b dbd0 c63c
00000300: 1dc5 1fbc 81b7 9239 b226 6e3c d03b a6b9
00000310: 4b46 513b b9d4 14bc 8f2e 6bbc bf6b acbb
00000320: 5fe4 37ba 0283 86bc d2ff a4bc 7736 3ebb
00000330: 6816 cb3b 2208 743c fc2c afbb 3bdb 143c
00000340: cb74 3cbb 403f dbbb 71ad 93bb 7b32 b73a
00000350: 0242 b23a b950 a0bb c93b 2c3c 7f44 663c
00000360: 08a6 bfbb 9a25 cfbb 603e c83b 975b adbb
00000370: 6618 143c 0148 fe3b 4b0e 99bc 0525 68bc
00000380: 0e33 a83b f55d 613c 4891 15bc 4127 413c
00000390: 1805 903b e2f4 50bc bfdb 773b 9c5a 533c
000003a0: 1723 af3b 4118 13bb 99e1 3b3b cdff dabb
000003b0: 9d9f e13b ce16 97b9 f784 e7bb f7b6 11bb
000003c0: ef56 843a 7ab8 82ba 34de e8bb 6c02 1aba
000003d0: 5701 c63b 4525 1cbb 8f8a 2d39 6c33 2a3a
000003e0: 5dd3 63bb b48e ec3b 8ad4 acba 1402 4f3c
000003f0: e69f 8e3c e3ed ce3a e91a 85bc c622 2c3c

hidden_features.0.bias f4 [50]
-3.7627597e-05 -4.391812e-05 3.7571896e-05 9.94328e-06 2.0534448e-05 0.0 -1.7929278e-06 -3.8304993e-06
-1.3775939e-05 5.8302294e-06 1.7042164e-06 -3.4337085e-05 5.7763555e-06 -1.0407788e-05 3.123461e-06 1.5088802e-05
5.710948e-06 2.5485718e-07 -3.965365e-05 -5.6419394e-05 -2.3935325e-05 -5.261586e-05 0.0 9.019684e-06
-1.0035674e-06 -3.4312034e-06 8.118825e-06 1.664933e-06 -2.1374228e-05 1.0264347e-05 -3.3552003e-06 9.8335595e-06
3.0256946e-05 -2.522722e-05 -1.0575475e-05 -1.817807e-07 -4.19558e-06 2.271395e-05 2.1485495e-05 -6.1772253e-06
8.225357e-06 -1.5951706e-06 1.280181e-05 1.3099456e-05 -5.6918702e-06 5.1611918e-05 -3.2889522e-05 7.839157e-06
1.1054144e-05 1.9865161e-05
00000000: 53d2 1db8 b934 38b8 8496 1d38 10d2 2637
00000010: 6441 ac37 0000 0000 88a4 f0b5 bd87 80b6
00000020: 351f 67b7 4aa1 c336 6ebc e435 2a05 10b8
00000030: 84d2 c136 1c9d 2eb7 a79c 5136 e925 7d37
00000040: aba0 bf36 4ed3 8834 c851 26b8 dda3 6cb8
00000050: b8c8 c8b7 d9af 5cb8 0000 0000 3f53 1737
00000060: 50b2 86b5 a043 66b6 1636 0837 aa76 df35
00000070: ce4c b3b7 0935 2c37 e729 61b6 d1fa 2437
00000080: 4cd0 fd37 0b9f d3b7 526d 31b7 802f 43b4
00000090: c2c7 8cb6 d689 be37 c03b b437 f645 cfb6
000000a0: a4ff 0937 a519 d6b5 5bc7 5637 bcc5 5b37
000000b0: cbfc beb6 e079 5838 dbf2 09b8 ec84 0337
000000c0: 3075 3937 1ca4 a637

hidden_features.2.weight f4 [50, 50]
0.002314554 0.014262012 -0.0046612523 0.015359401 0.0021777253 0.002615378 0.0061236545 0.011330628
-0.007841241 -0.004998408 0.020113476 -0.0038492542 -0.0019412972 -0.012873973 -0.0029931471 0.006512385
0.01291976 0.010120965 -0.0028351906 0.009057108 -0.010309768 -0.00712611 0.00064097776 -0.00054388866
0.006697604 -0.0016947514 0.00059708377 0.000484747 0.010280073 -0.00218466 3.0266749e-05 0.0024925047
-0.013595744 -0.002751009 0.0032414512 -0.0073512667 0.0056820516 -0.013801985 -0.0119730225 -0.004782077
0.0023951821 -0.008873475 -0.0034043714 0.0062750317 -0.007792698 -0.019507384 -0.00393287 0.003384066
-0.004897222 -0.01584483 -0.00048124042 -0.007572613 -0.004858782 -0.0027620266 -0.0067827944 -0.006187781
-0.007142542 -0.016932571 -0.0063149775 0.0070177955 0.021279518 0.0054201707 0.0073800096 0.0032173125
0.0049777376 0.016897503 0.0074537317 -0.020540414 0.0024056893 -0.006236117 -0.0029636617 -0.0066736974
-0.018046118 0.014103814 0.0010670659 0.009171713 -0.0027747143 0.010628965 0.00979277 0.017576553
-0.015435831 -7.061901e-05 0.0048921173 -0.023373658 -0.009853617 -0.0018376352 -0.008925306 0.00030423157
0.008410108 0.0068941703 -0.00043405985 -0.018981043 0.011029807 0.012909804 0.006747848 0.009493479
0.0052869893 -0.001837267 -0.005881908 0.01805365 0.0026167622 -0.013271477 -0.007075221 -0.0076126615
0.0094378665 0.0035482405 -0.00046276907 0.0013099932 -0.0037484409 -0.013584763 0.015817005 -0.010007181
-0.008947729 0.00054979866 0.0012622327 -0.001125314 -0.0079412125 -0.025260063 0.0011620417 -0.005271751
-0.0056099654 -0.002300795 0.014243911 0.0073764385 -0.011660011 -0.009162914 0.022010304 0.004408305
0.0055163265 -0.008993742 -0.013781103 0.008424278 -0.0043198452 -0.0010938136 -0.013795506 -0.013307647
-0.020623151 -0.003159124 -0.002023047 0.011684385 -0.007108256 0.0059011397 -0.0040869787 -0.0022920698
-0.0115668755 0.008181795 -0.0093258275 0.026324563 -7.297781e-05 -0.015023896 0.010962581 -0.0035765185
0.0034710525 0.006842128 -0.020191738 -0.0013778802 0.010123599 0.020324677 0.00766693 -0.0051241633
-0.009030638 0.0023687144 0.014552787 -0.003610832 0.017814482 -0.0067847827 -0.0059937444 -0.0061047534
0.012961717 0.010523905 0.0065046293 0.010385702 -0.007815546 -0.008851827 0.010797149 0.0010400275
0.0071963575 -0.012105112 -1.070466e-05 -0.013661747 -0.0038891986 -2.4032159e-05 0.0064551 -0.003243182
0.011226877 0.013252397 -0.0008531924 -0.026951944 0.0005822261 -0.017249776 -0.0076865824 -0.0078302
-0.011385281 -0.006148718 -0.005172379 0.00463097 -0.008988321 -0.0077139908 0.013056236 -0.0008232933
0.009878917 0.012133662 0.0040628267 -0.00852049 -0.0054352963 0.012505492 0.0003122174 0.005688613
0.0040105726 -0.0022575338 -0.0017795153 0.017141994 -0.0020152475 -0.0025946188 0.005959745 -0.0053073196
-0.00820442 -0.0017884478 -0.014099996 0.011213802 0.010208731 -0.0048234356 0.00846254 -0.008251597
0.0137062725 -0.0033575455 -0.021193873 0.0047222194 -0.005415686 -0.008520158 0.007768257 -0.01796043
0.0068158535 0.015376801 0.0012309621 -0.008536804 0.0039270427 0.0107411435 -0.00015495846 -0.015289854
-0.012691348 -0.020653002 0.0048575387 -0.008591764 0.0046942746 0.00324924 -0.016041748 0.007564392
-0.0010100903 0.0061888453 0.017487736 0.00036503066 0.0026581204 -0.006656787 0.0006273627 -0.0008107944
00000000: c6af 173b 37ab 693c 6bbd 98bb ffa5 7b3c
00000010: 2bb8 0e3b c366 2b3b f0a8 c83b 19a4 393c
00000020: 8c78 00bc afc9 a3bb 04c5 a43c c543 7cbb
00000030: 2073 feba 5bed 52bc ad28 44bb d865 d53b
00000040: 67ad 533c 67d2 253c 9bce 39bb 4464 143c
00000050: 4dea 28bc 2582 e9bb 4a07 283a c093 0eba
00000060: 9377 db3b 6c22 deba 9d85 1c3a a425 fe39
00000070: c06d 283c 832c 0fbb 59e5 fd37 4a59 233b
00000080: afc0 5ebc 464a 34bb 876e 543b e5e2 f0bb
00000090: 8130 ba3b b921 62bc 7f2a 44bc f8b2 9cbb
000000a0: 7df8 1c3b 0d62 11bc e01b 5fbb c89e cd3b
000000b0: e459 ffbb f3cd 9fbc 4edf 80bb 35c7 5d3b
000000c0: e078 a0bb 04cd 81bc ff4e fcb9 af23 f8bb
000000d0: 6b36 9fbb 1e03 35bb 3442 debb dfc2 cabb
000000e0: fc0b eabb 2db6 8abc dfed cebb 89f5 e53b
000000f0: 6252 ae3c b09b b13b 02d4 f13b 8cd9 523b
00000100: 4a1c a33b a26c 8a3c 6f3e f43b 5f44 a8bc
00000110: c5a8 1d3b 5758 ccbb fe39 42bb 08af dabb
00000120: 74d5 93bc af13 673c cadc 8b3a f444 163c
00000130: fbd7 35bb 1c25 2e3c db71 203c b4fc 8f3c
00000140: 91e6 7cbc 4b19 94b8 0e4e a03b 1d7a bfbc
00000150: 1171 21bc cedc f0ba 723b 12bc 4581 9f39
00000160: 8dca 093c 7ee8 e13b 8792 e3b9 227e 9bbc
00000170: 5db6 343c a483 533c 0d1d dd3b 898a 1b3c
00000180: 7b3e ad3b 73d0 f0ba 05bd c0bb 40e5 933c
00000190: fc7d 2b3b 9c70 59bc 41d7 e7bb a273 f9bb
000001a0: 48a1 1a3c 9989 683b d09f f2b9 14b4 ab3a
000001b0: 67a8 75bb a092 5ebc aa92 813c 29f5 23bc
000001c0: 7f99 12bc 5d20 103a 8071 a53a 467f 93ba
000001d0: dc1b 02bc 31ee cebc a64f 983a a7be acbb
000001e0: cdd3 b7bb efc8 16bb 4b5f 693c 0db6 f13b
000001f0: a109 3fbc 0c20 16bc f44e b43c 8b73 903b
00000200: 4dc2 b43b 7d5a 13bc 23ca 61bc fc05 0a3c
00000210: 7d8d 8dbb 4b5e 8fba 8c06 62bc 5108 5abc
00000220: e2f1 a8bc 4e09 4fbb 1995 04bb dd6f 3f3c
00000230: 60ec e8bb 595e c13b 10ec 85bb 8d36 16bb
00000240: fe82 3dbc ef0c 063c 5bcb 18bc 9ca6 d73c
00000250: aa0b 99b8 c926 76bc 669c 333c 0664 6abb
00000260: 997a 633b ee33 e03b 2569 a5bc fd99 b4ba
00000270: 74dd 253c f07f a63c df3a fb3b 99e8 a7bb
00000280: 3ef5 13bc 6f3c 1b3b d06e 6e3c b5a3 6cbb
00000290: adef 913c e252 debb 2c67 c4bb 620a c8bb
000002a0: 625d 543c 756c 2c3c c924 d53b cb28 2a3c
000002b0: c70c 00bc 4107 11bc 86e6 303c 8851 883a
000002c0: 6ccf eb3b 8554 46bc 2a98 33b7 85d5 5fbc
000002d0: ede1 7ebb ab98 c9b7 4e85 d33b 918b 54bb
000002e0: eff0 373c 9520 593c c6a8 5fba 53ca dcbc
000002f0: 88a0 183a 674f 8dbc badf fbbb 3d4a 00bc
00000300: 5489 3abc 2f7b c9bb 0f7d a9bb 64bf 973b
00000310: c043 13bc a5c5 fcbb d3e9 553c 47d2 57ba
00000320: 2edb 213c 44cc 463c 7621 853b 8699 0bbc
00000330: 921a b2bb d6e3 4c3c 1cb1 a339 8b67 ba3b
00000340: 1f6b 833b 22f3 13bb a03e e9ba 5e6d 8c3c
00000350: 3e12 04bb 7b0a 2abb f749 c33b 06e9 adbb
00000360: d56b 06bc 5a6a eaba ab03 67bc 18ba 373c
00000370: 8542 273c e90d 9ebb 77a6 0a3c b531 07bc
00000380: 4690 603c 440a 5cbb c69e adbc d9bc 9a3b
00000390: 1176 b1bb 2298 0bbc dd8c fe3b c021 93bc
000003a0: 8657 df3b faee 7b3c 3c58 a13a f3dd 0bbc
000003b0: 6cae 803b 9ffb 2f3c 587c 22b9 4c82 7abc
000003c0: 5fef 4fbc 7c30 a9bc fd2b 9f3b 78c4 0cbc
000003d0: 6ed2 993b 34f1 543b fc69 83bc b8de f73b
000003e0: 0265 84ba cccb ca3b 7142 8f3c 9661 bf39
000003f0: dc33 2e3b 2d21 dabb 9975 243a 7e8b 54ba

hidden_features.2.bias f4 [50]
0.0 0.00057698257 -1.1975851e-05 -8.795608e-05 -0.00023533868 2.531262e-07 0.00014025075 -0.00021513787
0.00022109985 -1.7985125e-05 -9.9761695e-05 0.00014074154 -7.285805e-05 -0.00066357537 -0.00048364614 0.0008895846
8.683135e-05 0.00095179956 -5.7658464e-05 -0.000121171164 -1.722007e-05 0.0008018529 0.00054012827 -0.00015435566
-1.4401548e-06 0.00021121206 0.0009604242 -0.0004092832 -0.0008498393 4.6427213e-05 -0.0009328451 0.000112989335
0.0004687333 -0.00018929093 -4.261935e-05 8.1633225e-05 -0.0005300419 1.580723e-05 8.4811845e-06 -0.00058967475
3.1738782e-05 0.0008278813 0.0 -0.00029119317 -0.0003258908 -5.300429e-05 -9.298191e-05 2.3410187e-06
3.9240815e-05 2.5204845e-06
00000000: 0000 0000 a540 173a e3eb 48b7 1075 b8b8
00000010: 3fc5 76b9 66e5 8734 4610 1339 a296 61b9
00000020: 0ad7 6739 c3de 96b7 2737 d1b8 0594 1339
00000030: 5ecb 98b8 caf3 2dba e391 fdb9 0333 693a
00000040: 3a19 b638 3082 793a 4ed6 71b8 461d feb8
00000050: d273 90b7 7033 523a 6597 0d3a 88da 21b9
00000060: 584b c1b5 ce78 5d39 fac4 7b3a 1095 d6b9
00000070: c0c7 5eba d7ba 4238 2d8a 74ba b0f4 ec38
00000080: 52c0 f539 667c 46b9 2ec2 32b8 8132 ab38
00000090: 83f2 0aba c599 8437 694a 0e37 6794 1aba
000000a0: 421f 0538 2c06 593a 0000 0000 49ab 98b9
000000b0: 53dc aab9 ec50 5eb8 48ff c2b8 651a 1d36
000000c0: 8196 2438 9825 2936

density_estimator_head.weight f4 [50, 11]
0.018639095 -0.0029940894 0.007803268 -0.0011402622 0.0016946039 0.017856207 0.005795587 0.0017123607
0.011109956 0.008796433 -0.009133848 -0.01760627 -0.014483889 0.01790582 0.017281815 -0.00104248
0.003169226 -0.0017951655 0.0017717683 0.00878389 -0.0024942856 -0.004279006 -0.00024167946 0.0015194961
0.0021760787 0.003138561 0.0015672466 -0.008821457 -0.017983528 0.00563068 0.0062926575 0.00020251695
0.0035020174 -0.008273686 -0.015821727 -0.0068744333 0.00044656775 0.017341014 -0.004028053 0.009038937
0.0040675374 -0.011121102 0.010517755 -0.014266521 -0.0060340455 0.0013043865 -0.008840424 -0.018649247
0.011582937 0.008570578 0.01086022 0.013348693 -0.006272756 -0.01571285 -0.018124856 0.0030895537
-0.013336181 0.004366646 0.0037251501 -0.03189818 -0.009302301 -0.0006522889 -0.009767374 0.0076196264
-0.0105732335 0.008370529 -0.0004699049 -0.0019019315 0.016465455 0.0055879946 0.0075191455 0.010630424
-0.009587803 0.001286315 0.002247619 0.0044348366 0.020819364 0.01215105 0.013010394 -0.0049103303
0.0038661377 0.0021427562 0.010995161 0.0064868922 -0.013086176 0.0018887144 0.0021155528 0.0070622223
0.006652758 -0.0054747923 0.0076243337 0.024151634 0.0028855796 -0.0024559216 0.0047807777 -0.007159428
-0.0015969395 0.01755013 -0.005483921 0.0035405634 -0.00435191 -6.1962787e-06 -0.0009864923 -0.006120187
0.013530205 0.016746232 -0.0013685666 -0.00811293 -0.014676768 -0.0041754283 -0.008778442 0.007880733
-0.005226738 -0.013946529 -0.0010256227 -0.0076685753 0.0029131838 0.00034404357 -0.001257486 -0.010541931
-0.000488595 -0.0033212574 -0.00235667 0.0013787474 -0.005911037 0.011644331 -0.018199373 -0.0022261676
-0.0056907986 0.004389325 0.0013102267 0.003960663 0.007630047 0.006063257 0.012770556 -0.00074811524
0.0027363747 0.0075937384 0.004646708 0.010400535 0.014500721 -0.02096253 0.018770639 0.013871631
-0.0018190583 0.000497462 0.006407872 0.015465917 0.011210282 -0.002838404 -0.0056236135 0.008110857
-0.011483113 -0.0041442923 -0.00026690846 0.00037572387 0.019617364 0.0062371003 0.0114119295 -0.013602073
-0.008039455 -0.0023140516 0.0037198607 -0.0003437525 -0.01308748 -0.009781407 -0.015884712 0.0019888727
-0.0009350538 0.0015452045 -0.0014111097 0.010262102 -0.013478064 0.004180293 0.0034969668 0.006226633
-0.003638758 -0.004850744 -0.00035260498 -0.013799032 -0.009143803 0.015405813 -0.0010348619 0.01340626
-0.008329729 0.003521254 0.007423377 -0.004235398 0.0018519819 0.001735507 -0.013663974 0.0051433453
-0.0027348252 -0.0006598301 -0.0028108805 -0.00616441 0.02221757 0.00991782 -0.012674664 -0.0016348267
0.0060249474 0.010030218 -0.0026355698 0.0007293561 0.0012581107 -0.0014349777 0.012578171 -0.006773959
-0.0149667375 0.005390756 0.011073761 -0.002355743 0.0042139147 -0.008655926 0.0017419816 0.004390759
-0.008324573 -0.010091657 -0.016006554 -0.007185038 0.0067631397 -0.009655018 0.011347807 -0.0046014544
0.021252258 -0.006577649 0.004538944 -0.018792544 -0.005823636 0.010177912 -0.00018963368 -0.006165043
-0.0036417714 0.007329187 0.01775542 0.012255049 -0.008872459 -0.016504113 0.006080463 0.005877579
0.008920608 0.007283644 -0.005178491 -0.0026495585 -0.018605024 -0.0059300666 -0.002847279 -0.0019195278
-0.026285918 0.010381212 0.0073202164 0.011286445 0.008769797 -0.0005531529 0.005631934 0.005965357
00000000: 04b1 983c 7c38 44bb 8eb2 ff3b da74 95ba
00000010: 791d de3a 2e47 923c e8e8 bd3b 4a71 e03a
00000020: 8806 363c ea1e 103c 23a6 15bc 063b 90bc
00000030: d54d 6dbc 3aaf 923c 9892 8d3c d3a3 88ba
00000040: cab2 4f3b c24b ebba ae3a e83a 4eea 0f3c
00000050: 2b77 23bb e736 8cbb 566b 7db9 d429 c73a
00000060: 8b9c 0e3b 51b0 4d3b 126c cd3a df87 10bc
00000070: 3152 93bc 9181 b83b a332 ce3b bb5a 5439
00000080: 1a82 653b 5b8e 07bc 919c 81bc ed42 e1bb
00000090: 4f21 ea39 be0e 8e3c c2fd 83bb 0d18 143c
000000a0: fa48 853b 4835 36bc a952 2c3c 20be 69bc
000000b0: 3eb9 c5bb f3f7 aa3a 6dd7 10bc 4ec6 98bc
000000c0: 5cc6 3d3c 9c6b 0c3c 10ef 313c 7ab4 5a3c
000000d0: b18b cdbb 3cb8 80bc 947a 94bc 1c7a 4a3b
000000e0: ff7f 5abc 1516 8f3b a621 743b aaa7 02bd
000000f0: ae68 18bc 5efe 2aba 5607 20bc 0fae f93b
00000100: 5b3b 2dbc 8b24 093c 915d f6b9 3b4a f9ba
00000110: 90e2 863c 7f1b b73b 2a63 f63b 3b2b 2e3c
00000120: 2916 1dbc 9299 a83a ca4c 133b 1b52 913b
00000130: 5f8d aa3c 3315 473c 8c29 553c d6e6 a0bb
00000140: 075f 7d3b 7c6d 0c3b 0c25 343c ff8f d43b
00000150: 6667 56bc bd8e f73a 16a5 0a3b 376a e73b
00000160: 61ff d93b e365 b3bb 8cd5 f93b a6d9 c53c
00000170: fe1b 3d3b 87f3 20bb 12a8 9c3b a399 eabb
00000180: 6650 d1ba 4ac5 8f3c 77b2 b3bb cc08 683b
00000190: 789a 8ebb a1e9 cfb6 304d 81ba da8b c8bb
000001a0: cbad 5d3c 652f 893c 7a61 b3ba 18ec 04bc
000001b0: d476 70bc 08d2 88bb 74d3 0fbc 311e 013c
000001c0: 0e45 abbb fb7f 64bc 306e 86ba ac48 fbbb
000001d0: 1deb 3e3b bf60 b439 3ad2 a4ba 10b8 2cbc
000001e0: 0e15 00ba 74a9 59bb 5d72 1abb 16b7 b43a
000001f0: 5fb1 c1bb ddc7 3e3c da16 95bc e5e4 11bb
00000200: e179 babb 54d4 8f3b eabb ab3a 73c8 813b
00000210: 7905 fa3b 49ae c63b 983b 513c 2a1d 44ba
00000220: c054 333b e5d4 f83b 6943 983b 0167 2a3c
00000230: 6f94 6d3c 9db9 abbc e2c4 993c d645 633c
00000240: 786d eeba 1c68 023a 20f9 d13b c264 7d3c
00000250: 55ab 373c 8404 3abb 4a46 b8bb 66e3 043c
00000260: ab23 3cbc d8cc 87bb d9ef 8bb9 cefc c439
00000270: 98b4 a03c 9760 cc3b 1af9 3a3c 3bdb 5ebc
00000280: ebb7 03bc 58a7 17bb e8c8 733b ae39 b4b9
00000290: df6c 56bc 3242 20bc a820 82bc bf57 023b
000002a0: 661e 75ba 7688 ca3a fcf4 b8ba 6022 283c
000002b0: 19d3 5cbc d7fa 883b 5e2d 653b c908 cc3b
000002c0: 3b78 6ebb fdf2 9ebb d7dd b8b9 5615 62bc
000002d0: e4cf 15bc aa68 7c3c 34a4 87ba eea5 5b3c
000002e0: 6a79 08bc d7c4 663b cd3f f33b 18c9 8abb
000002f0: 33be f23a f479 e33a dcde 5fbc 8289 a83b
00000300: c13a 33bb 73f8 2cba c036 38bb d2fe c9bb
00000310: 9f01 b63c 5a7e 223c 65a9 4fbc ae47 d6ba
00000320: ec6c c53b c955 243c 86b9 2cbb 4232 3f3a
00000330: 31e7 a43a dd15 bcba ac14 4e3c 16f8 ddbb
00000340: 0c37 75bc f0a4 b03b b86e 353c cf62 1abb
00000350: e114 8a3b 96d1 0dbc 3453 e43a 5be0 8f3b
00000360: ca63 08bc 7a57 25bc 2d20 83bc 7870 ebbb
00000370: 549d dd3b 1530 1ebc 27ec 393c ccc7 96bb
00000380: 3719 ae3c 5289 d7bb 6cbb 943b d2f2 99bc
00000390: 33d4 bebb 42c1 263c 67d8 46b9 2104 cabb
000003a0: c9aa 6ebb ad29 f03b d173 913c 67c9 483c
000003b0: ca5d 11bc a233 87bc 9f3e c73b b598 c03b
000003c0: be27 123c a2ab ee3b 55b0 a9bb 37a4 2dbb
000003d0: 9069 98bc 0151 c2bb 6a99 3abb aa98 fbba
000003e0: 9155 d7bc f615 2a3c 6dde ef3b c8ea 383c
000003f0: 32af 0f3c 7601 11ba 168c b83b 0b79 c33b

density_estimator_head.bias f4 [11]
-0.032572083 -0.020256247 -0.012290859 0.0021517896 -4.027212e-06 -0.0031152335 -0.00442855 0.0008882525
0.010568093 0.030452339 0.028606528
00000000: 4e6a 05bd 6ef0 a5bc 995f 49bc 0a05 0d3b
00000010: 7d21 87b6 f228 4cbb 5f1d 91bb 9ed9 683a
00000020: cb25 2d3c 2f77 f93c 3d58 ea3c

Q1.0.weight f4 [50, 50, 5]
0.59448725 -0.08815109 -3.13962 -0.71208215 -0.94678086 0.8493362 0.4044964 0.40173382
-0.84322083 -0.71991354 1.3713692 0.59703505 -1.5309575 0.336644 -0.20438229 -1.2179366
-0.13628662 0.5423604 0.9729963 0.34871793 0.374778 -0.028122725 0.7669302 0.2762733
-0.6077168 1.5867949 0.69458103 0.37171426 -1.0597256 0.8627649 1.1770139 -0.24268213
-0.6942066 0.9082765 -1.2658172 0.33438918 2.375706 -1.1801436 -0.44427964 -0.56677157
0.74305016 0.57793117 0.4529973 1.1239171 -1.1482569 0.68643147 0.015623942 1.1050324
0.08432578 -1.9766514 -1.2087183 0.5477198 1.7297729 -0.5276837 0.86518353 0.83809996
0.9379476 -0.004212814 -0.123117596 -0.14223036 -0.78282833 1.5004224 -2.051808 -0.8556725
0.5959185 -1.7434075 -0.9998735 1.3242888 0.7087986 -0.29499522 0.73811376 -0.41994774
-1.3987567 -0.33867058 -0.39641002 -0.12786697 1.3817561 -0.63728786 -0.87902766 0.41489768
-0.18303727 -1.9027665 0.09486747 0.16216376 0.21920072 -1.2814941 1.7639103 0.17790183
-2.1341193 0.4532117 -0.76697004 -1.7935495 1.1152135 -0.41071105 0.618875 0.42223558
-0.019030787 0.3787532 0.33502147 -1.1775715 0.37148046 0.84001327 -0.0713477 1.0563221
0.66336703 2.3183563 0.015386834 -0.44829646 -1.1890076 1.0825287 -1.2555548 0.12175162
1.0601358 -0.21973816 0.89114666 -0.75788206 -1.0949678 -0.35796082 0.95591956 0.52326035
-0.7884278 -0.6707135 -0.43566272 0.004314371 1.2647241 0.09784679 -0.25141773 -1.3238533
0.60246986 0.3211252 0.97693384 -0.4769164 -0.9518291 0.91278064 1.1478605 0.866091
-0.40372732 0.87970793 0.60185206 -0.28143543 -1.4264462 -0.95161796 0.9004103 0.805131
0.5746048 0.11790966 0.03792932 1.1523038 -0.05343978 0.937824 -2.2843788 1.0189124
-0.10848357 -0.082579285 0.84915817 2.8325005 0.260667 -1.3537298 -0.6894508 -2.0223432
0.75800914 0.60637397 0.3891374 0.621981 0.013018291 -0.9392863 0.027915083 -0.66131055
-0.64409006 -0.8669088 -1.042949 1.201095 0.7171176 -0.7597927 -0.74818045 -1.0049157
-1.061778 -0.43874547 0.09195805 -0.20495287 0.8140838 0.6610963 0.7369224 -1.1669616
0.19489072 -0.7237425 -1.8800212 0.7412846 -0.38781014 0.7235066 -1.0609541 0.56382287
1.3177067 0.8816777 0.42731202 1.5006092 0.49813277 1.5741718 1.5031573 1.0245936
-1.095738 0.086630054 -1.8706399 0.5064306 0.1616304 -0.29361692 1.039325 -1.4292686
1.0476019 0.67657346 -2.1806657 0.0028548345 0.19964959 -0.057681173 -0.7249183 -0.8550758
-0.07302317 2.1389177 0.6925258 0.76933545 -1.7322527 0.8064773 -0.5153681 1.1121339
0.50010157 0.18065389 1.5824527 -0.55043215 -0.47001538 -0.44381633 0.5535404 -0.06569898
-0.58367354 0.23945099 -0.106617354 1.791353 -1.0891962 -0.24364066 0.65822023 -0.79754424
1.0789598 0.8768678 -1.5762599 1.0399169 0.8570114 -1.1111228 0.78688484 -0.34678334
0.6010012 -2.0435255 0.7352907 -2.0885637 -0.060923375 -1.468004 0.603322 0.56649137
00000000: 5130 183f 8f88 b4bd 89ef 48c0 044b 36bf
00000010: 3b60 72bf 196e 593f 271a cf3e 0eb0 cd3e
00000020: 52dd 57bf 414c 38bf 0789 af3f 4ad7 183f
00000030: 6af6 c3bf 9a5c ac3e 9749 51be 59e5 9bbf
00000040: b88e 0bbe 22d8 0a3f 4916 793f 288b b23e
00000050: e7e2 bf3e a161 e6bc 8a55 443f b273 8d3e
00000060: 5493 1bbf 181c cb3f 10d0 313f 5551 be3e
00000070: 17a5 87bf 29de 5c3f 64a8 963f aa81 78be
00000080: 86b7 31bf cf84 683f 4c06 a2bf 0f35 ab3e
00000090: 910b 1840 f20e 97bf 9f78 e3be f117 11bf
000000a0: 8938 3e3f 4cf3 133f 43ef e73e 84dc 8f3f
000000b0: 15fa 92bf f9b9 2f3f 90fb 7f3c b471 8d3f
000000c0: ffb2 ac3d ea02 fdbf 48b7 9abf 5d37 0c3f
000000d0: 3369 dd3f 4716 07bf ab7c 5d3f b88d 563f
000000e0: 551d 703f a50b 8abb 1425 fcbd d6a4 11be
000000f0: 7067 48bf d70d c03f d350 03c0 5a0d 5bbf
00000100: 1d8e 183f fa27 dfbf b6f7 7fbf 4c82 a93f
00000110: d373 353f 9d09 97be 06f5 3c3f 6403 d7be
00000120: 760a b3bf 3b66 adbe 41f6 cabe 8fef 02be
00000130: 62dd b03f 4c25 23bf f507 61bf 786d d43e
00000140: 1f6e 3bbe da8d f3bf e049 c23d 420e 263e
00000150: 2776 603e 0008 a4bf d0c7 e13f e62b 363e
00000160: 6995 08c0 5d0b e83e 2658 44bf 0893 e5bf
00000170: 51bf 8e3f b848 d2be 986e 1e3f 432f d83e
00000180: 74e6 9bbc f0eb c13e ef87 ab3e aaba 96bf
00000190: b032 be3e 1c0b 573f be1e 92bd 9035 873f
000001a0: 6cd2 293f f35f 1440 0f19 7c3c 1d87 e5be
000001b0: 6731 98bf 4d90 8a3f 05b6 a0bf ea58 f93d
000001c0: 88b2 873f 0a03 61be 3022 643f 8f04 42bf
000001d0: e827 8cbf a446 b7be 25b7 743f 64f4 053f
000001e0: 68d6 49bf e1b3 2bbf 2f0f dfbe 915f 8d3b
000001f0: 7be2 a13f e663 c83d d3b9 80be 0674 a9bf
00000200: 773b 1a3f 866a a43e 5618 7a3f 632e f4be
00000210: 12ab 73bf feab 693f 18ed 923f 24b8 5d3f
00000220: 59b5 cebe 8a34 613f fa12 1a3f 4e18 90be
00000230: ca95 b6bf 3c9d 73bf 4a81 663f 111d 4e3f
00000240: 4d19 133f 9f7a f13d c65b 1b3d b17e 933f
00000250: ace3 5abd 3c15 703f 4333 12c0 b96b 823f
00000260: a22c debd 541f a9bd 6e62 593f b047 3540
00000270: 2576 853e 0547 adbf d97f 30bf 126e 01c0
00000280: e30c 423f 533b 1b3f 043d c73e 263a 1f3f
00000290: ac4a 553c 1175 70bf 2cae e43c a64b 29bf
000002a0: 16e3 24bf bced 5dbf 5a7f 85bf 7bbd 993f
000002b0: 0595 373f c681 42bf c188 3fbf 14a1 80bf
000002c0: 57e8 87bf 3fa3 e0be 8154 bc3d 2adf 51be
000002d0: cc67 503f 9b3d 293f f2a6 3c3f ff5e 95bf
000002e0: 6f91 473e 3047 39bf 89a4 f0bf d4c4 3d3f
000002f0: 0d8f c6be bb37 393f 58cd 87bf b256 103f
00000300: 9daa a83f a1b5 613f a4c8 da3e f613 c03f
00000310: 420b ff3e 767e c93f 7567 c03f e225 833f
00000320: 2541 8cbf 196b b13d 2171 efbf 70a5 013f
00000330: 7182 253e f554 96be 9a08 853f 46f2 b6bf
00000340: d217 863f eb33 2d3f 0790 0bc0 2d18 3b3b
00000350: f170 4c3e 1843 6cbd 3f94 39bf 3fe6 5abf
00000360: 2c8d 95bd 07e4 0840 5f49 313f 2bf3 443f
00000370: 75ba ddbf 4c75 4e3f 2aef 03bf 675a 8e3f
00000380: a806 003f 55fd 383e cf8d ca3f 1fe9 0cbf
00000390: dba5 f0be e53b e3be d3b4 0d3f 308d 86bd
000003a0: a16b 15bf a432 753e 335a dabd 0e4b e53f
000003b0: c86a 8bbf f07c 79be 1f81 283f dc2b 4cbf
000003c0: 5b1b 8a3f 687a 603f e2c2 c9bf ff1b 853f
000003d0: 1965 5b3f 4639 8ebf 4971 493f 968d b1be
000003e0: 37db 193f 1fc9 02c0 033c 3c3f 07ab 05c0
000003f0: ca8a 79bd 8ee7 bbbf 5073 1a3f 9405 113f

Q1.0.bias f4 [50, 5]
-0.00063304004 -0.00023284709 -0.0005827258 -0.00038271514 -4.46623e-05 0.038331345 0.025101105 0.022035679
0.008669901 0.0006859482 0.0 0.0 0.0 0.0 0.0 -0.0039759073
-0.0031662108 -0.0027582566 -0.0010902927 -0.0002104446 0.015263543 0.008300114 0.007774569 0.0033532458
0.00030654826 0.011570895 0.008855588 0.0065025245 0.0019069362 -0.00013574185 -0.008313901 -0.005481365
-0.004033441 -0.0012929413 -0.00011719942 -0.002153335 -1.3145425e-05 -9.9013785e-05 -0.0001498102 -3.3234056e-07
-0.00067170797 -0.000116281575 3.3108783e-05 4.486165e-05 1.1126614e-05 -0.0001928784 -6.060738e-05 -2.9572244e-05
-8.182916e-06 -1.8429836e-06 1.803669e-05 -0.0005669857 -0.0007143282 -0.00030665693 -3.98909e-05 -0.0025762243
-0.0023443664 -0.0021699304 -0.00090273516 -0.00019178262 0.032065004 0.025735203 0.02126251 0.007579237
0.00053040916 -0.004924953 -0.0026891676 -0.0019305549 -0.00066487025 -0.00013145253 -0.004337548 -0.00040035302
6.7639535e-06 -8.403282e-07 -4.519934e-08 0.02572871 0.024075245 0.019583624 0.006706791 0.0004787865
-0.0021830786 -0.000912916 -0.000548198 -0.00015892122 -3.7221573e-05 -0.00015899695 -1.682145e-05 -2.5983231e-06
0.0 0.0 -5.2481846e-05 -8.1220365e-05 -9.731785e-05 -4.9565955e-05 -1.5965168e-05 0.009245146
0.010809539 0.008341245 0.0025549154 0.000111632704 0.020596748 0.010533087 0.0096363425 0.0041126907
0.00036057967 -0.0021446364 -0.0015888249 -0.0012308937 -0.00041408822 -2.225248e-05 0.04224618 0.030290287
0.026097374 0.009951538 0.0008209923 -0.0009140565 -0.00065408845 -0.00040936735 -9.639388e-05 1.3063241e-05
-8.131672e-05 -8.052349e-05 -7.9728256e-05 -3.54369e-05 -8.869162e-06 -0.0051258877 -0.0033287618 -0.002685999
-0.0010093348 -0.00018063838 -0.0059568305 -0.004970756 -0.0043481262 -0.0017109944 -0.0003189573 -0.0040101036
-0.0037504777 -0.0035124412 -0.001474371 -0.00030939557 0.00040984104 0.0009933857 0.001122536 0.0005128161
5.9950304e-05 0.043577366 0.029080195 0.024323981 0.00908174 0.00071787107 0.0072975634 0.0024886767
0.0020948509 0.0009082771 6.0341583e-05 -0.0001135257 -0.00012598762 2.2509543e-05 0.0001195985 0.00018340931
-0.0026276803 -0.0026236163 -0.0027322012 -0.0012480959 -0.00024576124 -0.004266671 -0.0034740036 -0.0029719034
-0.0011412721 -0.00020371814 0.015309361 0.006216426 0.00625687 0.0026818898 -0.00061594223 -0.0008392636
-0.00077917275 -0.00072643097 -0.00030360385 -6.3311796e-05 -0.00022038218 -0.00056988664 -0.0006787472 -0.0003059458
-5.695505e-05 0.0 0.0 0.0 0.0 0.0 -0.008156269 -0.0049668914
-0.0035896658 -0.0011690281 -0.00016294817 -0.0024467446 -0.001744281 -0.0014487205 -0.0005567133 -0.000105495215
0.016539183 0.010988641 0.008930867 0.0032280737 0.00024838804 0.0012378683 0.000410505 -0.00037925714
-0.00043786655 -0.00014116414 -0.0020053938 -0.0016999725 -0.0014977275 -0.0005937824 -0.000114756534 0.0045912787
0.00054663693 0.00036651778 0.00018705294 -7.146734e-05 -0.004346734 -0.003907486 -0.0036553247 -0.0015276172
-0.00028359616 0.0049056704 0.0006668725 0.0004759828 0.00028309535 2.180407e-05 0.04534571 0.033938102
0.028476639 0.010458412 0.00078251376 -0.0043049096 -0.0043488704 -0.0042177285 -0.0018162482 -0.00035804528
-0.0048066764 -0.0046367384 -0.004221405 -0.0017040911 -0.0003269397 -8.3090825e-05 -0.00020763339 -0.00028125313
-0.00013456139 -3.3678964e-05
00000000: 99f2 25ba 6a28 74b9 11c2 18ba 28a7 c8b9
00000010: c853 3bb8 5401 1d3d d5a0 cd3c 2b84 b43c
00000020: 330c 0e3c 34d1 333a 0000 0000 0000 0000
00000030: 0000 0000 0000 0000 0000 0000 5448 82bb
00000040: 3480 4fbb dec3 34bb 27e8 8eba cbaa 5cb9
00000050: f113 7a3c 34fd 073c d0c1 fe3b 21c2 5b3b
00000060: 36b8 a039 da93 3d3c 0717 113c 2113 d53b
00000070: 29f2 f93a ed55 0eb9 0737 08bc 069d b3bb
00000080: f52a 84bb e977 a9ba f6c8 f5b8 f71e 0dbb
00000090: 2c8b 5cb7 9fa5 cfb8 5f16 1db9 8a6c b2b4
000000a0: 8f15 30ba 32dc f3b8 49de 0a38 d429 3c38
000000b0: 71ac 3a37 673f 4ab9 ae34 7eb8 e911 f8b7
000000c0: 5b49 09b7 6f5c f7b5 7f4d 9737 c4a1 14ba
000000d0: c141 3bba ccc6 a0b9 8750 27b8 dfd5 28bb
000000e0: f1a3 19bb 6435 0ebb 88a5 6cba 4119 49b9
000000f0: 9856 033d a2d2 d23c b72e ae3c 405b f83b
00000100: 280b 0b3a 8061 a1bb bf3c 30bb ac0a fdba
00000110: b04a 2eba 85d6 09b9 fd21 8ebb 79e6 d1b9
00000120: ebf5 e236 ea92 61b5 3321 42b3 04c5 d23c
00000130: 7339 c53c d66d a03c a4c4 db3b a305 fb39
00000140: fb11 0fbb c150 6fba f2b4 0fba 17a4 26b9
00000150: 5c1e 1cb8 6bb8 26b9 ca1b 8db7 da5e 2eb6
00000160: 0000 0000 0000 0000 f41f 5cb8 da54 aab8
00000170: 1f17 ccb8 0ae5 4fb8 f0ec 85b7 f478 173c
00000180: 7e1a 313c b8a9 083c 5e70 273b 5a1c ea38
00000190: 83ba a83c f892 2c3c c0e1 1d3c c0c3 863b
000001a0: 2f0c bd39 078d 0cbb 1e40 d0ba f055 a1ba
000001b0: fb19 d9b9 d6aa bab7 550a 2d3d 5623 f83c
000001c0: 29ca d53c c70b 233c dc37 573a 4b9d 6fba
000001d0: 2277 2bba 5ba0 d6b9 1227 cab8 312a 5b37
000001e0: 9588 aab8 b8de a8b8 c833 a7b8 15a2 14b8
000001f0: c3cc 14b7 10f7 a7bb 5b27 5abb 9607 30bb
00000200: a84b 84ba bf69 3db9 8431 c3bb b9e1 a2bb
00000210: ba7a 8ebb 7243 e0ba b939 a7b9 3067 83bb
00000220: 93ca 75bb fc30 66bb ae3f c1ba 5f36 a2b9
00000230: efdf d639 7e34 823a 0f22 933a 826e 063a
00000240: 2673 7b38 2e7e 323d 9739 ee3c 1643 c73c
00000250: 94cb 143c 832f 3c3a 6620 ef3b 1119 233b
00000260: c449 093b 7219 6e3a 4817 7d38 a514 eeb8
00000270: 8b1b 04b9 e0d2 bc37 f5d0 fa38 9051 4039
00000280: 2935 2cbb faf0 2bbb bb0e 33bb 2697 a3ba
00000290: 84d9 80b9 6ecf 8bbb 1cac 63bb 44c4 42bb
000002a0: bd96 95ba 2c9d 55b9 1dd4 7a3c 29b3 cb3b
000002b0: 6e06 cd3b a5c2 2f3b 2f77 21ba 0702 5cba
000002c0: 6641 4cba f56d 3eba 052d 9fb9 43c6 84b8
000002d0: 6416 67b9 7264 15ba f4ed 31ba 5a67 a0b9
000002e0: 05e3 6eb8 0000 0000 0000 0000 0000 0000
000002f0: 0000 0000 0000 0000 dfa1 05bc 4ec1 a2bb
00000300: 9940 6bbb 133a 99ba 11dd 2ab9 9059 20bb
00000310: 5ca0 e4ba fee2 bdba 66f0 11ba 503d ddb8
00000320: 2e7d 873c b309 343c c552 123c 178e 533b
00000330: 143a 8239 f83f a23a 0c39 d739 08d7 c6b9
00000340: 7491 e5b9 7605 14b9 ed6c 03bb 9dd1 deba
00000350: 654f c4ba 10a8 1bba 72a9 f0b8 7072 963b
00000360: 2f4c 0f3a 2f29 c039 a423 4439 bce0 95b8
00000370: 0c6f 8ebb 5e0a 80bb 2c8e 6fbb 543a c8ba
00000380: a2af 94b9 bfbf a03b 0ed1 2e3a 548d f939
00000390: 6a6c 9439 e2e7 b637 6cbc 393d ae02 0b3d
000003a0: d747 e93c c259 2b3c 9c21 4d3a 3310 8dbb
000003b0: f880 8ebb df34 8abb 2d0f eeba 06b8 bbb9
000003c0: 5381 9dbb c8ef 97bb b653 8abb cf5b dfba
000003d0: 1b69 abb9 0c41 aeb8 2ab8 59b9 2875 93b9
000003e0: 0c19 0db9 8342 0db8

Q1.1.weight f4 [50, 1, 5]
0.6529697 -0.45131847 -0.59287196 1.1461209 -1.052417 -1.5730503 -0.9553365 0.79647785
-0.34439433 1.3638276 -1.6652125 -0.17571384 -1.2298735 1.1458464 0.92518 1.0021132
-0.8173349 0.67881274 1.418264 0.36668602 -0.87946063 -1.3882588 2.15126 -0.27413267
0.34256092 -0.047058363 0.3756098 -1.0707172 -2.0330815 0.42545515 1.8225646 -1.5518168
0.07358181 -0.2256421 0.8045815 0.624991 -0.299822 -0.74695796 1.2347357 -0.5796728
0.61868286 -0.8388258 0.35693505 -0.7913284 -0.12154388 0.5577517 1.0007067 -0.7596989
-1.4872262 -1.1158471 1.0301244 -0.6123802 -0.81227976 0.90486056 -2.3067515 0.1404151
0.8328408 0.21678905 -0.11572764 1.4128096 -0.27563193 -0.2061363 -1.5479914 -1.1258408
0.6441348 0.15201028 -0.22227055 1.2110702 0.67118424 -0.5999751 0.72262925 -0.44333452
-1.1083585 -1.1693649 1.282446 0.44181207 -0.42635408 -2.0632765 -0.59079623 -2.4728258
1.7088025 -0.36207744 0.7172537 0.4651883 -0.13311927 0.24897332 -0.74511385 0.9706084
0.91096276 -0.7553452 -0.3244884 1.0984981 -0.87914973 -0.5734504 1.4632232 0.5688077
0.3035319 -2.1877174 -0.11668893 -0.10549666 -1.3509835 -0.4321061 1.2956997 0.18621346
-0.7259613 0.05852042 0.6619043 -0.90202206 0.87365216 -0.06486368 -1.1000715 -1.3141291
-0.070615895 0.8317624 -0.027453044 -0.6784593 -0.5762387 0.32993418 -0.456021 0.10272987
3.0278375 -2.441958 -0.1038091 0.5216497 -1.5192877 0.85533035 0.7790429 -0.19440159
0.68286616 -0.11174011 0.34119338 1.2436464 0.1808549 1.3581893 -0.026339676 -0.8781223
0.81744367 2.1606796 -0.17971472 0.06036299 1.617769 -0.0788588 1.004694 0.75736696
0.984064 -1.3589858 0.38578847 -0.6342282 -1.792858 -0.31861344 -0.68325025 0.7371771
0.13460347 -0.972033 0.2691727 0.005552007 0.5040571 -0.13472427 1.5437416 -0.7068387
0.58382124 -0.078913674 -0.044930965 1.1350371 1.1483742 0.49625835 1.5855188 0.18987857
-0.9694131 -0.4739524 -1.7662134 -1.7094417 0.2124064 2.2169259 -1.1303053 -0.24620402
0.6717864 1.5076684 -0.33565053 -0.08450721 0.21861114 -0.12930375 1.5808676 0.13244522
-0.55461425 -0.1854305 -0.9598924 -0.8352356 -0.108888924 -1.3945506 2.1004212 1.9040787
0.5320956 1.0720592 -0.48013204 0.15892766 1.155333 -0.6647961 0.8914787 -0.51367337
-0.5354495 1.2314724 -1.7768598 0.0711388 0.4576242 1.6047175 -2.3920474 -0.18992323
0.18892407 0.078578524 0.13585547 0.23192899 -0.10209206 1.0691518 1.6407403 -0.5434595
0.065379106 0.12052486 -1.5135832 -1.7024894 0.040739104 0.044396296 -0.114128105 1.8071073
0.10989977 -0.58284277 0.8841975 0.026071822 -1.2474447 1.5432304 -0.83062357 -0.76201683
-0.8493405 -1.21747 1.7871354 -0.07894681 0.85583615 0.5683785 -1.6881357 0.33640686
-0.9198587 1.6380281 0.29159427 -0.17957714 -0.82966924 0.67524797 0.116459556 -0.2879728
0.9423059 -0.65263754
00000000: 0629 273f 3713 e7be 75c6 17bf 17b4 923f
00000010: 9ab5 86bf b659 c9bf ef90 74bf f9e5 4b3f
00000020: 7454 b0be e791 ae3f af25 d5bf 54ee 33be
00000030: 7f6c 9dbf 18ab 923f 99d8 6c3f 3f45 803f
00000040: dc3c 51bf acc6 2d3f ad89 b53f 45be bb3e
00000050: 5524 61bf 77b2 b1bf 3eae 0940 1e5b 8cbe
00000060: 2564 af3e 45c0 40bd ed4f c03e 430d 89bf
00000070: 021e 02c0 42d5 d93e cc49 e93f efa1 c6bf
00000080: 0fb2 963d b90e 67be 0ef9 4d3f 69ff 1f3f
00000090: 4582 99be a338 3fbf d20b 9e3f 7065 14bf
000000a0: 0062 1e3f 4abd 56bf 31c0 b63e 7f94 4abf
000000b0: ffeb f8bd d1c8 0e3f 2817 803f a17b 42bf
000000c0: 6e5d bebf 14d4 8ebf 1edb 833f f3c4 1cbf
000000d0: 91f1 4fbf f1a4 673f d1a1 13c0 fac8 0f3e
000000e0: 0e35 553f f3fd 5d3e 9d02 edbd f2d6 b43f
000000f0: a11f 8dbe 6515 53be 9524 c6bf 8d1b 90bf
00000100: 05e6 243f 95a8 1b3e e49a 63be 5904 9b3f
00000110: bbd2 2b3f f897 19bf 3bfe 383f befc e2be
00000120: b1de 8dbf c0ad 95bf 3127 a43f 3135 e23e
00000130: 154b dabe b90c 04c0 6c3e 17bf c742 1ec0
00000140: 0aba da3f 3762 b9be f09d 373f 292d ee3e
00000150: 6b50 08be ddf2 7e3e c8bf 3ebf cb79 783f
00000160: db34 693f 4e5e 41bf 5823 a6be 969b 8c3f
00000170: f50f 61bf a5cd 12bf e64a bb3f 629d 113f
00000180: 8868 9b3e 9003 0cc0 9bfa eebd a20e d8bd
00000190: 07ed acbf 033d ddbe 7dd9 a53f beae 3e3e
000001a0: 9ad8 39bf 1cb3 6f3d 8f72 293f ebea 66bf
000001b0: aba7 5f3f 40d7 84bd 25cf 8cbf 6235 a8bf
000001c0: 119f 90bd 61ee 543f 35e5 e0bc 82af 2dbf
000001d0: 6184 13bf 22ed a83e 967b e9be 0a64 d23d
000001e0: 17c8 4140 0a49 1cc0 de99 d4bd d68a 053f
000001f0: 0578 c2bf eef6 5a3f 5b6f 473f 3611 47be
00000200: 51d0 2e3f 00d8 e4bd e6b0 ae3e ce2f 9f3f
00000210: 0732 393e 26d9 ad3f 4ec6 d7bc a0cc 60bf
00000220: fd43 513f 9348 0a40 2307 38be 2f3f 773d
00000230: 0e13 cf3f b980 a1bd d099 803f cde2 413f
00000240: 9eeb 7b3f 3ff3 adbf 1186 c53e c85c 22bf
00000250: 5f7c e5bf 4d21 a3be 7de9 2ebf a3b7 3c3f
00000260: 7ed5 093e 28d7 78bf 01d1 893e 9ced b53b
00000270: e309 013f 29f5 09be 5399 c53f 62f3 34bf
00000280: 4f75 153f 7e9d a1bd 8809 38bd e548 913f
00000290: edfd 923f 9315 fe3e 48f2 ca3f 876f 423e
000002a0: 752b 78bf e4a9 f2be 4813 e2bf fcce dabf
000002b0: 1081 593e 1de2 0d40 d8ad 90bf e81c 7cbe
000002c0: 32fa 2b3f 47fb c03f 63da abbe 1e12 adbd
000002d0: 99db 5f3e 3468 04be df59 ca3f b89f 073e
000002e0: 33fb 0dbf 7ee1 3dbe 82bb 75bf 00d2 55bf
000002f0: 2801 dfbd a280 b2bf 4d6d 0640 dab8 f33f
00000300: 6b37 083f 3c39 893f ded3 f5be efbd 223e
00000310: f4e1 933f 1430 2abf f337 643f 1980 03bf
00000320: 3813 09bf e3a0 9d3f 2470 e3bf 38b1 913d
00000330: b84d ea3e 6267 cd3f 4e17 19c0 3c7b 42be
00000340: 5075 413e c7ed a03d b21d 0b3e cb7e 6d3e
00000350: a415 d1bd f7d9 883f c703 d23f 2920 0bbf
00000360: 7be5 853d bdd5 f63d 18bd c1bf 2ceb d9bf
00000370: 0cde 263d e4d8 353d ffbb e9bd 4b4f e73f
00000380: 2113 e13d 2f35 15bf c45a 623f 9394 d53c
00000390: 45ac 9fbf 9388 c53f bfa3 54bf 8913 43bf
000003a0: 616e 59bf 0fd6 9bbf dac0 e43f ddae a1bd
000003b0: 1418 5b3f 4181 113f d514 d8bf 853d ac3e
000003c0: dc7b 6bbf e8aa d13f d84b 953e 12e3 37be
000003d0: 3465 54bf 0ddd 2c3f 5982 ee3d 2c71 93be
000003e0: f63a 713f 4113 27bf

Q1.1.bias f4 [1, 5]
-0.023672603 -0.014658201 -0.012615427 -0.0049196854 -0.00040837823
00000000: 0ced c1bc f328 70bc f0b0 4ebc 5035 a1bb
00000010: 991b d6b9
