CausalCVR/logs/simu3/eval/93/Vcnet_ckpt.pth.tar (torch, 123067 bytes, 16 tensors)

feature_weight.weight f4 [50, 8]
0.008443635 0.00923082 -0.00036207095 -0.02608851 -0.011097437 0.005164834 -0.013450913 0.008279665
-0.0027898334 -0.002610911 0.0114306975 -0.002381417 0.0013322639 0.0106255645 -0.00584152 -0.0073655564
0.000391304 -0.010444574 -0.004015001 0.011048212 -0.0015029209 -0.024674077 0.004227416 -0.027398366
0.0068467883 -0.0064319186 0.010668914 0.0038465909 0.0022824127 -0.0105684595 -0.0066855364 -0.026329331
0.010241114 0.0056586396 0.014094345 -0.01808851 -0.00615394 -0.007865203 0.011042252 -0.0048562353
-0.015529418 0.009170612 -0.013087134 0.00019826481 0.0071537956 0.005458728 0.006429444 0.0053150184
-0.017168092 0.0118304035 -0.005795885 0.010317421 0.00017121428 0.004272763 0.01373274 0.014009669
0.011420266 0.007822484 -0.009534146 0.00010776273 -0.013273094 -0.0028144703 0.003270268 -0.0030648683
-0.004405055 -0.00263825 -0.006648763 0.009268507 -0.0048656273 -0.0061395545 -0.021452442 0.01078724
0.009605153 0.0027403035 0.0034730176 -0.0014359028 -0.0020856897 0.031451646 0.0067747543 0.004163828
-0.013090158 0.005922654 0.011003902 0.0020500172 -0.00356758 0.017633595 0.01323254 -0.008426854
-0.011447659 -0.0063196565 -0.0062875887 -0.0019670557 -0.010620077 -0.002337034 -0.0012441424 -0.018861137
-0.011621563 0.017247323 0.0012968443 -0.009369189 -0.019907774 -0.0088716475 0.002632723 -0.00048393474
-0.012520861 -0.012050546 0.008908023 0.012280724 0.0020947244 0.008601822 -0.0048421454 -0.034299623
-0.007448294 0.0037837562 0.0038079817 0.014178873 0.004456938 -0.007900585 -0.016252313 0.015877988
-0.006234014 0.00018611585 0.023029827 0.00061928784 -0.0022764425 -0.001281519 -0.0023071223 0.0022549927
-0.0011637629 -0.0062823533 -0.0012031742 -0.0008515368 -0.0017892712 0.018114207 -0.010982479 -0.0082773175
0.007865617 0.007041342 -0.010815572 0.007012925 0.013158734 -0.0058762035 0.022971796 0.010631433
-0.0010047582 -0.011744489 0.0012248271 -0.00896961 0.011189468 0.0027922029 -0.011545004 -0.0047494713
0.0014837895 0.006777637 0.014214118 -0.009940159 -0.012997666 0.0074948333 -0.012899899 -0.02041149
-0.0017735967 0.004095369 0.016829459 0.0057344814 -0.018608723 0.009862505 0.015700918 -0.00613816
0.01703655 -0.01753157 -0.016355751 -0.023945615 -0.001956817 0.0061626374 0.008148068 0.0063295146
-0.0010844787 0.0058264937 0.006232985 0.008924253 -0.008864013 0.0062982207 -0.012425239 -0.0050238697
-0.011809843 -0.017937947 0.00921416 0.008747301 -0.016524656 -0.00556937 0.0068784673 0.0068063205
0.017924413 0.008178021 0.009563428 0.0014117389 -0.0068082367 -0.008501809 -0.01084648 -0.0031042926
0.0094568515 0.0007488161 0.0074957414 0.013955102 -0.0061076633 0.007125812 0.011682974 0.005341887
-0.0022889276 -0.013122298 0.01773783 0.010603517 0.008475252 -0.017937204 0.0038632688 -0.023721509
-0.0012997576 0.004007205 -0.006999074 -0.012613136 0.014546535 -0.006131151 0.0099139605 -0.009249921
0.0075785425 -0.010968833 0.022648707 0.0163759 -0.020947115 -0.0018720968 0.0022512856 0.009462649
0.0120213805 0.008634328 0.028236726 0.016810343 0.0036487258 -0.006339146 0.001585943 -0.010549748
-0.007886798 0.006289324 -0.009562725 -0.014993751 -0.0010898211 -0.008823539 0.004348464 0.0027982097
0.0019742649 -0.0017673876 -0.0057362374 -0.0007123469 -0.00034555412 0.0010500083 0.024914326 -0.0014025589
00000000: 2c57 0a3c de3c 173c 57d4 bdb9 92b7 d5bc
00000010: 06d2 35bc c53d a93b 3861 5cbc 6fa7 073c
00000020: a3d5 36bb d11b 2bbb d247 3b3c 8c11 1cbb
00000030: 5c9f ae3a d916 2e3c 396a bfbb c45a f1bb
00000040: ef27 cd39 b81f 2bbc 4590 83bb 8f03 353c
00000050: a8fd c4ba 4a21 cabc 2386 8a3b 8a72 e0bc
00000060: 065b e03b d8c2 d2bb abcc 2e3c 1617 7c3b
00000070: 8894 153b 5527 2dbc 5812 dbbb 9cb0 d7bc
00000080: 58ca 273c 1c6c b93b f8eb 663c 5b2e 94bc
00000090: fea6 c9bb 0ddd 00bc 90ea 343c 0e21 9fbb
000000a0: 1a6f 7ebc 5640 163c 6b6b 56bc 4ee5 4f39
000000b0: 636a ea3b 21df b23b 16ae d23b 9b29 ae3b
000000c0: 19a4 8cbc 4fd4 413c 68eb bdbb 660a 293c
000000d0: fc87 3339 8902 8c3b 49ff 603c d088 653c
000000e0: 111c 3b3c e029 003c 1b35 1cbc adfe e138
000000f0: 6477 59bc fa72 38bb fe51 563b f5db 48bb
00000100: 4858 90bb 7de6 2cbb dedd d9bb f0da 173c
00000110: d76f 9fbb 512e c9bb 08bd afbc f7bc 303c
00000120: ef5e 1d3c aa96 333b 919b 633b e734 bcba
00000130: 11b0 08bb 71d3 003d c2fe dd3b b970 883b
00000140: 1a78 56bc d312 c23b b649 343c 9559 063b
00000150: 0fce 69bb 5474 903c 4ccd 583c ca10 0abc
00000160: f68e 3bbc 1f15 cfbb 1e08 cebb b8e9 00bb
00000170: d5ff 2dbc ed28 19bb 7e12 a3ba ac82 9abc
00000180: 5e68 3ebc 424a 8d3c e0fa a93a 3a81 19bc
00000190: a115 a3bc 635a 11bc c389 2c3b 9fb8 fdb9
000001a0: 4c24 4dbc a76f 45bc f5f2 113c 1735 493c
000001b0: a547 093b a8ee 0c3c dcaa 9ebb c37d 0cbd
000001c0: d210 f4bb e5f8 773b 558f 793b 814e 683c
000001d0: 810b 923b 7571 01bc 9223 85bc 8e12 823c
000001e0: b346 ccbb 1828 4339 0ca9 bc3c b457 223a
000001f0: 5e30 15bb a4f8 a7ba 1733 17bb 80c8 133b
00000200: 6789 98ba 33dc cdbb d4b3 9dba ab39 5fba
00000210: fb85 eaba 3f64 943c dbef 33bc 969d 07bc
00000220: cade 003c 0fbb e63b cc33 31bc aecc e53b
00000230: bb97 573c 2b8d c0bb 592f bc3c 762f 2e3c
00000240: 17b2 83ba f56b 40bc 618a a03a 45f5 12bc
00000250: 0854 373c 64fd 363b 4227 3dbc 74a1 9bbb
00000260: b77b c23a f116 de3b 55e2 683c 0cdc 22bc
00000270: 2af4 54bc 3897 f53b 195a 53bc ff35 a7bc
00000280: 0878 e8ba 7232 863b efdd 893c 51e8 bb3b
00000290: 5271 98bc 5896 213c 369f 803c 9e22 c9bb
000002a0: 3c90 8b3c 5e9e 8fbc 7ffc 85bc 9829 c4bc
000002b0: f13d 00bb f3ef c93b 797f 053c d167 cf3b
000002c0: 1125 8eba 2cec be3b 113e cc3b 0837 123c
000002d0: 5d3a 11bc 4e61 ce3b 3b93 4bbc 469f a4bb
000002e0: 127e 41bc 9af2 92bc fdf6 163c d750 0f3c
000002f0: b75e 87bc 437f b6bb c464 e13b 8e07 df3b
00000300: 38d6 923c 1bfd 053c edaf 1c3c 190a b93a
00000310: a117 dfbb 2c4b 0bbc 6fb5 31bc 6371 4bbb
00000320: e9f0 1a3c 334c 443a d69e f53b f1a3 643c
00000330: cb22 c8bb a57f e93b f269 3f3c ff0a af3b
00000340: d501 16bb e8fe 56bc ed4e 913c 60ba 2d3c
00000350: c9db 0a3c 0bf1 92bc e52e 7d3b 9c53 c2bc
00000360: a15c aaba df4e 833b 7d58 e5bb 54a7 4ebc
00000370: 9754 6e3c d3e7 c8bb 2a6e 223c fb8c 17bc
00000380: 6c55 f83b 9fb6 33bc c889 b93c c026 863c
00000390: 4999 abbc 2561 f5ba 4e8a 133b 3a09 1b3c
000003a0: 53f5 443c ff76 0d3c b550 e73c d8b5 893c
000003b0: 761f 6f3b 9cb8 cfbb 6bdf cf3a dad8 2cbc
000003c0: a137 01bc ac16 ce3b faac 1cbc 5aa8 75bc
000003d0: 54d8 8eba 9b90 10bc 8f7d 8e3b 2b62 373b
000003e0: ab62 013b b0a7 e7ba 0cf7 bbbb cbbc 3aba
000003f0: 7d2b b5b9 6fa0 893a 2119 cc3c 11d6 b7ba

feature_weight.bias f4 [50]
2.600735e-06 1.1109132e-05 -1.2985436e-07 -2.791579e-06 1.2349785e-06 -3.4701825e-05 -7.096371e-05 1.1955555e-05
1.2752726e-06 2.0445716e-05 -1.8163006e-05 0.0 -4.0082828e-06 -4.317402e-06 -1.6448505e-05 -1.5699916e-05
3.665791e-06 -8.504415e-05 1.5124118e-06 1.5885863e-07 4.5480618e-05 5.9676604e-06 -7.027535e-05 -8.923735e-06
-2.4989928e-05 -1.5029229e-05 4.702451e-06 6.5683007e-06 4.20188e-05 -9.204849e-06 1.68626e-08 2.51778e-06
6.2322414e-07 1.1631702e-05 -1.1581141e-05 1.8361154e-05 -3.4249902e-06 0.0 -2.5076746e-05 -2.5216417e-05
2.4469171e-05 -1.2861893e-06 3.2131568e-06 -2.5931922e-05 -1.7621354e-05 5.2660043e-06 1.1785125e-05 1.1840336e-05
1.019187e-05 2.8513157e-06
00000000: 4988 2e36 5c61 3a37 186e 0bb4 f656 3bb6
00000010: 8ac1 a535 cd8c 11b8 5ad2 94b8 b894 4837
00000020: 082a ab35 d782 ab37 c25c 98b7 0000 0000
00000030: e37e 86b6 33de 90b6 e5fa 89b7 50b3 83b7
00000040: cf01 7636 bb59 b2b8 13fe ca35 ba92 2a34
00000050: 71c2 3e38 d03d c836 cb60 93b8 26b7 15b7
00000060: 76a1 d1b7 0c26 7cb7 bfc9 9d36 4665 dc36
00000070: 583d 3038 876e 1ab7 40d9 9032 22f7 2836
00000080: a34b 2735 c825 4337 9f4c 42b7 4706 9a37
00000090: e2d8 65b6 0000 0000 e75b d2b7 d887 d3b7
000000a0: 2543 cd37 21a1 acb5 9da1 5736 6188 d9b7
000000b0: 92d1 93b7 a2b2 b036 bab8 4537 dba5 4637
000000c0: c0fd 2a37 3b59 3f36

hidden_features.0.weight f4 [50, 8]
0.008443635 0.00923082 -0.00036207095 -0.02608851 -0.011097437 0.005164834 -0.013450913 0.008279665
-0.0027898334 -0.002610911 0.0114306975 -0.002381417 0.0013322639 0.0106255645 -0.00584152 -0.0073655564
0.000391304 -0.010444574 -0.004015001 0.011048212 -0.0015029209 -0.024674077 0.004227416 -0.027398366
0.0068467883 -0.0064319186 0.010668914 0.0038465909 0.0022824127 -0.0105684595 -0.0066855364 -0.026329331
0.010241114 0.0056586396 0.014094345 -0.01808851 -0.00615394 -0.007865203 0.011042252 -0.0048562353
-0.015529418 0.009170612 -0.013087134 0.00019826481 0.0071537956 0.005458728 0.006429444 0.0053150184
-0.017168092 0.0118304035 -0.005795885 0.010317421 0.00017121428 0.004272763 0.01373274 0.014009669
0.011420266 0.007822484 -0.009534146 0.00010776273 -0.013273094 -0.0028144703 0.003270268 -0.0030648683
-0.004405055 -0.00263825 -0.006648763 0.009268507 -0.0048656273 -0.0061395545 -0.021452442 0.01078724
0.009605153 0.0027403035 0.0034730176 -0.0014359028 -0.0020856897 0.031451646 0.0067747543 0.004163828
-0.013090158 0.005922654 0.011003902 0.0020500172 -0.00356758 0.017633595 0.01323254 -0.008426854
-0.011447659 -0.0063196565 -0.0062875887 -0.0019670557 -0.010620077 -0.002337034 -0.0012441424 -0.018861137
-0.011621563 0.017247323 0.0012968443 -0.009369189 -0.019907774 -0.0088716475 0.002632723 -0.00048393474
-0.012520861 -0.012050546 0.008908023 0.012280724 0.0020947244 0.008601822 -0.0048421454 -0.034299623
-0.007448294 0.0037837562 0.0038079817 0.014178873 0.004456938 -0.007900585 -0.016252313 0.015877988
-0.006234014 0.00018611585 0.023029827 0.00061928784 -0.0022764425 -0.001281519 -0.0023071223 0.0022549927
-0.0011637629 -0.0062823533 -0.0012031742 -0.0008515368 -0.0017892712 0.018114207 -0.010982479 -0.0082773175
0.007865617 0.007041342 -0.010815572 0.007012925 0.013158734 -0.0058762035 0.022971796 0.010631433
-0.0010047582 -0.011744489 0.0012248271 -0.00896961 0.011189468 0.0027922029 -0.011545004 -0.0047494713
0.0014837895 0.006777637 0.014214118 -0.009940159 -0.012997666 0.0074948333 -0.012899899 -0.02041149
-0.0017735967 0.004095369 0.016829459 0.0057344814 -0.018608723 0.009862505 0.015700918 -0.00613816
0.01703655 -0.01753157 -0.016355751 -0.023945615 -0.001956817 0.0061626374 0.008148068 0.0063295146
-0.0010844787 0.0058264937 0.006232985 0.008924253 -0.008864013 0.0062982207 -0.012425239 -0.0050238697
-0.011809843 -0.017937947 0.00921416 0.008747301 -0.016524656 -0.00556937 0.0068784673 0.0068063205
0.017924413 0.008178021 0.009563428 0.0014117389 -0.0068082367 -0.008501809 -0.01084648 -0.0031042926
0.0094568515 0.0007488161 0.0074957414 0.013955102 -0.0061076633 0.007125812 0.011682974 0.005341887
-0.0022889276 -0.013122298 0.01773783 0.010603517 0.008475252 -0.017937204 0.0038632688 -0.023721509
-0.0012997576 0.004007205 -0.006999074 -0.012613136 0.014546535 -0.006131151 0.0099139605 -0.009249921
0.0075785425 -0.010968833 0.022648707 0.0163759 -0.020947115 -0.0018720968 0.0022512856 0.009462649
0.0120213805 0.008634328 0.028236726 0.016810343 0.0036487258 -0.006339146 0.001585943 -0.010549748
-0.007886798 0.006289324 -0.009562725 -0.014993751 -0.0010898211 -0.008823539 0.004348464 0.0027982097
0.0019742649 -0.0017673876 -0.0057362374 -0.0007123469 -0.00034555412 0.0010500083 0.024914326 -0.0014025589
00000000: 2c57 0a3c de3c 173c 57d4 bdb9 92b7 d5bc
00000010: 06d2 35bc c53d a93b 3861 5cbc 6fa7 073c
00000020: a3d5 36bb d11b 2bbb d247 3b3c 8c11 1cbb
00000030: 5c9f ae3a d916 2e3c 396a bfbb c45a f1bb
00000040: ef27 cd39 b81f 2bbc 4590 83bb 8f03 353c
00000050: a8fd c4ba 4a21 cabc 2386 8a3b 8a72 e0bc
00000060: 065b e03b d8c2 d2bb abcc 2e3c 1617 7c3b
00000070: 8894 153b 5527 2dbc 5812 dbbb 9cb0 d7bc
00000080: 58ca 273c 1c6c b93b f8eb 663c 5b2e 94bc
00000090: fea6 c9bb 0ddd 00bc 90ea 343c 0e21 9fbb
000000a0: 1a6f 7ebc 5640 163c 6b6b 56bc 4ee5 4f39
000000b0: 636a ea3b 21df b23b 16ae d23b 9b29 ae3b
000000c0: 19a4 8cbc 4fd4 413c 68eb bdbb 660a 293c
000000d0: fc87 3339 8902 8c3b 49ff 603c d088 653c
000000e0: 111c 3b3c e029 003c 1b35 1cbc adfe e138
000000f0: 6477 59bc fa72 38bb fe51 563b f5db 48bb
00000100: 4858 90bb 7de6 2cbb dedd d9bb f0da 173c
00000110: d76f 9fbb 512e c9bb 08bd afbc f7bc 303c
00000120: ef5e 1d3c aa96 333b 919b 633b e734 bcba
00000130: 11b0 08bb 71d3 003d c2fe dd3b b970 883b
00000140: 1a78 56bc d312 c23b b649 343c 9559 063b
00000150: 0fce 69bb 5474 903c 4ccd 583c ca10 0abc
00000160: f68e 3bbc 1f15 cfbb 1e08 cebb b8e9 00bb
00000170: d5ff 2dbc ed28 19bb 7e12 a3ba ac82 9abc
00000180: 5e68 3ebc 424a 8d3c e0fa a93a 3a81 19bc
00000190: a115 a3bc 635a 11bc c389 2c3b 9fb8 fdb9
000001a0: 4c24 4dbc a76f 45bc f5f2 113c 1735 493c
000001b0: a547 093b a8ee 0c3c dcaa 9ebb c37d 0cbd
000001c0: d210 f4bb e5f8 773b 558f 793b 814e 683c
000001d0: 810b 923b 7571 01bc 9223 85bc 8e12 823c
000001e0: b346 ccbb 1828 4339 0ca9 bc3c b457 223a
000001f0: 5e30 15bb a4f8 a7ba 1733 17bb 80c8 133b
00000200: 6789 98ba 33dc cdbb d4b3 9dba ab39 5fba
00000210: fb85 eaba 3f64 943c dbef 33bc 969d 07bc
00000220: cade 003c 0fbb e63b cc33 31bc aecc e53b
00000230: bb97 573c 2b8d c0bb 592f bc3c 762f 2e3c
00000240: 17b2 83ba f56b 40bc 618a a03a 45f5 12bc
00000250: 0854 373c 64fd 363b 4227 3dbc 74a1 9bbb
00000260: b77b c23a f116 de3b 55e2 683c 0cdc 22bc
00000270: 2af4 54bc 3897 f53b 195a 53bc ff35 a7bc
00000280: 0878 e8ba 7232 863b efdd 893c 51e8 bb3b
00000290: 5271 98bc 5896 213c 369f 803c 9e22 c9bb
000002a0: 3c90 8b3c 5e9e 8fbc 7ffc 85bc 9829 c4bc
000002b0: f13d 00bb f3ef c93b 797f 053c d167 cf3b
000002c0: 1125 8eba 2cec be3b 113e cc3b 0837 123c
000002d0: 5d3a 11bc 4e61 ce3b 3b93 4bbc 469f a4bb
000002e0: 127e 41bc 9af2 92bc fdf6 163c d750 0f3c
000002f0: b75e 87bc 437f b6bb c464 e13b 8e07 df3b
00000300: 38d6 923c 1bfd 053c edaf 1c3c 190a b93a
00000310: a117 dfbb 2c4b 0bbc 6fb5 31bc 6371 4bbb
00000320: e9f0 1a3c 334c 443a d69e f53b f1a3 643c
00000330: cb22 c8bb a57f e93b f269 3f3c ff0a af3b
00000340: d501 16bb e8fe 56bc ed4e 913c 60ba 2d3c
00000350: c9db 0a3c 0bf1 92bc e52e 7d3b 9c53 c2bc
00000360: a15c aaba df4e 833b 7d58 e5bb 54a7 4ebc
00000370: 9754 6e3c d3e7 c8bb 2a6e 223c fb8c 17bc
00000380: 6c55 f83b 9fb6 33bc c889 b93c c026 863c
00000390: 4999 abbc 2561 f5ba 4e8a 133b 3a09 1b3c
000003a0: 53f5 443c ff76 0d3c b550 e73c d8b5 893c
000003b0: 761f 6f3b 9cb8 cfbb 6bdf cf3a dad8 2cbc
000003c0: a137 01bc ac16 ce3b faac 1cbc 5aa8 75bc
000003d0: 54d8 8eba 9b90 10bc 8f7d 8e3b 2b62 373b
000003e0: ab62 013b b0a7 e7ba 0cf7 bbbb cbbc 3aba
000003f0: 7d2b b5b9 6fa0 893a 2119 cc3c 11d6 b7ba

hidden_features.0.bias f4 [50]
2.600735e-06 1.1109132e-05 -1.2985436e-07 -2.791579e-06 1.2349785e-06 -3.4701825e-05 -7.096371e-05 1.1955555e-05
1.2752726e-06 2.0445716e-05 -1.8163006e-05 0.0 -4.0082828e-06 -4.317402e-06 -1.6448505e-05 -1.5699916e-05
3.665791e-06 -8.504415e-05 1.5124118e-06 1.5885863e-07 4.5480618e-05 5.9676604e-06 -7.027535e-05 -8.923735e-06
-2.4989928e-05 -1.5029229e-05 4.702451e-06 6.5683007e-06 4.20188e-05 -9.204849e-06 1.68626e-08 2.51778e-06
6.2322414e-07 1.1631702e-05 -1.1581141e-05 1.8361154e-05 -3.4249902e-06 0.0 -2.5076746e-05 -2.5216417e-05
2.4469171e-05 -1.2861893e-06 3.2131568e-06 -2.5931922e-05 -1.7621354e-05 5.2660043e-06 1.1785125e-05 1.1840336e-05
1.019187e-05 2.8513157e-06
00000000: 4988 2e36 5c61 3a37 186e 0bb4 f656 3bb6
00000010: 8ac1 a535 cd8c 11b8 5ad2 94b8 b894 4837
00000020: 082a ab35 d782 ab37 c25c 98b7 0000 0000
00000030: e37e 86b6 33de 90b6 e5fa 89b7 50b3 83b7
00000040: cf01 7636 bb59 b2b8 13fe ca35 ba92 2a34
00000050: 71c2 3e38 d03d c836 cb60 93b8 26b7 15b7
00000060: 76a1 d1b7 0c26 7cb7 bfc9 9d36 4665 dc36
00000070: 583d 3038 876e 1ab7 40d9 9032 22f7 2836
00000080: a34b 2735 c825 4337 9f4c 42b7 4706 9a37
00000090: e2d8 65b6 0000 0000 e75b d2b7 d887 d3b7
000000a0: 2543 cd37 21a1 acb5 9da1 5736 6188 d9b7
000000b0: 92d1 93b7 a2b2 b036 bab8 4537 dba5 4637
000000c0: c0fd 2a37 3b59 3f36

hidden_features.2.weight f4 [50, 50]
-0.004161872 0.0005720574 0.011799534 0.010350844 -0.01162849 -0.008798756 -0.02290749 -0.0002257084
0.008508799 -0.0145645235 0.003532686 1.18445e-05 -0.014343513 -0.0074172895 0.005545184 0.0011543059
0.011861342 -0.007329186 -0.006138709 -0.010722006 -0.003404526 -0.0034481997 0.010110035 0.014986402
0.002790613 0.016653776 -0.0084177535 0.0017013574 -0.005562687 -0.00072950724 -0.013740876 -0.014335602
-0.0076664 2.778462e-06 -0.002973724 0.00011305457 0.005813792 0.014000244 0.009012788 -7.8002144e-05
-0.010300369 -0.0021955783 -0.007704904 -0.0019533238 0.006644745 0.00090864894 -0.0022629611 -0.0006218033
0.0033209005 0.0036390834 -0.00972616 -0.0076706517 0.018719746 0.005289529 -0.00208321 0.011848356
0.007091136 -0.0044573443 0.00042747715 0.0014274959 0.014076812 0.0011314555 -0.0022923828 -0.002116118
-0.019678392 0.005124368 0.020948753 -0.0054468126 -0.008336337 0.00991668 -0.004817809 -0.0043206755
5.7415487e-05 -0.002920483 0.0037803715 0.0036671686 0.0016073996 0.009213081 -0.0051656007 -0.0078046983
0.0011677212 0.00039781065 0.008409031 0.0007935454 -0.008537311 0.014952508 -0.02149371 0.0077430103
-0.015051753 0.0039576297 -0.019380933 0.0052630343 -0.0005042018 -0.003622545 -0.0005126155 0.00044059285
-0.001454852 0.00041878247 0.00093259854 0.002704165 -0.010174892 -0.020095758 0.0010236998 0.006351097
0.008420174 -0.012822521 0.005029636 0.0029074107 -0.005515786 -0.005376509 -0.0009416139 -0.008044586
-0.014284007 0.020641536 -0.005066899 0.004391056 -0.02969584 0.016591927 -0.0022495105 -0.015261053
-0.006441513 -0.016260704 0.0044221063 -0.0252442 -0.0029843482 -0.0077476418 -0.0051689767 -0.004565344
0.001487172 -0.006970416 0.0015386267 0.0007901639 -0.011965826 0.020221688 0.004413387 0.0127462065
0.009761333 -0.012831889 -0.010874002 -0.014427141 0.014658286 0.010444528 0.013281601 -0.0059713065
-0.003373096 -0.004298794 0.00072742807 -0.00043795924 -0.010343877 -0.015835993 0.001531143 0.013155633
-0.013454427 -0.013729774 -0.007458193 0.0037919898 -0.0005694696 0.0070477864 -0.002072536 -0.011793083
0.010044632 0.0046225563 0.0095250765 -0.008103218 -0.0038156218 0.008037381 -0.009638664 0.011360584
0.011954725 0.0048127305 0.01066707 -0.0027803138 -0.008963089 -0.0139743835 -0.013620575 -0.00070204353
0.0015762439 0.0043302337 0.01324661 -0.015750466 -0.022905692 0.012913295 -0.021774804 -0.015536693
-0.008960432 -0.013451592 0.008012221 0.00450639 -0.0046794587 0.0043327725 -0.006063012 -0.015333012
-0.0209439 -0.014075471 0.009427702 -0.021664193 -0.005241434 0.009012277 0.0066269743 -0.010034495
-0.01393478 -0.012148743 -0.0076340744 0.005724508 0.0061483043 0.009092873 0.0035115103 -0.0018666362
0.008319626 -0.01758877 -0.01467043 -0.00721802 -0.0063185445 -0.016146995 0.005329853 -0.0025298502
-0.0030389256 0.027699783 -0.011380412 -0.009752461 0.0045259306 0.011270753 0.0103431605 0.008416184
0.006168441 0.015187339 -0.001310388 -0.010209737 -0.0144281555 0.006037665 -0.007123939 0.012676539
0.017265407 0.008917563 -0.009208429 -0.0046237125 0.008877773 -0.023525637 0.00010151061 0.011956243
0.0004434317 -0.009259789 0.008808431 0.01658236 0.003288627 0.0138211 0.0022574428 -0.026900088
0.0029144632 0.004789845 0.015495096 0.0022252542 0.0027187457 -0.017479002 0.014726651 0.00023835947
00000000: 5060 88bb 1ff6 153a d552 413c 9696 293c
00000010: 6c85 3ebc a828 10bc 7da8 bbbc 23ac 6cb9
00000020: 7d68 0b3c 0aa0 6ebc a384 673b bdb7 4637
00000030: 0e01 6bbc bc0c f3bb 60b4 b53b 144c 973a
00000040: 1356 423c ab29 f0bb 3927 c9bb 5aab 2fbc
00000050: 781e 5fbb 31fb 61bb 8fa4 253c 8789 753c
00000060: b8e2 363b 806d 883c 9eea 09bc 1500 df3a
00000070: 3347 b6bb 673c 3fba 6921 61bc dfdf 6abc
00000080: 6d36 fbbb 9d75 3a36 cfe2 42bb b617 ed38
00000090: 9f81 be3b 4861 653c 5faa 133c 1595 a3b8
000000a0: e1c2 28bc b1e3 0fbb 6b79 fcbb 5603 00bb
000000b0: 29bc d93b 6632 6e3a 304e 14bb 8300 23ba
000000c0: 77a3 593b b07d 6e3b 795a 1fbc 175a fbbb
000000d0: 275a 993c c953 ad3b 7786 08bb 9b1f 423c
000000e0: c35c e83b ea0e 92bb 031f e039 d01a bb3a
000000f0: 6ea2 663c 594d 943a cd3b 16bb 92ae 0abb
00000100: 9434 a1bc 50ea a73b b89c ab3c 2d7b b2bb
00000110: 2295 08bc 9279 223c b6de 9dbb 7494 8dbb
00000120: 69d1 7038 9365 3fbb 1cc0 773b e154 703b
00000130: 61af d23a 76f2 163c 3344 a9bb 8ebe ffbb
00000140: 390e 993a 3e91 d039 08c6 093c ee05 503a
00000150: 14e0 0bbc 5dfb 743c 9413 b0bc 14b9 fd3b
00000160: a19b 76bc 01af 813b c3c4 9ebc 8875 ac3b
00000170: 692c 04ba 3868 6dbb 0b61 06ba 5fff e639
00000180: bcb0 beba 0890 db39 a179 743a 5c38 313b
00000190: 97b4 26bc dc9f a4bc aa2d 863a dd1c d03b
000001a0: c5f4 093c 8d15 52bc a5cf a43b 428a 3e3b
000001b0: c4bd b4bb 6d2d b0bb a4d6 76ba 70cd 03bc
000001c0: 7807 6abc 7018 a93c 3b08 a6bb d9e2 8f3b
000001d0: b144 f3bc cbeb 873c 866c 13bb 7f09 7abc
000001e0: 5413 d3bb 2b35 85bc 51e7 903b edcc cebc
000001f0: 0e95 43bb eedf fdbb 8560 a9bb e298 95bb
00000200: 36ed c23a 1668 e4bb bfab c93a 0023 4f3a
00000210: 500c 44bc f4a7 a53c 2c9e 903b 77d5 503c
00000220: 00ee 1f3c d83c 52bc df28 32bc d15f 6cbc
00000230: 4f29 703c 871f 2b3c 129b 593c f3aa c3bb
00000240: 290f 5dbb e6dc 8cbb dfb0 3e3a e59d e5b9
00000250: 5d79 29bc 7cba 81bc a2b0 c83a b98a 573c
00000260: f56f 5cbc d9f2 60bc dc63 f4bb 0883 783b
00000270: 7548 15ba 1ef1 e63b 62d3 07bb c637 41bc
00000280: 3d92 243c d078 973b 110f 1c3c 5cc3 04bc
00000290: 830f 7abb 38af 033c 7deb 1dbc be21 3a3c
000002a0: c0dd 433c 1cb4 9d3b efc4 2e3c ed35 36bb
000002b0: ecd9 12bc d0f4 64bc d528 5fbc 5809 38ba
000002c0: f899 ce3a a2e4 8d3b 4f08 593c 1f07 81bc
000002d0: b8a4 bbbc 4992 533c 1361 b2bc 9d8d 7ebc
000002e0: c7ce 12bc 1164 5cbc b145 033c 57aa 933b
000002f0: 2556 99bb eef9 8d3b 3bac c6bb 5037 7bbc
00000300: 8b92 abbc ce9c 66bc a676 1a3c 1b79 b1bc
00000310: 56c0 abbb 3ba8 133c 1727 d93b b967 24bc
00000320: b44e 64bc 850b 47bc 4227 fabb a794 bb3b
00000330: b777 c93b 46fa 143c 5e21 663b eba9 f4ba
00000340: 0a4f 083c 5316 90bc 3e5c 70bc 2485 ecbb
00000350: cb0b cfbb b446 84bc 0ca6 ae3b d8cb 25bb
00000360: b628 47bb a8ea e23c e874 3abc c9c8 1fbc
00000370: 424e 943b f7a8 383c 5c76 293c 09e4 093c
00000380: a220 ca3b 51d4 783c 53c1 abba be46 27bc
00000390: 1264 6cbc 9bd7 c53b ef6f e9bb 42b1 4f3c
000003a0: 2f70 8d3c f81a 123c f3de 16bc 8382 97bb
000003b0: 1474 113c d6b8 c0bc 18e2 d438 1ee4 433c
000003c0: 657c e839 5fb6 17bc 3d51 103c bbd7 873c
000003d0: 0186 573b e571 623c 9bf1 133b 935d dcbc
000003e0: 9400 3f3b 22f4 9c3b 25df 7d3c 92d5 113b
000003f0: fc2c 323b 2030 8fbc 0d48 713c 22f0 7939

hidden_features.2.bias f4 [50]
0.0 0.00012626551 1.9745963e-05 2.5379619e-05 -4.0953066e-05 0.00041774518 -6.788424e-05 -0.00043807866
-3.8567414e-06 -0.00028474754 0.0002252336 -2.8524093e-05 -0.00040296582 -0.0009946079 6.154489e-07 0.00024906182
3.868705e-05 -0.000200061 -6.874783e-05 2.1863145e-05 -0.00019020922 -8.003408e-05 -0.00047616396 0.0
-0.0004890043 -7.587917e-05 0.0003482498 0.001031021 0.0003462998 -4.113919e-05 0.0006977952 -0.00010392486
0.0006654525 -0.0007749632 0.00032981037 0.0 1.930197e-05 -0.00066838635 0.00012633366 -5.3695272e-05
0.00034238817 -4.7315618e-05 0.0013303673 -7.034702e-05 -0.00021463499 -3.8092645e-07 9.789098e-05 0.00031811508
7.0377782e-06 -0.0004705889
00000000: 0000 0000 2466 0439 22a4 a537 51e6 d437
00000010: 05c5 2bb8 cf04 db39 135d 8eb8 ecad e5b9
00000020: 2869 81b6 2b4a 95b9 af2c 6c39 0647 efb7
00000030: 2845 d3b9 815d 82ba 5435 2535 8394 8239
00000040: e743 2238 77c7 51b9 b62c 90b8 bf66 b737
00000050: e672 47b9 f8d7 a7b8 a5a5 f9b9 0000 0000
00000060: 8630 00ba 5221 9fb8 4c95 b639 5323 873a
00000070: 938f b539 de8c 2cb8 3eec 363a 3cf2 d9b8
00000080: c371 2e3a e626 4bba 66ea ac39 0000 0000
00000090: aaea a137 a636 2fba 6f78 0439 dc36 61b8
000000a0: 9082 b339 c274 46b8 b85f ae3a 4587 93b8
000000b0: a40f 61b9 2282 ccb4 d24a cd38 afc8 a639
000000c0: 0e26 ec36 5fb9 f6b9

density_estimator_head.weight f4 [50, 11]
-0.0049924687 0.0058273436 0.0022683947 0.0096194465 -0.019807791 -0.0009256615 0.0009841926 -0.007713952
-0.018400867 -0.0055348948 0.0023521602 -0.00951643 -0.0016527625 0.0015619253 0.0013626756 -0.008991909
-0.017843185 0.012479131 0.009097482 -0.014136065 0.005008591 0.0025828627 -0.013875253 -0.006469813
-0.013675747 0.0008268557 0.011037934 0.00032337065 -0.006658335 0.009461395 -0.0051722974 0.009843344
-0.005170875 -0.010673154 -0.009804444 -0.018696336 -0.0030671158 0.0103431465 -0.02279647 -0.0037296196
-0.0016896848 0.013424485 -0.010275478 -0.005711946 0.004704846 0.006494656 -0.0004054413 -0.008040214
-0.01246739 -0.0006410467 0.013699982 0.021022065 0.0039981334 -0.0034240535 0.014547435 0.0019695666
-0.0062621506 -0.009876318 -0.0034263502 0.013063099 -0.0077482047 -0.0046996055 -0.0018095701 -0.012470783
0.002791997 0.006078374 0.012488436 -0.014320061 0.005522465 0.00040903132 0.000474667 0.01579497
0.0062365197 -0.003873337 0.006817736 -0.01025717 -0.0068280566 -0.00518706 -0.005929203 0.0030722108
-0.012709617 0.012366594 0.01119142 0.023626508 0.006032263 0.0060673063 -0.010597874 -0.016726526
0.009629924 0.003837962 -0.008574006 0.0185532 -0.004339891 0.002478584 0.0009407799 -0.017156133
0.0011295176 -0.005206761 0.003019258 -0.008630623 0.009200871 -0.013938841 -0.0046252315 -0.0077908183
0.004232464 -0.010244527 -0.01678622 0.00039679778 -0.019962233 -0.0050458 -0.010738691 -0.008720287
0.005065413 0.007943013 -0.011111874 -0.0034914985 -0.009195007 -0.0017908069 -0.0031470722 -0.006557754
-0.0017385574 0.006947137 -0.0027047487 -0.007579557 -0.0031749723 0.008802981 0.005155317 0.01708894
0.017338935 -0.005558156 0.008665599 -0.011128032 -0.004825783 -0.0017876473 0.007016922 0.0048802784
0.0004022732 0.0065077413 0.0030637179 0.0077767265 0.009452668 -0.010479818 -0.015316865 0.0047542914
0.0068782284 0.013329998 0.00467352 -0.0025998976 -0.002604713 -0.006310604 0.0014199072 0.015833022
-0.014700972 -0.010581193 -0.011085347 0.0022594647 -0.0029004088 0.0076439106 0.002121752 0.014128947
-0.0057963356 0.013850161 0.002876481 -0.014072526 0.016608909 -0.024349455 -0.007381841 -0.0024365778
0.016389081 -0.01174072 0.004251511 0.010942969 0.016146705 0.0022281494 0.0072019775 0.0036225293
-0.00084698974 0.0075347344 -0.0066339467 0.0020889696 0.010673575 0.0015233629 0.0026270726 -0.014932996
-0.0038925475 -0.009303248 0.01853782 0.008537217 -0.0055926717 0.0015258485 -0.017746504 0.0045637535
-0.0051763877 0.0061606816 0.01078789 -0.008811437 -0.00822676 0.003978252 0.008494424 -0.002713606
0.0061501767 0.007690045 -0.0064891926 0.007264312 -0.01019582 0.00807806 0.018351736 0.0048259203
-0.0020063971 -0.0052436255 -0.007299581 -0.0055519184 -0.011837086 0.004907207 -0.0069274614 -0.008624218
0.0066494048 -0.0017590182 0.008841478 0.02241506 0.013164318 0.00396896 -0.013268405 0.0059308186
-4.345537e-06 -0.010855261 -0.0016205072 0.0018953822 0.0066510253 0.0132222455 -0.011531102 0.010707929
-0.007882561 -0.013778603 -0.0002372194 -0.0101528615 0.00090884976 0.014435405 0.012540333 -0.007108938
-0.007627627 -0.010808021 -0.004212249 0.0060945875 0.0019466403 -0.001095732 0.023161065 -0.010682378
-0.00096065254 0.004064326 -0.00146948 -0.014554701 0.0009994481 0.0013060911 -0.0016187769 0.0022769542
00000000: dd97 a3bb 4df3 be3b 59a9 143b e29a 1d3c
00000010: f343 a2bc 17a8 72ba 0600 813a 52c5 fcbb
00000020: 6abd 96bc 105e b5bb b326 1a3b cdea 1bbc
00000030: 82a1 d8ba 84b9 cc3a ce9b b23a cd52 13bc
00000040: df2b 92bc 4575 4c3c 9b0d 153c f49a 67bc
00000050: 1b1f a43b 3f45 293b 0755 63bc ba00 d4bb
00000060: 3e10 60bc 59c1 583a 73d8 343c 138a a939
00000070: 2a2e dabb f803 1b3c 607c a9bb fa45 213c
00000080: 7270 a9bb 74de 2ebc d2a2 20bc 0f29 99bc
00000090: aa01 49bb 4d76 293c aabf babc a26c 74bb
000000a0: 6a78 ddba 5ff2 5b3c 7a5a 28bc 472b bbbb
000000b0: 1c2b 9a3b 20d1 d43b 6991 d4b9 1abb 03bc
000000c0: 0644 4cbc ea0b 28ba e475 603c 7736 ac3c
000000d0: c602 833b 1666 60bb 5d58 6e3c d813 013b
000000e0: ba32 cdbb 48d0 21bc 9e8c 60bb 9c06 563c
000000f0: a7e4 fdbb 26ff 99bb 192f edba 4152 4cbc
00000100: f0f9 363b 192d c73b 4c9c 4c3c b09e 6abc
00000110: cbf5 b43b 4173 d639 badc f839 7464 813c
00000120: b85b cc3b d0d7 7dbb 5167 df3b b00d 28bc
00000130: e4bd dfbb 37f8 a9bb c249 c2bb 2557 493b
00000140: ff3b 50bc 419d 4a3c 385c 373c 618c c13c
00000150: 4aaa c53b 41d0 c63b b5a2 2dbc 1106 89bc
00000160: d4c6 1d3c 5186 7b3b fd79 0cbc e1fc 973c
00000170: a535 8ebb bd6f 223b ac9e 763a 058b 8cbc
00000180: 520c 943a 7a9d aabb bede 453b 7567 0dbc
00000190: 40bf 163c bd5f 64bc 418f 97bb 1f4a ffbb
000001a0: 7bb0 8a3b a9d8 27bc 4183 89bc 4c09 d039
000001b0: d687 a3bc 3d57 a5bb 56f1 2fbc 89df 0ebc
000001c0: c4fb a53b 6923 023c 940e 36bc a0d1 64bb
000001d0: a8a6 16bc 82b9 eaba 1c3f 4ebb 6de2 d6bb
000001e0: 4ee0 e3ba cfa4 e33b 2742 31bb ef5d f8bb
000001f0: 3213 50bb 613a 103c efed a83b 1bfe 8b3c
00000200: 620a 8e3c 3121 b6bb 28fa 0d3c 5952 36bc
00000210: 9a21 9ebb 7d4f eaba 35ee e53b beea 9f3b
00000220: 32e8 d239 e43e d53b a8c8 483b e9d3 fe3b
00000230: 5ddf 1a3c 8bb3 2bbc 97f3 7abc e3c9 9b3b
00000240: c362 e13b 1066 5a3c 5424 993b 0b63 2abb
00000250: d5b3 2abb 2fc9 cebb 2e1c ba3a 41b4 813c
00000260: 58dc 70bc bd5c 2dbc 519f 35bc 8713 143b
00000270: c914 3ebb c579 fa3b 170d 0b3b 197d 673c
00000280: 30ef bdbb c9eb 623c 5883 3c3b 7490 66bc
00000290: 680f 883c 8278 c7bc 5fe3 f1bb feae 1fbb
000002a0: 6542 863c 265c 40bc 4250 8b3b 234a 333c
000002b0: 1846 843c 2506 123b 91fe eb3b f567 6d3b
000002c0: 8508 5eba efe5 f63b 9461 d9bb 18e7 083b
000002d0: 38e0 2e3c 94ab c73a f72a 2c3b 86a9 74bc
000002e0: 1c1a 7fbb a66c 18bc a0dc 973c afdf 0b3c
000002f0: bb42 b7bb fbfe c73a 1e61 91bc 8a8b 953b
00000300: b09e a9bb 8bdf c93b b1bf 303c d85d 10bc
00000310: 88c9 06bc ff5b 823b 322c 0b3c c1d6 31bb
00000320: 6c87 c93b c6fc fb3b 4ba3 d4bb 7709 ee3b
00000330: 5e0c 27bc d759 043c 6156 963c c122 9e3b
00000340: c27d 03bb b8d2 abbb 5331 efbb deec b5bb
00000350: 56f0 41bc a3cc a03b c2ff e2bb 984c 0dbc
00000360: 40e3 d93b db8e e6ba d9db 103c ca9f b73c
00000370: 27af 573c 0d0e 823b b963 59bc 5057 c23b
00000380: e1cf 91b6 44da 31bc 3367 d4ba 796e f83a
00000390: d8f0 d93b 1ea2 583c f2ec 3cbc 4f70 2f3c
000003a0: db25 01bc a6bf 61bc 19be 78b9 3058 26bc
000003b0: e03f 6e3a 7a82 6c3c f875 4d3c 18f2 e8bb
000003c0: 2cf1 f9bb 2014 31bc e806 8abb 1bb5 c73b
000003d0: 6926 ff3a aa9e 8fba 46bc bd3c 2405 2fbc
000003e0: 4dd4 7bba 0a2e 853b 919b c0ba d776 6ebc
000003f0: eaff 823a 2531 ab3a 242d d4ba f438 153b

density_estimator_head.bias f4 [11]
-0.03370349 -0.023158507 -0.009050068 -0.00093003875 0.0010758213 -0.0004694584 -0.0027133585 0.002619136
0.0034982667 0.03602968 0.026802016
00000000: ac0c 0abd e9b6 bdbc bd46 14bc d8cd 73ba
00000010: 9302 8d3a a421 f6b9 9ad2 31bb cfa5 2b3b
00000020: 2d43 653b dc93 133d e78f db3c

Q1.0.weight f4 [50, 50, 5]
-0.6545835 -1.1488897 -0.59305125 0.49224746 -0.73801136 0.3946917 -2.5582263 -1.6286917
-1.5681027 -0.49631596 1.2585396 -1.5002518 -0.16396436 -1.1853642 -0.41887304 -0.32204112
0.50326157 -1.3042297 -1.354132 -1.0204183 0.74285024 -0.21933398 0.34066835 -0.2890703
0.59634995 1.0612578 0.81726444 -0.7409646 -0.75423586 -0.52776295 -0.36560553 -1.1544187
-1.3703991 0.6065191 -0.16714479 1.0426394 1.4843187 -1.418319 -0.2199167 -1.2392116
1.5888382 1.6533623 0.6323898 0.7397126 -0.094935276 0.79831517 0.6669827 -0.28631246
0.7197009 -0.46247828 1.143298 0.7125797 0.7300773 0.5126732 0.46482053 1.0182209
-0.097341 -1.0985721 2.6000776 -1.8351036 1.3857712 0.6451576 0.6792845 -0.30300736
-0.48249102 0.3509414 -0.4495933 -1.6446443 2.6636777 0.2962886 -1.487089 1.3793668
0.37706086 -0.21787721 1.2776649 -2.2405224 -0.18104033 -1.4583273 0.9431398 0.8474833
-1.120523 -0.56352323 -0.8287267 1.5071108 -1.4539609 0.03549498 -0.23300102 -0.3079231
-0.57251185 -0.32505342 -1.4972675 -0.93045086 0.5520963 0.6910979 -1.1835951 -0.32320458
0.38073432 0.0994459 0.6267731 0.44830576 -0.751038 1.5100362 0.1570429 0.7119187
1.0244898 0.96408755 -0.25230762 -1.3790715 -0.16741556 -1.3377503 -1.6908371 0.817235
-0.67487943 0.6278609 0.9951322 0.23024681 0.68780255 0.86599195 0.96115553 2.4201012
-0.2684321 0.5772162 0.80255586 0.6727627 1.1804122 0.59591633 -0.7700048 1.111101
1.1089716 -0.31961507 -0.036932833 -0.6469234 -0.57344383 1.4626491 -0.7343228 0.05950471
-1.2597442 1.0870904 1.4878424 0.1781481 -0.30868554 -2.3637402 0.7193328 0.4550028
-0.9072394 -0.24285349 -1.3325708 -1.0058244 0.74993205 0.81298786 -0.57611233 0.092164464
0.047344543 -0.073691286 -0.75893956 0.9648554 2.1587534 -1.7152034 0.4196261 -0.34177965
0.63407236 0.92441946 0.16652519 0.10408213 0.12613012 1.4644779 0.5211515 -1.5180334
2.9820323 -0.42386332 0.35147175 -0.51037127 -0.71874326 0.94811434 -0.30677888 1.1389607
0.49639466 2.3685176 0.4648103 1.4616702 0.33437827 0.22819339 -0.16558649 -0.5833798
0.027752941 -0.49596173 0.9365214 -0.17278089 -0.7231793 -0.09349755 -1.3662782 -0.20210734
1.2898947 1.3922288 0.45395717 -0.4330984 -0.4626645 -0.7992474 -0.97121245 0.5676975
1.0221632 0.7377866 0.866589 -0.61491925 0.2042229 1.00754 3.8532436 0.049360655
0.08591793 -1.3098949 0.8698037 0.6510778 -0.4422914 0.5647981 0.060638182 0.17268635
0.27266395 -0.37433034 -1.9056572 -0.82944673 1.489539 1.0617715 -0.14202893 -1.2031537
0.96669513 -1.2274258 -0.3479877 -1.9497364 1.1187818 -1.4132577 0.11287576 -0.82914615
1.768444 0.7275021 0.8724044 0.4390663 0.04949777 0.079290755 0.36301678 1.4144748
0.099709444 -0.025732793 1.2184764 0.44963977 0.3420161 0.790044 -0.7717446 -1.9211161
-0.9903087 -1.3365067 0.6595679 -1.0785757 -0.92363495 -1.0710922 0.7520534 -1.0039054
00000000: c992 27bf d10e 93bf 35d2 17bf dc07 fc3e
00000010: 50ee 3cbf 0815 ca3e fbb9 23c0 f878 d0bf
00000020: 97b7 c8bf 201d febe d317 a13f 4008 c0bf
00000030: 46e6 27be 04ba 97bf 8776 d6be 93e2 a4be
00000040: c0d5 003f 00f1 a6bf 3354 adbf 119d 82bf
00000050: 6f2b 3e3f 1699 60be 156c ae3e 0601 94be
00000060: 64aa 183f 4cd7 873f 3e38 513f dbaf 3dbf
00000070: 9a15 41bf 791b 07bf a630 bbbe fec3 93bf
00000080: 3d69 afbf d644 1b3f 0128 2bbe 3575 853f
00000090: 28fe bd3f 7a8b b5bf d831 61be 7c9e 9ebf
000000a0: 0d5f cb3f 60a1 d33f 4ce4 213f ce5d 3d3f
000000b0: 6d6d c2bd 625e 4c3f 61bf 2a3f 8c97 92be
000000c0: 513e 383f f4c9 ecbe 9757 923f a06b 363f
000000d0: 59e6 3a3f 8d3e 033f f5fc ed3e 1055 823f
000000e0: b85a c7bd 039e 8cbf ac67 2640 ade4 eabf
000000f0: f360 b13f 0c29 253f 97e5 2d3f c823 9bbe
00000100: 1009 f7be 97ae b33e 1831 e6be b483 d2bf
00000110: b279 2a40 24b3 973e ef58 bebf 178f b03f
00000120: 1f0e c13e 341b 5fbe 868a a33f b864 0fc0
00000130: a362 39be 78aa babf 9c71 713f aaf4 583f
00000140: 4c6d 8fbf 0f43 10bf 6f27 54bf 02e9 c03f
00000150: 641b babf 2f63 113d d297 6ebe 19a8 9dbe
00000160: 2390 12bf 676d a6be 76a6 bfbf 0732 6ebf
00000170: 2f56 0d3f cbeb 303f 0b80 97bf 127b a5be
00000180: 9cef c23e 4baa cb3d 3474 203f 5588 e53e
00000190: 0744 40bf de48 c13f dbcf 203e 4e40 363f
000001a0: 7b22 833f 71ce 763f 772e 81be 6a85 b0bf
000001b0: fc6e 2bbe 673b abbf 5a6d d8bf 5036 513f
000001c0: e6c4 2cbf 7ebb 203f fcc0 7e3f d2c5 6b3e
000001d0: d413 303f a6b1 5d3f 4a0e 763f f0e2 1a40
000001e0: ef6f 89be 71c4 133f 4d74 4d3f 2d3a 2c3f
000001f0: bf17 973f f98d 183f 091f 45bf 8f38 8e3f
00000200: c8f2 8d3f 96a4 a3be e246 17bd c69c 25bf
00000210: 37cd 12bf 1638 bb3f 94fc 3bbf 36bb 733d
00000220: 4c3f a1bf c725 8b3f 9f71 be3f 756c 363e
00000230: 080c 9ebe 8547 17c0 3226 383f 21f6 e83e
00000240: d740 68bf 96ae 78be ae91 aabf dbbe 80bf
00000250: 8cfb 3f3f f91f 503f 197c 13bf b9c0 bc3d
00000260: 5aec 413d 75eb 96bd dd49 42bf c300 773f
00000270: 0429 0a40 c98b dbbf 3bd9 d63e befd aebe
00000280: 9152 223f c1a6 6c3f 9485 2a3e 0329 d53d
00000290: 4128 013e 0374 bb3f 2f6a 053f eb4e c2bf
000002a0: 9ed9 3e40 9d04 d9be 1bf4 b33e b1a7 02bf
000002b0: 8fff 37bf 9fb7 723f 1f12 9dbe 77c9 913f
000002c0: 7127 fe3e cb95 1740 9efb ed3e 0218 bb3f
000002d0: a133 ab3e 87ab 693e 818f 29be 6158 15bf
000002e0: 235a e33c b2ee fdbe debf 6f3f 79ed 30be
000002f0: 4722 39bf a57b bfbd 34e2 aebf 3af5 4ebe
00000300: 451b a53f 8e34 b23f 136d e83e 13bf ddbe
00000310: 5de2 ecbe 7a9b 4cbf 61a1 78bf a054 113f
00000320: 3ed6 823f 95df 3c3f c7d8 5d3f 596b 1dbf
00000330: cf1f 513e 12f7 803f 8b9b 7640 662e 4a3d
00000340: bdf5 af3d a3aa a7bf 75ab 5e3f 09ad 263f
00000350: 0574 e2be 9c96 103f be5f 783d b1d4 303e
00000360: 9c9a 8b3e 3aa8 bfbe 93ec f3bf 9f56 54bf
00000370: 37a9 be3f 21e8 873f 0870 11be f100 9abf
00000380: 5579 773f 4a1c 9dbf 722b b2be f690 f9bf
00000390: 3e34 8f3f a1e5 b4bf 682b e73d ec42 54bf
000003a0: 5f5c e23f 943d 3a3f e555 5f3f 4ccd e03e
000003b0: 2cbe 4a3d 3163 a23d 56dd b93e 830d b53f
000003c0: 7734 cc3d 94cd d2bc 09f7 9b3f 2f37 e63e
000003d0: bc1c af3e 5340 4a3f 0e91 45bf 22e7 f5bf
000003e0: df84 7dbf a712 abbf 71d9 283f c50e 8abf
000003f0: 5773 6cbf 8d19 89bf 9286 403f f97f 80bf

Q1.0.bias f4 [50, 5]
-0.0011976353 -0.0014869595 -0.0015048657 -0.000659273 -0.00015118172 0.02922938 0.022390671 0.022253057
0.010054069 0.0023056187 0.038717207 0.031098397 0.03063261 0.013681126 0.003112691 0.00448554
0.0035654884 0.0036429646 0.0016762496 0.0003844369 0.0 0.0 0.0 0.0
0.0 0.0 0.0 0.0 0.0 0.0 -0.0037426436 -0.0011680633
-0.0006090222 -0.00016711804 -2.9519066e-05 -0.012089756 -0.009389841 -0.007910685 -0.003005285 -0.0005212141
0.0016590164 -0.0005472791 -0.0017746781 -0.0009779712 -0.00014744278 0.00059790007 0.00076795515 0.0008294408
0.00038547957 8.80321e-05 0.0027134155 7.6297896e-05 -0.0007276742 -0.00046938853 -7.700636e-05 -0.005927361
-0.0044354415 -0.0038469671 -0.001532055 -0.0003005465 -0.003587402 -0.0031867677 -0.0029664398 -0.0012491792
-0.0002776536 0.014370018 0.016512627 0.016304009 0.007102941 0.0015963546 -0.0004770796 0.005427491
0.0054347324 0.002215463 0.00047866715 0.01378007 0.0045003486 0.0045738397 0.0023435708 0.000558335
-0.0035617703 -0.003315678 -0.003069891 -0.0012702823 -0.00025183405 -0.0028534948 -0.002597201 -0.0023365833
-0.0009583224 -0.0002134069 -0.0073878667 -0.0054693334 -0.0043438273 -0.0014845378 -0.00023502806 0.00031044713
-0.00021387034 -0.00021624485 -2.0470969e-05 4.8563637e-05 0.0065942905 0.0013392556 0.0016805298 0.0010355454
0.000260313 0.0022186835 0.0029330852 0.0010819267 -0.00018647958 -0.00016470482 0.0037780565 0.0018768214
-0.0016099961 -0.0019818116 -0.0007381524 -0.005189629 -0.004503021 -0.003981023 -0.0015747308 -0.0002861716
0.04277235 0.041669197 0.04062991 0.01770114 0.00396699 -0.0038254058 -0.0032918989 -0.0028051927
-0.0010495082 -0.00013248647 -0.00023679827 -0.0006746109 -0.0007035204 -0.00028770845 -3.7210608e-05 -0.00100279
-0.0005891049 -0.00056917674 -0.00025707055 -6.046935e-05 -0.001077586 -0.0010419342 -0.0010173144 -0.00044682756
-0.00010894355 0.011172132 0.013255541 0.013189893 0.0057819705 0.001311437 -0.000974375 -0.0035418563
-0.003569245 -0.0015048862 -0.00031498814 0.0007034535 0.00010088135 1.524716e-06 6.8132917e-06 5.2591015e-05
-0.0113774035 -0.0052013653 -0.0036342922 -0.0012677228 -0.00021403846 -0.007209276 -0.0057908436 -0.0050607356
-0.0020080418 -0.00039575205 0.012806899 0.014371015 0.015512722 0.0073242662 0.0018150633 0.008111178
0.0046566213 0.004694363 0.0021977718 0.0005076324 -0.0012002237 -0.0015819261 -0.0017783829 -0.0008799126
-0.00023734715 0.014620212 0.013281655 0.0137197785 0.006317814 0.0014962495 -0.0015664671 -0.0004697245
1.1004965e-05 0.00015043336 4.8465638e-05 0.018527102 0.018625319 0.018069241 0.007820045 0.0017464816
0.00038644427 0.00036824716 0.00035241072 0.00015137118 3.492725e-05 -0.0010315641 -0.0009153808 -0.00080950087
-0.00031762908 -5.064732e-05 -0.0020800382 -0.0019980692 -0.0019196253 -0.0008274063 -0.00018872817 0.0034726772
-0.00078549806 -0.0010476626 -0.00043133946 -0.00010060619 -0.008024482 -0.006576245 -0.0057885908 -0.0023069533
-0.00045903813 -0.0047653504 -0.0039852033 -0.0034539662 -0.0013372303 -0.0002289227 0.024110915 0.017030895
0.016622417 0.0074553574 0.0016999855 -0.0040109586 -0.003319202 -0.0029339648 -0.0011741319 -0.0002385135
0.040670615 0.034112196 0.033335753 0.014724848 0.0033203983 -1.7312506e-05 0.00012930398 0.00019215384
0.00010498996 2.4576762e-05
00000000: f9f9 9cba 15e6 c2ba ea3e c5ba 10d3 2cba
00000010: 8986 1eb9 7472 ef3c a46c b73c 0b4c b63c
00000020: d2b9 243c dd19 173b ef95 1e3d 11c2 fe3c
00000030: 3df1 fa3c cd26 603c 4afe 4b3b 70fb 923b
00000040: f8aa 693b cebe 6e3b 9ab5 db3a 3f8e c939
00000050: 0000 0000 0000 0000 0000 0000 0000 0000
00000060: 0000 0000 0000 0000 0000 0000 0000 0000
00000070: 0000 0000 0000 0000 2447 75bb b319 99ba
00000080: caa6 1fba 683c 2fb9 b69f f7b7 1d14 46bc
00000090: d9d7 19bc d19b 01bc 51f4 44bb 16a2 08ba
000000a0: 5a73 d93a 4777 0fba 519c e8ba 452f 80ba
000000b0: df9a 1ab9 65bc 1c3a 9950 493a d46e 593a
000000c0: 311a ca39 e09d b838 8fd3 313b 1f02 a038
000000d0: 64c1 3eba 4318 f6b9 7a7e a1b8 4f3a c2bb
000000e0: 2e57 91bb 661d 7cbb 3ccf c8ba ab92 9db9
000000f0: 9e1a 6bbb 17d9 50bb 9a68 42bb 80bb a3ba
00000100: 0992 91b9 3970 6b3c 7d45 873c fc8f 853c
00000110: cabf e83b c63c d13a 8a20 fab9 18d9 b13b
00000120: d715 b23b 4d31 113b 9ef5 fa39 cdc5 613c
00000130: a977 933b 26e0 953b 9896 193b 3a5d 123a
00000140: 976c 69bb d94b 59bb 3930 49bb 9a7f a6ba
00000150: 9808 84b9 b301 3bbb cd35 2abb 5d21 19bb
00000160: ed37 7bba fac5 5fb9 eb15 f2bb 1838 b3bb
00000170: aa56 8ebb d394 c2ba dd71 76b9 82c3 a239
00000180: 6242 60b9 c9bf 62b9 12b9 abb7 cfb0 4b38
00000190: eb14 d83b f689 af3a 3945 dc3a 23bb 873a
000001a0: 9f7a 8839 5567 113b 0139 403b 70cf 8d3a
000001b0: bb89 43b9 9db4 2cb9 4599 773b adff f53a
000001c0: 8106 d3ba 48e1 01bb 9280 41ba c30d aabb
000001d0: 148e 93bb 3e73 82bb 3367 ceba 4d09 96b9
000001e0: 0f32 2f3d 52ad 2a3d 8c6b 263d fb01 913c
000001f0: 86fd 813b a9b3 7abb e6bc 57bb 53d7 37bb
00000200: a78f 89ba 11ec 0ab9 0d4d 78b9 5fd8 30ba
00000210: 746c 38ba 93d7 96b9 9612 1cb8 0d70 83ba
00000220: 296e 1aba ce34 15ba 6dc7 86b9 78a0 7db8
00000230: c93d 8dba 8391 88ba 6857 85ba 2e44 eab9
00000240: 9f78 e4b8 510b 373c c52d 593c 6c1a 583c
00000250: af76 bd3b 86e4 ab3a 336d 7fba 7d1e 68bb
00000260: ffe9 69bb 9a3f c5ba fe24 a5b9 f767 383a
00000270: 4390 d338 d8a4 cc35 bb9d e436 2c95 5c38
00000280: 4a68 3abc 3770 aabb 4e2d 6ebb b829 a6ba
00000290: 836f 60b9 ca3b ecbb 1ec1 bdbb 87d4 a5bb
000002a0: 5a99 03bb f17c cfb9 07d4 513c 6874 6b3c
000002b0: 1229 7e3c 6600 f03b 6be7 ed3a bfe4 043c
000002c0: 9296 983b 2cd3 993b 7e08 103b a212 053a
000002d0: d350 9dba a258 cfba a118 e9ba efa9 66ba
000002e0: 64e0 78b9 9d89 6f3c 4c9b 593c ecc8 603c
000002f0: aa05 cf3b cd1d c43a ea51 cdba 5b45 f6b9
00000300: f7a1 3837 a6bd 1d39 9547 4b38 26c6 973c
00000310: 2094 983c f205 943c a51f 003c 33ea e43a
00000320: ac9b ca39 4c11 c139 c4c3 b839 64b9 1e39
00000330: d97e 1238 8c35 87ba 2af6 6fba af34 54ba
00000340: 7487 a6b9 256e 54b8 4051 08bb 0af2 02bb
00000350: f09b fbba 4ce6 58ba 55e5 45b9 db95 633b
00000360: e2e9 4dba b951 89ba 6725 e2b9 89fc d2b8
00000370: 1e79 03bc 8b7d d7bb 38ae bdbb 4130 17bb
00000380: 0eab f0b9 a826 9cbb 4f96 82bb f05b 62bb
00000390: 0146 afba f80a 70b9 4184 c53c 6084 8b3c
000003a0: bc2b 883c 124c f43b 0cd2 de3a 5c6e 83bb
000003b0: f886 59bb c347 40bb 54e5 99ba 7b19 7ab9
000003c0: 3b96 263d 3bb9 0b3d 128b 083d 7d40 713c
000003d0: 0a9b 593b 533a 91b7 c695 0739 e77c 4939
000003e0: 0e2e dc38 322a ce37

Q1.1.weight f4 [50, 1, 5]
0.24722637 0.7118301 1.0063866 0.7410259 1.5297229 -1.1539328 0.14684293 -0.33971152
-1.0943109 3.1832058 -1.1183105 -0.95521563 0.42983714 -1.2367506 -0.3549101 -0.144835
-0.51979977 0.15340671 0.7262256 -0.23942462 0.23745605 -0.5000124 0.7810979 0.18736547
1.2350001 0.6077896 0.91353834 -0.9655396 0.8448589 0.6897206 0.9421142 -0.067612104
0.21234085 -1.0462649 0.060155347 0.84677804 0.72614664 0.48437667 -0.17501281 -1.5790957
1.7335405 0.74873346 1.7042031 -0.31354985 0.63699347 -0.0133559685 -0.2053691 -0.10100514
-0.35106018 0.5980721 0.45252755 1.0310473 -1.5844164 1.4682679 -0.23196438 2.2566106
-0.06901104 -0.8999867 0.18236266 0.15115663 0.5839833 -0.0948508 0.358857 1.2229699
-0.13752623 0.33331853 -0.82828623 -1.2736511 1.4733205 -0.9091561 0.94290185 -0.2763015
-1.3919103 0.3653706 1.2467048 -1.4670111 0.657649 -0.12402006 1.6990901 -0.6258796
-0.62236077 1.2007246 1.1192738 0.99354666 -0.20418918 -0.0944906 -0.9364762 1.3999301
0.20482343 0.8540912 0.6787937 2.2020237 0.20376197 0.07302456 0.519005 1.1464792
0.5424705 1.1995555 -1.2716969 1.7800654 -0.8570563 -0.39036292 0.32680634 1.7465894
1.0967585 0.9200373 1.1463798 0.45711404 -0.40098348 0.45260096 1.4751091 1.2879306
-0.54927015 0.6189862 -0.0799637 -0.37561846 1.9703496 0.76638585 0.9794289 -0.59462714
-0.045769956 -1.1763084 -1.3005186 -0.39427012 0.22812265 1.1507564 1.3812937 1.503991
-1.0295312 0.44102266 0.49891624 -0.45229936 0.7347477 0.8941642 0.32595634 0.45125428
-0.7932724 0.012536641 0.48254895 -0.83636755 0.13035408 -1.0294387 0.32698727 0.70803446
-0.23376209 0.37385318 -1.5538414 0.5762646 -0.9453946 0.9372913 -0.4989804 1.1060241
0.35964042 -1.4975448 1.003239 -0.44471705 -2.0404732 -0.26366162 0.88943624 3.0686667
2.4641974 -0.51021737 -0.4869536 -0.32349756 0.061304577 1.1735187 1.7741339 0.030925034
0.60323423 0.25943872 -0.163194 -0.426624 -1.5067085 -0.24793713 -0.7335146 -0.68194425
0.54735404 0.13597119 -0.46533906 -1.1758986 -0.52289236 1.5963402 -0.18147808 0.7146569
1.0514232 -0.44406435 -0.28654855 -0.28760794 -0.6012908 0.5740377 -0.6435063 -0.72581613
-1.4584055 1.90998 1.1237571 0.08019532 -0.30055663 -0.66271704 -1.0423036 -0.6676936
-0.76390934 1.4755187 -1.1435608 1.0177721 -1.8874289 1.8913018 -0.6501595 -0.32051322
-0.7779144 2.1480289 1.4192674 -0.37903914 0.51326245 0.2779953 -0.9134279 -0.5093161
-0.49336806 0.8562561 0.9723264 -0.8223288 1.1830944 1.5246875 0.1184469 -0.77960825
0.9881101 1.2681733 -1.6075134 0.544777 1.6774615 -1.2969366 -1.0820081 0.5896601
-0.4853231 -0.34495273 -0.254503 1.4858768 0.85336614 0.91086566 -1.3976669 -0.103948265
-0.9360864 -0.31677938 -1.2439096 1.0536045 -1.3463897 -0.36341435 -0.05323959 -0.65552
1.397064 -0.42186087
00000000: e928 7d3e 7f3a 363f 47d1 803f e0b3 3d3f
00000010: f6cd c33f 12b4 93bf fe5d 163e abee adbe
00000020: 6112 8cbf a5b9 4b40 cc24 8fbf 0389 74bf
00000030: 9d13 dc3e d84d 9ebf c7b6 b5be a04f 14be
00000040: 9911 05bf a616 1d3e ece9 393f ba2b 75be
00000050: ae27 733e d000 00bf 08f6 473f bcdc 3f3e
00000060: 7c14 9e3f 1998 1b3f a6dd 693f 9a2d 77bf
00000070: ac48 583f 8791 303f 652e 713f 3778 8abd
00000080: e16f 593e 02ec 85bf 7465 763d 72c6 583f
00000090: bfe4 393f 3800 f83e 8f36 33be cf1f cabf
000000a0: a8e4 dd3f ffac 3f3f 5423 da3f 9b89 a0be
000000b0: 0112 233f fed2 5abc 474c 52be c8db cebd
000000c0: 29be b3be 411b 193f b1b1 e73e 5cf9 833f
000000d0: 28ce cabf 34f0 bb3f 1288 6dbe 4f6c 1040
000000e0: a955 8dbd 8765 66bf 47bd 3a3e cec8 1a3e
000000f0: ee7f 153f 2341 c2bd 1bbc b73e 478a 9c3f
00000100: add3 0cbe baa8 aa3e 910a 54bf 0007 a3bf
00000110: c495 bc3f 74be 68bf 0462 713f 6477 8dbe
00000120: 1e2a b2bf db11 bb3e 0694 9f3f 05c7 bbbf
00000130: af5b 283f 3bfe fdbd c97b d93f a539 20bf
00000140: 0953 1fbf 58b1 993f 5d44 8f3f 1359 7e3f
00000150: f816 51be 4a84 c1bd e7bc 6fbf e930 b33f
00000160: 3cbd 513e b9a5 5a3f 6dc5 2d3f f5ed 0c40
00000170: faa6 503e e78d 953d 83dd 043f d5bf 923f
00000180: 59df 0a3f 098b 993f f7c6 a2bf 2fd9 e33f
00000190: 0b68 5bbf a6dd c7be 2953 a73e 3e90 df3f
000001a0: 9562 8c3f 9187 6b3f 93bc 923f da0a ea3e
000001b0: b54d cdbe 50bb e73e 60d0 bc3f e9da a43f
000001c0: f89c 0cbf e175 1e3f 02c4 a3bd 1051 c0be
000001d0: 6a34 fc3f dd31 443f dabb 7a3f 7c39 18bf
000001e0: 4779 3bbd 4691 96bf 6577 a6bf c6dd c9be
000001f0: fc98 693e fc4b 933f 3bce b03f c782 c03f
00000200: aec7 83bf b9cd e13e f371 ff3e c893 e7be
00000210: 6d18 3c3f f2e7 643f c0e3 a63e cd0a e73e
00000220: e613 4bbf 7c66 4d3c a810 f73e 2f1c 56bf
00000230: 8a7b 053e a6c4 83bf e06a a73e bf41 353f
00000240: 545f 6fbe af69 bf3e 46e4 c6bf 1486 133f
00000250: 6105 72bf 53f2 6f3f 5c7a ffbe 3392 8d3f
00000260: ca22 b83e 8caf bfbf 236a 803f f4b1 e3be
00000270: 1d97 02c0 a8fe 86be 18b2 633f 0965 4440
00000280: 69b5 1d40 9b9d 02bf fb51 f9be 79a1 a5be
00000290: 821a 7b3d dc35 963f d216 e33f 7f56 fd3c
000002a0: 8f6d 1a3f 27d5 843e 541c 27be 766e dabe
000002b0: d3db c0bf 3be3 7dbe 9dc7 3bbf e693 2ebf
000002c0: 651f 0c3f 083c 0b3e ec40 eebe d883 96bf
000002d0: 46dc 05bf e054 cc3f 64d5 39be c1f3 363f
000002e0: 0995 863f 675c e3be 7eb6 92be 5941 93be
000002f0: 32ee 19bf 22f4 123f d4bc 24bf 16cf 39bf
00000300: 08ad babf 3a7a f43f 46d7 8f3f 723d a43d
00000310: 8fe2 99be d3a7 29bf 346a 85bf f8ed 2abf
00000320: 908f 43bf ccdd bc3f 3360 92bf 5b46 823f
00000330: 4597 f1bf 2d16 f23f da70 26bf 4f1a a4be
00000340: 6625 47bf 4e79 0940 8eaa b53f 6b11 c2be
00000350: 2b65 033f 6655 8e3e 69d6 69bf 8a62 02bf
00000360: bd9a fcbe 9a33 5b3f 62ea 783f 2484 52bf
00000370: a36f 973f f628 c33f 4a94 f23d 6894 47bf
00000380: c9f4 7c3f 8153 a23f 00c3 cdbf 8176 0b3f
00000390: 0fb7 d63f 0502 a6bf 3e7f 8abf f7f3 163f
000003a0: 457c f8be a59d b0be 384e 82be 3631 be3f
000003b0: 3476 5a3f 7e2e 693f c0e6 b2bf d4e2 d4bd
000003c0: 5ca3 6fbf e830 a2be 6e38 9fbf 83dc 863f
000003d0: 7f56 acbf 7211 babe c211 5abd 29d0 27bf
000003e0: fed2 b23f 26fe d7be

Q1.1.bias f4 [1, 5]
-0.022763805 -0.01602601 -0.01569144 -0.0070552244 -0.0016012978
00000000: 297b babc fb48 83bc 568b 80bc 832f e7bb
00000010: a3e2 d1ba
