CausalCVR/logs/simu3/eval/35/Vcnet_tr_ckpt.pth.tar (torch, 123637 bytes, 18 tensors)

feature_weight.weight f4 [50, 8]
00000000: 70b5 2cbb f9d5 0a3c 7521 873a 25d2 ddbb
00000010: 82e2 c13b f970 683c 1163 933c 03e5 a43c
00000020: 2d6f 21bc 2562 03bc 3649 2ebc 7f55 37bc
00000030: b9dd 6d39 2b85 4abb a3b1 8dba cdf4 6ebb
00000040: 1dc3 16bc 4665 923b 4b0a 31bc aa60 123c
00000050: 4642 27bc de31 d93a 25d0 20bc 5fb2 2eba
00000060: 6ba4 96bb 6f02 90bb 4302 473c 97f9 043c
00000070: 082c 9d3c c3e7 87bc 1138 b6bb 8a9c efbb
00000080: c024 1ebb 4698 b2bb 6404 373c f851 3e3a
00000090: af94 7c3b a751 d1bb 44c1 75bc 4238 c1bc
000000a0: 3afa 99bb 33a9 9d3a 7451 cabc 3c2b 8fbb
000000b0: 20f6 78ba a169 e43b 7729 a83b b4fe 893a
000000c0: bf85 01bc 4314 a3bb f17e fdbb d50c 273c
000000d0: 4bef 0e3c 08dd cfba 766c b23a 5eab 16bb
000000e0: 3de3 2d3b ac5f 1e3c d37b d9ba 9965 383c
000000f0: 3f57 16bc 7b7f 15bb 36de 70bb 793e fa3a
00000100: b112 443b a4e7 e13b b04f 843c ad41 5b3b
00000110: 4c85 123c 82e9 cdbb 65dc be3b 9bcc ee3b
00000120: 3f6e 0ab9 d6d9 eabb 477f ffb9 08d2 233a
00000130: 9155 4cbc c807 103c 97d0 2c3b 6d53 623c
00000140: c8d2 013c 6b84 e8ba bb83 4bbb f825 a23b
00000150: 436c 71bc d274 40bc 0f28 b03c 1de6 6a3a
00000160: 2c6b 76bc fd18 19ba 9130 c5ba ddd5 5a3c
00000170: 4890 d73b 4a8d 00bb 9e29 feb9 792b c13b
00000180: b552 9d3c 73d5 b73b b3e4 57bc e54e 4b3c
00000190: 0f1d 8cbc b96b 59b8 1400 a2bb 4dd7 20bc
000001a0: 19a5 d8b9 40d5 073c a4a3 4abb 62bb 033c
000001b0: c89e 77bc 4911 60bc 00e9 83bb 65f9 52bc
000001c0: b313 8c3c 8539 9e3b 1183 263c 2307 5fbc
000001d0: c692 0b3c c3c8 433c d080 3cbc 5e75 85ba
000001e0: 88e9 5cbc b251 cbbb 5b9a b6bb 80be a1bb
000001f0: 72e4 63ba 5d4d 583b a54d e23b ab88 bdbc
00000200: fc36 a1b9 283f af3b 0795 933c 3f87 fa3b
00000210: 866a 273b 600b 9bba 1ecf 9ebb beb7 663c
00000220: 325f a23c 3742 bf3b c8bc 40bc 2d9c 5d3c
00000230: 161c 063c 230b 083a 746b 383c d1e8 1cbc
00000240: 24e7 95bb 1e82 493c 2577 26bc 2950 823b
00000250: f898 c3b9 6c83 563c 78af f33b 6959 01bc
00000260: fd04 0e3c 7290 4dbc 5e9a eebb 021b 3abb
00000270: 2a6f 943b c883 84bc ddb6 4cbc ff85 963c
00000280: 7732 f43c a53a 08b9 41e7 1c3c 1913 24bb
00000290: 21e5 bb3b d570 5f3c c09d 3cbb 2c30 dc39
000002a0: cdf5 ebbb 9f3c 173c 17d6 6cbc 04d9 563b
000002b0: f4cf d9ba c04f 883a 91bd 44bc 4cc2 60bb
000002c0: 11d7 8c3c 7f37 3ebc b9a8 043b afcc e9bb
000002d0: 30b0 d43b 71a8 643c deb5 b33b 336f b3bb
000002e0: a1c9 a7bb 4515 3abc 51c0 a63b 2509 2abb
000002f0: 03ed e4bb 6e2e 8cbc d62e 3f3b ca1f d33a
00000300: 29a5 623c 67b6 873a 46ab b03b d8ab f3bb
00000310: a461 74bb a24b f23b 8b2f 1ebc 9e6c 773c
00000320: 9719 c33b add6 4f37 8f5a 473c dd2e 403a
00000330: 2d40 76bc 8df9 99bb 0894 7cbc 9624 f5b8
00000340: c728 15bb f44c debb 4631 3c3c a3f2 de3b
00000350: cf55 a33c ab88 c33c 5cf3 30bc 02d4 80bb
00000360: 2fa2 6cbb a133 843b 319a 84bc d544 8d3a
00000370: 6f58 703c 5f24 48bc c779 fabb c442 383c
00000380: d0c6 943c 6064 86bb 503d 1fbc 778f b5bc
00000390: 8505 3ebc cded 883c 2d41 1d3c c8a7 c13a
000003a0: d71e 1cbc 0599 69bc e43a b7bb 8577 183c
000003b0: 7960 6d3b 810d 7a3b 564c 32bc db83 583b
000003c0: 1ccf 3fbc 61ee bd3a c531 5cb9 2b9a 1c3c
000003d0: 1e15 e8bb 6451 55bb fd06 18bc c8f8 b7bb
000003e0: 6920 4dba afeb 3aba f850 3bbb 80ab 2e3c
000003f0: 561f 8c3c 94c7 7d3b 5074 783c 03be 1ebb
-0.0026353262 0.008473867 0.0010309654 -0.006769436 0.0059168944 0.014187091 0.017991574 0.020128733
-0.0098531665 -0.008019005 -0.010637572 -0.011189817 0.0002268468 -0.0030902128 -0.0010810386 -0.003646183
-0.009201792 0.004467639 -0.010805677 0.008934179 -0.010208672 0.0016570648 -0.0098152505 -0.00066641526
-0.004597237 -0.0043948214 0.012146535 0.0081161475 0.019186035 -0.016590005 -0.005560883 -0.007312362
-0.0024130791 -0.0054502813 0.01117048 0.0007260139 0.003854077 -0.0063879075 -0.014999691 -0.023586396
-0.004699019 0.0012028575 -0.024697043 -0.0043691676 -0.00094971247 0.0069705998 0.005131896 0.0010528178
-0.007905423 -0.0049767806 -0.00773608 0.0101959305 0.008724044 -0.0015858719 0.0013612646 -0.0022990326
0.002653315 0.009666365 -0.0016592689 0.0112546915 -0.0091760745 -0.002281158 -0.0036753542 0.0019092105
0.0029918368 0.006894069 0.01615128 0.0033455894 0.008942913 -0.00628394 0.005824613 0.0072875745
-0.00013201775 -0.0071670813 -0.0004873222 0.00062492536 -0.0124715725 0.008790918 0.0026369446 0.013813836
0.007923789 -0.0017739659 -0.003105386 0.004948374 -0.014735284 -0.011746602 0.021503476 0.0008960681
-0.0150402 -0.00058402104 -0.0015044381 0.013356653 0.006578479 -0.0019615465 -0.00048477662 0.005895075
0.019204477 0.005610162 -0.013177085 0.012408947 -0.0171037 -5.1837156e-05 -0.004943857 -0.009816957
-0.00041321738 0.008290589 -0.0030920291 0.008040281 -0.01511354 -0.013675996 -0.0040255785 -0.012876843
0.017099237 0.004828634 0.010163085 -0.013612541 0.00851888 0.011949721 -0.011505321 -0.0010182073
-0.013483413 -0.006204807 -0.0055726 -0.0049360394 -0.0008693404 0.0033005096 0.0069062286 -0.023136457
-0.0003074928 0.005348105 0.018015398 0.007645517 0.002554567 -0.0011828952 -0.0048464676 0.0140818935
0.019820783 0.005836751 -0.011763759 0.013526005 0.008185407 0.0005189648 0.011256088 -0.009576992
-0.0045746733 0.012299089 -0.010160242 0.003976841 -0.0003730727 0.013092857 0.007436689 -0.007894852
0.0086681815 -0.0125466455 -0.0072815856 -0.0028397446 0.0045298534 -0.01617612 -0.01249477 0.018374441
0.02980922 -0.00012991817 0.00957662 -0.0025035797 0.0057341014 0.013637741 -0.002878055 0.0004199756
-0.0072009326 0.009230762 -0.01445534 0.003278316 -0.0016617761 0.0010399744 -0.012008087 -0.0034295497
0.017192395 -0.011609911 0.0020242168 -0.007134996 0.0064907297 0.013956175 0.0054843267 -0.0054759025
-0.0051204716 -0.01135761 0.005088844 -0.0025945392 -0.006986262 -0.017111983 0.0029172204 0.0016107496
0.013833323 0.0010354043 0.005391511 -0.007436257 -0.0037289644 0.00739427 -0.00965489 0.01510158
0.0059539783 1.2388145e-05 0.012167587 0.0007331202 -0.015029949 -0.004698938 -0.015416153 -0.00011689325
-0.00227599 -0.006784076 0.011486357 0.006803827 0.019938378 0.02386888 -0.010800209 -0.0039315233
-0.003610741 0.004034475 -0.016186805 0.001077796 0.014669522 -0.012215703 -0.0076439115 0.011246387
0.018161207 -0.004101321 -0.009719208 -0.022163136 -0.011597996 0.016714955 0.009598059 0.0014774734
-0.009528837 -0.014257674 -0.005591737 0.009305839 0.0036220832 0.0038155022 -0.010882458 0.0033037576
-0.011707094 0.0014490598 -0.00020999376 0.009558241 -0.0070825955 -0.0032549733 -0.00927901 -0.005614374
-0.0007824959 -0.00071304565 -0.0028582197 0.010661006 0.017104786 0.0038723694 0.01516445 -0.0024222143

feature_weight.bias f4 [50]
00000000: c2b2 0c37 0000 0000 a8d1 5f36 cfb5 2eb7
00000010: b6be cd35 cd82 0ab7 8542 66b7 ec94 cab6
00000020: 5fcb dc37 d80b 2837 1304 aa36 1b7e 5038
00000030: 6a46 5a37 3f99 6535 8296 2fb7 62e8 c635
00000040: 5324 69b8 6c89 19b8 7341 9b37 9e31 5f36
00000050: a30a 4234 5a1b 24b5 6a24 97b7 0000 0000
00000060: ed1b 0136 3ab3 8736 4d3d 8837 d4fc 4037
00000070: de63 0a35 a292 cfb5 0c5b b6b4 e87a 0438
00000080: 1e1e 3e38 0000 0000 e1e9 a7b6 e78e a3b7
00000090: 30c7 82b6 9c0c dfb6 e14f aa37 0000 0000
000000a0: 9deb c634 2a93 f5b6 a7dd 3cb7 3400 1636
000000b0: f72b d537 9ce8 c236 18d9 7cb4 1012 cb35
000000c0: 1440 ffb7 89ce f435
8.386271e-06 0.0 3.3351625e-06 -1.0413539e-05 1.5329194e-06 -8.255895e-06 -1.3724556e-05 -6.037406e-06
2.6320746e-05 1.0016338e-05 5.066869e-06 4.970851e-05 1.3010207e-05 8.553215e-07 -1.0465856e-05 1.4819782e-06
-5.558536e-05 -3.6606027e-05 1.8507917e-05 3.325847e-06 1.8071528e-07 -6.113456e-07 -1.801756e-05 0.0
1.9238753e-06 4.0441782e-06 1.6241009e-05 1.1502958e-05 5.155433e-07 -1.5465378e-06 -3.3966387e-07 3.1585718e-05
4.532758e-05 0.0 -5.004215e-06 -1.9497658e-05 -3.8974904e-06 -6.647386e-06 2.0302776e-05 0.0
3.7051805e-07 -7.318701e-06 -1.1257281e-05 2.235186e-06 2.5412051e-05 5.80873e-06 -2.3548307e-07 1.5129935e-06
-3.0428208e-05 1.8239526e-06

hidden_features.0.weight f4 [50, 8]
00000000: 70b5 2cbb f9d5 0a3c 7521 873a 25d2 ddbb
00000010: 82e2 c13b f970 683c 1163 933c 03e5 a43c
00000020: 2d6f 21bc 2562 03bc 3649 2ebc 7f55 37bc
00000030: b9dd 6d39 2b85 4abb a3b1 8dba cdf4 6ebb
00000040: 1dc3 16bc 4665 923b 4b0a 31bc aa60 123c
00000050: 4642 27bc de31 d93a 25d0 20bc 5fb2 2eba
00000060: 6ba4 96bb 6f02 90bb 4302 473c 97f9 043c
00000070: 082c 9d3c c3e7 87bc 1138 b6bb 8a9c efbb
00000080: c024 1ebb 4698 b2bb 6404 373c f851 3e3a
00000090: af94 7c3b a751 d1bb 44c1 75bc 4238 c1bc
000000a0: 3afa 99bb 33a9 9d3a 7451 cabc 3c2b 8fbb
000000b0: 20f6 78ba a169 e43b 7729 a83b b4fe 893a
000000c0: bf85 01bc 4314 a3bb f17e fdbb d50c 273c
000000d0: 4bef 0e3c 08dd cfba 766c b23a 5eab 16bb
000000e0: 3de3 2d3b ac5f 1e3c d37b d9ba 9965 383c
000000f0: 3f57 16bc 7b7f 15bb 36de 70bb 793e fa3a
00000100: b112 443b a4e7 e13b b04f 843c ad41 5b3b
00000110: 4c85 123c 82e9 cdbb 65dc be3b 9bcc ee3b
00000120: 3f6e 0ab9 d6d9 eabb 477f ffb9 08d2 233a
00000130: 9155 4cbc c807 103c 97d0 2c3b 6d53 623c
00000140: c8d2 013c 6b84 e8ba bb83 4bbb f825 a23b
00000150: 436c 71bc d274 40bc 0f28 b03c 1de6 6a3a
00000160: 2c6b 76bc fd18 19ba 9130 c5ba ddd5 5a3c
00000170: 4890 d73b 4a8d 00bb 9e29 feb9 792b c13b
00000180: b552 9d3c 73d5 b73b b3e4 57bc e54e 4b3c
00000190: 0f1d 8cbc b96b 59b8 1400 a2bb 4dd7 20bc
000001a0: 19a5 d8b9 40d5 073c a4a3 4abb 62bb 033c
000001b0: c89e 77bc 4911 60bc 00e9 83bb 65f9 52bc
000001c0: b313 8c3c 8539 9e3b 1183 263c 2307 5fbc
000001d0: c692 0b3c c3c8 433c d080 3cbc 5e75 85ba
000001e0: 88e9 5cbc b251 cbbb 5b9a b6bb 80be a1bb
000001f0: 72e4 63ba 5d4d 583b a54d e23b ab88 bdbc
00000200: fc36 a1b9 283f af3b 0795 933c 3f87 fa3b
00000210: 866a 273b 600b 9bba 1ecf 9ebb beb7 663c
00000220: 325f a23c 3742 bf3b c8bc 40bc 2d9c 5d3c
00000230: 161c 063c 230b 083a 746b 383c d1e8 1cbc
00000240: 24e7 95bb 1e82 493c 2577 26bc 2950 823b
00000250: f898 c3b9 6c83 563c 78af f33b 6959 01bc
00000260: fd04 0e3c 7290 4dbc 5e9a eebb 021b 3abb
00000270: 2a6f 943b c883 84bc ddb6 4cbc ff85 963c
00000280: 7732 f43c a53a 08b9 41e7 1c3c 1913 24bb
00000290: 21e5 bb3b d570 5f3c c09d 3cbb 2c30 dc39
000002a0: cdf5 ebbb 9f3c 173c 17d6 6cbc 04d9 563b
000002b0: f4cf d9ba c04f 883a 91bd 44bc 4cc2 60bb
000002c0: 11d7 8c3c 7f37 3ebc b9a8 043b afcc e9bb
000002d0: 30b0 d43b 71a8 643c deb5 b33b 336f b3bb
000002e0: a1c9 a7bb 4515 3abc 51c0 a63b 2509 2abb
000002f0: 03ed e4bb 6e2e 8cbc d62e 3f3b ca1f d33a
00000300: 29a5 623c 67b6 873a 46ab b03b d8ab f3bb
00000310: a461 74bb a24b f23b 8b2f 1ebc 9e6c 773c
00000320: 9719 c33b add6 4f37 8f5a 473c dd2e 403a
00000330: 2d40 76bc 8df9 99bb 0894 7cbc 9624 f5b8
00000340: c728 15bb f44c debb 4631 3c3c a3f2 de3b
00000350: cf55 a33c ab88 c33c 5cf3 30bc 02d4 80bb
00000360: 2fa2 6cbb a133 843b 319a 84bc d544 8d3a
00000370: 6f58 703c 5f24 48bc c779 fabb c442 383c
00000380: d0c6 943c 6064 86bb 503d 1fbc 778f b5bc
00000390: 8505 3ebc cded 883c 2d41 1d3c c8a7 c13a
000003a0: d71e 1cbc 0599 69bc e43a b7bb 8577 183c
000003b0: 7960 6d3b 810d 7a3b 564c 32bc db83 583b
000003c0: 1ccf 3fbc 61ee bd3a c531 5cb9 2b9a 1c3c
000003d0: 1e15 e8bb 6451 55bb fd06 18bc c8f8 b7bb
000003e0: 6920 4dba afeb 3aba f850 3bbb 80ab 2e3c
000003f0: 561f 8c3c 94c7 7d3b 5074 783c 03be 1ebb
-0.0026353262 0.008473867 0.0010309654 -0.006769436 0.0059168944 0.014187091 0.017991574 0.020128733
-0.0098531665 -0.008019005 -0.010637572 -0.011189817 0.0002268468 -0.0030902128 -0.0010810386 -0.003646183
-0.009201792 0.004467639 -0.010805677 0.008934179 -0.010208672 0.0016570648 -0.0098152505 -0.00066641526
-0.004597237 -0.0043948214 0.012146535 0.0081161475 0.019186035 -0.016590005 -0.005560883 -0.007312362
-0.0024130791 -0.0054502813 0.01117048 0.0007260139 0.003854077 -0.0063879075 -0.014999691 -0.023586396
-0.004699019 0.0012028575 -0.024697043 -0.0043691676 -0.00094971247 0.0069705998 0.005131896 0.0010528178
-0.007905423 -0.0049767806 -0.00773608 0.0101959305 0.008724044 -0.0015858719 0.0013612646 -0.0022990326
0.002653315 0.009666365 -0.0016592689 0.0112546915 -0.0091760745 -0.002281158 -0.0036753542 0.0019092105
0.0029918368 0.006894069 0.01615128 0.0033455894 0.008942913 -0.00628394 0.005824613 0.0072875745
-0.00013201775 -0.0071670813 -0.0004873222 0.00062492536 -0.0124715725 0.008790918 0.0026369446 0.013813836
0.007923789 -0.0017739659 -0.003105386 0.004948374 -0.014735284 -0.011746602 0.021503476 0.0008960681
-0.0150402 -0.00058402104 -0.0015044381 0.013356653 0.006578479 -0.0019615465 -0.00048477662 0.005895075
0.019204477 0.005610162 -0.013177085 0.012408947 -0.0171037 -5.1837156e-05 -0.004943857 -0.009816957
-0.00041321738 0.008290589 -0.0030920291 0.008040281 -0.01511354 -0.013675996 -0.0040255785 -0.012876843
0.017099237 0.004828634 0.010163085 -0.013612541 0.00851888 0.011949721 -0.011505321 -0.0010182073
-0.013483413 -0.006204807 -0.0055726 -0.0049360394 -0.0008693404 0.0033005096 0.0069062286 -0.023136457
-0.0003074928 0.005348105 0.018015398 0.007645517 0.002554567 -0.0011828952 -0.0048464676 0.0140818935
0.019820783 0.005836751 -0.011763759 0.013526005 0.008185407 0.0005189648 0.011256088 -0.009576992
-0.0045746733 0.012299089 -0.010160242 0.003976841 -0.0003730727 0.013092857 0.007436689 -0.007894852
0.0086681815 -0.0125466455 -0.0072815856 -0.0028397446 0.0045298534 -0.01617612 -0.01249477 0.018374441
0.02980922 -0.00012991817 0.00957662 -0.0025035797 0.0057341014 0.013637741 -0.002878055 0.0004199756
-0.0072009326 0.009230762 -0.01445534 0.003278316 -0.0016617761 0.0010399744 -0.012008087 -0.0034295497
0.017192395 -0.011609911 0.0020242168 -0.007134996 0.0064907297 0.013956175 0.0054843267 -0.0054759025
-0.0051204716 -0.01135761 0.005088844 -0.0025945392 -0.006986262 -0.017111983 0.0029172204 0.0016107496
0.013833323 0.0010354043 0.005391511 -0.007436257 -0.0037289644 0.00739427 -0.00965489 0.01510158
0.0059539783 1.2388145e-05 0.012167587 0.0007331202 -0.015029949 -0.004698938 -0.015416153 -0.00011689325
-0.00227599 -0.006784076 0.011486357 0.006803827 0.019938378 0.02386888 -0.010800209 -0.0039315233
-0.003610741 0.004034475 -0.016186805 0.001077796 0.014669522 -0.012215703 -0.0076439115 0.011246387
0.018161207 -0.004101321 -0.009719208 -0.022163136 -0.011597996 0.016714955 0.009598059 0.0014774734
-0.009528837 -0.014257674 -0.005591737 0.009305839 0.0036220832 0.0038155022 -0.010882458 0.0033037576
-0.011707094 0.0014490598 -0.00020999376 0.009558241 -0.0070825955 -0.0032549733 -0.00927901 -0.005614374
-0.0007824959 -0.00071304565 -0.0028582197 0.010661006 0.017104786 0.0038723694 0.01516445 -0.0024222143

hidden_features.0.bias f4 [50]
00000000: c2b2 0c37 0000 0000 a8d1 5f36 cfb5 2eb7
00000010: b6be cd35 cd82 0ab7 8542 66b7 ec94 cab6
00000020: 5fcb dc37 d80b 2837 1304 aa36 1b7e 5038
00000030: 6a46 5a37 3f99 6535 8296 2fb7 62e8 c635
00000040: 5324 69b8 6c89 19b8 7341 9b37 9e31 5f36
00000050: a30a 4234 5a1b 24b5 6a24 97b7 0000 0000
00000060: ed1b 0136 3ab3 8736 4d3d 8837 d4fc 4037
00000070: de63 0a35 a292 cfb5 0c5b b6b4 e87a 0438
00000080: 1e1e 3e38 0000 0000 e1e9 a7b6 e78e a3b7
00000090: 30c7 82b6 9c0c dfb6 e14f aa37 0000 0000
000000a0: 9deb c634 2a93 f5b6 a7dd 3cb7 3400 1636
000000b0: f72b d537 9ce8 c236 18d9 7cb4 1012 cb35
000000c0: 1440 ffb7 89ce f435
8.386271e-06 0.0 3.3351625e-06 -1.0413539e-05 1.5329194e-06 -8.255895e-06 -1.3724556e-05 -6.037406e-06
2.6320746e-05 1.0016338e-05 5.066869e-06 4.970851e-05 1.3010207e-05 8.553215e-07 -1.0465856e-05 1.4819782e-06
-5.558536e-05 -3.6606027e-05 1.8507917e-05 3.325847e-06 1.8071528e-07 -6.113456e-07 -1.801756e-05 0.0
1.9238753e-06 4.0441782e-06 1.6241009e-05 1.1502958e-05 5.155433e-07 -1.5465378e-06 -3.3966387e-07 3.1585718e-05
4.532758e-05 0.0 -5.004215e-06 -1.9497658e-05 -3.8974904e-06 -6.647386e-06 2.0302776e-05 0.0
3.7051805e-07 -7.318701e-06 -1.1257281e-05 2.235186e-06 2.5412051e-05 5.80873e-06 -2.3548307e-07 1.5129935e-06
-3.0428208e-05 1.8239526e-06

hidden_features.2.weight f4 [50, 50]
00000000: 5a5d f5bb aa0c 023c 0726 87bc b8f6 393c
00000010: d2ed b3bc 386b fbbb 4b4d 13bc da26 123b
00000020: b334 eb37 a0d6 423c e4be 5abc f865 debb
00000030: b0e0 a73c 5041 1cb9 0d68 dbb8 b1bb 1939
00000040: 0cbf 333c 6b0d 60bc ea68 0b3c a4c5 d3bb
00000050: 0249 62bc 52a6 f43b e902 3b3c df9b 453b
00000060: f07f e6bb 1dd2 443c 86ed 66bc 14e7 2cbb
00000070: fb5c a7ba 84e6 fe3b de7a 81bc 0e78 37bc
00000080: 9f65 21bc 952e f8bb e544 c23c 6b9c 153c
00000090: 9693 923b 4c1b ad3c 2511 c33b 7984 383c
000000a0: db2f 0e3c 4210 4a3b e23a 4bbc 90fa 03bb
000000b0: 368b 94b9 4e66 60bc b351 eb3b 3a21 263b
000000c0: 5513 82bb 2318 6ebc 648a 53bc 2eeb cfbc
000000d0: 6c25 86bb f37a f13a 5c87 8c3c ddad 6abb
000000e0: 426d 353a b80a 363c a55c 263b dff0 c6bb
000000f0: 5b03 9b3c d9f2 313c 7926 f7ba 2bae 17bc
00000100: 192f 11bc 3f08 9dbc 4a51 e5bb 3c67 9bbb
00000110: 15ad 993b 4bb1 9d3b 9500 92bb 0a3f 483c
00000120: 1f95 b13b 8548 18bc 9e3f 333c 0f75 a1bb
00000130: f510 04bc 124c bb3a ac81 f63a c77b 21bb
00000140: 1f12 9fba b97f 293b 7f94 83bb 4df0 c53b
00000150: 7512 18bc 60c0 843c f075 21bc 5848 413b
00000160: 2575 3a3c 13c1 8b3c 35e9 a13a bd84 e93b
00000170: 96f3 2f3c d2bb c73b acd5 8c3c af04 ca3b
00000180: cef6 8f3a 6849 8c3c 20a1 e2bb f6ab 183c
00000190: a296 5eba e40a 03ba 1632 0f3a ed5d 903c
000001a0: 337d 2a3c 4cb6 a43b fffd 0f3c 5525 b93b
000001b0: 40c2 9a3b 148e 84ba 856c 20bb 1dbf 9639
000001c0: 443e a03b cbd7 f0bb ce6d f43b dcd7 ae3b
000001d0: 21ab 8ebb 486b 90bb 2d90 40bc 3905 b83b
000001e0: 1e14 38bb 8a17 6bbc dc5a 283c 7d06 9ebb
000001f0: 5e5b 1e3c 5cf9 a6bc 82e5 fe3a 56d4 5bbc
00000200: 0364 72bc c1a8 a33c 0ba9 08bb c9d0 9b3b
00000210: bb28 ccbb 4f2c 13bc 1697 62bc 302d ab3b
00000220: 0c2b 90bb 1434 033c 3fd3 773c 5dfd 73bc
00000230: 9cef da3a a7d2 81bb 228c 12bc bc80 aa3a
00000240: b496 68bb 5789 44bc 3bf2 863b a566 6bbb
00000250: 1a38 44bc e728 583a c0f8 973c 53c3 813c
00000260: 9d9f cf3c b234 daba d968 00bc 21b1 e53b
00000270: ba46 3c3b 092f 763a af11 55bb 6ef6 11bc
00000280: 2a93 0bbc 70f6 093b 7913 c23b 61a0 333b
00000290: f4fe 96bb 193b 4abc c5c8 67bb 7c03 38bc
000002a0: ff55 2b3c b9fa 22bb 6d58 abbc b0e4 3fbb
000002b0: fb29 023d 1dfa 8c3b 703a 4638 8614 b73b
000002c0: 5e97 5e3b 26ce 35bc e02f a03a 41ff cb3b
000002d0: d15d 12bc 0307 633c 1fdc 663c 5698 433b
000002e0: 8640 57bb 8d39 c9bb 7ff1 1e3c 0888 1dbb
000002f0: c970 cebb ad7b 853b f7ec 1f3c 018d b6bc
00000300: c1e4 023c 84de e33a 0772 c03b cb7d ae3b
00000310: 98f5 5cbb 105a 0e3c eab6 753c 7968 9b3c
00000320: e301 97ba 728c 76bc d44a 483c 36f0 b2bb
00000330: d0b4 083c 2c51 9f3b 842d c4bb 7bf4 513c
00000340: 113a 55bb 0704 54bc 5a97 df3b 5a10 b43b
00000350: 4254 b83b ff37 febb b364 45b9 6f85 033c
00000360: 055a 14bc ca12 893c 6049 2ebc 10d6 afbc
00000370: fa25 00bc 6a95 d03a 76fd d5bc 2f82 9e3b
00000380: 8828 04bc 8b4a 8bbb 5fd8 c2bb ec97 2b3c
00000390: 7b52 a63c 8ea2 103b 4add 34bc 9777 03bb
000003a0: 5077 efba db27 3e3c e86f 643a 89df 153c
000003b0: ee29 b3bc 064f 47bc 7d2d 25bc a04c 573c
000003c0: 7deb 533c 0a49 af3b 1608 fdbb 2dd0 babb
000003d0: 86f7 55bc e7be 3c3c 0d0c 363b c12d f639
000003e0: eae5 913b 1c57 52bb 0f25 76bc 6c19 acbb
000003f0: 5daf d33b 9876 55bb 63b3 4a3c 6975 4abc
-0.007487935 0.00793759 -0.016497625 0.011350326 -0.021963987 -0.0076726936 -0.008990596 0.002230099
2.8038723e-05 0.011891991 -0.013351176 -0.006787058 0.020492882 -0.0001490165 -0.00010462115 0.00014661138
0.010970842 -0.013675074 0.0085089 -0.0064627696 -0.013811352 0.007466116 0.011414268 0.003015272
-0.0070342943 0.012012986 -0.014094716 -0.002638285 -0.0012768799 0.0077789444 -0.015805658 -0.011198057
-0.0098508885 -0.0075739124 0.023714492 0.009131531 0.00447316 0.02113118 0.0059529715 0.011262053
0.008678402 0.0030832444 -0.0124041755 -0.002013836 -0.0002833248 -0.013696266 0.00718137 0.0025349394
-0.0039695897 -0.014532122 -0.012911413 -0.025380697 -0.0040938165 0.0018423483 0.017154388 -0.0035809197
0.0006920883 0.011110954 0.002538481 -0.0060711945 0.018922498 0.010861122 -0.001885607 -0.0092578335
-0.008861327 -0.019168971 -0.006998216 -0.004742531 0.0046898224 0.0048123947 -0.004455636 0.012222061
0.005419388 -0.009294634 0.0109404605 -0.0049272845 -0.0080606835 0.0014289638 0.0018806956 -0.0024640427
-0.0012136138 0.0025863482 -0.004015505 0.006040609 -0.009281744 0.016205013 -0.009854779 0.0029492583
0.0113804685 0.017059838 0.0012352826 0.0071264193 0.010739228 0.006095388 0.01719173 0.006165109
0.0010983588 0.017124847 -0.0069161803 0.009318342 -0.0008491074 -0.0004998876 0.00054624805 0.017622912
0.010405826 0.0050266143 0.008788585 0.0056502023 0.0047228634 -0.0010113143 -0.0024478745 0.0002875262
0.004890235 -0.0073499433 0.007459379 0.005335791 -0.0043538962 -0.00440732 -0.011753124 0.005615857
-0.0028088163 -0.014348874 0.010275569 -0.004822551 0.009665338 -0.020382576 0.0019447061 -0.013417324
-0.014794352 0.01997793 -0.002085271 0.0047551137 -0.0062304414 -0.008982732 -0.013829967 0.0052238926
-0.004399663 0.008008022 0.015126049 -0.0148919495 0.0016703489 -0.0039618793 -0.008944543 0.0013008337
-0.0035490217 -0.011995635 0.0041182316 -0.0035919335 -0.011976266 0.0008245841 0.01855123 0.015840208
0.025344664 -0.0016647785 -0.007837498 0.007009641 0.002872868 0.0009391164 -0.003251176 -0.008908851
-0.008518973 0.002105143 0.0059227315 0.0027408826 -0.0046080295 -0.012343192 -0.003536747 -0.0112312995
0.010457515 -0.002486868 -0.020916188 -0.0029280595 0.031778317 0.0043022768 4.7261303e-05 0.0055871634
0.0033964734 -0.011096513 0.0012221299 0.006225497 -0.0089335 0.013856652 0.014090567 0.0029845438
-0.0032844855 -0.006140894 0.009701132 -0.002403738 -0.006300066 0.004073581 0.009761087 -0.022284033
0.0079891095 0.001738504 0.005872968 0.0053250543 -0.0033715721 0.008688465 0.014997223 0.018970715
-0.0011520948 -0.015048133 0.012224872 -0.0054607643 0.00834389 0.0048619714 -0.005986871 0.012814636
-0.003253583 -0.012940413 0.0068234624 0.0054951133 0.0056252787 -0.00775814 -0.00018824897 0.0080274185
-0.009054665 0.016732592 -0.010637611 -0.021464378 -0.007821554 0.001591367 -0.026121836 0.0048372964
-0.008066304 -0.0042508296 -0.0059462036 0.010473233 0.020303002 0.0022069546 -0.011039088 -0.0020060295
-0.0018269811 0.011606182 0.0008714185 0.009147533 -0.02187058 -0.012164837 -0.010081646 0.013140827
0.012934563 0.005349283 -0.007721911 -0.005701086 -0.0130595025 0.011520124 0.002777818 0.00046954866
0.0044524567 -0.0032095378 -0.015023484 -0.005252054 0.006460114 -0.0032571908 0.012371871 -0.012357094

hidden_features.2.bias f4 [50]
00000000: f504 96b5 fce0 aa3a 15bb 9fb8 2175 0f3a
00000010: bc72 d6b7 0000 0000 6b18 3fb6 2064 063a
00000020: 7575 c2b8 e93a 3bba 2d03 9e37 88a1 a138
00000030: 03aa edb6 f472 f939 b227 5739 18d3 c339
00000040: a8da 82b9 168b ecb9 0000 0000 b64a 9eb8
00000050: d92f 89b8 c995 883a 9b89 b039 362b 1d39
00000060: 64d4 61b8 4f9b 3a3a 0ffe 8b39 91ce a5b9
00000070: e604 bb39 7bd6 e9b8 4e4d 6036 fb26 7b3a
00000080: 72fd 3fb9 7cfe 5c3a 838c 89b8 0000 0000
00000090: 65a9 9f38 0000 0000 46aa d636 062c 83b9
000000a0: dff1 c237 1e8d a8b8 b7df ba38 bd48 85b9
000000b0: d660 5bb8 b0a9 04b7 2b27 6bb9 b1f0 3eba
000000c0: 90ea cab9 5f5f ddb9
-1.1177314e-06 0.0013037021 -7.6165576e-05 0.00054724707 -2.5564215e-05 0.0 -2.847543e-06 0.0005126614
-9.272519e-05 -0.0007142262 1.8836547e-05 7.707166e-05 -7.0829424e-06 0.00047578628 0.00020518785 0.00037350575
-0.00024958444 -0.00045117055 0.0 -7.547943e-05 -6.5415814e-05 0.0010420616 0.0003367186 0.00014988784
-5.3841984e-05 0.00071184797 0.00026701434 -0.00031625156 0.0003567107 -0.00011150256 3.3423598e-06 0.00095806987
-0.00018309595 0.0008430255 -6.5588414e-05 0.0 7.613263e-05 0.0 6.3975194e-06 -0.00025019067
2.3239232e-05 -8.0371494e-05 8.910841e-05 -0.0002542193 -5.2303854e-05 -7.907322e-06 -0.00022425938 -0.00072837906
-0.00038703205 -0.00042223462

density_estimator_head.weight f4 [50, 11]
00000000: 64cf 85bc 180f 7f3c 5ac1 29bc 97b3 d6ba
00000010: 6b0d 6b3b 8e6b 82b9 2740 963b 114f f5b9
00000020: df54 083c 3c05 b23b c5a1 bdba a6fd 44bc
00000030: 7a4d 0bbc 3785 803c e8ad 70bc 9804 b03b
00000040: 00e3 363c 5d69 00bc f345 7138 75db 3e3b
00000050: 7e96 513c ecf4 323c 060b 5bbb 6ae9 7839
00000060: d12a d13b a361 e6bb 19c9 27bc 86de d6bc
00000070: f5cd 08bc aff2 01b9 0d2d 293b 9d7e 41bb
00000080: 4ece 3abb 7ba0 ab39 54f9 983a 4c99 11bb
00000090: 995a 4a3c 1360 b4b9 e2e9 4d3c 9cb4 cfbb
000000a0: 822d 9e3c d6d2 a03b 4bc6 513c f081 1f3c
000000b0: 7933 203c 5459 90bb 6b88 21bc 7396 aabb
000000c0: 9642 4c3c 4153 16bc c937 c2bb 6aa4 fc3b
000000d0: d92b f63b 8e47 1abc 83be 46bb 08a2 8abb
000000e0: 93c5 6abc 298c 3bbb 2e14 e0bb 9e77 3cba
000000f0: 8bda 4bbc 9d33 073b cd02 f3b9 ee01 6a3a
00000100: 36f5 e43b 9f5a 8dbc 5af0 21bb 8dea 7b3c
00000110: 13b7 4c3b e891 0e3c b8b3 22bc 27e3 ccbb
00000120: 3d6d 8e3b 411a 67bc 6ce0 c4bb f2fc d73b
00000130: 8d6f 80bc adfb 65bb 2e27 1c3c 7765 133c
00000140: d959 3fbc 012a 77bb f2c3 d63b d1a4 a1bb
00000150: 1e50 cbbb eb32 7d3c 992f a33a a898 813c
00000160: 84d7 f43b ff82 10bc 5bee 503c ac93 573b
00000170: 6f40 683c 334e f2ba 3093 96bc df4f bebb
00000180: 7111 39bc dbbe 55ba 8db2 18bc 9c5b 7f3b
00000190: f508 03bc 755f 583b 7013 9b3a 85e5 2e3c
000001a0: dfc7 aa39 1b80 f9b9 8686 41b7 d82a 89bb
000001b0: 2bce 3dbc 630f 3ebc dc5a 0a3a 4dd1 023b
000001c0: ab25 b33b 455a 3e3b 96de 6abc dc55 3f3c
000001d0: 20e3 85b9 d1c8 c939 bcba 9b3b 9efc c13a
000001e0: 4041 fa3b 4945 2ebc d9e0 813c 7d1b fa3b
000001f0: 3243 90bc 0265 1f3c ca5a 6d3c cab5 813c
00000200: b6a9 02bc f6ca fcb8 f3a8 94bb 6caf e53b
00000210: 40dc 233c 7640 a2bb abe6 0b3b 844f b0bb
00000220: dbc1 df38 fdb0 fa3b 7c8f 1fbc 19ae a0bb
00000230: e6c0 6f3c 6818 433c 478b 36ba f7d2 4ebc
00000240: e043 5bbc 707f ce3c e5f3 12bc c599 a23a
00000250: 3b17 8abc b9d1 d9bb da56 a5bc 7afe e73b
00000260: ef65 7fbc 585a 833c ea0b a03b a7bb 53bc
00000270: 0544 acbc 8774 0a3b 501d cdbb 2ddb 053c
00000280: 7195 f639 ae29 86bb 0d62 c53b bda3 3e3a
00000290: 1374 38bb 0a61 06bc bfc8 fe3a 57bf 0abb
000002a0: 3acf 413c f491 45bb 1333 7b3a c713 28bc
000002b0: b97b 003c f5e5 f7bb a6b0 e93b f9e3 c53b
000002c0: ee3d 4bbc 5229 213c e05b 1a3c 7f7c 50bc
000002d0: 54c2 f6ba 93d1 e4bb 5607 01bb ec75 ccbb
000002e0: c677 7a3b 7fe5 69bc be05 d5bb 36ab a1ba
000002f0: 9912 793c 0fee 003c 2011 7abb eeca a83b
00000300: 214e 143c 3065 c4bb afd9 7d3c dfed f93b
00000310: 4225 833b 78ce fabb 30f9 99bc 593e 05bc
00000320: 5e09 823b 2e18 fab8 f516 1c3c 1424 26bc
00000330: 33d3 0bbc e5ec 883c 0299 12bb 8c85 b1bc
00000340: ff05 8bbc 1907 ec3b 9073 79bb f93e cb3b
00000350: 1ea6 04bc 97b2 82bb 4f7d cebb d85d b3bb
00000360: 61b7 0f3c a473 6d3c 10b3 dd3b 30a5 59bc
00000370: fa64 013b 891c 653c 6aee a33b 4676 343c
00000380: a71b 8cbb c609 3c3c a0d5 74bc c70a 54bc
00000390: 30a0 8ebc 29c3 7dbc d7c7 bb3b 8aa5 70bc
000003a0: f3c3 46bc f9fe b63b fedd 96bc 039c d53b
000003b0: 837c f03b bda8 19bc 4f7e 20bc 3138 bd3b
000003c0: d1e6 2f3c 5138 58bb 92d5 26bc f7b1 0b3c
000003d0: 57b6 a13c b825 9c3b 3220 7abb d54a 23bc
000003e0: 3cfd 033d a05f e53b 7a32 013c 5727 a83b
000003f0: 2135 863b 338b 463b e6de baba d8af 38bc
-0.016334243 0.0155675635 -0.01036104 -0.0016380426 0.0035866152 -0.00024875667 0.0045852843 -0.0004678895
0.008321016 0.005432753 -0.0014467767 -0.012023365 -0.008502359 0.015688522 -0.0146899 0.0053716414
0.011162519 -0.007837621 5.7524023e-05 0.0029122506 0.012792228 0.010922652 -0.0033423319 0.00023738077
0.006383278 -0.007030682 -0.0102408165 -0.026229154 -0.008349885 -0.00012392805 0.0025814206 -0.002952493
-0.0028504315 0.0003273523 0.0011670985 -0.0022216616 0.012350702 -0.00034403856 0.012567969 -0.006338669
0.01930881 0.004907946 0.012803624 0.009735569 0.009777897 -0.00440518 -0.009859185 -0.005205923
0.012467047 -0.009175123 -0.0059270603 0.0077100294 0.0075125513 -0.009416474 -0.0030325956 -0.0042307414
-0.014329332 -0.0028617478 -0.006838343 -0.0007189455 -0.012442241 0.002063013 -0.00046350659 0.0008926679
0.0069872392 -0.017255126 -0.002470991 0.0153757455 0.003123705 0.008701779 -0.009930544 -0.0062526646
0.0043465183 -0.0141053805 -0.0060081985 0.0065914327 -0.015678192 -0.0035092637 0.009530826 0.008996359
-0.011679136 -0.0037714245 0.00655412 -0.0049329777 -0.006204619 0.015454034 0.0012450098 0.015819862
0.0074719805 -0.008820294 0.012752141 0.0032894416 0.014175518 -0.001848644 -0.018380731 -0.005807861
-0.011295662 -0.0008153745 -0.009319914 0.0038964516 -0.007997741 0.0033015881 0.0011831354 0.010674839
0.00032573842 -0.00047588427 -1.1535018e-05 -0.0041860156 -0.011584799 -0.011600348 0.00052778213 0.0019961179
0.005467137 0.0029045504 -0.014335295 0.011678185 -0.00025536958 0.00038487327 0.004752485 0.0014800017
0.007637173 -0.010636636 0.015854286 0.0076326714 -0.017610166 0.009728672 0.014486978 0.015833754
-0.007975033 -0.00012054101 -0.004536742 0.0070094373 0.010001242 -0.004951532 0.0021347206 -0.0053805728
0.00010669577 0.007650493 -0.009738799 -0.0049035666 0.014633393 0.011907674 -0.0006963503 -0.01262354
-0.013382882 0.025207251 -0.008969282 0.0012405446 -0.01685678 -0.0066473153 -0.020183016 0.0070798965
-0.015588268 0.01603429 0.0048842328 -0.012923158 -0.021028528 0.0021126585 -0.006259598 0.008169931
0.0004703212 -0.004094324 0.0060236515 0.0007272324 -0.0028145358 -0.008201847 0.0019438489 -0.0021171176
0.011829192 -0.003014681 0.0009582501 -0.010258622 0.007841998 -0.007565255 0.007131654 0.0060391393
-0.012404902 0.009836512 0.009421319 -0.012724995 -0.0018826225 -0.006982991 -0.001968821 -0.0062396433
0.0038218363 -0.014275908 -0.0065009287 -0.001233435 0.015202188 0.007869258 -0.003815718 0.005151144
0.0090518305 -0.005993508 0.015493794 0.0076272334 0.004002244 -0.0076540075 -0.01879558 -0.008132541
0.003968402 -0.00011925433 0.009526958 -0.010140438 -0.008534241 0.016714523 -0.0022369032 -0.021670125
-0.016970633 0.0072029945 -0.0038063265 0.0062025753 -0.008096246 -0.0039885747 -0.006301559 -0.0054738335
0.008771748 0.014492903 0.0067657307 -0.013284013 0.0019744025 0.013983854 0.0050027864 0.011014527
-0.0042757574 0.01147694 -0.01494351 -0.012942023 -0.017410368 -0.015488424 0.00573061 -0.014687905
-0.012131679 0.0055845943 -0.018416401 0.006518842 0.0073390617 -0.009378609 -0.009795739 0.005774521
0.010736183 -0.0032992552 -0.010182755 0.008526317 0.019740267 0.0047652386 -0.0038166163 -0.009966572
0.032223925 0.006999925 0.00788557 0.005131643 0.004095689 0.0030295372 -0.0014257103 -0.011272393

density_estimator_head.bias f4 [11]
00000000: d43a 07bd 240e c8bc d4d3 10bc f936 f1bb
00000010: c778 053b 4ab6 c1b9 cd8e 353b 3bb9 49b9
00000020: a1f0 073c d179 fb3c c002 f93c
-0.033015087 -0.024420805 -0.008839566 -0.0073612896 0.0020366178 -0.00036947645 0.0027703524 -0.00019237857
0.0082971165 0.030697735 0.03039682

Q1.0.weight f4 [50, 50, 5]
00000000: ef92 053f e2d0 423f 3cd7 4bbf 81da 3ebd
00000010: ac7b 98bf 5e76 2e3e 0aec 31bf 2592 c13e
00000020: 4d84 b83e e738 0dbe c175 dcbe b9bc f33e
00000030: ae63 053e efb6 2dbe 8b39 dd3e a14a 00bf
00000040: df87 453f 1c48 ee3e 67b5 5ebf 73c8 a83f
00000050: 8e48 7f3f 62cd f33e 8891 8fbd 8327 703e
00000060: 7817 523f 63d1 ab3e bf1e 283f 8394 e03e
00000070: 12e8 213e 260e 10bf a972 983f 9a36 96be
00000080: efa8 b33e 12d5 0f3f 73f3 9c3f 84a1 99be
00000090: eb62 963e 38a2 7d3f 4db6 3fbf 9990 f1be
000000a0: 01da d2be 4317 c7be 55e9 393f 4e19 dcbe
000000b0: 1729 f83f fd1e 583e b3c6 84bf 702c 5abf
000000c0: 3344 5b3e f422 0dbe ba2d a93f bd68 a13d
000000d0: 4354 e6be ae9a c2bb c681 29bf 0a11 45bf
000000e0: 9196 a8bd 7d6d 143e 5036 a53f 8cae ba3f
000000f0: c58b 3340 812b a8bf 85d5 aa3d b632 dcbf
00000100: 36ca 14bf 1b9c a6bf ff46 6f3f b716 c13a
00000110: 2c66 8d3f bbd9 94bd 6bc1 4a3f 8e46 16bf
00000120: 310c eb3e 9aec 30bf a13b 6c3f 4d2e bb3f
00000130: 28ec e9bf 57c2 223f 18e8 8dbf 15bd 0f3f
00000140: 387e b2bf ca78 34bf fd8f 9c3f 3683 30bf
00000150: 00b9 453f 414f d93f 3faf b73f e58d 293e
00000160: 9304 e63f 5afb 043c 68d7 29bf ad28 453f
00000170: 72ed 0dbf 1f67 523f 13c0 9c3f 5a1a 0240
00000180: 0589 8dbd 85b3 13be 57fd 2fbe 51c7 c7bd
00000190: 8737 bf3e 1d48 f9be 9d37 9b3f 68a4 b73d
000001a0: fd2b 7d3e 8196 a8be c84b 51bf 5644 623f
000001b0: 4e84 dabf 473e c33f b748 25be c245 30bf
000001c0: 00d7 0cbf e809 af3f 3eba 2a3f 4e8d 883d
000001d0: 574e 22be e6c7 fc3f 84af 44be 82f4 123e
000001e0: 6881 cdbd 4378 d5bd a4a9 4dbf 03e1 3cc0
000001f0: f338 873f 164d 47be 32cf 733f 9f59 c63f
00000200: 923c 3bbf 80a1 0bbe a6ac b03e b526 6c3f
00000210: c86c 57be d90a 09be 3af1 983f aef3 9d3f
00000220: c1e4 b73f c56f 23bf 2ce0 593e 28e0 9e3f
00000230: dd4b 173f e597 39bf 99cc 27bf c440 12c0
00000240: 8646 a0bf a715 31bf 49dd d83f 35d0 383f
00000250: 96b3 88bf 645e 54bf 0e64 513f 1eb9 813e
00000260: 8146 c3bf e101 89bf 776e 82bf 836b ab3e
00000270: 9717 a13f 1b11 0b3f 49cc c7be 9128 f63e
00000280: 7063 423f dc2e 68bf 2538 91be cedd a33f
00000290: 6483 8a3e 840f 94bf c78d 23be 4228 fc3e
000002a0: 6a18 2d3f b4f2 86bf 8e58 9c3d 671e 243f
000002b0: 1727 bcbe fb33 76bf d875 50bf e582 0e40
000002c0: 4c35 023f eea2 2fbf a2b5 523f 2512 b7bf
000002d0: bc43 b93f 49ff 06bf 7a50 213f 8ae3 be3e
000002e0: 7128 163c c225 7f3f ceec 3a3f 976d d43e
000002f0: 97ba f73f 867c 63bf 1583 f73f f9d6 a03f
00000300: d08c 8a3f 77d6 3a3f ab9d 71bf 7619 b33e
00000310: 3ca5 013f bb16 aa3f 64cf e3be af16 753e
00000320: 1e2e 65bf 100e 83bf 1c54 ed3e d141 b13e
00000330: f294 cbbe c59d 96be b71d 6c3d 1d9f 16be
00000340: 7a5a 3b3f 5829 84bf 1f92 85bf 64aa c2bf
00000350: 025a d03f 88ec 82be f1c4 f0bf d21a f2be
00000360: 4a3b 4b3f c191 02bf ace1 ae3f 67cb 81c0
00000370: 018b df3d 4c92 c23f 95c3 d0be cce9 963f
00000380: f6ac 7f3f 71ac 1d3f 4aee b93f 040e 203f
00000390: de5c 69bf ded9 fbbf bca9 c33c fc34 713e
000003a0: 9047 ccbe baa0 8d3e cb06 4c3f 8950 7abf
000003b0: 0341 443e ffd8 143f afd9 a9bf 06ff 023f
000003c0: a402 c93e ee64 15bf 9204 843f 726c 493f
000003d0: 3771 ccbf 1275 593e 46ab f9be 0f98 a9bf
000003e0: aa37 923e 8d10 ee3f 13fb 6bbf 24ba a73e
000003f0: 004d 17be eab5 483e 5607 173e 6202 dabf
0.5217733 0.7609998 -0.79625297 -0.0465951 -1.1912742 0.17037341 -0.6950079 0.37806812
0.36038437 -0.13791238 -0.4305859 0.4760492 0.13026306 -0.16964315 0.43207964 -0.50113875
0.7716045 0.4653939 -0.8699555 1.3186172 0.99720085 0.47617632 -0.0701018 0.23452573
0.8206706 0.33558187 0.65671915 0.43863305 0.15811184 -0.5627159 1.1909992 -0.29338533
0.35089824 0.56184494 1.2261795 -0.3000604 0.29372343 0.9907565 -0.74887544 -0.47180632
-0.4118195 -0.38884935 0.7262166 -0.42988056 1.938754 0.21105571 -1.0373138 -0.85224056
0.21412735 -0.13782865 1.321708 0.07881305 -0.44986162 -0.0059388494 -0.66213644 -0.76979125
-0.08231843 0.14494891 1.29072 1.4584517 2.8054059 -1.3138276 0.08341507 -1.7202976
-0.5812105 -1.301639 0.93467706 0.0014731501 1.1046805 -0.07268091 0.7920138 -0.5870141
0.4590774 -0.69111025 0.92278486 1.4623505 -1.8275194 0.6357779 -1.1086454 0.5614789
-1.3944769 -0.7049681 1.2231442 -0.6895021 0.7723541 1.6977311 1.4350356 0.16558035
1.7970146 0.0081165675 -0.6634431 0.7701519 -0.5544044 0.821886 1.2246116 2.0328584
-0.069109 -0.1442395 -0.17186485 -0.097548135 0.37347052 -0.4868783 1.2126347 0.08966905
0.24723811 -0.32927325 -0.8175626 0.8838552 -1.7071626 1.525338 -0.1614102 -0.6885644
-0.55015564 1.3674898 0.66690433 0.06667577 -0.15850197 1.9748504 -0.19207579 0.14351085
-0.10034448 -0.10423329 -0.80336976 -2.9512336 1.0564255 -0.19463 0.9523803 1.54961
-0.731393 -0.13635826 0.3450672 0.9224656 -0.2103759 -0.13383044 1.1948617 1.233999
1.4366685 -0.6384242 0.21276921 1.2412157 0.59100133 -0.724974 -0.65546566 -2.285203
-1.2521522 -0.69173664 1.6942531 0.721927 -1.0679805 -0.8295653 0.81793296 0.25336546
-1.5255891 -1.0703698 -1.0189961 0.33480462 1.2585324 0.54322976 -0.39023045 0.48077825
0.7593298 -0.906965 -0.28363147 1.2802064 0.27053368 -1.1567235 -0.15972053 0.49249464
0.6761538 -1.0542817 0.07634078 0.6410889 -0.36748573 -0.96173066 -0.81429815 2.2267392
0.50862575 -0.68607986 0.823084 -1.4302412 1.4473796 -0.52733284 0.6301342 0.37282974
0.009164915 0.9966699 0.73017585 0.4148986 1.9353818 -0.8886188 1.9336878 1.2565604
1.0824223 0.729835 -0.9438121 0.34980363 0.5064275 1.3288187 -0.44494164 0.23934434
-0.89523494 -1.0238667 0.46353233 0.34620526 -0.39762074 -0.29417244 0.057645526 -0.14709134
0.7318493 -1.0325117 -1.0435218 -1.5208249 1.6277468 -0.25571084 -1.8810102 -0.47286087
0.7938734 -0.5100365 1.366262 -4.0560794 0.10915185 1.5200896 -0.40774217 1.1790099
0.9987329 0.6159125 1.4525845 0.62521386 -0.9115733 -1.9675863 0.023884647 0.23555368
-0.39898348 0.27661687 0.79697865 -0.97779137 0.19165425 0.5814361 -1.3269557 0.51170385
0.39259827 -0.5835713 1.0313895 0.786811 -1.597205 0.21236065 -0.48763484 -1.324953
0.28558093 1.8598801 -0.92179984 0.32759202 -0.14775467 0.19600645 0.14748892 -1.7031977

Q1.0.bias f4 [50, 5]
00000000: 8404 efbb 4173 f7ba a12a 303a f2f0 953a
00000010: b20d dd39 a334 0c3c f4f6 5c3b cc17 b53a
00000020: 6ea1 c738 c32c 1639 fbe3 183b eb44 e03a
00000030: 6dc0 bd3a 7fff 0f3a 4f15 0a39 b8df faba
00000040: bd37 7a3a 939f ec3a 2415 7e3a dc0c 5a38
00000050: 259f 16bb 101b 173b 27d6 6e3b 4c3f fa3a
00000060: 9b8f 9939 29e3 3b3c 1741 113c d17a e53b
00000070: 0fd0 1b3b d391 0139 0b3b 8d38 68b7 1839
00000080: 6a7a 6439 5959 0739 1f15 6438 32c9 b4bc
00000090: 7975 f7b8 157f fa3b 664c b03b f022 b439
000000a0: fa7f 73bb ae46 4b3c 264d 7b3c 1250 e93b
000000b0: 9416 033a 3455 773b 16a2 85ba c338 43bb
000000c0: a9a2 f9ba 6cc5 01ba 5528 f7b9 0530 55bb
000000d0: 490d 91bb e1f9 18bb ff95 1eba e48d 79ba
000000e0: f321 1eba 1dc6 03ba fa33 50b9 372a 0cb8
000000f0: d481 a33c 9e9e 3f3c f206 f83b c8b9 013b
00000100: 3769 1537 b1b2 5cbb c447 193c 6781 493c
00000110: 23ea bf3b 9649 f339 8f53 963c 1d53 b7bb
00000120: eaae 67bc dae0 0bbc 7985 d4ba 27ea 97bb
00000130: 59f8 abbb b878 a3bb 571d 0bbb b622 03ba
00000140: b707 c13c 6042 453c 978d e13b b5d6 bb3a
00000150: 9620 85b7 c8e7 983b 1c7e c23a 40be e338
00000160: 5855 b0b9 88a3 66b8 1b2e 39bb 4af7 6dba
00000170: e2aa a0b9 47ad 0838 430d 19b9 1178 063d
00000180: bff6 b53b 1799 88bb d69c 8ebb fc7c e0b9
00000190: 0000 0000 0000 0000 0000 0000 0000 0000
000001a0: 0000 0000 8289 f4ba 361a 8db9 bba1 56b8
000001b0: fc23 feb4 0000 0000 be4a d3bb 8cb1 76bb
000001c0: 7526 1abb e962 14ba c080 2ab8 2406 aebb
000001d0: 121d 55ba 68e8 353b 5352 2d3b beed 6c3a
000001e0: b867 abbb 8c5b 4ebb 60b7 21bb a1c1 7fba
000001f0: aa22 c7b9 38e5 883d b009 8f3c 5640 46ba
00000200: 4306 abbb 6912 17ba 27f9 2e3c 0aec 1b3a
00000210: 3e81 12bb 0afc c7ba 7856 6039 ef38 d6bb
00000220: dee6 c13b 9607 213c 6a9b a53b 12bb a236
00000230: c78b e3ba fa58 8c37 c44c 9239 e3c6 2739
00000240: 80fb 6938 3665 4cbc daf8 9abb 7203 d2ba
00000250: 48c4 2239 56f1 af38 01d1 93bb cd26 3abb
00000260: ae31 faba bd46 13ba 4b4a d7b8 38bf d93a
00000270: be94 aabb 1170 06bc eada 95bb 1326 97ba
00000280: 0000 0000 0000 0000 0000 0000 0000 0000
00000290: 0000 0000 1f9b f63b b83b 96b9 412c 37bb
000002a0: a0cd edba 7289 e7b8 0000 0000 0000 0000
000002b0: 0000 0000 0000 0000 0000 0000 0000 0000
000002c0: 0000 0000 0000 0000 0000 0000 0000 0000
000002d0: 0ae0 f53b de1e 393a 03db 07bb 87a5 e1ba
000002e0: 48a1 c7b9 a11a 85ba 6dfb d53a 7cad 593b
000002f0: f62f 053b 8ac3 c339 618e ec3a 9c5d 28ba
00000300: bf23 00bb 2667 a7ba 2ad2 88b9 0fa6 21bb
00000310: 5248 33bb 25fe 3abb 2e93 acba 09f8 aeb9
00000320: 4c5b fd3c 2013 593c 4278 c43b 94f4 093a
00000330: 937d 19b8 1721 e2b9 c963 3239 9911 a03a
00000340: 8cb1 883a 40cd 1e3a 770c d73c 05e0 093c
00000350: d70b cd3a 7db6 9dba 66ae 30b9 2aa7 8abb
00000360: 31df 6abb 5bc7 51bb 329f a9ba efde 89b9
00000370: f3bf 973a 0607 d7ba 92e4 41bb da1b e7ba
00000380: 6778 04ba 1ef1 d0bb b626 90bb a7ea 69bb
00000390: beb7 b1ba f137 9ab9 c4cf 233b 1397 293c
000003a0: 0968 413c 92a9 ab3b c86e 7b39 4454 95b9
000003b0: e2d1 603c 833a 8f3c 11a9 093c 9bb3 313a
000003c0: 6727 8a3c 4af1 ed3a e194 43bb 401b 1ebb
000003d0: f61c 8b37 5dda f63b 0000 8239 378a 0cbb
000003e0: 3332 c8ba 29c9 09b9
-0.0072942395 -0.0018878953 0.00067202194 0.0011439605 0.0004216261 0.008557471 0.0033716531 0.0013816296
9.519128e-05 0.0001432179 0.0023329246 0.0017110383 0.0014476903 0.0005493089 0.00013168644 -0.001914016
0.0009545049 0.0018052928 0.0009692481 5.1987226e-05 -0.002298304 0.0023056902 0.0036443563 0.001909235
0.00029289428 0.011467733 0.008865616 0.0070031662 0.0023775136 0.00012356722 6.7344015e-05 0.00014564174
0.00021789377 0.00012907888 5.4379107e-05 -0.022068594 -0.00011799759 0.007644544 0.005380201 0.00034358306
-0.0037155137 0.012406988 0.015338218 0.007120141 0.0005000618 0.0037739994 -0.00101954 -0.0029788471
-0.0019045669 -0.00049503776 -0.0004714156 -0.0032529843 -0.0044266325 -0.0023342299 -0.0006049573 -0.00095197395
-0.00060322805 -0.00050267746 -0.00019855789 -3.3417917e-05 0.019959368 0.011695532 0.0075691873 0.0019794572
8.905589e-06 -0.0033675844 0.009355489 0.012298918 0.0058567687 0.00046403398 0.01835039 -0.0055946247
-0.014140824 -0.0085374955 -0.0016214094 -0.0046360674 -0.005248111 -0.004988756 -0.0021227205 -0.0005002426
0.023563249 0.012039751 0.006883334 0.0014330955 -1.587001e-05 0.0046663024 0.0014838609 0.0001085964
-0.00033632922 -5.4988574e-05 -0.002825624 -0.00090776815 -0.00030644896 3.2586304e-05 -0.00014596157 0.032829348
0.005553096 -0.0041686404 -0.0043521924 -0.0004281773 0.0 0.0 0.0 0.0
0.0 -0.0018656703 -0.00026913144 -5.11722e-05 -4.733737e-07 0.0 -0.006448119 -0.0037642447
-0.0023521457 -0.0005660491 -4.0651066e-05 -0.0053107906 -0.0008129637 0.0027756933 0.0026446774 0.0009038112
-0.00523087 -0.0031487672 -0.002467595 -0.0009756331 -0.00037982065 0.06684345 0.017460674 -0.00075626874
-0.0052192523 -0.0005762936 0.01067952 0.00059479533 -0.0022354866 -0.0015257609 0.00021394517 -0.0065375487
0.005917414 0.009828469 0.005053927 4.849754e-06 -0.0017360382 1.6730733e-05 0.00027904485 0.00016000452
5.5785757e-05 -0.012475302 -0.0047293724 -0.0016022755 0.00015522644 8.3896026e-05 -0.004510999 -0.0028404475
-0.0019088292 -0.0005618146 -0.00010265837 0.0016612774 -0.0052057197 -0.00820543 -0.0045732157 -0.0011531733
0.0 0.0 0.0 0.0 0.0 0.007525816 -0.00028654723 -0.0027949961
-0.0018142946 -0.000110405395 0.0 0.0 0.0 0.0 0.0 0.0
0.0 0.0 0.0 0.0 0.007503514 0.00070617895 -0.0020729906 -0.0017215469
-0.00038076402 -0.0010155031 0.0016325541 0.0033214977 0.0020322776 0.00037338986 0.0018047803 -0.000642264
-0.0019552556 -0.001277183 -0.00026096526 -0.002466563 -0.0027356339 -0.002853283 -0.0013166422 -0.00033372667
0.030927323 0.013249189 0.005995781 0.000526258 -3.6594993e-05 -0.00043130733 0.00017012576 0.0012212276
0.001042889 0.00060578063 0.02625106 0.008415227 0.0015643787 -0.0012032535 -0.00016849636 -0.0042313533
-0.00358386 -0.0032009694 -0.0012941121 -0.00026296775 0.0011577591 -0.0016405291 -0.0029585701 -0.0017632202
-0.0005053342 -0.0063763997 -0.004399146 -0.0035692842 -0.0013558788 -0.00029414849 0.0024995664 0.01035096
0.011804589 0.00523872 0.00023978495 -0.00028482277 0.013721915 0.017483955 0.008402125 0.00067787775
0.016864492 0.0018153575 -0.0029843377 -0.002412513 1.6583577e-05 0.007533355 0.00024795532 -0.0021444687
-0.001527375 -0.00013140276

Q1.1.weight f4 [50, 1, 5]
00000000: 2e49 99bf 3837 31bf 720f afbd 8360 383f
00000010: e220 ffbe 76c9 14be 08c2 963f b6ce 203d
00000020: 2764 d1bf 7ac1 023f 5160 cb3d d89c 03bf
00000030: abf2 b1bf f5d4 9c3f 2b15 0c3f c780 aa3c
00000040: b56f 2bbf 2ec9 003f 28be bdbf b0c8 113f
00000050: 7abc 55be aa2d 1bbf f9b1 1c3f 41fd ecbd
00000060: b80d 953f bddc dd3e 0d76 48bf f9c4 bdbe
00000070: 0116 ebbf 6c4b 5ebf 86df f7bf 43d8 ddbd
00000080: bfa4 a6bf c8d7 c0bf 48fa d13d 5847 babf
00000090: 2929 f5bf 07e7 29bf df1c 39be 93ba 663f
000000a0: d866 86bf 23de 76bf 71f4 42bf 98f7 d8bf
000000b0: fa7c c3be ba69 e53d e4be 343f de63 14bf
000000c0: 5e48 adbc 3407 543f f972 0a3e 8dbf b8bb
000000d0: b012 af3e 9b19 043f 646d 9ebd e25a 843f
000000e0: 28fe 903e 343f 223f 19b1 84be ceb0 193f
000000f0: 4102 253f f628 d13c e74b fabf 5f6c 66bf
00000100: 7be6 6ebf df52 29be 9dc2 a2bf 5b20 c7bf
00000110: 6354 19bd f49c 853f 3968 803f ab68 213e
00000120: 3011 d33f 127d 61bf 46f5 a6bf 26b0 63bf
00000130: 7ace 263f 2db9 c83f 8a4f 3b3f e6cd e53f
00000140: 00a5 7c3f 525d 3dbf a6c8 8abf 48a5 80bf
00000150: ac65 adbf f394 f53e 6202 01bf 0e8e 0c3e
00000160: 05bc d3be 3572 ec3d 8850 24bf a548 8dbe
00000170: 2246 533e 5afa 01bf 7c42 0540 e019 8a3f
00000180: 87bd ad3f 4c5a 4fbf 5817 c93e 267f 0ebf
00000190: 815a fa3f 98c3 3f3f 33f3 33bd 430f 56bf
000001a0: 820a cebf 74c3 bbbe 4148 03be 83de 9b3f
000001b0: 66be 28bf d23a 6bbf 5603 e3be 886c 84bf
000001c0: 5c3d 96bc a4a4 15bd 5ac4 893e 674a 87bf
000001d0: 9d97 12be 0a1a 84be 2409 76bf 9bfc 9dbf
000001e0: 8e7c ae3e 6cdf 99bf 6354 5cbe 7eeb 56bf
000001f0: fb87 1cbf 7676 2d40 3c46 8d3e 8e0f a9bf
00000200: be3b d23e 4910 5fbe 5846 5c3f 4d3c adbf
00000210: 848f ff3f 25b8 703f 1078 fe3f 4404 b0bf
00000220: 8a99 8dbf 52bf 2bbe 4a4a b0bf e47b 03bf
00000230: 7d6a 14be 6aee 93bf eb5d af3e ee09 d9bf
00000240: a15a 8cbd 558b f4bf 07e9 373f b47d 77be
00000250: d4c4 06c0 1873 873e 2539 15bf 61e7 8cbe
00000260: f438 0a3f 5ea5 d7bf 46c7 0f3f a29c 82be
00000270: d73c d03f 5f7e f7be e0f9 a23e 3d7d 90bc
00000280: 7242 8dbf 3578 433d af77 c13e e7d6 e1bd
00000290: d1ac 3dbf 15bd be3e 907b 4cbc d0f0 183f
000002a0: c929 a93e c7af 303f 6a0e bc3f 238b 123e
000002b0: c512 d93f 397f 753f aac2 603e ff06 5b3e
000002c0: e0e9 b83e 837c 723f 0bb6 52be 7f56 8c3e
000002d0: 2593 253f a42c 21bf 8f72 2d3f c0a6 a0be
000002e0: a794 8a3e 6ad0 aabf 7c56 903f ce21 4cbe
000002f0: c504 813c 0dc6 f53e 954b 09bf 6ecc 7c3f
00000300: 3821 2c40 65a2 8cbf 1826 893e c52c f43e
00000310: 97e0 af3f 3d72 b1be 1d7a 6b3f 7165 4bbd
00000320: a9fe a13f 39fd 2ebe 33cc 01c0 a72d b33e
00000330: 238b 973f e560 06bf b36e 2740 4bcd ca3e
00000340: b45f 40bf d2e2 9d3f 42c6 663f 9085 e93e
00000350: be04 80bf 410f cabe a253 5a3e fd2f 6cbe
00000360: 6665 88be d68a 933f 25a7 0a3f 79fb b5be
00000370: 72fd 163d 3be2 493e 6ef6 883f cf76 e73f
00000380: 76e3 053f 023f c9bd 5524 ccbe 911d 123f
00000390: 20fd 9f3f a143 263f 7fcd ef3b 1828 e4bf
000003a0: 83ad bfbf 6422 d9be fa6a 743f fdf9 00bf
000003b0: bfc2 c2bf 2c45 e6bf 181a 8abf 97ba 0b3f
000003c0: 98e5 d63e a433 fa3f cf48 e1be d3af 01bf
000003d0: 9234 9abf d108 fa3e 199b f0be 1b41 293f
000003e0: 3892 9f3e d92a 37bf
-1.1975458 -0.6922488 -0.08547868 0.72022265 -0.49829775 -0.14529976 1.1777964 0.039259635
-1.6358689 0.5107647 0.0993048 -0.514112 -1.3902181 1.2252489 0.547198 0.020813359
-0.66967326 0.50306976 -1.4823656 0.5694685 -0.2087268 -0.6061655 0.61209065 -0.11571742
1.1644812 0.43332472 -0.7830513 -0.3706434 -1.836609 -0.86833835 -1.9365089 -0.10832264
-1.3019027 -1.5065851 0.102528155 -1.4553022 -1.9153186 -0.66368145 -0.1807742 0.9012844
-1.0500135 -0.96432704 -0.7615424 -1.695056 -0.38181287 0.11201806 0.70603776 -0.57964885
-0.021152671 0.8282349 0.13520421 -0.005638069 0.34193945 0.5160157 -0.07735708 1.0340235
0.28318906 0.6337769 -0.25916365 0.6003541 0.64456564 0.025532227 -1.9554414 -0.9000911
-0.93320435 -0.16535519 -1.2715641 -1.5556749 -0.037433993 1.0438523 1.0031806 0.15762584
1.648962 -0.8808147 -1.3043602 -0.88940656 0.6515881 1.5681511 0.7316824 1.795346
0.9868927 -0.7397052 -1.0842483 -1.005044 -1.3546653 0.47965202 -0.5039426 0.13726065
-0.41354385 0.11545221 -0.6418538 -0.27594486 0.20632222 -0.5077263 2.082183 1.0789146
1.3573464 -0.8099716 0.39275622 -0.55662763 1.955887 0.7490783 -0.043933105 -0.8361704
-1.6096957 -0.36672556 -0.12820531 1.217728 -0.65915525 -0.9188663 -0.44338483 -1.0345621
-0.018339805 -0.036533967 0.26907617 -1.0569581 -0.14315648 -0.25801116 -0.961077 -1.2342714
0.34079403 -1.2021308 -0.21516566 -0.8395308 -0.6114499 2.7103553 0.27592647 -1.3207872
0.41061205 -0.21783556 0.86044836 -1.3534027 1.9965672 0.9403098 1.988039 -1.3751302
-1.1062481 -0.16772202 -1.3772671 -0.5136092 -0.14493747 -1.1557133 0.3425134 -1.6956155
-0.068532236 -1.9105021 0.71839947 -0.24169046 -2.1057634 0.26454997 -0.5829032 -0.27520278
0.53993154 -1.6847341 0.5616344 -0.25510126 1.6268567 -0.483386 0.31831264 -0.017637843
-1.1035903 0.04772206 0.37786624 -0.110273175 -0.7409182 0.37253633 -0.0124806315 0.5974245
0.33039692 0.69018215 1.4691899 0.14310889 1.6958853 0.9589725 0.21949258 0.21389388
0.36115932 0.9472124 -0.20577256 0.2740974 0.6467765 -0.6295874 0.6775293 -0.3137722
0.27066538 -1.3344853 1.1276393 -0.1993477 0.015749345 0.48002663 -0.53630954 0.98749435
2.6895275 -1.0987059 0.26786876 0.47690406 1.3740414 -0.3465747 0.91983205 -0.04965729
1.2655841 -0.17088784 -2.0280883 0.34995767 1.1839336 -0.524916 2.6161315 0.3960975
-0.7514603 1.2334845 0.9014627 0.45609713 -1.0001447 -0.39464763 0.21320966 -0.23065181
-0.2663986 1.1526744 0.5416129 -0.3554342 0.036862798 0.19715206 1.0700204 1.8083133
0.523002 -0.09826471 -0.3987147 0.57076365 1.2499123 0.64946944 0.007318198 -1.7824736
-1.4974827 -0.4240905 0.95475733 -0.5038145 -1.5215682 -1.798986 -1.0789213 0.5458159
0.4197204 1.954701 -0.4400086 -0.5065891 -1.2047293 0.4883485 -0.4699333 0.6611497
0.31166244 -0.71549755

Q1.1.bias f4 [1, 5]
00000000: 57c3 c13c a586 a63b 1ad6 d1ba 5140 21bb
00000010: f55e 81b9
0.023652716 0.005081969 -0.0016009242 -0.0024604986 -0.00024675546
