CausalCVR/logs/simu3/eval/34/Vcnet_tr_ckpt.pth.tar (torch, 123637 bytes, 18 tensors)

feature_weight.weight f4 [50, 8]
0	0xbb1785f7	-0.002312062
1	0xbb3e64b4	-0.0029051723
2	0xbb371e6d	-0.002794172
3	0xba8caf3d	-0.0010733377
4	0xbb7963b9	-0.0038053824
5	0xbbc2d915	-0.0059462884
6	0xbb99bd08	-0.0046917237
7	0xbb464cdc	-0.0030258214
8	0xbb8ad9da	-0.0042373957
9	0xbc3b93fc	-0.011448856
10	0x3aa26c7b	0.0012391949
11	0x3a43696b	0.0007454368
12	0xbc07ba83	-0.008284214
13	0xbaa9c69c	-0.0012952867
14	0x3a806d18	0.0009798137
15	0xbb499ec5	-0.00307648
16	0xbc5162b0	-0.012779877
17	0x3c728028	0.014801063
18	0xb99225fe	-0.00027875596
19	0xbc44d5d2	-0.012013869
20	0x3bdd24c1	0.006748766
21	0x3d1e616b	0.038667124
22	0x3c80269b	0.015643409
23	0x3c4c01e3	0.012451622
24	0x3ba35399	0.004984331
25	0xbbb7267a	-0.0055893036
26	0xbb126d52	-0.0022342992
27	0x3c9c31ba	0.01906668
28	0x3ca8ec06	0.020620357
29	0x3bb2da3a	0.0054581435
30	0xbc2e4e41	-0.010638774
31	0x3c4d384a	0.012525627
32	0xbc386b44	-0.011256043
33	0x3be0701d	0.0068493024
34	0x3c03b4d3	0.008038717
35	0x3b9afb3b	0.004729656
36	0xbc839e1f	-0.016066609
37	0xbc914eca	-0.017737765
38	0x3b966486	0.00458962
39	0xbc51486f	-0.012773617
40	0xbcc4b436	-0.024011713
41	0xbc4713a8	-0.0121506825
42	0x3c2a24e0	0.010384768
43	0xba6d90f3	-0.00090624316
44	0x3b67f65a	0.003539464
45	0x3c8af295	0.016961375
46	0xbbc66c43	-0.0060553863
47	0xbca55ccc	-0.02018585
48	0xbc439cb0	-0.011939213
49	0x3b1b1eea	0.002366955
50	0x3b463c17	0.0030248219
51	0xb9996eb9	-0.0002926493
52	0x3ad7d508	0.0016466687
53	0xbb74a76f	-0.0037331244
54	0xbc61650d	-0.013757003
55	0xb9217c99	-0.00015400573
56	0xbc40c8ef	-0.011766656
57	0xbafdc980	-0.001936242
58	0x3c096f55	0.00838836
59	0xb9841360	-0.00025191437
60	0xbc8e6b16	-0.017385047
61	0xbaf906ec	-0.0018999255
62	0xb9f6eaef	-0.00047095816
63	0xbbc196af	-0.0059078555
64	0x3a749319	0.00093297806
65	0xbb0ba019	-0.0021305142
66	0xbb8b1fa3	-0.0042457148
67	0x3beea3f3	0.007282728
68	0xbbb4b14d	-0.0055143
69	0x3c779389	0.015110859
70	0x3c3b1ae7	0.011419988
71	0x3bc29c7c	0.0059390645
72	0xbbe71854	-0.0070524607
73	0xbbc80656	-0.006104271
74	0x3c8f1b6f	0.017469136
75	0xbc0630dd	-0.008190361
76	0x3b09d157	0.0021029317
77	0xbbdffb39	-0.006835368
78	0xbb9eb65f	-0.0048435177
79	0xbb4a0b4b	-0.0030829485
80	0xbc8c7dcf	-0.017149834
81	0x3a5f4b53	0.0008517999
82	0x3c9c943e	0.019113656
83	0xbb8b0514	-0.0042425487
84	0x3c373913	0.011183041
85	0xbc710680	-0.014711022
86	0xbae65d08	-0.0017575333
87	0x3b80481b	0.0039148456
88	0xbc9098f0	-0.017651051
89	0xbbfcbb52	-0.00771276
90	0x3c4f366d	0.012647253
91	0x3b983414	0.00464488
92	0x3b75796b	0.0037456404
93	0x3ca5a650	0.020220906
94	0xba0b02d0	-0.00053028483
95	0xbc50ede2	-0.012752028
96	0xbb8930d1	-0.0041867276
97	0xbc1b42d9	-0.009476387
98	0x3b073c1f	0.00206352
99	0xbbc8e394	-0.006130645
100	0x3c6ca962	0.014444681
101	0xbc2e641e	-0.010643987
102	0x3c7d3e49	0.0154567445
103	0x3ad5c867	0.0016310335
104	0x3ab006bd	0.0013429743
105	0x3b2d9fad	0.002649288
106	0xbc9e2889	-0.019306438
107	0xbc730102	-0.014831783
108	0xba107442	-0.0005510488
109	0xbc25ea30	-0.010126635
110	0x3c2031c1	0.009777487
111	0x3be98061	0.0071258997
112	0x3be38884	0.006943764
113	0xbbdc74a9	-0.006727774
114	0x3b16a696	0.0022987477
115	0xbb6a7eaf	-0.0035781076
116	0x3a949192	0.0011334887
117	0xba9a49b4	-0.0011771233
118	0x3bfcf915	0.0077201226
119	0x3be3eeaa	0.006955941
120	0x3c7cffda	0.015441859
121	0xbb450618	-0.0030063447
122	0xbae8a7a5	-0.0017750157
123	0x3b19701a	0.0023412765
124	0xbc5a7919	-0.013334536
125	0x3a0a6dea	0.00052806607
126	0x3c19bd88	0.009383567
127	0x3b986901	0.0046511893
128	0xbb4b08df	-0.003098063
129	0xbab30707	-0.001365871
130	0xb99c2c24	-0.00029787526
131	0xbc1107a6	-0.008851921
132	0xbbe689db	-0.0070354766
133	0x3c109476	0.008824458
134	0xbb12d3ed	-0.002240415
135	0xbc76672b	-0.015039246
136	0x3b8187fb	0.0039529777
137	0xbc074a08	-0.0082573965
138	0x3b92e367	0.004482675
139	0x3c33b36a	0.010968069
140	0x3b91fd75	0.0044552633
141	0x3c028999	0.007967376
142	0xbc805068	-0.01566334
143	0xbbc925f7	-0.006138559
144	0x3b738631	0.0037158842
145	0xba9b029c	-0.0011826339
146	0x3cca8fd0	0.024726778
147	0x3bba8931	0.005692624
148	0x3bf4ccaa	0.007470687
149	0xbc28912d	-0.010288519
150	0x3b477c90	0.0030439235
151	0xbc9a7ef5	-0.018859366
152	0xbc3a4342	-0.011368575
153	0x3c08889a	0.00833335
154	0xb8bc73bc	-8.986096e-05
155	0xbc052ce3	-0.008128378
156	0xbc6199ec	-0.013769608
157	0x3bc0e8ae	0.0058871126
158	0xbc443afa	-0.011976952
159	0x3abf246b	0.0014582997
160	0xbb64cd36	-0.0034912354
161	0x3c4a9136	0.012363723
162	0x3bc120c0	0.0058937967
163	0x3c1e16b4	0.0096489675
164	0xbaf75627	-0.001887028
165	0x3be1c537	0.006889965
166	0x3c094ccc	0.008380126
167	0x3bf66da6	0.0075203953
168	0xbc1fd0c8	-0.009754367
169	0x3c355375	0.011067261
170	0x3b9e6879	0.0048342315
171	0xbbf0e921	-0.00735201
172	0xbc831fbd	-0.016006345
173	0xbb0fddea	-0.002195234
174	0x3b44d8fe	0.0030036564
175	0x3ccbc02a	0.024871904
176	0xbba1174c	-0.0049161073
177	0xbb6d3a6d	-0.0036198155
178	0x3c05f494	0.008175988
179	0x3c51bcaf	0.012801333
180	0x3b1eb7ba	0.0024218396
181	0xbc93bfc0	-0.01803577
182	0x3a3f33e8	0.00072938064
183	0xbb7634f7	-0.003756819
184	0x3c2d0918	0.01056125
185	0x3c379a6c	0.011206251
186	0xbbc24f73	-0.0059298812
187	0x3ca852ea	0.020547349
188	0x3c6146c1	0.013749779
189	0x3c77add6	0.015117129
190	0x3c7b550b	0.0153401
191	0xbca563b5	-0.020189146
192	0xbb7882ba	-0.0037919716
193	0x3bb8e3f7	0.00564241
194	0x3ba5069f	0.0050361897
195	0x3b119a36	0.002221716
196	0x3c379842	0.011205735
197	0xbb0cba20	-0.0021473244
198	0xbb9b9922	-0.0047484795
199	0x3a8f81aa	0.0010948677
200	0xbb92f627	-0.00448491
201	0xbc457230	-0.01205115
202	0xbb3a4202	-0.0028420691
203	0x3ad9cba0	0.0016616471
204	0xbca1e5fa	-0.019762982
205	0x3b8fad36	0.004384662
206	0x3b29b769	0.0025896674
207	0xbc889950	-0.016674668
208	0x3a0affa1	0.0005302374
209	0x3b914923	0.0044337674
210	0xbc72475d	-0.014787522
211	0x3b34da62	0.0027595987
212	0x3bd312cf	0.006441451
213	0xbbecabea	-0.007222642
214	0x3c4c3c3a	0.012465531
215	0xbbfdc921	-0.0077449237
216	0xbc8e4912	-0.017368827
217	0xbc461dbd	-0.012092051
218	0xbbde6b6b	-0.0067877076
219	0x3b7fe320	0.003904529
220	0xbb44c5df	-0.0030025167
221	0xbc2b8d4b	-0.010470699
222	0x3c61a67b	0.013772602
223	0xbca4fe66	-0.020140838
224	0xb90fc7ba	-0.00013711947
225	0x3baaf8cd	0.0052176476
226	0xbbad8540	-0.0052954257
227	0x3b451cab	0.0030076902
228	0xbb528dcb	-0.0032127972
229	0xbc071139	-0.008243852
230	0xbcade5fd	-0.021227831
231	0x3b4afb99	0.0030972718
232	0xbcae7f10	-0.021300822
233	0xbc327f75	-0.010894646
234	0x3ac0f96b	0.001472277
235	0xbac05604	-0.0014674072
236	0xba4c558f	-0.00077947316
237	0xbb78ca74	-0.0037962468
238	0x3c4233e5	0.011853193
239	0xbb7311d3	-0.0037089481
240	0x3ae5553f	0.0017496719
241	0xbae88b71	-0.0017741752
242	0x3cb15356	0.021646183
243	0x3bbf7045	0.005842241
244	0x3c83aca1	0.016073527
245	0x3aea50c7	0.0017876857
246	0xba4c0345	-0.00077824696
247	0x3c87d863	0.016582673
248	0x3c65854e	0.014008833
249	0x3b912c68	0.0044303425
250	0xbcad259c	-0.021136098
251	0x3bfae408	0.007656578
252	0x3c18e569	0.009332039
253	0x3b558c91	0.0032585005
254	0xbb5bcec5	-0.0033539992
255	0xba51fda2	-0.00080105115

feature_weight.bias f4 [50]
0	0x00000000	0.0
1	0x00000000	0.0
2	0xb8214159	-3.844625e-05
3	0x37f717db	2.9455803e-05
4	0xb61e1f79	-2.3562154e-06
5	0xb4ae6085	-3.2480253e-07
6	0xb4ae3832	-3.2450913e-07
7	0x00000000	0.0
8	0x36d753e6	6.4172664e-06
9	0xb606a5b6	-2.0064012e-06
10	0x3728ce1f	1.0061572e-05
11	0xb58f9a5e	-1.0699257e-06
12	0xb61fbef7	-2.3804002e-06
13	0x36aa7b73	5.080766e-06
14	0x37a3f8c5	1.9546957e-05
15	0xb7a847be	-2.0060568e-05
16	0xb2e7d27c	-2.6987657e-08
17	0xb7ea5cab	-2.7938126e-05
18	0x372e684e	1.03954935e-05
19	0x34b74f5f	3.4144156e-07
20	0x37489aed	1.1957e-05
21	0x36bf9873	5.709991e-06
22	0xb70fddf4	-8.575142e-06
23	0x3818eff1	3.6463087e-05
24	0x37b76d40	2.1866173e-05
25	0x00000000	0.0
26	0x36269b20	2.4826222e-06
27	0x00000000	0.0
28	0xb556a2c4	-7.995807e-07
29	0x3583a0ab	9.807021e-07
30	0xb61ff0f8	-2.3833109e-06
31	0xb6936cb7	-4.3935975e-06
32	0x00000000	0.0
33	0xb6940f51	-4.412527e-06
34	0x3682b731	3.895628e-06
35	0x3801383d	3.0808373e-05
36	0x383bcfec	4.4777917e-05
37	0xb6b06ad5	-5.2576456e-06
38	0x36d2efe1	6.2864133e-06
39	0xb610c375	-2.1571443e-06
40	0xb6e560aa	-6.835985e-06
41	0xb7eaea3e	-2.8004051e-05
42	0x361dd7fc	2.3520543e-06
43	0xb78ade88	-1.6554506e-05
44	0x00000000	0.0
45	0xb496a37e	-2.8058633e-07
46	0x371cc3ea	9.343939e-06
47	0x3808ebcd	3.2644533e-05
48	0x35339b52	6.6908717e-07
49	0x3541f6dd	7.2257336e-07

hidden_features.0.weight f4 [50, 8]
0	0xbb1785f7	-0.002312062
1	0xbb3e64b4	-0.0029051723
2	0xbb371e6d	-0.002794172
3	0xba8caf3d	-0.0010733377
4	0xbb7963b9	-0.0038053824
5	0xbbc2d915	-0.0059462884
6	0xbb99bd08	-0.0046917237
7	0xbb464cdc	-0.0030258214
8	0xbb8ad9da	-0.0042373957
9	0xbc3b93fc	-0.011448856
10	0x3aa26c7b	0.0012391949
11	0x3a43696b	0.0007454368
12	0xbc07ba83	-0.008284214
13	0xbaa9c69c	-0.0012952867
14	0x3a806d18	0.0009798137
15	0xbb499ec5	-0.00307648
16	0xbc5162b0	-0.012779877
17	0x3c728028	0.014801063
18	0xb99225fe	-0.00027875596
19	0xbc44d5d2	-0.012013869
20	0x3bdd24c1	0.006748766
21	0x3d1e616b	0.038667124
22	0x3c80269b	0.015643409
23	0x3c4c01e3	0.012451622
24	0x3ba35399	0.004984331
25	0xbbb7267a	-0.0055893036
26	0xbb126d52	-0.0022342992
27	0x3c9c31ba	0.01906668
28	0x3ca8ec06	0.020620357
29	0x3bb2da3a	0.0054581435
30	0xbc2e4e41	-0.010638774
31	0x3c4d384a	0.012525627
32	0xbc386b44	-0.011256043
33	0x3be0701d	0.0068493024
34	0x3c03b4d3	0.008038717
35	0x3b9afb3b	0.004729656
36	0xbc839e1f	-0.016066609
37	0xbc914eca	-0.017737765
38	0x3b966486	0.00458962
39	0xbc51486f	-0.012773617
40	0xbcc4b436	-0.024011713
41	0xbc4713a8	-0.0121506825
42	0x3c2a24e0	0.010384768
43	0xba6d90f3	-0.00090624316
44	0x3b67f65a	0.003539464
45	0x3c8af295	0.016961375
46	0xbbc66c43	-0.0060553863
47	0xbca55ccc	-0.02018585
48	0xbc439cb0	-0.011939213
49	0x3b1b1eea	0.002366955
50	0x3b463c17	0.0030248219
51	0xb9996eb9	-0.0002926493
52	0x3ad7d508	0.0016466687
53	0xbb74a76f	-0.0037331244
54	0xbc61650d	-0.013757003
55	0xb9217c99	-0.00015400573
56	0xbc40c8ef	-0.011766656
57	0xbafdc980	-0.001936242
58	0x3c096f55	0.00838836
59	0xb9841360	-0.00025191437
60	0xbc8e6b16	-0.017385047
61	0xbaf906ec	-0.0018999255
62	0xb9f6eaef	-0.00047095816
63	0xbbc196af	-0.0059078555
64	0x3a749319	0.00093297806
65	0xbb0ba019	-0.0021305142
66	0xbb8b1fa3	-0.0042457148
67	0x3beea3f3	0.007282728
68	0xbbb4b14d	-0.0055143
69	0x3c779389	0.015110859
70	0x3c3b1ae7	0.011419988
71	0x3bc29c7c	0.0059390645
72	0xbbe71854	-0.0070524607
73	0xbbc80656	-0.006104271
74	0x3c8f1b6f	0.017469136
75	0xbc0630dd	-0.008190361
76	0x3b09d157	0.0021029317
77	0xbbdffb39	-0.006835368
78	0xbb9eb65f	-0.0048435177
79	0xbb4a0b4b	-0.0030829485
80	0xbc8c7dcf	-0.017149834
81	0x3a5f4b53	0.0008517999
82	0x3c9c943e	0.019113656
83	0xbb8b0514	-0.0042425487
84	0x3c373913	0.011183041
85	0xbc710680	-0.014711022
86	0xbae65d08	-0.0017575333
87	0x3b80481b	0.0039148456
88	0xbc9098f0	-0.017651051
89	0xbbfcbb52	-0.00771276
90	0x3c4f366d	0.012647253
91	0x3b983414	0.00464488
92	0x3b75796b	0.0037456404
93	0x3ca5a650	0.020220906
94	0xba0b02d0	-0.00053028483
95	0xbc50ede2	-0.012752028
96	0xbb8930d1	-0.0041867276
97	0xbc1b42d9	-0.009476387
98	0x3b073c1f	0.00206352
99	0xbbc8e394	-0.006130645
100	0x3c6ca962	0.014444681
101	0xbc2e641e	-0.010643987
102	0x3c7d3e49	0.0154567445
103	0x3ad5c867	0.0016310335
104	0x3ab006bd	0.0013429743
105	0x3b2d9fad	0.002649288
106	0xbc9e2889	-0.019306438
107	0xbc730102	-0.014831783
108	0xba107442	-0.0005510488
109	0xbc25ea30	-0.010126635
110	0x3c2031c1	0.009777487
111	0x3be98061	0.0071258997
112	0x3be38884	0.006943764
113	0xbbdc74a9	-0.006727774
114	0x3b16a696	0.0022987477
115	0xbb6a7eaf	-0.0035781076
116	0x3a949192	0.0011334887
117	0xba9a49b4	-0.0011771233
118	0x3bfcf915	0.0077201226
119	0x3be3eeaa	0.006955941
120	0x3c7cffda	0.015441859
121	0xbb450618	-0.0030063447
122	0xbae8a7a5	-0.0017750157
123	0x3b19701a	0.0023412765
124	0xbc5a7919	-0.013334536
125	0x3a0a6dea	0.00052806607
126	0x3c19bd88	0.009383567
127	0x3b986901	0.0046511893
128	0xbb4b08df	-0.003098063
129	0xbab30707	-0.001365871
130	0xb99c2c24	-0.00029787526
131	0xbc1107a6	-0.008851921
132	0xbbe689db	-0.0070354766
133	0x3c109476	0.008824458
134	0xbb12d3ed	-0.002240415
135	0xbc76672b	-0.015039246
136	0x3b8187fb	0.0039529777
137	0xbc074a08	-0.0082573965
138	0x3b92e367	0.004482675
139	0x3c33b36a	0.010968069
140	0x3b91fd75	0.0044552633
141	0x3c028999	0.007967376
142	0xbc805068	-0.01566334
143	0xbbc925f7	-0.006138559
144	0x3b738631	0.0037158842
145	0xba9b029c	-0.0011826339
146	0x3cca8fd0	0.024726778
147	0x3bba8931	0.005692624
148	0x3bf4ccaa	0.007470687
149	0xbc28912d	-0.010288519
150	0x3b477c90	0.0030439235
151	0xbc9a7ef5	-0.018859366
152	0xbc3a4342	-0.011368575
153	0x3c08889a	0.00833335
154	0xb8bc73bc	-8.986096e-05
155	0xbc052ce3	-0.008128378
156	0xbc6199ec	-0.013769608
157	0x3bc0e8ae	0.0058871126
158	0xbc443afa	-0.011976952
159	0x3abf246b	0.0014582997
160	0xbb64cd36	-0.0034912354
161	0x3c4a9136	0.012363723
162	0x3bc120c0	0.0058937967
163	0x3c1e16b4	0.0096489675
164	0xbaf75627	-0.001887028
165	0x3be1c537	0.006889965
166	0x3c094ccc	0.008380126
167	0x3bf66da6	0.0075203953
168	0xbc1fd0c8	-0.009754367
169	0x3c355375	0.011067261
170	0x3b9e6879	0.0048342315
171	0xbbf0e921	-0.00735201
172	0xbc831fbd	-0.016006345
173	0xbb0fddea	-0.002195234
174	0x3b44d8fe	0.0030036564
175	0x3ccbc02a	0.024871904
176	0xbba1174c	-0.0049161073
177	0xbb6d3a6d	-0.0036198155
178	0x3c05f494	0.008175988
179	0x3c51bcaf	0.012801333
180	0x3b1eb7ba	0.0024218396
181	0xbc93bfc0	-0.01803577
182	0x3a3f33e8	0.00072938064
183	0xbb7634f7	-0.003756819
184	0x3c2d0918	0.01056125
185	0x3c379a6c	0.011206251
186	0xbbc24f73	-0.0059298812
187	0x3ca852ea	0.020547349
188	0x3c6146c1	0.013749779
189	0x3c77add6	0.015117129
190	0x3c7b550b	0.0153401
191	0xbca563b5	-0.020189146
192	0xbb7882ba	-0.0037919716
193	0x3bb8e3f7	0.00564241
194	0x3ba5069f	0.0050361897
195	0x3b119a36	0.002221716
196	0x3c379842	0.011205735
197	0xbb0cba20	-0.0021473244
198	0xbb9b9922	-0.0047484795
199	0x3a8f81aa	0.0010948677
200	0xbb92f627	-0.00448491
201	0xbc457230	-0.01205115
202	0xbb3a4202	-0.0028420691
203	0x3ad9cba0	0.0016616471
204	0xbca1e5fa	-0.019762982
205	0x3b8fad36	0.004384662
206	0x3b29b769	0.0025896674
207	0xbc889950	-0.016674668
208	0x3a0affa1	0.0005302374
209	0x3b914923	0.0044337674
210	0xbc72475d	-0.014787522
211	0x3b34da62	0.0027595987
212	0x3bd312cf	0.006441451
213	0xbbecabea	-0.007222642
214	0x3c4c3c3a	0.012465531
215	0xbbfdc921	-0.0077449237
216	0xbc8e4912	-0.017368827
217	0xbc461dbd	-0.012092051
218	0xbbde6b6b	-0.0067877076
219	0x3b7fe320	0.003904529
220	0xbb44c5df	-0.0030025167
221	0xbc2b8d4b	-0.010470699
222	0x3c61a67b	0.013772602
223	0xbca4fe66	-0.020140838
224	0xb90fc7ba	-0.00013711947
225	0x3baaf8cd	0.0052176476
226	0xbbad8540	-0.0052954257
227	0x3b451cab	0.0030076902
228	0xbb528dcb	-0.0032127972
229	0xbc071139	-0.008243852
230	0xbcade5fd	-0.021227831
231	0x3b4afb99	0.0030972718
232	0xbcae7f10	-0.021300822
233	0xbc327f75	-0.010894646
234	0x3ac0f96b	0.001472277
235	0xbac05604	-0.0014674072
236	0xba4c558f	-0.00077947316
237	0xbb78ca74	-0.0037962468
238	0x3c4233e5	0.011853193
239	0xbb7311d3	-0.0037089481
240	0x3ae5553f	0.0017496719
241	0xbae88b71	-0.0017741752
242	0x3cb15356	0.021646183
243	0x3bbf7045	0.005842241
244	0x3c83aca1	0.016073527
245	0x3aea50c7	0.0017876857
246	0xba4c0345	-0.00077824696
247	0x3c87d863	0.016582673
248	0x3c65854e	0.014008833
249	0x3b912c68	0.0044303425
250	0xbcad259c	-0.021136098
251	0x3bfae408	0.007656578
252	0x3c18e569	0.009332039
253	0x3b558c91	0.0032585005
254	0xbb5bcec5	-0.0033539992
255	0xba51fda2	-0.00080105115

hidden_features.0.bias f4 [50]
0	0x00000000	0.0
1	0x00000000	0.0
2	0xb8214159	-3.844625e-05
3	0x37f717db	2.9455803e-05
4	0xb61e1f79	-2.3562154e-06
5	0xb4ae6085	-3.2480253e-07
6	0xb4ae3832	-3.2450913e-07
7	0x00000000	0.0
8	0x36d753e6	6.4172664e-06
9	0xb606a5b6	-2.0064012e-06
10	0x3728ce1f	1.0061572e-05
11	0xb58f9a5e	-1.0699257e-06
12	0xb61fbef7	-2.3804002e-06
13	0x36aa7b73	5.080766e-06
14	0x37a3f8c5	1.9546957e-05
15	0xb7a847be	-2.0060568e-05
16	0xb2e7d27c	-2.6987657e-08
17	0xb7ea5cab	-2.7938126e-05
18	0x372e684e	1.03954935e-05
19	0x34b74f5f	3.4144156e-07
20	0x37489aed	1.1957e-05
21	0x36bf9873	5.709991e-06
22	0xb70fddf4	-8.575142e-06
23	0x3818eff1	3.6463087e-05
24	0x37b76d40	2.1866173e-05
25	0x00000000	0.0
26	0x36269b20	2.4826222e-06
27	0x00000000	0.0
28	0xb556a2c4	-7.995807e-07
29	0x3583a0ab	9.807021e-07
30	0xb61ff0f8	-2.3833109e-06
31	0xb6936cb7	-4.3935975e-06
32	0x00000000	0.0
33	0xb6940f51	-4.412527e-06
34	0x3682b731	3.895628e-06
35	0x3801383d	3.0808373e-05
36	0x383bcfec	4.4777917e-05
37	0xb6b06ad5	-5.2576456e-06
38	0x36d2efe1	6.2864133e-06
39	0xb610c375	-2.1571443e-06
40	0xb6e560aa	-6.835985e-06
41	0xb7eaea3e	-2.8004051e-05
42	0x361dd7fc	2.3520543e-06
43	0xb78ade88	-1.6554506e-05
44	0x00000000	0.0
45	0xb496a37e	-2.8058633e-07
46	0x371cc3ea	9.343939e-06
47	0x3808ebcd	3.2644533e-05
48	0x35339b52	6.6908717e-07
49	0x3541f6dd	7.2257336e-07

hidden_features.2.weight f4 [50, 50]
0	0xbb67086f	-0.003525283
1	0x3b95eb49	0.0045751673
2	0xbc3d9881	-0.011572004
3	0xbc87a66a	-0.016558845
4	0x3ba6fffb	0.005096433
5	0x3bb7b395	0.0056061246
6	0xbc7f9a02	-0.015600683
7	0x3c8ab7da	0.01693337
8	0x3aa62b48	0.0012677694
9	0x3c1005c2	0.008790435
10	0xbaa94f13	-0.0012917243
11	0xbbfdb709	-0.0077427668
12	0x3c832c79	0.016012417
13	0x3b176bb9	0.002310498
14	0xbcf1c383	-0.029512173
15	0xbc93ed75	-0.018057564
16	0x3bba5f9b	0.0056876666
17	0xba21b25d	-0.0006168241
18	0x3c02efd2	0.007991748
19	0x3afe38b9	0.0019395567
20	0x3aa5e5c7	0.001265698
21	0x3c56ba03	0.013105872
22	0xbc50779a	-0.012723828
23	0xbb632854	-0.0034661489
24	0xbbcc1711	-0.0062283357
25	0x3cb1b523	0.021692818
26	0xbb8671a0	-0.0041029006
27	0xbb7d2592	-0.003862713
28	0xbc5f56c5	-0.013631527
29	0x3bda65ba	0.006664959
30	0x3b14bb6b	0.0022694718
31	0xbac8545d	-0.0015283931
32	0xbc17d013	-0.009265917
33	0xba073b0b	-0.00051586394
34	0x3c240630	0.010011241
35	0x3b85af07	0.004079703
36	0xbc344de3	-0.011004898
37	0x3b0e15e4	0.0021680528
38	0x3c187aba	0.009306604
39	0xbcb0538a	-0.02152421
40	0x3c90648e	0.017626073
41	0x3b95e101	0.0045739417
42	0xbbc4e24e	-0.006008423
43	0xbb621a28	-0.0034500454
44	0x3bfeb7ab	0.00777336
45	0x3c3f3f89	0.011672863
46	0x3aa0539b	0.0012231948
47	0xbc69084b	-0.014223169
48	0x3b1ea132	0.0024204967
49	0x3bbed74e	0.005824006
50	0xbc6473ae	-0.013943596
51	0xbc60c67e	-0.013719199
52	0xb8bc4e95	-8.9791756e-05
53	0xbc44d889	-0.012014517
54	0xbc80e11e	-0.015732344
55	0x3bfa761d	0.0076434747
56	0xbbc037c8	-0.0058660246
57	0x3bc1454f	0.005898155
58	0x3bdea95c	0.0067950916
59	0x3b04682e	0.0020203697
60	0xbab7607b	-0.0013990545
61	0x3b1db9b9	0.0024066998
62	0xbc46e126	-0.0121386405
63	0x3c31830f	0.010834469
64	0xbb3f441f	-0.002918489
65	0xbc896b21	-0.016774716
66	0xbbd3da38	-0.0064652227
67	0x3b986b0c	0.004651433
68	0xbc5fa68a	-0.013650546
69	0x3c82a182	0.015946154
70	0x3ad54258	0.0016270382
71	0xbc3c7b94	-0.011504073
72	0xbb92b77e	-0.0044774404
73	0xbc8fbe9c	-0.017546944
74	0x3c175d7f	0.0092386
75	0xbbd42560	-0.006474182
76	0xbb38b391	-0.0028183202
77	0xbc32375e	-0.010877458
78	0x3b0c2c1a	0.0021388591
79	0xbc6e1f03	-0.014533761
80	0x3c541b46	0.012945956
81	0x3a3fe616	0.0007320357
82	0xbbaf1cb4	-0.005343998
83	0xbc8b80e9	-0.017029243
84	0xbb481606	-0.0030530705
85	0x3b42a6a3	0.0029701374
86	0x3b26b1f9	0.002543567
87	0xbb8c710c	-0.004285937
88	0x3b8ba455	0.0042615333
89	0xbc1387c8	-0.009004541
90	0xbaa4f8fe	-0.0012586412
91	0x3c66218b	0.014046083
92	0x3c6a1a63	0.014288518
93	0xbaf3308e	-0.0018553899
94	0x3a4aecb4	0.000774096
95	0x3bf565cc	0.007488942
96	0x3c7d9478	0.015477292
97	0xbbc591cc	-0.006029343
98	0xba4f07e9	-0.0007897602
99	0x3b2e4689	0.0026592335
100	0x3c09ea0a	0.008417616
101	0x3b84d46a	0.004053642
102	0xbb3c672b	-0.0028748016
103	0x3bb7b123	0.005605833
104	0xbb420d70	-0.002961006
105	0x382fc43d	4.1906012e-05
106	0x3b8e9a7f	0.0043519135
107	0xbb6dc048	-0.0036277939
108	0x3c063836	0.008192113
109	0x3ab5a7f9	0.0013859264
110	0xb9734464	-0.00023199763
111	0xbc25649c	-0.010094788
112	0x3bf13ae8	0.0073617585
113	0xbbd3144a	-0.0064416276
114	0x3bc04c38	0.005868461
115	0x3bd56a41	0.0065129106
116	0x3c0b30c2	0.0084955115
117	0xbc95ecc5	-0.018301377
118	0x3bd0a50e	0.0063673323
119	0x3bb8de25	0.005641716
120	0xb75f48c3	-1.3308777e-05
121	0x3bd549c4	0.0065090377
122	0xbb792dcc	-0.0038021682
123	0x3c4ee3d1	0.012627558
124	0xbb4aec38	-0.0030963551
125	0xbc286cb9	-0.010279828
126	0xbccfc380	-0.025361776
127	0x3beed076	0.007288034
128	0xbc1e1438	-0.009648375
129	0xbb49a0bc	-0.0030765971
130	0x3bd3bce8	0.0064617284
131	0xbb9428d2	-0.0045214677
132	0xbc1eec99	-0.009699964
133	0x3bbc1e3d	0.0057409094
134	0x3bf834e0	0.0075746626
135	0xbc177c12	-0.009245889
136	0x3c21d3f9	0.009877198
137	0x3bfa5069	0.00763898
138	0xbb30711a	-0.0026922883
139	0x3b5289a3	0.0032125495
140	0xbc38a1e3	-0.011269066
141	0xbc830e2f	-0.015997974
142	0x39ac61c4	0.00032879238
143	0x3b9897d0	0.0046567693
144	0xbc1f8e57	-0.009738526
145	0xbb816c31	-0.003949665
146	0x3c213a18	0.009840511
147	0x3c36d12b	0.011158268
148	0xbc4c7717	-0.012479565
149	0x3c8b6c86	0.017019521
150	0xbbe1bbcc	-0.006888842
151	0x383ca19e	4.497321e-05
152	0xbc22311e	-0.009899406
153	0x3bb28256	0.005447666
154	0x3be12cb6	0.006871785
155	0x3b306da4	0.002692082
156	0x3c1bb934	0.009504605
157	0x3a3e1888	0.000725158
158	0xbba183a6	-0.004929024
159	0xbaed4ea7	-0.0018105105
160	0xbaed87d9	-0.0018122151
161	0xbba785f6	-0.005112405
162	0xba5207d0	-0.00080120284
163	0xbb8237bf	-0.0039739306
164	0x3c4dd4f3	0.012562978
165	0xba843355	-0.0010086099
166	0xbb3da1df	-0.0028935594
167	0x3c88fe81	0.01672292
168	0xbc38be29	-0.011275806
169	0x3bb797e0	0.0056028217
170	0x3b3c0228	0.0028687809
171	0xbb8d9c07	-0.0043215784
172	0xbbaadc0c	-0.00521422
173	0x3b80aee6	0.0039270995
174	0xbc40c556	-0.011765799
175	0xbaa5efa3	-0.0012659918
176	0xbba19882	-0.0049315104
177	0x3b9e3352	0.004827895
178	0xbbcf9623	-0.0063350364
179	0x3c2a16dd	0.010381428
180	0xbae1994b	-0.0017211823
181	0x3c240481	0.010010839
182	0x3bb16ba3	0.0054144426
183	0xbbda06b6	-0.006653632
184	0xbb924106	-0.004463318
185	0x3c617cec	0.013762694
186	0xbb8cc77c	-0.0042962413
187	0xbc9cabd5	-0.019124905
188	0xbbcd3996	-0.0062629683
189	0x3bb7e6c1	0.005612225
190	0xbb446ab4	-0.0029970827
191	0x3c4a8094	0.012359757
192	0xbb98853c	-0.0046545547
193	0x3b19859c	0.0023425585
194	0x3bfcde67	0.007716942
195	0xbbb9946b	-0.0056634448
196	0x3bd53644	0.006506713
197	0xbc65f0cf	-0.014034464
198	0xbb08f904	-0.0020900378
199	0xbc18f7d7	-0.009336433
200	0x3b9d2536	0.0047956957
201	0x3bdb602a	0.0066948133
202	0xbbd23e00	-0.0064160824
203	0x3c242b26	0.010020053
204	0x3ac3dd21	0.0014943221
205	0x3b361453	0.002778311
206	0xbb94fc23	-0.0045466586
207	0xbc253584	-0.01008356
208	0x3ac998aa	0.001538058
209	0xbc365d38	-0.0111306235
210	0x3b81a16d	0.003956011
211	0xbbae4ba8	-0.0053190775
212	0xbc3505d5	-0.011048754
213	0xbb2849f1	-0.0025678838
214	0xbc27e81b	-0.010248209
215	0xbb6e05fe	-0.003631949
216	0x3aa89dba	0.0012864389
217	0xba499c56	-0.00076908374
218	0x3c802ccd	0.015646363
219	0xbb4d628d	-0.0031339258
220	0x3c0da959	0.008646333
221	0xbc797c3d	-0.015227375
222	0xbb2c39b7	-0.0026279518
223	0xba97ca69	-0.0011580709
224	0xbc7a8df5	-0.015292634
225	0xbb793110	-0.0038023628
226	0xbaacbb0e	-0.0013178305
227	0x3bee6847	0.0072756144
228	0x3b930b6b	0.004487445
229	0xbc08d1f1	-0.008350835
230	0xbc372b59	-0.0111797685
231	0xbb40f4ed	-0.0029442862
232	0x3c5fc43f	0.013657629
233	0xbbeb1bbc	-0.007174937
234	0xbbed5388	-0.0072426237
235	0xbbdf1baf	-0.00680872
236	0x3aec0b61	0.0018008762
237	0x3c51e1f5	0.01281022
238	0x3bd7fc2f	0.006591342
239	0x3c19f650	0.009397104
240	0xbc856909	-0.016285436
241	0xbc59712a	-0.013271609
242	0xbb7cfd07	-0.0038602964
243	0x3bf9074b	0.0075997463
244	0x3a215cde	0.0006155501
245	0xbc8184fe	-0.015810486
246	0xbbf074df	-0.007338151
247	0x39791f03	0.00023758043
248	0xbbf970d7	-0.0076123285
249	0xbac16357	-0.0014754337
250	0xbc2398c6	-0.0099851545
251	0x3ae96bba	0.0017808594
252	0x3b6cf591	0.0036157111
253	0x3c05b7d1	0.008161501
254	0x3c72fe7c	0.014831182
255	0x3a8260fc	0.0009947116

hidden_features.2.bias f4 [50]
0	0x00000000	0.0
1	0xb925e697	-0.00015821528
2	0x395ee80c	0.00021258014
3	0x39e69e21	0.00043986834
4	0x36d234a7	6.2646172e-06
5	0xba0d35c0	-0.00053867325
6	0x3a5573e0	0.0008142572
7	0xba0141a0	-0.00049307384
8	0xb9b5caeb	-0.00034674196
9	0x3842dd39	4.6459234e-05
10	0xb96edf29	-0.00022780582
11	0x00000000	0.0
12	0xb7c5b595	-2.3568786e-05
13	0x387ca488	6.0234714e-05
14	0xb8e0b663	-0.000107151245
15	0x390c92c2	0.00013406112
16	0x3a4603d2	0.000755367
17	0xb5c17d34	-1.441606e-06
18	0x3a098733	0.00052462815
19	0xb69f994b	-4.756415e-06
20	0xb99c0da5	-0.00029764805
21	0x00000000	0.0
22	0xb7e8a02c	-2.7731141e-05
23	0x37d7ba17	2.5716652e-05
24	0xb9b95367	-0.0003534809
25	0x35d2ea57	1.5714421e-06
26	0xb8f381f5	-0.00011611349
27	0x00000000	0.0
28	0x392dfbee	0.00016592417
29	0x3a36da7e	0.0006975307
30	0xb9ee3bbc	-0.00045439403
31	0x38aa9417	8.1338156e-05
32	0x38f39432	0.000116147465
33	0xb921a9ce	-0.00015417414
34	0x39665b2d	0.00021968475
35	0xb7c8c799	-2.3934803e-05
36	0xb7d148e3	-2.4948682e-05
37	0x39b8a9c7	0.0003522171
38	0x00000000	0.0
39	0x3834d6d4	4.311542e-05
40	0xb90f4987	-0.00013664934
41	0x39f0bbd6	0.00045916316
42	0xb822f3fe	-3.8851045e-05
43	0x39761902	0.00023469704
44	0xb9683e12	-0.00022148367
45	0x3a1bb41e	0.00059396203
46	0x3894c05f	7.093022e-05
47	0xb741a6d5	-1.154254e-05
48	0xb9ba95d8	-0.00035588327
49	0xb9b145b4	-0.00033812004

density_estimator_head.weight f4 [50, 11]
0	0x3ba237b0	0.004950486
1	0x3c9dac6f	0.019247262
2	0x3c2f4efa	0.010699982
3	0xbbc58cb8	-0.006028738
4	0x3b2a5051	0.0025987814
5	0xbc092a88	-0.008371957
6	0x3b8ba245	0.0042612874
7	0x3c2aeacf	0.010431959
8	0xbbc578b2	-0.006026351
9	0x3ca4cd18	0.020117328
10	0x3b8db4ef	0.0043245475
11	0x3c6db359	0.014508092
12	0x3c4bf312	0.012448089
13	0xbb20dc54	-0.0024545388
14	0x3c8fe6b0	0.017566055
15	0x3aab5668	0.0013072016
16	0x3bfedf9e	0.007778122
17	0xbaad0604	-0.0013200645
18	0x3c8c113f	0.017098067
19	0xbb93920e	-0.004503495
20	0xbc97af36	-0.018516164
21	0x3ba7b4ce	0.005117989
22	0x3c0c467b	0.008561726
23	0x3bfa1a40	0.007632524
24	0xbbe6b12c	-0.0070401635
25	0x3aa20f98	0.0012364266
26	0xba9845c9	-0.0011617477
27	0xbb896413	-0.004192838
28	0x3ad0d032	0.0015931188
29	0x3b480ec9	0.003052639
30	0x3af7041e	0.0018845832
31	0x3c1691a6	0.009189999
32	0x3c6ae01a	0.014335657
33	0xbc20a357	-0.009804568
34	0xbbd88c48	-0.0066085197
35	0x3b4bd41a	0.0031101764
36	0xbc4e0acf	-0.012575819
37	0xbc005fa6	-0.007835304
38	0xbb7e757f	-0.0038827357
39	0x3c9614f5	0.01832054
40	0x3aaab6ec	0.0013024486
41	0xb9ec77d4	-0.00045102707
42	0xbbed487d	-0.0072413073
43	0xbb652703	-0.003496588
44	0x3b09287e	0.0020928676
45	0xbc9e3239	-0.019311057
46	0x3be29525	0.006914752
47	0xbc8342be	-0.016023036
48	0x3b901b69	0.004397799
49	0x3b9c373f	0.004767328
50	0xba3e77b1	-0.000726576
51	0xbac41ac9	-0.0014961596
52	0x3b839e69	0.0040166867
53	0x3bb2daa7	0.0054581943
54	0xbbff1976	-0.0077850176
55	0xbb670860	-0.0035252795
56	0x3b605a87	0.0034233646
57	0x3ad424fe	0.0016185341
58	0x3bddb9b8	0.006766524
59	0x3c66c954	0.014086086
60	0xbbac5f9d	-0.0052604214
61	0xbc05bacf	-0.008162214
62	0xbbfb7a86	-0.007674518
63	0xbbbde4cf	-0.0057950984
64	0xbc1c19ed	-0.009527666
65	0xbc6f9969	-0.014623978
66	0xbc74582a	-0.014913598
67	0xbc4df421	-0.012570412
68	0xbbd323b4	-0.006443465
69	0xbbfe081e	-0.0077524325
70	0xb9ba84cf	-0.00035575635
71	0xbbc73892	-0.0060797418
72	0x3bae117b	0.0053121424
73	0x3c4f9776	0.012670388
74	0xb99a64b9	-0.00029448213
75	0x3ba35dda	0.004985553
76	0xbc63e7a0	-0.013910204
77	0x3c749b8e	0.014929665
78	0x38aa49ed	8.1200014e-05
79	0xba385f79	-0.00070332695
80	0x3bccaf86	0.00624651
81	0xbb982cb0	-0.004643999
82	0xbcc738da	-0.024319101
83	0x3b9a9b42	0.004718215
84	0x39b02d93	0.0003360329
85	0x3b6d64fa	0.0036223517
86	0xbbb6076b	-0.0055550835
87	0x3a309844	0.00067365565
88	0x3c55f53e	0.013058959
89	0x3c9e2704	0.019305713
90	0x3bdd34b9	0.00675067
91	0xbbb3ebb1	-0.005490743
92	0xbb3c42a8	-0.0028726254
93	0xbbce1782	-0.0062894234
94	0xbba3793e	-0.0049888184
95	0xbb9a8e60	-0.0047166795
96	0x3c7bd540	0.015370667
97	0x3b9b6f0e	0.0047434634
98	0xbbc115cb	-0.0058924905
99	0x3a14c582	0.0005675183
100	0xbc7e0042	-0.015502991
101	0x3c12486f	0.008928402
102	0x3a3b7ed6	0.0007152384
103	0x3b6c9def	0.0036104878
104	0xbbc94df6	-0.006143327
105	0xbb6acfe8	-0.0035829488
106	0x3c416581	0.011803986
107	0xbbe47434	-0.0069718603
108	0x3c3054bb	0.010762389
109	0xbc9684ad	-0.018373812
110	0x3c14e014	0.0090866275
111	0x3bcd1afa	0.0062593194
112	0x3be86314	0.007091889
113	0xbc792667	-0.01520691
114	0x3bb284d3	0.005447963
115	0x3a81afb1	0.0009894279
116	0xbb35ac35	-0.0027721052
117	0xba89de8e	-0.0010518597
118	0xbcb55c9b	-0.022138884
119	0xbb5e155a	-0.0033887238
120	0xbc3d0b25	-0.011538302
121	0x3b4ed866	0.003156209
122	0xbb049869	-0.0020232445
123	0x3c0647eb	0.0081958575
124	0x3c1838c1	0.009290875
125	0xbc829644	-0.015940793
126	0x3c4a7137	0.012356094
127	0x3bb0ecb5	0.0053993114
128	0xbc45f319	-0.012081885
129	0xba69b289	-0.00089148484
130	0xbc12b385	-0.008953934
131	0x3a05500d	0.0005085476
132	0xbbb6514f	-0.005563892
133	0xbc06817e	-0.008209584
134	0x3c1f6dae	0.0097307395
135	0xbbd887c3	-0.006607981
136	0xb9266e94	-0.00015872187
137	0x3b27f8c9	0.0025630465
138	0x3bbd21a5	0.005771833
139	0xbbb001fe	-0.0053713312
140	0x3bd1c354	0.0064014588
141	0x3c888efd	0.016669745
142	0xbc53bf20	-0.012923986
143	0x3b0ed2bf	0.0021793095
144	0xbabf1735	-0.001457906
145	0xbc00c478	-0.007859342
146	0x3bb777c4	0.005598994
147	0xbb643d8b	-0.0034826722
148	0x3b655eac	0.0034999056
149	0xbc050d87	-0.008120901
150	0x3c15d1ae	0.00914423
151	0x38cab8c8	9.666529e-05
152	0xba8c1953	-0.00106887
153	0x3b8a5acb	0.004222249
154	0x3ce31687	0.027720703
155	0x3c3e212e	0.01160459
156	0x3c1da6e7	0.009622312
157	0xbcb9a072	-0.022659514
158	0xbbefce2e	-0.0073182797
159	0x3c2a0ee5	0.010379528
160	0xbbb88ce9	-0.005632032
161	0xbc4acdb5	-0.012378146
162	0x3c0b1fd6	0.008491477
163	0xbc3021b8	-0.010750227
164	0xba7efd9a	-0.00097271206
165	0xbc591d8a	-0.013251672
166	0x3c899036	0.016792398
167	0x3b9f7668	0.00486641
168	0xbbbd346f	-0.005774073
169	0xbbb9bbb7	-0.0056681293
170	0xbbd4ff13	-0.006500134
171	0x3bd9a219	0.006641638
172	0x3b778b08	0.0037772078
173	0xbb205909	-0.0024467132
174	0x3bf11b12	0.0073579634
175	0x3b2e151b	0.0026562873
176	0xbc28dd09	-0.010306605
177	0xbb725fea	-0.0036983439
178	0x3b7bfdee	0.0038450914
179	0x3b09fb1c	0.0021054214
180	0xbc42eaec	-0.01189683
181	0x3b5a13f8	0.0033276062
182	0x3aa80f9d	0.0012822036
183	0x3cb14c7a	0.021642912
184	0xbc5ceaa1	-0.013483674
185	0x3bd4c946	0.00649372
186	0x3c0fcda8	0.00877706
187	0x3b96ce97	0.004602264
188	0xbc21f630	-0.009885356
189	0x3c1f3699	0.009717607
190	0x3c50f488	0.012753613
191	0x3aaee8b3	0.0013344496
192	0xbba9d88a	-0.005183284
193	0xbbb73f05	-0.0055922293
194	0xbbe01715	-0.006838689
195	0x3c2b88a3	0.010469588
196	0x3bec7c42	0.007216961
197	0x3c1f22f4	0.009712923
198	0xbc16fc77	-0.009215466
199	0xbc59f871	-0.013303862
200	0x3c3e6613	0.011621016
201	0x3b7f379e	0.0038943063
202	0x3b90f580	0.004423797
203	0x3b101126	0.0021982878
204	0xbbba7ad0	-0.00569091
205	0x3c710db2	0.014712738
206	0x3bb0bdd0	0.005393721
207	0x3b60081c	0.003418452
208	0xbbe74050	-0.007057227
209	0xbc328483	-0.010895851
210	0x3c811600	0.01575756
211	0xbc192193	-0.009346384
212	0x3c89aaec	0.016805135
213	0x3c42e465	0.011895274
214	0x3c631c2a	0.013861695
215	0xbb1aa65c	-0.0023597693
216	0xbaad8906	-0.0013239689
217	0x39f16a04	0.0004604609
218	0x3c16f868	0.009214498
219	0x3c7e7719	0.015531325
220	0xbbd4d519	-0.00649513
221	0x3c57316d	0.013134343
222	0x3aa05971	0.0012233687
223	0x3b7dae79	0.003870873
224	0xbb9a3eaa	-0.004707177
225	0xbab336c5	-0.0013672939
226	0xbc51c62e	-0.012803597
227	0x3b6e8c80	0.0036399662
228	0xbb0341e4	-0.0020028288
229	0x3bd4dea3	0.006496267
230	0xbc302892	-0.01075186
231	0xbc86d8a8	-0.016460732
232	0x3c0aa468	0.008462049
233	0x3a609054	0.00085664284
234	0xbafca6ed	-0.0019275822
235	0x3aaf7fc0	0.0013389513
236	0x3c2f5a71	0.010702715
237	0xba93d6db	-0.0011279242
238	0xb8fd5f9a	-0.00012081787
239	0x3b8a0654	0.00421218
240	0x3bbb1a51	0.0057099243
241	0xbb7b3c8a	-0.0038335645
242	0xbac84dd4	-0.0015281984
243	0xbafc928f	-0.0019269752
244	0xbb9109b2	-0.0044262046
245	0xbc6f84a5	-0.014619027
246	0x3b6a00f1	0.0035706128
247	0x3c266c39	0.010157638
248	0x3bd5e3a7	0.0065273824
249	0xbbe5a54f	-0.0070082317
250	0xbc13579a	-0.008993054
251	0xbb22a75a	-0.0024818988
252	0xbc544793	-0.012956518
253	0xbc3c72a0	-0.011501938
254	0xbb4bd796	-0.003110384
255	0xbc9c0f40	-0.01905024

density_estimator_head.bias f4 [11]
0	0xbd0c0dc4	-0.034192815
1	0xbcc9b08e	-0.02462032
2	0xbc3ef1ce	-0.01165433
3	0xbba4b72f	-0.00502672
4	0xbba0fc14	-0.0049128626
5	0x3b424d38	0.0029648077
6	0x3bebe50d	0.007198936
7	0x3bbfc42b	0.0058522425
8	0x3c7e00a2	0.015503081
9	0x3cd4db18	0.025983378
10	0x3cbba26e	0.022904601

Q1.0.weight f4 [50, 50, 5]
0	0x3eda124f	0.42592093
1	0xbea5a7da	-0.32354623
2	0x3fcc578e	1.596422
3	0x3fe1375d	1.759502
4	0x3ef5a476	0.47977036
5	0xbf22a2b7	-0.63529533
6	0x3d6f4905	0.058419246
7	0xbf1b2f9f	-0.6061954
8	0x3faee1fe	1.3662717
9	0x3e7382d9	0.23780383
10	0x3ef9ac03	0.48764047
11	0x3f32ea96	0.698892
12	0xbf2a5211	-0.66531473
13	0x3f867805	1.0505377
14	0x400f31e3	2.2374198
15	0x3f121ddc	0.5707681
16	0xbe590e4b	-0.21196859
17	0xbe6de65f	-0.23232411
18	0x3e8dc39f	0.2768831
19	0x3f9cafa1	1.2241098
20	0xbf49cede	-0.7883128
21	0x3c8bca76	0.017064314
22	0xbf4af255	-0.7927602
23	0x3fc3a30f	1.5284137
24	0x3e2f0ea5	0.1709543
25	0x3f8d13f8	1.1021719
26	0xbfa8333f	-1.3140639
27	0x3fbee3f2	1.4913313
28	0xbe713049	-0.23553576
29	0xbef90161	-0.48633865
30	0xbf843cda	-1.033107
31	0xbf76a87d	-0.9635084
32	0x3faa9d5d	1.3329273
33	0xbec9bb7a	-0.39400846
34	0xbe5f83cc	-0.2182762
35	0x3fbe2616	1.4855373
36	0x3fbd79a3	1.4802746
37	0x3fea3668	1.8297853
38	0xbfb3b5bc	-1.4039836
39	0xbf3d3023	-0.73901576
40	0x3eb93700	0.36174774
41	0xbe1657db	-0.14681952
42	0xbec15ba5	-0.37765232
43	0xbf70789d	-0.9393404
44	0xbf17b0a4	-0.5925391
45	0xbe19ffe8	-0.15039027
46	0xbf95f4e4	-1.171536
47	0xbf84486e	-1.0334604
48	0x3f908282	1.1289828
49	0x3ed85c9e	0.4225816
50	0x3f339917	0.7015547
51	0xbf1e43c5	-0.6182216
52	0xbf04f271	-0.51932436
53	0xbe594006	-0.21215829
54	0x3e494a46	0.1965724
55	0x3e1e56e6	0.15462837
56	0x3f50b7c3	0.815304
57	0xbf5a8eb5	-0.85374004
58	0xbe9144bf	-0.28372762
59	0xbe8a7542	-0.27042586
60	0x3f05d6de	0.52280986
61	0xbfa05cbd	-1.2528301
62	0xbf192277	-0.59818214
63	0x40148d7a	2.321135
64	0x3ecdf0ff	0.40222928
65	0x3fc29801	1.5202638
66	0xbf8b2601	-1.0870973
67	0x3d0457a7	0.032310154
68	0x3ee8fa5e	0.45503515
69	0x3f2b0b79	0.6681438
70	0x3b19ea5a	0.0023485632
71	0x3cd3bcea	0.025846917
72	0x3edc2f32	0.43004757
73	0xbedcb6a2	-0.43108088
74	0x3f1c621e	0.61087215
75	0x400f2d3d	2.2371361
76	0x3ef439a4	0.47700226
77	0xbd121dac	-0.03567283
78	0xbeb7eaac	-0.35921228
79	0xbf16627f	-0.58744043
80	0x3e513fb9	0.20434465
81	0x3e855d6f	0.26047847
82	0x3e7b0ccc	0.245166
83	0x3eabf81c	0.3358773
84	0xbf1b0e44	-0.6056864
85	0xbef55288	-0.4791453
86	0x3ea1832e	0.31545395
87	0x3f259cc9	0.6469236
88	0xbf3be4a5	-0.7339576
89	0x3f5b9a67	0.85782474
90	0x40000a0f	2.000614
91	0xbf05bc46	-0.5224041
92	0x3f1e5ce1	0.6186047
93	0xbf8b89af	-1.0901393
94	0x3fe4e8c2	1.7883532
95	0xbf612697	-0.8794951
96	0xbf22756d	-0.6346043
97	0xbe775e40	-0.24157047
98	0x3f955b66	1.1668518
99	0xbfc20aef	-1.5159587
100	0x3fc5a80b	1.5441908
101	0x3f43a6ad	0.764262
102	0x3f8faf35	1.1225344
103	0x3f3c5e8f	0.73581785
104	0x3fa3a37c	1.2784266
105	0xbf5546f9	-0.8331142
106	0x3e9155ca	0.28385764
107	0xbfbacc0c	-1.459352
108	0x3f56c72c	0.8389766
109	0xbfab141d	-1.3365513
110	0xbef9d20f	-0.48793074
111	0x3f37055a	0.7149254
112	0x3f6c328d	0.92264634
113	0x400953d1	2.1457407
114	0x3ee95031	0.45568994
115	0x3f7048a1	0.9386082
116	0x3cceb54c	0.025232933
117	0xbf021d28	-0.5082574
118	0xbb1f3db5	-0.0024298255
119	0xbfa6a04f	-1.3017672
120	0xbe966806	-0.2937624
121	0xc0065e8d	-2.099521
122	0x3f44cbf9	0.7687374
123	0xbfb8e8b4	-1.4446015
124	0x3f6ae46d	0.917548
125	0xbf302c0e	-0.6881722
126	0xbef27c1d	-0.47360316
127	0xbd3c9bc4	-0.046046987
128	0x3e863809	0.26214626
129	0xbf3c54d5	-0.73566943
130	0xbea31ccd	-0.3185791
131	0xbf3845ed	-0.719817
132	0xbf21bc78	-0.63178205
133	0xbe91864e	-0.2842278
134	0xbf8249ca	-1.0178769
135	0x3fa67be9	1.3006564
136	0x3f90cfc6	1.1313407
137	0xbf7d2c23	-0.9889547
138	0x3e550e3c	0.20806211
139	0xbf7613b8	-0.9612384
140	0x3f69f959	0.913961
141	0x3f8dfe5b	1.1093248
142	0x3fab9485	1.34047
143	0xbd25297f	-0.040322777
144	0xbeba4224	-0.36378586
145	0xbfce9fbf	-1.6142501
146	0x3f5fee78	0.8747325
147	0xbf27f04f	-0.65601057
148	0xc00a5fff	-2.1621091
149	0xc018cc74	-2.3874788
150	0xbe81a5f9	-0.2532194
151	0xbea0e2fc	-0.31423175
152	0x3e24d102	0.16095355
153	0x3f9aa2bb	1.2080911
154	0x3edca43e	0.43094057
155	0x3e1a177d	0.15048023
156	0x3fac60dd	1.346706
157	0x3f7dd4a4	0.9915259
158	0xbe48b7a0	-0.19601297
159	0xbf5becd6	-0.8590826
160	0x3d24ccef	0.040234502
161	0x3c2cf108	0.010555513
162	0xbf07b43c	-0.5300939
163	0xbfc18d6e	-1.5121286
164	0xbf8f0ebe	-1.1176374
165	0x3dfe28dc	0.12410137
166	0xbf305fe4	-0.6889632
167	0x3cf3bc54	0.029752888
168	0xbf1a3b23	-0.60246485
169	0x401ca459	2.447531
170	0x3e78c38a	0.24293342
171	0x3e8fc3b4	0.28078997
172	0xbd29aab1	-0.04142255
173	0x3fd18739	1.6369392
174	0x3dcb8ba7	0.09938746
175	0x3f7a850e	0.97859275
176	0xbec2c962	-0.38044268
177	0xbfa11d27	-1.2587022
178	0xbe52d3cb	-0.20588605
179	0xbf86f4f6	-1.0543506
180	0xbfaa3a99	-1.3299133
181	0x3f1c92ca	0.6116148
182	0xbfdcfb6b	-1.7264227
183	0x3f20d286	0.62821233
184	0xbee8ea23	-0.45491132
185	0xbef13c86	-0.47116488
186	0x3f83ec33	1.0306457
187	0x3f00a0c4	0.5024531
188	0x3d6575f6	0.0560207
189	0x40111532	2.2669187
190	0xbf197787	-0.5994801
191	0x3e9a2eae	0.3011374
192	0x3f53dc16	0.827577
193	0xbf5a25a5	-0.8521369
194	0xbfaefe70	-1.3671398
195	0x3ebb982f	0.36639544
196	0x3f7501b5	0.9570573
197	0x3d6f3d7d	0.05840825
198	0x3fedbb04	1.8572698
199	0x402def43	2.7177284
200	0xc02c8893	-2.6958358
201	0xbf6b088e	-0.9180993
202	0x3e39cd8d	0.18144818
203	0xbdcdae72	-0.100430384
204	0xbfe408be	-1.7815168
205	0x3efdec85	0.49594513
206	0xbfa4d3a4	-1.2877088
207	0x3f8b78b7	1.0896214
208	0xbefd817c	-0.4951285
209	0x40046b6b	2.0690563
210	0x3e9e8b1f	0.30965516
211	0x3f18838d	0.5957573
212	0xbe773c6b	-0.24144141
213	0xbe4eeb90	-0.20207047
214	0x3f41d9e3	0.75723094
215	0x3d324194	0.04351957
216	0xbddb83b9	-0.107184835
217	0xbf49745d	-0.7869318
218	0xbe017ca2	-0.126452
219	0xbf3183cf	-0.6934175
220	0xbf9f6fa6	-1.2455947
221	0x3fa6c6cf	1.3029422
222	0x3ef95e2c	0.4870466
223	0x3fa18383	1.2618259
224	0xbe2067a5	-0.15664537
225	0x3d7abdbd	0.061216105
226	0xbdbaa181	-0.09112836
227	0xbfb41f17	-1.4071988
228	0xbf150d58	-0.58223486
229	0x3edcf994	0.43159163
230	0xbfb39d44	-1.4032369
231	0xbfcd0c7a	-1.6019433
232	0xbebb4636	-0.36577004
233	0xbf778b58	-0.96696997
234	0xbe283f35	-0.16430362
235	0xbe58a9f7	-0.21158586
236	0x3fc05f21	1.5029031
237	0x3f66adac	0.9010875
238	0xbf962716	-1.1730678
239	0x3f8458fe	1.0339658
240	0xbd2ffff5	-0.04296871
241	0x3dd94feb	0.10610946
242	0xbf2b1828	-0.66833735
243	0xbec33961	-0.38129714
244	0xbf253847	-0.64539
245	0x3f1a7662	0.6033689
246	0xbf888aba	-1.0667336
247	0x3cbb00ac	0.022827469
248	0x3fab4a36	1.3382022
249	0x3f8bac83	1.0912021
250	0x3d9fc956	0.07802074
251	0xbf6282cf	-0.8848085
252	0x3f484685	0.78232604
253	0x3f098221	0.53714186
254	0x3dba9215	0.09109894
255	0xbe98c6f9	-0.29839304

Q1.0.bias f4 [50, 5]
0	0xbb9a1410	-0.0047020987
1	0x3c5f037f	0.013611673
2	0x3cc23b87	0.023710025
3	0x3c682dc4	0.014171068
4	0x3b721db0	0.0036943965
5	0x3aae8785	0.0013315534
6	0xbb00cb5e	-0.0019652466
7	0xbaf76cfc	-0.0018877084
8	0xba22b24c	-0.0006206378
9	0xb752b101	-1.2558187e-05
10	0x3aab2ce9	0.0013059649
11	0x3a381a7c	0.00070229894
12	0x3a2109da	0.00061431306
13	0x39965046	0.00028670038
14	0x390c2cf3	0.00013368185
15	0xba0e6b14	-0.0005432826
16	0xb9767c6a	-0.00023506736
17	0x38bd85fd	9.0371796e-05
18	0x39429d77	0.00018559942
19	0x39350a82	0.0001726542
20	0xbb85cfe5	-0.004083621
21	0xbb2422cd	-0.0025045157
22	0xbadfb4e1	-0.0017067456
23	0xba043e84	-0.0005044716
24	0xb8ec9575	-0.000112811955
25	0xb94f7068	-0.00019782933
26	0xb87aa3ff	-5.9757378e-05
27	0x38d57614	0.00010178625
28	0x38f12613	0.000114988674
29	0x38716554	5.7553247e-05
30	0xbb24901e	-0.0025110315
31	0xba91d539	-0.0011126167
32	0x396769ec	0.00022069336
33	0x3a23ef0b	0.0006253577
34	0x3991d82b	0.00027817613
35	0x3b7d91a8	0.0038691554
36	0x381bd0c4	3.7149308e-05
37	0xba518475	-0.0007992455
38	0xb9c44b2d	-0.00037440044
39	0x37d86cb6	2.5799829e-05
40	0x3b47be0c	0.0030478267
41	0xbab756be	-0.0013987643
42	0xb999898b	-0.00029284912
43	0x3a7c678d	0.00096284674
44	0x39fdf487	0.00048438107
45	0xbc4bfe07	-0.012450702
46	0x3ba84316	0.0051349504
47	0x3c73874a	0.014863798
48	0x3c25c9d5	0.010118921
49	0x3b3b6e70	0.0028599761
50	0x3b2bf835	0.0026240472
51	0xba0bb168	-0.0005328865
52	0xbaee9464	-0.0018202183
53	0xba9d4803	-0.001199961
54	0xb97100f5	-0.00022983908
55	0x3d15d515	0.036580164
56	0x3cf3ba6e	0.029751983
57	0x3cc6a4a4	0.024248429
58	0x3c0d1560	0.008611053
59	0x3abb3592	0.0014282933
60	0xbaaef29b	-0.0013347449
61	0xb9693222	-0.00022239288
62	0x3784be70	1.5824306e-05
63	0x384a840b	4.8283528e-05
64	0x35b0cfec	1.3173535e-06
65	0xbb42b89e	-0.0029712091
66	0xbaf5ecdc	-0.0018762606
67	0xba97fcaf	-0.0011595691
68	0xb981853b	-0.00024704062
69	0x37b3f797	2.1453756e-05
70	0x3bab404a	0.0052261697
71	0xba13522e	-0.00056198507
72	0xbb7d33ee	-0.0038635689
73	0xbb3ebdbf	-0.0029104797
74	0xba3fbc10	-0.0007314095
75	0xb967bcdb	-0.00022100231
76	0xb7fd029d	-3.0161167e-05
77	0xb68a29bb	-4.1175786e-06
78	0x00000000	0.0
79	0x00000000	0.0
80	0x3c94674d	0.018115664
81	0xbb482e74	-0.0030545266
82	0xbc747be3	-0.014922115
83	0xbc32722c	-0.0108914785
84	0xbb464a61	-0.0030256736
85	0xbb21fd89	-0.002471777
86	0xb80f1180	-3.4110155e-05
87	0x3a99fb5b	0.0011747883
88	0x3a682aee	0.00088564947
89	0x386ffe5f	5.7218942e-05
90	0x3caaf25f	0.020867525
91	0x3cb60dce	0.02222338
92	0x3caf80a6	0.021423649
93	0x3c13b792	0.009015935
94	0x3af1d96b	0.0018451636
95	0x3c39dc66	0.011344051
96	0x39527449	0.0002007048
97	0xbbd07f65	-0.006362843
98	0xbbabc86b	-0.0052423975
99	0xbada27d4	-0.001664395
100	0x3b0f1476	0.0021832264
101	0x3accf6a4	0.001563747
102	0x3ac675ce	0.001514131
103	0x3a33864f	0.00068483216
104	0x393bea84	0.00017921074
105	0xb87e8196	-6.0679005e-05
106	0x390ace82	0.00013237636
107	0x395adc26	0.00020872112
108	0x38f9bca2	0.00011908381
109	0x381609f5	3.577206e-05
110	0x00000000	0.0
111	0x00000000	0.0
112	0x00000000	0.0
113	0x00000000	0.0
114	0x00000000	0.0
115	0xba37ce21	-0.00070116116
116	0xb9fa7a9b	-0.00047775064
117	0xb846d2bd	-4.7403144e-05
118	0x39431cf4	0.00018607435
119	0xb753e0d3	-1.2628926e-05
120	0xbaa14624	-0.0012304229
121	0xbae56945	-0.0017502686
122	0xbaf5b34b	-0.001874545
123	0xba5fae35	-0.0008532734
124	0xb9226ec1	-0.00015490783
125	0xba3c602f	-0.00071859633
126	0xb9d44408	-0.00040486478
127	0xb93a6b9c	-0.0001777843
128	0x373914f4	1.1031738e-05
129	0x383bc83a	4.477075e-05
130	0x3a2f7397	0.00066929444
131	0x3a12365d	0.0005577559
132	0x3a178c87	0.0005781133
133	0x39906202	0.00027538842
134	0x38a4ec34	7.864126e-05
135	0xbbcdd7f0	-0.0062818453
136	0xbc0547d7	-0.008134804
137	0xbc10b75b	-0.008832778
138	0xbb884434	-0.004158521
139	0xba7e7012	-0.0009706031
140	0x3a85a7fc	0.0010197158
141	0x3a9a43ae	0.0011769438
142	0x3aab0c82	0.0013049992
143	0x3a27f745	0.00064073905
144	0x394fa8d2	0.00019803949
145	0x3d0db9c1	0.034600977
146	0xbb39d327	-0.0028354616
147	0xbcc0f880	-0.023555994
148	0xbc923b43	-0.017850524
149	0xbb9c905e	-0.004777952
150	0x3c191931	0.009344385
151	0x3b195fa7	0.002340296
152	0xbb01a2a0	-0.001978077
153	0xbb226673	-0.0024780303
154	0xba5649d4	-0.00081744534
155	0xbb088b1e	-0.0020834873
156	0xbb718d8d	-0.0036858052
157	0xbb9375c3	-0.0045001223
158	0xbb14fa29	-0.0022732115
159	0xba0b5f63	-0.0005316643
160	0x3af31694	0.0018546158
161	0x3c34a747	0.01102621
162	0x3c81a987	0.015827907
163	0x3c0f1952	0.008734064
164	0x3b0e5744	0.0021719495
165	0xbb0fd61c	-0.0021947687
166	0xba91ad03	-0.0011114184
167	0xb9fd2693	-0.0004828466
168	0x37532c4f	1.2586896e-05
169	0x3830cd41	4.2152828e-05
170	0x3b15e07f	0.0022869406
171	0x3a100dc3	0.0005495215
172	0x383dc396	4.5243265e-05
173	0xb889dd68	-6.573909e-05
174	0x36320c2e	2.6531156e-06
175	0xbca5557d	-0.020182366
176	0x3c75a514	0.014992971
177	0x3d0a4c8a	0.0337644
178	0x3cb16ac7	0.02165736
179	0x3bbfdafd	0.005854963
180	0xbc7ee137	-0.015556625
181	0x3c898e0e	0.01679137
182	0x3d0c5565	0.034261126
183	0x3caf648d	0.021410251
184	0x3bc05683	0.005869688
185	0x00000000	0.0
186	0x00000000	0.0
187	0x00000000	0.0
188	0x00000000	0.0
189	0x00000000	0.0
190	0x3bf821ae	0.0075723743
191	0x3c06d351	0.008229093
192	0x3c045772	0.008077489
193	0x3b62da11	0.003461484
194	0x3a403ed7	0.00073335826
195	0x3cd806b0	0.026370376
196	0x3c203408	0.00977803
197	0xba875cd3	-0.0010327346
198	0xbb96fd84	-0.004607858
199	0xbadcc197	-0.0016842362
200	0xbae7cc13	-0.001768472
201	0xbaeddd3b	-0.0018147597
202	0xbaea63d0	-0.001788253
203	0xba4d487b	-0.000783093
204	0xb937af72	-0.00017517598
205	0x3bd85aff	0.0066026445
206	0xbb18a94b	-0.0023294266
207	0xbbfb51bb	-0.007669655
208	0xbbb13293	-0.0054076402
209	0xbab509e9	-0.0013812158
210	0xba191aa3	-0.0005840456
211	0x3b217d28	0.002464125
212	0x3b00c479	0.0019648357
213	0x39e502cc	0.00043680368
214	0xb79a0301	-1.835963e-05
215	0x3cbe34fc	0.023218624
216	0x3bca0b63	0.006165908
217	0xbb87792c	-0.004134318
218	0xbbb90f34	-0.0056475643
219	0xbaf57f3d	-0.0018729937
220	0xbb35dde7	-0.0027750672
221	0xbae12293	-0.0017176442
222	0xba4e36e1	-0.0007866454
223	0x385d45c7	5.275549e-05
224	0x39980972	0.00028998737
225	0x3c33a95f	0.010965674
226	0xbae88dc8	-0.0017742449
227	0xbc086791	-0.008325473
228	0xbbc2098f	-0.0059215496
229	0xbac7ee50	-0.0015253518
230	0xbc190252	-0.009338932
231	0xb98722b8	-0.00025775074
232	0x3ba6bb13	0.005088219
233	0x3b8b4a7b	0.004250822
234	0x3ab7fa68	0.0014036419
235	0x3a6618f4	0.0008777522
236	0xbb4bd05a	-0.003109953
237	0xbac508e5	-0.0015032558
238	0x3a1b09aa	0.0005914221
239	0x3a9dd8e1	0.0012042784
240	0xbab1394b	-0.0013521103
241	0xbad10afa	-0.0015948706
242	0xbaa7de68	-0.0012807371
243	0xb97a391a	-0.0002386313
244	0x3535c32c	6.7711767e-07
245	0x00000000	0.0
246	0x00000000	0.0
247	0x00000000	0.0
248	0x00000000	0.0
249	0x00000000	0.0
