CausalCVR/logs/simu3/eval/84/Vcnet_ckpt.pth.tar (torch, 123067 bytes, 16 tensors)

feature_weight.weight f4 [50, 8]
00000000: f268 053c 3cdf cd3b 6b35 eabc 3b25 c9bb
00000010: cb39 a2bc 24d1 583b 2cc0 a93a 7c7b 8f3c
00000020: 5483 8f3b be92 ebbb c78e d13b f0f5 1e3a
00000030: 40c8 bc3b 5652 1f3c c0f7 183c 2353 3dbc
00000040: b715 f53b 11f4 0d3c 01ca 91bb 217e 033b
00000050: 9d5f 073c 3e9c 21bc a011 4fbb 5d3b e73b
00000060: ad9c 44bc d3e1 ae3a 1c5b 0dbc 5e86 08bb
00000070: 71cd 233a ea75 26bc a1cc c9ba f843 4dbc
00000080: 5fb5 1a3c eb7e 34bc 120e d23b 0a75 00bb
00000090: 0245 f9b9 e919 c7bb 2a41 563c 102c 753c
000000a0: 95f1 093b a1b3 413c 252d 28bc 9e36 a5bb
000000b0: cda6 cf3b 00c3 df3b c11d e83b ea74 983c
000000c0: 014f 19bb 8a20 31bb 99c1 61bc d10e a13c
000000d0: f8d6 54bc c58e 313c 2acd d8bb 6926 35bb
000000e0: 0b1b 2fb9 73f6 1e3c 817b 733c 4eed 453b
000000f0: d1bb 9c3b 8f7c a1bc afd4 1bbc f24b 963c
00000100: daa0 2f3c 69e7 daba 5686 6abc 3b58 643b
00000110: ec01 473c a295 983b baf0 09bb 2243 4abc
00000120: 5e40 0b3c 2337 683b 690e a13a a598 7dbc
00000130: cecb cdbb f12b dbbc b105 3f3c 7dae 6bbb
00000140: 3c70 9bbc 1a86 303c 6951 4ebc 89ae 283a
00000150: c7cd 603c 9849 673c fdb3 32bc b651 57bc
00000160: ba8f 1db9 fb8e cebb 958a 0f3c 3b31 653b
00000170: 301e a2bb e898 5ebc 4cce 47ba 1444 1fbc
00000180: 58f7 20bc 4584 71bc ae95 efbb b068 253c
00000190: 2fd0 5d3b 7114 173a 3d19 c73a 42b5 3abb
000001a0: 0143 2ebc 51ff f1bb 833c 85bc 1688 bf38
000001b0: 2a4e 59bc 284b 893a 4178 643b 4aa6 08bc
000001c0: 8dd0 443c 0da3 b63b 51f0 86ba fc56 953a
000001d0: e690 fbbb 3fa4 47bb 4908 863b 3168 a3bb
000001e0: eaa8 0dbb 5c14 a83c 65c7 083c a6c7 553c
000001f0: ef1d a33b db55 c5bb 25f1 43bb 3a63 503c
00000200: 1998 e1bb 20ca 8e3b 8f33 1e3b bb27 953a
00000210: 763e 863c 6d43 d13b 097f d0bb 2908 d3bb
00000220: 42c6 bb3a 5caa 643c aa92 83bc 5099 81bc
00000230: 2b60 2c3c b58b e63b 761b 89bb 6151 a6bc
00000240: 3c31 50bc 9759 dc3b 4313 0f3b 98ed 0ebb
00000250: c3fc 28bc 2b80 14bc ef80 65ba 9425 e13b
00000260: 5f25 3dbc e482 55bb cec0 913b c75f d43b
00000270: 5f97 edbb 6e80 ddbb ce0c c4bc 925c e83b
00000280: 2027 afbb 3846 96bc 3823 603c 9a7d 0fbb
00000290: d169 ce3b 20a9 b73b 2a66 e83b 79c7 c43b
000002a0: 55e3 48bc e483 ed3a 122a 2dbb 085a 083b
000002b0: cf21 c9bb 76ad 6cbb 996d c4ba 0f47 3abc
000002c0: a67e 823c 89e5 96bb 7f30 2d3c 61b3 4dbb
000002d0: f804 6f3c 227e 8fbc 4ab1 97bb 79af d03b
000002e0: 758d 0bbc 23b3 3cbc 9b15 e2ba e876 16bc
000002f0: c4dd ac3c 0d3a 073c 923b eabb bbf0 6c3c
00000300: cf7f f23b 8ce9 1ebc f551 52ba 0e59 e93a
00000310: a12d 70bc e226 1a39 c9aa ebbb d450 003b
00000320: eda5 fa3a df40 bfba 124c 653c 0bed d8bb
00000330: 7cb5 34bb 2db6 073b 90bd 033b 791e 91bb
00000340: 037f d7ba 6817 3dbb fe28 1c3c 8e68 95bc
00000350: 740a c3bc cb86 9b3a 0118 733b d167 573c
00000360: 95cf 003a d7fd 88bb b5eb 953b c53f 6c3b
00000370: 2894 20bc bde5 c13b e686 a1bb 588a 6abc
00000380: 59f1 50bb 2158 89bc b5db fabb b7aa 8c3c
00000390: 58a1 6fbb ba64 a63b 9458 0e3a 52ec 823c
000003a0: 350b d8bb c66b 91bc 2dee 3b3b 3861 9a3c
000003b0: 13d1 973c 450a 88bb 6ea7 243b 68a1 293c
000003c0: 0f50 863c e303 c03b c079 e5bb fa57 c43a
000003d0: 74c1 7039 9e71 a93a 45bf 293b cb05 a1bb
000003e0: 6739 45bc fca9 b9bb 7cb9 833c fd4c 2dbb
000003f0: 69ba 16bc cc6c 8d3c f003 2f3c 4c4b 42bb
0.008142697 0.006282715 -0.028589925 -0.0061384714 -0.019802948 0.0033083642 0.0012950948 0.017514937
0.004379669 -0.007189124 0.006395194 0.0006063869 0.0057611763 0.00972422 0.009336412 -0.011555466
0.0074793953 0.008664147 -0.0044491296 0.0020064192 0.008262542 -0.009863911 -0.0031596199 0.007056637
-0.012000245 0.0013342447 -0.008627679 -0.0020832042 0.00062485697 -0.010159949 -0.0015396067 -0.012528412
0.009442656 -0.011016588 0.0064103687 -0.001960101 -0.00047544396 -0.006076087 0.01307706 0.014964119
0.0021048535 0.011822612 -0.01026467 -0.0050419113 0.006337023 0.0068286657 0.007083625 0.018610436
-0.0023393037 -0.0027027451 -0.013779067 0.019660385 -0.012990706 0.010837262 -0.0066162543 -0.0027641302
-0.00016699375 0.009702313 0.014860989 0.003020126 0.0047831316 -0.019712714 -0.009511157 0.01834676
0.010719502 -0.0016701046 -0.014314255 0.0034842629 0.012146454 0.0046565095 -0.0021048025 -0.012345107
0.008499233 0.0035433255 0.001228762 -0.015478288 -0.006280399 -0.026754351 0.011659072 -0.0035962157
-0.018974416 0.01077416 -0.012592652 0.0006434699 0.013720936 0.014116667 -0.01090717 -0.01314204
-0.00015026229 -0.0063036657 0.008761068 0.003497197 -0.0049474463 -0.01358626 -0.0007621988 -0.009720821
-0.009824596 -0.014741008 -0.0073115444 0.01009576 0.003384601 0.0005763239 0.0015190017 -0.0028489386
-0.010636092 -0.0073851724 -0.016264206 9.132938e-05 -0.013263265 0.0010474669 0.0034861716 -0.008340428
0.012012613 0.0055736364 -0.0010295009 0.0011393721 -0.0076771853 -0.0030462889 0.004090343 -0.004986786
-0.0021615573 0.02051752 0.008348321 0.013048088 0.0049779336 -0.0060221977 -0.0029898372 0.01271897
-0.0068845865 0.0043575913 0.0024139618 0.0011379638 0.016387206 0.0063862116 -0.0063628 -0.0064401818
0.0014326053 0.013956632 -0.016061146 -0.015820175 0.010520975 0.0070356973 -0.004184182 -0.020302476
-0.012707051 0.006724547 0.002183155 -0.0021809097 -0.010314169 -0.009063761 -0.00087548693 0.0068709347
-0.0115445545 -0.0032579238 0.004448033 0.006481144 -0.007250711 -0.006759695 -0.023931887 0.0070911134
-0.0053452402 -0.01834403 0.013680272 -0.0021894933 0.0062992354 0.005604878 0.007092257 0.0060052243
-0.012261231 0.0018120972 -0.002642278 0.0020805616 -0.0061380635 -0.0036114133 -0.0014986276 -0.011369481
0.015929531 -0.0046049994 0.010570644 -0.0031387436 0.014588587 -0.0175162 -0.004629289 0.006368574
-0.008517613 -0.011517319 -0.001724887 -0.009183623 0.02110184 0.0082535865 -0.0071482146 0.0144616915
0.00740049 -0.009699237 -0.0008023077 0.001780303 -0.014659316 0.0001470107 -0.00719199 0.0019579427
0.0019122936 -0.0014591477 0.013995187 -0.0066200546 -0.0027573993 0.002070795 0.0020102002 -0.0044286815
-0.0016441051 -0.0028853063 0.009531258 -0.018238332 -0.023808695 0.0011865733 0.0037093165 0.01314731
0.00049137446 -0.0041806507 0.0045752176 0.0036048752 -0.009800948 0.0059172795 -0.004929411 -0.01431521
-0.0031882136 -0.016765656 -0.0076555857 0.017171247 -0.0036564674 0.0050779255 0.0005430069 0.015981827
-0.006593133 -0.017751586 0.00286759 0.018845186 0.018532312 -0.004151615 0.002512421 0.010353424
0.016395597 0.0058598383 -0.007003039 0.0014979832 0.0002296025 0.0012927537 0.002590136 -0.0049140207
-0.012037612 -0.0056660157 0.016079657 -0.0026443594 -0.009199717 0.017263792 0.010682091 -0.0029646931

feature_weight.bias f4 [50]
00000000: c12d c3b6 a7f7 1bb8 d1d2 24b7 0000 0000
00000010: 4fba c1b7 d18d 8036 5349 c4b6 59c7 0538
00000020: 9f63 9637 3ba6 4335 2c04 a936 91f1 37b5
00000030: 5c40 84b5 0000 0000 4130 ceb7 239a 95b6
00000040: 5672 feb6 3a3f 1d34 3f33 5eb6 5d92 0635
00000050: 8311 2837 0000 0000 ed01 32b7 ab81 b7b7
00000060: 55b8 eeb4 732d 39b7 8107 e736 5732 1336
00000070: 2c9b 8f37 6205 e737 f025 3a37 91cb 47b8
00000080: ab33 26b8 30f0 b0b7 c2e4 4fb4 a5a3 5332
00000090: a838 9637 99de e237 637c cb37 849b acb8
000000a0: c25e 28b8 17f6 a437 0b33 6337 54df 07b8
000000b0: ae89 62b6 ef50 e8b4 f966 1cb5 9b07 96b6
000000c0: ad8b 2b37 6d7a f6b6
-5.8167793e-06 -3.7185524e-05 -9.824246e-06 0.0 -2.309415e-05 3.831207e-06 -5.8497913e-06 3.1895328e-05
1.7927783e-05 7.288506e-07 5.037078e-06 -6.852434e-07 -9.853497e-07 0.0 -2.4579584e-05 -4.45849e-06
-7.5831003e-06 1.4644766e-07 -3.3110407e-06 5.0131877e-07 1.0017658e-05 0.0 -1.0610075e-05 -2.1875681e-05
-4.4465074e-07 -1.1037441e-05 6.88521e-06 2.1934009e-06 1.7119186e-05 2.7539852e-05 1.1095297e-05 -4.7634883e-05
-3.9625604e-05 -2.1092681e-05 -1.9361599e-07 1.2319025e-08 1.7907776e-05 2.7044955e-05 2.4257408e-05 -8.230566e-05
-4.014257e-05 1.9664918e-05 1.3542139e-05 -3.23945e-05 -3.3756764e-06 -4.3272254e-07 -5.8264374e-07 -4.4712338e-06
1.0224915e-05 -7.3456235e-06

hidden_features.0.weight f4 [50, 8]
00000000: f268 053c 3cdf cd3b 6b35 eabc 3b25 c9bb
00000010: cb39 a2bc 24d1 583b 2cc0 a93a 7c7b 8f3c
00000020: 5483 8f3b be92 ebbb c78e d13b f0f5 1e3a
00000030: 40c8 bc3b 5652 1f3c c0f7 183c 2353 3dbc
00000040: b715 f53b 11f4 0d3c 01ca 91bb 217e 033b
00000050: 9d5f 073c 3e9c 21bc a011 4fbb 5d3b e73b
00000060: ad9c 44bc d3e1 ae3a 1c5b 0dbc 5e86 08bb
00000070: 71cd 233a ea75 26bc a1cc c9ba f843 4dbc
00000080: 5fb5 1a3c eb7e 34bc 120e d23b 0a75 00bb
00000090: 0245 f9b9 e919 c7bb 2a41 563c 102c 753c
000000a0: 95f1 093b a1b3 413c 252d 28bc 9e36 a5bb
000000b0: cda6 cf3b 00c3 df3b c11d e83b ea74 983c
000000c0: 014f 19bb 8a20 31bb 99c1 61bc d10e a13c
000000d0: f8d6 54bc c58e 313c 2acd d8bb 6926 35bb
000000e0: 0b1b 2fb9 73f6 1e3c 817b 733c 4eed 453b
000000f0: d1bb 9c3b 8f7c a1bc afd4 1bbc f24b 963c
00000100: daa0 2f3c 69e7 daba 5686 6abc 3b58 643b
00000110: ec01 473c a295 983b baf0 09bb 2243 4abc
00000120: 5e40 0b3c 2337 683b 690e a13a a598 7dbc
00000130: cecb cdbb f12b dbbc b105 3f3c 7dae 6bbb
00000140: 3c70 9bbc 1a86 303c 6951 4ebc 89ae 283a
00000150: c7cd 603c 9849 673c fdb3 32bc b651 57bc
00000160: ba8f 1db9 fb8e cebb 958a 0f3c 3b31 653b
00000170: 301e a2bb e898 5ebc 4cce 47ba 1444 1fbc
00000180: 58f7 20bc 4584 71bc ae95 efbb b068 253c
00000190: 2fd0 5d3b 7114 173a 3d19 c73a 42b5 3abb
000001a0: 0143 2ebc 51ff f1bb 833c 85bc 1688 bf38
000001b0: 2a4e 59bc 284b 893a 4178 643b 4aa6 08bc
000001c0: 8dd0 443c 0da3 b63b 51f0 86ba fc56 953a
000001d0: e690 fbbb 3fa4 47bb 4908 863b 3168 a3bb
000001e0: eaa8 0dbb 5c14 a83c 65c7 083c a6c7 553c
000001f0: ef1d a33b db55 c5bb 25f1 43bb 3a63 503c
00000200: 1998 e1bb 20ca 8e3b 8f33 1e3b bb27 953a
00000210: 763e 863c 6d43 d13b 097f d0bb 2908 d3bb
00000220: 42c6 bb3a 5caa 643c aa92 83bc 5099 81bc
00000230: 2b60 2c3c b58b e63b 761b 89bb 6151 a6bc
00000240: 3c31 50bc 9759 dc3b 4313 0f3b 98ed 0ebb
00000250: c3fc 28bc 2b80 14bc ef80 65ba 9425 e13b
00000260: 5f25 3dbc e482 55bb cec0 913b c75f d43b
00000270: 5f97 edbb 6e80 ddbb ce0c c4bc 925c e83b
00000280: 2027 afbb 3846 96bc 3823 603c 9a7d 0fbb
00000290: d169 ce3b 20a9 b73b 2a66 e83b 79c7 c43b
000002a0: 55e3 48bc e483 ed3a 122a 2dbb 085a 083b
000002b0: cf21 c9bb 76ad 6cbb 996d c4ba 0f47 3abc
000002c0: a67e 823c 89e5 96bb 7f30 2d3c 61b3 4dbb
000002d0: f804 6f3c 227e 8fbc 4ab1 97bb 79af d03b
000002e0: 758d 0bbc 23b3 3cbc 9b15 e2ba e876 16bc
000002f0: c4dd ac3c 0d3a 073c 923b eabb bbf0 6c3c
00000300: cf7f f23b 8ce9 1ebc f551 52ba 0e59 e93a
00000310: a12d 70bc e226 1a39 c9aa ebbb d450 003b
00000320: eda5 fa3a df40 bfba 124c 653c 0bed d8bb
00000330: 7cb5 34bb 2db6 073b 90bd 033b 791e 91bb
00000340: 037f d7ba 6817 3dbb fe28 1c3c 8e68 95bc
00000350: 740a c3bc cb86 9b3a 0118 733b d167 573c
00000360: 95cf 003a d7fd 88bb b5eb 953b c53f 6c3b
00000370: 2894 20bc bde5 c13b e686 a1bb 588a 6abc
00000380: 59f1 50bb 2158 89bc b5db fabb b7aa 8c3c
00000390: 58a1 6fbb ba64 a63b 9458 0e3a 52ec 823c
000003a0: 350b d8bb c66b 91bc 2dee 3b3b 3861 9a3c
000003b0: 13d1 973c 450a 88bb 6ea7 243b 68a1 293c
000003c0: 0f50 863c e303 c03b c079 e5bb fa57 c43a
000003d0: 74c1 7039 9e71 a93a 45bf 293b cb05 a1bb
000003e0: 6739 45bc fca9 b9bb 7cb9 833c fd4c 2dbb
000003f0: 69ba 16bc cc6c 8d3c f003 2f3c 4c4b 42bb
0.008142697 0.006282715 -0.028589925 -0.0061384714 -0.019802948 0.0033083642 0.0012950948 0.017514937
0.004379669 -0.007189124 0.006395194 0.0006063869 0.0057611763 0.00972422 0.009336412 -0.011555466
0.0074793953 0.008664147 -0.0044491296 0.0020064192 0.008262542 -0.009863911 -0.0031596199 0.007056637
-0.012000245 0.0013342447 -0.008627679 -0.0020832042 0.00062485697 -0.010159949 -0.0015396067 -0.012528412
0.009442656 -0.011016588 0.0064103687 -0.001960101 -0.00047544396 -0.006076087 0.01307706 0.014964119
0.0021048535 0.011822612 -0.01026467 -0.0050419113 0.006337023 0.0068286657 0.007083625 0.018610436
-0.0023393037 -0.0027027451 -0.013779067 0.019660385 -0.012990706 0.010837262 -0.0066162543 -0.0027641302
-0.00016699375 0.009702313 0.014860989 0.003020126 0.0047831316 -0.019712714 -0.009511157 0.01834676
0.010719502 -0.0016701046 -0.014314255 0.0034842629 0.012146454 0.0046565095 -0.0021048025 -0.012345107
0.008499233 0.0035433255 0.001228762 -0.015478288 -0.006280399 -0.026754351 0.011659072 -0.0035962157
-0.018974416 0.01077416 -0.012592652 0.0006434699 0.013720936 0.014116667 -0.01090717 -0.01314204
-0.00015026229 -0.0063036657 0.008761068 0.003497197 -0.0049474463 -0.01358626 -0.0007621988 -0.009720821
-0.009824596 -0.014741008 -0.0073115444 0.01009576 0.003384601 0.0005763239 0.0015190017 -0.0028489386
-0.010636092 -0.0073851724 -0.016264206 9.132938e-05 -0.013263265 0.0010474669 0.0034861716 -0.008340428
0.012012613 0.0055736364 -0.0010295009 0.0011393721 -0.0076771853 -0.0030462889 0.004090343 -0.004986786
-0.0021615573 0.02051752 0.008348321 0.013048088 0.0049779336 -0.0060221977 -0.0029898372 0.01271897
-0.0068845865 0.0043575913 0.0024139618 0.0011379638 0.016387206 0.0063862116 -0.0063628 -0.0064401818
0.0014326053 0.013956632 -0.016061146 -0.015820175 0.010520975 0.0070356973 -0.004184182 -0.020302476
-0.012707051 0.006724547 0.002183155 -0.0021809097 -0.010314169 -0.009063761 -0.00087548693 0.0068709347
-0.0115445545 -0.0032579238 0.004448033 0.006481144 -0.007250711 -0.006759695 -0.023931887 0.0070911134
-0.0053452402 -0.01834403 0.013680272 -0.0021894933 0.0062992354 0.005604878 0.007092257 0.0060052243
-0.012261231 0.0018120972 -0.002642278 0.0020805616 -0.0061380635 -0.0036114133 -0.0014986276 -0.011369481
0.015929531 -0.0046049994 0.010570644 -0.0031387436 0.014588587 -0.0175162 -0.004629289 0.006368574
-0.008517613 -0.011517319 -0.001724887 -0.009183623 0.02110184 0.0082535865 -0.0071482146 0.0144616915
0.00740049 -0.009699237 -0.0008023077 0.001780303 -0.014659316 0.0001470107 -0.00719199 0.0019579427
0.0019122936 -0.0014591477 0.013995187 -0.0066200546 -0.0027573993 0.002070795 0.0020102002 -0.0044286815
-0.0016441051 -0.0028853063 0.009531258 -0.018238332 -0.023808695 0.0011865733 0.0037093165 0.01314731
0.00049137446 -0.0041806507 0.0045752176 0.0036048752 -0.009800948 0.0059172795 -0.004929411 -0.01431521
-0.0031882136 -0.016765656 -0.0076555857 0.017171247 -0.0036564674 0.0050779255 0.0005430069 0.015981827
-0.006593133 -0.017751586 0.00286759 0.018845186 0.018532312 -0.004151615 0.002512421 0.010353424
0.016395597 0.0058598383 -0.007003039 0.0014979832 0.0002296025 0.0012927537 0.002590136 -0.0049140207
-0.012037612 -0.0056660157 0.016079657 -0.0026443594 -0.009199717 0.017263792 0.010682091 -0.0029646931

hidden_features.0.bias f4 [50]
00000000: c12d c3b6 a7f7 1bb8 d1d2 24b7 0000 0000
00000010: 4fba c1b7 d18d 8036 5349 c4b6 59c7 0538
00000020: 9f63 9637 3ba6 4335 2c04 a936 91f1 37b5
00000030: 5c40 84b5 0000 0000 4130 ceb7 239a 95b6
00000040: 5672 feb6 3a3f 1d34 3f33 5eb6 5d92 0635
00000050: 8311 2837 0000 0000 ed01 32b7 ab81 b7b7
00000060: 55b8 eeb4 732d 39b7 8107 e736 5732 1336
00000070: 2c9b 8f37 6205 e737 f025 3a37 91cb 47b8
00000080: ab33 26b8 30f0 b0b7 c2e4 4fb4 a5a3 5332
00000090: a838 9637 99de e237 637c cb37 849b acb8
000000a0: c25e 28b8 17f6 a437 0b33 6337 54df 07b8
000000b0: ae89 62b6 ef50 e8b4 f966 1cb5 9b07 96b6
000000c0: ad8b 2b37 6d7a f6b6
-5.8167793e-06 -3.7185524e-05 -9.824246e-06 0.0 -2.309415e-05 3.831207e-06 -5.8497913e-06 3.1895328e-05
1.7927783e-05 7.288506e-07 5.037078e-06 -6.852434e-07 -9.853497e-07 0.0 -2.4579584e-05 -4.45849e-06
-7.5831003e-06 1.4644766e-07 -3.3110407e-06 5.0131877e-07 1.0017658e-05 0.0 -1.0610075e-05 -2.1875681e-05
-4.4465074e-07 -1.1037441e-05 6.88521e-06 2.1934009e-06 1.7119186e-05 2.7539852e-05 1.1095297e-05 -4.7634883e-05
-3.9625604e-05 -2.1092681e-05 -1.9361599e-07 1.2319025e-08 1.7907776e-05 2.7044955e-05 2.4257408e-05 -8.230566e-05
-4.014257e-05 1.9664918e-05 1.3542139e-05 -3.23945e-05 -3.3756764e-06 -4.3272254e-07 -5.8264374e-07 -4.4712338e-06
1.0224915e-05 -7.3456235e-06

hidden_features.2.weight f4 [50, 50]
00000000: 0850 3abc 3b75 493b b1a5 6fba 28ab 2e3c
00000010: 58aa a7bb 6f76 47bb 9341 7f3b 347b 093c
00000020: eb96 e03b 673a b9ba 42db 09bc 9964 853b
00000030: d39f 3dbb aca1 22bc 2de1 463c 37aa 8e3c
00000040: 8d93 963c c261 b6bb 80c9 3b3c 13a9 8abb
00000050: 1707 eabb 9348 4d3b b00e 6bb9 9b98 e1ba
00000060: e7e0 22bc e128 153c 231b 96bb 1319 913b
00000070: dbea 5c3c 2a2e ed3b 126c 523c 3eb2 a73b
00000080: 337a 60bb accc 4c3c dc8e 7fbc b76d d23b
00000090: 2f99 2e3c f4bf fbbb d8bf 323c 8ccd c1bc
000000a0: 943a 7abc 8f4a e53b d114 ca3c 657a 043b
000000b0: a3c9 0ebc 27b8 a1bb 5316 14bb f878 5c3b
000000c0: 1a0f 0a3c e5ec 6a3b cd5d 29bb 9b3a 893a
000000d0: cb7c b7bb 9b52 583b fa0b d9bb c564 9abb
000000e0: 3534 b23b d6d5 3d3c 9df8 a93b 0ec8 f3bb
000000f0: cb29 253c 79fb 25bb 1d7c 73ba 80de c53b
00000100: a579 a2bc 9f65 bdbc 224c aebc 87ae c7ba
00000110: 36ba d0ba 0ef1 e4bb 9553 9938 25e4 6dbc
00000120: c838 5fbb fea2 fd3b 939c 2f3b cb38 b6b8
00000130: 94e9 bfbb dbc4 4eb9 494b 5b3c 1715 f9bb
00000140: 3343 833c 4c6d 323c d87f 0d3b a3de 69ba
00000150: b917 873b f9bc ec3b e292 c2bb 35da a4bc
00000160: 34e0 abbb f62d bbb9 f891 2dba 5053 f2bb
00000170: 33ca d23b 8750 45bb f019 d839 41d5 94bb
00000180: f1de d63c bef9 a63b 38c6 9eba 6ae9 8d3b
00000190: 2567 98ba f050 08bc 921e 253c 0b5c 933b
000001a0: bef8 db3b c72e 7cbc 57c4 39bc 5d44 93bc
000001b0: 5a5f 6cbc 6acf 2e3c 4e2d 113c 50d8 aa3c
000001c0: ca7c 5fbb 5770 c53b 8f0b ec3c b5a3 213c
000001d0: 0a2b 913c 84ba a4bb 6b9f 3d3a fb62 8d3c
000001e0: 5a13 893c 79db 123c f17f eebb 85ec 4dbc
000001f0: c2e1 95bc 6e38 263c 430c fbb9 e1b0 96bb
00000200: 8850 d63a 2710 91bb f1cc 1dbc 637f 6ebc
00000210: 1e8c 92bc 7a25 2bba 4211 2abc 1546 8c3c
00000220: e5c7 df3a 0865 d33a 2e97 e4bc a6f7 62bc
00000230: b645 d53b 1587 81bc 9cc2 413a b3dd 3c3b
00000240: 55aa 4bbb d973 be3c 0ede b53c f451 5b3c
00000250: 72d0 273c e631 44bc 7ca1 133c 73a9 4a3c
00000260: b974 b93b 703e acbb a46b 56bc 4ff9 d6ba
00000270: 7e58 21bc d20d 71bc 27b4 54bb b154 233b
00000280: ede1 d33b dbdf d4bc a65e ab3b 4546 ccbb
00000290: 90d8 6d3b 00e2 d7bc f124 d3bb 5e47 21bb
000002a0: 7fce fcba 6a30 26bc 6d57 b83c 8b54 71bc
000002b0: 3a3a 2bba 9817 1fbb 3777 a03c ddbd 14bc
000002c0: e51b 7d3b 09e6 dfbb a7a6 5fbc 00f9 0bbc
000002d0: 5788 3eb8 2328 1b3c 932c d8bb c2f2 a1bc
000002e0: 0070 003a cf9d c6bb e383 c0ba fb2d 063c
000002f0: ecef 903b 40ad ed3b dbbf 5ebc ddc9 2ebc
00000300: 3038 01bb d8b2 503c 035d 2b3c ebe7 0bbc
00000310: e47d f0bb 4b76 e7bb b0aa 633c 49b1 3f3c
00000320: a4cc 93bb 8d93 ce3b 24c6 cb3c 83ba 5aba
00000330: f1b4 363a 978a 14bc 3784 90bc 5a1e c83a
00000340: 1abf 8bbb a4f4 3dbb 4515 ae3b f325 913b
00000350: 5804 debb 7be9 483a 852e 013c da54 8f3a
00000360: c526 843a 1072 8f3c 30f1 33bb 11da d1bc
00000370: 49f6 073c 56b2 7fbc 76e4 5e3a c0cc babc
00000380: ce55 04bb 40f5 14bc 0260 07bc 526c 55bc
00000390: b28f 363b f317 d5bb cfac 08bc ccb8 38bc
000003a0: 411d 1f3c 60d6 693a 89c6 04bc 4277 f5bb
000003b0: 4e77 a13c 2180 373b cb71 903c 9afb 653b
000003c0: c56b bdbb b0c9 17ba 0ff0 21bc d9b5 223c
000003d0: 4651 c93a 62d5 a8bc d93b c53b 6a81 1b3c
000003e0: d0e2 2ebc b73e 843c 4bbd f8bb 6b26 e7bb
000003f0: 5e73 8c3a 980b a03b c89c 8fbc 5ec5 1ebc
-0.01137162 0.003074004 -0.00091418164 0.010660924 -0.005116742 -0.0030435582 0.0038948997 0.00839119
0.0068539283 -0.0014131785 -0.008414092 0.00407083 -0.0028934374 -0.009926241 0.012138647 0.01741515
0.018380905 -0.005565853 0.011461616 -0.004231581 -0.0071419585 0.0031323775 -0.00022416818 -0.0017211618
-0.009941316 0.009103985 -0.0045808717 0.004428038 0.013483728 0.007238169 0.012843149 0.0051176837
-0.0034252524 0.012499969 -0.015598025 0.0064217704 0.010656639 -0.0076827947 0.010909997 -0.023657583
-0.015272755 0.0069974135 0.02466813 0.0020214554 -0.008715066 -0.0049352827 -0.0022596314 0.003364144
0.008426452 0.0035846767 -0.0025843263 0.0010469736 -0.0055995933 0.003300822 -0.006623742 -0.0047117197
0.0054383525 0.011586627 0.0051871077 -0.00743962 0.010080765 -0.0025326891 -0.00092882087 0.006038487
-0.019833395 -0.023119746 -0.021276537 -0.0015234508 -0.0015924636 -0.006986744 7.311177e-05 -0.014519726
-0.0034060944 0.0077403774 0.0026796206 -8.689015e-05 -0.005856702 -0.00019719025 0.013384649 -0.007601391
0.016023254 0.010890316 0.0021591093 -0.000892142 0.004122701 0.0072246757 -0.00593792 -0.02012358
-0.005245233 -0.00035701663 -0.00066211773 -0.0073951855 0.0064327954 -0.0030107812 0.00041218055 -0.0045420234
0.026229354 0.0050956896 -0.0012113517 0.0043308036 -0.0011627419 -0.008320078 0.010078089 0.0044970564
0.006713002 -0.015392012 -0.011338315 -0.017976934 -0.01442703 0.010669569 0.008860899 0.020855099
-0.003410148 0.006025355 0.028814105 0.009865691 0.017720718 -0.005027117 0.0007233533 0.017259112
0.01673286 0.008963459 -0.0072784354 -0.012568598 -0.018296126 0.01014529 -0.00047883586 -0.0045987223
0.0016350904 -0.0044269743 -0.009631381 -0.014556739 -0.017889079 -0.0006528717 -0.010380091 0.017123261
0.0017073123 0.0016128132 -0.02790412 -0.013852989 0.0065085543 -0.015811482 0.0007391365 0.0028818666
-0.0031076868 0.0232486 0.02220061 0.013386238 0.010242568 -0.011974787 0.009010669 0.012369501
0.0056596664 -0.0052564666 -0.013087187 -0.0016401204 -0.009847758 -0.014712768 -0.0032456012 0.0024922306
0.0064661414 -0.025985649 0.005229789 -0.0062339627 0.0036292411 -0.026352882 -0.0064436127 -0.0024609189
-0.0019287615 -0.010143379 0.022502625 -0.014729629 -0.0006531809 -0.0024275538 0.019588096 -0.00907847
0.0038621363 -0.0068328422 -0.013650573 -0.008543253 -4.5426506e-05 0.009470019 -0.0065971105 -0.019769076
0.0004899502 -0.0060612927 -0.0014687743 0.008189674 0.004423132 0.007253319 -0.013595547 -0.010668245
-0.0019717328 0.012737952 0.010459187 -0.00853918 -0.007339226 -0.007063662 0.013895676 0.011699983
-0.004510479 0.0063042105 0.024874754 -0.00083438325 0.00069697114 -0.0090662455 -0.01764117 0.0015267835
-0.0042647244 -0.0028984929 0.005312594 0.0044295727 -0.00677542 0.0007664186 0.007884626 0.0010935322
0.0010082355 0.017510444 -0.0027456991 -0.025616677 0.008298465 -0.015606483 0.0008502671 -0.02280271
-0.0020192745 -0.009091675 -0.008262636 -0.013026314 0.0027856645 -0.006503099 -0.008341982 -0.011274528
0.0097115645 0.0008920189 -0.008103975 -0.0074910233 0.01971021 0.0027999955 0.017632386 0.0035092593
-0.0057806694 -0.00057902467 -0.009883895 0.009931051 0.0015359304 -0.020609561 0.0060190973 0.009491304
-0.0106741935 0.016143186 -0.007590925 -0.0070541403 0.0010715534 0.0048841946 -0.017530814 -0.009690611

hidden_features.2.bias f4 [50]
00000000: d901 a539 65f5 4c36 9ed5 e3b7 9263 8db8
00000010: 644a 1bba 7afd 533a 2d20 9739 3e8c 9237
00000020: b9c0 5bb7 2baa 85b8 a748 57b7 4daa a736
00000030: 733d 03b9 0000 0000 79a2 7739 8d05 6bb9
00000040: 1ea0 1339 86f5 5f39 25e1 2339 9493 23b6
00000050: 0000 0000 d706 ebb9 158e c839 f969 a1b7
00000060: 0000 0000 97cb 64b9 82aa 923a e140 e1b8
00000070: 0110 e4b8 816b 8fb9 86d2 9a3a 7d41 f039
00000080: 0fff 15ba 70c4 5fb9 7aba 17ba 62fb d039
00000090: 3c02 c3b8 56d2 2938 e4e6 08ba 56ea 98b9
000000a0: 2d2e 5537 fa77 e7b8 805b 2a36 e399 a5b9
000000b0: 9d38 13ba 1b98 d6b9 2e6c 6d3a 27e6 81ba
000000c0: a3ac 973a 8856 c239
0.0003147263 3.0541207e-06 -2.7159982e-05 -6.74195e-05 -0.0005923866 0.0008086782 0.00028824937 1.7469862e-05
-1.3098289e-05 -6.3736305e-05 -1.2831914e-05 4.9968135e-06 -0.00012516025 0.0 0.00023616281 -0.00022413414
0.00014078661 0.00021358402 0.00015628764 -2.4374795e-06 0.0 -0.0004482779 0.00038252832 -1.9242043e-05
0.0 -0.00021819618 0.0011189731 -0.00010740921 -0.00010874868 -0.00027355182 0.0011812008 0.0004582516
-0.00057219056 -0.00021340116 -0.000578798 0.00039860146 -9.298741e-05 4.048863e-05 -0.00052223937 -0.00029166293
1.27065405e-05 -0.00011037286 2.5385234e-06 -0.00031585907 -0.0005616041 -0.00040930588 0.00090569525 -0.000991051
0.0011571835 0.00037067034

density_estimator_head.weight f4 [50, 11]
00000000: dcd0 bbbc 611d d3bb ac57 053b 1d5a 07bb
00000010: 4daa 433b 4323 4f3c 8d95 b73b 7401 11bc
00000020: 1be8 b9bb 2c1c 1ebc 8a8d 92bb fb2f 2f3c
00000030: ad10 6b3c cdaf ccbb bcf4 113a 7c81 7b3b
00000040: 53d5 18bc 9214 bf3c dfcc 383c c236 da3b
00000050: ffa0 453c 95ad 35bc 7f63 59ba 71f6 1f3d
00000060: 3454 bcbb fe4d 473b b4be 0aba f9a9 893b
00000070: e38a 003c 0de2 b3bc 5ac1 3a3b 9641 3b3b
00000080: d677 0fb9 1de7 c53a 4f02 8d3b ce99 8c3a
00000090: bdc3 adbb 8100 71bb 1acc 9b3a e223 c13b
000000a0: 4a83 9c3c bdaa 75bb ad79 b53a 6850 37bc
000000b0: f512 ee3c ce49 583c 8fc2 75bb ecac 4e3b
000000c0: d46c 0cbb 0593 9e3c bc1c 8bbb 2d9b 19bb
000000d0: 2b6e 6bbc 0c0d ed3b d7b0 8738 d4fa 09bc
000000e0: da1f e5bb 69be e53b 889c dbbb 7fa5 20bc
000000f0: 83c0 a0bb 7312 a8bb 3a2d b0bb 66a6 68bc
00000100: 6705 5a3c 1e36 503b 4f10 40ba f60b bcbb
00000110: 4d20 9d3b 13cf 6d39 decf 97bc 39d0 a63c
00000120: 89c3 8dbb fb6d 70bc b3fc 66ba 8402 17bc
00000130: e4f0 c73c ecd6 b03b 741e acbb 95a3 4cbc
00000140: 16e2 283b 847a 15bc 68a8 9dbb 4a54 1e3c
00000150: c46a d2b8 f1d3 233a 56d6 8fb9 516f 5bbb
00000160: 5ba9 91bb 59ae 663c b9e3 81ba e581 583b
00000170: b5a5 1c3c 5a46 953c 25e6 27bc 927f 503a
00000180: 1418 93bc 4e72 1139 8b7e 1fbb 7727 47bc
00000190: 080e 043c b6d6 0cba e25b d1bb c432 503c
000001a0: b94d dfbb 295c 6a3c ee50 4d3c e183 983c
000001b0: a6f3 dcba e1c6 9bbc 41e8 9abc eb94 123c
000001c0: 157b 413c 66ab aa3c 4357 f43b 7ae2 313b
000001d0: 5e73 fd3b 868f a0bb b88e 203a e67e cfbc
000001e0: f178 8c3c 84c5 1d3b 4954 83bb 2bb7 be3b
000001f0: e8a4 20bc 998c 553b 6fb9 75bc 0afd bfba
00000200: f62e 40bb b550 c13b 6fd5 37bc a4fb 6f3c
00000210: 037c 5f3c 5047 0c3c c359 27bb d0d7 9b3b
00000220: 699e fcba 8bb4 b43c 7fff 01bc 5892 6fbc
00000230: df13 b6ba 4904 f4bb 74e0 1e3c b76a a5b9
00000240: 812b 893b fe4d 31ba bcf7 ab3c b19f 85bb
00000250: 6d55 9abb 9561 4dbb 5b15 cabb 5255 83b9
00000260: 89bd 2f3c 6b8e 433a d2ab 963b 718b 81bc
00000270: 5a36 94ba 3385 f1ba c468 c03b 4569 2dbb
00000280: 696f 6bbc d02a 30bc 8f6a f13b d75f 683b
00000290: 3323 413c 6a5a babb 9b60 ddbb e0f9 5dbb
000002a0: e376 533c de34 893c bd62 7abc de97 193c
000002b0: 1fd4 09bc 1ef6 36bc 5780 c839 656c 15bc
000002c0: 3111 2b3c 73e6 7dbc d1f8 bdbb 5616 b0bb
000002d0: 9358 9cbb 96d6 35bc ce26 1cbc 494a 843c
000002e0: 6f59 2c3c dbfc d6bb 4ea8 8cba 8092 b33b
000002f0: 65b7 d1bb 322e e43b 3eec c23b e551 f0bb
00000300: a4ea dfba bb2d 613a 8d71 a0bb ccf5 e7bb
00000310: c6b2 1d3c dda4 d83b 6160 2dbc bc0e d63b
00000320: c15f b23b 17ac 863c 1566 30bc e83d 78ba
00000330: c7fa 8ebb 67fa 6fbb ce8d 903b 3a22 023c
00000340: af71 553b 0f12 07bc 59c8 b23c afaa 9cbb
00000350: 2721 4a39 f65e c13b 7a1e ccbb a63a 0b3c
00000360: ac55 233c 0c3d c33b 529c 7f3b 5938 093b
00000370: 93f9 3b3c d5bd f7bb 3d70 a4bc 9979 4dbc
00000380: 77f0 1e3c 428d 393c 70c9 20bc add7 f7bb
00000390: a9af 97ba e3ae b3b9 375f 3b3b 91dc 243c
000003a0: 06a8 65bb 38b4 c7bb 4c01 753b b209 0fbc
000003b0: 50e1 b7ba e2d0 c53a a37b e33b 1a95 663b
000003c0: fb0a 25bc c8d1 4ebb f8d8 c8bb 8d91 d1bb
000003d0: 3b9d 563b f23d 8b3c 3b3d a8b8 d3c4 1b3c
000003e0: d49f bcbb 7633 633c 123b 3e3c 4059 a6bb
000003f0: 0fe3 4a3b 85de 9dba 29dd 573c cca3 863b
-0.02292674 -0.006442711 0.0020346446 -0.0020653077 0.0029856146 0.012642684 0.0056025446 -0.008850444
-0.005673421 -0.009650271 -0.004472439 0.010692592 0.014347238 -0.006246543 0.00055677793 0.003837674
-0.009328204 0.023325238 0.011279314 0.0066593597 0.01206231 -0.011088748 -0.0008292719 0.039053384
-0.0057473425 0.0030411477 -0.0005292699 0.0042011705 0.007845613 -0.021958375 0.0028496594 0.0028573028
-0.00013682185 0.0015098784 0.0043032537 0.001072699 -0.005302875 -0.0036773982 0.0011886389 0.00589417
0.019105572 -0.00374858 0.0013845466 -0.011188604 0.029061774 0.01320119 -0.00375 0.0031536175
-0.0021427171 0.019357214 -0.0042453688 -0.002343844 -0.014369528 0.0072342213 6.4702406e-05 -0.0084216185
-0.0069923224 0.007011224 -0.0067020096 -0.009805082 -0.0049057617 -0.0051291524 -0.005376485 -0.014199829
0.013306952 0.0031770538 -0.0007326649 -0.0057387305 0.0047951103 0.00022679222 -0.018531736 0.02036296
-0.004326288 -0.014674659 -0.0008811459 -0.009216908 0.024406858 0.0053967144 -0.0052526537 -0.012490173
0.0025769523 -0.009123448 -0.0048113354 0.009663651 -0.00010033467 0.0006249538 -0.00027434778 -0.0033483098
-0.0044452376 0.014079654 -0.0009909786 0.0033036408 0.009560992 0.018222023 -0.010247742 0.000795358
-0.017955817 0.0001387086 -0.00243369 -0.012155405 0.008059986 -0.00053725706 -0.006389127 0.012707416
-0.006814685 0.014304199 0.012531502 0.018617572 -0.0016857281 -0.019015731 -0.018909575 0.008946638
0.01180913 0.020833682 0.0074566915 0.0027143047 0.0077347 -0.004899922 0.00061247824 -0.025329065
0.017147513 0.0024074027 -0.0040078503 0.005820175 -0.009804942 0.0032585023 -0.014997824 -0.0014647555
-0.0029324866 0.0058995136 -0.01122032 0.014647398 0.013640407 0.008561924 -0.002553568 0.0047559515
-0.0019273284 0.022058746 -0.00793445 -0.014622293 -0.001389142 -0.0074468 0.0096970685 -0.0003155076
0.0041860943 -0.0006763636 0.020992152 -0.0040778746 -0.0047098906 -0.003133868 -0.0061670966 -0.00025049836
0.010726341 0.00074598816 0.0045981193 -0.015813561 -0.0011307702 -0.0018426537 0.005871864 -0.002646045
-0.014369824 -0.010752395 0.007367439 0.0035457516 0.011788177 -0.0056870477 -0.006755901 -0.003387086
0.012906763 0.016748842 -0.01528233 0.009374587 -0.00841239 -0.011167077 0.00038242593 -0.009120082
0.0104411105 -0.015496838 -0.0057974835 -0.0053737564 -0.004771301 -0.011098525 -0.009530736 0.016148703
0.0105193695 -0.0065609044 -0.0010731311 0.0054801106 -0.006400036 0.0069635147 0.0059485724 -0.0073339813
-0.0017083478 0.0008589883 -0.004896349 -0.007078862 0.009625142 0.00661145 -0.010582061 0.006532518
0.0054435437 0.01643948 -0.010766526 -0.0009469674 -0.004363391 -0.0036617757 0.0044114357 0.007942731
0.0032568981 -0.008244052 0.021824049 -0.0047810893 0.00019276571 0.005901213 -0.006229219 0.00849787
0.009969156 0.005958205 0.0039003086 0.0020938127 0.011473077 -0.0075604715 -0.02007305 -0.012541198
0.009700886 0.011325182 -0.009813651 -0.0075635524 -0.0011572737 -0.0003427184 0.0028590688 0.010062353
-0.0035042777 -0.006094482 0.0037384806 -0.008730339 -0.001402894 0.0015092159 0.006942229 0.0035184086
-0.010073419 -0.0031558145 -0.0061293803 -0.006395525 0.0032747525 0.016997311 -8.022269e-05 0.009507376
-0.0057563577 0.01386725 0.011610763 -0.0050765574 0.0030958091 -0.0012044465 0.013175287 0.0041088816

density_estimator_head.bias f4 [11]
00000000: 3e48 0cbd 74af d0bc 8992 92bc 2527 8fbb
00000010: e3b2 73bb 34e4 b63a 9415 a43a f60b 253c
00000020: 622a 0d3c 0071 1a3d d665 da3c
-0.034248583 -0.025474288 -0.017892139 -0.00436868 -0.0037185482 0.0013953508 0.0012518638 0.0100736525
0.008616062 0.03770542 0.026659887

Q1.0.weight f4 [50, 50, 5]
00000000: 197e ba3f 153e 4c3f 0741 2c3f 04cc 7f3f
00000010: 8f17 02bf a9d8 5bbe 70cd 06bf 4c57 02bf
00000020: dd1f afbe c2b8 03c0 8c92 f5bd c5d7 af3e
00000030: 86c6 2b3f 4397 7a3f 9636 2240 e0fb 95bf
00000040: 7261 543f 5b5c e6bf 8305 64be 7fc3 8abf
00000050: 7b5b dcbf 18a3 f03e 3643 463f ded7 05be
00000060: 5a13 26bc 31dc cd3d 6eac 813f c807 81bf
00000070: 6673 e2bf 8360 9f3f 9046 93bd 5b69 0ec0
00000080: 695e dbbd e769 423f 63a4 0cbe d1ed aa3d
00000090: 29b2 263f 73c9 24bf 141f 57bf 12a0 b73f
000000a0: 85ac f6be 6b0b 97bf 9c85 4e3f 709d c03e
000000b0: 9c50 633f 2eb9 d0bf 435a 3f3f 83cf 1abe
000000c0: a790 77bf a312 593f a868 16be e006 5c3f
000000d0: 03de 8fbf 1012 10c0 af78 3b3f 7a30 9f3f
000000e0: 9679 cdbf 64db 5bbf 1e28 d13f 94f2 833f
000000f0: c8cb c4bf 8034 853e 90b5 6a3f 5c4a 483f
00000100: 5635 80be b78c cc3e 8f9a 84bf a3c6 5c3e
00000110: 464d cdbf 32b9 20bf 1741 813f bb1a 813f
00000120: bb4b a03f 26aa 4fbf 5a6b 4fbf dbbe 83be
00000130: bb52 c1bc 3d60 ac3f 4281 813f 0bbe 2dbf
00000140: 3847 d63d 9698 293f 61f4 6bbf 0e49 7d3f
00000150: 1aca 51be 6ee3 e9be 922f 0ebf c7c1 09bf
00000160: a446 d2bf 53b0 babe 45b4 53bf 3de7 aa3f
00000170: 0600 7d3f a54d 423f 3726 f23d b020 303e
00000180: 705b 42be 709f 7ebf 5dfd 4b3f 9264 9dbd
00000190: e74b 8fbe a369 893f a07a dcbf c8d4 ff3e
000001a0: 7af2 db3e 9b65 bcbf cc64 b63e df7a 1e3f
000001b0: cd27 81bf 533b 2b3f eff1 30bf c79c 4e3f
000001c0: 48fd 8cbe 66b4 4cbe 48ae c53e 35e9 dbbd
000001d0: b49c f3be e3ef c83d 7108 933f 58cd cf3f
000001e0: 82bb 09c0 7688 673e 727e b23e ab7b 1440
000001f0: d582 ce3e e702 1f3f 5331 063f 0cb6 88bb
00000200: f6fb 88be 26f1 c83f d959 0a3f 50a2 f2be
00000210: b59e ec3e de7a fc3f ebf0 823e 525e 86be
00000220: de40 193f 9c73 863e 4737 eabe 379f 45bf
00000230: a600 11bf 65ae 3d3f 0c55 1340 69c1 b3bf
00000240: 6f98 013f 9d05 823e 5c14 033f c3ad a8be
00000250: c703 47bf 13af 90bf 03c3 a2bf ef77 953f
00000260: 2345 4fbf 93db 42be 0227 b4bc 1519 a3bf
00000270: 4bf7 8dbf 7d96 063d beba 963e 231b 57be
00000280: bab5 0a3f 06a3 f6bf 983c 963e b095 cfbf
00000290: 03cc 9cbd 01ca cebe b17e a6bd 6686 583e
000002a0: 18a5 423f e763 603f 1a24 153e c85c b3bf
000002b0: 2400 d43e 54ff 4a3e cc9f 9fbf 70bf 173f
000002c0: 1bbd 603f 55f8 0abf cfe2 10bf 4001 4dbf
000002d0: 70aa f23e 3aed d8be d87a 663e 4ead 353f
000002e0: d9f2 f43f 9255 ebbe 3176 99bf 54c7 9dbf
000002f0: b4c2 2abf 4819 35bf 1267 72bf a4f4 3c40
00000300: d798 5ebf eed6 92bf cf09 adbf a777 3abf
00000310: fbe3 57bf f335 733f 5172 7e3f 8994 dc3f
00000320: 7a01 933f c955 283f 4d5a 1ac0 a650 62bd
00000330: 241a 843f 1c9d 9d3f dfc5 d2bf d193 b63f
00000340: 8e49 543f 7e57 0040 fc4e c0be 5762 2ebf
00000350: 41b6 f0be c411 c0bd aeea b53e 309f 0dbf
00000360: 319e cbbf 95eb 1dbe 612f 26c0 e2f5 f83e
00000370: d4a5 8fbf 615a e5be e103 4f3f f476 b83f
00000380: 6a3f 333e 27f8 083f c98c 8cbf 36c7 9d3f
00000390: beb9 82bf f1eb e93e 6c88 8f3f df47 a43f
000003a0: c039 8e3f fb9f 43bf b4da 1bbf 50bf 3c3d
000003b0: c3f7 96bf 661b 01c0 9d9c 2e3f 7948 d63e
000003c0: 880a e43e 6f03 143f 9b9c b93f f6e0 753f
000003d0: 140d 8bbf 8cb8 033e e70b a23f 3b12 223e
000003e0: 48b7 8cbf a836 d3be c335 12bf e83a ab3e
000003f0: ffad d63e 9dc9 db3f be29 a7be fe9a 453f
1.4569732 0.7978223 0.67286724 0.9992068 -0.508172 -0.21469368 -0.5265722 -0.50914454
-0.34203997 -2.0581517 -0.11990842 0.34344307 0.670998 0.9788706 2.5345817 -1.1717491
0.8296119 -1.7996935 -0.22267728 -1.0840911 -1.7215418 0.4699943 0.77446306 -0.13070628
-0.01013645 0.10051764 1.0130746 -1.00805 -1.7691467 1.2451328 -0.07191193 -2.2251804
-0.10711367 0.75942844 -0.13734584 0.08346141 0.651156 -0.6436989 -0.84031796 1.4345725
-0.48178497 -1.180036 0.8067262 0.37620115 0.88794875 -1.6306512 0.74747103 -0.15118222
-0.96705097 0.8479406 -0.1468836 0.8594799 -1.1239628 -2.2511024 0.73231024 1.2436669
-1.605273 -0.8588164 1.6340368 1.0308404 -1.5374689 0.26016617 0.9168329 0.78238463
-0.25040692 0.39951107 -1.0359668 0.21560149 -1.6039207 -0.62782586 1.0097989 1.0086282
1.2523111 -0.81119 -0.8102318 -0.2573155 -0.02359902 1.346687 1.0117571 -0.6786811
0.10462803 0.6624845 -0.9216977 0.989396 -0.20487252 -0.45681328 -0.55541337 -0.53811306
-1.6427808 -0.3646265 -0.82696944 1.3351818 0.9882816 0.75899726 0.11823695 0.1719997
-0.18980193 -0.9946203 0.79683477 -0.07685198 -0.27987596 1.0735363 -1.7224922 0.49967027
0.42958432 -1.4718508 0.35623777 0.61906236 -1.0090271 0.66887397 -0.6911916 0.80707973
-0.27536988 -0.19990692 0.3860953 -0.1073784 -0.47580492 0.0981138 1.1486951 1.6234541
-2.1520696 0.2261065 0.34862095 2.320048 0.40334192 0.62113804 0.5241901 -0.0041720923
-0.2675473 1.5698593 0.54043347 -0.4738946 0.46214834 1.9724996 0.2557443 -0.26243836
0.59864604 0.26260078 -0.45745298 -0.7719607 -0.56641614 0.7409423 2.3020658 -1.4043399
0.5062322 0.25394908 0.5120294 -0.3294507 -0.7774014 -1.1303428 -1.2715763 1.1677226
-0.8096487 -0.19029073 -0.021991257 -1.274203 -1.1091093 0.03285836 0.29439348 -0.21006446
0.5418354 -1.9268501 0.29343104 -1.6217556 -0.076561 -0.40388492 -0.08129633 0.21145019
0.76033163 0.8765244 0.14564553 -1.401269 0.41406357 0.19823962 -1.2470641 0.59276485
0.8778855 -0.54285175 -0.5659608 -0.8008003 0.47395658 -0.4236849 0.22507799 0.70967567
1.9136611 -0.45963722 -1.1989194 -1.2326455 -0.66703343 -0.707417 -0.9468852 2.9524317
-0.86951965 -1.1471841 -1.3518618 -0.72838825 -0.84332246 0.95004195 0.99393183 1.7232829
1.1484826 0.657559 -2.4117615 -0.055252694 1.0320477 1.2313571 -1.6466635 1.426386
0.82924736 2.00534 -0.3756026 -0.68118805 -0.4701405 -0.093783885 0.3553061 -0.55321026
-1.5907651 -0.15421899 -2.5966418 0.48625094 -1.1222482 -0.44795516 0.80865294 1.4411302
0.1750466 0.5350365 -1.0980464 1.2326419 -1.0212934 0.45687822 1.1213508 1.2834433
1.1111374 -0.76415986 -0.6088059 0.046080887 -1.1794361 -2.0172973 0.6820772 0.41852167
0.44539285 0.5781774 1.4500917 0.9604639 -1.0863366 0.12863368 1.2659882 0.15827267
-1.0993433 -0.41252637 -0.57113284 0.3344338 0.41929623 1.7170902 -0.32649034 0.77189624

Q1.0.bias f4 [50, 5]
00000000: ddd5 fe3a 4f60 633b fece a43b 16c4 443b
00000010: 55e9 603a 61c6 c2b8 bbcd 8f38 a112 7838
00000020: 0523 9a37 93f7 9f35 c30b a73b b78a cc3b
00000030: b888 f93b 403c 873b 19cc 913a 3569 da3b
00000040: b255 a23b d44d 4c3b cd4f 133a 9274 b2b8
00000050: 559d 47b7 2fe4 abb8 4ccd b5b9 7677 96b9
00000060: 2249 fdb8 2c6c 89bb f62c 54bb 26dd 26bb
00000070: 86ca 65ba b28d 18b9 505b 2ebb 3576 6eba
00000080: 5846 94b9 c8a7 0038 f748 3437 46ce ca3a
00000090: 40ec b83a 5595 d63a a15b 5a3a 0cd7 4b39
000000a0: 407e da3c fdf9 e83c ef71 eb3c 7105 523c
000000b0: dd05 333b 74d7 033b e1cf 65b8 b8bd dc3a
000000c0: be7a eb3a 54ae 333a 4927 d63c d25c e13c
000000d0: 6e35 e33c c3a9 4b3c 1780 303b 0e39 72bb
000000e0: 8480 37bb 4b09 18bb f032 62ba db90 0cb9
000000f0: c56d 67bb fd61 49bb 5d21 35bb c3aa 92ba
00000100: a290 69b9 e9d6 30ba 9173 55b9 702d 26b9
00000110: 6476 83b8 97f8 3bb7 9151 ce3c 7486 e43c
00000120: 9b84 f23c f9e8 643c 23d4 523b 787e c1ba
00000130: 797a 6eba a647 4bba a4e3 a7b9 f5f8 91b8
00000140: 4951 abbb 239b 85bb 9098 63bb 8690 b0ba
00000150: 4a28 87b9 1ecf 28bb 3e06 6dba ecd4 13ba
00000160: 32ee 5cb9 d8e0 27b8 64a6 cdb9 66d7 b3b9
00000170: d074 9fb9 fe94 fcb8 b932 bab7 1f41 aebb
00000180: 351f 07bb 5bd8 d8ba f257 3bba f66e 26b9
00000190: 87c6 d23a 455b 113b 985e 5a3b 00cc 053b
000001a0: 5455 1b3a 01f5 b43a 44b4 9b3a 76e3 833a
000001b0: dd8c c039 abf9 6a38 e006 013c 9612 0c3c
000001c0: 4986 0f3c 6256 823b 4141 633a 2bbc 98bb
000001d0: e4fe 51bb f09b 33bb 8dea 91ba 9ce0 80b9
000001e0: 5161 86ba cbe9 59ba bcd5 37ba e08d 8bb9
000001f0: 6654 51b8 d620 353d f01a 4b3d 3c21 5c3d
00000200: 7f75 d53c 686f cc3b 51ec 5fba eb23 a33a
00000210: e007 633b f74d 293b abe6 593a 87a1 963a
00000220: 1ab7 063a d49c 7039 a0c3 afb8 e3b9 1fb9
00000230: e741 ef3a 71f6 3239 ece9 bdba 58bb b2ba
00000240: 397a 15ba 8aa8 2bba d0a4 9fba 7033 98ba
00000250: 911b eeb9 3295 a5b8 65d0 e339 8834 4bba
00000260: ac48 6eba 7abc b8b9 6dae 04b8 d1f4 38ba
00000270: 3abb f9b8 64ef 24b8 9426 f8b6 0000 0000
00000280: c62c bfb8 389b 9e38 3a72 f738 d690 9738
00000290: ad02 d437 6583 c2bb a05e 9ebb 020b 89bb
000002a0: 607c d6ba 3e64 a3b9 f98d 893c 1731 9f3c
000002b0: d67d b23c 8978 323c ba3b 303b a4a8 133b
000002c0: 95a5 533b 1c28 843b 9c05 0b3b c14c 093a
000002d0: 9aef 743a 96b8 e637 fe20 14ba a583 fcb9
000002e0: 621c 5bb9 b4f3 85ba 54b8 10ba b09a 86b9
000002f0: 3b72 7db6 1e0e 0238 452e 9bbb 8ad9 b9ba
00000300: a5af 6eba 40d5 c7b9 f858 d8b8 fe40 4dbb
00000310: 291f 76bb f862 75bb 7957 d8ba 612a ccb9
00000320: b93d e0ba 435f 0aba fd26 6db9 c7d2 1eb8
00000330: fd73 50b6 99c2 b03c 52ac b53c 932e b53c
00000340: f3a7 213c 74e1 0c3b 1f94 22bb 26ae 31bb
00000350: 07ea 07bb db0b 0cba 9643 2237 b7e9 ccba
00000360: 52de 57ba 0287 04ba ba96 0bb9 f2bb a1b7
00000370: 2cee e43b aa9d 2e3c 04a2 593c ca0b e83b
00000380: 4eb8 ef3a 6c4a 37bb 0d32 2bbb 119c 23bb
00000390: d7f6 85ba 1627 26b9 758f d13c f7fd f03c
000003a0: ed8e 043d 0a84 813c 5dd5 773b 369a 5eba
000003b0: 2d77 60ba 7dc5 61ba dfde cbb9 a64c d4b8
000003c0: 568a 7fbb b518 74bb 0b69 69bb fc55 c8ba
000003d0: e18f b5b9 9ff4 1d3c 62f2 2c3c 9f90 333c
000003e0: 8e42 a53b ca21 933a
0.0019442398 0.0034694856 0.005029558 0.0030024103 0.0008579691 -9.287592e-05 6.857092e-05 5.9145157e-05
1.8374538e-05 1.1918477e-06 0.0050978377 0.006242122 0.007615175 0.0041270554 0.0011123448 0.0066653737
0.0049540633 0.003117432 0.0005619496 -8.509414e-05 -1.1897956e-05 -8.196418e-05 -0.00034675968 -0.00028699235
-0.00012077602 -0.0041938033 -0.0032375432 -0.0025461405 -0.0008765835 -0.00014548635 -0.002660472 -0.0009096594
-0.0002828117 3.0673837e-05 1.07458245e-05 0.0015472851 0.0014108494 0.0016371409 0.0008329694 0.000194397
0.026671529 0.028439516 0.028740851 0.01281868 0.0027316727 0.0020117434 -5.4791457e-05 0.0016841209
0.0017965657 0.0006854285 0.02614178 0.02751008 0.027735438 0.012430611 0.0026931816 -0.0036960277
-0.0028000185 -0.0023198898 -0.0008628806 -0.00013405403 -0.003531323 -0.0030728572 -0.0027638294 -0.0011189807
-0.00022274491 -0.00067458913 -0.00020356315 -0.0001584792 -6.268619e-05 -1.1203948e-05 0.025185378 0.027896143
0.029604247 0.013971561 0.00321699 -0.0014762422 -0.00090972293 -0.0007754512 -0.00032022328 -6.960511e-05
-0.005228196 -0.0040773316 -0.0034728386 -0.0013470806 -0.00025779224 -0.0025758217 -0.00090417627 -0.0005639333
-0.0002106957 -4.0025305e-05 -0.00039224618 -0.00034302025 -0.00030413875 -0.00012044048 -2.2196547e-05 -0.0053178216
-0.0020617966 -0.0016543971 -0.0007146589 -0.0001587233 0.0016080894 0.0022179645 0.0033320542 0.0020415783
0.00059254956 0.0013805927 0.0011879285 0.0010062295 0.00036726045 5.602247e-05 0.007875174 0.008549353
0.008760043 0.003977583 0.00086690864 -0.0046611032 -0.0032042796 -0.0027406178 -0.0011132524 -0.0002458141
-0.0010252391 -0.0008312731 -0.0007012745 -0.0002661785 -4.9908085e-05 0.044220768 0.049586236 0.053742632
0.026057003 0.0062388666 -0.0008541989 0.0012446617 0.0034642145 0.0025833824 0.0008312265 0.0011492231
0.00051389786 0.00022946607 -8.381088e-05 -0.0001523267 0.0018253893 0.0001706721 -0.001448927 -0.0013636155
-0.00057021115 -0.00065482466 -0.0012179855 -0.0011612009 -0.00045415436 -7.895603e-05 0.0004345208 -0.0007751663
-0.00090898084 -0.0003523564 -3.16337e-05 -0.00070555235 -0.00011908119 -3.9323597e-05 -7.395467e-06 0.0
-9.1159294e-05 7.562939e-05 0.00011799154 7.227219e-05 2.5273615e-05 -0.0059360736 -0.0048330575 -0.0041822204
-0.0016363971 -0.0003116447 0.01679133 0.019432588 0.021788519 0.010892996 0.0026891069 0.0022530938
0.003229474 0.0040331017 0.002121306 0.00052375725 0.0009343565 2.7504091e-05 -0.0005650668 -0.00048163268
-0.00020896041 -0.0010219724 -0.0005520631 -0.00025673723 -3.7766429e-06 3.1007563e-05 -0.0047357404 -0.0014179212
-0.00091051526 -0.0003811512 -0.00010316254 -0.0031319256 -0.0037555194 -0.0037443023 -0.0016505561 -0.00038941487
-0.0017108239 -0.00052784773 -0.00022616606 -3.7866437e-05 -3.106193e-06 0.021577166 0.022176895 0.022116935
0.009866702 0.0021496685 -0.0024807525 -0.0027111857 -0.0020738856 -0.0005342343 9.6716885e-06 -0.0015633617
-0.00082347274 -0.0005055518 -0.00013312223 -1.9280214e-05 0.0069864 0.010657707 0.013283256 0.0070814835
0.001828918 -0.0027967943 -0.0026122362 -0.002496485 -0.0010220659 -0.00015845554 0.025581101 0.029417975
0.032362867 0.015810031 0.0037816383 -0.0008491607 -0.00085626805 -0.0008612497 -0.0003888523 -0.00010123225
-0.0038992367 -0.0037246172 -0.003561559 -0.0015284414 -0.00034630208 0.009640842 0.010555835 0.010959773
0.0050433343 0.001122528

Q1.1.weight f4 [50, 1, 5]
00000000: a248 2abf d472 2dbf 3ad3 cf3e 399a 8d3f
00000010: bb58 403e 6b43 b4bd 4728 e6be a897 44be
00000020: b647 ff3e fb71 003d 6254 80bf f09c 07bf
00000030: ca78 923f e09d c7be 9791 0ebf a746 3c3f
00000040: e039 e93e 0472 74bf 3ca6 44bf 4830 323e
00000050: 53aa bd3d 9386 c13d 6e05 343f 3827 bd3d
00000060: 9454 a6be 1c6c 7c3f a7ce 773f 5ae2 66bf
00000070: 2f2b 1340 c3f1 22c0 d838 d03f 240e 30bf
00000080: cae1 c9bf 747e fe3e dc50 83be 76d2 8f3e
00000090: 1357 6fbf 261d edbc 0a4e b43f 254a babe
000000a0: d0de 4e3f 2cf9 b2bf f1c7 abbf 6a19 24be
000000b0: bb38 cfbd e140 a1bf 42f3 043e dd2e 083f
000000c0: 9a7c 6b3d fa7d 363f 932e a5bd 1760 1a3e
000000d0: ad1d c3bf a993 c1bf f061 993f d0a4 0bbe
000000e0: 83b1 e73f 6cad d6be 9c44 ddbf 54f2 a6bf
000000f0: e889 373f 8c8b 133f 53e6 3b3d e157 afbd
00000100: 5d87 48bd c126 093f c65a 2d3f 480e 63be
00000110: 09da 603f 017e 04be a27f edbe 9ea0 6dbf
00000120: dfc4 91bf 8ff3 623f c453 d2bd be2d f13f
00000130: a7e9 c03e 2abb f23e 8ed4 debe 24e8 61bf
00000140: 0488 643f cb0e da3e 1d1e 8d3e 8919 583f
00000150: 5301 97bf 393d d53e 404b 7f3f 925b 6a3f
00000160: 33c8 b83f d55a 333f 47e4 833f 94c2 123f
00000170: 7361 19be 1a0b febd dc0a a63e 57d4 b63f
00000180: 8033 c33e c04c 42bf 5b54 18be 3d73 ba3f
00000190: f110 f6be 4453 28bf 9a6c 1f3f a4ba 203f
000001a0: 0750 12bf 1846 aabc 25cc 313f cbeb 43bf
000001b0: 8b14 f2be fa55 e93e 2903 34bd 3e6c 063e
000001c0: 5f3b 36bf cdb8 83be a0bc f0be 1997 bb3e
000001d0: 569e 7f3d d98a 463f 8fcf 81bf 4f62 20bf
000001e0: 878b 033e 8c63 d33f d15e 9d3f 7589 613f
000001f0: d926 68bf e61b 46c0 c48d b83e 81a9 40bf
00000200: 4542 ebbf 3e53 493f 3667 e2bf 5479 04bf
00000210: f8f9 0440 af12 0cbf e4be 5c3f 5b4c 9c3f
00000220: af75 67bd 1736 e2be 1f53 56be 5585 dcbe
00000230: ad3f 913f b608 17bf 972f 533f 79b1 8b3f
00000240: 3b50 b33f ca33 f93e d803 b4be 5dfb 1b3f
00000250: f215 563f d7d1 7e3e 07be 54bf 16bd 033f
00000260: 441c 753f 77b3 713c af5e c7bf 6b7b 943f
00000270: 5db0 8e3e 03f5 533e 41a2 c5be 11df 573f
00000280: 147a 513f afc1 8bbf 8488 1cbf 9a43 533e
00000290: cbd2 973d 77ea 883f 544a b33d c6c6 5b3f
000002a0: 3b51 5fbf 5650 6f3f 1d59 abbf 8fe1 8dbf
000002b0: b3e1 953f 0c58 80bf 20a4 2c3f 0453 dabe
000002c0: de4a c53e afa0 1dbe f7d4 b6bf 135e eabe
000002d0: be08 273f 6b6b 8a3e 7824 cf3e 4e0c a1bf
000002e0: de2c d43e e090 343f aa4c ec3d 4eac 133f
000002f0: e749 3ebf 58d6 92bf 805a ec3f d36c b8bf
00000300: 45b0 26be 8146 a43f f8c9 573f bc73 1cbf
00000310: 555a 9d3f 196a fb3e b17a cf3e 77de 44bf
00000320: f12c 9a3f 2939 61bd b749 1c3d e7b0 0640
00000330: 31dc 7d3d ec91 08bf b9bd 643f 221f 88bf
00000340: e49f 08c0 a38d c33e 954f 8cbf ad22 e83e
00000350: 1f40 153f 4feb eb3e ed26 c2bd bc08 86bd
00000360: 1d55 c23f e252 97bf ea83 dc3e 270b 1ebf
00000370: 4037 7abf 73a3 cdbd 3bee 13bf cbf7 553e
00000380: 1874 983e 991c 95bf 7818 873f a828 3e3f
00000390: ff48 35be 37ef d5bf 3329 76bf 7046 00c0
000003a0: 6a8c 903e f0e7 0e3f 45fa e33e 0db6 c53f
000003b0: a95d 813f 39a0 433f 46bb fe3e d116 87bd
000003c0: bb54 01bf 2a20 b83e db37 8c3f 05c5 94be
000003d0: 370b 85be 5ebd 5bbc 6c13 64bc b4a9 8ebf
000003e0: 37a8 4a3f 0c9d af3d
-0.6651708 -0.6775334 0.4059084 1.106269 0.18783848 -0.088019215 -0.44952604 -0.19198477
0.498594 0.0313587 -1.0025752 -0.5297384 1.1443112 -0.38987637 -0.556909 0.73545307
0.45551968 -0.95486474 -0.76816154 0.1740123 0.092610024 0.09449496 0.70320785 0.09235996
-0.32486403 0.9860246 0.967997 -0.90189135 2.2995107 -2.546006 1.6267347 -0.68771577
-1.577203 0.4970585 -0.25647628 0.28090256 -0.9349224 -0.028944563 1.4086316 -0.36384693
0.80808735 -1.3982291 -1.3420392 -0.1602532 -0.10118242 -1.2597924 0.1298342 0.5319651
0.057491876 0.71285975 -0.08065524 0.15075718 -1.5243431 -1.5123187 1.1983013 -0.1363709
1.8101047 -0.41929185 -1.7286563 -1.3042703 0.71694803 0.57634807 0.04587395 -0.085616834
-0.048957217 0.5357476 0.67716634 -0.22173417 0.87832695 -0.12938692 -0.4638644 -0.9282321
-1.1388205 0.8865289 -0.10269883 1.8842084 0.37678263 0.4740842 -0.4352154 -0.88244843
0.89270043 0.4258941 0.27562037 0.84413964 -1.1797279 0.41648272 0.997242 0.91545975
1.4436096 0.70060474 1.030404 0.5732815 -0.1497858 -0.12404461 0.3243016 1.4283551
0.3812523 -0.7589836 -0.14875929 1.4566418 -0.480598 -0.65752053 0.6227509 0.6278479
-0.5715336 -0.020785376 0.69452125 -0.76531667 -0.47281298 0.45573407 -0.043948326 0.13127229
-0.71184343 -0.2572693 -0.4701891 0.36638716 0.06240686 0.77555615 -1.0141467 -0.62650007
0.12846194 1.6514754 1.2294561 0.8810037 -0.90684277 -3.0954528 0.3604566 -0.7525864
-1.8379599 0.7864264 -1.7687747 -0.5174763 2.077757 -0.5471601 0.86228776 1.2210802
-0.056508716 -0.44181892 -0.20930146 -0.43070474 1.1347557 -0.58997667 0.8249449 1.0913535
1.4008859 0.48672324 -0.35159183 0.60930425 0.83627236 0.24884735 -0.8310246 0.514604
0.95746255 0.01475226 -1.557577 1.1600164 0.2786893 0.20698933 -0.38600352 0.8432475
0.818269 -1.0918483 -0.61145806 0.20631257 0.074132524 1.0696553 0.08754411 0.8585018
-0.8723332 0.9348196 -1.338657 -1.108446 1.1709503 -1.002687 0.67437935 -0.4264146
0.38533682 -0.15393327 -1.4283742 -0.45774898 0.65247715 0.27035078 0.4045751 -1.258188
0.4144048 0.7053356 0.1153806 0.5768479 -0.74331516 -1.1471663 1.8465118 -1.440821
-0.16278179 1.2834016 0.84292555 -0.61114097 1.2293192 0.49104384 0.40523294 -0.76901954
1.2044965 -0.054986153 0.038156237 2.1045473 0.06197757 -0.5334766 0.89351994 -1.0634501
-2.134759 0.38193998 -1.0961787 0.45338956 0.58300966 0.46077964 -0.09480081 -0.06544635
1.5182225 -1.1822169 0.43069392 -0.6173577 -0.97740555 -0.10040941 -0.57785386 0.20895307
0.29776073 -1.1649352 1.0554342 0.74280787 -0.17703627 -1.6713628 -0.96156615 -2.0042992
0.28232127 0.5582266 0.44526878 1.5446182 1.0106708 0.76416355 0.49752253 -0.06596149
-0.50519913 0.3596204 1.0954546 -0.29056564 -0.2598512 -0.013411848 -0.013920646 -1.1145539
0.79162925 0.08574876

Q1.1.bias f4 [1, 5]
00000000: 5041 2bbc b299 41bc 96c2 56bc 59ad d5bb
00000010: 6213 d3ba
-0.010452583 -0.011816429 -0.013107916 -0.006520909 -0.0016103799
