CausalCVR/logs/simu3/eval/60/Vcnet_ckpt.pth.tar (torch, 123067 bytes, 16 tensors)

feature_weight.weight f4 [50, 8]
0	0x3c1f25bc	0.009713586
1	0xbbb7d897	-0.0056105363
2	0xbc903563	-0.017603582
3	0xbb4230ce	-0.002963114
4	0xbac2d8ff	-0.0014865695
5	0x3b94547f	0.0045266743
6	0xbc066cfa	-0.008204693
7	0xbc095bc4	-0.008383695
8	0xbb6636d7	-0.0035127902
9	0xbc2bcb18	-0.010485433
10	0xbc82cf16	-0.015967887
11	0xbc8d7c60	-0.01727122
12	0xbc09b43f	-0.00840479
13	0xbc3c27ec	-0.0114841275
14	0x3c2ceedb	0.010554994
15	0xbcb71efb	-0.02235364
16	0xba1faf30	-0.00060914736
17	0xbc442364	-0.011971328
18	0xbb7d958b	-0.003869387
19	0x3c51c156	0.012802443
20	0xbb856fe8	-0.004072178
21	0xbb70170a	-0.0036634826
22	0xbb635580	-0.0034688413
23	0x3cb1aa1f	0.021687565
24	0x3c635229	0.013874569
25	0x3c0405f2	0.008058058
26	0xbb744e0c	-0.0037277965
27	0x3c296cfd	0.010340926
28	0xbc26b76d	-0.010175568
29	0xba00a192	-0.00049068884
30	0xbc823850	-0.015895993
31	0x3c33b0db	0.010967459
32	0x3c03bc69	0.008040526
33	0xbc06efa7	-0.0082358485
34	0xbbe8dd1b	-0.007106436
35	0x3c15d9ae	0.009146137
36	0x3c32f11f	0.010921746
37	0x39ac5f2e	0.0003287731
38	0x3b347c85	0.002754004
39	0xba365e0a	-0.0006956762
40	0x3b2cce7f	0.0026368198
41	0xbbdb3e24	-0.0066907573
42	0xbc4bfa5f	-0.01244983
43	0x3bf3bde8	0.00743841
44	0x3c570d28	0.013125695
45	0x3cb7a60a	0.02241804
46	0x3b230172	0.0024872688
47	0xbbec3395	-0.0072082975
48	0x3a942981	0.0011303873
49	0xbacb86ef	-0.0015527884
50	0xbb8c2dd0	-0.004277922
51	0x3afa3f20	0.0019092299
52	0x3c989530	0.018625826
53	0x3bccac8a	0.006246154
54	0x399d9abd	0.00030060663
55	0x3acfbe13	0.0015849493
56	0xbbcb53b8	-0.0062050484
57	0xbc08bbdf	-0.008345573
58	0xbc4b0730	-0.01239185
59	0x3c40cd90	0.01176776
60	0x3ba96080	0.0051689744
61	0xbc42c65a	-0.011888111
62	0xbb803b61	-0.0039133285
63	0xbba942ae	-0.0051654195
64	0x3bb23d4b	0.0054394356
65	0xbc3df326	-0.011593616
66	0x3addfb16	0.0016935791
67	0xbc330598	-0.010926627
68	0x3b45f4d0	0.0030205734
69	0xbaf59e84	-0.0018739258
70	0xbbef0be8	-0.0072951205
71	0x3c20b78a	0.009809384
72	0xbc2ee0c4	-0.0106737055
73	0xbbda5b81	-0.00666374
74	0x3c0e9e1b	0.0087046875
75	0xbb8b736d	-0.004255703
76	0xb8a6a4e9	-7.946214e-05
77	0xbc18ec7a	-0.009333724
78	0x3b82542b	0.0039773188
79	0x3c77f28a	0.015133509
80	0x3c3afb5a	0.011412466
81	0x3c3053a0	0.010762125
82	0x3c559762	0.013036581
83	0xbc253ea3	-0.010085735
84	0x390c6b84	0.00013391493
85	0x3c1010da	0.00879308
86	0xbb5720de	-0.0032825987
87	0x3c957056	0.018242043
88	0xbb67c1c7	-0.0035363303
89	0xbae3e71b	-0.00173876
90	0xb98ba982	-0.0002663844
91	0x3b7659a0	0.0037590042
92	0x3a7898f8	0.00094832433
93	0xbc8bd4bc	-0.017069213
94	0xbb309aa0	-0.0026947632
95	0x3b8be61b	0.004269374
96	0x3b888ad7	0.0041669416
97	0x3b2ebf41	0.002666429
98	0xbbb56b16	-0.0055364473
99	0xbcbe119c	-0.023201756
100	0xbbd28ad9	-0.0064252433
101	0xbbf7fa18	-0.0075676553
102	0x3b56087d	0.0032658868
103	0x3b741664	0.0037244791
104	0x3c06fe71	0.0082393745
105	0x3b67a1b7	0.0035344192
106	0x3b55d754	0.0032629566
107	0x3ac5510b	0.001505406
108	0x3c07b109	0.008281955
109	0x3cd17487	0.02556826
110	0x3c29bcdf	0.010359972
111	0x3b31bcdf	0.0027120633
112	0xbc5c9eda	-0.013465608
113	0x3adc0678	0.0016786596
114	0xbc86c19d	-0.016449744
115	0x3c12e61c	0.008965995
116	0x3bb63431	0.005560421
117	0xbc1ae6a2	-0.009454401
118	0xbbf17c66	-0.007369566
119	0x39ed425a	0.00045253598
120	0xbc5daef7	-0.013530484
121	0x3b85647e	0.0040708175
122	0xbbf7b236	-0.007559086
123	0x3b7d7376	0.0038673556
124	0xbc60b779	-0.013715618
125	0xbbde7b10	-0.0067895725
126	0x3bbfc7cd	0.0058526755
127	0xbbb15bd1	-0.0054125567
128	0xbaadad73	-0.0013250544
129	0x3b42488a	0.0029645287
130	0xbc0c853a	-0.008576686
131	0x3b0aaf11	0.0021161477
132	0xbb898985	-0.004197302
133	0xbcc572c7	-0.024102582
134	0xbc2af647	-0.010434694
135	0xbb401365	-0.0029308435
136	0x3bf2faa4	0.0074151326
137	0x3ba1997f	0.0049316282
138	0xbc481862	-0.012212845
139	0xbb1fe73d	-0.0024399303
140	0xbb51c779	-0.0032009764
141	0xbbb724a5	-0.005589085
142	0x3baa2d21	0.005193368
143	0x3c17efb9	0.009273463
144	0x3c2bc2c6	0.010483449
145	0x3b89e5e6	0.004208314
146	0xba74f8fa	-0.0009344962
147	0xbc3f8573	-0.011689532
148	0x3bb0f924	0.0054007936
149	0xbb46edbc	-0.0030354103
150	0x3b00d1e0	0.0019656345
151	0xbc39cb52	-0.011339979
152	0xbc4a3b43	-0.012343231
153	0xba905db2	-0.0011014252
154	0xbc3621cd	-0.011116457
155	0x3c13162e	0.008977456
156	0xbb031b00	-0.0020005107
157	0x3ac23b60	0.001481872
158	0xbca28d01	-0.019842627
159	0x3b2c1fa6	0.002626398
160	0x3c11b89f	0.008894115
161	0xbc75d2e5	-0.015003894
162	0x3be5adb2	0.0070092315
163	0x3ba534db	0.0050417013
164	0x3ce697f6	0.028148632
165	0x3b172351	0.0023061822
166	0xb846934f	-4.734407e-05
167	0xbcf67951	-0.030087145
168	0xbb403c72	-0.0029332903
169	0x3cb3dffd	0.021957392
170	0xbcefc516	-0.029268783
171	0x3be23aac	0.006903967
172	0x3c17331c	0.009228494
173	0x3c88a153	0.016678488
174	0xb9cee180	-0.00039459392
175	0xbb89d96d	-0.0042068274
176	0x3b25068f	0.0025180911
177	0xbc2ccf61	-0.01054749
178	0xbbf79519	-0.0075556156
179	0x3bb2b7fa	0.0054540606
180	0xbc5cae38	-0.013469271
181	0xbb3e2fd8	-0.0029020216
182	0xbbb23774	-0.0054387394
183	0xbc11d6b3	-0.008901286
184	0x3b1411fc	0.0022593727
185	0x3bcd9389	0.006273691
186	0x3bdcba61	0.0067360853
187	0xbc522a77	-0.012827507
188	0xbc178004	-0.00924683
189	0xbbfe75c1	-0.007765502
190	0xbc526cba	-0.012843305
191	0xbba7cd57	-0.005120914
192	0xbaff648e	-0.0019484924
193	0xbca4cb8a	-0.020116586
194	0xbc53c4d1	-0.012925343
195	0xbab29b27	-0.0013626561
196	0xbb8119d4	-0.0039398465
197	0x3c2dc932	0.010607051
198	0xbbc1b6e3	-0.0059116944
199	0x3c1bc4c3	0.009507361
200	0xbb7427b9	-0.0037255122
201	0x3bf44545	0.0074545466
202	0x3c3200c5	0.010864441
203	0xb8c32fad	-9.307205e-05
204	0xbc098ea8	-0.008395828
205	0x3c9bff80	0.01904273
206	0xbc06777c	-0.008207198
207	0xbc0f0e82	-0.008731486
208	0xbac73885	-0.0015199339
209	0x3be133c3	0.0068726256
210	0xbcaae04c	-0.020858906
211	0xbb8547b4	-0.0040673856
212	0xbb982a8d	-0.0046437443
213	0xbc2fe1f8	-0.0107350275
214	0xbb9a0d94	-0.0047013257
215	0x3c68d6b9	0.01421135
216	0x3c8975e9	0.016779857
217	0xbc224b81	-0.009905697
218	0xbc421879	-0.011846655
219	0x379652da	1.7919974e-05
220	0xbc09f1f8	-0.008419506
221	0xbc1fbc28	-0.00974945
222	0x3c4f3046	0.012645787
223	0x3c175ab4	0.009237934
224	0x3b0bc986	0.0021329834
225	0xbcafa964	-0.021443076
226	0x3c997fc5	0.018737683
227	0xbc00adb5	-0.007853915
228	0xbc286573	-0.010278094
229	0xbb90a921	-0.004414693
230	0x3bcc0970	0.006226711
231	0xbaba2b67	-0.0014203609
232	0x3b89de4b	0.0042074076
233	0xbc8dfbf0	-0.017332047
234	0xbbc693e2	-0.0060601095
235	0xbc82c054	-0.01596085
236	0x3ad154a9	0.0015970665
237	0xba6f800e	-0.0009136208
238	0xbc23ab3a	-0.009989554
239	0xbc2c71c7	-0.0105251735
240	0x3b2b5e18	0.0026148614
241	0xbadb2d8f	-0.0016721952
242	0x3804608f	3.156118e-05
243	0xbbb24d43	-0.005441339
244	0x3cab821d	0.020936066
245	0xbae839ce	-0.0017717422
246	0xbc1dd3c8	-0.009633012
247	0x3c5a835d	0.0133369835
248	0x3b0d3d9d	0.0021551617
249	0x3c897062	0.016777221
250	0xbb087588	-0.0020822007
251	0xbbff3df1	-0.0077893664
252	0xbbf32c65	-0.0074210637
253	0x3c10bc72	0.008833991
254	0xbbf3ae2c	-0.0074365344
255	0x3b0cdd72	0.0021494296

feature_weight.bias f4 [50]
0	0xb590e055	-1.0794125e-06
1	0x00000000	0.0
2	0x35009fe1	4.791637e-07
3	0x37f367a6	2.9016122e-05
4	0xb715a7b5	-8.920139e-06
5	0x380216cb	3.1015643e-05
6	0xb7994e45	-1.8275468e-05
7	0xb4b86b88	-3.435091e-07
8	0xb6b6a410	-5.443122e-06
9	0x361b587c	2.3148305e-06
10	0x36c3de5a	5.837338e-06
11	0xb4847980	-2.467532e-07
12	0xb3a59a41	-7.71147e-08
13	0xb73560c6	-1.08109725e-05
14	0x3651e8d4	3.127895e-06
15	0xb4567037	-1.9971127e-07
16	0x00000000	0.0
17	0xb6e59aab	-6.8427375e-06
18	0x36fccc57	7.5339735e-06
19	0x33392989	4.3111445e-08
20	0x367e3952	3.7882314e-06
21	0xb7399fe2	-1.1064085e-05
22	0x00000000	0.0
23	0xb4a2b228	-3.0304477e-07
24	0xb4cac191	-3.776627e-07
25	0xb8076b4c	-3.2286436e-05
26	0xb4ce6d63	-3.845008e-07
27	0xb78bed71	-1.6680659e-05
28	0x3692aa26	4.370947e-06
29	0x00000000	0.0
30	0xb640a6b2	-2.870726e-06
31	0xb7758f7d	-1.4636546e-05
32	0x35c39a1a	1.4573482e-06
33	0xb60188c8	-1.9302115e-06
34	0xb6bd3eed	-5.6399645e-06
35	0x38530cd5	5.031827e-05
36	0x00000000	0.0
37	0x37ee954b	2.844133e-05
38	0xb6e66a8c	-6.866938e-06
39	0x379f51ff	1.899246e-05
40	0xb50f34f7	-5.3348725e-07
41	0x3798555f	1.8159566e-05
42	0xb744456a	-1.1698672e-05
43	0x33f45655	1.1377839e-07
44	0xb800f072	-3.074151e-05
45	0x36dad24c	6.521388e-06
46	0x3553c97d	7.889683e-07
47	0xb7d4be25	-2.5360912e-05
48	0xb73be96a	-1.12004145e-05
49	0xb75f0263	-1.32923915e-05

hidden_features.0.weight f4 [50, 8]
0	0x3c1f25bc	0.009713586
1	0xbbb7d897	-0.0056105363
2	0xbc903563	-0.017603582
3	0xbb4230ce	-0.002963114
4	0xbac2d8ff	-0.0014865695
5	0x3b94547f	0.0045266743
6	0xbc066cfa	-0.008204693
7	0xbc095bc4	-0.008383695
8	0xbb6636d7	-0.0035127902
9	0xbc2bcb18	-0.010485433
10	0xbc82cf16	-0.015967887
11	0xbc8d7c60	-0.01727122
12	0xbc09b43f	-0.00840479
13	0xbc3c27ec	-0.0114841275
14	0x3c2ceedb	0.010554994
15	0xbcb71efb	-0.02235364
16	0xba1faf30	-0.00060914736
17	0xbc442364	-0.011971328
18	0xbb7d958b	-0.003869387
19	0x3c51c156	0.012802443
20	0xbb856fe8	-0.004072178
21	0xbb70170a	-0.0036634826
22	0xbb635580	-0.0034688413
23	0x3cb1aa1f	0.021687565
24	0x3c635229	0.013874569
25	0x3c0405f2	0.008058058
26	0xbb744e0c	-0.0037277965
27	0x3c296cfd	0.010340926
28	0xbc26b76d	-0.010175568
29	0xba00a192	-0.00049068884
30	0xbc823850	-0.015895993
31	0x3c33b0db	0.010967459
32	0x3c03bc69	0.008040526
33	0xbc06efa7	-0.0082358485
34	0xbbe8dd1b	-0.007106436
35	0x3c15d9ae	0.009146137
36	0x3c32f11f	0.010921746
37	0x39ac5f2e	0.0003287731
38	0x3b347c85	0.002754004
39	0xba365e0a	-0.0006956762
40	0x3b2cce7f	0.0026368198
41	0xbbdb3e24	-0.0066907573
42	0xbc4bfa5f	-0.01244983
43	0x3bf3bde8	0.00743841
44	0x3c570d28	0.013125695
45	0x3cb7a60a	0.02241804
46	0x3b230172	0.0024872688
47	0xbbec3395	-0.0072082975
48	0x3a942981	0.0011303873
49	0xbacb86ef	-0.0015527884
50	0xbb8c2dd0	-0.004277922
51	0x3afa3f20	0.0019092299
52	0x3c989530	0.018625826
53	0x3bccac8a	0.006246154
54	0x399d9abd	0.00030060663
55	0x3acfbe13	0.0015849493
56	0xbbcb53b8	-0.0062050484
57	0xbc08bbdf	-0.008345573
58	0xbc4b0730	-0.01239185
59	0x3c40cd90	0.01176776
60	0x3ba96080	0.0051689744
61	0xbc42c65a	-0.011888111
62	0xbb803b61	-0.0039133285
63	0xbba942ae	-0.0051654195
64	0x3bb23d4b	0.0054394356
65	0xbc3df326	-0.011593616
66	0x3addfb16	0.0016935791
67	0xbc330598	-0.010926627
68	0x3b45f4d0	0.0030205734
69	0xbaf59e84	-0.0018739258
70	0xbbef0be8	-0.0072951205
71	0x3c20b78a	0.009809384
72	0xbc2ee0c4	-0.0106737055
73	0xbbda5b81	-0.00666374
74	0x3c0e9e1b	0.0087046875
75	0xbb8b736d	-0.004255703
76	0xb8a6a4e9	-7.946214e-05
77	0xbc18ec7a	-0.009333724
78	0x3b82542b	0.0039773188
79	0x3c77f28a	0.015133509
80	0x3c3afb5a	0.011412466
81	0x3c3053a0	0.010762125
82	0x3c559762	0.013036581
83	0xbc253ea3	-0.010085735
84	0x390c6b84	0.00013391493
85	0x3c1010da	0.00879308
86	0xbb5720de	-0.0032825987
87	0x3c957056	0.018242043
88	0xbb67c1c7	-0.0035363303
89	0xbae3e71b	-0.00173876
90	0xb98ba982	-0.0002663844
91	0x3b7659a0	0.0037590042
92	0x3a7898f8	0.00094832433
93	0xbc8bd4bc	-0.017069213
94	0xbb309aa0	-0.0026947632
95	0x3b8be61b	0.004269374
96	0x3b888ad7	0.0041669416
97	0x3b2ebf41	0.002666429
98	0xbbb56b16	-0.0055364473
99	0xbcbe119c	-0.023201756
100	0xbbd28ad9	-0.0064252433
101	0xbbf7fa18	-0.0075676553
102	0x3b56087d	0.0032658868
103	0x3b741664	0.0037244791
104	0x3c06fe71	0.0082393745
105	0x3b67a1b7	0.0035344192
106	0x3b55d754	0.0032629566
107	0x3ac5510b	0.001505406
108	0x3c07b109	0.008281955
109	0x3cd17487	0.02556826
110	0x3c29bcdf	0.010359972
111	0x3b31bcdf	0.0027120633
112	0xbc5c9eda	-0.013465608
113	0x3adc0678	0.0016786596
114	0xbc86c19d	-0.016449744
115	0x3c12e61c	0.008965995
116	0x3bb63431	0.005560421
117	0xbc1ae6a2	-0.009454401
118	0xbbf17c66	-0.007369566
119	0x39ed425a	0.00045253598
120	0xbc5daef7	-0.013530484
121	0x3b85647e	0.0040708175
122	0xbbf7b236	-0.007559086
123	0x3b7d7376	0.0038673556
124	0xbc60b779	-0.013715618
125	0xbbde7b10	-0.0067895725
126	0x3bbfc7cd	0.0058526755
127	0xbbb15bd1	-0.0054125567
128	0xbaadad73	-0.0013250544
129	0x3b42488a	0.0029645287
130	0xbc0c853a	-0.008576686
131	0x3b0aaf11	0.0021161477
132	0xbb898985	-0.004197302
133	0xbcc572c7	-0.024102582
134	0xbc2af647	-0.010434694
135	0xbb401365	-0.0029308435
136	0x3bf2faa4	0.0074151326
137	0x3ba1997f	0.0049316282
138	0xbc481862	-0.012212845
139	0xbb1fe73d	-0.0024399303
140	0xbb51c779	-0.0032009764
141	0xbbb724a5	-0.005589085
142	0x3baa2d21	0.005193368
143	0x3c17efb9	0.009273463
144	0x3c2bc2c6	0.010483449
145	0x3b89e5e6	0.004208314
146	0xba74f8fa	-0.0009344962
147	0xbc3f8573	-0.011689532
148	0x3bb0f924	0.0054007936
149	0xbb46edbc	-0.0030354103
150	0x3b00d1e0	0.0019656345
151	0xbc39cb52	-0.011339979
152	0xbc4a3b43	-0.012343231
153	0xba905db2	-0.0011014252
154	0xbc3621cd	-0.011116457
155	0x3c13162e	0.008977456
156	0xbb031b00	-0.0020005107
157	0x3ac23b60	0.001481872
158	0xbca28d01	-0.019842627
159	0x3b2c1fa6	0.002626398
160	0x3c11b89f	0.008894115
161	0xbc75d2e5	-0.015003894
162	0x3be5adb2	0.0070092315
163	0x3ba534db	0.0050417013
164	0x3ce697f6	0.028148632
165	0x3b172351	0.0023061822
166	0xb846934f	-4.734407e-05
167	0xbcf67951	-0.030087145
168	0xbb403c72	-0.0029332903
169	0x3cb3dffd	0.021957392
170	0xbcefc516	-0.029268783
171	0x3be23aac	0.006903967
172	0x3c17331c	0.009228494
173	0x3c88a153	0.016678488
174	0xb9cee180	-0.00039459392
175	0xbb89d96d	-0.0042068274
176	0x3b25068f	0.0025180911
177	0xbc2ccf61	-0.01054749
178	0xbbf79519	-0.0075556156
179	0x3bb2b7fa	0.0054540606
180	0xbc5cae38	-0.013469271
181	0xbb3e2fd8	-0.0029020216
182	0xbbb23774	-0.0054387394
183	0xbc11d6b3	-0.008901286
184	0x3b1411fc	0.0022593727
185	0x3bcd9389	0.006273691
186	0x3bdcba61	0.0067360853
187	0xbc522a77	-0.012827507
188	0xbc178004	-0.00924683
189	0xbbfe75c1	-0.007765502
190	0xbc526cba	-0.012843305
191	0xbba7cd57	-0.005120914
192	0xbaff648e	-0.0019484924
193	0xbca4cb8a	-0.020116586
194	0xbc53c4d1	-0.012925343
195	0xbab29b27	-0.0013626561
196	0xbb8119d4	-0.0039398465
197	0x3c2dc932	0.010607051
198	0xbbc1b6e3	-0.0059116944
199	0x3c1bc4c3	0.009507361
200	0xbb7427b9	-0.0037255122
201	0x3bf44545	0.0074545466
202	0x3c3200c5	0.010864441
203	0xb8c32fad	-9.307205e-05
204	0xbc098ea8	-0.008395828
205	0x3c9bff80	0.01904273
206	0xbc06777c	-0.008207198
207	0xbc0f0e82	-0.008731486
208	0xbac73885	-0.0015199339
209	0x3be133c3	0.0068726256
210	0xbcaae04c	-0.020858906
211	0xbb8547b4	-0.0040673856
212	0xbb982a8d	-0.0046437443
213	0xbc2fe1f8	-0.0107350275
214	0xbb9a0d94	-0.0047013257
215	0x3c68d6b9	0.01421135
216	0x3c8975e9	0.016779857
217	0xbc224b81	-0.009905697
218	0xbc421879	-0.011846655
219	0x379652da	1.7919974e-05
220	0xbc09f1f8	-0.008419506
221	0xbc1fbc28	-0.00974945
222	0x3c4f3046	0.012645787
223	0x3c175ab4	0.009237934
224	0x3b0bc986	0.0021329834
225	0xbcafa964	-0.021443076
226	0x3c997fc5	0.018737683
227	0xbc00adb5	-0.007853915
228	0xbc286573	-0.010278094
229	0xbb90a921	-0.004414693
230	0x3bcc0970	0.006226711
231	0xbaba2b67	-0.0014203609
232	0x3b89de4b	0.0042074076
233	0xbc8dfbf0	-0.017332047
234	0xbbc693e2	-0.0060601095
235	0xbc82c054	-0.01596085
236	0x3ad154a9	0.0015970665
237	0xba6f800e	-0.0009136208
238	0xbc23ab3a	-0.009989554
239	0xbc2c71c7	-0.0105251735
240	0x3b2b5e18	0.0026148614
241	0xbadb2d8f	-0.0016721952
242	0x3804608f	3.156118e-05
243	0xbbb24d43	-0.005441339
244	0x3cab821d	0.020936066
245	0xbae839ce	-0.0017717422
246	0xbc1dd3c8	-0.009633012
247	0x3c5a835d	0.0133369835
248	0x3b0d3d9d	0.0021551617
249	0x3c897062	0.016777221
250	0xbb087588	-0.0020822007
251	0xbbff3df1	-0.0077893664
252	0xbbf32c65	-0.0074210637
253	0x3c10bc72	0.008833991
254	0xbbf3ae2c	-0.0074365344
255	0x3b0cdd72	0.0021494296

hidden_features.0.bias f4 [50]
0	0xb590e055	-1.0794125e-06
1	0x00000000	0.0
2	0x35009fe1	4.791637e-07
3	0x37f367a6	2.9016122e-05
4	0xb715a7b5	-8.920139e-06
5	0x380216cb	3.1015643e-05
6	0xb7994e45	-1.8275468e-05
7	0xb4b86b88	-3.435091e-07
8	0xb6b6a410	-5.443122e-06
9	0x361b587c	2.3148305e-06
10	0x36c3de5a	5.837338e-06
11	0xb4847980	-2.467532e-07
12	0xb3a59a41	-7.71147e-08
13	0xb73560c6	-1.08109725e-05
14	0x3651e8d4	3.127895e-06
15	0xb4567037	-1.9971127e-07
16	0x00000000	0.0
17	0xb6e59aab	-6.8427375e-06
18	0x36fccc57	7.5339735e-06
19	0x33392989	4.3111445e-08
20	0x367e3952	3.7882314e-06
21	0xb7399fe2	-1.1064085e-05
22	0x00000000	0.0
23	0xb4a2b228	-3.0304477e-07
24	0xb4cac191	-3.776627e-07
25	0xb8076b4c	-3.2286436e-05
26	0xb4ce6d63	-3.845008e-07
27	0xb78bed71	-1.6680659e-05
28	0x3692aa26	4.370947e-06
29	0x00000000	0.0
30	0xb640a6b2	-2.870726e-06
31	0xb7758f7d	-1.4636546e-05
32	0x35c39a1a	1.4573482e-06
33	0xb60188c8	-1.9302115e-06
34	0xb6bd3eed	-5.6399645e-06
35	0x38530cd5	5.031827e-05
36	0x00000000	0.0
37	0x37ee954b	2.844133e-05
38	0xb6e66a8c	-6.866938e-06
39	0x379f51ff	1.899246e-05
40	0xb50f34f7	-5.3348725e-07
41	0x3798555f	1.8159566e-05
42	0xb744456a	-1.1698672e-05
43	0x33f45655	1.1377839e-07
44	0xb800f072	-3.074151e-05
45	0x36dad24c	6.521388e-06
46	0x3553c97d	7.889683e-07
47	0xb7d4be25	-2.5360912e-05
48	0xb73be96a	-1.12004145e-05
49	0xb75f0263	-1.32923915e-05

hidden_features.2.weight f4 [50, 50]
0	0xbc0f3e61	-0.0087429
1	0xbbb1a278	-0.005420979
2	0xba00891a	-0.0004903242
3	0x3c054a4c	0.00813539
4	0x3c794b22	0.015215667
5	0xbbcdf9fd	-0.0062859044
6	0xbb90c971	-0.004418545
7	0xbc4d6dbf	-0.012538373
8	0x3bde6fc6	0.006788227
9	0x3a3fec93	0.0007321324
10	0xbc227c91	-0.009917394
11	0xbb8431c2	-0.004034252
12	0xbb3fbd33	-0.0029257059
13	0x3c4ab187	0.012371427
14	0x3b8ec331	0.0043567647
15	0x3c402b26	0.011729037
16	0x3c7beb82	0.015375974
17	0x3c17fad3	0.00927611
18	0x3b52f4fd	0.0032189481
19	0xbc3373c6	-0.0109528955
20	0xbb860c31	-0.004090809
21	0xbb977272	-0.0046217972
22	0x3b12a279	0.0022374673
23	0xba63aef3	-0.0008685432
24	0x3bcf5f8c	0.0063285287
25	0xbc6f7b99	-0.01461687
26	0x3c952769	0.018207269
27	0xbc8221ff	-0.015885351
28	0xbb918b78	-0.004441675
29	0xbc27510e	-0.010212196
30	0x3be563e6	0.007000434
31	0x3c27356d	0.010205609
32	0x3d00f4d4	0.031483486
33	0xbb37a800	-0.002802372
34	0xbc2d3772	-0.010572301
35	0x3c327479	0.010892027
36	0x39ae238a	0.00033214345
37	0x3bc015e0	0.0058619827
38	0x3c6893a2	0.014195355
39	0xbc31f75c	-0.010862198
40	0xbc82cf7c	-0.015968077
41	0x3c261a81	0.010138155
42	0x38b93e45	8.833086e-05
43	0xbb85826b	-0.004074385
44	0x3bc66b41	0.006055266
45	0xbc08e14f	-0.008354499
46	0xbaa50d99	-0.0012592553
47	0x3b18fd86	0.002334447
48	0x3c85dabb	0.01633965
49	0xb9024e20	-0.0001242687
50	0xbbfa24bc	-0.0076337736
51	0xbba5306d	-0.005041173
52	0xba45fd63	-0.0007552711
53	0xbbc42f3b	-0.0059870756
54	0x3cc3b3dc	0.023889475
55	0x3b8397b9	0.0040158895
56	0xbb5eed19	-0.0034015833
57	0xbbdeface	-0.0068048006
58	0xbbfaf863	-0.0076590045
59	0x3bda6a9b	0.0066655404
60	0xbc73232a	-0.014839927
61	0x3c6302c6	0.013855642
62	0x3ad2557a	0.0016047203
63	0x3c00d048	0.007862158
64	0x3c405ed6	0.011741361
65	0x3bddb997	0.006766509
66	0x3a2586be	0.00063143286
67	0x3ae9ba87	0.0017832079
68	0x3c7753a1	0.015095622
69	0xbbcbcd2b	-0.0062195263
70	0xbc0fa576	-0.008767476
71	0xbbc547be	-0.006020515
72	0x3b8ec92b	0.004357477
73	0x3c5b8178	0.013397567
74	0x3ba38c4d	0.0049910904
75	0x3c6d47f8	0.014482491
76	0x3c0751cf	0.008259251
77	0xbc4ed10d	-0.012623084
78	0x3c278301	0.010224105
79	0xbb26b9ef	-0.0025440415
80	0xbb9db64e	-0.004812992
81	0xbc604618	-0.013688587
82	0xb77a71d3	-1.4927663e-05
83	0xbbdd76a3	-0.0067585274
84	0xbca652d5	-0.02030317
85	0xbb9eabe0	-0.0048422664
86	0x3b6e7d4e	0.0036390605
87	0x3b1aa9bc	0.0023599705
88	0xbc35c5ae	-0.011094494
89	0x3bbf36b6	0.0058353795
90	0xbc017bce	-0.0079030525
91	0x3c9ddc59	0.019270109
92	0xbbe9df32	-0.0071372027
93	0xbad153be	-0.0015970392
94	0x3baa4f08	0.0051974095
95	0x3c33e3ab	0.010979573
96	0xbb5638ee	-0.0032687741
97	0x3c0812a6	0.008305227
98	0xbb4d719e	-0.0031348239
99	0xbc092ed4	-0.008372981
100	0xbc1ab296	-0.009441992
101	0x3b9894fb	0.0046564317
102	0x3bb4f2d5	0.005522112
103	0xb9cb4917	-0.00038773633
104	0xbc33db88	-0.010977633
105	0x3bda039c	0.0066532623
106	0x3c8930f7	0.016746981
107	0xbbc6952f	-0.0060602645
108	0xbc83a38d	-0.016069198
109	0xbccdb62f	-0.025111286
110	0xbc141ca0	-0.009040028
111	0xbc42ceca	-0.011890123
112	0xbbc7bbe3	-0.006095396
113	0xbb212122	-0.00245864
114	0xbc821b27	-0.015882088
115	0x3b92a41c	0.00447513
116	0x3ad286ca	0.0016061899
117	0xbc367155	-0.011135419
118	0x3ae0de66	0.0017156124
119	0x3b4ae52e	0.0030959356
120	0xbc81c0e0	-0.01583904
121	0x3ca83c5c	0.020536594
122	0xbc1807e0	-0.009279221
123	0x3caba262	0.020951454
124	0x3c3e69c0	0.011621892
125	0x3c177cfc	0.009246107
126	0xbb534eb8	-0.0032242965
127	0xbbf729f9	-0.0075428453
128	0x3c3e8133	0.011627483
129	0xbcac9eda	-0.02107184
130	0xb9a2dda6	-0.0003106419
131	0x3c53b379	0.012921208
132	0x3a28ac73	0.00064343883
133	0x3952ff60	0.00020122295
134	0xbb9617d0	-0.0045804754
135	0x3cb00416	0.021486323
136	0xbc0ebcbb	-0.008711989
137	0xbc847828	-0.016170576
138	0x3b8cd41d	0.004297747
139	0xbb18fe62	-0.0023344983
140	0xba433ede	-0.00074480276
141	0x3a9c0a83	0.0011904988
142	0x3c870193	0.016480243
143	0xbb86e79f	-0.004116967
144	0x3c02f1d7	0.007992229
145	0x3b9aaa61	0.004720018
146	0x3b007e4b	0.0019606526
147	0x3be8237f	0.0070843096
148	0xbbd3f4dc	-0.0064683985
149	0xbbfbdaff	-0.0076860185
150	0xbb9908f5	-0.004670257
151	0x3bedc5dc	0.0072562527
152	0x3c21072d	0.009828371
153	0xbbc83146	-0.0061093895
154	0xbc323678	-0.010877244
155	0xbc10e173	-0.008842814
156	0xbcd5537f	-0.02604079
157	0x3b90d8d2	0.0044203782
158	0xbb38b5ea	-0.00281846
159	0xbaec8141	-0.0018043892
160	0xbc8a3318	-0.016870067
161	0xbbfc8573	-0.007706338
162	0xba4969ae	-0.0007683289
163	0x3c24513b	0.0100291325
164	0xbc46b5b9	-0.012128287
165	0xbc06b074	-0.008220781
166	0x3bbee679	0.0058258143
167	0xbbaf3366	-0.0053467033
168	0x3c00b780	0.00785625
169	0xbc27c1f8	-0.010239117
170	0xbc999b30	-0.018750757
171	0x3c8d0809	0.017215746
172	0x3ae4131e	0.0017400717
173	0x3a85d133	0.0010209441
174	0xbbc6546c	-0.0060525443
175	0xbc30056f	-0.010743483
176	0x3b2c71c8	0.0026312936
177	0xbb529f35	-0.0032138352
178	0xbae15510	-0.0017191488
179	0xbcbdd9c9	-0.023175137
180	0x3c514b45	0.012774293
181	0xbae3fbf7	-0.0017393817
182	0x3c87ee52	0.016593132
183	0x3a8061c3	0.000979476
184	0x3be34bef	0.006936542
185	0x3c8fd26a	0.017556388
186	0x3be89fe9	0.007099141
187	0xbb44161e	-0.002992041
188	0x3c69f7e3	0.014280292
189	0x3c2ffc3d	0.010741291
190	0x3bc38c9d	0.00596769
191	0xbbaaa437	-0.005207564
192	0xbb8a4b7e	-0.004220425
193	0xbc535fd7	-0.012901268
194	0xbc3e519c	-0.011616137
195	0x3a53c327	0.0008078091
196	0x388fb565	6.852559e-05
197	0xbbdf3664	-0.006811904
198	0x39b74dd1	0.00034962458
199	0xbc33e2de	-0.010979382
200	0xbc5e9612	-0.013585584
201	0xbc2d28af	-0.010568782
202	0x3bb69060	0.00557141
203	0xbc78a869	-0.015176871
204	0xbc4f82df	-0.012665479
205	0xbbaba216	-0.005237828
206	0xbc8b2aef	-0.016988246
207	0x3bd83f21	0.0065993224
208	0xbb0dc4aa	-0.0021632113
209	0xbba80dab	-0.0051285825
210	0x3bff1cc4	0.0077854116
211	0x3ab2603d	0.0013609004
212	0xbc0a935a	-0.008457983
213	0x3bef2e50	0.007299222
214	0xbbaf7255	-0.0053542056
215	0x3affc8e6	0.0019514828
216	0x3ce91cd5	0.028456131
217	0x3b411a9a	0.0029465319
218	0xbba9da4e	-0.0051834946
219	0xbbf52b8f	-0.007481999
220	0x3c7b81ae	0.015350742
221	0xbc4def16	-0.01256921
222	0x3c32bbd4	0.0109090395
223	0xbc23cf88	-0.00999821
224	0xbc8e3f2f	-0.017364113
225	0x3b872740	0.004124552
226	0x3c000345	0.0078132795
227	0x3bc136f3	0.005896443
228	0xbc6a17df	-0.014287918
229	0x3b812956	0.003941695
230	0x3c3d9dcb	0.011573265
231	0x3b14f953	0.0022731617
232	0x3af7ba61	0.001890015
233	0xbc8bb613	-0.017054593
234	0xbc0114d8	-0.007878505
235	0xbb320504	-0.0027163634
236	0x3b7bad84	0.0038402984
237	0xbad43eb0	-0.0016192999
238	0x3b66432a	0.0035135248
239	0xbb5d50ff	-0.0033770201
240	0xbac1d4e6	-0.001478818
241	0xbbbbe851	-0.0057344814
242	0xbb27c712	-0.0025600833
243	0xbb4f8415	-0.003166442
244	0x3b39a5b1	0.002832752
245	0x3c91462f	0.017733661
246	0x3a8bc276	0.0010662812
247	0x3bc99bcf	0.006152607
248	0xbc3d49c3	-0.011553231
249	0xba28497c	-0.00064196414
250	0x3b497006	0.0030736937
251	0x399bdc7c	0.00029728177
252	0x3b1dfe05	0.0024107706
253	0xbbad8989	-0.0052959365
254	0x3b849778	0.004046377
255	0x3c6ad484	0.014332894

hidden_features.2.bias f4 [50]
0	0xba46dbbe	-0.0007585845
1	0xb95f0817	-0.00021269951
2	0xba1003a3	-0.0005493706
3	0x36822ac4	3.8792805e-06
4	0xb9c7d99d	-0.00038118372
5	0xb95f6aab	-0.00021306674
6	0xb7505318	-1.2417113e-05
7	0xba2fea38	-0.00067106215
8	0xb919ca21	-0.00014666516
9	0xb98329e8	-0.0002501749
10	0xb869c32e	-5.5733304e-05
11	0xb7fc2827	-3.0059438e-05
12	0x38d6d319	0.00010243635
13	0x3a00715d	0.0004899705
14	0xb7007215	-7.655956e-06
15	0x380f7f3c	3.4212353e-05
16	0x390baf81	0.00013321453
17	0xb95f5eb8	-0.00021302223
18	0x3a5073d0	0.0007951828
19	0x3a98b173	0.0011649564
20	0x3a1078be	0.0005511156
21	0x35c210eb	1.445905e-06
22	0x38367fc3	4.351117e-05
23	0x3a458a44	0.0007535557
24	0xb9332e08	-0.00017087918
25	0xb8a2b04d	-7.7576005e-05
26	0xba0e7854	-0.00054348004
27	0x380021eb	3.0549167e-05
28	0xb9e59195	-0.0004378675
29	0xb71d6336	-9.381029e-06
30	0xb91eb703	-0.00015136231
31	0x3896e04a	7.1943345e-05
32	0xb93f1763	-0.00018223892
33	0x39ae375e	0.00033229118
34	0x37e7ff09	2.7656106e-05
35	0xba2d563b	-0.00066122756
36	0x3aabe6b7	0.0013115023
37	0x369b8649	4.634993e-06
38	0xb90c1de9	-0.00013362583
39	0x39e06d61	0.00042806103
40	0x3a1ad597	0.0005906461
41	0xb9e0b030	-0.0004285588
42	0xb84c3806	-4.8689566e-05
43	0xb81e2c53	-3.7711416e-05
44	0x35c62c40	1.4765028e-06
45	0x392d3c74	0.00016521086
46	0xba1d7040	-0.0006005801
47	0xba0339f8	-0.00050058914
48	0x00000000	0.0
49	0xb911c938	-0.00013903237

density_estimator_head.weight f4 [50, 11]
0	0x3c14043e	0.009034215
1	0xbb8d9553	-0.0043207793
2	0xbba4a857	-0.0050249505
3	0x3a1e9e2c	0.0006050791
4	0x3bfdea33	0.007748866
5	0xbba0cbfd	-0.00490713
6	0x3bbbb606	0.005728486
7	0xbc457633	-0.012052107
8	0xbc1c924f	-0.009556367
9	0xbc6bec75	-0.0143996375
10	0xbc6d864e	-0.014497353
11	0xbba13960	-0.0049201697
12	0xbb601164	-0.0034190053
13	0xbcccde57	-0.025008364
14	0x3cdffffb	0.02734374
15	0x3ab4b3e5	0.0013786523
16	0xbc63448f	-0.013871326
17	0xbc82af7c	-0.015952818
18	0x3c13f4c4	0.009030525
19	0xba6fad20	-0.0009142924
20	0xbb845548	-0.0040384866
21	0xbc4ebe3c	-0.012618598
22	0x3c50d3cb	0.012745808
23	0x3c9f14af	0.019419042
24	0x3b1fd517	0.0024388486
25	0xbbdae765	-0.0066804164
26	0x3c04ad7d	0.008098003
27	0xbc82ea87	-0.015980972
28	0x3b0b12c9	0.0021220914
29	0x3a68d243	0.0008881429
30	0xbbee5113	-0.0072728484
31	0xbbb64906	-0.0055629043
32	0xbb4f09d0	-0.0031591542
33	0x3c6ab0fd	0.014324424
34	0x3bcc6075	0.0062370845
35	0x3bc32a2b	0.0059559545
36	0x3bb22104	0.0054360647
37	0xbbbb9da1	-0.005725578
38	0xbba7491d	-0.0051051513
39	0xbc65f331	-0.014035032
40	0xbc7b6bbe	-0.015345512
41	0x3c06235d	0.008187142
42	0x3c73834f	0.014862849
43	0xbbee844b	-0.007278954
44	0x3bc0dcbe	0.0058856895
45	0xbbbbbddc	-0.00572942
46	0xbabf25df	-0.001458343
47	0x3c83f648	0.016108647
48	0x3a6900ac	0.0008888345
49	0x3c3db850	0.011579588
50	0x3c4af44d	0.012387347
51	0xbc3a93ee	-0.011387808
52	0xbc3656ae	-0.0111290645
53	0xbcba510f	-0.02274373
54	0x3c244e48	0.010028429
55	0x3c78747b	0.01516449
56	0x3b6f2010	0.0036487617
57	0x3c525806	0.012838369
58	0x3c3a600c	0.011375438
59	0xbc0cf94f	-0.008604362
60	0x3bc0c7ba	0.0058831843
61	0xbc203d73	-0.009780276
62	0x3c0d35e3	0.008618805
63	0x3c5f6975	0.013635983
64	0xbb91a0eb	-0.0044442317
65	0x39d1da98	0.00040026451
66	0xbc269e00	-0.010169506
67	0xbc13ae19	-0.009013676
68	0x3a86fbc1	0.0010298417
69	0x3b132073	0.002244976
70	0x38ab9bd8	8.1829436e-05
71	0x3ce7cc49	0.028295653
72	0x3c57ce70	0.013171777
73	0x3c34e94c	0.01104195
74	0x3bab8ab1	0.005235039
75	0x3b960f00	0.004579425
76	0x3a47e8f0	0.0007625958
77	0xbaadef9d	-0.0013270263
78	0x3c33ef58	0.010982357
79	0xbc625b20	-0.013815671
80	0x3bb03b94	0.005378196
81	0x3b62e64b	0.0034622129
82	0xbb321203	-0.002717138
83	0xbc064624	-0.008195434
84	0x3c113bd3	0.008864361
85	0x3c07ad36	0.008281043
86	0xbbad7d9b	-0.0052945144
87	0xbc76f6c9	-0.015073487
88	0x3a4b7b13	0.0007762175
89	0xbbfb1b2f	-0.0076631526
90	0xbb086b86	-0.0020816042
91	0x3cab07b9	0.020877706
92	0xbc1034df	-0.008801668
93	0xbc955593	-0.018229282
94	0xbc9fa51f	-0.019487916
95	0x3c3fdfa2	0.011711033
96	0x3c596d7d	0.013270733
97	0xba96d712	-0.0011508188
98	0xbb8f9f9a	-0.0043830397
99	0x3c6eb064	0.014568422
100	0x3ca3e445	0.020006308
101	0xbc954afd	-0.018224234
102	0x3bd3b6de	0.0064610085
103	0x3bdf6db9	0.0068185
104	0x3ab02531	0.0013438818
105	0xbb0fc347	-0.0021936463
106	0xbcacc0c0	-0.021088004
107	0x3c1afdb3	0.009459901
108	0xbb2f7632	-0.002677333
109	0x3bcd4236	0.0062639965
110	0x3bef8d57	0.00731055
111	0xbc3749a1	-0.011186988
112	0xbcad98b9	-0.021190988
113	0x3c41107f	0.011783718
114	0xbb9e2345	-0.004825982
115	0xbbf0908b	-0.0073414496
116	0x3c5108a4	0.012758408
117	0x3c28d676	0.010305038
118	0x3b8f045f	0.0043645347
119	0x3b982138	0.004642632
120	0xbbd60d21	-0.006532327
121	0xbb50d796	-0.003186678
122	0xbb3678b2	-0.0027842936
123	0x3c05c15e	0.008163778
124	0x3a3641b2	0.00069525384
125	0xbbcff035	-0.0063457736
126	0x3c9da03d	0.019241447
127	0x3c130567	0.008973456
128	0x3b1de2fa	0.0024091587
129	0xbc654f67	-0.013995982
130	0xbb4d28dd	-0.0031304874
131	0x3b3f3572	0.0029176143
132	0xba8754dd	-0.0010324974
133	0xbb659a76	-0.0035034693
134	0xb9320c25	-0.00016979927
135	0x3c194494	0.009354729
136	0x3b25ddc4	0.0025309185
137	0xbbfd44f9	-0.0077291694
138	0x3c357fe7	0.011077858
139	0xba5dc2c2	-0.0008459502
140	0xbb031d89	-0.0020006618
141	0x3b9de184	0.0048181433
142	0x38919025	6.940988e-05
143	0x3aecfa40	0.0018079951
144	0x3a28a14d	0.0006432727
145	0x3be1663f	0.0068786438
146	0xbb196b95	-0.002341007
147	0xbb1f4e80	-0.0024308264
148	0xbb8e082c	-0.0043344703
149	0x3c636254	0.013878424
150	0x3bdb0e1c	0.0066850316
151	0x3b510574	0.003189412
152	0x3be0dbe7	0.006862152
153	0x3bfa6226	0.0076410947
154	0xbb869c6c	-0.0041080024
155	0xbbfa45e3	-0.0076377257
156	0x39702233	0.00022900924
157	0x3bf5efac	0.0075053778
158	0xba04c81a	-0.0005065218
159	0x39e897e7	0.00044363664
160	0x3ba8b18d	0.005148119
161	0xbbfdbde3	-0.0077435835
162	0xbc0b5035	-0.00850301
163	0xbb6ee201	-0.0036450627
164	0x3b9300d2	0.004486182
165	0xbcb4afc4	-0.022056468
166	0xbc4e542a	-0.012593308
167	0x3b940e6b	0.0045183203
168	0x3c741f7b	0.014900084
169	0xbb9a1fb5	-0.004703487
170	0x3c131809	0.008977898
171	0xbaf05dee	-0.001833854
172	0x3ac0daf6	0.0014713693
173	0x3be81ee9	0.007083763
174	0x3bd2c8af	0.0064326148
175	0xbb44bf77	-0.0030021349
176	0x3b999ccc	0.004687881
177	0xbca6dbdc	-0.020368509
178	0x3c05888a	0.008150229
179	0xbb7a0436	-0.0038149483
180	0xbc2fbc5a	-0.010726059
181	0xbc245a1e	-0.010031251
182	0x3b470dbd	0.003037318
183	0x3c97738b	0.018487712
184	0x3b05901e	0.002038009
185	0x3bd78b4d	0.0065778852
186	0xbb55e795	-0.0032639254
187	0x3be4c444	0.0069814045
188	0x3c77b454	0.015118677
189	0xbbff244a	-0.0077863084
190	0xbc345be6	-0.011008238
191	0x38770d3d	5.8901718e-05
192	0x3cc356d0	0.023845106
193	0x3c157a06	0.009123331
194	0x3ba5e658	0.0050628595
195	0xbc3267a4	-0.010888968
196	0x3bb62a5b	0.0055592484
197	0xbc81dddc	-0.015852861
198	0xbc3ba669	-0.0114532495
199	0x3bc1da8b	0.005915945
200	0xbb61ba27	-0.003444323
201	0x3bd2402b	0.006416341
202	0xbca0b63a	-0.019618142
203	0xbc10c7ca	-0.008836696
204	0x3bea581f	0.007151618
205	0x3cbf2306	0.02333213
206	0xbcb3c15f	-0.021942792
207	0x378adc57	1.6553486e-05
208	0x3c8cbca2	0.01717979
209	0x3a5ae7e6	0.00083505956
210	0xbba2d83e	-0.0049696257
211	0xbc737321	-0.014858992
212	0xbc8391d8	-0.016060755
213	0x3c5dc2b4	0.01353519
214	0xbba2517e	-0.0049535623
215	0xb9432a40	-0.00018612389
216	0x3c5b2091	0.013374464
217	0xbbd9da23	-0.0066483184
218	0x3bec5c98	0.0072131865
219	0x3cd16d73	0.025564885
220	0xbbe70955	-0.007050673
221	0xbcce12e7	-0.025155498
222	0xba8e5a5f	-0.0010860673
223	0x3bc7c457	0.0060964036
224	0x3c8bd7c4	0.017070659
225	0x3ba54acc	0.005044317
226	0x3baeec5b	0.0053382344
227	0x3b58b4c3	0.0033066727
228	0xbc2f7f38	-0.010711484
229	0xbb851843	-0.00406173
230	0x3afb124e	0.0019155235
231	0xba9935a0	-0.0011688955
232	0x3af3ccf0	0.0018600505
233	0x3bfd178b	0.007723754
234	0xbbe24b2a	-0.006905933
235	0xbbbe1dfa	-0.0058019133
236	0xbcaa3b5a	-0.020780254
237	0x3b3e5a09	0.0029045364
238	0x3b9adcb4	0.004726017
239	0xbc87eb55	-0.016591707
240	0xbbdd500a	-0.006753926
241	0x3bd7e29d	0.0065882937
242	0x3c54715f	0.012966483
243	0xb986041f	-0.00025561542
244	0xbcb7d25a	-0.02243917
245	0x3c47c4ac	0.012192886
246	0xbb048769	-0.0020222312
247	0xbc3b34e8	-0.011426188
248	0x3c2c0c85	0.010501032
249	0x3c76b55b	0.015057887
250	0xbbdbc3c7	-0.006706688
251	0x3c131dfb	0.008979316
252	0xbc232d20	-0.009959489
253	0x39f5a3e3	0.00046852147
254	0xbc63a909	-0.013895282
255	0x3be35089	0.006937091

density_estimator_head.bias f4 [11]
0	0xbd074615	-0.03302582
1	0xbca6ef2c	-0.020377718
2	0xbbf23ecf	-0.0073927413
3	0xbbefee81	-0.007322133
4	0xbb121f90	-0.0022296645
5	0xbba7353b	-0.005102781
6	0x3be3e95a	0.006955308
7	0x3b718613	0.0036853596
8	0x3b8760fb	0.004131434
9	0x3d121d30	0.035672367
10	0x3cccda24	0.025006361

Q1.0.weight f4 [50, 50, 5]
0	0xbf18e5cc	-0.5972564
1	0x3f8d4742	1.1037371
2	0x3fa41b9b	1.2820925
3	0x3fdec586	1.7404029
4	0xbea14aae	-0.3150229
5	0x3dc669ab	0.09688123
6	0xbfd826b3	-1.688681
7	0xbe66d0ed	-0.22540636
8	0x3f2237d3	0.6336643
9	0x3edb7652	0.4286371
10	0xbdf4ce63	-0.11953428
11	0xbeebfdaa	-0.46091968
12	0x3e9eaa60	0.3098936
13	0xbf5f5efc	-0.8725431
14	0x3f1db209	0.61599785
15	0xbe001877	-0.12509333
16	0x3f699be1	0.9125348
17	0x3ff0ddaa	1.8817647
18	0xbeec85ee	-0.4619593
19	0x3f6082dc	0.87699676
20	0xbfd2d982	-1.6472628
21	0xbd80cdd7	-0.06289261
22	0x3d645728	0.05574718
23	0xbfb848e3	-1.4397243
24	0x3ef4fc65	0.47848812
25	0xbfa7a99f	-1.3098639
26	0x3fddb4d9	1.7320815
27	0xbeff35fe	-0.4984588
28	0x3f36aced	0.71357614
29	0x3fe05d74	1.752852
30	0x3f0e903d	0.5568884
31	0x3f556350	0.83354664
32	0x3c877b80	0.016538382
33	0xbf7f0d74	-0.996299
34	0xbfe50cae	-1.7894495
35	0x3e50d051	0.20391966
36	0x3ee9252c	0.45536172
37	0x40178053	2.3672073
38	0xbeee14bf	-0.46500203
39	0x3f8f5ab4	1.1199555
40	0xbfd60088	-1.6718912
41	0x3fb354a8	1.401021
42	0x3fafdf2b	1.373998
43	0xc02b48b8	-2.6763134
44	0x3ef57086	0.4793741
45	0xbeb849e3	-0.3599387
46	0x3eb601c7	0.3554823
47	0x3e146b7d	0.14494129
48	0xbc42e21c	-0.011894729
49	0xbf8d2c0d	-1.1029068
50	0x3e1b8dee	0.1519086
51	0xbfa3b523	-1.2789654
52	0x3f60f22e	0.87869537
53	0x3f25efa5	0.64818794
54	0xbec91e7c	-0.3928107
55	0x3efc16fc	0.49236286
56	0xbed4fdcc	-0.41599882
57	0xbd0dfe0d	-0.03466611
58	0xbf46a0e2	-0.7758924
59	0xbfef79ac	-1.8709006
60	0xbf001785	-0.5003589
61	0xbfbd5fc6	-1.4794853
62	0x3f103f35	0.56346446
63	0x3fdfb669	1.7477542
64	0x3deefd1e	0.11669372
65	0xbf2cc287	-0.67484325
66	0xbfb8aef1	-1.4428388
67	0x3f5bc142	0.85841763
68	0x3fd11b40	1.6336441
69	0xbf20accf	-0.62763685
70	0x3f8e27ea	1.1105931
71	0x3ec405e8	0.38285756
72	0xbe4090ce	-0.18805239
73	0x3eda0e22	0.42588907
74	0x3f1c2427	0.60992664
75	0x3f69335d	0.91094
76	0xbf6b99cb	-0.92031544
77	0x3fc7b4a8	1.5602007
78	0x3e7fdc06	0.24986276
79	0x3f20a58f	0.6275262
80	0x3f8b02e2	1.0860255
81	0x400c1aab	2.1891277
82	0x3f6984c8	0.91218233
83	0x3f85d9b2	1.045706
84	0x3ed79242	0.42103773
85	0xbf492166	-0.78566587
86	0xbf6e4a8d	-0.93082505
87	0xc0144faa	-2.3173623
88	0xbf07cd45	-0.5304759
89	0xbec35c96	-0.38156575
90	0x3eda528c	0.42641103
91	0x3f01248a	0.5044638
92	0xbf269bc3	-0.65081424
93	0xbf610a76	-0.8790659
94	0x3f904a5d	1.1272694
95	0xbfd00e1e	-1.6254308
96	0x3f545cad	0.8295391
97	0xbd5d5708	-0.054038078
98	0xbf8695e6	-1.0514495
99	0xbeea4187	-0.45753118
100	0x3f7e0744	0.99229836
101	0xbf523376	-0.82109773
102	0xbf0e5910	-0.5560465
103	0xbf946ab8	-1.1595068
104	0x3fbaa487	1.458146
105	0x3e3d7371	0.18501069
106	0x40639bcb	3.5563838
107	0xbfedfb0c	-1.8592238
108	0x3f8ec53c	1.1153941
109	0xbf7785b9	-0.9668842
110	0xbeafe45a	-0.34353906
111	0xbe97aeba	-0.29625493
112	0xbf5cd980	-0.8626938
113	0xbf172351	-0.59038264
114	0x3e8ce5f0	0.27519178
115	0xbfcc3c6c	-1.5955939
116	0xbfb11d89	-1.3837138
117	0xbf233b88	-0.6376271
118	0xbf471522	-0.7776662
119	0x3e945265	0.28969112
120	0x3fda3072	1.7046034
121	0xbfe89bad	-1.8172508
122	0xbf286857	-0.6578421
123	0xbf813385	-1.0093848
124	0x3ead69d1	0.33869794
125	0x3ded0c31	0.11574591
126	0x3d3267bd	0.043555964
127	0x3fc11ea1	1.5087472
128	0x3f8c72c0	1.0972519
129	0xbf24a62c	-0.6431606
130	0xbfad2930	-1.3528194
131	0xbe9995a8	-0.2999699
132	0xbeea4b7c	-0.45760715
133	0x3fabb698	1.3415098
134	0x3e659599	0.22420348
135	0x3ec0f7f7	0.37689182
136	0xbf2d9715	-0.6780866
137	0xbf8b10cf	-1.0864505
138	0xbf06ad66	-0.52608335
139	0x3f9fac83	1.2474521
140	0x3fc2d004	1.5219731
141	0x40032696	2.04923
142	0x3eaa986d	0.33319417
143	0x3f87121b	1.05524
144	0xbf4a5a64	-0.79044175
145	0xbda232bf	-0.07919835
146	0xbf070811	-0.52746683
147	0x3f9bcef3	1.2172531
148	0x3fc186bd	1.5119244
149	0x3f5200ca	0.82032454
150	0x3f3afebc	0.73044944
151	0xbf930260	-1.14851
152	0xbddf1c9e	-0.1089413
153	0x3fb13afd	1.3846127
154	0x3f762c33	0.9616119
155	0xbe1528a3	-0.14566283
156	0x3deb166e	0.114788875
157	0xbf8a23c7	-1.0792168
158	0x3f4145bd	0.7549704
159	0xc0000dc2	-2.0008397
160	0xbf4e0a86	-0.8048481
161	0x3ebf398e	0.37348598
162	0xbffe6936	-1.9875858
163	0xbed13c72	-0.4086643
164	0xbf109ef3	-0.5649254
165	0xbe99a109	-0.30005673
166	0xbec8a142	-0.3918553
167	0xbf050a58	-0.5196891
168	0x3e263b42	0.16233543
169	0x3ebaea6e	0.3650698
170	0xbe929095	-0.28625932
171	0x4013b0f6	2.3076758
172	0x3f893042	1.0717852
173	0xbfc4c91e	-1.5373876
174	0x3f2230e5	0.6335586
175	0x3e74c334	0.23902589
176	0x3f81f545	1.0152975
177	0x3fa53d72	1.2909377
178	0x3e9e956e	0.3097338
179	0x3ffd3097	1.9780453
180	0xbeccd07f	-0.4000282
181	0x3f91cac3	1.1390003
182	0x3fa61b74	1.2977128
183	0xbf21d9b3	-0.6322281
184	0x3fc74382	1.5567477
185	0x3fca314d	1.5796295
186	0x3f35e145	0.7104686
187	0x3f5e9708	0.86949205
188	0xbfb79c4f	-1.4344577
189	0xbfcb8fe5	-1.5903288
190	0xbe9e18f0	-0.308784
191	0xbe3c344e	-0.18379328
192	0x3d137b19	0.036006067
193	0xbdb02ac2	-0.086019054
194	0xbf07938b	-0.5295951
195	0xbfa449ee	-1.2835062
196	0xbc8c7f0b	-0.017150423
197	0xbf858f17	-1.0434293
198	0xbeb7a581	-0.35868457
199	0xbf9981fe	-1.1992795
200	0xbfa937f0	-1.3220196
201	0x3f965db7	1.174735
202	0xbe9c0f22	-0.30480295
203	0xbfd94bd2	-1.6976264
204	0x3eec05de	0.46098226
205	0xbf1f6bbf	-0.6227378
206	0x3f70c974	0.94057393
207	0xbe98002a	-0.29687625
208	0xbfed71b9	-1.855033
209	0x3be6caf2	0.007043236
210	0x3fb77caa	1.433492
211	0x3e8ffdda	0.2812336
212	0x3f9a8650	1.2072239
213	0xbfb8be38	-1.443305
214	0x3d8bb1af	0.06821
215	0x3fc19517	1.5123624
216	0xbdbf8d87	-0.09353166
217	0x3f752f50	0.9577532
218	0xbfb24683	-1.3927768
219	0xc037c342	-2.8712926
220	0xbf067900	-0.5252838
221	0xbf41c790	-0.75695133
222	0x400e184f	2.2202337
223	0xbfdaabd0	-1.7083683
224	0x3ef9c8ad	0.48785916
225	0x40047074	2.0693636
226	0x3e2b98ac	0.16757458
227	0x3f56f287	0.8396382
228	0xbf30161c	-0.68783736
229	0x3f88a896	1.0676448
230	0xbfbf317d	-1.4936978
231	0xbfa14e7f	-1.260208
232	0xbf1e5758	-0.61852026
233	0x3f8ba3bd	1.0909344
234	0x4026bfec	2.605464
235	0x3ecd8580	0.40140915
236	0xbe89d651	-0.26921323
237	0xbf1f972e	-0.62340057
238	0xbf4b6439	-0.794498
239	0x3e851e37	0.25999615
240	0xbe32a099	-0.17444076
241	0x3eb26df6	0.3484952
242	0x3fcb6fb2	1.5893462
243	0x3f0bd7aa	0.5462595
244	0xbf1e2a5f	-0.61783403
245	0x3e6c34b9	0.23066987
246	0xbe8bef01	-0.27330783
247	0x3d71e60b	0.059057277
248	0xc01cdc7d	-2.4509575
249	0x3fe46819	1.7844268
250	0xbfa59838	-1.2937078
251	0xbee464ef	-0.44608256
252	0xbf4ab880	-0.79187775
253	0x3f540b42	0.8282968
254	0xbef37374	-0.4754902
255	0x3f94aaf6	1.1614673

Q1.0.bias f4 [50, 5]
0	0x3a96b46a	0.0011497859
1	0xba31ef9d	-0.00067877193
2	0xba4f6775	-0.00079118396
3	0xb99ccff9	-0.0002990959
4	0xb83d6551	-4.515547e-05
5	0x3cf0d380	0.029397726
6	0x3cff4859	0.031162428
7	0x3d14cb47	0.036326673
8	0x3c97e29e	0.018540677
9	0x3ba28906	0.004960182
10	0xbb1ec71d	-0.0024227567
11	0xbb0badc2	-0.0021313285
12	0xbaf6756b	-0.0018803304
13	0xba441d17	-0.00074811414
14	0xb91c31f5	-0.0001489593
15	0xbb341768	-0.0027479772
16	0x397dcf0d	0.00024205093
17	0x39e687e0	0.00043970253
18	0x37ddb06d	2.6427408e-05
19	0xb949445e	-0.00019194323
20	0x3aa50b61	0.0012591892
21	0x39fa175b	0.00047701117
22	0x399d9325	0.00030055005
23	0x38df4feb	0.000106483545
24	0x37c9e131	2.406593e-05
25	0xbc1576ce	-0.0091225635
26	0xbb48fd4c	-0.0030668555
27	0xbb0a6023	-0.002111443
28	0xba47c0e4	-0.00076199905
29	0xb91470e8	-0.00014156441
30	0x3caba089	0.020950573
31	0x3c835b0b	0.016034624
32	0x3cb33878	0.021877512
33	0x3c50a296	0.012734076
34	0x3b78215c	0.003786168
35	0xbb129954	-0.0022369223
36	0xbade92ec	-0.0016981042
37	0xbac1f987	-0.0014799096
38	0xba1b59a7	-0.000592614
39	0xb8fc43df	-0.00012028938
40	0x3bec7a56	0.007216732
41	0xbaf73eb8	-0.0018863296
42	0xbb1ff0c0	-0.0024404973
43	0xba64531e	-0.0008709895
44	0xb903c81f	-0.00012567684
45	0x3c09bc83	0.008406761
46	0x3bfa193c	0.0076324027
47	0x3b9fa359	0.0048717675
48	0x3a781a1d	0.00094643404
49	0xb8cfe861	-9.913813e-05
50	0xbb6aaf68	-0.0035810117
51	0x3c122844	0.008920733
52	0x3c85fa4f	0.016354708
53	0x3c2555de	0.010091273
54	0x3b50610c	0.0031796126
55	0x39f78570	0.0004721093
56	0xba692d93	-0.0008895036
57	0xb9756b18	-0.00023404916
58	0x399d894b	0.00030047665
59	0x39445cb1	0.00018726547
60	0xbb86228d	-0.0040934742
61	0xbb47d0c1	-0.0030489417
62	0xbb2dfe79	-0.0026549383
63	0xba8d25f2	-0.0010768755
64	0xb9715ec9	-0.00023018861
65	0x00000000	0.0
66	0x00000000	0.0
67	0x00000000	0.0
68	0x00000000	0.0
69	0x00000000	0.0
70	0xbb8616cc	-0.004092073
71	0xbae2d03b	-0.0017304489
72	0xba80a3fd	-0.0009814497
73	0xb990a230	-0.0002758666
74	0xb871058c	-5.7464043e-05
75	0x3b3c072b	0.0028690796
76	0x3a0a075b	0.0005265378
77	0x3b19f250	0.0023490377
78	0x3b045b6c	0.0020196093
79	0x3a404a86	0.00073353236
80	0x3c7b72e9	0.015347221
81	0x3bd93b95	0.006629417
82	0x3c26252f	0.010140701
83	0x3bd883bc	0.006607501
84	0x3b0ae034	0.0021190764
85	0x3c615b51	0.013754682
86	0x3bd56bcf	0.006513096
87	0x3c6ecda9	0.0145754
88	0x3c2dbfd5	0.010604818
89	0x3b6cb464	0.0036118263
90	0x3c3ef543	0.011655155
91	0x3c592537	0.013253502
92	0x3c899d47	0.016798628
93	0x3c149d5a	0.009070719
94	0x3b2654e8	0.0025380198
95	0x3b3d4f92	0.002888654
96	0xbb778fc5	-0.0037774902
97	0xbb280516	-0.0025637797
98	0xb980e3f8	-0.00024583912
99	0x394a505e	0.0001929416
100	0x3ca95c0b	0.020673772
101	0x3b90be8a	0.0044172453
102	0x3c0d0204	0.008606438
103	0x3bd8c4d4	0.0066152606
104	0x3b18028e	0.0023194882
105	0x3baec4d3	0.005333522
106	0x3bccdf99	0.006252241
107	0x3bab1124	0.005220549
108	0x3aeb5633	0.0017954767
109	0x39934969	0.0002809272
110	0xba872ded	-0.001031337
111	0xb94574bf	-0.00018830875
112	0xb816bfde	-3.5941477e-05
113	0x00000000	0.0
114	0x00000000	0.0
115	0xbad1c76a	-0.0016004865
116	0xb98f5696	-0.00027339597
117	0xb75fc5f6	-1.3337927e-05
118	0x38017798	3.0867377e-05
119	0x35037192	4.896657e-07
120	0x00000000	0.0
121	0x00000000	0.0
122	0x00000000	0.0
123	0x00000000	0.0
124	0x00000000	0.0
125	0xb86fd111	-5.717675e-05
126	0x39a8c303	0.00032188752
127	0x39c90916	0.00038344477
128	0x393cd476	0.00018008225
129	0x382a0a94	4.054101e-05
130	0xbb9a8660	-0.004715726
131	0xbb93df4b	-0.0045127026
132	0xbba07f97	-0.0048980224
133	0xbb1b5167	-0.0023699643
134	0xba1b8d12	-0.0005933802
135	0x3cc324f1	0.023821326
136	0x3bdbb441	0.0067048375
137	0x3c2bfa0e	0.010496629
138	0x3befde08	0.0073201694
139	0x3b21cde3	0.0024689368
140	0x3c3827d9	0.011239969
141	0x3c410706	0.01178146
142	0x3c666676	0.0140625145
143	0x3befb216	0.0073149307
144	0x3b0241d4	0.0019875662
145	0xbb68ad73	-0.0035503774
146	0xba6a1278	-0.00089291437
147	0xba13277b	-0.0005613488
148	0xb95565e1	-0.00020351216
149	0xb83618b8	-4.3415203e-05
150	0xba15a496	-0.0005708424
151	0xbb059368	-0.002038205
152	0xbb4f0588	-0.003158899
153	0xbaf18cf9	-0.0018428854
154	0xb9e38006	-0.000433922
155	0xbae64cde	-0.0017570516
156	0xbadf23de	-0.0017024239
157	0xbad86c43	-0.0016511757
158	0xba3c6b85	-0.00071876525
159	0xb93169f2	-0.00016919503
160	0x3bdcdeb7	0.006740417
161	0xb90e8e38	-0.00013595156
162	0xbb27261c	-0.0025504893
163	0xbafb1f05	-0.0019159025
164	0xba3127dd	-0.0006757954
165	0x00000000	0.0
166	0x00000000	0.0
167	0x00000000	0.0
168	0x00000000	0.0
169	0x00000000	0.0
170	0x3d4fbee7	0.050719168
171	0x3ce90186	0.02844311
172	0x3d1414b1	0.036152545
173	0x3caaf6f6	0.020869713
174	0x3bcb1801	0.00619793
175	0xbb8872f6	-0.004164095
176	0xbb3fa32a	-0.002924154
177	0xbb1febd6	-0.0024402044
178	0xba77f4dd	-0.000945879
179	0xb93c148b	-0.0001793673
180	0xbbc2fd59	-0.0059506116
181	0xbbb9a5ce	-0.0056655174
182	0xbbada78b	-0.0052995137
183	0xbb113423	-0.002215632
184	0xb9f577b4	-0.00046819227
185	0xbaaf16ac	-0.0013358197
186	0xbb17c45b	-0.0023157808
187	0xbb230e1b	-0.0024880234
188	0xba94b881	-0.001134649
189	0xb9899320	-0.00026240293
190	0x3ca8f27c	0.020623438
191	0x3c4a3276	0.012341132
192	0x3c5dad06	0.0135300215
193	0x3be5f238	0.0070174
194	0x3afc1ad3	0.0019234068
195	0xbb2a1d5e	-0.0025957446
196	0xb981323a	-0.0002464222
197	0x397c580f	0.00024065397
198	0x393cfeff	0.0001802407
199	0x38152aa7	3.556409e-05
200	0x3b2ac053	0.0026054576
201	0x3bba2b6f	0.005681447
202	0x3bfd813c	0.007736353
203	0x3b8b6061	0.0042534326
204	0x3a9d083c	0.0011980603
205	0xba8c7a8b	-0.0010717673
206	0x3b995837	0.0046797055
207	0x3b267d56	0.0025404296
208	0xb8d6125a	-0.000102077334
209	0xb9bca519	-0.00035981162
210	0x39cc7c04	0.0003900231
211	0x39b0a236	0.00033690193
212	0x3985c000	0.00025510788
213	0x38a7fbed	8.0101054e-05
214	0x36e380a6	6.780104e-06
215	0xbb3c032e	-0.0028688419
216	0xbae8ee80	-0.0017771274
217	0xbac49eb7	-0.0015000914
218	0xba1a99cd	-0.0005897552
219	0xb8e93603	-0.00011120366
220	0xb85e562f	-5.300919e-05
221	0xb8446479	-4.6823614e-05
222	0xb82d5fce	-4.133564e-05
223	0xb78806b1	-1.621558e-05
224	0xb6312d20	-2.6401322e-06
225	0x3c1e79ac	0.0096725635
226	0x3bd793c3	0.006578894
227	0x3be44bbb	0.0069670356
228	0x3b61eb30	0.0034472458
229	0x3a6d94e0	0.00090630166
230	0x3c750247	0.014954156
231	0x3c5ae024	0.013359103
232	0x3c728861	0.014803023
233	0x3bf1699c	0.007367326
234	0x3afd7ae2	0.001933899
235	0xbb08c2a6	-0.0020867973
236	0xbb1e10f8	-0.0024119
237	0xbb2cc0f3	-0.0026360124
238	0xbaa5bca5	-0.0012644721
239	0xb9894f7b	-0.00026189894
240	0x3c8736fb	0.016505709
241	0x3c2561ae	0.010094089
242	0x3c8ef793	0.017452037
243	0x3c3d1fec	0.011543255
244	0x3b73270b	0.003710213
245	0xbbc61505	-0.006044986
246	0xbba211db	-0.004945976
247	0xbb90af8f	-0.0044154595
248	0xbaeb6342	-0.0017958658
249	0xb9c227a2	-0.00037032092
