CausalCVR/logs/news/eval/1/Vcnet_ckpt.pth.tar (torch, 221685 bytes, 18 tensors)

feature_weight.weight f4 [50, 498]
-5.4938744e-05 0.014020076 0.002288632 0.0062022875 -0.007556673 -0.009545528 0.015550169 0.01029221
0.015189667 0.012461525 -0.01089527 -0.0019002907 0.0058161016 0.011082403 0.0015895934 -0.008221853
0.010913604 0.0071282447 -0.0010740077 0.013235944 0.0006568228 -0.0035812524 0.011113894 0.001092804
-0.002981929 -0.00888442 0.0091582965 0.0013331139 -0.01584414 -0.008996477 0.0010592422 -0.004543354
0.0010827201 0.014112787 0.013533323 -0.011033742 -0.01077438 0.0033883983 0.008570016 -0.0057886024
-0.0052282196 -0.008726112 0.00433979 -0.006415882 -0.020945545 -0.0030851092 -0.009865139 -0.0014319266
0.006162682 -0.010381355 -0.0045215255 -0.0014561685 -0.008816075 0.002502853 0.0072868895 0.014010564
0.006987736 0.008913286 0.013476587 0.010924752 -0.009490317 -0.0042004124 -0.007939265 -0.008852368
0.0037107538 0.0045540924 0.005092178 -0.011703594 -0.0004947624 0.01906829 0.00028903453 0.014999088
-0.0011018761 0.009230894 0.00059105403 0.0042810626 0.008352629 -0.0018317108 0.010313581 0.005234684
0.0098201 -0.0092297625 -0.016390132 -0.00040979468 -0.009079021 0.004808739 -0.004283587 0.011778305
0.0009599588 0.0011086987 0.006557294 0.0018687806 0.0020960104 -0.00054662314 0.006418583 -0.0061942036
0.0012474704 0.007387612 -0.006520469 -0.0006721402 0.0070838984 -0.0013917189 0.0028201896 -0.00067629945
-0.009700804 -0.0037794742 -0.019331269 -0.0016310494 0.012267221 -0.008435426 -0.01092223 -0.014854486
-0.008594474 -0.010133438 -0.013937936 -0.0031881288 -0.008457773 -0.0023251874 0.0018323328 -0.008228409
0.0054324297 0.0035051946 -0.009598232 -0.011851973 0.005206067 0.006151573 -0.0006169824 -0.00224933
-0.011855856 0.018253079 -0.010558119 -0.007085435 0.004997045 0.0021253002 -0.005580409 0.010107799
-0.003928959 0.0007600083 -0.0040359697 0.010772389 0.005435171 0.013111978 -0.0070625218 0.00064173114
0.010575953 -0.0061621997 0.006401731 0.00462433 0.009668667 0.011965969 0.011151493 0.004232359
-0.005272502 -0.0011667381 -0.013579323 -0.0012958737 -0.0038873064 -0.0012493525 0.0007509126 0.016766403
0.010860347 -0.0013504038 0.011416144 0.0035774685 -0.0050385967 -0.00090480724 0.016772745 -0.0034978834
0.016680742 0.009879574 -0.014445938 0.0082931295 -0.011225127 0.0045092185 -0.016920207 0.011946481
0.003016187 -0.001465472 0.006014078 -0.00439834 0.0039584693 -0.00120582 -0.01131994 0.001006858
0.0070447116 -0.005375992 -0.0013392746 0.005542768 0.002093398 -0.0046964935 -0.010118608 -0.007648824
-0.0096192295 0.008479637 -0.011753648 0.006950091 -0.02901834 -0.011849956 0.0043871403 0.002476928
-0.010085814 0.0030711512 0.0043745423 0.006355939 0.0128756305 0.0029563745 0.010821242 -0.0075057815
-0.0075611607 -0.0043819156 0.014747841 0.0053826 0.008269239 0.0037163303 0.009318033 -0.010605323
-0.009348248 0.00689036 -0.0067785084 -0.0013396047 0.0043624593 4.5853427e-05 -0.0051791635 0.0023586373
0.0014963377 0.0067442185 -0.01096963 0.009396185 -0.006163522 0.0027449427 0.002158137 0.008764121
-0.0007550551 -0.009695443 -0.004426429 0.014417718 0.011071986 0.0058641424 0.0077955783 -0.005327715
-0.009693842 -0.011634034 -0.004597422 -0.015453581 0.008030458 0.0005059883 -0.016134314 0.011961186
0.010940836 0.0022988296 -0.0008381631 -0.003245657 0.009607735 0.0019437382 -0.0055756527 -0.0015225607
00000000: 076e 66b8 76b4 653c e0fc 153b 8f3c cb3b
00000010: f89d f7bb d964 1cbc 23c6 7e3c a8a0 283c
00000020: 15de 783c 6d2b 4c3c 1382 32bc 2d13 f9ba
00000030: ff94 be3b f892 353c e759 d03a f3b4 06bc
00000040: f9ce 323c 0d94 e93b b8c5 8cba 93db 583c
00000050: a22e 2c3a 72b3 6abb 0d17 363c 6b3c 8f3a
00000060: 786c 43bb f58f 11bc ae0c 163c e1bb ae3a
00000070: 92cb 81bc f665 13bc 45d6 8a3a 6ae0 94bb
00000080: 0fea 8d3a 5239 673c dfba 5d3c dec6 34bc
00000090: 0687 30bc e40f 5e3b 4169 0c3c 51ae bdbb
000000a0: 7c51 abbb f7f7 0ebc cc34 8e3b 523c d2bb
000000b0: fe95 abbc 8b2f 4abb 64a1 21bc 7caf bbba
000000c0: 53f0 c93b 8f16 2abc 4e29 94bb e8dc beba
000000d0: 4c71 10bc e806 243b dcc6 ee3b 918c 653c
000000e0: 61f9 e43b 0809 123c e7cc 5c3c bbfd 323c
000000f0: 467d 1bbc 9da3 89bb b113 02bc 8609 11bc
00000100: 1e30 733b 7f3a 953b 49dc a63b 6ec0 3fbc
00000110: f1b2 01ba 1a35 9c3c 8f89 9739 bcbe 753c
00000120: d46c 90ba 2d3d 173c f7f0 1a3a 2848 8c3b
00000130: 77d9 083c 0416 f0ba 4bfa 283c b687 ab3b
00000140: 7ce4 203c 6e38 17bc 9944 86bc b6d9 d6b9
00000150: 2dc0 14bc a092 9d3b 555d 8cbb cbf9 403c
00000160: bfa5 7b3a c151 913a 92de d63b dff1 f43a
00000170: 385d 093b 424b 0fba fa52 d23b bff8 cabb
00000180: 2982 a33a c813 f23b a9a9 d5bb 9132 30ba
00000190: 0c20 e83b 566a b6ba eed2 383b b049 31ba
000001a0: 1ff0 1ebc 0eb1 77bb 9c5c 9ebc f0c8 d5ba
000001b0: 74fc 483c be34 0abc 27f3 32bc 3b60 73bc
000001c0: d6cf 0cbc b806 26bc f15b 64bc edef 50bb
000001d0: 7992 0abc 2c62 18bb e32a f03a 73d0 06bc
000001e0: 8602 b23b 68b7 653b e741 1dbc c72e 42bc
000001f0: a897 aa3b 2293 c93b fdbc 21ba 7f69 13bb
00000200: 103f 42bc 7b87 953c f6fb 2cbc f02c e8bb
00000210: 40be a33b 9f48 0b3b dddb b6bb 2f9b 253c
00000220: 7fbe 80bb 4b3b 473a 2b40 84bb ad7e 303c
00000230: 8519 b23b 9fd3 563c ba6c e7bb d939 283a
00000240: c346 2d3c 47ec c9bb 9dc5 d13b b187 973b
00000250: 5469 1e3c e90c 443c c0b4 363c 9aaf 8a3b
00000260: f4c4 acbb 3ced 98ba cf7b 5ebc 4eda a9ba
00000270: 2ec2 7ebb 50c1 a3ba e4d8 443a b259 893c
00000280: 99ef 313c 0800 b1ba c70a 3b3c f673 6a3b
00000290: d01a a5bb 9630 6dba ff66 893c bf3c 65bb
000002a0: 0da6 883c f0dd 213c a8ae 6cbc e8df 073c
000002b0: 98e9 37bc 11c2 933b 3f9c 8abc 2cbb 433c
000002c0: 39ab 453b 1515 c0ba be11 c53b f31f 90bb
000002d0: 0cb6 813b 9b0c 9eba 4577 39bc 8cf8 833a
000002e0: 53d7 e63b 1729 b0bb 998a afba 1ca0 b53b
000002f0: 6431 093b 0be5 99bb 85c8 25bc fca2 fabb
00000300: f999 1dbc 2dee 0a3c 5f92 40bc 97bd e33b
00000310: dfb7 edbc 5126 42bc 00c2 8f3b f553 223b
00000320: f83e 25bc 5e45 493b 5258 8f3b 7b45 d03b
00000330: 4ff4 523c bcbf 413b 944b 313c 0ff3 f5bb
00000340: 9dc3 f7bb 2c96 8fbb eea0 713c 8560 b03b
00000350: b47b 073c ad8d 733b aaaa 183c f3c1 2dbc
00000360: 6529 19bc 87c8 e13b 401e debb ad95 afba
00000370: f6f2 8e3b be52 4038 f9b5 a9bb 5e93 1a3b
00000380: c320 c43a 9bfe dc3b f7b9 33bc 75f2 193c
00000390: 5ff7 c9bb 7fe4 333b 886f 0d3b 6397 0f3c
000003a0: e4ee 45ba a3d9 1ebc 940b 91bb 4b38 6c3c
000003b0: 4667 353c fe27 c03b 0d72 ff3b 1d94 aebb
000003c0: ecd2 1ebc ad9c 3ebc f9a5 96bb 0431 7dbc
000003d0: 2f92 033c 4da4 043a 1c2c 84bc daf8 433c
000003e0: 3141 333c f6a7 163b 2cb8 5bba 17b5 54bb
000003f0: c369 1d3c 08c5 fe3a f7b3 b6bb a990 c7ba

feature_weight.bias f4 [50]
-0.0025317397 0.015437071 0.0029959125 -0.000801034 0.008845201 -0.0046949345 0.011096525 0.00015308158
0.008756658 0.015087447 0.03251878 0.017362503 0.040891096 -0.004505185 0.0006170196 -0.008363186
0.0054840846 0.0012015663 0.0037051775 0.012107543 -0.0037391477 0.0049924385 0.0077209957 0.009795247
-0.0074216505 0.0093086595 0.015117113 0.0005816654 0.007969816 0.01825703 0.010414715 0.011743115
0.024088778 0.005232607 0.009057821 0.007571191 -0.0027200275 0.0005167122 0.017850852 0.001634537
0.021883562 0.022989921 0.0039014 -0.0038906422 0.029722953 0.015996672 -0.016405607 -0.002388054
-0.0022973293 0.004949912
00000000: 8beb 25bb c5eb 7c3c 1257 443b 7bfc 51ba
00000010: 76eb 103c f7d7 99bb 33ce 353c 8684 2039
00000020: 1678 0f3c 5731 773c 6a32 053d cf3b 8e3c
00000030: 6c7d 273d 3ba0 93bb 7cbf 213a bf05 09bc
00000040: d6b3 b33b e07d 9d3a 90d2 723b b75e 463c
00000050: 7d0c 75bb 9c97 a33b 6800 fd3b 3e7c 203c
00000060: 5131 f3bb 5983 183c c4ad 773c e77a 183a
00000070: d593 023c c48f 953c 7ba2 2a3c 3266 403c
00000080: d455 c53c 4a76 ab3b 4167 143c c117 f83b
00000090: 7d42 32bb f873 073a f33b 923c f63d d63a
000000a0: 2845 b33c 5c55 bc3c a1ae 7f3b 25fa 7ebb
000000b0: 8d7d f33c 740b 833c 0d65 86bc e680 1cbb
000000c0: ca8e 16bb df32 a23b

hidden_features.0.weight f4 [50, 498]
-5.4938744e-05 0.014020076 0.002288632 0.0062022875 -0.007556673 -0.009545528 0.015550169 0.01029221
0.015189667 0.012461525 -0.01089527 -0.0019002907 0.0058161016 0.011082403 0.0015895934 -0.008221853
0.010913604 0.0071282447 -0.0010740077 0.013235944 0.0006568228 -0.0035812524 0.011113894 0.001092804
-0.002981929 -0.00888442 0.0091582965 0.0013331139 -0.01584414 -0.008996477 0.0010592422 -0.004543354
0.0010827201 0.014112787 0.013533323 -0.011033742 -0.01077438 0.0033883983 0.008570016 -0.0057886024
-0.0052282196 -0.008726112 0.00433979 -0.006415882 -0.020945545 -0.0030851092 -0.009865139 -0.0014319266
0.006162682 -0.010381355 -0.0045215255 -0.0014561685 -0.008816075 0.002502853 0.0072868895 0.014010564
0.006987736 0.008913286 0.013476587 0.010924752 -0.009490317 -0.0042004124 -0.007939265 -0.008852368
0.0037107538 0.0045540924 0.005092178 -0.011703594 -0.0004947624 0.01906829 0.00028903453 0.014999088
-0.0011018761 0.009230894 0.00059105403 0.0042810626 0.008352629 -0.0018317108 0.010313581 0.005234684
0.0098201 -0.0092297625 -0.016390132 -0.00040979468 -0.009079021 0.004808739 -0.004283587 0.011778305
0.0009599588 0.0011086987 0.006557294 0.0018687806 0.0020960104 -0.00054662314 0.006418583 -0.0061942036
0.0012474704 0.007387612 -0.006520469 -0.0006721402 0.0070838984 -0.0013917189 0.0028201896 -0.00067629945
-0.009700804 -0.0037794742 -0.019331269 -0.0016310494 0.012267221 -0.008435426 -0.01092223 -0.014854486
-0.008594474 -0.010133438 -0.013937936 -0.0031881288 -0.008457773 -0.0023251874 0.0018323328 -0.008228409
0.0054324297 0.0035051946 -0.009598232 -0.011851973 0.005206067 0.006151573 -0.0006169824 -0.00224933
-0.011855856 0.018253079 -0.010558119 -0.007085435 0.004997045 0.0021253002 -0.005580409 0.010107799
-0.003928959 0.0007600083 -0.0040359697 0.010772389 0.005435171 0.013111978 -0.0070625218 0.00064173114
0.010575953 -0.0061621997 0.006401731 0.00462433 0.009668667 0.011965969 0.011151493 0.004232359
-0.005272502 -0.0011667381 -0.013579323 -0.0012958737 -0.0038873064 -0.0012493525 0.0007509126 0.016766403
0.010860347 -0.0013504038 0.011416144 0.0035774685 -0.0050385967 -0.00090480724 0.016772745 -0.0034978834
0.016680742 0.009879574 -0.014445938 0.0082931295 -0.011225127 0.0045092185 -0.016920207 0.011946481
0.003016187 -0.001465472 0.006014078 -0.00439834 0.0039584693 -0.00120582 -0.01131994 0.001006858
0.0070447116 -0.005375992 -0.0013392746 0.005542768 0.002093398 -0.0046964935 -0.010118608 -0.007648824
-0.0096192295 0.008479637 -0.011753648 0.006950091 -0.02901834 -0.011849956 0.0043871403 0.002476928
-0.010085814 0.0030711512 0.0043745423 0.006355939 0.0128756305 0.0029563745 0.010821242 -0.0075057815
-0.0075611607 -0.0043819156 0.014747841 0.0053826 0.008269239 0.0037163303 0.009318033 -0.010605323
-0.009348248 0.00689036 -0.0067785084 -0.0013396047 0.0043624593 4.5853427e-05 -0.0051791635 0.0023586373
0.0014963377 0.0067442185 -0.01096963 0.009396185 -0.006163522 0.0027449427 0.002158137 0.008764121
-0.0007550551 -0.009695443 -0.004426429 0.014417718 0.011071986 0.0058641424 0.0077955783 -0.005327715
-0.009693842 -0.011634034 -0.004597422 -0.015453581 0.008030458 0.0005059883 -0.016134314 0.011961186
0.010940836 0.0022988296 -0.0008381631 -0.003245657 0.009607735 0.0019437382 -0.0055756527 -0.0015225607
00000000: 076e 66b8 76b4 653c e0fc 153b 8f3c cb3b
00000010: f89d f7bb d964 1cbc 23c6 7e3c a8a0 283c
00000020: 15de 783c 6d2b 4c3c 1382 32bc 2d13 f9ba
00000030: ff94 be3b f892 353c e759 d03a f3b4 06bc
00000040: f9ce 323c 0d94 e93b b8c5 8cba 93db 583c
00000050: a22e 2c3a 72b3 6abb 0d17 363c 6b3c 8f3a
00000060: 786c 43bb f58f 11bc ae0c 163c e1bb ae3a
00000070: 92cb 81bc f665 13bc 45d6 8a3a 6ae0 94bb
00000080: 0fea 8d3a 5239 673c dfba 5d3c dec6 34bc
00000090: 0687 30bc e40f 5e3b 4169 0c3c 51ae bdbb
000000a0: 7c51 abbb f7f7 0ebc cc34 8e3b 523c d2bb
000000b0: fe95 abbc 8b2f 4abb 64a1 21bc 7caf bbba
000000c0: 53f0 c93b 8f16 2abc 4e29 94bb e8dc beba
000000d0: 4c71 10bc e806 243b dcc6 ee3b 918c 653c
000000e0: 61f9 e43b 0809 123c e7cc 5c3c bbfd 323c
000000f0: 467d 1bbc 9da3 89bb b113 02bc 8609 11bc
00000100: 1e30 733b 7f3a 953b 49dc a63b 6ec0 3fbc
00000110: f1b2 01ba 1a35 9c3c 8f89 9739 bcbe 753c
00000120: d46c 90ba 2d3d 173c f7f0 1a3a 2848 8c3b
00000130: 77d9 083c 0416 f0ba 4bfa 283c b687 ab3b
00000140: 7ce4 203c 6e38 17bc 9944 86bc b6d9 d6b9
00000150: 2dc0 14bc a092 9d3b 555d 8cbb cbf9 403c
00000160: bfa5 7b3a c151 913a 92de d63b dff1 f43a
00000170: 385d 093b 424b 0fba fa52 d23b bff8 cabb
00000180: 2982 a33a c813 f23b a9a9 d5bb 9132 30ba
00000190: 0c20 e83b 566a b6ba eed2 383b b049 31ba
000001a0: 1ff0 1ebc 0eb1 77bb 9c5c 9ebc f0c8 d5ba
000001b0: 74fc 483c be34 0abc 27f3 32bc 3b60 73bc
000001c0: d6cf 0cbc b806 26bc f15b 64bc edef 50bb
000001d0: 7992 0abc 2c62 18bb e32a f03a 73d0 06bc
000001e0: 8602 b23b 68b7 653b e741 1dbc c72e 42bc
000001f0: a897 aa3b 2293 c93b fdbc 21ba 7f69 13bb
00000200: 103f 42bc 7b87 953c f6fb 2cbc f02c e8bb
00000210: 40be a33b 9f48 0b3b dddb b6bb 2f9b 253c
00000220: 7fbe 80bb 4b3b 473a 2b40 84bb ad7e 303c
00000230: 8519 b23b 9fd3 563c ba6c e7bb d939 283a
00000240: c346 2d3c 47ec c9bb 9dc5 d13b b187 973b
00000250: 5469 1e3c e90c 443c c0b4 363c 9aaf 8a3b
00000260: f4c4 acbb 3ced 98ba cf7b 5ebc 4eda a9ba
00000270: 2ec2 7ebb 50c1 a3ba e4d8 443a b259 893c
00000280: 99ef 313c 0800 b1ba c70a 3b3c f673 6a3b
00000290: d01a a5bb 9630 6dba ff66 893c bf3c 65bb
000002a0: 0da6 883c f0dd 213c a8ae 6cbc e8df 073c
000002b0: 98e9 37bc 11c2 933b 3f9c 8abc 2cbb 433c
000002c0: 39ab 453b 1515 c0ba be11 c53b f31f 90bb
000002d0: 0cb6 813b 9b0c 9eba 4577 39bc 8cf8 833a
000002e0: 53d7 e63b 1729 b0bb 998a afba 1ca0 b53b
000002f0: 6431 093b 0be5 99bb 85c8 25bc fca2 fabb
00000300: f999 1dbc 2dee 0a3c 5f92 40bc 97bd e33b
00000310: dfb7 edbc 5126 42bc 00c2 8f3b f553 223b
00000320: f83e 25bc 5e45 493b 5258 8f3b 7b45 d03b
00000330: 4ff4 523c bcbf 413b 944b 313c 0ff3 f5bb
00000340: 9dc3 f7bb 2c96 8fbb eea0 713c 8560 b03b
00000350: b47b 073c ad8d 733b aaaa 183c f3c1 2dbc
00000360: 6529 19bc 87c8 e13b 401e debb ad95 afba
00000370: f6f2 8e3b be52 4038 f9b5 a9bb 5e93 1a3b
00000380: c320 c43a 9bfe dc3b f7b9 33bc 75f2 193c
00000390: 5ff7 c9bb 7fe4 333b 886f 0d3b 6397 0f3c
000003a0: e4ee 45ba a3d9 1ebc 940b 91bb 4b38 6c3c
000003b0: 4667 353c fe27 c03b 0d72 ff3b 1d94 aebb
000003c0: ecd2 1ebc ad9c 3ebc f9a5 96bb 0431 7dbc
000003d0: 2f92 033c 4da4 043a 1c2c 84bc daf8 433c
000003e0: 3141 333c f6a7 163b 2cb8 5bba 17b5 54bb
000003f0: c369 1d3c 08c5 fe3a f7b3 b6bb a990 c7ba

hidden_features.0.bias f4 [50]
-0.0025317397 0.015437071 0.0029959125 -0.000801034 0.008845201 -0.0046949345 0.011096525 0.00015308158
0.008756658 0.015087447 0.03251878 0.017362503 0.040891096 -0.004505185 0.0006170196 -0.008363186
0.0054840846 0.0012015663 0.0037051775 0.012107543 -0.0037391477 0.0049924385 0.0077209957 0.009795247
-0.0074216505 0.0093086595 0.015117113 0.0005816654 0.007969816 0.01825703 0.010414715 0.011743115
0.024088778 0.005232607 0.009057821 0.007571191 -0.0027200275 0.0005167122 0.017850852 0.001634537
0.021883562 0.022989921 0.0039014 -0.0038906422 0.029722953 0.015996672 -0.016405607 -0.002388054
-0.0022973293 0.004949912
00000000: 8beb 25bb c5eb 7c3c 1257 443b 7bfc 51ba
00000010: 76eb 103c f7d7 99bb 33ce 353c 8684 2039
00000020: 1678 0f3c 5731 773c 6a32 053d cf3b 8e3c
00000030: 6c7d 273d 3ba0 93bb 7cbf 213a bf05 09bc
00000040: d6b3 b33b e07d 9d3a 90d2 723b b75e 463c
00000050: 7d0c 75bb 9c97 a33b 6800 fd3b 3e7c 203c
00000060: 5131 f3bb 5983 183c c4ad 773c e77a 183a
00000070: d593 023c c48f 953c 7ba2 2a3c 3266 403c
00000080: d455 c53c 4a76 ab3b 4167 143c c117 f83b
00000090: 7d42 32bb f873 073a f33b 923c f63d d63a
000000a0: 2845 b33c 5c55 bc3c a1ae 7f3b 25fa 7ebb
000000b0: 8d7d f33c 740b 833c 0d65 86bc e680 1cbb
000000c0: ca8e 16bb df32 a23b

hidden_features.2.weight f4 [50, 50]
0.0055906516 -0.0026820078 0.00015993377 -0.00025903678 0.013167922 -0.0076064356 -0.0148943495 -0.0031976828
-0.0019120916 0.011814359 -0.0075231777 0.00051498914 -0.0007038172 -0.00461453 -0.008161347 0.0118119065
-0.00064006937 -0.004338517 0.009488715 0.0073884362 0.0055341553 -0.007686278 -0.0035326178 0.018441478
-0.0077341557 -0.0041872226 -0.001901569 0.0030663088 -0.0039996677 0.013423326 -0.010173084 -0.01221817
0.004601661 0.0038867528 0.008157737 -0.0012281884 0.0032951683 -0.0043003187 0.00077816186 0.019595083
-0.00043093963 0.021242037 -0.008243351 0.0036156212 0.008994146 -0.00017004395 0.02809913 -0.013076036
0.001907691 -0.012507918 -0.011773552 -0.021337844 0.01705275 -0.010124488 0.005897829 -0.0042404565
-0.009707369 0.017979398 0.00055829005 0.010580144 -0.002378749 -0.00296087 -0.018208316 -0.007696808
-0.00045918545 -0.008675957 -0.016753389 -0.009098817 0.017992467 -0.0021872262 -0.012874566 0.026486514
-0.0030237138 0.029738743 0.0012308196 0.0056729894 -0.006599832 -0.0068116975 0.021188397 -0.026995754
-0.0061317715 0.0033187442 -0.017548794 -0.007850268 -0.0022191016 0.0021399385 0.02076909 0.0131473085
-0.01594072 0.017274098 -0.029862713 0.02706708 0.011277109 -0.0011530218 0.009129331 0.015974948
0.029914582 -0.002864862 0.019281583 -0.036622487 -0.0008675629 0.008095722 0.0005676633 -0.017296227
-0.0043890346 0.0055449684 0.011759497 -0.0009379258 0.015996328 0.0029288917 -0.017136877 0.004680048
0.0022469792 -0.008781544 -0.0179219 -0.0130379265 -0.0050562546 -0.009629476 0.0045391475 0.0094110845
-0.009192885 -0.015278055 0.007757292 -0.010765579 0.0091436645 -0.0018045716 0.017388657 -0.00971839
-0.007900914 0.019469824 0.015963132 -0.0027844678 0.010069688 -0.0066998173 -0.013288036 0.010072703
-0.0035695145 0.015649596 0.004417521 0.004372669 -0.00281489 0.004676715 -0.01143377 0.00071473286
0.0037591762 -0.00620644 -0.0025743127 -0.0016025179 0.0013032067 0.0048652114 -0.0031405247 0.006408931
0.0050634495 0.005275911 0.010026851 0.0066992757 -0.0123465955 -0.002989769 -0.006021702 0.017575467
0.000657534 -0.0071106926 -0.019844996 -0.0020752181 0.0015781679 0.0236226 -0.0063265366 0.0052235657
0.0067293956 0.0022049984 0.0020088993 0.0088252295 -0.0016145917 0.0021210695 0.022444235 -0.008648889
-0.010075531 0.0064156605 0.008600715 -0.0042800284 -0.0033875206 0.008701577 0.013301325 0.0124704605
0.0011517003 -0.0047568385 0.001443767 -0.008040384 0.0015622715 -0.007847889 0.0061944723 0.013548821
0.0056594294 -0.010041986 0.008354347 -0.011549386 0.0059018834 -0.0037364645 -0.0033588095 -0.004984259
0.0040931753 0.008261442 0.0028644295 -0.0051500434 0.003408367 0.011089505 -0.016700726 0.0051896586
-0.0017174598 -0.013144127 0.019387176 -0.009703422 -0.0034046797 0.0010909762 -0.004153542 -0.0016199523
0.0122716585 0.007417564 -0.007241701 -0.0043234834 0.005750503 0.0061518094 -0.0012531056 -0.009472609
0.001058251 0.00786967 -0.0023620997 -0.0012088566 -0.0036743074 -0.0036311736 0.0040643984 0.0035292509
0.00879688 -0.011937747 0.008491617 0.011099879 -0.0079241535 0.006656032 -0.00979916 -0.0083680535
0.010741468 0.0007844752 -0.016696433 -0.002780352 0.010108807 -0.0055221813 -0.005949068 -0.00588867
0.002445434 -0.0026589618 0.0053682937 0.045155298 -0.07815162 0.050968412 -0.01573426 0.017816966
00000000: c931 b73b a0c4 2fbb e5b3 2739 54cf 87b9
00000010: 45be 573c 683f f9bb 6e07 74bc 3790 51bb
00000020: 269f faba 0391 413c fd84 f6bb 5600 073a
00000030: 5f80 38ba 7c35 97bb 2cb7 05bc ba86 413c
00000040: 54ca 27ba 1e2a 8ebb 8e76 1b3c b21a f23b
00000050: dc57 b53b 2cdd fbbb 7e83 67bb 9512 973c
00000060: cd6e fdbb f834 89bb 113e f9ba 20f4 483b
00000070: a50f 83bb 83ed 5b3c 02ad 26bc b82e 48bc
00000080: 88c9 963b e4b8 7e3b 07a8 053c 2afb a0ba
00000090: c0f3 573b b0e9 8cbb 8ffd 4b3a de85 a03c
000000a0: bdef e1b9 c803 ae3c 1f0f 07bc 0ff4 6c3b
000000b0: 2f5c 133c d34d 32b9 2630 e63c df3c 56bc
000000c0: 7d0b fa3a 03ee 4cbc dbe5 40bc b4cc aebc
000000d0: 35b2 8b3c 2ee1 25bc 9342 c13b 87f3 8abb
000000e0: a80b 1fbc 8849 933c 365a 123a 5758 2d3c
000000f0: c9e4 1bbb 280b 42bb 9b29 95bc 8135 fcbb
00000100: d4be f0b9 9a25 0ebc 673e 89bc 3413 15bc
00000110: f064 933c 9157 0fbb d8ef 52bc 3ffa d83c
00000120: 8029 46bb aa9e f33c 7453 a13a 7ce4 b93b
00000130: 6743 d8bb a934 dfbb 4a93 ad3c 3326 ddbc
00000140: 07ed c8bb 4a7f 593b 7dc2 8fbc 699e 00bc
00000150: 596e 11bb 363e 0c3b f023 aa3c cf67 573c
00000160: 1d96 82bc 6982 8d3c a6a2 f4bc c8bb dd3c
00000170: a0c3 383c fe20 97ba 3193 153c e5dd 823c
00000180: 6d0f f53c 69c0 3bbb 69f4 9d3c 7601 16bd
00000190: 296d 63ba eba3 043c 3dcf 143a d1b0 8dbc
000001a0: e4d1 8fbb 91b2 b53b e8aa 403c 23df 75ba
000001b0: bb0a 833c a6f2 3f3b a362 8cbc 175b 993b
000001c0: 0e42 133b 77e0 0fbc f3d0 92bc 079d 55bc
000001d0: f0ae a5bb f3c4 1dbc 21bd 943b f330 1a3c
000001e0: c19d 16bc cf50 7abc e230 fe3b 1c62 30bc
000001f0: 4fcf 153c 6087 ecba a872 8e3c e239 1fbc
00000200: d672 01bc 2e7f 9f3c 1dc5 823c 9e7b 36bb
00000210: 55fb 243c 248a dbbb 10b6 59bc fa07 253c
00000220: 84ee 69bb 9533 803c dac0 903b 9b48 8f3b
00000230: 047a 38bb 213f 993b b554 3bbc e95c 3b3a
00000240: 835c 763b 645f cbbb cdb5 28bb 940b d2ba
00000250: 5cd0 aa3a 5a6c 9f3b 43d1 4dbb 0302 d23b
00000260: 4beb a53b 8de1 ac3b a947 243c 9985 db3b
00000270: 6049 4abc 00f0 43bb b351 c5bb 6dfa 8f3c
00000280: 5c5e 2c3a d000 e9bb f991 a2bc 6200 08bb
00000290: 87da ce3a 2f84 c13c d64e cfbb 722a ab3b
000002a0: 4382 dc3b bc81 103b bda7 033b b297 103c
000002b0: b5a0 d3ba a401 0b3b f9dc b73c 12b4 0dbc
000002c0: d713 25bc 763a d23b 03ea 0c3c 7b3f 8cbb
000002d0: 2a01 5ebb 0f91 0e3c cded 593c e750 4c3c
000002e0: a6f4 963a 41df 9bbb c83c bd3a d1bb 03bc
000002f0: 22c5 cc3a 6f94 00bc 00fb ca3b e0fb 5d3c
00000300: bc72 b93b 2487 24bc ace0 083c a339 3dbc
00000310: 9664 c13b 79df 74bb 791f 5cbb ff52 a3bb
00000320: 0b20 863b 005b 073c 27b9 3b3b b2c1 a8bb
00000330: e95e 5f3b c1b0 353c f6cf 88bc 030e aa3b
00000340: 631c e1ba 775a 57bc dbd1 9e3c 1afb 1ebc
00000350: 0c21 5fbb 16ff 8e3a 701a 88bb 9454 d4ba
00000360: 110f 493c 090f f33b ca4b edbb 02ac 8dbb
00000370: b76e bc3b 1e95 c93b 3f3f a4ba 0033 1bbc
00000380: 03b5 8a3a caef 003c 75cd 1abb 7f72 9eba
00000390: a6cc 70bb fcf8 6dbb a52e 853b 014b 673b
000003a0: ca20 103c 8a96 43bc 6c20 0b3c 44dc 353c
000003b0: 4fd4 01bc d81a da3b a88c 20bc 291a 09bc
000003c0: fbfc 2f3c 3da5 4d3a f5c6 88bc 9136 36bb
000003d0: 699f 253c 6af3 b4bb 66f0 c2bb bff5 c0bb
000003e0: 9343 203b fa41 2ebb 83e8 af3b c3f4 383d
000003f0: f50d a0bd 41c4 503d 23e5 80bc e3f4 913c

hidden_features.2.bias f4 [50]
-0.0036994475 0.12018435 -0.005892645 -0.010832896 -0.005059126 0.05325761 0.02130636 0.042284843
-0.0038826554 0.094756216 0.04981401 -0.0050105867 0.043867294 0.04907753 0.036232263 0.098108634
-0.0012877351 0.0566054 0.0107698925 0.02407537 0.022094369 0.07859 -0.0046093343 0.013297851
-0.008877533 -0.0019485506 0.0022974804 0.044486914 -0.005094922 0.09015563 0.04404496 -0.0054087504
0.071325995 -0.006085388 0.029729242 0.0067196046 -0.0061937696 0.006152572 0.018095871 -0.0051503987
-0.0037774227 0.06948572 -0.0026766972 0.04339605 0.031329233 -0.005259523 0.025276545 0.017947813
-0.006775731 -0.008522628
00000000: 6e72 72bb 3623 f63d 1717 c1bb 767c 31bc
00000010: 06c7 a5bb a724 5a3d ad8a ae3c df32 2d3d
00000020: 2674 7ebb 8c0f c23d c609 4c3d d92f a4bb
00000030: 31ae 333d 8505 493d 4868 143d 2eed c83d
00000040: 38c9 a8ba 10db 673d 3474 303c b639 c53c
00000050: 40ff b43c cbf3 a03d e609 97bb 3bdf 593c
00000060: 1273 11bc 8266 ffba 5391 163b e937 363d
00000070: 4ef3 a6bb 84a3 b83d 7d68 343d e33b b1bb
00000080: 5d13 923d ef67 c7bb bd8a f33c 2130 dc3b
00000090: 1bf5 cabb 849b c93b cb3d 943c adc4 a8bb
000000a0: a38e 77bb 874e 8e3d 876b 2fbb 0ec0 313d
000000b0: 1553 003d 1458 acbb c210 cf3c 4b07 933c
000000c0: f406 debb 7ea2 0bbc

density_estimator_head.weight f4 [50, 11]
-0.01723994 0.003390865 0.0065092323 -0.0057384833 -0.0057277866 0.015195653 -0.0006831527 0.001473543
-0.006432007 0.010186273 0.0014113885 -0.024716498 0.0061054872 0.005361415 -0.011480089 0.00075327966
-0.0057643955 -0.016728502 -0.007919552 -0.0062086745 -0.0011574711 0.016093794 -0.007248582 -0.0032877938
0.0015024593 -0.004874717 0.011924345 0.0041414485 -0.0027171392 0.00054781523 -0.0013634153 0.008580124
-0.0061799143 -0.0065717897 -0.0017223898 -0.008789467 0.015864117 0.0029271035 0.0030521918 0.00723258
0.004937217 -0.012992122 -0.0013276571 -0.006288135 -0.0012381133 -0.0052231015 -0.0016049983 0.014662554
-0.007724752 -0.009438589 -0.0233234 -0.0025493195 -0.022629373 -0.005042384 0.0026441275 0.0025000204
-0.0057650856 0.008877143 0.0026463408 0.012863064 0.009646924 -0.004692984 0.0068824654 0.0026737922
-0.0053047566 0.0016281497 -0.017951412 -0.0016784143 -0.0114024235 0.00027576528 0.0048717097 0.0019062242
-0.002755966 0.003947089 0.005495258 0.016440783 0.0053266035 0.004814106 0.012083508 0.01802421
0.005623656 -0.00016853925 0.008534764 -0.00012569672 0.0050421203 0.012426609 0.011010587 0.007657362
-0.01570789 -0.0053669573 0.0076301144 0.009795014 -0.014059812 -0.008048943 -0.0056376834 0.0074908133
-0.007280795 0.01573786 0.0027207762 -0.026991097 0.013501101 0.00043999794 -0.014572957 -0.012398663
-0.0017454454 -0.008266345 -0.0023873677 -0.02038228 0.0023980564 0.024258649 -0.014352352 0.008775718
-0.0050241537 -0.0047466434 -0.0048433514 -0.0053837346 0.0047616037 -0.008974347 -0.00553031 0.017413598
-0.0001094085 -0.0011281342 -0.00603137 -0.0018975044 0.002519385 -0.01024068 -0.0007386917 -0.0051394557
0.002452741 0.010707737 -0.013305705 -0.012776467 0.02021881 0.0011109874 -0.0018217487 0.012049898
0.0039162403 0.0011686413 -0.01549111 -0.003202119 -0.010984967 -0.0010121033 0.00040965885 -0.02734351
0.007524838 -0.018048244 0.017321754 0.021828935 0.017725077 0.0074242875 0.006024334 -0.0026918328
-0.013218973 0.011380124 -0.015849028 0.006976297 0.013933956 0.0036044377 0.0038205415 -0.011433976
-0.008586998 0.017306868 0.003169088 0.014304197 -0.0029336787 -0.008943467 0.022413673 0.008373556
-0.009498868 0.0008856094 0.00039989414 -0.0053954516 0.01019798 0.008888318 -0.0058343266 0.01650828
-0.00661938 0.00033159897 0.015915895 -0.017235627 0.004313636 -0.0025736291 0.0017193333 -0.0053175474
-8.187416e-05 -0.010914577 0.0069855154 -0.005079891 0.011974796 0.010203765 -0.0033721037 -0.0036201803
-0.006968507 -0.010229382 0.004240039 -0.013443697 -0.016048802 -0.012683676 -0.017872317 0.01868292
0.000549484 -0.013042379 -0.018512437 0.005161953 0.0024735457 -0.003701815 -0.011050271 -0.013740819
0.0008998032 -0.012787893 0.002569198 0.0005711264 0.002778443 -0.004124037 -0.006623061 -0.00902509
-0.015743187 0.011370612 0.0061419266 0.016523026 0.01604387 0.005685095 0.0088407025 0.006136254
0.0042335573 0.0076624113 -0.0008587886 0.00091252 0.0010514229 -0.00095321244 0.00507388 -0.01722903
0.00069241103 -0.008189194 0.021289557 -0.0002875104 -0.0021556339 -0.0041174046 0.013579444 0.0052601644
-0.0041086823 -0.0076818774 -0.015869722 -0.012963076 0.019901311 -0.0010428205 -0.017272493 -0.0031375347
-0.00025923148 0.0043079183 0.0047930437 0.027897188 -0.0025450764 0.0041496833 0.0052172407 -0.0008444832
00000000: c63a 8dbc 4639 5e3b 664b d53b e309 bcbb
00000010: 28b0 bbbb 30f7 783c 9a15 33ba e623 c13a
00000020: 96c3 d2bb 53e4 263c 57fe b83a 417a cabc
00000030: 8a10 c83b cfae af3b fc16 3cbc be77 453a
00000040: 41e3 bcbb 360a 89bc 02c1 01bc 2372 cbbb
00000050: 49b6 97ba 22d7 833c 8385 edbb 0778 57bb
00000060: 2bee c43a 17bc 9fbb 545e 433c fdb4 873b
00000070: 0812 32bb 429b 0f3a a0b4 b2ba a693 0c3c
00000080: e180 cabb 2b58 d7bb d0c1 e1ba b201 10bc
00000090: 77f5 813c a6d4 3f3b 4807 483b 47ff ec3b
000000a0: 61c8 a13b e9dc 54bc c804 aeba b30c cebb
000000b0: 3048 a2ba 8d26 abbb ce5e d2ba 353b 703c
000000c0: eb1f fdbb 50a4 1abc b710 bfbc 7c12 27bb
000000d0: 3c61 b9bc 953a a5bb 1949 2d3b 62d7 233b
000000e0: 0be9 bcbb 7071 113c 3b6e 2d3b 9abf 523c
000000f0: 220e 1e3c 9ac7 99bb 4e86 e13b ca3a 2f3b
00000100: 86d3 adbb a367 d53a d70e 93bc 3dfe dbba
00000110: 3bd1 3abc 9794 9039 dda2 9f3b 45da f93a
00000120: 709d 34bb 9556 813b 9111 b43b d2ae 863c
00000130: ca8a ae3b a6bf 9d3b e8f9 453c 82a7 933c
00000140: a546 b83b e9b9 30b9 65d5 0b3c 75cd 03b9
00000150: 5f38 a53b fa98 4b3c c065 343c 9cea fa3b
00000160: d5ad 80bc 4ddd afbb 0a06 fa3b 447b 203c
00000170: 205b 66bc b7df 03bc 51bc b8bb 7f75 f53b
00000180: bc93 eebb afec 803c 0d4f 323b 6f1c ddbc
00000190: b933 5d3c 86af e639 69c3 6ebc c323 4bbc
000001a0: 6ec7 e4ba 906f 07bc 6275 1cbb bdf8 a6bc
000001b0: b628 1d3b 13ba c63c 2126 6bbc 07c8 0f3c
000001c0: a8a1 a4bb bb89 9bbb fab4 9ebb 0a6a b0bb
000001d0: 3a07 9c3b 2409 13bc 9a37 b5bb f6a6 8e3c
000001e0: 3e72 e5b8 e7dd 93ba cca2 c5bb afb5 f8ba
000001f0: 441c 253b 86c8 27bc c3a4 41ba e168 a8bb
00000200: 2abe 203b 816f 2f3c 2c00 5abc 6354 51bc
00000210: eba1 a53c 8d9e 913a bec7 eeba ef6c 453c
00000220: ce53 803b 182d 993a 6dce 7dbc a4da 51bb
00000230: 4bfa 33bc 8da8 84ba 7bc7 d639 7fff dfbc
00000240: eb92 f63b e9d9 93bc 5ae6 8d3c 98d2 b23c
00000250: 2e34 913c 7047 f33b c767 c53b 7669 30bb
00000260: 6494 58bc b373 3a3c d2d5 81bc 6c99 e43b
00000270: 3f4b 643c 6e38 6c3b 0d62 7a3b 9255 3bbc
00000280: 7bb0 0cbc 22c7 8d3c 79b0 4f3b 275c 6a3c
00000290: f642 40bb 9f87 12bc e19c b73c 3d31 093c
000002a0: 24a1 1bbc 3e28 683a e2a8 d139 54cc b0bb
000002b0: 6e15 273c 4fa0 113c e12d bfbb 5f3c 873c
000002c0: 62e7 d8bb 76da ad39 0d62 823c bb31 8dbc
000002d0: 6759 8d3b 55aa 28bb 415b e13a d23e aebb
000002e0: dbb3 abb8 0ed3 32bc c0e6 e43b 3775 a6bb
000002f0: ef31 443c b12d 273c 83fe 5cbb 8c40 6dbb
00000300: 1358 e4bb 2399 27bc 06f0 8a3b f442 5cbc
00000310: c778 83bc 31cf 4fbc f768 92bc ec0c 993c
00000320: 3f0b 103a b4af 55bc 65a7 97bc 9a25 a93b
00000330: 361b 223b 269a 72bb 320c 35bc 2c21 61bc
00000340: c5e0 6b3a 5084 51bc fd5f 283b a5b7 153a
00000350: 8a16 363b ee22 87bb 4306 d9bb f9dd 13bc
00000360: dbf7 80bc ce4b 3a3c 3742 c93b 4c5b 873c
00000370: 6f6e 833c 094a ba3b 98d8 103c a112 c93b
00000380: a7b9 8a3b f714 fb3b 5420 61ba 2e36 6f3a
00000390: e6cf 893a 01e1 79ba ca42 a63b e523 8dbc
000003a0: eb82 353a f82b 06bc 7067 ae3c febc 96b9
000003b0: 8945 0dbb 4beb 86bb 517c 5e3c 755d ac3b
000003c0: 20a2 86bb 42b8 fbbb 3801 82bc 1563 54bc
000003d0: 1308 a33c 40af 88ba 0b7f 8dbc 199f 4dbb
000003e0: 76e9 87b9 7029 8d3b f70e 9d3b a588 e43c
000003f0: 4ccb 26bb 11fa 873b 63f5 aa3b 4f60 5dba

density_estimator_head.bias f4 [11]
-0.218186 0.14726774 0.018127022 0.022942273 0.02917879 -0.03949907 -0.080442145 -0.049061786
-0.07603088 0.003972746 0.24173103
00000000: 276c 5fbe 5bcd 163e 1f7f 943c 6ff1 bb3c
00000010: 5c08 ef3c c7c9 21bd dabe a4bd 03f5 48bd
00000020: 14b6 9bbd cf2d 823b 5788 773e

Q1.0.weight f4 [50, 50, 5]
-0.95211846 0.94301784 0.5203862 -1.2862742 1.4499191 -0.034197293 1.6675323 0.5979034
-2.4046047 0.6262188 0.06917857 0.052398413 -0.32787374 -0.29079598 0.6784742 -1.3602784
-0.050418265 -0.8249734 -0.71583194 -0.6352362 -0.32290798 -1.0097705 1.7100698 -0.1980489
0.5158131 -0.9030473 -1.7291905 -0.103365004 -0.9281193 0.10261495 0.2795663 0.6501817
1.011379 -0.12758382 0.71666336 1.2258322 -1.0970918 -1.213505 0.5853128 -0.19834277
-0.14730713 0.46086535 1.469359 -0.47366953 -0.07378277 1.0268705 1.4117051 1.2452071
-0.12446729 -0.7658732 1.1253637 0.013116863 -2.0889916 -0.6654659 -0.103938214 0.7196639
0.03628379 -2.5113676 -1.3090296 -0.5821957 -2.8647711 -0.23611325 0.27574316 -0.19641277
1.227936 0.08362952 -0.6264106 0.6003708 0.29050386 -0.20272931 0.9867741 0.20515206
-0.116759226 0.6368495 -0.2730326 0.08220004 2.40819 -0.30867806 -0.3833188 -0.29185233
-0.53463304 -0.5666697 -0.13563314 1.2941929 -0.20252833 -0.5320581 -0.21680066 0.58602136
0.81242347 0.08254354 -0.6170318 1.1468233 1.0917524 0.75998276 -0.37033793 0.39975068
0.43956438 0.5543786 0.29617244 -0.07160163 0.06707285 -1.3753145 0.4153477 0.31649104
-0.74857277 -0.98502475 1.9331145 -1.1709459 -0.22357823 -0.19780365 -0.13014528 -0.36237836
-0.28413317 -1.2487715 1.3715706 0.90593714 -0.5913142 -0.9145825 -0.9373711 0.15938163
-0.6896221 0.09074125 -0.5678163 0.8771646 1.2395597 2.1033573 0.05996154 1.287799
-0.0011547945 -0.22769624 -0.58847696 0.84603316 -2.089507 -0.10895505 -0.7153334 0.4381913
-1.7092441 1.0887381 0.63492197 0.99422604 0.8681081 -0.52979434 1.7166394 -1.9128274
-1.0345919 0.7430964 -0.34148517 0.13325882 1.6393627 0.45925054 0.6329839 0.028863972
-0.9841449 -0.32942006 -1.2221538 -1.933468 -0.4184204 0.88234645 0.56056094 -0.2870329
0.60326463 -1.1169925 -0.09372184 -0.8602448 0.8332933 0.85110974 -0.47389275 -2.2577734
0.1740791 -0.3932837 -0.17224038 -0.35661358 2.3567219 -0.8748617 -0.9440219 0.23196267
1.0860072 -1.0169688 0.006624733 -0.6831399 -0.9380479 -0.24987157 -0.19215502 -0.92409605
-0.47720307 -0.3881153 -0.84266704 0.105606034 -0.91899145 0.7996347 1.219324 -0.4054905
0.3913125 0.87270683 -0.76081526 -0.12773871 -0.16642419 -0.69008696 -1.1442107 0.7938982
-1.4433355 0.12147168 -0.84908885 -0.42533058 -0.83827615 -0.69401854 -0.08619125 -0.38356808
1.888984 -0.8681631 0.16395628 -1.0609473 0.5975819 0.4531255 0.23908725 -0.66374975
1.1187589 2.6039894 -0.1191736 -0.9964717 0.83647346 -1.3005326 -0.11854149 0.4280711
-0.67638165 0.46122488 0.005067719 -0.008740833 -0.061369993 -0.92618316 -0.16163103 0.8422746
-2.4558375 -0.5359186 0.5166481 0.70547193 0.176274 -0.12435626 0.34954762 -0.46282777
-0.3356277 0.97527033 0.926336 -0.26942962 0.1555608 -1.4116251 -0.4223114 -0.88384753
0.06915537 2.0251153 -0.3426581 -0.7141286 0.11451044 -0.19587079 1.9790595 0.28994295
00000000: 09be 73bf 9e69 713f 0838 053f a2a4 a4bf
00000010: f396 b93f 7612 0cbd b371 d53f 3210 193f
00000020: 0be5 19c0 e04f 203f 7ead 8d3d b89f 563d
00000030: 11df a7be 36e3 94be 7cb0 2d3f 9a1d aebf
00000040: 6283 4ebd 7531 53bf c340 37bf d79e 22bf
00000050: 3254 a5be 2940 81bf 91e3 da3f 55cd 4abe
00000060: 540c 043f 1c2e 67bf 1d56 ddbf 08b1 d3bd
00000070: 3a99 6dbf c927 d23d 5023 8f3e 4f72 263f
00000080: de74 813f 55a5 02be 4077 373f 12e8 9c3f
00000090: 816d 8cbf 2254 9bbf 0fd7 153f 5e1a 4bbe
000000a0: aed7 16be 8bf6 eb3e f513 bc3f d084 f2be
000000b0: 6c1b 97bd 7e70 833f c1b2 b43f f262 9f3f
000000c0: b5e8 febd 4410 44bf eb0b 903f 1ce8 563c
000000d0: 0ab2 05c0 f95b 2abf 8fdd d4bd e53b 383f
000000e0: 509e 143d 3fba 20c0 488e a7bf c70a 15bf
000000f0: 6958 37c0 acc7 71be 352e 8d3e 6e20 49be
00000100: 022d 9d3f f445 ab3d 725c 20bf e7b1 193f
00000110: ecbc 943e 4698 4fbe 3a9d 7c3f 6213 523e
00000120: 761f efbd 9208 233f eeca 8bbe 7f58 a83d
00000130: c91f 1a40 0d0b 9ebe 5d42 c4be ab6d 95be
00000140: b6dd 08bf 4411 11bf 6ae3 0abe 1da8 a53f
00000150: 9663 4fbe f634 08bf fe00 5ebe 7f05 163f
00000160: fcfa 4f3f 960c a93d ccf5 1dbf 1bcb 923f
00000170: 8bbe 8b3f 3b8e 423f ef9c bdbe 1fac cc3e
00000180: 950e e13e c2eb 0d3f eaa3 973e e0a3 92bd
00000190: 7e5d 893d 4e0a b0bf 74a8 d43e 1d0b a23e
000001a0: 77a2 3fbf 952a 7cbf 4c70 f73f 8ee1 95bf
000001b0: b1f1 64be 0a8d 4abe ce44 05be a889 b9be
000001c0: e779 91be bfd7 9fbf a08f af3f 7feb 673f
000001d0: 5e60 17bf 1422 6abf 8df7 6fbf f034 233e
000001e0: 138b 30bf 8cd6 b93d 695c 11bf dc8d 603f
000001f0: e4a9 9e3f 689d 0640 3b9a 753d 99d6 a43f
00000200: 795c 97ba 3429 69be 6da6 16bf a195 583f
00000210: 7cba 05c0 d323 dfbd 1720 37bf 9c5a e03e
00000220: 83c8 dabf c55b 8b3f 3f8a 223f 9985 7e3f
00000230: 553c 5e3f 9aa0 07bf d7ba db3f 87d7 f4bf
00000240: 826d 84bf 913b 3e3f 25d7 aebe 0075 083e
00000250: a3d6 d13f e322 eb3e 3c0b 223f 2374 ec3c
00000260: ecf0 7bbf bfa9 a8be 896f 9cbf e17b f7bf
00000270: 333b d6be 75e1 613f ec80 0f3f faf5 92be
00000280: 8d6f 1a3f 9cf9 8ebf 3cf1 bfbd 0139 5cbf
00000290: b652 553f 54e2 593f 12a2 f2be 5c7f 10c0
000002a0: cb41 323e 7b5c c9be c85f 30be 0e96 b6be
000002b0: 88d4 1640 f0f6 5fbf 6bab 71bf 9f87 6d3e
000002c0: 4902 8b3f 092c 82bf 4a14 d93b 42e2 2ebf
000002d0: e823 70bf 55de 7fbe 49c4 44be 8f91 6cbf
000002e0: f653 f4be 0cb7 c6be 07b9 57bf fa47 d83d
000002f0: 0643 6bbf dcb4 4c3f cf12 9c3f 739c cfbe
00000300: 1d5a c83e b769 5f3f cac4 42bf f0cd 02be
00000310: 1a6b 2abe 8aa9 30bf 7f75 92bf ea3c 4b3f
00000320: 38bf b8bf 25c6 f83d e35d 59bf eec4 d9be
00000330: 4499 56bf 33ab 31bf 0a85 b0bd 0963 c4be
00000340: 3aca f13f f03f 5ebf 28e4 273e 1fcd 87bf
00000350: 21fb 183f 1100 e83e 4ad3 743e 81eb 29bf
00000360: 7e33 8f3f c3a7 2640 4a11 f4bd c518 7fbf
00000370: 2023 563f da77 a6bf e1c5 f2bd 232c db3e
00000380: 5927 2dbf ab25 ec3e 1c0f a63b b635 0fbc
00000390: 1a5f 7bbd 571a 6dbf 9b82 25be 4f9f 573f
000003a0: 712c 1dc0 f631 09bf 0d43 043f cf99 343f
000003b0: 2c81 343e 7fae febd e8f7 b23e c3f7 ecbe
000003c0: 65d7 abbe 51ab 793f 5b24 6d3f aef2 89be
000003d0: 554b 1f3e 22b0 b4bf 3339 d8be d543 62bf
000003e0: 55a1 8d3d 7d9b 0140 e270 afbe 22d1 36bf
000003f0: 7384 ea3d 5a92 48be d251 fd3f 6773 943e

Q1.0.bias f4 [50, 5]
0.07394691 0.048691306 0.029219436 0.0035354784 7.973338e-06 -0.03895385 0.030896926 0.02538014
0.003914542 0.00022029124 0.009811605 -0.005561366 -0.004550974 -0.00050443906 0.000103331695 0.030790376
0.00853746 0.005672248 0.0009247474 -9.410655e-05 -0.004425606 -0.0026613662 -0.002610828 -0.0014564382
-0.00041197104 0.00973794 0.0011174793 -0.0025675478 -0.0034146714 -0.00030294666 0.057068452 0.022438284
0.010489157 0.0010949495 2.3794204e-05 -0.031729914 0.014961779 0.013437353 0.0020862685 0.00017589921
0.02801094 0.0043171444 0.00029500827 -0.0002491006 -5.362852e-05 -0.032179147 -0.014974754 -0.007197137
-0.00069836946 -6.336923e-05 0.023321552 0.037286703 0.044141643 0.022076705 0.0053093266 -0.058895305
-0.016058983 -0.0055490592 -3.1850494e-05 0.00017837458 0.057443056 0.007088531 0.009657142 0.008839085
0.002664681 0.0043495796 0.0035307053 0.002646277 0.00080777705 0.00021567011 -0.0006906191 -0.00024577175
-9.393162e-05 2.5698287e-06 1.04611945e-05 -0.0278869 -0.0034694187 -0.0006895596 -9.1233866e-05 -8.344234e-06
0.0048645805 0.0029605674 0.0021370854 0.00062603963 6.3244894e-05 0.012777237 0.011212067 0.0067412145
0.0010149481 0.00022099401 0.07899215 0.026639607 0.033315744 0.02138819 0.0049449992 0.12818797
0.07497834 0.04826312 0.012609181 0.00075627177 -0.023924898 0.020022897 0.01584767 0.0020709003
-5.554355e-05 0.10713157 0.06391853 0.07096449 0.038072933 0.0095838355 0.018963583 -0.028043577
-0.020726634 -0.0025806897 -5.6022647e-05 0.0003043014 9.978572e-05 4.485233e-05 5.144497e-06 1.862234e-06
-0.02132624 -0.012140056 -0.022902107 -0.015975207 -0.0036224425 -0.00014651079 -0.00011365453 -9.1961774e-05
-3.3193475e-05 -6.594858e-06 0.015817672 0.030442828 0.033308 0.015267534 0.003561386 -0.0041711414
0.00087159424 0.0010011547 0.00015822772 -3.5868816e-05 -0.015694372 -0.013568838 -0.008852645 -0.0018225567
-0.00025776724 -0.00032774426 -0.00041743135 -0.0002594714 -4.8440324e-05 8.259169e-06 0.012212173 0.01240582
0.011121744 0.004378275 0.00071896863 0.0024324097 0.041026484 0.03034894 0.005831856 0.0006169801
-0.015308848 -0.011848942 -0.010279283 -0.0041099605 -0.00096291385 0.0016695391 -0.00145718 -0.0012377746
-0.00023530718 -7.610699e-05 0.055053502 0.060808305 0.048212573 0.015225192 0.0027934737 -0.03143093
-0.06521543 -0.047636613 -0.010609278 -0.000566896 0.02143285 0.00331763 0.00028706496 -0.00011449592
8.1212975e-06 0.00014169596 4.015583e-05 1.712984e-05 2.712306e-06 1.4634328e-07 -0.0001231807 -5.666232e-05
-4.1033163e-05 -1.4670924e-05 -3.4895904e-06 -0.0011690342 -0.00014598148 -7.882195e-06 7.851001e-06 1.5931067e-07
0.07764709 0.045639336 0.025189783 0.0038724618 0.00032674248 0.18594302 0.032040004 0.022451168
0.0153274415 0.0038254145 -0.06968375 -0.022481596 -0.0061297617 0.0011048183 0.00012484407 0.01672334
0.0150464885 0.009196211 0.001466671 0.00030096737 1.190763e-05 7.599788e-05 7.502374e-05 3.0364396e-05
5.9747003e-06 0.02097163 0.004140385 0.00077300443 -7.696858e-05 -9.538433e-06 -0.0010384466 0.030450081
0.022893166 0.004481396 0.0006204437 -0.035146832 0.029234506 0.023450695 0.0033024035 9.70822e-05
-0.025690846 0.0065114247 0.0070033795 0.0011658481 0.0001070863 0.025265666 -0.0035779637 -0.004802004
-0.0007541655 -2.5704255e-06
00000000: 7a71 973d 8970 473d 995d ef3c 7cb3 673b
00000010: 3ac5 0537 128e 1fbd 8d1b fd3c 03ea cf3c
00000020: 8f45 803b fbfd 6639 dbc0 203c 1f3c b6bb
00000030: 5620 95bb 553c 04ba c8b3 d838 193c fc3c
00000040: b4e0 0b3c 44de b93b bf6a 723a 125b c5b8
00000050: ad04 91bb 516a 2ebb 6d1a 2bbb f5e5 beba
00000060: d1fd d7b9 e18b 1f3c 6278 923a 4e44 28bb
00000070: aec8 5fbb d0d4 9eb9 9cc0 693d 7ed0 b73c
00000080: b7da 2b3c 6984 8f3a aa99 c737 3af7 01bd
00000090: 4022 753c 5828 5c3c c7b9 083b 9671 3839
000000a0: 3377 e53c d576 8d3b 57ab 9a39 b799 82b9
000000b0: 2fef 60b8 48ce 03bd ac58 75bc f6d5 ebbb
000000c0: c812 37ba 19e5 84b8 d70c bf3c f1b9 183d
000000d0: decd 343d 35da b43c dcf9 ad3b 343c 71bd
000000e0: 218e 83bc e2d4 b5bb 3597 05b8 100a 3b39
000000f0: 6949 6b3d e846 e83b fd38 1e3c cfd1 103c
00000100: eea1 2e3b eb86 8e3b 6863 673b 296d 2d3b
00000110: 00c1 533a 8125 6239 aa0a 35ba edda 80b9
00000120: 28fd c4b8 5275 2c36 7d82 2f37 1173 e4bc
00000130: 305f 63bb 90c3 34ba cf54 bfb8 36fe 0bb7
00000140: 0f67 9f3b 1406 423b 580e 0c3b cf1c 243a
00000150: 58a2 8438 9e57 513c d1b2 373c 68e5 dc3b
00000160: 0208 853a a1ba 6739 a3c6 a13d 4e3b da3c
00000170: 1776 083d 4936 af3c a909 a23b b543 033e
00000180: 3e8e 993d 8daf 453d bd96 4e3c 8a40 463a
00000190: 26fe c3bc 0f07 a43c f9d2 813c f1b7 073b
000001a0: 6ff7 68b8 cc67 db3d b8e7 823d d555 913d
000001b0: 5df2 1b3d 8505 1d3c 8459 9b3c a5bb e5bc
000001c0: e7ca a9bc ca20 29bb dcf9 6ab8 a48a 9f39
000001d0: 0d44 d138 d31f 3c38 e59e ac36 dff1 f935
000001e0: 5eb4 aebc 16e7 46bc 339d bbbc 70de 82bc
000001f0: 8066 6dbb b1a0 19b9 d059 eeb8 9adb c0b8
00000200: 3939 0bb8 6649 ddb6 1094 813c 3d63 f93c
00000210: f86d 083d ae24 7a3c 2466 693b 12ae 88bb
00000220: b37b 643a 2d39 833a eee9 2539 d971 16b8
00000230: 7c91 80bc d54f 5ebc af0a 11bc dbe2 eeba
00000240: ef24 87b9 17d5 abb9 b0da dab9 a909 88b9
00000250: 672c 4bb8 dc90 0a37 9115 483c c841 4b3c
00000260: fa37 363c a277 8f3b 2b79 3c3a 1069 1f3b
00000270: 630b 283d 579e f83c 2719 bf3b d5bc 213a
00000280: f6d1 7abc 1122 42bc 706a 28bc d9ac 86bb
00000290: 0e6c 7cba 70d4 da3a d9fe beba d33c a2ba
000002a0: cabc 76b9 a19b 9fb8 c87f 613d 2112 793d
000002b0: 8c7a 453d 1573 793c b612 373b b8bd 00bd
000002c0: ab8f 85bd 9c1e 43bd 8ad2 2dbc bf9b 14ba
000002d0: f293 af3c 986c 593b 3581 9639 871d f0b8
000002e0: b540 0837 3894 1439 ff6c 2838 0db2 8f37
000002f0: 1005 3636 8922 1d34 112a 01b9 b4a8 6db8
00000300: 061b 2cb8 2423 76b7 b52e 6ab6 473a 99ba
00000310: 9b12 19b9 c53d 04b7 cbb7 0337 fc0e 2b34
00000320: 7005 9f3d 50f0 3a3d ce5a ce3c 21c9 7d3b
00000330: a24e ab39 d967 3e3e 613c 033d 83eb b73c
00000340: f31f 7b3c ceb3 7a3b 5bb6 8ebd 532b b8bc
00000350: 2bdc c8bb 8dcf 903a 93e8 0239 63ff 883c
00000360: 8c85 763c b4ab 163c 503d c03a 28cb 9d39
00000370: e2c6 4737 0d61 9f38 1056 9d38 0bb7 fe37
00000380: 497a c836 b2cc ab3c 11ac 873b 73a3 4a3a
00000390: 316a a1b8 4207 20b7 7c1c 88ba 7372 f93c
000003a0: 738a bb3c add8 923b 46a5 223a 20f6 0fbd
000003b0: 347d ef3c ac1b c03c 236d 583b 9c98 cb38
000003c0: 9c75 d2bc ca5d d53b 9b7c e53b 5fcf 983a
000003d0: 8593 e038 f1f9 ce3c 457c 6abb 215a 9dbb
000003e0: 31b3 45ba 937f 2cb6

Q1.1.weight f4 [50, 1, 5]
-1.3515681 -0.46379125 -0.25094888 0.78604925 -0.84404796 -1.4541591 0.40543112 -0.79733133
0.5602862 -0.90547144 0.18909287 0.65858924 -0.89902127 -0.38021508 0.023298144 -0.90132743
0.6105513 0.7654002 0.4336906 -0.7314006 -1.2812334 -0.7913426 -1.060461 -0.8283952
-0.5545895 -1.3766515 -0.118933044 0.5334224 0.27640203 0.4482124 -0.87348413 0.5095546
1.1285645 -1.7402942 -0.29111293 -1.0018045 0.67401123 -0.5928178 -1.1949248 -0.82607055
0.40324596 -0.53847015 -0.31897083 0.008538771 0.42177498 -0.2124411 0.89590067 0.43533033
-0.28497773 -0.074936405 -0.12689619 1.0535474 0.311915 1.1121488 1.3759695 0.56817114
-1.0547047 0.42685676 -0.1284577 0.14351422 0.8180313 1.4947176 -1.409054 -0.024750121
0.9369009 -0.06356201 -0.87188315 0.6432317 -1.3123795 -0.7865947 0.29890066 0.6969446
-0.213497 0.3045105 0.51851016 1.0408857 0.1899661 -0.33001044 -0.10564548 -0.4609114
1.8341633 -0.5904125 -1.5248524 0.5074169 0.41285607 -0.20894983 0.6128289 -1.6167692
-1.582711 -0.8545008 0.99136794 1.8006954 0.93174607 0.5600959 -1.2204024 -0.010872789
0.46281514 1.2342287 0.4462078 -0.060026426 -0.8328371 -0.57332706 0.6710649 -0.4219556
1.3492954 0.7044772 1.0140363 2.0140018 -0.85812634 1.2434707 0.89848644 0.79028976
-0.27116302 0.4437391 1.0372621 -1.2443627 2.279004 -0.27151686 -0.6542164 -1.0882896
-0.9488448 -0.7993127 0.9223939 -0.743032 0.105186835 0.0061058346 -0.49014065 1.5957545
-0.11020915 0.3396529 -0.07571095 -0.4532366 1.6060164 0.6411385 -1.2754716 -0.09841594
-0.09741782 0.16931985 0.34636346 0.19118653 -0.013311395 0.7555092 0.3805242 -0.399302
1.2728776 -0.3199517 0.86822104 0.66495776 -1.1528724 0.10122303 0.49284333 -0.12539424
-0.55456185 0.59946525 1.3242985 -0.8782454 -0.9454394 0.13787726 -0.30646712 -0.4287932
-0.081138976 -0.34989238 1.4821002 -0.03013916 -1.6428428 -0.004164283 0.32709226 -0.6160549
0.7738956 1.8403611 -0.48708597 0.070319146 -1.0078707 0.6322876 0.80879194 1.2039456
-0.60042316 -0.08845637 0.93886137 0.5572722 0.4356866 0.023261955 -0.17042276 1.1696379
-0.6169544 -1.0153918 0.5574668 0.27728325 -1.1489819 0.21804655 0.34571624 0.7351647
-1.1715807 0.9854722 0.13050188 -0.5678767 -0.6980596 1.5249091 0.20898108 -1.9635773
0.016893864 -1.6444602 -0.0908143 -0.39297414 0.89209706 1.7130594 0.837015 0.26721996
-0.25185105 -0.06308435 -0.99041516 0.4397211 1.3913323 1.0951905 -0.17502773 -0.1543675
0.071131974 -1.3556614 0.47538513 -1.8821187 1.045582 -2.196453 -0.649301 -0.04266233
-1.2336806 0.3012784 -0.19487213 -0.8411752 1.3750877 0.96027756 -0.6916701 -0.74744254
0.016749486 -0.31606153 -0.24659625 -1.2482915 -0.20927432 0.03702246 -0.11356529 0.0072427266
-0.71188885 0.896315 -0.80838853 -0.63789445 -0.08247162 0.52892524 -0.18441026 -0.45407635
1.0517772 -0.46277088
00000000: 2f00 adbf 0c76 edbe 5f7c 80be 863a 493f
00000010: 8713 58bf e321 babf ab94 cf3e e81d 4cbf
00000020: eb6e 0f3f facc 67bf 90a1 413e 4e99 283f
00000030: 4226 66bf 8dab c2be c0db be3c 65bd 66bf
00000040: 174d 1c3f 44f1 433f b20c de3e 123d 3bbf
00000050: 75ff a3bf 6e95 4abf 30bd 87bf b511 54bf
00000060: 94f9 0dbf 1e36 b0bf 2b93 f3bd 5f8e 083f
00000070: 9184 8d3e 187c e53e a89c 5fbf 2c72 023f
00000080: cd74 903f f6c1 debf c10c 95be 213b 80bf
00000090: 008c 2c3f e8c2 17bf 4cf3 98bf 5c79 53bf
000000a0: 4176 ce3e 2ed9 09bf 2550 a3be 34e6 0b3c
000000b0: e4f2 d73e 298a 59be bf59 653f 9ee3 de3e
000000c0: 9ae8 91be 4278 99bd 13f1 01be a4da 863f
000000d0: 53b3 9f3e e45a 8e3f c51f b03f aa73 113f
000000e0: 9000 87bf f88c da3e 6a8a 03be 64f5 123e
000000f0: 806a 513f e852 bf3f e25b b4bf c4c0 cabc
00000100: bdd8 6f3f cd2c 82bd bc33 5fbf d5aa 243f
00000110: 0dfc a7bf 455e 49bf 8209 993e f66a 323f
00000120: f59e 5abe cde8 9b3e 15bd 043f be3b 853f
00000130: 7986 423e 21f7 a8be a85c d8bd 94fc ebbe
00000140: ddc5 ea3f 4625 17bf 5d2e c3bf 13e6 013f
00000150: df61 d33e f2f6 55be 5be2 1c3f 4bf2 cebf
00000160: 4696 cabf 90c0 5abf 4aca 7d3f 307d e63f
00000170: e986 6e3f 7262 0f3f 2536 9cbf c823 32bc
00000180: 1bf6 ec3e 35fb 9d3f 5975 e43e 45de 75bd
00000190: d034 55bf 90c5 12bf e9ca 2b3f 900a d8be
000001a0: b6b5 ac3f 9e58 343f f1cb 813f 68e5 0040
000001b0: 2bae 5bbf 0c2a 9f3f 3503 663f 6e50 4a3f
000001c0: e1d5 8abe c531 e33e 01c5 843f 4747 9fbf
000001d0: 34db 1140 4204 8bbe ba7a 27bf 134d 8bbf
000001e0: 7ee7 72bf c29f 4cbf 0222 6c3f 5837 3ebf
000001f0: 326c d73d 7413 c83b b7f3 fabe af41 cc3f
00000200: 56b5 e1bd fce6 ad3e 580e 9bbd a10e e8be
00000210: f291 cd3f a721 243f a742 a3bf 4c8e c9bd
00000220: fe82 c7bd 2f62 2d3e 8d56 b13e 67c6 433e
00000230: 0a18 5abc 0d69 413f 11d4 c23e 5071 ccbe
00000240: a7ed a23f b6d0 a3be bc43 5e3f ac3a 2a3f
00000250: 5391 93bf 054e cf3d f655 fc3e 5967 00be
00000260: c4f7 0dbf 8e76 193f 9d82 a93f b1d4 60bf
00000270: 5108 72bf b22f 0d3e 42e9 9cbe c88a dbbe
00000280: 312c a6bd 1825 b3be 76b5 bd3f 66e6 f6bc
00000290: ac48 d2bf 8a74 88bb a378 a73e c6b5 1dbf
000002a0: 061e 463f f490 eb3f 5563 f9be 7c03 903d
000002b0: e801 81bf 9add 213f fd0c 4f3f e41a 9a3f
000002c0: 55b5 19bf 9d28 b5bd 3859 703f 64a9 0e3f
000002d0: 5012 df3e db8f be3c 4e83 2ebe b2b6 953f
000002e0: b9f0 1dbf 5cf8 81bf 25b6 0e3f 12f8 8d3e
000002f0: d711 93bf 9847 5f3e b801 b13e c133 3c3f
00000300: 5bf6 95bf e847 7c3f 49a2 053e 5e60 11bf
00000310: 09b4 32bf 3930 c33f 23ff 553e 8056 fbbf
00000320: 0065 8a3c ac7d d2bf d9fc b9bd e833 c9be
00000330: 7960 643f 8845 db3f 9d46 563f 0ed1 883e
00000340: 9ff2 80be 5e32 81bd d98b 7dbf 2023 e13e
00000350: 2d17 b23f 342f 8c3f 783a 33be 8412 1ebe
00000360: a4ad 913d 5086 adbf ae65 f33e 44e9 f0bf
00000370: a2d5 853f b092 0cc0 9738 26bf b2be 2ebd
00000380: 3fe9 9dbf 2a41 9a3e 8f8c 47be 4257 57bf
00000390: e002 b03f c0d4 753f 4b11 31bf 6558 3fbf
000003a0: 3836 893c d1d2 a1be ba83 7cbe 04c8 9fbf
000003b0: 024c 56be dda4 173d eb94 e8bd 6554 ed3b
000003c0: 593e 36bf e674 653f 8df2 4ebf 0d4d 23bf
000003d0: e1e6 a8bd a567 073f 0bd6 3cbe b27c e8be
000003e0: a3a0 863f 4ef0 ecbe

Q1.1.bias f4 [1, 5]
0.029681131 -0.020068578 -0.016511954 -0.002269537 -1.5600637e-05
00000000: d825 f33c dc66 a4bc 1444 87bc 83bc 14bb
00000010: 1dde 82b7
