CausalCVR/logs/simu2/eval/52/Vcnet_tr_ckpt.pth.tar (torch, 123637 bytes, 18 tensors)

feature_weight.weight f4 [50, 8]
-0.021016074 0.012174077 0.00034028754 0.008704734 -0.005419296 0.010647738 -0.015266505 -0.01289512
0.0044401116 0.0027317118 -0.004609785 -0.012133862 -0.010752428 -0.002736916 -0.008850857 -0.023617117
0.024398163 0.017903186 0.011876785 0.007934615 -0.0024112072 0.0057365573 0.0036727164 0.025902845
-0.012716111 0.002017452 0.02440816 0.007766224 0.036430534 -0.0012804256 -0.007839456 -0.01612861
-0.018780809 -0.0059544295 0.021895606 0.004007369 -0.0042920127 -0.0035784503 0.0095794825 0.0005192037
0.007620976 2.4750138e-05 -0.006840089 -0.014852389 -0.008208118 0.0046892604 0.014599102 -0.0052466956
0.015653549 -0.030104635 0.014590046 0.0010005643 -0.0067796297 -0.02050297 0.02292305 0.0048694266
-0.005624403 0.004424786 -0.016120598 -0.0062746406 -0.005345807 -0.0063180723 -0.000139331 -0.0122481305
0.005967846 -0.0019869031 -0.008168164 0.010028665 -0.019500788 0.01173383 -0.00015710841 0.017178401
-0.019473521 -0.001026636 -0.006073404 0.009622915 -0.010991954 -0.006306174 0.009377719 0.012344292
0.009803799 0.009433938 0.011855224 -0.0030522693 0.005162756 -0.0028481563 -0.0038790407 0.014380029
0.009441012 -0.016866365 0.0025287187 0.004155097 -0.0059880675 -0.021109901 -0.012868524 -0.0025455197
0.0006523559 0.00197281 0.024667494 -0.005521434 0.021698488 0.0013420157 0.0029337287 -0.021039741
0.001358275 0.002881372 0.0065368987 0.006117573 0.023046743 0.009776137 0.021688024 0.0073371073
0.010850317 -0.00012180708 -0.004912182 0.011283044 -0.0057308376 -0.015567223 -0.003130109 0.012518464
0.020154562 0.012399732 0.014841007 -0.0029686878 0.010895373 0.0051286113 -0.013837914 -0.021048317
-0.0004128806 -0.008567556 -0.0085095335 0.011128351 -0.0043165865 0.005083936 -0.0023967873 -0.0069453903
-0.009910326 0.012317997 -0.008913307 0.006021273 0.016578505 0.0016328605 -0.010608685 0.0047787745
0.015095367 0.017270079 -0.019750273 -0.00012334196 0.0010757406 0.01885621 -0.0062824567 0.0004194489
0.0059010563 0.010443164 -0.015753401 -0.0022801976 -0.0051860265 -0.008816194 0.0055572805 -0.012078001
0.0023281507 0.00235759 0.010822719 0.02344639 0.015084414 0.005026133 0.0063790022 0.0047362885
-0.011780735 -0.0039082062 0.019090613 -0.018400477 -0.009828595 0.0020293407 -0.012380392 0.033263322
-0.014629473 0.008076305 -0.011772967 0.0073593315 -0.008468238 -0.016551398 -0.009649329 0.004414389
0.0030025076 0.020192456 0.024674956 -0.0077874064 0.037403688 0.011534452 0.025782036 -0.024014125
-0.012174499 0.008456642 -0.015444091 -0.019262806 0.004398438 0.0038825055 0.0043606777 -0.002826825
-0.025773155 0.014780166 0.008962057 0.012598482 -0.024966054 -0.019085845 0.005311202 0.023946993
-0.006991438 -0.0015792394 -0.0018890774 0.0075234775 0.0077707698 0.0036320204 0.018133087 -0.001317343
-0.008591042 0.0119968 -0.005724101 -0.016504545 0.013517382 -0.010952858 0.0030142432 0.013418933
-0.012720982 -0.027138285 -0.008680067 -0.016515682 -0.0020617933 0.022468004 -0.0066402913 -0.010879783
-0.005189037 0.008968613 -0.0003209861 0.0059851706 -0.004314967 0.010283653 -0.012265689 -0.009830145
-0.006147843 -0.007552982 -0.0064855064 0.0007105505 -0.019876065 0.011230533 -0.0064892746 -0.012372383
0.023057584 -0.004536983 -0.017856471 -0.00075415097 -0.0041106846 0.010223456 0.006037793 -0.0031548839
00000000: e729 acbc c875 473c 9f68 b239 4d9e 0e3c
00000010: 5a94 b1bb da73 2e3c 5d20 7abc 0e46 53bc
00000020: 5b7e 913b 8506 333b ae0d 97bb 1bcd 46bc
00000030: f42a 30bc d55d 33bb 2f03 11bc af78 c1bc
00000040: a8de c73c b4a9 923c d996 423c 3000 023c
00000050: 5805 1ebb bbf9 bb3b f5b1 703b 3432 d43c
00000060: 3c57 50bc 3a37 043b 9ff3 c73c cf7b fe3b
00000070: 2f38 153d f4d3 a7ba 1071 00bc 2620 84bc
00000080: 36da 99bc 601d c3bb 6a5e b33c 3f50 833b
00000090: 03a4 8cbb 6f84 6abb 43f3 1c3c 2c1b 083a
000000a0: 61b9 f93b 849e cf37 d322 e0bb 6f57 73bc
000000b0: 587b 06bc 5ea8 993b 1231 6f3c 79ec abbb
000000c0: df3b 803c ff9d f6bc 170b 6f3c 5e25 833a
000000d0: a827 debb d8f5 a7bc 1fc9 bb3c b68f 9f3b
000000e0: e94c b8bb ccfd 903b 580f 84bc 809b cdbb
000000f0: e12b afbb d507 cfbb 6119 12b9 62ac 48bc
00000100: ec8d c33b b436 02bb c3d3 05bc 454f 243c
00000110: 1ec0 9fbc 403f 403c 78bd 24b9 b8b9 8c3c
00000120: ef86 9fbc 3090 86ba 6803 c7bb 6ea9 1d3c
00000130: 9917 34bc 06a4 cebb 01a5 193c b73f 4a3c
00000140: 1da0 203c ce90 1a3c 6a3c 423c 9508 48bb
00000150: 562c a93b 22a8 3abb 8137 7ebb 379a 6b3c
00000160: 79ae 1a3c 552b 8abc dcb8 253b 7b27 883b
00000170: 8d37 c4bb acee acbc 80d6 52bc bcd2 26bb
00000180: dd02 2b3a 424a 013b 7c13 ca3c 25ed b4bb
00000190: 07c1 b13c 93e6 af3a cd43 403b 895b acbc
000001a0: 2508 b23a 67d5 3c3b 7b33 d63b ec75 c83b
000001b0: 86cc bc3c 172c 203c 15ab b13c 1e6c f03b
000001c0: 87c5 313c ae72 ffb8 5ff6 a0bb 84dc 383c
000001d0: c0c9 bbbb aa0d 7fbc 8422 4dbb 3e1a 4d3c
000001e0: 2e1b a53c 3f28 4b3c b227 733c 518e 42bb
000001f0: 8282 323c e90d a83b 6bb8 62bc 856d acbc
00000200: e577 d8b9 ef5e 0cbc 926b 0bbc b053 363c
00000210: 2772 8dbb 2597 a63b 6b13 1dbb 2896 e3bb
00000220: ec5e 22bc 6dd1 493c 1f09 12bc 194e c53b
00000230: a5cf 873c b505 d63a 0dd0 2dbc 4497 9c3b
00000240: 8f52 773c fb79 8d3c 53cb a1bc 5b55 01b9
00000250: ddff 8c3a 5778 9a3c 11dd cdbb 7ae9 db39
00000260: a65d c13b ce19 2b3c 470d 81bc 5e6f 15bb
00000270: 8bef a9bb cc71 10bc d919 b63b cfe2 45bc
00000280: e393 183b cc81 1a3b c651 313c a512 c03c
00000290: 9e24 773c 42b2 a43b f306 d13b de32 9b3b
000002a0: fc03 41bc 6910 80bb eb63 9c3c 99bc 96bc
000002b0: 1e08 21bc b0fe 043b 21d7 4abc 1f3f 083d
000002c0: 75b0 6fbc 7a52 043c 67e3 40bc 8c26 f13b
000002d0: 5dbe 0abc cc96 87bc 3818 1ebc 94a6 903b
000002e0: b8c5 443b a66a a53c 2223 ca3c 802d ffbb
000002f0: 9c34 193d 00fb 3c3c d934 d33c 45b9 c4bc
00000300: 8d77 47bc ba8d 0a3c 3609 7dbc 08cd 9dbc
00000310: c620 903b a271 7e3b 04e4 8e3b 4142 39bb
00000320: 3922 d3bc 8228 723c 97d5 123c dd69 4e3c
00000330: 9c85 ccbc eb59 9cbc 9709 ae3b 7c2c c43c
00000340: 6f18 e5bb 7bfe ceba eb9a f7ba 8187 f63b
00000350: f1a1 fe3b 3107 6e3b d78b 943c b2aa acba
00000360: 71c1 0cbc 3a8e 443c 3d91 bbbb 8a34 87bc
00000370: 0278 5d3c 9e73 33bc 9c8a 453b 16db 5b3c
00000380: aa6b 50bc 1c51 debc d736 0ebc e54b 87bc
00000390: 271f 07bb d20e b83c cd96 d9bb 1e41 32bc
000003a0: cc08 aabb 17f1 123c 064a a8b9 401f c43b
000003b0: 9164 8dbb c47c 283c 07f6 48bc 9e0e 21bc
000003c0: d873 c9bb 017f f7bb 5f84 d4bb 3d44 3a3a
000003d0: 21d3 a2bc 4500 383c fba3 d4bb 89b5 4abc
000003e0: 42e3 bc3c f9aa 94bb bc47 92bc 37b2 45ba
000003f0: ecb2 86bb 4880 273c aed8 c53b 2bc2 4ebb

feature_weight.bias f4 [50]
0.0048630233 0.0 -3.9496055e-05 -0.003373913 0.0076698842 -8.0108606e-05 0.0010795611 0.0
0.0035056828 0.0042065047 0.000531039 -0.0018369545 -0.0022824623 0.000362017 -7.258968e-05 -0.002109465
-0.0009133994 -0.0012210737 -0.00039779706 0.005618605 -4.386205e-05 0.0049472535 0.00034496756 -0.00034853103
0.002128275 0.010485772 0.0021366787 -0.0018002298 0.00027716102 0.00040116173 -0.00041020848 -0.0011644943
0.004582575 0.0009767511 5.388678e-05 0.0006972616 0.0 0.004503682 0.0 0.0009837148
0.00039509233 0.0016493148 0.000543877 -0.000111971814 -0.00250887 0.0035118195 -0.0041968008 -0.0018940045
0.00019590456 -0.0006094539
00000000: ff59 9f3b 0000 0000 91a8 25b8 de1c 5dbb
00000010: a753 fb3b fbff a7b8 0f80 8d3a 0000 0000
00000020: 99bf 653b b8d6 893b 6d35 0b3a f7c5 f0ba
00000030: 5d95 15bb 19cd bd39 4a3b 98b8 f33e 0abb
00000040: 3271 6fba 6f0c a0ba 6b8f d0b9 461c b83b
00000050: 84f8 37b8 921c a23b c3dc b439 0bbb b6b9
00000060: 887a 0b3b 84cc 2b3c 8507 0c3b b0f5 ebba
00000070: ec4f 9139 0453 d239 4011 d7b9 f2a1 98ba
00000080: 6d29 963b 5406 803a 7d04 6238 6fc8 363a
00000090: 0000 0000 9f93 933b 0000 0000 feef 803a
000000a0: 6524 cf39 d22d d83a f892 0e3a 69d2 eab8
000000b0: db6b 24bb 8e26 663b 5185 89bb 3f40 f8ba
000000c0: bb6b 4d39 c2c3 1fba

hidden_features.0.weight f4 [50, 8]
-0.021016074 0.012174077 0.00034028754 0.008704734 -0.005419296 0.010647738 -0.015266505 -0.01289512
0.0044401116 0.0027317118 -0.004609785 -0.012133862 -0.010752428 -0.002736916 -0.008850857 -0.023617117
0.024398163 0.017903186 0.011876785 0.007934615 -0.0024112072 0.0057365573 0.0036727164 0.025902845
-0.012716111 0.002017452 0.02440816 0.007766224 0.036430534 -0.0012804256 -0.007839456 -0.01612861
-0.018780809 -0.0059544295 0.021895606 0.004007369 -0.0042920127 -0.0035784503 0.0095794825 0.0005192037
0.007620976 2.4750138e-05 -0.006840089 -0.014852389 -0.008208118 0.0046892604 0.014599102 -0.0052466956
0.015653549 -0.030104635 0.014590046 0.0010005643 -0.0067796297 -0.02050297 0.02292305 0.0048694266
-0.005624403 0.004424786 -0.016120598 -0.0062746406 -0.005345807 -0.0063180723 -0.000139331 -0.0122481305
0.005967846 -0.0019869031 -0.008168164 0.010028665 -0.019500788 0.01173383 -0.00015710841 0.017178401
-0.019473521 -0.001026636 -0.006073404 0.009622915 -0.010991954 -0.006306174 0.009377719 0.012344292
0.009803799 0.009433938 0.011855224 -0.0030522693 0.005162756 -0.0028481563 -0.0038790407 0.014380029
0.009441012 -0.016866365 0.0025287187 0.004155097 -0.0059880675 -0.021109901 -0.012868524 -0.0025455197
0.0006523559 0.00197281 0.024667494 -0.005521434 0.021698488 0.0013420157 0.0029337287 -0.021039741
0.001358275 0.002881372 0.0065368987 0.006117573 0.023046743 0.009776137 0.021688024 0.0073371073
0.010850317 -0.00012180708 -0.004912182 0.011283044 -0.0057308376 -0.015567223 -0.003130109 0.012518464
0.020154562 0.012399732 0.014841007 -0.0029686878 0.010895373 0.0051286113 -0.013837914 -0.021048317
-0.0004128806 -0.008567556 -0.0085095335 0.011128351 -0.0043165865 0.005083936 -0.0023967873 -0.0069453903
-0.009910326 0.012317997 -0.008913307 0.006021273 0.016578505 0.0016328605 -0.010608685 0.0047787745
0.015095367 0.017270079 -0.019750273 -0.00012334196 0.0010757406 0.01885621 -0.0062824567 0.0004194489
0.0059010563 0.010443164 -0.015753401 -0.0022801976 -0.0051860265 -0.008816194 0.0055572805 -0.012078001
0.0023281507 0.00235759 0.010822719 0.02344639 0.015084414 0.005026133 0.0063790022 0.0047362885
-0.011780735 -0.0039082062 0.019090613 -0.018400477 -0.009828595 0.0020293407 -0.012380392 0.033263322
-0.014629473 0.008076305 -0.011772967 0.0073593315 -0.008468238 -0.016551398 -0.009649329 0.004414389
0.0030025076 0.020192456 0.024674956 -0.0077874064 0.037403688 0.011534452 0.025782036 -0.024014125
-0.012174499 0.008456642 -0.015444091 -0.019262806 0.004398438 0.0038825055 0.0043606777 -0.002826825
-0.025773155 0.014780166 0.008962057 0.012598482 -0.024966054 -0.019085845 0.005311202 0.023946993
-0.006991438 -0.0015792394 -0.0018890774 0.0075234775 0.0077707698 0.0036320204 0.018133087 -0.001317343
-0.008591042 0.0119968 -0.005724101 -0.016504545 0.013517382 -0.010952858 0.0030142432 0.013418933
-0.012720982 -0.027138285 -0.008680067 -0.016515682 -0.0020617933 0.022468004 -0.0066402913 -0.010879783
-0.005189037 0.008968613 -0.0003209861 0.0059851706 -0.004314967 0.010283653 -0.012265689 -0.009830145
-0.006147843 -0.007552982 -0.0064855064 0.0007105505 -0.019876065 0.011230533 -0.0064892746 -0.012372383
0.023057584 -0.004536983 -0.017856471 -0.00075415097 -0.0041106846 0.010223456 0.006037793 -0.0031548839
00000000: e729 acbc c875 473c 9f68 b239 4d9e 0e3c
00000010: 5a94 b1bb da73 2e3c 5d20 7abc 0e46 53bc
00000020: 5b7e 913b 8506 333b ae0d 97bb 1bcd 46bc
00000030: f42a 30bc d55d 33bb 2f03 11bc af78 c1bc
00000040: a8de c73c b4a9 923c d996 423c 3000 023c
00000050: 5805 1ebb bbf9 bb3b f5b1 703b 3432 d43c
00000060: 3c57 50bc 3a37 043b 9ff3 c73c cf7b fe3b
00000070: 2f38 153d f4d3 a7ba 1071 00bc 2620 84bc
00000080: 36da 99bc 601d c3bb 6a5e b33c 3f50 833b
00000090: 03a4 8cbb 6f84 6abb 43f3 1c3c 2c1b 083a
000000a0: 61b9 f93b 849e cf37 d322 e0bb 6f57 73bc
000000b0: 587b 06bc 5ea8 993b 1231 6f3c 79ec abbb
000000c0: df3b 803c ff9d f6bc 170b 6f3c 5e25 833a
000000d0: a827 debb d8f5 a7bc 1fc9 bb3c b68f 9f3b
000000e0: e94c b8bb ccfd 903b 580f 84bc 809b cdbb
000000f0: e12b afbb d507 cfbb 6119 12b9 62ac 48bc
00000100: ec8d c33b b436 02bb c3d3 05bc 454f 243c
00000110: 1ec0 9fbc 403f 403c 78bd 24b9 b8b9 8c3c
00000120: ef86 9fbc 3090 86ba 6803 c7bb 6ea9 1d3c
00000130: 9917 34bc 06a4 cebb 01a5 193c b73f 4a3c
00000140: 1da0 203c ce90 1a3c 6a3c 423c 9508 48bb
00000150: 562c a93b 22a8 3abb 8137 7ebb 379a 6b3c
00000160: 79ae 1a3c 552b 8abc dcb8 253b 7b27 883b
00000170: 8d37 c4bb acee acbc 80d6 52bc bcd2 26bb
00000180: dd02 2b3a 424a 013b 7c13 ca3c 25ed b4bb
00000190: 07c1 b13c 93e6 af3a cd43 403b 895b acbc
000001a0: 2508 b23a 67d5 3c3b 7b33 d63b ec75 c83b
000001b0: 86cc bc3c 172c 203c 15ab b13c 1e6c f03b
000001c0: 87c5 313c ae72 ffb8 5ff6 a0bb 84dc 383c
000001d0: c0c9 bbbb aa0d 7fbc 8422 4dbb 3e1a 4d3c
000001e0: 2e1b a53c 3f28 4b3c b227 733c 518e 42bb
000001f0: 8282 323c e90d a83b 6bb8 62bc 856d acbc
00000200: e577 d8b9 ef5e 0cbc 926b 0bbc b053 363c
00000210: 2772 8dbb 2597 a63b 6b13 1dbb 2896 e3bb
00000220: ec5e 22bc 6dd1 493c 1f09 12bc 194e c53b
00000230: a5cf 873c b505 d63a 0dd0 2dbc 4497 9c3b
00000240: 8f52 773c fb79 8d3c 53cb a1bc 5b55 01b9
00000250: ddff 8c3a 5778 9a3c 11dd cdbb 7ae9 db39
00000260: a65d c13b ce19 2b3c 470d 81bc 5e6f 15bb
00000270: 8bef a9bb cc71 10bc d919 b63b cfe2 45bc
00000280: e393 183b cc81 1a3b c651 313c a512 c03c
00000290: 9e24 773c 42b2 a43b f306 d13b de32 9b3b
000002a0: fc03 41bc 6910 80bb eb63 9c3c 99bc 96bc
000002b0: 1e08 21bc b0fe 043b 21d7 4abc 1f3f 083d
000002c0: 75b0 6fbc 7a52 043c 67e3 40bc 8c26 f13b
000002d0: 5dbe 0abc cc96 87bc 3818 1ebc 94a6 903b
000002e0: b8c5 443b a66a a53c 2223 ca3c 802d ffbb
000002f0: 9c34 193d 00fb 3c3c d934 d33c 45b9 c4bc
00000300: 8d77 47bc ba8d 0a3c 3609 7dbc 08cd 9dbc
00000310: c620 903b a271 7e3b 04e4 8e3b 4142 39bb
00000320: 3922 d3bc 8228 723c 97d5 123c dd69 4e3c
00000330: 9c85 ccbc eb59 9cbc 9709 ae3b 7c2c c43c
00000340: 6f18 e5bb 7bfe ceba eb9a f7ba 8187 f63b
00000350: f1a1 fe3b 3107 6e3b d78b 943c b2aa acba
00000360: 71c1 0cbc 3a8e 443c 3d91 bbbb 8a34 87bc
00000370: 0278 5d3c 9e73 33bc 9c8a 453b 16db 5b3c
00000380: aa6b 50bc 1c51 debc d736 0ebc e54b 87bc
00000390: 271f 07bb d20e b83c cd96 d9bb 1e41 32bc
000003a0: cc08 aabb 17f1 123c 064a a8b9 401f c43b
000003b0: 9164 8dbb c47c 283c 07f6 48bc 9e0e 21bc
000003c0: d873 c9bb 017f f7bb 5f84 d4bb 3d44 3a3a
000003d0: 21d3 a2bc 4500 383c fba3 d4bb 89b5 4abc
000003e0: 42e3 bc3c f9aa 94bb bc47 92bc 37b2 45ba
000003f0: ecb2 86bb 4880 273c aed8 c53b 2bc2 4ebb

hidden_features.0.bias f4 [50]
0.0048630233 0.0 -3.9496055e-05 -0.003373913 0.0076698842 -8.0108606e-05 0.0010795611 0.0
0.0035056828 0.0042065047 0.000531039 -0.0018369545 -0.0022824623 0.000362017 -7.258968e-05 -0.002109465
-0.0009133994 -0.0012210737 -0.00039779706 0.005618605 -4.386205e-05 0.0049472535 0.00034496756 -0.00034853103
0.002128275 0.010485772 0.0021366787 -0.0018002298 0.00027716102 0.00040116173 -0.00041020848 -0.0011644943
0.004582575 0.0009767511 5.388678e-05 0.0006972616 0.0 0.004503682 0.0 0.0009837148
0.00039509233 0.0016493148 0.000543877 -0.000111971814 -0.00250887 0.0035118195 -0.0041968008 -0.0018940045
0.00019590456 -0.0006094539
00000000: ff59 9f3b 0000 0000 91a8 25b8 de1c 5dbb
00000010: a753 fb3b fbff a7b8 0f80 8d3a 0000 0000
00000020: 99bf 653b b8d6 893b 6d35 0b3a f7c5 f0ba
00000030: 5d95 15bb 19cd bd39 4a3b 98b8 f33e 0abb
00000040: 3271 6fba 6f0c a0ba 6b8f d0b9 461c b83b
00000050: 84f8 37b8 921c a23b c3dc b439 0bbb b6b9
00000060: 887a 0b3b 84cc 2b3c 8507 0c3b b0f5 ebba
00000070: ec4f 9139 0453 d239 4011 d7b9 f2a1 98ba
00000080: 6d29 963b 5406 803a 7d04 6238 6fc8 363a
00000090: 0000 0000 9f93 933b 0000 0000 feef 803a
000000a0: 6524 cf39 d22d d83a f892 0e3a 69d2 eab8
000000b0: db6b 24bb 8e26 663b 5185 89bb 3f40 f8ba
000000c0: bb6b 4d39 c2c3 1fba

hidden_features.2.weight f4 [50, 50]
0.0017046886 -0.0049978564 -0.013460658 0.015160301 -0.005601131 0.004760416 0.004933587 -0.0059144306
-0.011414227 -0.0053176302 -0.011189748 0.005680398 -0.013590287 0.012882642 -0.015643016 -0.0016643399
0.014958137 -0.004456609 0.0013033054 -0.008967961 0.0020987305 -0.0012290751 -0.0047039865 -0.014265339
-0.013007524 -0.011028852 0.0040088436 0.009321662 0.014426947 -0.010811 -0.008875543 -0.010552659
-0.0006534754 0.0014119099 0.011821156 0.0038608303 -0.0013534464 -0.0064204624 0.010324369 0.0019609348
0.01253848 -0.01634116 -0.0022937683 -0.005092263 -0.02425006 -0.005870388 0.0011863275 -0.00732075
0.007981742 -0.0061151907 -0.0039550564 -0.014445824 -0.010237142 0.024096968 0.01863014 0.00048220227
0.01087794 -0.0043960554 -0.004609702 -0.0066143125 -0.009216638 -0.006021693 0.010539369 0.0025807247
-0.008757552 0.027423358 0.00830727 0.005148449 -0.016321102 0.0097506335 0.012417799 -0.002815168
0.0029689725 0.020425819 0.0138411345 0.0076172375 -0.002822906 0.010828477 -0.0048122583 0.0017506934
0.0027296278 -0.007548716 -0.0055869888 -0.019454619 0.0021767572 0.011021816 0.0005199402 0.010375562
0.003497723 0.0016981835 -0.007410836 -0.011849122 0.003988977 0.0033742697 0.010808948 0.0030463731
0.0027039358 -0.017814761 -0.0070440085 -0.0117218755 -0.008764134 -0.007852523 -0.001936999 0.010969403
-0.001921294 -0.0071131876 -0.00864007 0.0044027823 -0.013184785 0.005769501 -0.008187316 0.011361663
-0.00395579 0.005388222 0.0034193427 0.0080375625 -0.007645396 0.00038624252 0.0054240697 0.009400899
0.009501634 0.0047499887 -0.001047312 0.01984854 -0.015278411 0.004147171 0.003906715 -0.0021821598
-0.017499177 -0.010612732 -0.015182177 -0.0018321108 -0.012495985 -0.0027293158 0.0005189143 -0.0052127456
-0.013129163 -0.0038027188 -0.0046558343 -0.0011158774 0.015996382 0.007340723 0.011274918 0.005941313
-4.654865e-05 -3.1864856e-05 0.0090606315 0.014506359 -0.005459908 -0.0046894536 -0.028450074 0.0014640439
0.00096821605 0.0077148033 0.011504277 0.005208013 0.0016316767 0.016970951 0.005349366 -0.00061373063
0.008357641 0.007643593 0.0009000352 -0.015283919 0.009156892 0.025975786 0.0063916976 0.009810917
-0.0035053648 0.0009976331 -0.007959736 0.0032119674 0.0022632175 -0.00093959115 -0.01682869 -0.0044841436
-0.007878826 -0.0061580013 0.0013326104 0.00030016305 -0.01882761 0.0017732508 0.02392211 -0.008298193
-0.000489366 0.01606673 -0.0011949629 -0.00047788286 -0.014223681 -0.0032828145 -0.0077319853 -0.0025067981
-0.00043145413 -0.006596251 -0.007519716 0.0060793962 0.0017130406 0.013051727 -0.005665296 0.019455556
-0.0064584706 -0.0050729103 -0.0050635613 -0.0022547573 3.2107237e-05 0.014954596 0.016009161 0.0029809156
-0.0067209494 -0.014244191 -0.0024362002 -0.012282208 0.0122065935 0.0058001913 0.017964719 0.0053371936
0.00514759 -0.010891717 -4.0673604e-06 0.003422809 0.008718866 0.0018625632 0.010655096 0.0032130152
-0.0055305245 -0.008721123 0.00065473793 -0.01197639 0.019624542 0.009643038 0.00977213 -0.00081935927
0.0030321092 -0.016605588 -0.002778084 0.010940836 0.0038982797 -0.0079126125 -0.0016293407 0.0010659135
0.021351421 -0.0045296894 0.01641415 0.0057789213 -0.006960457 0.0050712605 0.013979849 -0.001585736
0.007026619 -0.022168145 -0.0058292407 -0.0041467235 -0.0029119158 -0.005142925 0.007073441 0.0054337615
00000000: dc6f df3a 0fc5 a3bb 178a 5cbc e962 783c
00000010: b189 b7bb 44fd 9b3b eda9 a13b d7cd c1bb
00000020: bd02 3bbc 843f aebb 3455 37bc a222 ba3b
00000030: cca9 5ebc b811 533c c825 80bc fb25 daba
00000040: f912 753c bf08 92bb acd3 aa3a 5bee 12bc
00000050: db8a 093b eb18 a1ba e623 9abb 2bb9 69bc
00000060: 831d 55bc 5cb2 34bc 9e5c 833b e2b9 183c
00000070: 005f 6c3c 9f20 31bc ba6a 11bc 0fe5 2cbc
00000080: fe4d 2bba d60f b93a 86ad 413c fc05 7d3b
00000090: 2066 b1ba be62 d2bb 8b27 293c 0783 003b
000000a0: 326e 4d3c e5dd 85bc 0c53 16bb 00dd a6bb
000000b0: 10a8 c6bc 625c c0bb 8c7e 9b3a e7e2 efbb
000000c0: dac5 023c f061 c8bb 6b99 81bb 2dae 6cbc
000000d0: b0b9 27bc 0167 c53c 3c9e 983c 18d0 fc39
000000e0: 6339 323c c90c 90bb fc0c 97bb e0bc d8bb
000000f0: 6201 17bc 9f51 c5bb 51ad 2c3c 6021 293b
00000100: d67b 0fbc f3a6 e03c 371b 083c 52b4 a83b
00000110: d5b3 85bc 1fc1 1f3c 0674 4b3c ae7e 38bb
00000120: 1893 423b 0c54 a73c edc5 623c 059a f93b
00000130: 8100 39bb ed69 313c 26b0 9dbb 8677 e53a
00000140: 8ee3 323b 385b f7bb 0f13 b7bb 4b5f 9fbc
00000150: eda7 0e3b d994 343c 994c 083a 43fe 293c
00000160: 0e3a 653b 9595 de3a 99d6 f2bb d222 42bc
00000170: f7b5 823b da22 5d3b 0418 313c a9a5 473b
00000180: 8434 313b 43f0 91bc 6dd1 e6bb 1c0d 40bc
00000190: 7197 0fbc dea7 00bc e7e2 fdba 03b9 333c
000001a0: eed3 fbba be15 e9bb 158f 0dbc 3745 903b
000001b0: ff04 58bc 150e bd3b 1824 06bc 4526 3a3c
000001c0: 929f 81bb af8f b03b 0d17 603b fbaf 033c
000001d0: 3b86 fabb 9880 ca39 65bc b13b 3a06 1a3c
000001e0: beac 1b3c cba5 9b3b f645 89ba 6899 a23c
000001f0: 4d52 7abc fee4 873b e703 803b 9102 0fbb
00000200: 6f5a 8fbc 06e1 2dbc aabe 78bc 7023 f0ba
00000210: f6bb 4cbc 52de 32bb c007 083a aecf aabb
00000220: b31b 57bc 0937 79bb f88f 98bb a242 92ba
00000230: d80a 833c 738a f03b 6fba 383c 59af c23b
00000240: 3b3d 43b8 a1a6 05b8 0b73 143c 14ac 6d3c
00000250: 07e9 b2bb fda9 99bb 2110 e9bc 29e5 bf3a
00000260: e1cf 7d3a 76cc fc3b 6f7c 3c3c fba7 aa3b
00000270: fcdd d53a aa06 8b3c bc49 af3b c4e2 20ba
00000280: 7dee 083c 1b77 fa3b 57f0 6b3a 6769 7abc
00000290: ca06 163c 2ccb d43c 7271 d13b f8bd 203c
000002a0: 43ba 65bb 03c3 823a 8d69 02bc df7f 523b
000002b0: 7d52 143b e54e 76ba 52dc 89bc b9ef 92bb
000002c0: 3116 01bc 0fc9 c9bb fcaa ae3a 345f 9d39
000002d0: 5c3c 9abc 6c6c e83a 4df8 c33c 25f5 07bc
000002e0: cc48 00ba 609e 833c 4da0 9cba 5a8c fab9
000002f0: 710a 69bc 7d24 57bb 985c fdbb 1849 24bb
00000300: cb34 e2b9 5d25 d8bb f367 f6bb ac35 c73b
00000310: 1b88 e03a e9d6 553c f3a3 b9bb 4261 9f3c
00000320: 94a1 d3bb a83a a6bb 3bec a5bb 8dc4 13bb
00000330: e2aa 0638 1f04 753c a525 833c 775b 433b
00000340: 693b dcbb 7860 69bc a8a8 1fbb 503b 49bc
00000350: 2afe 473c 880f be3b bf2a 933c a0e3 ae3b
00000360: 1dad a83b 2c73 32bc 5c7a 88b6 3551 603b
00000370: 93d9 0e3c 4021 f43a b692 2e3c 7391 523b
00000380: 6739 b5bb 0be3 0ebc b8a2 2b3a 9f38 44bc
00000390: a6c3 a03c d5fd 1d3c 491b 203c 45ca 56ba
000003a0: 5ab6 463b 7108 88bc 8410 36bb 3141 333c
000003b0: 487a 7f3b e7a3 01bc 9a8f d5ba 1fb6 8b3a
000003c0: 2de9 ae3c ca6d 94bb f876 863c 1b5d bd3b
000003d0: 8c14 e4bb d12c a63b bd0b 653c 79d8 cfba
000003e0: 8d3f e63b f899 b5bc 3703 bfbb 3de1 87bb
000003f0: d7d5 3ebb fb85 a8bb 53c8 e73b b20d b23b

hidden_features.2.bias f4 [50]
0.0 0.00034379956 -0.004804275 -0.0005891435 -0.0023799625 -0.0009337881 0.001033168 4.3026885e-05
-0.010034759 0.0 -0.0030672282 0.00218136 -0.0045803688 0.0028169071 0.028211957 -0.0010772549
0.0 0.027107453 -0.00168609 -0.0035683522 0.0 -0.0010215135 -0.001316635 -0.0021059124
-0.005059017 -0.001153092 0.02487397 0.02936395 0.0 -0.00021214108 -0.0011021206 -0.00089814793
0.026336139 -0.0020046069 -0.0005025492 0.0008918615 0.002014115 -0.0032770939 9.259988e-05 0.011462142
0.0 -0.0050571263 0.021279313 -0.0024112212 -0.0019055336 0.0 0.007307528 -0.0017326567
0.028401423 -0.0008541029
00000000: 0000 0000 ff3f b439 2e6d 9dbb c070 1aba
00000010: 25f9 1bbb 75c9 74ba 5e6b 873a c477 3438
00000020: d468 24bc 0000 0000 8d03 49bb 26f5 0e3b
00000030: eb16 96bb dc9b 383b c31c e73c ad32 8dba
00000040: 0000 0000 7310 de3c cbff dcba 04db 69bb
00000050: 0000 0000 4ee4 85ba f192 acba 5903 0abb
00000060: 1cc6 a5bb 5923 97ba 7fc4 cb3c ab8c f03c
00000070: 0000 0000 3072 5eb9 0875 90ba b071 6bba
00000080: e3be d73c b95f 03bb 82bd 03ba d0cb 693a
00000090: 3eff 033b 83c4 56bb 2f32 c238 b5cb 3b3c
000000a0: 0000 0000 40b6 a5bb f451 ae3c 9405 1ebb
000000b0: 19c3 f9ba 0000 0000 fd73 ef3b 501a e3ba
000000c0: 1aaa e83c e0e5 5fba

density_estimator_head.weight f4 [50, 11]
-0.009131754 0.0026060021 -0.0022403086 -0.0061608832 -0.00887661 -0.0053820047 0.008400881 0.011651736
0.008821209 0.011586807 -0.0033593778 0.008332406 -0.00034647514 -0.00849933 -0.00013159977 -0.01399611
0.0030673896 0.0061869076 -0.0013657507 -0.01055797 -0.012193843 0.0053222068 0.0011268025 -0.017667798
-0.005114496 0.009317553 0.018121805 0.0012142461 -0.016014466 -0.008118751 -0.005511249 -0.0015936075
0.0107108215 -0.0045307977 0.0038176263 0.0063584275 0.0015429818 0.018251734 -0.01682577 -0.012996381
0.016809333 -0.010400072 -0.00072730245 0.029086277 -0.014761351 -0.0017774543 -0.0050333543 0.009373124
0.008126408 -0.0017866784 0.007894208 0.0002711713 0.031559724 -0.0054152133 -0.0010402589 -0.009091312
-0.013243679 0.009711264 0.0021766312 0.009310877 0.010375019 -0.010818469 0.0064912015 0.0012529251
0.00022491558 0.003307687 0.007034999 0.0046255104 0.013628531 -0.011624127 0.007570184 0.0048054215
-0.017900746 0.0067652958 0.021209782 0.0024270657 -0.017725203 -0.0022041094 -0.0020248534 -0.013087693
0.004936831 0.0023010192 0.020057611 -0.0061376295 -0.0019679472 0.0018615582 0.02493453 -0.014207718
0.005408639 -0.00877788 -0.024129037 0.0031026998 -0.011132222 -0.0096359635 -0.0037229331 -0.0062320414
0.002295713 -0.014963854 -0.0024824096 -0.004292411 -0.0160761 0.0072051873 0.012918813 -0.000139991
0.0060921954 0.002717158 0.007205761 -0.010691249 0.012356588 0.008113659 0.02786352 -0.011610513
-0.0075411126 -0.0029466625 0.008432394 0.021559909 -0.0048632845 0.022746302 -0.006094645 -0.0011929396
0.019438745 0.01216112 -0.00015367282 0.019635325 -0.00047770375 0.009245027 -0.028697478 -0.018810706
0.010205069 0.0038787348 0.0058151777 0.0069394424 -0.002401205 0.00019095562 -0.004133756 0.005281918
-0.0005868923 -0.0016877053 0.0075500947 0.0014001117 -0.004744318 0.018587278 0.0016921433 0.0015178499
-0.018799765 -0.0035031403 0.007312229 -0.010391285 0.007122706 -0.0010916493 -0.0089680515 0.0163828
-0.0029491067 -0.0018085073 -0.008303271 -0.020786988 0.003318344 0.0020927878 0.009268451 0.002343064
-0.0026475058 -0.00897325 0.0031678616 -0.013454443 -0.015237386 0.00017341589 0.0030148004 -0.006204585
-0.012059433 0.0025579154 -0.000875321 -0.01160903 0.0050310423 -0.004955707 0.021561684 -0.013946122
0.009751138 -0.011737803 0.01901739 -0.013863913 -0.004723743 0.0053723166 0.0012027671 0.0072420696
-0.014253517 -0.009167852 -0.0014354705 0.0055360063 0.002903261 -0.015005912 0.0016710768 0.0118313655
0.0056109224 0.0066038086 0.0005808712 -0.018967977 -0.006715341 -0.005956152 0.009830357 0.0027866627
-0.015362627 -0.000107151354 0.0115651935 0.0146179935 -0.009108112 0.0060298014 -0.014433728 0.0005059579
-0.0062864497 -0.0034493331 -0.010041592 0.007975055 -0.012942932 0.017361034 -0.002636492 0.011011022
0.00014399395 -0.0018338859 0.0030992667 0.0091391355 -0.009246049 -0.009910211 0.010202982 -0.009019034
-0.00025426227 -0.004491 0.01477874 0.012048705 -0.00040029013 -0.009303519 -0.0064708395 0.006324065
-0.009891295 -0.015581604 0.0026318692 -0.0036892989 0.006736562 -0.0041223555 0.011457286 0.011834076
-0.008048094 -0.008440112 0.021844052 0.0063771517 0.007656676 0.0075324555 -0.009418214 -0.0090768365
-0.022759767 -0.010603792 -0.001256265 -0.0053301565 -0.009832479 0.010896166 -0.008546843 -0.0034986879
00000000: 5a9d 15bc 76c9 2a3b 24d2 12bb 3ce1 c9bb
00000010: 336f 11bc 875b b0bb d9a3 093c ece6 3e3c
00000020: d586 103c 97d6 3d3c 0229 5cbb a584 083c
00000030: 1ba7 b5b9 c640 0bbc 0bfe 09b9 f14f 65bc
00000040: 4206 493b 8bbb ca3b fd02 b3ba 56fb 2cbc
00000050: afc8 47bc e865 ae3b 38b1 933a 0fbc 90bc
00000060: 8197 a7bb a6a8 183c 2e74 943c 5727 9f3a
00000070: c530 83bc 8304 05bc b597 b4bb 98e0 d0ba
00000080: 717c 2f3c 1677 94bb 2431 7a3b 5b5a d03b
00000090: e13d ca3a a984 953c 32d6 89bc c6ee 54bc
000000a0: bab3 893c 1065 2abc 71a8 3eba 5846 ee3c
000000b0: 98d9 71bc 78f9 e8ba d6ee a4bb bb91 193c
000000c0: a024 053c fb2e eaba b556 013c ff2b 8e39
000000d0: c544 013d 1a72 b1bb 4c59 88ba baf3 14bc
000000e0: 04fc 58bc fe1b 1f3c d0a5 0e3b a68c 183c
000000f0: fcfb 293c f33f 31bc 25b4 d43b 3139 a43a
00000100: 51d7 6b39 c7c5 583b d985 e63b 9891 973b
00000110: 344a 5f3c 1f73 3ebc 4e0f f83b cc76 9d3b
00000120: 96a4 92bc 6aaf dd3b 23c0 ad3c 680f 1f3b
00000130: 7234 91bc d272 10bb 67b3 04bb c36d 56bc
00000140: 24c5 a13b b2cc 163b dc4f a43c 2b1e c9bb
00000150: adf8 00bb 87ff f33a 8043 cc3c 7dc7 68bc
00000160: f43a b13b 19d1 0fbc 42aa c5bc aa56 4b3b
00000170: ec63 36bc 29e0 1dbc 74fc 73bb 2736 ccbb
00000180: ac73 163b f42a 75bc ecaf 22bb 5aa7 8cbb
00000190: 06b2 83bc 7e19 ec3b 6ea9 533c 8cca 12b9
000001a0: 0aa1 c73b 5912 323b 4e1e ec3b 592a 2fbc
000001b0: 4973 4a3c 27ef 043c 0942 e43c 053a 3ebc
000001c0: 701b f7bb cb1c 41bb 0628 0a3c 689e b03c
000001d0: 305c 9fbb 7456 ba3c 96b5 c7bb 695c 9cba
000001e0: 013e 9f3c 6f3f 473c 3c23 21b9 43da a03c
000001f0: 5074 fab9 7478 173c f916 ebbc e918 9abc
00000200: 2933 273c 5f32 7e3b 3f8d be3b 4364 e33b
00000210: 895d 1dbb 423b 4839 7574 87bb f113 ad3b
00000220: add9 19ba fe35 ddba c966 f73b f483 b73a
00000230: 3976 9bbb 5944 983c e8ca dd3a 97f2 c63a
00000240: f701 9abc f194 65bb 6c9b ef3b 3540 2abc
00000250: 9765 e93b ac15 8fba bcee 12bc 3935 863c
00000260: cd45 41bb 6f0b edba 710a 08bc 7949 aabc
00000270: 9378 593b 2727 093b b3da 173c 178e 193b
00000280: c781 2dbb 8a04 13bc e69b 4f3b 0670 5cbc
00000290: 3ba6 79bc f9d6 3539 f593 453b d54f cbbb
000002a0: ee94 45bc b3a2 273b cc75 65ba cd33 3ebc
000002b0: 71db a43b 7c63 a2bb 21a2 b03c 467e 64bc
000002c0: 3dc3 1f3c ea4f 40bc 5cca 9b3c 7725 63bc
000002d0: a1c9 9abb 420a b03b 2ba6 9d3a e24e ed3b
000002e0: 9587 69bc c234 16bc 6626 bcba 6367 b53b
000002f0: a344 3e3b 5bdb 75bc 0808 db3a 58d8 413c
00000300: d4db b73b c364 d83b 9b45 183a bb62 9bbc
00000310: 5d0c dcbb d32b c3bb 810f 213c 71a0 363b
00000320: 87b3 7bbc 72b6 e0b8 f07b 3d3c 4f80 6f3c
00000330: 313a 15bc a495 c53b 717b 6cbc 43a2 043a
00000340: 90fe cdbb 350e 62bb 7d85 24bc cea9 023c
00000350: 970e 54bc ba38 8e3c ffc8 2cbb 9367 343c
00000360: 15fd 1639 005f f0ba 111d 4b3b 50bc 153c
00000370: be7c 17bc 705e 22bc 692a 273c 92c4 13bc
00000380: 814e 85b9 3d29 93bb 8722 723c ee67 453c
00000390: 08de d1b9 c96d 18bc 5609 d4bb 1a3a cf3b
000003a0: 190f 22bc fc49 7fbc 707b 2c3b 2ac8 71bb
000003b0: 61be dc3b d314 87bb 57b7 3b3c b6e3 413c
000003c0: 27dc 03bc 6548 0abc 4cf2 b23c 6df7 d03b
000003d0: dbe4 fa3b d1d2 f63b da4e 1abc 03b7 14bc
000003e0: b172 babc 87bb 2dbc 42a9 a4ba 98a8 aebb
000003f0: 6818 21bc d585 323c 0f08 0cbc 3e4a 65bb

density_estimator_head.bias f4 [11]
-0.03438759 -0.027734328 -0.01751251 -0.0075513846 0.0019771522 0.0031714428 0.0085741 0.0027394586
0.0010889798 0.04018733 0.029447336
00000000: 00da 0cbd 1a33 e3bc 6576 8fbc 9b71 f7bb
00000010: 1c93 013b fbd7 4f3b 627a 0c3c 7d88 333b
00000020: 19bc 8e3a 789b 243d 8a3b f13c

Q1.0.weight f4 [50, 50, 5]
0.77194387 -0.29037833 0.20857006 -1.6340016 -0.8140439 -0.55899423 0.2699084 0.36509612
1.0912726 -1.1190434 0.48276627 0.549619 0.09442448 -0.8395731 1.5958288 -2.079139
0.55386114 1.3257656 1.0294372 1.9282304 -0.36493814 0.08178117 -0.18801475 -1.3125973
-0.012225801 -1.2790442 -0.19380973 0.57476926 -0.6574256 -1.2287554 -0.8339604 0.9204703
1.0204803 0.95200914 -1.5680851 -0.6325319 -0.5079531 1.5783451 2.0847101 0.17393857
0.27234527 -0.9789123 0.5523151 1.5432656 1.4156032 -0.106553756 -0.82585853 -1.3600496
-1.3363882 1.0456685 0.49808553 -0.6510906 1.3657576 0.25906852 -1.3676134 -0.24424213
0.2442353 -0.6763373 0.23895063 1.380742 -0.05476113 -0.66856384 -0.68513125 0.50676805
0.99022216 1.5134008 0.41222414 0.7395329 0.44059858 0.15266389 0.104241006 2.217802
0.42036423 -2.0500538 -1.066278 -0.5890451 -0.32007408 1.0825052 0.47492683 -0.100248225
-0.5611091 0.6319357 -1.6824168 -1.2036383 -1.2552342 -1.812042 0.9431276 0.21781327
-0.38544083 -0.25185123 0.5848516 2.2733626 -0.3300004 -1.4530767 -0.89330816 -1.3516145
-0.49010536 -0.4832642 -0.88983166 1.9276915 -0.3440704 0.1370334 -1.6830281 -0.07965888
-1.2122686 0.4493683 0.12985815 -0.3937296 0.49573976 0.16203307 0.048802786 -0.5571801
1.0932993 2.048509 0.9309671 1.6832846 0.5609556 -1.6715461 0.56573844 1.0678407
-2.0718777 -0.5498964 -0.12349584 0.384471 -1.2855661 1.2785552 0.19468328 0.5924276
-0.04488321 -0.058837842 0.24911264 -1.2232451 -0.57636297 1.5588552 -0.24539721 1.1390138
-0.94834566 0.123164594 0.039517127 -0.5375371 0.69920737 1.2918571 0.0404243 1.9441502
-0.17190464 -0.2083778 -0.38147813 1.6117978 -0.9142263 0.47135824 -0.110187456 -1.5013514
1.4255662 -0.097901165 -0.79299796 1.566275 -0.53019303 -1.0087838 2.5882106 0.9487009
-1.3063571 -1.2380784 1.704518 0.53508127 0.3063085 0.8087236 1.4859762 0.45626202
-0.7003464 -0.26711202 -0.07281507 0.721599 -0.6412565 -0.09296771 0.9814186 -1.6919101
-2.2651677 -0.51888204 1.782942 -0.7186651 -1.5757577 -0.7790358 -0.95488954 -0.86695457
-1.0515592 -0.19490816 0.800679 1.3868281 -1.6098357 0.3807362 -0.18171555 1.2381816
-1.2194688 1.0852253 -0.6529001 -0.80006605 0.24346839 0.18681294 -1.7823299 1.1712048
-1.3907119 -0.5670037 -0.1253967 0.27875957 -1.4656646 0.97311866 -0.8286374 -1.3748908
1.5417618 1.5616077 -0.40182585 -0.026889008 -0.8288164 0.09902481 -1.212878 0.93189967
0.336169 -0.6707342 -0.4617977 -1.6361417 -0.8831033 -1.6659416 0.23687771 0.66035706
0.6589559 -0.91553974 0.07627381 0.5342603 0.71539503 -0.3619277 0.48677644 -1.5093392
0.6977582 -0.33983806 -1.0068455 0.19166605 0.933865 -0.41129252 -1.0780656 -1.8836031
0.45679402 0.20198543 0.7894201 0.32075742 0.6938363 -0.11665153 0.6157644 -1.7362487
0.08741191 0.32058176 -1.01287 0.60056466 0.55046105 -1.0638158 0.9975524 -0.047256723
00000000: 1d9e 453f 78ac 94be 6493 553e f726 d1bf
00000010: 2e65 50bf 3f1a 0fbf 6f31 8a3e e1ed ba3e
00000020: d2ae 8b3f d03c 8fbf 242d f73e d5b3 0c3f
00000030: 9f61 c13d 43ee 56bf 1e44 cc3f 9d10 05c0
00000040: d8c9 0d3f b0b2 a93f 99c4 833f 41d0 f63f
00000050: 2cd9 babe e37c a73d f086 40be 3003 a8bf
00000060: ba4e 48bc b8b7 a3bf 0f76 46be 1424 133f
00000070: 0b4d 28bf db47 9dbf 6e7e 55bf f1a3 6b3f
00000080: 199f 823f dfb6 733f 03b7 c8bf 9ced 21bf
00000090: 3709 02bf 3607 ca3f e46b 0540 f41c 323e
000000a0: d770 8b3e ff99 7abf 8664 0d3f ba89 c53f
000000b0: 7c32 b53f db38 dabd 776b 53bf 1b16 aebf
000000c0: c50e abbf 77d8 853f 1105 ff3e e0ad 26bf
000000d0: 25d1 ae3f a1a4 843e f50d afbf 9c1a 7abe
000000e0: d218 7a3e 7124 2dbf 79af 743e 27bc b03f
000000f0: 354d 60bd 0027 2bbf c364 2fbf 8dbb 013f
00000100: 337f 7d3f 1eb7 c13f 0b0f d33e 0752 3d3f
00000110: 2396 e13e ec53 1c3e 4f7c d53d 78f0 0d40
00000120: fb39 d73e 1534 03c0 cc7b 88bf a9cb 16bf
00000130: c0e0 a3be 888f 8a3f 9c29 f33e f14e cdbd
00000140: d9a4 0fbf 8ac6 213f 6f59 d7bf d210 9abf
00000150: 84ab a0bf fef0 e7bf cf70 713f 710a 5f3e
00000160: 8058 c5be a5f2 80be d6b8 153f c67e 1140
00000170: d0f5 a8be 6bfe b9bf d8af 64bf b401 adbf
00000180: 17ef fabe 686e f7be 02cc 63bf 98be f63f
00000190: ff29 b0be 7c52 0c3e 776d d7bf 3224 a3bd
000001a0: 9e2b 9bbf 9a13 e63e 89f9 043e ed96 c9be
000001b0: 9ad1 fd3e ffeb 253e 6ee5 473d 5ba3 0ebf
000001c0: 3bf1 8b3f c51a 0340 dc53 6e3f df75 d73f
000001d0: c99a 0f3f 39f5 d5bf 3cd4 103f 01af 883f
000001e0: a599 04c0 03c6 0cbf 63eb fcbd 62d9 c43e
000001f0: 6e8d a4bf b2a7 a33f 0e5b 473e 56a9 173f
00000200: 75d7 37bd f3ff 70bd 6217 7f3e 4c93 9cbf
00000210: 868c 13bf 9188 c73f 6849 7bbe 34cb 913f
00000220: c8c6 72bf b83d fc3d b6dc 213d 089c 09bf
00000230: 41ff 323f 935b a53f f393 253d ead9 f83f
00000240: c507 30be fd60 55be 1a51 c3be 644f ce3f
00000250: bc0a 6abf de55 f13e f6a9 e1bd 482c c0bf
00000260: f478 b63f 6880 c8bd ea01 4bbf b37b c83f
00000270: bbba 07bf d41f 81bf 3ea5 2540 10de 723f
00000280: b636 a7bf 5a79 9ebf a52d da3f 16fb 083f
00000290: 78d4 9c3e 8308 4f3f 7834 be3f 2d9b e93e
000002a0: e749 33bf e8c2 88be 1120 95bd b6ba 383f
000002b0: 6329 24bf db65 bebd 403e 7b3f 8390 d8bf
000002c0: 82f8 10c0 74d5 04bf 7237 e43f 70fa 37bf
000002d0: 6eb2 c9bf e46e 47bf a473 74bf bcf0 5dbf
000002e0: 7e99 86bf 0196 47be 4df9 4c3f 9583 b13f
000002f0: 190f cebf dbef c23e a413 3abe bc7c 9e3f
00000300: 8e17 9cbf aae8 8a3f 7624 27bf 21d1 4cbf
00000310: c74f 793e e44b 3f3e 6323 e4bf 0aea 953f
00000320: d902 b2bf 2827 11bf fe67 00be 93b9 8e3e
00000330: e69a bbbf 4e1e 793f 9521 54bf 6cfc afbf
00000340: 7358 c53f c3e2 c73f 1ebc cdbe 5646 dcbc
00000350: 502d 54bf 85cd ca3d 963f 9bbf fa90 6e3f
00000360: 581e ac3e 3db5 2bbf c070 ecbe 176d d1bf
00000370: 0f13 62bf 933d d5bf 1290 723e 290d 293f
00000380: 55b1 283f d060 6abf 7135 9c3d 48c5 083f
00000390: 2124 373f 964e b9be c33a f93e 0732 c1bf
000003a0: 48a0 323f 41ff adbe 50e0 80bf 1b44 443e
000003b0: c711 6f3f ef94 d2be 0efe 89bf e819 f1bf
000003c0: e8e0 e93e 45d5 4e3e 7017 4a3f 513a a43e
000003d0: 419f 313f ffe6 eebd bca2 1d3f 663d debf
000003e0: 0405 b33d 4b23 a43e b9a5 81bf 9bbe 193f
000003f0: 04eb 0c3f 1e2b 88bf 985f 7f3f 4490 41bd

Q1.0.bias f4 [50, 5]
0.0008246747 1.634781e-05 -1.0283685e-05 1.1020371e-07 0.0 -0.0021156983 -0.0027764582 -0.0012339252
-4.424246e-05 3.6424175e-05 0.004109994 0.003187699 0.0016491808 0.00018380799 -8.225481e-05 0.003267913
0.0036673634 0.0030654722 0.0010059227 -0.00013408861 0.0052279085 8.228584e-05 -0.0017280878 -0.0009688087
0.00021460022 0.0067615253 0.00077843835 -0.0014706785 -0.0009926424 0.00018765565 -0.002348249 0.002406491
0.0040578726 0.0022077544 0.0004582273 0.0005011849 0.0005225763 0.0005177729 0.00022800651 5.352894e-05
-0.0026106143 -0.0006249722 0.00042050524 0.0003595977 -9.575461e-05 -0.002631215 -0.00021385557 -1.7898004e-05
1.0264287e-06 8.343852e-08 -0.0040091383 -0.002523909 0.0001859774 0.00068218826 -0.00016035244 0.0014184297
0.003212151 0.0036119544 0.001523071 8.291893e-05 0.008351893 0.003872487 0.007337374 0.0048795147
0.0018777808 0.0005938584 -0.0019116295 -0.0015580789 -0.0004178344 0.00010582486 -0.0038054592 -0.001364982
0.00017246477 0.00064716063 0.00029617964 0.0 0.0 0.0 0.0 0.0
0.00014950157 0.0043113707 0.0025896602 0.00043040828 -0.00012176779 -0.007194594 -0.003977073 -0.00067445624
0.00055508886 -4.6671845e-05 0.0053130505 0.0037416336 0.0017880886 0.00014734775 -8.249946e-05 -3.605106e-06
-4.945985e-08 1.0922401e-07 0.0 0.0 0.004694897 -0.0008599989 -0.002622617 -0.0012753429
0.0002509749 -0.0012224053 -0.0012078267 -0.0011958136 -0.00053245155 -0.00013389929 -0.0034757203 -0.0013964518
0.0007351013 0.00073116354 -0.00014919235 -0.0005636205 -0.0005252912 -0.00041237782 -0.00012385563 5.0456842e-06
-0.00027428195 -0.00010449586 -3.8319664e-05 -4.7360786e-07 3.4651862e-07 0.008014359 0.0041525173 0.00087509165
-0.00052412116 -4.519085e-05 -0.0015365385 -0.0015900686 -0.0016252248 -0.00073743286 -0.00018687514 -0.003487578
0.0014674113 0.0023119524 0.0009754533 -0.0001918335 0.00035877695 0.0027512743 0.0034505492 0.0017541196
0.0003846581 -0.0001895432 0.002859815 0.003103669 0.0010916557 -0.0002464423 0.0023574226 -0.0018539538
-0.0021798813 -0.00076630816 0.00021004457 0.0031658316 0.00024550338 2.4749826e-05 7.937418e-06 1.7900114e-06
0.0028165977 0.00304969 0.0015999653 0.00017242065 -9.988707e-05 -0.001940045 0.0014522139 0.0044073667
0.003255299 0.0016605925 0.011093369 0.0073554977 0.0012707087 -0.0010278546 9.701886e-05 8.173302e-05
8.1802835e-05 8.172346e-05 3.6632344e-05 9.325109e-06 -0.0024178883 -0.0014839958 -0.0009321064 -0.00018378398
6.6535926e-05 0.01571361 0.008448138 0.0026043865 -0.0005115229 -9.871121e-06 0.0 0.0
0.0 0.0 0.0 -4.509618e-05 -3.927044e-05 -3.3962086e-05 -1.2957099e-05 -2.122399e-06
-0.00035044836 9.830286e-05 0.00023409327 0.00012912767 2.8825092e-05 4.413212e-05 3.9260573e-05 3.9187787e-05
1.7932045e-05 4.849788e-06 0.0 0.0 0.0 0.0 0.0 0.0015641621
0.0020500044 0.0009156979 2.0007385e-05 -4.3074964e-05 0.0023804503 0.0023587595 0.0022925416 0.0009975773
0.00022579664 0.0033629786 -0.0005375654 -0.001247423 -0.0005560664 0.00012263609 -0.0126125105 -0.009173169
-0.00087868684 0.0017895298 -0.000405097 0.0070469547 0.0018458734 -0.0008998523 -0.00090817886 0.00020300018
-0.002661657 6.1786704e-05 -0.00022332753 -0.00016284331 -4.064249e-05 0.0015730126 0.00022484377 8.95343e-05
3.0908323e-05 6.6877956e-06
00000000: fb2e 583a a822 8937 1788 2cb7 21a9 ec33
00000010: 0000 0000 87a7 0abb 3df5 35bb a9bb a1ba
00000020: fb90 39b8 29c6 1838 21ad 863b b7e8 503b
00000030: 5329 d83a 95bc 4039 3780 acb8 7b2a 563b
00000040: 2658 703b 17e6 483b 2ad9 833a 239a 0cb9
00000050: e04e ab3b e090 ac38 0181 e2ba a7f7 7dba
00000060: 4f06 6139 c98f dd3b 1d10 4c3a c8c3 c0ba
00000070: 8d1b 82ba 6ec5 4439 15e5 19bb 38b6 1d3b
00000080: e7f7 843b f9af 103b 3a3e f039 f361 033a
00000090: 80fd 083a 27bb 073a 0815 6f39 4384 6038
000000a0: d716 2bbb 2dd5 23ba 4277 dc39 6388 bc39
000000b0: ddcf c8b8 7670 2cbb 6b3e 60b9 ac23 96b7
000000c0: d2c3 8935 d02e b333 175f 83bb 2b68 25bb
000000d0: ee02 4339 e1d4 323a 4824 28b9 9aea b93a
000000e0: f382 523b 8ab6 6c3b c8a1 c73a c3e4 ad38
000000f0: 61d6 083c 8dc9 7d3b 5b6e f03b 56e4 9f3b
00000100: de1f f63a 2aad 1b3a a48f faba 7438 ccba
00000110: c910 dbb9 4aee dd38 0365 79bb 32e9 b2ba
00000120: a9d7 3439 37a6 293a 8f48 9b39 0000 0000
00000130: 0000 0000 0000 0000 0000 0000 0000 0000
00000140: 86c3 1c39 6646 8d3b 4ab7 293b 6ca8 e139
00000150: 965d ffb8 a1c0 ebbb 1b52 82bb fecd 30ba
00000160: 6283 113a 83c1 43b8 1919 ae3b 3236 753b
00000170: 4c5e ea3a 5c81 1a39 8f03 adb8 40ef 71b6
00000180: ae6d 54b3 898e ea33 0000 0000 0000 0000
00000190: a7d7 993b 8d71 61ba 36e0 2bbb 6829 a7ba
000001a0: 4895 8339 1e39 a0ba f04f 9eba d9bc 9cba
000001b0: 3894 0bba 5167 0cb9 e9c8 63bb 2609 b7ba
000001c0: d0b3 403a 8eab 3f3a 8470 1cb9 eebf 13ba
000001d0: b2b3 09ba 6a34 d8b9 3edf 01b9 194e a936
000001e0: 80cd 8fb9 ca24 dbb8 6db9 20b8 2b44 feb4
000001f0: 2809 ba34 a84e 033c d711 883b 6866 653a
00000200: 2d65 09ba 4e8b 3db8 ad65 c9ba d969 d0ba
00000210: 7f05 d5ba 4850 41ba eaf3 43b9 d98f 64bb
00000220: 2756 c03a 2084 173b 90b5 7f3a ea26 49b9
00000230: 3a1a bc39 b94e 343b 9c22 623b 7dea e53a
00000240: f0ab c939 1ec0 46b9 bc6b 3b3b ed66 4b3b
00000250: e315 8f3a ed34 81b9 fd7e 1a3b 5e00 f3ba
00000260: 57dc 0ebb 12e2 48ba 693f 5c39 d779 4f3b
00000270: e8b6 8039 d99d cf37 f32a 0537 5340 f035
00000280: ab96 383b 4fdd 473b edb5 d13a d1cb 3439
00000290: 767a d1b8 1c49 feba 3658 be3a ac6b 903b
000002a0: db56 553b 3da8 d93a f6c0 353c 6306 f13b
000002b0: e98d a63a 14b9 86ba 9b76 cb38 1568 ab38
000002c0: 908d ab38 f362 ab38 aea5 1938 0a73 1c37
000002d0: 6f75 1ebb a382 c2ba 9a58 74ba 23b6 40b9
000002e0: 3489 8b38 d4b9 803c 0f6a 0a3c 5bae 2a3b
000002f0: b917 06ba 249c 25b7 0000 0000 0000 0000
00000300: 0000 0000 0000 0000 0000 0000 a825 3db8
00000310: 50b6 24b8 8372 0eb8 5162 59b7 8a6e 0eb6
00000320: 62bc b7b9 f227 ce38 ef76 7539 7266 0739
00000330: 6acd f137 811a 3938 b8ab 2438 915d 2438
00000340: c66c 9637 5dbb a236 0000 0000 0000 0000
00000350: 0000 0000 0000 0000 0000 0000 9204 cd3a
00000360: 5e59 063b 720b 703a 88d5 a737 64ab 34b8
00000370: 5401 1c3b 6b95 1a3b 773e 163b 24c1 823a
00000380: d3c3 6c39 6b65 5c3b 67eb 0cba 9280 a3ba
00000390: fcc4 11ba e097 0039 b4a4 4ebc 0f4b 16bc
000003a0: ad57 66ba a88e ea3a 3363 d4b9 24ea e63b
000003b0: 3cf1 f13a 11e4 6bba da12 6eba 72dc 5439
000003c0: 326f 2ebb 7c93 8138 072d 6ab9 ebc0 2ab9
000003d0: 8b77 2ab8 8b2d ce3a 0ac4 6b39 5cc4 bb38
000003e0: 8fa3 0138 ba67 e036

Q1.1.weight f4 [50, 1, 5]
-0.10896934 -0.28293824 -0.6861069 -0.5688472 0.26000077 -0.6789538 0.5608448 1.3683223
-1.4971279 0.84843886 0.5461599 -0.8000559 -0.49543262 -1.2983586 1.0183122 -0.5976758
-0.75505036 0.015958102 1.2917738 -1.2944205 0.33766592 1.0663848 0.5651759 -0.5297634
0.59864616 0.3309091 1.3846949 0.07173371 -1.0977373 0.99193984 -0.81466436 -0.19835077
0.9592509 1.0106956 0.42113504 -1.2643747 -0.43171966 -0.44670427 1.1530452 0.32503784
-0.2691832 -0.598998 0.6486526 -1.1120503 0.32874113 0.1972687 0.60940796 0.09880818
2.109991 0.8060698 -1.2353022 0.8947178 -0.541574 -0.48084438 -0.930258 -0.16407418
-0.8286644 -0.482672 0.20490365 0.15080433 -1.1810503 -1.3504907 0.0091446005 -0.88868314
-0.27877808 -0.37695244 1.5658226 -0.60037595 1.3083627 -0.8973336 1.2894727 0.42255107
0.025593244 0.02845495 -0.6839569 -1.2931765 0.42591664 -1.6563576 -0.8932332 -0.15818128
1.2131072 -2.8264155 0.09891281 0.25298336 -0.7341382 -0.950695 -0.11007554 1.2160892
0.6272695 1.3281338 0.34518954 0.61156344 -2.4426544 0.06666645 1.8723962 0.8350018
-1.0326456 0.68880785 -0.7772286 1.1130989 0.38350168 1.0547591 1.1347426 -0.23488128
0.7488148 -0.020255998 -0.14761941 0.023533447 0.81128234 0.19617571 -0.8940409 0.21613763
-0.0352048 -2.0503488 -1.1803674 0.8136109 -0.8386651 -0.39607373 0.69148433 1.1401037
-0.3805175 -0.5995604 0.6861764 0.58699924 0.4761865 0.7453905 -0.13053706 -0.23667328
1.015675 -1.1651897 0.9496494 -0.36207545 -1.4181231 0.3819803 0.40112984 -0.25338653
-0.92811424 -0.41299325 -0.38190663 1.894086 1.4926693 1.0171922 -0.53178394 1.7248344
-1.2178884 -0.22409801 -0.09315039 -2.8366847 0.06990333 -2.6608672 -0.17564021 1.3912443
0.77102476 -0.55065835 -1.4913176 -0.1727359 -1.2436528 -0.521065 -0.91083366 -0.13147344
0.45300356 -0.46992606 -1.1003419 -0.7774476 -0.22005875 -1.1667628 0.016684575 -1.0773703
-1.8834633 0.30625898 2.2186275 -1.6537135 -0.11097711 -1.5847132 -1.1905427 -1.0929209
-0.29416183 -0.7945396 -0.93554157 -0.13026303 0.09366891 -0.51577795 1.0526149 1.1207209
-0.69346243 1.182437 0.16038336 0.19382003 -0.57154065 -1.3926826 0.20541975 0.41857138
-0.21698365 0.60877746 -0.30887422 2.0888858 -0.35914657 0.99321413 0.49273908 0.95322627
-0.87082964 1.0638722 -1.2838521 -0.82300234 -0.03796441 -1.7859832 -2.3788779 1.1627411
-0.96238 -1.2143053 -0.33550107 0.55995494 0.45405033 -0.23327486 0.0054079085 0.48967063
-0.7732445 -0.19567838 -0.65816844 -1.3699964 -0.1325002 -0.5139918 -0.6945708 -1.487812
0.5101304 -0.13606961 1.6285673 -0.68896025 0.38792437 0.15680185 -3.0916955 0.62829274
-0.41767648 1.006269 0.4968541 0.6679271 0.59569794 0.51258385 -1.8409946 -1.102304
0.550497 1.1233407 0.8241853 -1.4032264 0.16589908 -0.1475639 0.58119893 -1.5482918
-0.3479707 2.433799
00000000: 512b dfbd 48dd 90be b4a4 2fbf f89f 11bf
00000010: d21e 853e ebcf 2dbf 8693 0f3f 2f25 af3f
00000020: e3a1 bfbf 4a33 593f 23d1 0b3f 77d0 4cbf
00000030: 58a9 fdbe 9d30 a6bf 0e58 823f 4801 19bf
00000040: fb4a 41bf 91ba 823c d858 a53f 92af a5bf
00000050: 8ce2 ac3e 4c7f 883f 5eaf 103f 939e 07bf
00000060: e040 193f eb6c a93e af3d b13f 20e9 923d
00000070: a882 8cbf c5ef 7d3f d88d 50bf 771c 4bbe
00000080: 7891 753f 795e 813f 039f d73e 08d7 a1bf
00000090: 5c0a ddbe 6cb6 e4be fc96 933f 5c6b a63e
000000a0: 61d2 89be ef57 19bf 190e 263f aa57 8ebf
000000b0: c250 a83e ce00 4a3e 2902 1c3f f15b ca3d
000000c0: 180a 0740 975a 4e3f 621e 9ebf 3a0c 653f
000000d0: 98a4 0abf 3c31 f6be 6325 6ebf 1003 28be
000000e0: 5a23 54bf c920 f7be 43d2 513e 736c 1a3e
000000f0: a82c 97bf e1dc acbf 3cd3 153c bd80 63bf
00000100: 00bc 8ebe e9ff c0be e06c c83f 3db2 19bf
00000110: 6e78 a73f a8b7 65bf 710d a53f 9d58 d83e
00000120: eca8 d13c 5b1a e93c cd17 2fbf cf86 a5bf
00000130: bf11 da3e 8703 d4bf eeaa 64bf 46fa 21be
00000140: 1947 9b3f fee3 34c0 cd92 ca3d 0987 813e
00000150: 7bf0 3bbf bf60 73bf 496f e1bd d0a8 9b3f
00000160: bc94 203f 4a00 aa3f afbc b03e 6c8f 1c3f
00000170: 7354 1cc0 6b88 883d aeaa ef3f aec2 553f
00000180: bb2d 84bf b655 303f 74f8 46bf 067a 8e3f
00000190: 555a c43e 5902 873f 3f3f 913f b884 70be
000001a0: 54b2 3f3f e8ef a5bc 8b29 17be 37c9 c03c
000001b0: 33b0 4f3f 49e2 483e dddf 64bf 2f53 5d3e
000001c0: e932 10bd ea38 03c0 4716 97bf ce48 503f
000001d0: c2b2 56bf 2dca cabe 1e05 313f ebee 913f
000001e0: 31d3 c2be ca7c 19bf 42a9 2f3f 9545 163f
000001f0: b8ce f33e e9d1 3e3f 82ab 05be 7b5a 72be
00000200: a301 823f f024 95bf 391c 733f f461 b9be
00000210: 0f85 b5bf ec92 c33e e460 cd3e e1bb 81be
00000220: e598 6dbf da73 d3be 4489 c3be 6971 f23f
00000230: ca0f bf3f 5b33 823f fe22 08bf 60c7 dc3f
00000240: c4e3 9bbf f379 65be a2c5 bebd 3e8c 35c0
00000250: 7a29 8f3d a64b 2ac0 07db 33be 4b14 b23f
00000260: e161 453f f2f7 0cbf 7fe3 bebf aee1 30be
00000270: 0430 9fbf 8464 05bf 652c 69bf f9a0 06be
00000280: 15f0 e73e 269a f0be 01d8 8cbf ce06 47bf
00000290: 1557 61be 7c58 95bf 17ae 883c 45e7 89bf
000002a0: 5315 f1bf facd 9c3e fefd 0d40 e2ac d3bf
000002b0: f847 e3bd e2d7 cabf b463 98bf d5e4 8bbf
000002c0: 619c 96be f266 4bbf a77f 6fbf ac63 05be
000002d0: 7cd5 bf3d 060a 04bf 16bc 863f c873 8f3f
000002e0: c186 31bf 185a 973f 893b 243e c278 463e
000002f0: 7d50 12bf 6c43 b2bf 8e59 523e fd4e d63e
00000300: f630 5ebe d7d8 1b3f c324 9ebe 4eb0 0540
00000310: 0fe2 b7be 4843 7e3f 4c48 fc3e a306 743f
00000320: b1ee 5ebf f72c 883f 4455 a4bf 48b0 52bf
00000330: 9280 1bbd 199b e4bf 893f 18c0 b3d4 943f
00000340: 895e 76bf 5b6e 9bbf ccc6 abbe 3559 0f3f
00000350: 4979 e83e 9bdf 6ebe d334 b13b 1cb6 fa3e
00000360: 5af3 45bf ea5f 48be ba7d 28bf 0b5c afbf
00000370: 22ae 07be f794 03bf 64cf 31bf a070 bebf
00000380: e897 023f d555 0bbe e574 d03f b35f 30bf
00000390: 069e c63e aa90 203e 57de 45c0 cbd7 203f
000003a0: b1d9 d5be 6ccd 803f a963 fe3e 45fd 2a3f
000003b0: a97f 183f b238 033f b6a5 ebbf 4c18 8dbf
000003c0: 5fed 0c3f a1c9 8f3f cffd 523f ec9c b3bf
000003d0: 73e1 293e fe1a 17be 74c9 143f 6d2e c6bf
000003e0: 3729 b2be 5dc3 1b40

Q1.1.bias f4 [1, 5]
0.006264087 0.002495708 -0.0005707176 -0.00090814906 0.00014327411
00000000: f842 cd3b 088f 233b 369c 15ba da10 6eba
00000010: da3b 1639
