CausalCVR/logs/simu2/eval/83/Vcnet_ckpt.pth.tar (torch, 123067 bytes, 16 tensors)

feature_weight.weight f4 [50, 8]
00000000: 91a9 083c 0ed3 bd3a e000 baba 7be0 9e3c
00000010: fef6 15bc 2fa6 e63b 034b 75bc c583 ccbb
00000020: c999 923b f433 08bc 5cdc c03b 43f9 63bc
00000030: 9b0c 87bc 7668 7f3a e9c1 30bc be6c 99bb
00000040: c72a e6bb 28e5 f93a 5543 8cbc b526 fdba
00000050: 9742 94b9 0467 0bbc baeb c4bb 665c ffbb
00000060: 8d92 973a a91e 523c ee33 4bbc 5717 06bb
00000070: 2ef3 033c d931 91bc 6ebd de3b 873a 2739
00000080: 4ef9 1d3c b505 15bb a3ff 47bc c81d 233c
00000090: 9c9d 21bc 5648 03bc 2991 1d3b 4d23 073c
000000a0: 4dca 64bc dc1a adbb 947a bf3a 8ea7 26bc
000000b0: 0617 30bc c029 0aba d44f 3e3c 4638 023a
000000c0: 66bb a1bc 93e9 323c bc57 c33b fe9f e83b
000000d0: 745e 9a3a e5b2 103b fbe7 34bc 492f 363c
000000e0: 187c d0bb a6f1 243a b94a 70bc dd6b db3a
000000f0: bf68 d4bb ffc4 9ebb b5fd 3d3c 5038 66ba
00000100: cc7a 0dbc b140 8538 8890 673c d760 233c
00000110: 389e 283c 017b fb3a e3f1 093c e3ba a23c
00000120: f224 3abc feaf 18bb 0be2 aa3c 1398 ac3c
00000130: 50bb 15bc ab98 953b 4baf 393b 02e6 dcb9
00000140: 7ad8 91bc 33b2 3bbc ec22 90bb 5b79 29bb
00000150: d355 05bb 16d9 063b 4388 d8bb 77d8 19bc
00000160: ee90 c5bc 8ffd 503b c68b 833b b2e5 15bc
00000170: 4cef 53ba 877c 68bb 8c2e aabb f509 273b
00000180: a125 303b fc46 29bc 36ab 5e3b 583c 63bc
00000190: 48a3 023c 8ec7 bf3a 0871 68bb 9c7f ed3b
000001a0: 781b ffba 6f3d 703c 0a2d 9cbc 92a4 c8bb
000001b0: b78e 893b 33fe bbba db01 9fbb 1d0a d0bb
000001c0: 326a d03b a462 1ebc 6031 bdbc 2d9f ca3b
000001d0: c10a 37bc b3e1 063c e53d 753a 6b99 8dbb
000001e0: 54c9 01bb 360c a33c 8dd1 2b3c e776 eb3c
000001f0: 6b63 1e3c fcf7 ed3b 1c7b b7ba 1a6f a7bc
00000200: 9404 75ba 5155 91b9 61ba 753b a910 bf38
00000210: c205 ea39 b6c4 0d3b 558b 06bb 218e d2bb
00000220: 3b9b 95bb 41f2 11bc 2959 503c 89af 343a
00000230: 87ae 4ebc d838 b53c e363 a2bb 2884 b23c
00000240: 9ad1 2c3b 3c42 9dbb 905a 75ba dfbf ecbb
00000250: 1405 193b 2745 68bc e7af 2fbc 09be 56bb
00000260: 8d0a 97b9 13ed 2fbb 1fd3 f03c 28be 50bc
00000270: 2910 a73c 5ccd 553b eec6 73bc a952 e13b
00000280: fefe 473b 4c35 103c afa9 983b b224 6f3c
00000290: c5ac 71bc bc14 223b 81e9 433b f847 04bc
000002a0: 1303 9f3b a7b7 fd3b dd74 54bc 0e18 8c3a
000002b0: 096a 78bc c494 eb3b 1835 2aba f3f8 86bc
000002c0: c203 30bb b65e a6bc dc77 cb3c 3d87 ecbb
000002d0: d25d ae3c ccb6 76bc d1eb 3737 d101 5aba
000002e0: 507f 253a 94e6 3e3c 2736 52bb 204f 8e3b
000002f0: e07c 00bc 3c09 4abc 38a5 f9bb 4027 cc3b
00000300: 61c5 bb3c 178d 163a 005b 92bb 1cfd a53b
00000310: 7bd7 413c 55ef 8cbb c47e dfbb 7367 9b3b
00000320: 5a91 803c 5287 a43c 2cd1 fa3b dbef 27bc
00000330: e412 8139 7824 8dba f168 8dbb 7c2d 3b3c
00000340: 5572 233a fbeb 6d3b a55e 023b b059 453b
00000350: d42e aeba d9b6 d03c da68 133c d246 ccbb
00000360: 4f4d 2d3c a91f 8ebb af60 39bc d512 65bc
00000370: 5038 843b 16f9 9dbc b1fd 6f3b 7eed ce3b
00000380: 0fee 133b 6f5c 90ba 4df1 febb 8f43 393c
00000390: 0553 013c e45a e93b 0fea 0dbc 75a0 91bb
000003a0: 01dd 5dbc d1ec db3a b379 353c 9bcc 163c
000003b0: 2081 e13b 2525 993c 0874 323a c5a0 8cbc
000003c0: 9d3c 66bb b76d 65bc 33ef 24bc 429a 50bc
000003d0: a706 4a3a f37e 65bc 89a3 503a fde1 35bc
000003e0: 737a b43a beb9 34bc 5e52 ad3b fb57 0839
000003f0: ab3e 583c f53a 90b9 43fe 0cbc 453c 373c
0.008341209 0.0014482455 -0.0014190935 0.01939415 -0.009153126 0.0070388536 -0.0149714975 -0.006241294
0.004473899 -0.008313168 0.005885644 -0.013914409 -0.016485503 0.0009743044 -0.010788419 -0.0046821525
-0.0070241424 0.0019065486 -0.01712195 -0.0019313904 -0.00028278373 -0.008508448 -0.006009546 -0.007792997
0.0011564061 0.012824693 -0.012402518 -0.002046069 0.008053584 -0.017723965 0.006797484 0.00015948164
0.009641958 -0.0022738997 -0.012206945 0.009955831 -0.009864237 -0.008012852 0.002404282 0.008248162
-0.013964248 -0.005282743 0.0014608675 -0.010171784 -0.010747677 -0.00052705035 0.011615712 0.0004967492
-0.019742679 0.010919946 0.0059613865 0.0070991507 0.0011777417 0.0022079286 -0.011041637 0.011119672
-0.0063624494 0.0006292112 -0.014666253 0.001674052 -0.0064822133 -0.004845261 0.011596133 -0.0008782195
-0.008635234 6.353984e-05 0.01413358 0.009971819 0.010291629 0.0019186438 0.008419487 0.019864505
-0.0113613475 -0.002329826 0.020859739 0.021068608 -0.009138897 0.0045653186 0.0028333243 -0.0004213304
-0.01780342 -0.01145606 -0.0043986943 -0.0025859687 -0.0020345345 0.002057617 -0.0066080405 -0.009389988
-0.02411696 0.0031889414 0.004014465 -0.009149002 -0.0008084669 -0.0035474615 -0.005193537 0.0025488113
0.0026877897 -0.010331865 0.0033976561 -0.013869368 0.0079735 0.0014631615 -0.0035467763 0.0072478782
-0.0019463142 0.014663084 -0.019064445 -0.006123134 0.004197921 -0.0014342725 -0.004852516 -0.006348862
0.0063603157 -0.009667072 -0.023094833 0.006183526 -0.0111719975 0.008232522 0.00093552313 -0.0043212674
-0.0019803839 0.019903284 0.0104869725 0.02874322 0.009667258 0.007262228 -0.0013998481 -0.02043872
-0.00093466905 -0.0002772012 0.0037495124 9.110693e-05 0.00044636248 0.0021632141 -0.0020529826 -0.0064256345
-0.004565624 -0.0089078555 0.01271657 0.0006892612 -0.012614853 0.022121832 -0.004955755 0.021791533
0.002637005 -0.0047991555 -0.0009359503 -0.0072250213 0.0023348974 -0.014176643 -0.010723091 -0.0032767078
-0.00028808825 -0.0026844188 0.029397545 -0.012740649 0.020393448 0.0032623624 -0.0148789715 0.006876309
0.0030516977 0.008801769 0.0046588997 0.014596151 -0.014750664 0.0024731597 0.0029893818 -0.008073799
0.0048526614 0.0077428403 -0.0129673155 0.0010688321 -0.0151619995 0.007189365 -0.0006492897 -0.01647613
-0.0026857709 -0.020308834 0.024837427 -0.00721827 0.021284971 -0.015058231 1.0962555e-05 -0.00083163107
0.00063132215 0.011651654 -0.0032075734 0.0043429285 -0.0078422725 -0.012331303 -0.0076185726 0.006230265
0.022921266 0.000574307 -0.0044664145 0.0050655734 0.01183116 -0.0043009915 -0.0068205316 0.0047425567
0.015694309 0.020084057 0.0076543298 -0.010250057 0.00024618872 -0.0010768315 -0.0043154885 0.011424419
0.00062349933 0.0036303985 0.0019892838 0.0030113272 -0.0013289102 0.025477814 0.0089971665 -0.0062340284
0.010577514 -0.0043372703 -0.011314555 -0.013981541 0.0040350333 -0.019283812 0.0036619718 0.0063149324
0.0022572314 -0.0011013875 -0.00778023 0.011307611 0.007893329 0.0071214307 -0.008661761 -0.004444177
-0.013541461 0.0016778951 0.011076379 0.009204055 0.006881848 0.01869447 0.0006807451 -0.017166505
-0.0035131343 -0.014003209 -0.010066795 -0.01273209 0.000770668 -0.014007318 0.0007958939 -0.011101243
0.0013769403 -0.0110306125 0.00528936 0.00013002746 0.013198535 -0.00027509747 -0.008605543 0.011183803

feature_weight.bias f4 [50]
00000000: 8e38 54b9 0000 0000 0000 0000 9255 163b
00000010: 2f16 84ba 9981 c8b9 6394 8e3a a219 083a
00000020: 4a1d c4b9 d03f 1b3a 0000 0000 c495 8539
00000030: 88e3 963a 80b0 aab9 d517 cc39 b8eb 0b3a
00000040: 5c5b b4b9 9a3a fe3b 6d82 9937 fcb4 973a
00000050: 7f6d 81ba 5922 7cba 0d81 19bb 28a3 f4b8
00000060: bb76 8439 4076 65b9 b780 35ba 5597 5439
00000070: fb36 b239 3965 c13a 0000 0000 584f e2ba
00000080: 1969 3b3b 177a 41ba 324a 10ba bba2 903a
00000090: ae2f 17ba 8c48 6538 b3ee 8439 389d fcba
000000a0: 70f8 3bba 14a3 c83a e044 d2b7 c0b5 8cba
000000b0: 279e b23a 4d43 ce3a 7d8f ee3a 525c c9b9
000000c0: ce04 de39 96cb a33a
-0.00020238964 0.0 0.0 0.0022939187 -0.0010077412 -0.0003824353 0.0010877963 0.0005191808
-0.00037405855 0.00059222896 0.0 0.0002547932 0.0011511901 -0.0003255643 0.00038927668 0.0005337554
-0.00034400343 0.0077584507 1.8299756e-05 0.0011574323 -0.0009874551 -0.00096181553 -0.0023422868 -0.00011665217
0.00025265463 -0.00021883193 -0.0006923782 0.00020274271 0.0003399177 0.0014754898 0.0 -0.0017266078
0.0028596579 -0.00073805585 -0.000550422 0.0011034826 -0.00057672977 5.466542e-05 0.00025354847 -0.0019272929
-0.0007170504 0.001530739 -2.5066023e-05 -0.0010735318 0.0013627455 0.001573661 0.0018200722 -0.00038406492
0.0004234672 0.0012496586

hidden_features.0.weight f4 [50, 8]
00000000: 91a9 083c 0ed3 bd3a e000 baba 7be0 9e3c
00000010: fef6 15bc 2fa6 e63b 034b 75bc c583 ccbb
00000020: c999 923b f433 08bc 5cdc c03b 43f9 63bc
00000030: 9b0c 87bc 7668 7f3a e9c1 30bc be6c 99bb
00000040: c72a e6bb 28e5 f93a 5543 8cbc b526 fdba
00000050: 9742 94b9 0467 0bbc baeb c4bb 665c ffbb
00000060: 8d92 973a a91e 523c ee33 4bbc 5717 06bb
00000070: 2ef3 033c d931 91bc 6ebd de3b 873a 2739
00000080: 4ef9 1d3c b505 15bb a3ff 47bc c81d 233c
00000090: 9c9d 21bc 5648 03bc 2991 1d3b 4d23 073c
000000a0: 4dca 64bc dc1a adbb 947a bf3a 8ea7 26bc
000000b0: 0617 30bc c029 0aba d44f 3e3c 4638 023a
000000c0: 66bb a1bc 93e9 323c bc57 c33b fe9f e83b
000000d0: 745e 9a3a e5b2 103b fbe7 34bc 492f 363c
000000e0: 187c d0bb a6f1 243a b94a 70bc dd6b db3a
000000f0: bf68 d4bb ffc4 9ebb b5fd 3d3c 5038 66ba
00000100: cc7a 0dbc b140 8538 8890 673c d760 233c
00000110: 389e 283c 017b fb3a e3f1 093c e3ba a23c
00000120: f224 3abc feaf 18bb 0be2 aa3c 1398 ac3c
00000130: 50bb 15bc ab98 953b 4baf 393b 02e6 dcb9
00000140: 7ad8 91bc 33b2 3bbc ec22 90bb 5b79 29bb
00000150: d355 05bb 16d9 063b 4388 d8bb 77d8 19bc
00000160: ee90 c5bc 8ffd 503b c68b 833b b2e5 15bc
00000170: 4cef 53ba 877c 68bb 8c2e aabb f509 273b
00000180: a125 303b fc46 29bc 36ab 5e3b 583c 63bc
00000190: 48a3 023c 8ec7 bf3a 0871 68bb 9c7f ed3b
000001a0: 781b ffba 6f3d 703c 0a2d 9cbc 92a4 c8bb
000001b0: b78e 893b 33fe bbba db01 9fbb 1d0a d0bb
000001c0: 326a d03b a462 1ebc 6031 bdbc 2d9f ca3b
000001d0: c10a 37bc b3e1 063c e53d 753a 6b99 8dbb
000001e0: 54c9 01bb 360c a33c 8dd1 2b3c e776 eb3c
000001f0: 6b63 1e3c fcf7 ed3b 1c7b b7ba 1a6f a7bc
00000200: 9404 75ba 5155 91b9 61ba 753b a910 bf38
00000210: c205 ea39 b6c4 0d3b 558b 06bb 218e d2bb
00000220: 3b9b 95bb 41f2 11bc 2959 503c 89af 343a
00000230: 87ae 4ebc d838 b53c e363 a2bb 2884 b23c
00000240: 9ad1 2c3b 3c42 9dbb 905a 75ba dfbf ecbb
00000250: 1405 193b 2745 68bc e7af 2fbc 09be 56bb
00000260: 8d0a 97b9 13ed 2fbb 1fd3 f03c 28be 50bc
00000270: 2910 a73c 5ccd 553b eec6 73bc a952 e13b
00000280: fefe 473b 4c35 103c afa9 983b b224 6f3c
00000290: c5ac 71bc bc14 223b 81e9 433b f847 04bc
000002a0: 1303 9f3b a7b7 fd3b dd74 54bc 0e18 8c3a
000002b0: 096a 78bc c494 eb3b 1835 2aba f3f8 86bc
000002c0: c203 30bb b65e a6bc dc77 cb3c 3d87 ecbb
000002d0: d25d ae3c ccb6 76bc d1eb 3737 d101 5aba
000002e0: 507f 253a 94e6 3e3c 2736 52bb 204f 8e3b
000002f0: e07c 00bc 3c09 4abc 38a5 f9bb 4027 cc3b
00000300: 61c5 bb3c 178d 163a 005b 92bb 1cfd a53b
00000310: 7bd7 413c 55ef 8cbb c47e dfbb 7367 9b3b
00000320: 5a91 803c 5287 a43c 2cd1 fa3b dbef 27bc
00000330: e412 8139 7824 8dba f168 8dbb 7c2d 3b3c
00000340: 5572 233a fbeb 6d3b a55e 023b b059 453b
00000350: d42e aeba d9b6 d03c da68 133c d246 ccbb
00000360: 4f4d 2d3c a91f 8ebb af60 39bc d512 65bc
00000370: 5038 843b 16f9 9dbc b1fd 6f3b 7eed ce3b
00000380: 0fee 133b 6f5c 90ba 4df1 febb 8f43 393c
00000390: 0553 013c e45a e93b 0fea 0dbc 75a0 91bb
000003a0: 01dd 5dbc d1ec db3a b379 353c 9bcc 163c
000003b0: 2081 e13b 2525 993c 0874 323a c5a0 8cbc
000003c0: 9d3c 66bb b76d 65bc 33ef 24bc 429a 50bc
000003d0: a706 4a3a f37e 65bc 89a3 503a fde1 35bc
000003e0: 737a b43a beb9 34bc 5e52 ad3b fb57 0839
000003f0: ab3e 583c f53a 90b9 43fe 0cbc 453c 373c
0.008341209 0.0014482455 -0.0014190935 0.01939415 -0.009153126 0.0070388536 -0.0149714975 -0.006241294
0.004473899 -0.008313168 0.005885644 -0.013914409 -0.016485503 0.0009743044 -0.010788419 -0.0046821525
-0.0070241424 0.0019065486 -0.01712195 -0.0019313904 -0.00028278373 -0.008508448 -0.006009546 -0.007792997
0.0011564061 0.012824693 -0.012402518 -0.002046069 0.008053584 -0.017723965 0.006797484 0.00015948164
0.009641958 -0.0022738997 -0.012206945 0.009955831 -0.009864237 -0.008012852 0.002404282 0.008248162
-0.013964248 -0.005282743 0.0014608675 -0.010171784 -0.010747677 -0.00052705035 0.011615712 0.0004967492
-0.019742679 0.010919946 0.0059613865 0.0070991507 0.0011777417 0.0022079286 -0.011041637 0.011119672
-0.0063624494 0.0006292112 -0.014666253 0.001674052 -0.0064822133 -0.004845261 0.011596133 -0.0008782195
-0.008635234 6.353984e-05 0.01413358 0.009971819 0.010291629 0.0019186438 0.008419487 0.019864505
-0.0113613475 -0.002329826 0.020859739 0.021068608 -0.009138897 0.0045653186 0.0028333243 -0.0004213304
-0.01780342 -0.01145606 -0.0043986943 -0.0025859687 -0.0020345345 0.002057617 -0.0066080405 -0.009389988
-0.02411696 0.0031889414 0.004014465 -0.009149002 -0.0008084669 -0.0035474615 -0.005193537 0.0025488113
0.0026877897 -0.010331865 0.0033976561 -0.013869368 0.0079735 0.0014631615 -0.0035467763 0.0072478782
-0.0019463142 0.014663084 -0.019064445 -0.006123134 0.004197921 -0.0014342725 -0.004852516 -0.006348862
0.0063603157 -0.009667072 -0.023094833 0.006183526 -0.0111719975 0.008232522 0.00093552313 -0.0043212674
-0.0019803839 0.019903284 0.0104869725 0.02874322 0.009667258 0.007262228 -0.0013998481 -0.02043872
-0.00093466905 -0.0002772012 0.0037495124 9.110693e-05 0.00044636248 0.0021632141 -0.0020529826 -0.0064256345
-0.004565624 -0.0089078555 0.01271657 0.0006892612 -0.012614853 0.022121832 -0.004955755 0.021791533
0.002637005 -0.0047991555 -0.0009359503 -0.0072250213 0.0023348974 -0.014176643 -0.010723091 -0.0032767078
-0.00028808825 -0.0026844188 0.029397545 -0.012740649 0.020393448 0.0032623624 -0.0148789715 0.006876309
0.0030516977 0.008801769 0.0046588997 0.014596151 -0.014750664 0.0024731597 0.0029893818 -0.008073799
0.0048526614 0.0077428403 -0.0129673155 0.0010688321 -0.0151619995 0.007189365 -0.0006492897 -0.01647613
-0.0026857709 -0.020308834 0.024837427 -0.00721827 0.021284971 -0.015058231 1.0962555e-05 -0.00083163107
0.00063132215 0.011651654 -0.0032075734 0.0043429285 -0.0078422725 -0.012331303 -0.0076185726 0.006230265
0.022921266 0.000574307 -0.0044664145 0.0050655734 0.01183116 -0.0043009915 -0.0068205316 0.0047425567
0.015694309 0.020084057 0.0076543298 -0.010250057 0.00024618872 -0.0010768315 -0.0043154885 0.011424419
0.00062349933 0.0036303985 0.0019892838 0.0030113272 -0.0013289102 0.025477814 0.0089971665 -0.0062340284
0.010577514 -0.0043372703 -0.011314555 -0.013981541 0.0040350333 -0.019283812 0.0036619718 0.0063149324
0.0022572314 -0.0011013875 -0.00778023 0.011307611 0.007893329 0.0071214307 -0.008661761 -0.004444177
-0.013541461 0.0016778951 0.011076379 0.009204055 0.006881848 0.01869447 0.0006807451 -0.017166505
-0.0035131343 -0.014003209 -0.010066795 -0.01273209 0.000770668 -0.014007318 0.0007958939 -0.011101243
0.0013769403 -0.0110306125 0.00528936 0.00013002746 0.013198535 -0.00027509747 -0.008605543 0.011183803

hidden_features.0.bias f4 [50]
00000000: 8e38 54b9 0000 0000 0000 0000 9255 163b
00000010: 2f16 84ba 9981 c8b9 6394 8e3a a219 083a
00000020: 4a1d c4b9 d03f 1b3a 0000 0000 c495 8539
00000030: 88e3 963a 80b0 aab9 d517 cc39 b8eb 0b3a
00000040: 5c5b b4b9 9a3a fe3b 6d82 9937 fcb4 973a
00000050: 7f6d 81ba 5922 7cba 0d81 19bb 28a3 f4b8
00000060: bb76 8439 4076 65b9 b780 35ba 5597 5439
00000070: fb36 b239 3965 c13a 0000 0000 584f e2ba
00000080: 1969 3b3b 177a 41ba 324a 10ba bba2 903a
00000090: ae2f 17ba 8c48 6538 b3ee 8439 389d fcba
000000a0: 70f8 3bba 14a3 c83a e044 d2b7 c0b5 8cba
000000b0: 279e b23a 4d43 ce3a 7d8f ee3a 525c c9b9
000000c0: ce04 de39 96cb a33a
-0.00020238964 0.0 0.0 0.0022939187 -0.0010077412 -0.0003824353 0.0010877963 0.0005191808
-0.00037405855 0.00059222896 0.0 0.0002547932 0.0011511901 -0.0003255643 0.00038927668 0.0005337554
-0.00034400343 0.0077584507 1.8299756e-05 0.0011574323 -0.0009874551 -0.00096181553 -0.0023422868 -0.00011665217
0.00025265463 -0.00021883193 -0.0006923782 0.00020274271 0.0003399177 0.0014754898 0.0 -0.0017266078
0.0028596579 -0.00073805585 -0.000550422 0.0011034826 -0.00057672977 5.466542e-05 0.00025354847 -0.0019272929
-0.0007170504 0.001530739 -2.5066023e-05 -0.0010735318 0.0013627455 0.001573661 0.0018200722 -0.00038406492
0.0004234672 0.0012496586

hidden_features.2.weight f4 [50, 50]
00000000: a093 8cbc b9ed 7e3b 1ee7 49bc 9927 f7bb
00000010: a1f0 c03b 461e 253b 4caf 583c 9aa0 83bb
00000020: 6013 123b 4d38 f5b9 0cbd 1fbc f4c3 e53b
00000030: e5af b13b dae9 ec39 e10c deb9 6ec5 da3b
00000040: 54ba 8ebc f9be b73c d306 5f3b d7d4 833b
00000050: 3764 fa3b 5d72 cdbb 3409 bfbb b760 87bc
00000060: 58c7 8c3b 854f 2c3c eaa5 0e3c 140e 53bc
00000070: 11c4 853b dab0 8f3a e008 113c db17 82bc
00000080: a382 853c 4fbb 7fbb 990d a93b f87f 80bc
00000090: f4b0 223b ffb0 3e3b 0aba 363c c553 20bc
000000a0: 3521 e7bb 64e1 923a b171 bfbb aa38 bfbb
000000b0: 7fd4 b7bb 5ff8 c3bb ed2d c039 4505 acbc
000000c0: ef9f bb3a 9a1e b13c 411f 8f3c 6e5d d2ba
000000d0: 225c 80bb 4817 cdbb af8c e03b 816a 7cbc
000000e0: 7ceb 1dbc 8209 4fbc 9600 4bbb 113e dd3b
000000f0: 1176 d039 7180 3e3c 36cb 3b3c 213b 813b
00000100: 20eb e93a 3680 8fba 567d 62bb 3c2c 9f3a
00000110: 85ae cbba 7edf 9c3c db92 44bb ece4 0d3b
00000120: 6fa7 44bb 65f3 5abb 33f0 14b9 9abe 51bc
00000130: 7730 fbba b687 033b a564 e2ba 6992 8b3c
00000140: 8771 f2bb c23f 163b a646 88ba 3561 153c
00000150: 41be 80ba b1a1 b2bc 0681 bd3a 0429 13bc
00000160: 9dca 903b 2d60 18bd 731b 1b3c 4782 223c
00000170: 2dad 07bd 1a7c 02bc 3712 723b fadc ddb9
00000180: 8ac7 6b3c 81ad b53c 8040 10bc 7a86 f039
00000190: 757e 803c c685 d63b 4bc8 c53b 97b7 313c
000001a0: bf8b a5b9 3289 1fbb fd11 96bb 2197 053c
000001b0: e267 4cbb 15a1 5a3b adc4 0abb 65d7 533c
000001c0: 0718 a83b 99e5 a8bc 2ba7 333c 1de3 ec3b
000001d0: 345f f2b9 c7d3 4b3c 47fc e93b 6945 ae3c
000001e0: c44d d238 bf57 353c 534c c63b cc82 643a
000001f0: aa98 ea3b 79d0 75bb eb44 e7bb 10a0 703b
00000200: aedb 2ebb cd5a d33b 009a 6d3b 6a86 aabc
00000210: 23dd 28bc ec6b fbbb 5606 a53b dbaf bebb
00000220: 9951 88bb 51ad 6e3c 68d4 0a3c 0f06 2b3c
00000230: af38 30bb b475 38bc 4d01 aabb 3e49 463b
00000240: 9905 11bc 7555 04bc 9005 87bb 0c7f 4cba
00000250: 3fbd e7ba 57dd a6bb cf5d 0cbc 97e3 d93a
00000260: 4606 593c 8a02 b6bb 34ba ab3b b3d4 1bbb
00000270: 0e4b 273c ac78 84bb 1ee4 47bc d7cb 6a3b
00000280: 3d6d 93bc 1fa4 eabb 51f9 833b 4d2c a43b
00000290: 4c9c 41bc e7b8 653c b641 94bc d14c 58bb
000002a0: 1469 2abb ec63 09bb 5e91 443c 90cb 10bc
000002b0: fc7a b73c 2905 8e3c cda8 ef3b bd53 6ebc
000002c0: 23e8 2cb6 e029 31bc dcbe 12bc 41fc 003c
000002d0: d6e2 f73b a0b1 88bc e3fb c93b 3b53 a03c
000002e0: 8e11 853b 5660 c93b b043 863b 91ba 57bc
000002f0: ef76 85bc e0c1 333c bd95 543b 2b6a 07bc
00000300: f20a 1a3c 939e 2fbc 7c4b 583c 3d88 993b
00000310: 1c69 04bc 1324 69b9 5813 10bc 9158 6b3c
00000320: 71d2 443b 5271 e83b f3ef 08bc 2fa9 0bbc
00000330: d818 2d3c af90 b5bb 90ee 88ba 4f7f fe3b
00000340: 35c9 b03b e3bf a3bb 806b 5cbb a505 e5ba
00000350: 9476 c5bb cc41 69bc 7b03 453c 3f4f 3f3c
00000360: 3c53 ff3b 302d 063a 290a 3e3b 3ac8 fbbb
00000370: b955 b7bb c24b 733c 3897 ca3a afcd 15bc
00000380: dcaf 013c b8f3 1fbc bb6b 2abc d384 9a3c
00000390: aeed 86bc 1b02 4d3b 83d2 52ba 9a2e 6a3c
000003a0: 2eb3 863c 8e55 a03c 52c0 6b3b 188f acba
000003b0: 11da 35bc 522d 543b 7dfd 4d3b c03c d3ba
000003c0: 8433 80bc be6b 343b ae10 8b3b f777 873c
000003d0: 884f 923b f6e0 1cbb 4977 143c c6d3 e9bb
000003e0: 14da cfba adb5 a23c 1a24 5d3c 8855 28bc
000003f0: b5fc e33b d831 cdba 40df fa3a 385b d6bb
-0.017160237 0.0038899018 -0.012323169 -0.007542562 0.00588806 0.0025195046 0.013225388 -0.004016948
0.002228938 -0.0004677199 -0.009749662 0.007011885 0.0054225796 0.0004518766 -0.00042352735 0.0066763675
-0.017422833 0.02242993 0.0034031167 0.004023175 0.007641341 -0.0062697367 -0.0058299545 -0.01652561
0.0042962246 0.010517006 0.008706549 -0.012881774 0.004082211 0.001096274 0.008852214 -0.015880516
0.016297644 -0.0039021557 0.0051590917 -0.01568602 0.002482471 0.0029097197 0.011152754 -0.009785597
-0.007053519 0.0011206088 -0.0058424105 -0.0058356123 -0.0056100483 -0.005980536 0.0003665531 -0.020998606
0.0014314632 0.021621037 0.017470958 -0.0016049573 -0.003917233 -0.006258879 0.0068527083 -0.015406252
-0.009638663 -0.012636544 -0.003097569 0.0067517837 0.00039760818 0.0116273025 0.0114620235 0.0039438163
0.0017846562 -0.0010948244 -0.003455957 0.001214392 -0.0015539682 0.019149538 -0.002999476 0.002165134
-0.0030007025 -0.0033409235 -0.00014203861 -0.012801791 -0.0019164224 0.0020069904 -0.0017272426 0.017037587
-0.0073987874 0.0022926186 -0.0010397031 0.009117414 -0.0009822325 -0.021805616 0.0014458008 -0.008981947
0.0044186846 -0.037201095 0.009466994 0.009918756 -0.033124138 -0.007964158 0.0036937126 -0.00042317045
0.014390836 0.02217746 -0.0088044405 0.0004587656 0.0156853 0.0065467088 0.0060358397 0.010846994
-0.0003157537 -0.002434325 -0.004579781 0.008153708 -0.0031189849 0.0033360173 -0.0021174357 0.012929772
0.0051298174 -0.020617293 0.010965149 0.0072292225 -0.0004622877 0.012440628 0.0071406695 0.021273332
0.00010028065 0.011068284 0.006051579 0.0008717 0.0071593123 -0.0037508293 -0.007057776 0.0036716498
-0.0026681232 0.0064500333 0.0036255121 -0.020816047 -0.010306629 -0.0076727774 0.0050361557 -0.0058193034
-0.004160118 0.014567689 0.008473493 0.010438456 -0.0026889255 -0.011258531 -0.0051881433 0.0030256058
-0.008851432 -0.008077015 -0.004120536 -0.0007800914 -0.0017680301 -0.0050923037 -0.008567288 0.0016623613
0.013246125 -0.005554502 0.005240703 -0.0023777902 0.0102107655 -0.0040427055 -0.0122003835 0.0035827064
-0.017996425 -0.007160678 0.0040275236 0.005010164 -0.011817049 0.014021135 -0.01809774 -0.003300477
-0.0026002573 -0.00209641 0.011997549 -0.008837596 0.02239751 0.017336445 0.007313824 -0.014546332
-2.5765119e-06 -0.010813206 -0.008956637 0.007872642 0.0075648827 -0.01668626 0.0061640604 0.019570937
0.0040609306 0.0061455173 0.0040974244 -0.0131670395 -0.016292064 0.010971516 0.0032437884 -0.0082650585
0.009402024 -0.010718959 0.013201591 0.0046854303 -0.008081701 -0.0002223405 -0.008793674 0.014364378
0.003003266 0.007093587 -0.00835799 -0.008524223 0.010565005 -0.0055409293 -0.0010447074 0.007766641
0.0053950795 -0.00499724 -0.003363341 -0.0017472996 -0.0060260985 -0.014236879 0.012024756 0.011676609
0.0077919047 0.0005118428 0.0028997755 -0.007683781 -0.0055949357 0.014849605 0.0015456444 -0.009143277
0.007915463 -0.009762697 -0.0104016615 0.018862164 -0.016470756 0.0031281773 -0.0008042233 0.014293337
0.016442861 0.019572046 0.0035972786 -0.0013165204 -0.011099354 0.0032375646 0.0031431608 -0.0016116127
-0.015649565 0.002753004 0.0042439317 0.016536696 0.0044650473 -0.0023937798 0.009061643 -0.007135841
-0.0015857839 0.01986202 0.013497377 -0.0102742985 0.0069576153 -0.0015655113 0.001914002 -0.006541636

hidden_features.2.bias f4 [50]
00000000: 0e44 0a3d 92a7 a23c d335 573b c130 72ba
00000010: 384b 40bb 49af 36ba 18b8 1d3d 0000 0000
00000020: 2bd5 213a 5083 dcba 632c 43bb e2c2 2aba
00000030: a82d f9bb 6f7d c2ba 7c3a d23a 5472 87ba
00000040: d29d 8fba 2c15 e7ba 2f89 2bbb 2020 67bb
00000050: 1a02 b3b9 2471 ed3c 1a75 f53c 4982 c23b
00000060: b5cd 1fbb 9851 05bb d538 e33b 3da4 103d
00000070: cfb8 08b9 6f03 27b9 e122 95bb 0000 0000
00000080: 5d71 7a3c 21f5 b5b8 0bf3 bd3c 01d8 0bbb
00000090: a971 c539 d012 42bb c640 8fbb 060e cdba
000000a0: 159b 263b 3663 b1b9 901b 003d 9519 26bb
000000b0: 8dae 9b39 5c82 3fbb 744a a13c c9a6 26ba
000000c0: 9e57 903c 2e6e 51ba
0.03375631 0.019855294 0.0032838478 -0.0009238832 -0.002934171 -0.00069688685 0.038505644 0.0
0.0006173427 -0.0016823802 -0.0029781095 -0.0006514025 -0.0076043196 -0.0014838408 0.0016039158 -0.0010333755
-0.0010957068 -0.0017630211 -0.0026174297 -0.003526695 -0.00034143106 0.028984614 0.029963065 0.0059359414
-0.0024384086 -0.0020342823 0.006934265 0.03531288 -0.00013038817 -0.0001592764 -0.004551277 0.0
0.015285817 -8.6764114e-05 0.023187181 -0.0021338465 0.00037659451 -0.0029613264 -0.0043717353 -0.0015644438
0.0025422026 -0.0003383399 0.031276286 -0.0025344838 0.00029693954 -0.0029221987 0.019688822 -0.00063572504
0.017619904 -0.00079891353

density_estimator_head.weight f4 [50, 11]
00000000: e6bd 19bc 7124 97bc 3194 603c 8b30 193c
00000010: 2039 b537 493a 383c 00f4 bbba d509 0f3b
00000020: 8dc6 44bc 346f 11bc aa0d 1b3b 9ce5 5bba
00000030: c4c9 903b 65da 42bb 3847 82bc 600a 44bc
00000040: efda 7d3b 9a90 2fbc f839 3e3b 25cd eaba
00000050: ae87 0e3c f64f 903b 59f3 86bb b5ba 633b
00000060: abd2 c83b e342 573b abe2 e33b 02ef 933b
00000070: 3ce1 203c efb8 12bc 48a3 c1bc b649 acbc
00000080: 09b7 af3c cfb9 1a3c 76db c73c 5949 ae3a
00000090: 8054 debb c948 4f3b 8595 5eba c4d8 973a
000000a0: f91a b93c 69f0 a13c 733d c93b e4f3 1ebc
000000b0: 7fac 3d3b 6c7d d6bc aabc dd3b bfde 36bc
000000c0: a35b 3c3b 6b42 f63b b1e3 cdbb fcf8 c8bb
000000d0: 0c8d eabb 6b74 72bb 51ae 153b 7ced 643b
000000e0: 5120 82bc 94fd 2fbc d287 cbbb f5a4 133c
000000f0: a04b 1b3c 3e71 15bc ddb9 1c3c 5be5 1c3c
00000100: 44a6 be3a 42ed 02bc 816b 87bb f684 053c
00000110: 481b 843c eca5 3fbb 5647 98bb 8a0d 49bb
00000120: dd8f 2f3c d36a 42bc fbe6 30bc 1cf7 273c
00000130: 166d 54bc 00bf 41bc 15a9 91bc 627d 6b3c
00000140: 3d43 4c3b cc29 413c 72b6 04bc 5b21 823c
00000150: 49f0 c83b 333b 353b 8cbc 3e3b 21e2 9bbc
00000160: d608 f4bb fc4f 42bc 07cc 8c3b dedc 2ebc
00000170: e3dc a73b 27fa a537 33e8 88bc 19bd a4bb
00000180: f900 113c cee5 81bc 955c 0b3c 988a 3aba
00000190: 53c1 1bbc fcd7 afba 4f8c a3ba 283e cc38
000001a0: 3572 383c 9479 cd3a 95fd a63b f59c 503c
000001b0: ec70 753b be05 e43a 6120 223b 8b2f 4a3c
000001c0: da03 35bc 2530 153c 2f3e e9bb b4e9 78ba
000001d0: 2e45 61bb 0535 cb3b ee1c 363c 9608 bdbb
000001e0: a50d 5ebb 1a7f 26bc 5fae 68bc 244a f53b
000001f0: 04b4 9dba 552b 083c dd54 183c 20b8 31bc
00000200: 7420 16ba 0fba 6c3a ea75 4a3b f0c1 923c
00000210: 2933 c73a b985 c3bc 50f3 0fbb e5c3 de3b
00000220: 7641 78bb e144 903b 91b2 8dbb f063 37bb
00000230: 9f64 c33b e5ab 983c bcd1 9e3b d3ef ebbb
00000240: df92 16bb 1342 ae3b 478c 793b 4a10 8a3b
00000250: a521 9b3a 7c15 8ebb 72dd 09bb 2fef 1cbc
00000260: 9b75 c2bb e3c4 f7ba 0373 893b f3e5 02bc
00000270: df37 843c 6649 0ebc 81b9 bc3b 79c2 5f3b
00000280: 3bfa 09bc 8c2a 5c3c 9fd8 ccbb b9e7 8b3c
00000290: dc0c 083b 4f47 b4bb f5ed 8ebb e773 4fbc
000002a0: f217 11bc ca3f 3e3c 7d87 babc ca17 bb3c
000002b0: 1f5b 61bc 70a5 5cbb cf7d 883c 4aca 0bbc
000002c0: 2b7a 0eba 684a c2bb fbf5 ae3a 6f2b 183c
000002d0: 7b86 9cbc eef0 04bc 22c7 273c 007f 48bb
000002e0: 4cf3 113c 68a7 853b 9d21 c4bb a4c1 85bc
000002f0: fe9b 81ba f4d8 063c 2ded 173c 0f44 64ba
00000300: ecf5 4f3c 59d8 e5bb 3ac6 21bc 37d0 4dbc
00000310: 16ef 88ba 2e40 833c 3e93 b1bb f6f8 d1bb
00000320: a848 09bc 5323 a33a d825 eebb 8315 a13b
00000330: 86f5 4abc 1f19 a1bb 728e cc3b 6278 2dbb
00000340: 2408 fc3b a832 8fbb eb74 16ba a811 c1bc
00000350: 5782 bbb8 efd8 40bc ee66 6d3c 3953 083c
00000360: 0481 09ba b400 b13b 291d b3b9 9280 e23b
00000370: 1ce7 fbbb 8aab 09ba c474 82bb 8092 873a
00000380: cf66 d53b c93d acbb 4877 efbb c6f4 31bc
00000390: 80f9 55bc 678b 5dbc 3829 4bbc 88ca 2abc
000003a0: 26a1 59bc 5bb6 91bc eb3f 6b3c 18d5 183c
000003b0: 959c 21bc 7d0a 253c 5726 653b 012f 35bc
000003c0: b0ec 413a fc71 6639 b185 b1bb 382c 913c
000003d0: f01c b73c 9643 d9bb 852a e139 1735 71bc
000003e0: bb57 213c 53f1 6bbc 6ee2 9a3b 6ead c5ba
000003f0: 3857 a93c 7f65 bb3b 7345 1abc 80d0 b03c
-0.009383654 -0.018449994 0.013707207 0.009349952 2.1603482e-05 0.011244365 -0.0014339685 0.0021825929
-0.012010229 -0.008876611 0.0023659267 -0.00083884015 0.0044185836 -0.0029732224 -0.0159031 -0.011965364
0.003873523 -0.010715628 0.0029026251 -0.0017913921 0.008699341 0.0044040633 -0.004118365 0.0034748737
0.006128629 0.0032846264 0.006954511 0.004514576 0.009819325 -0.008955224 -0.023637429 -0.021031242
0.021449583 0.009443714 0.02439664 0.0013297006 -0.0067849755 0.0031629077 -0.0008490908 0.0011584987
0.02259587 0.019767957 0.0061413585 -0.009701703 0.0028941927 -0.026182853 0.0067668753 -0.011161505
0.0028741143 0.007515242 -0.0062832464 -0.006133197 -0.0071579274 -0.003699566 0.0022839496 0.003493159
-0.01588455 -0.01074161 -0.0062112594 0.009011497 0.00947848 -0.009121237 0.009565798 0.009576167
0.0014545401 -0.007991137 -0.0041326885 0.008149376 0.01612629 -0.0029243184 -0.004647176 -0.0030678236
0.010715452 -0.011866289 -0.010797258 0.010251787 -0.012965461 -0.011825323 -0.01778082 0.014373155
0.0031168007 0.01178975 -0.008100139 0.015885046 0.00613216 0.0027653694 0.0029104082 -0.019028725
-0.0074473424 -0.01185989 0.004296783 -0.010672776 0.0051227673 1.9786019e-05 -0.016712284 -0.005027425
0.00885033 -0.01585665 0.00850596 -0.0007115989 -0.009506541 -0.0013415809 -0.0012477728 9.7390555e-05
0.011257698 0.0015676492 0.0050961473 0.012732734 0.003745134 0.0017396731 0.0024738538 0.012340437
-0.011048282 0.009105717 -0.0071180086 -0.00094952737 -0.003437351 0.006201389 0.011115296 -0.005768846
-0.0033882644 -0.010162139 -0.01420173 0.007485645 -0.0012031798 0.008311112 0.009297577 -0.0108471215
-0.0005726882 0.00090304104 0.0030893036 0.017914742 0.0015197742 -0.023867475 -0.0021965094 0.006798255
-0.0037880815 0.0044027423 -0.0043242653 -0.0027983151 0.0059629227 0.018636653 0.0048467796 -0.00720022
-0.0022975726 0.0053179353 0.0038077997 0.0042133676 0.0011835588 -0.004336057 -0.0021036533 -0.00957851
-0.00593443 -0.0018903281 0.0041946187 -0.0079893945 0.016139923 -0.008684492 0.0057594185 0.0034143014
-0.008421476 0.013437878 -0.006251409 0.017078267 0.0020759618 -0.0055016647 -0.004361863 -0.012661911
-0.008855807 0.011611888 -0.022769684 0.022838492 -0.013754635 -0.0033667944 0.016661553 -0.008532116
-0.00054350746 -0.00592928 0.0013348454 0.009287699 -0.019107094 -0.008114083 0.010240348 -0.0030593276
0.008908104 0.0040787943 -0.0059854523 -0.016327687 -0.0009888408 0.008230437 0.009272856 -0.0008707651
0.01269291 -0.007014316 -0.009873921 -0.012561849 -0.001044723 0.016021814 -0.005419164 -0.0064078523
-0.008379139 0.001244644 -0.007267695 0.0049158945 -0.012387639 -0.0049163247 0.0062425667 -0.0026469459
0.0076914 -0.0043700524 -0.0005739468 -0.02356799 -8.9411325e-05 -0.011770471 0.014489872 0.008320623
-0.000524536 0.005401695 -0.00034163267 0.0069122994 -0.0076874625 -0.00052516966 -0.0039812047 0.0010343343
0.0065125 -0.005256389 -0.0073079206 -0.010861581 -0.013059974 -0.013522006 -0.012399964 -0.010424264
-0.01328305 -0.01778715 0.014358501 0.009328149 -0.009863992 0.010073301 0.003496548 -0.01105857
0.0007397635 0.00021976972 -0.0054175486 0.01772128 0.022352666 -0.0066303713 0.00042947024 -0.01472213
0.009847577 -0.014400798 0.0047266996 -0.0015081593 0.020671472 0.0057188864 -0.009415972 0.021583796

density_estimator_head.bias f4 [11]
00000000: 7b95 08bd 1120 adbc 9af3 30bc 3d3f acbb
00000010: d50f cebb a5ee 243c 39f8 303c 10c4 853b
00000020: 95c2 c63b eddf f93c 2bc7 7a3c
-0.03334568 -0.021133455 -0.010800267 -0.005256562 -0.0062885084 0.010066663 0.010801368 0.0040822104
0.0060656765 0.030502284 0.015306274

Q1.0.weight f4 [50, 50, 5]
00000000: f789 2fbf 5814 5dbf 9e56 a9be fa4b 893d
00000010: b059 dfbe 2a32 d93e 113d 0640 4531 0f3f
00000020: 5778 a1bf 329d 5fbf fa41 2cbf 4f3d 9a3d
00000030: 165f 23bf 98a9 a5bf ebb2 43bf ea6a d9be
00000040: adb8 6a3f c1f8 233f 4d91 0f3e 3a71 913e
00000050: b9be 113f 47bc 6cbf 864e 29be ec2e 293f
00000060: 0daf e63d e134 1840 2317 143f 676a eb3e
00000070: f826 b9bd c771 76bf 9893 93bf de42 033f
00000080: 0bcc b03f 4e6c 67bf 62c4 643f 1662 abbe
00000090: 73f4 7b3e d47f 023f 94b8 c33d 3cf7 733f
000000a0: 7bd6 7b3f cfd8 37bd a7e0 8cbe 45e2 14c0
000000b0: 6f5e bd3f 86cc 143f dad9 d7bf 8724 8d3f
000000c0: b37c 1ebf b20f 1cbf a373 0240 43bb 3b3f
000000d0: 47ef 4340 542e 4ebe 71e8 c5bf c1f1 27c0
000000e0: 37dc 49bf 6014 9ebe 0cf2 69bf 8a8e bc3e
000000f0: 6471 8cbf 931c 5b3f c9ec eebf e0f8 163f
00000100: edc0 203f 7b59 353f 514f 893f ab68 f2be
00000110: 8357 dfbf 36a9 a83d cff3 0f3d 3803 9cbf
00000120: df79 a33f 630b 973e b934 5ebe 4d04 d8be
00000130: ef04 a03f 6214 c9bf 4333 343f a1cc 4cbf
00000140: e2d9 97bf 6ce9 a73e e4a8 843d bdc7 1140
00000150: a48e 443f 812d e03f d477 5d3f 8a6d 53bf
00000160: ba4c 6ebe 364c 9dbe c6d5 96bf ab73 72bf
00000170: 7af3 563e 70b2 d7be 82dd ffbb cb72 70bf
00000180: b9a9 1340 d435 db3f 9383 9a3f 2feb c13f
00000190: d563 843e 4f7b 92bf 64ad 523c 3a65 5dbe
000001a0: 5b6c 8ebb f1b2 40bb bc56 43be 651a 473f
000001b0: b596 9a3e 35c3 873e f653 15be 03b5 2a3e
000001c0: a1de 52bf ae7e 003e 5bb5 5e3e 3893 133f
000001d0: d778 f13f 17a5 373f 5269 6e3f 8d86 20bf
000001e0: cb21 ed3e 1cc5 36bf c761 943f 42d2 21bf
000001f0: 760a 273f 5849 33bf 7d25 1e3d 2c66 29bf
00000200: 1403 2a3f fbc4 093f 753f b7bf ef4b 233f
00000210: bdd9 5b3f f37f 4cbe 844e 63bf 6a32 fcbd
00000220: 67f7 8a3f fa79 ea3e b2dd 72bf f1b8 2b3e
00000230: 9b62 45bf 7477 8b3f 5ef9 ddbf bc07 aebf
00000240: b084 fabe 55d0 373f e20c 073f e521 11be
00000250: 6617 5cbf b748 68be 7681 b53d 054c 8fbf
00000260: 5494 fd3f 47ca 68bf beca 21bf 6c24 cd3f
00000270: 437c 853f 6038 f53e 9df8 5d3f 38e0 533f
00000280: dec0 90bf 65d4 c5bd 623e 84bd be0f acbd
00000290: b63f 29bf 33f3 573d f92c a4bd f6e6 8c3e
000002a0: 4c38 803f 2d04 7d3e 5ece 3a3f 6668 53be
000002b0: 1f5f 59bf 1755 b6bf f6af bdbf 6e1a 97be
000002c0: ce8d 0dc0 1cd4 2e3f 4d98 613f 7a43 57bf
000002d0: dd3a 5f3e 6bd5 cabf 0346 0cbf eb13 f33e
000002e0: 6e0e a93f 910d cabe e6ff 80be 6520 72bf
000002f0: ad6d 2abe d0fc 4abf bf3a 843e 3d6a 8abf
00000300: 0f76 4dbf 8bda 1bbd 3dba a8bf 3f5d b73f
00000310: 8ceb 16c0 7981 52bf 0363 923e 7d3c a33f
00000320: fbcf 3abf c1dd bd3f 6482 823e 68d4 a9bf
00000330: 1f7a 1d3f f664 65be d3d9 48bf 06bf e33f
00000340: 42ce ba3e f17b 8dbf 4251 323f 59b6 94be
00000350: fd1c 60bf 8382 f2be 181d 8abf 53e5 883f
00000360: db3b 9bbf be53 36bf 570d debf 6fac 98bf
00000370: c3a8 3540 2985 493f 5f0f 9dbf 067f 30bf
00000380: b516 e83e 2bdc a7bf f658 c73e dfa3 a73e
00000390: cb4b 27bf 01b8 183f edb1 c53c 7cf0 803f
000003a0: 03af bfbe 66eb 80bd 979f aebd 2c9b 503e
000003b0: 5579 053e dcd9 e8bf ced9 43bf 0de9 f33f
000003c0: 2168 3f3e 43e0 9f3d d965 cfbe 95bf 803f
000003d0: 3bd3 da3f 13af 1e40 f96a 53be b08e 01bf
000003e0: a3f0 02bf 4fe9 d23e 558c 7b3f 9157 e1bf
000003f0: 5377 6e3f 9429 02c0 2896 bf3f afaf 9f3f
-0.6856989 -0.8635917 -0.33073896 0.067039445 -0.43623114 0.42421085 2.0974772 0.55934554
-1.261485 -0.87349236 -0.6728817 0.07531225 -0.63816965 -1.2942381 -0.7644488 -0.4246438
0.9168804 0.64051443 0.14020272 0.28406698 0.56931645 -0.9247479 -0.1653386 0.6608722
0.11263857 2.3782275 0.57847804 0.45979616 -0.09040636 -0.9626736 -1.1529417 0.51273906
1.3812269 -0.90399635 0.89362156 -0.3347327 0.24604969 0.509763 0.0955669 0.95299125
0.98374146 -0.0448845 -0.27515146 -2.3263104 1.4794444 0.5812458 -1.6863358 1.1026772
-0.61909026 -0.6096145 2.038308 0.73332614 3.0614793 -0.2013486 -1.546156 -2.6241305
-0.78851646 -0.3087492 -0.9138496 0.368275 -1.0972104 0.85590476 -1.8666011 0.58973503
0.6279438 0.7083966 1.072733 -0.4734548 -1.7448581 0.082353994 0.035144623 -1.2188482
1.2771567 0.29500875 -0.216998 -0.4219078 1.2501506 -1.5709345 0.7039072 -0.7999974
-1.1863368 0.32795274 0.06477526 2.277816 0.7678015 1.7513887 0.8651097 -0.8258902
-0.23271456 -0.30722207 -1.1783988 -0.94707745 0.20991316 -0.42128325 -0.007808388 -0.9392516
2.307234 1.7125802 1.2071403 1.5149897 0.25857416 -1.1443881 0.012858722 -0.21620646
-0.004346413 -0.0029403532 -0.19076055 0.7777465 0.30193105 0.2651612 -0.1458281 0.16670613
-0.82370955 0.12548324 0.21748869 0.57646513 1.8865002 0.7173628 0.93129456 -0.6270531
0.46314844 -0.71394515 1.1592339 -0.6321145 0.6525034 -0.7003379 0.03860997 -0.66171527
0.66410947 0.53816193 -1.431624 0.6378774 0.8587912 -0.19970684 -0.8879168 -0.12314303
1.0856751 0.45796186 -0.9486953 0.16769768 -0.77103585 1.0895829 -1.7341726 -1.359611
-0.48929358 0.71802264 0.5275403 -0.14173086 -0.85973203 -0.22683989 0.08862583 -1.1195074
1.9810891 -0.9093365 -0.63199985 1.602674 1.0428547 0.47894573 0.8670748 0.82764006
-1.1308858 -0.09659652 -0.06457211 -0.0840144 -0.6611284 0.052722167 -0.0801639 0.2751996
1.001718 0.24708624 0.7297114 -0.20645294 -0.8491077 -1.4244717 -1.4819324 -0.29512352
-2.21178 0.68292403 0.8812302 -0.84087336 0.21799798 -1.584638 -0.5479433 0.47476134
1.3207529 -0.39463475 -0.25195235 -0.9458068 -0.166434 -0.7929201 0.2582607 -1.0813671
-0.8025827 -0.038050216 -1.3181835 1.4325331 -2.3581266 -0.8222881 0.28591165 1.2752835
-0.72973603 1.4833299 0.25490105 -1.3267946 0.61514467 -0.22401795 -0.78457373 1.7792671
0.36485487 -1.1053449 0.6965524 -0.2904537 -0.8754423 -0.47365198 -1.0790129 1.0694984
-1.2127641 -0.7122153 -1.7347821 -1.1927623 2.8384254 0.7871881 -1.2270316 -0.6894382
0.45329824 -1.3114065 0.3893506 0.3274221 -0.65350026 0.5965577 0.024132693 1.007339
-0.3743821 -0.06294899 -0.08526533 0.20371693 0.13034566 -1.8191485 -0.7650422 1.9055496
0.18692066 0.078064464 -0.4050739 1.0058466 1.7095712 2.4794357 -0.20646276 -0.5060835
-0.5114843 0.41193625 0.98261005 -1.7604848 0.93150824 -2.0337877 1.4967699 1.2475489

Q1.0.bias f4 [50, 5]
00000000: 5b1d f637 08b0 b337 2256 9337 e23f db36
00000010: b4d6 8a35 40e7 ed3a cb8c bdbb 7246 b3bb
00000020: 8cfe aeba edf1 ef38 0000 0000 0000 0000
00000030: 0000 0000 0000 0000 0000 0000 24c9 de39
00000040: d481 d63a 8236 0a3b 0274 8d3a ca39 1439
00000050: 835c 5cba f5c6 44b9 b3f8 3eb8 0000 0000
00000060: 0000 0000 db4f 83bb adae 8ebb 2a98 f9ba
00000070: b72e 0f3a 4547 a539 3ecc d439 b081 0e3b
00000080: 2c6c e43a 0cc4 cb39 f57a ccb7 6ebb 87ba
00000090: 08b6 89ba c271 80ba dbbf d2b9 ace5 32b8
000000a0: f79b 533b 8fac 52ba e4f9 a5ba c62d abb9
000000b0: db2c 0e38 414a 39bb deda 8cba 1282 07ba
000000c0: e32f f6b8 10d4 a4b7 5302 dbba 2250 f93a
000000d0: 6785 003b 2aca f839 0a24 04b8 8eb4 90bb
000000e0: c7e3 40bb b22c 01bb 5687 05ba b14c 82b6
000000f0: 3243 dab7 4eb7 d3b7 8385 c6b7 560d 24b7
00000100: 0e11 00b6 c6da d43a 5cdc 083b fdcc 953a
00000110: d7db 83b8 1515 deb8 69b5 8d3a 4172 5d3a
00000120: 515a 523a b035 bd39 070c a938 a172 b8bb
00000130: 5edc a33a 1c1d 3e3b 9d2a b43a fe83 1839
00000140: eb44 40b9 0345 edb8 f098 8ab8 3212 47b7
00000150: 9cb6 c036 49af b6ba c573 b93b 64a0 863b
00000160: 9d12 a838 9ac1 b1b9 19e8 aeb9 4862 dfb6
00000170: 071e 4c38 004e a437 bd3a 5932 036a e83a
00000180: fe88 9439 f717 3d39 42f9 7039 5b0b 9c38
00000190: 78e8 8fb8 60cb a636 613c bf38 75d5 5938
000001a0: 10ec 2437 7d55 063a 8227 f339 ca17 e839
000001b0: d5a2 4939 47df 3038 d15e ddba a8a2 b3b9
000001c0: 3d12 e8b7 2f64 c237 0633 fcb5 3653 1d3b
000001d0: f326 68ba ce05 67ba eeda 1d38 ec85 ee38
000001e0: 0833 d1ba af07 d4ba 4d5e ceba a6ed 31ba
000001f0: 6606 1ab9 8058 d237 a460 0b37 ddf9 8636
00000200: fe40 6135 01fa 2233 2781 67ba 92a8 6fba
00000210: 717a 6dba 9f05 d0b9 0c89 bab8 397b 563a
00000220: 255e a13a cec2 3839 74ae 14ba b491 4cb9
00000230: 7dad 24ba 421c 02ba 4975 e2b9 c378 34b9
00000240: 9c32 14b8 1156 9c3b f331 9d3b 040f 393b
00000250: c330 3439 0e93 feb8 0000 0000 0000 0000
00000260: 0000 0000 0000 0000 0000 0000 0d10 66bb
00000270: dfda 1fbb 8360 83ba 03da 5f39 da4a 0439
00000280: 25cc 9bbb ff41 49bb 7134 8aba ffc1 e239
00000290: 0cb5 4939 53a3 b439 af7c 9c3a de1a c03a
000002a0: 6fe4 3c3a 0051 9c38 b6ae dc3a d225 f239
000002b0: ddb8 b138 9c61 93b7 dd84 cf34 8b54 ba3b
000002c0: 1b30 83ba d3e2 04bb 0cb8 33ba 50d1 3236
000002d0: e1c9 41ba 80b4 1c3b d674 7e3b 3313 123b
000002e0: 749d bc39 e3f0 1e3b 1825 10ba c36c 1cba
000002f0: 3f38 74b9 636f 38b8 c158 8eb7 dc82 d736
00000300: bd97 2337 3bd4 9236 1199 4335 654b a93b
00000310: f90d bc39 8634 14ba 0946 94b9 3357 b034
00000320: 7784 83b9 d584 04b9 d5e4 55b8 1e0b b636
00000330: e85d 8636 f41e 7eb9 38da 70b9 69d4 64b9
00000340: d613 c3b8 d4f9 abb7 4878 a43b 15d1 1d3b
00000350: fe53 583a 557c 3db9 189b 90b8 f0d0 b13a
00000360: 6369 a739 4399 53ba c640 64ba e470 61b9
00000370: 2ca9 6137 c635 20bb 205b afba 7c41 af39
00000380: 2a98 7239 bb3a b0bb e6c8 c9ba 99fb bcb9
00000390: e95b cfb6 c089 99b5 7ec7 ddba 11ed 21ba
000003a0: c1de 0cb9 ac2d ec36 928d fab3 d5f7 9ab8
000003b0: db63 b1b8 44b9 aeb8 7383 16b8 e2c7 04b7
000003c0: 247a 33bb aaa3 84bb e480 31bb cbe4 b1b9
000003d0: 0ea4 ba38 7aa8 0abc 4866 aebb 58dc a8ba
000003e0: 7f4a a73a 08bb f239
2.9339155e-05 2.1420434e-05 1.7563874e-05 6.5341455e-06 1.0344288e-06 0.0018150583 -0.005784606 -0.005471044
-0.0013351007 0.0001144147 0.0 0.0 0.0 0.0 0.0 0.00042493
0.0016365596 0.0021089618 0.0010792019 0.00014135908 -0.00084061193 -0.00018766134 -4.553115e-05 0.0
0.0 -0.0040073222 -0.004354319 -0.0019042541 0.0005461978 0.00031524352 0.00040587963 0.002174478
0.0017427257 0.00038865244 -2.4375951e-05 -0.0010355541 -0.001050652 -0.0009799527 -0.00040197265 -4.2652406e-05
0.0032289007 -0.00080365775 -0.0012662974 -0.00032649765 3.3897213e-05 -0.0028273019 -0.001074638 -0.00051692233
-0.00011739114 -1.9649073e-05 -0.0016709067 0.0019021074 0.0019610764 0.0004745287 -3.1504816e-05 -0.004416055
-0.002943264 -0.0019710478 -0.0005093714 -3.88323e-06 -2.6018915e-05 -2.5238518e-05 -2.366561e-05 -9.778267e-06
-1.9083413e-06 0.0016239516 0.0020883298 0.0011428889 -6.287515e-05 -0.00010589712 0.0010811511 0.0008447506
0.00080243225 0.0003608889 8.060788e-05 -0.005628899 0.0012501588 0.002900905 0.001374561 0.0001454502
-0.00018336221 -0.00011313895 -6.6088396e-05 -1.1865561e-05 5.7433044e-06 -0.0013937737 0.0056595528 0.0041084755
8.014331e-05 -0.00033904315 -0.00033360792 -6.6573593e-06 4.8665355e-05 1.9586645e-05 1.2644418e-08 0.0017731789
0.00028330827 0.00018033372 0.0002298104 7.440775e-05 -6.862072e-05 4.9708615e-06 9.118836e-05 5.193563e-05
9.830124e-06 0.0005124433 0.00046378007 0.00044268213 0.00019229513 4.2169613e-05 -0.0016889219 -0.0003426273
-2.7665048e-05 2.3173254e-05 -1.8790313e-06 0.0024005896 -0.00088559015 -0.00088128156 3.763561e-05 0.00011373669
-0.0015960643 -0.0016176606 -0.0015744657 -0.00067874265 -0.00014688968 2.5075162e-05 8.3075465e-06 4.022599e-06
8.391361e-07 3.794594e-08 -0.0008831196 -0.00091422454 -0.0009059078 -0.0003967704 -8.894698e-05 0.0008181814
0.0012311382 0.00017620178 -0.00056717475 -0.00019509235 -0.0006281955 -0.0004963317 -0.00043193463 -0.00017211125
-3.5333083e-05 0.004771002 0.004797214 0.002823771 0.00017184303 -0.00012139055 0.0 0.0
0.0 0.0 0.0 -0.0035104782 -0.0024391932 -0.001002327 0.00021348153 0.00012616385
-0.0047545605 -0.0030709503 -0.0010544193 0.00043250617 0.00019236299 0.0003445396 0.0011939014 0.0014656445
0.000720567 7.453747e-05 0.0016836736 0.00046186015 8.474451e-05 -1.7569218e-05 3.8653425e-07 0.005686348
-0.0010008843 -0.00202768 -0.0006855733 2.6645903e-06 -0.0007392448 0.0023911297 0.0038826964 0.0022289276
0.00035975466 0.0024252466 -0.00054986915 -0.00059671345 -0.00023290607 -4.3972756e-05 -1.6969048e-05 6.4227333e-06
9.750886e-06 4.375846e-06 7.28659e-07 0.0051664584 0.00035868565 -0.00056535786 -0.0002828094 3.2846e-07
-0.0002508496 -0.00012637985 -5.0996274e-05 5.425317e-06 4.0044433e-06 -0.00024234859 -0.00022969476 -0.00021822903
-9.302019e-05 -2.0501124e-05 0.0050192215 0.0024080921 0.0008252262 -0.00018070762 -6.8953435e-05 0.0013566297
0.0003193124 -0.0008071849 -0.0008707162 -0.00021499727 1.34504335e-05 -0.0024446114 -0.0013378598 0.0003342739
0.00023135604 -0.005378095 -0.0015394955 -0.0003604561 -6.1797805e-06 -1.1439479e-06 -0.0016920415 -0.0006176988
-0.00013434423 7.038665e-06 -1.1667284e-07 -7.3894545e-05 -8.458617e-05 -8.331475e-05 -3.588521e-05 -7.914352e-06
-0.0027386034 -0.0040478306 -0.0027084881 -0.00033930535 8.899729e-05 -0.0084630195 -0.0053222515 -0.001288305
0.001276329 0.00046297186

Q1.1.weight f4 [50, 1, 5]
00000000: 7e86 11bf 5ebb 833e b3f1 a4be bc19 acbe
00000010: fddb e2be 8473 f1bf befc 203f ca5d adbc
00000020: 0079 353d f559 913f 82e2 b73f 8dd1 4fbe
00000030: 49b9 38bf 4d19 dfbd 1b5a 5c3f d8ba b2bf
00000040: 66ae 473f d7a9 5d3e cce1 32c0 c741 af3e
00000050: 54b8 acbd e8ea 773f 6676 60be 6c8f c4bf
00000060: ad2f 76bf 7140 11bf 1eb0 93bf 632c 66bf
00000070: c9dd 393f 2efa 1abf e624 b23e 7e1e 6e3f
00000080: 93f0 9bbf f410 33bf 8053 e73f 41e5 373f
00000090: ec51 ba3f d158 973f 41c2 b5bf 2232 7fbe
000000a0: b926 57bf 866e 383e 613e 7a3f a0f8 19bf
000000b0: 1d27 bfbf 8ab0 f73e ce77 9b3f ae8a 173f
000000c0: 1d0f e2bf 24a9 aeba 3739 493f a854 dfbc
000000d0: bc61 f1be f2fa 56bf e596 45be 21fb e7be
000000e0: 6a01 23c0 e3e2 28bf 6895 9cbf 5ce7 493e
000000f0: c8be 25bf 4379 423f a626 173f 81b3 7a3e
00000100: c7c2 32bf e362 783e 0298 2c3f 901b eabc
00000110: 14cb 73be c9b1 8cbe 735b 62be a748 68bf
00000120: 59fb a8be aadf 3dbf 6e5c acbf f8cd 9b3f
00000130: 209e fdbe 3c60 03c0 b514 99bf 2717 623f
00000140: aeac afbd 6c9b 4a3f 5252 0d3f a4c8 bfbf
00000150: 2f7c d0bf ba64 0f40 afc0 e9be b982 1b3f
00000160: c79d be3e de7b 1dbf 3fb6 2b3f c9c2 203f
00000170: e656 d4bf 011a bc3e 7e59 f8bf 42de 06bf
00000180: 7986 303f 9f71 e3bd 3b6c e6bf 455a 683f
00000190: 9b76 ed3e 1682 23bd 221f 04c0 8903 673f
000001a0: 0247 b13f a320 90be eebf 5a3f 0448 2ebf
000001b0: df51 c1bf bc34 523e 75be 2e40 6ee8 24bf
000001c0: 4d29 90bf 41bc 58bf 4db9 6d3f 2e4c 7dbf
000001d0: 9ac0 6a3f 6a44 febe 5140 c4be 188b 6cbf
000001e0: 8e4a 00c0 ae4f 50bf 391b f1be 45f6 c1be
000001f0: a218 653e 1948 a2bf 7273 52be 6cef 873f
00000200: 823f 963f d1f8 a53f e110 99bf 447e 16bf
00000210: b396 6abf 8fbe c33e db83 c4bf 6d27 d93e
00000220: fce9 f23e 1355 143e 7b6c ab3f 40cd 78be
00000230: 3e68 b33f a5a6 71be d675 0d40 c2dc 753f
00000240: 6849 7abf 20b9 c23e 0cdc 8c3f 9309 ca3e
00000250: 9304 f9be e072 a5bf dc6c 1dbf c75f 6cbf
00000260: 03e1 b7bf 90e5 af3f 0139 21bf f8ad 02bd
00000270: 060b 21bf 2fe5 5fbf 07e6 893f ee7c 0340
00000280: 1b31 cf3c fa49 8abf 77ce 6bbf 7b33 5d3f
00000290: c0b9 ad3f 44a5 e23e e4c7 a3bf 1347 dbbe
000002a0: 1395 c0be 6414 65bd aa12 6bbe e9d7 f03d
000002b0: 70ad 333f 09b5 b8bf 42ee d63e f31d 87bf
000002c0: 99b1 bbbd af1f ed3e f61e 8a3f 382b ebbf
000002d0: 8097 5a3d d177 bdbf 3901 ecbf 5a25 95be
000002e0: 8ccc 873d 45f1 983f c28b 5e3f 92be f3be
000002f0: a696 7f3f 08a8 d5be 1a1c 423f 21b2 76bf
00000300: 696b 3dbf 69f5 6e3d 02de 18bf c776 9a3d
00000310: 7390 06c0 4900 6ebf 95a9 20bf f6d6 18bf
00000320: 605d 8dbf f04a 503e e899 5b3f 5174 ad3d
00000330: b935 723d febd d43e b2e5 4bbe 2176 f13f
00000340: dda4 e13e 5393 21bf b6f5 a5be 0247 623f
00000350: d258 523f 3d57 07bf 1a72 4ebf 6d9a e03d
00000360: 073c 803e ce98 193f e142 bf3f 8435 6a3f
00000370: c217 73bf 472b 8d3d ffa5 1ebf 69ed 94be
00000380: 951c d8bf 1b9b 783f 907a 913e 4fda 6fbd
00000390: b58e 613d 7eff 28c0 121a 2e3f 790b 2a3f
000003a0: d825 cbbf b6fe 303e c07b 04bf ff9a 83bf
000003b0: fca0 173f 6a0f aa3f 3af5 c03e e032 433f
000003c0: 7f65 9ebe 37cc ddbf dd0b 973f ed3a 363e
000003d0: 13ee 34be ccc1 0dbe f675 d6bf a631 16c0
000003e0: f4c9 843f 26ce d6be
-0.56845844 0.25728887 -0.32215652 -0.33613384 -0.44308463 -1.8863378 0.62885654 -0.021162886
0.044304848 1.1355578 1.4366 -0.20294781 -0.7215772 -0.108934976 0.8607499 -1.396327
0.78000486 0.2164682 -2.7950315 0.34229872 -0.08433595 0.96842813 -0.21920165 -1.5356269
-0.961665 -0.56738955 -1.1538122 -0.8991148 0.7260404 -0.60537994 0.34793776 0.9301528
-1.2182792 -0.69947743 1.8072357 0.7183419 1.455625 1.182398 -1.4199907 -0.24921468
-0.8404346 0.18010911 0.9775143 -0.60144997 -1.4933811 0.48376876 1.2145936 0.59195983
-1.7660862 -0.0013325554 0.7860293 -0.027262047 -0.47144878 -0.8397666 -0.19295843 -0.45308784
-2.5469613 -0.659712 -1.2233095 0.19717163 -0.64744234 0.7596628 0.5904335 0.24482538
-0.69828457 0.24256472 0.67419446 -0.028577596 -0.23807937 -0.2747939 -0.22105198 -0.9073586
-0.33004263 -0.7416941 -1.3465707 1.2172232 -0.49534702 -2.0527487 -1.1959444 0.8831658
-0.08577858 0.79143405 0.55203736 -1.4983106 -1.6287898 2.2405229 -0.45654818 0.6074634
0.3722975 -0.6151713 0.6707496 0.6279722 -1.6589019 0.3673859 -1.9402311 -0.5268289
0.6895519 -0.11105656 -1.8001779 0.9076274 0.4637955 -0.03991898 -2.0644002 0.9023977
1.3849795 -0.281499 0.8544911 -0.6807864 -1.510311 0.20527929 2.7303746 -0.6441716
-1.1262604 -0.8466225 0.9286087 -0.98944366 0.91700137 -0.4966157 -0.3833032 -0.9239974
-2.0045505 -0.8137158 -0.47091082 -0.378832 0.22372678 -1.2678252 -0.20551851 1.0619941
1.1738131 1.2966558 -1.1958276 -0.58786416 -0.916362 0.38231322 -1.5352739 0.42412892
0.4744414 0.14485578 1.3392481 -0.24297047 1.4016187 -0.23598726 2.2103171 0.96039975
-0.9776826 0.38031864 1.1004653 0.3946043 -0.48636302 -1.2925682 -0.6149423 -0.92333645
-1.4365543 1.3741932 -0.62977606 -0.03190419 -0.62907445 -0.8745908 1.0773324 2.0545
0.02529197 -1.0803826 -0.92111915 0.8640668 1.3572311 0.44266713 -1.2795377 -0.42827663
-0.37613735 -0.05592765 -0.22956339 0.117599316 0.7018652 -1.4430248 0.4197865 -1.0556015
-0.091647334 0.46313235 1.0790699 -1.8372564 0.053367138 -1.480219 -1.8437873 -0.2913006
0.06630811 1.194863 0.86932003 -0.4760633 0.99839246 -0.4172976 0.7582413 -0.96365553
-0.7399202 0.05833951 -0.5971376 0.07542186 -2.1025665 -0.92969185 -0.6275876 -0.59703004
-1.1044121 0.20341086 0.8578172 0.08469451 0.059133265 0.41551203 -0.1991184 1.8864175
0.44071093 -0.63115424 -0.32414025 0.883896 0.8216678 -0.5286749 -0.80642855 0.109669544
0.25045797 0.59998786 1.4942285 0.9148791 -0.94958127 0.0689302 -0.6197204 -0.2908738
-1.6883723 0.9711167 0.2841382 -0.058557805 0.055067737 -2.640594 0.6800853 0.66423756
-1.5870924 0.17284665 -0.5175133 -1.0281676 0.5923002 1.3285954 0.37687093 0.76249504
-0.3093681 -1.7327946 1.1800495 0.17795916 -0.17668943 -0.13843459 -1.6754749 -2.3467803
1.0374131 -0.41954154

Q1.1.bias f4 [1, 5]
00000000: 4ea1 67ba 967a 263b 1537 f73a fc9e 5c38
00000010: 5d74 25b9
-0.0008835987 0.0025402657 0.001886102 5.2600153e-05 -0.00015778975
