CausalCVR/logs/news/eval/5/Vcnet_tr_ckpt.pth.tar (torch, 221685 bytes, 18 tensors)

feature_weight.weight f4 [50, 498]
000000 b3 b7 b4 3b 9f e8 a0 bc 89 f0 ff bc 2d 5e 5d ba
       0.0055150627 -0.019642172 -0.031242626 -0.0008444514
000010 4e 59 a2 bc 74 93 b5 ba 4a 10 a7 bc 90 60 46 3c
       -0.019817974 -0.0013853149 -0.02039351 0.012107983
000020 85 50 9b ba 8b ce 39 3c b0 a9 c2 bb 54 3a 4c bc
       -0.0011849558 0.011340748 -0.0059406385 -0.012465078
000030 8b e1 a4 bb 6c 56 97 39 3d 30 af 3c 3a aa 12 bc
       -0.0050317696 0.00028865354 0.021385306 -0.008951718
000040 0b 94 72 bc ab d6 3d bb 65 b7 82 bb 15 6d ad 3c
       -0.014805804 -0.0028967063 -0.0039891475 0.021170178
000050 74 2b 56 bb 30 39 cb bc 73 91 9f bc 55 6b 51 3b
       -0.0032679709 -0.024807543 -0.019478535 0.0031954844
000060 7d c0 95 bc 23 6e af 3c 35 57 a6 bc 94 26 c0 bc
       -0.018280262 0.021414822 -0.020305255 -0.023455895
000070 67 99 27 bb 3d 0c a0 bc ae 59 d3 bc 8c 1d d3 3b
       -0.0025573613 -0.019537086 -0.025799599 0.0064427312
000080 12 17 b5 3b 8e 59 3a bc 1b 04 a6 3c 6b 3d 21 bb
       0.005526432 -0.011373891 0.02026563 -0.0024603258
000090 96 d1 a4 bb b2 85 9f 3c 33 93 ad bc 75 b4 6e bb
       -0.0050298674 0.01947293 -0.021188354 -0.0036423479
0000a0 76 de 3a 3c 1f 32 1b 3c af d8 47 3c b4 75 e2 b9
       0.011405578 0.009472399 0.0121976575 -0.00043193775
0000b0 df 18 09 3b 68 1e 34 ba a2 f3 60 3b f4 a3 85 bc
       0.0020919365 -0.0006870986 0.0034324904 -0.01631353
0000c0 af ab b4 bb 13 6e 57 bb 9a a9 fd ba 6b c9 3e ba
       -0.0055136303 -0.0032872006 -0.0019352913 -0.00072779384
0000d0 09 52 96 b9 52 15 fd 3b 01 56 9f bc 78 ea 88 bb
       -0.0002867135 0.007723489 -0.01945019 -0.0041783415
0000e0 8d 62 db 3c f8 ae 29 bc 30 a7 a2 ba 6e 66 06 bc
       0.026780391 -0.010356657 -0.0012409445 -0.008203132
0000f0 8b 9e d2 bb 26 00 97 bc a3 f8 f3 3b d2 11 7a bc
       -0.006427591 -0.018432688 0.0074454113 -0.015263038
000100 86 6b cf bb 1b d4 cb ba 8a 37 f5 bc 81 13 ed b9
       -0.0063299565 -0.0015550883 -0.02993371 -0.00045218694
000110 cc 4b 50 bc 1e ee 03 3c 52 e9 24 3c 96 07 45 3c
       -0.012713384 0.008052377 0.0100653935 0.012025734
000120 1c 6f a7 39 da cb da bb e1 8e bb bc 24 77 00 bc
       0.00031935505 -0.006677133 -0.022895278 -0.007840905
000130 63 2f c9 3b f3 0a 05 bc bb a5 df bb ca 56 bf 3c
       0.006139682 -0.008120286 -0.0068251765 0.023356814
000140 b1 32 7c 3c 4b c4 a7 bc 6c b3 55 3c 94 48 70 ba
       0.015392945 -0.020479342 0.013043266 -0.00091660884
000150 bf f8 9e b9 47 79 a2 3c e4 dd 1d 3b b1 1f 89 bb
       -0.0003032144 0.01983322 0.0024088556 -0.004184686
000160 36 02 8d ba 42 b9 cd ba ac 6d 9e bc 81 5f 8c bb
       -0.0010758105 -0.001569547 -0.019339405 -0.004283846
000170 5a df 99 3b 79 81 72 bc e0 48 fb bb ee 18 db bb
       0.004695815 -0.0148013765 -0.0076685995 -0.0066863215
000180 0f c3 08 bc 5f 33 a2 39 2e 77 38 bc cc c4 19 bc
       -0.008347287 0.00030937322 -0.011258883 -0.009385299
000190 60 63 a2 ba 38 7b d5 bc 19 40 8d bb 37 12 3b bc
       -0.0012389235 -0.026059732 -0.0043106196 -0.011417917
0001a0 55 49 ff 3b da 42 0c 3b c3 d5 ee 3b c1 d3 b8 bb
       0.0077907243 0.0021402151 0.007288666 -0.0056404774
0001b0 0e cc b9 3c 4b f4 8e 39 0e f1 9d 3c df 30 f5 3b
       0.022680309 0.00027266363 0.019279983 0.0074826325
0001c0 ce 30 6a b9 5f e7 4a bb 5f 89 0d 3d 67 fd ef 3b
       -0.0002233416 -0.0030960662 0.034554835 0.007323909
0001d0 67 b8 2e ba 0d ed e6 ba 7b 81 e6 bb 01 41 8e 3c
       -0.00066650513 -0.0017618254 -0.0070344782 0.01736498
0001e0 31 40 4e bc a9 34 98 bc af cd 9d bc d1 b4 06 bc
       -0.012588547 -0.018579798 -0.019263117 -0.008221821
0001f0 1c dc a1 3c 08 33 f9 3c 42 7f bb 3b 03 3f 81 3a
       0.019758277 0.030419841 0.0057219574 0.0009860698
000200 0c 6b 04 3a b7 46 74 bb 7c 84 87 bc 93 95 03 3c
       0.00050513516 -0.0037273595 -0.016542666 0.008031267
000210 67 10 03 3b 51 89 0b 3c c1 d3 a3 3b 1b 0e 86 3b
       0.001999879 0.0085166255 0.0049996083 0.004091037
000220 a9 9c cc bc 9f f6 da 3c 36 c9 26 bc ec 92 5e 3b
       -0.024977045 0.026728926 -0.010179808 0.0033962084
000230 9f 53 ea 39 08 df 2f 3c 82 14 b7 bb 24 c0 1c 3c
       0.0004469426 0.010734327 -0.0055871615 0.009567294
000240 89 1f 8f bc 30 08 bc 3c 84 95 89 3c a5 06 96 3b
       -0.017471092 0.022953123 0.016794927 0.004578429
000250 a0 f2 95 3c e2 f8 1d 3c f3 b0 49 bc 81 51 ad bb
       0.01830417 0.009641858 -0.012310254 -0.005289257
000260 86 cd 81 bb 46 7d 26 3a 7d fe 80 bc 03 ec e7 3b
       -0.003961268 0.00063510647 -0.01574635 0.0070776953
000270 ec 46 a6 ba b1 4b bb 3a d3 01 a7 bc a2 a0 29 3c
       -0.0012685931 0.0014289526 -0.020386612 0.010353239
000280 a0 af 7f bb 84 75 c4 3c 46 15 58 3c bc b0 6a 39
       -0.0039014593 0.023981817 0.013188666 0.00022381818
000290 5c 33 6f bb bd 0f da bb 67 63 6e bc 54 4e 2f bb
       -0.0036499118 -0.006654708 -0.014550067 -0.0026749568
0002a0 ae 89 e1 3b 05 4b 83 bc c0 79 41 3c ab c8 fc 3a
       0.006882868 -0.016026983 0.011808813 0.0019285878
0002b0 dc 78 36 3c 0c a1 e3 3c 4b c1 8b bc 87 f4 6a bc
       0.011137214 0.027786754 -0.017059943 -0.014340526
0002c0 aa 2c 65 3c 28 ee 72 bb 30 33 27 bb 7d 42 c8 3b
       0.0139876995 -0.0037068222 -0.0025512688 0.0061114416
0002d0 f1 e0 38 3b b2 a6 00 3c 4f 63 a3 bc c9 98 5f 3c
       0.0028210247 0.007852243 -0.019944815 0.013647267
0002e0 52 e0 3e bb 7b 36 3b ba 85 e1 b8 bc b5 27 d3 bc
       -0.0029125405 -0.0007141602 -0.022568474 -0.02577577
0002f0 e7 af 5d ba 7b ae 0b 3c e3 bf 4f bc 92 41 0e bc
       -0.00084566924 0.008525486 -0.012680027 -0.008682625
000300 91 81 0e bb cc 84 bf bb 01 a3 8e 3c 0e ed 04 3c
       -0.0021744708 -0.005844688 0.01741171 0.008113159
000310 26 7b 61 bb d1 03 c8 3c d0 b5 98 bb 4c c3 40 bc
       -0.0034405678 0.024415882 -0.0046603456 -0.011765312
000320 ee c2 ce bb e0 51 ae bc 10 4c 53 bc d1 56 9b bc
       -0.0063098585 -0.021279275 -0.012896553 -0.018962296
000330 d8 15 e3 3b 9f a5 dd 3b e5 22 fc 3b bf 47 ec 3b
       0.006930094 0.0067641283 0.0076945894 0.0072107012
000340 fa 3d 20 ba 83 bb 1d bc d7 a6 71 3c bb 4b 2a 3c
       -0.0006112751 -0.009627226 0.01474925 0.010394032
000350 70 01 08 bd 4a 8c bf 3a e9 17 b6 3c 44 8c 3f bc
       -0.033204496 0.0014613953 0.022228198 -0.011691157
000360 3f 7c 15 3c ac 31 a5 bb 37 4a a1 bb 45 33 db 3b
       0.009123861 -0.0050413217 -0.004922177 0.0066894614
000370 a5 2a 45 ba 16 64 2f 3b 3e 0b 22 3a dc 2a d2 bb
       -0.0007521308 0.0026762537 0.0006181485 -0.0064138006
000380 13 ed 3e 3b 13 a7 16 3c bd fb 16 3b be ae 1f bb
       0.0029133006 0.009195107 0.0023038231 -0.002436563
000390 bf 23 dd 3a 28 74 e0 ba d6 3a 74 3b 67 b7 91 3c
       0.0016871615 -0.0017124461 0.0037266514 0.017787648
0003a0 52 1c 7d bb ec 60 2d bb c3 d0 01 3d 2b 49 8c 3c
       -0.0038621617 -0.0026455475 0.03169323 0.017124733
0003b0 e1 d3 ed bb 38 63 b4 bc d8 6e 99 bc 03 90 66 3c
       -0.007257924 -0.022019967 -0.018729612 0.014072421
0003c0 df 57 10 3b e9 e0 bb 3c c7 90 ad bb dc 58 8b 3c
       0.0022025032 0.022934394 -0.0052968 0.017010145
0003d0 13 97 28 bc df 2c 68 bc 80 8a 2f 3d 93 be 52 3c
       -0.010289925 -0.014170854 0.042856693 0.012862819
0003e0 cd 87 40 ba 31 fe 59 3c dd c5 a4 3b 52 f5 11 3c
       -0.00073444546 0.013305233 0.00502847 0.008908587
0003f0 ac 60 a0 bc 22 a4 3e bc e4 8e 42 3c 82 d6 52 bb
       -0.019577347 -0.011635812 0.011874888 -0.0032171314

feature_weight.bias f4 [50]
000000 82 42 92 3b 3b 77 92 3c cc 46 d1 3b fc 6f 7e 3b
       0.0044634948 0.01787912 0.0063866135 0.0038824072
000010 49 a0 c9 bb 96 8f 4a 3d a3 59 54 3b 59 ee 09 3d
       -0.0061531407 0.04945334 0.003240206 0.03367457
000020 c9 b0 19 3c 86 18 e0 3c 48 57 89 3c d9 c0 bd bb
       0.009380528 0.027355444 0.016765252 -0.0057908115
000030 85 90 05 3b 3b 35 e9 3a 81 b0 80 38 f9 b3 05 3c
       0.002038033 0.0017792353 6.136392e-05 0.008160585
000040 c1 57 f8 3b c5 ac 27 3c 93 14 68 3c 37 cf eb 3b
       0.0075788205 0.010234063 0.0141650615 0.007196333
000050 f5 88 51 3c 81 b3 8e bb 71 9c 27 bb 36 3f 99 3c
       0.012789001 -0.0043548946 -0.0025575424 0.0187069
000060 a9 7a 30 3d 2d 0c 58 3a aa ad 2a ba 29 83 45 3c
       0.043085728 0.00082415604 -0.00065108633 0.012055197
000070 52 cb 3d 3c c0 50 1f bb b9 3f b2 3a 96 ac 7b 3c
       0.01158412 -0.0024309605 0.0013599313 0.015360972
000080 7e 35 3b 3b 6d 59 b0 bc f5 07 76 bb 46 98 a2 3c
       0.002856582 -0.021527017 -0.0037541364 0.019848
000090 34 d4 c2 3c 6c eb a0 3b 7d 11 99 3b 3b b3 9e 3c
       0.023782827 0.004910877 0.004671274 0.019372573
0000a0 a6 c9 ff 3c e8 cf a3 3b de 9a b0 bb 94 3e 5a ba
       0.031224083 0.0049991496 -0.0053895554 -0.0008325365
0000b0 7d 4d 3f 3b 2c 93 72 3b df 00 93 3a 5b 55 42 3d
       0.0029190474 0.003701399 0.001121547 0.047444683
0000c0 69 22 c3 3c d1 ee 72 3c
       0.023820119 0.014827446

hidden_features.0.weight f4 [50, 498]
000000 b3 b7 b4 3b 9f e8 a0 bc 89 f0 ff bc 2d 5e 5d ba
       0.0055150627 -0.019642172 -0.031242626 -0.0008444514
000010 4e 59 a2 bc 74 93 b5 ba 4a 10 a7 bc 90 60 46 3c
       -0.019817974 -0.0013853149 -0.02039351 0.012107983
000020 85 50 9b ba 8b ce 39 3c b0 a9 c2 bb 54 3a 4c bc
       -0.0011849558 0.011340748 -0.0059406385 -0.012465078
000030 8b e1 a4 bb 6c 56 97 39 3d 30 af 3c 3a aa 12 bc
       -0.0050317696 0.00028865354 0.021385306 -0.008951718
000040 0b 94 72 bc ab d6 3d bb 65 b7 82 bb 15 6d ad 3c
       -0.014805804 -0.0028967063 -0.0039891475 0.021170178
000050 74 2b 56 bb 30 39 cb bc 73 91 9f bc 55 6b 51 3b
       -0.0032679709 -0.024807543 -0.019478535 0.0031954844
000060 7d c0 95 bc 23 6e af 3c 35 57 a6 bc 94 26 c0 bc
       -0.018280262 0.021414822 -0.020305255 -0.023455895
000070 67 99 27 bb 3d 0c a0 bc ae 59 d3 bc 8c 1d d3 3b
       -0.0025573613 -0.019537086 -0.025799599 0.0064427312
000080 12 17 b5 3b 8e 59 3a bc 1b 04 a6 3c 6b 3d 21 bb
       0.005526432 -0.011373891 0.02026563 -0.0024603258
000090 96 d1 a4 bb b2 85 9f 3c 33 93 ad bc 75 b4 6e bb
       -0.0050298674 0.01947293 -0.021188354 -0.0036423479
0000a0 76 de 3a 3c 1f 32 1b 3c af d8 47 3c b4 75 e2 b9
       0.011405578 0.009472399 0.0121976575 -0.00043193775
0000b0 df 18 09 3b 68 1e 34 ba a2 f3 60 3b f4 a3 85 bc
       0.0020919365 -0.0006870986 0.0034324904 -0.01631353
0000c0 af ab b4 bb 13 6e 57 bb 9a a9 fd ba 6b c9 3e ba
       -0.0055136303 -0.0032872006 -0.0019352913 -0.00072779384
0000d0 09 52 96 b9 52 15 fd 3b 01 56 9f bc 78 ea 88 bb
       -0.0002867135 0.007723489 -0.01945019 -0.0041783415
0000e0 8d 62 db 3c f8 ae 29 bc 30 a7 a2 ba 6e 66 06 bc
       0.026780391 -0.010356657 -0.0012409445 -0.008203132
0000f0 8b 9e d2 bb 26 00 97 bc a3 f8 f3 3b d2 11 7a bc
       -0.006427591 -0.018432688 0.0074454113 -0.015263038
000100 86 6b cf bb 1b d4 cb ba 8a 37 f5 bc 81 13 ed b9
       -0.0063299565 -0.0015550883 -0.02993371 -0.00045218694
000110 cc 4b 50 bc 1e ee 03 3c 52 e9 24 3c 96 07 45 3c
       -0.012713384 0.008052377 0.0100653935 0.012025734
000120 1c 6f a7 39 da cb da bb e1 8e bb bc 24 77 00 bc
       0.00031935505 -0.006677133 -0.022895278 -0.007840905
000130 63 2f c9 3b f3 0a 05 bc bb a5 df bb ca 56 bf 3c
       0.006139682 -0.008120286 -0.0068251765 0.023356814
000140 b1 32 7c 3c 4b c4 a7 bc 6c b3 55 3c 94 48 70 ba
       0.015392945 -0.020479342 0.013043266 -0.00091660884
000150 bf f8 9e b9 47 79 a2 3c e4 dd 1d 3b b1 1f 89 bb
       -0.0003032144 0.01983322 0.0024088556 -0.004184686
000160 36 02 8d ba 42 b9 cd ba ac 6d 9e bc 81 5f 8c bb
       -0.0010758105 -0.001569547 -0.019339405 -0.004283846
000170 5a df 99 3b 79 81 72 bc e0 48 fb bb ee 18 db bb
       0.004695815 -0.0148013765 -0.0076685995 -0.0066863215
000180 0f c3 08 bc 5f 33 a2 39 2e 77 38 bc cc c4 19 bc
       -0.008347287 0.00030937322 -0.011258883 -0.009385299
000190 60 63 a2 ba 38 7b d5 bc 19 40 8d bb 37 12 3b bc
       -0.0012389235 -0.026059732 -0.0043106196 -0.011417917
0001a0 55 49 ff 3b da 42 0c 3b c3 d5 ee 3b c1 d3 b8 bb
       0.0077907243 0.0021402151 0.007288666 -0.0056404774
0001b0 0e cc b9 3c 4b f4 8e 39 0e f1 9d 3c df 30 f5 3b
       0.022680309 0.00027266363 0.019279983 0.0074826325
0001c0 ce 30 6a b9 5f e7 4a bb 5f 89 0d 3d 67 fd ef 3b
       -0.0002233416 -0.0030960662 0.034554835 0.007323909
0001d0 67 b8 2e ba 0d ed e6 ba 7b 81 e6 bb 01 41 8e 3c
       -0.00066650513 -0.0017618254 -0.0070344782 0.01736498
0001e0 31 40 4e bc a9 34 98 bc af cd 9d bc d1 b4 06 bc
       -0.012588547 -0.018579798 -0.019263117 -0.008221821
0001f0 1c dc a1 3c 08 33 f9 3c 42 7f bb 3b 03 3f 81 3a
       0.019758277 0.030419841 0.0057219574 0.0009860698
000200 0c 6b 04 3a b7 46 74 bb 7c 84 87 bc 93 95 03 3c
       0.00050513516 -0.0037273595 -0.016542666 0.008031267
000210 67 10 03 3b 51 89 0b 3c c1 d3 a3 3b 1b 0e 86 3b
       0.001999879 0.0085166255 0.0049996083 0.004091037
000220 a9 9c cc bc 9f f6 da 3c 36 c9 26 bc ec 92 5e 3b
       -0.024977045 0.026728926 -0.010179808 0.0033962084
000230 9f 53 ea 39 08 df 2f 3c 82 14 b7 bb 24 c0 1c 3c
       0.0004469426 0.010734327 -0.0055871615 0.009567294
000240 89 1f 8f bc 30 08 bc 3c 84 95 89 3c a5 06 96 3b
       -0.017471092 0.022953123 0.016794927 0.004578429
000250 a0 f2 95 3c e2 f8 1d 3c f3 b0 49 bc 81 51 ad bb
       0.01830417 0.009641858 -0.012310254 -0.005289257
000260 86 cd 81 bb 46 7d 26 3a 7d fe 80 bc 03 ec e7 3b
       -0.003961268 0.00063510647 -0.01574635 0.0070776953
000270 ec 46 a6 ba b1 4b bb 3a d3 01 a7 bc a2 a0 29 3c
       -0.0012685931 0.0014289526 -0.020386612 0.010353239
000280 a0 af 7f bb 84 75 c4 3c 46 15 58 3c bc b0 6a 39
       -0.0039014593 0.023981817 0.013188666 0.00022381818
000290 5c 33 6f bb bd 0f da bb 67 63 6e bc 54 4e 2f bb
       -0.0036499118 -0.006654708 -0.014550067 -0.0026749568
0002a0 ae 89 e1 3b 05 4b 83 bc c0 79 41 3c ab c8 fc 3a
       0.006882868 -0.016026983 0.011808813 0.0019285878
0002b0 dc 78 36 3c 0c a1 e3 3c 4b c1 8b bc 87 f4 6a bc
       0.011137214 0.027786754 -0.017059943 -0.014340526
0002c0 aa 2c 65 3c 28 ee 72 bb 30 33 27 bb 7d 42 c8 3b
       0.0139876995 -0.0037068222 -0.0025512688 0.0061114416
0002d0 f1 e0 38 3b b2 a6 00 3c 4f 63 a3 bc c9 98 5f 3c
       0.0028210247 0.007852243 -0.019944815 0.013647267
0002e0 52 e0 3e bb 7b 36 3b ba 85 e1 b8 bc b5 27 d3 bc
       -0.0029125405 -0.0007141602 -0.022568474 -0.02577577
0002f0 e7 af 5d ba 7b ae 0b 3c e3 bf 4f bc 92 41 0e bc
       -0.00084566924 0.008525486 -0.012680027 -0.008682625
000300 91 81 0e bb cc 84 bf bb 01 a3 8e 3c 0e ed 04 3c
       -0.0021744708 -0.005844688 0.01741171 0.008113159
000310 26 7b 61 bb d1 03 c8 3c d0 b5 98 bb 4c c3 40 bc
       -0.0034405678 0.024415882 -0.0046603456 -0.011765312
000320 ee c2 ce bb e0 51 ae bc 10 4c 53 bc d1 56 9b bc
       -0.0063098585 -0.021279275 -0.012896553 -0.018962296
000330 d8 15 e3 3b 9f a5 dd 3b e5 22 fc 3b bf 47 ec 3b
       0.006930094 0.0067641283 0.0076945894 0.0072107012
000340 fa 3d 20 ba 83 bb 1d bc d7 a6 71 3c bb 4b 2a 3c
       -0.0006112751 -0.009627226 0.01474925 0.010394032
000350 70 01 08 bd 4a 8c bf 3a e9 17 b6 3c 44 8c 3f bc
       -0.033204496 0.0014613953 0.022228198 -0.011691157
000360 3f 7c 15 3c ac 31 a5 bb 37 4a a1 bb 45 33 db 3b
       0.009123861 -0.0050413217 -0.004922177 0.0066894614
000370 a5 2a 45 ba 16 64 2f 3b 3e 0b 22 3a dc 2a d2 bb
       -0.0007521308 0.0026762537 0.0006181485 -0.0064138006
000380 13 ed 3e 3b 13 a7 16 3c bd fb 16 3b be ae 1f bb
       0.0029133006 0.009195107 0.0023038231 -0.002436563
000390 bf 23 dd 3a 28 74 e0 ba d6 3a 74 3b 67 b7 91 3c
       0.0016871615 -0.0017124461 0.0037266514 0.017787648
0003a0 52 1c 7d bb ec 60 2d bb c3 d0 01 3d 2b 49 8c 3c
       -0.0038621617 -0.0026455475 0.03169323 0.017124733
0003b0 e1 d3 ed bb 38 63 b4 bc d8 6e 99 bc 03 90 66 3c
       -0.007257924 -0.022019967 -0.018729612 0.014072421
0003c0 df 57 10 3b e9 e0 bb 3c c7 90 ad bb dc 58 8b 3c
       0.0022025032 0.022934394 -0.0052968 0.017010145
0003d0 13 97 28 bc df 2c 68 bc 80 8a 2f 3d 93 be 52 3c
       -0.010289925 -0.014170854 0.042856693 0.012862819
0003e0 cd 87 40 ba 31 fe 59 3c dd c5 a4 3b 52 f5 11 3c
       -0.00073444546 0.013305233 0.00502847 0.008908587
0003f0 ac 60 a0 bc 22 a4 3e bc e4 8e 42 3c 82 d6 52 bb
       -0.019577347 -0.011635812 0.011874888 -0.0032171314

hidden_features.0.bias f4 [50]
000000 82 42 92 3b 3b 77 92 3c cc 46 d1 3b fc 6f 7e 3b
       0.0044634948 0.01787912 0.0063866135 0.0038824072
000010 49 a0 c9 bb 96 8f 4a 3d a3 59 54 3b 59 ee 09 3d
       -0.0061531407 0.04945334 0.003240206 0.03367457
000020 c9 b0 19 3c 86 18 e0 3c 48 57 89 3c d9 c0 bd bb
       0.009380528 0.027355444 0.016765252 -0.0057908115
000030 85 90 05 3b 3b 35 e9 3a 81 b0 80 38 f9 b3 05 3c
       0.002038033 0.0017792353 6.136392e-05 0.008160585
000040 c1 57 f8 3b c5 ac 27 3c 93 14 68 3c 37 cf eb 3b
       0.0075788205 0.010234063 0.0141650615 0.007196333
000050 f5 88 51 3c 81 b3 8e bb 71 9c 27 bb 36 3f 99 3c
       0.012789001 -0.0043548946 -0.0025575424 0.0187069
000060 a9 7a 30 3d 2d 0c 58 3a aa ad 2a ba 29 83 45 3c
       0.043085728 0.00082415604 -0.00065108633 0.012055197
000070 52 cb 3d 3c c0 50 1f bb b9 3f b2 3a 96 ac 7b 3c
       0.01158412 -0.0024309605 0.0013599313 0.015360972
000080 7e 35 3b 3b 6d 59 b0 bc f5 07 76 bb 46 98 a2 3c
       0.002856582 -0.021527017 -0.0037541364 0.019848
000090 34 d4 c2 3c 6c eb a0 3b 7d 11 99 3b 3b b3 9e 3c
       0.023782827 0.004910877 0.004671274 0.019372573
0000a0 a6 c9 ff 3c e8 cf a3 3b de 9a b0 bb 94 3e 5a ba
       0.031224083 0.0049991496 -0.0053895554 -0.0008325365
0000b0 7d 4d 3f 3b 2c 93 72 3b df 00 93 3a 5b 55 42 3d
       0.0029190474 0.003701399 0.001121547 0.047444683
0000c0 69 22 c3 3c d1 ee 72 3c
       0.023820119 0.014827446

hidden_features.2.weight f4 [50, 50]
000000 6c 45 50 bb b2 5f 3e 3c 79 63 08 b9 2f 09 58 3c
       -0.003177966 0.011619495 -0.00013007027 0.013185783
000010 87 fe 9d 3b 04 3a cb ba 08 79 67 bc f3 91 97 bc
       0.004821602 -0.0015504961 -0.014127977 -0.018502211
000020 05 8b 31 3b b4 53 47 ba 1c da 08 ba 5d e4 a1 ba
       0.0027090919 -0.00076037203 -0.0005220489 -0.0012351383
000030 b3 1a ce ba bd ca 45 3c 91 33 e7 bb 90 ce 31 3b
       -0.001572451 0.012072262 -0.0070557077 0.0027131177
000040 01 f9 bc b9 e8 10 46 bb 1c ad 1a bb 42 79 66 ba
       -0.00036043677 -0.003022248 -0.0023601716 -0.00087918725
000050 7b 37 05 3b 68 c1 d7 bb ce e3 96 3b 8b 22 98 bb
       0.0020327258 -0.006584335 0.004604793 -0.0046427897
000060 c0 89 22 bb cc c0 90 ba a7 68 9e ba f8 0c 85 b9
       -0.0024801344 -0.0011043786 -0.0012085632 -0.000253774
000070 ab 4a 8d bb 4b 26 ca bb d1 c5 a0 3b aa 21 8e 3b
       -0.0043118796 -0.0061691157 0.004906394 0.004337509
000080 8a 3b 60 3b d2 6c 24 bb eb 5d 56 3c 89 46 99 bb
       0.0034215176 -0.0025089276 0.013083915 -0.004677598
000090 53 ed dc ba a1 bf 31 bb f4 d3 bb 3b 68 b3 b7 3b
       -0.0016855396 -0.0027122276 0.005732054 0.0056061037
0000a0 68 3b d5 3b 0b 37 54 b8 79 3a 26 bb 6d 42 95 3b
       0.006507326 -5.0596e-05 -0.0025364442 0.0045550377
0000b0 ff 46 29 bc e6 4d 5a bc 37 86 a4 3b 67 19 1f bc
       -0.010331868 -0.0133242365 0.0050208825 -0.009710646
0000c0 3e a2 a9 ba fd fe 62 3b 57 fe 86 bb b6 5d 35 bb
       -0.0012942029 0.0034636848 -0.004119675 -0.0027674264
0000d0 8c 8b 24 3c f9 64 e2 3b f4 8e 23 3c b6 c3 60 bc
       0.010043036 0.0069090095 0.009982813 -0.013718536
0000e0 2f cf a0 bb e1 6c 79 3c 8c 7a 5a 3c 9a e4 78 3b
       -0.0049075107 0.015223713 0.0133348815 0.0037978054
0000f0 10 a9 3c bc 65 36 b5 39 20 91 4a 3b a2 a1 83 3a
       -0.011514917 0.00034563537 0.0030909255 0.0010042677
000100 c4 5d aa 3a ce f0 2d bc e3 a3 6f 3c 39 b4 a8 ba
       0.0012997915 -0.010616494 0.014626476 -0.0012871093
000110 92 c9 8f bc 83 57 44 3c 78 28 0a bc b3 e6 00 3b
       -0.01755217 0.011983755 -0.0084325 0.0019668757
000120 b5 a0 2e bc 4d eb 9f bc a1 69 af 39 57 7f ac 3b
       -0.010658433 -0.01952138 0.000334573 0.0052642035
000130 cf bc 96 3b c0 bd 6c 3b fa a9 08 3b bf f2 e7 bb
       0.0046001445 0.0036123842 0.0020853267 -0.007078498
000140 a1 96 48 bc 8c 51 96 bb 76 d0 45 3c 00 19 84 bc
       -0.012242944 -0.004587358 0.012073627 -0.016125202
000150 75 57 23 3b fe 6f 08 3c c4 c3 9e bb eb 3c 75 3c
       0.0024923955 0.008327482 -0.0048451144 0.014968137
000160 8f e9 80 bc 5b ac 92 ba e5 9a ec b9 fc 6b ce 3b
       -0.01573637 -0.0011190282 -0.00045128833 0.006299494
000170 7f f9 36 3c 12 5a 5b 3c 97 11 81 bc 35 8d b1 3b
       0.011167883 0.013388174 -0.015755458 0.0054184445
000180 7b 5d 1e 3c e9 a9 cb 3c 3a 3e c0 3c 3a 85 9d bb
       0.009665842 0.024861293 0.023467172 -0.0048071416
000190 0b 49 6d 3d 85 d9 44 3d 9f 52 46 bd 85 ff 85 3d
       0.057930987 0.048059005 -0.048418637 0.06542877
0001a0 f1 36 63 bd bc 60 7d bc 1a 70 ad bd 0c 03 ef bd
       -0.055472318 -0.015464958 -0.08468647 -0.11670503
0001b0 df 51 9f 3d d8 22 91 3d e7 1a 78 bd 3d 66 ad 3d
       0.077792875 0.07086724 -0.06057253 0.08466766
0001c0 0b 12 63 3c 9b fd 45 bd 83 60 91 3d d0 82 6d 3b
       0.013859282 -0.04833756 0.07098486 0.00362413
0001d0 a4 e6 c0 bd 7a 0c 43 bb 4a 83 f8 3d b8 0d b4 3c
       -0.09418991 -0.0029762075 0.121344164 0.021979198
0001e0 5d 54 11 bc 86 37 88 bd 05 f2 dc 3d 27 51 28 3d
       -0.008870211 -0.06651215 0.10788349 0.041093018
0001f0 3b 97 7a bc 7f 29 b8 bd a2 a2 a7 bc fc 67 2f 3e
       -0.015294845 -0.0899229 -0.020463292 0.1712951
000200 d8 0b 13 3d b9 b0 44 3d 52 f3 9c bd cd ab b9 bd
       0.035899967 0.0480201 -0.07663597 -0.090659715
000210 7c c5 8a bd c9 bb e1 bd 99 6e 9a 3b 6f 7b af 3d
       -0.067759484 -0.11022145 0.0047128913 0.08568465
000220 b4 2f 2a be 9d 42 78 3d 0d d5 48 3d 07 2b ff bd
       -0.1661976 0.060610402 0.049031306 -0.12459379
000230 16 52 0b be 8c c4 9b bd 28 96 c6 bc 5a 07 9f 3d
       -0.13605532 -0.07605848 -0.024241522 0.07765074
000240 5d 1e 83 3c 1a cd a0 bd 1d 04 bf bc 37 4f e3 bd
       0.01600569 -0.0785162 -0.023317391 -0.110990934
000250 34 91 55 3d ca a4 09 3e d2 99 9f ba 52 ec 80 3b
       0.05214043 0.13441768 -0.0012176579 0.0039344216
000260 f7 8d c1 ba d0 16 ba 3b e7 ab 9d 3c 93 ed 38 3c
       -0.001476704 0.005678989 0.019247008 0.011287111
000270 1c 94 dc bb d2 97 bf b9 ab 54 87 3b 68 18 3c bc
       -0.006731523 -0.00036543474 0.0041299663 -0.011480428
000280 3e 5a ec 3b 10 32 25 3b 74 fa bb bc 53 79 8e 3b
       0.007212906 0.0025206842 -0.022946574 0.004347959
000290 c9 99 ac 3a c7 4e 9a bc dd f1 25 3a 45 57 80 3a
       0.001316839 -0.018836392 0.0006330291 0.0009791633
0002a0 c5 b6 98 bb cd 61 88 38 1e 1b bb bb 1e 15 d6 3b
       -0.0046604597 6.503202e-05 -0.0057100197 0.006533279
0002b0 7c 11 b9 ba c1 b4 af 3b 25 58 0c bc db 4c fc bb
       -0.0014119591 0.0053621237 -0.008565937 -0.0076995916
0002c0 7b 28 eb bb 4c 69 3e bc 91 f5 59 3c 38 e3 4b bb
       -0.0071764565 -0.011621784 0.0133031765 -0.0031110775
0002d0 38 4c 41 3c 33 90 b6 bb 75 25 64 3c 21 c0 06 ba
       0.011797957 -0.005571389 0.013924946 -0.0005140324
0002e0 9f 09 57 bc e7 5f 7a bc 12 e1 4a bb 75 b9 4b 3b
       -0.013124852 -0.015281654 -0.0030956906 0.0031085883
0002f0 09 20 93 3b f8 e6 95 3c 0d 29 eb 3b 13 cb 8e 3c
       0.004489903 0.018298611 0.0071765245 0.017430818
000300 c5 01 41 3c 3f fb 2d 3b c7 8e 95 bb 4a b8 8c 3b
       0.011780207 0.002654746 -0.0045641395 0.00429443
000310 9d 85 be 3c 75 da 5e 39 e6 66 0c bb b1 95 33 3c
       0.023257071 0.00021252951 -0.0021423637 0.010960982
000320 66 a7 9b bc c8 25 bb 3d 4b d8 95 bd 6c 8c 9f 3c
       -0.01900072 0.091380656 -0.07316645 0.019476138
000330 d8 ea ed bd f5 6e f3 bc 81 71 b7 bd 05 49 03 be
       -0.116170585 -0.029715994 -0.08957196 -0.12820823
000340 27 9a 5f 3d 49 36 19 3e d9 86 c7 bd 30 af d3 3d
       0.05459037 0.14962114 -0.09742517 0.10336149
000350 55 17 a1 3d ec d9 24 bd 1a 7c 11 3e 6a b4 91 3d
       0.07865778 -0.04024689 0.14207497 0.071144894
000360 9a 72 49 be 0e 90 8c 3c 01 64 c5 3d 86 01 7b bc
       -0.19672623 0.017158534 0.09638215 -0.015320187
000370 9f 6c bd bd 43 9f d2 bd ae 6d b6 3d 89 52 86 3d
       -0.092492335 -0.10284283 0.089076385 0.06558711
000380 02 cb 84 3d 62 bb 11 be e3 36 f6 bb 27 d5 c7 3d
       0.06484033 -0.14231637 -0.007513867 0.097574525
000390 72 f4 f2 3d 28 52 88 3d 23 68 c3 bc 1e 18 e8 3c
       0.118630305 0.06656295 -0.023853367 0.028331812
0003a0 92 14 43 3c 7f 1a 9d bd 5e 0c 3e bd 66 b0 6e 3d
       0.01190676 -0.07671069 -0.046398513 0.058273695
0003b0 a9 14 bb be d2 47 03 3e 92 ca 25 3d d8 81 50 be
       -0.365392 0.12820366 0.04047639 -0.20362031
0003c0 ab 35 d3 bd 65 57 66 bc fb 75 aa 3b 92 b4 b8 3d
       -0.10312971 -0.014058922 0.0052020526 0.09018816
0003d0 44 97 99 3b b9 64 50 bc 3d f1 1c bd 0d da 05 be
       0.0046872217 -0.012719327 -0.038316 -0.13071461
0003e0 4f 26 a5 bd fd f6 28 3e 7b 00 c0 3b d4 33 00 3c
       -0.080639474 0.16500469 0.0058594323 0.007824857
0003f0 68 90 27 3c 13 08 5d bc 97 28 da 3c 0f 39 31 ba
       0.0102273 -0.013490695 0.026630683 -0.00067605166

hidden_features.2.bias f4 [50]
000000 da 04 95 bb 2e 50 47 bc 80 97 5a 3d e9 cc dc bb
       -0.0045476975 -0.012165112 0.053367138 -0.0067382944
000010 df 10 bc 3d f8 fc 3c bb be 16 02 bb 50 9e 2b bc
       0.091829054 -0.0028837305 -0.0019849981 -0.010474756
000020 5f 63 a3 3a 18 58 d8 ba 48 14 fb 3c 60 8d fd 3c
       0.0012465528 -0.0016505746 0.03064932 0.030951202
000030 e1 70 1f 3e 1e c1 27 3d 37 c2 dd 3c c8 2a 44 3c
       0.15570404 0.040955655 0.027070148 0.0119730905
000040 7f b8 da bb b1 31 51 3c 55 2c c2 3c 44 bd 8b bb
       -0.0066748257 0.012768195 0.02370278 -0.0042645056
000050 7a 94 03 bc 4e 89 90 3d 8c e0 9c 3d 88 7f 12 3e
       -0.008031005 0.07057439 0.076600164 0.14306462
000060 aa 19 86 bc c2 41 a9 3d a2 d6 66 bb 0b 14 97 3d
       -0.01636966 0.082644954 -0.0035223146 0.0737687
000070 81 57 85 3d f2 2d 21 bc c9 c6 b7 3d ae 8a 7e 3d
       0.06510831 -0.009837614 0.08973462 0.062143974
000080 2c 0d 7d 3d b5 0d 60 bb d4 ea 43 3c f3 af 12 bc
       0.06178014 -0.0034187858 0.011957843 -0.008953082
000090 6d 44 44 3d ef 51 72 bb a5 37 f6 3c 38 78 91 3d
       0.04791682 -0.0036975106 0.03005583 0.07103008
0000a0 99 9a f6 ba 7f c0 4d 3d 5d 14 65 bc 50 87 02 bc
       -0.0018814384 0.050232407 -0.013981906 -0.007966831
0000b0 d8 4c a3 3d e0 a0 d2 bb cf f6 9f 3d c1 16 e4 bb
       0.07973641 -0.006427869 0.07810747 -0.0069607203
0000c0 d3 1e 1f 3d 98 70 dc 3d
       0.038847756 0.10763663

density_estimator_head.weight f4 [50, 11]
000000 bb 08 30 3b 7f a0 54 3c 85 2b 36 3c cc 79 ab bc
       0.0026860673 0.012977718 0.011118774 -0.0209321
000010 d9 8a 28 bc 83 fc 81 3b 4f 2b d2 3a 06 4d d4 3c
       -0.01028701 0.0039668693 0.0016034635 0.025915634
000020 77 23 24 3a 08 72 c6 3b 53 94 85 3c 41 fc 54 b9
       0.0006261388 0.006056074 0.016306078 -0.00020311867
000030 c7 95 2f 3c c2 2d a2 3b 63 34 08 bc c1 6f 05 bd
       0.010716862 0.0049493024 -0.008313271 -0.03257728
000040 15 72 4e b7 79 18 95 bc 92 96 2c bc c7 aa af 3b
       -1.2305119e-05 -0.018200146 -0.010533946 0.0053609344
000050 7a 32 ed 3a 2a ea 5b 3c 06 10 19 3b 34 f8 d1 3b
       0.0018096708 0.013422528 0.0023355498 0.006407762
000060 7a c5 0f 3c 56 73 57 bc 95 b6 fd 3a 1e 92 29 bc
       0.008775109 -0.013150057 0.0019356782 -0.010349778
000070 77 16 3c 3c b4 32 aa bc e7 55 0c 3c 0f ae 89 ba
       0.011479965 -0.02077613 0.008565403 -0.0010504144
000080 97 3a 57 3c 72 f2 f2 bb c7 62 1a bc a1 6a 0b bc
       0.0131365275 -0.0074141556 -0.009422964 -0.008509309
000090 a4 a3 f6 3b 8d 76 bd ba 47 79 43 bc 6f 61 db 3b
       0.0075268317 -0.0014454887 -0.01193077 0.0066949646
0000a0 c3 21 ca bb 42 46 95 3b 19 b1 c3 3c 29 2c 62 39
       -0.0061685755 0.0045554945 0.023888158 0.0002156949
0000b0 bb db f7 3a af d3 8f 3c 7c e9 31 bc b0 fe 2f 3b
       0.0018910089 0.017556993 -0.01085889 0.0026854686
0000c0 2d 28 66 3b 89 c6 89 bc b3 da 04 3c 89 f3 9d bb
       0.0035119161 -0.016818302 0.008108783 -0.0048202914
0000d0 29 f8 d0 39 ca 9c 13 3c 1a ec 37 3c 69 54 d1 bb
       0.00039857745 0.009009549 0.011225725 -0.0063882363
0000e0 93 78 bf 3a ad 56 16 bc f0 fe 34 bc b6 88 a4 3b
       0.0014608077 -0.009175939 -0.01104711 0.00502118
0000f0 6f 96 4a 3c 6b fb 37 3c 03 2c 14 bc 34 5b 98 3c
       0.012364968 0.011229376 -0.009043696 0.018598177
000100 cd 5b 46 bb e3 2d af ba ed bc 71 3b 1c 82 72 bc
       -0.003026712 -0.0013365116 0.003688629 -0.014801528
000110 1c ee 4c bc d3 56 dd 3b d1 1c a1 b9 86 60 d2 bb
       -0.012507942 0.006754735 -0.00030729783 -0.006420198
000120 22 80 26 3a 49 c5 23 bc 1a da 84 3a f4 16 f1 39
       0.0006351491 -0.009995767 0.00101358 0.00045984203
000130 e2 f9 b8 3a 4b de 33 3c 39 80 86 3b 41 ac fe 39
       0.0014112557 0.010978292 0.004104641 0.00048574994
000140 5c 28 49 bc f7 2b c3 3c 9f f9 81 bb 4e b1 b5 ba
       -0.012277689 0.023824675 -0.0039665247 -0.0013862045
000150 3e 8a 21 bc b8 70 ab 3c aa 68 80 bc ef 54 80 3a
       -0.00985962 0.020927772 -0.015674908 0.0009790937
000160 2c 3c 06 3b d9 36 15 bb a3 67 28 3b 5f 1f a8 3b
       0.0020482643 -0.0022768287 0.0025696538 0.005130693
000170 07 a4 93 bc 1f 0b 2b bb ba 74 b5 bb a7 69 01 3c
       -0.01802255 -0.0026099158 -0.0055375965 0.007898725
000180 56 ae 02 bc ca 4a bc bb fb 9c 94 3c 9e 33 3c bc
       -0.007976135 -0.0057462202 0.01814126 -0.011486916
000190 11 8a 33 3c 7d 01 4e 39 37 cd 6f 3b ac 1f c0 3b
       0.010958211 0.00019646245 0.0036590823 0.0058631506
0001a0 b4 cd 16 bc 4f de f0 3c 1a ea 16 bb 71 0f 7f 39
       -0.009204317 0.02940288 -0.002302772 0.00024324447
0001b0 6e 37 ae bb 5a ed 6e bc d7 79 2b bc cf b1 26 3c
       -0.0053166663 -0.014582956 -0.010466061 0.010174229
0001c0 81 94 96 bc 79 e7 da bb f7 8f fc 3b bb aa d2 bb
       -0.018381359 -0.0066804257 0.0077075916 -0.006429044
0001d0 c9 24 8a b8 03 bb 28 3a 8f 1b be 3b aa 43 d6 bb
       -6.5872046e-05 0.00064365583 0.005801625 -0.006538828
0001e0 cb be c6 3b 48 61 17 bc b4 a5 7e bb 77 32 48 ba
       0.0060652248 -0.009239502 -0.003885609 -0.00076369144
0001f0 f0 e8 30 3c 5c 99 a0 bb 2a b9 96 3a 99 11 58 bc
       0.010797724 -0.0049010944 0.0011499275 -0.013187789
000200 a8 4d 90 bb e8 69 2f 3c 56 9c cb bb 22 3f dd 3c
       -0.0044037886 0.010706402 -0.006213705 0.027007643
000210 47 ae 0c bd 3b c0 1f 3c 16 60 d7 3b bb 07 c8 bb
       -0.03434589 0.009750421 0.0065727336 -0.006104437
000220 b0 02 da 3b ee e6 c1 bc 6e 19 64 bb 2c 72 8c bb
       0.0066531524 -0.023669686 -0.0034805196 -0.0042860713
000230 bf 91 19 ba c5 25 2f 3c 45 ba cf 3c 74 8f 21 3c
       -0.00058582047 0.010690157 0.025357375 0.009860862
000240 9b e4 15 3c 3c 58 8e bb 14 c2 1a 3c 15 a8 86 bb
       0.009148742 -0.0043440145 0.009445686 -0.0041093924
000250 de 07 16 3c 87 4e 00 bb 4f 10 ce 3c 60 e3 e3 ba
       0.009157149 -0.0019578056 0.02515426 -0.0017386489
000260 b9 bd dd 3b 67 df 48 3b dc b2 2f bc be 5b 1c bc
       0.0067670015 0.0030650736 -0.010723796 -0.009543357
000270 1a 15 54 bc a5 ba 99 3b d1 7e ee b9 dd 7a 95 3c
       -0.012944484 0.004691439 -0.00045489383 0.018247062
000280 e0 62 4a 3c 44 46 e2 bb 8f 69 ee 3b b8 c1 8d bb
       0.012352675 -0.006905349 0.007275767 -0.0043260716
000290 5c ab f2 3c 8c 03 12 bc 42 9b df 39 cf 9f 45 bb
       0.029622726 -0.008911978 0.0004264955 -0.0030155068
0002a0 9b 3a bb ba 26 3b 3c 3c 14 54 b5 39 cb 57 4b bc
       -0.0014284434 0.011488711 0.00034585653 -0.012411068
0002b0 56 f8 52 3b 47 96 f7 ba 44 63 36 bb 64 fd 42 3c
       0.0032191477 -0.0018889391 -0.0027830163 0.011901233
0002c0 1f 2f f0 3b b9 21 db 3b 60 76 29 bc 05 7f 0a bc
       0.007329836 0.0066873697 -0.010343164 -0.008453135
0002d0 b4 0e 8a bc 57 5d 2b bc 25 78 a0 3b 6d 76 c7 3b
       -0.016852714 -0.010459266 0.004897135 0.0060871155
0002e0 80 a3 4c bc c7 12 bc bb 8b 97 8e b9 38 4d 6c 3c
       -0.012490153 -0.005739543 -0.0002719726 0.014422707
0002f0 fb 56 36 bc ea 5b 80 3a a1 5f 1c bc dd 79 69 3b
       -0.011129136 0.0009793018 -0.009544284 0.0035625615
000300 0d bf 66 37 2f bc e6 3b 91 1d 02 bc e4 28 bb 3c
       1.3753551e-05 0.007041476 -0.0079416195 0.022846647
000310 02 09 26 bc b4 be 25 3b 77 18 ed bb d1 84 84 3c
       -0.010133984 0.002529067 -0.0072355825 0.016176613
000320 c0 f9 5c 3b a2 7d a5 bb 25 4e d3 bb 39 ab f4 3b
       0.0033718199 -0.005050377 -0.0064485245 0.0074667004
000330 cd ab 07 3c 34 57 c0 3a 52 36 5c 3b 7f 4d 55 bb
       0.008280707 0.0014674426 0.0033601713 -0.0032547412
000340 d5 5a 38 3c 71 54 18 3c 00 72 2a 3c 96 ae a7 bb
       0.011252125 0.009297476 0.010403156 -0.005117248
000350 f9 7c 5e bc 83 06 2f bc 1f 15 b4 b9 8b ce 18 bc
       -0.0135796005 -0.010682705 -0.00034348012 -0.009326587
000360 b3 6b d3 bb 79 f0 b3 3b 33 a4 25 bc 5b b3 03 bc
       -0.0064520477 0.005491313 -0.010109949 -0.008038367
000370 b4 a5 a4 bb 81 06 d5 ba b0 dc 1c 3b 78 56 54 bc
       -0.005024636 -0.0016252549 0.002393525 -0.012960069
000380 cf 56 e5 bb c3 32 ef 3b 08 45 88 3b 74 31 f4 3a
       -0.006998874 0.0072997524 0.00415862 0.0018630461
000390 be 32 69 bb 2e c0 09 3c c9 6a bd ba 26 06 cc 3a
       -0.0035583223 0.008407636 -0.001445138 0.0015565797
0003a0 e7 78 13 3b 73 25 55 b8 5f 72 c0 39 18 47 57 bc
       0.0022502483 -5.0818035e-05 0.00036706307 -0.013139509
0003b0 b5 90 d6 3a 55 b4 b0 bb 86 4d c8 bb 26 26 8b 3b
       0.001637003 -0.005392591 -0.006112757 0.004246491
0003c0 fe de a2 ba dc 8c 75 3c 08 ca 9a bc 3e c1 31 3c
       -0.0012426076 0.014987197 -0.018895164 0.010849295
0003d0 fa d5 84 bc fd 57 af bb d2 e6 ba 3a a9 fa 8d bb
       -0.016215313 -0.005351065 0.0014259464 -0.0043328595
0003e0 fa 8e e5 ba 0e 18 3e bb c5 8c 33 bc 9e ca 93 ba
       -0.0017513924 -0.0029006037 -0.010958855 -0.0011275595
0003f0 39 a1 f8 3c 12 e9 7c bc 3e b6 80 3b c9 a3 59 bc
       0.030350314 -0.015436428 0.003927975 -0.013283678

density_estimator_head.bias f4 [11]
000000 27 28 51 be cd 4d 20 3e 45 2e a5 3c 31 b7 03 3d
       -0.20425473 0.15654679 0.020163665 0.032157127
000010 7f f2 c9 3c 74 73 92 bd fb 9d bf bd 58 ac 87 bc
       0.024651764 -0.07150927 -0.09356304 -0.016561672
000020 9c fb 6d bd b4 bf 55 bd d5 7a 86 3e
       -0.05810128 -0.052184775 0.26265588

Q1.0.weight f4 [50, 50, 5]
000000 31 95 29 c0 fb a2 88 be c6 30 dd be 94 af 4a 3f
       -2.649731 -0.26686844 -0.43201274 0.7917416
000010 33 89 57 3f 86 60 8f bf b8 88 12 3e 5e df 16 bc
       0.84193724 -1.1201332 0.14309967 -0.009208528
000020 a0 f7 14 bf 1e db b9 bf 99 a6 83 bf 9c 14 3e 3d
       -0.58190346 -1.4519994 -1.0285217 0.046406373
000030 66 60 59 3f 84 63 b4 3f 16 1b 6b 3f ac 53 75 be
       0.8491272 1.409287 0.91838205 -0.239577
000040 5d e2 ba be 85 1d 67 3f ee b0 98 bf 6e d6 09 3f
       -0.36500826 0.9027942 -1.1928995 0.5384282
000050 ce aa a8 be fd 62 42 3e ce 8e 80 be 11 47 91 3f
       -0.32942814 0.18983074 -0.2510895 1.1349813
000060 cf 5f e2 bd 60 7a 29 3f 16 d8 56 3d ef 0a 1d be
       -0.1105343 0.66202354 0.05245217 -0.15336202
000070 92 07 c8 bf 5c 9b a2 bd 20 13 89 3f a1 ec cb bf
       -1.562731 -0.07939789 1.0708961 -1.5931588
000080 65 33 5b be 20 84 69 3e 59 84 b6 bf 7f a0 5b 3f
       -0.21406324 0.22804308 -1.4259139 0.8579177
000090 a1 4b 4d 40 86 1b a6 3f 55 7d 9e 3f 8c b1 9e 3d
       3.207741 1.297715 1.2381998 0.07748708
0000a0 c5 ca a6 3f 9a da ce 3e b9 0d 37 3e d4 fe be 3f
       1.303063 0.40401155 0.17876329 1.4921517
0000b0 8a 4a 1c bf f0 5d e7 bd 21 b4 16 bf ef d1 3e 3f
       -0.6105124 -0.11297214 -0.58868605 0.74539083
0000c0 71 fc e3 be 4f 4f 20 3f 4e 98 87 bf 92 80 5c 3e
       -0.44528535 0.62621015 -1.0593355 0.2153342
0000d0 1c 6d 87 bf c4 51 99 bf 0d d2 38 bf a6 0f 3a be
       -1.0580173 -1.1978078 -0.7219551 -0.18170032
0000e0 43 1b ce 3e e1 94 88 bf 29 c4 c9 bf 83 8f 01 3f
       0.40255174 -1.0670434 -1.5762988 0.50609607
0000f0 f9 28 ba bf 57 12 0f 3e 5e 71 0d 3f 03 ef 19 bf
       -1.4543754 0.1397184 0.5525111 -0.6013033
000100 2f 9f 01 3f 57 85 18 be ac 8e 3b 3e de b1 65 3d
       0.5063352 -0.14894615 0.18316144 0.05607783
000110 0d a8 9d 3f f3 c4 cc 39 43 d0 8e 3f 10 d0 ac be
       1.231691 0.0003905665 1.1157306 -0.3375249
000120 a0 75 3d bd b3 2a 6d 3f ac 1b 21 3f 42 44 7f 3f
       -0.046254754 0.9264328 0.6293285 0.9971353
000130 48 15 68 3f a7 06 09 40 41 81 0b bf 78 d0 3a bf
       0.9065747 2.141031 -0.544941 -0.7297435
000140 a6 82 67 bf e2 ad 03 c0 92 45 19 bf 47 d8 93 3f
       -0.9043373 -2.057488 -0.5987178 1.1550378
000150 b5 2a ad bf ca ea d6 3e 06 bb 9f bf d8 28 5e 3f
       -1.3528658 0.41976005 -1.247895 0.8678107
000160 00 f6 a3 bf 85 38 d2 3e 26 6a 0b 3f 91 41 32 bf
       -1.2809448 0.41058746 0.54458845 -0.69631296
000170 7b 61 c8 3f 79 e9 c8 3e 48 b8 40 bf 19 cd e9 3d
       1.5654749 0.39240626 -0.7528119 0.114160724
000180 ea df ad 3e ca b4 b3 bf 0d 38 47 3f 1d 19 9e 3f
       0.33959895 -1.4039547 0.778199 1.2351414
000190 35 6c 53 3f e0 0a 2c bf 52 37 95 3e 1d 5b fc 3f
       0.82586986 -0.67204094 0.2914377 1.9715306
0001a0 c9 a8 2e bf 8d 53 61 bf 6e dc 9a 3f 2f 9e 8e be
       -0.68226296 -0.88018113 1.209852 -0.2785506
0001b0 45 1c a6 3e f0 79 a3 bf e9 ab e2 3d 93 22 c9 3f
       0.32443443 -1.2771587 0.110679455 1.5713676
0001c0 fa 81 81 3f 35 e8 48 3f 82 71 22 be 0c 66 cd be
       1.0117791 0.7847932 -0.15863612 -0.40116918
0001d0 0f 82 71 bf 38 95 2b bf 28 a2 89 bf 08 b8 0b be
       -0.9433908 -0.67024565 -1.0752611 -0.13644421
0001e0 bd 41 75 bf 8c fc 70 3f f3 77 1e 3f de 8e 99 3f
       -0.95803434 0.94135356 0.6190178 1.1996725
0001f0 3e 2b 67 3f c0 07 e2 3f 86 e8 7f 3e 23 1f 23 bf
       0.9030036 1.7658615 0.24991044 -0.63719386
000200 43 0b 00 40 c4 da 1d 3d ca e7 8f 3f 6f 1f c6 3e
       2.0006874 0.03853871 1.1242611 0.38695857
000210 d0 bc 86 bf 0d 50 1d bf 65 df 16 3f 71 fd 27 3d
       -1.0526371 -0.6145027 0.58934623 0.041013185
000220 cc 60 02 bf 17 ce 97 3e 96 8c 0f bf 65 e3 da bf
       -0.5092895 0.29649422 -0.5607389 -1.7100645
000230 c9 a8 0c bf ca 64 72 3f 7a 5e 5c be 1b 99 60 be
       -0.54945046 0.9468504 -0.21520415 -0.21933405
000240 ee 72 96 bc 93 48 73 bd 71 97 c0 3e 61 26 c3 3f
       -0.01836535 -0.059395384 0.3761554 1.5246087
000250 ca 87 94 3f bc 26 a2 3f 2b b3 9c 3f e6 83 03 c0
       1.160394 1.2668071 1.2242178 -2.0549254
000260 ee 69 37 be 74 dc 21 bf a1 6a fd bd bd 63 43 3f
       -0.17911503 -0.6322701 -0.123738535 0.76324064
000270 b5 a1 dd bd 77 8d bb be 99 1e 8a bf 27 86 73 bf
       -0.10821859 -0.36631367 -1.0790588 -0.95126575
000280 3f 8a 2d 3f 59 64 41 3e 60 c5 03 40 f4 43 c1 3e
       0.6778907 0.18885936 2.0589218 0.37747157
000290 c4 bd 97 be 2e 38 0b c0 dd 17 f9 3f c4 f6 e9 bd
       -0.29636967 -2.175304 1.9460407 -0.1142402
0002a0 45 c2 14 bf 3a 5e 29 bf 75 5c 3a be 5f c5 60 3e
       -0.5810893 -0.66159403 -0.18199332 0.21950291
0002b0 2f 0d 06 3e 46 d9 7a bf 90 4c b5 bf f4 8b 67 bf
       0.13090967 -0.9798778 -1.416399 -0.90447927
0002c0 b1 99 d8 3f e8 86 be be 8e 42 96 bf 37 6f d8 3f
       1.6921903 -0.372123 -1.1739061 1.690894
0002d0 9d 67 44 bf 56 55 7c bf 53 ca 5f bf 8a c1 84 bf
       -0.767206 -0.9856771 -0.874181 -1.0371563
0002e0 e9 ed a6 bd 65 89 3e be 46 44 0c be cf 6f 71 3f
       -0.081508465 -0.186071 -0.13697919 0.9431123
0002f0 6d 8a f7 be 55 92 3a be d4 69 cb 3e 98 ed ea bd
       -0.48347798 -0.18219884 0.39729178 -0.11471099
000300 26 31 67 bf dc bd 9e 3f 8b dd 83 be eb 11 87 be
       -0.9030937 1.240169 -0.2575496 -0.26380858
000310 f5 92 c6 3c d4 cc 74 be 3e 2a 76 bf 35 cf 46 3d
       0.024239996 -0.2390626 -0.96158206 0.04853745
000320 70 3f 69 3e 03 73 fd be 80 09 23 be a8 26 69 3f
       0.22778106 -0.4950181 -0.15921593 0.9107461
000330 1f 20 f8 3e 61 e5 95 bf 57 5e dc 3f 75 63 fc bf
       0.48462006 -1.1710626 1.721629 -1.9717852
000340 38 6f cc 3f 1a 9d 91 bf e1 b5 d6 3e 06 09 13 3f
       1.5971441 -1.1376069 0.41935638 0.57435644
000350 9d 4f 8d 3f d1 71 be 3d e5 f4 0c 40 74 12 8d 3e
       1.1039921 0.092990525 2.2024472 0.2755314
000360 da 23 76 bf 50 94 8d 3f 78 db 3e bf ac 53 96 3f
       -0.96148455 1.1060886 -0.7455363 1.1744285
000370 f9 ef 82 bf e1 d8 ef 3f 51 76 95 3f 15 33 df be
       -1.0229484 1.8738061 1.1676732 -0.4359366
000380 7e be 44 40 43 03 24 bd d3 c6 3b 3e 9f 5b 32 be
       3.0741267 -0.040042173 0.18337564 -0.17417763
000390 6d ba 84 bf 94 bf f6 3e 59 d2 46 be c7 35 9d be
       -1.0369393 0.48193038 -0.19416179 -0.3070509
0003a0 4b f0 c8 3e cb 83 54 bf 76 f9 8f bf c1 87 de 3e
       0.3924583 -0.830136 -1.1248004 0.43462947
0003b0 16 a2 31 3d 82 d7 b6 bf 24 3c 68 bf 0c 4b f6 be
       0.043367468 -1.4284518 -0.9071677 -0.4810413
0003c0 28 58 4d 3f bf 24 15 bf 62 9b f9 bf fa 7b 05 c0
       0.8021264 -0.58259195 -1.9500544 -2.085692
0003d0 a7 d4 f7 bd e4 10 28 3f fb 60 09 3f 3f 15 8d 3c
       -0.12101107 0.65650773 0.53663605 0.017222045
0003e0 ec 26 9e 3d 96 dd 02 3f b7 ce ba 3f 55 92 af 3b
       0.077222675 0.51119363 1.4594334 0.0053580203
0003f0 07 22 bf bf fb f7 45 bf 60 13 2c 3f 86 54 98 be
       -1.4932259 -0.77331513 0.67217064 -0.29751986

Q1.0.bias f4 [50, 5]
000000 56 4f dc bd fa 3a 62 bd fa a3 15 bd 62 7f 31 bc
       -0.1075732 -0.055232026 -0.036533333 -0.010833593
000010 b9 2c c1 ba 5b d9 a3 3d 73 ad 1a 3d f5 cc 8d 3c
       -0.001473806 0.08000442 0.03776307 0.017309645
000020 bc c8 c6 3a c5 7e e8 b7 7a 00 a7 3d c0 9b 1c 3d
       0.0015166025 -2.7715587e-05 0.08154388 0.038234472
000030 82 41 5c 3c 3a 6d b6 ba 50 da 39 39 0e 47 94 ba
       0.013443353 -0.001391805 0.00017724303 -0.001131268
000040 0e 27 9e bc 8f bd 64 bc aa 97 59 bb 3a dc 03 ba
       -0.019305732 -0.01396121 -0.003320197 -0.000503007
000050 56 a6 04 3e e5 1e 59 3d 97 ef 3b 3d 26 84 a4 3c
       0.12954077 0.05300798 0.045882788 0.020082545
000060 b6 3f 71 3b 88 ac d1 b9 3c 64 2a b9 eb 62 cd b8
       0.0036811656 -0.00039992132 -0.00016249804 -9.793587e-05
000070 b4 dd cb b7 73 0d 66 b6 29 19 d1 b9 8a 13 73 3b
       -2.4302724e-05 -3.42805e-06 -0.00039882332 0.0037090504
000080 64 ab 8e bb 65 b3 a0 bb c4 cc 1a ba df f3 c1 3c
       -0.0043539274 -0.004904198 -0.0005905146 0.023675857
000090 4a ab 27 bc d6 ac 0e bb 7c 8d 61 3b dd a3 d4 39
       -0.01023371 -0.0021770499 0.0034416607 0.0004055788
0000a0 6c c5 a2 ba 11 14 39 bb af 76 e2 bb de 15 8e bb
       -0.0012418455 -0.002824072 -0.006911121 -0.004336103
0000b0 f8 cb 14 ba 10 e0 40 3c 59 91 7c 3c bc de ea 3a
       -0.00056761457 0.011772171 0.015415513 0.0017919163
0000c0 08 aa 7e bb 7c 10 12 3a fd 74 ce b7 ce 6b b7 b7
       -0.003885867 0.00055719144 -2.461159e-05 -2.18655e-05
0000d0 8e ad a4 b7 38 4d 04 b7 6e fe c8 b5 fa 7b d7 ba
       -1.9631141e-05 -7.885792e-06 -1.497521e-06 -0.0016440146
0000e0 ec 37 d2 bb 88 b6 ba ba 38 55 b6 3a 6b b0 31 39
       -0.006415358 -0.0014245072 0.0013910895 0.00016945756
0000f0 10 5b 27 bb e9 85 0d 39 25 f4 06 3a 27 58 74 b6
       -0.0025536455 0.00013496693 0.00051480747 -3.6410145e-06
000100 28 85 9d 37 52 0f ad bb af 34 bf ba 51 56 35 bb
       1.8777864e-05 -0.0052813673 -0.0014587844 -0.0027669857
000110 93 4a ea ba 90 5e d7 b7 58 d0 22 ba c9 5c a4 b9
       -0.0017875008 -2.5674031e-05 -0.0006210855 -0.00031349648
000120 5b da 32 b9 f6 67 0b b8 90 09 27 35 44 29 a3 bd
       -0.00017056747 -3.3237004e-05 6.2226263e-07 -0.07966855
000130 b6 f6 90 bc f3 44 18 bc 9e 33 5d bb d6 2f 15 ba
       -0.017695766 -0.0092937825 -0.003375269 -0.0005691027
000140 0b f5 b4 3d 09 f7 f0 3c 8d 43 06 3c 13 66 a1 ba
       0.08835801 0.02941467 0.008194816 -0.0012313746
000150 ff ed 9a 39 1e 57 4c 3e 0d 40 6e 3d eb f2 87 3c
       0.0002955049 0.19955108 0.058166552 0.016595325
000160 93 15 46 bb ca 04 cd b9 c1 b3 76 bc 56 36 c3 3c
       -0.0030225262 -0.00039104215 -0.015057505 0.02382962
000170 11 09 9f 3c f4 e0 ac 3b b5 2b 39 3a 2b db 83 bb
       0.019413503 0.00527584 0.0007063703 -0.0040239296
000180 b9 c5 0b 3c d8 9f 16 3c a0 6c 6f 3b 03 79 fb 39
       0.0085310275 0.009193383 0.0036533251 0.0004796461
000190 36 da ea bb c3 35 00 3c 31 1e 53 3b bc 78 87 ba
       -0.007167126 0.007825318 0.003221404 -0.0010335664
0001a0 c8 ab e3 b8 2f 40 02 bc 2d 68 0b ba b2 61 b4 3a
       -0.000108562 -0.007949873 -0.00053179526 0.0013762026
0001b0 37 06 9d 3a 01 cc df 39 7d a2 c3 39 ae 31 03 3a
       0.0011980002 0.0004268587 0.00037314362 0.0005004656
0001c0 22 42 02 3a a5 bf 65 39 58 ba 60 38 49 32 d7 ba
       0.0004968961 0.00021910535 5.3579308e-05 -0.0016418184
0001d0 b5 c9 94 3c 58 7d 0d 3c 6b 89 13 ba d0 9b be b7
       0.018162588 0.008635841 -0.0005628082 -2.272232e-05
0001e0 22 40 e9 bb 58 72 80 3c 2c e2 ae 3c 49 f9 25 3c
       -0.007118241 0.015679523 0.021348082 0.010130235
0001f0 e5 71 ad 3a c3 cf bc 3c 15 96 c1 3b 68 61 37 3b
       0.0013232796 0.023048287 0.0059077838 0.0027981643
000200 6f 38 00 3a 2c be 36 38 df 34 5c 3d ed 68 b4 bb
       0.0004891222 4.3569293e-05 0.05376136 -0.005505672
000210 5b 46 c4 bc 06 7f 75 bc 3e 81 58 bb 5f c3 73 bc
       -0.02395933 -0.014983898 -0.0033036019 -0.014878123
000220 7a d1 01 bc e8 ce 93 bb 7e ce 28 ba 39 09 31 b7
       -0.007923478 -0.004510749 -0.0006439461 -1.0552169e-05
000230 25 e4 1c 3d 76 21 fa 3c 63 a2 1a 3d 77 5d a0 3c
       0.038303513 0.030533534 0.03775252 0.019575818
000240 d9 ab 81 3b 10 71 ee 3d 04 b0 ee 3c 84 18 da 3c
       0.0039572534 0.11642659 0.029136665 0.026623018
000250 eb f8 53 3c 95 6b c0 3a ff 49 9e 3d d8 21 ff 3b
       0.012937765 0.00146805 0.077289574 0.007786017
000260 7e 62 54 bc 20 20 37 bc 00 e2 b2 ba eb c8 77 bb
       -0.0129629355 -0.011177093 -0.0013647676 -0.0037808965
000270 dc 0b 76 bb 50 9c 73 bb 03 6b d8 ba 49 64 d8 b9
       -0.003754369 -0.0037172027 -0.0016511384 -0.0004127345
000280 84 ce 27 3e 89 9f 62 3d e6 d1 0a 3d eb dc 25 3c
       0.16387373 0.055327926 0.03389158 0.010123472
000290 14 df 2d 3a b7 d6 99 3d c0 b5 d2 3b db f5 83 3b
       0.00066326675 0.07511657 0.0064303577 0.004027111
0002a0 0b 31 54 3b 5c d9 b8 39 75 71 83 ba 5f f4 02 ba
       0.0032377865 0.0003525716 -0.001002832 -0.00049955206
0002b0 85 83 87 b9 0c f9 02 b8 0f df 79 37 d5 f3 f8 ba
       -0.00025847196 -3.122636e-05 1.4893491e-05 -0.0018993566
0002c0 82 87 f5 ba a4 85 e4 ba 05 61 3c ba 62 c2 15 b9
       -0.0018732401 -0.0017434848 -0.0007186088 -0.0001428216
0002d0 4e 36 70 3d d1 db 19 3d 05 c2 8d 3c 0d ce 81 3a
       0.05864554 0.03756315 0.01730443 0.0009903327
0002e0 4b 94 f0 38 cd 7d 45 3b 93 97 88 bb a3 67 d2 bb
       0.000114717135 0.0030134798 -0.0041684597 -0.006421046
0002f0 dc 83 58 bb c7 3c 3d ba 33 85 4f bd c2 0d 44 bd
       -0.0033037579 -0.00072188344 -0.050664138 -0.047864683
000300 9c c1 2c bd af ec 87 bc 93 d1 49 bb 28 42 9d 3c
       -0.042176828 -0.016592352 -0.0030795082 0.019196585
000310 5e f5 b5 bb 10 87 e0 bb d9 a4 1e bb fb f5 ea b9
       -0.0055529317 -0.006852038 -0.0024207144 -0.00044815228
000320 c3 13 1d bd 99 95 b8 bc e8 3d 30 bc 4e c5 6d ba
       -0.038348924 -0.022532271 -0.010756947 -0.0009070233
000330 45 03 10 b6 55 56 48 3d 4b 52 87 3c 6c 28 e3 3b
       -2.1459575e-06 0.048910458 0.016518733 0.006932309
000340 8a 97 3d 3a 2e 8e e5 39 6e b3 5e ba c6 c4 08 ba
       0.0007232359 0.00043784216 -0.0008495365 -0.000521731
000350 02 d9 10 ba cb 6c 8b b9 0b 72 aa b8 c0 8a c9 3d
       -0.0005525501 -0.00026593203 -8.127474e-05 0.098409176
000360 6e 92 4e 3d c1 18 14 3d 00 60 39 3c 19 f2 2b 3a
       0.050432615 0.03615642 0.011314392 0.00065592077
000370 7d bd bf bd 4d fa 63 3c 54 1c cd 3c 43 c1 30 3c
       -0.09362314 0.013914657 0.025037922 0.010788265
000380 13 8c 84 3a f9 3d dc ba d4 67 f9 3b 43 72 98 3b
       0.0010112546 -0.0016803137 0.007611254 0.004652293
000390 0a 5d 15 3a 2b a5 29 39 2e 25 98 ba 4f fa 02 bc
       0.0005697763 0.00016178626 -0.001160776 -0.0079942485
0003a0 df c5 77 bc fa 92 0c bc 78 a3 3a ba 7f 97 be 3c
       -0.01512286 -0.008579964 -0.00071196957 0.023265598
0003b0 42 f4 f7 3b 36 f5 82 3b a5 23 6c 3a 8a 06 d3 37
       0.0075669596 0.0039965166 0.0009007997 2.5156205e-05
0003c0 7a 75 3d 3c 15 52 98 3b 70 20 ed 3a bb 0c bf 37
       0.011563653 0.004648457 0.0018091332 2.2774902e-05
0003d0 ec 4a 9e b8 fe 62 a9 3d 7b 88 64 3b b2 ec 67 3a
       -7.5479824e-05 0.082708344 0.0034871388 0.0008847221
0003e0 70 dc aa 3a 89 55 c3 38
       0.0013035666 9.314257e-05
