CausalCVR/logs/ihdp/eval/5/Vcnet_tr_ckpt.pth.tar (torch, 127221 bytes, 18 tensors)

feature_weight.weight f4 [50, 25]
00000000: 040d 32bd 559d 4bbb 20bf e03c 16d3 093d
00000010: 071a 4c3c 3362 8b3c 09f2 ba3b b0f3 c33a
00000020: 22db e93b 4a5b 94bc 601e d5bc e7db a0bb
00000030: 68b8 cfbc e63d 953c 1085 80bc 5eec bd3c
00000040: 5221 8abc 114a 453c 5f45 e0bc 7136 cabc
00000050: 62cb 2cbd 5652 fd3b 2acb 953c 4eb8 08bd
00000060: 5111 aabc ec3c cdbc 3819 5bbc 54c0 47bd
00000070: 241f c138 b241 e83b 754b 343c 751e f23c
00000080: 6ff2 8fbd 7378 b93a 183d b93d 94f6 5fbb
00000090: 171a 713d 5447 193d 83d9 2439 8ea6 1bbc
000000a0: c588 883d b523 7139 9757 7a3d 9fc5 a83d
000000b0: d4b7 263c 29fd 5e3d d4c4 2fbd c131 25bb
000000c0: 2f0d 16bd 178c 80bd 1a77 8dbc 9b91 89ba
000000d0: 823d 123d f339 b83c 99d3 93bc 6a30 0a3d
000000e0: 71d5 4dba c68c 773c 4173 173d 1f76 d8bc
000000f0: b4f7 173a 0e35 aebc b8c3 00bc c961 07bb
00000100: d236 d83c 1439 e03c 4a96 8e3b 07f9 893b
00000110: 8f56 f83b b35c 013d 2f6e c63b ad70 113c
00000120: 35fe f1bc 4a4a 84bc 2b1a e2bc 8ffb cb3b
00000130: 196e 043c 8761 06bc 2902 f13c 76f1 eb3b
00000140: 8955 29bc d532 fc3b 60ad 5abc d08b 3cbc
00000150: 7a55 4f3b e4b3 26bc f433 113c a118 25bc
00000160: 31f8 cbbc 3956 0e3d 6533 653b aab4 743c
00000170: 591d 03bd 2d45 2cbc d754 8ebb 9d4f 9b39
00000180: 6d12 533b 4ffb b93c 64a5 8e3a 3356 0ebc
00000190: ffee 90bd 365d f5bc 6f86 c6bd 3d3d 053d
000001a0: 3225 1d3c 6a44 efbc 606c 82bd 87b6 163e
000001b0: 039a 7bbd 48ea a83d e5d6 a63d 59fc 80bd
000001c0: 755c 77bd 6c15 fcbc 20d8 f53c d43e 823d
000001d0: 54dd 093d 38ce 5e3d ad79 5a3b dce1 53bd
000001e0: 6738 f0bc c0d1 e2bd c37b 833d a659 debc
000001f0: d64c e03d d677 a23c 9076 f1bb f88f 60bb
00000200: fce4 873c 5e86 4b3b 81b7 0fbc 9433 6dbb
00000210: f425 89bb e1ca 983b c6eb 8f3b 879e 12bd
00000220: a48d 313a 360b 083d e1f2 99bc c88e bb3b
00000230: 44a9 fc3c 4e75 313c 0a48 093c 5e6c dd3b
00000240: 32ff 4f3b 07b4 053c 87f3 69bc c5ae 103c
00000250: 90b4 40bb 6f3e 25bc 4420 2a3c 7f0c 65b8
00000260: 6ae8 2eba 175b c0bb 327f 90ba ee04 8b3b
00000270: 7272 45bd b76f 1a3c 7699 f43c add0 2ebd
00000280: 09b7 853c 7a42 713d d996 43bd 17ec 5e3c
00000290: f309 833c 9822 e539 fba3 6bbb 45cd 053c
000002a0: aa25 833c 49e8 96bc 4444 f03c 4b2a 04bd
000002b0: c8a3 78bc 52ee d23c 89ed 84bb 06d9 ccbd
000002c0: 4c11 8bbc 5d29 fb3d 1810 483d 80bd f03c
000002d0: 512b 01bd 05d0 833c 0a46 803d 147e 183d
000002e0: 40a6 15ba 999c f73c 9391 173d 433a 2d3c
000002f0: c981 05bd 4e81 a0bb 10a6 033d 57c9 6a3d
00000300: 7389 093d 0a9c 2ebd 67cc bf3d 1747 94bd
00000310: e110 c6bc 920a ba3d 68be b2bd 4477 16be
00000320: fb18 8b3c 9931 9e3b 7304 49bd c2a4 dc3c
00000330: 2779 1a3c bc07 9f3b 2bf9 3d3c 4e1b debb
00000340: e3e0 273c c35f 743c 6951 d53b 7505 b7bc
00000350: 16db 8ebc 07c0 9439 c0f3 62bc bde0 d63b
00000360: 64c6 1b3d 8f9b 4bbc bb4f 413c 0dd9 023a
00000370: 3830 6eba 4f46 c8bc c627 6c3b 8357 a3bc
00000380: 34fe e83b a911 5d3c 994a de3b a080 383d
00000390: 8803 683d ecf6 b83c 3f6c fdba 9e9f 123d
000003a0: 7bef 123d dab8 29bc 103f 09ba 96e6 7a3b
000003b0: 6168 fe3b c349 a33c 2977 f4bc 8a3d 5e3d
000003c0: e9da 803c 172e 1d3c 33da e1bc 6dea 94bc
000003d0: d850 a73c 624a 44bc 2ffb e53c b4f3 6f3d
000003e0: 0b0d 0bbd 35cc 6439 c500 bdbb e458 7a3c
000003f0: 2227 533c 6fde 51bc 3673 003c f07a 1439
-0.043469444 -0.003106912 0.027434886 0.033648573 0.012457377 0.017014598 0.0057051224 0.0014949944
0.0071367184 -0.018109936 -0.02601546 -0.004909027 -0.025356486 0.018217992 -0.01568845 0.023183998
-0.016861591 0.012041585 -0.027376829 -0.024684163 -0.04218615 0.0077307625 0.018285353 -0.03337889
-0.02076021 -0.025053464 -0.013372712 -0.048767403 9.2087575e-05 0.0070879096 0.0110043185 0.029555539
-0.070286624 0.0014150277 0.09044856 -0.0034174072 0.05886277 0.03742154 0.00015721288 -0.009500159
0.06666712 0.00022996853 0.06111869 0.08240818 0.010175664 0.05444065 -0.04291232 -0.0025206658
-0.036633667 -0.0627672 -0.017268706 -0.0010495664 0.03570319 0.02248857 -0.018045234 0.033737577
-0.00078519346 0.015109247 0.03697515 -0.026423512 0.00057971035 -0.021265533 -0.007859163 -0.002065765
0.026393328 0.027370967 0.004351412 0.0042105946 0.007578678 0.031582545 0.0060556154 0.008876962
-0.02954016 -0.016148705 -0.027600368 0.0062250565 0.00808289 -0.008201963 0.029419975 0.0072004152
-0.010335335 0.0076964893 -0.013347 -0.011507943 0.0031636641 -0.010174725 0.008862484 -0.010076673
-0.02489862 0.034750197 0.003497326 0.014935652 -0.03201041 -0.01051454 -0.00434361 0.0002962322
0.0032207028 0.022702841 0.001088303 -0.008687544 -0.07076835 -0.029951673 -0.0969361 0.032529105
0.009591388 -0.029207427 -0.06368327 0.14718066 -0.061426174 0.082478106 0.08146457 -0.062981315
-0.06039091 -0.030771933 0.030010283 0.0635964 0.03365834 0.054395884 0.0033336685 -0.05172907
-0.02932377 -0.11075163 0.0642009 -0.027142357 0.10952155 0.019832533 -0.00736887 -0.00342655
0.01658868 0.003105543 -0.008771778 -0.0036194073 -0.0041854326 0.004662857 0.00439212 -0.035795715
0.000677312 0.033213817 -0.018792571 0.005723808 0.03084243 0.01083119 0.008378992 0.006757303
0.0031737802 0.008160598 -0.014279253 0.008830731 -0.0029404499 -0.010085686 0.010383669 -5.4609493e-05
-0.00066722056 -0.0058702338 -0.0011024235 0.004242531 -0.048204847 0.009426049 0.029858332 -0.042679477
0.01632263 0.058901288 -0.04775128 0.013606093 0.015995955 0.00043704058 -0.0035955894 0.008166616
0.01600917 -0.01842131 0.029329427 -0.032266896 -0.015175767 0.025748406 -0.0040566367 -0.100023314
-0.016976021 0.12263749 0.048843473 0.029387236 -0.03153545 0.016090402 0.06263359 0.037229612
-0.0005708672 0.030226039 0.037004065 0.010572973 -0.032594476 -0.004898227 0.03214079 0.05732092
0.033578347 -0.04262928 0.093651585 -0.07240122 -0.02417797 0.090840474 -0.08727723 -0.14693934
0.016979685 0.00482769 -0.04907651 0.026934031 0.009428299 0.004853217 0.011595051 -0.0067781573
0.010246488 0.0149154095 0.006509949 -0.02234147 -0.017438453 0.0002837183 -0.01385206 0.0065575526
0.038030997 -0.012427225 0.011798794 0.00049914495 -0.00090861646 -0.024447588 0.003603445 -0.01993919
0.0071103815 0.01349298 0.006783795 0.04504454 0.056643993 0.022578679 -0.0019334628 0.035796754
0.035872918 -0.010359013 -0.00052355323 0.0038284413 0.007763908 0.019932633 -0.029841976 0.054257907
0.015729384 0.009593508 -0.027569866 -0.01817819 0.020424291 -0.011980625 0.028073875 0.058582023
-0.033947986 0.00021819847 -0.005767914 0.015279982 0.012887748 -0.01280938 0.007839968 0.00014160178

feature_weight.bias f4 [50]
00000000: dbe5 5bbc 9295 09bc 183c bdbc 49d9 dd3b
00000010: fdff 233d 2a58 6dbb 830b 99bb 439e 91bd
00000020: ce9c 8ebb 0462 233c 336d f83a e336 a1ba
00000030: faf2 b43b 04df ae3b 669b 1d3b 3a46 01bc
00000040: 114d b1bc cd0f 02bd f045 0b3d 4f04 663c
00000050: 13de 143b 5a7e 573c 17a1 4d3c ad0a cf3b
00000060: b371 4cba f6fe 04bb 2a0f 523d 0bbd b53c
00000070: b58f 5fb9 de7c 423b e709 23bc 5a52 d5bb
00000080: d818 863b 0911 fc39 e18d b73a 5cac 69bb
00000090: 60ee a73b 2357 1dba d67d b53c a049 e4bb
000000a0: e19f 763b 828e 093d 1855 ed3b 332b 13bc
000000b0: ac74 83ba 6834 fbbc 2db4 f73c da46 15bd
000000c0: 96ff b03c 4509 033d
-0.013421501 -0.008397477 -0.023099944 0.006770287 0.04003905 -0.003621588 -0.0046705618 -0.07110264
-0.0043521887 0.009972099 0.0018953442 -0.0012299683 0.005522129 0.005336644 0.0024048924 -0.0078902785
-0.021643193 -0.03175335 0.034002244 0.014039113 0.0022715374 0.013152683 0.012550614 0.0063184113
-0.0007798925 -0.002029357 0.051283993 0.02218487 -0.00021320472 0.0029676477 -0.009951091 -0.006510061
0.004092317 0.00048077878 0.0014004075 -0.0035655713 0.005124852 -0.0006002059 0.02215473 -0.0069667846
0.0037631916 0.03358317 0.00724281 -0.008982467 -0.0010029278 -0.030664638 0.030237282 -0.036444522
0.021606248 0.031991262

hidden_features.0.weight f4 [50, 25]
00000000: 040d 32bd 559d 4bbb 20bf e03c 16d3 093d
00000010: 071a 4c3c 3362 8b3c 09f2 ba3b b0f3 c33a
00000020: 22db e93b 4a5b 94bc 601e d5bc e7db a0bb
00000030: 68b8 cfbc e63d 953c 1085 80bc 5eec bd3c
00000040: 5221 8abc 114a 453c 5f45 e0bc 7136 cabc
00000050: 62cb 2cbd 5652 fd3b 2acb 953c 4eb8 08bd
00000060: 5111 aabc ec3c cdbc 3819 5bbc 54c0 47bd
00000070: 241f c138 b241 e83b 754b 343c 751e f23c
00000080: 6ff2 8fbd 7378 b93a 183d b93d 94f6 5fbb
00000090: 171a 713d 5447 193d 83d9 2439 8ea6 1bbc
000000a0: c588 883d b523 7139 9757 7a3d 9fc5 a83d
000000b0: d4b7 263c 29fd 5e3d d4c4 2fbd c131 25bb
000000c0: 2f0d 16bd 178c 80bd 1a77 8dbc 9b91 89ba
000000d0: 823d 123d f339 b83c 99d3 93bc 6a30 0a3d
000000e0: 71d5 4dba c68c 773c 4173 173d 1f76 d8bc
000000f0: b4f7 173a 0e35 aebc b8c3 00bc c961 07bb
00000100: d236 d83c 1439 e03c 4a96 8e3b 07f9 893b
00000110: 8f56 f83b b35c 013d 2f6e c63b ad70 113c
00000120: 35fe f1bc 4a4a 84bc 2b1a e2bc 8ffb cb3b
00000130: 196e 043c 8761 06bc 2902 f13c 76f1 eb3b
00000140: 8955 29bc d532 fc3b 60ad 5abc d08b 3cbc
00000150: 7a55 4f3b e4b3 26bc f433 113c a118 25bc
00000160: 31f8 cbbc 3956 0e3d 6533 653b aab4 743c
00000170: 591d 03bd 2d45 2cbc d754 8ebb 9d4f 9b39
00000180: 6d12 533b 4ffb b93c 64a5 8e3a 3356 0ebc
00000190: ffee 90bd 365d f5bc 6f86 c6bd 3d3d 053d
000001a0: 3225 1d3c 6a44 efbc 606c 82bd 87b6 163e
000001b0: 039a 7bbd 48ea a83d e5d6 a63d 59fc 80bd
000001c0: 755c 77bd 6c15 fcbc 20d8 f53c d43e 823d
000001d0: 54dd 093d 38ce 5e3d ad79 5a3b dce1 53bd
000001e0: 6738 f0bc c0d1 e2bd c37b 833d a659 debc
000001f0: d64c e03d d677 a23c 9076 f1bb f88f 60bb
00000200: fce4 873c 5e86 4b3b 81b7 0fbc 9433 6dbb
00000210: f425 89bb e1ca 983b c6eb 8f3b 879e 12bd
00000220: a48d 313a 360b 083d e1f2 99bc c88e bb3b
00000230: 44a9 fc3c 4e75 313c 0a48 093c 5e6c dd3b
00000240: 32ff 4f3b 07b4 053c 87f3 69bc c5ae 103c
00000250: 90b4 40bb 6f3e 25bc 4420 2a3c 7f0c 65b8
00000260: 6ae8 2eba 175b c0bb 327f 90ba ee04 8b3b
00000270: 7272 45bd b76f 1a3c 7699 f43c add0 2ebd
00000280: 09b7 853c 7a42 713d d996 43bd 17ec 5e3c
00000290: f309 833c 9822 e539 fba3 6bbb 45cd 053c
000002a0: aa25 833c 49e8 96bc 4444 f03c 4b2a 04bd
000002b0: c8a3 78bc 52ee d23c 89ed 84bb 06d9 ccbd
000002c0: 4c11 8bbc 5d29 fb3d 1810 483d 80bd f03c
000002d0: 512b 01bd 05d0 833c 0a46 803d 147e 183d
000002e0: 40a6 15ba 999c f73c 9391 173d 433a 2d3c
000002f0: c981 05bd 4e81 a0bb 10a6 033d 57c9 6a3d
00000300: 7389 093d 0a9c 2ebd 67cc bf3d 1747 94bd
00000310: e110 c6bc 920a ba3d 68be b2bd 4477 16be
00000320: fb18 8b3c 9931 9e3b 7304 49bd c2a4 dc3c
00000330: 2779 1a3c bc07 9f3b 2bf9 3d3c 4e1b debb
00000340: e3e0 273c c35f 743c 6951 d53b 7505 b7bc
00000350: 16db 8ebc 07c0 9439 c0f3 62bc bde0 d63b
00000360: 64c6 1b3d 8f9b 4bbc bb4f 413c 0dd9 023a
00000370: 3830 6eba 4f46 c8bc c627 6c3b 8357 a3bc
00000380: 34fe e83b a911 5d3c 994a de3b a080 383d
00000390: 8803 683d ecf6 b83c 3f6c fdba 9e9f 123d
000003a0: 7bef 123d dab8 29bc 103f 09ba 96e6 7a3b
000003b0: 6168 fe3b c349 a33c 2977 f4bc 8a3d 5e3d
000003c0: e9da 803c 172e 1d3c 33da e1bc 6dea 94bc
000003d0: d850 a73c 624a 44bc 2ffb e53c b4f3 6f3d
000003e0: 0b0d 0bbd 35cc 6439 c500 bdbb e458 7a3c
000003f0: 2227 533c 6fde 51bc 3673 003c f07a 1439
-0.043469444 -0.003106912 0.027434886 0.033648573 0.012457377 0.017014598 0.0057051224 0.0014949944
0.0071367184 -0.018109936 -0.02601546 -0.004909027 -0.025356486 0.018217992 -0.01568845 0.023183998
-0.016861591 0.012041585 -0.027376829 -0.024684163 -0.04218615 0.0077307625 0.018285353 -0.03337889
-0.02076021 -0.025053464 -0.013372712 -0.048767403 9.2087575e-05 0.0070879096 0.0110043185 0.029555539
-0.070286624 0.0014150277 0.09044856 -0.0034174072 0.05886277 0.03742154 0.00015721288 -0.009500159
0.06666712 0.00022996853 0.06111869 0.08240818 0.010175664 0.05444065 -0.04291232 -0.0025206658
-0.036633667 -0.0627672 -0.017268706 -0.0010495664 0.03570319 0.02248857 -0.018045234 0.033737577
-0.00078519346 0.015109247 0.03697515 -0.026423512 0.00057971035 -0.021265533 -0.007859163 -0.002065765
0.026393328 0.027370967 0.004351412 0.0042105946 0.007578678 0.031582545 0.0060556154 0.008876962
-0.02954016 -0.016148705 -0.027600368 0.0062250565 0.00808289 -0.008201963 0.029419975 0.0072004152
-0.010335335 0.0076964893 -0.013347 -0.011507943 0.0031636641 -0.010174725 0.008862484 -0.010076673
-0.02489862 0.034750197 0.003497326 0.014935652 -0.03201041 -0.01051454 -0.00434361 0.0002962322
0.0032207028 0.022702841 0.001088303 -0.008687544 -0.07076835 -0.029951673 -0.0969361 0.032529105
0.009591388 -0.029207427 -0.06368327 0.14718066 -0.061426174 0.082478106 0.08146457 -0.062981315
-0.06039091 -0.030771933 0.030010283 0.0635964 0.03365834 0.054395884 0.0033336685 -0.05172907
-0.02932377 -0.11075163 0.0642009 -0.027142357 0.10952155 0.019832533 -0.00736887 -0.00342655
0.01658868 0.003105543 -0.008771778 -0.0036194073 -0.0041854326 0.004662857 0.00439212 -0.035795715
0.000677312 0.033213817 -0.018792571 0.005723808 0.03084243 0.01083119 0.008378992 0.006757303
0.0031737802 0.008160598 -0.014279253 0.008830731 -0.0029404499 -0.010085686 0.010383669 -5.4609493e-05
-0.00066722056 -0.0058702338 -0.0011024235 0.004242531 -0.048204847 0.009426049 0.029858332 -0.042679477
0.01632263 0.058901288 -0.04775128 0.013606093 0.015995955 0.00043704058 -0.0035955894 0.008166616
0.01600917 -0.01842131 0.029329427 -0.032266896 -0.015175767 0.025748406 -0.0040566367 -0.100023314
-0.016976021 0.12263749 0.048843473 0.029387236 -0.03153545 0.016090402 0.06263359 0.037229612
-0.0005708672 0.030226039 0.037004065 0.010572973 -0.032594476 -0.004898227 0.03214079 0.05732092
0.033578347 -0.04262928 0.093651585 -0.07240122 -0.02417797 0.090840474 -0.08727723 -0.14693934
0.016979685 0.00482769 -0.04907651 0.026934031 0.009428299 0.004853217 0.011595051 -0.0067781573
0.010246488 0.0149154095 0.006509949 -0.02234147 -0.017438453 0.0002837183 -0.01385206 0.0065575526
0.038030997 -0.012427225 0.011798794 0.00049914495 -0.00090861646 -0.024447588 0.003603445 -0.01993919
0.0071103815 0.01349298 0.006783795 0.04504454 0.056643993 0.022578679 -0.0019334628 0.035796754
0.035872918 -0.010359013 -0.00052355323 0.0038284413 0.007763908 0.019932633 -0.029841976 0.054257907
0.015729384 0.009593508 -0.027569866 -0.01817819 0.020424291 -0.011980625 0.028073875 0.058582023
-0.033947986 0.00021819847 -0.005767914 0.015279982 0.012887748 -0.01280938 0.007839968 0.00014160178

hidden_features.0.bias f4 [50]
00000000: dbe5 5bbc 9295 09bc 183c bdbc 49d9 dd3b
00000010: fdff 233d 2a58 6dbb 830b 99bb 439e 91bd
00000020: ce9c 8ebb 0462 233c 336d f83a e336 a1ba
00000030: faf2 b43b 04df ae3b 669b 1d3b 3a46 01bc
00000040: 114d b1bc cd0f 02bd f045 0b3d 4f04 663c
00000050: 13de 143b 5a7e 573c 17a1 4d3c ad0a cf3b
00000060: b371 4cba f6fe 04bb 2a0f 523d 0bbd b53c
00000070: b58f 5fb9 de7c 423b e709 23bc 5a52 d5bb
00000080: d818 863b 0911 fc39 e18d b73a 5cac 69bb
00000090: 60ee a73b 2357 1dba d67d b53c a049 e4bb
000000a0: e19f 763b 828e 093d 1855 ed3b 332b 13bc
000000b0: ac74 83ba 6834 fbbc 2db4 f73c da46 15bd
000000c0: 96ff b03c 4509 033d
-0.013421501 -0.008397477 -0.023099944 0.006770287 0.04003905 -0.003621588 -0.0046705618 -0.07110264
-0.0043521887 0.009972099 0.0018953442 -0.0012299683 0.005522129 0.005336644 0.0024048924 -0.0078902785
-0.021643193 -0.03175335 0.034002244 0.014039113 0.0022715374 0.013152683 0.012550614 0.0063184113
-0.0007798925 -0.002029357 0.051283993 0.02218487 -0.00021320472 0.0029676477 -0.009951091 -0.006510061
0.004092317 0.00048077878 0.0014004075 -0.0035655713 0.005124852 -0.0006002059 0.02215473 -0.0069667846
0.0037631916 0.03358317 0.00724281 -0.008982467 -0.0010029278 -0.030664638 0.030237282 -0.036444522
0.021606248 0.031991262

hidden_features.2.weight f4 [50, 50]
00000000: 523e 753d 7e3e ed3d b5c0 233d b8c0 ccbc
00000010: 7028 d9bd 49df aa3b 2ea4 563d 9a39 c53d
00000020: d643 4ebc 4a44 65bd 8a5d 11bc b1ee 50bc
00000030: a6c0 86bb 3ed9 003e bdba d73d b791 ae3d
00000040: f2be 8c3d ea9f f33d 5b8f 313e cf2c 19be
00000050: 99c0 36bd 8589 b2bc f53d cbbd 3257 273d
00000060: ef9b 183d 819c 153d 0052 bdbd f249 f3bc
00000070: 6138 973d 7e30 b63d 5f32 993d 8b4c 1e3d
00000080: 8f6a 50bc 200a deba 096b 093c 2dde 8a3c
00000090: ebeb 25bc 4c71 1f3e c09e 83bd b08f dd3d
000000a0: 7f07 003d 38f9 9cbd cacc 073e d827 d13d
000000b0: 9d46 30bb 3b8a fc3d fc1d 10bd 29f5 673d
000000c0: ba07 20be 005f 47bd 3c21 a7ba 19d2 883c
000000d0: 5b4e 953b d3a5 8a3c e464 dc3b e0d0 233c
000000e0: a13c e1bb c459 18b9 28c7 5dbb cdb4 683c
000000f0: d5ad 8d3b b4bb 5339 afa5 803b 4e3a 093b
00000100: d272 593c b6cb 2f3b e57c a5bb c12d 83bb
00000110: e875 89bc 7792 24b9 1a7d 28bb 3a55 073c
00000120: 484f 95bb 11fc 3a3c 21de cdba 8431 a53b
00000130: 49b9 bebb 07e0 6b3c a489 ca3b 54ff f03b
00000140: efc1 eebb 585e 24bb 585b a73c b375 823b
00000150: 5739 ce3b b187 9e3c a7ff 1e3c 4ed2 1aba
00000160: 9fd1 4abb 1106 3cbc 5982 a13b 402b 3abb
00000170: f168 2dbc c829 113c 54cc 9d3a ad5f 10bc
00000180: 826b be3b d8a7 0fbc b39b d3bb 9a8a 49ba
00000190: e24a e9bb 0195 32bb 5650 083c 85cb 1139
000001a0: 7b91 cd3b f764 4238 ba47 28ba 394d 973a
000001b0: 2314 1abc 88be 5f3b 1e79 21bc f797 b63c
000001c0: 0617 c43b ec88 c43a b363 053c dce6 34bc
000001d0: 89d8 fe3a 1e69 14bc 2051 68bc 5826 9cbc
000001e0: cc89 3039 5243 7bbb 3513 a63b 1471 6f3c
000001f0: b08f 403c ded1 c9ba 7a0c 9f3b 980b a13c
00000200: ad68 e03b e128 0438 de50 fc3a a26d f639
00000210: 80c3 80bc 85f8 d3bb 8b1c 333c dea0 6e3b
00000220: 55f7 5fba a888 ba3b d09d b7bb c94a 383b
00000230: aabf 693c ce8f 69bc 0a7b 2a3b e2b4 8639
00000240: 6c39 17bc 18eb 453c 1592 34bc 2bd4 e33b
00000250: ea86 133c 1b9c ca3b 7565 483c 66a6 8e3c
00000260: f80b 18bb 4989 43bc e462 853b 87a7 54bb
00000270: 8495 2dbc 818a 6c3c 7fdb 8e3c 08ed 7d3a
00000280: ce20 b23c 1aaa 45bb 0d45 d0bb fefc 413c
00000290: 61f8 d7bb 6e44 4a3c 9fa2 0fbc 9fcd 3fbc
000002a0: e1e0 aa39 3b46 543c 44ec 993b afae de3b
000002b0: 0e99 5ebb 842d a73b 4679 4dbc d9ce 523a
000002c0: e879 4e3b df1f 4abc 77a5 5abc 92c0 ffbb
000002d0: 51d1 cd3b 43c2 9a3b 2ece 5f3b d678 843c
000002e0: 32ab 24bc f354 a53c 784d c43b 4896 823c
000002f0: 2fad eabb 8661 57bb 60e7 e33b dac7 5ebb
00000300: aac8 84bb 51c9 023c 6790 f537 461d 02bc
00000310: 052d dc3b c560 a7bc 7be2 a9bb 15a2 df3b
00000320: be8c 5f3c b21c 943c b3b2 62bb 5d66 cabb
00000330: 7c50 81bd 97c8 393c aa04 dabb 7a66 703d
00000340: a70b b9bc 6600 063d 492c c8bb 4b9f a83c
00000350: 303b 96bb 0a6d 773c fd77 1a3d 8423 593c
00000360: 4537 813c 6f32 a23c fb44 923d 8543 27bd
00000370: 02c4 f6bc 2af2 36bb f70a 92bc 4eef 0abc
00000380: 1211 863a 1a1f 093c 3a05 55bd 8472 23bd
00000390: 65f0 8c3c 5857 95ba 4b55 853c d7b9 61bc
000003a0: a610 883b db94 69bc 9d9f 4b3b fae7 d3ba
000003b0: 17bf 0f3d a3c0 523d 7519 49bd 1cb8 9e3c
000003c0: 5647 f5bb bf18 e33b 2f39 6e3b acf5 b23c
000003d0: 1175 93bc 6c37 fc3c 3454 80bd a169 b83c
000003e0: 1129 b0bc f099 93bd 7f6b 7dbc 1e9a 4abc
000003f0: 956b 383c 2368 773b 76a6 883c 77f4 cabc
0.059873886 0.11584185 0.0399787 -0.02499424 -0.10603416 0.005214606 0.052402668 0.09630127
-0.012589416 -0.05597333 -0.008872399 -0.012752221 -0.004112321 0.12582871 0.105336644 0.08523887
0.068723574 0.118957356 0.17339842 -0.149585 -0.04461727 -0.02179409 -0.09923927 0.04085464
0.037258085 0.036526207 -0.09244156 -0.029698346 0.073838 0.08895968 0.07480311 0.038647216
-0.012720718 -0.0016940273 0.008387336 0.016951645 -0.010127048 0.15570563 -0.064267635 0.10818422
0.03125715 -0.07664722 0.13261715 0.10212678 -0.0026897558 0.12331053 -0.035184845 0.056630287
-0.15627947 -0.048674583 -0.0012750993 0.016701745 0.00455646 0.016924774 0.0067258943 0.00999853
-0.0068736826 -0.0001452929 -0.003384063 0.0142032625 0.004323701 0.00020192453 0.003926001 0.0020939293
0.013272004 0.0026824302 -0.005050289 -0.004003257 -0.016779855 -0.00015694821 -0.0025709332 0.008260066
-0.00455657 0.011412636 -0.0015706458 0.005041303 -0.0058204276 0.014396674 0.006180959 0.0073546562
-0.0072863023 -0.0025080647 0.020429298 0.003981316 0.0062934565 0.019351812 0.009704507 -0.00059059716
-0.0030947698 -0.011476056 0.0049288687 -0.0028407127 -0.010584102 0.008860059 0.0012039044 -0.008811873
0.005811156 -0.008768044 -0.00645777 -0.0007688195 -0.0071195224 -0.0027249458 0.008319935 0.00013904095
0.006273446 4.6347235e-05 -0.00064193795 0.00115434 -0.009404215 0.0034140665 -0.009855537 0.02228926
0.00598419 0.0014994419 0.008141446 -0.011041369 0.0019443195 -0.009058265 -0.014179498 -0.019061252
0.00016836001 -0.0038339687 0.0050682076 0.014614362 0.011753008 -0.0015397628 0.0048537822 0.019658849
0.006848416 3.1509324e-05 0.0019250175 0.0004700246 -0.015718222 -0.006468835 0.010932098 0.0036411802
-0.000854363 0.00569256 -0.0056035295 0.0028120747 0.014266888 -0.014255477 0.0026013278 0.0002569324
-0.009229999 0.0120799765 -0.011021157 0.0069527826 0.009004334 0.00618316 0.0122312205 0.01741333
-0.0023200493 -0.011934587 0.0040706266 -0.0032448487 -0.010594729 0.014437319 0.017438648 0.00096865045
0.021744158 -0.0030161203 -0.0063558877 0.011840103 -0.0065908884 0.0123454165 -0.008766799 -0.011706739
0.00032592475 0.012956197 0.0046973545 0.0067957263 -0.003396574 0.0051018614 -0.012541121 0.0008041687
0.0031505767 -0.0123367 -0.013345114 -0.0078049386 0.006281056 0.004722865 0.0034149992 0.0161709
-0.010050582 0.020182109 0.0059906803 0.0159408 -0.0071617584 -0.0032864525 0.0069550723 -0.0033993633
-0.0040522413 0.007982568 2.9273519e-05 -0.00794155 0.006719234 -0.020431885 -0.0051844693 0.0068247416
0.013644395 0.01808009 -0.0034591376 -0.0061767534 -0.06314179 0.011339328 -0.006653388 0.05869148
-0.022588564 0.032715224 -0.006108795 0.02058377 -0.0045846924 0.0151016805 0.037712086 0.0132530965
0.015773425 0.01979944 0.07142063 -0.040835876 -0.03012276 -0.0027915337 -0.017827494 -0.008479906
0.0010228476 0.008369232 -0.052006938 -0.039904132 0.017204473 -0.0011393828 0.016276022 -0.013777218
0.0041523753 -0.014256681 0.0031070479 -0.0016167157 0.035094347 0.051453244 -0.049096543 0.0193749
-0.0074853105 0.00693044 0.0036350002 0.021845661 -0.018000158 0.030788146 -0.062660605 0.022511305
-0.021503957 -0.072070956 -0.015467524 -0.012365846 0.011256118 0.003775128 0.016680937 -0.024774773

hidden_features.2.bias f4 [50]
00000000: 938c 093d e756 00bc 44e9 3cbc 8e7d 67bd
00000010: 9c25 883c 0edf 753c fe2b a13c 06dd e9bb
00000020: abdb 3abc b581 edbb a477 22bc 1f97 813c
00000030: e331 09bc 4112 3b3c 842a 5b3a 9a5b 1b3d
00000040: f07e 443d 1d4a 89bc 77c0 1cbc 3087 f63b
00000050: 6725 b73c 8b93 d5bc 8e47 da3d 2932 cabb
00000060: ef8c bfbc bfff 55bd 6ca2 823d 4387 063d
00000070: 76ea 06bc f3f9 433d 4834 733d 0505 1dbc
00000080: bf1c 9e3d 8396 a7bb 4873 293c 087d 9fbc
00000090: 05ff 33bc 2c8a 963d 4605 31bc ae3a 14bc
000000a0: ecc9 9fbc 4c14 d03d 58c3 c93d fb78 493e
000000b0: ce4b 76bc 0db0 87bb 2172 a7bc 7baa 4c3d
000000c0: fbe4 db3d 4281 843d
0.033581328 -0.007833219 -0.011530224 -0.056516223 0.016619496 0.015006794 0.019674297 -0.0071369438
-0.011404912 -0.0072481283 -0.00991622 0.01581913 -0.00837371 0.011417926 0.00083605223 0.037929155
0.04797262 -0.016758973 -0.009567372 0.00752344 0.022356702 -0.02607133 0.10658179 -0.0061705303
-0.023382632 -0.05224585 0.06378636 0.03284384 -0.008234611 0.047845792 0.05937603 -0.009583716
0.07720327 -0.005114378 0.010342427 -0.0194688 -0.010986094 0.07350573 -0.01080448 -0.009047193
-0.019505464 0.10160121 0.09851712 0.19675057 -0.015032722 -0.00414086 -0.020440163 0.04996727
0.10737034 0.064699665

density_estimator_head.weight f4 [50, 11]
00000000: 319c d6bc 48f9 ebbb e617 a83b f8e9 c13c
00000010: e395 7f3c 232b 0d3c 645f 45bc 73ed a23b
00000020: 0473 c6bb d150 b3bc 58a7 adbb 3edf 5a3c
00000030: d1d5 ec3a 85f4 18bc 58fe e83b a470 02bc
00000040: 6459 07bc ca4c 063a 2e0e babb 8765 5cb9
00000050: 4d21 b2bb d1de e2bb e030 033c f3b3 69bb
00000060: 180d 363c 3906 903c 7b81 4cbb 39ba f53b
00000070: c350 713c 976d 1ebc fa6e f5bb 4df3 853b
00000080: 34ef 69bc b597 c93b 9b57 323c f475 8dba
00000090: e2a1 1d3c a348 59bb 391e 01bc d0b0 413c
000000a0: 661f 25bc b329 813b bfba 37bc c6cd 9e3b
000000b0: eee4 45bb f4eb edbb 96e7 34bc 9efc 933b
000000c0: 9051 c43b a201 78ba 90b6 f1bb 7438 863c
000000d0: 05f0 17bc 65af 1dbb 4436 ecbb 0c31 bf3c
000000e0: e716 4abb 35c2 9f3c 95e0 42bb a562 e43b
000000f0: b38f 65bb 25ce 82bc dcaf 13bc 67d6 55bb
00000100: a13f 923b 5e5f 07bc 8128 afbc 21ad b9ba
00000110: fd56 133c 712c 8e3c ab62 713c b652 da3c
00000120: b94d 2ebc 3da9 83ba f199 bdbc a821 94bc
00000130: 3fdc 523a c204 e9bb 24aa c83a 1e5e fa3b
00000140: d8f3 633a 36d7 523b 496c e33b e1f5 013c
00000150: 3508 733b feef 403c d1f8 05bb 37ea ccbb
00000160: 0004 52bb 1c34 b73c 0ae3 2d3c b3a6 4fbc
00000170: 3324 2d3c 0671 e6bb ffda c63a 6507 25bc
00000180: b860 4cba 51c6 1e3c ce80 8c3b c502 833c
00000190: 0664 0fbc db53 d0b9 9f4c 16bc 2d28 ef39
000001a0: 3977 7e3b 8f22 20bc dcd7 3dbc d445 7dba
000001b0: abb9 49bb ffd2 84bb 5a9f 863c e585 ddbb
000001c0: 6aea 03bc 7f96 cebc 16f2 09bc 9d8b 04bc
000001d0: 6074 013b e337 423c c32a 6cbc ec16 b43a
000001e0: b3ae fa3b 625d 99bc a32c 5f3b d548 abbc
000001f0: 4673 813c 98c0 b03b 22e7 343b a694 68bc
00000200: 80b0 06bb 8106 993b a587 42bc d908 16bc
00000210: a1b3 503c 404e fa3b 9b38 84bc bf5d b5bb
00000220: b453 89bc 4fd1 d4bb ffda bbbc 155d 6e3b
00000230: c8ee fdbb 30be 403b d61d 0a3b 7480 3ebc
00000240: 0ee7 8a3b dc25 08bc 47c3 f23b a4ad 813c
00000250: 4383 e23b 8014 2bbc f055 fbb9 ceac a3bc
00000260: 1065 adba 5a52 1a3c a93b 113c ea76 5bbc
00000270: faf8 90bc ff5a 893c a14a 553b ddd1 313b
00000280: 9344 063b a036 543b 1f3f d73b 6918 c3bb
00000290: 9743 7a3c 6cb8 d6bb 98dd 85bb 394f ef3c
000002a0: 70d3 873b ac67 103b 8f1b 383c ee2e 99ba
000002b0: b454 03bc 0b7f 81ba 3a07 32bc 461f 93bc
000002c0: 45cf d93a cd4b 8bbc 8932 a63c 307e ad3c
000002d0: 2f24 8d3c 6552 3a3c ad4e a83b 2d8b 79bc
000002e0: 21fd 32bc 1f9a 06bd c4b2 a7bc 1987 8b3b
000002f0: 52cf 34bb 4450 353b f158 203b 7411 6f3c
00000300: 9d58 963c a5e8 31bc 5ade bf3b fb81 93b9
00000310: 7748 c4ba 5ea3 de3a 6680 3abc e15c 6bbb
00000320: 7a10 173c 9005 9bbc fd45 b2b9 3e4e 45bc
00000330: 8821 cdba f33d f1bb 0067 b4bb b693 25bc
00000340: 3514 f63b cf17 95bb 179e 253c 57f6 513c
00000350: b351 0bbc f5b5 ddba 878d 9b3b 4c71 f039
00000360: 531a 043c 52cd 823b 4272 3c3c 8cf3 43bb
00000370: 6cbe 60bc 1a28 89bb 541b 0737 3251 ba3c
00000380: f4ae bf39 c94f 113c 8614 fa3b 7af1 fb3b
00000390: d31b bfbb d808 3ebc 0070 103b 891a 0a3c
000003a0: 2a8c 2a3b 587d 863a 3a58 bb3a 3ac7 823c
000003b0: c4fa 5fbb ffa3 063c f215 193c 4fb9 11bc
000003c0: 7b74 a1bb 8bd1 36bb e83d 25bc 850b 75bc
000003d0: e2a8 fa3b 5340 a83c 575c ed3c dbd3 1d3b
000003e0: ea02 913b 46c3 56bc 83bf 0dbd 5b0f c7bc
000003f0: 685d 1ebc a065 673c 9e03 243c 204c 94bb
-0.026197525 -0.0072013475 0.005129802 0.023671135 0.015599701 0.008616242 -0.012046669 0.004972154
-0.0060561914 -0.021889122 -0.00529949 0.013358889 0.0018069093 -0.009335642 0.0071103983 -0.007961426
-0.0082610585 0.0005123137 -0.00567796 -0.00021018657 -0.0054360987 -0.0069235344 0.008007258 -0.0035660237
0.01111152 0.017581092 -0.0031205106 0.007499006 0.014728728 -0.009669683 -0.007490036 0.0040878416
-0.014278222 0.006152118 0.010885145 -0.0010792599 0.009621115 -0.0033154867 -0.007880741 0.011821941
-0.010078287 0.0039417385 -0.011213957 0.0048463074 -0.0030196267 -0.007260794 -0.0110415425 0.0045161983
0.0059911683 -0.00094606925 -0.0073764995 0.01638434 -0.009273534 -0.0024060842 -0.0072086174 0.023338817
-0.0030836405 0.019501785 -0.0029735912 0.006969767 -0.0035028278 -0.015967438 -0.009014096 -0.0032629014
0.0044631516 -0.008262483 -0.021381618 -0.0014165976 0.008992908 0.017355176 0.014732997 0.026650768
-0.010638648 -0.0010044944 -0.023144694 -0.018082455 0.00080436835 -0.007111163 0.0015309495 0.007640614
0.00086956983 0.0032171733 0.006940399 0.007932157 0.003708375 0.011775969 -0.0020442496 -0.0062535065
-0.0032045841 0.022363715 0.010613212 -0.012674022 0.010567713 -0.0070325164 0.0015171467 -0.010072564
-0.00077963946 0.009690837 0.0042878157 0.015992532 -0.008751875 -0.0003973533 -0.009173541 0.00045615566
0.0038828386 -0.009773864 -0.011587109 -0.0009661589 -0.0030780833 -0.004053473 0.016433407 -0.0067603462
-0.008051494 -0.025218247 -0.008419534 -0.008089927 0.0019753203 0.011854145 -0.014414492 0.0013739741
0.0076502203 -0.018721286 0.0034053705 -0.020908752 0.015802037 0.0053940527 0.0027603586 -0.014195597
-0.002055198 0.004669965 -0.0118731605 -0.009157383 0.012738139 0.0076387227 -0.016140273 -0.005534857
-0.016763546 -0.006494678 -0.022931574 0.00363714 -0.007749412 0.0029410236 0.0021074913 -0.011627305
0.0042389696 -0.008309808 0.007408533 0.015829869 0.0069126203 -0.010441899 -0.0004793848 -0.01997986
-0.0013228972 0.009419048 0.008864322 -0.013395051 -0.017696846 0.016767023 0.0032545703 0.0027133145
0.002048765 0.0032381192 0.006568804 -0.0059538377 0.015274904 -0.0065527465 -0.004085254 0.029212581
0.0041450784 0.002203445 0.011237039 -0.001168696 -0.0080158 -0.0009879781 -0.010865981 -0.017959248
0.0016617557 -0.017003918 0.020287769 0.021178335 0.017229168 0.011372183 0.005136332 -0.015230936
-0.010924608 -0.032861825 -0.020470984 0.0042580483 -0.0027589393 0.002766625 0.0024467076 0.0145915635
0.018352801 -0.010858689 0.005855364 -0.00028134868 -0.001497521 0.0016985943 -0.011383152 -0.0035913514
0.009220237 -0.01892355 -0.0003400295 -0.01204258 -0.0015650252 -0.0073621213 -0.0055054426 -0.010106018
0.007509733 -0.0045499573 0.010108492 0.01281508 -0.008503365 -0.0016915189 0.004747096 0.0004586078
0.008062917 0.0039917612 0.011501851 -0.0029899804 -0.013717275 -0.0041856887 8.05299e-06 0.022743795
0.0003656071 0.00886912 0.007631841 0.0076886984 -0.0058321743 -0.011598788 0.0022039413 0.008429178
0.0026023486 0.0010260744 0.0014293261 0.01596414 -0.0034176568 0.008217811 0.009343611 -0.008894279
-0.0049272156 -0.0027895893 -0.01008556 -0.01495636 0.007649527 0.020538485 0.028974695 0.0024082575
0.004425396 -0.01310808 -0.034606468 -0.024299314 -0.0096658245 0.01412335 0.010010628 -0.0045256764

density_estimator_head.bias f4 [11]
00000000: 0d78 88be 336c 4fbd 3bba d33e e8a8 d03e
00000010: e61c ad3e c345 413e 443f 70bd 50a7 0fbe
00000020: a8e5 83be 6007 93be aff4 92be
-0.2665409 -0.050640296 0.4135302 0.40753865 0.3381111 0.18874268 -0.058654085 -0.14028668
-0.2576115 -0.28716564 -0.28702304

Q1.0.weight f4 [50, 50, 5]
00000000: 9fbd ba3f c4a2 343f f3e1 8f3e 446d cebe
00000010: b460 dbbf 3e55 463f 586d 22bf 28aa 8d3f
00000020: defc 1fbf 492c 3c3e b848 05c0 53df 093f
00000030: f041 f93e 3007 c13e 7bc2 d2be 5e21 0f40
00000040: ae85 633e bce7 3b3f f252 c13e b7f8 693f
00000050: ab4c 8c40 4042 2f3f 121e 2940 82ee 67bf
00000060: 6504 4abf b5e6 50bf 3337 083f 94a7 04c0
00000070: fe9c 483f 9f2f 0f3e 62bd 1e3f 2f42 b93e
00000080: dd50 dfbd f437 3ebe 623e 323f a3da 023e
00000090: a2ac 7ebf 77f5 b13e 68b6 f2bc 34e6 503f
000000a0: 5eaf e23d 8b48 e13e e867 a6be 54cb 4ebf
000000b0: 6e61 4dbf 6e04 dd3e b453 d7be c6e2 863f
000000c0: 2a6c 6fbf 57b8 cbbf 12b0 833f 68dd 1dbf
000000d0: dcc9 d4be df69 0bbe 5ff2 dcbe d410 8c3d
000000e0: 1ebc 38be 8102 543d 26a5 0a3f bc62 9bbf
000000f0: 68fc 2abf 0121 ac3f 07e2 ed3f cad7 d03d
00000100: d82c 3fbe 8acf 10c0 c0db 343f adba 943f
00000110: 6ba2 ee3f fae6 ab3e e854 a83f 68ef 673f
00000120: 8307 4cbe 9769 aabe 6652 b5bf fed5 0bbe
00000130: f690 4ebf 9d31 033f 3fa6 2d3e 28f6 1a3f
00000140: da5f 963e f5e9 b9bd 1151 3d3e e51c 683f
00000150: 17af 44bd 8a31 4c3e a097 13bf ae3d 893e
00000160: 2501 38bf 8628 5e3e 855a b6be 2464 de3e
00000170: 66a1 5bbf 0c22 96bf cfd0 09c0 acb5 d1be
00000180: 2c31 69bf 5f8e 883e ee5d cd3f 7342 b93e
00000190: 188e 603d 65e2 d1be 88b0 113f f6e9 91bf
000001a0: b6a0 153f 3f52 9c3e c90a 893f 2995 c43d
000001b0: 2786 83bf 9bae 1c3f ede6 37bf 699b c33f
000001c0: 7691 62bf 898d 23be b18f 13bf cd1b 0bbf
000001d0: 99dc 0540 98bf 77bd e660 b83e 85f9 113f
000001e0: 1197 463e 93b6 6d3c bec4 65bf f657 9d3f
000001f0: 5e7a 9fbe ad4e 733f 4afa 4a3f 6252 3b3f
00000200: 529e f03d dbb6 513f 1e49 843d 36e6 babe
00000210: 0e7c 573f d2d1 0a3f 3278 5ebf aa10 6e3e
00000220: dd0e a63f a35a 863f e2f2 c13f aa65 653f
00000230: f886 cabf ca55 c83e fc5c 023f e492 6d3f
00000240: 22d5 ef3f fce4 99bf a6bb 3b3e 5adf 293d
00000250: 9b16 bebd 197a 95bf 8581 003f 6001 97bf
00000260: 83d4 2bbf 33c7 943e 6cd9 973d a15c 1b3f
00000270: 0257 64bd 94a3 813f 637d 5bbe 3c6f d5be
00000280: 7b00 f93e b615 273c fbcb 0fc0 39a3 19be
00000290: c923 9fbd ed69 79bf 88fe 6d3f f7c8 f6be
000002a0: e53a 4f3d 9dd8 313e ad21 b8bf 25cc 68be
000002b0: e672 4ebf a402 2bbe a619 9dbe 9345 d8bf
000002c0: 9f61 5f3f c5cb 49bd f01c 1fc0 0395 923f
000002d0: 2b16 b9be cb24 a9be a89a d33f e368 4bbf
000002e0: 0ff6 d23d bd1b 93be 4509 343f e88f 3b3f
000002f0: a88b 993f 0356 983f 21a9 a13e 336f 2ebb
00000300: a080 24be 7470 5ebf 1623 513e 11b7 d7be
00000310: 4a9a a33f 4b38 1e3f a68b 0c3f 9d7c 903e
00000320: b9a1 563f 4fff a43e 95bf 813f d3cf 4e3f
00000330: 1570 293e 9a30 abbe 5f53 dbbc 9717 73bf
00000340: 59e0 0940 2222 23bf ba9e 76bf 4f34 313e
00000350: 44f8 95bf b18e 883e af7b 953f b6e0 3dbf
00000360: c897 06bf 9ffb e53f 2861 693f bb82 243f
00000370: 8b96 e3bf 8e4a 123f 94a1 49bf e34c dc3f
00000380: 71d5 44bf 5c41 50be ccc7 86bc 2383 cf3e
00000390: 0e50 46bf b859 0040 8aaf 4d3e 0e8e d23f
000003a0: 172c 9f3f 1118 0e3f a0f1 26bd 63e5 43bf
000003b0: f595 5a3e f7e6 6abf 8077 9bbf c6d2 d83e
000003c0: d824 783f 514d 523f 7606 c33e 3d39 0640
000003d0: 2a2f b2bf 8589 39be bf44 373f 2a66 21be
000003e0: 946b debe fc4f 063f 665d 923f 418a aabf
000003f0: 4062 b13f da6a abbf e852 09c0 d23d b0be
1.4589118 0.7056086 0.28102073 -0.40317738 -1.7138886 0.7747382 -0.63448095 1.1067553
-0.6249522 0.18376268 -2.0825634 0.5385639 0.4868312 0.37700796 -0.41164002 2.2364116
0.22218964 0.73400474 0.37758595 0.91395134 4.384359 0.68460464 2.6424603 -0.9059831
-0.78912956 -0.8160203 0.5320923 -2.0727282 0.7836455 0.1398301 0.62007725 0.36183307
-0.10904095 -0.18576032 0.6962644 0.12778716 -0.99482167 0.34757587 -0.029627994 0.8160126
0.11068605 0.44000658 -0.3250115 -0.80779004 -0.8022679 0.43167442 -0.42056048 1.0537956
-0.9352442 -1.5915631 1.0288107 -0.61665964 -0.41560256 -0.13614605 -0.43153664 0.06839147
-0.18040511 0.0517602 0.54158247 -1.2139506 -0.6679139 1.3447572 1.8584603 0.101974085
-0.1866945 -2.2626672 0.7064781 1.1619469 1.8643316 0.3357466 1.3150911 0.9059968
-0.1992474 -0.33283684 -1.4165771 -0.1365585 -0.8068994 0.5124758 0.16957949 0.60531855
0.29370004 -0.09077827 0.18487956 0.9066909 -0.04801854 0.19940773 -0.57653236 0.2680487
-0.71876746 0.21695146 -0.35615936 0.43435776 -0.8579315 -1.172914 -2.1533697 -0.40958917
-0.91090655 0.2667112 1.604429 0.3618351 0.05482301 -0.40993038 0.5690999 -1.1399524
0.5844835 0.305315 1.0706416 0.095987625 -1.0275315 0.61203927 -0.7183674 1.5281802
-0.88503206 -0.1597196 -0.5764113 -0.54339296 2.0915892 -0.060485452 0.36011428 0.5702136
0.19393565 0.014508861 -0.8975333 1.2292469 -0.31148046 0.95041925 0.7928816 0.7317258
0.11748947 0.8191964 0.064592585 -0.36503762 0.8417367 0.5422641 -0.86902153 0.23248544
1.2973286 1.049641 1.5152247 0.8960825 -1.5822439 0.39127952 0.5092313 0.9280226
1.8736918 -1.2023005 0.18333301 0.04147277 -0.092816554 -1.1677886 0.5019763 -1.1797295
-0.6712114 0.29058227 0.07414517 0.60688215 -0.05574704 1.0128045 -0.2143455 -0.41686428
0.4863318 0.010198047 -2.246825 -0.15003671 -0.07770497 -0.97427255 0.9296651 -0.482002
0.050593276 0.17367788 -1.4385277 -0.22734125 -0.8064407 -0.16700226 -0.3068363 -1.6896232
0.8725833 -0.049266595 -2.4861412 1.1451725 -0.36149725 -0.33035883 1.6531572 -0.7945692
0.10300838 -0.287321 0.70326644 0.7326646 1.1995745 1.1901249 0.31574348 -0.0026616573
-0.16064692 -0.8689034 0.2042354 -0.42131856 1.278146 0.61804646 0.54900587 0.28220072
0.8384052 0.32226035 1.0136591 0.80785865 0.16546662 -0.33435518 -0.026773153 -0.9495787
2.154318 -0.6372396 -0.9633595 0.1730511 -1.171639 0.26671365 1.167837 -0.74171007
-0.5257535 1.7967414 0.91163874 0.6426198 -1.7780317 0.5714501 -0.78762174 1.7210964
-0.76888186 -0.20337433 -0.016452692 0.40529737 -0.77465904 2.005476 0.20086494 1.6449602
1.243533 0.5550547 -0.040757775 -0.7652189 0.21346267 -0.91758674 -1.2145844 0.42348307
0.9693122 0.82149225 0.38090867 2.0972435 -1.3920643 -0.18118866 0.71589273 -0.15761629
-0.4344145 0.52465796 1.1434753 -1.3323442 1.3858109 -1.3391984 -2.1456852 -0.34422165

Q1.0.bias f4 [50, 5]
00000000: 0f9e 7f3b ad8d 353c 91b7 d43a f2ca 25bb
00000010: 5255 5eba a143 993b a8db f3ba 402f 3ebc
00000020: 86c3 09bc 2a24 08bb 7407 dbbb d576 cdbb
00000030: f8b0 c5bb e1c2 2bbb 3422 2aba 05c4 a6bc
00000040: efe3 19bc 180f 96bb 8de1 27ba ee7a 9638
00000050: e57c 133c 4feb babb d685 10bd 9731 d2bc
00000060: a8b4 cebb 3b38 74bc 0a7a 55ba c514 a7b8
00000070: 1ce7 13b4 0000 0000 5519 623d 6cba fb3c
00000080: fcde 4a3b 932d 02bc e1ac 29bb 87b4 18bb
00000090: 06a2 dfbb acd5 1cba 4022 f33a 3a9a 1a3a
000000a0: 7957 053d 7302 763c bf8f 963b 02df 5dba
000000b0: a5a9 8eba 5588 55ba 2b15 163b 9e42 a43c
000000c0: 7fef 733c 85c1 713b fdc4 e2bc 2722 c3bc
000000d0: 27aa 9ebc 9da6 ebbb d5e6 98ba 77da 8a39
000000e0: 6f50 afbb 4108 acbb ed40 08bb 19be d9b9
000000f0: 9566 fdb6 5e31 b0b5 621c 75b4 0000 0000
00000100: 0000 0000 36eb 93bb d41d 78bb 808a 67bb
00000110: 2845 c7ba d2cd cab9 5d3b 9d3c f31e e33b
00000120: d080 b63a fa1f 9eba b9b2 00ba 4f0c 12bb
00000130: 8dbc 2aba d7d7 77b9 0811 a3b7 bf71 1db5
00000140: f7d7 f4bc 0aaf 3e3b e431 a63a 80b8 37b9
00000150: 2a8d edb7 262b 813d 3ab2 983b 4b49 a5bb
00000160: b04a 58bb cbfe 12ba 2d51 e9ba 3e03 973c
00000170: 698a 263c 9c11 d13a d818 4d38 d073 e8bb
00000180: 854c 7bb9 5965 71b7 0000 0000 0000 0000
00000190: f47d 94bc 2b66 c3bc d5b7 9f3b 51d0 5c3c
000001a0: 49c6 a43b 3b89 b53a 9700 423c a169 2a3b
000001b0: dcac 03bb 6a8b 3dba d275 cd3a 7cf2 f837
000001c0: d610 8bb7 eda5 a9b4 0000 0000 0b9d 0d3a
000001d0: b4e3 e839 3fcc 8a39 e382 0838 628e 02b8
000001e0: 8dfc a2ba d0aa 11bd 2a5c a3bc 1aa3 5fbb
000001f0: 9343 9c37 dd7b e5bc a626 0bbc 1769 3ebb
00000200: 6fb9 0fb9 0000 0000 01ec b4bc f7d0 ebba
00000210: 2085 803b ffb6 663b ecd8 3c3a dbe4 053b
00000220: 4c6a 5ebc 64e2 bdbc dc57 5dbc 5203 52bb
00000230: ba48 a13c 6a78 683c 38f8 bc3c 59f1 683c
00000240: 32d9 623b 7e27 6ebc 3dc7 023c 4b71 2b3c
00000250: eda5 af3b 8f3a 9b3a cd84 903a fd93 df39
00000260: 6d9f 4639 dcd6 a537 7907 a433 2504 7e3a
00000270: 2089 873b f754 b6bb 5cf7 bcbb 3623 c7ba
00000280: 6bae 9b3c 0623 763b 1e42 453c fa1c 073c
00000290: 79fc 013b cc58 23bc b9b6 4abc a62e 36bc
000002a0: 6ff9 88bb 67a8 55ba f9e6 21bb de49 9fba
000002b0: d1e2 36ba 214a 29b9 36f7 9cb7 8434 a6bc
000002c0: e330 b9bc 1805 4bbc 5421 05bb e5b4 bbb8
000002d0: cb83 1e3d 5823 a13a 2cd2 5e3c db54 453c
000002e0: d8c4 4e3b a864 8238 8136 2c38 bf00 ea37
000002f0: fa20 fe36 3004 af34 99b6 803d 5f96 ee3b
00000300: 7b9a 0cb9 c489 91ba 1f18 2eb9 d538 c73c
00000310: 8192 d0b8 4a9c b1ba 316d 03ba 843e 3cb6
00000320: a997 e63b 046e 943c b3ca 683b 3a3d f9ba
00000330: 54fb 2ab4 5952 c7b9 e1c2 67ba 9aa6 7fba
00000340: 1769 e9b9 a5f3 d1b8 e754 063d d23b 8d3c
00000350: ce6c ce3b 724a bfb9 7ef4 6fb7 b724 323c
00000360: e42d 3b3a 28f3 a5bb e73e 85bb 4b21 54ba
00000370: d92a 52b7 dc8b fcb5 7476 8c35 971a 7835
00000380: 0000 0000 49c4 d7ba dcfb dc3b 9808 50bb
00000390: 4683 94bb fca5 2aba df62 5fbc 052a 96bb
000003a0: f535 523c 9708 3d3c 5f45 433b a702 883c
000003b0: 7e1c 213b cbac 3bbc a334 0abc 1f60 03bb
000003c0: 3b55 44bd f449 ebbc 4b27 f3bc 64e2 68bc
000003d0: 57c6 44bb a072 dabc 1d17 6fbc 6135 25bc
000003e0: abf3 58bb bb25 3cba
0.0039004122 0.011081141 0.0016229023 -0.0025297967 -0.00084813416 0.0046772514 -0.0018604891 -0.011607945
-0.008408433 -0.0020773509 -0.006684238 -0.0062702694 -0.006033059 -0.0026208686 -0.0006490082 -0.020357141
-0.0093927225 -0.004579436 -0.0006404154 7.175455e-05 0.009001945 -0.0057043205 -0.035283886 -0.025658412
-0.006308157 -0.0149059845 -0.00081434904 -7.967049e-05 -1.3774519e-07 0.0 0.05519994 0.030728541
0.0030955663 -0.007945436 -0.0025890397 -0.0023300962 -0.0068247346 -0.00059827673 0.0018549636 0.00058976153
0.032554124 0.015015232 0.0045947726 -0.0008463712 -0.0010884298 -0.000814562 0.00229008 0.020051297
0.014888643 0.0036889028 -0.027681822 -0.023819996 -0.019368244 -0.0071914927 -0.0011665473 0.0002648418
-0.0053501646 -0.0052500074 -0.0020790652 -0.000415311 -7.5519297e-06 -1.312739e-06 -2.2827729e-07 0.0
0.0 -0.0045141233 -0.0037859576 -0.0035330355 -0.0015203105 -0.0003868179 0.019193346 0.0069311797
0.0013923887 -0.0012063973 -0.0004909444 -0.0022285169 -0.00065130816 -0.00023636162 -1.9439045e-05 -5.865258e-07
-0.029888136 0.002909603 0.0012679663 -0.00017520972 -2.8318336e-05 0.06307058 0.004659918 -0.0050441376
-0.0033003502 -0.0005607425 -0.0017800682 0.018434163 0.0101648355 0.0015950683 4.8898946e-05 -0.007093884
-0.00023965731 -1.4388316e-05 0.0 0.0 -0.018126465 -0.023852428 0.0048742094 0.013477401
0.0050285202 0.0013850102 0.011840961 0.00260029 -0.0020092046 -0.0007230552 0.0015675372 2.967682e-05
-1.6577931e-05 -3.159943e-07 0.0 0.00054021244 0.0004442014 0.00026473586 3.2546825e-05 -3.112702e-05
-0.0012434885 -0.03556329 -0.019941408 -0.0034124316 1.8628116e-05 -0.028013164 -0.008493101 -0.0029054338
-0.00013706622 0.0 -0.022085192 -0.0017991354 0.0039221197 0.003520429 0.0007203955 0.0020430598
-0.013575148 -0.02317924 -0.013509717 -0.0032045436 0.019687999 0.014188865 0.023067579 0.014217698
0.0034614322 -0.014535783 0.007982072 0.010464023 0.005360356 0.0011843013 0.0011025906 0.00042644134
0.00018942142 1.9769584e-05 7.6382044e-08 0.00096899486 0.0041362196 -0.005564328 -0.005766792 -0.0015192989
0.019004067 0.0037557497 0.012039689 0.008246655 0.0019834323 -0.009969901 -0.012372666 -0.01111952
-0.0041801254 -0.0008150399 -0.002470432 -0.0012152751 -0.00069765473 -0.00016144711 -1.8711766e-05 -0.020288713
-0.022606319 -0.012391351 -0.0020314055 -8.950549e-05 0.038699906 0.0012293858 0.013599914 0.012044157
0.0031550433 6.217632e-05 4.1058756e-05 2.7895321e-05 7.573629e-06 3.2599337e-07 0.06284828 0.007281109
-0.00013408989 -0.001110368 -0.00016602919 0.024319092 -9.9455014e-05 -0.0013550606 -0.0005013524 -2.8050572e-06
0.0070371223 0.018118866 0.0035521209 -0.0019015439 -1.5923916e-07 -0.00038017592 -0.000884099 -0.00097523036
-0.0004451952 -0.00010011279 0.032795813 0.017240439 0.0062995916 -0.00036485825 -1.4302435e-05 0.010873011
0.0007140322 -0.005064387 -0.0040663364 -0.0008092119 -1.2526952e-05 -1.8816168e-06 1.0465287e-06 9.242589e-07
0.0 -0.0016461696 0.006743891 -0.0031743404 -0.0045322506 -0.0006509719 -0.013634413 -0.004582646
0.012830247 0.0115376925 0.0029795987 0.016602827 0.0024583633 -0.011454771 -0.008435401 -0.0020046306
-0.047932845 -0.028721787 -0.029681822 -0.014214132 -0.0030025446 -0.026665986 -0.014592913 -0.010083527
-0.0033104222 -0.0007177253

Q1.1.weight f4 [50, 1, 5]
00000000: 09e4 3e3f 7906 9e3d 1cc3 c3bd a3cc dfbe
00000010: 30f5 9abd c75c bf3e ae40 2a3f 8571 8f3e
00000020: d09c e13e 86fb c0bd e969 663f 0532 223f
00000030: 28ce bbbe b308 df3f 7b84 d43f 3604 2ebe
00000040: 8e81 443e 0893 91bf 40d4 ac3f 7bc9 a5be
00000050: e392 b13f 0f94 bd3f 9805 a73f be24 9d3f
00000060: 3994 17bc 6d4d 8b3e 70aa 483e 03c1 29c0
00000070: e298 f43d 28bd 4bbf 683d 603f 6ff9 b73f
00000080: 32f8 c93f f5fb 52bf 4d2c c03e c599 02bf
00000090: 6ec0 48be 7885 c53e 61e4 0bbe 9e12 c0be
000000a0: e9e5 cc3e 2d6b 2b3f aa09 0b3f 4fa8 d13f
000000b0: fcb8 ce3f c8cb 76bf b074 25bf 8f3e 1cbf
000000c0: f81a 9abf 6307 bc3e 6471 2abf ecf2 6c3e
000000d0: 2d60 ea3f fc9c 3fbf 500d 11bf d9c1 09be
000000e0: 55a1 debd c583 be3e bb86 843d 7d63 c43f
000000f0: d508 b4be 12cb be3f d083 08c0 5302 103e
00000100: ccd0 a33f 84ec e63e 194e 0240 b1b7 2d3e
00000110: 4e57 c23e 211e 2cbf bf1f 42bd f4cd 943f
00000120: 9f0a 54bf 6507 af3e ed17 8bbe 2ad3 0040
00000130: 901c 19be ef91 a13f 6aa2 b3be be1c 20c0
00000140: 8045 873f 0da8 febf 8efd 8c3d 1f90 a43f
00000150: 4694 7dbe 3edc 00bf 7037 57bf 72b8 0440
00000160: c6c2 03bf 4ab9 b73e 7ca2 833f 8aef b6be
00000170: 737d 7fbf 2b28 e73e 966a 42bf 7324 813e
00000180: 7b1d c7bf 4eb2 16be 8b58 94bf 15d3 04bf
00000190: 4033 9bbf b3a2 0ec0 2d9a 4ebe 737f 38be
000001a0: 1922 023f 3451 5b3f 240a cebb d6d2 f0be
000001b0: e516 e23d 58f9 ba3e b25a a9bd 6100 423e
000001c0: c067 423f 4081 bd3f 175e 933f d4d3 a6bf
000001d0: 3526 e43e af4e c03f e34d d4bf 94d5 d03f
000001e0: a93f efbf 441e 8f3e d1e5 d73e 62f9 6cbe
000001f0: 3e40 05bf 5d3c 95be e2bd 3cbf 7592 83bf
00000200: bd33 c3bd 174f 663f ac06 753e 8486 3bbf
00000210: 91c1 b3bf 3dec 483f ca5b a53e 5c17 0d3e
00000220: 5649 c23f 0e87 383f bbf7 a3be 17e7 0240
00000230: 747a 09bf 6118 21bf 9fea efbf ad6e 963f
00000240: 2646 42bf bf90 033f f24d 60bf f20a a8bf
00000250: d68b bc3f fc5b 903f 298a 9bbf baaa d63e
00000260: 7ecb 273d 1410 b83f c9b4 fcbd 11d9 283f
00000270: 77a3 1a3e d4d7 063e 4e09 023f 5e1e 6ebf
00000280: b57c 76bf a979 903f 780e 90bf 94fd dabf
00000290: 9aa0 f43f 91ec d5be 1b99 ad3e bf6a ea3e
000002a0: f35f a43e 6e88 f53f 44db e13f 863f 993f
000002b0: 270c f53e 6f33 b93e 49de 5fbf 59a7 25bf
000002c0: c1fa 5ebf 09f0 853f b60f ae3f e73e 833f
000002d0: d60f c7bf df61 afbb 54ec 1cbd 0bb7 b8bf
000002e0: c8a4 47bf c6e9 f6be 7edf 89bf c05f 26bf
000002f0: 0cd4 1cbf f013 a3bf e06d 49bf 694c 3cbe
00000300: 5382 1640 4c1b 87be 5107 17be 0418 0dbf
00000310: 919d 2d3f 2b3b 3abf 8e88 7c3f 47f0 833f
00000320: b8ad cf3f 9969 7b3f b127 143f 7c58 2c3f
00000330: 3bdd 813f 6c60 61bf 5c38 da3e d08f d73f
00000340: 6557 773f 842b a3bf eb35 933e 5c22 ab3f
00000350: f719 ec3e 48e6 5dbf b531 1abf 86e3 873d
00000360: 3bb8 163f bb26 893f 4ee8 a8bf e900 593f
00000370: 717a 73bf 992f 5abd 7f03 1ec0 e14e 03c0
00000380: 943e cc3e bfee 703f 2b25 05bf 7453 1240
00000390: 8660 fcbe 9e36 09be 1953 48bf 0a68 5dbf
000003a0: 3ce3 82bf 64e9 a33f 2f1d 04bf 3f77 973f
000003b0: deb0 de3e 0b30 c7be e966 123d 5dbf ef3e
000003c0: 35d9 ca3f a991 cc3e 6a93 263f f1bc 883f
000003d0: de2d a33f 9b0d 1b40 41c8 513e faa9 f5be
000003e0: 28a9 5dbf 47f4 e6bf
0.74566704 0.07716078 -0.095586985 -0.43710813 -0.07566297 0.3737547 0.66504943 0.28016296
0.4406495 -0.09422974 0.90005356 0.63357574 -0.36680722 1.742453 1.660293 -0.16993794
0.19190046 -1.1372995 1.3502274 -0.3238028 1.3872951 1.4810809 1.3048582 1.2276838
-0.009251648 0.2720751 0.19596267 -2.6524055 0.119432226 -0.79585505 0.875937 1.4372996
1.5778868 -0.82415706 0.375338 -0.51015884 -0.19604656 0.3857839 -0.13661338 -0.37514204
0.40019158 0.6696041 0.5431162 1.6379489 1.6150203 -0.96404696 -0.64631176 -0.61032957
-1.203948 0.36724386 -0.6657927 0.23139542 1.83106 -0.74848914 -0.5666094 -0.13452853
-0.108706154 0.37209907 0.0647101 1.5342861 -0.35162988 1.4905722 -2.1330452 0.14063387
1.2798095 0.45102322 2.0360167 0.16964604 0.37957233 -0.67233473 -0.047393557 1.1625352
-0.82828707 0.3418533 -0.2716669 2.0128884 -0.14952302 1.262266 -0.3508485 -2.5017543
1.0568085 -1.9895035 0.06884299 1.2856482 -0.24763593 -0.5033606 -0.84068966 2.0737576
-0.51469076 0.35883552 1.0283961 -0.3572963 -0.99800795 0.45147833 -0.7594389 0.2522312
-1.5555872 -0.14716455 -1.1589521 -0.51884586 -1.2125015 -2.2286804 -0.20176001 -0.18017368
0.5083328 0.8567078 -0.00628783 -0.47035855 0.11039523 0.3651836 -0.08269252 0.18945457
0.7593956 1.4805069 1.1513089 -1.3033395 0.445604 1.5024012 -1.6586269 1.6315179
-1.8691303 0.27952778 0.42167524 -0.23142007 -0.5205115 -0.29147616 -0.7372724 -1.027907
-0.09531353 0.8996443 0.23928326 -0.7325213 -1.4043447 0.7848547 0.32296592 0.13778442
1.517863 0.7208108 -0.3202494 2.0453546 -0.53702474 -0.62927824 -1.8743476 1.1752526
-0.7588829 0.5139274 -0.87618935 -1.312834 1.4730175 1.1278071 -1.2151538 0.4192713
0.04096555 1.4379907 -0.123391695 0.6595622 0.1510142 0.1316827 0.5079545 -0.93015087
-0.9628404 1.1287128 -1.1254416 -1.7108636 1.9111512 -0.41782048 0.33905873 0.45784566
0.32104453 1.918226 1.764504 1.1972511 0.47860834 0.36172053 -0.87448555 -0.6470848
-0.8710137 1.0463878 1.3598545 1.0253571 -1.5551708 -0.0053522433 -0.038311318 -1.443086
-0.7798581 -0.4822523 -1.0771329 -0.6498985 -0.6126106 -1.274046 -0.7868328 -0.18388523
2.3517044 -0.26388013 -0.14748885 -0.5511477 0.6781855 -0.72746533 0.98645866 1.0307702
1.622489 0.98208004 0.57873064 0.67322516 1.0145639 -0.88037753 0.42621124 1.6840763
0.9661773 -1.2747655 0.28752074 1.3369861 0.4611356 -0.86679506 -0.60232097 0.066351935
0.58874863 1.0714945 -1.3195894 0.84767014 -0.95108706 -0.05326805 -2.4689634 -2.0516894
0.39891493 0.941143 -0.5200984 2.2863436 -0.49292392 -0.13399741 -0.78251797 -0.86486876
-1.0225596 1.28056 -0.5160703 1.1833266 0.43494314 -0.3890384 0.035742674 0.46825686
1.5847536 0.3995488 0.65068686 1.068266 1.2748373 2.4227054 0.20486547 -0.47981244
-0.86586237 -1.8043298

Q1.1.bias f4 [1, 5]
00000000: 612c 4c3a 0bac 2a3c 3d62 f4ba a668 a5bb
00000010: 39c3 bfba
0.00077885954 0.010416995 -0.0018645 -0.0050478755 -0.0014630324
