CausalCVR/logs/simu3/eval/54/Vcnet_ckpt.pth.tar (torch, 123067 bytes, 16 tensors)

feature_weight.weight f4 [50, 8]
00000000: 80ae 953c b008 3fba 722c ba3b c884 12bb
00000010: 40de 60ba c335 35bb b405 0cbb 46b8 97bc
00000020: 8f54 9f3b d77f 363b 88fb 113c 1794 2d3c
00000030: 023b 4a3c 2d3a 1f39 41da 16bc 309a 4d3c
00000040: f846 50b9 3dc2 1ab9 d755 af3b ff5b 503c
00000050: f431 26bb 3631 103c 3ee7 e2ba ecac 003a
00000060: 0a38 f5bb 6770 1d3c e904 debb 24fd fc3a
00000070: 5fd0 bebb 64ed 2cbc 0b77 a0bb a62c 62bb
00000080: b98b 9a3b 0051 b9bb 30e5 0a3c 87c3 173c
00000090: dc0b 91bc e150 f8bb 31ec 92bc 31db ea3b
000000a0: b525 f6ba 6dcf 053c fa53 c93b e325 2bbc
000000b0: ae17 1f3a 1fec 7dba 9b26 803c 47f3 c0ba
000000c0: a1f1 953b bea5 ffbb 1443 0c3c c8cf 19bc
000000d0: 1f9e d0bb b76a b33b 77ec 72bb e0b8 8fbb
000000e0: 17db 08bc e1b3 b9bc c30a 46bb abaa 343b
000000f0: 2023 693c 1fc3 91bb 38a6 85bb ac73 cbbb
00000100: 66be 3f3c 97ba 113c c84a 43bc d526 2e3c
00000110: d96d 4fbc f50b 6e3c cc9d 9fbc efd6 1dbc
00000120: 1df1 083c c933 d13b b490 1fbc 0f49 acba
00000130: f25c 0b3c fb22 753c 7bd1 123c e106 90bc
00000140: 6627 cf3c d79f 43ba 66dc 88bb 70c0 febb
00000150: 29bb 343b bb25 f4b9 7884 4d3c a50f 81b8
00000160: ba32 74b9 6d03 163b d550 8d3a c1db 403c
00000170: 6c41 3b3c f66f bd3c 6320 0ebb cc08 933b
00000180: 9d24 a4bb a972 53bb 18b9 91bc 0d37 df3a
00000190: f3b5 373c 3204 34bc 010f 36bc 4344 6fbc
000001a0: 721a a13c 8e52 55bc 1643 cfbc bbab 2b3c
000001b0: 8e34 503b 7639 c4bb 06c1 2cbc 30fe d5ba
000001c0: e4b9 653b 7432 bd38 4799 8f3b f47b bd3b
000001d0: de41 7b3c 30a8 45bb 3fd8 11bc d46d 82bb
000001e0: 6b63 dabb 984e a43b 77e6 76bb c943 6c3b
000001f0: bea7 35bc cb70 1bba ac23 013a bade 043c
00000200: 08fe 753b c5a8 7638 2bfb debb 6462 9fbc
00000210: c96b 8d3b e6d2 ccbc 71ed 343c e6c6 1c3b
00000220: 84f2 3dbb 052a 94bc 2214 afbb ea50 c23c
00000230: 5691 0bbc 26bc d23b df89 153c cc1a 393c
00000240: a3a0 9539 520c 103c 3e4b 09bc 5c33 a2bb
00000250: 0fa4 9bbc 388d ceba 730d c6ba 37e2 213c
00000260: 4a4d 7b3c 2f33 313c f81a 853b 2f43 1fbc
00000270: 26a0 5dbb 1ff8 2aba 366a b4ba 9442 aebb
00000280: d167 2c3c 2f0a 82bb e70a d3bb d067 4fbc
00000290: ef17 9c3c 6bbc f2bb 749c c1b9 7814 003c
000002a0: 550a 8bbc b37c 743b 1d34 863b 9c75 bfba
000002b0: 5a40 08bc 3cac 28bc be2b 1c3b 7609 9abc
000002c0: a981 c5bb 41db e2b9 63a7 0c3c 249e 98bc
000002d0: 28ca 43bc e3f9 003c 161e c4ba 23e8 12bc
000002e0: 04df 203c a293 40bb 6b34 093b 3094 70bb
000002f0: 731d 37bc becc ae39 400e 203b 6c54 2e3c
00000300: fdee 0bbc 33a3 0bbc af86 363c 4eb0 9bbc
00000310: 68da a83b 4866 2aba c6ba 093b 7960 363c
00000320: 5f9e 81ba 86fa cdb9 1b4d b0bb 5fac 123c
00000330: 5f86 40bc 5d45 5cbc 9508 1139 32bd 703c
00000340: 3add 10bc df21 1cbc cd83 37bc 88f0 9a3c
00000350: 8152 633c a85e d0bb 0dde 303c d126 41bc
00000360: 5cdb 5abb a081 33bc 9dff 19bc 0343 55ba
00000370: 9a47 203c d816 06bb f6d5 26bc fb47 2f3c
00000380: 5c41 b2bb 4b8c a93b 42a2 73bb d351 8cbb
00000390: 1aae 0239 a257 7b3b 2961 e0bb a6af 4a3a
000003a0: 9b8e ad3c 11c3 e0bb 0563 503c 1fc9 d9ba
000003b0: 8a52 453b a181 033c 4791 acba baa1 bb3b
000003c0: 94b5 8f3b 9cd5 40bc 4897 123b 9614 d139
000003d0: cccd 12bb 5e11 5bbc 68d8 373c 014b 1e3c
000003e0: dc03 b43b 06ab babb d61e d33b 0dc3 1eba
000003f0: 0ae4 d83a b677 2c3b f81f 7fbc b2e8 00bc
0.018271685 -0.00072873663 0.005681568 -0.0022356976 -0.00085780397 -0.0027650453 -0.0021365704 -0.018520486
0.004862375 0.0027847195 0.008910067 0.010594389 0.01234317 0.00015185094 -0.009207309 0.012548968
-0.00019862864 -0.00014758944 0.005350809 0.012717246 -0.0025359364 0.008800795 -0.0017311347 0.000490858
-0.007483487 0.009609318 -0.0067754877 0.0019301516 -0.0058231796 -0.010554645 -0.0048970035 -0.0034511476
0.0047163633 -0.005655408 0.008477494 0.009262926 -0.01770585 -0.007578001 -0.01793489 0.007167243
-0.0018779548 0.00816713 0.006144044 -0.010446045 0.0006068897 -0.0009686369 0.015643409 -0.001472094
0.0045759236 -0.0078017404 0.008560915 -0.009387918 -0.0063665058 0.005475368 -0.0037067214 -0.0043860525
-0.008353016 -0.02266878 -0.0030218817 0.0027567546 0.014229566 -0.004448309 -0.0040786527 -0.0062088575
0.011703109 0.008894584 -0.011919685 0.010629375 -0.012660467 0.014529218 -0.019484423 -0.009633764
0.008358267 0.006384347 -0.00973909 -0.0013144332 0.008506047 0.014961953 0.008961077 -0.017581405
0.025287341 -0.00074624777 -0.004176664 -0.007774405 0.0027577376 -0.00046567418 0.01254379 -6.154113e-05
-0.0002328855 0.0022890226 0.0010781536 0.011771143 0.011429172 0.023124676 -0.0021686784 0.0044871327
-0.0050092475 -0.0032264388 -0.017788455 0.0017029956 0.011212814 -0.010987328 -0.011111976 -0.014603677
0.01966593 -0.013020171 -0.025300544 0.010477955 0.0031769606 -0.005988295 -0.010544067 -0.0016326364
0.0035053426 9.02162e-05 0.0043822858 0.0057825986 0.015335528 -0.0030160062 -0.008901655 -0.0039803777
-0.0066646836 0.005014252 -0.003767399 0.0036051145 -0.011087356 -0.0005929588 0.0004926275 0.008109743
0.0037535448 5.880815e-05 -0.006804844 -0.019456096 0.0043158275 -0.025002908 0.011042939 0.0023922264
-0.0028983662 -0.018086443 -0.005342976 0.023720223 -0.0085185375 0.0064311204 0.009127109 0.011297893
0.00028539178 0.008792 -0.008379756 -0.00494997 -0.018999128 -0.0015758639 -0.0015110209 0.009880594
0.015338251 0.010815426 0.004062053 -0.009720608 -0.003381738 -0.0006521958 -0.0013764563 -0.0053179953
0.010522799 -0.003968499 -0.0064405086 -0.012659028 0.019054381 -0.007407715 -0.00036928395 0.00781738
-0.0169727 0.0037305772 0.004095568 -0.0014607194 -0.008316124 -0.01029497 0.0023829783 -0.01880334
-0.0060274196 -0.00043269436 0.00858483 -0.018630095 -0.011950053 0.007872078 -0.001496258 -0.0089664785
0.009818796 -0.002938487 0.0020935785 -0.003670942 -0.011176455 0.0003334041 0.0024422556 0.010640245
-0.008540866 -0.008522796 0.0111405095 -0.019004967 0.005152989 -0.00065002264 0.0021015867 0.011131399
-0.0009889117 -0.00039287301 -0.0053802854 0.008952229 -0.011750787 -0.013444272 0.00013831475 0.014693545
-0.008841807 -0.00952956 -0.011200857 0.018913522 0.013874651 -0.00635894 0.0107951285 -0.01178904
-0.0033394909 -0.010956198 -0.009399322 -0.00081352907 0.009782696 -0.0020460393 -0.010182848 0.010698314
-0.0054399204 0.005174195 -0.003717557 -0.004282215 0.00012462624 0.0038351794 -0.00684752 0.0007731862
0.021186164 -0.006859191 0.012718921 -0.0016615725 0.0030109012 0.008026511 -0.0013165855 0.0057260664
0.0043856595 -0.011769678 0.0022368003 0.00039878924 -0.0022400497 -0.01337084 0.011221029 0.009661437
0.005493624 -0.005696657 0.006442885 -0.00060562865 0.0016547453 0.002631647 -0.015571587 -0.007867979

feature_weight.bias f4 [50]
00000000: 3a8e 5637 7a96 6cb5 4df4 6737 9f05 9f35
00000010: 015a 3236 569d fc37 e49b b6b6 20a9 ae34
00000020: 74a3 42b6 73f3 cbb6 df66 1d38 feda a1b7
00000030: 8871 30b4 6699 d936 5492 d4b7 54d2 de37
00000040: b841 eab5 c866 5c37 2598 0736 4761 5db7
00000050: ba97 70b7 0000 0000 3c68 4e35 3b56 5bb8
00000060: 5e0e 0cb7 3733 1e37 64a7 66b7 e6ba 1637
00000070: a05d 7c35 7df6 d436 738c feb6 0a0d 2736
00000080: a975 40b5 a24e 8cb6 8aee 7e37 c9b1 7936
00000090: b367 ad37 e863 2cb7 16b7 83b6 bf5a 7738
000000a0: 7375 a935 ef62 86b5 cefa a937 0fbb ed37
000000b0: 4599 70b7 0000 0000 3ae4 d436 1bcd 2435
000000c0: 1175 db34 9426 2e35
1.2788509e-05 -8.8135823e-07 1.3825554e-05 1.1848059e-06 2.6576456e-06 3.0114006e-05 -5.4421707e-06 3.253308e-07
-2.9003395e-06 -6.0782127e-06 3.7527523e-05 -1.9294672e-05 -1.643258e-07 6.484962e-06 -2.5340509e-05 2.6562404e-05
-1.7453485e-06 1.31369525e-05 2.0205127e-06 -1.3195276e-05 -1.4340441e-05 0.0 7.689266e-07 -5.2293977e-05
-8.347995e-06 9.429458e-06 -1.3748042e-05 8.984212e-06 9.401356e-07 6.3467874e-06 -7.5861403e-06 2.489253e-06
-7.169679e-07 -4.181479e-06 1.5195119e-05 3.7207376e-06 2.0671496e-05 -1.027526e-05 -3.9254182e-06 5.8973903e-05
1.2625663e-06 -1.0012571e-06 2.026316e-05 2.8339708e-05 -1.4340801e-05 0.0 6.3446614e-06 6.139323e-07
4.0877106e-07 6.487619e-07

hidden_features.0.weight f4 [50, 8]
00000000: 80ae 953c b008 3fba 722c ba3b c884 12bb
00000010: 40de 60ba c335 35bb b405 0cbb 46b8 97bc
00000020: 8f54 9f3b d77f 363b 88fb 113c 1794 2d3c
00000030: 023b 4a3c 2d3a 1f39 41da 16bc 309a 4d3c
00000040: f846 50b9 3dc2 1ab9 d755 af3b ff5b 503c
00000050: f431 26bb 3631 103c 3ee7 e2ba ecac 003a
00000060: 0a38 f5bb 6770 1d3c e904 debb 24fd fc3a
00000070: 5fd0 bebb 64ed 2cbc 0b77 a0bb a62c 62bb
00000080: b98b 9a3b 0051 b9bb 30e5 0a3c 87c3 173c
00000090: dc0b 91bc e150 f8bb 31ec 92bc 31db ea3b
000000a0: b525 f6ba 6dcf 053c fa53 c93b e325 2bbc
000000b0: ae17 1f3a 1fec 7dba 9b26 803c 47f3 c0ba
000000c0: a1f1 953b bea5 ffbb 1443 0c3c c8cf 19bc
000000d0: 1f9e d0bb b76a b33b 77ec 72bb e0b8 8fbb
000000e0: 17db 08bc e1b3 b9bc c30a 46bb abaa 343b
000000f0: 2023 693c 1fc3 91bb 38a6 85bb ac73 cbbb
00000100: 66be 3f3c 97ba 113c c84a 43bc d526 2e3c
00000110: d96d 4fbc f50b 6e3c cc9d 9fbc efd6 1dbc
00000120: 1df1 083c c933 d13b b490 1fbc 0f49 acba
00000130: f25c 0b3c fb22 753c 7bd1 123c e106 90bc
00000140: 6627 cf3c d79f 43ba 66dc 88bb 70c0 febb
00000150: 29bb 343b bb25 f4b9 7884 4d3c a50f 81b8
00000160: ba32 74b9 6d03 163b d550 8d3a c1db 403c
00000170: 6c41 3b3c f66f bd3c 6320 0ebb cc08 933b
00000180: 9d24 a4bb a972 53bb 18b9 91bc 0d37 df3a
00000190: f3b5 373c 3204 34bc 010f 36bc 4344 6fbc
000001a0: 721a a13c 8e52 55bc 1643 cfbc bbab 2b3c
000001b0: 8e34 503b 7639 c4bb 06c1 2cbc 30fe d5ba
000001c0: e4b9 653b 7432 bd38 4799 8f3b f47b bd3b
000001d0: de41 7b3c 30a8 45bb 3fd8 11bc d46d 82bb
000001e0: 6b63 dabb 984e a43b 77e6 76bb c943 6c3b
000001f0: bea7 35bc cb70 1bba ac23 013a bade 043c
00000200: 08fe 753b c5a8 7638 2bfb debb 6462 9fbc
00000210: c96b 8d3b e6d2 ccbc 71ed 343c e6c6 1c3b
00000220: 84f2 3dbb 052a 94bc 2214 afbb ea50 c23c
00000230: 5691 0bbc 26bc d23b df89 153c cc1a 393c
00000240: a3a0 9539 520c 103c 3e4b 09bc 5c33 a2bb
00000250: 0fa4 9bbc 388d ceba 730d c6ba 37e2 213c
00000260: 4a4d 7b3c 2f33 313c f81a 853b 2f43 1fbc
00000270: 26a0 5dbb 1ff8 2aba 366a b4ba 9442 aebb
00000280: d167 2c3c 2f0a 82bb e70a d3bb d067 4fbc
00000290: ef17 9c3c 6bbc f2bb 749c c1b9 7814 003c
000002a0: 550a 8bbc b37c 743b 1d34 863b 9c75 bfba
000002b0: 5a40 08bc 3cac 28bc be2b 1c3b 7609 9abc
000002c0: a981 c5bb 41db e2b9 63a7 0c3c 249e 98bc
000002d0: 28ca 43bc e3f9 003c 161e c4ba 23e8 12bc
000002e0: 04df 203c a293 40bb 6b34 093b 3094 70bb
000002f0: 731d 37bc becc ae39 400e 203b 6c54 2e3c
00000300: fdee 0bbc 33a3 0bbc af86 363c 4eb0 9bbc
00000310: 68da a83b 4866 2aba c6ba 093b 7960 363c
00000320: 5f9e 81ba 86fa cdb9 1b4d b0bb 5fac 123c
00000330: 5f86 40bc 5d45 5cbc 9508 1139 32bd 703c
00000340: 3add 10bc df21 1cbc cd83 37bc 88f0 9a3c
00000350: 8152 633c a85e d0bb 0dde 303c d126 41bc
00000360: 5cdb 5abb a081 33bc 9dff 19bc 0343 55ba
00000370: 9a47 203c d816 06bb f6d5 26bc fb47 2f3c
00000380: 5c41 b2bb 4b8c a93b 42a2 73bb d351 8cbb
00000390: 1aae 0239 a257 7b3b 2961 e0bb a6af 4a3a
000003a0: 9b8e ad3c 11c3 e0bb 0563 503c 1fc9 d9ba
000003b0: 8a52 453b a181 033c 4791 acba baa1 bb3b
000003c0: 94b5 8f3b 9cd5 40bc 4897 123b 9614 d139
000003d0: cccd 12bb 5e11 5bbc 68d8 373c 014b 1e3c
000003e0: dc03 b43b 06ab babb d61e d33b 0dc3 1eba
000003f0: 0ae4 d83a b677 2c3b f81f 7fbc b2e8 00bc
0.018271685 -0.00072873663 0.005681568 -0.0022356976 -0.00085780397 -0.0027650453 -0.0021365704 -0.018520486
0.004862375 0.0027847195 0.008910067 0.010594389 0.01234317 0.00015185094 -0.009207309 0.012548968
-0.00019862864 -0.00014758944 0.005350809 0.012717246 -0.0025359364 0.008800795 -0.0017311347 0.000490858
-0.007483487 0.009609318 -0.0067754877 0.0019301516 -0.0058231796 -0.010554645 -0.0048970035 -0.0034511476
0.0047163633 -0.005655408 0.008477494 0.009262926 -0.01770585 -0.007578001 -0.01793489 0.007167243
-0.0018779548 0.00816713 0.006144044 -0.010446045 0.0006068897 -0.0009686369 0.015643409 -0.001472094
0.0045759236 -0.0078017404 0.008560915 -0.009387918 -0.0063665058 0.005475368 -0.0037067214 -0.0043860525
-0.008353016 -0.02266878 -0.0030218817 0.0027567546 0.014229566 -0.004448309 -0.0040786527 -0.0062088575
0.011703109 0.008894584 -0.011919685 0.010629375 -0.012660467 0.014529218 -0.019484423 -0.009633764
0.008358267 0.006384347 -0.00973909 -0.0013144332 0.008506047 0.014961953 0.008961077 -0.017581405
0.025287341 -0.00074624777 -0.004176664 -0.007774405 0.0027577376 -0.00046567418 0.01254379 -6.154113e-05
-0.0002328855 0.0022890226 0.0010781536 0.011771143 0.011429172 0.023124676 -0.0021686784 0.0044871327
-0.0050092475 -0.0032264388 -0.017788455 0.0017029956 0.011212814 -0.010987328 -0.011111976 -0.014603677
0.01966593 -0.013020171 -0.025300544 0.010477955 0.0031769606 -0.005988295 -0.010544067 -0.0016326364
0.0035053426 9.02162e-05 0.0043822858 0.0057825986 0.015335528 -0.0030160062 -0.008901655 -0.0039803777
-0.0066646836 0.005014252 -0.003767399 0.0036051145 -0.011087356 -0.0005929588 0.0004926275 0.008109743
0.0037535448 5.880815e-05 -0.006804844 -0.019456096 0.0043158275 -0.025002908 0.011042939 0.0023922264
-0.0028983662 -0.018086443 -0.005342976 0.023720223 -0.0085185375 0.0064311204 0.009127109 0.011297893
0.00028539178 0.008792 -0.008379756 -0.00494997 -0.018999128 -0.0015758639 -0.0015110209 0.009880594
0.015338251 0.010815426 0.004062053 -0.009720608 -0.003381738 -0.0006521958 -0.0013764563 -0.0053179953
0.010522799 -0.003968499 -0.0064405086 -0.012659028 0.019054381 -0.007407715 -0.00036928395 0.00781738
-0.0169727 0.0037305772 0.004095568 -0.0014607194 -0.008316124 -0.01029497 0.0023829783 -0.01880334
-0.0060274196 -0.00043269436 0.00858483 -0.018630095 -0.011950053 0.007872078 -0.001496258 -0.0089664785
0.009818796 -0.002938487 0.0020935785 -0.003670942 -0.011176455 0.0003334041 0.0024422556 0.010640245
-0.008540866 -0.008522796 0.0111405095 -0.019004967 0.005152989 -0.00065002264 0.0021015867 0.011131399
-0.0009889117 -0.00039287301 -0.0053802854 0.008952229 -0.011750787 -0.013444272 0.00013831475 0.014693545
-0.008841807 -0.00952956 -0.011200857 0.018913522 0.013874651 -0.00635894 0.0107951285 -0.01178904
-0.0033394909 -0.010956198 -0.009399322 -0.00081352907 0.009782696 -0.0020460393 -0.010182848 0.010698314
-0.0054399204 0.005174195 -0.003717557 -0.004282215 0.00012462624 0.0038351794 -0.00684752 0.0007731862
0.021186164 -0.006859191 0.012718921 -0.0016615725 0.0030109012 0.008026511 -0.0013165855 0.0057260664
0.0043856595 -0.011769678 0.0022368003 0.00039878924 -0.0022400497 -0.01337084 0.011221029 0.009661437
0.005493624 -0.005696657 0.006442885 -0.00060562865 0.0016547453 0.002631647 -0.015571587 -0.007867979

hidden_features.0.bias f4 [50]
00000000: 3a8e 5637 7a96 6cb5 4df4 6737 9f05 9f35
00000010: 015a 3236 569d fc37 e49b b6b6 20a9 ae34
00000020: 74a3 42b6 73f3 cbb6 df66 1d38 feda a1b7
00000030: 8871 30b4 6699 d936 5492 d4b7 54d2 de37
00000040: b841 eab5 c866 5c37 2598 0736 4761 5db7
00000050: ba97 70b7 0000 0000 3c68 4e35 3b56 5bb8
00000060: 5e0e 0cb7 3733 1e37 64a7 66b7 e6ba 1637
00000070: a05d 7c35 7df6 d436 738c feb6 0a0d 2736
00000080: a975 40b5 a24e 8cb6 8aee 7e37 c9b1 7936
00000090: b367 ad37 e863 2cb7 16b7 83b6 bf5a 7738
000000a0: 7375 a935 ef62 86b5 cefa a937 0fbb ed37
000000b0: 4599 70b7 0000 0000 3ae4 d436 1bcd 2435
000000c0: 1175 db34 9426 2e35
1.2788509e-05 -8.8135823e-07 1.3825554e-05 1.1848059e-06 2.6576456e-06 3.0114006e-05 -5.4421707e-06 3.253308e-07
-2.9003395e-06 -6.0782127e-06 3.7527523e-05 -1.9294672e-05 -1.643258e-07 6.484962e-06 -2.5340509e-05 2.6562404e-05
-1.7453485e-06 1.31369525e-05 2.0205127e-06 -1.3195276e-05 -1.4340441e-05 0.0 7.689266e-07 -5.2293977e-05
-8.347995e-06 9.429458e-06 -1.3748042e-05 8.984212e-06 9.401356e-07 6.3467874e-06 -7.5861403e-06 2.489253e-06
-7.169679e-07 -4.181479e-06 1.5195119e-05 3.7207376e-06 2.0671496e-05 -1.027526e-05 -3.9254182e-06 5.8973903e-05
1.2625663e-06 -1.0012571e-06 2.026316e-05 2.8339708e-05 -1.4340801e-05 0.0 6.3446614e-06 6.139323e-07
4.0877106e-07 6.487619e-07

hidden_features.2.weight f4 [50, 50]
00000000: 1414 03bb 4fab d8bb caa5 00bd 7064 36bc
00000010: 16fa d63b 19a8 04bc e507 18bc 1aaf e7bb
00000020: 02e2 4cbb d477 f63b d435 d6b9 22cb 803b
00000030: fb30 baba 8eca e1bc 4de9 44bc 2c34 2dbc
00000040: 55b3 0fbc e5b1 aebc adec 9dba bb0e 9bbc
00000050: f6cf 09bc e159 a1bb 3c86 6ebb 595d eebb
00000060: 84c5 c8bb 199d 81bc 8972 273c 8c0d 8cbc
00000070: 4681 113b 6d34 55bc 8645 cbbb 9858 1dbc
00000080: a6d6 9bbb c45c e0bb df7c aebc 17bd 383c
00000090: a188 963c 58b5 24bc 1f6d 40bc 6844 273c
000000a0: 5207 0d3c 9a9b d1bb 280a 3e3b 723c b93b
000000b0: 1ed6 8dba 6757 9ebc ff82 c83b 2d29 17bc
000000c0: 73c9 e9bb 19b6 073c 3a13 d9bb 8bb8 383c
000000d0: 3cd5 56bc 5e5e 02bc cef3 a53b 9a14 0abc
000000e0: 98a4 35b8 7a30 473a 82ba 37bc 0de3 8f3c
000000f0: f1c6 dabb 75ba 6ebb d6e2 0e3c c178 79bb
00000100: 5f59 593b 8302 6a3c 8d48 04bb 2a6a c439
00000110: 9c9c f13b 91fd 2dbc 340a afbc 0763 3a3a
00000120: 8bad 4b3a 912c 0bbc 6b20 80bc b145 41bb
00000130: 45e5 083c dacb 71bc 5769 06bc 8362 3abb
00000140: 4545 483c 59a5 5fbb 6c30 04bc d38e a0bc
00000150: 46a3 76b8 0e61 03bb c748 ba3b 0dc9 30bc
00000160: 42af 95bb 9f36 03bb d6db 273c 9eca a93b
00000170: fbf1 0b3b 12fd b23c 0865 26bc 2cc0 d53a
00000180: 023d 923a 7a1f 94ba 56f9 513c acf8 853c
00000190: 37d3 4a3c 49dc af3b c2d6 0dbb 8f4c 30bb
000001a0: 2b34 1e3b dde9 87bb 3c30 a5bc 2c1c 6fbc
000001b0: 1863 193c c6fa 41bc 37e5 c33b a138 75bc
000001c0: 6dac 44bc 1247 033c 16dd 013c 5b3d cb3b
000001d0: 3b9a 56bb 878e 803c 8c6e bbba 14b0 23ba
000001e0: 4f90 d63b ff85 01bc 77cf 37bc eee8 283c
000001f0: e270 00bc a139 43bc f77a 0abb 313c 473c
00000200: a9b1 493c 4b75 e43b 95a9 84bc e436 45bb
00000210: 3e50 ab3b 19ca 713b ee63 2e3c dfc9 a33b
00000220: 7524 0a3c 0d5d 34bb c097 983b 33cc 7fbb
00000230: e7e6 813c bb14 3b3a 16ec e23b 2f70 5f3c
00000240: 25a2 cdbc 4490 c3bc b36b 3fbc 8486 72bc
00000250: 67dd ccba 912b 633c c522 52bb 54b7 553c
00000260: 9cad bfbb 08d8 8d3a f0f1 4b3c 682b 563b
00000270: bbaf 0bbc bda9 59bb 8727 043c e2c5 553c
00000280: b533 013c 397a 1e3c 12c7 843b 411f 08bc
00000290: d9b5 843a 5f1b 3f3c 92b2 073b f595 383c
000002a0: 1523 c03a 17c3 313c b42b d1bb e245 fb3b
000002b0: 51e5 213b e20b acbc af36 483c 2f32 a63c
000002c0: 44a5 d2bb a65b 8b3c 8761 5abc a031 913c
000002d0: f212 a0bb 6fb3 d5bb 1161 2bbc 0a4b 2abc
000002e0: bcec 793c f3db dbba ec9f 79bc a901 34bc
000002f0: 66b6 1c3c fcfb e73b 8b6a 6dba 297f 973b
00000300: 6816 973c c5f8 e8bb e0f7 553a 28a4 79b9
00000310: 3958 733c c000 04bb 5b71 e7bb 3467 05bc
00000320: b969 a93c 029d 3f3b 5a13 e5bb 8477 03bc
00000330: 15a0 b33b 73ed 3b3c b121 3d3c 6e93 8e3a
00000340: 80ad 8bbc f326 97bb 18a1 883c 818b 713b
00000350: 63ed 74b9 bd3c cdbb 1e15 4c3b 1c59 c23c
00000360: a62e 2abc 06b9 40bb 6635 873c e3cc 303c
00000370: 3582 da3b 9135 a4bc 3b9a d839 d281 fabb
00000380: 13fd cebc 8707 353c 4ffa 2bbc 3b1e 7ebc
00000390: 7fe0 0fbc 702e 6dbc f533 40bb 99f4 70ba
000003a0: e680 58bc 180c 8ebb b96a 9fbc b874 3e3c
000003b0: 1d08 66bc ec41 56bc dd84 8cb9 48e3 ce39
000003c0: 3297 df3b 6e24 903c b467 053b aada 92bc
000003d0: 9a31 ebba 2161 cc3a 5d1a 833b 0c70 42bc
000003e0: 5bf5 f0bb 0293 8abc e5d1 9bbc 72aa cf3b
000003f0: 3735 04bc 6d35 753c 4b76 c13b 4c8a 083a
-0.0020000981 -0.0066122185 -0.03140811 -0.011132345 0.0065605743 -0.008096718 -0.009279226 -0.0070704343
-0.003126264 0.007521609 -0.00040857366 0.0039304653 -0.0014205271 -0.027562406 -0.012018514 -0.010571521
-0.008770783 -0.021325061 -0.0012048684 -0.018927922 -0.008411398 -0.0049240445 -0.0036395928 -0.0072743115
-0.0061270613 -0.01582198 0.010220178 -0.017096303 0.0022202297 -0.013012988 -0.006203356 -0.009603642
-0.0047558127 -0.006846996 -0.021299778 0.011275551 0.018375697 -0.010053001 -0.0117447665 0.01020918
0.008607702 -0.006396723 0.0028997753 0.0056529576 -0.0010821258 -0.019328786 0.0061191316 -0.009226126
-0.0071346103 0.008283162 -0.0066246064 0.011274467 -0.0131123625 -0.007957069 0.005064464 -0.008427763
-4.3307053e-05 0.0007598471 -0.0112139005 0.017564321 -0.0066765477 -0.0036427055 0.008721074 -0.003806636
0.0033164842 0.014282825 -0.0020184845 0.00037463132 0.0073734056 -0.010619537 -0.02136717 0.0007110093
0.00077696954 -0.008494512 -0.015640458 -0.0029491002 0.008355443 -0.014758075 -0.008203826 -0.0028440065
0.012223546 -0.0034125654 -0.008068185 -0.019599354 -5.880303e-05 -0.0020046863 0.0056849453 -0.010790122
-0.0045680115 -0.002002157 0.010245284 0.0051816246 0.0021353948 0.021849189 -0.010155924 0.0016307882
0.0011157098 -0.0011300885 0.012815794 0.016353928 0.012379459 0.005366836 -0.0021642898 -0.0026901101
0.0024139981 -0.0041477517 -0.020164602 -0.014594119 0.009362005 -0.011839574 0.0059782523 -0.014967115
-0.012004 0.00801255 0.007926246 0.0062023825 -0.0032745737 0.015692962 -0.0014299913 -0.0006244194
0.0065479646 -0.007905482 -0.011218897 0.010309441 -0.007839413 -0.011915595 -0.0021130422 0.012160347
0.012310424 0.00697199 -0.016194144 -0.0030092532 0.0052280715 0.0036894141 0.010643942 0.00499843
0.008431544 -0.0027521283 0.004656762 -0.0039031624 0.015857173 0.0007136573 0.0069251163 0.0136375865
-0.02510173 -0.023872502 -0.011683392 -0.014802579 -0.0015629948 0.0138653675 -0.0032064181 0.013044197
-0.0058495533 0.0010821829 0.012447819 0.003267968 -0.008525784 -0.0033212744 0.008066065 0.013047667
0.007885863 0.009672695 0.0040520513 -0.008308233 0.0010124996 0.011664241 0.0020705801 0.011266221
0.0014658893 0.010849736 -0.0063833836 0.007668243 0.0024703334 -0.02100176 0.012220069 0.020287601
-0.0064283926 0.017011475 -0.013328916 0.017723858 -0.004885071 -0.0065216343 -0.010460154 -0.010393867
0.015254196 -0.0016773924 -0.015235882 -0.010986724 0.009564972 0.0070795994 -0.00090567087 0.004623313
0.018443301 -0.0071097338 0.00081622414 -0.00023807643 0.014852577 -0.0020142049 -0.0070630736 -0.008142281
0.020680295 0.002923787 -0.0069908323 -0.0080241 0.0054817297 0.0114701865 0.011543677 0.0010877678
-0.017050505 -0.0046127974 0.016678378 0.0036856832 -0.00023358087 -0.006263344 0.0031140517 0.023724131
-0.010387098 -0.0029407158 0.016504955 0.010791036 0.006668354 -0.020045074 0.0004131364 -0.0076448703
-0.02526716 0.011049158 -0.01049669 -0.015510137 -0.008781551 -0.014476404 -0.0029327844 -0.00091917213
-0.0132143255 -0.004334938 -0.019460069 0.011624508 -0.01404002 -0.01307724 -0.00026801872 0.0003946072
0.006823444 0.017595496 0.0020356001 -0.017926533 -0.001794386 0.0015592912 0.0040009455 -0.011867534
-0.0073534674 -0.016915802 -0.019020984 0.0063374573 -0.008069328 0.014966351 0.005903994 0.0005208596

hidden_features.2.bias f4 [50]
00000000: 4a6d c336 cae5 44b7 eac3 6c39 2c17 6a3a
00000010: 1120 d837 1add 0139 87b4 5b3a fbcd b239
00000020: 0000 0000 a690 81b9 dd84 0038 759c 44b8
00000030: f9c8 1aba 84d0 34b4 6a7d 5f38 0000 0000
00000040: 7ec3 0838 e4d4 1bb8 aa2f 8839 0000 0000
00000050: 743d 1638 9f42 b138 0000 0000 7794 2039
00000060: 6a30 f837 9141 a4b8 376f 8738 0000 0000
00000070: 9b83 2939 c592 7ab9 c1f1 9cb9 6d02 ecb9
00000080: 198d 80ba 5efe 29b9 1e34 c039 d983 a7b7
00000090: 1bb8 0c38 0000 0000 f094 18ba 48e8 3fb9
000000a0: fc13 763a 0000 0000 2e45 5e3a 6a86 0537
000000b0: 822c f339 6076 753a 71a3 4939 c95f b539
000000c0: b89d fb39 720f 35b7
5.824176e-06 -1.1736012e-05 0.00022579698 0.00089298445 2.5764139e-05 0.00012384765 0.00083810877 0.00034104273
0.0 -0.0002471257 3.0641317e-05 -4.6875753e-05 -0.0005904581 -1.6839664e-07 5.3284144e-05 0.0
3.2606993e-05 -3.715315e-05 0.00025975454 0.0 3.582002e-05 8.452427e-05 0.0 0.00015314097
2.9586448e-05 -7.832342e-05 6.458017e-05 0.0 0.00016166123 -0.00023896534 -0.0002993476 -0.00045015235
-0.0009807675 -0.00016211855 0.00036659924 -1.9969348e-05 3.3550063e-05 0.0 -0.0005820533 -0.00018301711
0.0009387133 0.0 0.00084789365 7.9587135e-06 0.00046381733 0.00093636476 0.0001922974 0.00034594376
0.0004799196 -1.0792037e-05

density_estimator_head.weight f4 [50, 11]
00000000: 0a44 493c b6ad d1ba 9572 643c b51e a13b
00000010: 4c3b 96bb 9d34 1abc 29ab 5f3c 63d8 a8bb
00000020: 2925 07bc 7430 c33b a53f c8bb 7ad4 163c
00000030: 9076 cb3c c241 22bb ef5d 573b f3e1 813c
00000040: 0a27 90bb d46c fabb b4ad eb3a b77e 2b3b
00000050: b4ca 7c3c c7ac 233c 7153 2dbb 94e0 8b39
00000060: a551 33bc 4f2a bf3b f64f 763c c81f c1ba
00000070: 3dda 043b a157 1f3c 2274 f03b c981 eabb
00000080: 292e 4f3b 0dc1 b5bb 7be3 04bc c29e bebb
00000090: bfb6 53bb ba1d fcb8 c310 d53b 7fa4 ca39
000000a0: 36f9 61bc c986 30ba 6eb6 853b a826 c53c
000000b0: f4c6 1ebc 4132 073c cd52 563b f4bd 913b
000000c0: 991d 703c a30f 4f3c baf2 aa3c 8a67 c33b
000000d0: 0756 6b3c afe2 42bb 38f0 803b e1b6 c63a
000000e0: 836c b3bb c08c 293b a290 9f3c ab8f cebb
000000f0: ed65 86bc 2d51 81bb 0d9a a53b 4b42 4c3c
00000100: c492 5e3c 2ab5 c2bc 4444 003b 7db5 33bb
00000110: 0988 26bc 1e47 b7bb 14bc f43a 90e0 64bc
00000120: d11a 6439 cc6c d1bb 6373 0f3b ef1c 023c
00000130: edb9 d83c 77b7 283a c11b 7cbb 82b3 85bb
00000140: 6f3a 513c add4 1abc 2673 04bb 0d61 ad3b
00000150: 1b80 ec3b f544 4c3c e2b4 183c 17f0 0ebb
00000160: 92d7 1c3b ae91 483c f1c7 203c de48 793b
00000170: 2cb5 86bb b202 58bc a84c 08bc b671 10bc
00000180: ed2d 34bc 70eb 43bc ad70 afbb 8674 853b
00000190: ba13 f7bb 7647 d93b 9604 d4ba 8039 f3bb
000001a0: 92d8 27bc 92c4 dbbb e841 9cba 6ee2 bc3a
000001b0: bde7 52bc 06fe 823b 518b 863a 8606 8bbc
000001c0: a42e d43c c067 413c 6d2f c2b9 9738 933c
000001d0: 71fc 92bc 0ec7 e33b ccd8 ffbb e553 473c
000001e0: 903e adba d819 48bc ae2b 0e3c e3a4 0ebc
000001f0: 4c5f 19bc 94d9 233b bdd7 49bc de7e c13b
00000200: d2e5 c7bc 9228 9ebb cfdc 933b e60e d63b
00000210: b0ff 693c 98da a13c 57eb 5fbc f661 5c3c
00000220: d6c6 e3bb 225e 303a 376d 81bb 95d3 613b
00000230: 0f22 c1bb 958e ebbb 0718 373b dcf2 da3b
00000240: 7e5c 773c 9049 14bc d9d0 c239 e454 05bc
00000250: fb06 cf3a b469 6c3c 0448 093c ec94 ecbb
00000260: 6098 8c3b a798 1e3c 3963 193a fd3c 15bc
00000270: 65d2 693c e2e0 53bb 12dc fabc 1e31 8ebc
00000280: 0f94 b0ba 7703 72bb 9bed 9bbc ffdc 293c
00000290: 6001 83bb 0bb6 b63a d560 643c 445e d43b
000002a0: 6c84 5dbb aedc 55bb e7d2 253c 422c 3e3b
000002b0: d575 e73a 2ba3 b5bb 2136 96bc 2914 4a3c
000002c0: 85b3 98bc e06f 7bbc 3b50 9dbb 0f4f da3b
000002d0: 9fec 9a3b 8043 a63b 6d9e 31bb 663f 9b3b
000002e0: 8262 df3a 3cf7 763a 9323 193c 8234 473c
000002f0: 2d4f 1a3c 8141 b5bb eb09 7c3b 04a2 3abc
00000300: 8ed1 f43b 00cb f2b9 0a5e 9d3b 4876 0ebc
00000310: 9985 4abc ad44 8b3b 5e21 a8bc 297d 693c
00000320: 3680 813c ff7b 673c 03bd 013c 3ee1 44ba
00000330: ec79 ee3b 0b51 6b3c bd75 9e3a 66c3 e3bb
00000340: 8451 813b 9b93 ee3b 9f0b 83bb 0dfc 87bc
00000350: ee79 89bc 6b39 10bb 2634 493b 9b3c 4a3b
00000360: f6cf 91bb d496 94bc 31a8 ef3b 2adc 743c
00000370: 906e 29ba 28d6 4eba 4349 ae3b 3a79 b53b
00000380: 40ce c539 1307 74bc 0dd1 073c c3fd 263b
00000390: 313e 993b fae0 c83b d657 9a3c 17c9 52ba
000003a0: 5522 61bc 3199 adb9 60b9 8a3c 0032 bdbb
000003b0: 463e edbb 599c 1dbc 06c2 69bc 04e1 823c
000003c0: 2f30 5bbc e1bd c63b 2c74 8238 aa10 063c
000003d0: 7aae 443c 99ad 5d3b c8b1 5cbb d78b 3cbc
000003e0: e1a2 91bc 6982 113c 1ed4 20bb ef03 77bb
000003f0: 9158 813b be3f 8ebc cd65 093b 7cb3 4c3b
0.012284288 -0.0015997204 0.013943334 0.0049169906 -0.0045847055 -0.009411958 0.013651648 -0.0051527484
-0.008248606 0.005956704 -0.0061111026 0.009205932 0.024836808 -0.0024758433 0.0032862385 0.015854811
-0.004399185 -0.007642368 0.0017980845 0.0026168057 0.015429188 0.009989924 -0.002644744 0.0002667947
-0.010944759 0.005833901 0.015033713 -0.0014734203 0.0020271682 0.009725482 0.007338063 -0.007156585
0.0031613207 -0.005546695 -0.008110876 -0.0058172652 -0.003230497 -0.000120218334 0.0065022423 0.00038651002
-0.013792327 -0.0006733952 0.004080585 0.024066284 -0.009690989 0.008251728 0.0032703162 0.004447693
0.014655494 0.012638005 0.020867694 0.0059632706 0.014363772 -0.0029737165 0.0039348863 0.0015160703
-0.005475582 0.0025871247 0.019478146 -0.0063037477 -0.016406024 -0.0039464445 0.0050537647 0.012466977
0.013584796 -0.023768026 0.001957194 -0.0027421408 -0.010164269 -0.0055931946 0.0018671774 -0.0139695555
0.00021753764 -0.0063911434 0.0021888844 0.007941469 0.026455844 0.000643603 -0.003846869 -0.004080237
0.012770279 -0.00945012 -0.0020210235 0.0052911104 0.00721742 0.0124676125 0.00932047 -0.0021810585
0.00239322 0.012241764 0.009813295 0.0038037817 -0.004110953 -0.013184236 -0.0083190575 -0.008816173
-0.010997278 -0.011957988 -0.005354008 0.0040727286 -0.0075401934 0.0066308333 -0.0016175683 -0.007422626
-0.0102445055 -0.0067067826 -0.0011921497 0.0014410743 -0.0128726335 0.003997567 0.0010264908 -0.016970884
0.025901146 0.011804521 -0.00037037898 0.01797132 -0.017942639 0.0069512194 -0.0078078266 0.012165998
-0.0013217498 -0.012213193 0.008677406 -0.008706304 -0.009361099 0.0025001513 -0.012319502 0.0059050163
-0.024401579 -0.0048266137 0.0045124064 0.0065325378 0.014282152 0.019757554 -0.013666949 0.01345109
-0.0069511933 0.0006727894 -0.003949787 0.0034458388 -0.0058939527 -0.007188628 0.0027937905 0.006681783
0.015097735 -0.009050742 0.00037158167 -0.008137915 0.0015794927 0.014429498 0.008378986 -0.0072199013
0.0042906255 0.00967995 0.0005851272 -0.009108779 0.014271353 -0.0032330086 -0.030622516 -0.017357405
-0.0013471859 -0.0036928335 -0.019034198 0.010367631 -0.0039979666 0.0013939751 0.013939102 0.006480964
-0.0033800853 -0.0032632756 0.010121084 0.002901808 0.0017659018 -0.005543133 -0.018336358 0.012333908
-0.01864029 -0.015346497 -0.004800824 0.0066622566 0.0047279145 0.0050739646 -0.0027102486 0.0047377823
0.0017042907 0.0009420996 0.00934686 0.012158515 0.009418291 -0.0055314903 0.003845806 -0.011391167
0.00747127 -0.00046309084 0.00480247 -0.008695193 -0.012360954 0.00425013 -0.020523723 0.014251032
0.015808206 0.014128684 0.007918599 -0.00075103703 0.007277718 0.014362584 0.0012089532 -0.0069507835
0.003946485 0.0072807795 -0.003999188 -0.01659968 -0.016781773 -0.002200688 0.003070125 0.0030858878
-0.0044498397 -0.018138327 0.007313751 0.014945069 -0.00064633135 -0.0007890188 0.005318792 0.005538133
0.00037728436 -0.014894265 0.008289588 0.0025480844 0.0046766032 0.006130335 0.018840712 -0.0008040829
-0.013741096 -0.00033111268 0.016934097 -0.0057737827 -0.0072400896 -0.009619796 -0.01426745 0.015976436
-0.013378187 0.006065116 6.220522e-05 0.008182684 0.012004489 0.0033825396 -0.0033675302 -0.01150795
-0.017777862 0.00888119 -0.0024540494 -0.0037691554 0.0039473255 -0.017364379 0.002096522 0.003123491

density_estimator_head.bias f4 [11]
00000000: dfce 0cbd 79df d3bc b383 edbb 7528 e1ba
00000010: ed12 aa3b f228 54bb 20bd 8c3b 63b3 e33b
00000020: 8e49 123c e1d5 e73c 44da 993c
-0.034376975 -0.025863396 -0.007248366 -0.0017178195 0.0051902444 -0.0032373038 0.0042950064 0.006948875
0.00892867 0.028300228 0.018780835

Q1.0.weight f4 [50, 50, 5]
00000000: 7b87 bebf 06a7 3dbe 633b fb3e 0100 07bf
00000010: 2684 c63f f983 9ebf d7e7 333f fa38 bf3f
00000020: e4d2 b93f 686b 3abf e1cd 963f 7874 bdbe
00000030: 302b 833f 97b3 553f 6bb2 cf3e 22c6 a0be
00000040: c57c b63f f43c 1ec0 0b62 0d3f 23e2 16be
00000050: 501e 813e 40d0 5b3f 2470 a1bf 0291 5ebe
00000060: 5b9f 363f a57e d43e 896d bc3e ab2c 85be
00000070: 8425 813e 552f 823e fc5c f73f 1c2d c53f
00000080: 79d7 fb3e 14ed 403f 4904 04bf 2386 97be
00000090: 6171 803d 66bf e8be bb69 c5be 1038 d3bf
000000a0: 1dd8 95bd 60cd 9a3f 1136 efbf 321d 8abd
000000b0: 54ff 073f 6ea8 40bf c162 063f 3b4b ab3f
000000c0: af73 f3bf 2d3a 773e ea6a cf3f 23c8 673e
000000d0: b4ff 82bf bb33 ecbf a968 b33f a85b 6fbf
000000e0: a1a1 57bf 0549 bd3f 7a05 97bf 46f0 6fbd
000000f0: f1eb bc3f cd0e 2cbe 9dc4 863f c7f9 573f
00000100: b411 41bf bbb6 7abd 8fc2 6e3f b3e1 e9bf
00000110: ffa1 f43f dd0b 80be e145 8abf 19a7 283d
00000120: b825 78be 0aa0 993f f490 29bf 493c a0be
00000130: 826e 313f 0307 8f3f 1b2c 0a3e 7176 5d3f
00000140: d97c 243d 9074 79bf c3da 3f3f 844a 1dbe
00000150: 9fcc 8f3e 45b2 ab3e 5c90 3a3f be80 7a3e
00000160: b9eb 19bf 9aac 8cbe ca11 26bf 426b 11bf
00000170: 8ea2 c9be 1632 943f 93f0 603f 0aca 773f
00000180: 9683 75bd 61e5 b33e 2490 803d b4d5 6dbe
00000190: bcfd 2cbf f15b 04bf cad6 e03f 0b95 703e
000001a0: 1393 c8be f7dc 083f dda7 5bbf 6dd5 ea3f
000001b0: bba7 753e e3b5 f23f 3b31 9c3f f419 163f
000001c0: b95f aebf 8416 ae3f a36f c03f 4759 a23f
000001d0: d6bf 213f 536f ddbf 09aa de3e 92c6 3a3f
000001e0: 0240 983d 42bf 7a3d 2a5b 713f 963a 58bf
000001f0: 4374 c8bf b6ff f03f d172 463f 3807 0c3f
00000200: fb68 28c0 92ff 5fbe 042f 453f e5bb 46bf
00000210: fd7d 4fbf 70e2 8c3f 5624 523f 8771 57bd
00000220: 2a60 b1be 752e 8cbf cfa7 843e f5c3 61bf
00000230: 142d 8f3f f8b3 f23f fa94 6e3f 805d 6f3f
00000240: 7077 e4be cf1a 1c3e 1d52 26be 0099 993f
00000250: 071b 17bf f953 f7be 9e92 35be 3cc1 e63f
00000260: 8065 973f 95ce 103f 688b b9be 3aa3 a43f
00000270: da80 793e c456 b43f f935 d7bf 2ff3 813f
00000280: 6552 88bf 02f6 db3f 7f01 b6bf 29d2 973f
00000290: 4b0f 0ebf 1a16 283f 1980 b6bf ddcf 853f
000002a0: 82e5 0240 d1bc 363f ab13 553f 15f2 ab3f
000002b0: 9c82 bc3e d586 863f 1675 fdbe 45a4 e4be
000002c0: ceb9 7e3f 13af ed3f d2e8 71bf cd5c 63bf
000002d0: 52a3 39bf b408 d93e d343 08bf c9fd d2be
000002e0: 7989 c0bf 86f6 97be 4d0b f63d 672c b03f
000002f0: 1467 b6bf 5887 53bc 4fd9 a6be 09c8 45bf
00000300: cdbc d2bf 978e 8a3f 131f e73e aba3 cc3f
00000310: cd70 78bf 1dbf 7d3f 44e4 16bf d56d 8dbf
00000320: d894 403e bb39 523f 684b 0dbf 1b3c 5ebf
00000330: 85ce e0bd c222 133f cfa0 b93d 8405 b3bf
00000340: 9530 873f f426 833e 704c 01be 3c76 443c
00000350: 4b97 02c0 5802 e0be da42 33be d1d2 683e
00000360: d28d a93e d824 6a3f d325 423f d8dc d23f
00000370: 02d8 4a3e 3f4b 683f 953a 173f a34e 893f
00000380: 1f32 ebbe 2f3a 913f 7a4f 443f d397 0ebf
00000390: b79e 973b 5794 543e 2203 b6be 1aa4 c6be
000003a0: 6ddd 1fbe 47a7 1ac0 22ba 6ebf f902 8b3e
000003b0: 9a14 bcbf 95af 8abf 94d4 ecbe 903a 243d
000003c0: 63d9 debe dcf8 073e 7e41 1bc0 230c 113f
000003d0: 69ac 1c3f 343a a53d dd4a b4bf 5732 263f
000003e0: 461f f5bf 457b 3c3d 2959 02bc 3586 093e
000003f0: 006e 86bf d479 b93e 80ee a8bf 21ec 5f3d
-1.4885095 -0.18520746 0.49068746 -0.5273438 1.5509079 -1.2384025 0.70275635 1.4939263
1.4517484 -0.7282014 1.1781579 -0.3700292 1.0247555 0.8347716 0.4056581 -0.31401163
1.4256827 -2.4724703 0.55227727 -0.14734702 0.2521844 0.8586464 -1.2612348 -0.21735004
0.7133691 0.41502872 0.3680232 -0.2601064 0.25223935 0.25426736 1.9325252 1.5404391
0.4918783 0.7536175 -0.5156904 -0.29594526 0.06271625 -0.45458525 -0.38557228 -1.6501484
-0.07316611 1.2093925 -1.8688375 -0.0674385 0.53123975 -0.75257003 0.52494437 1.3382334
-1.9019679 0.24143286 1.6204503 0.2263494 -1.0234284 -1.8453287 1.4016315 -0.9349923
-0.84231 1.4787909 -1.1798546 -0.058578752 1.4759504 -0.16802521 1.0528752 0.84365505
-0.7541764 -0.06120942 0.9326562 -1.8272003 1.9111937 -0.2500905 -1.0802575 0.04117498
-0.24233139 1.2001965 -0.66236806 -0.31295994 0.69309247 1.1174015 0.13493387 0.8650885
0.040158127 -0.97443485 0.7494318 -0.15360457 0.280858 0.33534446 0.72876525 0.24463174
-0.6012531 -0.27475435 -0.64870894 -0.5680429 -0.39381832 1.1577785 0.8786709 0.9679266
-0.059939943 0.3513594 0.06277493 -0.23226053 -0.6757467 -0.5170279 1.7565548 0.23494355
-0.3917471 0.53462166 -0.85803014 1.8346382 0.23989765 1.8961757 1.2202524 0.5863335
-1.3622962 1.3600621 1.5034069 1.2683495 0.63183343 -1.7299598 0.43489102 0.72959244
0.074340835 0.061217554 0.9427973 -0.84464395 -1.566048 1.8828037 0.77518946 0.54698515
-2.6314075 -0.21874836 0.77024865 -0.77630454 -0.8105162 1.1006603 0.82086694 -0.052598502
-0.3464368 -1.0951678 0.25909278 -0.8818963 1.1185632 1.8961172 0.9319607 0.93502045
-0.44622374 0.15244602 -0.16242261 1.1999817 -0.59025615 -0.48306254 -0.17731711 1.802772
1.182785 0.5656522 -0.3623917 1.2862313 0.24365559 1.4088979 -1.6813346 1.0152339
-1.0650145 1.7184451 -1.4219207 1.1861011 -0.55492085 0.65658724 -1.4257842 1.045406
2.045258 0.7138186 0.83233136 1.3433253 0.36818397 1.0509897 -0.49503392 -0.44656578
0.99502265 1.8569053 -0.9449588 -0.8881348 -0.7251483 0.42389452 -0.5322849 -0.41209248
-1.5041953 -0.2968027 0.12013874 1.376355 -1.4250207 -0.012910686 -0.32587668 -0.77258354
-1.6463867 1.0824765 0.45140895 1.5987448 -0.9704712 0.9911974 -0.58942056 -1.1049143
0.1880678 0.8211934 -0.55193186 -0.86810464 -0.109768905 0.5747491 0.09063875 -1.3986058
1.0561701 0.25615656 -0.12626815 0.01199108 -2.0404842 -0.43751788 -0.1750597 0.2273667
0.33116013 0.9146247 0.75838965 1.6473646 0.19808963 0.90739816 0.59073764 1.0727123
-0.45936677 1.1345881 0.7668377 -0.55700415 0.0046270746 0.20759712 -0.35549265 -0.38797075
-0.15611811 -2.4164598 -0.93252766 0.27150705 -1.4693787 -1.0834833 -0.46255934 0.040094912
-0.43525228 0.13278526 -2.4258723 0.56659144 0.6120058 0.08067742 -1.4085346 0.6492056
-1.9150169 0.046015996 -0.007955828 0.13430102 -1.0502319 0.3622576 -1.3197784 0.05466855

Q1.0.bias f4 [50, 5]
00000000: 3027 7f3c 22df 6f3c 90b2 603c 0675 bc3b
00000010: 0c17 8d3a 8452 f4bb a538 afbb 9eec 8bbb
00000020: d636 caba c262 82b9 0000 0000 0000 0000
00000030: 0000 0000 0000 0000 0000 0000 4c20 f63b
00000040: 1bed 1b3c e49e 163c ddef 783b a5c1 383a
00000050: 4144 3d3a c44c b4ba 7675 c5ba 5611 14ba
00000060: b465 f0b8 020c 1ebb 28cb 07bb 2f05 f8ba
00000070: 0d05 4bba 5089 1ab9 6d96 f2ba 4076 8bba
00000080: ad8c 50ba b1cd 96b9 9d83 64b8 6d9b 7439
00000090: c8a3 af39 a12f 8f39 b6b4 cb38 2ae1 0538
000000a0: 238b 80bb 0e02 5fbb 12b7 49bb f19c a4ba
000000b0: ed9d 85b9 3b00 423a e169 403b 8730 0a3b
000000c0: 1edb a039 8412 c8b8 e608 f7ba ac02 07bb
000000d0: 9896 11bb 460c 8cba f5e3 89b9 7917 b3ba
000000e0: 986b 20b9 bafe 1139 c563 ec38 2c38 1238
000000f0: 0000 0000 0000 0000 0000 0000 0000 0000
00000100: 0000 0000 6f8f e1bb 3706 8fbb 67a4 5bbb
00000110: 4939 9dba 3df2 4db9 cf4f 2ab9 4c90 1eb9
00000120: d8c6 13b9 15a3 76b8 765d 4ab7 fb39 433b
00000130: f60e aa3b 8bbe a43b 9074 033b 43fe c039
00000140: ed61 4cbb 2521 33bb 0a98 1fbb 0f6d 7eba
00000150: b3fa 3cb9 656e d93a 475b 623b f553 5f3b
00000160: 005c b63a d642 8739 fbe7 bd3c 4f4e 993c
00000170: fa2d 8a3c cf2f e43b 6b37 ab3a 9c47 6a3a
00000180: 4089 813a 8a53 d8b8 0ce3 16ba 9752 8fb9
00000190: 33c3 923c ca7f 593c 9c62 413c b76f a03b
000001a0: 4d77 703a 4df2 8f3c 511f 843c afe4 733c
000001b0: 5085 c93b 6b3e 973a 1054 a33c 867d a13c
000001c0: 8438 973c 5aaf fa3b cb94 b73a 36db 2f3c
000001d0: ed20 cf3b b307 b03b d759 143b 9830 db39
000001e0: e370 b53c 8c9f 3e3c 75ee 1c3c a377 843b
000001f0: a94b 4f3a f435 dbba 32af 27bb 4106 30bb
00000200: da74 9aba 99f0 81b9 0000 0000 0000 0000
00000210: 0000 0000 0000 0000 0000 0000 b3c7 e2ba
00000220: 19e1 1fba 5a73 8cb9 4c50 54b8 c19f 58b6
00000230: 36bd 80bb f492 4bbb 449f 2dbb 9b54 89ba
00000240: cdaa 28b9 2bfc fdba bafc d7ba e3a2 c0ba
00000250: c4fa 1aba 2c88 f2b8 0000 0000 0000 0000
00000260: 0000 0000 0000 0000 0000 0000 fd2d ca39
00000270: 7d50 6ab9 bd76 2bba 939e f5b9 5670 26b9
00000280: 0000 0000 0000 0000 0000 0000 0000 0000
00000290: 0000 0000 3056 113d 1225 b33c 15fb 963c
000002a0: b08b f73b 016b ba3a 2b0b 2d3d c57e f73c
000002b0: 916d d93c 876a 333c 8212 073b 1241 4eb9
000002c0: 460a 8e3a ee54 9e3a 4f51 093a 6d40 f738
000002d0: 70b2 193d 3657 a73c 83aa 873c 66db dd3b
000002e0: fb7a a83a c972 1038 986b db36 8054 9635
000002f0: 0000 0000 0000 0000 92d3 b1b8 e287 de38
00000300: 91b1 4039 f97a bb38 87fa 3b36 1e30 a2b8
00000310: 3e71 e2b8 27ca d2b8 21aa 2fb8 3a0a 1fb7
00000320: 88b8 0dbc d008 02bc 0d59 f1bb a123 49bb
00000330: fad8 2aba ec59 ccbb 8aee c0bb 6ad2 b3bb
00000340: e6a5 15bb 1484 f6b9 5c7e cdba 719c c5ba
00000350: 1889 beba 9ef4 24ba a1b7 19b9 0000 0000
00000360: 0000 0000 0000 0000 0000 0000 0000 0000
00000370: d515 c7bb a4d7 55bb 2fd6 40bb 1f58 afba
00000380: df4a 91b9 0477 a63b 2b6e 1cbb 945d 5fbb
00000390: a4d1 c0ba 8bcd 98b9 65fc e1bb 5b11 b0bb
000003a0: 9354 95bb 6b14 e6ba 3abb aab9 d78f b63c
000003b0: edc1 733c 77e2 503c fa4a aa3b 0520 803a
000003c0: 2452 6c3c 7f1f 973c 5629 933c 338e f53b
000003d0: 040b b73a 9889 a2bb 32e5 3dbb 895a 0cbb
000003e0: fd67 46ba d7e2 07b9
0.015573308 0.014640601 0.013714448 0.005751255 0.0010764315 -0.0074561257 -0.0053473287 -0.0042701503
-0.0015427719 -0.00024869113 0.0 0.0 0.0 0.0 0.0 0.0075111743
0.00951698 0.009193156 0.0037984767 0.0007047898 0.00072199485 -0.0013755788 -0.0015064913 -0.0005648335
-0.000114630355 -0.0024116044 -0.0020720456 -0.0018922443 -0.0007744588 -0.00014737737 -0.0018507965 -0.00106401
-0.00079555326 -0.00028763482 -5.448201e-05 0.00023327554 0.00033500628 0.00027310572 9.713454e-05 3.191937e-05
-0.0039228364 -0.0034028324 -0.0030779284 -0.0012558979 -0.000254854 0.0007400547 0.0029359984 0.0021086053
0.00030680833 -9.540192e-05 -0.0018847256 -0.0020600958 -0.0022215005 -0.001068481 -0.00026300517 -0.0013663612
-0.00015298871 0.0001392317 0.000112719405 3.4861427e-05 0.0 0.0 0.0 0.0
0.0 -0.0068835537 -0.0043647545 -0.003351474 -0.0011995222 -0.00019640564 -0.00016242194 -0.00015121809
-0.00014093088 -5.8802852e-05 -1.2061899e-05 0.0029789198 0.0051897718 0.0050275973 0.002005849 0.00036810533
-0.0031186298 -0.0027332988 -0.0024352097 -0.0009705582 -0.0001802247 0.0016588686 0.0034539269 0.0034077142
0.0013912916 0.00025799003 0.023181906 0.018714098 0.016867626 0.006963707 0.001306278 0.0008937062
0.0009882823 -0.00010315243 -0.00057558785 -0.0002733662 0.017915344 0.013275096 0.011803295 0.00489613
0.00091730506 0.017571593 0.016128214 0.014886065 0.0061499253 0.0011538988 0.019937545 0.019713175
0.018459566 0.007650298 0.0014006136 0.010733416 0.0063210637 0.0053720116 0.0022636557 0.0004180714
0.022148555 0.011634719 0.009578337 0.004042582 0.00079076976 -0.0016724453 -0.0025586602 -0.0026859196
-0.0011784092 -0.00024784057 0.0 0.0 0.0 0.0 0.0 -0.0017301947
-0.0006098911 -0.00026788824 -5.061952e-05 -3.2279497e-06 -0.0039288057 -0.0031062933 -0.0026492635 -0.0010477485
-0.00016085357 -0.001937752 -0.0016478517 -0.0014696982 -0.0005912001 -0.00011564823 0.0 0.0
0.0 0.0 0.0 0.00038562706 -0.00022345963 -0.00065408257 -0.00046848189 -0.00015872842
0.0 0.0 0.0 0.0 0.0 0.035482585 0.021868262 0.018430272
0.007554494 0.0014222563 0.04224698 0.030211816 0.026541503 0.010950691 0.0020610397 -0.00019669931
0.0010836802 0.0012079754 0.0005238251 0.00011789878 0.037523687 0.020427328 0.016560799 0.006770539
0.0012854034 3.4439177e-05 6.539234e-06 1.1200464e-06 0.0 0.0 -8.479426e-05 0.00010611095
0.00018376696 8.93976e-05 2.8010998e-06 -7.7337245e-05 -0.00010797613 -0.00010051234 -4.1881696e-05 -9.47952e-06
-0.008649953 -0.007936671 -0.007365352 -0.0030691402 -0.00065173174 -0.0062363055 -0.005887811 -0.00548773
-0.002283448 -0.00047019182 -0.0015677917 -0.001507653 -0.0014536707 -0.00062925543 -0.00014659624 0.0
0.0 0.0 0.0 0.0 -0.0060756006 -0.0032629753 -0.0029424538 -0.0013377703
-0.00027712338 0.0050801057 -0.0023869376 -0.0034082877 -0.0014710915 -0.0002914484 -0.006896543 -0.0053731627
-0.004557201 -0.0017553692 -0.0003256442 0.022285385 0.0148777785 0.012749306 0.005196926 0.0009775168
0.014423881 0.018447636 0.017964046 0.007493758 0.0013965075 -0.00496025 -0.0028975722 -0.0021416268
-0.0007568596 -0.00012959108

Q1.1.weight f4 [50, 1, 5]
00000000: fae0 d13e 8a67 1cc0 08d3 f13e 2d05 123e
00000010: e889 103f 63a4 3240 efa7 b1bd a15a c4bf
00000020: c393 553f fac6 d2ba 7e96 5ebf 20c0 ff3e
00000030: 7046 e03e c379 c13f e77d 8ebf 1261 823e
00000040: a1fb b43e 83b9 d0bf be30 c1bc be34 0ec0
00000050: 1d5c 14bf c27a 77be 726d 823f bc67 a33e
00000060: 1926 ba3e 4b35 fdbc 74a9 573f a114 7e3d
00000070: abe1 103f f9c4 f63f 5017 913f e760 db3f
00000080: 229d 97be 4df1 fdbd 575e 2f3f b465 1c3f
00000090: debc 04bf d7cb 063f d3e2 883d 39b7 67bf
000000a0: 4655 f23f 693d 2dbf 5b5b ad3f 764e 9abe
000000b0: 614e 703f 7648 f83f 1ba8 893b 2e5f 95bf
000000c0: df3a 543f 1e11 eebe 30dd d33f 864d b83e
000000d0: 0987 bbbf f479 a63f 026d 73bf 6bfd 423c
000000e0: 1bde c03e 432d 2e3e d0de cebf 0a7d a93d
000000f0: a5da c3be c4a1 c0be beb1 f5bf 42ac bebf
00000100: 6490 0cc0 a5e0 913e efcf 333f f439 973e
00000110: 4328 af3e a4d9 2cbe e528 d53e 764a 9b3e
00000120: 55b6 07bf ca41 183d 6af7 6f3e 799f 5c3e
00000130: 9f10 493f da87 64bf ea64 07c0 04d2 49be
00000140: 0661 483f abb6 97bf ff6d fe3e b879 473f
00000150: 9c52 fbbd 33b2 b63e 11c4 383d 0d62 80bf
00000160: 9e60 963d e2cc 23bf 77e9 4ebe 0ee3 f1be
00000170: 2492 29bf 4b14 a5bf 7aeb b1bd bb4e 433f
00000180: d7c4 153f 97ed 953f 1a46 9dbf eb7e 613f
00000190: 59ef 91be f8fa 8dbe 91cd a3bf 0780 983f
000001a0: 3994 c13e 6616 313d 28d5 60be 644e 75bf
000001b0: 126b 9fbf 0f48 3dbf c41e 8f3e e024 3fbf
000001c0: 265f aebf 4696 e4bf 4eb9 6ebf cc19 89be
000001d0: 2980 61bf db21 873e 5a37 883e e89b a4be
000001e0: 76aa 95bf 2b80 a93e efe1 0f3d 9264 29bf
000001f0: 0f53 5dbf 3d6a 43bf fd56 da3e c749 813f
00000200: beb1 6b3e 3d49 abbe ea46 77bf 43ea d33e
00000210: 5c72 c03f ab34 3940 f0c8 e73e 7550 f33e
00000220: 16b3 3e3f f0af 8dbe fb7f 373f 3b96 06c0
00000230: bb85 fe3e 8824 0540 af30 7cbd 1ae9 a0be
00000240: b5bf 0abf c254 473f 9994 adbf 63c9 6c3f
00000250: 6987 d53f c09c 973f 8dd3 06c0 2d9b a13f
00000260: 719d e9bf 2e6e f83e afc8 94bf 5b86 e4be
00000270: 1e4e 0540 d780 9f3e 8bc8 fabd 122b 683e
00000280: 07eb 15bf 467c 003f f015 1940 13fc aebe
00000290: f927 8fbf bfc3 a0bf a1a3 1d3f ffd5 94bf
000002a0: 338f 21bf d2ff c93f 88ea 68bf b68b f3bc
000002b0: 6d5c 05c0 43df b93e 8426 0fbe f1a0 1e3f
000002c0: 050c f0bf bfd4 833d 7f43 c03e bea0 16bd
000002d0: 6925 c4bf 2ea4 aabc c615 793e e15c 08bf
000002e0: cbb9 84bf b8ac 10bf c379 853c 3d04 78be
000002f0: 90a8 92bf 71f9 183f ebae 05bf f30f 123f
00000300: 02a6 913f f369 83bf 6902 de3e 1e96 c3be
00000310: 5734 363f 25a5 723e 2186 1abd 7429 d53e
00000320: 164e acbb 2259 7fbe fd25 c73f 2972 71bf
00000330: 8cd2 8d3f 3c4c 33bf d477 933e be8b be3f
00000340: d00e aa3f a674 3c3f 1ec9 6e3e cf62 babe
00000350: 419a 543f 35fe 2a3f 8dcd 10bf d3d7 3dbf
00000360: ae99 02bf 9008 aabe 8d85 8ebf 3978 bbbf
00000370: 7466 0140 4293 d83d cf97 01be 7b04 35bf
00000380: eccd 7b3f c5f4 43bf ecf4 82bd cb5a 8f3f
00000390: d05f 5b3f fb20 55bf 869c 923e be17 583f
000003a0: 5115 483f b834 563e 2652 1abf 43f7 46bf
000003b0: a186 943f f05a 9dbf fc00 c2bf bfe0 2e3f
000003c0: 4124 3c3f 3429 6abf 5514 00c0 e695 1bbd
000003d0: d29a 343f 50fa b83f 0bfb 67be 55b2 fb3e
000003e0: 8dcd 7a3e 6778 4c3f
0.40991956 -2.4438195 0.47231317 0.14259787 0.5646043 2.7912834 -0.08674609 -1.5340158
0.8342859 -0.0016081028 -0.8694838 0.49951267 0.4380374 1.5115284 -1.1132172 0.25464684
0.35348228 -1.6306614 -0.023582812 -2.2219691 -0.57953054 -0.24167922 1.018965 0.3191508
0.3635719 -0.030909201 0.8424294 0.062031392 0.5659434 1.9278861 1.133524 1.7138947
-0.2961207 -0.1239954 0.68503326 0.61092687 -0.5185069 0.52654785 0.06683888 -0.9051395
1.8932273 -0.6767183 1.3543504 -0.30137986 0.93869597 1.9397113 0.004200948 -1.1669672
0.8290233 -0.46497434 1.6551876 0.35996646 -1.4650584 1.3005967 -0.9508821 0.01190124
0.37669453 0.17009453 -1.6161747 0.082758024 -0.3825275 -0.37623417 -1.9194868 -1.4896319
-2.196313 0.28491703 0.70239156 0.29536402 0.34210405 -0.16879898 0.41632763 0.30330247
-0.5301259 0.037172116 0.23434225 0.21545209 0.78540987 -0.89269793 -2.1155343 -0.19709021
0.78273046 -1.1852621 0.49693295 0.77920103 -0.12271616 0.3568283 0.04510886 -1.0029923
0.07342647 -0.639845 -0.20206247 -0.4724354 -0.6623862 -1.2896818 -0.08687492 0.7629201
0.5850348 1.1713132 -1.2287018 0.88084286 -0.2850292 -0.27730536 -1.2797109 1.1914071
0.37808397 0.04323425 -0.21956313 -0.9582274 -1.245455 -0.7393808 0.2795316 -0.7466564
-1.3622787 -1.785836 -0.932515 -0.26777494 -0.8808618 0.26393017 0.2660473 -0.32150197
-1.1692646 0.33105597 0.035127576 -0.66169083 -0.8645486 -0.7633398 0.42644492 1.010064
0.23017022 -0.33454314 -0.9659258 0.41389665 1.50349 2.8938396 0.4527049 0.4752232
0.74492013 -0.27673292 0.7167966 -2.1029193 0.49711403 2.0803547 -0.061569866 -0.31427842
-0.5419877 0.77863705 -1.3560973 0.9249479 1.6681949 1.1844711 -2.106662 1.2625481
-1.8251172 0.4852156 -1.1623744 -0.44633755 2.082893 0.31152984 -0.12245282 0.2267268
-0.5856175 0.50189626 2.391964 -0.34176692 -1.1184074 -1.2559737 0.615778 -1.1627806
-0.6310913 1.5781195 -0.90982866 -0.029729705 -2.0837662 0.36303148 -0.13979536 0.6196433
-1.8753668 0.064370625 0.37551495 -0.03677439 -1.5323917 -0.02083024 0.24324712 -0.5326672
-1.03692 -0.5651355 0.016293412 -0.24220367 -1.1457691 0.5975562 -0.5222003 0.57055587
1.1378787 -1.0266708 0.43361214 -0.38200468 0.71173614 0.2369581 -0.03772557 0.4163319
-0.005258332 -0.24936345 1.5558468 -0.9431482 1.1079879 -0.700382 0.2880236 1.4886396
1.328577 0.7361549 0.23318908 -0.3640351 0.8304787 0.6679414 -0.56563646 -0.74157447
-0.51015747 -0.33209658 -1.1134506 -1.4646064 2.0218782 0.10574962 -0.12655567 -0.7070996
0.98361087 -0.76545364 -0.063943714 1.1199583 0.85693073 -0.8325345 0.28635043 0.8441123
0.78157526 0.20918548 -0.602816 -0.7772104 1.1603585 -1.2293377 -1.515655 0.68311685
0.7349282 -0.9146912 -2.001241 -0.03798475 0.7054874 1.4451389 -0.22654359 0.49159494
0.24492474 0.7987122

Q1.1.bias f4 [1, 5]
00000000: 5b8b c3bc b373 51bc bc14 29bc f569 8abb
00000010: 90f8 51ba
-0.02387016 -0.0127839325 -0.010319885 -0.004224057 -0.0008009756
