CausalCVR/logs/simu3/eval/32/Vcnet_tr_ckpt.pth.tar (torch, 123637 bytes, 18 tensors)

feature_weight.weight f4 [50, 8]
000000 3d 11 09 3c c3 35 26 bb 47 b1 88 3a 28 e2 33 3b
       0.008365926 -0.0025361634 0.0010428809 0.0027448032
000010 d1 c1 5b 3b 47 0a 58 bc 4a 0b 96 3b 6b d6 cc 3b
       0.0033532272 -0.013186044 0.0045789825 0.0062511466
000020 71 2a 88 3b a3 b8 07 3a f0 32 8a 3c 3d 8d 37 3c
       0.00415545 0.00051773543 0.016869992 0.011203107
000030 19 f3 c7 3b 0b 4b 7b 3c 7d 4b a7 3b 9f fa a0 bb
       0.0061019775 0.015337716 0.0051054345 -0.004912689
000040 9f 5d ae bb 6b 7f d1 3b 99 73 8d 3b 47 d1 09 bc
       -0.005321219 0.0063933632 0.004316759 -0.008411712
000050 bc 73 17 bb 07 e7 0d 3c 04 94 a9 3a 24 92 87 bc
       -0.0023109755 0.008661038 0.0012937789 -0.016549177
000060 c0 54 81 3c 67 ca 16 bc 2c 71 39 3b f0 89 44 bc
       0.015787482 -0.00920353 0.0028296215 -0.0119957775
000070 5d 31 0c 3c d7 03 f0 3b 43 84 1c 3c 28 61 60 bc
       0.008556691 0.0073246765 0.009553018 -0.013695039
000080 7b 06 2d 3b 8e 69 ac 3b a2 c4 2f 3c 24 9e 5c bc
       0.0026401568 0.0052616065 0.010728033 -0.013465438
000090 99 0c d3 bb ec f9 67 bc ff ac 00 ba 27 7f 85 bc
       -0.0064407107 -0.014158707 -0.0004908591 -0.016295983
0000a0 bb 77 9e 3c a7 a3 5d 3c 37 c3 17 3b b9 d3 47 bc
       0.019344201 0.013527787 0.0023157129 -0.012196475
0000b0 06 1e e4 bb 0e 4c 64 bb 74 01 5a 3c 53 7a 22 bc
       -0.006961587 -0.0034835371 0.0133060105 -0.00991686
0000c0 11 36 20 bc 69 21 06 3c b3 62 8e 3c ed 80 17 bc
       -0.009778515 0.008186677 0.017381048 -0.009247047
0000d0 3b 28 54 3b f6 d2 27 bb 6d 5b b1 ba 52 d0 4b bc
       0.0032372612 -0.002560792 -0.0013531275 -0.012439804
0000e0 c3 e0 95 3b b2 47 57 3c 0b dd 16 3c 47 d2 a3 bb
       0.004573913 0.013139652 0.009207974 -0.0049994322
0000f0 b8 75 21 3c 39 5e 33 bb 5f f1 56 b9 f1 60 db b7
       0.0098547265 -0.0027369394 -0.00020498548 -2.6151976e-05
000100 ec 61 1c 3b 50 43 3c bc a6 f5 1f 3c b4 60 c9 3b
       0.0023862077 -0.011490658 0.009763157 0.006145561
000110 22 9a 50 bb 91 95 b4 bb 1a 08 e7 b9 bc 6b a1 bc
       -0.0031830152 -0.005510994 -0.0004406579 -0.019704692
000120 9a 9e d4 bb d6 be 39 bb de 32 5c 3b 96 ce 76 bc
       -0.0064886333 -0.0028342507 0.0033599655 -0.015063902
000130 43 51 96 3b 2a 47 81 bb 0e 0d 84 bc a5 ae 93 bb
       0.004587324 -0.003945251 -0.016119506 -0.0045069032
000140 b3 55 aa bb fa 01 76 3a 82 a8 21 3c d8 dd 41 3c
       -0.0051982044 0.000938445 0.009866836 0.011832677
000150 85 3d 91 3b fa 58 0a bc 90 ac 4c 3c 5b 85 74 b9
       0.0044323825 -0.008444065 0.012492314 -0.00023319332
000160 db 9c e3 bb b3 39 50 3b 16 4c 23 bc a9 d3 85 3c
       -0.006946189 0.0031772673 -0.009966871 0.016336279
000170 3b 33 0c 3c 33 25 d7 3c a3 03 30 3c 39 e0 42 3a
       0.008557136 0.026262855 0.010743055 0.00074339245
000180 18 94 5b b9 ca d8 35 3a 75 a2 bc bc 97 eb f2 bb
       -0.00020940637 0.0006936906 -0.023026684 -0.0074133384
000190 0b 81 7e 3b ba 0f 81 bc c6 cf f0 3b 9d fe 82 bb
       0.003883424 -0.01575457 0.0073489873 -0.0039976374
0001a0 4d 60 e7 bb 91 96 05 bc c3 29 8d 3b 04 92 4b 3c
       -0.0070610405 -0.008153574 0.004307957 0.01242495
0001b0 b2 ad 9e 3b fa cb 84 bb c0 f4 89 3b d5 d8 7d b9
       0.0048424834 -0.004052636 0.0042100847 -0.00024208736
0001c0 10 8a 3f b9 ed 5c de 3b 54 c8 d9 bb 58 47 92 bb
       -0.00018266612 0.00678598 -0.0066461954 -0.0044640712
0001d0 9d 03 21 3c 74 7a 83 bc 4c 9b 71 bb d3 80 85 3c
       0.009827522 -0.016049601 -0.0036866246 0.01629678
0001e0 56 cb 09 3c bc ad c0 3b 35 6f 52 3c 40 3e 43 bc
       0.0084102955 0.0058800858 0.012843897 -0.011916697
0001f0 6e 8c 2d 3b ee 07 3a bc 52 b7 23 3b 20 13 26 bb
       0.0026481408 -0.01135443 0.0024981094 -0.002534099
000200 cf 9c dc 3a 96 b1 1c 3c 64 c0 71 bb 4b 3e f0 bb
       0.00168314 0.009563824 -0.0036888355 -0.0073316447
000210 a5 ce a4 39 3e 93 68 3c 79 92 13 bc a1 0c 24 3c
       0.0003143448 0.0141952615 -0.00900709 0.010012777
000220 e5 64 37 3c f9 23 8e bb 59 74 83 bb b6 bc 95 bc
       0.011193489 -0.0043377844 -0.0040116725 -0.018278461
000230 b6 f9 0b bb 8b 0c a8 bb 58 aa 11 bb 64 15 93 3c
       -0.0021358556 -0.0051284484 -0.0022226777 0.017954536
000240 d2 d1 06 bc 22 80 b2 3c 9e f1 86 ba ac da 3d 3a
       -0.008228736 0.021789614 -0.0010295396 0.00072423625
000250 c1 fa 2a ba 00 0e 2f bb c5 db c1 3c 6d 79 b6 3c
       -0.00065223506 -0.0026711226 0.023664365 0.022274697
000260 cf 97 8d b9 1d 35 12 3c e1 28 05 bc e1 1f 9f 3b
       -0.00027006722 0.008923796 -0.008127422 0.004856095
000270 25 1d 3e 3c 71 3b 7c 3b be 8b 0f bc 41 ab 5f 39
       0.011603628 0.0038487578 -0.0087613445 0.00021330734
000280 26 6c 0c 3a de db e4 3b f9 23 06 bb fc 4b 83 bc
       0.00053566915 0.006984218 -0.0020468219 -0.016027443
000290 df 8e d0 ba 0a d6 d8 bb f6 c6 4d bc 78 92 8c 3c
       -0.001591172 -0.0066173123 -0.012559643 0.017159685
0002a0 f2 0a 52 bc c7 31 12 bc b2 fd 83 bc 18 ff a5 3b
       -0.012819992 -0.008923001 -0.016112182 0.00506581
0002b0 d6 5d b4 bc 24 0a 80 3c 8b dd 40 bc 14 cf 35 bc
       -0.0220174 0.015629835 -0.01177157 -0.011096735
0002c0 07 3c 83 3c b4 6d 21 bc e1 60 08 ba f3 ac 62 3b
       0.016019834 -0.009852815 -0.00052024244 0.003458795
0002d0 3d b8 c5 3b a8 27 ec bb d7 f6 9a 39 51 09 ca 39
       0.006033926 -0.007206876 0.0002955708 0.00038535384
0002e0 b4 71 34 bc 6b 5e 5d 3c f8 ea a0 3a d1 63 59 3c
       -0.011013437 0.0135112805 0.0012277057 0.013268427
0002f0 00 5e 46 3b b0 28 2b 3c a8 e7 30 bb 16 03 48 bc
       0.003026843 0.010446712 -0.0026993547 -0.012207767
000300 75 71 ba 3c 37 8f dd bb fc 6c 65 bc f0 74 6d bc
       0.022759179 -0.0067614573 -0.014003035 -0.014493212
000310 35 9c db bb 5c 49 5a 3b f0 64 13 3c a6 19 b1 bc
       -0.006701971 0.0033307886 0.008996233 -0.021618675
000320 b8 18 0f 3c 78 38 05 3a bc 52 c4 3c 9c 8d 9b 3a
       0.008733921 0.0005081962 0.023965232 0.0011867764
000330 d1 d5 bd 3b 36 c9 2e 3b 2d 91 af bb 7c 27 66 39
       0.005793311 0.0026670224 -0.0053578825 0.00021949218
000340 97 4c 36 3b 86 f5 dc 3b c4 ab 4c bb 9b 0f 7d 3c
       0.0027816647 0.006743136 -0.003123031 0.015445615
000350 f9 71 46 bc 9a b1 38 3a dd 5d dc 3b 3e b0 7f bc
       -0.012112134 0.00070455077 0.0067250566 -0.015605984
000360 87 14 16 3c 8d a1 b8 b9 8c 66 8b bc 6d f5 14 3c
       0.009160168 -0.0003521558 -0.017016672 0.009091717
000370 b4 cc 38 3c b4 ce ef 3b 44 5f 1a 3b f0 08 d3 3b
       0.011279274 0.007318342 0.0023555318 0.0064402744
000380 57 b6 25 3c 03 52 f5 3a 46 99 5a bb 64 27 72 3c
       0.010114274 0.0018716458 -0.0033355518 0.014779899
000390 84 3d fc bb c9 b8 81 3c c4 4b b1 3b fa ad 05 bc
       -0.007697763 0.015835183 0.0054106433 -0.008159155
0003a0 49 26 a9 3a bd 76 64 3c 7e 27 46 3c fb 6b 25 3c
       0.0012905087 0.013944325 0.012094377 0.010096545
0003b0 67 04 5f 3c c4 64 d1 b8 d9 e2 58 3a 21 6f b8 ba
       0.013611889 -9.984666e-05 0.0008273549 -0.0014071205
0003c0 f4 b2 88 ba ac 41 91 bc dd da 04 3a 57 43 da 3b
       -0.0010429309 -0.01773151 0.00050680136 0.0066608596
0003d0 29 95 87 ba 9b f7 22 3b dd 94 15 3c 85 59 0c bc
       -0.0010344136 0.0024866823 0.00912973 -0.008566265
0003e0 0c bf e6 bb 42 80 3a 3b 72 81 50 3b 5a 99 66 3b
       -0.0070418175 0.0028457795 0.0031815437 0.003518662
0003f0 79 cc ba 3a 87 2f a3 bb 81 5d 9b bb 2f 48 55 bc
       0.0014251611 -0.004980031 -0.004741371 -0.013017698

feature_weight.bias f4 [50]
000000 9f ad 6c b8 13 b2 2d 38 2b 75 f9 b6 5d 61 06 36
       -5.6428482e-05 4.141226e-05 -7.4344184e-06 2.002423e-06
000010 f1 ba 03 35 72 45 85 37 79 41 e3 b7 c9 f3 00 b8
       4.907334e-07 1.5887174e-05 -2.7090997e-05 -3.074462e-05
000020 2c d4 21 36 00 00 00 00 80 86 be 36 10 ed ec b6
       2.411437e-06 0.0 5.678099e-06 -7.060946e-06
000030 01 80 77 b5 11 bc eb 37 1f 9e 6e b7 5e 6f 6d 38
       -9.220094e-07 2.8101758e-05 -1.4222721e-05 5.6608922e-05
000040 bb b1 a8 37 2c 56 0a b5 2d aa c3 b6 65 19 c3 36
       2.0109923e-05 -5.15344e-07 -5.831264e-06 5.814409e-06
000050 a9 a2 64 36 b9 48 bf 34 c5 d4 70 b7 41 3f 1c 38
       3.4069328e-06 3.5629435e-07 -1.4354654e-05 3.7252208e-05
000060 06 a0 1b 36 01 43 06 38 26 23 4f b7 dc 62 fe 36
       2.3189946e-06 3.2010492e-05 -1.2346345e-05 7.5812986e-06
000070 f7 4d f9 b7 ae 2f 2f 37 d1 48 10 35 1e 55 1a b6
       -2.9719418e-05 1.0441914e-05 5.375014e-07 -2.2997333e-06
000080 4a 69 1a b8 85 4e 37 38 16 6c 2f b8 2c f6 a1 37
       -3.681452e-05 4.3703727e-05 -4.1823914e-05 1.9307328e-05
000090 a1 51 ea 37 bc 27 fe b7 44 36 21 36 55 e5 b8 37
       2.7932985e-05 -3.0297662e-05 2.4022456e-06 2.20413e-05
0000a0 8d 4c ae b7 95 d4 3b 37 3b eb 9f b6 4d f1 b9 b2
       -2.0778063e-05 1.1195564e-05 -4.7659537e-06 -2.1646565e-08
0000b0 1c 36 74 b6 b8 9c 98 37 6d 57 3e 36 26 2c 89 37
       -3.639033e-06 1.819279e-05 2.8363095e-06 1.635223e-05
0000c0 33 f8 c7 b5 4c 79 93 37
       -1.4898891e-06 1.7580249e-05

hidden_features.0.weight f4 [50, 8]
000000 3d 11 09 3c c3 35 26 bb 47 b1 88 3a 28 e2 33 3b
       0.008365926 -0.0025361634 0.0010428809 0.0027448032
000010 d1 c1 5b 3b 47 0a 58 bc 4a 0b 96 3b 6b d6 cc 3b
       0.0033532272 -0.013186044 0.0045789825 0.0062511466
000020 71 2a 88 3b a3 b8 07 3a f0 32 8a 3c 3d 8d 37 3c
       0.00415545 0.00051773543 0.016869992 0.011203107
000030 19 f3 c7 3b 0b 4b 7b 3c 7d 4b a7 3b 9f fa a0 bb
       0.0061019775 0.015337716 0.0051054345 -0.004912689
000040 9f 5d ae bb 6b 7f d1 3b 99 73 8d 3b 47 d1 09 bc
       -0.005321219 0.0063933632 0.004316759 -0.008411712
000050 bc 73 17 bb 07 e7 0d 3c 04 94 a9 3a 24 92 87 bc
       -0.0023109755 0.008661038 0.0012937789 -0.016549177
000060 c0 54 81 3c 67 ca 16 bc 2c 71 39 3b f0 89 44 bc
       0.015787482 -0.00920353 0.0028296215 -0.0119957775
000070 5d 31 0c 3c d7 03 f0 3b 43 84 1c 3c 28 61 60 bc
       0.008556691 0.0073246765 0.009553018 -0.013695039
000080 7b 06 2d 3b 8e 69 ac 3b a2 c4 2f 3c 24 9e 5c bc
       0.0026401568 0.0052616065 0.010728033 -0.013465438
000090 99 0c d3 bb ec f9 67 bc ff ac 00 ba 27 7f 85 bc
       -0.0064407107 -0.014158707 -0.0004908591 -0.016295983
0000a0 bb 77 9e 3c a7 a3 5d 3c 37 c3 17 3b b9 d3 47 bc
       0.019344201 0.013527787 0.0023157129 -0.012196475
0000b0 06 1e e4 bb 0e 4c 64 bb 74 01 5a 3c 53 7a 22 bc
       -0.006961587 -0.0034835371 0.0133060105 -0.00991686
0000c0 11 36 20 bc 69 21 06 3c b3 62 8e 3c ed 80 17 bc
       -0.009778515 0.008186677 0.017381048 -0.009247047
0000d0 3b 28 54 3b f6 d2 27 bb 6d 5b b1 ba 52 d0 4b bc
       0.0032372612 -0.002560792 -0.0013531275 -0.012439804
0000e0 c3 e0 95 3b b2 47 57 3c 0b dd 16 3c 47 d2 a3 bb
       0.004573913 0.013139652 0.009207974 -0.0049994322
0000f0 b8 75 21 3c 39 5e 33 bb 5f f1 56 b9 f1 60 db b7
       0.0098547265 -0.0027369394 -0.00020498548 -2.6151976e-05
000100 ec 61 1c 3b 50 43 3c bc a6 f5 1f 3c b4 60 c9 3b
       0.0023862077 -0.011490658 0.009763157 0.006145561
000110 22 9a 50 bb 91 95 b4 bb 1a 08 e7 b9 bc 6b a1 bc
       -0.0031830152 -0.005510994 -0.0004406579 -0.019704692
000120 9a 9e d4 bb d6 be 39 bb de 32 5c 3b 96 ce 76 bc
       -0.0064886333 -0.0028342507 0.0033599655 -0.015063902
000130 43 51 96 3b 2a 47 81 bb 0e 0d 84 bc a5 ae 93 bb
       0.004587324 -0.003945251 -0.016119506 -0.0045069032
000140 b3 55 aa bb fa 01 76 3a 82 a8 21 3c d8 dd 41 3c
       -0.0051982044 0.000938445 0.009866836 0.011832677
000150 85 3d 91 3b fa 58 0a bc 90 ac 4c 3c 5b 85 74 b9
       0.0044323825 -0.008444065 0.012492314 -0.00023319332
000160 db 9c e3 bb b3 39 50 3b 16 4c 23 bc a9 d3 85 3c
       -0.006946189 0.0031772673 -0.009966871 0.016336279
000170 3b 33 0c 3c 33 25 d7 3c a3 03 30 3c 39 e0 42 3a
       0.008557136 0.026262855 0.010743055 0.00074339245
000180 18 94 5b b9 ca d8 35 3a 75 a2 bc bc 97 eb f2 bb
       -0.00020940637 0.0006936906 -0.023026684 -0.0074133384
000190 0b 81 7e 3b ba 0f 81 bc c6 cf f0 3b 9d fe 82 bb
       0.003883424 -0.01575457 0.0073489873 -0.0039976374
0001a0 4d 60 e7 bb 91 96 05 bc c3 29 8d 3b 04 92 4b 3c
       -0.0070610405 -0.008153574 0.004307957 0.01242495
0001b0 b2 ad 9e 3b fa cb 84 bb c0 f4 89 3b d5 d8 7d b9
       0.0048424834 -0.004052636 0.0042100847 -0.00024208736
0001c0 10 8a 3f b9 ed 5c de 3b 54 c8 d9 bb 58 47 92 bb
       -0.00018266612 0.00678598 -0.0066461954 -0.0044640712
0001d0 9d 03 21 3c 74 7a 83 bc 4c 9b 71 bb d3 80 85 3c
       0.009827522 -0.016049601 -0.0036866246 0.01629678
0001e0 56 cb 09 3c bc ad c0 3b 35 6f 52 3c 40 3e 43 bc
       0.0084102955 0.0058800858 0.012843897 -0.011916697
0001f0 6e 8c 2d 3b ee 07 3a bc 52 b7 23 3b 20 13 26 bb
       0.0026481408 -0.01135443 0.0024981094 -0.002534099
000200 cf 9c dc 3a 96 b1 1c 3c 64 c0 71 bb 4b 3e f0 bb
       0.00168314 0.009563824 -0.0036888355 -0.0073316447
000210 a5 ce a4 39 3e 93 68 3c 79 92 13 bc a1 0c 24 3c
       0.0003143448 0.0141952615 -0.00900709 0.010012777
000220 e5 64 37 3c f9 23 8e bb 59 74 83 bb b6 bc 95 bc
       0.011193489 -0.0043377844 -0.0040116725 -0.018278461
000230 b6 f9 0b bb 8b 0c a8 bb 58 aa 11 bb 64 15 93 3c
       -0.0021358556 -0.0051284484 -0.0022226777 0.017954536
000240 d2 d1 06 bc 22 80 b2 3c 9e f1 86 ba ac da 3d 3a
       -0.008228736 0.021789614 -0.0010295396 0.00072423625
000250 c1 fa 2a ba 00 0e 2f bb c5 db c1 3c 6d 79 b6 3c
       -0.00065223506 -0.0026711226 0.023664365 0.022274697
000260 cf 97 8d b9 1d 35 12 3c e1 28 05 bc e1 1f 9f 3b
       -0.00027006722 0.008923796 -0.008127422 0.004856095
000270 25 1d 3e 3c 71 3b 7c 3b be 8b 0f bc 41 ab 5f 39
       0.011603628 0.0038487578 -0.0087613445 0.00021330734
000280 26 6c 0c 3a de db e4 3b f9 23 06 bb fc 4b 83 bc
       0.00053566915 0.006984218 -0.0020468219 -0.016027443
000290 df 8e d0 ba 0a d6 d8 bb f6 c6 4d bc 78 92 8c 3c
       -0.001591172 -0.0066173123 -0.012559643 0.017159685
0002a0 f2 0a 52 bc c7 31 12 bc b2 fd 83 bc 18 ff a5 3b
       -0.012819992 -0.008923001 -0.016112182 0.00506581
0002b0 d6 5d b4 bc 24 0a 80 3c 8b dd 40 bc 14 cf 35 bc
       -0.0220174 0.015629835 -0.01177157 -0.011096735
0002c0 07 3c 83 3c b4 6d 21 bc e1 60 08 ba f3 ac 62 3b
       0.016019834 -0.009852815 -0.00052024244 0.003458795
0002d0 3d b8 c5 3b a8 27 ec bb d7 f6 9a 39 51 09 ca 39
       0.006033926 -0.007206876 0.0002955708 0.00038535384
0002e0 b4 71 34 bc 6b 5e 5d 3c f8 ea a0 3a d1 63 59 3c
       -0.011013437 0.0135112805 0.0012277057 0.013268427
0002f0 00 5e 46 3b b0 28 2b 3c a8 e7 30 bb 16 03 48 bc
       0.003026843 0.010446712 -0.0026993547 -0.012207767
000300 75 71 ba 3c 37 8f dd bb fc 6c 65 bc f0 74 6d bc
       0.022759179 -0.0067614573 -0.014003035 -0.014493212
000310 35 9c db bb 5c 49 5a 3b f0 64 13 3c a6 19 b1 bc
       -0.006701971 0.0033307886 0.008996233 -0.021618675
000320 b8 18 0f 3c 78 38 05 3a bc 52 c4 3c 9c 8d 9b 3a
       0.008733921 0.0005081962 0.023965232 0.0011867764
000330 d1 d5 bd 3b 36 c9 2e 3b 2d 91 af bb 7c 27 66 39
       0.005793311 0.0026670224 -0.0053578825 0.00021949218
000340 97 4c 36 3b 86 f5 dc 3b c4 ab 4c bb 9b 0f 7d 3c
       0.0027816647 0.006743136 -0.003123031 0.015445615
000350 f9 71 46 bc 9a b1 38 3a dd 5d dc 3b 3e b0 7f bc
       -0.012112134 0.00070455077 0.0067250566 -0.015605984
000360 87 14 16 3c 8d a1 b8 b9 8c 66 8b bc 6d f5 14 3c
       0.009160168 -0.0003521558 -0.017016672 0.009091717
000370 b4 cc 38 3c b4 ce ef 3b 44 5f 1a 3b f0 08 d3 3b
       0.011279274 0.007318342 0.0023555318 0.0064402744
000380 57 b6 25 3c 03 52 f5 3a 46 99 5a bb 64 27 72 3c
       0.010114274 0.0018716458 -0.0033355518 0.014779899
000390 84 3d fc bb c9 b8 81 3c c4 4b b1 3b fa ad 05 bc
       -0.007697763 0.015835183 0.0054106433 -0.008159155
0003a0 49 26 a9 3a bd 76 64 3c 7e 27 46 3c fb 6b 25 3c
       0.0012905087 0.013944325 0.012094377 0.010096545
0003b0 67 04 5f 3c c4 64 d1 b8 d9 e2 58 3a 21 6f b8 ba
       0.013611889 -9.984666e-05 0.0008273549 -0.0014071205
0003c0 f4 b2 88 ba ac 41 91 bc dd da 04 3a 57 43 da 3b
       -0.0010429309 -0.01773151 0.00050680136 0.0066608596
0003d0 29 95 87 ba 9b f7 22 3b dd 94 15 3c 85 59 0c bc
       -0.0010344136 0.0024866823 0.00912973 -0.008566265
0003e0 0c bf e6 bb 42 80 3a 3b 72 81 50 3b 5a 99 66 3b
       -0.0070418175 0.0028457795 0.0031815437 0.003518662
0003f0 79 cc ba 3a 87 2f a3 bb 81 5d 9b bb 2f 48 55 bc
       0.0014251611 -0.004980031 -0.004741371 -0.013017698

hidden_features.0.bias f4 [50]
000000 9f ad 6c b8 13 b2 2d 38 2b 75 f9 b6 5d 61 06 36
       -5.6428482e-05 4.141226e-05 -7.4344184e-06 2.002423e-06
000010 f1 ba 03 35 72 45 85 37 79 41 e3 b7 c9 f3 00 b8
       4.907334e-07 1.5887174e-05 -2.7090997e-05 -3.074462e-05
000020 2c d4 21 36 00 00 00 00 80 86 be 36 10 ed ec b6
       2.411437e-06 0.0 5.678099e-06 -7.060946e-06
000030 01 80 77 b5 11 bc eb 37 1f 9e 6e b7 5e 6f 6d 38
       -9.220094e-07 2.8101758e-05 -1.4222721e-05 5.6608922e-05
000040 bb b1 a8 37 2c 56 0a b5 2d aa c3 b6 65 19 c3 36
       2.0109923e-05 -5.15344e-07 -5.831264e-06 5.814409e-06
000050 a9 a2 64 36 b9 48 bf 34 c5 d4 70 b7 41 3f 1c 38
       3.4069328e-06 3.5629435e-07 -1.4354654e-05 3.7252208e-05
000060 06 a0 1b 36 01 43 06 38 26 23 4f b7 dc 62 fe 36
       2.3189946e-06 3.2010492e-05 -1.2346345e-05 7.5812986e-06
000070 f7 4d f9 b7 ae 2f 2f 37 d1 48 10 35 1e 55 1a b6
       -2.9719418e-05 1.0441914e-05 5.375014e-07 -2.2997333e-06
000080 4a 69 1a b8 85 4e 37 38 16 6c 2f b8 2c f6 a1 37
       -3.681452e-05 4.3703727e-05 -4.1823914e-05 1.9307328e-05
000090 a1 51 ea 37 bc 27 fe b7 44 36 21 36 55 e5 b8 37
       2.7932985e-05 -3.0297662e-05 2.4022456e-06 2.20413e-05
0000a0 8d 4c ae b7 95 d4 3b 37 3b eb 9f b6 4d f1 b9 b2
       -2.0778063e-05 1.1195564e-05 -4.7659537e-06 -2.1646565e-08
0000b0 1c 36 74 b6 b8 9c 98 37 6d 57 3e 36 26 2c 89 37
       -3.639033e-06 1.819279e-05 2.8363095e-06 1.635223e-05
0000c0 33 f8 c7 b5 4c 79 93 37
       -1.4898891e-06 1.7580249e-05

hidden_features.2.weight f4 [50, 50]
000000 c3 cd e9 3b e7 5d d0 3b 46 1b 9e 3b 1e 1f 37 bc
       0.0071351244 0.0063588503 0.0048250286 -0.0111768525
000010 2b 37 9f bb be 00 93 3c 59 73 58 3c d7 d1 f3 3b
       -0.0048588715 0.01794469 0.013211095 0.0074407863
000020 72 67 19 bc a4 70 79 bb 95 fb a4 3c fb 67 e5 bb
       -0.009363042 -0.0038061524 0.020139495 -0.007000921
000030 ab 22 cf 3b df bd 15 3b bb 4b 63 3c a9 6c aa 3b
       0.0063212714 0.0022848768 0.013873036 0.0052009416
000040 63 af 80 3c ee 80 86 bc 0c ea fe 3b b8 29 b0 bc
       0.01570863 -0.0164189 0.0077793654 -0.021504268
000050 cb bf ce 3a 0f fa 6a 3c 5d 2a 5e ba bb f6 83 bc
       0.0015773711 0.014341845 -0.00084749406 -0.016108861
000060 fe 3b b6 bb 0a 31 07 ba b2 f4 05 3c dc d5 3e bc
       -0.005561351 -0.00051571487 0.008176016 -0.011647668
000070 a3 0c 6a 3b 60 23 b5 bb 86 39 19 3c 6d eb 7a ba
       0.0035713098 -0.0055278987 0.009352094 -0.00095718243
000080 a3 16 63 3b 8b 70 e7 3c f0 3e 04 bc 0d a0 54 3b
       0.0034650944 0.028251907 -0.008071646 0.003244403
000090 13 cb f6 ba ba af 8d 3b 70 e5 12 ba fb 45 38 3b
       -0.0018828831 0.0043239268 -0.0005603647 0.0028117883
0000a0 aa f9 e7 3b d3 3b 14 3b 3b 15 2f 3b 54 c2 00 ba
       0.007079323 0.0022618666 0.0026715535 -0.00049117696
0000b0 3d 67 b7 3b a3 63 10 bc 9d 29 8f 3a 8f e1 a8 3b
       0.0055970238 -0.008812818 0.0010922436 0.005153842
0000c0 1c 31 95 37 37 a8 9a bc 1d ed ab 3b 8d ae 84 3c
       1.7785052e-05 -0.01887904 0.005246772 0.016196514
0000d0 48 18 4e ba c8 3d 39 3c 34 fe 8f 3a 02 e5 ae 3b
       -0.00078618946 0.011306234 0.0010985793 0.0053373585
0000e0 bb ac 95 bc 6c a8 21 3c db d5 f9 3a 26 7d 75 bc
       -0.01827084 0.009866815 0.0019060926 -0.014983451
0000f0 eb e3 21 3b c3 fa c7 3b fa c7 8d 3c 74 3d 6c 3c
       0.00247025 0.006102891 0.01730727 0.014418948
000100 2c 2b f3 bb 44 68 59 3c 88 95 7a bb ee a3 1a bc
       -0.007420918 0.013269488 -0.00382361 -0.009438498
000110 0d 9a 6d bc 7f e9 fd 3b a3 69 8c 3c bf f4 89 3a
       -0.014502061 0.007748782 0.017140215 0.001052521
000120 5c 08 5f bc 25 7d 37 3a 9b 42 39 3c 61 1f 80 3b
       -0.013612833 0.0006999544 0.011307384 0.0039099907
000130 9b ed 07 bb 2c d4 27 bc a1 e0 5a bc b8 b1 3d 3c
       -0.002074099 -0.010243457 -0.01335922 0.011578016
000140 49 1d 5b bc e1 36 40 bb ef 26 0c bc 5b 71 b0 3c
       -0.013373681 -0.0029329585 -0.008554204 0.021538427
000150 80 7f 73 3c a7 d7 00 bc e8 8c af 3b c0 33 e1 3b
       0.014861941 -0.0078639155 0.0053573735 0.006872624
000160 66 03 c1 3b 42 bc 40 bc 16 d2 24 bc 79 19 0b bc
       0.0058902977 -0.011763634 -0.010059854 -0.00848996
000170 2f 93 0d bb 20 1b d2 3a 54 f5 83 bb f2 1c 33 3c
       -0.002160262 0.0016029812 -0.004027048 0.010932194
000180 55 8b 2f bc a0 fd 04 bc e8 f2 a3 3a 74 6a 1d 3a
       -0.010714372 -0.00811711 0.0012508305 0.00060049375
000190 16 84 cd 3c 90 a0 43 bb 9b 7a 34 3b a6 21 85 bc
       0.025087398 -0.0029850341 0.00275389 -0.016251396
0001a0 8e ca 9d bc 5e 82 67 3c ce e0 d3 3b ba de 2f 3c
       -0.019261625 0.014130203 0.006466008 0.0107342545
0001b0 90 1e ad 3b a8 e1 2d bc 66 20 f8 bb bd eb 0d bb
       0.0052831843 -0.010612883 -0.0075722216 -0.0021655404
0001c0 db 5b 01 bc d9 d1 3f bb a6 d2 0b 3b 0e 2b fc bb
       -0.007895435 -0.0029269366 0.0021335273 -0.007695562
0001d0 05 ca c1 3b 88 0b d1 3b b5 4a 6b 3c 2f a4 88 bb
       0.005913975 0.0063795485 0.014361073 -0.004169963
0001e0 09 e7 7c bb f4 3d 74 bc ef d2 9e 3a 7e 63 25 bc
       -0.0038589856 -0.014907349 0.0012117306 -0.010094522
0001f0 67 ef a4 3c c2 d4 d7 bb 47 4d 1c 3c 38 5f 56 bb
       0.020133687 -0.006586642 0.009539909 -0.0032710563
000200 b2 a8 df bb b8 a1 37 bb 23 fe 93 bc 99 ef 3c 3c
       -0.00682553 -0.0028019976 -0.018065518 0.011531734
000210 d3 df 8b 3c 41 ab 0d bc a0 ac 30 bb 68 21 19 3c
       0.017074501 -0.008646787 -0.0026958361 0.009346344
000220 87 ca bb bb 31 61 99 3a 70 6b 81 bb bd 07 3d bb
       -0.0057309303 0.0011701939 -0.003949575 -0.0028843724
000230 2c 45 2b bc 5c 27 4e 3a 07 54 80 3c f2 e6 56 bc
       -0.010453504 0.00078641414 0.015665067 -0.013116585
000240 67 bd ae ba 70 ed 2f 3c a0 a7 51 bc ba b8 23 bc
       -0.0013331593 0.010737762 -0.012796313 -0.009992773
000250 08 cd 60 bc 36 2a 32 bb f5 39 3f bc 79 1d 44 ba
       -0.013720758 -0.0027185804 -0.011671533 -0.00074811984
000260 f3 d6 cb bc 30 d8 07 ba 95 e9 b9 39 20 a0 04 bb
       -0.02488277 -0.0005182056 0.00035459982 -0.0020237043
000270 9f a5 3a 3b 4a 09 eb 3b 66 2a 94 3c 28 ed 9a bb
       0.0028480066 0.007172738 0.018086623 -0.0047279783
000280 13 8a 17 3c fd c0 be bb 62 b5 da bb 63 bd 08 bc
       0.009249228 -0.005821346 -0.0066744545 -0.008345935
000290 7d df bc 3a bc d9 da 3c 63 ae 15 3c b9 60 37 bc
       0.0014409866 0.026715152 0.009135815 -0.011192494
0002a0 87 62 c5 3c c7 f5 73 bc 04 dd 9d 3c 22 1f eb 3a
       0.024094833 -0.014890141 0.019270428 0.0017938355
0002b0 a6 b8 4b bc e5 f1 54 3c 0c 32 0f ba 94 ce ea bb
       -0.01243416 0.012997125 -0.00054624747 -0.0071657393
0002c0 3e ea f6 bb a5 e1 8d bc b0 be 1d ba 0b 79 13 3b
       -0.007535248 -0.01731951 -0.00060174894 0.0022502567
0002d0 c5 25 ba 3a c4 d2 b5 bb ad 4b 32 bc 3b 98 89 bb
       0.001420193 -0.005548807 -0.0108823 -0.0041990555
0002e0 62 d6 d9 bb 9a 8e f2 3a 1e 76 d1 ba 09 0d 9b bc
       -0.006647871 0.0018505633 -0.0015980636 -0.018927114
0002f0 88 e1 ce bb 50 7a 73 3b bc 1d 01 3a f4 54 1a 3c
       -0.0063135065 0.0037151761 0.000492539 0.0094196685
000300 10 32 c7 ba a5 cb 00 3c b5 42 fb bb 8c 43 89 bb
       -0.0015197415 0.007861053 -0.007667864 -0.0041889604
000310 08 88 48 3c 86 4f 31 3c 32 a8 49 bb 6d 39 07 3c
       0.012239464 0.0108221825 -0.0030770418 0.0082534375
000320 b9 69 d6 3b e5 9f 9e 3c 9c 7e c0 ba f7 d8 5f bb
       0.006543365 0.019363353 -0.001468617 -0.003415642
000330 97 79 db bb 28 dc 57 bc f5 57 dd bb 1b 58 83 3c
       -0.0066978442 -0.013175048 -0.00675487 0.016033223
000340 0f 88 09 bb e5 7d b5 bb b8 7c ee bb 61 64 eb 3b
       -0.0020985638 -0.0055386894 -0.007278051 0.007183597
000350 29 6e 62 3b 0e 05 21 bc c0 c8 36 3c b6 3f 3f bc
       0.0034550524 -0.009827865 0.011156261 -0.011672905
000360 ed 76 0d bc 84 14 2b 3c 94 a0 4b bc e1 1b 46 3c
       -0.008634311 0.010441903 -0.0124284215 0.012091608
000370 b5 14 63 bc 67 dd 8b bb 46 62 96 bb c3 af 4f 3b
       -0.013859917 -0.0042683366 -0.004589352 0.0031690456
000380 64 65 2f 3c 36 19 05 3c 4b 35 b4 3b 9b bb f3 bb
       0.010705326 0.008123687 0.005499517 -0.007438136
000390 b2 0d 2b 3c 03 ca 26 bc 41 37 84 3c ee 74 31 3c
       0.010440277 -0.010179999 0.016139628 0.010831101
0003a0 df d8 93 bb 5c b2 15 3b 11 b2 5d 3c 8a 97 bd bb
       -0.004511937 0.0022841906 0.013531224 -0.005785887
0003b0 a7 20 69 bc 16 50 22 bc 74 4e 9c bc 9c 3e 04 bb
       -0.014228976 -0.009906789 -0.019080378 -0.002017892
0003c0 21 25 02 3c 30 91 77 b8 9b ec 22 3c b5 c4 91 b9
       0.0079434225 -5.9024605e-05 0.009944106 -0.00027803113
0003d0 86 80 1a 3c 22 3e 86 bb b0 0d d2 3b 2d 27 31 bc
       0.009430056 -0.0040967623 0.006410323 -0.010812563
0003e0 a8 51 24 3b 25 eb 3f bb 86 d9 4d bc 53 fa 4f bc
       0.0025073085 -0.0029284444 -0.012564069 -0.012693959
0003f0 31 9a 2a bb 65 41 dd 3a 58 71 56 3c 13 a2 4d 3c
       -0.0026031847 0.0016880451 0.013088547 0.012550849

hidden_features.2.bias f4 [50]
000000 1d 30 09 ba bb 1d 34 3a eb 68 c9 b9 e8 97 99 3a
       -0.00052333047 0.0006870885 -0.00038415877 0.0011718245
000010 93 31 c7 b9 35 e8 83 39 39 2e 37 b9 af 7f 15 3a
       -0.00037993173 0.00025159275 -0.00017469459 0.0005702925
000020 6c 30 0c b9 51 21 64 3a c3 14 a7 36 c7 98 fb b9
       -0.00013369479 0.00087024743 4.979405e-06 -0.0004798828
000030 74 1d 65 38 28 47 0c b9 00 00 00 00 72 a3 fd b9
       5.4625285e-05 -0.00013377948 0.0 -0.00048377697
000040 fd 7a 97 b9 00 00 00 00 dc 6f 66 39 5b c8 62 38
       -0.00028892598 0.0 0.0002197618 5.4069194e-05
000050 f9 6c 96 b8 fa 0f fd b9 1a 92 d9 36 6a cf 4d ba
       -7.172855e-05 -0.00048267824 6.4841124e-06 -0.00078510365
000060 37 70 17 ba 0d c2 0c 3a ae 5c e4 b8 bb a3 15 37
       -0.0005776914 0.0005369492 -0.0001088915 8.9192135e-06
000070 59 06 a7 b9 c9 3c b0 b7 0a ca 17 34 2f c1 10 38
       -0.00031857452 -2.100914e-05 1.4136472e-07 3.451219e-05
000080 6c 88 a4 3a 1c 77 47 b7 00 00 00 00 5d a6 d2 b9
       0.0012552864 -1.1889057e-05 0.0 -0.00040178272
000090 8d e6 9e b9 9b da ad b9 0e d0 6e 38 8b be 40 39
       -0.00030307882 -0.00033160005 5.6937388e-05 0.0001838153
0000a0 e5 e6 e4 b8 59 f7 ad b8 4e 11 d8 37 ca 79 27 ba
       -0.00010914895 -8.295355e-05 2.5757265e-05 -0.00063886924
0000b0 47 ce 7f 3a ac ca 5a b8 9b 8e 2d 39 55 02 9b b8
       0.0009758216 -5.2164003e-05 0.0001655169 -7.39141e-05
0000c0 a2 75 83 b8 78 e6 01 ba
       -6.2684776e-05 -0.0004955302

density_estimator_head.weight f4 [50, 11]
000000 ee 87 ac bb e1 ce f5 bb 36 11 67 3b 26 3a 4d 3b
       -0.0052652275 -0.0075014685 0.0035258061 0.0031315177
000010 79 d3 da 3b 90 cd 8c 3c 2f 84 55 bc d6 70 ce 3a
       0.0066780415 0.017187864 -0.013032003 0.001575018
000020 e2 4a ba bb ba d0 24 bc 33 15 13 bc 47 e7 14 bb
       -0.0056851963 -0.01005953 -0.008977222 -0.002272086
000030 1c a3 9e ba 8a 3e 54 bc 16 de 41 3b cf d2 3b bb
       -0.0012103054 -0.012954364 0.0029581836 -0.0028659587
000040 fb 9d 23 3a b6 f1 87 bc 17 49 56 3b f0 0a 2e 3c
       0.00062414975 -0.016594749 0.0032697374 0.010622725
000050 f1 8b 90 3b 9d f6 c9 3b 95 4b b9 3b 9f ef dd 3b
       0.0044112136 0.006163432 0.005654762 0.00677295
000060 e6 d6 c8 3b a4 bc a2 39 00 eb b1 3b 93 60 9a 3c
       0.0061291335 0.00031039596 0.0054296255 0.018844878
000070 37 fb 22 3b 74 0e ac bc f9 dc bd 3c 26 70 18 bc
       0.0024868974 -0.021002986 0.023176657 -0.009304082
000080 ec 1b 16 bc fe de be bc 6c 14 74 bb 5b 0f 12 bc
       -0.0091619305 -0.02329969 -0.0037243618 -0.008914794
000090 18 e6 95 bb 5b e3 8a 3c 66 8b a9 bb 8b b6 e2 ba
       -0.0045745485 0.016954115 -0.0051740883 -0.0017296834
0000a0 da d6 04 3c 73 38 2b 3c 7c 8d f2 bb cd 07 86 3c
       0.008107865 0.01045047 -0.00740212 0.016361142
0000b0 c7 bb 4a 3c c5 cc 22 bc c2 dc 81 3c ee 13 bd bb
       0.012373871 -0.009936516 0.015852336 -0.005770198
0000c0 7a 0c 20 3c a3 3b 39 3b be 89 83 3b be 88 ac 3b
       0.0097686 0.0028264306 0.004014223 0.0052653244
0000d0 88 35 77 bb f7 31 8b ba f1 e3 8e bb 56 b6 01 bc
       -0.0037721116 -0.0010619749 -0.004360669 -0.007917007
0000e0 09 50 6e bc 85 df 9f bb 9f 64 99 bb 59 e0 d0 bb
       -0.014545449 -0.0048789405 -0.0046811844 -0.0063744006
0000f0 91 dd 34 3b ab 44 61 3c fc 31 c3 3b e4 8c af 3b
       0.0027597884 0.013749282 0.0059568863 0.0053573716
000100 65 8a 96 b9 68 27 f6 bb 16 19 77 3c 6d e1 ab bb
       -0.0002871334 -0.007512022 0.015081665 -0.0052453787
000110 3d af 09 3c b3 68 85 3c f8 84 a7 3c fe 63 50 3c
       0.0084035965 0.016285276 0.020449147 0.0127191525
000120 6f 3d b7 bb bd e8 b9 3a b9 eb e0 3b d6 2d ae bb
       -0.0055920403 0.0014183741 0.006864038 -0.0053155227
000130 90 6a b7 3b 34 ef 8b bc 9a 67 86 3b f1 d4 82 3c
       0.00559742 -0.017081834 0.0041017057 0.015970679
000140 1f 58 b4 3c de 39 9d 3b 56 e0 7b bb 1b 84 12 bb
       0.022014676 0.004798158 -0.0038433275 -0.0022356573
000150 01 4c a6 ba 9c 29 57 bc 15 56 9f 3c 0a 0b f7 b9
       -0.0012687446 -0.013132479 0.019450227 -0.00047119736
000160 50 b9 45 3c 4e 32 b6 39 26 78 00 ba af b6 4d 3b
       0.012068108 0.00034751225 -0.0004900716 0.0031389405
000170 f4 d9 14 bb 51 10 81 bc ee 1e 87 3b a1 2f 16 3c
       -0.0022712918 -0.01575485 0.00412356 0.009166629
000180 0b 11 39 bc 5c 08 27 3c bb 00 35 ba 7e c6 c9 bb
       -0.011295567 0.010194864 -0.0006904711 -0.0061576953
000190 c1 75 a0 bb f7 bb 8d bb f8 a1 5d bb 8b f5 d0 bb
       -0.00489685 -0.0043253857 -0.0033818465 -0.0063769273
0001a0 ac 73 fd bb e0 fc 6d 3a dc 50 cb bb 48 21 19 3c
       -0.0077347364 0.0009078514 -0.0062047075 0.009346314
0001b0 c0 b7 ed bb c2 72 8c 3c e6 73 ae bb e5 77 96 bc
       -0.0072545707 0.017144565 -0.0053238748 -0.018367717
0001c0 05 db e2 bb 11 98 b5 3b 38 8b 8d ba 70 b6 3b ba
       -0.006923082 0.0055418094 -0.0010798937 -0.0007160669
0001d0 fd d8 9b 3c fe ae 4f 3a 85 b1 5f 3b a7 c8 7a bc
       0.019024367 0.0007922499 0.003413291 -0.015306628
0001e0 17 27 ee bb 04 7d 54 3b 47 72 c2 bb 64 96 3a bc
       -0.0072678435 0.0032423148 -0.005934033 -0.011388395
0001f0 8c ac 9a 3b 9d d6 cf 3a e3 8d 35 bb be 20 1f 3c
       0.004720276 0.0015856806 -0.002770298 0.009712396
000200 48 f6 27 bc 1d a8 6e bc cb c7 82 bc a8 d7 44 bb
       -0.010251589 -0.0145664485 -0.01596441 -0.0030035768
000210 97 5e d8 b9 5a 70 92 3b d6 15 54 3c 96 a9 29 bc
       -0.00041269205 0.0044689598 0.012944659 -0.010355374
000220 c9 c3 1e bc 41 cc aa 3b fe 4f bc ba 4d a6 60 bc
       -0.0096902335 0.0052123372 -0.0014367101 -0.013711524
000230 f0 1e 12 3c 63 bc fb 3b a7 b7 38 bc 46 0d 5c ba
       0.008918509 0.0076823696 -0.011274255 -0.0008394312
000240 2b 59 25 bb d0 80 45 3c 04 00 5e 3c f0 12 e2 bb
       -0.002523015 0.012054637 0.013549808 -0.00689923
000250 db 6f 56 bb 11 6c d3 3b 63 d0 b0 bc ee 4d fd bb
       -0.003272048 0.0064520915 -0.021583742 -0.007730237
000260 88 5f b2 3a 5b 7e 51 bc 62 9c 0f 3c 3a 61 a0 39
       0.0013608793 -0.012786473 0.008765312 0.00030590018
000270 4e 20 2d bc 30 47 4b ba d4 ae 0b 3c c2 f3 c9 3b
       -0.010566784 -0.0007754443 0.008525569 0.0061630914
000280 01 4a f0 b9 b2 fe 90 ba 2d 63 86 3c 89 be 83 3c
       -0.00045831504 -0.0011062233 0.016404713 0.016082065
000290 e9 45 fa 3b b5 77 03 3c dd 90 f5 ba 66 20 3b 3c
       0.0076377285 0.008024146 -0.0018735189 0.011421299
0002a0 1b b4 af 3b 4a 6c 18 bb 91 9e 0d bc fb 23 e5 3b
       0.0053620464 -0.0023257905 -0.008643762 0.0069928146
0002b0 28 e5 f5 bb 2f 56 07 bc 6a 79 81 3b f6 45 46 bc
       -0.007504124 -0.008260294 0.0039512413 -0.012101641
0002c0 cb 84 6b bb c0 fb e6 bb 82 7f 99 bc 92 57 0c 3c
       -0.0035937305 -0.007049054 -0.018737558 0.0085658
0002d0 1e fe 2a 3c 04 b6 18 3b bb 38 1f bb e7 fd c7 3b
       0.010436563 0.002330185 -0.0024295289 0.0061032656
0002e0 ff 87 55 bc 48 e3 65 3b f2 08 c3 bc 99 46 e0 3a
       -0.013032912 0.0035078097 -0.023807976 0.0017110883
0002f0 bf 20 85 3b 2d 97 47 3c 27 48 9b 3b 69 de 10 3a
       0.0040627415 0.012182039 0.004738826 0.0005526306
000300 a1 3c 01 39 d3 bf 89 bc 59 98 8f bb 45 96 fb bb
       0.00012324985 -0.016815102 -0.004382175 -0.0076778256
000310 4f b4 66 bc 50 94 fc 3b 57 83 39 bc 97 a0 5a 3b
       -0.014081075 0.00770811 -0.011322818 0.003335988
000320 36 f3 e8 3b 60 76 39 3b ee 00 86 3a 7d 10 be bc
       0.007109071 0.0028299317 0.0010223666 -0.023201222
000330 b1 f7 9e 3a 0a a3 58 bc d4 32 0e 3c d7 52 0d bb
       0.0012128261 -0.013222465 0.008679111 -0.002156427
000340 f6 f4 8e 3b ff 27 b2 bb 86 fc 19 bc db d4 f3 ba
       0.0043626977 -0.005436897 -0.009398585 -0.0018602865
000350 b8 8d f0 bb 29 19 82 bc 25 b1 95 bc bb 0c 83 bc
       -0.007341113 -0.015881138 -0.018272946 -0.015997281
000360 a2 1d 83 bc dc cf c7 bb 4a aa 61 3c e2 ee 58 3c
       -0.016005341 -0.006097777 0.01377351 0.013240548
000370 f6 37 99 3c 7d d8 84 3b 4e 6a 5f 3b 08 9c 52 bb
       0.018703442 0.0040541277 0.0034090462 -0.003213646
000380 79 06 48 bc e6 50 b6 ba 52 2c a6 bb e6 38 c0 bb
       -0.012208574 -0.0013909608 -0.0050712014 -0.005866158
000390 62 62 03 ba ce e2 1d 3c 89 56 90 3a 07 30 87 bb
       -0.00050119136 0.009636594 0.0011012118 -0.0041255984
0003a0 86 25 a7 3c c6 f5 3b bc 31 1b 94 3c 35 72 af ba
       0.020403635 -0.011472171 0.018079372 -0.0013385477
0003b0 b4 a1 43 bc 71 33 dd 3a ee 9e 2a 3b e9 a5 d0 bb
       -0.0119404085 0.0016876293 0.002603467 -0.0063674343
0003c0 90 eb 41 3b 18 1c d6 bb 4a f4 43 3c 49 37 34 bc
       0.002958987 -0.0065341108 0.0119600985 -0.010999509
0003d0 b4 3f 0e 3b c6 0f e8 bb be 93 b5 3b 7b 99 93 bb
       0.002170545 -0.0070819585 0.005541294 -0.0045043803
0003e0 7c 26 dc b9 6b 10 50 bc c4 60 00 3c 39 c2 b5 3b
       -0.00041990343 -0.012699227 0.007835571 0.005546835
0003f0 af 3f 51 bc d6 d3 9d 3c 88 01 af 3c bb c1 6f bc
       -0.012771531 0.01926605 0.021363035 -0.014633591

density_estimator_head.bias f4 [11]
000000 9a e6 0a bd 8f f6 d0 bc 90 79 2a bc cd 05 39 bc
       -0.033911325 -0.025508193 -0.010404959 -0.011292887
000010 96 8d bc bb 97 1c 15 3a f0 43 09 3b 91 0d f3 3a
       -0.005754183 0.0005688159 0.0020945035 0.0018543472
000020 12 82 2f 3c d5 6d 16 3d f8 03 0f 3d
       0.0107121635 0.036725838 0.034915894

Q1.0.weight f4 [50, 50, 5]
000000 e4 5e 20 3f b0 8d e5 3d 2d 1d c9 be 4e 93 a0 3f
       0.6264479 0.11208665 -0.39280072 1.2544954
000010 4a b2 b4 bd 41 8f 13 3d 8c 7a 88 3f 3b 82 67 be
       -0.088230684 0.03602529 1.0662398 -0.22608273
000020 2a c1 d3 3e 66 75 9e bf d7 47 67 bf 94 22 70 3f
       0.4135831 -1.2379577 -0.90343994 0.9380276
000030 a8 39 9d 3f b5 ad 58 bf a3 b6 dc 3c af a0 5d 3f
       1.228322 -0.84640056 0.026942557 0.8657331
000040 ed 9d 4f 3f 9c b8 bc 3e 37 ea ec be 2c 96 13 40
       0.8110035 0.36859596 -0.46272442 2.3060408
000050 6b 9e 8f bd 46 4d 93 be 40 b1 b2 3e 83 e2 90 3f
       -0.07012638 -0.28769892 0.34900856 1.1319126
000060 29 bc ad 3f 9d 3f 07 3b dd f6 38 bf 8a ea 10 3f
       1.3573047 0.0020637282 -0.72251683 0.5660788
000070 04 df 90 3e 00 9e e1 bf 33 42 c4 be 46 70 a4 3d
       0.28295147 -1.7626343 -0.38331756 0.08029227
000080 8e 8c f5 3f 36 5b f4 3f 13 c2 b9 3e 6e ac f6 3f
       1.9183519 1.9090335 0.3628088 1.9271371
000090 70 71 12 bf fa 3a c1 3d 0c 36 83 bd 02 06 76 3f
       -0.5720434 0.09435077 -0.06406793 0.9610292
0000a0 55 35 38 3f 68 e4 c0 be a5 d2 e1 be d6 24 d6 3f
       0.7195638 -0.3767426 -0.44106022 1.6729991
0000b0 34 d8 db bd 97 aa 61 3e 04 f3 ff 3e 1a 84 ce 3e
       -0.10734597 0.22037731 0.49990094 0.4033516
0000c0 46 0f aa 3d 2c d3 16 c0 4d 7e ba bf da d9 2a bf
       0.083036944 -2.356639 -1.4569794 -0.66738665
0000d0 ec be cd bf 44 a6 ad be ae 32 34 be 16 81 8d bf
       -1.607389 -0.33915913 -0.17597458 -1.1055019
0000e0 9a 3d 53 bf b3 78 13 3e 8d da f1 bf 31 4a f1 be
       -0.8251587 0.14401512 -1.8894821 -0.47126916
0000f0 b8 7c 8a bf 1e d9 70 bf 92 8c 22 3f a4 f6 ff bd
       -1.0819311 -0.94081295 0.63495743 -0.12498215
000100 a6 3e d5 3f 16 bc 88 bf 79 6e b6 be 1e 10 a9 be
       1.6659744 -1.0682399 -0.3563116 -0.3302011
000110 ba 6d 51 3e 66 c7 54 be da 7a 2d be 3c 1b 61 3f
       0.20452014 -0.2077919 -0.16941395 0.8793218
000120 8a a6 91 bf fa b5 cf 3e e6 82 55 be 5d d6 44 bf
       -1.1378949 0.40568525 -0.20850715 -0.7688959
000130 44 90 c7 be cd 7b cc bf 16 c8 15 bf dc af ec be
       -0.38977253 -1.5975281 -0.5850843 -0.4622792
000140 a9 80 96 3f 81 60 b4 3f c1 9a d6 be be 06 e7 3f
       1.1758014 1.4091951 -0.41914943 1.8048933
000150 8b a6 28 3f 12 4d bc 3e d5 9d d8 bf ff 4d 98 3e
       0.65879124 0.3677755 -1.6923167 0.29747006
000160 ba 1b 1f bf f6 59 f7 bf 28 26 7c bf ed 10 1b be
       -0.6215168 -1.9324329 -0.9849572 -0.15143175
000170 5a 5a 3f bf fc 41 42 3e 5a f4 5c bf f5 83 6d 3f
       -0.7474724 0.18970484 -0.8631035 0.92779475
000180 e8 d7 b2 3f a5 e1 f9 be f4 d0 10 3e 05 fc 6f bf
       1.3972139 -0.48804966 0.1414221 -0.93743926
000190 aa 49 f5 3f f3 28 73 bf 4b 9c 16 bf 58 00 03 bf
       1.9163105 -0.9498436 -0.58832234 -0.511724
0001a0 9a 99 37 3e ae 8a 50 bf bf 94 2b 3f dc a5 51 3e
       0.17929688 -0.8146161 0.67023844 0.20473427
0001b0 1a 06 a2 3f 3b 22 21 3f 66 c4 29 3f b1 da 7b 3e
       1.2658112 0.62942857 0.66315305 0.24595143
0001c0 26 c2 74 3f 81 9c 29 3d 71 96 e3 be 66 6b fe be
       0.95608747 0.04140902 -0.44450715 -0.49691314
0001d0 52 de a6 3e 85 d6 63 be 5f 51 ae bf c2 9f 1f 40
       0.32591492 -0.22249801 -1.3618582 2.4941258
0001e0 cd 70 c9 bf 3e 12 bd be 01 fd 09 3f 7c 5f b2 3f
       -1.5737549 -0.3692798 0.5390168 1.393539
0001f0 e9 c9 70 3f 7b eb 91 be 7a d6 41 3f 74 29 88 be
       0.9405809 -0.2849997 0.7571789 -0.26594126
000200 e3 88 75 3d 87 04 74 be fa 7d ff 3e 77 79 af bf
       0.059945 -0.23829852 0.499008 -1.3708943
000210 02 8c 6b 3f 61 a6 7b be b5 e7 49 bf a1 77 6b be
       0.9201051 -0.24575187 -0.7886918 -0.22994854
000220 36 de fa bd f9 dd b4 3e e7 0d c0 be e4 f1 c1 bf
       -0.122494146 0.35325602 -0.37510607 -1.5151944
000230 9b 32 5a be 33 91 72 bf de b3 98 be 8e e0 d6 be
       -0.21308367 -0.94752806 -0.29824728 -0.41968197
000240 e7 8c 85 bf d3 8b 4d 3e 91 af c9 be 56 02 55 3e
       -1.0433625 0.2007287 -0.3939176 0.20801672
000250 58 be 71 bf 2e d3 72 3f f7 a4 97 be dc 9b d3 3e
       -0.94431067 0.94853485 -0.29618046 0.4132985
000260 2a 5f 60 3e 38 4c 7a bf 7d ac 94 be c7 72 85 3f
       0.21911302 -0.9777255 -0.29037848 1.0425652
000270 1c cc 9d bd e4 80 ad be fb 5c 39 3f b1 cc 8e 3f
       -0.077049464 -0.33887398 0.724075 1.1156217
000280 cb 0b e8 bf c8 53 b3 3f 76 bb 36 bf ad c9 27 bf
       -1.8128599 1.4009943 -0.7137979 -0.6554211
000290 68 33 80 bf 36 08 a8 3f 34 c8 1e bf 60 14 87 3e
       -1.0015688 1.3127506 -0.62024236 0.26382732
0002a0 6e 36 04 c0 95 c1 e3 3e 60 45 21 3f 70 5e bd 3e
       -2.0658221 0.4448363 0.6299648 0.36986113
0002b0 d2 d4 30 be e6 74 21 3f ec 1c b0 3d 97 8e 2a bf
       -0.17268685 0.63069 0.085992664 -0.66623825
0002c0 9b e4 43 bf 21 0e a2 bf 16 a8 ae 3e 1d ff e2 3d
       -0.765207 -1.2660562 0.34112614 0.11083815
0002d0 fe 7e 96 3f 76 22 84 3f ad 48 84 3f f5 75 51 be
       1.1757505 1.0323017 1.0334679 -0.20455153
0002e0 26 9f 2e 3e b7 73 f2 be 07 04 77 bf 40 54 b5 bf
       0.17052898 -0.47353908 -0.9649052 -1.4166336
0002f0 8a 68 8c bf 34 89 16 3f 71 b5 07 3f 2c 94 9e bf
       -1.0969403 0.58803105 0.5301123 -1.2388968
000300 a6 04 99 3f df c8 80 bf 85 a5 2d 3f ec aa 49 bf
       1.1954544 -1.0061301 0.6783069 -0.7877643
000310 aa cb 8c 3d 45 a9 5d bf 09 12 85 3f 36 d4 3c 3f
       0.06874783 -0.8658641 1.0396129 0.7376131
000320 43 b9 5f 3f 83 d1 ec be 28 b7 20 c0 a2 d6 23 bf
       0.8739206 -0.46253595 -2.511179 -0.6399938
000330 ff 39 27 3d 70 8d f9 be 57 01 2f bf 93 a9 b3 bf
       0.040826794 -0.4874072 -0.6836142 -1.4036125
000340 25 2d ea bb f5 11 e2 3f 01 e9 98 3e dc 0c 5c 3f
       -0.007146495 1.766173 0.29865268 0.8595712
000350 7c 59 96 bd e4 2c 88 bf 61 81 3b bf f1 11 c2 3e
       -0.073412865 -1.06387 -0.7324429 0.37904313
000360 b5 fc dc be 4a da a1 bf 03 b3 b1 bf bf 6a 5c 3e
       -0.4316155 -1.2644742 -1.3882755 0.21525095
000370 1f 18 05 c0 39 2b 97 3d c8 ab 24 3f 3c 3b 0b 3f
       -2.0795972 0.07381291 0.6432462 0.5438726
000380 56 7d c3 3e ae 56 80 3f c5 1e e6 3e 0c a9 a2 3f
       0.3818156 1.0026453 0.4494535 1.2707839
000390 aa c8 d5 bf 36 99 27 3f 77 03 13 bf 7b dc b3 3f
       -1.6701863 0.65468156 -0.5742716 1.405166
0003a0 c5 29 a3 bf 0c 7d 25 3f 3b 64 13 c0 58 f4 56 bf
       -1.2747122 0.6464393 -2.3029926 -0.8396659
0003b0 11 ce 38 bf 89 85 03 bf a4 c8 08 3f 29 f8 c4 3f
       -0.7218943 -0.51375633 0.53431153 1.5388232
0003c0 68 76 d6 be 86 44 ca 3f 5a 1d d1 3e 29 93 99 3e
       -0.41887212 1.5802162 0.40842706 0.29995087
0003d0 d9 13 e2 bf c7 89 02 bf 89 9f 7d be db 0e ed 3f
       -1.7662307 -0.5099148 -0.24767889 1.8520159
0003e0 99 ee 1a 3f 9b 23 88 be 3b 6c 41 3f 91 41 20 bf
       0.6052032 -0.26589665 0.7555577 -0.62600046
0003f0 50 a1 23 bf dd d1 cb 3f 18 14 be bf db b4 97 bf
       -0.6391802 1.592342 -1.4849882 -1.1852068

Q1.0.bias f4 [50, 5]
000000 5b 01 07 bb c5 8c a9 ba 4f 15 34 ba f6 1f 5e b8
       -0.0020600173 -0.0012935629 -0.00068696303 -5.295869e-05
000010 08 c6 19 39 c5 cf 46 3c ae 4b c2 3b 11 af 4a bb
       0.0001466499 0.012134497 0.005929432 -0.0030927102
000020 30 18 9d bb 55 eb cb ba 8f 3b 5a 3b 7e 93 4e 3b
       -0.004794143 -0.0015557805 0.003329966 0.0031521018
000030 41 ed 1e 3a 5c 68 2f ba 91 bf b1 b8 db 2b 75 ba
       0.0006062575 -0.0006691271 -8.4757e-05 -0.0009352543
000040 c3 5e 5e b9 f1 44 bd b6 75 c1 2b 38 df f3 3f 37
       -0.00021206871 -5.6406648e-06 4.0949748e-05 1.1441268e-05
000050 00 00 00 00 00 00 00 00 00 00 00 00 00 00 00 00
       0.0 0.0 0.0 0.0
000060 00 00 00 00 2f a6 45 3c aa f9 2d 3c bd b4 f5 3b
       0.0 0.012063547 0.010618607 0.0074983523
000070 91 ed 08 3b 8d a3 f8 38 bd 8d f5 3a 52 d9 e3 3b
       0.0020893554 0.00011856025 0.0018734258 0.006953397
000080 77 14 0a 3c 31 a1 86 3b 73 1a 39 3a cc 8e 74 3a
       0.008427731 0.004108571 0.0007061131 0.000932914
000090 b2 f8 48 3b 2c b0 3b 3b 9b 8d 92 3a 57 83 35 39
       0.0030665812 0.0028638942 0.0011181118 0.00017310433
0000a0 21 56 81 bb e0 e3 84 ba 2b 03 c2 3a f4 cb cd 3a
       -0.003947035 -0.0010138713 0.001480197 0.0015701042
0000b0 5d 6f dd 39 b1 05 15 bb 09 76 e3 ba 88 31 c7 ba
       0.00042235377 -0.0022738988 -0.0017353903 -0.0015197257
0000c0 66 b1 22 ba a6 dd f6 b8 73 a7 64 3b 6a 2f 32 ba
       -0.0006206244 -0.00011771479 0.0034889847 -0.00067972264
0000d0 1f e3 eb bb 20 c3 be bb 6f 97 f2 ba c7 bf d2 b9
       -0.007198706 -0.0058216006 -0.0018508265 -0.00040197207
0000e0 85 91 4b bb 58 7c 9e bb f7 cd 38 bb af e0 36 ba
       -0.0031062078 -0.0048366003 -0.0028198936 -0.00069762295
0000f0 b9 85 99 3a 6f de ff b9 8a 92 a0 b9 b3 36 06 b7
       0.0011712826 -0.00048803116 -0.00030626758 -7.999758e-06
000100 86 52 cf 37 b5 06 21 bb ef 6a f8 3b 23 90 41 3c
       2.471475e-05 -0.0024570648 0.007581107 0.01181415
000110 76 e8 d5 3b a4 db a1 3a 8c b7 53 3c b9 c2 28 3c
       0.0065279556 0.0012348783 0.012922179 0.010300332
000120 b9 b9 b0 3b 71 d6 07 3a 9b 30 2f b9 17 30 bb b9
       0.0053932336 0.00051817956 -0.00016707407 -0.0003570325
000130 99 7d 32 ba 0f f7 f6 b9 5b 32 cd b8 ff be 32 b7
       -0.00068088766 -0.0004710485 -9.784541e-05 -1.06540965e-05
000140 b1 e0 19 3b fa 7a d6 3a 2e 0f 45 3b 63 15 02 3b
       0.0023479874 0.0016363554 0.0030068862 0.0019849173
000150 55 bd f6 39 cb 50 08 b8 6c 7d f3 b5 86 9e 00 b4
       0.0004706184 -3.250017e-05 -1.8141413e-06 -1.19786e-07
000160 00 00 00 00 00 00 00 00 00 00 00 00 00 00 00 00
       0.0 0.0 0.0 0.0
000170 00 00 00 00 00 00 00 00 00 00 00 00 2f fe b0 3a
       0.0 0.0 0.0 0.0013503487
000180 c7 a2 25 3b 46 68 51 3b 69 66 e3 3a b4 a7 22 3a
       0.0025274025 0.003195302 0.0017349246 0.0006204799
000190 49 64 25 b9 be 95 c8 b8 fc 19 c8 b8 dd 6b 50 b8
       -0.00015772985 -9.564635e-05 -9.541583e-05 -4.969152e-05
0001a0 17 5e f9 b7 f9 0c 19 bb 04 13 34 bb ea 75 3f bb
       -2.9726927e-05 -0.002335368 -0.0027477155 -0.002921457
0001b0 66 ff b1 ba b1 8e a9 b9 2c 63 0b bb c1 04 37 3a
       -0.0013580143 -0.00032340505 -0.0021268828 0.00069816044
0001c0 dc c0 ac 39 bf 9f 09 b9 8f 47 3e b7 49 f2 34 bb
       0.00032950088 -0.00013124848 -1.13415435e-05 -0.0027610234
0001d0 84 f6 34 bb 2f dd 30 bb c9 75 9a ba 9b cd 8b b9
       -0.0027612755 -0.0026987304 -0.001178437 -0.00026665334
0001e0 2e 9b d1 b9 80 59 b4 bb 57 50 01 bc 8a 57 87 bb
       -0.00039979204 -0.0055038333 -0.00789269 -0.0041303085
0001f0 62 34 65 ba d2 cf 95 3a 23 3e 55 3a 00 d9 59 3a
       -0.00087434624 0.0011429733 0.0008134564 0.00083102286
000200 87 5a ce 39 6f 26 f5 38 1e 53 a6 b9 d6 b3 1f bb
       0.0003935883 0.00011689669 -0.00031723914 -0.0024368665
000210 de 6f 13 38 52 20 9a 3a 32 9b 63 39 d3 dc 5c 3b
       3.5151716e-05 0.00117589 0.00021706222 0.0033700957
000220 9d d3 1c bb 0f eb 05 bc 20 58 c0 bb c2 59 de ba
       -0.0023929842 -0.008173718 -0.0058698803 -0.0016964006
000230 32 9e 97 39 8c 63 99 39 54 8d d2 38 3c 5e 7b b8
       0.0002891883 0.00029256602 0.00010039905 -5.9930826e-05
000240 fb dd 26 b9 53 f8 96 3a f7 63 8f 3a a2 de 8d 3a
       -0.00015913688 0.0011518098 0.0010939826 0.0010823796
000250 d6 a7 fe 39 ea d6 0d 39 22 44 50 bb 4a d4 26 ba
       0.00048571703 0.0001352687 -0.0031778892 -0.0006364031
000260 57 53 97 bb 2a 57 7b bb 32 62 5d ba 55 44 a3 bb
       -0.004618089 -0.0038351514 -0.0008445113 -0.004982511
000270 f0 07 ed bb d0 e6 f7 bb 12 6c 5e bb 70 43 47 ba
       -0.0072336122 -0.007565357 -0.0033938927 -0.00076012965
000280 f1 c6 2e b9 35 74 45 b7 98 85 ab 35 00 00 00 00
       -0.00016668045 -1.1769172e-05 1.2779374e-06 0.0
000290 00 00 00 00 df 72 ab 3b 11 d9 3f 3c bc 4a 4f 3c
       0.0 0.0052321996 0.0117094675 0.012652095
0002a0 9e 11 bb 3b e8 0e 77 3a 50 5f af 3b e8 52 1c 39
       0.0057088872 0.00094245235 0.0053519383 0.00014908204
0002b0 f5 a3 09 3a af db 27 3a 85 a7 4e 39 9a d1 22 ba
       0.0005250567 0.000640328 0.00019708097 -0.00062110426
0002c0 1d 2e 60 ba 7a 85 a1 ba 58 e2 42 ba b7 99 9e b9
       -0.0008551793 -0.0012323104 -0.00074342405 -0.00030250635
0002d0 de f7 ab 3b f9 f3 e3 3a 99 7b 15 ba 6a 12 7c ba
       0.005248054 0.0017391435 -0.00057023164 -0.0009615781
0002e0 c5 e5 d7 38 52 68 8f ba 4b e0 20 3a d2 b7 6b 39
       0.00010294797 -0.0010941124 0.0006136938 0.00022479825
0002f0 df 97 85 b8 87 b2 95 37 ca b7 97 3c 96 e8 41 ba
       -6.3702224e-05 1.7845317e-05 0.018520255 -0.0007397024
000300 cc a9 5b bc fa 58 2b bc 9b 0f 4e bb c6 eb 84 3c
       -0.013407182 -0.010458225 -0.0031442407 0.016225707
000310 f2 79 6e 3a 42 f8 d2 bb 2c 72 a9 bb f0 bb 78 ba
       0.0009097151 -0.006438286 -0.005171081 -0.0009488454
000320 f4 7b 6d bb b2 7a 65 ba 19 1e 83 39 64 b9 df 39
       -0.0036237212 -0.000875394 0.00025008692 0.00042672
000330 d4 96 b6 38 f6 4d 4c ba 4a 45 a5 b9 2f ef c0 39
       8.70653e-05 -0.00077935995 -0.00031522877 0.000367993
000340 5f 1d 99 39 87 18 c3 b8 fd 06 92 ba cf 52 22 3a
       0.00029204317 -9.302893e-05 -0.0011140999 0.0006192149
000350 a7 35 41 3a a3 82 d8 37 6d 0a 39 ba cc f3 a0 ba
       0.00073703605 2.5810039e-05 -0.00070587435 -0.0012279688
000360 00 00 27 ba 45 fe 0b ba f7 68 7b b9 bc b5 cd b8
       -0.00063705444 -0.00053403183 -0.00023976328 -9.8090124e-05
000370 e0 1a 48 b9 bf 5b 45 b9 db aa 42 b9 71 63 ac b8
       -0.00019083498 -0.00018821562 -0.0001856493 -8.2201215e-05
000380 6c 60 aa b7 26 0f aa 3b c0 d6 89 3a b2 07 a2 3a
       -2.031048e-05 0.005189794 0.0010516271 0.0012361913
000390 ae 96 3b 3a 82 a1 a4 37 3b c2 90 ba 89 24 86 ba
       0.0007155937 1.9625531e-05 -0.0011044213 -0.0010234277
0003a0 94 b5 7a ba 59 52 d2 b9 d5 c6 b4 b8 f4 3d 1f ba
       -0.00095638004 -0.00040115675 -8.620104e-05 -0.00060746004
0003b0 b3 41 e1 3b ef b5 2d 3c a3 cd c0 3b 47 b0 94 3a
       0.006874287 0.010602458 0.005883889 0.0011344039
0003c0 05 a3 29 bc 70 16 55 bb 27 0c 82 3a a4 40 01 3b
       -0.010353808 -0.0032514594 0.0009921835 0.0019722367
0003d0 fb a7 4a 3a 69 b7 84 3c 57 2a 43 3c 6b 5b df 3b
       0.00077307195 0.016200738 0.01191195 0.006816318
0003e0 1b d1 91 3a 86 dc 02 b9
       0.001112494 -0.00012479917
