CausalCVR/logs/simu3/eval/50/Vcnet_tr_ckpt.pth.tar (torch, 123637 bytes, 18 tensors)

feature_weight.weight f4 [50, 8]
000000 2b 2c 53 3b 1b 98 80 38 be d4 a6 3b 1c 3e f7 3b
       0.003222237 6.1318475e-05 0.005091279 0.007545246
000010 b4 22 ff 3b b6 36 49 3a 05 02 8d bb d0 d7 81 bc
       0.0077861194 0.0007675694 -0.0043032193 -0.015849978
000020 a2 9b 85 3b 30 0e b6 3b 67 d3 83 3b a1 ac 81 bc
       0.004077391 0.0055558905 0.004023004 -0.015829386
000030 4e f9 2c bc ef d2 c5 b9 20 dc c1 bb e9 45 6e 3a
       -0.010557486 -0.00037731926 -0.0059161335 0.0009089397
000040 29 7a 57 bb 85 78 01 bc cf 9f 64 bc 30 c1 ec 3b
       -0.003287921 -0.007902269 -0.013954117 0.007225178
000050 b0 c9 d4 bb d3 a3 8b bb 7b 07 48 bc 91 55 07 b9
       -0.0064937696 -0.0042614727 -0.012208815 -0.00012906479
000060 2f 0b 54 bc c9 b8 2b bb e0 25 b1 3b b5 62 62 bb
       -0.0129421195 -0.002620267 0.0054061264 -0.0034543697
000070 65 a3 83 3c 0f d3 ca bb 4a 67 55 3b 22 42 5c 3c
       0.016069124 -0.006189711 0.0032562786 0.013443502
000080 1b a0 24 bb 41 cd f9 3a 35 c3 5a 3a bd 52 23 bc
       -0.0025119844 0.0019058363 0.0008345128 -0.009968457
000090 e6 0e 5e 3c 69 25 62 3c a4 21 ba 3b 8b e6 07 bb
       0.013553357 0.013802865 0.00568028 -0.002073678
0000a0 77 ec 46 3c d5 9b 77 3b 20 5c a0 39 a0 d5 7a 3a
       0.012141339 0.0037782092 0.00030586217 0.0009568576
0000b0 8b 8f 17 3b 61 e6 ce bc 04 02 63 bc 26 2e f1 bb
       0.002312633 -0.025256338 -0.013855461 -0.0073602377
0000c0 05 f2 66 bc ae 02 17 bc e3 76 26 3c ce 8a 0e bc
       -0.014095788 -0.0092169475 0.010160181 -0.008700086
0000d0 a8 ba 4c bc c8 47 96 bc 41 82 72 bb 95 07 ee ba
       -0.012495674 -0.018344775 -0.0037003907 -0.0018160219
0000e0 6e ab 0a 3c 0f 4a 1a bc 01 7f 4c bc 5c 57 16 b9
       0.008463724 -0.009417071 -0.012481452 -0.00014337659
0000f0 7e db e2 3a 5c b4 00 bc 8e 60 9b 3b 87 93 f7 bb
       0.0017307845 -0.007855501 0.004741735 -0.0075554284
000100 cd 21 f6 3a 7b c0 48 3a 3e dc 21 bb 3c cc c1 3c
       0.0018778384 0.00076580764 -0.0024697925 0.023656957
000110 1d 19 2b 3c bc 6d 9a 3b 53 19 8f bb 0a 97 94 3c
       0.010442999 0.0047127884 -0.0043670326 0.018138427
000120 ec a9 9b 3b eb 98 e6 3a a8 6d 09 bc 97 70 13 bb
       0.004750481 0.001759318 -0.0083879605 -0.0022497529
000130 0f dc 18 bb c9 da db bb 7b dc 2a bc 93 63 58 3a
       -0.0023324525 -0.006709431 -0.010428543 0.0008254584
000140 93 8d 80 bb 3f ea 95 3a b4 c5 88 b9 83 e6 fc 3b
       -0.003923127 0.0011437609 -0.00026087242 0.007717909
000150 51 b2 11 bc a1 05 11 bb 2f 3e 86 3b 64 ec 64 3c
       -0.008892612 -0.00221286 0.0040967683 0.013972376
000160 c1 09 d6 3b 86 71 2d 3b ef ce df 3b 49 55 26 3c
       0.0065319245 0.002646537 0.0068300883 0.0101521695
000170 6f b6 99 ba eb 0d 44 ba 6e 5e e9 bb 04 a4 37 3b
       -0.0011727343 -0.00074788806 -0.0071218526 0.0028021345
000180 43 f4 99 3b 84 3f 12 bc e1 b7 a2 bb 2d 67 1e bc
       0.0046983077 -0.008926276 -0.0049657677 -0.009668154
000190 71 88 8d bb fb ed 20 3b 57 1b d2 3c 01 e1 4d bc
       -0.0043192436 0.002455591 0.025647802 -0.012565852
0001a0 cc b6 f2 3b f8 17 17 3c bc 1f 34 bc c0 1b 5e 3b
       0.007407045 0.009222023 -0.010993894 0.0033891052
0001b0 39 db 37 bc 50 cd b1 3b 00 36 d2 bc ce be e4 bb
       -0.0112217 0.0054260865 -0.025660515 -0.0069807535
0001c0 1b 19 57 3c c3 6c 96 3c e0 56 f1 3b 14 45 83 3c
       0.013128544 0.018362409 0.0073650926 0.01602415
0001d0 a8 b6 b0 3c bb bf 59 3c e0 1a 7b 3c a7 9c 10 bc
       0.021571472 0.013290341 0.015326232 -0.008826411
0001e0 63 83 21 bc 29 78 ff 39 b9 02 50 3c d5 4c b8 3a
       -0.009857985 0.00048726916 0.012695962 0.0014060984
0001f0 d0 fd de bb e1 0d 6f bc 47 90 6f 3b af ee 7e ba
       -0.006805159 -0.014590711 0.0036554502 -0.00097248977
000200 a8 79 8e 3c 16 81 7b bb 9b 32 af 3b 0e 0a b5 bb
       0.017391995 -0.0038376502 0.005346609 -0.0055248803
000210 da 8b 07 bc c9 28 3f bc e4 37 3b bc 79 57 dd 3a
       -0.008273089 -0.011667439 -0.0114269 0.0016887031
000220 c2 87 31 bc e5 3a 82 bc 07 c3 c6 bb bc 71 b3 b9
       -0.01083559 -0.015897224 -0.0060657295 -0.0003422628
000230 09 6b 8b bc 5c 05 8a bb 3b 16 b2 3c e9 10 a9 bb
       -0.017018812 -0.0042120647 0.021739116 -0.0051594866
000240 5c 86 43 bc 43 8e ab 3c b6 69 af 3a 66 d5 31 bc
       -0.011933889 0.02094186 0.0013382945 -0.010854101
000250 f2 6c 9e b9 5a 6f 3d bc 40 f7 36 b9 3b 86 c8 3c
       -0.0003021728 -0.011562193 -0.0001744898 0.024478069
000260 91 5a 20 3c d7 a9 e6 3b 94 e8 d0 bb 0f 74 8b bc
       0.009787218 0.0070392895 -0.0063753817 -0.017023114
000270 db d7 e7 3a 4b b7 32 3a 2b 3e cf 3b 2b 87 05 3a
       0.0017688231 0.0006817474 0.0063245497 0.0005093689
000280 97 45 cc ba 36 4f 66 3a 19 84 b3 bb 65 1c cd ba
       -0.0015584704 0.0008785607 -0.0054783938 -0.0015648721
000290 6a c0 fb b9 d1 ce 8b 3c fe b8 09 3c 84 69 7d bc
       -0.0004801781 0.017066391 0.008405922 -0.015467051
0002a0 ff c7 c0 bb 4e 93 0f 3c 8f 9f c7 bb c3 b6 0d bc
       -0.0058832164 0.0087631475 -0.006092019 -0.008649531
0002b0 6f aa 89 3b ec 30 07 3c 54 9f 78 3c a0 65 96 3c
       0.0042012255 0.00825141 0.015174706 0.018359005
0002c0 eb 33 b7 38 71 bd 95 bb e3 32 bf 3b 64 0d ae bc
       8.7357905e-05 -0.0045697023 0.0058349236 -0.02124662
0002d0 26 e9 29 3c b8 74 bf 3b 4f d3 12 bb 52 00 ba bb
       0.010370528 0.0058427714 -0.0022403782 -0.0056763077
0002e0 86 fe 0f 3b 8d 27 8e bc ca 16 56 bc f3 ee 95 bb
       0.0021971776 -0.017352844 -0.013066957 -0.004575604
0002f0 a0 d2 df bb 14 ef a6 bb 9c 76 f4 bb bc 48 b4 bb
       -0.0068305284 -0.0050944183 -0.0074604284 -0.0055018347
000300 7c 65 9f bb 3f 08 48 bc f7 0e 35 bc 2d 4f cd 3a
       -0.004864393 -0.012208997 -0.011050931 0.0015663855
000310 3a d0 76 bc e2 fb 03 3c 3f 1b cd bb 86 23 45 3c
       -0.0150642935 0.008055659 -0.0062593515 0.012032395
000320 25 26 c8 3a 0b 72 8d 3b bd ab 45 bc 83 42 05 bc
       0.0015270157 0.0043165735 -0.012064871 -0.008133533
000330 b0 31 b3 bc 8a a1 f2 3b 50 42 da 3b fd 00 ac bb
       -0.021874279 0.007404511 0.006660737 -0.0052491412
000340 6a 30 6b 3a be 3f 08 bb f3 61 49 bb 54 ae 0a bc
       0.0008971753 -0.0020789946 -0.0030728548 -0.008464415
000350 d6 4c 98 3b d4 01 67 3b 3a 97 7b ba a1 77 26 3b
       0.0046478314 0.0035248892 -0.00095974247 0.0025400894
000360 e5 8d c9 3b 68 88 69 bc 02 61 ba 3b d4 cb f7 39
       0.0061509483 -0.014253713 0.0056878338 0.00047263375
000370 78 b9 b3 3b c1 2b 41 3c 13 1d f2 3b 77 f1 64 39
       0.005484756 0.011790217 0.00738872 0.00021833727
000380 e2 e5 a4 ba 4f 99 20 bb 66 2a c8 bb 1e 44 6e 3c
       -0.0012580717 -0.0024505442 -0.00610857 0.014542608
000390 a5 2c c5 bb e9 19 c9 3b 38 a8 0b 3c d8 5e e0 bb
       -0.006017285 0.006137122 0.008523993 -0.0068472438
0003a0 02 58 b4 39 d5 d8 ac ba 29 46 3a bc ba c8 df 3b
       0.00034397846 -0.001318718 -0.011369267 0.0068293484
0003b0 8e 32 00 3c 71 de 2f bb 89 82 81 3a 4d 55 3d 3c
       0.007824553 -0.0026835466 0.0009880821 0.011555982
0003c0 60 52 4d bc ac 71 18 3c 15 c8 3b bc b7 af 9f ba
       -0.012531847 0.009304445 -0.0114612775 -0.0012183104
0003d0 1f ba 9b ba 65 d0 38 bc 4d 62 21 bc 2e 0d 14 3c
       -0.001188103 -0.011280154 -0.009850097 0.009036345
0003e0 f9 19 d7 bb 2a 6a 57 3c 09 c0 2a bc 13 de 35 3c
       -0.0065643755 0.01314787 -0.010421761 0.01110031
0003f0 fc eb 48 3a 9c 63 eb 39 af 37 04 bc 23 b2 14 3c
       0.0007664559 0.00044896908 -0.008069917 0.009075674

feature_weight.bias f4 [50]
000000 7f a8 b3 b7 47 5e 91 36 00 00 00 00 11 c8 d9 b7
       -2.1416925e-05 4.332312e-06 0.0 -2.5961579e-05
000010 c9 91 2c b8 8d f8 9e 35 00 00 00 00 0b 95 04 b6
       -4.114377e-05 1.1844255e-06 0.0 -1.9756287e-06
000020 48 b9 42 b8 8c 31 5e b4 c2 cb 3f 38 4f 2e fa b7
       -4.642576e-05 -2.0693386e-07 4.5727713e-05 -2.9823887e-05
000030 e7 8a 42 36 7a c1 39 b4 c3 53 0c b3 fc 57 4a 36
       2.8989105e-06 -1.7299854e-07 -3.267247e-08 3.015156e-06
000040 f5 1e 96 37 26 45 27 b4 fa ed 29 38 50 01 1e 36
       1.7895809e-05 -1.5578243e-07 4.0514373e-05 2.3544599e-06
000050 19 25 9b 37 00 d3 0a b8 e3 09 d1 b6 00 00 00 00
       1.8494715e-05 -3.3098273e-05 -6.2298363e-06 0.0
000060 ac 41 25 35 7d 0d f2 35 f6 85 c4 36 50 54 35 37
       6.1562855e-07 1.8034331e-06 5.8568503e-06 1.0808071e-05
000070 ec 36 1d 37 b3 99 54 37 77 0a 91 b5 ae c1 88 38
       9.370717e-06 1.2671971e-05 -1.0806388e-06 6.521061e-05
000080 07 5e 3b b7 1f de 98 37 b5 d8 8c b8 d8 50 68 b8
       -1.1167961e-05 1.8223245e-05 -6.716085e-05 -5.5388402e-05
000090 58 9e 6e b8 07 fa 26 b5 46 b2 32 b6 7d b8 ff b5
       -5.689109e-05 -6.2203657e-07 -2.6627836e-06 -1.9052674e-06
0000a0 0b fe 0a 38 49 67 f4 38 42 d2 0c 37 b0 a6 df 37
       3.313836e-05 0.00011654065 8.393605e-06 2.6661291e-05
0000b0 1e f5 10 b8 cf 70 81 b3 81 a5 3a 36 f1 53 4b b7
       -3.456056e-05 -6.0275504e-08 2.7812496e-06 -1.2119287e-05
0000c0 0e 07 26 b6 53 d5 03 b7
       -2.4740034e-06 -7.857877e-06

hidden_features.0.weight f4 [50, 8]
000000 2b 2c 53 3b 1b 98 80 38 be d4 a6 3b 1c 3e f7 3b
       0.003222237 6.1318475e-05 0.005091279 0.007545246
000010 b4 22 ff 3b b6 36 49 3a 05 02 8d bb d0 d7 81 bc
       0.0077861194 0.0007675694 -0.0043032193 -0.015849978
000020 a2 9b 85 3b 30 0e b6 3b 67 d3 83 3b a1 ac 81 bc
       0.004077391 0.0055558905 0.004023004 -0.015829386
000030 4e f9 2c bc ef d2 c5 b9 20 dc c1 bb e9 45 6e 3a
       -0.010557486 -0.00037731926 -0.0059161335 0.0009089397
000040 29 7a 57 bb 85 78 01 bc cf 9f 64 bc 30 c1 ec 3b
       -0.003287921 -0.007902269 -0.013954117 0.007225178
000050 b0 c9 d4 bb d3 a3 8b bb 7b 07 48 bc 91 55 07 b9
       -0.0064937696 -0.0042614727 -0.012208815 -0.00012906479
000060 2f 0b 54 bc c9 b8 2b bb e0 25 b1 3b b5 62 62 bb
       -0.0129421195 -0.002620267 0.0054061264 -0.0034543697
000070 65 a3 83 3c 0f d3 ca bb 4a 67 55 3b 22 42 5c 3c
       0.016069124 -0.006189711 0.0032562786 0.013443502
000080 1b a0 24 bb 41 cd f9 3a 35 c3 5a 3a bd 52 23 bc
       -0.0025119844 0.0019058363 0.0008345128 -0.009968457
000090 e6 0e 5e 3c 69 25 62 3c a4 21 ba 3b 8b e6 07 bb
       0.013553357 0.013802865 0.00568028 -0.002073678
0000a0 77 ec 46 3c d5 9b 77 3b 20 5c a0 39 a0 d5 7a 3a
       0.012141339 0.0037782092 0.00030586217 0.0009568576
0000b0 8b 8f 17 3b 61 e6 ce bc 04 02 63 bc 26 2e f1 bb
       0.002312633 -0.025256338 -0.013855461 -0.0073602377
0000c0 05 f2 66 bc ae 02 17 bc e3 76 26 3c ce 8a 0e bc
       -0.014095788 -0.0092169475 0.010160181 -0.008700086
0000d0 a8 ba 4c bc c8 47 96 bc 41 82 72 bb 95 07 ee ba
       -0.012495674 -0.018344775 -0.0037003907 -0.0018160219
0000e0 6e ab 0a 3c 0f 4a 1a bc 01 7f 4c bc 5c 57 16 b9
       0.008463724 -0.009417071 -0.012481452 -0.00014337659
0000f0 7e db e2 3a 5c b4 00 bc 8e 60 9b 3b 87 93 f7 bb
       0.0017307845 -0.007855501 0.004741735 -0.0075554284
000100 cd 21 f6 3a 7b c0 48 3a 3e dc 21 bb 3c cc c1 3c
       0.0018778384 0.00076580764 -0.0024697925 0.023656957
000110 1d 19 2b 3c bc 6d 9a 3b 53 19 8f bb 0a 97 94 3c
       0.010442999 0.0047127884 -0.0043670326 0.018138427
000120 ec a9 9b 3b eb 98 e6 3a a8 6d 09 bc 97 70 13 bb
       0.004750481 0.001759318 -0.0083879605 -0.0022497529
000130 0f dc 18 bb c9 da db bb 7b dc 2a bc 93 63 58 3a
       -0.0023324525 -0.006709431 -0.010428543 0.0008254584
000140 93 8d 80 bb 3f ea 95 3a b4 c5 88 b9 83 e6 fc 3b
       -0.003923127 0.0011437609 -0.00026087242 0.007717909
000150 51 b2 11 bc a1 05 11 bb 2f 3e 86 3b 64 ec 64 3c
       -0.008892612 -0.00221286 0.0040967683 0.013972376
000160 c1 09 d6 3b 86 71 2d 3b ef ce df 3b 49 55 26 3c
       0.0065319245 0.002646537 0.0068300883 0.0101521695
000170 6f b6 99 ba eb 0d 44 ba 6e 5e e9 bb 04 a4 37 3b
       -0.0011727343 -0.00074788806 -0.0071218526 0.0028021345
000180 43 f4 99 3b 84 3f 12 bc e1 b7 a2 bb 2d 67 1e bc
       0.0046983077 -0.008926276 -0.0049657677 -0.009668154
000190 71 88 8d bb fb ed 20 3b 57 1b d2 3c 01 e1 4d bc
       -0.0043192436 0.002455591 0.025647802 -0.012565852
0001a0 cc b6 f2 3b f8 17 17 3c bc 1f 34 bc c0 1b 5e 3b
       0.007407045 0.009222023 -0.010993894 0.0033891052
0001b0 39 db 37 bc 50 cd b1 3b 00 36 d2 bc ce be e4 bb
       -0.0112217 0.0054260865 -0.025660515 -0.0069807535
0001c0 1b 19 57 3c c3 6c 96 3c e0 56 f1 3b 14 45 83 3c
       0.013128544 0.018362409 0.0073650926 0.01602415
0001d0 a8 b6 b0 3c bb bf 59 3c e0 1a 7b 3c a7 9c 10 bc
       0.021571472 0.013290341 0.015326232 -0.008826411
0001e0 63 83 21 bc 29 78 ff 39 b9 02 50 3c d5 4c b8 3a
       -0.009857985 0.00048726916 0.012695962 0.0014060984
0001f0 d0 fd de bb e1 0d 6f bc 47 90 6f 3b af ee 7e ba
       -0.006805159 -0.014590711 0.0036554502 -0.00097248977
000200 a8 79 8e 3c 16 81 7b bb 9b 32 af 3b 0e 0a b5 bb
       0.017391995 -0.0038376502 0.005346609 -0.0055248803
000210 da 8b 07 bc c9 28 3f bc e4 37 3b bc 79 57 dd 3a
       -0.008273089 -0.011667439 -0.0114269 0.0016887031
000220 c2 87 31 bc e5 3a 82 bc 07 c3 c6 bb bc 71 b3 b9
       -0.01083559 -0.015897224 -0.0060657295 -0.0003422628
000230 09 6b 8b bc 5c 05 8a bb 3b 16 b2 3c e9 10 a9 bb
       -0.017018812 -0.0042120647 0.021739116 -0.0051594866
000240 5c 86 43 bc 43 8e ab 3c b6 69 af 3a 66 d5 31 bc
       -0.011933889 0.02094186 0.0013382945 -0.010854101
000250 f2 6c 9e b9 5a 6f 3d bc 40 f7 36 b9 3b 86 c8 3c
       -0.0003021728 -0.011562193 -0.0001744898 0.024478069
000260 91 5a 20 3c d7 a9 e6 3b 94 e8 d0 bb 0f 74 8b bc
       0.009787218 0.0070392895 -0.0063753817 -0.017023114
000270 db d7 e7 3a 4b b7 32 3a 2b 3e cf 3b 2b 87 05 3a
       0.0017688231 0.0006817474 0.0063245497 0.0005093689
000280 97 45 cc ba 36 4f 66 3a 19 84 b3 bb 65 1c cd ba
       -0.0015584704 0.0008785607 -0.0054783938 -0.0015648721
000290 6a c0 fb b9 d1 ce 8b 3c fe b8 09 3c 84 69 7d bc
       -0.0004801781 0.017066391 0.008405922 -0.015467051
0002a0 ff c7 c0 bb 4e 93 0f 3c 8f 9f c7 bb c3 b6 0d bc
       -0.0058832164 0.0087631475 -0.006092019 -0.008649531
0002b0 6f aa 89 3b ec 30 07 3c 54 9f 78 3c a0 65 96 3c
       0.0042012255 0.00825141 0.015174706 0.018359005
0002c0 eb 33 b7 38 71 bd 95 bb e3 32 bf 3b 64 0d ae bc
       8.7357905e-05 -0.0045697023 0.0058349236 -0.02124662
0002d0 26 e9 29 3c b8 74 bf 3b 4f d3 12 bb 52 00 ba bb
       0.010370528 0.0058427714 -0.0022403782 -0.0056763077
0002e0 86 fe 0f 3b 8d 27 8e bc ca 16 56 bc f3 ee 95 bb
       0.0021971776 -0.017352844 -0.013066957 -0.004575604
0002f0 a0 d2 df bb 14 ef a6 bb 9c 76 f4 bb bc 48 b4 bb
       -0.0068305284 -0.0050944183 -0.0074604284 -0.0055018347
000300 7c 65 9f bb 3f 08 48 bc f7 0e 35 bc 2d 4f cd 3a
       -0.004864393 -0.012208997 -0.011050931 0.0015663855
000310 3a d0 76 bc e2 fb 03 3c 3f 1b cd bb 86 23 45 3c
       -0.0150642935 0.008055659 -0.0062593515 0.012032395
000320 25 26 c8 3a 0b 72 8d 3b bd ab 45 bc 83 42 05 bc
       0.0015270157 0.0043165735 -0.012064871 -0.008133533
000330 b0 31 b3 bc 8a a1 f2 3b 50 42 da 3b fd 00 ac bb
       -0.021874279 0.007404511 0.006660737 -0.0052491412
000340 6a 30 6b 3a be 3f 08 bb f3 61 49 bb 54 ae 0a bc
       0.0008971753 -0.0020789946 -0.0030728548 -0.008464415
000350 d6 4c 98 3b d4 01 67 3b 3a 97 7b ba a1 77 26 3b
       0.0046478314 0.0035248892 -0.00095974247 0.0025400894
000360 e5 8d c9 3b 68 88 69 bc 02 61 ba 3b d4 cb f7 39
       0.0061509483 -0.014253713 0.0056878338 0.00047263375
000370 78 b9 b3 3b c1 2b 41 3c 13 1d f2 3b 77 f1 64 39
       0.005484756 0.011790217 0.00738872 0.00021833727
000380 e2 e5 a4 ba 4f 99 20 bb 66 2a c8 bb 1e 44 6e 3c
       -0.0012580717 -0.0024505442 -0.00610857 0.014542608
000390 a5 2c c5 bb e9 19 c9 3b 38 a8 0b 3c d8 5e e0 bb
       -0.006017285 0.006137122 0.008523993 -0.0068472438
0003a0 02 58 b4 39 d5 d8 ac ba 29 46 3a bc ba c8 df 3b
       0.00034397846 -0.001318718 -0.011369267 0.0068293484
0003b0 8e 32 00 3c 71 de 2f bb 89 82 81 3a 4d 55 3d 3c
       0.007824553 -0.0026835466 0.0009880821 0.011555982
0003c0 60 52 4d bc ac 71 18 3c 15 c8 3b bc b7 af 9f ba
       -0.012531847 0.009304445 -0.0114612775 -0.0012183104
0003d0 1f ba 9b ba 65 d0 38 bc 4d 62 21 bc 2e 0d 14 3c
       -0.001188103 -0.011280154 -0.009850097 0.009036345
0003e0 f9 19 d7 bb 2a 6a 57 3c 09 c0 2a bc 13 de 35 3c
       -0.0065643755 0.01314787 -0.010421761 0.01110031
0003f0 fc eb 48 3a 9c 63 eb 39 af 37 04 bc 23 b2 14 3c
       0.0007664559 0.00044896908 -0.008069917 0.009075674

hidden_features.0.bias f4 [50]
000000 7f a8 b3 b7 47 5e 91 36 00 00 00 00 11 c8 d9 b7
       -2.1416925e-05 4.332312e-06 0.0 -2.5961579e-05
000010 c9 91 2c b8 8d f8 9e 35 00 00 00 00 0b 95 04 b6
       -4.114377e-05 1.1844255e-06 0.0 -1.9756287e-06
000020 48 b9 42 b8 8c 31 5e b4 c2 cb 3f 38 4f 2e fa b7
       -4.642576e-05 -2.0693386e-07 4.5727713e-05 -2.9823887e-05
000030 e7 8a 42 36 7a c1 39 b4 c3 53 0c b3 fc 57 4a 36
       2.8989105e-06 -1.7299854e-07 -3.267247e-08 3.015156e-06
000040 f5 1e 96 37 26 45 27 b4 fa ed 29 38 50 01 1e 36
       1.7895809e-05 -1.5578243e-07 4.0514373e-05 2.3544599e-06
000050 19 25 9b 37 00 d3 0a b8 e3 09 d1 b6 00 00 00 00
       1.8494715e-05 -3.3098273e-05 -6.2298363e-06 0.0
000060 ac 41 25 35 7d 0d f2 35 f6 85 c4 36 50 54 35 37
       6.1562855e-07 1.8034331e-06 5.8568503e-06 1.0808071e-05
000070 ec 36 1d 37 b3 99 54 37 77 0a 91 b5 ae c1 88 38
       9.370717e-06 1.2671971e-05 -1.0806388e-06 6.521061e-05
000080 07 5e 3b b7 1f de 98 37 b5 d8 8c b8 d8 50 68 b8
       -1.1167961e-05 1.8223245e-05 -6.716085e-05 -5.5388402e-05
000090 58 9e 6e b8 07 fa 26 b5 46 b2 32 b6 7d b8 ff b5
       -5.689109e-05 -6.2203657e-07 -2.6627836e-06 -1.9052674e-06
0000a0 0b fe 0a 38 49 67 f4 38 42 d2 0c 37 b0 a6 df 37
       3.313836e-05 0.00011654065 8.393605e-06 2.6661291e-05
0000b0 1e f5 10 b8 cf 70 81 b3 81 a5 3a 36 f1 53 4b b7
       -3.456056e-05 -6.0275504e-08 2.7812496e-06 -1.2119287e-05
0000c0 0e 07 26 b6 53 d5 03 b7
       -2.4740034e-06 -7.857877e-06

hidden_features.2.weight f4 [50, 50]
000000 44 db 85 bc 25 1e df ba 5b 14 88 ba 57 d0 65 3c
       -0.016339906 -0.0017022534 -0.0010382043 0.014026723
000010 9b 1c 84 bc 2f 25 dd b9 60 0a 1e b9 02 ac 50 3c
       -0.016126921 -0.0004218011 -0.00015071919 0.012736322
000020 86 af 0f bc 0e a1 f0 bb fa 14 a9 3b 82 da 4e 3a
       -0.008769875 -0.007343418 0.0051599713 0.00078908366
000030 21 78 b7 bb c8 63 34 bc 8b af 6a 39 15 f5 45 ba
       -0.0055990373 -0.011010118 0.00022381374 -0.00075514737
000040 8e 2d 9b bb 5a 26 5a 3b 6b 7f 80 ba e1 ba 11 3c
       -0.004735655 0.003328702 -0.0009803599 0.008894653
000050 35 da e8 bb df 1b ba 3b 2f 3c 3f 3c 08 17 b1 3b
       -0.0071060904 0.005679592 0.011672064 0.005404357
000060 d2 9a b6 3b b1 e7 41 3b d6 3c 39 bc e6 77 80 3b
       0.0055726552 0.0029587562 -0.011306008 0.003920543
000070 a0 63 38 3c 64 31 44 bb 68 09 1f bc e1 3d 95 bc
       0.011254221 -0.0029936666 -0.0097068325 -0.018217983
000080 99 d1 62 bb f3 1a 80 bc d3 c0 a5 bb 3e bf 85 3b
       -0.0034609793 -0.01563785 -0.005058387 0.0040816357
000090 16 08 07 3c c4 50 02 3c e8 6a 06 bc 49 9f f8 ba
       0.008241674 0.007953826 -0.008204199 -0.0018968369
0000a0 d8 52 28 3b d5 bb 41 3b 43 ca fc 3a 4e 41 87 ba
       0.0025684144 0.002956142 0.0019286353 -0.0010319145
0000b0 ca 7a 66 3c 3d f1 30 bb 54 24 c8 bb d8 2a 11 bc
       0.014067361 -0.0026999258 -0.0061078463 -0.008860312
0000c0 15 ba 65 bc 7f 7f d8 3b ce 19 ab bb e8 cd 0b bc
       -0.014021416 0.0066069956 -0.005221582 -0.008532979
0000d0 aa a8 e9 38 2e bd 2d 3c d4 03 bc bc a9 f6 c8 3b
       0.00011141722 0.010604186 -0.022951044 0.00613292
0000e0 72 95 c1 3a 9b fb 1d 3c b2 05 a8 bc 2f 08 d1 ba
       0.001476927 0.009642507 -0.020510528 -0.0015947873
0000f0 b5 c7 91 bc 7c 43 4a 3c 70 26 ba 3b ee c5 80 3c
       -0.017795423 0.012345191 0.0056808516 0.01571938
000100 c9 f9 cc 3a 5f 5c b4 bc 70 9b bb 3b 66 ef f9 bb
       0.0015638407 -0.022016702 0.0057253167 -0.0076274155
000110 c6 37 02 bc 8b 59 3b 3a ec 16 90 bb e0 3e 88 3b
       -0.007947868 0.0007146827 -0.0043972638 0.004157886
000120 8f 4d 45 3b 24 76 93 3b dc 77 44 bc b1 32 76 bc
       0.0030106043 0.0045001674 -0.011991467 -0.015026734
000130 b9 e5 66 bc 9b 12 21 bc 0e 5f 0a bb 18 e6 d5 3b
       -0.014092856 -0.009831096 -0.0021113786 0.0065276735
000140 cf c5 79 bb 92 9b e7 3a f8 c0 44 3c b1 34 f0 3b
       -0.0038112288 0.0017670265 0.012008898 0.0073305
000150 54 60 af 3b 59 47 50 3c 65 9c 6a bc fd 75 b2 bb
       0.0053520594 0.012712323 -0.014319514 -0.005446194
000160 6a 3e f1 3b 48 d1 0a 3c c7 41 97 bb e5 3a ee 3b
       0.0073621767 0.008472748 -0.0046159956 0.0072702044
000170 7d fb 73 bb 60 ff 57 3b c8 6c 6b 3c 83 7a 0f 3c
       -0.0037228756 0.0032958612 0.014369197 0.008757236
000180 35 92 b3 3b 58 14 f0 3b ec 35 38 bb f0 cb 1a bc
       0.0054800757 0.007326644 -0.0028108312 -0.009448037
000190 e2 e2 8f 3b 9b f2 9e 3b 45 13 01 3c bc b1 95 bc
       0.00439106 0.004850698 0.007878129 -0.018273227
0001a0 99 d1 b0 3a 24 11 8a 3c 3a 85 17 bc 25 07 de 3b
       0.0013490199 0.016853876 -0.009248072 0.006775754
0001b0 8e b4 0e bb 45 d3 1f 3c 53 47 e2 ba df 15 d3 ba
       -0.00217751 0.00975496 -0.0017263688 -0.001610454
0001c0 38 f6 2b bb f9 aa 1a bb 99 4f 11 3c 69 b7 2e 3c
       -0.0026239287 -0.0023600443 0.008869075 0.010663846
0001d0 7e 57 8a 3c bf 37 42 bc dc 7c 4a 3c 1b 0e 64 bb
       0.016887423 -0.011854111 0.01235887 -0.0034798447
0001e0 bc 18 2f 3c 62 d5 89 bc 92 be 3e bc d9 e8 9a 3b
       0.0106870495 -0.016825382 -0.011642115 0.0047274646
0001f0 1c 4e ce 3a 40 13 0f 3c 62 dc c2 bb 32 78 3b 3b
       0.0015739831 0.008732617 -0.005946682 0.0028605578
000200 20 d6 3d 3c 95 67 af bb d4 07 93 bb 9f d3 26 3c
       0.011586696 -0.005352924 -0.004487017 0.01018229
000210 6d 8a 6b 3b 0d be 4e 39 a8 ea 0e 3a 09 f7 3c bc
       0.0035940662 0.0001971649 0.00054518366 -0.011533507
000220 e6 a8 f8 bb 7d 8e 1a 3b 38 a9 5f bc 21 e7 84 bb
       -0.0075884936 0.0023583465 -0.013651185 -0.004055873
000230 43 3d ec 3b a0 30 e9 3b b2 83 59 3c 8d 6f 05 3c
       0.0072094514 0.0071163923 0.0132760275 0.008144272
000240 a0 ef 8d 3c 27 3e 2f 3c 41 28 da 3b ad c3 e7 bb
       0.017326176 0.010695971 0.0066576307 -0.007072887
000250 62 98 ce 3c f3 fb 9b bc 74 2c 58 bb fc 5b 1c bb
       0.025219146 -0.019041037 -0.003298548 -0.0023858538
000260 bb a6 67 bb e6 84 f1 bb ee a9 e9 3a a5 31 1d 3c
       -0.0035347182 -0.007370579 0.0017827132 0.009594356
000270 7a b7 04 bc 8e 71 69 bc c7 73 d0 bb 97 0a ab 3b
       -0.008100385 -0.014248265 -0.006361458 0.0052197683
000280 b2 1e 5a bb c8 a9 6b 3c eb 32 41 bb 65 ec 12 bb
       -0.0033282456 0.014383741 -0.0029479812 -0.0022418734
000290 9d 11 4d 3c cb 31 a2 3a 22 b7 2b 3c 37 c5 99 3c
       0.012516406 0.0012374459 0.010480674 0.018770797
0002a0 d6 54 1a 3c 38 70 45 3c 1f 0a 54 bc 6b d1 48 3b
       0.0094196405 0.012050681 -0.012941866 0.00306424
0002b0 49 98 eb 3b 42 15 71 3c a8 d6 b0 3b 98 4e 24 3c
       0.0071897847 0.014714541 0.005396683 0.010028504
0002c0 18 d9 4a 3c 8c 9d 4f bc ee 28 ba 3c fc 2e b7 3b
       0.012380861 -0.012671839 0.022724595 0.005590318
0002d0 c3 65 9e 3c 47 7d 5c 3a 30 2f c8 bb f8 5c 5a b9
       0.019335633 0.0008411002 -0.006109141 -0.00020824734
0002e0 53 b1 af 3b eb 0a 6f bb e9 d5 35 3c b4 5c 9b bb
       0.005361715 -0.0036475013 0.011098363 -0.0047412757
0002f0 04 05 0e bc e5 4d 7c 3b 2b 70 1d bc 5c 41 40 bc
       -0.008668188 0.0038498577 -0.009609262 -0.011734333
000300 b9 4f 61 3b d4 77 89 bb d7 ad 93 3b 65 a5 88 3c
       0.0034379794 -0.004195193 0.0045068073 0.016680429
000310 f3 63 d5 bb 47 71 3b 39 54 cd 14 3c 40 4d 70 3c
       -0.006512159 0.00017875909 0.009082157 0.014666855
000320 e9 b8 57 3c dc 20 3c bb 75 1c 56 3b 51 1c 7e bc
       0.013166645 -0.002870611 0.003267077 -0.015509681
000330 6c 47 a1 b9 73 ea 76 bb 34 64 26 3c bc 44 b8 bb
       -0.00030761526 -0.0037676364 0.010155726 -0.005623428
000340 a3 98 be 3a 25 a2 4b bc 27 12 04 bc 7e be 18 3b
       0.0014541339 -0.012428795 -0.0080609685 0.0023306902
000350 92 03 91 bc 53 f5 30 3c 72 26 2e 3b 13 20 d1 3a
       -0.017701898 0.010800677 0.0026573208 0.0015954993
000360 de 08 5f bb 47 5b 0e bb 6c bf 7c 3b 09 77 79 bc
       -0.0034032385 -0.0021721886 0.0038566245 -0.015226134
000370 64 32 44 bc 59 d7 0a 3c f6 b1 e5 bb b9 b9 b6 3b
       -0.011974905 0.008474194 -0.00700974 0.005576339
000380 72 ce 97 bc 7b 4f 78 39 91 9a b0 3c 4e 02 13 bc
       -0.018531058 0.00023680732 0.021558078 -0.008972717
000390 3b 55 10 ba 4e c3 7e bb f2 5e 0c 3c 52 a0 2d 3c
       -0.00055058644 -0.0038873735 0.008567559 0.010597305
0003a0 7d 66 25 bb c0 b0 ad 3b c9 6f b3 bb d1 ad c1 bb
       -0.002523809 0.0053006113 -0.0054759723 -0.005910613
0003b0 9b 9c ff 3b 0d 99 a9 bb 99 a3 a7 bb 78 b8 9d 3b
       0.0078006512 -0.005175716 -0.005115938 0.00481325
0003c0 a1 89 dc 3b ce b7 83 bb aa 2b dd 3b b3 02 62 bc
       0.006730274 -0.004019714 0.00674959 -0.013794589
0003d0 16 b4 e3 3b df 58 15 3b 05 4e 8c 3b 4d 47 ab bb
       0.006948958 0.0022788567 0.0042817616 -0.0052270056
0003e0 ff b2 7e 3c d3 97 fe bb ea 63 b5 3b 8d 92 3f bb
       0.015545606 -0.0077695637 0.0055355923 -0.0029231638
0003f0 45 26 ea 3b 4d e5 48 3b 06 0f 72 bb 2b 97 08 3c
       0.0071456754 0.0030654252 -0.0036935224 0.0083368225

hidden_features.2.bias f4 [50]
000000 75 ba 32 38 e8 8d 46 38 61 2b b2 3a 8d 1f 2e ba
       4.261216e-05 4.733904e-05 0.001359325 -0.00066422747
000010 12 a1 f1 39 35 37 3f b7 42 5d 4c b7 1f 82 51 ba
       0.0004608711 -1.1397341e-05 -1.2181061e-05 -0.0007992107
000020 64 a4 96 3a 45 89 31 b9 ea b7 c8 b9 00 00 00 00
       0.0011493084 -0.00016931172 -0.00038284 0.0
000030 fb 3f 03 3a eb 37 bb b7 f6 62 c4 37 00 00 00 00
       0.0005006787 -2.2318176e-05 2.3411103e-05 0.0
000040 c5 d3 fd 39 09 61 12 b8 0e af 46 b9 57 7a 81 b8
       0.000484137 -3.4899484e-05 -0.00018947964 -6.173987e-05
000050 df 36 18 ba c6 d1 5d ba e3 5a 6f 36 3c fa 2a ba
       -0.0005806516 -0.00084617396 3.5666678e-06 -0.0006522273
000060 c3 cb d0 b8 3c dc 93 b6 74 da 60 b8 00 00 00 00
       -9.9561665e-05 -4.40658e-06 -5.3609212e-05 0.0
000070 c9 80 56 3a 55 2f 33 ba 4d 8f 42 3a 37 2c 25 3a
       0.00081826426 -0.0006835361 0.0007421866 0.0006300839
000080 00 00 00 00 0f 9d ed 39 08 f5 ef 39 e8 c2 84 b9
       0.0 0.0004532118 0.00045768195 -0.00025322218
000090 f1 d8 5d b8 00 00 00 00 04 d5 cb b9 51 bd cc b8
       -5.289255e-05 0.0 -0.00038877886 -9.762741e-05
0000a0 f3 a1 b4 b7 78 28 4b 3a 42 7d ca b8 00 00 00 00
       -2.1533086e-05 0.0007749866 -9.655442e-05 0.0
0000b0 75 2a 0d ba 73 98 48 ba 73 55 86 36 b7 c4 2d ba
       -0.000538505 -0.0007652111 4.003459e-06 -0.0006628739
0000c0 50 ad 82 38 e0 98 9a 39
       6.231165e-05 0.0002948707

density_estimator_head.weight f4 [50, 11]
000000 a9 71 76 3c ec 18 02 3c 1e ec 36 bb e9 9f 81 3b
       0.015041747 0.007940512 -0.0027911733 0.0039558304
000010 9e f1 30 3b a1 78 d7 3b d0 c7 0b bc 31 1e 6b 3c
       0.0026999484 0.0065756594 -0.008531526 0.01435046
000020 2f 2f 89 3a 47 99 04 bc c2 88 89 3c e7 d4 8d 3c
       0.0010466332 -0.008093185 0.016788844 0.017313434
000030 35 ca e0 3b f6 fe 63 3b 62 ac b9 bc c9 1d d4 3a
       0.0068600425 0.003478942 -0.022665206 0.0016183193
000040 79 f1 a3 bc d7 9b 8c bc 1b 35 04 bc 9f 3c 4c bb
       -0.020012604 -0.017164154 -0.008069302 -0.0031164063
000050 ca 74 55 3c 7a 79 6c ba ac 64 1e bc c3 74 a9 ba
       0.013028333 -0.0009020787 -0.009667557 -0.0012928474
000060 ce 7a a9 bc dc 88 0e bc a4 81 d6 3a a2 d3 d3 bb
       -0.02068844 -0.008699622 0.001636554 -0.0064644376
000070 cc 6d 07 3c 9e 71 55 bc ad a0 1f bb 60 03 76 3b
       0.008265924 -0.013027577 -0.0024357245 0.0037538633
000080 62 11 94 3c 17 91 e5 3b 22 89 39 3c d3 14 90 3c
       0.018074695 0.0070058214 0.011324199 0.017588055
000090 1d 65 0b bc 8d 90 81 ba 9b dc 5e 3a 64 8f ea 3b
       -0.008507994 -0.0009884998 0.00085015007 0.007158207
0000a0 d8 70 59 b9 b1 3b 4f 3c 09 c6 0a bc f1 a9 f5 bb
       -0.0002073677 0.012648509 -0.008470067 -0.0074970652
0000b0 13 ec 16 3c 39 af 1f bc dd a7 73 bb 45 62 eb 3b
       0.009211558 -0.009746366 -0.0037178912 0.0071833455
0000c0 a1 d0 bd bb 49 72 83 3a ec 45 cf ba 5c 45 3a bc
       -0.005792693 0.0010028566 -0.0015813685 -0.011369076
0000d0 f0 9b 72 3c 20 28 fb 3a 48 8e 9b 3b 45 3a 86 bc
       0.014807686 0.0019161738 0.004747186 -0.016385207
0000e0 ab 25 a5 bb 6a 8e 20 3c fe 6e ca bb 07 0b 26 bc
       -0.0050398908 0.009799579 -0.006177782 -0.010134465
0000f0 28 25 37 3a c9 19 8a 3c 4d ed 10 3c 76 86 a7 ba
       0.00069864327 0.016857998 0.008845639 -0.0012781161
000100 6f 2b 2e bc 8c 36 a7 bc 03 89 76 bb f9 60 a0 bc
       -0.010630473 -0.020411752 -0.0037618286 -0.01957749
000110 54 0b f8 bb 57 96 db 3b be c3 f5 3b fb 57 0d 3c
       -0.00756971 0.0067012715 0.007500141 0.008626933
000120 51 06 3e 3a c4 ee 31 3b dc 51 23 3c bf 81 99 bc
       0.0007248866 0.0027150372 0.009968247 -0.018738626
000130 a8 68 f3 39 fe c7 a0 3a 18 8f c1 3b b8 af 0d bc
       0.00046426547 0.0012266634 0.0059069507 -0.008647852
000140 f0 13 ac bb 82 c5 19 ba b4 a9 52 bb 6e 32 3a bc
       -0.0052514 -0.0005865918 -0.0032144608 -0.011364562
000150 2d 50 51 bc 9c 49 a0 38 f2 b2 81 bc db 99 77 bc
       -0.012775463 7.643105e-05 -0.015832398 -0.015112366
000160 73 39 77 bc b4 ae 19 bb 06 4c f3 3a 69 82 2b 3c
       -0.015089381 -0.0023450078 0.0018562085 0.010468104
000170 be 66 8a bc 5e 10 9c 3b 06 70 bc ba f2 b9 93 3c
       -0.016894694 0.0047626933 -0.0014376647 0.018033002
000180 2d 84 09 bb 77 ad 8f 3c 51 ac ad bb da f1 1d 3a
       -0.0020983324 0.01753877 -0.0053000827 0.00060251134
000190 1b 59 ab bb 35 ce 20 3c 7e 7b 6a 3b 65 5b c1 bb
       -0.005229128 0.009814789 0.0035779173 -0.0059007877
0001a0 14 2e ce bb 1a 38 cf 3b 2c 3e e9 bb 2e d1 b2 bc
       -0.006292114 0.0063238265 -0.007118007 -0.02182826
0001b0 0b 47 c8 39 ae 79 39 3c ba 7e 9b 3a 45 dd 34 3c
       0.00038199904 0.011320515 0.0011863329 0.011039083
0001c0 8b 64 13 bc 8b 62 2f bc 2b 03 d7 bb a1 e8 1c bc
       -0.008996139 -0.010704647 -0.006561657 -0.009576947
0001d0 81 19 8e bc b1 93 97 3c 6f 83 2d bb ee 8c c9 bc
       -0.017346146 0.018503042 -0.0026476046 -0.024603333
0001e0 ed 33 c9 bb 16 61 21 bc cb 77 44 3b 2e e7 6f 3c
       -0.0061402232 -0.009849807 0.0029978629 0.01464252
0001f0 06 86 50 3b f9 06 30 bc 32 d2 2b bc 6b 27 21 bc
       0.0031818165 -0.01074385 -0.010487126 -0.009836058
000200 43 5f 79 3b 14 ea ff bb c9 69 99 3b 2b ef 38 bc
       0.0038051165 -0.0078098867 0.0046818 -0.011287491
000210 f9 b8 86 bc 8e f7 a8 3a fb a5 22 3b 40 1d 6e bb
       -0.016445624 0.001289116 0.002481817 -0.0036333352
000220 a0 79 04 3c 16 53 29 bc 77 7d 62 bb 41 ed 5b ba
       0.008085638 -0.010334751 -0.0034559646 -0.00083895406
000230 b6 19 f1 3b 6a 2e c2 bb de 48 e1 3b 03 4f 10 3c
       0.0073578013 -0.005925943 0.0068751415 0.0088079
000240 7f b7 a0 bb 2c b5 de 3b 1e 7f 5b bb 46 28 ad 3b
       -0.004904687 0.0067964997 -0.0033492516 0.005284342
000250 4d 9b 8d 3c d9 51 e4 3b a3 f9 8d bc 0e e4 9d bb
       0.017285967 0.006967765 -0.01733095 -0.004818446
000260 48 1f b0 3b 8d ea fd bb a3 79 3a bc 46 1b 27 bc
       0.0053748228 -0.007748908 -0.0113815395 -0.010199374
000270 34 f9 d1 ba 72 96 ff ba 8d 3e c8 3b 9c 95 33 3c
       -0.0016019703 -0.0019499792 0.0061109723 0.010960963
000280 9b 0b f6 bc 2b 52 37 bb d8 ad eb 3b aa 39 55 bc
       -0.03003483 -0.002797256 0.0071923546 -0.013014236
000290 91 59 e4 bb 7a 26 5a 3c 48 b5 83 3b 5a d1 d0 bb
       -0.006968685 0.013314838 0.004019413 -0.006372613
0002a0 c2 36 ac 39 00 83 39 bc 06 6a 54 3c 80 79 23 3c
       0.00032847194 -0.011322737 0.012964731 0.009977698
0002b0 e8 d9 e9 3b 7a 26 27 bc 20 82 37 3c 65 d3 7d 3b
       0.007136572 -0.010202045 0.011200458 0.0038730737
0002c0 b7 44 81 bc ef f8 6c 3c 01 ab 29 3c 38 6c 83 3c
       -0.015779836 0.014463647 0.010355712 0.016042814
0002d0 c3 85 0a 39 62 c8 1e 3b 94 69 f6 39 5a de 34 bc
       0.00013210536 0.0024228324 0.00046999438 -0.011039341
0002e0 d2 d1 e5 3b 97 b9 2e 3b 11 f3 83 3c d8 cc 3e 3b
       0.007013538 0.0026660913 0.016107114 0.0029113796
0002f0 6c 1c 55 bb fd 3f 00 bc 71 ee c2 bb 3c 24 6d ba
       -0.0032518161 -0.007827756 -0.0059488346 -0.0009046232
000300 69 47 9a bc fd 1c e6 bb 09 f7 43 bc 26 2d fb bb
       -0.01883288 -0.0070224986 -0.011960753 -0.007665294
000310 c8 8a 16 3c 1f 41 3b bc 2c f7 83 3c c2 9e e6 3b
       0.0091883615 -0.0114291 0.016109072 0.0070379684
000320 15 5f 97 3b 1e f9 f6 3b d5 37 a0 bc 02 89 53 bc
       0.004619489 0.0075370213 -0.019557873 -0.012911083
000330 d6 9f 6c bc 89 8d ea ba 35 30 8d bb 68 97 b2 3b
       -0.014442405 -0.0017894964 -0.0043087252 0.005450178
000340 36 88 21 3c f0 15 73 3c ed 29 18 bb 46 2b 20 bc
       0.009859135 0.014836773 -0.002321835 -0.009775942
000350 54 04 41 bb c6 a6 ca 3b cd fa 61 bb 6d 31 03 3c
       -0.0029452043 0.0061844317 -0.0034481764 0.0080073895
000360 cf 17 1d bc 0c d2 d3 bb 72 91 ae ba 1e e2 af 3a
       -0.009588196 -0.0064642485 -0.0013318493 0.0013418829
000370 27 dc ad 3b e4 e6 32 3b 93 e2 5c 3c 1d ab 44 bb
       0.005305785 0.0027298266 0.013481754 -0.0030009218
000380 c7 24 b6 bb 95 6c d8 3a 97 56 51 3c da c2 e6 3b
       -0.0055585834 0.0016511852 0.012776992 0.007042271
000390 ff 5d 00 3c a5 2d 38 bb b4 36 3d bc c1 0a a5 3c
       0.00783491 -0.0028103378 -0.011548687 0.02014673
0003a0 0b 3e 58 3c a5 7d 9b bb c2 3c 1c 3b 75 4d 87 bb
       0.013198386 -0.0047452026 0.0023839925 -0.0041291066
0003b0 7d c5 35 3b 58 02 6b 3c 1f 11 e2 bb 8e 17 fe bc
       0.002773612 0.0143438205 -0.0068990136 -0.031017091
0003c0 ec 29 9c bc 89 75 2b 3c 42 b9 84 3c df d6 52 3b
       -0.019062959 0.010465034 0.016201619 0.003217153
0003d0 68 c4 f8 3b 6a bb 7d bb 6a d4 e2 3b 99 56 02 bc
       0.007591773 -0.0038716444 0.0069222944 -0.007955217
0003e0 f2 a6 cb ba d2 5e 12 3c 6c aa 86 3c 48 41 2d 3b
       -0.0015537424 0.00893374 0.016438685 0.0026436616
0003f0 d4 f9 df 3a c6 e9 90 3c d9 cb fc 3b f8 89 7d bb
       0.0017088004 0.017689597 0.00771473 -0.0038686972

density_estimator_head.bias f4 [11]
000000 7a e2 0b bd 1f e0 d5 bc 1a 65 71 bc f4 dc 25 bc
       -0.03415153 -0.026107846 -0.014733577 -0.01012348
000010 7f 7b f3 bb 7c 7c 08 bc 98 4b 4f 3b 9d e5 9f 3b
       -0.0074304934 -0.008330461 0.003163075 0.004879667
000020 66 21 bf 3c cc 4f 2c 3d 63 bf e0 3c
       0.023331355 0.042068288 0.02743501

Q1.0.weight f4 [50, 50, 5]
000000 ab 3c 55 be 68 bb f7 be a5 73 8b 3f 11 57 e7 be
       -0.20823924 -0.48385167 1.0894667 -0.45183614
000010 ee d5 c6 be 80 6b 81 bf 07 70 49 be a8 e6 a9 3e
       -0.3883509 -1.0110931 -0.19671641 0.3318379
000020 1e 1d 60 be fe 01 3d 3f ee 4f cb bf 7a 41 6e 3f
       -0.21886107 0.73831165 -1.5883768 0.9306866
000030 64 a0 bc 3e ca fd 99 3e d2 67 42 bf 6a f3 6c be
       0.36841118 0.30076438 -0.7593967 -0.2313973
000040 4e 99 d7 3f dd 70 06 3e 74 7e 28 3f cf 25 96 bf
       1.684366 0.13128991 0.6581795 -1.1730288
000050 6d 91 67 3f 19 c3 56 3d 99 50 06 40 a0 90 b9 3f
       0.9045628 0.052432153 2.0986693 1.4497261
000060 57 1f 27 3e 25 27 6c 3f a3 c9 b7 be c7 54 67 3f
       0.16320549 0.9224723 -0.35896024 0.90363735
000070 7f f3 01 c0 d3 46 64 be df a3 0f 3f 33 a0 28 c0
       -2.0304868 -0.22292642 0.5610942 -2.6347778
000080 58 7f 1b be 97 30 07 3e d2 ce 52 3e e5 65 bc 3e
       -0.15185297 0.1320213 0.20586708 0.3679649
000090 58 0c d0 bf 98 9f 54 bf ae 11 1d 3f 09 23 0a 3f
       -1.6253767 -0.8305602 0.613551 0.5395971
0000a0 29 f2 47 3e f5 29 d1 3f 21 c0 e8 3f 95 e2 94 bf
       0.1952597 1.6340929 1.8183633 -1.1631647
0000b0 2b 42 08 bf ca 96 87 be e9 14 98 bf b8 f9 f5 3d
       -0.53225964 -0.2648223 -1.1881381 0.12010521
0000c0 11 22 7e be 8a 34 24 c0 6a 77 30 40 b3 b0 07 bf
       -0.24817683 -2.5657067 2.7572885 -0.53003997
0000d0 18 f7 b7 bf 31 49 46 be d3 30 83 3f c9 e0 37 3f
       -1.4372282 -0.19363858 1.0249275 0.7182737
0000e0 b2 04 42 3f e3 47 15 bf c3 f3 fe bf d4 f8 41 3e
       0.75788414 -0.58312815 -1.991814 0.18942577
0000f0 b0 da 64 be 2c 5e 25 be d6 00 ad 3d 34 43 54 bf
       -0.22349048 -0.16149205 0.08447425 -0.82915044
000100 0f 96 83 3f 0e 56 23 3f 21 c8 02 c0 f8 12 83 be
       1.0280169 0.63803184 -2.043465 -0.2560041
000110 60 9c 52 3f e0 81 8d 3f a4 f9 48 be 5f ef e3 be
       0.8226986 1.105526 -0.1962648 -0.44518563
000120 03 19 4b bf a7 16 e1 bf 56 8c 80 bf e4 79 14 bf
       -0.7933504 -1.7585038 -1.0042827 -0.5799849
000130 3c 36 8f be 3c 76 14 3e c9 5b 3e bf cf ab 00 be
       -0.27971065 0.14498228 -0.74358803 -0.1256554
000140 60 20 80 be f1 be 22 bf a0 2a ac bf 18 e0 7d be
       -0.250247 -0.63572603 -1.3450508 -0.24792516
000150 20 a9 8e 3f 18 ce a5 be ee d9 fc 3e 3c fb e3 bf
       1.1145363 -0.323838 0.49385017 -1.7811046
000160 b7 25 4f 3f 95 04 87 3f 11 07 64 3e a7 a8 02 bf
       0.80916923 1.0548273 0.2226832 -0.51038593
000170 39 fb 97 bf 46 84 0b 40 c6 f6 ac bf c5 f5 49 3f
       -1.1873542 2.1799483 -1.3512809 0.7889064
000180 00 14 9f 3f d6 70 68 3e 7e b2 fd 3e c9 ef cc be
       1.2427979 0.22699293 0.4955024 -0.40026692
000190 22 ee c2 bf 2c 94 39 bf e7 0e 01 be c1 23 b5 3f
       -1.5228922 -0.7249172 -0.12603341 1.4151536
0001a0 75 69 80 3f c2 99 d4 bf e2 90 24 3f 05 c9 5c 3e
       1.0032183 -1.6609423 0.64283574 0.21561058
0001b0 4e 4f 89 be 92 bf 9d be a1 ba ed 3e 6f f0 66 be
       -0.26818317 -0.3081022 0.4643145 -0.22552656
0001c0 ae a6 89 3f c2 3e 53 3f 26 e7 b7 bf 54 93 b7 be
       1.0753992 0.82517636 -1.4367416 -0.3585459
0001d0 85 a7 4f 3d 3e ba eb bf de 65 9e 3f d0 a8 a8 3f
       0.05069687 -1.8416212 1.2374837 1.3176517
0001e0 49 26 b5 3e 12 4a 84 bd 1b 8d 5e bf 5f 4f ae 3f
       0.35380772 -0.0645944 -0.8693406 1.3617972
0001f0 b6 fd af bf f8 0f 30 be 8f 53 a7 bf 94 55 1f 3f
       -1.3749301 -0.17193592 -1.3072375 0.62239957
000200 2a b5 35 3f cb b1 b9 3d e5 96 b2 bf 5a 25 ff bc
       0.7097956 0.090671144 -1.3952299 -0.03114574
000210 fc bd ef bd 35 38 28 bf 3c 3d 8d bf 9e e0 c0 3f
       -0.117061585 -0.65710765 -1.1034312 1.5068548
000220 19 2b 46 3f 11 2d 96 3f 67 6d 79 3f 26 96 17 3d
       0.7740951 1.1732503 0.9743256 0.037008427
000230 71 29 90 bf c8 c3 59 bf 27 83 94 bf 5a 69 f9 3e
       -1.1262647 -0.85064363 -1.1602525 0.4871319
000240 ab d1 ce be 7c 61 9a bf 7f 38 63 be 7f 83 da 3f
       -0.4039434 -1.2061 -0.2218952 1.707138
000250 81 75 69 3f e1 cc 22 3f 2a 9c 4e bf 19 d3 c8 bf
       0.9119492 0.6359387 -0.8070704 -1.5689422
000260 8a f8 5d 3d 66 e9 30 40 b9 98 d0 bf 73 63 57 bf
       0.054192103 2.7642455 -1.6296607 -0.8413612
000270 6c 79 cc bf cd 97 85 be 85 42 fa 3f 2d e8 f6 3f
       -1.5974555 -0.26092377 1.955155 1.9289604
000280 87 e7 f0 3c 3a 60 a8 bf a4 0c 51 3f f8 b2 c4 be
       0.029407276 -1.3154366 0.81659913 -0.38417792
000290 22 de 8d bf 6d 4a aa be bd d1 6f bf 55 00 31 3f
       -1.1083415 -0.33259907 -0.9367941 0.6914113
0002a0 17 e7 04 be 5f 8a a2 3f 70 96 fd 3e 40 51 99 3d
       -0.12978779 1.2698478 0.49528837 0.074862
0002b0 29 7a 12 3f 82 fd 9e be 85 30 be 3e 11 2a 02 be
       0.5721765 -0.31052786 0.37146392 -0.1271136
0002c0 53 7e 2f 3f 49 72 5d 3e e8 0a 86 3f 49 94 98 be
       0.6855213 0.21625628 1.0472078 -0.29800633
0002d0 d7 71 9f bf 79 2c 83 3f 44 83 73 3e 39 6d 64 3f
       -1.2456616 1.0247947 0.23780543 0.8922916
0002e0 8e 08 c5 bf 1a 0c 9b 3f 73 6c 41 bf fc 7f ae bf
       -1.5393236 1.2113068 -0.75556105 -1.3632808
0002f0 83 4d e5 bd 60 e5 b8 3e 4f ca af 3e 57 d6 2e c0
       -0.11196425 0.361125 0.34334037 -2.7318323
000300 43 2d a8 3e ce 70 5c 3f fe 0a fd be f1 e4 10 3f
       0.32847032 0.86109626 -0.4942245 0.56599337
000310 87 7a c6 3e 7b 63 31 3f fe db ae 3e 3e a0 5f bf
       0.38765356 0.6929242 0.34152216 -0.87353885
000320 00 01 db be d2 aa ab 3f 0a f3 2e bf 6c b8 95 bf
       -0.427742 1.3411505 -0.683396 -1.1696906
000330 a9 ab 9e 3f 76 cc 41 bf cc c1 b2 3f e5 de b1 3e
       1.2396137 -0.7570261 1.3965392 0.34740368
000340 75 80 ec 3e 0f df aa bf be 02 dd 3e c5 4b f1 3e
       0.46191755 -1.3349322 0.43166155 0.4712812
000350 68 27 64 c0 70 1d 91 3f 33 f0 08 bf c1 a4 77 bf
       -3.5649052 1.1337109 -0.53491515 -0.9673577
000360 cc fb 02 3f fb 7f 32 3f 20 31 30 3f f1 1e be 3f
       0.5116546 0.6972653 0.6882496 1.4853193
000370 1f 98 db 3d e8 05 e0 bf 1c 82 3f 3f 01 a5 56 3f
       0.10722374 -1.7501802 0.74807906 0.83845526
000380 e3 91 a6 bf 8a 52 e7 be a5 1a 60 bf ca e4 d2 bf
       -1.3013271 -0.4518016 -0.87540656 -1.6476071
000390 a3 8f bf bf bb 15 16 3e 42 0c c7 3e f3 48 00 c0
       -1.496571 0.14656727 0.3887654 -2.0044525
0003a0 7f ba b2 3e 64 ad d8 bf f2 e5 a7 3f e7 9d d9 3f
       0.3490791 -1.6927915 1.3117049 1.7001313
0003b0 3d 98 bd bf ca d4 4b bf 61 33 95 bd 78 22 b8 3f
       -1.4812084 -0.79621565 -0.072851904 1.4385519
0003c0 2f ca 10 3f cf a5 d0 be 0a 7a 54 be 68 a0 c3 3f
       0.5655851 -0.40751502 -0.20749679 1.5283327
0003d0 50 c6 23 3f 47 c5 93 3f 89 ee 50 be cf 53 74 3f
       0.63974476 1.1544579 -0.20403494 0.9544038
0003e0 f4 2c 8b 3d 02 ed 5a 3e fd 19 44 3f bd 42 33 40
       0.067956835 0.21379474 0.76602155 2.8009484
0003f0 fb b7 c0 3f a9 c9 0e be 40 66 5f bf 68 c1 1f 3f
       1.5056146 -0.13944115 -0.87265396 0.6240449

Q1.0.bias f4 [50, 5]
000000 49 3d 04 bb c7 b7 97 3a f0 e1 32 3b 64 80 e2 3a
       -0.002017813 0.0011575156 0.0027295314 0.0017280695
000010 42 3c b4 39 d1 80 b2 38 5a 9e ab 3b 09 de fc 3b
       0.0003437717 8.511695e-05 0.005237383 0.0077168983
000020 01 9e 8a 3b 6c 34 74 3a c3 48 12 ba ce ff a7 b8
       0.0042302613 0.0009315673 -0.00055803003 -8.010828e-05
000030 6c db 40 b7 00 00 00 00 00 00 00 00 3d 46 50 b9
       -1.149518e-05 0.0 0.0 -0.00019862592
000040 4f 70 74 b7 3d b8 e8 b5 00 00 00 00 00 00 00 00
       -1.4569682e-05 -1.7338967e-06 0.0 0.0
000050 e8 e0 48 39 30 a3 17 3c 05 ec 58 3c e8 ec e9 3b
       0.0001915727 0.0092552155 0.013239865 0.007138837
000060 88 a4 cc 3a de 4b 4c bb b4 a6 82 b9 6e 72 ee 38
       0.0015612999 -0.003117315 -0.00024919736 0.000113700386
000070 7e 01 7f 37 00 00 00 00 1f 2c 46 3b f6 c7 76 3a
       1.5199532e-05 0.0 0.00302387 0.0009413952
000080 64 fd 20 39 6b cc 27 b9 22 e4 72 b8 a0 08 0c bb
       0.00015353184 -0.00016002513 -5.790976e-05 -0.0021367446
000090 ea 56 d2 b9 04 dc ac b8 57 d5 cf 30 00 00 00 00
       -0.00040119077 -8.24258e-05 1.5121867e-09 0.0
0000a0 4b 3d 3f 3c 5b 68 49 3b 97 2f 81 ba b8 0d ea ba
       0.011672328 0.0030732367 -0.0009856102 -0.0017856872
0000b0 2a a7 0e ba c1 8a b1 bb 1b 64 bc ba 49 2a fc b9
       -0.00054417795 -0.005418152 -0.0014373095 -0.0004809669
0000c0 b2 a9 07 b8 93 50 10 37 b6 2e 65 bb a9 61 f6 ba
       -3.234455e-05 8.601829e-06 -0.003497047 -0.0018797416
0000d0 ea b3 8f ba 46 80 68 b9 55 51 94 36 dc ae 49 3d
       -0.0010963653 -0.0002217303 4.420212e-06 0.049239025
0000e0 c4 2e 5f 3c ce d9 86 ba 58 6b 9e bb 17 b9 ab ba
       0.01362199 -0.00102883 -0.0048345737 -0.0013101426
0000f0 01 15 69 39 03 a7 7f ba 07 5b d3 ba 63 e4 75 ba
       0.00022228436 -0.0009752365 -0.0016125151 -0.00093800406
000100 92 41 a9 b9 a4 10 e9 ba c0 77 37 ba ee bd ce b9
       -0.00032283046 -0.0017781449 -0.000699874 -0.0003943289
000110 d7 67 cc b8 22 fa f5 b7 9b 2e 5d bb 89 54 38 3b
       -9.74682e-05 -2.9322753e-05 -0.0033749703 0.0028126559
000120 0c 9a c9 3b 21 96 80 3b 18 8e 82 3a 29 c4 66 bb
       0.006152397 0.0039241468 0.000996056 -0.0035212135
000130 d0 55 b2 bb f1 62 d4 bb 9a 20 54 bb 84 3f 53 ba
       -0.0054423586 -0.0064815213 -0.0032368065 -0.0008058476
000140 49 de 04 3b 91 a8 fb 3a 9e f0 ed 3a 9d 0d 4a 3a
       0.0020274094 0.0019200017 0.0018153375 0.0007707717
000150 9a 45 2e 39 07 2d 0d 3c 15 c9 0f 3c a2 34 11 3c
       0.00016619862 0.008616692 0.008775969 0.008862646
000160 38 f6 81 3b 2c 4e 46 3a 4a 85 49 ba b5 ec 3d ba
       0.003966119 0.0007564749 -0.0007687403 -0.000724505
000170 bb 08 38 ba 9c 51 a1 b9 73 78 a1 b8 1b a1 82 37
       -0.0007020344 -0.00030769117 -7.699514e-05 1.5572228e-05
000180 8b 9a 3d ba 32 a7 28 ba 41 7c 63 b9 bd 5f 21 b8
       -0.00072328065 -0.00064336054 -0.00021694695 -3.8474554e-05
000190 82 d8 de bb 70 c1 6f bb 48 da e6 ba 48 78 02 b9
       -0.006800712 -0.0036583804 -0.001761266 -0.00012442574
0001a0 17 61 08 39 00 00 00 00 00 00 00 00 00 00 00 00
       0.0001300614 0.0 0.0 0.0
0001b0 00 00 00 00 00 00 00 00 b6 0b e5 bb 8f 3f cc 3a
       0.0 0.0 -0.0069899214 0.0015582907
0001c0 f8 b1 b7 3b 36 58 78 3b 0f 88 69 3a 41 e1 e1 3c
       0.0056059323 0.0037894375 0.0008908519 0.02757323
0001d0 03 52 42 3c 83 b5 c6 3b b5 8f 8b 3a 64 d7 c1 37
       0.011860373 0.0060641184 0.0010647686 2.3107692e-05
0001e0 a4 09 92 3c 11 ee 5c 3b 25 89 0c bb 17 46 25 bb
       0.017826863 0.0033711235 -0.002144405 -0.0025218779
0001f0 bf 85 0e ba be b7 db b9 7d a2 b7 b9 1c 97 c9 b9
       -0.00054368 -0.00041907834 -0.00035025543 -0.00038450293
000200 92 23 4c b9 a8 d8 70 b8 f5 a4 b3 ba 15 80 35 ba
       -0.00019468207 -5.7422236e-05 -0.0013705777 -0.0006923688
000210 48 34 47 b9 ac 71 ab 38 54 2a 48 38 9b d7 07 3d
       -0.00018997595 8.1750884e-05 4.7723137e-05 0.0331646
000220 3a fb 79 3c ab 25 0a 3c f2 9d ea 3a 19 e2 0d 39
       0.015257651 0.008431832 0.0017899855 0.00013531036
000230 19 aa 95 bb 15 65 f2 ba 84 ed 5e ba cf 12 ca b8
       -0.0045673964 -0.001849326 -0.00085040205 -9.635614e-05
000240 67 41 8c 37 7e cc 9a 39 34 d0 94 39 4a e0 9b 39
       1.6719756e-05 0.00029525527 0.00028383883 0.00029731012
000250 17 71 16 39 bb 64 63 38 6f f5 c1 3a 8d c3 33 3c
       0.00014347244 5.421483e-05 0.0014797876 0.010971916
000260 28 65 72 3c 3a 2b fc 3b 71 35 cb 3a e4 92 7c b9
       0.014794625 0.0076955827 0.0015503598 -0.00024087314
000270 9e 58 c5 b8 d6 4c f7 b6 20 65 ef 37 63 65 4a 37
       -9.410198e-05 -7.3701185e-06 2.853811e-05 1.2063744e-05
000280 38 fa 86 3a 40 a6 ae 3b 12 d5 ec 3b 64 cd 78 3b
       0.001029796 0.005329877 0.0072275484 0.003796422
000290 45 d1 4d 3a dd 60 2e 3a 16 67 a4 ba 4c 0a 84 ba
       0.0007851313 0.0006652007 -0.0012542929 -0.001007387
0002a0 03 d0 3a b9 4e c3 b3 b6 95 76 63 bb 71 0a 90 3a
       -0.00017815833 -5.357352e-06 -0.0034708132 0.001098944
0002b0 bb e7 33 3b 56 1e dd 3a a2 41 d1 39 1d 01 72 bc
       0.0027451355 0.0016870003 0.00039912487 -0.014770773
0002c0 19 11 9b 3b 05 73 61 3c c7 00 14 3c 81 02 0e 3b
       0.004732263 0.013760333 0.009033388 0.0021668973
0002d0 a1 de 9d 3b ac 12 d5 3a 55 b3 f0 39 bb a9 fe b8
       0.004817799 0.0016256175 0.0004590998 -0.000121432786
0002e0 32 55 4a b8 01 26 01 bb 63 e3 22 ba 0e 78 66 3a
       -4.8239897e-05 -0.001970649 -0.0006213693 0.0008791693
0002f0 6b 07 90 3a a4 87 b1 39 9c 1d e0 bb e8 07 db ba
       0.0010988539 0.0003386113 -0.006839467 -0.001671073
000300 17 ec 03 ba 1e e2 b4 b7 12 3d 06 b6 ae cd 81 bb
       -0.00050324335 -2.1562966e-05 -2.0003104e-06 -0.0039612865
000310 b3 20 04 3c c9 44 5a 3c 15 d9 f7 3b 79 88 dc 3a
       0.008064437 0.013322064 0.00756372 0.001682534
000320 c6 e8 a9 b9 bf 72 8e b7 cb c4 6e b5 00 00 00 00
       -0.00032407622 -1.6981152e-05 -8.894828e-07 0.0
000330 00 00 00 00 13 34 42 bc ec a7 1e 39 3c 7f ad 3b
       0.0 -0.011853236 0.0001513061 0.0052947085
000340 af 04 80 3b 16 64 6d 3a af 79 72 bc 0c 66 11 3c
       0.0039068083 0.00090557465 -0.014799519 0.0088744275
000350 33 c8 a3 3c 6f 8f 4d 3c 75 ff 44 3b 00 00 00 00
       0.019992923 0.012546404 0.003005949 0.0
000360 00 00 00 00 00 00 00 00 00 00 00 00 00 00 00 00
       0.0 0.0 0.0 0.0
000370 b1 6b 57 3c fb 8b 51 3b e5 c5 5b ba 39 b8 cc ba
       0.013148234 0.0031974304 -0.00083836756 -0.0015618867
000380 e5 46 b9 b9 d7 94 85 3c 9f aa ef 3b 01 45 80 3b
       -0.0003533877 0.016306324 0.007314041 0.003914476
000390 60 fd 48 3a 8d 10 63 38 c4 ce 5d 3c b4 08 f8 3b
       0.00076671503 5.413643e-05 0.013538066 0.007569397
0003a0 f5 dc ae 3b b2 b0 e2 3a 4f 40 7c 39 07 a4 6c 38
       0.0053363987 0.0017295091 0.0002405655 5.6419547e-05
0003b0 f4 e5 02 39 26 67 82 38 9f 49 be 36 00 00 00 00
       0.0001248343 6.218096e-05 5.671012e-06 0.0
0003c0 cf 38 c4 3a e2 e4 97 ba b0 0b 46 bb a6 3a 05 bb
       0.0014970544 -0.0011588598 -0.0030219369 -0.0020329147
0003d0 90 eb 09 ba 30 0e fe bb f1 c8 f1 bb 4f b1 e9 bb
       -0.0005261237 -0.007753156 -0.0073786904 -0.0071317325
0003e0 95 b1 4b bb 7d b9 41 ba
       -0.003108119 -0.00073900056
