CausalCVR/logs/simu3/eval/53/Vcnet_ckpt.pth.tar (torch, 123067 bytes, 16 tensors)

feature_weight.weight f4 [50, 8]
0	0x3c171275	0.009220709
1	0x3abc4448	0.0014363611
2	0x3b90ab80	0.0044149756
3	0x3adc7f4a	0.0016822603
4	0xbc9543c8	-0.018220797
5	0x3bbbfef9	0.005737182
6	0x3bb3e060	0.005489394
7	0xbc2381b7	-0.009979657
8	0xbc5fde55	-0.013663848
9	0x3c955152	0.018227253
10	0xbb699e5f	-0.0035647375
11	0x3b0f6f27	0.002188632
12	0xbc30c1c4	-0.010788385
13	0x38b65700	8.694641e-05
14	0x3baeb7c6	0.005331966
15	0x3cac6ae1	0.021047058
16	0xbbc69976	-0.0060607744
17	0xbb90b79b	-0.0044164187
18	0xbbeea481	-0.007282794
19	0xbc6c427c	-0.014420148
20	0x3bc9a5d5	0.006153802
21	0xbc9a601c	-0.018844657
22	0x3b380632	0.0028079865
23	0xbb5aca7e	-0.0033384855
24	0x3bc4ea05	0.0060093426
25	0x3b0f4ebe	0.0021867002
26	0xbb1f657b	-0.0024321962
27	0xbc9af7d3	-0.018917
28	0x3bb5436c	0.005531719
29	0x3b075989	0.0020652732
30	0x3c1c26d7	0.0095307445
31	0x3ae27fe5	0.0017280547
32	0x3c8ccfc6	0.017188918
33	0x3bb721da	0.005588752
34	0x3b7ccf57	0.0038575733
35	0x3b6a1fe6	0.003572458
36	0xbca8f085	-0.020622501
37	0x3be70340	0.007049948
38	0xbbc16250	-0.0059016123
39	0xbb9a08de	-0.004700764
40	0xbb5e6544	-0.003393487
41	0x3b2ce1cb	0.00263797
42	0x3abb9d08	0.0014313767
43	0x3c5e8019	0.013580346
44	0xbaae315e	-0.0013289859
45	0x3bd5f02e	0.006528876
46	0x3c667c06	0.014067655
47	0x3b31837b	0.0027086425
48	0xbb80e9bd	-0.003934114
49	0x3c9fba2f	0.019497959
50	0x3bdac8a7	0.0066767517
51	0x3b2239a8	0.0024753604
52	0xbbd18ef0	-0.0063952133
53	0xbc88e4fb	-0.016710749
54	0xbc368acf	-0.011141493
55	0x3c0bea05	0.008539681
56	0xbc7631b4	-0.015026499
57	0xbb96d674	-0.0046032015
58	0x3b66a58b	0.0035193886
59	0xbb23ee01	-0.0025013688
60	0x3ad6b81f	0.0016381777
61	0x3bbe4aef	0.0058072726
62	0xbb8d85b8	-0.004318919
63	0xbc05d2f5	-0.008167972
64	0x3c369307	0.0111434525
65	0xbaa634ba	-0.0012680509
66	0xbbcd2c58	-0.0062613897
67	0xbcda071e	-0.026614722
68	0x3c82eeec	0.015983067
69	0xbc88de67	-0.016707612
70	0xba546df1	-0.0008103541
71	0x3b9b8266	0.0047457693
72	0x3c9ff8e7	0.019527866
73	0xbba54696	-0.005043815
74	0x3c7cf14d	0.01543839
75	0xbc092d37	-0.008372596
76	0x3a9b2ee3	0.0011839535
77	0xbbaedec2	-0.0053366134
78	0xbaf90ea0	-0.0019001551
79	0xbc33ff28	-0.010986127
80	0xbba63909	-0.005072717
81	0xbc1cc327	-0.009568012
82	0xbc84c8bc	-0.016208999
83	0x3c63bc54	0.013899881
84	0xbb33206f	-0.0027332564
85	0xbc2eb9db	-0.010664429
86	0xbaefa3cb	-0.0018283067
87	0x3c2f7112	0.01070811
88	0x3cb2d4f0	0.021830052
89	0xbb8eb00b	-0.004354482
90	0x3c4672c2	0.012112321
91	0xbc8afa44	-0.01696504
92	0xbcb2e347	-0.02183689
93	0x3a8a3e74	0.0010547177
94	0xbc2eaa23	-0.010660681
95	0x3c5baa85	0.013407354
96	0x3cd66478	0.026170954
97	0xbc96e005	-0.018417368
98	0xbb43fef6	-0.0029906607
99	0xba36d86f	-0.0006975
100	0xbc0f7aaa	-0.008757273
101	0x3a24d176	0.00062873156
102	0xbb6e37d0	-0.0036349185
103	0x3c030854	0.007997591
104	0x3c37cca4	0.011218224
105	0xbc6d1554	-0.014470417
106	0xbc4e791f	-0.01260212
107	0x3c84a1ca	0.016190428
108	0x3c291677	0.010320297
109	0xbb1ce78d	-0.0023941726
110	0xbbe88774	-0.0070962254
111	0x3c4ecf50	0.012622669
112	0xba814092	-0.0009861162
113	0x39b23748	0.00033991993
114	0xbc47bacd	-0.012190533
115	0x3cb7caa9	0.022435503
116	0xba1b4b34	-0.0005923987
117	0x3bdc2d94	0.0067193005
118	0x3b3519d9	0.0027633815
119	0x3c293aec	0.0103289895
120	0x3b90ae3f	0.004415303
121	0xbbb7220f	-0.005588777
122	0x3c54c9b6	0.012987545
123	0xba781c60	-0.00094646774
124	0x3b355fed	0.0027675584
125	0xbcb59202	-0.022164349
126	0x3bc10cea	0.005891432
127	0xbbb928ab	-0.0056506
128	0xba958bf8	-0.0011409512
129	0x3494be2e	2.7705522e-07
130	0xbc245302	-0.010029556
131	0x3c5240e6	0.012832856
132	0x3b8a5ec6	0.0042227237
133	0x3baff42c	0.0053696837
134	0x3c3e8e39	0.011630588
135	0x3c605af4	0.01369356
136	0x3afe4ff0	0.0019402485
137	0x3c22256b	0.009896616
138	0xbc55a7b2	-0.01304047
139	0x3b0a9f85	0.002115221
140	0xbc87f2fc	-0.016595356
141	0xbc1f4942	-0.009722056
142	0x3a7f8850	0.000974779
143	0xbb3c4122	-0.0028725346
144	0x3af97b6f	0.0019033978
145	0xbbc67fbc	-0.0060577076
146	0xbca8b3df	-0.020593582
147	0x3c6a4c77	0.014300457
148	0x3b7037ea	0.003665442
149	0xb88475cd	-6.3161926e-05
150	0x39532365	0.00020135714
151	0xbc5cdfff	-0.013481139
152	0x3c6fc592	0.014634507
153	0xb817e278	-3.621212e-05
154	0xbc39062c	-0.011292975
155	0xbba1d56d	-0.0049387724
156	0xbbf986ef	-0.0076149623
157	0x3c8f8913	0.017521417
158	0x3bb9e98c	0.005673593
159	0x3a72b0fd	0.00092579407
160	0xbbe56306	-0.00700033
161	0xb9bc35f6	-0.00035898358
162	0x3b112a56	0.0022150478
163	0xbbbebc2b	-0.005820771
164	0xbbffe6bc	-0.007809488
165	0xbc031754	-0.008001167
166	0x3c36e8df	0.011163919
167	0xbb3df1d2	-0.0028983247
168	0x3a5b483a	0.00083649496
169	0xbc7f65c6	-0.0155882295
170	0xbc820639	-0.015872108
171	0x3b84c913	0.00405229
172	0x3ca2f2d0	0.019891173
173	0x3be509e6	0.0069897054
174	0xbbe22e4a	-0.0069024907
175	0x3b1d5288	0.0024005491
176	0xbb15b6c3	-0.002284453
177	0xbb8074d3	-0.0039201765
178	0x3b8e5ad7	0.004344325
179	0xbba3d029	-0.00499918
180	0xba72f35d	-0.00092678313
181	0xbba5170d	-0.0050381483
182	0xbc9cd18d	-0.01914289
183	0xbbe7e111	-0.0070763906
184	0xbc2914ec	-0.01031993
185	0xba28cb55	-0.000643899
186	0xbacca416	-0.0015612866
187	0x3c34a6d2	0.011026101
188	0xbcbe7039	-0.023246871
189	0xbc926c99	-0.017874049
190	0x3bf0241b	0.007328523
191	0x3c954375	0.018220643
192	0x3c3a3777	0.011365763
193	0xbb54e999	-0.0032487868
194	0x3b8c10c7	0.004274461
195	0x3c1153f1	0.008870111
196	0xbb853c73	-0.004066044
197	0xbc4b484d	-0.012407375
198	0x3c47d37f	0.012196421
199	0x3b674ea7	0.0035294683
200	0x3b517873	0.0031962662
201	0xbc153f18	-0.009109281
202	0x3c0956bf	0.008382498
203	0xbbc7506c	-0.006082585
204	0xbc1acfb3	-0.009448933
205	0xba77ccb7	-0.0009452807
206	0xbb4fd758	-0.0031714048
207	0xbb324003	-0.0027198798
208	0x3c2fdb04	0.01073337
209	0x3bb239a5	0.0054390007
210	0x3b3855fa	0.0028127418
211	0xbb436ddd	-0.0029820122
212	0xbbc2acdb	-0.005941016
213	0xbba697c6	-0.005084011
214	0xbbb3e3bc	-0.0054897945
215	0xbc7f5495	-0.015584131
216	0x3bc75750	0.0060834065
217	0x3c7869ce	0.015161945
218	0xbb9d8638	-0.00480726
219	0x39e0b6cb	0.000428608
220	0x39fcdc93	0.00048229526
221	0xbb81bdb8	-0.003959384
222	0x3b591ca4	0.0033128643
223	0x395b2c3a	0.00020901943
224	0xbb03e95a	-0.0020128102
225	0x3c0fffaf	0.008788987
226	0xbb8766ba	-0.004132119
227	0xbbec3021	-0.007207886
228	0xbbcf7344	-0.0063308794
229	0xbafc9b9c	-0.001927245
230	0xbc05a7e9	-0.008157709
231	0x3ba644be	0.0050741127
232	0x3a847708	0.0010106275
233	0x3c953b8c	0.01821687
234	0xbc14f7af	-0.0090922555
235	0xba004f4f	-0.00048946304
236	0xbbaaa3fa	-0.005207536
237	0x3bad7258	0.005293172
238	0xbbb07121	-0.0053845798
239	0x3bb9a4a4	0.0056653786
240	0xbbaf4495	-0.005348752
241	0xbba9614d	-0.00516907
242	0xbc7a2e5e	-0.015269844
243	0x3bb8c1ce	0.0056383377
244	0xbbc98452	-0.006149807
245	0x3c93fa66	0.018063735
246	0xbc736a28	-0.014856853
247	0x3b939b28	0.00450458
248	0xbc1c222e	-0.009529633
249	0x3bb2379a	0.005438757
250	0xbbe00705	-0.0068367743
251	0x39f9ee2c	0.00047670433
252	0xbb9d6f78	-0.004804548
253	0xbb443656	-0.0029939613
254	0x3c56bb9b	0.013106252
255	0x3b70c318	0.0036737379

feature_weight.bias f4 [50]
0	0x35ac3ad6	1.2832122e-06
1	0x37805508	1.5298385e-05
2	0x00000000	0.0
3	0xb6f5c05c	-7.3239626e-06
4	0xb6196c18	-2.2861695e-06
5	0xb73d74e3	-1.1292493e-05
6	0x37b83b7c	2.1962209e-05
7	0xb572c413	-9.043735e-07
8	0xb76a08d4	-1.3949542e-05
9	0x35a93bb5	1.2608858e-06
10	0x366401e5	3.397575e-06
11	0xb79041ec	-1.7196835e-05
12	0xb6c4f6e8	-5.869999e-06
13	0xb830121f	-4.1978547e-05
14	0xb89844a5	-7.260711e-05
15	0x37079e89	8.083539e-06
16	0x36f73569	7.3673914e-06
17	0x3565bf25	8.55873e-07
18	0x3688eb87	4.080535e-06
19	0x37cd4de8	2.4474182e-05
20	0xb5cb6db5	-1.5156608e-06
21	0x37271e9a	9.961101e-06
22	0x00000000	0.0
23	0x3722cfdf	9.704351e-06
24	0xb7a549a2	-1.970382e-05
25	0xb47259dc	-2.2570697e-07
26	0x359d2c3c	1.1710285e-06
27	0x362b8125	2.5556158e-06
28	0x3533d535	6.6992953e-07
29	0x378ecc44	1.7022838e-05
30	0xb502d49d	-4.8738167e-07
31	0xb7a72ad6	-1.9927898e-05
32	0xb83861f7	-4.3960255e-05
33	0x3596eeb6	1.1245345e-06
34	0x377da15d	1.5117545e-05
35	0x380b92c7	3.327688e-05
36	0x36cbf224	6.0780603e-06
37	0xb25fb1e3	-1.3020755e-08
38	0xb6365c7c	-2.7173946e-06
39	0x38d5a2ea	0.000101869766
40	0xb6dd141f	-6.5886557e-06
41	0x3117ae79	2.2072568e-09
42	0x00000000	0.0
43	0xb51a6a9b	-5.75246e-07
44	0x38145ac9	3.53705e-05
45	0x385da104	5.2840463e-05
46	0xb7c51797	-2.3495215e-05
47	0x37dea9a8	2.6543465e-05
48	0x373a1d8a	1.10933415e-05
49	0x364c1d43	3.0415401e-06

hidden_features.0.weight f4 [50, 8]
0	0x3c171275	0.009220709
1	0x3abc4448	0.0014363611
2	0x3b90ab80	0.0044149756
3	0x3adc7f4a	0.0016822603
4	0xbc9543c8	-0.018220797
5	0x3bbbfef9	0.005737182
6	0x3bb3e060	0.005489394
7	0xbc2381b7	-0.009979657
8	0xbc5fde55	-0.013663848
9	0x3c955152	0.018227253
10	0xbb699e5f	-0.0035647375
11	0x3b0f6f27	0.002188632
12	0xbc30c1c4	-0.010788385
13	0x38b65700	8.694641e-05
14	0x3baeb7c6	0.005331966
15	0x3cac6ae1	0.021047058
16	0xbbc69976	-0.0060607744
17	0xbb90b79b	-0.0044164187
18	0xbbeea481	-0.007282794
19	0xbc6c427c	-0.014420148
20	0x3bc9a5d5	0.006153802
21	0xbc9a601c	-0.018844657
22	0x3b380632	0.0028079865
23	0xbb5aca7e	-0.0033384855
24	0x3bc4ea05	0.0060093426
25	0x3b0f4ebe	0.0021867002
26	0xbb1f657b	-0.0024321962
27	0xbc9af7d3	-0.018917
28	0x3bb5436c	0.005531719
29	0x3b075989	0.0020652732
30	0x3c1c26d7	0.0095307445
31	0x3ae27fe5	0.0017280547
32	0x3c8ccfc6	0.017188918
33	0x3bb721da	0.005588752
34	0x3b7ccf57	0.0038575733
35	0x3b6a1fe6	0.003572458
36	0xbca8f085	-0.020622501
37	0x3be70340	0.007049948
38	0xbbc16250	-0.0059016123
39	0xbb9a08de	-0.004700764
40	0xbb5e6544	-0.003393487
41	0x3b2ce1cb	0.00263797
42	0x3abb9d08	0.0014313767
43	0x3c5e8019	0.013580346
44	0xbaae315e	-0.0013289859
45	0x3bd5f02e	0.006528876
46	0x3c667c06	0.014067655
47	0x3b31837b	0.0027086425
48	0xbb80e9bd	-0.003934114
49	0x3c9fba2f	0.019497959
50	0x3bdac8a7	0.0066767517
51	0x3b2239a8	0.0024753604
52	0xbbd18ef0	-0.0063952133
53	0xbc88e4fb	-0.016710749
54	0xbc368acf	-0.011141493
55	0x3c0bea05	0.008539681
56	0xbc7631b4	-0.015026499
57	0xbb96d674	-0.0046032015
58	0x3b66a58b	0.0035193886
59	0xbb23ee01	-0.0025013688
60	0x3ad6b81f	0.0016381777
61	0x3bbe4aef	0.0058072726
62	0xbb8d85b8	-0.004318919
63	0xbc05d2f5	-0.008167972
64	0x3c369307	0.0111434525
65	0xbaa634ba	-0.0012680509
66	0xbbcd2c58	-0.0062613897
67	0xbcda071e	-0.026614722
68	0x3c82eeec	0.015983067
69	0xbc88de67	-0.016707612
70	0xba546df1	-0.0008103541
71	0x3b9b8266	0.0047457693
72	0x3c9ff8e7	0.019527866
73	0xbba54696	-0.005043815
74	0x3c7cf14d	0.01543839
75	0xbc092d37	-0.008372596
76	0x3a9b2ee3	0.0011839535
77	0xbbaedec2	-0.0053366134
78	0xbaf90ea0	-0.0019001551
79	0xbc33ff28	-0.010986127
80	0xbba63909	-0.005072717
81	0xbc1cc327	-0.009568012
82	0xbc84c8bc	-0.016208999
83	0x3c63bc54	0.013899881
84	0xbb33206f	-0.0027332564
85	0xbc2eb9db	-0.010664429
86	0xbaefa3cb	-0.0018283067
87	0x3c2f7112	0.01070811
88	0x3cb2d4f0	0.021830052
89	0xbb8eb00b	-0.004354482
90	0x3c4672c2	0.012112321
91	0xbc8afa44	-0.01696504
92	0xbcb2e347	-0.02183689
93	0x3a8a3e74	0.0010547177
94	0xbc2eaa23	-0.010660681
95	0x3c5baa85	0.013407354
96	0x3cd66478	0.026170954
97	0xbc96e005	-0.018417368
98	0xbb43fef6	-0.0029906607
99	0xba36d86f	-0.0006975
100	0xbc0f7aaa	-0.008757273
101	0x3a24d176	0.00062873156
102	0xbb6e37d0	-0.0036349185
103	0x3c030854	0.007997591
104	0x3c37cca4	0.011218224
105	0xbc6d1554	-0.014470417
106	0xbc4e791f	-0.01260212
107	0x3c84a1ca	0.016190428
108	0x3c291677	0.010320297
109	0xbb1ce78d	-0.0023941726
110	0xbbe88774	-0.0070962254
111	0x3c4ecf50	0.012622669
112	0xba814092	-0.0009861162
113	0x39b23748	0.00033991993
114	0xbc47bacd	-0.012190533
115	0x3cb7caa9	0.022435503
116	0xba1b4b34	-0.0005923987
117	0x3bdc2d94	0.0067193005
118	0x3b3519d9	0.0027633815
119	0x3c293aec	0.0103289895
120	0x3b90ae3f	0.004415303
121	0xbbb7220f	-0.005588777
122	0x3c54c9b6	0.012987545
123	0xba781c60	-0.00094646774
124	0x3b355fed	0.0027675584
125	0xbcb59202	-0.022164349
126	0x3bc10cea	0.005891432
127	0xbbb928ab	-0.0056506
128	0xba958bf8	-0.0011409512
129	0x3494be2e	2.7705522e-07
130	0xbc245302	-0.010029556
131	0x3c5240e6	0.012832856
132	0x3b8a5ec6	0.0042227237
133	0x3baff42c	0.0053696837
134	0x3c3e8e39	0.011630588
135	0x3c605af4	0.01369356
136	0x3afe4ff0	0.0019402485
137	0x3c22256b	0.009896616
138	0xbc55a7b2	-0.01304047
139	0x3b0a9f85	0.002115221
140	0xbc87f2fc	-0.016595356
141	0xbc1f4942	-0.009722056
142	0x3a7f8850	0.000974779
143	0xbb3c4122	-0.0028725346
144	0x3af97b6f	0.0019033978
145	0xbbc67fbc	-0.0060577076
146	0xbca8b3df	-0.020593582
147	0x3c6a4c77	0.014300457
148	0x3b7037ea	0.003665442
149	0xb88475cd	-6.3161926e-05
150	0x39532365	0.00020135714
151	0xbc5cdfff	-0.013481139
152	0x3c6fc592	0.014634507
153	0xb817e278	-3.621212e-05
154	0xbc39062c	-0.011292975
155	0xbba1d56d	-0.0049387724
156	0xbbf986ef	-0.0076149623
157	0x3c8f8913	0.017521417
158	0x3bb9e98c	0.005673593
159	0x3a72b0fd	0.00092579407
160	0xbbe56306	-0.00700033
161	0xb9bc35f6	-0.00035898358
162	0x3b112a56	0.0022150478
163	0xbbbebc2b	-0.005820771
164	0xbbffe6bc	-0.007809488
165	0xbc031754	-0.008001167
166	0x3c36e8df	0.011163919
167	0xbb3df1d2	-0.0028983247
168	0x3a5b483a	0.00083649496
169	0xbc7f65c6	-0.0155882295
170	0xbc820639	-0.015872108
171	0x3b84c913	0.00405229
172	0x3ca2f2d0	0.019891173
173	0x3be509e6	0.0069897054
174	0xbbe22e4a	-0.0069024907
175	0x3b1d5288	0.0024005491
176	0xbb15b6c3	-0.002284453
177	0xbb8074d3	-0.0039201765
178	0x3b8e5ad7	0.004344325
179	0xbba3d029	-0.00499918
180	0xba72f35d	-0.00092678313
181	0xbba5170d	-0.0050381483
182	0xbc9cd18d	-0.01914289
183	0xbbe7e111	-0.0070763906
184	0xbc2914ec	-0.01031993
185	0xba28cb55	-0.000643899
186	0xbacca416	-0.0015612866
187	0x3c34a6d2	0.011026101
188	0xbcbe7039	-0.023246871
189	0xbc926c99	-0.017874049
190	0x3bf0241b	0.007328523
191	0x3c954375	0.018220643
192	0x3c3a3777	0.011365763
193	0xbb54e999	-0.0032487868
194	0x3b8c10c7	0.004274461
195	0x3c1153f1	0.008870111
196	0xbb853c73	-0.004066044
197	0xbc4b484d	-0.012407375
198	0x3c47d37f	0.012196421
199	0x3b674ea7	0.0035294683
200	0x3b517873	0.0031962662
201	0xbc153f18	-0.009109281
202	0x3c0956bf	0.008382498
203	0xbbc7506c	-0.006082585
204	0xbc1acfb3	-0.009448933
205	0xba77ccb7	-0.0009452807
206	0xbb4fd758	-0.0031714048
207	0xbb324003	-0.0027198798
208	0x3c2fdb04	0.01073337
209	0x3bb239a5	0.0054390007
210	0x3b3855fa	0.0028127418
211	0xbb436ddd	-0.0029820122
212	0xbbc2acdb	-0.005941016
213	0xbba697c6	-0.005084011
214	0xbbb3e3bc	-0.0054897945
215	0xbc7f5495	-0.015584131
216	0x3bc75750	0.0060834065
217	0x3c7869ce	0.015161945
218	0xbb9d8638	-0.00480726
219	0x39e0b6cb	0.000428608
220	0x39fcdc93	0.00048229526
221	0xbb81bdb8	-0.003959384
222	0x3b591ca4	0.0033128643
223	0x395b2c3a	0.00020901943
224	0xbb03e95a	-0.0020128102
225	0x3c0fffaf	0.008788987
226	0xbb8766ba	-0.004132119
227	0xbbec3021	-0.007207886
228	0xbbcf7344	-0.0063308794
229	0xbafc9b9c	-0.001927245
230	0xbc05a7e9	-0.008157709
231	0x3ba644be	0.0050741127
232	0x3a847708	0.0010106275
233	0x3c953b8c	0.01821687
234	0xbc14f7af	-0.0090922555
235	0xba004f4f	-0.00048946304
236	0xbbaaa3fa	-0.005207536
237	0x3bad7258	0.005293172
238	0xbbb07121	-0.0053845798
239	0x3bb9a4a4	0.0056653786
240	0xbbaf4495	-0.005348752
241	0xbba9614d	-0.00516907
242	0xbc7a2e5e	-0.015269844
243	0x3bb8c1ce	0.0056383377
244	0xbbc98452	-0.006149807
245	0x3c93fa66	0.018063735
246	0xbc736a28	-0.014856853
247	0x3b939b28	0.00450458
248	0xbc1c222e	-0.009529633
249	0x3bb2379a	0.005438757
250	0xbbe00705	-0.0068367743
251	0x39f9ee2c	0.00047670433
252	0xbb9d6f78	-0.004804548
253	0xbb443656	-0.0029939613
254	0x3c56bb9b	0.013106252
255	0x3b70c318	0.0036737379

hidden_features.0.bias f4 [50]
0	0x35ac3ad6	1.2832122e-06
1	0x37805508	1.5298385e-05
2	0x00000000	0.0
3	0xb6f5c05c	-7.3239626e-06
4	0xb6196c18	-2.2861695e-06
5	0xb73d74e3	-1.1292493e-05
6	0x37b83b7c	2.1962209e-05
7	0xb572c413	-9.043735e-07
8	0xb76a08d4	-1.3949542e-05
9	0x35a93bb5	1.2608858e-06
10	0x366401e5	3.397575e-06
11	0xb79041ec	-1.7196835e-05
12	0xb6c4f6e8	-5.869999e-06
13	0xb830121f	-4.1978547e-05
14	0xb89844a5	-7.260711e-05
15	0x37079e89	8.083539e-06
16	0x36f73569	7.3673914e-06
17	0x3565bf25	8.55873e-07
18	0x3688eb87	4.080535e-06
19	0x37cd4de8	2.4474182e-05
20	0xb5cb6db5	-1.5156608e-06
21	0x37271e9a	9.961101e-06
22	0x00000000	0.0
23	0x3722cfdf	9.704351e-06
24	0xb7a549a2	-1.970382e-05
25	0xb47259dc	-2.2570697e-07
26	0x359d2c3c	1.1710285e-06
27	0x362b8125	2.5556158e-06
28	0x3533d535	6.6992953e-07
29	0x378ecc44	1.7022838e-05
30	0xb502d49d	-4.8738167e-07
31	0xb7a72ad6	-1.9927898e-05
32	0xb83861f7	-4.3960255e-05
33	0x3596eeb6	1.1245345e-06
34	0x377da15d	1.5117545e-05
35	0x380b92c7	3.327688e-05
36	0x36cbf224	6.0780603e-06
37	0xb25fb1e3	-1.3020755e-08
38	0xb6365c7c	-2.7173946e-06
39	0x38d5a2ea	0.000101869766
40	0xb6dd141f	-6.5886557e-06
41	0x3117ae79	2.2072568e-09
42	0x00000000	0.0
43	0xb51a6a9b	-5.75246e-07
44	0x38145ac9	3.53705e-05
45	0x385da104	5.2840463e-05
46	0xb7c51797	-2.3495215e-05
47	0x37dea9a8	2.6543465e-05
48	0x373a1d8a	1.10933415e-05
49	0x364c1d43	3.0415401e-06

hidden_features.2.weight f4 [50, 50]
0	0xbc5c848d	-0.013459337
1	0xbc19c98a	-0.00938643
2	0x3b1fdccd	0.0024393082
3	0xbbfc20db	-0.0076943464
4	0x3c2d44a5	0.010575448
5	0x3bf9a36f	0.0076183598
6	0x3b2aae58	0.0026043858
7	0x3c45b13d	0.012066183
8	0x3b9fcb19	0.004876506
9	0xbc0137b7	-0.007886819
10	0x3aa37b81	0.001247272
11	0x3cb80838	0.022464857
12	0xbb3d727c	-0.002890735
13	0xbcc2a448	-0.023759976
14	0x3c9e7a3a	0.019345392
15	0x3b284eb2	0.0025681672
16	0xbb508f29	-0.0031823611
17	0x3bf61461	0.0075097536
18	0x3c7ed5be	0.01555389
19	0xbc891919	-0.0167356
20	0xbbbed03d	-0.005823164
21	0xbb7d7e98	-0.0038680192
22	0x3c0f014b	0.008728336
23	0x3a526b20	0.0008026827
24	0x3c86583c	0.016399495
25	0xbd14b337	-0.036303725
26	0xbca1ee30	-0.019766897
27	0xbc55fe83	-0.013061169
28	0x3c928896	0.017887395
29	0xbb366e30	-0.0027836673
30	0x3bec191d	0.007205142
31	0xba9ca336	-0.0011950496
32	0x3c39cd6e	0.011340482
33	0xbc25c9d5	-0.010118921
34	0x3c06b460	0.008221716
35	0xbc148ad4	-0.009066302
36	0xbba2c407	-0.004967216
37	0xbc26bf51	-0.010177449
38	0xbc409e18	-0.0117564425
39	0xbc4cffaf	-0.012512132
40	0x3b9f5910	0.004862912
41	0xbbc05e3c	-0.0058706086
42	0x3a0d6231	0.0005393355
43	0xbbe44580	-0.006966293
44	0x3c20e946	0.009821242
45	0x3bde994e	0.0067931777
46	0x3c183127	0.009289063
47	0xbaaaec4a	-0.001304039
48	0x3b863ef6	0.004096861
49	0x3c314c04	0.010821346
50	0x3cbeea71	0.02330515
51	0xbbb07fe1	-0.005386338
52	0x3a7f00cd	0.00097275974
53	0xbb29086b	-0.002579237
54	0xbaa6428e	-0.001268463
55	0xb8275506	-3.9895087e-05
56	0xbb6941ad	-0.0035592124
57	0xbc81f893	-0.0158656
58	0x3b9c01d9	0.0047609624
59	0xbba6c09b	-0.0050888783
60	0xbbeda4d1	-0.0072523137
61	0x3c667829	0.014066734
62	0x3c9aa3cd	0.018876934
63	0xbb1d86d4	-0.0024036663
64	0x3b7b9b95	0.0038392295
65	0x3c477dad	0.01217596
66	0xbc4f27b6	-0.012643745
67	0xbba43de0	-0.005012259
68	0xbc345181	-0.01100576
69	0xbc06fc88	-0.008238919
70	0x3c11cbea	0.008898715
71	0x3c6f6bf6	0.014613142
72	0x3b879b61	0.0041383957
73	0x3b82836e	0.003982953
74	0x3ca0aa02	0.019612316
75	0xbaaec0a2	-0.0013332556
76	0x3b9ecebb	0.0048464215
77	0x3bc9ce32	0.0061586136
78	0x3b72b0a1	0.0037031549
79	0xb90f279f	-0.00013652303
80	0xbb018007	-0.0019760148
81	0xbc501fe8	-0.01270292
82	0xbc892f6a	-0.016746242
83	0x3c38f2a8	0.0112883225
84	0x3abedb74	0.0014561252
85	0x3bd7e6f8	0.006588813
86	0xbc3b46e3	-0.011430475
87	0x3c6bafb3	0.014385152
88	0xbaf1bd03	-0.0018443171
89	0xbbbc5642	-0.0057475874
90	0xbbec614d	-0.0072137476
91	0xb9bbda14	-0.000358299
92	0x3b314034	0.0027046325
93	0xbb757dd2	-0.0037459028
94	0xbbc829f0	-0.006108515
95	0x3c6e77a4	0.014554892
96	0xbb1ae744	-0.002363638
97	0x3aad4672	0.0013219847
98	0x3a115be5	0.00055450044
99	0x3b6a771f	0.0035776568
100	0x3b7c9e07	0.003854634
101	0x3c23f665	0.0100074755
102	0xbc5538f7	-0.01301407
103	0xbbb3b812	-0.0054845894
104	0xb8d050bf	-9.933253e-05
105	0xbbf4435e	-0.00745432
106	0x3c774062	0.015091034
107	0x3c80046f	0.015627114
108	0x3a73e1d6	0.00093033665
109	0xbc8addf3	-0.016951537
110	0xb9989f99	-0.0002911061
111	0x3c4831ce	0.012218906
112	0xbc92797f	-0.0178802
113	0x3c08d14a	0.00835068
114	0x3c8cf638	0.01720725
115	0xbc18e7b6	-0.009332588
116	0x3bc29e6f	0.005939297
117	0xbacd605a	-0.0015668974
118	0xbc83b843	-0.016079074
119	0x3b12dc5c	0.0022409176
120	0xbb4167a9	-0.002951125
121	0xbb8b2827	-0.00424673
122	0x3a868583	0.0010263178
123	0xbc1cb1c9	-0.009563872
124	0x3a50fd17	0.00079722836
125	0x3c209eb1	0.00980346
126	0xbb6fe55c	-0.0036605215
127	0xbbd3d9a4	-0.006465154
128	0x3b8400b9	0.0040284065
129	0xbb50dd74	-0.0031870278
130	0x3b871486	0.0041223196
131	0x3b4da7c6	0.0031380518
132	0x3c4e46e0	0.01259014
133	0x3aa79390	0.0012785066
134	0x3c41f9d9	0.0118393535
135	0xbb86d2b9	-0.0041144756
136	0x3b5d4335	0.0033761982
137	0x3c39dded	0.011344415
138	0xbb27f7d7	-0.0025629902
139	0x3a147814	0.0005663645
140	0x3b86b218	0.004110586
141	0x3bf1bc36	0.007377173
142	0xbb8c1579	-0.0042750207
143	0x3bd3e02e	0.0064659333
144	0x3bfa4631	0.007637762
145	0xbccdfcc4	-0.025144942
146	0x39fab7d9	0.00047820693
147	0xb9997fef	-0.00029277752
148	0xbc143553	-0.009045917
149	0x3ad787bf	0.0016443654
150	0x3b817380	0.0039505363
151	0x3c340101	0.0109865675
152	0xbb3e0d86	-0.002899976
153	0x3bf57eda	0.0074919285
154	0x3bb52663	0.0055282577
155	0x3ca5ba16	0.020230334
156	0xbc174fc7	-0.009235329
157	0x3a099ecd	0.00052497984
158	0xbb79079e	-0.0037998925
159	0x3bbde836	0.005795504
160	0x3bd1f606	0.006407502
161	0x3c57beae	0.01316802
162	0xbb1597a4	-0.002282598
163	0xbb1f678d	-0.0024323196
164	0xbb1e8089	-0.00241855
165	0xbc286855	-0.010278781
166	0x3bb09f5b	0.0053900904
167	0xbb02a16a	-0.0019932636
168	0xbb0a47a3	-0.0021099828
169	0xbba3bc52	-0.0049968148
170	0xbaa244c2	-0.001238011
171	0xbb9cba74	-0.004782969
172	0x3a1895e1	0.00058206735
173	0x3a9e4599	0.0012075185
174	0xbc43101e	-0.011905698
175	0xbc88c19c	-0.016693883
176	0xbc2a6985	-0.010401134
177	0x3c2f72c8	0.010708518
178	0xbc411266	-0.011784172
179	0x3c028f5c	0.00796875
180	0xbb3510d3	-0.0027628436
181	0xbb0f9f9a	-0.0021915198
182	0xbc1fdbb9	-0.009756976
183	0x3b207eac	0.0024489565
184	0xbb3e8ff5	-0.0029077504
185	0xbb05516f	-0.0020342728
186	0x3c8fa5ec	0.017535172
187	0x3c8ab0f3	0.01693008
188	0xbc165f24	-0.009177957
189	0x3c997beb	0.018735847
190	0xbba12bbc	-0.0049185436
191	0xbb96e346	-0.00460473
192	0x3c3719e5	0.011175607
193	0x3b345aaa	0.002751986
194	0xbbdefdb3	-0.0068051456
195	0xbb82f530	-0.003996514
196	0xba1b6e3b	-0.00059292064
197	0xbaae2c17	-0.0013288286
198	0x3b320075	0.0027160917
199	0xb88ba82d	-6.659362e-05
200	0xbc0ed48a	-0.008717665
201	0x3c362de4	0.01111934
202	0x3c702bd8	0.014658891
203	0x3c3c3a25	0.011488472
204	0x3c1c0c17	0.009524367
205	0x3c7238f0	0.014784083
206	0x3b65ee67	0.0035084726
207	0x3bd0fdd2	0.006377914
208	0x3bed3398	0.0072388165
209	0x3baaefc8	0.0052165724
210	0x3b1260a0	0.0022335425
211	0xbb398336	-0.0028306968
212	0xbbd4793d	-0.0064841793
213	0x3c15b0eb	0.009136419
214	0x3c1655b1	0.009175704
215	0x3b82e91a	0.003995073
216	0x3ba72c00	0.0051016808
217	0xba5ebe38	-0.0008496973
218	0x3be1039d	0.006866886
219	0xbbd2ef28	-0.006437201
220	0xba3d88f9	-0.00072301883
221	0xbc5b9b2d	-0.013403696
222	0x3c3373d3	0.010952908
223	0xbb52df9e	-0.0032176743
224	0x3b9ffb11	0.0048822244
225	0x3bb9e584	0.0056731123
226	0x3b84c113	0.0040513366
227	0x3c674781	0.014116169
228	0x3b7ffc16	0.0039060167
229	0xba93ba73	-0.0011270776
230	0xb7b680dc	-2.1756096e-05
231	0xbc05224a	-0.008125851
232	0x3c63700c	0.0138816945
233	0xbcb2d61f	-0.021830617
234	0xbc13be9b	-0.009017612
235	0xbc22d196	-0.0099376645
236	0xbad16012	-0.0015974066
237	0x3b79bec2	0.0038108085
238	0x3c021698	0.007939957
239	0x3bed6876	0.0072451187
240	0x3c1edeb5	0.009696652
241	0xbc813bd0	-0.015775591
242	0x3bdcd579	0.006739315
243	0xbc204d32	-0.00978403
244	0xbcd439ff	-0.025906561
245	0x3a3df6c0	0.00072465464
246	0x3c840b8d	0.01611879
247	0xba67c3dc	-0.0008841136
248	0x3af6659f	0.0018798596
249	0xbb2f3d83	-0.0026739545
250	0x3b3ec2e2	0.0029107858
251	0x3cb90a33	0.022587871
252	0x3c47530d	0.012165797
253	0xbc3a760a	-0.011380682
254	0xbc8aa261	-0.016923131
255	0xbcac6f99	-0.021049308

hidden_features.2.bias f4 [50]
0	0xb9402dd8	-0.00018327625
1	0x39f9739e	0.00047579122
2	0x361acb24	2.3066032e-06
3	0x39ea9b05	0.00044747457
4	0xba660264	-0.000877416
5	0x3a8739c4	0.0010316898
6	0x00000000	0.0
7	0x3a481d1d	0.0007633733
8	0xb97fb921	-0.00024387661
9	0xb957b9cb	-0.00020573211
10	0x37a8baee	2.0114207e-05
11	0x39e93068	0.0004447729
12	0x3992c8ff	0.00027997044
13	0xb82f7dee	-4.1840533e-05
14	0x37d4a3e4	2.5348687e-05
15	0xb8970826	-7.201759e-05
16	0x37e7bfbe	2.7626633e-05
17	0x37207b7e	9.565496e-06
18	0x3757e212	1.2867635e-05
19	0xb9d2b281	-0.00040187317
20	0x38cf830f	9.894941e-05
21	0xb803c8ee	-3.1419964e-05
22	0x3518a3d0	5.686279e-07
23	0x38017176	3.0861665e-05
24	0x3a546345	0.00081019505
25	0x398232c0	0.00024833344
26	0x3930112b	0.00016791064
27	0x39b40114	0.0003433308
28	0xb95ccebe	-0.00021057852
29	0xb9a4a070	-0.00031400053
30	0x36841b61	3.937094e-06
31	0xb82f8c90	-4.185416e-05
32	0xb911e4f5	-0.00013913571
33	0xba3e47c3	-0.0007258618
34	0xb954bb65	-0.00020287705
35	0x3734a263	1.0766645e-05
36	0x3a46514f	0.00075652165
37	0x392d4c59	0.00016527007
38	0xb987f89b	-0.00025934432
39	0x00000000	0.0
40	0x3a4874ad	0.00076467806
41	0x3b037a37	0.002006186
42	0x3a694cb7	0.0008899676
43	0xb8ce0e21	-9.825477e-05
44	0x3a66a4f6	0.0008798385
45	0x393e8943	0.00018170946
46	0xb8026bf7	-3.1094965e-05
47	0x39911f42	0.00027679844
48	0x3a2bd921	0.0006555487
49	0x3a39728d	0.00070742593

density_estimator_head.weight f4 [50, 11]
0	0xbbc34701	-0.005959392
1	0xbc4b8384	-0.0124214925
2	0x3c315080	0.010822415
3	0xbc81200e	-0.015762355
4	0x3bb9961b	0.005663646
5	0x3b5e4e3a	0.0033921138
6	0xbbb0b6b6	-0.0053928746
7	0xba71710b	-0.0009210265
8	0x3c0a84ad	0.008454484
9	0xbc257e6f	-0.010100945
10	0xbb8a6345	-0.0042232596
11	0xb9801e2d	-0.00024436545
12	0xbb5d06c7	-0.0033725963
13	0x3bb0ef56	0.005399625
14	0xbba4eebb	-0.0050333417
15	0xbc250d34	-0.010073949
16	0xbb8ac4bb	-0.004234878
17	0x3bf421fc	0.0074503403
18	0x3c75c409	0.015000352
19	0x3b3770f9	0.002799092
20	0xbb2f1e86	-0.0026721074
21	0x3c8f2409	0.017473238
22	0x3c1b8d57	0.009494147
23	0xbb8c6cac	-0.0042854156
24	0x3b163bb9	0.002292378
25	0xbb9c2f66	-0.0047663925
26	0x3c0ca17f	0.008583426
27	0xbc3ecbc0	-0.0116452575
28	0xba8997b9	-0.0010497487
29	0xbc1c63db	-0.009545292
30	0xbb193cf7	-0.0023382285
31	0x3cbc7bba	0.023008216
32	0xbc80959c	-0.01569634
33	0xbbb5adde	-0.005544408
34	0xbb960ec6	-0.004579398
35	0xbc814785	-0.015781173
36	0xbcaaeccd	-0.020864869
37	0x3bc23e15	0.005927811
38	0x3a8f013e	0.0010910404
39	0xbb1ef51f	-0.002425499
40	0xbc1422a8	-0.009041466
41	0xbb98cb8b	-0.004662936
42	0x3b6447bb	0.0034832794
43	0xbc033edc	-0.008010592
44	0x3bfa5faa	0.0076407986
45	0x3c280350	0.010254696
46	0xbb525a24	-0.0032097185
47	0xbaac89c6	-0.0013163618
48	0x3c908683	0.017642265
49	0x3c9c0bc8	0.019048586
50	0xbc5b7f74	-0.013397086
51	0xbc6c5f7a	-0.01442706
52	0x3c8bafcc	0.0170516
53	0xbc923262	-0.01784629
54	0xbb2af978	-0.0026088636
55	0xbac43cc9	-0.0014971729
56	0x3c585301	0.013203383
57	0xbc535752	-0.012899237
58	0xbbf041da	-0.007332069
59	0xbc031e1f	-0.008002787
60	0xbb7e39a8	-0.003879169
61	0xbcb49ccc	-0.022047423
62	0x3bbf25b2	0.005833351
63	0x3ca0e382	0.019639734
64	0xb9f93815	-0.00047534765
65	0x3c9cc3e7	0.019136382
66	0x3b51b158	0.0031996574
67	0xbba34dd8	-0.004983645
68	0x3a06a532	0.00051363104
69	0xbc162c3c	-0.00916582
70	0x3c6369b5	0.013880183
71	0xbc3cbfa3	-0.011520299
72	0x3c2135ad	0.009839457
73	0xbc21995a	-0.009863222
74	0xbc65409e	-0.013992457
75	0x3b2daa7b	0.002649932
76	0x3b9fbf3f	0.0048750932
77	0xbb6ab407	-0.003581287
78	0xbc3fd99d	-0.011709598
79	0x3bc633ca	0.006048654
80	0xbbd2a630	-0.0064285025
81	0xbc509c82	-0.012732627
82	0x3c819e1f	0.015822468
83	0x3ccb08b8	0.02478443
84	0xbb5309c6	-0.003220187
85	0x3bd04a2e	0.006356499
86	0x3b25b124	0.0025282586
87	0x3bb6dee8	0.0055807717
88	0x3bb5edca	0.0055520283
89	0x3c72e74d	0.014825654
90	0x3bc6067a	0.0060432525
91	0xbb12b381	-0.0022384825
92	0x3a4481bd	0.0007496139
93	0x3c708bbf	0.014681756
94	0x3af3a2a3	0.0018587898
95	0x3c1c2996	0.009531399
96	0x3bf1d42d	0.0073800297
97	0x3b9b515d	0.004739924
98	0xbbdd671b	-0.006756676
99	0xbc2f8a7b	-0.010714169
100	0x3c5dc00f	0.01353456
101	0x3be8a5b6	0.0070998324
102	0x3b496907	0.0030732767
103	0x3c310bee	0.010806067
104	0x3ab96837	0.0014145438
105	0xbb6f68c3	-0.0036530949
106	0xbb02d89e	-0.001996554
107	0xba6c7432	-0.000902
108	0x3aeb7cbc	0.0017966251
109	0xbbe674bc	-0.007032959
110	0xbb8ecfbb	-0.0043582595
111	0x3a4b3e2b	0.0007753099
112	0xbc368a92	-0.011141436
113	0x3be1a4d8	0.006886106
114	0xbb8570f1	-0.0040723016
115	0xbc0723ae	-0.008248253
116	0x3c9d25f3	0.019183135
117	0xbc68cfa8	-0.014209665
118	0xbce014af	-0.027353613
119	0x3c58b9a4	0.013227854
120	0xb8bc90ef	-8.9915346e-05
121	0x3b9c5fe5	0.0047721737
122	0xba33c61b	-0.0006857828
123	0xbbc56419	-0.0060238955
124	0xbb558d10	-0.00325853
125	0xbc137c50	-0.009001806
126	0xbc3700fe	-0.01116967
127	0xbabc38db	-0.0014360206
128	0xbc3136ba	-0.0108162705
129	0xbbe99c6c	-0.0071292426
130	0x3bb0c14f	0.005394138
131	0x3c621943	0.013799968
132	0xbc05286a	-0.008127311
133	0x3bbb8e37	0.0057237404
134	0xbc6e0407	-0.014527327
135	0x3bcbe43b	0.0062222756
136	0xbc1293c1	-0.00894636
137	0x3a7b0ec5	0.0009577091
138	0xbccc89b8	-0.024968013
139	0x3c42f600	0.011899471
140	0xbb2363e0	-0.0024931356
141	0xbb81433d	-0.003944783
142	0x3bc67ec4	0.006057592
143	0x3b33bb45	0.0027424854
144	0xbacc191f	-0.0015571452
145	0xbcb673a3	-0.022271937
146	0x3bac4582	0.0052573094
147	0xbca6051a	-0.020266104
148	0x3c27329d	0.010204938
149	0x3a3d9d52	0.00072332204
150	0x3ae02daa	0.0017103453
151	0xbcc44028	-0.023956373
152	0xbb044d70	-0.0020187758
153	0x3a297ae9	0.00064651534
154	0x3c9c6576	0.01909135
155	0x3c193510	0.00935103
156	0xbc87dddf	-0.016585289
157	0xbbcbd9fd	-0.0062210546
158	0xbaba6d5f	-0.0014223269
159	0x3ba3bc68	0.004996825
160	0xbb746cc7	-0.0037296282
161	0x3928c638	0.00016095571
162	0x3b44c8a4	0.0030026818
163	0xbaa3366e	-0.0012452134
164	0x3b9a3a77	0.0047066766
165	0x3ab55d51	0.0013837015
166	0x3be6fa68	0.0070488937
167	0x3bb2fcff	0.0054622884
168	0xbc7d34dc	-0.015454497
169	0xbcbd9cf4	-0.02314613
170	0x3c097a7c	0.008391019
171	0x3c645a02	0.013937475
172	0x3cabc111	0.020966085
173	0x3bf0f4de	0.007353409
174	0x3c9ec380	0.019380331
175	0x3c2ecce2	0.010668965
176	0x3a763b15	0.0009392959
177	0xbc72c8bf	-0.014818369
178	0x3c298faa	0.010349194
179	0x3baa70e0	0.005201444
180	0xbcf89c71	-0.030348035
181	0x3ba34b38	0.004983332
182	0xbcc5eac6	-0.0241598
183	0x3c452dea	0.012034873
184	0x39ce3450	0.00039330358
185	0x3bf2e417	0.0074124443
186	0xbc54e694	-0.012994427
187	0xbb8bbaa3	-0.004264192
188	0x3ba9432b	0.0051654777
189	0x3a25e35c	0.00063281297
190	0x3a32a8d6	0.00068153196
191	0x3c95ecae	0.018301334
192	0xbbb09623	-0.0053889914
193	0x3bd711d9	0.006563407
194	0xbc0fe802	-0.008783342
195	0x3bf15588	0.0073649324
196	0xbb7000d3	-0.0036621585
197	0x39af38dc	0.00033420965
198	0x3b70f680	0.003676802
199	0xbaf91fa3	-0.0019006621
200	0x3c020baa	0.007937351
201	0x3c77e03b	0.015129144
202	0xbc363ec1	-0.01112336
203	0x3c13f1a4	0.00902978
204	0xbc2b00bd	-0.010437188
205	0x3c73cb12	0.014879959
206	0x3b90fc12	0.0044245804
207	0x3ba8a252	0.005146303
208	0x3bc29920	0.005938664
209	0x3badf0ec	0.005308261
210	0x3bdfbcb7	0.0068279165
211	0xbba342d3	-0.0049823313
212	0xb9bc30b0	-0.0003589443
213	0x3b6a22a6	0.0035726218
214	0x3b43c1af	0.0029870083
215	0x3c2c8d90	0.010531798
216	0x3bf93298	0.007604908
217	0x3c24b6c9	0.010053345
218	0x39c341c8	0.0003724231
219	0xbc1e48a2	-0.009660872
220	0xbca57554	-0.020197548
221	0x3ac8f6d9	0.0015332355
222	0xbb94cf02	-0.004541279
223	0xbb2288c7	-0.0024800764
224	0xba0dcd44	-0.000540931
225	0xba927b4e	-0.0011175664
226	0xbc186ecf	-0.009303763
227	0x3b05ac72	0.0020396975
228	0xbbdd94da	-0.0067621293
229	0xbc66de1b	-0.01409104
230	0x3b32a4d6	0.0027258894
231	0x3c8d8aa1	0.017278017
232	0xbc885f5b	-0.016647032
233	0xbca57145	-0.020195613
234	0xbb909dc9	-0.0044133407
235	0x3c3e4567	0.0116132265
236	0x3b6454d2	0.0034840596
237	0xbc7158d5	-0.014730652
238	0x3b8231e5	0.003973233
239	0x3b4b4364	0.003101551
240	0xb988068e	-0.00025944825
241	0xbc02eac8	-0.0079905465
242	0xba2ddcd9	-0.0006632335
243	0x3bbcc7d7	0.0057611275
244	0x393c7c71	0.00017975435
245	0x3b368a7c	0.002785354
246	0x3b63860a	0.0034717345
247	0xbbf2945c	-0.0074029397
248	0x3c42018b	0.011841188
249	0xbb40bb35	-0.002940846
250	0xbc953419	-0.018213319
251	0xbbe3e550	-0.0069548264
252	0x3b7dad8d	0.003870818
253	0x3b966960	0.0045901984
254	0xbb76748d	-0.003760609
255	0x3c0533d3	0.008130032

density_estimator_head.bias f4 [11]
0	0xbd0727c6	-0.032996915
1	0xbcd44a14	-0.02591423
2	0xbc8227f2	-0.015888188
3	0xbb54ce42	-0.0032471572
4	0xba31bac1	-0.00067798427
5	0x3b8ec5c0	0.0043570697
6	0x3a8d58c7	0.0010783904
7	0xb8166473	-3.5856337e-05
8	0x3c20b571	0.009808884
9	0x3d092954	0.03348668
10	0x3cf60005	0.030029306

Q1.0.weight f4 [50, 50, 5]
0	0x3f383c30	0.7196684
1	0x3f67f180	0.90602875
2	0xbeffac28	-0.49936032
3	0x3fe124a1	1.7589303
4	0xbe3eab3f	-0.18620013
5	0x402b0ed0	2.672779
6	0xbfb2afec	-1.3959937
7	0xbdf43b0f	-0.11925327
8	0x3b1d6ff5	0.002402303
9	0xbfde1298	-1.7349424
10	0xbd2c0ecf	-0.04200631
11	0xbf7c1cec	-0.9848163
12	0xbee7f1f3	-0.4530178
13	0x3fafda5c	1.3738513
14	0xbe18335b	-0.1486334
15	0x3fdaec6c	1.71034
16	0xbcc3b278	-0.023888811
17	0x3f37578b	0.71617955
18	0x3f5e9603	0.8694765
19	0x3e18f772	0.14938143
20	0xbee1ca2a	-0.4409955
21	0x3f8faa30	1.1223812
22	0xbf71a3fa	-0.94390833
23	0x3f0bf0b6	0.5466417
24	0x3f3109a8	0.6915536
25	0xbfbef643	-1.4918903
26	0xc0143bb8	-2.316145
27	0xbeae73a3	-0.340726
28	0xbe3daf46	-0.18523893
29	0xbfe276ea	-1.769254
30	0x3f92e00e	1.1474626
31	0x3fb59189	1.4185039
32	0x3e421727	0.18954144
33	0x3f3d15d5	0.7386144
34	0x3fd3b7b1	1.6540433
35	0xbd3c347e	-0.045948498
36	0x3f345c2f	0.7045316
37	0x3f993ed6	1.1972301
38	0x3f6e32dd	0.9304636
39	0x3ededaaa	0.43526202
40	0xbf71fbe5	-0.94524986
41	0xbe40b05a	-0.18817273
42	0xbf4b9fb7	-0.7954058
43	0x3ece4a52	0.40291077
44	0x3f3a031d	0.72661
45	0xbfa84f4e	-1.3149202
46	0xbea4729e	-0.32118696
47	0xbf86486f	-1.0490855
48	0x3f416a0d	0.75552446
49	0xbfdf04cb	-1.7423338
50	0xbbc6ef1e	-0.0060709855
51	0xc02f336e	-2.737514
52	0x3ebf33b8	0.37344146
53	0x3e507723	0.20357947
54	0xbfe463aa	-1.7842915
55	0x3fa61fc9	1.297845
56	0xbe68057d	-0.22658344
57	0xbfc6bb4e	-1.5525911
58	0x3d5eb1d6	0.054368816
59	0xbe5feebf	-0.21868418
60	0x3f660632	0.89853203
61	0xbf603057	-0.8757376
62	0xbfb39367	-1.4029359
63	0x3f186f0d	0.5954445
64	0xbda7a4ee	-0.08185755
65	0xbdc32bf0	-0.09529865
66	0x3dea241c	0.114326686
67	0xbf2ecef4	-0.68284535
68	0x3c002d15	0.007823248
69	0x400fe4a9	2.2483313
70	0x3f2faa8e	0.6861962
71	0x3f74955b	0.955404
72	0xbf6694b0	-0.9007063
73	0xbe411120	-0.18854189
74	0xbe857cce	-0.2607178
75	0xbf86acd5	-1.0521494
76	0x3f07b23d	0.53006345
77	0xbec21dd5	-0.37913385
78	0x3f197fd0	0.5996065
79	0xbf5ac21e	-0.8545245
80	0xbfada79f	-1.3566779
81	0xbf87bc24	-1.0604291
82	0xbe2604a7	-0.16212712
83	0xbf80bb2e	-1.0057123
84	0xbe8b87ca	-0.27252036
85	0xbe8e7582	-0.27824026
86	0xbe853d87	-0.26023504
87	0xbf1ce23f	-0.61282724
88	0x3ff5aab6	1.9192722
89	0xbee85b39	-0.45382097
90	0x3e7f800a	0.24951187
91	0xbeb23130	-0.34803152
92	0xbf6adb98	-0.91741323
93	0xbf396696	-0.7242216
94	0x3f995b23	1.1980938
95	0xbeb78a60	-0.3584776
96	0x3e43d7b4	0.19125253
97	0x3f9c34bb	1.2203592
98	0xbf3ed63e	-0.7454566
99	0x4012ad97	2.291845
100	0x3eb1ce3b	0.34727654
101	0x3f823774	1.0173173
102	0xbcb47c43	-0.022031909
103	0x3e265c48	0.1624614
104	0xbf555ff8	-0.8334956
105	0xbeaf2bff	-0.34213254
106	0xbfa17521	-1.261387
107	0xbed578dd	-0.41693774
108	0xbbb3cbbf	-0.005486935
109	0x3d61ef21	0.05515969
110	0xbef3c8ea	-0.47614223
111	0xbe9dc76f	-0.30816218
112	0xbea8fc96	-0.33005208
113	0xbfd548f8	-1.6662893
114	0x3ea4263b	0.32060418
115	0xbf42b83f	-0.7606239
116	0xbe4b4f56	-0.19854483
117	0xbf961a76	-1.1726825
118	0xbf8d0163	-1.1016048
119	0xbfa0e9e9	-1.2571384
120	0x3f081283	0.53153247
121	0x3f106c90	0.56415653
122	0x3f321d2b	0.69575757
123	0x3ee33865	0.44378963
124	0x3ef72bfe	0.4827575
125	0x3f585f17	0.84520096
126	0xbf1338cc	-0.5750854
127	0xbe35be7f	-0.1774845
128	0xbfccae84	-1.5990758
129	0xbf8f687e	-1.1203763
130	0xbffe38f7	-1.9861134
131	0xbce39bf3	-0.027784323
132	0x3f2dfa83	0.67960376
133	0x3f1beddd	0.60909826
134	0x3e7037ef	0.23458837
135	0xbedeaf13	-0.43492946
136	0xbf8f617f	-1.1201628
137	0xbc79aa3c	-0.015238341
138	0x3f9e8438	1.23841
139	0xbfcaf993	-1.5857414
140	0x3c3c8d81	0.011508347
141	0xbf6c0d0a	-0.92207396
142	0x3ffaa36c	1.9581122
143	0x3d36bc9c	0.044613466
144	0xbf4cff4e	-0.80077064
145	0xbfa5803f	-1.2929763
146	0x3edfcbe7	0.43710253
147	0xbf8e7436	-1.1129215
148	0xc03381f6	-2.8048072
149	0x3e1fa7fb	0.15591423
150	0x4007ac98	2.1199093
151	0x3e89c175	0.26905409
152	0xbdcca241	-0.09991885
153	0xbe18c68c	-0.1491949
154	0xbe4f1e9e	-0.20226523
155	0xbf4eceb4	-0.80784154
156	0x3f466131	0.7749205
157	0x3eacdb91	0.33761266
158	0xbf3a0dc6	-0.72677267
159	0x40019f9f	2.0253675
160	0x3f75f0ea	0.9607073
161	0x3fb8b4c6	1.4430168
162	0xbea04adf	-0.31307122
163	0x3d907f92	0.07055582
164	0xbf5b529c	-0.85672927
165	0xbf609dff	-0.8774108
166	0x3edf216b	0.43580183
167	0xbe63a43a	-0.22230616
168	0x3fa77a6d	1.3084236
169	0xbe0832ec	-0.13300675
170	0x40152e4e	2.3309512
171	0xbfb58986	-1.4182594
172	0xbeacef8e	-0.33776516
173	0x3fcb2371	1.5870191
174	0xbdf73430	-0.12070501
175	0xbf13d28b	-0.5774314
176	0xbf8f2191	-1.1182119
177	0xbe861c42	-0.26193434
178	0x3f0e78c0	0.55653
179	0x3f15354c	0.5828445
180	0xbf7dc033	-0.991214
181	0xbcd7e9d5	-0.026356617
182	0xbe14f61d	-0.1454701
183	0x3f327d85	0.6972278
184	0xbef6b5c0	-0.4818554
185	0x3d81ea61	0.06343532
186	0xbfdadaae	-1.7097986
187	0x3fdfbb29	1.7478992
188	0xbe76e9a2	-0.24112561
189	0xc008fc57	-2.1404016
190	0xbfde3e37	-1.7362736
191	0x3ef6ce92	0.48204476
192	0x3e90b16f	0.2826037
193	0xbe4a0bb2	-0.19731024
194	0xbf4d7ebf	-0.80271524
195	0x3f07c111	0.5302897
196	0xbf2a0c22	-0.66424763
197	0x3e6b841f	0.22999619
198	0xbfe62da5	-1.798268
199	0x40073d81	2.113129
200	0xbf171a56	-0.5902456
201	0xbfb3b309	-1.4039012
202	0xbf1c0c82	-0.60956585
203	0x3f45a143	0.7719919
204	0xc003356c	-2.0501356
205	0x3e7d922a	0.24762788
206	0xbed9f242	-0.4256764
207	0xbfd388c2	-1.652611
208	0x3fa9cfd9	1.3266555
209	0xbf6cdac3	-0.92521304
210	0x3ef36b4d	0.47542801
211	0xbf013daf	-0.50484747
212	0xbf60688b	-0.8765952
213	0xbf97253d	-1.1808239
214	0x3f8c9bd1	1.0985051
215	0xbefca370	-0.49343443
216	0x3f1e2969	0.61781937
217	0xbcc00e83	-0.02344442
218	0xbf8f0b24	-1.1175275
219	0x3f071b38	0.5277591
220	0xbf237073	-0.6384346
221	0xbf0d68c5	-0.5523799
222	0xbeb0dce8	-0.34543538
223	0xbe5b0d35	-0.21391757
224	0xbe744723	-0.23855262
225	0x3d6f1c92	0.058376856
226	0x3f944984	1.1584935
227	0x3f2fb561	0.6863614
228	0x3e074cc6	0.1321288
229	0x3f42db67	0.7611603
230	0x3f0986e8	0.53721476
231	0x3f735259	0.9504753
232	0xbe304306	-0.17213067
233	0xbfb3ea27	-1.4055833
234	0xbf473684	-0.7781756
235	0xbfc2094a	-1.5159085
236	0xbf87ece2	-1.0619166
237	0xbdaeb09f	-0.085297816
238	0xbf49b2dd	-0.7878855
239	0x3facb9d9	1.3494216
240	0x3f8cc50d	1.0997635
241	0xbed6694e	-0.41877216
242	0x3f007a6f	0.5018682
243	0x3eb9ad02	0.36264807
244	0x3eada4d7	0.33914825
245	0xbf28c74e	-0.65929115
246	0x3f354e22	0.70822346
247	0x3f2970c2	0.6618768
248	0xbfcbedae	-1.5931909
249	0x3f33b886	0.70203435
250	0x3f7ca349	0.98686653
251	0xbe93ff20	-0.28905582
252	0x3e2c3d87	0.16820346
253	0x3f3c52e5	0.73563987
254	0xbea0f377	-0.3143575
255	0xbfad1a8e	-1.3523729

Q1.0.bias f4 [50, 5]
0	0xba4b576f	-0.0007756864
1	0xba177701	-0.0005777926
2	0xb9f9e522	-0.00047663698
3	0xb93bd249	-0.00017912047
4	0xb7f8250f	-2.958116e-05
5	0xba5636dd	-0.00081716274
6	0xba773f13	-0.0009431701
7	0xba71d570	-0.0009225225
8	0xb9cc8298	-0.00039007212
9	0xb84f73f0	-4.946062e-05
10	0x00000000	0.0
11	0x00000000	0.0
12	0x00000000	0.0
13	0x00000000	0.0
14	0x00000000	0.0
15	0x3c482426	0.01221565
16	0x3c5d2076	0.013496509
17	0x3c6bbc3b	0.014388139
18	0x3bdb4105	0.0066911005
19	0x3ab05568	0.0013453187
20	0x3ac390cb	0.0014920471
21	0xbb18161a	-0.0023206533
22	0x3b20f938	0.0024562608
23	0x3b51bd84	0.003200383
24	0x3a5b20bc	0.0008359065
25	0xb70dc28b	-8.4495505e-06
26	0xb9f63cb9	-0.00046966018
27	0xba247a9f	-0.00062743755
28	0xb9b1464e	-0.00033812452
29	0xb9026c45	-0.000124381
30	0x3cbeb864	0.023281284
31	0x3ced0520	0.028933108
32	0x3d14d6ba	0.03633759
33	0x3c9af2a5	0.01891453
34	0x3b82c51f	0.003990784
35	0x3b96050d	0.004578239
36	0x3b3d7879	0.0028910919
37	0x3bdd45bb	0.0067526973
38	0x3b981ee0	0.0046423525
39	0x3a8ce12f	0.0010748262
40	0xb705a139	-7.964955e-06
41	0x37efb7ec	2.8576665e-05
42	0xba41e7d0	-0.00073969085
43	0xba22aabc	-0.0006205251
44	0xb7ba614a	-2.2218232e-05
45	0xbbb8a007	-0.005634311
46	0xbb870842	-0.0041208575
47	0xbb41bfc0	-0.0029563755
48	0xba5ea45f	-0.0008493121
49	0x376a0195	1.3947855e-05
50	0xbb8776bd	-0.0041340278
51	0xbbf9c656	-0.0076225204
52	0xbbfad3b8	-0.0076546334
53	0xbb5544c4	-0.0032542208
54	0xba194e6a	-0.00058481714
55	0x3bf68f01	0.0075243716
56	0x3bdb2f55	0.006688992
57	0x3c2841b5	0.010269572
58	0x3bc65834	0.006052995
59	0x3aaef160	0.0013347082
60	0x00000000	0.0
61	0x00000000	0.0
62	0x00000000	0.0
63	0x00000000	0.0
64	0x00000000	0.0
65	0xbb595dd0	-0.003316749
66	0xba3815e1	-0.0007022303
67	0xba116818	-0.0005546822
68	0xb98a8688	-0.00026421645
69	0xb837a95e	-4.3788335e-05
70	0xbb0a2c9f	-0.0021083725
71	0xbb057dee	-0.002036925
72	0xbb01661f	-0.0019744707
73	0xba615a21	-0.0008596499
74	0xb9550317	-0.00020314414
75	0xbbac5887	-0.0052595767
76	0xbb8ce155	-0.0042993226
77	0xbb7965cd	-0.0038055063
78	0xbac7c38d	-0.0015240774
79	0xb99c3e53	-0.00029801074
80	0xbc12652c	-0.008935254
81	0xbc0bca84	-0.00853217
82	0xbc0563c6	-0.008141464
83	0xbb64133c	-0.0034801504
84	0xba429f42	-0.0007424244
85	0xbb27c960	-0.0025602207
86	0xbba6c1e2	-0.0050890306
87	0xbb8be551	-0.00426928
88	0xbac0a8a3	-0.0014698695
89	0xb98da153	-0.00027013812
90	0xb9dfd196	-0.00042690028
91	0x3a977208	0.001155437
92	0x3a6a1165	0.00089289836
93	0x392ad9b7	0.00016293568
94	0x369dc5c0	4.7019857e-06
95	0xb801bcb7	-3.093175e-05
96	0xb4cc13fe	-3.8012507e-07
97	0xb150c46d	-3.0379639e-09
98	0x00000000	0.0
99	0x00000000	0.0
100	0xbbfd2cef	-0.007726304
101	0xbbac2a9e	-0.005254104
102	0xbb830cc2	-0.0039993236
103	0xbaaff08b	-0.0013423128
104	0xb916dc47	-0.00014387174
105	0x3c35aad8	0.011088096
106	0x3c874fab	0.01651748
107	0x3caf7ad0	0.021420866
108	0x3c38f76a	0.011289457
109	0x3b1cb57d	0.0023911886
110	0x3c07c4d8	0.008286677
111	0x3c1229f9	0.00892114
112	0x3c822020	0.015884459
113	0x3c21bac6	0.00987119
114	0x3b11328b	0.002215537
115	0x3bbca8ed	0.005757442
116	0x3b326567	0.0027221085
117	0x3ad1d724	0.0016009551
118	0x39bbc518	0.00035814266
119	0xb75a0a9e	-1.2996285e-05
120	0xbb9093ae	-0.004412136
121	0xbb9d89ea	-0.0048077004
122	0xbb8d2f6e	-0.0043086326
123	0xbac934a3	-0.001535077
124	0xb93003c7	-0.00016786075
125	0x3c43bbcc	0.01194663
126	0x3c87ff69	0.016601281
127	0x3ca167d5	0.019702831
128	0x3c20e4e6	0.009820199
129	0x3b053da4	0.002033093
130	0x3bd04352	0.0063556815
131	0x3c43e086	0.011955386
132	0x3c1fe253	0.00975855
133	0x3b51c8c0	0.0032010525
134	0x3a0696f5	0.00051341887
135	0x3b8dc008	0.0043258704
136	0x3bf991ba	0.007616249
137	0x3c5c4725	0.013444697
138	0x3c06b2cf	0.008221342
139	0x3af06752	0.0018341339
140	0xbbf70551	-0.0075384756
141	0xbba8b0bd	-0.005148022
142	0xbb8d7b39	-0.004317668
143	0xbade1537	-0.0016943578
144	0xb9a3d468	-0.00031248038
145	0x3b6a0194	0.0035706507
146	0x3b8a883a	0.0042276653
147	0x3a9bda57	0.0011890632
148	0xba35a8d0	-0.0006929757
149	0xb9860e38	-0.00025569065
150	0xba8bb892	-0.0010659865
151	0x39b49040	0.0003443975
152	0x3a020689	0.000496008
153	0x3962e65c	0.00021638855
154	0x3833b8b4	4.2848944e-05
155	0xba73167f	-0.00092730665
156	0xba6d0fb6	-0.00090431736
157	0x3997f475	0.000289831
158	0x3a226156	0.0006194314
159	0x39303e89	0.00016807964
160	0xb9979630	-0.00028912863
161	0xb9bc6ffa	-0.00035941583
162	0x3a0291c8	0.00049808295
163	0x3a16d686	0.00057540124
164	0x391d8b1a	0.00015024506
165	0xbb9baaf9	-0.004750606
166	0xbbaf480c	-0.005349165
167	0xbba3be19	-0.0049970266
168	0xbb04ca98	-0.0020262357
169	0xb9b14ae1	-0.0003381586
170	0x3946b70a	0.00018950939
171	0x3b99b1ce	0.0046903854
172	0x3c2f4517	0.010697625
173	0x3be73ac9	0.0070565683
174	0x3ad01644	0.0015875776
175	0x3a11060e	0.0005532213
176	0x394236c7	0.00018521688
177	0x388f7b34	6.84172e-05
178	0x367e9ba7	3.793955e-06
179	0x00000000	0.0
180	0x3bf7e4b4	0.0075651053
181	0xb9e0a1aa	-0.00042845058
182	0xbbb081ff	-0.0053865905
183	0xbb86aaf3	-0.004109734
184	0xba82fe52	-0.0009994006
185	0xbb23897e	-0.0024953778
186	0xbb1549c4	-0.0022779563
187	0xbb08bd3c	-0.0020864746
188	0xba5fe68a	-0.0008541128
189	0xb92cbd51	-0.00016473724
190	0xbb0817af	-0.002076607
191	0xbad1fdff	-0.0016021131
192	0xbaae9e14	-0.0013322257
193	0xba0282af	-0.000497858
194	0xb8aa8b26	-8.13215e-05
195	0xb93c0ebb	-0.00017934565
196	0x3b92eeb0	0.00448402
197	0x3bc2bc40	0.0059428513
198	0x3b472a6f	0.0030390283
199	0x3a21e0e5	0.00061751745
200	0x3b61a4f2	0.003443059
201	0x3c156add	0.0091197165
202	0x3c0b8155	0.008514722
203	0x3b57b2de	0.003291301
204	0x3a117a77	0.000554956
205	0xbbc6eb3e	-0.0060705235
206	0xbb7c5dbe	-0.0038508023
207	0xbabe92e9	-0.0014539632
208	0x3982fc3c	0.00024983461
209	0x3905bb2f	0.000127536
210	0xbbe0b42c	-0.0068574157
211	0xbb7bce2c	-0.0038422449
212	0xbb5e7766	-0.0033945679
213	0xbabd4e56	-0.0014442902
214	0xb9872cbe	-0.00025782542
215	0xbbec98f0	-0.00722038
216	0xbb8d8c8d	-0.0043197335
217	0xbb630f57	-0.0034646594
218	0xbaae12b9	-0.0013280726
219	0xb984fbfb	-0.00025364742
220	0x3aec7ea2	0.0018043111
221	0xbb06b71f	-0.0020555926
222	0xbab3e2c4	-0.0013724198
223	0xb92d6d92	-0.00016539384
224	0x368fdffa	4.2878064e-06
225	0xbac72e41	-0.001519628
226	0x39ae3be2	0.00033232482
227	0x3a4a9b76	0.0007728854
228	0x39ed17f6	0.00045222015
229	0x38d6a0e2	0.00010234282
230	0xbc263589	-0.0101446
231	0xbba55837	-0.0050459164
232	0xbb7f2e24	-0.0038937414
233	0xbabbf4a9	-0.0014339882
234	0xb98c4b02	-0.00026758766
235	0x3c6be7e0	0.014398545
236	0x3c8bceda	0.017066408
237	0x3cae1ec4	0.021254905
238	0x3c34b883	0.011030319
239	0x3b1794f8	0.0023129564
240	0xbacdba49	-0.0015695776
241	0xbac35650	-0.0014903042
242	0xbab9e5a2	-0.0014182816
243	0xba1e8f25	-0.0006048552
244	0xb90d5d4f	-0.00013481568
245	0xbbd9e3b4	-0.006649459
246	0xbbc28342	-0.0059360573
247	0xbbb38831	-0.0054788818
248	0xbb154f28	-0.0022782777
249	0xb9ff4885	-0.0004869142
