CausalCVR/logs/simu3/eval/39/Vcnet_tr_ckpt.pth.tar (torch, 123637 bytes, 18 tensors)

feature_weight.weight f4 [50, 8]
000000 0e d9 2a bc d6 64 aa bc 56 aa b7 bc 07 3d 1b 3c
       -0.010427726 -0.020800035 -0.02242009 0.009474999
000010 ac 06 82 b9 83 65 9e 3c 5d 46 03 3c df 73 92 3b
       -0.00024800503 0.019335514 0.008012381 0.0044693793
000020 89 76 47 bc 85 92 3f 3c 90 e6 39 3c bf 2e be 39
       -0.012174257 0.011692648 0.011346474 0.00036274453
000030 93 6f 54 ba 8c f8 f1 3a fb d5 e3 b9 57 97 7c bb
       -0.0008103784 0.0018460914 -0.00043456242 -0.0038542354
000040 27 89 0d bc 35 35 c4 bb 52 a9 05 bb 08 21 62 3c
       -0.008638657 -0.005987788 -0.0020395112 0.013801821
000050 bc b8 5f 3b 9a da e6 bb bb 24 ca bc 3e 30 16 3b
       0.003413721 -0.0070451023 -0.024675718 0.0022916938
000060 2d 4c dc ba dc 72 23 bc e8 51 ea 3c 7c a4 13 b9
       -0.001680737 -0.009976115 0.028603509 -0.00014080288
000070 27 8a 03 3c 31 ad 2b bc 7c 15 02 3c 59 16 d4 bc
       0.008028544 -0.010478304 0.007939693 -0.025889562
000080 90 4a bf ba 3a fd 6b bc 73 d1 58 bb b8 f6 69 3c
       -0.0014594365 -0.014403636 -0.0033083826 0.014280014
000090 ed 6f 41 bc 00 8f 4d b8 f1 bd 2d ba 25 e3 4d bb
       -0.01180647 -4.9008988e-05 -0.000662773 -0.0031415906
0000a0 88 50 d3 bb 68 95 46 bc f1 00 07 3c 0c 61 57 3b
       -0.006448809 -0.012120582 0.008239971 0.003286424
0000b0 58 ae 4e bc 01 42 42 bc ec a0 ad bb 97 c0 d6 bb
       -0.012614809 -0.011856557 -0.0052987244 -0.00655372
0000c0 c3 f7 4d bc d2 e8 1c 3c 61 34 7f 3c 53 a6 8d 3b
       -0.012571278 0.009576993 0.015576453 0.004322806
0000d0 37 e5 8e 3b 85 8b db 3a 07 d3 03 3c 1d 27 14 3c
       0.0043608206 0.0016749954 0.008045918 0.009042528
0000e0 ce 4d 20 ba 92 97 bc bc 0b c6 9b bc d4 34 bf 3b
       -0.00061151094 -0.023021493 -0.019015333 0.005835155
0000f0 6c 33 67 3c b6 08 b5 3b 52 5b b2 bb 42 2e 6e 3b
       0.014111381 0.00552472 -0.005443015 0.003634349
000100 41 4a cc bb dc db 3e bb 54 b2 a5 ba 9e 46 53 3b
       -0.0062344377 -0.0029122746 -0.0012641647 0.0032238136
000110 9a 32 31 3a 4a d4 86 bc ce a6 36 3c 41 f8 0e 3c
       0.00067595544 -0.01645865 0.011148168 0.0087261805
000120 e1 62 d1 3b b6 41 af bb ee 27 b7 bc 2f 25 37 3c
       0.006389961 -0.0053484095 -0.022357907 0.011178299
000130 a8 f9 56 3b 93 48 0a bb 35 29 cd 3b 6b 0d 65 3c
       0.0032802615 -0.0021100387 0.006261016 0.01398025
000140 51 f8 11 3c 48 e7 07 3c e5 ab 09 bc a8 fc 25 3c
       0.008909301 0.008294888 -0.008402799 0.010131039
000150 55 31 37 3c 17 9b 0f bc 1b 79 01 3c f2 d5 60 3b
       0.011181195 -0.008765004 0.007902409 0.003430721
000160 03 c8 a3 3c fa cd 3b 3c 4d ed d1 39 a5 1c a7 3a
       0.019992834 0.011462683 0.0004004039 0.0012749626
000170 8e 8a 69 bc b4 f3 f4 bb e3 b7 a9 bc 97 87 43 3c
       -0.014254225 -0.0074753407 -0.020717567 0.011934183
000180 9d a2 60 bb 5a 41 a6 3b 4d 2c 90 3c 1c ea d5 3b
       -0.0034276613 0.0050737085 0.01759925 0.006528152
000190 ac 90 21 3b 33 63 b6 38 cf 81 36 3b 76 aa bd 3b
       0.0024652882 8.6969136e-05 0.0027848368 0.005788143
0001a0 81 75 04 3c a0 ac 88 bb 28 c4 0c 3b 89 5a fd 3c
       0.008084656 -0.004170969 0.0021479223 0.03092696
0001b0 62 45 83 3b 77 79 b3 bb b0 20 13 3c ba 23 a7 3b
       0.004006074 -0.005477126 0.008979961 0.0051006945
0001c0 55 d9 03 3c c2 db 94 bc 5b f1 c9 bb b8 4c 83 bb
       0.008047421 -0.018171195 -0.006162805 -0.0040069483
0001d0 91 a6 60 bc 65 5b 5f bc 59 56 ba bb a6 6d 06 bc
       -0.0137115875 -0.01363263 -0.005686563 -0.008204853
0001e0 76 96 39 3c 27 5a b3 3b 50 f3 7a bc b1 b7 71 bc
       0.011327377 0.0054733935 -0.015316799 -0.014753268
0001f0 7f 8d 7a 3c 5d 66 16 3c d7 db d8 bb a7 96 60 bb
       0.015292524 0.009179679 -0.006618004 -0.0034269483
000200 8d a6 0e bc 47 e9 1d bc 07 bd ca 3a 1b b9 a9 bc
       -0.008706701 -0.009638137 0.0015467711 -0.020718148
000210 e4 5d e6 bc e6 f3 0c bb b0 2c 2b bc ed 3e a1 3b
       -0.028120942 -0.002150768 -0.010447666 0.0049208314
000220 92 a6 9c bb 4f 33 01 bc 22 45 8d bb 3e eb a7 3b
       -0.004780599 -0.007885768 -0.00431122 0.0051244786
000230 f2 a3 80 bb 18 55 b4 bb c4 37 06 bc 57 2a 35 ba
       -0.003925794 -0.005503308 -0.0081920065 -0.0006910911
000240 3a e5 0f 3b 8f 69 40 bc 07 e5 26 bc 2d ed 63 bb
       0.0021956698 -0.011743917 -0.01018644 -0.003477882
000250 f8 ca b0 bc 44 37 a5 bc f4 e8 a7 ba fe f7 77 ba
       -0.021581158 -0.020167954 -0.0012810514 -0.0009459256
000260 21 47 fb ba 73 fd 93 3c 40 f4 82 3b 2e 2e 47 bc
       -0.0019170978 0.01806519 0.003996402 -0.012157006
000270 42 7d 22 3b 9b 11 4b 3b 87 a3 d5 3c 20 91 b4 3c
       0.0024793898 0.0030985835 0.026078952 0.022041857
000280 03 35 62 3c 5d f6 80 3b 9e 43 91 bc 24 0f a9 3b
       0.013806584 0.003935619 -0.017732438 0.0051592756
000290 d4 f6 9e 3b ab 7d ad bb 23 81 b4 ba aa 9d 70 bb
       0.0048512015 -0.005294522 -0.0013771396 -0.003671507
0002a0 cd 2c 60 3c 15 69 42 bc 79 3d ed bb a5 d1 1b bc
       0.013682556 -0.011865874 -0.007239994 -0.009510432
0002b0 30 9c 7c 37 c9 ba 0b bc 04 a5 ef bb 14 2a 3a bc
       1.5056736e-05 -0.00852842 -0.0073133726 -0.011362571
0002c0 31 57 23 3c 9e 65 49 3c 39 18 ec bb de 2e 3e 3b
       0.0099695185 0.012292294 -0.007205036 0.0029019634
0002d0 0a 3d 1e bc 3a 65 6a bb f8 9b 0a 3c 78 4c 89 3c
       -0.0096581075 -0.0035765902 0.008460037 0.016760096
0002e0 32 a7 c9 bb d7 7d bd 3b 79 73 03 3c 59 ea 36 3c
       -0.0061539644 0.0057828235 0.008023136 0.011164271
0002f0 41 76 1e bc 5b 9d 37 3a bc cc 51 3b 99 75 7c bb
       -0.009671749 0.0007004344 0.00320129 -0.0038522242
000300 31 43 94 3b 10 51 74 ba 04 03 70 bc ef 5b 28 bc
       0.0045246114 -0.00093199406 -0.0146491565 -0.010275825
000310 e3 0e 4d 3c b0 d8 5d 3c 67 1e 5f 3b 69 92 83 3b
       0.012515756 0.013540432 0.003404522 0.004015256
000320 2c 90 5f 3c 49 04 50 3b 91 34 d0 bc d6 e1 28 bc
       0.013645213 0.0031740835 -0.02541569 -0.01030775
000330 93 55 39 3b b6 aa 4a bc 80 78 90 3b 10 97 0c bb
       0.0028279766 -0.012369802 0.004408896 -0.0021452345
000340 ac f5 27 3c 37 6f 26 3b ee bd 69 b9 0e 81 e8 bb
       0.010251444 0.002539588 -0.00022291366 -0.0070954626
000350 79 6b 73 bc 74 f8 d8 3b 1b 08 6d 3c 75 c2 d5 3b
       -0.014857166 0.006621415 0.0144672645 0.006523425
000360 e1 f5 92 3b d8 74 81 3c b8 b1 23 bb 74 fb be bb
       0.0044848775 0.015802786 -0.0024977755 -0.0058283154
000370 ec 3d 23 bb 65 83 45 3c eb 13 dc 3b b4 ae 0b 3a
       -0.0024908734 0.012055253 0.0067162416 0.0005328462
000380 67 b3 86 3a 01 14 a0 bb 76 ce b3 ba 4b e1 0a bc
       0.0010276855 -0.004885197 -0.0013718146 -0.008476566
000390 0f da a7 38 62 14 23 3c b5 27 ac 39 3b 16 5a 3c
       8.003797e-05 0.00995359 0.0003283598 0.013310964
0003a0 c1 9a bd ba 1a 80 8d bb cf 4c 32 bc 05 af 94 bc
       -0.0014465676 -0.0043182494 -0.01088257 -0.018149862
0003b0 c9 f2 4b 3b df be 4f bc 37 84 67 bb d9 b5 b1 3b
       0.0031120053 -0.012679785 -0.003532661 0.0054232893
0003c0 cd e5 8e 3b 04 da 13 3c 27 3a 3a bc 84 9b 90 3b
       0.0043608905 0.009024147 -0.011366404 0.00441307
0003d0 d7 c5 38 bc b4 31 5b bc 27 c1 56 bc b8 a7 85 3b
       -0.011277637 -0.013378549 -0.013107575 0.0040788315
0003e0 7f 3d 95 3c 8b fb 90 bb f1 4a d8 3c 0f e4 03 bb
       0.0182178 -0.0044245175 0.026402922 -0.0020124947
0003f0 80 49 1c b9 ae 7a 5d 39 17 75 24 bb ea 1a 1e 3c
       -0.000149047 0.00021121904 -0.0025094205 0.0096499715

feature_weight.bias f4 [50]
000000 a7 8a 78 36 22 49 ae 37 29 49 5d b6 e9 cc f8 36
       3.7035586e-06 2.0776472e-05 -3.297415e-06 7.4148306e-06
000010 71 d7 8d b6 00 00 00 00 5f 55 11 b7 00 42 d3 36
       -4.227208e-06 0.0 -8.6625505e-06 6.2959734e-06
000020 15 a2 cf b6 45 ff 9f b7 43 5e 5a 37 71 b3 3f 37
       -6.1879496e-06 -1.9073146e-05 1.301576e-05 1.1426267e-05
000030 47 8f 83 36 06 2e 50 b6 00 00 00 00 81 68 22 b7
       3.920784e-06 -3.1021204e-06 0.0 -9.680284e-06
000040 00 00 00 00 00 00 00 00 00 00 00 00 26 5f d2 37
       0.0 0.0 0.0 2.5078258e-05
000050 84 73 b0 37 10 a0 4b 34 43 8f b8 33 c5 a0 4a b8
       2.1034626e-05 1.8964079e-07 8.594227e-08 -4.831028e-05
000060 83 91 d7 b6 0d 5a 51 37 28 be 35 b8 6a 06 c7 37
       -6.424439e-06 1.2478337e-05 -4.333086e-05 2.3725635e-05
000070 8a 1f 71 b7 00 00 00 00 8c d4 b1 b5 f3 a5 2f 38
       -1.4372063e-05 0.0 -1.3249387e-06 4.1877804e-05
000080 b8 71 22 b8 ea 6c a1 35 a4 75 d7 b7 74 5c c0 36
       -3.872972e-05 1.2027133e-06 -2.5684778e-05 5.732809e-06
000090 7a 9f 58 b7 13 3c cf 34 fd 50 9c 35 72 de a8 35
       -1.2911734e-05 3.8600464e-07 1.1646476e-06 1.2581716e-06
0000a0 45 8e b3 b5 ae 5c 0f 37 0b 53 f5 b6 09 0b 5f 35
       -1.3377945e-06 8.545043e-06 -7.3112365e-06 8.309003e-07
0000b0 c1 e2 dc 37 0c 0d aa 36 4b e0 1f b4 17 9d 03 b8
       2.6331634e-05 5.0679137e-06 -1.4889626e-07 -3.1379135e-05
0000c0 97 2f ec b6 d8 a8 88 38
       -7.0388883e-06 6.516435e-05

hidden_features.0.weight f4 [50, 8]
000000 0e d9 2a bc d6 64 aa bc 56 aa b7 bc 07 3d 1b 3c
       -0.010427726 -0.020800035 -0.02242009 0.009474999
000010 ac 06 82 b9 83 65 9e 3c 5d 46 03 3c df 73 92 3b
       -0.00024800503 0.019335514 0.008012381 0.0044693793
000020 89 76 47 bc 85 92 3f 3c 90 e6 39 3c bf 2e be 39
       -0.012174257 0.011692648 0.011346474 0.00036274453
000030 93 6f 54 ba 8c f8 f1 3a fb d5 e3 b9 57 97 7c bb
       -0.0008103784 0.0018460914 -0.00043456242 -0.0038542354
000040 27 89 0d bc 35 35 c4 bb 52 a9 05 bb 08 21 62 3c
       -0.008638657 -0.005987788 -0.0020395112 0.013801821
000050 bc b8 5f 3b 9a da e6 bb bb 24 ca bc 3e 30 16 3b
       0.003413721 -0.0070451023 -0.024675718 0.0022916938
000060 2d 4c dc ba dc 72 23 bc e8 51 ea 3c 7c a4 13 b9
       -0.001680737 -0.009976115 0.028603509 -0.00014080288
000070 27 8a 03 3c 31 ad 2b bc 7c 15 02 3c 59 16 d4 bc
       0.008028544 -0.010478304 0.007939693 -0.025889562
000080 90 4a bf ba 3a fd 6b bc 73 d1 58 bb b8 f6 69 3c
       -0.0014594365 -0.014403636 -0.0033083826 0.014280014
000090 ed 6f 41 bc 00 8f 4d b8 f1 bd 2d ba 25 e3 4d bb
       -0.01180647 -4.9008988e-05 -0.000662773 -0.0031415906
0000a0 88 50 d3 bb 68 95 46 bc f1 00 07 3c 0c 61 57 3b
       -0.006448809 -0.012120582 0.008239971 0.003286424
0000b0 58 ae 4e bc 01 42 42 bc ec a0 ad bb 97 c0 d6 bb
       -0.012614809 -0.011856557 -0.0052987244 -0.00655372
0000c0 c3 f7 4d bc d2 e8 1c 3c 61 34 7f 3c 53 a6 8d 3b
       -0.012571278 0.009576993 0.015576453 0.004322806
0000d0 37 e5 8e 3b 85 8b db 3a 07 d3 03 3c 1d 27 14 3c
       0.0043608206 0.0016749954 0.008045918 0.009042528
0000e0 ce 4d 20 ba 92 97 bc bc 0b c6 9b bc d4 34 bf 3b
       -0.00061151094 -0.023021493 -0.019015333 0.005835155
0000f0 6c 33 67 3c b6 08 b5 3b 52 5b b2 bb 42 2e 6e 3b
       0.014111381 0.00552472 -0.005443015 0.003634349
000100 41 4a cc bb dc db 3e bb 54 b2 a5 ba 9e 46 53 3b
       -0.0062344377 -0.0029122746 -0.0012641647 0.0032238136
000110 9a 32 31 3a 4a d4 86 bc ce a6 36 3c 41 f8 0e 3c
       0.00067595544 -0.01645865 0.011148168 0.0087261805
000120 e1 62 d1 3b b6 41 af bb ee 27 b7 bc 2f 25 37 3c
       0.006389961 -0.0053484095 -0.022357907 0.011178299
000130 a8 f9 56 3b 93 48 0a bb 35 29 cd 3b 6b 0d 65 3c
       0.0032802615 -0.0021100387 0.006261016 0.01398025
000140 51 f8 11 3c 48 e7 07 3c e5 ab 09 bc a8 fc 25 3c
       0.008909301 0.008294888 -0.008402799 0.010131039
000150 55 31 37 3c 17 9b 0f bc 1b 79 01 3c f2 d5 60 3b
       0.011181195 -0.008765004 0.007902409 0.003430721
000160 03 c8 a3 3c fa cd 3b 3c 4d ed d1 39 a5 1c a7 3a
       0.019992834 0.011462683 0.0004004039 0.0012749626
000170 8e 8a 69 bc b4 f3 f4 bb e3 b7 a9 bc 97 87 43 3c
       -0.014254225 -0.0074753407 -0.020717567 0.011934183
000180 9d a2 60 bb 5a 41 a6 3b 4d 2c 90 3c 1c ea d5 3b
       -0.0034276613 0.0050737085 0.01759925 0.006528152
000190 ac 90 21 3b 33 63 b6 38 cf 81 36 3b 76 aa bd 3b
       0.0024652882 8.6969136e-05 0.0027848368 0.005788143
0001a0 81 75 04 3c a0 ac 88 bb 28 c4 0c 3b 89 5a fd 3c
       0.008084656 -0.004170969 0.0021479223 0.03092696
0001b0 62 45 83 3b 77 79 b3 bb b0 20 13 3c ba 23 a7 3b
       0.004006074 -0.005477126 0.008979961 0.0051006945
0001c0 55 d9 03 3c c2 db 94 bc 5b f1 c9 bb b8 4c 83 bb
       0.008047421 -0.018171195 -0.006162805 -0.0040069483
0001d0 91 a6 60 bc 65 5b 5f bc 59 56 ba bb a6 6d 06 bc
       -0.0137115875 -0.01363263 -0.005686563 -0.008204853
0001e0 76 96 39 3c 27 5a b3 3b 50 f3 7a bc b1 b7 71 bc
       0.011327377 0.0054733935 -0.015316799 -0.014753268
0001f0 7f 8d 7a 3c 5d 66 16 3c d7 db d8 bb a7 96 60 bb
       0.015292524 0.009179679 -0.006618004 -0.0034269483
000200 8d a6 0e bc 47 e9 1d bc 07 bd ca 3a 1b b9 a9 bc
       -0.008706701 -0.009638137 0.0015467711 -0.020718148
000210 e4 5d e6 bc e6 f3 0c bb b0 2c 2b bc ed 3e a1 3b
       -0.028120942 -0.002150768 -0.010447666 0.0049208314
000220 92 a6 9c bb 4f 33 01 bc 22 45 8d bb 3e eb a7 3b
       -0.004780599 -0.007885768 -0.00431122 0.0051244786
000230 f2 a3 80 bb 18 55 b4 bb c4 37 06 bc 57 2a 35 ba
       -0.003925794 -0.005503308 -0.0081920065 -0.0006910911
000240 3a e5 0f 3b 8f 69 40 bc 07 e5 26 bc 2d ed 63 bb
       0.0021956698 -0.011743917 -0.01018644 -0.003477882
000250 f8 ca b0 bc 44 37 a5 bc f4 e8 a7 ba fe f7 77 ba
       -0.021581158 -0.020167954 -0.0012810514 -0.0009459256
000260 21 47 fb ba 73 fd 93 3c 40 f4 82 3b 2e 2e 47 bc
       -0.0019170978 0.01806519 0.003996402 -0.012157006
000270 42 7d 22 3b 9b 11 4b 3b 87 a3 d5 3c 20 91 b4 3c
       0.0024793898 0.0030985835 0.026078952 0.022041857
000280 03 35 62 3c 5d f6 80 3b 9e 43 91 bc 24 0f a9 3b
       0.013806584 0.003935619 -0.017732438 0.0051592756
000290 d4 f6 9e 3b ab 7d ad bb 23 81 b4 ba aa 9d 70 bb
       0.0048512015 -0.005294522 -0.0013771396 -0.003671507
0002a0 cd 2c 60 3c 15 69 42 bc 79 3d ed bb a5 d1 1b bc
       0.013682556 -0.011865874 -0.007239994 -0.009510432
0002b0 30 9c 7c 37 c9 ba 0b bc 04 a5 ef bb 14 2a 3a bc
       1.5056736e-05 -0.00852842 -0.0073133726 -0.011362571
0002c0 31 57 23 3c 9e 65 49 3c 39 18 ec bb de 2e 3e 3b
       0.0099695185 0.012292294 -0.007205036 0.0029019634
0002d0 0a 3d 1e bc 3a 65 6a bb f8 9b 0a 3c 78 4c 89 3c
       -0.0096581075 -0.0035765902 0.008460037 0.016760096
0002e0 32 a7 c9 bb d7 7d bd 3b 79 73 03 3c 59 ea 36 3c
       -0.0061539644 0.0057828235 0.008023136 0.011164271
0002f0 41 76 1e bc 5b 9d 37 3a bc cc 51 3b 99 75 7c bb
       -0.009671749 0.0007004344 0.00320129 -0.0038522242
000300 31 43 94 3b 10 51 74 ba 04 03 70 bc ef 5b 28 bc
       0.0045246114 -0.00093199406 -0.0146491565 -0.010275825
000310 e3 0e 4d 3c b0 d8 5d 3c 67 1e 5f 3b 69 92 83 3b
       0.012515756 0.013540432 0.003404522 0.004015256
000320 2c 90 5f 3c 49 04 50 3b 91 34 d0 bc d6 e1 28 bc
       0.013645213 0.0031740835 -0.02541569 -0.01030775
000330 93 55 39 3b b6 aa 4a bc 80 78 90 3b 10 97 0c bb
       0.0028279766 -0.012369802 0.004408896 -0.0021452345
000340 ac f5 27 3c 37 6f 26 3b ee bd 69 b9 0e 81 e8 bb
       0.010251444 0.002539588 -0.00022291366 -0.0070954626
000350 79 6b 73 bc 74 f8 d8 3b 1b 08 6d 3c 75 c2 d5 3b
       -0.014857166 0.006621415 0.0144672645 0.006523425
000360 e1 f5 92 3b d8 74 81 3c b8 b1 23 bb 74 fb be bb
       0.0044848775 0.015802786 -0.0024977755 -0.0058283154
000370 ec 3d 23 bb 65 83 45 3c eb 13 dc 3b b4 ae 0b 3a
       -0.0024908734 0.012055253 0.0067162416 0.0005328462
000380 67 b3 86 3a 01 14 a0 bb 76 ce b3 ba 4b e1 0a bc
       0.0010276855 -0.004885197 -0.0013718146 -0.008476566
000390 0f da a7 38 62 14 23 3c b5 27 ac 39 3b 16 5a 3c
       8.003797e-05 0.00995359 0.0003283598 0.013310964
0003a0 c1 9a bd ba 1a 80 8d bb cf 4c 32 bc 05 af 94 bc
       -0.0014465676 -0.0043182494 -0.01088257 -0.018149862
0003b0 c9 f2 4b 3b df be 4f bc 37 84 67 bb d9 b5 b1 3b
       0.0031120053 -0.012679785 -0.003532661 0.0054232893
0003c0 cd e5 8e 3b 04 da 13 3c 27 3a 3a bc 84 9b 90 3b
       0.0043608905 0.009024147 -0.011366404 0.00441307
0003d0 d7 c5 38 bc b4 31 5b bc 27 c1 56 bc b8 a7 85 3b
       -0.011277637 -0.013378549 -0.013107575 0.0040788315
0003e0 7f 3d 95 3c 8b fb 90 bb f1 4a d8 3c 0f e4 03 bb
       0.0182178 -0.0044245175 0.026402922 -0.0020124947
0003f0 80 49 1c b9 ae 7a 5d 39 17 75 24 bb ea 1a 1e 3c
       -0.000149047 0.00021121904 -0.0025094205 0.0096499715

hidden_features.0.bias f4 [50]
000000 a7 8a 78 36 22 49 ae 37 29 49 5d b6 e9 cc f8 36
       3.7035586e-06 2.0776472e-05 -3.297415e-06 7.4148306e-06
000010 71 d7 8d b6 00 00 00 00 5f 55 11 b7 00 42 d3 36
       -4.227208e-06 0.0 -8.6625505e-06 6.2959734e-06
000020 15 a2 cf b6 45 ff 9f b7 43 5e 5a 37 71 b3 3f 37
       -6.1879496e-06 -1.9073146e-05 1.301576e-05 1.1426267e-05
000030 47 8f 83 36 06 2e 50 b6 00 00 00 00 81 68 22 b7
       3.920784e-06 -3.1021204e-06 0.0 -9.680284e-06
000040 00 00 00 00 00 00 00 00 00 00 00 00 26 5f d2 37
       0.0 0.0 0.0 2.5078258e-05
000050 84 73 b0 37 10 a0 4b 34 43 8f b8 33 c5 a0 4a b8
       2.1034626e-05 1.8964079e-07 8.594227e-08 -4.831028e-05
000060 83 91 d7 b6 0d 5a 51 37 28 be 35 b8 6a 06 c7 37
       -6.424439e-06 1.2478337e-05 -4.333086e-05 2.3725635e-05
000070 8a 1f 71 b7 00 00 00 00 8c d4 b1 b5 f3 a5 2f 38
       -1.4372063e-05 0.0 -1.3249387e-06 4.1877804e-05
000080 b8 71 22 b8 ea 6c a1 35 a4 75 d7 b7 74 5c c0 36
       -3.872972e-05 1.2027133e-06 -2.5684778e-05 5.732809e-06
000090 7a 9f 58 b7 13 3c cf 34 fd 50 9c 35 72 de a8 35
       -1.2911734e-05 3.8600464e-07 1.1646476e-06 1.2581716e-06
0000a0 45 8e b3 b5 ae 5c 0f 37 0b 53 f5 b6 09 0b 5f 35
       -1.3377945e-06 8.545043e-06 -7.3112365e-06 8.309003e-07
0000b0 c1 e2 dc 37 0c 0d aa 36 4b e0 1f b4 17 9d 03 b8
       2.6331634e-05 5.0679137e-06 -1.4889626e-07 -3.1379135e-05
0000c0 97 2f ec b6 d8 a8 88 38
       -7.0388883e-06 6.516435e-05

hidden_features.2.weight f4 [50, 50]
000000 3a a2 f5 3b de 48 c3 bc 12 06 b8 3b 8c 89 c8 3b
       0.0074961456 -0.023838457 0.005615958 0.0061199125
000010 47 48 f6 3b 3f 14 2e bc 77 fa 43 3a 8d 7e 9a 3b
       0.0075159403 -0.010624944 0.0007475982 0.004714793
000020 29 3a 38 bc 5b 24 c5 bc 3a 1b 4d bc 16 32 0f 3b
       -0.011244335 -0.024065187 -0.012518698 0.0021849922
000030 c2 2c d0 3b a6 4d fd bb 4d 3e 15 bc 41 e9 2c bb
       0.006352992 -0.0077302037 -0.009109092 -0.0026384147
000040 21 d3 5e bb 3a bc 42 bb 94 e5 1d bc dd 00 78 bc
       -0.0034000354 -0.0029714243 -0.009637255 -0.015136925
000050 44 94 66 bb 32 21 de bb b1 54 02 bb e8 9f 28 ba
       -0.0035183588 -0.0067788595 -0.0019886906 -0.00064325193
000060 a9 a1 c5 bb 7c f5 c0 bb 92 85 71 bb a1 9a ee bb
       -0.0060312343 -0.005888639 -0.0036853296 -0.007281617
000070 04 8c e8 bb 53 c7 5d 3a c4 3e 3a bb 6d 77 8f 3c
       -0.0070967693 0.00084601826 -0.002841876 0.017513001
000080 88 09 6e bc 90 bb a4 3c fb 1e 31 39 c2 b1 86 bc
       -0.01452864 0.020108968 0.00016891577 -0.016442183
000090 e6 87 2b bb 55 47 66 bc 4f 54 41 ba 9b b7 d6 ba
       -0.002617353 -0.014055093 -0.00073749287 -0.0016381623
0000a0 08 90 2d bc 01 d2 55 3c ed b1 9f 3a cb 4d fc 3b
       -0.010593422 0.013050557 0.0012183763 0.0076997033
0000b0 3a 37 19 bc cb d3 2e 3c 54 3d 2f 38 7a 52 27 bb
       -0.009351546 0.010670613 4.1780368e-05 -0.0025531338
0000c0 3f b5 63 bc b3 3f d0 39 1b 9e 88 3b 59 0b 9b 3b
       -0.013898193 0.0003972031 0.0041692383 0.0047315774
0000d0 d1 1b 00 bc 52 6b 7a bb 07 75 08 bc b3 4e aa 3b
       -0.007819132 -0.003821094 -0.008328683 0.00519737
0000e0 56 e3 54 bb 1e 5e 53 bc 48 53 3e 3c 3f bf 93 bb
       -0.0032484136 -0.012900857 0.0116165355 -0.0045088823
0000f0 9c 98 88 3c 04 25 53 bb dc 4f ac bc 5d 94 fc bb
       0.016674332 -0.0032218108 -0.021034174 -0.007708116
000100 0d 40 0f bc d0 83 39 3a f4 82 d7 ba 3c 96 c7 3b
       -0.008743298 0.00070768315 -0.0016442225 0.0060909074
000110 fd da b1 3c 8e e6 9a bc e6 fe 2a bc ec c5 cb bb
       0.021710867 -0.018908765 -0.010436749 -0.0062186625
000120 5b 01 9e 3b 75 c6 99 3b ed 3c 34 3b cf a7 a8 3b
       0.004821939 0.0046928474 0.0027502135 0.0051469575
000130 13 be 00 bc c2 48 cb 3b 8c 79 72 bc b9 ab 0b 3c
       -0.007857817 0.0062037418 -0.014799487 0.008524829
000140 fb 06 1a bc be 74 dc ba 85 41 37 3c d9 6c e7 3b
       -0.009401078 -0.001681946 0.011185055 0.007062536
000150 b3 ef 67 3b 5e 51 23 3c b9 ed f6 bb 27 68 3b 3c
       0.0035390675 0.00996813 -0.007535663 0.011438406
000160 05 e0 77 3c 17 50 c4 3a b6 f0 37 3b ca 45 95 3c
       0.015129094 0.0014977482 0.002806706 0.018221755
000170 91 1f 8b bc 78 ac c2 bc db 11 e0 ba cb 4d 82 3c
       -0.016982825 -0.02376388 -0.0017095165 0.015906235
000180 a8 91 38 bc 06 9a 2d 3a 45 f1 b4 bb ab ad 8c bb
       -0.011265196 0.00066223776 -0.0055219256 -0.004293164
000190 f0 6e 65 38 81 b0 d4 3b 18 57 32 bc cb a9 23 3b
       5.4701173e-05 0.0064907675 -0.010885023 0.002497303
0001a0 d6 d1 bb 3b c9 8d 51 3c 0d 3b 9f 3b f1 be 20 3b
       0.0057318015 0.012790152 0.0048593343 0.0024527872
0001b0 8c ca 03 bb c0 0c 16 bc 73 f2 e0 bb 56 d9 21 bc
       -0.002010974 -0.009158313 -0.0068648397 -0.009878477
0001c0 9f 28 0f 3c 0a a1 6b 3c ee db 25 3b 9b 68 ee 39
       0.008737712 0.014381656 0.002530809 0.00045472835
0001d0 ef 0f 0a bc ff 0e 8b 3c 9e ac 00 bc d5 51 d6 3b
       -0.00842665 0.016974924 -0.007853655 0.006540517
0001e0 99 53 67 bb ff c9 a0 3c d9 ae bc 3a e3 1a f4 3b
       -0.003529763 0.01962757 0.001439537 0.007449494
0001f0 0e b3 f7 bb 24 45 6c 3a a0 7e 2b bc 1d e6 d9 bc
       -0.007559187 0.00090129883 -0.0104672015 -0.026598984
000200 7c d1 b7 bb 6d a2 c4 3a 0a b8 8c ba f6 39 58 bb
       -0.0056096893 0.001500202 -0.0010736 -0.0032993532
000210 57 bb 15 3b da ad 54 bc 9d 44 c2 bb bb 4d da bb
       0.002284726 -0.012980903 -0.0059285895 -0.006662098
000220 01 84 21 3c a7 c5 d4 3b 45 94 93 bb 34 51 28 3b
       0.009858132 0.0064932886 -0.004503759 0.0025683166
000230 68 a6 01 3c 71 3b 15 3c 2a f1 76 bb 02 34 85 bb
       0.0079132095 0.00910841 -0.0037680366 -0.0040650377
000240 40 e3 b2 ba 93 78 e1 bb 51 38 90 bb f4 c0 41 3b
       -0.0013648048 -0.0068808286 -0.0044012447 0.0029564472
000250 d8 d2 41 bc 5f a8 ba 3b 50 b0 94 bc bb e4 12 3c
       -0.011830054 0.005696341 -0.018150479 0.008965666
000260 71 aa f9 3b c0 74 6d 3a 06 cb 4c 3b 2f 4a c4 bb
       0.007619195 0.00090582296 0.003124894 -0.0059902887
000270 70 3a a7 bb fb ed ce bb 14 a2 a1 bc 94 2c b2 bb
       -0.005103402 -0.0063149906 -0.019730605 -0.005437443
000280 cb 6d e2 bb 70 39 6b 3b 01 5e 2b 3c d4 87 47 bb
       -0.006910061 0.003589239 0.010459424 -0.003044595
000290 34 42 94 bb b4 8e 17 3b e5 c8 01 bc 9b 23 b3 bc
       -0.0045244936 0.002312583 -0.007921432 -0.021867564
0002a0 a1 e7 16 b9 0c d5 f8 bb e5 b1 0b bb 25 ae 33 3b
       -0.00014391403 -0.0075937565 -0.002131575 0.002741703
0002b0 7b ea 3c 3c 00 0c 4c bb 47 41 5e bc 1e 5d c4 3a
       0.011530514 -0.0031135082 -0.013565368 0.0014981364
0002c0 1c 7d 9b 3c 20 f2 1b 3a ae bc 0b 3b 9a 42 09 bc
       0.018980555 0.000594886 0.0021322179 -0.008377695
0002d0 a4 05 00 3c b0 1c 95 3b 17 5d 49 bb fd 46 74 bc
       0.007813845 0.004550539 -0.0030725652 -0.014909503
0002e0 09 df fe bc e7 0c 3e 3c 88 de db 3b eb 6f a2 3c
       -0.03111221 0.011599756 0.0067098774 0.019828757
0002f0 af 78 0e bc 72 5c 1b 3c bc 61 21 39 4f 3f ed 3b
       -0.008695765 0.00948249 0.00015390565 0.007240213
000300 56 5f d0 b9 17 e0 09 3c f0 bd 8a 3c 91 c3 8d bc
       -0.00039743882 0.008415244 0.016936272 -0.017305167
000310 ca 0c 02 3b d7 d7 2d bc 47 7b b2 bc a6 e9 8f bb
       0.0019844049 -0.010610542 -0.021787299 -0.0043918667
000320 6c a2 7a bb e6 6b 77 38 cc 50 97 3a 71 01 14 bc
       -0.0038243784 5.8989877e-05 0.0011544465 -0.009033547
000330 2c ef 14 3c a6 3b 76 bc b9 a1 ca b9 9b 69 f8 bb
       0.009090226 -0.01502887 -0.00038648935 -0.0075809485
000340 41 49 ed bb 4d 28 e3 bb 86 8b 94 3c c4 a6 50 bc
       -0.0072413986 -0.0069322945 0.018132936 -0.0127350725
000350 d8 77 23 3c 2f 8f 98 3b aa b5 1a 3c ba 25 24 3c
       0.009977303 0.0046557407 0.009442726 0.01001876
000360 10 61 13 3c 50 ff 8f bc c3 74 21 bc 48 2c 1f bc
       0.0089953095 -0.017577797 -0.009854498 -0.009715147
000370 73 c6 22 3c 1a dc cb bb e1 e2 ee b9 ea c1 65 3a
       0.009935009 -0.0062213065 -0.00045563935 0.0008764552
000380 cc de 18 3c 68 c9 74 bc 1b a5 86 bb ff 33 48 bc
       0.009330463 -0.014940597 -0.0041090376 -0.012219428
000390 3c da 4e bc e5 be e4 3b 04 02 ca bb 3c 82 fe 3b
       -0.012625273 0.006980764 -0.006164791 0.00776699
0003a0 f5 d3 19 bc 01 03 57 bb 57 06 f2 bb 84 8f 11 bc
       -0.009388913 -0.0032808187 -0.0073860097 -0.008884314
0003b0 ec 6a e3 3b 8d 92 39 bc 87 a5 94 bc aa d3 06 bc
       0.0069402363 -0.011326444 -0.018145336 -0.008229176
0003c0 94 50 f3 3b cb 58 7e 3b d6 8b 6f 3b 85 67 28 3c
       0.007425377 0.003881025 0.0036551855 0.010278587
0003d0 92 3c b1 3c 51 aa 5f 3b 7b 3c 82 bc 1d d7 a8 b9
       0.021635327 0.0034128616 -0.01589798 -0.0003220373
0003e0 24 2c 72 3c 61 cd a9 3c c4 95 67 39 9b 61 75 bc
       0.014781032 0.020727815 0.00022085669 -0.014976884
0003f0 9a a8 ea bb f7 84 f7 3b 86 3c 74 3c 4e ad 6f bb
       -0.007161212 0.0075536924 0.014907008 -0.0036571804

hidden_features.2.bias f4 [50]
000000 24 09 8f 38 a4 ec 02 38 7f 62 b3 b8 00 00 00 00
       6.820474e-05 3.1214804e-05 -8.5537315e-05 0.0
000010 7d 63 3d 3a 2c b4 8a b9 00 00 00 00 10 c6 8d 3a
       0.0007224603 -0.0002645565 0.0 0.0010816474
000020 85 a7 1f ba 88 b4 28 3a c3 65 41 3a 5d 35 db b8
       -0.0006090331 0.00064355927 0.00073775294 -0.000104526735
000030 bd b9 10 ba 84 e3 03 3a 8b bc 02 3a 95 46 08 39
       -0.0005520841 0.0005031156 0.00049872015 0.00012996265
000040 6d 2f 56 36 7a 2b 1f 3a 00 00 00 00 58 08 fc 39
       3.191609e-06 0.0006071847 0.0 0.00048071402
000050 00 00 00 00 62 99 be 37 ee 13 68 b9 5a f9 f1 39
       0.0 2.272119e-05 -0.00022132669 0.00046152883
000060 dd 7e 34 b9 83 29 3e b9 c1 5f a4 39 83 20 0f ba
       -0.00017213398 -0.00018135276 0.0003135186 -0.0005459862
000070 8b e5 99 38 0a a3 40 b9 a0 af ee 39 0c 13 29 ba
       7.338364e-05 -0.00018371284 0.00045525748 -0.00064496766
000080 d9 df 08 39 db f8 2f b6 99 57 72 b9 64 f7 83 39
       0.0001305336 -2.6221885e-06 -0.00023111551 0.00025170587
000090 b4 bc 8b 38 b7 58 91 b9 78 5f 1e 39 69 ef 94 b9
       6.663185e-05 -0.00027722653 0.00015103619 -0.00028407134
0000a0 56 ae 30 38 b0 23 74 b9 9b 76 24 b9 8a e4 6d b5
       4.2124033e-05 -0.00023282948 -0.00015684443 -8.862195e-07
0000b0 c1 b8 b7 32 d9 1e 7c b6 ea c5 83 b8 91 cf 37 3a
       2.138802e-08 -3.7568882e-06 -6.283431e-05 0.0007011826
0000c0 ec 4d 94 b9 6b d3 bd b9
       -0.00028286816 -0.00036206408

density_estimator_head.weight f4 [50, 11]
000000 ec 47 16 3b 3b aa 09 bc 8c 8a a7 3a e3 82 f2 bb
       0.0022931052 -0.0084024025 0.0012782379 -0.007400857
000010 9f f8 3c ba be 08 2d 3c 38 d7 d3 bb d8 07 2d bc
       -0.0007208678 0.010561166 -0.006464865 -0.010560952
000020 1f f2 71 3c da 35 fa 3b 96 7a e2 bc e5 a7 a4 3b
       0.014767199 0.007635814 -0.027646344 0.0050248974
000030 ff af 24 38 a4 64 e4 3b ca 24 98 3c f8 52 06 bb
       3.9264556e-05 0.006970005 0.01857223 -0.002049623
000040 3a 9f e9 3b 8d e1 e7 bb 2b a2 e7 3c 0d 03 3c bc
       0.007129577 -0.0070764483 0.02827557 -0.011475337
000050 48 f2 09 3a be 0e b7 bc aa c9 a9 3b 32 df 86 3c
       0.0005262238 -0.022345897 0.005181511 0.01646385
000060 c5 ab 0b 3c 58 85 84 3c e4 11 12 bc 17 81 7d bc
       0.00852484 0.016176865 -0.008915398 -0.015472672
000070 73 f7 92 3c 3a 9d 92 3b 83 32 25 bc 65 4f 17 3c
       0.017940259 0.0044743093 -0.010082844 0.009235238
000080 e1 64 84 39 6f 41 9a bb 38 a2 34 3c a5 d6 9e bb
       0.00025252163 -0.0047075073 0.011025004 -0.004847365
000090 10 c3 10 3b c0 da 3c 3c 71 a7 28 3c 56 ef 8a bc
       0.0022088923 0.011526763 0.010293827 -0.016959827
0000a0 dc e5 d9 3a 2a c7 84 3c bb 64 56 bb 28 3c ce bb
       0.001662429 0.01620825 -0.0032713849 -0.0062937923
0000b0 e7 5c 5a 3c 30 d5 35 bc c8 a0 b6 bc eb 95 41 bc
       0.013327814 -0.011098191 -0.022293463 -0.011815528
0000c0 0f 49 3c bb 7e 21 a2 3b fe d9 2f bc 9e 3a 3a bc
       -0.002873007 0.0049478402 -0.010733126 -0.0113665145
0000d0 fb 53 9f 3b 8f c6 0d 3c 9e d7 7f 3c 11 89 62 3c
       0.004862306 0.008653297 0.015615372 0.0138266245
0000e0 98 40 85 bc 4e be 6c b9 e2 7c dc 3b 18 fd 2c 3c
       -0.016266152 -0.00022577608 0.0067287544 0.010558389
0000f0 ec 09 01 bc 03 32 b2 bb a5 b1 86 bc 31 3c 68 bb
       -0.007875901 -0.005438091 -0.01644213 -0.0035436267
000100 2e 7a 46 bb ea 9e 2f 3b 01 99 06 3c f1 ff 2d 3b
       -0.0030285227 0.00267976 0.00821519 0.0026550258
000110 1e ad b3 ba 27 62 92 bc 94 48 af bb 74 ec 59 bc
       -0.0013708209 -0.017869068 -0.005349228 -0.013301004
000120 e5 d2 cf 39 f6 79 1a bc 7d 2d 3e 3b e1 64 b6 3c
       0.00039639245 -0.009428492 0.0029018812 0.0222649
000130 2f 51 04 3c 36 e2 b2 bb 59 15 1e bc 2d 67 2d 3b
       0.008075996 -0.0054590954 -0.009648644 0.0026459203
000140 13 da 2e 3b bb 2e 2f 3c d3 fc 36 3c 8f 71 97 bc
       0.0026680275 0.010692294 0.011168676 -0.018486766
000150 02 81 eb bb dd 60 42 3c a8 44 84 3c 45 01 59 3b
       -0.00718701 0.011863914 0.01614602 0.003311233
000160 d1 b1 83 bc 03 2f 8a 3c 85 b7 c3 3b d7 8f b7 b9
       -0.016076 0.01686812 0.005972805 -0.0003501165
000170 d7 f5 3e bc 7f 08 d8 3b 0d 94 2b 3b fe 4a ad 3c
       -0.0116552925 0.0065928097 0.0026180774 0.021153923
000180 67 b1 28 bc 55 e7 11 bc f5 e7 9c bc f7 51 3e bc
       -0.010296202 -0.0089052515 -0.019153574 -0.011616222
000190 6c 99 c3 bb ce df 0e 3c 68 fa e0 bc dd 16 24 3c
       -0.005969217 0.008720351 -0.027463153 0.010015217
0001a0 9d a0 67 3b d1 61 88 bc 2f e9 28 bb 86 d4 23 bc
       0.0035343536 -0.016648205 -0.0025773754 -0.0099994
0001b0 9a fc 94 bb 37 97 64 3c 8d e4 c9 bc c3 a7 cf bb
       -0.004546714 0.013952068 -0.024645114 -0.0063371374
0001c0 92 c9 be ba 2a ec fe 3b 23 20 04 3c 9d 09 72 3c
       -0.0014555922 0.007779618 0.008064303 0.0147728
0001d0 b2 9a 68 bb 5d 35 41 bb 01 0e 8b bc 4a bc 21 bb
       -0.0035492596 -0.002948127 -0.016974451 -0.002467888
0001e0 84 2f 2a bb 72 38 51 3b ba d2 f2 3a 9d f6 15 3c
       -0.0025968263 0.0031924513 0.0018525936 0.0091530355
0001f0 b1 6e 10 bc 1f 43 fb 3b f2 5a 8f bc 84 fd c3 bb
       -0.008815453 0.0076679136 -0.01749942 -0.005981149
000200 eb 53 ad bb f4 82 3a 3c 95 89 5f bc 76 de 81 bb
       -0.005289545 0.011383761 -0.013643642 -0.003963287
000210 d4 53 56 3c 74 9a 30 3b 9e 10 de bb ec 8f b5 3a
       0.01308151 0.002694753 -0.0067768833 0.0013852096
000220 c1 d6 28 bc ca 43 04 3d e5 67 74 39 c7 87 6b 3c
       -0.010305108 0.03229121 0.00023308357 0.014375634
000230 66 3f 65 bb 5f 37 1e bc cb 30 12 3b a9 5b 98 bc
       -0.0034980415 -0.009656756 0.0022306915 -0.018598394
000240 b3 92 89 3c 5a 62 74 bb 09 cd 03 3c 73 e7 87 bc
       0.016793584 -0.0037290067 0.00804449 -0.016589856
000250 be 48 aa bb 6c 4e e1 3b b2 56 e7 bb 12 eb ae 3c
       -0.00519666 0.0068758037 -0.0070598954 0.021352325
000260 ea aa 22 3c 93 7c 19 bb 25 eb 03 bb 34 41 14 bc
       0.009928444 -0.00234202 -0.002012917 -0.009048749
000270 8e ea dd 3b 92 0f 2d bc 7b d6 68 ba 6f 91 07 3b
       0.006772346 -0.010562794 -0.0008882058 0.002068605
000280 ff 73 f7 3b d7 c2 69 3a e2 16 2a 39 aa a9 2c 3c
       0.0075516696 0.0008917278 0.00016220988 0.010538498
000290 0c 0f 72 3b cb 2e 34 3c 39 f0 09 3c fb 10 b7 bb
       0.0036935238 0.010997484 0.00841909 -0.005586741
0002a0 ba 8e 15 bc 5a 7b c6 bb a2 c0 93 3b 87 96 96 3a
       -0.009128267 -0.006057185 0.0045090476 0.0011488952
0002b0 5c 79 17 3c e6 b8 73 3c 7e d5 53 3b a0 b5 0e 3c
       0.009245243 0.014875626 0.0032323296 0.008710295
0002c0 ad ad 3f 3b bf a8 19 bc 5f b7 ed bb 9d 0f c9 39
       0.0029247806 -0.009378611 -0.0072545256 0.0003834934
0002d0 c3 19 28 3b 64 fe 3b 3b bc 8b f7 ba d5 56 aa bc
       0.002565012 0.0028685564 -0.0018886249 -0.020793358
0002e0 1c ce 83 bc 23 d0 90 3b 90 95 19 ba 4e 0d 1b 3a
       -0.016089492 0.004419343 -0.00058587734 0.00059147633
0002f0 6f 03 00 3c 84 d3 02 bc 2d 29 a3 bb 69 87 17 3c
       0.007813319 -0.007985 -0.004979274 0.009248593
000300 c4 82 72 bb 3d 30 e7 bb 3a 6b 87 3c 56 44 ba 3a
       -0.0037004212 -0.007055311 0.016530622 0.001421104
000310 fd 78 7a 3c 6c 00 40 3b 60 24 be 3b f7 02 3b 3c
       0.015287635 0.0029297126 0.005802676 0.011414281
000320 fd 00 b0 b9 37 d5 d6 3b c3 47 b5 bc 1a 12 80 3b
       -0.00033570072 0.006556179 -0.022128945 0.003908408
000330 10 3a 98 3b d7 2d 6e 3a f7 dd 9e bc ff 3a b1 3b
       0.0046455935 0.000908581 -0.01939295 0.005408644
000340 37 1f dc bb 55 c7 d2 ba 3f 05 b9 38 ac 3c 23 3b
       -0.0067175883 -0.0016081134 8.8224646e-05 0.002490799
000350 1b fa a9 bb b9 f4 93 bb 56 7a d7 3b 71 77 2b bc
       -0.0051872856 -0.004515257 0.006575863 -0.010465489
000360 16 4b fd 3a 72 24 37 3c ff 9c 63 3c b6 ed 54 3b
       0.0019324746 0.011178123 0.013892411 0.003249032
000370 78 8d 36 bc 6a f8 3a 3b f1 82 2d bb b5 7b 2a ba
       -0.011142127 0.0028529414 -0.0026475752 -0.0006503419
000380 e5 7c 34 bc a8 78 df bb cb c2 78 39 90 c3 40 3a
       -0.011016105 -0.0068198033 0.00023723689 0.000735336
000390 df aa ec 3c d2 64 ed 3b e0 a5 d2 3a df 39 48 3b
       0.028890071 0.0072446847 0.0016071163 0.0030552072
0003a0 db 4d 4e bc f8 64 76 3b 6a 8a 97 ba cf 49 29 bc
       -0.012591804 0.0037596803 -0.0011561636 -0.010332539
0003b0 9b 08 0c bc cb 6b 35 bc 48 8b 01 bb c9 2a c6 3b
       -0.008546974 -0.011073063 -0.0019766856 0.006047581
0003c0 2f 1d d6 bc 0a 33 3b 3c 91 0e 55 3c 66 20 70 39
       -0.026136963 0.011425743 0.013003961 0.00022900253
0003d0 04 82 93 bb e0 68 89 3c 66 6d 19 38 ae a8 84 bc
       -0.004501583 0.016773641 3.6579928e-05 -0.016193714
0003e0 36 d3 97 3b bb 83 9c bb 42 71 d0 3b 3c b8 06 bc
       0.0046333326 -0.0047764457 0.0063611576 -0.008222636
0003f0 4a 6e 91 bb 65 01 31 bb b8 e0 ca 3b 24 0c a1 bc
       -0.0044381963 -0.0027008888 0.0061913393 -0.01965911

density_estimator_head.bias f4 [11]
000000 5a e6 0a bd fb a5 d4 bc 62 b8 52 bc 6d e8 ee bb
       -0.033911087 -0.025958052 -0.012861343 -0.007290891
000010 88 3a c0 3b ea d7 8e 3b 37 b6 34 3b 4d 0b f0 3b
       0.0058663525 0.004359235 0.0027574429 0.007325566
000020 13 01 26 3c 7d 8e 02 3d 4d 0d 91 3c
       0.010132092 0.03187417 0.017706538

Q1.0.weight f4 [50, 50, 5]
000000 55 a8 f9 3f 17 18 4b 3f 63 78 71 3f a1 69 8f 3e
       1.9504496 0.79333633 0.9432432 0.28010276
000010 bc 51 7a bf 8f be 4a bf bf fb 22 bf 99 fd 01 c0
       -0.97780967 -0.7919702 -0.63665384 -2.0311034
000020 b9 c9 b2 be 6d f1 fa be d0 9c 98 3e f7 15 34 3f
       -0.34919527 -0.49012318 0.29807138 0.70346016
000030 c2 69 78 3e b2 9a d8 3f 04 b6 0f 40 c6 82 b3 3c
       0.24259093 1.6922209 2.2454844 0.021912944
000040 90 fb db bf 06 28 a6 bf 6e 28 c9 3e 19 a6 08 bf
       -1.7186146 -1.2980964 0.39288658 -0.53378445
000050 fe 06 5b 3f f3 ac 24 3f 48 48 2f bf c6 fc 46 3c
       0.85557544 0.643264 -0.6846967 0.012145227
000060 e3 be 85 be 6f 52 55 3e 8e 3e d2 be 51 e9 97 bf
       -0.26122198 0.20832227 -0.4106335 -1.1868078
000070 e1 5b 96 bf 8d 4c 80 bf d9 8d 0c bf 5e 38 cd be
       -1.1746789 -1.0023361 -0.5490394 -0.40082067
000080 e0 48 bb be 64 b9 d5 bc bd c5 9d 3e 63 17 21 bf
       -0.36579037 -0.026089378 0.30814925 -0.6292631
000090 38 05 77 3e 3c 8e 2b 3f 10 2a 02 3f 94 9d 2d bd
       0.24123085 0.6701391 0.5084543 -0.042386606
0000a0 4e 03 58 be 27 34 35 be 3d ca 9e be c6 f1 05 3e
       -0.2109501 -0.17695676 -0.3101367 0.1308051
0000b0 fd dd dd 3f e7 b0 98 3e 15 1a 24 3d 34 a3 51 3f
       1.733337 0.29822466 0.040063936 0.81889653
0000c0 b2 76 5f 3f c8 92 25 bf 4d d4 bf bf 9c 41 66 bf
       0.8729049 -0.64677095 -1.4986664 -0.8994386
0000d0 1c 36 87 3f 49 ff f4 3d 99 0f e2 bf db 48 63 be
       1.0563388 0.11962754 -1.766101 -0.22195761
0000e0 df ec 9d bf d5 ea 48 3f ad ed 14 3f b3 f8 25 3d
       -1.2337912 0.78483325 0.58175164 0.04052038
0000f0 d2 e5 16 3f 5e 1a 22 3e 11 5d d0 bf b8 e6 cb bf
       0.5894443 0.15830371 -1.6278402 -1.5929785
000100 d6 be 4e bf 0e 50 89 3f 83 d6 37 3e ea 26 0f 40
       -0.8075994 1.0727556 0.17952923 2.2367501
000110 cc 46 0c 3f 83 3a ed bd b2 24 96 bf d4 6b 22 bf
       0.5479553 -0.11583426 -1.1729949 -0.6344578
000120 48 8b ff be a2 0b ee 3c 61 22 77 be f7 c9 3c 3f
       -0.4991095 0.029058281 -0.24134208 0.73745674
000130 98 f1 05 40 4f 06 10 bf f8 fe e6 bf 74 00 2c 3e
       2.0928707 -0.56259626 -1.804656 0.16797048
000140 0c c8 63 bf d7 e9 44 3f b2 77 8a 3f 3c bb 7f 3e
       -0.8897712 0.7691931 1.0817778 0.24973768
000150 5b 74 b6 3f 20 ba 3c bf a4 68 b5 3e 0d ec 43 3f
       1.4254259 -0.73721504 0.35431397 0.7653206
000160 dd ad d9 3e cb 8c e4 bf 94 ef ce 3f 57 e7 97 3f
       0.4251546 -1.7855467 1.6166863 1.1867474
000170 df 9e 7d 3f f0 e7 99 3f 0e c6 be 3e 4a 66 a0 3f
       0.99070543 1.2023907 0.3726048 1.2531216
000180 37 4e 83 3e 76 97 ee 3e c8 e2 13 3f 59 7b 60 bd
       0.2564561 0.4659993 0.57767916 -0.054805133
000190 8c 9e c1 be 6a 55 a5 bf 69 c7 9c 3d 56 09 31 bf
       -0.37816274 -1.2916691 0.07655222 -0.6915487
0001a0 3c b7 54 3f 03 d8 05 3e ae 46 e4 3e 5f 95 4d bf
       0.83092093 0.13070683 0.44585174 -0.8030605
0001b0 f7 a5 33 3f bd d1 fb bf 8c 96 43 3f 86 32 b4 be
       0.7017512 -1.9673382 0.7640159 -0.35194796
0001c0 cf 31 63 be 3d 82 09 3f ea c8 f3 bf ba e5 32 40
       -0.22186969 0.5371435 -1.9045689 2.7952714
0001d0 fc 00 16 be fc aa 8a 3f 57 78 3e bf 08 7e a2 3d
       -0.14648813 1.083343 -0.74402374 0.07934195
0001e0 c4 ad 19 bf 4f 69 f9 be a7 85 15 3d 9a ff 31 3f
       -0.6003077 -0.48713157 0.036504414 0.6953064
0001f0 1d 8b 53 3e 0b b5 1d bf a1 ab df be 13 f7 94 be
       0.20658536 -0.61604375 -0.4368563 -0.29094753
000200 73 a0 d3 bc 91 3a 22 bf f7 5f a4 be 55 31 43 3d
       -0.025833344 -0.63370615 -0.32104465 0.04765447
000210 d0 9a be 3f 99 aa 9b bf 52 d2 48 3b e6 db 39 bf
       1.4890995 -1.2161437 0.0030642939 -0.72601163
000220 89 3a b7 3e 56 cc 99 3f 81 8f d5 3e 98 2f 8a be
       0.35786846 1.2015483 0.41711047 -0.26989436
000230 87 ed 1a bf bb 0c 18 be 38 b0 ee 3e a5 17 46 3f
       -0.6051869 -0.14848606 0.4661882 0.7737983
000240 e9 f5 10 bf 56 43 c8 3f 79 04 3d bf 0c a3 7a 3f
       -0.5662523 1.5645549 -0.7383495 0.9790504
000250 0c db 4a 3f 7e 37 64 bf 53 58 35 be b2 9d 0d c0
       0.7924049 -0.89147174 -0.17709474 -2.21275
000260 b4 a3 25 bf 95 92 c9 3e 54 99 ed bf 21 e0 94 3f
       -0.64702916 0.39369646 -1.8562417 1.1630899
000270 eb ea 78 bf 35 13 2a c0 d7 73 dc 3d 3f 39 c4 be
       -0.97233456 -2.6574223 0.10764282 -0.38324925
000280 77 9e 49 bf 33 e6 4f bf e8 c9 c2 3f fd 15 63 c0
       -0.78757423 -0.8121063 1.5217867 -3.548217
000290 9d a9 3a bf 32 48 be 3e 7e 0f ea 3f bf 27 ae bf
       -0.7291506 0.37164456 1.8285978 -1.360588
0002a0 91 a3 8f 3f 34 31 ee bf 74 8b 0a 3e 12 22 04 bf
       1.1221792 -1.8608766 0.1352976 -0.5161449
0002b0 87 91 1d 3e 1f c3 44 3c 4a c2 52 3f be be 11 bb
       0.15387546 0.012009411 0.8232771 -0.0022238935
0002c0 23 99 d1 3f a4 b4 e8 3d 30 61 21 3f ad eb 12 bf
       1.6374859 0.113625795 0.6303892 -0.5739086
0002d0 fb 23 1e bf 19 89 09 40 52 03 5a 3f fd 0f 0b 40
       -0.6177365 2.1489928 0.85161316 2.1728508
0002e0 f9 22 d4 3e c8 66 c6 3f e1 a6 99 bf ee 1b 8e 3f
       0.41432932 1.5500116 -1.2004052 1.1102273
0002f0 d3 c4 a1 3b d7 c8 2d bf a4 52 5c bf 38 7c 23 3f
       0.0049367934 -0.6788458 -0.860636 0.6386142
000300 0a 36 bb 3e 9d 26 bc bf d6 41 55 bd bd ac 9a 3f
       0.36564666 -1.4699284 -0.05206474 1.2083966
000310 f1 90 c1 3f 05 01 2c bf e1 81 9e bf a2 f5 ee 3e
       1.5122358 -0.67189056 -1.2383386 0.46671778
000320 b6 1a 3e 3f b9 cd ee 3f 9e 80 02 3f ea 81 be bf
       0.7425951 1.8656532 0.50977504 -1.4883397
000330 25 f2 b9 3e 9d be de 3f 32 b5 2f 3f c8 2e 82 3f
       0.36317554 1.740192 0.6863586 1.0170527
000340 a3 b0 0a 3f a4 a5 f1 3e 83 d9 e5 be 67 af 36 be
       0.54175776 0.47196686 -0.4489251 -0.17840348
000350 7f 69 ca 3f 3d 17 7e 3f e1 84 2f bd b7 d7 8f bd
       1.5813445 0.9925421 -0.042851333 -0.07023566
000360 70 52 14 c0 f4 e4 80 bf b3 4f a6 bf 00 66 44 3f
       -2.3175316 -1.0069871 -1.2993072 0.7671814
000370 af eb f4 3e 05 ff 20 c0 86 91 e3 be d9 d5 8a 3f
       0.47836062 -2.5155652 -0.44446963 1.0846511
000380 2a 17 07 3e 23 f0 5d 3e f8 9e 94 be 02 6d 11 bf
       0.1319243 0.21673636 -0.29027534 -0.5680696
000390 07 37 b0 3d 0a 23 5e 3f 13 c5 40 bf 19 26 f3 be
       0.08604246 0.86772215 -0.7530071 -0.47490004
0003a0 66 ef de bf 30 1a 21 be 25 f3 01 c0 ce af 23 bf
       -1.7416809 -0.15732646 -2.0304654 -0.6394013
0003b0 66 d5 71 3f 1a 43 52 3f 82 61 1d bf 67 57 c5 3e
       0.94466245 0.8213364 -0.6147691 0.38543245
0003c0 78 78 61 3e bd 84 6c 3f 8e 08 0c bf cf e1 e4 3f
       0.22018611 0.9239004 -0.54700553 1.7881411
0003d0 bd 72 98 be dc 27 65 bf 2a ce 4c 3e c9 cb b4 3f
       -0.29775038 -0.89513946 0.2000052 1.412469
0003e0 cb bd 6c bf 95 61 1c bf c1 41 50 3f fc 43 9d bf
       -0.924771 -0.610864 0.8135033 -1.2286372
0003f0 cd 5c 69 3f 86 55 ca bf ed 1f 0b be 7d bf 33 bf
       0.9115723 -1.580735 -0.13586397 -0.7021406

Q1.0.bias f4 [50, 5]
000000 07 09 25 bc e8 c8 47 bb e9 31 1f 3a e1 18 c1 3a
       -0.010072953 -0.003048474 0.0006072806 0.0014732146
000010 42 a9 fb 39 4b 1a 5b bb 37 1e 1d bb ad cf a4 ba
       0.00048000558 -0.003343242 -0.0023974308 -0.0012574099
000020 a1 8b 4a b8 ea 44 cc 39 07 9d c5 bb 6b 0d 5a ba
       -4.8290593e-05 0.00038961257 -0.006030682 -0.00083180395
000030 9d 93 f3 3a 18 c2 e4 3a b9 b1 a5 39 70 b4 27 3c
       0.0018583421 0.0017452864 0.00031603666 0.010235891
000040 6d 65 09 ba 31 10 1d bb 35 95 cc ba 1e 8a 71 b9
       -0.0005241249 -0.002396595 -0.0015608432 -0.00023035004
000050 4c d4 6f 3b f2 4b 7f 3b 5d 49 76 3b 29 19 cb 3a
       0.0036595045 0.003895518 0.003758035 0.0015495169
000060 a2 cc 83 38 74 23 08 bb 43 93 e7 ba 5c b6 ec ba
       6.2846826e-05 -0.0020773085 -0.0017667789 -0.0018059718
000070 9c 12 59 ba 71 47 2b b9 41 4f 14 bb bb 83 d4 ba
       -0.0008280666 -0.00016334445 -0.0022630247 -0.0016213575
000080 3a 75 9f ba e3 1e c8 b9 67 e6 b9 b7 96 20 f0 bb
       -0.0012165674 -0.00038169985 -2.2161008e-05 -0.0073281033
000090 ed 05 08 3c 21 e4 59 3c 4a f0 ee 3b 32 fd 69 3a
       0.008302194 0.013299019 0.0072918283 0.00089259737
0000a0 21 21 d9 3a b5 bd 20 3b 79 00 5d 3b bd a3 fe 3a
       0.0016565659 0.0024527137 0.0033722206 0.001942746
0000b0 f6 e7 64 3a a4 5e 80 39 db 66 0b 3c c9 eb 35 3c
       0.00087320746 0.00024484575 0.008508409 0.011103579
0000c0 ac dc b5 3b 55 3a 0e 3a a9 1f 27 3a 88 95 59 3c
       0.005549988 0.0005425562 0.0006375262 0.01328028
0000d0 f0 b5 6f 3c 9e 93 d6 3b a5 ba f9 39 4e ed 0c bb
       0.01463078 0.006548359 0.00047632042 -0.002150375
0000e0 97 cc 0c bb 19 79 08 bb eb 2d 6c ba ad fa 53 b9
       -0.002148425 -0.0020824133 -0.0009009528 -0.00020215912
0000f0 ec b0 3d bb 89 6a 8f 3b d2 b2 db 3b 51 a0 84 3b
       -0.0028944565 0.0043767137 0.0067046667 0.0040474315
000100 85 ca 56 3a 65 a4 f4 bb e4 ec 30 3c e0 bc 98 3c
       0.000819363 -0.0074658864 0.010798667 0.01864475
000110 21 57 30 3c d0 aa b0 3a 74 dd 1a 3a ae a0 6b 3c
       0.010762961 0.001347864 0.0005907633 0.014381571
000120 08 a9 94 3c 88 98 15 3c 1a 73 81 3a 55 56 62 3a
       0.018147007 0.009130605 0.0009876222 0.00086340803
000130 1d f0 0b 3a 2d 40 59 39 4d b4 c0 b7 d2 a7 04 b8
       0.0005338209 0.0002071864 -2.2972143e-05 -3.1627547e-05
000140 fc 00 9e 39 9d f5 b7 39 4a 49 10 3a 05 1b b8 39
       0.00030136842 0.00035087476 0.0005504085 0.00035115346
000150 5d 4b 5b 39 62 28 63 3c ce e7 0e 3c 7b 9b eb 3b
       0.00020913543 0.0138646085 0.008722259 0.0071901656
000160 85 23 27 3b 94 fc 96 b8 00 00 00 00 00 00 00 00
       0.002550335 -7.199604e-05 0.0 0.0
000170 00 00 00 00 00 00 00 00 00 00 00 00 a2 66 ef 3c
       0.0 0.0 0.0 0.029223744
000180 1c 1a a0 3b d4 78 95 ba 24 62 1c bb 78 4a 25 ba
       0.004885925 -0.0011403807 -0.0023862207 -0.0006305347
000190 81 d3 59 bb a8 0a 96 3a 51 2f 02 3b 52 17 8e 3a
       -0.0033237638 0.0011447268 0.0019864629 0.001084069
0001a0 26 fd d8 38 06 c0 b1 ba 2f e0 93 bb a9 0c 9c bb
       0.00010346835 -0.0013561256 -0.0045128088 -0.0047622514
0001b0 63 d8 0c bb 60 78 e5 b9 e3 c5 11 3d 03 81 a6 3b
       -0.0021491281 -0.0004376797 0.03558911 0.0050812974
0001c0 56 dd db ba f9 98 34 bb 3d d8 0f ba 6c ec 9e bb
       -0.0016774337 -0.0027557 -0.0005487239 -0.004849961
0001d0 a6 20 01 bb df b3 70 ba 34 36 b1 b8 6e 07 17 38
       -0.0019703298 -0.00091820763 -8.450114e-05 3.6008125e-05
0001e0 5a a0 0c 3c d6 c3 9e b9 a5 2c 01 bb 9e 04 b2 ba
       0.008583153 -0.00030282018 -0.0019710448 -0.0013581698
0001f0 e8 76 98 b9 27 df 03 3c fd 44 f6 39 e5 85 b2 ba
       -0.0002908029 0.008048809 0.00046972177 -0.0013620226
000200 7d 0f 99 ba 5d 06 92 b9 8d b7 7f 3a 6a 50 6a 3a
       -0.001167759 -0.0002785203 0.0009754829 0.0008938374
000210 d7 5d cf 3a a9 c4 87 3a 8d 05 b2 39 00 00 00 00
       0.0015820813 0.0010358292 0.0003395494 0.0
000220 00 00 00 00 00 00 00 00 00 00 00 00 00 00 00 00
       0.0 0.0 0.0 0.0
000230 c6 21 06 bc 20 4e 1d 3c 2b 0e 6e 3c 5e d7 f8 3b
       -0.008186763 0.009601146 0.014529745 0.007594033
000240 90 7e 49 3a 1e 82 b9 3c 35 b6 54 3b 94 86 8b b9
       0.0007686401 0.022645053 0.0032457237 -0.00026612415
000250 f7 05 91 ba 3c b3 61 b9 d9 62 44 3b 54 13 e1 ba
       -0.00110644 -0.00021524442 0.0029966144 -0.0017171898
000260 ed fc e4 ba 5f c9 31 ba 31 13 83 b9 8e e0 24 3a
       -0.0017470397 -0.0006782021 -0.00025000566 0.0006289565
000270 b9 51 7d ba 5e 0e fd ba 85 27 95 ba ff 12 26 b9
       -0.00096633617 -0.001930665 -0.0011379576 -0.0001583807
000280 90 cc 68 39 d7 d7 0d b9 da 70 f2 b8 b3 7d 2c b8
       0.0002220145 -0.00013527214 -0.000115604795 -4.1125062e-05
000290 b7 72 0e b3 20 19 7e ba f8 e5 bc ba 77 b5 f3 ba
       -3.3166284e-08 -0.0009693075 -0.0014411798 -0.001859351
0002a0 f5 e6 84 ba 4d 3e bb b9 fe cd fa 3b 27 8a 6a bb
       -0.0010139631 -0.00035713837 0.0076539507 -0.0035787912
0002b0 27 a1 a7 bb ea 1a 31 bb 5c 8b fd b9 d4 f8 92 3a
       -0.0051156464 -0.0027024099 -0.0004835975 0.0011213073
0002c0 71 9e a8 b7 57 c4 c2 37 d5 97 4a 37 48 4d 9b 34
       -2.010094e-05 2.321803e-05 1.2075489e-05 2.892723e-07
0002d0 37 91 14 b9 49 3f 63 b9 b4 45 d4 b9 f4 a9 71 b9
       -0.00014168477 -0.00021671983 -0.00040487724 -0.00023046863
0002e0 40 e1 76 b8 d7 70 57 3c 94 26 9c bb 6f b0 21 bc
       -5.886075e-05 0.013149462 -0.004765341 -0.009868725
0002f0 25 7c c5 bb 37 ac c0 ba 76 7a 43 3c 87 5e e2 bb
       -0.006026762 -0.0014699762 0.011931052 -0.006908241
000300 57 52 58 bc cb ea 02 bc 66 e1 06 bb 32 41 56 3b
       -0.013203225 -0.007990549 -0.0020581125 0.0032692668
000310 a9 7e 1a 3c 8f d2 34 3c 0b 35 ab 3b 15 e2 e3 39
       0.009429612 0.011036529 0.005224829 0.00043465258
000320 e3 cf 15 bb 97 f2 1b ba 20 ae 70 b9 d4 1a d8 b7
       -0.0022859506 -0.00059489295 -0.0002295305 -2.57617e-05
000330 00 00 00 00 0b f6 ff 3b 1f d1 0e bb e5 b9 79 bb
       0.0 0.007811313 -0.0021792126 -0.0038105187
000340 1e 93 f5 ba 6b f6 1f 3a 8b ae 8f 3a 47 7d ea ba
       -0.0018735861 0.0006102088 0.0010962052 -0.0017890119
000350 71 e2 21 bb c5 6e ae ba b0 85 e3 b9 7f 19 9e 3c
       -0.002470162 -0.0013308158 -0.0004339642 0.019299267
000360 4a 1a c1 bb 77 dd 54 bc 49 f5 03 bc cd d3 fd ba
       -0.0058930265 -0.012992254 -0.008054086 -0.001936549
000370 c3 80 51 bb 08 89 05 bb 3c 8f ad ba 7b aa a9 b9
       -0.0031967617 -0.0020375866 -0.001324154 -0.0003236121
000380 27 59 96 38 18 2a b9 bb ff bf 98 3b b5 79 c4 3b
       7.169163e-05 -0.00565077 0.0046615596 0.005995954
000390 d9 47 39 3b a6 ff 70 39 1c 35 d9 3c be 4a d0 3a
       0.0028271584 0.0002298342 0.026514582 0.0015891416
0003a0 4f 1a 60 bb 24 47 41 bb cc 48 0e ba 18 f5 d2 ba
       -0.0034195369 -0.0029491866 -0.00054277177 -0.0016094772
0003b0 2d 4b 93 ba c8 cb 34 ba 81 eb f8 b8 43 80 d3 38
       -0.0011237614 -0.0006896821 -0.000118694275 0.00010085155
0003c0 de 3a a6 3c 22 1e 24 3b aa 5b 6f ba 07 b3 b4 ba
       0.020291742 0.0025042375 -0.00091307855 -0.0013786264
0003d0 74 45 99 b9 2c d5 d2 ba 97 41 f5 b9 6a 4d 44 b9
       -0.0002923418 -0.0016085259 -0.0004677891 -0.00018720856
0003e0 13 95 1e b6 8e ac c1 37
       -2.3630607e-06 2.3087745e-05
