CausalCVR/logs/simu2/eval/48/Vcnet_tr_ckpt.pth.tar (torch, 123637 bytes, 18 tensors)

feature_weight.weight f4 [50, 8]
00000000: bdde 693c 80d6 cdbc 28e9 343b 475f 8fbc
00000010: 3a74 493c 6205 21bc 9872 273c 9846 bb3c
00000020: c910 d3bb cb30 213b a888 263c f902 bf3c
00000030: 667a 243c b051 0d3c d1bf 063c 360b 4f3c
00000040: bf69 24ba f412 b8ba cef0 e2bb 058d 9e3b
00000050: 0b79 a83c 3719 29bc 2f30 bfbb f00b 103b
00000060: 8005 c339 2f96 2b3c 5105 78bc c6dd 363c
00000070: 1c0e 49bc de0f f13c 8855 a8bc e1f1 e7bc
00000080: 0739 243b 251f 0f3c c182 96bc 88c3 9abc
00000090: dc59 0abc 8a74 feb9 2b86 56bb 3008 653c
000000a0: 0f43 3fbc 876b 2abc f1ab f0bb 7312 56bc
000000b0: 9d54 2f3c 8266 89bb f516 f63a 7c88 a33c
000000c0: bab9 5bbb 5d8b ec3b d3d6 873b 3ad0 0d3c
000000d0: 0e8c 0b3c e7c7 7f3c f2c9 df3c bfa3 073c
000000e0: 5547 7b3b cee4 a5bc ac58 f83b 19d8 25bc
000000f0: e75f 82bc 3fce e6bb cc5c 45bc 679e 3ab9
00000100: 2a33 f0ba 1e2f 8a3b 55a8 b1bb e0c0 0f3b
00000110: f9f7 09bc 490c 06bc 80df 27bc fedb 223c
00000120: b095 763b a6a9 4cbc 81c8 01bc ef18 153c
00000130: e92a 083b 9bfc eabb a42c 753c 0607 3abb
00000140: f402 fa3b feba acbb 29ec 8bbc 8253 be3c
00000150: 49ea adba 9af7 e23b 3910 293c 8d4c d23b
00000160: 1adb 33bc 4868 093c 1a42 d4bb 0584 49bc
00000170: 22fc 1fbb e2fe 13bc cdf4 25bc e7c4 62bb
00000180: 91e3 bcb9 4eb1 b3bc 61a2 8e3c 8b28 ba3b
00000190: ff8a 5dbc 6860 dbba ab6d da3b c205 48bc
000001a0: 6f68 0cbb 2e67 27bc 29c9 4ebc 2980 97bb
000001b0: da8f 8d3a 0cca 11bc 00c1 a53b e189 3c3b
000001c0: eeac a5bb a462 28bc 298f 22bc 201d 163b
000001d0: 1486 92ba 95dd f93b b339 273c e17e 59bb
000001e0: 7cf4 16bc 88b9 85bc 1b43 4438 5e15 dd3c
000001f0: 034e 9d3b 22d0 d43b 625e 693c de5f 35bc
00000200: 9e74 13bc 7a03 c93c 3cfb 72bb 586a 02bc
00000210: 509e 6d3c 6d16 60bc 83e3 dab9 2922 2e3c
00000220: 972a 1f3c 0ecd 403b 8d38 0b3c c0be f23a
00000230: 355e 143c b8d1 153c 95fe cfbb af38 893a
00000240: 2aab d03c c76f 22bc 7021 9c3b 8656 11bc
00000250: b0ff f43b 005d 023c 55b6 92bb 9719 9cbb
00000260: ca1d 133a bfd9 893b 81c9 3f3c 2805 a03c
00000270: 9f2b 8a3c c9f5 503d 5a7d 2f3d 9051 5cb9
00000280: e769 083c 07d3 35bc c24e 8fba fa4c 16bb
00000290: 2405 8a3b 2432 0c3c fe23 2fbb c09b 8ebc
000002a0: fc62 a03c 8c5c 36bc 3916 c5bb 6de3 993c
000002b0: d890 c83c 3aa9 fdba a6c2 5bbc 9c77 d7bb
000002c0: aed4 84bc a449 d1bb 1744 27bb 0dca bc39
000002d0: 9baa cfbb e4fc c23a 1c32 ee3b 18a0 543b
000002e0: 07de 51bb c409 793c 0253 253c f725 17bc
000002f0: 315f fa3b fdca 593c 72a3 843c afc3 ec3b
00000300: 4cb6 5ebc 9958 ee3b 6310 3b3c 9a84 47bc
00000310: 86cf 613b b6dc 3e3c f330 c3bc ba9e 833c
00000320: ab23 813b 104c e3bb 65a9 18bc 758a e23a
00000330: 62b7 51bb 18a4 a03b 5277 d1bb bd77 a83b
00000340: c05d 85bb 7e95 aa3a 9d0d 9abb cb9f 603c
00000350: 06a6 70bc 9df7 c7bb 4c25 9f3c c32f 1abc
00000360: 1e90 963c 9f34 90ba 4566 58ba f815 30bc
00000370: 1f6a b83a 47dd a33b e970 913c 385c 993b
00000380: 73ee a5ba a6bc 96bb 5ec7 6f3c 825e b33a
00000390: f386 09bb 5b45 003c b1fc c5bb 19b6 93bc
000003a0: fe4d 8b3c 9ba1 9bbc 03ec 40bb 7de9 89bb
000003b0: a414 223c 3636 243c 0839 823c c73e 213c
000003c0: f4d2 4ebb 910c ee3a 655b ffba c2ec 49bb
000003d0: 0e17 d93a 068f d1bb 6ba7 3c3c 770e e53a
000003e0: 9404 643c 16f1 163c 28c2 89bb 6aca 453c
000003f0: e43a 833c f9f1 c73b 02a9 8d3c 5095 27ba
0.014274296 -0.025126696 0.0027604792 -0.017501486 0.012295777 -0.0098279435 0.010220192 0.02286081
-0.00644121 0.0024595733 0.010164417 0.023316847 0.010038948 0.008625433 0.0082244435 0.01263695
-0.0006271861 -0.0014043734 -0.006925679 0.004838588 0.02056553 -0.010320953 -0.0058346014 0.0021979772
0.00037197396 0.010472818 -0.015137986 0.011161273 -0.01227143 0.029426511 -0.020548597 -0.028313579
0.0025058405 0.008735453 -0.018372895 -0.018892065 -0.008444276 -0.00048533484 -0.003273378 0.013979003
-0.011673703 -0.010401613 -0.0073447158 -0.013065922 0.010701326 -0.004193128 0.0018775152 0.019962542
-0.003352745 0.007218762 0.004145482 0.008655602 0.008517278 0.015611625 0.027317975 0.008278786
0.0038342078 -0.020250704 0.00757893 -0.0101223225 -0.01591487 -0.0070436294 -0.01204605 -0.00017797352
-0.0018325795 0.0042170426 -0.005421678 0.002193503 -0.008420938 -0.00818164 -0.010246158 0.009940146
0.0037625842 -0.012491619 -0.007921339 0.009100183 0.002077753 -0.007171226 0.014964256 -0.0028385534
0.0076297466 -0.0052713146 -0.017080383 0.023233179 -0.0013268675 0.006926489 0.010318809 0.006417817
-0.010977531 0.008386679 -0.0064776065 -0.012299542 -0.0024411757 -0.009032937 -0.010129166 -0.0034602226
-0.00036027704 -0.021935131 0.017411413 0.0056811026 -0.013521909 -0.0016737105 0.0066659055 -0.012208404
-0.0021424552 -0.010217471 -0.0126212025 -0.004623432 0.0010800317 -0.008898269 0.005058408 0.0028768706
-0.005056015 -0.010277424 -0.009921827 0.0022905543 -0.0011178874 0.0076252916 0.010206628 -0.0033187198
-0.009213563 -0.01632382 4.679254e-05 0.026987728 0.0048005595 0.006494538 0.014243694 -0.01107022
-0.008999972 0.02453779 -0.0037076017 -0.007959925 0.014503077 -0.013677222 -0.0004174971 0.010628262
0.009714744 0.0029419097 0.0084973695 0.0018519983 0.009055664 0.009144239 -0.006347487 0.0010469164
0.025472242 -0.009914345 0.0047647282 -0.008870726 0.0074767694 0.007956743 -0.004477302 -0.0047637927
0.0005612044 0.0042068656 0.011705757 0.019533709 0.016866503 0.05101565 0.042844154 -0.0002101122
0.00832603 -0.011097676 -0.0010933506 -0.0022934065 0.0042120386 0.008556876 -0.0026724334 -0.017408252
0.01957845 -0.011130463 -0.006014612 0.018785203 0.02448313 -0.0019352802 -0.013413107 -0.006575538
-0.016214695 -0.0063869525 -0.0025522762 0.00036008694 -0.0063374764 0.0014876393 0.007269157 0.0032444056
-0.0032023208 0.015200082 0.010090591 -0.00922536 0.007640742 0.013293025 0.016191218 0.0072254757
-0.013593268 0.0072737453 0.011417481 -0.012177611 0.003445597 0.011649301 -0.023827052 0.016066898
0.0039410195 -0.0069365576 -0.009317731 0.0017283695 -0.0032000174 0.004902374 -0.006392398 0.005141227
-0.0040700138 0.0013014523 -0.00470133 0.013709973 -0.014688021 -0.006102516 0.019426964 -0.009410801
0.018379267 -0.001100201 -0.00082549854 -0.010747425 0.0014069712 0.0050007435 0.017754035 0.004680183
-0.0012659564 -0.0046001254 0.014634935 0.0013684782 -0.0020984977 0.007829036 -0.006042086 -0.018031167
0.017004963 -0.018997958 -0.002943755 -0.004208742 0.009892616 0.0100226905 0.015896335 0.009841627
-0.0031558843 0.0018161704 -0.0019482194 -0.0030811285 0.0016562657 -0.0063952236 0.011514525 0.0017475624
0.013917107 0.009212753 -0.0042040534 0.012072185 0.016019292 0.0061018434 0.017292503 -0.0006392794

feature_weight.bias f4 [50]
00000000: abbc 42ba bd54 633a 67ce c6ba 3a75 363c
00000010: 6f27 1cbb e5a4 54bb 2719 df3a 0000 0000
00000020: 161f 80b9 f5d3 bfb9 70ce c0bb 0000 0000
00000030: 6250 5a3b 0000 0000 3f47 ca39 d5a9 01bb
00000040: 4519 803a d2a5 9ab8 53fa 003a bad3 efba
00000050: c0a2 b63a 6fb4 a3bb b283 6fbb 0ae1 41ba
00000060: 56b1 6dbb 4b49 a0bb ec06 deb8 7f2d 353b
00000070: 2fc6 8cba c6d4 293b 6f41 26b9 188d 8a3a
00000080: 0368 9039 9db5 dc38 12fb f137 5f4c a5b9
00000090: 680f c43a fbf9 24bb 6553 c9b9 4b79 b83a
000000a0: ad08 baba 178d 9c3a 3fbf c3b9 5a55 9d39
000000b0: 671c 15b9 26f0 1eb9 70c0 90ba 89e8 d939
000000c0: 5900 acbb 4085 e13a
-0.00074286264 0.000867199 -0.0015167714 0.011136347 -0.0023827215 -0.0032446918 0.0017021046 0.0
-0.00024437223 -0.0003658828 -0.0058839843 0.0 0.0033312072 0.0 0.00038581525 -0.0019785066
0.0009773156 -7.374179e-05 0.0004920114 -0.0018297352 0.0013934001 -0.0049958746 -0.0036547002 -0.0007395899
-0.003626903 -0.0048915497 -0.00010587074 0.0027645526 -0.0010740216 0.0025914176 -0.0001585537 0.0010570614
0.00027543315 0.000105242456 2.8846353e-05 -0.00031528153 0.0014958205 -0.0025173414 -0.0003839984 0.0014074234
-0.0014193259 0.0011943904 -0.00037335788 0.00030008965 -0.00014220328 -0.00015157516 -0.0011043679 0.00041562718
-0.005249065 0.0017205849

hidden_features.0.weight f4 [50, 8]
00000000: bdde 693c 80d6 cdbc 28e9 343b 475f 8fbc
00000010: 3a74 493c 6205 21bc 9872 273c 9846 bb3c
00000020: c910 d3bb cb30 213b a888 263c f902 bf3c
00000030: 667a 243c b051 0d3c d1bf 063c 360b 4f3c
00000040: bf69 24ba f412 b8ba cef0 e2bb 058d 9e3b
00000050: 0b79 a83c 3719 29bc 2f30 bfbb f00b 103b
00000060: 8005 c339 2f96 2b3c 5105 78bc c6dd 363c
00000070: 1c0e 49bc de0f f13c 8855 a8bc e1f1 e7bc
00000080: 0739 243b 251f 0f3c c182 96bc 88c3 9abc
00000090: dc59 0abc 8a74 feb9 2b86 56bb 3008 653c
000000a0: 0f43 3fbc 876b 2abc f1ab f0bb 7312 56bc
000000b0: 9d54 2f3c 8266 89bb f516 f63a 7c88 a33c
000000c0: bab9 5bbb 5d8b ec3b d3d6 873b 3ad0 0d3c
000000d0: 0e8c 0b3c e7c7 7f3c f2c9 df3c bfa3 073c
000000e0: 5547 7b3b cee4 a5bc ac58 f83b 19d8 25bc
000000f0: e75f 82bc 3fce e6bb cc5c 45bc 679e 3ab9
00000100: 2a33 f0ba 1e2f 8a3b 55a8 b1bb e0c0 0f3b
00000110: f9f7 09bc 490c 06bc 80df 27bc fedb 223c
00000120: b095 763b a6a9 4cbc 81c8 01bc ef18 153c
00000130: e92a 083b 9bfc eabb a42c 753c 0607 3abb
00000140: f402 fa3b feba acbb 29ec 8bbc 8253 be3c
00000150: 49ea adba 9af7 e23b 3910 293c 8d4c d23b
00000160: 1adb 33bc 4868 093c 1a42 d4bb 0584 49bc
00000170: 22fc 1fbb e2fe 13bc cdf4 25bc e7c4 62bb
00000180: 91e3 bcb9 4eb1 b3bc 61a2 8e3c 8b28 ba3b
00000190: ff8a 5dbc 6860 dbba ab6d da3b c205 48bc
000001a0: 6f68 0cbb 2e67 27bc 29c9 4ebc 2980 97bb
000001b0: da8f 8d3a 0cca 11bc 00c1 a53b e189 3c3b
000001c0: eeac a5bb a462 28bc 298f 22bc 201d 163b
000001d0: 1486 92ba 95dd f93b b339 273c e17e 59bb
000001e0: 7cf4 16bc 88b9 85bc 1b43 4438 5e15 dd3c
000001f0: 034e 9d3b 22d0 d43b 625e 693c de5f 35bc
00000200: 9e74 13bc 7a03 c93c 3cfb 72bb 586a 02bc
00000210: 509e 6d3c 6d16 60bc 83e3 dab9 2922 2e3c
00000220: 972a 1f3c 0ecd 403b 8d38 0b3c c0be f23a
00000230: 355e 143c b8d1 153c 95fe cfbb af38 893a
00000240: 2aab d03c c76f 22bc 7021 9c3b 8656 11bc
00000250: b0ff f43b 005d 023c 55b6 92bb 9719 9cbb
00000260: ca1d 133a bfd9 893b 81c9 3f3c 2805 a03c
00000270: 9f2b 8a3c c9f5 503d 5a7d 2f3d 9051 5cb9
00000280: e769 083c 07d3 35bc c24e 8fba fa4c 16bb
00000290: 2405 8a3b 2432 0c3c fe23 2fbb c09b 8ebc
000002a0: fc62 a03c 8c5c 36bc 3916 c5bb 6de3 993c
000002b0: d890 c83c 3aa9 fdba a6c2 5bbc 9c77 d7bb
000002c0: aed4 84bc a449 d1bb 1744 27bb 0dca bc39
000002d0: 9baa cfbb e4fc c23a 1c32 ee3b 18a0 543b
000002e0: 07de 51bb c409 793c 0253 253c f725 17bc
000002f0: 315f fa3b fdca 593c 72a3 843c afc3 ec3b
00000300: 4cb6 5ebc 9958 ee3b 6310 3b3c 9a84 47bc
00000310: 86cf 613b b6dc 3e3c f330 c3bc ba9e 833c
00000320: ab23 813b 104c e3bb 65a9 18bc 758a e23a
00000330: 62b7 51bb 18a4 a03b 5277 d1bb bd77 a83b
00000340: c05d 85bb 7e95 aa3a 9d0d 9abb cb9f 603c
00000350: 06a6 70bc 9df7 c7bb 4c25 9f3c c32f 1abc
00000360: 1e90 963c 9f34 90ba 4566 58ba f815 30bc
00000370: 1f6a b83a 47dd a33b e970 913c 385c 993b
00000380: 73ee a5ba a6bc 96bb 5ec7 6f3c 825e b33a
00000390: f386 09bb 5b45 003c b1fc c5bb 19b6 93bc
000003a0: fe4d 8b3c 9ba1 9bbc 03ec 40bb 7de9 89bb
000003b0: a414 223c 3636 243c 0839 823c c73e 213c
000003c0: f4d2 4ebb 910c ee3a 655b ffba c2ec 49bb
000003d0: 0e17 d93a 068f d1bb 6ba7 3c3c 770e e53a
000003e0: 9404 643c 16f1 163c 28c2 89bb 6aca 453c
000003f0: e43a 833c f9f1 c73b 02a9 8d3c 5095 27ba
0.014274296 -0.025126696 0.0027604792 -0.017501486 0.012295777 -0.0098279435 0.010220192 0.02286081
-0.00644121 0.0024595733 0.010164417 0.023316847 0.010038948 0.008625433 0.0082244435 0.01263695
-0.0006271861 -0.0014043734 -0.006925679 0.004838588 0.02056553 -0.010320953 -0.0058346014 0.0021979772
0.00037197396 0.010472818 -0.015137986 0.011161273 -0.01227143 0.029426511 -0.020548597 -0.028313579
0.0025058405 0.008735453 -0.018372895 -0.018892065 -0.008444276 -0.00048533484 -0.003273378 0.013979003
-0.011673703 -0.010401613 -0.0073447158 -0.013065922 0.010701326 -0.004193128 0.0018775152 0.019962542
-0.003352745 0.007218762 0.004145482 0.008655602 0.008517278 0.015611625 0.027317975 0.008278786
0.0038342078 -0.020250704 0.00757893 -0.0101223225 -0.01591487 -0.0070436294 -0.01204605 -0.00017797352
-0.0018325795 0.0042170426 -0.005421678 0.002193503 -0.008420938 -0.00818164 -0.010246158 0.009940146
0.0037625842 -0.012491619 -0.007921339 0.009100183 0.002077753 -0.007171226 0.014964256 -0.0028385534
0.0076297466 -0.0052713146 -0.017080383 0.023233179 -0.0013268675 0.006926489 0.010318809 0.006417817
-0.010977531 0.008386679 -0.0064776065 -0.012299542 -0.0024411757 -0.009032937 -0.010129166 -0.0034602226
-0.00036027704 -0.021935131 0.017411413 0.0056811026 -0.013521909 -0.0016737105 0.0066659055 -0.012208404
-0.0021424552 -0.010217471 -0.0126212025 -0.004623432 0.0010800317 -0.008898269 0.005058408 0.0028768706
-0.005056015 -0.010277424 -0.009921827 0.0022905543 -0.0011178874 0.0076252916 0.010206628 -0.0033187198
-0.009213563 -0.01632382 4.679254e-05 0.026987728 0.0048005595 0.006494538 0.014243694 -0.01107022
-0.008999972 0.02453779 -0.0037076017 -0.007959925 0.014503077 -0.013677222 -0.0004174971 0.010628262
0.009714744 0.0029419097 0.0084973695 0.0018519983 0.009055664 0.009144239 -0.006347487 0.0010469164
0.025472242 -0.009914345 0.0047647282 -0.008870726 0.0074767694 0.007956743 -0.004477302 -0.0047637927
0.0005612044 0.0042068656 0.011705757 0.019533709 0.016866503 0.05101565 0.042844154 -0.0002101122
0.00832603 -0.011097676 -0.0010933506 -0.0022934065 0.0042120386 0.008556876 -0.0026724334 -0.017408252
0.01957845 -0.011130463 -0.006014612 0.018785203 0.02448313 -0.0019352802 -0.013413107 -0.006575538
-0.016214695 -0.0063869525 -0.0025522762 0.00036008694 -0.0063374764 0.0014876393 0.007269157 0.0032444056
-0.0032023208 0.015200082 0.010090591 -0.00922536 0.007640742 0.013293025 0.016191218 0.0072254757
-0.013593268 0.0072737453 0.011417481 -0.012177611 0.003445597 0.011649301 -0.023827052 0.016066898
0.0039410195 -0.0069365576 -0.009317731 0.0017283695 -0.0032000174 0.004902374 -0.006392398 0.005141227
-0.0040700138 0.0013014523 -0.00470133 0.013709973 -0.014688021 -0.006102516 0.019426964 -0.009410801
0.018379267 -0.001100201 -0.00082549854 -0.010747425 0.0014069712 0.0050007435 0.017754035 0.004680183
-0.0012659564 -0.0046001254 0.014634935 0.0013684782 -0.0020984977 0.007829036 -0.006042086 -0.018031167
0.017004963 -0.018997958 -0.002943755 -0.004208742 0.009892616 0.0100226905 0.015896335 0.009841627
-0.0031558843 0.0018161704 -0.0019482194 -0.0030811285 0.0016562657 -0.0063952236 0.011514525 0.0017475624
0.013917107 0.009212753 -0.0042040534 0.012072185 0.016019292 0.0061018434 0.017292503 -0.0006392794

hidden_features.0.bias f4 [50]
00000000: abbc 42ba bd54 633a 67ce c6ba 3a75 363c
00000010: 6f27 1cbb e5a4 54bb 2719 df3a 0000 0000
00000020: 161f 80b9 f5d3 bfb9 70ce c0bb 0000 0000
00000030: 6250 5a3b 0000 0000 3f47 ca39 d5a9 01bb
00000040: 4519 803a d2a5 9ab8 53fa 003a bad3 efba
00000050: c0a2 b63a 6fb4 a3bb b283 6fbb 0ae1 41ba
00000060: 56b1 6dbb 4b49 a0bb ec06 deb8 7f2d 353b
00000070: 2fc6 8cba c6d4 293b 6f41 26b9 188d 8a3a
00000080: 0368 9039 9db5 dc38 12fb f137 5f4c a5b9
00000090: 680f c43a fbf9 24bb 6553 c9b9 4b79 b83a
000000a0: ad08 baba 178d 9c3a 3fbf c3b9 5a55 9d39
000000b0: 671c 15b9 26f0 1eb9 70c0 90ba 89e8 d939
000000c0: 5900 acbb 4085 e13a
-0.00074286264 0.000867199 -0.0015167714 0.011136347 -0.0023827215 -0.0032446918 0.0017021046 0.0
-0.00024437223 -0.0003658828 -0.0058839843 0.0 0.0033312072 0.0 0.00038581525 -0.0019785066
0.0009773156 -7.374179e-05 0.0004920114 -0.0018297352 0.0013934001 -0.0049958746 -0.0036547002 -0.0007395899
-0.003626903 -0.0048915497 -0.00010587074 0.0027645526 -0.0010740216 0.0025914176 -0.0001585537 0.0010570614
0.00027543315 0.000105242456 2.8846353e-05 -0.00031528153 0.0014958205 -0.0025173414 -0.0003839984 0.0014074234
-0.0014193259 0.0011943904 -0.00037335788 0.00030008965 -0.00014220328 -0.00015157516 -0.0011043679 0.00041562718
-0.005249065 0.0017205849

hidden_features.2.weight f4 [50, 50]
00000000: 7f90 54bc 0862 293b f938 2ebb fc46 4a3b
00000010: e47f 4abb 9fc8 dcbb 8d47 3bbb 10a5 66bc
00000020: 5a2e c9bb 3abf 313c 23d9 043a d377 8fba
00000030: 7ec2 88bc 3aee 473b 65cd 1e3c 4236 2b39
00000040: dd73 22bb 8228 db38 5127 8c3b b800 d8bb
00000050: ec8a 5c3c 7511 8abb a3f3 4aba f1af a6bb
00000060: ac98 4a3c 8e36 a7bb a069 aebb 2a88 823c
00000070: 206d 013c f38e 9bba 38e9 ba3b c453 6cbb
00000080: bd93 1fbb 823e 14bb 7f89 59bc 7c06 df3b
00000090: 0f62 c43b e269 9a3b 45aa fdb9 1f73 34bc
000000a0: f36d 3dbb c663 0c3c d938 04bc 3a5d 963b
000000b0: 4322 1639 5058 cf3b c6f2 6e3c 9514 17bc
000000c0: 7167 133c 9ce8 20bb a462 29bc 9279 9dbc
000000d0: 9703 1a3c 6542 c93b eea4 72bb e48a 6eb9
000000e0: 0659 b7bc c2ef 483a 25ad 513c dd24 80bc
000000f0: d274 d0bb 47a0 1cba 1eeb 243c 750a 253b
00000100: 36e0 3dbc cbbc 34bc be9e 453c 461d 45bc
00000110: 336d 87b9 51fa bf39 701c 243c 1eb8 093b
00000120: fa92 07bc dea1 4d3c 9716 c53b 3b93 8b3c
00000130: c115 05bc feed c1ba 90af 88bc f1da 703b
00000140: 2acc 79bb 7a67 9b3a 0b9c 07bc fbfa 013c
00000150: 60c9 7f3c b7fd 713a 7613 453c 15ae 063c
00000160: c55f d73b 35ae 4b3c 98ba 803c 58fc 1dbc
00000170: ab54 703c 2e05 3b3b ae54 2fbc 1082 5eba
00000180: 932e 19ba 774c 3cbc f15a e43b ad54 ecbb
00000190: d797 33bb 4b6f b4bb 39be b2bc e34d 4e3b
000001a0: b43e b0bc 1c8b 9ebb 130d 9c3c 55e6 db3b
000001b0: 4acf e0b8 c6ae a53b 3e96 2d3c 0586 083c
000001c0: ea40 5ebc 40ec ae3c 1a1b 00bc 43c2 56bc
000001d0: d564 423c 57f8 89bc 6e50 7e3a 49fb 483b
000001e0: 2e21 4d3b 5277 063c b7f1 98bc 5bf8 3c3b
000001f0: 038e ee3a 94c6 eab9 9762 6537 0f76 bc3b
00000200: c655 fc3b 754a 78bc 845c 1cbb f72e d5bb
00000210: 4c0b 0abc bef6 a9b9 bf50 7e3c 68ff 8dbc
00000220: 77cd b23b 5c0c 513b 5737 7f3c 37a8 0fbb
00000230: 6e97 e83a ff97 573c a20b 7abc 32ff 453c
00000240: ddfd 1bb8 55e4 833c ddf8 debb 2893 d93c
00000250: e80c 3f3c 27d3 5fbc ab43 27bc 0507 3b3c
00000260: 653c a03c 5543 413c 1a9e 553b 9ed3 32bc
00000270: ee97 99bb a070 ad3b 2077 cf3b 82a0 693b
00000280: d773 1c3b a006 2f3c 3928 babb 0499 483c
00000290: 5e88 f63b 5769 0e3c e19e 0ebc c54d 923b
000002a0: fb71 bcba 7c25 d5bb 29e3 103c 4844 56bc
000002b0: d1c5 ee3b 4de2 283b 92aa 0ebb 1741 2bbb
000002c0: eb21 91bb 6a30 25bc e9f2 88bc d7a6 bbbb
000002d0: 3acd cabb 34b3 17bc 2033 d13c c787 ebba
000002e0: 2f48 593b 0247 34bc 4c6f d0ba e3ee 7fbb
000002f0: 7427 5b3c 5933 dfbb 6e50 4dbb a175 73bc
00000300: ee85 163b c2c8 c23c b746 ea3b 0c46 a6bb
00000310: bf7b 5e3c d603 7bbc 9212 8bbc cc24 61ba
00000320: a203 0abc 731d 583c b0ba 0ebc e79d 063c
00000330: 632f 5cbc 87f6 7b3a a6c2 7abb cc54 a93b
00000340: ee97 5e3c bdc7 dbbb 354a 9e3b ddd9 da3b
00000350: dbaf 463c b7f3 6dbc 4a59 7abc 80ea 0f3c
00000360: ca10 4e3b c72e 273b 3320 c6bb e481 ab3b
00000370: e380 c6bb 39f2 dc3b de2a 9dbb 8fdc 713b
00000380: 6d8b 1a3c d679 c73b 74bd 02bc 9eb1 00bb
00000390: 8f80 8d3b dd47 593c 4837 e3ba 32d6 383c
000003a0: 5d3d 7b3c 03e0 75bb b6c6 ec3b 20d3 06bc
000003b0: 0d6b 13ba d66e 87bc 0987 a6bc 96a8 07bc
000003c0: 1e36 06bc 1f21 c5ba 43d7 cf3a cd37 553a
000003d0: 6059 e53b bbf8 87ba 2207 e4bb e4df 2c3c
000003e0: 7bd4 56bb a2d3 323c 24fe 7c3c 78b7 febb
000003f0: 0ea6 cc3c 0d3a 5f3b e5db 2bbc 8337 8bbc
-0.012973904 0.0025845785 -0.0026584251 0.0030865064 -0.0030898983 -0.006737783 -0.0028576583 -0.01407744
-0.0061395587 0.010848815 0.0005067756 -0.0010945745 -0.016694304 0.0030506984 0.009692525 0.00016328043
-0.0024788298 0.00010450279 0.004277148 -0.0065918826 0.013460856 -0.004213507 -0.0007741993 -0.005086892
0.012365501 -0.005102939 -0.00532265 0.015934069 0.007899553 -0.0011868164 0.0057040714 -0.003606067
-0.0024349533 -0.0022620265 -0.0132774105 0.006806193 0.005993135 0.0047123292 -0.0004838278 -0.011013775
-0.0028904646 0.00856871 -0.008070194 0.00458875 0.00014317878 0.0063276663 0.014584249 -0.009221216
0.00899683 -0.0024552708 -0.010338459 -0.019223008 0.00940027 0.006141948 -0.0037024575 -0.0002274919
-0.022381317 0.0007665121 0.0127976285 -0.015642578 -0.0063615823 -0.0005974811 0.010065822 0.0025183235
-0.011589101 -0.01103134 0.012061773 -0.012030905 -0.00025830566 0.0003661686 0.010016546 0.0021014283
-0.008274788 0.012550799 0.006014656 0.017037978 -0.008122862 -0.0014795659 -0.016685277 0.0036751593
-0.0038116076 0.00118564 -0.00827695 0.007933374 0.015611976 0.0009231227 0.012028566 0.008220215
0.006572696 0.012431671 0.015713975 -0.009642683 0.014668624 0.0028537023 -0.010701342 -0.0008488009
-0.0005843427 -0.01149284 0.006968849 -0.0072122426 -0.0027403736 -0.005506431 -0.02181922 0.003147953
-0.021514274 -0.0048383605 0.019049203 0.0067108073 -0.00010719763 0.005056235 0.010594903 0.008332734
-0.013565281 0.021352887 -0.0078189615 -0.013107839 0.011864861 -0.01684205 0.0009701316 0.0030667356
0.0031300294 0.008207159 -0.018669946 0.0028834555 0.0018200282 -0.0004477991 1.3672418e-05 0.0057513784
0.0077006547 -0.015154471 -0.0023858855 -0.006505843 -0.008425545 -0.0003241803 0.015522181 -0.017333701
0.005456622 0.0031898236 0.015577159 -0.0021920332 0.0017745325 0.013158797 -0.015261563 0.012084769
-3.719131e-05 0.016100088 -0.006804569 0.026559427 0.011660792 -0.0136611825 -0.010209004 0.011415248
0.019560048 0.011795838 0.0032595457 -0.010914711 -0.004687301 0.005292967 0.0063313395 0.0035648649
0.0023872757 0.010682732 -0.0056810644 0.012243513 0.0075235805 0.008692107 -0.008704872 0.0044648373
-0.001437723 -0.0065047126 0.008843222 -0.013077803 0.007286765 0.0025769651 -0.0021769148 -0.0026131326
-0.004429092 -0.010082344 -0.016717391 -0.005726676 -0.0061890157 -0.009259034 0.025537074 -0.0017969542
0.0033154597 -0.011003258 -0.001590231 -0.00390523 0.013376106 -0.006811541 -0.0031328457 -0.014859588
0.0022968012 0.02377737 0.007149543 -0.005074268 0.013579308 -0.015320739 -0.016976628 -0.0008588552
-0.008423718 0.013190615 -0.008711502 0.008216358 -0.013439032 0.00096116256 -0.0038262992 0.0051675793
0.013586028 -0.0067071603 0.0048306235 0.0066788034 0.012126888 -0.014523438 -0.015280077 0.0087839365
0.0031443113 0.002551006 -0.006046319 0.00523399 -0.006057845 0.0067427424 -0.00479637 0.0036905145
0.009432656 0.006087522 -0.007979739 -0.0019637118 0.004318304 0.013261762 -0.0017335201 0.011281537
0.015334454 -0.0037517555 0.0072258366 -0.008229047 -0.0005623557 -0.016532343 -0.020328062 -0.00827994
-0.0081916135 -0.0015039778 0.0015857 0.000813362 0.0069991797 -0.001037381 -0.006958858 0.010551427
-0.0032780457 0.010914715 0.015441451 -0.007773336 0.024981525 0.00340617 -0.010489439 -0.016994243

hidden_features.2.bias f4 [50]
00000000: 3c52 62b8 0610 2fb9 8e55 163c acad 613b
00000010: f5dc f7ba e569 453b 7a12 acbb 3e6d 903c
00000020: bd45 e03c e996 5fbb b00a 42ba c2d5 86bb
00000030: 1bd9 5a3a 5fd6 c53c cf30 2a3a fc14 9cb8
00000040: 7764 0bbb ff01 dbba 6121 f63c 0000 0000
00000050: 0de4 533b 7b9b e33a 0000 0000 e0fb 70bb
00000060: 0bcf a7bb a847 b8ba 4aa2 ab3c fd0b ac3c
00000070: 9e32 2f3a 6ca7 d63a 1ae0 a739 7281 133c
00000080: f7f5 9aba d45b 5e3c 8cfb 4e3c 509f 473c
00000090: 3a8e 7fba 1f80 213b ea03 16bb 14cb 79bb
000000a0: 143b 6bbb 489f 09bb bddb ce3c 304c 133d
000000b0: 0000 0000 33ee ebba e875 d03b a16d 66bb
000000c0: c3f0 2bb9 0000 0000
-5.3959186e-05 -0.0001669527 0.009175671 0.0034435792 -0.0018910455 0.0030122933 -0.005251226 0.017630216
0.027377004 -0.003411705 -0.0007402105 -0.0041148374 0.0008348391 0.024150072 0.00064922584 -7.442568e-05
-0.0021269599 -0.0016708969 0.030045213 0.0 0.0032331974 0.0017365062 0.0 -0.0036771223
-0.005121117 -0.0014059441 0.020951409 0.02100181 0.0006683263 0.00163768 0.0003201969 0.00900303
-0.0011822571 0.013571698 0.012633216 0.012183979 -0.00097486714 0.0024643017 -0.0022890517 -0.0038115429
-0.0035893368 -0.002099948 0.025251264 0.03596133 0.0 -0.0018000066 0.006361712 -0.0035160559
-0.00016397522 0.0

density_estimator_head.weight f4 [50, 11]
00000000: bba1 17ba 9845 823b 70e3 ba3a b440 d63b
00000010: 3e5b 723b d822 5d3b c714 8abb 8bca 82bc
00000020: 3670 c83a 1b63 25bc 8961 c3bb e48f 813c
00000030: 051a 99bc c0e0 23bc 41c1 493b 7829 aabb
00000040: bbb2 b03a b54b f3bb f707 a8bb d39c 443c
00000050: a5ce 2cbc b982 a5bc 26e6 2bbc 20bc eb3b
00000060: c381 523c 1977 d9bb 9ccb f6bb 2c91 fc3b
00000070: ce2f 673c 2153 78bb 9cf1 383a a917 a73b
00000080: ffc2 acbb 4bf3 7b3c 63c4 17ba f6ee 163b
00000090: e15f 9a3b 42a2 02bc b590 553b 8563 dbbb
000000a0: 1608 d9b8 7506 273c 9922 b4bc e55b 68bc
000000b0: 4f9c 383c 316e 27ba b53b cb3c 92a6 743c
000000c0: 91da 023c e227 91bc 4223 64bc 7f0a 673b
000000d0: 6ab2 f23b 8070 ac3b c7f8 92bc d19f be3a
000000e0: 6f71 dfbb c36b 103c 2afa 16bc 6db1 453c
000000f0: 678d 28bb 9b7d 083c 55b5 d63b 9e0d a93b
00000100: 3214 bebc f4a1 6439 3967 90bc 8396 533c
00000110: d7c7 933b a0cc c13b 3d98 6abb 2d45 ae3b
00000120: fde5 983b c17e 2a3c 4960 7939 32c8 1c3c
00000130: b15c 503b a446 16bc 0f4a 8a3b 6cd7 1e3c
00000140: 93af 21bb 9950 283c 8868 dd3b 6e3d 403c
00000150: 01db 9c3b 51a5 b33a a00b e2ba d617 e63b
00000160: dbcf 03bc 4797 d9bb ed11 313b 5366 823c
00000170: 3193 c4ba 0451 af3b 012e dabb 3aaf 813c
00000180: 4368 503c 156d d53b e4ba 66ba ad7e 0cbc
00000190: 7ccc 023c 4bfa 3f3a da4e b2ba bbfb 353c
000001a0: 713c c4bc ee82 d6bb a683 06bb a2b8 47bc
000001b0: 2119 633c f8bd 4bba 357a f7bb 4e09 9d3b
000001c0: fc8e 053c 70c7 e7bb f888 86bc 530b ee3c
000001d0: 6d57 e1b9 ede4 b03b 6fb9 173c d03b 833b
000001e0: 12b1 233b e29c cab9 5712 caba 1f78 91bb
000001f0: 76cf 85bb 148b e63b d7b5 8d3c 7113 d2bb
00000200: 0f47 10bc 53cd 093c 7933 a1bb a555 ccbb
00000210: 0837 7bba 9dd9 133c 70e3 51ba d976 f03b
00000220: f0a5 263c 3382 ec3b d843 433c aea4 063c
00000230: fab7 b6bb 732a 823c 288e f63b 8ed0 5d3c
00000240: 3bc3 a43b 095e b93c df48 aa3b c2b3 083b
00000250: 1b55 b63b ce8c 473c 25e3 cbbb 5bbd 523b
00000260: 4771 8a3b 7f0d 873b e876 ac3c 2f34 2dbc
00000270: 820e cbba fcb8 40ba ecef 1c3c bca0 51bc
00000280: 8717 bdba 7401 a8bb 03ff 423b 7b58 653c
00000290: 1841 a03b 0166 493c 9dd5 143c 47ff 8fbc
000002a0: 588c 90bb 0627 40bb 5cb0 ac3c fae8 3d3c
000002b0: b102 27bc 797f 5fbc ca42 86bc 9dde 5c3b
000002c0: 0f23 9e3b 0db2 4139 efae 73ba 21ad 843a
000002d0: 201f 3dbb 42cb afbb 6531 8b3b 9142 0cbc
000002e0: 2144 11bb 4967 03bb 410a 2fbb b02f 153c
000002f0: 026b 05bc 9718 b13b 7c3c 7fbb 157b 3abc
00000300: 8c69 46bb 46a7 213d f0bb 36bc 5a63 953b
00000310: fa0e febb d591 643c 752d a6ba 64f3 1cbc
00000320: c6ba 32bc b88d 49bc 7f70 093b e405 ddbb
00000330: 3fdb 2a3c 603a bf3b 1d52 3bbc 663f 89bb
00000340: ebe1 ebbb 279c 313c c9b4 423c 7e8b 9dbb
00000350: 9343 62bb dc26 453c 55e7 7dba 4907 42bc
00000360: 2d19 74bc 4367 043c 170f aa3c 534a 14bc
00000370: 88d0 113c e94a 053b 507e 5d3b 21f2 79bc
00000380: 7026 54b9 86bb 913b f21f 52bb 6306 40bc
00000390: bf98 23bc 5964 9fbc e96d 103c 4bcb e73b
000003a0: eb7a d9ba 8654 84ba c446 563c bb05 d53b
000003b0: 595b ba3b 292c 2bbc 602c 52bc c74e 333b
000003c0: 5aac d1ba eb6b b3b9 0eb0 8abc a225 75bb
000003d0: 7186 33bb fac4 7bbc b3fc 06bc ac39 a03b
000003e0: 1a2d f6bb 1d2e 1f3c 72ee 54bc 9785 483b
000003f0: 824d 35bb 5360 ccba ba70 e139 bb88 00ba
-0.00057842926 0.0039755814 0.0014258455 0.006538475 0.0036980654 0.0033742692 -0.0042139026 -0.01596572
0.001529223 -0.010094429 -0.005962555 0.015815683 -0.018689165 -0.010002315 0.0030785354 -0.0051929317
0.0013481 -0.0074247965 -0.0051279026 0.01200028 -0.010547315 -0.020203935 -0.010491883 0.007194057
0.01284832 -0.006636512 -0.0075315963 0.0077077355 0.014110519 -0.0037891346 0.00070550456 0.005099256
-0.005272269 0.01537783 -0.0005789457 0.0023030615 0.0047111367 -0.007973256 0.0032587473 -0.0066952133
-0.000103488725 0.010194411 -0.021989154 -0.014182066 0.011267736 -0.0006386964 0.024808744 0.014932292
0.007986681 -0.017719213 -0.013924422 0.003525406 0.0074065225 0.0052624345 -0.017940892 0.0014543479
-0.0068189423 0.008814755 -0.009214917 0.012066227 -0.0025719048 0.008330728 0.006552378 0.005159094
-0.02320299 0.00021804107 -0.017627345 0.012914303 0.0045099068 0.005914286 -0.0035796307 0.005318305
0.0046660886 0.010406197 0.0002378236 0.009569215 0.003179353 -0.0091721155 0.0042202543 0.009694915
-0.00246713 0.010273122 0.006756846 0.011733396 0.0047868495 0.0013705884 -0.0017245896 0.0070218844
-0.008045162 -0.006640348 0.0027018741 0.015917933 -0.001499748 0.005350234 -0.006658316 0.015830625
0.01272017 0.0065132477 -0.00088016526 -0.008575124 0.007983323 0.00073233683 -0.0013603822 0.0111073805
-0.023954602 -0.0065463698 -0.0020525246 -0.012190016 0.013860972 -0.0007772143 -0.00755241 0.004792369
0.008151766 -0.0070733353 -0.016422734 0.029058134 -0.00042980482 0.005398384 0.009260519 0.004004933
0.0024977368 -0.0003864533 -0.0015416843 -0.0044393684 -0.004083569 0.0070356224 0.017298622 -0.006411009
-0.008806004 0.0084107695 -0.004919466 -0.0062357956 -0.00095830904 0.009024051 -0.0008006608 0.0073383865
0.0101713985 0.0072176694 0.011918031 0.008217974 -0.005576131 0.015889382 0.0075242706 0.013538493
0.005028156 0.022627847 0.005196675 0.0020859097 0.0055643446 0.012179567 -0.006222146 0.0032156322
0.0042249295 0.004121482 0.021052793 -0.010571524 -0.0015491995 -0.00073517836 0.009578686 -0.01279467
-0.0014426567 -0.0051271264 0.002975405 0.013998146 0.0048905723 0.012292386 0.0090841325 -0.01757778
-0.0044112615 -0.0029320135 0.021080188 0.0115911905 -0.010193513 -0.013641232 -0.01638927 0.0033702024
0.0048259567 0.00018472243 -0.00092957815 0.0010122397 -0.0028857663 -0.0053648064 0.0042478316 -0.008560793
-0.0022165852 -0.0020050576 -0.0026708993 0.009105608 -0.008143188 0.0054045427 -0.0038945964 -0.011381884
-0.0030275313 0.039466165 -0.011153206 0.004558963 -0.00775325 0.013950785 -0.0012678342 -0.009579513
-0.010908788 -0.012301855 0.0020971594 -0.006745087 0.010428249 0.0058358163 -0.011433152 -0.004188466
-0.0071985624 0.010840452 0.011883923 -0.0048078885 -0.003452514 0.012033191 -0.0009685655 -0.011842557
-0.0148985805 0.00808126 0.020759149 -0.009050923 0.008899815 0.002033884 0.0033797212 -0.015255482
-0.00020232215 0.0044474034 -0.0032062498 -0.011720273 -0.009985148 -0.01945703 0.008815267 0.007073795
-0.0016592419 -0.0010095991 0.013078395 0.0065009273 0.005687159 -0.01044754 -0.012827963 0.0027360187
-0.0015996799 -0.00034221946 -0.016929653 -0.0037406464 -0.0027393366 -0.015366787 -0.008238959 0.0048896875
-0.0075127007 0.009715584 -0.012996303 0.0030597204 -0.0027664606 -0.0015592672 0.00042999332 -0.0004903187

density_estimator_head.bias f4 [11]
00000000: 88a8 0dbd 529c c7bc 62fb 7fbc 03b5 f5bb
00000010: 0ae8 52bb 4b44 8839 50b8 b538 7c47 2e3c
00000020: 04b3 943c 21c1 053d 8385 c03c
-0.034584552 -0.024366532 -0.015623899 -0.007498385 -0.0032181763 0.00025990824 8.6650834e-05 0.01063716
0.018151768 0.032654885 0.023501163

Q1.0.weight f4 [50, 50, 5]
00000000: 5e3e 643d b7d4 16bf 9de6 063e ddab ddbf
00000010: 2134 2c3f 3dcf c13e 3536 b2bf 6ad0 4fbe
00000020: 1f80 b13e d602 ffbe 5e86 83bd 1f65 213e
00000030: b399 233f 020f 8cbf 458e 8abf 29e1 023d
00000040: 3df9 243f 26a8 f03e a8d0 6cbf e596 843e
00000050: b366 8c3c c4f7 75bf 94aa 20bf 7d73 ab3d
00000060: 48a6 f13f e0eb 00bf 0b79 d73e 8a27 753e
00000070: ceef be3f 4996 aebe 834b 0abf a415 c6be
00000080: 9228 a63f 990c 3e3e 1d04 fabe 19f3 6a3f
00000090: 1a04 71bf dd2a e5bf 0859 be3e 89b5 0dbf
000000a0: b1cf 1d40 e6b1 cd3d 69a0 a8bf 7931 5cc0
000000b0: a788 f83e a98f d13f 4d82 483d 5a78 03bf
000000c0: 02ac 8c3e e929 e2bf cc47 353f 97e3 5c3f
000000d0: 3169 8c3f 9e7d 8a3f 775f 71bc 2b48 863e
000000e0: f470 33bf 3c70 663e 85bc d7bf 6cba d1bf
000000f0: 99ff 39bf 42d6 a13f a25b 223f 114c 7bbf
00000100: 02cc d63e e3bd 923e dfce 703c 3b54 bf3f
00000110: 137b c4bf 1e2c 89be 0d23 d9bf 78ab 58bf
00000120: 7fc2 f2bf 1b85 c53d d962 233f f30f dd3e
00000130: 1be6 203f 6ef3 0dc0 6c91 5c3e 3446 dabe
00000140: 8512 783f eb51 cabe 598f dbbe 589b 123e
00000150: aa0c 9fbf 7004 29bf 9919 b0be 71eb d2bf
00000160: f744 0e3f 907d 62bf 2bcb be3f e2a6 01be
00000170: 1f88 0fbe 13d3 8cbe 18e9 bc3f 423e 1e3f
00000180: 58d8 c6be e6b1 ae3e 14de cbbe b8bf 9cbe
00000190: 36e3 983e 6b51 b6be 955b 9fbf daba 80bf
000001a0: e0ef cc3e 5bbb ebbe f768 a23f 518e 80bf
000001b0: 699e 2cbf 712a 78be d7c6 8b3f 0658 dc3d
000001c0: c9ac 443f e9ca 863f 056e bdbe de50 37bf
000001d0: f4c7 5ebf 8f7f 48bf 9556 a6be 2896 273c
000001e0: 4dcc e6bf 4189 b0be 0aef 7ebf 3695 e6be
000001f0: 6199 4cbf 0230 e63f eee2 a7be 6bd6 9ebe
00000200: 9323 16bf eb21 2dbf da38 81bf 27a0 1b3f
00000210: d596 99bf 36f1 c33e 61e0 0ebf 2d06 833e
00000220: 77e9 113f 6e88 0340 0122 bb3e 996c 993d
00000230: 5d89 333f d7e7 7ebf ae04 bc3f 6e84 b83e
00000240: 49f0 2f3f 72dc 983f 32aa 3fbf ade6 9cbe
00000250: df6f 813f 6c70 b23f 85a0 18bf a425 813f
00000260: 03ad 863f 840e 563f d401 77bf c359 b33f
00000270: 68e8 ffbe 4615 8bbf 318c 5f3f fb57 593f
00000280: 7acb 8bbf 0281 6c3f b5f0 01be 8206 6fbf
00000290: 3645 8e3f 78d6 393f 4673 d53f 193e 0b40
000002a0: 3b7d e5be 9bcb d4bf 9a06 9abe f888 f6be
000002b0: be37 8abf 5ed5 223f 2357 d63e a707 13bf
000002c0: b222 27bf 074e 8ebe 63a7 4c3e 5427 1c3f
000002d0: 9096 94bb dbab bbbe 6b1a 903f 7bb8 aa3f
000002e0: 477d 033f 32d3 8abf 7a53 99bf 21bc 9b3f
000002f0: fc8e 67bf 1a3a 273f d392 b2be e9dc 2fbf
00000300: 9646 693f 8a8f a73e 5b0f 1abf a49e 2cbf
00000310: 264e 87bf e651 0a40 58d6 11bf 1096 2740
00000320: 9a43 c83c 4aa0 533f 8791 833f 9008 5c3f
00000330: 3de5 0dbe 9aec 28bd ef21 afbe 469e 973e
00000340: ab59 d43f abba 333f 5de6 0b3f 4d55 24bf
00000350: 65d2 3b3f 8da7 813d f58a dcbf 6546 b93e
00000360: aa04 bbbf 590c 2d40 1f84 613e 9566 3f3e
00000370: e712 72bf f093 28bf e8d3 6e3f 6735 c83e
00000380: 8b35 b7be b565 07c0 188f 7f3f 5c9d ccbe
00000390: f76d d1be 6eb8 60bf 1eed f33f 7a7e a4bf
000003a0: 9e6b cebf 51d2 243e ac42 05bf a56d 06c0
000003b0: adc1 34be 4535 ed3f 9330 d23f 6ba3 4d3d
000003c0: 8ba0 2dbf 7235 b43f e0b7 31bf b425 6ebe
000003d0: a141 e43f 8439 ccbf c744 013d d364 303f
000003e0: b31b c2be ceec 703e 206a 53bf 9941 32be
000003f0: adc0 66bf 0b70 043f 5659 57be 9089 58bf
0.05572354 -0.5891833 0.1317391 -1.7318074 0.6726704 0.37853423 -1.3922793 -0.20294347
0.3466806 -0.4980685 -0.06422113 0.15761231 0.639064 -1.094208 -1.0824667 0.03195301
0.6444281 0.47003287 -0.92505884 0.25896373 0.017138815 -0.96081185 -0.6276028 0.08371637
1.887887 -0.50359917 0.42084536 0.23940864 1.4916933 -0.34099033 -0.5402147 -0.38688385
1.2981131 0.18559493 -0.48831263 0.9177719 -0.94146883 -1.7903706 0.371773 -0.55355126
2.4658015 0.10043697 -1.3173953 -3.4405196 0.48541757 1.6371967 0.04895239 -0.51355517
0.27474982 -1.766904 0.7081268 0.86284775 1.0969602 1.0819585 -0.014732233 0.26226935
-0.7009423 0.22503752 -1.6854407 -1.6385016 -0.72655636 1.2643511 0.6342107 -0.98162943
0.4195252 0.28660497 0.014697759 1.494758 -1.5350059 -0.2679147 -1.6963822 -0.8463664
-1.8965605 0.096445285 0.63822705 0.4317623 0.62851113 -2.2179828 0.21539849 -0.42631686
0.9690326 -0.39515623 -0.42882803 0.14317071 -1.242574 -0.66022396 -0.3439453 -1.6478101
0.5557398 -0.88472843 1.4905752 -0.12661317 -0.1401677 -0.27504787 1.4758635 0.6181375
-0.38836932 0.341201 -0.3981787 -0.3061502 0.29860848 -0.35608992 -1.2449824 -1.0057023
0.4002676 -0.46041378 1.2688283 -1.0043432 -0.67429215 -0.2423494 1.0920056 0.10758977
0.7682615 1.0530673 -0.36998 -0.7160777 -0.87023854 -0.7831964 -0.32487932 0.010228671
-1.8031098 -0.34479716 -0.99583495 -0.45035714 -0.7992154 1.7983401 -0.3279032 -0.31022963
-0.5864803 -0.6762988 -1.0095475 0.6079125 -1.1999155 0.38269967 -0.55811125 0.2559065
0.56996864 2.055202 0.3654938 0.074914165 0.70131475 -0.9957251 1.4688928 0.36038536
0.6872602 1.1942275 -0.7486907 -0.30644742 1.0112265 1.3940558 -0.59619933 1.0089612
1.0521549 0.836159 -0.96487164 1.4011768 -0.49982 -1.0865867 0.8732329 0.8489987
-1.0921471 0.9238435 -0.12689479 -0.93369305 1.1114872 0.7259288 1.6675804 2.1756651
-0.44822106 -1.6624635 -0.30083162 -0.48151374 -1.0798261 0.6360682 0.41863355 -0.5743355
-0.65287316 -0.27793905 0.19985728 0.6099751 -0.00453455 -0.36654553 1.1258062 1.3337549
0.51363033 -1.0845702 -1.19786 1.2166787 -0.9045255 0.6532303 -0.34877643 -0.6869646
0.9112333 0.327267 -0.6017968 -0.67429566 -1.0570724 2.1612487 -0.5696769 2.618534
0.024446297 0.82666457 1.0278786 0.85950565 -0.13856979 -0.041241266 -0.34205577 0.2961294
1.6589864 0.7020671 0.5464838 -0.6419266 0.7336791 0.06330786 -1.7229906 0.3618652
-1.4610798 2.7038786 0.22023056 0.18691476 -0.9456009 -0.65850735 0.93292093 0.39103243
-0.35783038 -2.1155827 0.9982772 -0.39963806 -0.4090421 -0.8778142 1.9056737 -1.2851098
-1.6126592 0.16095854 -0.5205486 -2.1004422 -0.17652006 1.8531882 1.6421074 0.050204676
-0.67823094 1.407881 -0.69421196 -0.2325657 1.7832528 -1.5955052 0.03155973 0.68903846
-0.37911758 0.23527834 -0.8258381 -0.17407836 -0.9013775 0.51733464 -0.21030173 -0.84584904

Q1.0.bias f4 [50, 5]
00000000: dc63 c9b8 5fa1 efb8 94bd f9b8 b5d7 64b8
00000010: 33aa 60b7 7931 0136 f2b1 f635 7ae3 eb35
00000020: b664 4a35 2886 3634 9994 51ba 77a2 fdb8
00000030: 9394 f03a ac7e 913a 5578 14ba 8d4f d3b8
00000040: cced 55b7 99db acb5 0000 0000 0000 0000
00000050: 795d b1ba 2c84 a3ba 05d5 58b9 7a28 0e3a
00000060: 7aab 3a3a 3274 2bb9 9805 ba3a cd7b 8e3a
00000070: 7c36 fb38 cab2 c4b9 8246 5cba 1be4 e5b9
00000080: 9fc4 73b9 9508 72b8 5a1d 70b7 0cd2 b8b9
00000090: b545 47ba 8a6d be38 2f8d 313a 13e8 5f3a
000000a0: 4077 a33b de7a cd39 0528 c039 fb3b 473a
000000b0: db41 a33a 8b21 99b7 9e40 abb7 385a b4b7
000000c0: 3afc 27b7 a603 26b6 600a de37 836b b637
000000d0: dc60 c137 5316 4037 9626 7536 8916 92b9
000000e0: 0ff4 abba 38e7 cc38 f6d8 7d3a f991 8b3a
000000f0: db06 813c 3053 2c3c 50ec c33b 6617 473a
00000100: 2495 66ba ded5 69ba ea1a 58bb 96f1 8fbb
00000110: 2597 03bb 70e5 a738 bff3 1b3a 721e 4b3a
00000120: 843f f73a 6d43 843a d649 7cb9 155f 2eba
00000130: 381c 94ba f0cb 72b9 5a50 393a 431c 9c3a
00000140: 37c0 1abb d153 0b3b b2d0 b03b 2804 743b
00000150: 3254 ca3a 7a77 263b 04d4 bd3a 5556 1a3b
00000160: 686c c63a 6d0a 0f3a ffb0 8c39 e7fb 0538
00000170: 6d92 db39 ec2d 223a 35e5 4a3a c59f 543b
00000180: bdb5 8a3b 3abe 823b 410e cb3a 63da 0138
00000190: 930f 19ba 0310 5839 374d e03a 6c94 b13a
000001a0: 2b7e 073a ce49 76bb 017f 06bb 4ae6 09ba
000001b0: b7e1 d839 082c f739 76db a63a 2802 e639
000001c0: f852 ecb9 cc5f 3cba f1b8 30ba 427f dc35
000001d0: 57ea 2033 8373 7bb4 504d e3b3 ebab 17b1
000001e0: d5ba 2a3a 6732 8e39 d504 ff37 dc69 3cb7
000001f0: f5bf d038 3948 a03a 5635 5c3b 0bdf 973b
00000200: 92c5 303b 4452 9d3a e896 dbb9 f9a0 bc39
00000210: e263 033b f2dd 5f3a ef2d 8dba b918 18bb
00000220: c955 a3ba 1746 bab8 5d92 ff39 a4ce f339
00000230: 0b90 c8b9 abf2 403a f9bf ae3a dda4 3b3a
00000240: e5a6 9038 e585 a338 0ed7 8839 c6ed b738
00000250: bdf2 40b8 9d0a 5eb8 bd9a 88ba 0e85 bfb9
00000260: e106 dbb8 7510 0e38 5af7 f737 d70a 90b9
00000270: 0706 0cb9 996d 053a 04a5 8f39 27d9 aab9
00000280: 90b1 42ba 972a 9139 164e bd3a 3d52 913a
00000290: 6e4e f239 0000 0000 0000 0000 0000 0000
000002a0: 0000 0000 0000 0000 932c 803b 423c 373b
000002b0: 1df7 a83a 55ef 5bb9 f73f 4eba 7858 8ab7
000002c0: ac58 b7b7 0840 d8b7 3cfa 5bb7 cd8c 70b6
000002d0: a236 d3bb dc50 88bb 66c4 20bb 98d4 d7b9
000002e0: 6660 7539 dd6a a33b 7339 ac3b 760b b13b
000002f0: d374 213b c0a5 1a3a 286e 60bb a670 03bb
00000300: e08a 52ba 5227 97b7 a74d 95b3 8c5e 7837
00000310: 5685 0c37 373e 9f36 d82b 5f35 0000 0000
00000320: 3b44 2dba 2186 2bb9 24f7 6eb8 6b5f b2b6
00000330: dca0 e534 682e c3b8 4f69 42ba 945d 1bba
00000340: 0dff 16b9 059f 7138 5b3f d235 0f4d 1e34
00000350: e560 6e32 0000 0000 0000 0000 fd09 cd3b
00000360: 56d4 af3b 7b34 3d3b f56d 5f38 3223 3fba
00000370: f565 9e3b e2a2 1338 0a00 48b9 e298 0d35
00000380: 62f4 32b3 eff1 8938 520e 6039 9e47 0436
00000390: 9351 dbb8 d67a a8b8 f92a aa3b 6f08 5f3b
000003a0: f74d b13a 228c a8b9 8012 3cba e705 58ba
000003b0: a72c 803a 702f 2d37 7491 3aba a8d1 85ba
000003c0: 070a 3a35 fc65 1335 fe27 bd34 0efc d033
000003d0: 7bfd 0133 4860 e837 69c8 1b3a e3a7 a939
000003e0: 370c 92b8 3db4 6fb9
-9.603027e-05 -0.00011426466 -0.00011908557 -5.456033e-05 -1.3391068e-05 1.9251295e-06 1.8380217e-06 1.7575069e-06
7.539742e-07 1.6998877e-07 -0.000799486 -0.000120942415 0.0018354825 0.0011100373 -0.0005663683 -0.000100760815
-1.2751156e-05 -1.287891e-06 0.0 0.0 -0.0013531885 -0.0012475303 -0.00020678721 0.00054229016
0.0007120889 -0.00016351117 0.0014192341 0.0010870636 0.00011978761 -0.0003751724 -0.00084028405 -0.00043848236
-0.00023247533 -5.770529e-05 -1.4311949e-05 -0.00035251712 -0.0007601635 9.080309e-05 0.0006773052 0.00085413567
0.004988581 0.0003919219 0.0003665091 0.00076001853 0.001245554 -1.8254641e-05 -2.0414878e-05 -2.1499683e-05
-1.0012702e-05 -2.4738051e-06 2.6469294e-05 2.1746155e-05 2.3052497e-05 1.144929e-05 3.6530305e-06 -0.0002786408
-0.0013119 9.770546e-05 0.0009683514 0.0010648362 0.01575034 0.01051788 0.0059790984 0.0007594734
-0.00087960274 -0.00089201133 -0.0032975026 -0.004392813 -0.0020079103 8.0059166e-05 0.0005949102 0.0007748372
0.0018863534 0.0010090895 -0.00024060099 -0.00066517416 -0.0011299914 -0.00023154891 0.0007069163 0.0011910278
-0.0023613104 0.0021259675 0.005395972 0.0037233923 0.0015436469 0.0025400803 0.0014482741 0.0023549993
0.0015138509 0.00054565707 0.00026834753 3.1944273e-05 0.0004188003 0.00061866525 0.0007739843 0.0032443863
0.0042330907 0.003989962 0.0015491919 3.0959385e-05 -0.00058388076 0.0002060533 0.0017112856 0.0013548261
0.0005168642 -0.0037580612 -0.0020522478 -0.0005260451 0.000413669 0.00047144317 0.0012730199 0.00043870625
-0.00045075244 -0.00071859057 -0.00067414256 1.6428314e-06 3.7466034e-08 -2.341822e-07 -1.0584574e-07 -2.2071116e-09
0.00065128255 0.00027121903 3.0400619e-05 -1.12303205e-05 9.953968e-05 0.0012228555 0.0033601127 0.004634743
0.002697323 0.0012002666 -0.0004188337 0.00035978088 0.0020048548 0.00085398473 -0.0010771136 -0.0023208095
-0.0012461479 -8.8822264e-05 0.0004874644 0.0004650253 -0.00038254293 0.0007360379 0.0013332359 0.00071580504
6.8975416e-05 7.7973855e-05 0.0002610017 8.770409e-05 -4.6002435e-05 -5.293881e-05 -0.0010422092 -0.00036529492
-0.00010444015 3.3870765e-05 2.9559877e-05 -0.00027473897 -0.00013353686 0.00050898787 0.00027398032 -0.00032586718
-0.00074269716 0.00027688287 0.0014442827 0.0011087131 0.00046216272 0.0 0.0 0.0
0.0 0.0 0.0039115637 0.00279595 0.0012891028 -0.00020974626 -0.0007867808 -1.6492078e-05
-2.1856591e-05 -2.5779023e-05 -1.3111679e-05 -3.5844744e-06 -0.0064457217 -0.00416003 -0.0024531125 -0.0004116639
0.00023400932 0.0049871043 0.005255872 0.0054029776 0.0024636283 0.00058993325 -0.0034245346 -0.0020056157
-0.0008031558 -1.8018913e-05 -6.952478e-08 1.4803965e-05 8.375695e-06 4.745812e-06 8.3137775e-07 0.0
-0.00066095934 -0.00016357798 -5.697379e-05 -5.3159215e-06 4.2771615e-07 -9.3069684e-05 -0.0007416205 -0.0005926725
-0.00014400129 5.7606976e-05 1.5664658e-06 1.474293e-07 1.3875455e-08 0.0 0.0 0.006257294
0.0053658886 0.0028870392 5.326975e-05 -0.0007291316 0.0048339316 3.5199228e-05 -0.00019073501 5.2749067e-07
-4.166612e-08 6.577733e-05 0.0002136764 1.971122e-06 -0.00010457928 -8.033744e-05 0.005193111 0.0034032126
0.0013527264 -0.00032147864 -0.00071743876 -0.00082406256 0.0009778932 1.0322648e-05 -0.0007117011 -0.0010209577
6.930499e-07 5.4910174e-07 3.5233091e-07 9.731603e-08 3.0265692e-08 2.770139e-05 0.0005942644 0.00032359277
-6.964098e-05 -0.0002285996

Q1.1.weight f4 [50, 1, 5]
00000000: 2afa de3e 3603 31be dad7 e83e a0f6 453f
00000010: 1e8a 08bd 9c23 4ebd 319a a4bf 6c12 7f3e
00000020: 955f 973f e185 0d3f e4cb 2a40 2f67 62be
00000030: 1930 88be ecfa 1bbf 5249 063f b523 3bbf
00000040: 201c b2bf 3ecc 7f3f 3c61 993c 1081 95bf
00000050: d23e ecbd 0832 85bf 8e82 2dbf c0b6 82bf
00000060: c62a 943f 6c73 99be 998c 1340 d077 03bf
00000070: fcb7 3fbf ad62 01bf f581 943c 8fde 0b3f
00000080: d70f 14bd 6a87 0e3f 4793 903e e502 77be
00000090: 81c7 b2bf d265 50bf 840a 753d 4a5e 0ebf
000000a0: 4218 b6bf 01b7 4bbf 60e5 70bf 0754 74bf
000000b0: 6e5a 24bf f90a 4ebd e5eb b43e a3dc 363d
000000c0: d835 593e 709b debf 8039 6cbd f525 81bf
000000d0: 2ed0 60bf f87c 373f d9c1 263f 193f 873e
000000e0: ec77 29c0 ed11 1abf f636 00bd 9774 a6bf
000000f0: 190d f33f 0ab8 333f dd76 363e 89f2 9dbe
00000100: e1cd 753f 2103 64bf 0929 b7bf f61e 70bd
00000110: de19 133e c94e d8be dad2 ca3f 01da 08be
00000120: df9c 7ebe 4a52 acbf be98 7c3f 71ec 51bf
00000130: dc0c 9abf f5e5 cdbf 3c56 843e b493 843e
00000140: d627 36c0 fc82 dabe 43e1 c8bd 62ab fbbe
00000150: 048a 37bf 2b2e 443f 5eb6 75bf 700c 6bbf
00000160: 349a 8abf 4f63 1b3f 0d00 2fbf 0efd fdbe
00000170: e5b5 8ebf edd1 143f cbaf 05c0 272f 923f
00000180: 3f4d 4e3f 10f0 a3bf 5fda 68bf b17a 14c0
00000190: 0271 103f e81e 853d 54a3 dbbf 9bdb 00bf
000001a0: b241 ccbf 3bd6 3dbf e192 603f ffd5 abbf
000001b0: cc94 60bf 4f24 f03f efca d43e 51a1 fa3d
000001c0: 3e36 693f 3f31 b63f 41ab 8a3e a91b 643f
000001d0: aa1f 11bf 17ff 28bf 97ab 393f 0043 883c
000001e0: 69ed 56be 8d68 52be 2b06 9abd 696a 533f
000001f0: 26ff d1bf 4954 34bf 9520 8f3f 138c edbf
00000200: bdc8 2ac0 91f7 df3f 17ec 4340 c08f 6c3f
00000210: 3e25 66bf 4fb9 123f 9ef6 45bd f65d d2bc
00000220: 7ae5 30bf e6ac 8fbf 909a 823f 2175 923e
00000230: 149f 273e 3c1f 8d3f 3cea 8abf 8eca 18bf
00000240: 478c 3ebf 5a49 e7bd e36f 3ebd 0ac2 493f
00000250: 1da1 8fbf 2073 623e 3d6f b1bf d414 5bbf
00000260: 9753 493f 6b74 6abe 8fb0 1e3e 29ba 913f
00000270: 7d5d 04bf 6b28 833f 62a0 b0bf a1db 6e3f
00000280: 035c 473e 6176 023f fbaa dcbf 7f03 ddbe
00000290: 81d2 54bf 1aa1 a43f cf4a 2640 5be2 563e
000002a0: 074e 663f 57c3 883f 4cd9 2c3f 3167 783f
000002b0: 3daa 543f 4e70 6cbd c2b2 91bf b77a 653e
000002c0: ddb8 9e3f 4c51 053f 8eef 7dbf 9da6 5fbf
000002d0: 7694 8bbf 68db 0e3e 8878 e43c 7f72 fd3e
000002e0: 6999 21be 55e4 693f 13f1 6bbe d51a 18c0
000002f0: a2d1 633f 30ac 8fbe 0b2a 173f 5cd9 4bbd
00000300: 984f 3e3f 10d7 b6bf bb3f ddbf 616e 0340
00000310: 9d1d 17be 2a31 8a3f 88dc 893e 4344 723d
00000320: 3007 f8bf f7b1 23bf 0096 0440 bb60 823d
00000330: 5102 82bf c706 803e fb55 6abf 7b09 983e
00000340: 9e68 683e 0df0 443f 4c26 59bf ae69 79bd
00000350: d5d2 2e3e d484 b13e 7eb9 16bd b435 94bd
00000360: 094f 2540 e39b 34bf 9afb 9e3f bd5b 413f
00000370: 0418 843f 2ac0 443e e11a 9fbf 12a7 c33f
00000380: 3bde af3e adb4 09be 0ba9 573e 7789 9a3e
00000390: e7ef b0be 7665 473d 68c2 ca3e 5f3c 9f3f
000003a0: f452 b83e d459 9e3e bd4e afbe a7c5 b63f
000003b0: f29d 2cbf aec1 de3f 43dc e53f 3d3f 2bbf
000003c0: 0cf2 f43e 33a5 b2bf f2e5 0c3e 274e f73f
000003d0: d0c8 2fbf c658 00be 0272 773f 2634 b4bd
000003e0: aa66 773e 485d 4abf
0.43550235 -0.17286381 0.45477182 0.77329445 -0.033334844 -0.05032693 -1.2859555 0.24909371
1.1826044 0.5528241 2.6686945 -0.22109674 -0.26599196 -0.6092975 0.5245563 -0.7310136
-1.3914833 0.99921024 0.018723123 -1.1680012 -0.115354195 -1.0405893 -0.67777336 -1.0212021
1.1575553 -0.29970872 2.3054564 -0.51354694 -0.7489011 -0.5054119 0.018128375 0.5463647
-0.03614792 0.55675375 0.28237364 -0.24122198 -1.3967134 -0.81405365 0.05982448 -0.55612624
-1.4226153 -0.79576117 -0.941 -0.95440716 -0.64200485 -0.050303433 0.35336223 0.04464401
0.21211946 -1.7391186 -0.057672024 -1.0089709 -0.87817657 0.7167506 0.6513954 0.26415327
-2.6479445 -0.601836 -0.031302415 -1.300433 1.8988372 0.70202696 0.1781878 -0.30849102
0.9601727 -0.89067274 -1.4309398 -0.058623277 0.14365336 -0.42247608 1.5845597 -0.13364412
-0.24864529 -1.3462613 0.98670566 -0.82001406 -1.2035174 -1.6085802 0.25847042 0.2589394
-2.8461814 -0.42678058 -0.0980859 -0.49154192 -0.7169497 0.76632947 -0.95981395 -0.91815853
-1.0828309 0.6069841 -0.6835945 -0.49607128 -1.114926 0.5813282 -2.0888546 1.142064
0.8058662 -1.2807636 -0.9095821 -2.3199885 0.56422436 0.065000355 -1.7159219 -0.5033509
-1.5957549 -0.74155015 0.8772412 -1.3424681 -0.87727046 1.876108 0.41561076 0.122378
0.9109839 1.4233779 0.2708378 0.89104706 -0.5668894 -0.66014236 0.7252745 0.01663351
-0.20989002 -0.20547695 -0.07520708 0.82584244 -1.640599 -0.7044111 1.1181818 -1.8558372
-2.668502 1.7497426 3.0612848 0.92406845 -0.8990058 0.5731401 -0.048330896 -0.02567957
-0.69100153 -1.122464 1.0203419 0.28604987 0.16369277 1.1025157 -1.0852733 -0.59684074
-0.74432796 -0.112932876 -0.046493422 0.78811705 -1.1221043 0.22114229 -1.3862072 -0.85578656
0.7864317 -0.22895972 0.1549704 1.1384937 -0.5170515 1.024671 -1.3798945 0.9330388
0.19468693 0.5096188 -1.7239679 -0.4316673 -0.83133703 1.2861664 2.598316 0.20984785
0.8996281 1.0684613 0.6751907 0.9703246 0.83072263 -0.05772429 -1.1382678 0.22410093
1.2400166 0.52077174 -0.99193656 -0.87363607 -1.0904682 0.13950884 0.027889505 0.49501416
-0.15781178 0.9136403 -0.23041181 -2.3766377 0.8899175 -0.28061056 0.5904853 -0.049767837
0.743402 -1.4284382 -1.7285074 2.053612 -0.1475739 1.0796254 0.26926064 0.05914713
-1.9377193 -0.6394343 2.0716553 0.06366106 -1.0156957 0.2500517 -0.91537446 0.29694733
0.22696158 0.7692879 -0.8482406 -0.0608918 0.17072614 0.34671652 -0.036797993 -0.072368056
2.582949 -0.70550364 1.2420533 0.75530607 1.0319829 0.1921393 -1.2430078 1.5285361
0.34349236 -0.13447829 0.21060579 0.30183002 -0.3455803 0.048680745 0.39601445 1.2440299
0.36000788 0.30927908 -0.3423976 1.4279069 -0.67428505 1.7402856 1.7957844 -0.6689337
0.47840917 -1.3956665 0.13759592 1.9320725 -0.6866579 -0.12533864 0.9665834 -0.08799009
0.24160257 -0.79048586

Q1.1.bias f4 [1, 5]
00000000: 0a00 d738 68d1 8b38 aa84 0b3a 2899 6d39
00000010: c178 acb9
0.00010252006 6.6670415e-05 0.00053221977 0.00022659136 -0.00032896365
