CausalCVR/logs/simu2/eval/77/Vcnet_tr_ckpt.pth.tar (torch, 123637 bytes, 18 tensors)

feature_weight.weight f4 [50, 8]
00000000: b1bb 203a 80b1 c7bb 785f fabb af0b 78bc
00000010: e2b0 0d3c 6a0c d7bb 89b5 003c d621 2dbc
00000020: b8a0 843b 6d49 34bb f16a ca3b 0d7b 843c
00000030: e463 a2bc 5784 77bb 2e96 abbb e1c0 15bc
00000040: 1cb5 863c c70d 1338 fdaa 9f3b e995 8aba
00000050: c125 47bc f4d3 18ba 7b2c 9b3b 1b9f b0bb
00000060: 01ac 96bc 84b7 6c3b aed1 783c 8c7b 10bd
00000070: 8aca 0fbb 4f8a 76bb e639 ae3b b702 863c
00000080: 47a7 f4bb 60ce 20bc a320 9b3b d3a3 ca3b
00000090: f1e0 e73a 848a 863c 6ded d9ba 660a 183c
000000a0: 1801 043d 5fdc bf3b b07a 073c a839 d73c
000000b0: c8b0 b63c d7db 5a3b 43d7 8dbb 22dc 03bb
000000c0: bbf2 2fbc 39be eebb 975b 003a b1dc dfbc
000000d0: 2e0f 403c ea54 a6bc 2035 3f3b 68bb 8bbc
000000e0: 408c 9e3b ee35 dcbc 2e5f 18bc a0cd 27bc
000000f0: 4266 06bb 62eb 51bc a969 413c 9e45 5d3b
00000100: 63f2 39bb d121 c13b 4842 85bb 6fc5 c4ba
00000110: aca0 d1bb f259 463c 173e 573c 3f9b 72bc
00000120: 38b4 a63c f134 98bc cd65 a73c 7824 2a3c
00000130: 2188 71bb 8260 20bb ece9 1dbc 0efc d0bc
00000140: 49cc 2d3b 5f15 7e3a 884d 523c ec15 b5bc
00000150: dac7 a33b cac8 153c 56de 1ebc c8e7 6a3c
00000160: d626 f53b 6760 b43b ca69 d5bb b903 3c3b
00000170: 681d 1abc 3b56 87bc eac1 5abc 8720 1abc
00000180: 0bcd d73b 3495 87bb f28b 2e3a 1680 d13c
00000190: c41b 9c3a 961e 22bc edc3 b7bb da39 d53c
000001a0: 7ca0 9b3c 1dbf b03c 4626 293c 370f 1c3b
000001b0: d737 413c faf4 a33b 7581 ad3c 736b 6b3b
000001c0: 65bf edbb 2777 92bc 7fbc 2f3c a293 91bb
000001d0: 52be 1439 7ade 273b 5981 153c 1a92 9cbb
000001e0: 5f23 9a3c 76bf 78bb 1823 b53c a16f 173d
000001f0: 18fa 303c 6d31 0ebc 76c9 64ba 4094 deba
00000200: a386 a03c 6ddc 0ebb 94df a73c 2efe b83c
00000210: d4de e43c 4f8f 6e3c 1c09 213c cb8d 79bb
00000220: 4dc9 133a f225 7fba 1b93 8a3b 4a3c 9f3a
00000230: 6ec5 e33c 469f 543b e508 4d3c aabc 0b3b
00000240: aea7 23bc fc63 0b3b 3162 5cbc c652 a93c
00000250: 1f1d fdbb 36d3 59bc ded1 2cbb bc13 3abc
00000260: 3c49 a4bb d6e9 e23b 09d9 13bc 7e72 56bc
00000270: 626f e9bb c0eb 433b de95 393c a684 a537
00000280: 3aa0 e83a 22a3 b1ba ce0c 263c 8098 eb3c
00000290: 3453 543c 68f5 ae3b 3f50 ce3b f3da 8f3c
000002a0: 8d23 80bc a182 ccba d850 703b 5b94 75bc
000002b0: 92a2 85bc 537b 46bc a85f 33bb 88c3 b2bc
000002c0: e11e 893c 6a79 c4bb 458d b5ba dfc9 be3c
000002d0: 8bb5 a8bc 7e93 29bb f24a 913c ba49 4d3c
000002e0: 68fa c43b 042e b9bc d230 893a f028 683c
000002f0: 0df6 693b 8cc3 2dbb 48e0 03bc 3bac 28ba
00000300: 25ac 1fbb 9f59 0a3c 8457 19bc 145c 5abb
00000310: 178f 36bc ff96 febb 64e1 403b 7788 08bb
00000320: 8bc6 2abb fe74 7e3b cb72 7bbc 7257 b5bb
00000330: d102 083b abc0 6e3b 056b de3a 0c6d fcb9
00000340: 84b6 983b b140 87ba 4bef 1c3c 2e60 8f3b
00000350: a8f8 c9ba b191 3c3b 5a7d 9d3c 9f5f 3a3c
00000360: b69c 083d 2ba4 80bc ade7 c9ba 0979 103d
00000370: e663 10bc 24a4 5cbc 9dfc a43c 0ee0 303c
00000380: fceb 9abc ef0a 0a3c fbc2 1cbc d0a4 333b
00000390: 0b65 f7bb 2294 b43c 6214 2ebc 2c27 f8ba
000003a0: 8f84 44bc b0bb a3bc e5b6 a8bb b647 813c
000003b0: d2ea e2bb 3550 8e3b 19da 83bb 74a1 883b
000003c0: f21d d8bb 1b03 68bc 864c 9fba 7743 b53b
000003d0: d422 543b d04f 86bb 21f5 08bc 08be 76bc
000003e0: c108 563c 3f8d 833c 18d5 91bc 5bec 693b
000003f0: 14e6 98bb cbca 1cbb 4f60 923a a10c 9c3a
0.0006131484 -0.0060941577 -0.0076407753 -0.015139504 0.008648129 -0.006562759 0.007855781 -0.010567149
0.0040474795 -0.0027509585 0.006177299 0.016171956 -0.019823022 -0.003776809 -0.0052364087 -0.009140224
0.016443782 3.5060362e-05 0.0048726783 -0.0010573241 -0.012154997 -0.00058299233 0.004735527 -0.0053900606
-0.018392565 0.0036120126 0.01518671 -0.035274073 -0.002194079 -0.003761906 0.0053169606 0.016358716
-0.00746623 -0.009814829 0.004734115 0.00618408 0.0017690939 0.016423471 -0.0016626545 0.009279823
0.032227606 0.0058551277 0.008268997 0.02627261 0.022301093 0.0033395195 -0.0043286397 -0.0020120223
-0.010739024 -0.00728586 0.00048964605 -0.027326914 0.011722369 -0.020304162 0.0029175952 -0.017057136
0.0048384964 -0.026881184 -0.009300036 -0.010241896 -0.0020507728 -0.012812467 0.0118049765 0.003376342
-0.0028373234 0.005893924 -0.004066739 -0.0015012453 -0.0063973274 0.012106406 0.013137362 -0.014807521
0.020349607 -0.018579932 0.020434285 0.010384671 -0.003685482 -0.0024471586 -0.009638291 -0.025510814
0.0026519469 0.00096925156 0.012835868 -0.02210518 0.0049981894 0.00914211 -0.009696564 0.0143374875
0.0074814362 0.005504656 -0.006512855 0.0028688742 -0.009406425 -0.01652061 -0.013351897 -0.009407169
0.0065857223 -0.0041376594 0.0006658427 0.025573771 0.001191013 -0.009894988 -0.005608073 0.026028562
0.018997423 0.021575505 0.0103240665 0.002381278 0.011793098 0.0050035687 0.021179894 0.00359222
-0.007255482 -0.017879082 0.010726093 -0.004442648 0.0001418528 0.0025614784 0.009125077 -0.004778159
0.018815694 -0.0037955916 0.02211146 0.036971692 0.0108018145 -0.008678776 -0.000872753 -0.0016981438
0.01959545 -0.0021798864 0.020492353 0.02258214 0.027938284 0.014560535 0.009828832 -0.00380789
0.0005637601 -0.00097331323 0.004228962 0.0012148705 0.027804103 0.0032443567 0.012514328 0.002132217
-0.009988708 0.0021269312 -0.013451145 0.020669352 -0.007724419 -0.0132949855 -0.0026370208 -0.011357244
-0.005013613 0.006924848 -0.009023913 -0.0130888205 -0.0071238736 0.0029895157 0.011327235 1.9731302e-05
0.0017747947 -0.0013552646 0.010134889 0.028759241 0.01295929 0.0053393133 0.006296187 0.017560458
-0.015641952 -0.0015602895 0.003666928 -0.014988984 -0.016312871 -0.012114364 -0.0027370248 -0.021821752
0.016738357 -0.005995919 -0.0013851306 0.023289619 -0.020594379 -0.0025875266 0.017735932 0.012529785
0.006011296 -0.02260495 0.001046682 0.0141699165 0.0035699636 -0.002651426 -0.008049078 -0.0006434356
-0.002436408 0.008444219 -0.009359244 -0.0033319043 -0.011142514 -0.007769465 0.0029431218 -0.0020833293
-0.0026058282 0.0038827057 -0.015347193 -0.005534106 0.0020753632 0.0036430757 0.001696915 -0.00048146432
0.0046604294 -0.0010318962 0.009578536 0.004375479 -0.0015409188 0.0028773362 0.019224811 0.011375337
0.033352576 -0.015703281 -0.0015404128 0.035271678 -0.00881288 -0.013466869 0.020139987 0.010795606
-0.018911354 0.008425458 -0.009567971 0.0027411468 -0.007549887 0.022043291 -0.010624977 -0.0018932573
-0.011994495 -0.019986957 -0.005148756 0.015781265 -0.0069249654 0.0043430575 -0.004023802 0.0041696373
-0.0065953666 -0.014160897 -0.0012153543 0.005531724 0.0032369392 -0.00409887 -0.008359225 -0.015059955
0.0130636105 0.016058562 -0.017801806 0.0035693857 -0.0046660993 -0.0023924585 0.0011167618 0.0011905619

feature_weight.bias f4 [50]
00000000: eb36 f6b9 91c7 4f3b 93f3 c9ba 1ecb 293c
00000010: 0887 4d3b e816 0b3a 0000 0000 abc6 7c3a
00000020: 283f 84b9 8078 2e3b 7e43 c4ba 5c24 30bb
00000030: bb04 b1bb d2a6 ae3a cbe4 4ebb d073 4a3a
00000040: a72e 8f3a acad 253b 882e ca3b 023e 253b
00000050: bc68 20ba 0000 0000 8a28 02bc 2bef 283b
00000060: d7a6 623b 1f58 d3ba 0e82 593a 51d2 c6ba
00000070: 646a 403c 42e2 d43a 0000 0000 5006 273b
00000080: 5adc 9f3a 4a00 103a fa03 9f3b 132b 2c3a
00000090: 0000 0000 f6b8 09b8 be40 753b 60f9 093b
000000a0: 1868 9bbb 4f4d 933a 77d4 233b 7100 983b
000000b0: e96e 953a da96 ad3a 7476 463c 5f1f f23b
000000c0: 8e9c 873a 39e7 3c3b
-0.00046961693 0.0031704644 -0.0015407674 0.010363368 0.0031361002 0.00053058425 0.0 0.0009642641
-0.00025224057 0.0026622117 -0.0014973728 -0.002687714 -0.0054021752 0.0013324863 -0.0031569477 0.0007722946
0.0010923938 0.0025280518 0.0061700977 0.0025213961 -0.0006119122 0.0 -0.007944236 0.002577732
0.0034584308 -0.0016124285 0.0008297273 -0.001516888 0.0117441155 0.0016241746 0.0 0.002548594
0.0012196407 0.0005493207 0.004852769 0.0006567698 0.0 -3.2835604e-05 0.0037422623 0.002105318
-0.0047426336 0.001123825 0.0024998465 0.0046387245 0.0011400852 0.001324381 0.012113202 0.0073889936
0.001034634 0.0028824343

hidden_features.0.weight f4 [50, 8]
00000000: b1bb 203a 80b1 c7bb 785f fabb af0b 78bc
00000010: e2b0 0d3c 6a0c d7bb 89b5 003c d621 2dbc
00000020: b8a0 843b 6d49 34bb f16a ca3b 0d7b 843c
00000030: e463 a2bc 5784 77bb 2e96 abbb e1c0 15bc
00000040: 1cb5 863c c70d 1338 fdaa 9f3b e995 8aba
00000050: c125 47bc f4d3 18ba 7b2c 9b3b 1b9f b0bb
00000060: 01ac 96bc 84b7 6c3b aed1 783c 8c7b 10bd
00000070: 8aca 0fbb 4f8a 76bb e639 ae3b b702 863c
00000080: 47a7 f4bb 60ce 20bc a320 9b3b d3a3 ca3b
00000090: f1e0 e73a 848a 863c 6ded d9ba 660a 183c
000000a0: 1801 043d 5fdc bf3b b07a 073c a839 d73c
000000b0: c8b0 b63c d7db 5a3b 43d7 8dbb 22dc 03bb
000000c0: bbf2 2fbc 39be eebb 975b 003a b1dc dfbc
000000d0: 2e0f 403c ea54 a6bc 2035 3f3b 68bb 8bbc
000000e0: 408c 9e3b ee35 dcbc 2e5f 18bc a0cd 27bc
000000f0: 4266 06bb 62eb 51bc a969 413c 9e45 5d3b
00000100: 63f2 39bb d121 c13b 4842 85bb 6fc5 c4ba
00000110: aca0 d1bb f259 463c 173e 573c 3f9b 72bc
00000120: 38b4 a63c f134 98bc cd65 a73c 7824 2a3c
00000130: 2188 71bb 8260 20bb ece9 1dbc 0efc d0bc
00000140: 49cc 2d3b 5f15 7e3a 884d 523c ec15 b5bc
00000150: dac7 a33b cac8 153c 56de 1ebc c8e7 6a3c
00000160: d626 f53b 6760 b43b ca69 d5bb b903 3c3b
00000170: 681d 1abc 3b56 87bc eac1 5abc 8720 1abc
00000180: 0bcd d73b 3495 87bb f28b 2e3a 1680 d13c
00000190: c41b 9c3a 961e 22bc edc3 b7bb da39 d53c
000001a0: 7ca0 9b3c 1dbf b03c 4626 293c 370f 1c3b
000001b0: d737 413c faf4 a33b 7581 ad3c 736b 6b3b
000001c0: 65bf edbb 2777 92bc 7fbc 2f3c a293 91bb
000001d0: 52be 1439 7ade 273b 5981 153c 1a92 9cbb
000001e0: 5f23 9a3c 76bf 78bb 1823 b53c a16f 173d
000001f0: 18fa 303c 6d31 0ebc 76c9 64ba 4094 deba
00000200: a386 a03c 6ddc 0ebb 94df a73c 2efe b83c
00000210: d4de e43c 4f8f 6e3c 1c09 213c cb8d 79bb
00000220: 4dc9 133a f225 7fba 1b93 8a3b 4a3c 9f3a
00000230: 6ec5 e33c 469f 543b e508 4d3c aabc 0b3b
00000240: aea7 23bc fc63 0b3b 3162 5cbc c652 a93c
00000250: 1f1d fdbb 36d3 59bc ded1 2cbb bc13 3abc
00000260: 3c49 a4bb d6e9 e23b 09d9 13bc 7e72 56bc
00000270: 626f e9bb c0eb 433b de95 393c a684 a537
00000280: 3aa0 e83a 22a3 b1ba ce0c 263c 8098 eb3c
00000290: 3453 543c 68f5 ae3b 3f50 ce3b f3da 8f3c
000002a0: 8d23 80bc a182 ccba d850 703b 5b94 75bc
000002b0: 92a2 85bc 537b 46bc a85f 33bb 88c3 b2bc
000002c0: e11e 893c 6a79 c4bb 458d b5ba dfc9 be3c
000002d0: 8bb5 a8bc 7e93 29bb f24a 913c ba49 4d3c
000002e0: 68fa c43b 042e b9bc d230 893a f028 683c
000002f0: 0df6 693b 8cc3 2dbb 48e0 03bc 3bac 28ba
00000300: 25ac 1fbb 9f59 0a3c 8457 19bc 145c 5abb
00000310: 178f 36bc ff96 febb 64e1 403b 7788 08bb
00000320: 8bc6 2abb fe74 7e3b cb72 7bbc 7257 b5bb
00000330: d102 083b abc0 6e3b 056b de3a 0c6d fcb9
00000340: 84b6 983b b140 87ba 4bef 1c3c 2e60 8f3b
00000350: a8f8 c9ba b191 3c3b 5a7d 9d3c 9f5f 3a3c
00000360: b69c 083d 2ba4 80bc ade7 c9ba 0979 103d
00000370: e663 10bc 24a4 5cbc 9dfc a43c 0ee0 303c
00000380: fceb 9abc ef0a 0a3c fbc2 1cbc d0a4 333b
00000390: 0b65 f7bb 2294 b43c 6214 2ebc 2c27 f8ba
000003a0: 8f84 44bc b0bb a3bc e5b6 a8bb b647 813c
000003b0: d2ea e2bb 3550 8e3b 19da 83bb 74a1 883b
000003c0: f21d d8bb 1b03 68bc 864c 9fba 7743 b53b
000003d0: d422 543b d04f 86bb 21f5 08bc 08be 76bc
000003e0: c108 563c 3f8d 833c 18d5 91bc 5bec 693b
000003f0: 14e6 98bb cbca 1cbb 4f60 923a a10c 9c3a
0.0006131484 -0.0060941577 -0.0076407753 -0.015139504 0.008648129 -0.006562759 0.007855781 -0.010567149
0.0040474795 -0.0027509585 0.006177299 0.016171956 -0.019823022 -0.003776809 -0.0052364087 -0.009140224
0.016443782 3.5060362e-05 0.0048726783 -0.0010573241 -0.012154997 -0.00058299233 0.004735527 -0.0053900606
-0.018392565 0.0036120126 0.01518671 -0.035274073 -0.002194079 -0.003761906 0.0053169606 0.016358716
-0.00746623 -0.009814829 0.004734115 0.00618408 0.0017690939 0.016423471 -0.0016626545 0.009279823
0.032227606 0.0058551277 0.008268997 0.02627261 0.022301093 0.0033395195 -0.0043286397 -0.0020120223
-0.010739024 -0.00728586 0.00048964605 -0.027326914 0.011722369 -0.020304162 0.0029175952 -0.017057136
0.0048384964 -0.026881184 -0.009300036 -0.010241896 -0.0020507728 -0.012812467 0.0118049765 0.003376342
-0.0028373234 0.005893924 -0.004066739 -0.0015012453 -0.0063973274 0.012106406 0.013137362 -0.014807521
0.020349607 -0.018579932 0.020434285 0.010384671 -0.003685482 -0.0024471586 -0.009638291 -0.025510814
0.0026519469 0.00096925156 0.012835868 -0.02210518 0.0049981894 0.00914211 -0.009696564 0.0143374875
0.0074814362 0.005504656 -0.006512855 0.0028688742 -0.009406425 -0.01652061 -0.013351897 -0.009407169
0.0065857223 -0.0041376594 0.0006658427 0.025573771 0.001191013 -0.009894988 -0.005608073 0.026028562
0.018997423 0.021575505 0.0103240665 0.002381278 0.011793098 0.0050035687 0.021179894 0.00359222
-0.007255482 -0.017879082 0.010726093 -0.004442648 0.0001418528 0.0025614784 0.009125077 -0.004778159
0.018815694 -0.0037955916 0.02211146 0.036971692 0.0108018145 -0.008678776 -0.000872753 -0.0016981438
0.01959545 -0.0021798864 0.020492353 0.02258214 0.027938284 0.014560535 0.009828832 -0.00380789
0.0005637601 -0.00097331323 0.004228962 0.0012148705 0.027804103 0.0032443567 0.012514328 0.002132217
-0.009988708 0.0021269312 -0.013451145 0.020669352 -0.007724419 -0.0132949855 -0.0026370208 -0.011357244
-0.005013613 0.006924848 -0.009023913 -0.0130888205 -0.0071238736 0.0029895157 0.011327235 1.9731302e-05
0.0017747947 -0.0013552646 0.010134889 0.028759241 0.01295929 0.0053393133 0.006296187 0.017560458
-0.015641952 -0.0015602895 0.003666928 -0.014988984 -0.016312871 -0.012114364 -0.0027370248 -0.021821752
0.016738357 -0.005995919 -0.0013851306 0.023289619 -0.020594379 -0.0025875266 0.017735932 0.012529785
0.006011296 -0.02260495 0.001046682 0.0141699165 0.0035699636 -0.002651426 -0.008049078 -0.0006434356
-0.002436408 0.008444219 -0.009359244 -0.0033319043 -0.011142514 -0.007769465 0.0029431218 -0.0020833293
-0.0026058282 0.0038827057 -0.015347193 -0.005534106 0.0020753632 0.0036430757 0.001696915 -0.00048146432
0.0046604294 -0.0010318962 0.009578536 0.004375479 -0.0015409188 0.0028773362 0.019224811 0.011375337
0.033352576 -0.015703281 -0.0015404128 0.035271678 -0.00881288 -0.013466869 0.020139987 0.010795606
-0.018911354 0.008425458 -0.009567971 0.0027411468 -0.007549887 0.022043291 -0.010624977 -0.0018932573
-0.011994495 -0.019986957 -0.005148756 0.015781265 -0.0069249654 0.0043430575 -0.004023802 0.0041696373
-0.0065953666 -0.014160897 -0.0012153543 0.005531724 0.0032369392 -0.00409887 -0.008359225 -0.015059955
0.0130636105 0.016058562 -0.017801806 0.0035693857 -0.0046660993 -0.0023924585 0.0011167618 0.0011905619

hidden_features.0.bias f4 [50]
00000000: eb36 f6b9 91c7 4f3b 93f3 c9ba 1ecb 293c
00000010: 0887 4d3b e816 0b3a 0000 0000 abc6 7c3a
00000020: 283f 84b9 8078 2e3b 7e43 c4ba 5c24 30bb
00000030: bb04 b1bb d2a6 ae3a cbe4 4ebb d073 4a3a
00000040: a72e 8f3a acad 253b 882e ca3b 023e 253b
00000050: bc68 20ba 0000 0000 8a28 02bc 2bef 283b
00000060: d7a6 623b 1f58 d3ba 0e82 593a 51d2 c6ba
00000070: 646a 403c 42e2 d43a 0000 0000 5006 273b
00000080: 5adc 9f3a 4a00 103a fa03 9f3b 132b 2c3a
00000090: 0000 0000 f6b8 09b8 be40 753b 60f9 093b
000000a0: 1868 9bbb 4f4d 933a 77d4 233b 7100 983b
000000b0: e96e 953a da96 ad3a 7476 463c 5f1f f23b
000000c0: 8e9c 873a 39e7 3c3b
-0.00046961693 0.0031704644 -0.0015407674 0.010363368 0.0031361002 0.00053058425 0.0 0.0009642641
-0.00025224057 0.0026622117 -0.0014973728 -0.002687714 -0.0054021752 0.0013324863 -0.0031569477 0.0007722946
0.0010923938 0.0025280518 0.0061700977 0.0025213961 -0.0006119122 0.0 -0.007944236 0.002577732
0.0034584308 -0.0016124285 0.0008297273 -0.001516888 0.0117441155 0.0016241746 0.0 0.002548594
0.0012196407 0.0005493207 0.004852769 0.0006567698 0.0 -3.2835604e-05 0.0037422623 0.002105318
-0.0047426336 0.001123825 0.0024998465 0.0046387245 0.0011400852 0.001324381 0.012113202 0.0073889936
0.001034634 0.0028824343

hidden_features.2.weight f4 [50, 50]
00000000: a434 ee3c 21fb 243c c3f8 4cbb 43bc 23bc
00000010: de10 803b d322 70bc 38b1 7fba a3eb 01bc
00000020: 8f54 fa3b 33f0 c93b bf70 033c 29ab 8ebc
00000030: cf90 07ba 0ea8 5fbb 9d02 1b3c 36c4 8b3c
00000040: 8bc7 b6bb 38a1 9bbc 8b2a dc3a 5638 8c3b
00000050: 9ecc a0ba 15ce 2a3c 056b 47bc b0c7 a63b
00000060: 405c 513c 6b5e 833c f35f 043b a5d0 1b3c
00000070: ba79 1fbc 4d22 013c a161 c3bb d60d c2bb
00000080: 968c cebc 02fd 7d3c 7b24 2b3b a57c b53c
00000090: 133c 51bc 421d 60bc 569a e0bb 400c 5bbb
000000a0: 8101 99bb 1a9e 553c e4fb 513b 80e0 7dba
000000b0: 7bd6 9b3c 4333 baba 5ed0 763b 4b3b 04bc
000000c0: b803 0cbc f41b 99b9 e791 85bc 04d6 c4ba
000000d0: 0fdd acbc 7965 ae3b b8e4 7fbc 6097 d4bc
000000e0: f04a cb3c e491 a23c b188 8abc e53b 3a3c
000000f0: fa14 213c 99f1 2ebc 1dd9 ffb7 c380 a1bb
00000100: d47b a53c fd47 853b 9259 d2bc 3f30 143c
00000110: 177b f83a ca18 4ebb c304 c0bb d915 3d3c
00000120: 13ca 43bc 11b2 933c 82fb 593b 8050 a5bc
00000130: e35a 34ba 28bd 12bc 01bc 833c 7f71 d9bb
00000140: 983d 08bc 0f56 eb3b 8702 89bc f430 4bba
00000150: d520 edba 5d1a d4bb 702a 42bb e18a 923a
00000160: f73c 9dbb 3963 e6bb a165 d83b dd53 3bbb
00000170: bf18 50bb cc7f b13b 8d66 8ebc 17e2 a6bb
00000180: 13a5 8b3c 42da b63c 85ec 6fbb d211 c1bc
00000190: 5bdd a83a a979 98bb 8acf 2d3c f489 903c
000001a0: 25aa acbc 4c23 e23c df91 b0bb 9deb 603c
000001b0: ef81 c8bb 3f67 5d3c 7b34 9bbb 9a5e 433a
000001c0: 79ba 98ba 8441 493c 2bcc 66bb be25 073c
000001d0: eeb4 edbb d923 cc3b 54bb db3a 3911 85bb
000001e0: 168f 86bb f68c 7b3c 5311 783b 0429 56bc
000001f0: 631e 8f3b 873f a33c 4e17 903c 14d3 c6bb
00000200: 8705 67bc 6a9d 7a3b 6cfa d4bb afdf 37bb
00000210: bdd8 1e3c 09c5 553c e72c cabc 7002 bebb
00000220: ea58 ab3c f9c6 a2b9 e2fa ad3c a42d f83b
00000230: ea08 e5bb 9ce6 723c 46ce 8bbb 0335 04bc
00000240: c471 b8bb 66f7 3aba 4e90 8cbc 69ef 393c
00000250: bfea 4bbc bcee 353a 4e20 a839 b54e 99bb
00000260: dab0 6db9 1d00 fdbb e4ad efba cd67 523c
00000270: eb70 25bc d9e3 1c3c 5c06 03bc 07d8 1d3c
00000280: 6b83 d0bb 1c66 673c 2877 4e3c 40be a4bb
00000290: 2a1c c8bb 068b 9e3c 5bc1 20ba 8fd9 81bc
000002a0: 52d6 243c 56d5 803c e835 14bc c4db 1cbc
000002b0: 699a cb3c 1a87 82bc 79ed 5abc 3431 72bb
000002c0: b2d9 013c d994 683c 1ccc 3bbc 9540 973b
000002d0: c0c3 503c d748 edbb b034 32bc a839 4c3c
000002e0: a9ae 2e3c fd71 893b 1d29 57bc 3e07 45bb
000002f0: 0e74 ef3b 785d f93b b165 ecbb e941 093b
00000300: c249 10bc 291c 4a3b 4aa8 8bba cf3d 123c
00000310: b093 74bc 00ef 28bc ac40 493b 2e8e 193c
00000320: ee77 433c 673b 113b baff 363c 0bfd e6bb
00000330: 6b53 163c 538f 483c 411a 2dbb 1654 fabb
00000340: d22c cb3b ff9e 3bbb 75ed 05bb 7e5f 80ba
00000350: b3f8 5a3c 3df1 f6bb d71c 0e3c 0a11 f73a
00000360: 528b 493b dc3e e2bb 967f 1c3c 8594 53bb
00000370: ecfb 16bc 8a38 9fbc 3fcd bf3b a517 9b3a
00000380: 8c14 87bb 0ca4 b63b 917d 5fbc 8876 733b
00000390: 39d3 303b 946d 063c c716 943c 626e e43b
000003a0: b682 e23b 3487 00bc ad23 febb 3a9d ca3b
000003b0: eb81 20bc 85ac 013c 9ed1 2d3c 914e 78bc
000003c0: fe24 5a3c 58d9 4bbb b93e 46bc 71c9 8abc
000003d0: ea54 9d3b df12 6abb ba72 3abc dc1d 19bc
000003e0: 4fb7 dd3c 9853 ab3b 8360 423c 9eb2 1a3c
000003f0: 106f 913b 6ad4 993b 9703 12bc a02b 843b
0.029077835 0.010069639 -0.0031276203 -0.009993616 0.0039082607 -0.01465674 -0.00097538857 -0.007929715
0.0076394747 0.006162667 0.008022486 -0.0174156 -0.00051714195 -0.0034127268 0.009461072 0.017061334
-0.0055779866 -0.018997774 0.0016797347 0.0042791767 -0.0012268012 0.01042511 -0.012171512 0.0050897226
0.012778342 0.016036233 0.0020198792 0.009510194 -0.009733612 0.007881713 -0.005962566 -0.0059220595
-0.025213521 0.015502216 0.0026114273 0.022154162 -0.0127706705 -0.013678851 -0.006854336 -0.003342405
-0.0046693687 0.013038183 0.0032041008 -0.0009684637 0.01902317 -0.0014205951 0.0037660818 -0.008070777
-0.0085458085 -0.0002920326 -0.016304923 -0.0015017395 -0.021101503 0.005322155 -0.015618496 -0.025951087
0.024816006 0.019844957 -0.016910883 0.011366819 0.009831661 -0.010677719 -3.049947e-05 -0.0049286797
0.020200647 0.0040674196 -0.025677476 0.009044706 0.0018957582 -0.003144788 -0.0058599426 0.011540853
-0.011950034 0.018029245 0.0033261483 -0.020179987 -0.0006879998 -0.008956231 0.016080858 -0.0066358442
-0.008315466 0.00718189 -0.016724838 -0.000775113 -0.001809145 -0.0064728693 -0.0029627346 0.0011180305
-0.0047985273 -0.007030871 0.006603912 -0.0028583922 -0.003175303 0.005416846 -0.017382884 -0.00509287
0.017046487 0.02232087 -0.0036609482 -0.023568068 0.0012883352 -0.004653175 0.010608563 0.017643906
-0.021077225 0.027604721 -0.005388483 0.01372805 -0.006119005 0.013513385 -0.004736481 0.00074527564
-0.0011652253 0.012283687 -0.0035216908 0.0082487445 -0.0072542345 0.0062298593 0.0016764202 -0.004060891
-0.0041064126 0.015353432 0.0037852123 -0.013071302 0.004367636 0.019927753 0.017589238 -0.006067643
-0.014100439 0.0038240799 -0.006499579 -0.002805691 0.009695229 0.013047465 -0.024679614 -0.0057986304
0.020916421 -0.00031047294 0.021237794 0.0075738 -0.006989588 0.014825489 -0.004266533 -0.00806928
-0.0056287963 -0.0007132202 -0.017158654 0.011348584 -0.012446105 0.0006940176 0.00032067526 -0.004678572
-0.00022667964 -0.007720961 -0.0018286076 0.012842131 -0.0100977225 0.0095758075 -0.007997122 0.009634024
-0.0063633225 0.014123466 0.012601651 -0.0050275624 -0.006106873 0.0193534 -0.0006132328 -0.01585081
0.010060864 0.015726727 -0.009046055 -0.009573881 0.024853902 -0.015933562 -0.013362282 -0.0036955597
0.007925438 0.014195644 -0.011462238 0.004615853 0.012741983 -0.007241349 -0.0108768195 0.012464918
0.010661759 0.0041944967 -0.013132361 -0.003006413 0.007307536 0.0076100193 -0.007214271 0.0020943827
-0.008806648 0.0030839539 -0.0010655012 0.008925869 -0.01492779 -0.010310888 0.0030708713 0.009372277
0.011930449 0.002216065 0.011169368 -0.007049208 0.009175162 0.012241202 -0.0026413354 -0.0076394184
0.0062004114 -0.0028628705 -0.0020435725 -0.0009794084 0.013364959 -0.007536082 0.008673868 0.0018849683
0.0030753207 -0.006904466 0.009551903 -0.003228457 -0.009215336 -0.01943614 0.0058533247 0.0011832608
-0.0041223224 0.005573755 -0.013640777 0.0037149508 0.0026981367 0.008204836 0.018077267 0.0069711665
0.0069125546 -0.007844735 -0.0077557177 0.0061832936 -0.0097966 0.007914667 0.010609059 -0.01515545
0.013314484 -0.0031104889 -0.012099915 -0.016941758 0.0048013823 -0.0035716814 -0.011379892 -0.009345498
0.027064947 0.005228471 0.0118638305 0.009442 0.0044382885 0.004694511 -0.008911989 0.004033521

hidden_features.2.bias f4 [50]
00000000: 5da6 e4bb f497 9a3c 2f86 02bc d238 6f3b
00000010: 4262 abba 52ca 06bb 0000 0000 5333 0cbb
00000020: 01ec 383c 60a9 763d 2823 22bb f358 4a39
00000030: ad2d acbb 0000 0000 2f66 87bb 0000 0000
00000040: 14df cf3c d877 0c3c 3cdb adbb d615 b73c
00000050: 977d 9e3c 0000 0000 9440 8d3c bde4 8a3c
00000060: 208d 52bb 131e ac3c 55cd 083d 52a5 053d
00000070: 1659 36bb 5610 5d3c 105c 8db7 03d4 af3d
00000080: 0000 0000 a224 8abb 4789 82bb eb11 063d
00000090: f918 b4bb 35e5 273c 9292 e2bb 9054 47bb
000000a0: 142a 09bb 9fb6 eab7 0000 0000 484b 283d
000000b0: e25e 42bb 15c1 973b ded2 f43c 04c4 ea3c
000000c0: 0b9f 703c d91f 2dbc
-0.00697784 0.018871285 -0.007966562 0.0036502373 -0.0013075548 -0.002056737 0.0 -0.0021392896
0.0112867365 0.060220122 -0.0024740193 0.00019297357 -0.0052544684 0.0 -0.0041320543 0.0
0.025374927 0.008573495 -0.005305676 0.02234928 0.019346995 0.0 0.017242707 0.016954774
-0.0032127574 0.021010434 0.033398945 0.032628365 -0.0027824095 0.013492664 -1.685138e-05 0.0858536
0.0 -0.0042157928 -0.00398365 0.03273193 -0.005496141 0.010247518 -0.006914445 -0.0030415393
-0.0020929622 -2.7980013e-05 0.0 0.04108742 -0.0029658605 0.0046311715 0.029885706 0.02865792
0.014686356 -0.010566675

density_estimator_head.weight f4 [50, 11]
00000000: f955 acbc 988d 163c 3020 06bb daa5 1dbb
00000010: 8356 e4ba ea65 94bc f5a9 07b9 d490 6f3b
00000020: f430 79bc 6849 82bb c5ac 063b bfc3 b63b
00000030: 41f0 efbb b928 41bc c2a1 eabc 0ac8 54bb
00000040: f671 f93a 9f0d c63b 4d44 f6bb 29be 123c
00000050: 680e e7ba 1032 933c 4af8 fabb 6bfb 9c3b
00000060: 2b4e a73a 17ee a8bb 6a04 fe3b f4df 19bc
00000070: 4c73 a7bc 9cbb d039 c7f9 383b 51fd 65bc
00000080: d8a4 9abb aea0 e8ba 628c 15bb 3d6e 393a
00000090: 9904 503c e72e dfbb d27f 9c3c 3842 50bc
000000a0: b4e5 b8bb 40b7 27bc d4d9 9ebb 5971 d439
000000b0: 9397 7cbb b650 09bb 90ce 48bc 3baf a0bb
000000c0: a5fc 71bb 20fd 5bbb 331a 85bc 129e 633a
000000d0: 64ff 49bb 21f8 1dbc 4481 aebb 9665 61ba
000000e0: df6a 343b b2ee cdba 49c9 8b3c fc8e 3bbc
000000f0: 0166 c6ba 2b73 9e3b ec1d 323b 15de 91bb
00000100: 0bce 0bbc 2cb4 91bc f058 19bc f626 4c3c
00000110: d6cb ea3b 7ebd eebb 61df 3abc a0f0 d739
00000120: 5584 b5bc 1862 683b bf8f ed3a fbd4 47b7
00000130: c77e a1bb a076 cf3b 9692 5abc 03da 2abb
00000140: c8d8 c4bb 592d 4ebc e1d4 8cba e988 f2bb
00000150: 6598 80b9 63ab 1cbc 68b9 773c 6a6b 37bc
00000160: fa12 bbbb 37c0 373c e7d2 193b 192e 87bc
00000170: eac3 dcbb d802 4d3c 0cc6 ba3c 1f3b 763b
00000180: c924 09bc 767d e73c ea4e 403c 0fdd 6d3c
00000190: 34ce ba3b dad3 9e3a fa3a 0a3b f4f3 693c
000001a0: 0a10 30bb 89f3 cf3b bcdb 22bc a97f 27bc
000001b0: 326f 003c 8cbd 9e3b 36b9 03bb 8721 053a
000001c0: c37f 9dba 9334 923c 3666 59bb b173 c33b
000001d0: 7e98 2bbb 4aae 28bc 367f 2bbc 5201 ce3b
000001e0: 3ca4 c8bb f757 1cbc 4b66 81bb 32c7 e8ba
000001f0: 7f51 433b 4fd6 7cbc 504e 373c adbc 223b
00000200: a206 bf3b 506d c2bb d17d 28bc 356f a1bc
00000210: dc8b 383b e990 84bc 28ab 263b 5664 993c
00000220: d32d bd3b 11d0 04bc 54ad 66bc e55c edbb
00000230: 0c86 13bb f558 27bb 79fd 16bb 3994 4e3c
00000240: 8675 bb3b 197d 82ba 6fcd 603c 1a05 723a
00000250: 325f 183c 6b5d d5ba 383a ad3b c4c8 ea3a
00000260: 968e 3dbb 06ba b43b 268b 66bb a105 68bc
00000270: 1f58 01bc ed34 2c3b 2e1b 36bc feca 6bb9
00000280: 2bd4 a73c e101 adba 8406 1d3c add6 3b3c
00000290: 7cf7 68ba 2e63 d63b 0e80 e93b b93a 2c3c
000002a0: 0207 d239 472b 273c f94f 533b 3f08 963c
000002b0: 2244 35bb a3a2 d4bb 2d0e 5abc fb7f 0a3b
000002c0: 7479 c13b ad0a 1fbc 54d7 e9bb a626 5a3b
000002d0: 6daa 7e3a 6f91 223c 467a d03a 0015 9d3c
000002e0: db6c 093b 927a 29bb 2654 633a 9ac4 0bbc
000002f0: 4e51 903b 4224 1dbb 47a2 163c 4e6e 70bb
00000300: 5af9 323b d31b 883c 7dcc fb3b 0dd8 af3b
00000310: c698 5b3c 67ff c339 2a8e 98bb 16d7 07bb
00000320: 0be1 1a3c a88d 69bb d529 9cbb 5f0f 313c
00000330: e527 cfba f0ab 7d3c e77c a8bb 4bd4 b3bb
00000340: 5f42 1c3b e5f8 f13c 8fee a1bc 789d 5a3c
00000350: 592d 1fbc fbaf e9ba a515 5d3c 15da 14bb
00000360: 23ee 8cbc 7553 003c 9e6d 09ba a003 e13c
00000370: 993c 18bc cc09 11bb 894b 54bc 4c32 be3b
00000380: 5c31 9e3b 109d 53ba 3577 9a3b a405 3d3c
00000390: edbc 323c 9217 fa3b 221f eebb 304a 803b
000003a0: 97fc 1eba 888c 9d3c ef00 5fbc 1005 793c
000003b0: 88ae 87bc 4265 613c 8bda ab3b 89c5 a9ba
000003c0: 84de 783c 506a 1dbc 2e4d 443a aaa3 b43c
000003d0: e786 18bb fdbb 02bb 476b b43b 1811 40bc
000003e0: 9e96 19bc 08e0 263c a087 b53b 42a3 2a3b
000003f0: f54b f43b b330 b93a 2724 51ba 776f 6fbc
-0.021037089 0.009189032 -0.0020465963 -0.0024055154 -0.0017420802 -0.018115003 -0.00012937917 0.003655483
-0.015209425 -0.003976036 0.0020549756 0.005577534 -0.0073223417 -0.011789494 -0.028641585 -0.0032467865
0.0019031155 0.006044104 -0.0075154663 0.0089564705 -0.0017628195 0.017968208 -0.007658993 0.0047907135
0.0012764385 -0.0051553356 0.007751991 -0.0093917735 -0.02044072 0.0003981263 0.002822505 -0.014037446
-0.004719358 -0.0017748082 -0.002281927 0.0007073617 0.012696409 -0.006811011 0.019103918 -0.0127111
-0.005642617 -0.010236561 -0.0048477445 0.00040520242 -0.0038542494 -0.0020952648 -0.01225628 -0.0049037016
-0.003692427 -0.0033567622 -0.016247844 0.0008682917 -0.003082239 -0.009641678 -0.0053254683 -0.00085982063
0.002752952 -0.0015711396 0.017063754 -0.011447664 -0.0015136601 0.0048355064 0.002717848 -0.004451523
-0.008533011 -0.017786108 -0.009359583 0.012460461 0.0071654124 -0.007285773 -0.011405797 0.00041187275
-0.022157827 0.003545886 0.0018124505 -1.1910913e-05 -0.004928443 0.00633128 -0.013340613 -0.0026069887
-0.0060072877 -0.012584054 -0.0010744595 -0.007401575 -0.00024527605 -0.009562346 0.015119888 -0.011195043
-0.0057090493 0.011215261 0.0023471655 -0.016501473 -0.006737222 0.012512885 0.022799514 0.003757186
-0.008370587 0.028258067 0.011737565 0.0145180365 0.005700851 0.001211758 0.0021092282 0.014279354
-0.0026865029 0.0063461703 -0.009940084 -0.010223308 0.007839011 0.004844373 -0.0020099408 0.00050785433
-0.0012016225 0.017847335 -0.0033172495 0.005964719 -0.0026183422 -0.01029546 -0.010467341 0.0062867785
-0.006123094 -0.009542457 -0.003948962 -0.001775956 0.0029803214 -0.0154319545 0.011188105 0.0024831698
0.005829648 -0.005933441 -0.010283903 -0.019706348 0.0028159535 -0.01618238 0.0025431607 0.018724602
0.005773285 -0.0081062475 -0.014079411 -0.00724374 -0.0022510318 -0.00255352 -0.0023039265 0.012608581
0.005720797 -0.0009955495 0.013720854 0.00092323276 0.00930004 -0.0016278451 0.005286481 0.0017912616
-0.00289241 0.00551534 -0.0035178154 -0.014161498 -0.007894545 0.0026276663 -0.011114879 -0.00022486967
0.020486912 -0.0013199412 0.009584073 0.011464757 -0.00088869757 0.006542585 0.007125861 0.010512047
0.00040059543 0.010203189 0.0032243712 0.018314479 -0.0027659019 -0.0064891144 -0.013309044 0.0021133411
0.005904371 -0.009707135 -0.007136265 0.0033287196 0.00097147265 0.009922369 0.0015905581 0.019175053
0.0020969424 -0.002586041 0.0008671902 -0.00853076 0.0044042235 -0.002397791 0.009193963 -0.003668684
0.002730927 0.01661483 0.007684289 0.0053663314 0.013403123 0.00037383588 -0.004655619 -0.0020727566
0.0094530685 -0.0035637412 -0.004765729 0.010806887 -0.0015804736 0.015482888 -0.0051418426 -0.005487954
0.0023843271 0.029537627 -0.019767074 0.013343208 -0.009715402 -0.0017828936 0.01349393 -0.0022712995
-0.017203396 0.007832398 -0.00052424695 0.027467549 -0.009291791 -0.0022131084 -0.012957462 0.0058043357
0.0048276614 -0.00080724154 0.0047139176 0.011536989 0.010909301 0.0076322043 -0.007266895 0.003915094
-0.00060648605 0.01923205 -0.013611062 0.015198961 -0.016562715 0.013757052 0.005244558 -0.0012952547
0.015189771 -0.009607866 0.00074883073 0.022050697 -0.0023273767 -0.0019948476 0.0055059525 -0.0117228255
-0.009374289 0.010185249 0.0055398494 0.002603725 0.007455344 0.0014128893 -0.00079781044 -0.014613978

density_estimator_head.bias f4 [11]
00000000: 4af1 0fbd a175 e5bc 882e 23bc 0ebb bfbb
00000010: 2b6a ea3a 96a0 253b ec59 91ba 48e6 9cbb
00000020: 476a 8f3c ad43 183d 0be1 d33c
-0.03514222 -0.028010191 -0.009959824 -0.005851156 0.0017884424 0.0025272719 -0.0011089421 -0.004788194
0.017506732 0.037173916 0.025864145

Q1.0.weight f4 [50, 50, 5]
00000000: 0680 993f 744b 563e 17a1 64bd 32fb dabf
00000010: fa95 a8bf 1f9e 463f 5fae 693f be64 39bf
00000020: 8116 ecbe 12f6 1b3f c0e1 423f 8b5a a5bf
00000030: aad7 95be 4639 3dbf d6df a83f 81af c03e
00000040: 2d41 823e 48e7 543f 0424 0fbf b03c e03e
00000050: 4373 26bf 02a0 8a3f 94e1 803f 7ceb 473f
00000060: 749a fdbe b9b7 fdbd 1220 8d3d 7f01 523f
00000070: 3968 30bf 774c 4d3f eb69 ddbb b959 ccbe
00000080: 4b59 803f 5bc8 a2be e073 06bf f7c8 ebbe
00000090: c19d cebe 5408 af3e 96bb b83f a950 1c3c
000000a0: e2e1 b43f 36b7 8e3f c5b6 24c0 03b3 71be
000000b0: ba02 36bf 58a1 3e3e 8b94 28be 8bf1 52be
000000c0: 8265 003f 9dc3 213f 626e 0bbf 6f9b 9a3d
000000d0: f115 aabe f59a e93e add7 ac3e 7e13 803f
000000e0: 95f8 983f bc45 00bf d511 1abf fdfa 713f
000000f0: 2552 303e 233f 993f 0eff b33d 107d bebd
00000100: 8e95 a6be 5d66 afbf b81d 9ebd 0b27 bdbf
00000110: d982 d63e 7ebf 97bf eecf 7f3e 6081 0440
00000120: 552c ab3f 9355 b0be 4c1b 0f40 b16d 25bf
00000130: 88f6 673f f243 bbbf 1d09 413f 8a41 5cbf
00000140: 3e99 a2bf c1d0 653f bb46 84be 04b4 503f
00000150: 12ff 3c3d 3282 1c3e 0ccd c73e f6ad 0cc0
00000160: 6a09 dfbf b58d 693f 1be1 c13e 910d b8bf
00000170: c051 a9bf c363 5b3f 4318 66bf eb23 263e
00000180: 40a3 41bf 4437 933d a23a 47bf 5650 3ebe
00000190: a407 2b40 b775 93bf e46d 42bf 50c3 503f
000001a0: 4148 59bf efb8 c4bf cf20 34c0 a4d0 463e
000001b0: 8bb5 03c0 7540 e3be 1dc3 83bf 75f5 abbe
000001c0: 2527 043f b928 413c 40f8 2d3d 1b26 b9bf
000001d0: 48e4 6abf 7f75 e43e 55b1 89bf 5301 233f
000001e0: e7f8 063f 20e9 6fbf a2db b13d 2589 16bf
000001f0: 1c28 05bf 7272 3abf 9dc4 0d3f e062 20bf
00000200: 6cd5 a2bf 918b fabe 010f debf 5c5d 27bf
00000210: 1c3d 13c0 fa71 503f 7fa8 72bf a4fa 94bf
00000220: 800a 903f 8d51 bd3f cf18 ab3f cc75 6bbf
00000230: d692 443f a68c 0240 8c8e 2a3f b03b 27bf
00000240: 8a5d 0f3e cb41 2cbf 82d7 5e3d 45e7 063f
00000250: 118a cb3f f269 a0be de4e 613d e8e7 95bf
00000260: 1237 84bf c6b7 e0be 0b01 d3bd 3552 11bf
00000270: a9bb 0c3f b06c 203f 9041 853f fb03 f0bf
00000280: d313 9e3f 009c 6fbf 5e1b a83f 98a1 8bbd
00000290: cd7b 253f 7246 9a3e 545f b33d 8d63 6dbf
000002a0: 08d5 e7be 15cd 833f 8e76 123f b73c 9fbe
000002b0: 6cda 7a3f 2ddf 50bf d333 90bf 3abb d6bf
000002c0: a7e1 693f de7e 0dbf ceaa 0fbf 1571 82bd
000002d0: 3bac e03e 3cac 293f 47bd fdbe 5e35 973f
000002e0: 0e22 99bc 7c21 413e ce69 bbbf 2fe6 353f
000002f0: dae1 1dbf 3484 86bf db4f babe b5b0 31bf
00000300: c96f a33f d3db e63f 4a9f 9b3f a9d8 c43f
00000310: 7cc1 99bf 83ac 0d3d 6327 3bbe 63d7 9ebe
00000320: 7fbf b0bf 667c 433e dea0 3dc0 5fda ca3e
00000330: 7a39 05c0 699c dfbf add8 0a3e d666 753f
00000340: 6df4 0e3f b962 24bd 4647 593e 6dcd 15bf
00000350: 4b44 95bf 709d 093f 94fd 54bf 6af9 f3be
00000360: d000 f53e 22cb 923f a2a8 823f b0c0 c13f
00000370: b279 53bf 7e5b dd3f 0b4a 47be baca ea3e
00000380: 4a5b 633e af1d d23f 6dea d0bf e118 55bf
00000390: 2969 a63f a709 3a3f 4f45 37bf 4a0a bfbe
000003a0: 1531 0640 acbc d93f 43b3 d63f 0e11 53bf
000003b0: 42e4 093f 4ca3 c1bd 063a 88bf 61dc fa3e
000003c0: 1d28 b7bf 96a8 12bf 5f24 9b3e 075d 5fbf
000003d0: f4cc 9e3e 0365 29bd 32f1 26be 74a5 943f
000003e0: 1603 e3bc 01fe bcbe c778 27bd 31c4 f23e
000003f0: 282d 1f3f 662e cbbf e62b 30bf 6e22 003f
1.1992195 0.2092722 -0.05581769 -1.7107909 -1.3170769 0.77585024 0.91281694 -0.72419345
-0.4611092 0.6092235 0.7612572 -1.2918257 -0.292661 -0.7391552 1.3193309 0.376339
0.2544035 0.8316541 -0.5591433 0.437963 -0.65019625 1.083008 1.0068841 0.78093696
-0.495319 -0.12388558 0.068908826 0.8203353 -0.6890903 0.801948 -0.006757011 -0.39912203
1.002725 -0.31793484 -0.5252056 -0.46051762 -0.40354732 0.3418604 1.4432247 0.009540715
1.4131434 1.1149662 -2.5736554 -0.23603444 -0.7109791 0.18616235 -0.16462915 -0.20599954
0.5015489 0.6318911 -0.54465306 0.07549178 -0.33219865 0.45626035 0.33758298 1.0005949
1.1950861 -0.50106406 -0.6018346 0.945236 0.17218836 1.1972393 0.08788882 -0.093011975
-0.32535976 -1.3703114 -0.07720512 -1.477754 0.41896704 -1.1855314 0.24981663 2.0703964
1.3372904 -0.34440288 2.236041 -0.646205 0.9061055 -1.463011 0.7540453 -0.86037505
-1.2703016 0.8977166 -0.25835213 0.8152468 0.04614169 0.1528404 0.39023626 -2.1981177
-1.7424748 0.9123185 0.37867054 -1.437914 -1.3228073 0.856991 -0.8988077 0.16224639
-0.75639725 0.071882755 -0.7782384 -0.18585333 2.6723413 -1.1520299 -0.7594893 0.81548023
-0.84875876 -1.5368937 -2.8145025 0.19415528 -2.0579555 -0.44385114 -1.0293919 -0.33585706
0.5162223 0.011789494 0.042473078 -1.4464754 -0.9175458 0.44620892 -1.0757242 0.63673896
0.52723545 -0.93715096 0.0868447 -0.58803016 -0.5201433 -0.7283088 0.55378133 -0.6265087
-1.2721381 -0.48934606 -1.7348329 -0.6537683 -2.3006048 0.81423914 -0.94788355 -1.163899
1.1253204 1.4790512 1.3366946 -0.9197662 0.76786554 2.0398345 0.6662376 -0.6532545
0.14000526 -0.6728789 0.054404743 0.5269664 1.590151 -0.3133083 0.055006854 -1.1711397
-1.0329306 -0.43890208 -0.10302933 -0.5676606 0.54973847 0.62665844 1.0410633 -1.8751215
1.23498 -0.9359741 1.3133352 -0.06817931 0.6464203 0.3013187 0.08758417 -0.9273003
-0.45279717 1.0296961 0.5721215 -0.3110101 0.97989535 -0.8159054 -1.1265815 -1.6775887
0.91359943 -0.5527171 -0.5612 -0.06369225 0.438814 0.66278434 -0.4955847 1.1813161
-0.018692996 0.1886043 -1.4641664 0.7105436 -0.6167275 -1.0509095 -0.3638905 -0.6941026
1.2768489 1.8035835 1.2157986 1.537862 -1.2012172 0.034588348 -0.18276744 -0.31023702
-1.380844 0.19090423 -2.9629436 0.3961973 -2.081633 -1.7469608 0.13559218 0.9586004
0.55841714 -0.04013321 0.21218595 -0.5851658 -1.1661466 0.53755856 -0.8319943 -0.47651225
0.47852182 1.1468241 1.0207713 1.5136929 -0.8260757 1.7293546 -0.19461839 0.45857793
0.22202793 1.6415309 -1.6321541 -0.8324109 1.3000842 0.7267098 -0.7159013 -0.37312537
2.0967457 1.7010703 1.6773456 -0.824479 0.5386392 -0.094549745 -1.0642707 0.4899626
-1.4309117 -0.5728849 0.30301186 -0.87251323 0.31015742 -0.041356098 -0.16302946 1.1612992
-0.027711432 -0.3691254 -0.040886667 0.47415307 0.6217828 -1.5873535 -0.68816984 0.50052536

Q1.0.bias f4 [50, 5]
00000000: e870 dbba de70 cbba 833f b3ba 1fba 06ba
00000010: 3623 76b8 cb45 8239 8de5 bb38 88e5 ab38
00000020: 91ae 1f38 6500 1937 0000 0000 0000 0000
00000030: 0000 0000 0000 0000 0000 0000 67f6 8e3c
00000040: f498 503c c202 493c 5803 b53b f8f1 ac3a
00000050: 66b6 31bb f025 04bb b2d2 04bb 73d6 7bba
00000060: bf21 85b9 981e 58ba 3b56 50ba 79a4 47ba
00000070: 7075 abb9 81d7 96b8 2230 c43b 8902 f13b
00000080: c0b0 f23b ae90 563b baee 283a aa7b 17b8
00000090: 48ec eab7 9b20 c4b7 74ac 14b7 8cb4 d5b5
000000a0: 32b0 833a 63db 303b 660f 6c3b ba8f fc3a
000000b0: 3a49 f039 56f9 9eb9 70bf 3db8 2d2b cbb7
000000c0: b9a5 34b7 10cb 2cb6 4942 ebbb 9648 6cba
000000d0: b5c1 d8b9 8822 8cb9 a9c5 84b9 0415 03bb
000000e0: d2b4 faba da09 01bb 2e1e 6fba ff1d 55b9
000000f0: 53e0 f1bb f76a e2bb 2f61 d3bb 4776 30bb
00000100: 285d 0fba a911 c639 86e3 20b9 0677 89b8
00000110: 4141 4fb7 0000 0000 ffba 19bb c50e 24bc
00000120: 50aa 49bc f2fd c8bb 7f77 ccba 69a6 8e3b
00000130: e87b 2b3b e2a5 273b df42 9f3a ae1f b239
00000140: 383b 8b37 a0ec f6b3 0a45 8db4 f1ff cc31
00000150: 0000 0000 8b65 79bb 5e21 67ba b06a e1b9
00000160: 1416 13b9 e411 beb8 3494 633a 2cde b438
00000170: d171 3337 e93c 9ab0 0000 0000 8e39 e0b9
00000180: 211c 6c39 cec8 7b39 f869 b438 fab9 0cb4
00000190: ceb4 b7b8 fa3f 98b8 8e81 1ab8 697f d6b5
000001a0: 0000 0000 0f65 5f3c d32e 1db9 945c 05bb
000001b0: ff1d 44ba da8b c6b8 69be 2dbb 0537 0ebb
000001c0: da1b e3ba 80bf 1aba 0a0b e0b7 1caf e7bb
000001d0: 8e9b bfbb 22d8 92bb 10d9 b3ba 8552 b2b8
000001e0: 38ca a33b 51db b03b de16 af3b f724 1a3b
000001f0: 783e fa39 0000 0000 0000 0000 0000 0000
00000200: 0000 0000 0000 0000 a11b 1f3a a4c0 1b3a
00000210: f58d 173a 741d 8439 0102 7638 2df1 973b
00000220: 7b0c b83a 2125 943a da5b 0b3a b7c1 5539
00000230: f60d eab9 0af0 cfb8 59d1 14b8 e10d 0fb6
00000240: 121a b033 641b 8b37 fa8f 8737 9f1b 8437
00000250: c624 e736 b12e dc35 8972 053b c788 de3a
00000260: d373 d83a dfcb 3f3a f124 2639 c3da f7bb
00000270: fa2b debb 3db8 c5bb 8a3e 1cbb 3963 cab9
00000280: a3ff 3fbb 98f9 fc39 5674 6339 9219 62b9
00000290: 5fd4 5eb9 bbbe 9dba e251 ccbb dfe1 13bc
000002a0: 56e3 a4bb 3dc7 b0ba 20e9 69b8 cf2b 9eb8
000002b0: 655f aeb8 0def 25b8 d73a 1fb7 f7b7 8bba
000002c0: 996c 13ba 3de9 03ba 90fa 62b9 9170 4ab8
000002d0: 4212 8dbb d7e3 6fbb 8b4c c4bb 581f 7cbb
000002e0: 7057 bfba e2d5 2f3a 3f7d 183b 3dfd 1f3b
000002f0: 4a9a 8b3a cbd8 3439 579f 05b8 debe 5fb7
00000300: 8d2b 87b6 7e80 b335 71b8 7935 a52a feb9
00000310: 1108 a6b9 b2a7 16bb 9ac0 04bb df98 78ba
00000320: 1c02 0bbc 6ea7 d0bb 5d40 b1bb 975b 0bbb
00000330: cd1b dfb9 9ca0 bfbb 6dd3 06bb 2a62 e4ba
00000340: 3736 56ba 19f8 95b9 2fdd 50bc b91e ccbb
00000350: 1c93 c7bb 3b4b 44bb 6f86 49ba a2a5 fd3b
00000360: 8f2f 3c3b a6e6 d83a 9921 c139 bf15 0f39
00000370: 91d7 b9b9 9f6e fab9 c260 00ba 4b3e 6cb9
00000380: 9923 b3b8 fee8 2bbc 4f93 6abc dc53 49bc
00000390: d71d 8dbb 2666 b0b9 0877 f1b9 80f0 e7b9
000003a0: 30f1 ddb9 2f4c 3eb9 4fb5 27b8 db4b 3c3c
000003b0: 72b7 823b c001 5e3b 8f86 d33a d3f1 183a
000003c0: 0919 643b 6076 0a3b 9afd ff3a 9c5e 5b3a
000003d0: e9dd 4439 21d5 39bc 65b2 2cbc 2050 20bc
000003e0: 3216 85bb a0f8 54ba
-0.0016742023 -0.0015521308 -0.0013675544 -0.00051394285 -5.8683763e-05 0.00024847532 8.959612e-05 8.196669e-05
3.807113e-05 9.1196025e-06 0.0 0.0 0.0 0.0 0.0 0.017451478
0.012731779 0.012268724 0.0055240802 0.0013194671 -0.0027116775 -0.0020164214 -0.0020267186 -0.00096068456
-0.0002539288 -0.0008244305 -0.00079474197 -0.0007615756 -0.0003270316 -7.192698e-05 0.005987183 0.0073550385
0.007406324 0.0032740044 0.00064442644 -3.6116377e-05 -2.8005e-05 -2.3380204e-05 -8.86164e-06 -1.5922283e-06
0.0010047017 0.0026986233 0.003601992 0.0019268908 0.00045830925 -0.00030321878 -4.52394e-05 -2.4219591e-05
-1.0767421e-05 -2.5748195e-06 -0.0071795327 -0.00090135017 -0.00041343053 -0.0002672861 -0.0002532427 -0.002000154
-0.0019127375 -0.001968971 -0.00091216236 -0.00020324437 -0.007381478 -0.006909724 -0.006450794 -0.0026925968
-0.00054688985 0.0003777866 -0.00015343548 -6.554839e-05 -1.2353355e-05 0.0 -0.0023457406 -0.010013287
-0.012308672 -0.0061337883 -0.0015599577 0.0043533337 0.0026166383 0.0025581052 0.0012150666 0.0003397441
1.6597667e-05 -1.14983095e-07 -2.631353e-07 5.9662786e-09 0.0 -0.003805491 -0.0008816923 -0.00042994833
-0.00014027237 -9.0632384e-05 0.0008681447 8.6244516e-05 1.0695731e-05 -1.1222286e-09 0.0 -0.0004276749
0.00022517193 0.00024012031 8.602807e-05 -1.3106174e-07 -8.7597975e-05 -7.2598414e-05 -3.683712e-05 -1.5981324e-06
0.0 0.013634934 -0.0001499013 -0.002034937 -0.00074812764 -9.467425e-05 -0.0026511198 -0.0021700275
-0.0017327026 -0.00059031695 -2.6708021e-05 -0.007070435 -0.005847401 -0.0044813314 -0.0013721306 -8.503072e-05
0.0049984716 0.0053972383 0.005343302 0.0023520568 0.0004773026 0.0 0.0 0.0
0.0 0.0 0.00060694857 0.00059414865 0.0005781346 0.00025198946 5.8652837e-05 0.0046369047
0.0014041805 0.0011302569 0.0005316116 0.00020385427 -0.0004464236 -9.91524e-05 -3.548092e-05 -2.131674e-06
8.200381e-08 1.6582846e-05 1.6160298e-05 1.5748488e-05 6.8886175e-06 1.6404866e-06 0.0020362458 0.0016978019
0.001651401 0.0007316451 0.00015844755 -0.00756392 -0.0067801448 -0.006033926 -0.0023840987 -0.0003860237
-0.0029296658 0.00048251147 0.00021691745 -0.00021562565 -0.00021250684 -0.0012034992 -0.006235347 -0.00902602
-0.0050319834 -0.0013487112 -5.5768644e-05 -7.542187e-05 -8.314735e-05 -3.95617e-05 -9.490838e-06 -0.0010659684
-0.00056237873 -0.00050320086 -0.00021646381 -4.826539e-05 -0.004305155 -0.003660431 -0.00599057 -0.003847083
-0.0014598202 0.0006707591 0.0023268012 0.0024412416 0.001065084 0.000172469 -3.1858068e-05 -1.33362755e-05
-4.0283835e-06 1.3373935e-06 9.3028126e-07 -0.00048478428 -0.00031667997 -0.0022988138 -0.00202564 -0.0009483229
-0.00848439 -0.0063676154 -0.005409284 -0.0021264309 -0.00042554588 -0.0058480036 -0.0020572797 -0.0017424275
-0.0008171531 -0.00028604342 -0.012748047 -0.0062292484 -0.006090535 -0.0029952067 -0.00076875737 0.0077406922
0.002871487 0.0016548231 0.0003683686 0.00013645644 -0.0003544656 -0.00047766135 -0.00048972305 -0.0002252992
-8.542016e-05 -0.010492561 -0.014317348 -0.01228806 -0.0043065357 -0.00033645442 -0.00046055787 -0.0004423894
-0.00042332103 -0.00018148193 -3.998476e-05 0.011492695 0.0039891535 0.0033875555 0.0016138124 0.00058343745
0.0034804961 0.0021127686 0.0019530535 0.0008368285 0.00018774685 -0.011342318 -0.010540579 -0.009784728
-0.004061484 -0.0008124206

Q1.1.weight f4 [50, 1, 5]
00000000: 5e10 fa3d 3a64 b0bf 9f0f d03f 5bc4 18bf
00000010: b17b fd3f d146 5fbe a074 13be c085 8fbe
00000020: 3b93 2ebf c08a 133e c632 e93f 21ea 38bf
00000030: b44d 04c0 09dc 0abf 475b b63e 0a04 cabf
00000040: f6d8 f9be a4f5 51bd 7d61 69bf fe03 bc3d
00000050: 9570 323e 083c 533f 6e14 04bf 6a54 1bbe
00000060: 7e4c a2bd 2b47 bc3e 23c5 803f 8257 babe
00000070: 4c13 d1be 860c e2bf 35c8 f03e a732 3cbd
00000080: 9e77 05c0 3e4b 903e 2160 a83c 6974 98be
00000090: e141 94bf 6d4c 73bf b8be 303f 3c14 0f3d
000000a0: c62e 3cbe 39b2 08bf 7628 9dbe 798a aa3e
000000b0: 24c5 72be bab5 fe3e 9487 ba3d e238 c53f
000000c0: fb94 083e dc9d 273f c9e2 0f40 da04 64bf
000000d0: 95d8 60bf 3d0a 90bf e567 903f ecd0 a53e
000000e0: 5b66 c5be d304 f53e 8e22 c4bc ab9f 4c3e
000000f0: e6aa f8bd 1765 f63f ce4c 00bf 2984 a7bf
00000100: 4796 90bf 2a69 5bbf bbea efbf 76e2 093f
00000110: 5b7e 0340 9f72 a4bf 725e 0a40 a394 ba3f
00000120: b12b 3abf cf45 e7be bec2 aa3e e59d 16bf
00000130: ed8d b6be 5e2c e53d 874a 1d3f cfe0 cc3e
00000140: e4a3 5abe d5fe 26bd 9f86 e5be bb9f 8cbf
00000150: 029a a93e 874d 513f e468 7f3e 9814 13bf
00000160: 54de 8f3d b7cc 5f3f 1ed0 d9be e045 2f3f
00000170: 011e ca3e ea66 4f3f f628 5a3f 72b6 903e
00000180: 5f98 81be b9f2 71bd f552 0c3f 11f1 d3bf
00000190: bc42 d93e f749 d03f 2777 ca3d 227a c1be
000001a0: 4d82 2cba e37b d43f 664a 4b3f 6a89 4ebf
000001b0: c23d c1bf 3b73 7b3f a914 99be 9370 d03f
000001c0: 7e32 373d 1602 59bf 293d 603e f9bf 383e
000001d0: e787 02c0 bef2 63bf d7de 07c0 f61a 4f3f
000001e0: 60ce 503e fc4b 20bf af36 6bbe 834c 58bf
000001f0: 78b5 53bf 0542 52be e05d 543f 023f a53f
00000200: 8444 a03e 4c9c 823e 9be4 84bf f60b 043f
00000210: 20da 003c 5287 8c3f db54 a3be e069 99bf
00000220: 0978 323f af35 983e 9411 10be 5808 a53e
00000230: 430d 403f c60c b8be e4a1 973e 1a1f 19c0
00000240: eb3b c5be 6ca8 c73d aac1 7abf dc46 c2bb
00000250: f9c1 10be f414 883e 18d9 20be 5fd1 e83e
00000260: 6951 6cbf bf29 2d3f 9a3c 9bbe 420e 743f
00000270: 3c1b 023f 8a61 053f cd93 0ec0 74de 9fbd
00000280: 34f0 aa3f 82b8 4e3f 18c8 11bf cb03 b5bc
00000290: de7b 923f af49 3d40 4639 68bf 4a6d 3f3f
000002a0: d5f3 31bf 2249 23c0 b0a3 9abd bbb2 c23f
000002b0: eaa1 52bf 2ce6 55bf 6754 b83f 4b10 983f
000002c0: ec18 bebf f34a 2140 a031 1e3f cb43 2240
000002d0: a23e a13f c30d 273f c79f 0e40 3400 853d
000002e0: 0dd9 b4bd e2ee 153f 33af 5dbe 7d22 4abf
000002f0: 9d71 9cbe 05b2 063f ce84 2cbf 3dfd 73bf
00000300: 5100 8e3d 014a 673e cd7d 063f 39e7 2c3f
00000310: c9d4 0740 faf6 623f 15a5 18bf 669a 65bf
00000320: 99d4 963d 99f1 f63f 0842 11c0 c3c5 b93f
00000330: fb77 283f a718 b03f 2f7e 0cbf 7127 01bf
00000340: 713b f73d 5d09 3ebe 9433 1e40 fea8 803d
00000350: 20c5 a63f 8241 193e bbc1 2d3e 9b10 d1bf
00000360: 52c1 2740 6452 e53f 9cf7 d6bf ec91 493e
00000370: 5b6f b4bd f62f a33e 8a2e 0ebf c60a bdbd
00000380: 729f 13bf e09b 13c0 61fb c73d a1f0 ebbf
00000390: b9e4 4abd 90bc fdbf 5adb 113f f8d0 94bd
000003a0: 1c3c cd3f d86c fd3f 5f19 9cbe 9563 28c0
000003b0: 5ab6 c53e 52e2 b43f cb09 e13e 7276 59bf
000003c0: dcea 31bf b806 623f b9de 50bf ee5c 4fbf
000003d0: 4480 453e da1a cb3f 183c 813f 2d73 c0bf
000003e0: d1a9 89be 66eb a8bf
0.12210153 -1.3780587 1.6254767 -0.59674615 1.9803373 -0.21804358 -0.14399958 -0.2803173
-0.68193406 0.14408398 1.821862 -0.7223225 -2.0672426 -0.54241997 0.35616514 -1.5782483
-0.4879834 -0.05125965 -0.9116438 0.09180449 0.17425759 0.82513475 -0.51593673 -0.1516892
-0.07924746 0.36773047 1.0060161 -0.36394888 -0.40835035 -1.7660072 0.47027746 -0.045946743
-2.0854259 0.28182405 0.02055365 -0.29776314 -1.1582605 -0.9503849 0.69041014 0.034931406
-0.18377218 -0.53396946 -0.30694932 0.3330877 -0.23708016 0.4974802 0.09107891 1.5407984
0.13338082 0.6547525 2.2482169 -0.890699 -0.8783048 -1.1253124 1.1281706 0.32385957
-0.38554654 0.47855243 -0.023942258 0.19982783 -0.12141971 1.92496 -0.50117195 -1.3087207
-1.1295861 -0.8570734 -1.8743509 0.53861177 2.0545871 -1.284748 2.1620145 1.457661
-0.7272292 -0.45170447 0.33351701 -0.5883468 -0.35655156 0.11190103 0.61441845 0.40015265
-0.21351582 -0.04077037 -0.4482927 -1.0986246 0.3312531 0.8175892 0.24942356 -0.574533
0.070248276 0.87421745 -0.42541593 0.68465996 0.39476016 0.8101641 0.8521875 0.28264195
-0.25311562 -0.05906937 0.5481408 -1.6557943 0.42433727 1.6272572 0.09886008 -0.37788492
-0.00065806956 1.6600307 0.794104 -0.8067843 -1.5096972 0.982227 -0.29898575 1.6284355
0.044725887 -0.8476881 0.21898331 0.18041982 -2.0395448 -0.8904227 -2.122976 0.80900514
0.20391226 -0.6261594 -0.22970079 -0.8449175 -0.82698774 -0.20532997 0.8295574 1.2909853
0.31302273 0.2550987 -1.0382265 0.5158075 0.007864505 1.0978796 -0.31900677 -1.1985435
0.6971441 0.29728457 -0.14069206 0.32232928 0.75020236 -0.35947245 0.296157 -2.3925233
-0.38522276 0.09748921 -0.9795176 -0.0059288573 -0.14136495 0.26578486 -0.15707815 0.45472237
-0.9231172 0.67641824 -0.30319673 0.95334256 0.50822806 0.5210196 -2.227771 -0.078061014
1.3354554 0.80750287 -0.56945944 -0.022096535 1.1444051 2.9576223 -0.9071239 0.74776137
-0.69512683 -2.5513387 -0.07550752 1.5210794 -0.8227831 -0.8355434 1.4400758 1.1879972
-1.4851356 2.5201995 0.6179447 2.5353878 1.2597239 0.65255374 2.228502 0.06494179
-0.08830462 0.5856763 -0.21648864 -0.78958875 -0.3055543 0.52615386 -0.67390144 -0.95308286
0.06933654 0.22586824 0.52535707 0.6754032 2.1223624 0.88658106 -0.59626895 -0.8968872
0.073647685 1.929248 -2.2696552 1.4513477 0.65808076 1.3757523 -0.5488004 -0.5045081
0.120718844 -0.1855826 2.471898 0.06282233 1.3028908 0.14966395 0.16968434 -1.6333193
2.6211743 1.7915769 -1.6794314 0.19684571 -0.08810302 0.3187253 -0.5553976 -0.092305705
-0.5766517 -2.3063889 0.097647436 -1.8432809 -0.049534533 -1.982317 0.5697533 -0.0726642
1.6033969 1.9798841 -0.30488107 -2.631078 0.38615686 1.4131567 0.43952784 -0.8494636
-0.6949899 0.882915 -0.8158985 -0.81001174 0.1928721 1.586757 1.0096464 -1.5035149
-0.26887372 -1.3196838

Q1.1.bias f4 [1, 5]
00000000: e706 02bc c428 a7bb 698e 9fbb 3f3c 11bb
00000010: 45bf 13ba
-0.007936216 -0.005101295 -0.0048692715 -0.0022161154 -0.00056361064
