CausalCVR/logs/simu3/eval/30/Vcnet_ckpt.pth.tar (torch, 123067 bytes, 16 tensors)

feature_weight.weight f4 [50, 8]
0	0xbc374f57	-0.01118835
1	0x38fac1a9	0.00011957001
2	0xbb378ff1	-0.002800938
3	0x3cb49ca6	0.022047352
4	0x3c880dd6	0.01660816
5	0x3baa9af7	0.0052064615
6	0xbc9eea7f	-0.019398926
7	0x3c7acbdc	0.015307393
8	0x3c7cebb0	0.015437052
9	0xbc983091	-0.018577846
10	0xb9c1d753	-0.00036972258
11	0xb9895cce	-0.0002619982
12	0xbc3bbb63	-0.011458251
13	0x3b617242	0.0034400378
14	0x3c1a756c	0.00942741
15	0x3c49b8d2	0.012312131
16	0x3c772c09	0.015086182
17	0xbb5c63a0	-0.0033628717
18	0x3b8436ee	0.0040348684
19	0x3c3282d3	0.010895449
20	0xbc6f74e7	-0.014615274
21	0xbc83de3b	-0.016097179
22	0x3c438f56	0.011936029
23	0x3b732659	0.0037101714
24	0xb9bb1091	-0.00035679762
25	0x3b6a1094	0.0035715448
26	0xbc23581e	-0.009969739
27	0xbbeebd64	-0.0072857607
28	0xbc0af6c5	-0.008481686
29	0x3b8e7ea2	0.004348592
30	0xbc047f4d	-0.0080869915
31	0xbc129aed	-0.00894807
32	0x3a12d98d	0.00056018756
33	0x3c186352	0.009301024
34	0xbb800520	-0.003906861
35	0x3bc3cb09	0.0059751314
36	0x3b7d53b0	0.0038654618
37	0xbc14e899	-0.009088659
38	0xbc9f2640	-0.019427419
39	0xbb875584	-0.0041300673
40	0x3cc6cc29	0.024267273
41	0xbbcde46f	-0.006283335
42	0xbca164da	-0.01970141
43	0xbc0c3be2	-0.008559199
44	0x3b073803	0.002063275
45	0xbc016f27	-0.007900036
46	0xbb282ca0	-0.0025661364
47	0xbce17238	-0.027520284
48	0x3c0be25a	0.008537853
49	0x3a585754	0.0008252759
50	0x3b7258ee	0.0036979276
51	0x3c3bd9ce	0.011465503
52	0x3a4100e5	0.0007362499
53	0x3c8df690	0.017329484
54	0xbc5a8708	-0.013337858
55	0x3c233bdf	0.009963005
56	0x3b91de29	0.0044515324
57	0x3b9b9a94	0.0047486518
58	0x3ca7345b	0.020410707
59	0x3c1ece47	0.009692735
60	0xbb5711e5	-0.0032817062
61	0x3b119dac	0.0022219224
62	0xbc68de23	-0.014213118
63	0xbbe12d10	-0.006871827
64	0x3b93a0bf	0.0045052464
65	0xbb8c5495	-0.004282544
66	0xbba60e60	-0.0050676316
67	0x3b68f6b7	0.0035547444
68	0x3bf22db7	0.0073907035
69	0xbc0a64ca	-0.008446882
70	0xbc81be97	-0.01583795
71	0x3c46d843	0.012136522
72	0x3b1e90b8	0.0024195146
73	0xbb7db355	-0.0038711627
74	0x3b49ed7d	0.003081172
75	0xbb54e3f7	-0.003248451
76	0xbc75ee14	-0.0150103755
77	0xbbee2316	-0.007267366
78	0x3bf651a7	0.007517058
79	0xbbfb8a11	-0.007676371
80	0xba89a0a7	-0.0010500149
81	0xbaa5f998	-0.0012662886
82	0x3c12b08c	0.008953225
83	0x3c7a7e6c	0.01528893
84	0xbb929dc2	-0.0044743726
85	0xbc53899c	-0.012911227
86	0x3bf52e5e	0.007482334
87	0x3c2d50b2	0.010578321
88	0xbc1f36c9	-0.009717652
89	0xbac82aac	-0.0015271506
90	0xbc4cd4f5	-0.012501945
91	0xbc41e998	-0.011835478
92	0xbbea1238	-0.007143285
93	0x3b1390ee	0.0022516805
94	0xba87e448	-0.0010367716
95	0xbc29a27d	-0.010353682
96	0x3c6b7a5e	0.014372436
97	0x3beb0071	0.0071716835
98	0x3cb855c0	0.022501826
99	0xbb5d5a6f	-0.0033775826
100	0x3c9b4653	0.018954432
101	0xbbbaa280	-0.005695641
102	0x39def393	0.00042524617
103	0x3b68993f	0.0035491732
104	0x3be09087	0.0068531665
105	0xbc1ef539	-0.00970202
106	0xbc5bf0db	-0.013424124
107	0xbc39be9d	-0.01133695
108	0x3c023bb8	0.007948808
109	0xba8df020	-0.0010829009
110	0x3bb945fe	0.0056540957
111	0xbc3d91b5	-0.011570384
112	0xbb932fec	-0.0044917967
113	0xbccf65eb	-0.025317153
114	0xbcd56e5f	-0.026053606
115	0x3c49d0b2	0.012317823
116	0xbb537a57	-0.0032268965
117	0xbbe8cf92	-0.0071048224
118	0xbc6ed5ca	-0.0145773385
119	0xbb90231c	-0.0043987166
120	0xbb91252c	-0.00442948
121	0xbbeee820	-0.007290855
122	0xbb26d879	-0.0025458618
123	0xbbb143bb	-0.0054096854
124	0x3cc73764	0.024318404
125	0xbc420298	-0.011841439
126	0x3be18a21	0.0068829213
127	0xbcb00143	-0.021484977
128	0x3ba06863	0.0048952564
129	0xbca3db23	-0.020001953
130	0x3b667381	0.003516406
131	0x3ba653ca	0.0050759064
132	0x3c3b2969	0.011423447
133	0x3bc205f2	0.005921119
134	0x3b6d47d0	0.0036206134
135	0xbba186e9	-0.0049294126
136	0xbc246d3e	-0.010035811
137	0xbc53f8ba	-0.012937719
138	0x3bf72e10	0.007543333
139	0xba1e340a	-0.0006034976
140	0x3bbea35a	0.005817813
141	0xbc9bac23	-0.01900298
142	0x3a1392ec	0.0005629498
143	0x3aba6b88	0.0014222721
144	0xbb5f8d01	-0.0034111144
145	0x3c59aa0d	0.013285172
146	0x3c3cae46	0.011516159
147	0xb9798262	-0.00023795062
148	0xbb76adf8	-0.0037640315
149	0xbc770416	-0.015076658
150	0xbc5f9e34	-0.013648558
151	0xbacc1de9	-0.0015572879
152	0x3c0b78fa	0.00851273
153	0x3c2a2e2c	0.010386985
154	0x3be4b9f0	0.0069801733
155	0xbbf1f744	-0.0073842127
156	0x3bb31656	0.005465309
157	0xbbfcc1f4	-0.0077135507
158	0x3b0e187f	0.0021682081
159	0xbbc04052	-0.0058670426
160	0xbbe4bef0	-0.0069807693
161	0xbae7da0e	-0.0017688887
162	0x3b4395a7	0.0029843838
163	0x3bc7ed2a	0.00610127
164	0xbcad4ea9	-0.021155672
165	0x3bfdfc6f	0.0077510397
166	0x3c999f75	0.018752793
167	0x39addc96	0.0003316148
168	0xbc031d6b	-0.008002619
169	0xbc1bb8c0	-0.009504497
170	0xbc28f790	-0.01031293
171	0x3afcbb1f	0.0019281841
172	0xbacf1954	-0.0015800395
173	0x3a1c84b4	0.0005970702
174	0xbb9509c5	-0.0045482838
175	0x3b3fc59b	0.002926207
176	0xbcdc23a2	-0.02687246
177	0x3af37eb5	0.001857719
178	0xbb65bedd	-0.003505639
179	0xbbc5b8ad	-0.006033978
180	0xbc5c28e2	-0.013437482
181	0xbacd26f5	-0.0015651869
182	0xba4e406c	-0.0007867876
183	0x3c054343	0.008133712
184	0x3bf3d304	0.0074409265
185	0xbc8eb47c	-0.017420046
186	0x3c97f088	0.018547311
187	0x3b591b0a	0.0033127689
188	0x3b0440c8	0.0020180214
189	0xbbdb8dd5	-0.0067002573
190	0xbbb67649	-0.0055683
191	0x3bd09b7c	0.0063661914
192	0xbbe2c1f0	-0.006920092
193	0xb7cab602	-2.416503e-05
194	0xbb11bfe7	-0.0022239627
195	0xbc99c2cf	-0.01876965
196	0xbbca226d	-0.0061686547
197	0x3bf5ac72	0.0074973637
198	0x3b89ebb8	0.004209008
199	0xb827ab05	-3.9975177e-05
200	0xbb6e7333	-0.0036384582
201	0x3c202b5b	0.009775962
202	0x3c4858bb	0.012228186
203	0x3a705f55	0.0009169479
204	0x3bc3d924	0.005976813
205	0x3b966ed1	0.004590847
206	0xbcb4e9b0	-0.022084087
207	0xbc41e432	-0.011834191
208	0xbc1e22d4	-0.009651858
209	0x3be933a4	0.0071167517
210	0xbc8f654b	-0.017504355
211	0x3c1ab139	0.009441667
212	0x3ba9c53d	0.0051809833
213	0x3b4f7356	0.003165444
214	0xbca410e0	-0.020027578
215	0xbc6ea2d0	-0.014565185
216	0x3c2e6c0c	0.010645878
217	0xbb44fefd	-0.0030059211
218	0x3c66caff	0.014086484
219	0xbaab1197	-0.0013051507
220	0xbc23ff41	-0.010009588
221	0xbc9d87d3	-0.019229805
222	0xbbfc505e	-0.00770001
223	0x3a730a2b	0.00092712295
224	0xbbac1f37	-0.0052527445
225	0x3a7f89a3	0.00097479875
226	0xbcb258d3	-0.02177087
227	0x3ad7ba1e	0.0016458665
228	0x3b7c5c76	0.003850726
229	0xbbc8d803	-0.006129266
230	0xbc02f574	-0.007993091
231	0x3cf64244	0.030060895
232	0x3bde0cf1	0.006776445
233	0xbbbcb0ec	-0.0057583954
234	0xbcb5bc46	-0.022184502
235	0xbc11c1f5	-0.008896341
236	0x3c334c02	0.010943415
237	0x3c1a224a	0.009407589
238	0x3bc5053f	0.0060125883
239	0xbc9f47bf	-0.01944339
240	0x3b8deca8	0.00433119
241	0xbc2c9d7d	-0.010535595
242	0x3bbd12bc	0.0057700556
243	0xbc09500f	-0.008380904
244	0x3b800211	0.0039064963
245	0xbc17dd61	-0.009269089
246	0xbb5c3877	-0.0033602992
247	0xbbb44f63	-0.0055026277
248	0x3b1f43f1	0.002430197
249	0x3c4946b8	0.012284927
250	0xbc0ede83	-0.008720043
251	0xbab0c82b	-0.0013487389
252	0xbc6c5e03	-0.014426711
253	0xbb7e29c7	-0.0038782225
254	0xbc507448	-0.012723036
255	0xbbe59133	-0.0070058345

feature_weight.bias f4 [50]
0	0xb79ee45e	-1.894141e-05
1	0xb7a7f732	-2.002306e-05
2	0xb7917e53	-1.7344171e-05
3	0xb4b61ba7	-3.3920261e-07
4	0xb6651c35	-3.4140078e-06
5	0x366f1d55	3.5630849e-06
6	0xb8023af6	-3.1049327e-05
7	0x3721b0ae	9.637484e-06
8	0xb5d995c4	-1.6211347e-06
9	0xb4fe7f78	-4.7403933e-07
10	0x37848cdb	1.5801217e-05
11	0x00000000	0.0
12	0x36785b5a	3.7008053e-06
13	0xb54543af	-7.348671e-07
14	0x00000000	0.0
15	0x36df3d16	6.6530292e-06
16	0x36cace9b	6.044121e-06
17	0x34b71076	3.4098383e-07
18	0xb7864552	-1.6006325e-05
19	0xb5414845	-7.200327e-07
20	0xb8986175	-7.2660776e-05
21	0x00000000	0.0
22	0x00000000	0.0
23	0x37f08046	2.8669961e-05
24	0x35c880b4	1.4938619e-06
25	0xb7bcd1a2	-2.2508964e-05
26	0xb55e0074	-8.2702104e-07
27	0x369f8463	4.753981e-06
28	0xb7bb4dcb	-2.2328362e-05
29	0x372d6bc0	1.0336691e-05
30	0xb6276ddc	-2.4948886e-06
31	0xb54eae7d	-7.6994894e-07
32	0x00000000	0.0
33	0xb79894bf	-1.8189077e-05
34	0xb793d57c	-1.7623177e-05
35	0x380658b5	3.2030704e-05
36	0xb6ced93b	-6.1645674e-06
37	0x37c714f2	2.3732402e-05
38	0xb6077654	-2.0185444e-06
39	0xb803a4ea	-3.1386422e-05
40	0x37a74088	1.9938001e-05
41	0x37e5f693	2.7413747e-05
42	0xb6ba1886	-5.546087e-06
43	0x00000000	0.0
44	0x37584746	1.2891198e-05
45	0xb7bfd916	-2.2870063e-05
46	0xb8067272	-3.2054675e-05
47	0x38806cb4	6.123763e-05
48	0x37ca0c0b	2.4085884e-05
49	0x34a3ccb6	3.0510063e-07

hidden_features.0.weight f4 [50, 8]
0	0xbc374f57	-0.01118835
1	0x38fac1a9	0.00011957001
2	0xbb378ff1	-0.002800938
3	0x3cb49ca6	0.022047352
4	0x3c880dd6	0.01660816
5	0x3baa9af7	0.0052064615
6	0xbc9eea7f	-0.019398926
7	0x3c7acbdc	0.015307393
8	0x3c7cebb0	0.015437052
9	0xbc983091	-0.018577846
10	0xb9c1d753	-0.00036972258
11	0xb9895cce	-0.0002619982
12	0xbc3bbb63	-0.011458251
13	0x3b617242	0.0034400378
14	0x3c1a756c	0.00942741
15	0x3c49b8d2	0.012312131
16	0x3c772c09	0.015086182
17	0xbb5c63a0	-0.0033628717
18	0x3b8436ee	0.0040348684
19	0x3c3282d3	0.010895449
20	0xbc6f74e7	-0.014615274
21	0xbc83de3b	-0.016097179
22	0x3c438f56	0.011936029
23	0x3b732659	0.0037101714
24	0xb9bb1091	-0.00035679762
25	0x3b6a1094	0.0035715448
26	0xbc23581e	-0.009969739
27	0xbbeebd64	-0.0072857607
28	0xbc0af6c5	-0.008481686
29	0x3b8e7ea2	0.004348592
30	0xbc047f4d	-0.0080869915
31	0xbc129aed	-0.00894807
32	0x3a12d98d	0.00056018756
33	0x3c186352	0.009301024
34	0xbb800520	-0.003906861
35	0x3bc3cb09	0.0059751314
36	0x3b7d53b0	0.0038654618
37	0xbc14e899	-0.009088659
38	0xbc9f2640	-0.019427419
39	0xbb875584	-0.0041300673
40	0x3cc6cc29	0.024267273
41	0xbbcde46f	-0.006283335
42	0xbca164da	-0.01970141
43	0xbc0c3be2	-0.008559199
44	0x3b073803	0.002063275
45	0xbc016f27	-0.007900036
46	0xbb282ca0	-0.0025661364
47	0xbce17238	-0.027520284
48	0x3c0be25a	0.008537853
49	0x3a585754	0.0008252759
50	0x3b7258ee	0.0036979276
51	0x3c3bd9ce	0.011465503
52	0x3a4100e5	0.0007362499
53	0x3c8df690	0.017329484
54	0xbc5a8708	-0.013337858
55	0x3c233bdf	0.009963005
56	0x3b91de29	0.0044515324
57	0x3b9b9a94	0.0047486518
58	0x3ca7345b	0.020410707
59	0x3c1ece47	0.009692735
60	0xbb5711e5	-0.0032817062
61	0x3b119dac	0.0022219224
62	0xbc68de23	-0.014213118
63	0xbbe12d10	-0.006871827
64	0x3b93a0bf	0.0045052464
65	0xbb8c5495	-0.004282544
66	0xbba60e60	-0.0050676316
67	0x3b68f6b7	0.0035547444
68	0x3bf22db7	0.0073907035
69	0xbc0a64ca	-0.008446882
70	0xbc81be97	-0.01583795
71	0x3c46d843	0.012136522
72	0x3b1e90b8	0.0024195146
73	0xbb7db355	-0.0038711627
74	0x3b49ed7d	0.003081172
75	0xbb54e3f7	-0.003248451
76	0xbc75ee14	-0.0150103755
77	0xbbee2316	-0.007267366
78	0x3bf651a7	0.007517058
79	0xbbfb8a11	-0.007676371
80	0xba89a0a7	-0.0010500149
81	0xbaa5f998	-0.0012662886
82	0x3c12b08c	0.008953225
83	0x3c7a7e6c	0.01528893
84	0xbb929dc2	-0.0044743726
85	0xbc53899c	-0.012911227
86	0x3bf52e5e	0.007482334
87	0x3c2d50b2	0.010578321
88	0xbc1f36c9	-0.009717652
89	0xbac82aac	-0.0015271506
90	0xbc4cd4f5	-0.012501945
91	0xbc41e998	-0.011835478
92	0xbbea1238	-0.007143285
93	0x3b1390ee	0.0022516805
94	0xba87e448	-0.0010367716
95	0xbc29a27d	-0.010353682
96	0x3c6b7a5e	0.014372436
97	0x3beb0071	0.0071716835
98	0x3cb855c0	0.022501826
99	0xbb5d5a6f	-0.0033775826
100	0x3c9b4653	0.018954432
101	0xbbbaa280	-0.005695641
102	0x39def393	0.00042524617
103	0x3b68993f	0.0035491732
104	0x3be09087	0.0068531665
105	0xbc1ef539	-0.00970202
106	0xbc5bf0db	-0.013424124
107	0xbc39be9d	-0.01133695
108	0x3c023bb8	0.007948808
109	0xba8df020	-0.0010829009
110	0x3bb945fe	0.0056540957
111	0xbc3d91b5	-0.011570384
112	0xbb932fec	-0.0044917967
113	0xbccf65eb	-0.025317153
114	0xbcd56e5f	-0.026053606
115	0x3c49d0b2	0.012317823
116	0xbb537a57	-0.0032268965
117	0xbbe8cf92	-0.0071048224
118	0xbc6ed5ca	-0.0145773385
119	0xbb90231c	-0.0043987166
120	0xbb91252c	-0.00442948
121	0xbbeee820	-0.007290855
122	0xbb26d879	-0.0025458618
123	0xbbb143bb	-0.0054096854
124	0x3cc73764	0.024318404
125	0xbc420298	-0.011841439
126	0x3be18a21	0.0068829213
127	0xbcb00143	-0.021484977
128	0x3ba06863	0.0048952564
129	0xbca3db23	-0.020001953
130	0x3b667381	0.003516406
131	0x3ba653ca	0.0050759064
132	0x3c3b2969	0.011423447
133	0x3bc205f2	0.005921119
134	0x3b6d47d0	0.0036206134
135	0xbba186e9	-0.0049294126
136	0xbc246d3e	-0.010035811
137	0xbc53f8ba	-0.012937719
138	0x3bf72e10	0.007543333
139	0xba1e340a	-0.0006034976
140	0x3bbea35a	0.005817813
141	0xbc9bac23	-0.01900298
142	0x3a1392ec	0.0005629498
143	0x3aba6b88	0.0014222721
144	0xbb5f8d01	-0.0034111144
145	0x3c59aa0d	0.013285172
146	0x3c3cae46	0.011516159
147	0xb9798262	-0.00023795062
148	0xbb76adf8	-0.0037640315
149	0xbc770416	-0.015076658
150	0xbc5f9e34	-0.013648558
151	0xbacc1de9	-0.0015572879
152	0x3c0b78fa	0.00851273
153	0x3c2a2e2c	0.010386985
154	0x3be4b9f0	0.0069801733
155	0xbbf1f744	-0.0073842127
156	0x3bb31656	0.005465309
157	0xbbfcc1f4	-0.0077135507
158	0x3b0e187f	0.0021682081
159	0xbbc04052	-0.0058670426
160	0xbbe4bef0	-0.0069807693
161	0xbae7da0e	-0.0017688887
162	0x3b4395a7	0.0029843838
163	0x3bc7ed2a	0.00610127
164	0xbcad4ea9	-0.021155672
165	0x3bfdfc6f	0.0077510397
166	0x3c999f75	0.018752793
167	0x39addc96	0.0003316148
168	0xbc031d6b	-0.008002619
169	0xbc1bb8c0	-0.009504497
170	0xbc28f790	-0.01031293
171	0x3afcbb1f	0.0019281841
172	0xbacf1954	-0.0015800395
173	0x3a1c84b4	0.0005970702
174	0xbb9509c5	-0.0045482838
175	0x3b3fc59b	0.002926207
176	0xbcdc23a2	-0.02687246
177	0x3af37eb5	0.001857719
178	0xbb65bedd	-0.003505639
179	0xbbc5b8ad	-0.006033978
180	0xbc5c28e2	-0.013437482
181	0xbacd26f5	-0.0015651869
182	0xba4e406c	-0.0007867876
183	0x3c054343	0.008133712
184	0x3bf3d304	0.0074409265
185	0xbc8eb47c	-0.017420046
186	0x3c97f088	0.018547311
187	0x3b591b0a	0.0033127689
188	0x3b0440c8	0.0020180214
189	0xbbdb8dd5	-0.0067002573
190	0xbbb67649	-0.0055683
191	0x3bd09b7c	0.0063661914
192	0xbbe2c1f0	-0.006920092
193	0xb7cab602	-2.416503e-05
194	0xbb11bfe7	-0.0022239627
195	0xbc99c2cf	-0.01876965
196	0xbbca226d	-0.0061686547
197	0x3bf5ac72	0.0074973637
198	0x3b89ebb8	0.004209008
199	0xb827ab05	-3.9975177e-05
200	0xbb6e7333	-0.0036384582
201	0x3c202b5b	0.009775962
202	0x3c4858bb	0.012228186
203	0x3a705f55	0.0009169479
204	0x3bc3d924	0.005976813
205	0x3b966ed1	0.004590847
206	0xbcb4e9b0	-0.022084087
207	0xbc41e432	-0.011834191
208	0xbc1e22d4	-0.009651858
209	0x3be933a4	0.0071167517
210	0xbc8f654b	-0.017504355
211	0x3c1ab139	0.009441667
212	0x3ba9c53d	0.0051809833
213	0x3b4f7356	0.003165444
214	0xbca410e0	-0.020027578
215	0xbc6ea2d0	-0.014565185
216	0x3c2e6c0c	0.010645878
217	0xbb44fefd	-0.0030059211
218	0x3c66caff	0.014086484
219	0xbaab1197	-0.0013051507
220	0xbc23ff41	-0.010009588
221	0xbc9d87d3	-0.019229805
222	0xbbfc505e	-0.00770001
223	0x3a730a2b	0.00092712295
224	0xbbac1f37	-0.0052527445
225	0x3a7f89a3	0.00097479875
226	0xbcb258d3	-0.02177087
227	0x3ad7ba1e	0.0016458665
228	0x3b7c5c76	0.003850726
229	0xbbc8d803	-0.006129266
230	0xbc02f574	-0.007993091
231	0x3cf64244	0.030060895
232	0x3bde0cf1	0.006776445
233	0xbbbcb0ec	-0.0057583954
234	0xbcb5bc46	-0.022184502
235	0xbc11c1f5	-0.008896341
236	0x3c334c02	0.010943415
237	0x3c1a224a	0.009407589
238	0x3bc5053f	0.0060125883
239	0xbc9f47bf	-0.01944339
240	0x3b8deca8	0.00433119
241	0xbc2c9d7d	-0.010535595
242	0x3bbd12bc	0.0057700556
243	0xbc09500f	-0.008380904
244	0x3b800211	0.0039064963
245	0xbc17dd61	-0.009269089
246	0xbb5c3877	-0.0033602992
247	0xbbb44f63	-0.0055026277
248	0x3b1f43f1	0.002430197
249	0x3c4946b8	0.012284927
250	0xbc0ede83	-0.008720043
251	0xbab0c82b	-0.0013487389
252	0xbc6c5e03	-0.014426711
253	0xbb7e29c7	-0.0038782225
254	0xbc507448	-0.012723036
255	0xbbe59133	-0.0070058345

hidden_features.0.bias f4 [50]
0	0xb79ee45e	-1.894141e-05
1	0xb7a7f732	-2.002306e-05
2	0xb7917e53	-1.7344171e-05
3	0xb4b61ba7	-3.3920261e-07
4	0xb6651c35	-3.4140078e-06
5	0x366f1d55	3.5630849e-06
6	0xb8023af6	-3.1049327e-05
7	0x3721b0ae	9.637484e-06
8	0xb5d995c4	-1.6211347e-06
9	0xb4fe7f78	-4.7403933e-07
10	0x37848cdb	1.5801217e-05
11	0x00000000	0.0
12	0x36785b5a	3.7008053e-06
13	0xb54543af	-7.348671e-07
14	0x00000000	0.0
15	0x36df3d16	6.6530292e-06
16	0x36cace9b	6.044121e-06
17	0x34b71076	3.4098383e-07
18	0xb7864552	-1.6006325e-05
19	0xb5414845	-7.200327e-07
20	0xb8986175	-7.2660776e-05
21	0x00000000	0.0
22	0x00000000	0.0
23	0x37f08046	2.8669961e-05
24	0x35c880b4	1.4938619e-06
25	0xb7bcd1a2	-2.2508964e-05
26	0xb55e0074	-8.2702104e-07
27	0x369f8463	4.753981e-06
28	0xb7bb4dcb	-2.2328362e-05
29	0x372d6bc0	1.0336691e-05
30	0xb6276ddc	-2.4948886e-06
31	0xb54eae7d	-7.6994894e-07
32	0x00000000	0.0
33	0xb79894bf	-1.8189077e-05
34	0xb793d57c	-1.7623177e-05
35	0x380658b5	3.2030704e-05
36	0xb6ced93b	-6.1645674e-06
37	0x37c714f2	2.3732402e-05
38	0xb6077654	-2.0185444e-06
39	0xb803a4ea	-3.1386422e-05
40	0x37a74088	1.9938001e-05
41	0x37e5f693	2.7413747e-05
42	0xb6ba1886	-5.546087e-06
43	0x00000000	0.0
44	0x37584746	1.2891198e-05
45	0xb7bfd916	-2.2870063e-05
46	0xb8067272	-3.2054675e-05
47	0x38806cb4	6.123763e-05
48	0x37ca0c0b	2.4085884e-05
49	0x34a3ccb6	3.0510063e-07

hidden_features.2.weight f4 [50, 50]
0	0x3bf22cc8	0.0073905922
1	0x3c2aa1c9	0.010414549
2	0x3c9fccf4	0.019506909
3	0x3c00e7b5	0.007867743
4	0xbb7045ab	-0.003666262
5	0xbbcc5e6d	-0.0062368424
6	0x3ad0a590	0.0015918482
7	0xbbcd56a4	-0.006266432
8	0x3c3cfc67	0.011534787
9	0x3c824513	0.015902078
10	0x3c051e43	0.008124891
11	0x3bb3435e	0.0054706773
12	0x3ac25454	0.0014826157
13	0x3bed890b	0.007249003
14	0x3c1edb24	0.009695802
15	0x3b64688e	0.0034852359
16	0x3bb02dfd	0.005376576
17	0x3c15cb9c	0.009142783
18	0x3b8b7a23	0.004256503
19	0xbae1fc4f	-0.0017241332
20	0xbc987a4e	-0.018613007
21	0x3cf75ef6	0.030196648
22	0xb9d0bdcb	-0.00039814258
23	0xbb9f867b	-0.0048683262
24	0x3c088cf3	0.008334386
25	0xbbfff99f	-0.0078117396
26	0xbc17bb47	-0.009260959
27	0x3b045387	0.0020191388
28	0xbc3d01b4	-0.011536051
29	0x3c19bf24	0.00938395
30	0xbb824dd2	-0.003976562
31	0xbc4ccbb1	-0.012499736
32	0x3bd76a9d	0.0065739886
33	0xbc4d418d	-0.012527836
34	0x3c274126	0.010208404
35	0xbbf12612	-0.0073592747
36	0xbba5210d	-0.0050393404
37	0x3bdfe45c	0.0068326425
38	0x3c872e1e	0.016501483
39	0xbbe087f7	-0.006852146
40	0xbb31bb83	-0.0027119822
41	0xbb7a47d4	-0.0038189786
42	0xb975053f	-0.00023366975
43	0xbb3b22fc	-0.0028554788
44	0x3b996aa6	0.004681903
45	0x3c667958	0.014067017
46	0xbb872d7b	-0.0041252947
47	0xbaf2b062	-0.0018515701
48	0xbbd68ee4	-0.0065477956
49	0xb8b728ff	-8.733756e-05
50	0xbb9df731	-0.0048207273
51	0x3c368063	0.011139008
52	0x38d54167	0.000101688136
53	0xbacd8cc8	-0.0015682215
54	0x3a410163	0.00073625724
55	0xbbc8781b	-0.0061178333
56	0x3b5cf5f9	0.0033715947
57	0x3bf57fe5	0.007492053
58	0xb9c9920c	-0.0003844652
59	0x3b18d928	0.0023322795
60	0xba24a1d1	-0.0006280216
61	0x3c27bccc	0.010237884
62	0x3bc4a1cb	0.0060007325
63	0x3c150fbc	0.00909799
64	0xbc5dc3f5	-0.013535489
65	0x3c87108f	0.016487388
66	0xbc955da8	-0.018233135
67	0xbb273a36	-0.0025516874
68	0xbc9598f2	-0.018261407
69	0xbb63482e	-0.0034680474
70	0x3bffe74b	0.0078095547
71	0xbb8b1649	-0.0042446
72	0x3b8e9a47	0.0043518874
73	0xbbf794d0	-0.0075555816
74	0x3b9ac4ef	0.0047231833
75	0xbbbb493f	-0.0057155187
76	0x3c3ddbd7	0.011588058
77	0x3abc212a	0.0014353145
78	0xbc15ffed	-0.009155256
79	0xbc997e20	-0.018736899
80	0xbc809da8	-0.015700176
81	0x3b456533	0.0030120134
82	0x3c6a23c0	0.01429075
83	0x3b02a946	0.001993732
84	0x3c2b4351	0.010453061
85	0x3b6c5a2f	0.0036064496
86	0xba6ebd01	-0.0009107143
87	0x3bb3025b	0.0054629273
88	0x3c35b249	0.01108987
89	0x3c6146fa	0.013749832
90	0xbc4d3201	-0.012524129
91	0x3ce9cccd	0.02854004
92	0xbb7c9a7a	-0.0038544224
93	0x3bf3b66c	0.007437518
94	0xbc1585dc	-0.009126153
95	0xbc107e02	-0.008819105
96	0xbacb1b83	-0.001549587
97	0x3c894fbd	0.016761655
98	0x3c01d25f	0.0079236915
99	0x3bd237c7	0.0064153406
100	0x3b55acf5	0.003260431
101	0xbc61c7a5	-0.013780509
102	0xbb8e3f86	-0.0043410687
103	0x39d2585b	0.0004012015
104	0x3c923d25	0.017851422
105	0x3bdd6e1a	0.00675751
106	0xbaae6a81	-0.0013306887
107	0x3be3d59e	0.0069529554
108	0xbb4f8af5	-0.0031668518
109	0x3b134904	0.002247394
110	0xbbea0293	-0.00714142
111	0xba7dc2fe	-0.000968024
112	0x3bc5d2fe	0.006037115
113	0xbc068c5c	-0.008212175
114	0x3c19e9e7	0.009394146
115	0x3922ff43	0.00015544616
116	0x3b5b6015	0.0033474017
117	0x3c24ca0a	0.0100579355
118	0xbbb57fc9	-0.005538915
119	0x3abd8f9c	0.0014462355
120	0x3a8334e8	0.0010010274
121	0x3bdeca22	0.0067989985
122	0xbc559b4c	-0.013037514
123	0xbae0de4d	-0.0017156095
124	0x3b3a7e40	0.0028456599
125	0x3c275ecf	0.010215475
126	0x39d4b5e4	0.0004057131
127	0x3b997480	0.0046830773
128	0xbb98e58b	-0.0046660355
129	0xbc62e56a	-0.013848642
130	0xbcbf715e	-0.023369487
131	0x3c4df003	0.01256943
132	0xbc647e9d	-0.013946203
133	0x3bac907d	0.005266248
134	0xbc52dc24	-0.012869868
135	0x3b9a0001	0.0046997075
136	0xbc1a0c2c	-0.009402316
137	0x3a87510b	0.0010323835
138	0xbc762122	-0.015022548
139	0xba768e61	-0.00094053714
140	0xbc63bffd	-0.013900754
141	0x3bea7990	0.0071556047
142	0x3ba4b9fb	0.0050270534
143	0x3c31b03c	0.01084524
144	0x3bfb6431	0.007671856
145	0xbc8f8e73	-0.01752398
146	0x3bf07628	0.007338304
147	0x3c973c43	0.018461352
148	0xbaa6a099	-0.0012712657
149	0xbb71878f	-0.003685448
150	0x3c8ff28e	0.017571714
151	0x3bf75fe9	0.007549275
152	0xbc1b0f35	-0.009464075
153	0x3ad33aee	0.0016115585
154	0x3bc642ed	0.0060504586
155	0x3c012f0c	0.007884752
156	0xbcb4a77d	-0.02205252
157	0xbbaa6ea9	-0.00520118
158	0x3bd80fa7	0.006593663
159	0xbbf4a5f1	-0.007466071
160	0x3c74da56	0.0149446335
161	0xbc1e6d37	-0.009669594
162	0x3b6088ab	0.0034261148
163	0x3b52b638	0.0032152068
164	0x3b867537	0.0041033286
165	0xbb01e79d	-0.001982189
166	0xbb05fbf9	-0.0020444377
167	0xbb177250	-0.0023108907
168	0xbbbdf49a	-0.005796981
169	0x3c612229	0.013741055
170	0xbc830e27	-0.01599796
171	0x3bf69c94	0.00752599
172	0x3c294715	0.010331889
173	0xbc138687	-0.009004242
174	0xbc8c320e	-0.017113712
175	0x3a9314df	0.001122143
176	0xbca89eb4	-0.020583488
177	0xba2cf71b	-0.0006598101
178	0x3ad93a8c	0.0016573234
179	0x3b7494fe	0.0037320252
180	0x3bb5a8e8	0.005543817
181	0x3a93a5d8	0.0011264635
182	0xbc3258ea	-0.010885457
183	0xbbaa58ee	-0.0051985895
184	0x3b6b625b	0.0035916779
185	0x3b855f9f	0.004070237
186	0xbc9f3024	-0.019432135
187	0x3c082b52	0.00831111
188	0xbb5b2346	-0.0033437773
189	0x3bf79e30	0.007556699
190	0x3a1ec964	0.0006057231
191	0x3a4eba68	0.0007886053
192	0xbb35faf1	-0.002776798
193	0xbafb6b77	-0.0019181807
194	0xbaa9e212	-0.0012961051
195	0xbc496428	-0.0122919455
196	0xbc95084b	-0.018192431
197	0x3a9e2953	0.0012066759
198	0xbc6a0c8b	-0.014285217
199	0x3b847d0d	0.0040432275
200	0x3c00e450	0.007866934
201	0x3b5da7c3	0.0033821918
202	0x3c91c126	0.017792296
203	0x3c6436e6	0.013929104
204	0xbc16646a	-0.009179214
205	0xbc06862d	-0.008210701
206	0x3c50085c	0.0126973055
207	0x3bb7665b	0.0055969185
208	0xbb81b522	-0.0039583603
209	0x3c9aa448	0.018877164
210	0xbc81e1ea	-0.015854795
211	0x3b92c3c9	0.004478906
212	0x3b0802ea	0.002075369
213	0x3c40bae1	0.011763305
214	0x3cf10789	0.029422538
215	0xbc6098b4	-0.013708282
216	0xbc265006	-0.010150915
217	0xbb280690	-0.0025638677
218	0xbbb774bf	-0.005598634
219	0x3c69cb0b	0.014269601
220	0x3c554f89	0.013019451
221	0x3a804761	0.0009786898
222	0xbab62a58	-0.0013898117
223	0xbbfdeb04	-0.0077489633
224	0x3b196fbc	0.0023412546
225	0xbb69a7dc	-0.003565303
226	0xba0bb3d6	-0.0005329227
227	0x3bd1d8fa	0.0064040394
228	0x3c4bd16f	0.01244007
229	0xbbacdd99	-0.00527544
230	0x3ac08542	0.0014688151
231	0xb997845d	-0.00028899583
232	0xbc0fd4d3	-0.008778769
233	0x3b8d9c12	0.0043215835
234	0x3c8eb52a	0.01742037
235	0x3b4cccb7	0.003124995
236	0x3b743ac1	0.0037266465
237	0x3c255c33	0.010092783
238	0xbb93525b	-0.0044959015
239	0x3b9f810a	0.0048676776
240	0xbb8f715b	-0.0043775267
241	0xbc6605fc	-0.014039513
242	0x3c22b284	0.009930257
243	0xbbebe0a8	-0.007198412
244	0xbc894f30	-0.016761392
245	0xbbe66887	-0.0070315036
246	0x3c96f0f7	0.018425448
247	0x3c45f73c	0.012082871
248	0x3a9ff81f	0.0012204683
249	0xbae6359c	-0.0017563584
250	0x3bc5bf54	0.006034771
251	0xbc46578e	-0.012105836
252	0x3cb3df97	0.021957202
253	0xbc8c58b4	-0.01713214
254	0xbc93b9f9	-0.018033015
255	0xbc98b71b	-0.018641999

hidden_features.2.bias f4 [50]
0	0x38e14d19	0.000107431966
1	0x3a830eb1	0.0009998885
2	0x3a45d5d5	0.0007546817
3	0x3684c0c8	3.9563492e-06
4	0xba3206c9	-0.0006791172
5	0x3a783d63	0.00094695966
6	0xba61765a	-0.00086007046
7	0x38f0f5fb	0.00011489909
8	0x00000000	0.0
9	0x38962252	7.15895e-05
10	0xb6f3818d	-7.257046e-06
11	0x38d30ac5	0.0001006327
12	0xba7021b3	-0.0009160295
13	0x39db685f	0.00041848698
14	0x38344f6b	4.2989308e-05
15	0xb7d5137e	-2.5400655e-05
16	0x3a49f1da	0.000770358
17	0xb95d9c8c	-0.0002113452
18	0xb983e55e	-0.0002515716
19	0x3a28da8b	0.0006441257
20	0xb73abc5c	-1.113032e-05
21	0xb9bf80e3	-0.00036526387
22	0x39618d78	0.00021510373
23	0xb94932a1	-0.00019187714
24	0xba7d4539	-0.0009661499
25	0x3a871e42	0.00103087
26	0x00000000	0.0
27	0x00000000	0.0
28	0xba623971	-0.0008629775
29	0x38f908a7	0.00011874857
30	0xb8c46f97	-9.3667935e-05
31	0x38d441f5	0.00010121233
32	0xb919640f	-0.00014628492
33	0x3a0cfc43	0.0005378166
34	0x384843a6	4.774672e-05
35	0xb942ed08	-0.00018589583
36	0x373ea895	1.1364134e-05
37	0x38a17958	7.69968e-05
38	0xb87b7987	-5.9956245e-05
39	0x39c2113f	0.00037015413
40	0xb9e1beea	-0.00043057586
41	0x3a1a17f1	0.00058782013
42	0xb8862406	-6.396328e-05
43	0x00000000	0.0
44	0x3a853e10	0.0010165591
45	0xb88a32ce	-6.589816e-05
46	0x3a03e46c	0.0005031291
47	0xb820e878	-3.8363476e-05
48	0xb9b74e79	-0.00034962947
49	0xb8ac339c	-8.211212e-05

density_estimator_head.weight f4 [50, 11]
0	0xbc7295a2	-0.014806183
1	0x394aa735	0.0001932651
2	0xbb5ff21b	-0.0034171406
3	0xbb941fc0	-0.0045203865
4	0xba4eb18c	-0.0007884733
5	0x3bd89229	0.0066092205
6	0x3c03f0c8	0.008053012
7	0x3b4c0d32	0.0031135795
8	0xbbebd322	-0.0071968
9	0xbca5361a	-0.0201674
10	0xbb7d07ac	-0.003860931
11	0xbb53848e	-0.0032275054
12	0x3b66f3ba	0.0035240487
13	0xbbbc4e39	-0.0057466296
14	0xbb880738	-0.004151251
15	0xbc9d26f6	-0.019183617
16	0x3c38cca3	0.011279258
17	0xbca3c255	-0.019990126
18	0x3b86d201	0.00411439
19	0x3c98edfa	0.018668164
20	0xb983a29d	-0.00025107423
21	0x3c8182e5	0.015809486
22	0xbcb9d4b7	-0.022684438
23	0x3be3124f	0.006929673
24	0x3c0f9bc2	0.008765163
25	0x3ab32d11	0.0013670047
26	0xbc845ff1	-0.01615903
27	0xbbc1bb97	-0.005912255
28	0xbc241149	-0.010013887
29	0xbbf814d6	-0.007570843
30	0xbc0fc40e	-0.00877477
31	0x3af3ecc1	0.0018609987
32	0x3c292c69	0.01032553
33	0x3c0c9a05	0.008581643
34	0xbbc9ff1b	-0.006164444
35	0xbc06c157	-0.008224807
36	0x3ba53b7e	0.0050424924
37	0x3b7ced1c	0.0038593477
38	0x3a823d20	0.000993643
39	0xba348f01	-0.00068877643
40	0x3b69dae7	0.0035683454
41	0x3b576cb1	0.0032871182
42	0xbb5c1afb	-0.0033585418
43	0xbbc2b9d5	-0.005942563
44	0x3b619d23	0.0034425936
45	0x3c42bd0a	0.011885891
46	0x3c0b8047	0.00851447
47	0xb9628113	-0.00021601123
48	0xbb81194b	-0.0039397827
49	0xbc348460	-0.011017889
50	0xbb104133	-0.0022011518
51	0xbb27ebbc	-0.0025622686
52	0x3b2f16e9	0.0026716536
53	0xbb5b8a2c	-0.0033499105
54	0xbbb46047	-0.005504641
55	0x3c372fb4	0.011180807
56	0xbca25304	-0.019814976
57	0xbb6f0c90	-0.0036475994
58	0xbc200bc2	-0.009768428
59	0xbc4d0c82	-0.012515189
60	0x3b9b2df8	0.0047357045
61	0x3ac8b757	0.0015313429
62	0x3c0b8acd	0.008516979
63	0x3c0494e1	0.008092136
64	0x3c7b81f8	0.015350811
65	0x3b2a0635	0.002594364
66	0x3c0c00ac	0.008545082
67	0x3bc67842	0.0060568163
68	0x3b27bc63	0.0025594465
69	0x3c6a63a8	0.014305986
70	0xbab2232a	-0.0013590802
71	0xbcab630f	-0.020921258
72	0x3c9ab47d	0.018884892
73	0x3c776601	0.015100003
74	0xbbc2c018	-0.0059433095
75	0xbc96ccc6	-0.01840819
76	0xbc65171c	-0.0139825605
77	0xbb597c8f	-0.0033185815
78	0x3b250c99	0.002518451
79	0x3cae69e5	0.021290729
80	0xbbcfc127	-0.006340164
81	0x3c56649a	0.013085509
82	0x3c38fdd9	0.011290991
83	0xbc6a6f76	-0.014308801
84	0x3ba2349d	0.0049501196
85	0x3c057384	0.008145217
86	0x3a60677a	0.0008560341
87	0xb9299b1c	-0.00016174879
88	0xbb41b4df	-0.002955727
89	0x3acc11e6	0.0015569299
90	0x3c1d7aa9	0.009611764
91	0xbb50ed06	-0.0031879558
92	0xba85482b	-0.0010168602
93	0xbbba1ea2	-0.0056799212
94	0xbb02df7c	-0.0019969633
95	0xbc8a1db5	-0.016859869
96	0xbc3cd98a	-0.011526475
97	0x3be7167f	0.0070522423
98	0xbc5470e5	-0.012966369
99	0xbb248543	-0.0025103844
100	0xbb3632c8	-0.0027801264
101	0xbc2b3d29	-0.010451593
102	0x3c0d9121	0.008640558
103	0x3a22ab02	0.0006205292
104	0x3af1c6ac	0.001844605
105	0xbc43ac1f	-0.011942892
106	0x3b187bf5	0.0023267244
107	0xbb0c0d56	-0.0021370254
108	0xbb2e4a14	-0.0026594447
109	0xbb418911	-0.002953116
110	0x3bc5908a	0.0060291933
111	0xbc752cb6	-0.014964273
112	0x3c2d53b8	0.010579042
113	0x3bf675d0	0.0075213686
114	0xba7a2952	-0.00095429004
115	0xbbe91973	-0.0071136295
116	0xbbbd9f02	-0.0057867775
117	0xbaf0a666	-0.0018360137
118	0x3c1da5fe	0.009622095
119	0x3c17b690	0.009259835
120	0xba8e250f	-0.0010844785
121	0xbc8035e3	-0.015650695
122	0xbabec01b	-0.0014553102
123	0x3c385dde	0.011252848
124	0x3989c0fb	0.00026274458
125	0x3b0e4191	0.002170656
126	0x3c109d66	0.008826589
127	0xbbe9e9f0	-0.007138483
128	0x3b0eb25a	0.0021773786
129	0xbbfeb20d	-0.00777269
130	0xbc9fa885	-0.019489536
131	0x3c57da38	0.013174586
132	0xbbc83a04	-0.0061104316
133	0x3cb632da	0.022241045
134	0xbb80f19e	-0.003935053
135	0x3c018de2	0.007907363
136	0xbb7e9d76	-0.0038851178
137	0xbb990da3	-0.004670815
138	0x3c36c9d1	0.011156515
139	0x3c3fceb1	0.011706994
140	0xbc1b483c	-0.009477671
141	0xbcbf5565	-0.023356149
142	0x3bb7471f	0.005593195
143	0xba55caca	-0.0008155523
144	0x3aa924ff	0.0012904702
145	0x3bc19f94	0.005908916
146	0xbc28ed22	-0.010310443
147	0xbb352857	-0.0027642453
148	0xbbf51e92	-0.007480451
149	0xbc549c0f	-0.01297666
150	0xbc1ff79e	-0.009763626
151	0xbac9d3c9	-0.00153982
152	0x3a872c52	0.0010312891
153	0x3c55ca33	0.013048696
154	0xbc0fcb0e	-0.008776439
155	0xbc3e7fe1	-0.011627168
156	0x3b81cec1	0.0039614146
157	0xbc939cbd	-0.018019075
158	0x3c9f9aac	0.019482933
159	0x3c0d7332	0.008633422
160	0x3c10e625	0.008843933
161	0xbb84e59d	-0.0040556923
162	0xbbb9008d	-0.0056458176
163	0x3be77c7e	0.007064401
164	0x3b80f1fd	0.0039350973
165	0xbc34be5b	-0.011031712
166	0x3c43b5f1	0.011945234
167	0xba5a022a	-0.00083163625
168	0xbbb70820	-0.0055856854
169	0xbc1a6a59	-0.009424769
170	0xbc1beaa0	-0.009516388
171	0xbb258ecd	-0.0025262118
172	0xb9b121eb	-0.00033785342
173	0x3b5c1f36	0.003358794
174	0x3b465fe4	0.0030269558
175	0x3c57df6e	0.013175828
176	0xbc490c91	-0.0122710625
177	0x3b92f3a1	0.0044846092
178	0x3b836d51	0.0040108343
179	0xbc105488	-0.008809216
180	0x3c78ab2a	0.015177527
181	0xbb9885bf	-0.0046546157
182	0xbaa6f55d	-0.0012737919
183	0x3cb60a94	0.02222184
184	0x3bdc34d8	0.0067201667
185	0x3bba4712	0.005684742
186	0x39fcbba2	0.00048204983
187	0x3c8eab54	0.01741568
188	0xbbd48772	-0.006485873
189	0xbc28ad15	-0.010295172
190	0xbc223584	-0.009900454
191	0x3b0d1c3e	0.0021531726
192	0xbbe2c22a	-0.006920119
193	0x3b7b96d8	0.003838947
194	0x3beb3fee	0.007179252
195	0xbc51b2bb	-0.01279896
196	0x3c368499	0.011140012
197	0x3ba540ae	0.005043111
198	0xbb17886c	-0.0023122085
199	0x3c1d6d58	0.009608589
200	0x3ba0dd31	0.0049091806
201	0x3c5619bc	0.013067659
202	0xbbbbd193	-0.0057317703
203	0xba93422f	-0.0011234934
204	0xbb9ed06f	-0.0048466246
205	0xbbf047e1	-0.0073327874
206	0x3c01210a	0.007881412
207	0x3bc31c30	0.005954288
208	0xbc3c4cea	-0.011492947
209	0x3ba6e0f9	0.005092737
210	0xbc90cc57	-0.017675562
211	0x3c9aa65c	0.018878154
212	0xbc197bad	-0.0093678655
213	0xbc0a6d69	-0.008448937
214	0x3bcbc3c5	0.006218406
215	0xbc5e0029	-0.013549843
216	0xbc089af2	-0.008337723
217	0x3be10d8f	0.0068680714
218	0x3be60be2	0.0070204595
219	0x3c220af2	0.009890305
220	0xbab8c6e9	-0.0014097366
221	0x3b3a9feb	0.0028476666
222	0xba20d0bc	-0.00061346195
223	0x3c47197d	0.012152073
224	0xbc538a3f	-0.012911378
225	0xbb806f5c	-0.003919525
226	0xbc106931	-0.008814142
227	0x3c8aa149	0.01692261
228	0x39ed5943	0.00045270668
229	0xbb95382e	-0.0045538163
230	0xbb229771	-0.0024809504
231	0x3c61d832	0.013784455
232	0x3a10024f	0.0005493508
233	0xbb68efe0	-0.0035543367
234	0xbc1d4665	-0.009599303
235	0x3bd600b2	0.0065308446
236	0x3b9faaae	0.0048726415
237	0xba14d37c	-0.00056772656
238	0xbcacabc2	-0.021077994
239	0x39b0c670	0.00033717183
240	0x3b781d29	0.0037859178
241	0xbb471678	-0.0030378383
242	0xbbabad03	-0.0052391305
243	0xbc47d3bf	-0.01219648
244	0x3c88c04c	0.016693257
245	0x3bd95aad	0.006633124
246	0xbc922f1f	-0.017844735
247	0xbcdbf9a8	-0.026852444
248	0xbc03286e	-0.008005245
249	0xbc5be937	-0.013422302
250	0xbb1e29e5	-0.0024133858
251	0x3b7dc844	0.0038724104
252	0xbbc9979f	-0.006152108
253	0x3c8daa04	0.017292984
254	0xbb51a847	-0.003199117
255	0xbb917a55	-0.004439632

density_estimator_head.bias f4 [11]
0	0xbd0c1484	-0.034199253
1	0xbcaf8839	-0.02142726
2	0xbc22dd64	-0.009940479
3	0xbbf8c8d1	-0.0075922986
4	0xbb154e34	-0.0022782208
5	0xba8ed217	-0.0010896352
6	0xbbd1be90	-0.0064008906
7	0x3bb786d8	0.0056007914
8	0x3c814980	0.015782118
9	0x3d10d8c3	0.03536297
10	0x3cd67c0d	0.026182199

Q1.0.weight f4 [50, 50, 5]
0	0xbfe8ff27	-1.8202866
1	0xbe99ccd1	-0.30039075
2	0x3f8009f5	1.0003039
3	0xbd21f3a8	-0.03953901
4	0xbf0fbb0a	-0.56144774
5	0x3f3419bd	0.70351774
6	0x3f831886	1.0241859
7	0x3db25115	0.087068714
8	0x3f604ba6	0.8761543
9	0xbe139160	-0.14410925
10	0x3fa801ab	1.3125509
11	0xc0053510	-2.0813637
12	0x3f02c26d	0.5107792
13	0xbf28ed28	-0.6598687
14	0x3e2a1a05	0.16611488
15	0xbf2455f9	-0.64193684
16	0xbfa23eef	-1.2675456
17	0x3f129a7c	0.57266974
18	0x3c544dd1	0.012958006
19	0x3f7b8bab	0.9825999
20	0xbf88cdae	-1.0687768
21	0x3db77245	0.08957342
22	0xbf574012	-0.8408214
23	0xbf904d4d	-1.127359
24	0x3f04ff46	0.51952016
25	0xbfa7cecf	-1.3109988
26	0xbf7baa0f	-0.98306364
27	0xbf99f07e	-1.2026517
28	0xbf22deee	-0.63621414
29	0xbfda72ea	-1.7066319
30	0xbf35798d	-0.70888597
31	0xc026cc87	-2.6062334
32	0xbfb6a745	-1.4269797
33	0x3e207532	0.15669706
34	0x3e412d95	0.18865044
35	0xc006be2a	-2.1053567
36	0xbdcd92ae	-0.100377426
37	0x3e44b27a	0.19208708
38	0x3f88a975	1.0676714
39	0xbf69d991	-0.91347605
40	0x3f914aca	1.1350949
41	0xbe658d04	-0.22417074
42	0xbe95114b	-0.29114756
43	0x3ff624c2	1.9229968
44	0xbf94d765	-1.1628233
45	0x3f1197d4	0.56872296
46	0xbf83ed2d	-1.0306755
47	0xbfe617a6	-1.7975967
48	0x3eb9cd6f	0.36289546
49	0xbf91df6b	-1.1396307
50	0xbb9c9f1d	-0.00477971
51	0xc0380de5	-2.875848
52	0xbf3eca88	-0.7452779
53	0x3f5dc980	0.8663559
54	0x3fa6d8f1	1.3034955
55	0x3eb3f11e	0.35144895
56	0x400adde1	2.1697924
57	0xbdf2aeec	-0.1184977
58	0xbee68e80	-0.45030594
59	0xbf9b550d	-1.213533
60	0x3ea33457	0.3187587
61	0xbf38cd6a	-0.72188437
62	0xbf2ac7ce	-0.6671113
63	0xbf814727	-1.0099839
64	0x3ed8e5f3	0.42362937
65	0xbf46aaf7	-0.7760462
66	0x3f63518b	0.887963
67	0xbf249834	-0.64294744
68	0xbf28af60	-0.658926
69	0xbf20e548	-0.62849855
70	0x3f3d42e6	0.73930204
71	0xbfa66922	-1.3000834
72	0xbf72624d	-0.94681245
73	0xbf92c3f1	-1.1466047
74	0xbeb4c44e	-0.3530602
75	0xbe840afc	-0.2578963
76	0x3ef90070	0.48633146
77	0xbf9afb95	-1.2108027
78	0x3fb5b801	1.4196779
79	0x3f1578cc	0.58387446
80	0xbe4a431d	-0.19752164
81	0x4021cbac	2.5280561
82	0x3e7a9289	0.24469961
83	0x3f3bd1cb	0.73366994
84	0xbf147412	-0.5798961
85	0x3f3b94b4	0.7327378
86	0xbdcd9cc5	-0.10039667
87	0xbedc7d55	-0.4306437
88	0xbfcd7c66	-1.6053588
89	0xbe3b54f6	-0.18294129
90	0xbe93a366	-0.288356
91	0x3d98e26d	0.07465062
92	0xbe0f5765	-0.13998182
93	0xbf13ae56	-0.5768789
94	0xbf43e640	-0.7652321
95	0xbf7f7b1e	-0.99797237
96	0xbec6bfcf	-0.38818213
97	0xbeec7a79	-0.4618719
98	0xbf6fd5fb	-0.93685883
99	0x3f6ad083	0.91724414
100	0x3f20fa58	0.62881994
101	0xbe5bdda4	-0.21471268
102	0x3f13cf80	0.57738495
103	0x3fbaa888	1.4582682
104	0x3eab69dc	0.33479202
105	0x3fa90893	1.3205742
106	0xbf3f7230	-0.7478361
107	0xbe608d5d	-0.21928926
108	0xbf0c67a7	-0.5484566
109	0x3fa2c6c0	1.2716904
110	0xbc7d455c	-0.015458431
111	0xbeaba444	-0.33523762
112	0x3eba5c21	0.36398414
113	0x3f1a6a50	0.6031847
114	0xbfa963d3	-1.3233589
115	0x3f99a299	1.2002746
116	0x3fb1963a	1.387397
117	0x3e03b268	0.12861025
118	0x3fae1e4b	1.3602995
119	0x3eb51f98	0.35375667
120	0x3df7e8e9	0.12104971
121	0x3eecd722	0.46257883
122	0x3e06fd16	0.13182482
123	0xbe6f3ffb	-0.2336425
124	0xbe321e45	-0.1739436
125	0x3f16e76d	0.5894688
126	0x3e3318f1	0.17489983
127	0x3e088bff	0.13334654
128	0x3d83522f	0.0641216
129	0xbfaedfda	-1.3662064
130	0xbd5f5112	-0.054520674
131	0xbbf37729	-0.0074299765
132	0x3eaafb5a	0.3339489
133	0x3eac2a6e	0.3362612
134	0xbf34634d	-0.7046402
135	0x3f651f2d	0.89500695
136	0xbf22b8db	-0.6356332
137	0x3d98cc0c	0.07460794
138	0x3f503739	0.81334263
139	0xbf2085ce	-0.6270417
140	0x3eef35ea	0.4672082
141	0xbeda5993	-0.42646465
142	0xbe65d3cc	-0.22444075
143	0x3f376f89	0.71654564
144	0x3fabf2c5	1.3433462
145	0xbdb0a95b	-0.08626052
146	0xbec8f4a4	-0.39249146
147	0xbfaf8f7b	-1.3715662
148	0x3daac201	0.083377846
149	0x3f768815	0.96301395
150	0x4021be14	2.5272264
151	0x3dd1632c	0.10223994
152	0xbf362d94	-0.71163297
153	0x3e6b1d1e	0.22960326
154	0xbe9b3630	-0.3031478
155	0x3f915b9d	1.1356083
156	0x3e501eb8	0.20324218
157	0x3d9f8927	0.077898316
158	0x3d938228	0.0720256
159	0x3eb1e14b	0.34742197
160	0xbf839e30	-1.028265
161	0x3eb54ac2	0.35408598
162	0xbeaf306a	-0.34216624
163	0xbf0606f0	-0.52354336
164	0xbfcf2b13	-1.618502
165	0x3fa2a544	1.2706685
166	0x3e75d017	0.24005161
167	0x3f763226	0.9617027
168	0xbf885339	-1.0650398
169	0x3e258308	0.16163266
170	0x3d209f00	0.039214134
171	0x3f9bf393	1.2183708
172	0x3d53c09b	0.051697355
173	0xbfd39264	-1.652905
174	0xbf76a8dd	-0.96351415
175	0x3dc1c39b	0.09461137
176	0x3f61a8b7	0.88148063
177	0xbf29c0ac	-0.6630962
178	0x3f96347d	1.1734768
179	0x3db5063f	0.08839082
180	0xbf06f16f	-0.5271215
181	0xbf75e526	-0.9605278
182	0x3ef88bd6	0.48544186
183	0xbf49487e	-0.7862624
184	0x3f231d27	0.6371636
185	0xbdb2b83b	-0.087265454
186	0x3e6b6654	0.22988254
187	0xbe4cbd63	-0.1999412
188	0x3f8b1d13	1.0868248
189	0x3f8d54c8	1.1041498
190	0xbf6e9c31	-0.9320708
191	0x3e8c191c	0.27362907
192	0xbf9d1792	-1.2272818
193	0xbe84636c	-0.25857103
194	0x3ed576a2	0.41692072
195	0x3ef9f8f2	0.48822743
196	0x3f1d13f9	0.613586
197	0xc0106adf	-2.256523
198	0x3f824ea1	1.0180246
199	0xbf8fa0b7	-1.1220921
200	0x3fa24faf	1.2680568
201	0xbfefb39b	-1.8726686
202	0xbec64eeb	-0.38732085
203	0xbf4b1821	-0.7933369
204	0x3e46c233	0.19410019
205	0xbe287d17	-0.16453968
206	0x3f618f62	0.8810941
207	0xbe99a79a	-0.30010682
208	0x3f3bcf79	0.73363453
209	0x3f091114	0.53541684
210	0xbeaba4c6	-0.3352415
211	0xbe773489	-0.24141134
212	0xbe10aa20	-0.14127398
213	0x3feed06a	1.8657353
214	0x3f44461f	0.76669496
215	0xbd9dc3ab	-0.07703336
216	0xbd493565	-0.049123187
217	0xbe9e5528	-0.30924344
218	0x3e8fa72a	0.28057224
219	0x3de6d8d7	0.11271828
220	0x3f07b103	0.53004473
221	0x3f3e2f38	0.742908
222	0x3f0d403c	0.5517614
223	0x3e10aad9	0.14127673
224	0xbf0fd4fb	-0.5618436
225	0x3f8c146f	1.0943736
226	0xbfaaaada	-1.333339
227	0xbddfb633	-0.109234236
228	0x3f3775dd	0.7166422
229	0x3f960a03	1.1721805
230	0x3e393c6e	0.18089458
231	0x3c888870	0.016666621
232	0x3fb0c721	1.3810769
233	0x3e588fbb	0.21148579
234	0xbf525ae5	-0.82169944
235	0xbf3df90a	-0.7420813
236	0xbf19b348	-0.60039186
237	0xbe6c9d8e	-0.23106977
238	0x3f77eacf	0.96842664
239	0x3f74b9d9	0.9559608
240	0xbfa014b3	-1.2506317
241	0x3fef7243	1.8706745
242	0x3b8bdc01	0.00426817
243	0xbed0427e	-0.4067573
244	0x3f21211e	0.6294116
245	0x3f11ecc2	0.5700189
246	0x3eda18e4	0.42597115
247	0x3ef2752b	0.47355017
248	0xbffc71c2	-1.9722216
249	0xbf981b02	-1.1883242
250	0x401dd996	2.4664054
251	0x3edc1e23	0.42991742
252	0xbf1a7b6d	-0.6034458
253	0x3f420069	0.75781876
254	0x3baa7db5	0.0052029737
255	0xbec7f992	-0.39057595

Q1.0.bias f4 [50, 5]
0	0xbbf47b5f	-0.007460996
1	0xbb57d2a1	-0.003293194
2	0xbb18545b	-0.002324364
3	0xba48cc61	-0.00076598494
4	0xb8bfeedc	-9.152081e-05
5	0xbbb6c63c	-0.0055778306
6	0xbb6592ef	-0.0035030206
7	0xbb27ac9b	-0.0025585059
8	0xba5e6bac	-0.0008484672
9	0xb92184e3	-0.0001540366
10	0x3bb4e95d	0.005520983
11	0x3b40dd2d	0.0029428706
12	0xba8c03bd	-0.0010682266
13	0xbb0d87f1	-0.002159592
14	0xba361b94	-0.00069468585
15	0xbae0e7f2	-0.0017158969
16	0xbb2576c5	-0.0025247794
17	0xbb3fad08	-0.0029247422
18	0xbabda9fa	-0.0014470213
19	0xb9cb3af6	-0.00038763107
20	0x3bc09f23	0.0058783456
21	0x3c373faa	0.011184612
22	0x3c3d5d53	0.011557895
23	0x3ba46c2b	0.0050177774
24	0x3a9386c9	0.0011255379
25	0xbb9a7bae	-0.004714451
26	0xbb7fdb88	-0.0039040763
27	0xbb60eb09	-0.003431978
28	0xbab2f877	-0.001365437
29	0xb989a07d	-0.0002625025
30	0x3bde15f7	0.0067775208
31	0x3b8b9d5a	0.004260701
32	0x3b903340	0.0044006407
33	0x3b0fa075	0.0021915708
34	0x3a0ebab1	0.00054446893
35	0x3cbadf2d	0.022811497
36	0x3ce395a6	0.027781319
37	0x3d0426c3	0.03226353
38	0x3c84ec7e	0.01622605
39	0x3b81ac2c	0.003957292
40	0x3b2b3327	0.0026123018
41	0x3ba47dfb	0.005019901
42	0x3c234ac6	0.009966558
43	0x3bd995cc	0.0066401716
44	0x3af1b110	0.001843961
45	0x3951c064	0.00020003464
46	0xba18540f	-0.00058108656
47	0xbafc3769	-0.0019242588
48	0xbabba6c7	-0.0014316671
49	0xba00837a	-0.0004902404
50	0x381bfb7d	3.7189096e-05
51	0x3a19f795	0.00058733794
52	0x3a5619a5	0.00081672735
53	0x39e3853c	0.0004339608
54	0x38dd9c5f	0.000105672276
55	0x3be8b2ec	0.0071014073
56	0x3af982f8	0.0019036224
57	0xbb807050	-0.0039196387
58	0xbb87da1b	-0.0041458732
59	0xbab17b8b	-0.0013540847
60	0xbb94f316	-0.0045455797
61	0xbb864dc6	-0.004098627
62	0xbb75e071	-0.003751781
63	0xbaca051a	-0.0015412897
64	0xb9a39da7	-0.00031207243
65	0xbc03de63	-0.008048627
66	0xbc076407	-0.0082635945
67	0xbc027eef	-0.007964834
68	0xbb5f22d7	-0.0034047866
69	0xba44ed22	-0.0007512142
70	0x3c3fbfe3	0.011703464
71	0xbb6dc651	-0.0036281536
72	0xbb63c8af	-0.0034757068
73	0xba2763fc	-0.0006385443
74	0x3885a080	6.37183e-05
75	0xbae1e2ba	-0.0017233707
76	0xbb1080eb	-0.0022049497
77	0xbb0e7ffd	-0.0021743767
78	0xba708251	-0.0009174692
79	0xb9448bb1	-0.00018744056
80	0x3c5ca43e	0.013466893
81	0x3c2a25f7	0.010385028
82	0x3c7fe21f	0.015617876
83	0x3c1ddb84	0.009634856
84	0x3b28e208	0.002576949
85	0x3b8a8a16	0.004227887
86	0x3af9aebf	0.0019049271
87	0x3c0c4587	0.0085614985
88	0x3be8a978	0.0071002804
89	0x3b0a8792	0.0021137935
90	0xbbf8f461	-0.0075974916
91	0xbbe0123d	-0.0068381117
92	0xbbcc26d1	-0.006230213
93	0xbb26d638	-0.0025457274
94	0xba0530a2	-0.0005080794
95	0xbbe76fed	-0.007062903
96	0xbbccf6ce	-0.0062550073
97	0xbbbaeb80	-0.0057043433
98	0xbb196e11	-0.0023411552
99	0xb9f88055	-0.0004739786
100	0x3af6d1e3	0.0018830862
101	0xba9328fd	-0.0011227425
102	0xba6c1921	-0.000900643
103	0xb8e08ed8	-0.00010707759
104	0x37f0098f	2.861468e-05
105	0xbb959c0e	-0.0045657223
106	0xbaeec96e	-0.001821799
107	0x3a08f997	0.000522518
108	0x3a962963	0.0011456426
109	0x3a0f97ab	0.00054776174
110	0xb8cd5c89	-9.792398e-05
111	0xb8979d4e	-7.2295414e-05
112	0xb85fcfda	-5.336092e-05
113	0xb788dfce	-1.631668e-05
114	0xb520d6f6	-5.9917454e-07
115	0x3c8c0820	0.017093718
116	0x3cbae7ea	0.022815663
117	0x3cf71a88	0.030164018
118	0x3c87e151	0.016586931
119	0x3b8db55f	0.0043245996
120	0x398db2ac	0.00027026737
121	0x395c9d91	0.00021039533
122	0x3942c17e	0.00018573363
123	0x389d6aa9	7.5062104e-05
124	0x376df630	1.4183621e-05
125	0x3bedb04b	0.007253682
126	0xbb27940b	-0.0025570418
127	0xbb1a4a3a	-0.0023542778
128	0xb9bc3cdc	-0.00035903498
129	0x36bc8dd6	5.6193485e-06
130	0xbb0195e6	-0.0019773184
131	0xb9b2de63	-0.00034116497
132	0xb8a2e8e0	-7.768138e-05
133	0xb58ce1af	-1.0496495e-06
134	0x00000000	0.0
135	0xb9918929	-0.00027758747
136	0xba02f4d6	-0.000499559
137	0xb9ebbe18	-0.00044964324
138	0xb913e729	-0.00014105126
139	0xb7c18791	-2.3070521e-05
140	0x3c7570af	0.014980479
141	0x3c2d5d17	0.010581276
142	0x3c87b617	0.01656632
143	0x3c2c0677	0.010499588
144	0x3b3a9756	0.002847155
145	0x3c8df49d	0.017328555
146	0x3c7686d8	0.015046798
147	0x3cb1cab5	0.021703104
148	0x3c549597	0.012975118
149	0x3b62708f	0.0034551953
150	0x3c40b927	0.011762894
151	0x3c50f6a4	0.012754116
152	0x3c5c0001	0.013427735
153	0x3bcd247b	0.0062604523
154	0x3ac18ead	0.0014767252
155	0xbb87760a	-0.0041339444
156	0xbb1ec685	-0.0024227214
157	0xbaf03c52	-0.0018328524
158	0xba339b60	-0.0006851461
159	0xb8eb427b	-0.00011218056
160	0x3bb45b6b	0.005504062
161	0xbb22749f	-0.002478875
162	0xbadc976e	-0.0016829798
163	0x385b4eda	5.2287105e-05
164	0x394860d1	0.00019109553
165	0x3ba4fc3c	0.0050349515
166	0x3b70b6ec	0.0036730124
167	0x3bd187ca	0.006394361
168	0x3b8a847e	0.00422722
169	0x3a97d6e6	0.001158443
170	0xbadf8ee7	-0.0017056138
171	0xba0fb007	-0.0005481247
172	0xb9758c2f	-0.00023417243
173	0xb7b9d387	-2.2152219e-05
174	0xb56a771e	-8.734513e-07
175	0x3c386a73	0.011255848
176	0x3c1f8106	0.009735351
177	0x3c21a410	0.009865776
178	0x3b95792a	0.004561563
179	0x3a8d92a6	0.0010801151
180	0xb9b9b23a	-0.0003541874
181	0xba0f201b	-0.0005459801
182	0xba9cb17e	-0.0011954752
183	0xba59b047	-0.00083041604
184	0xb9987146	-0.00029076095
185	0x3ccd720c	0.025078796
186	0x3cdd11df	0.02698606
187	0x3d0b7fc8	0.03405741
188	0x3c9706e2	0.0184359
189	0x3b99d817	0.0046949494
190	0x3abe3908	0.0014512846
191	0x3acdb3bb	0.0015693823
192	0x3ad4234f	0.0016184839
193	0x3a4229ca	0.000740674
194	0x393bc707	0.00017907853
195	0x3b6fca4f	0.0036589091
196	0x3b03fca0	0.002013959
197	0x3b9f038a	0.004852717
198	0x3b6d3ed0	0.003620077
199	0x3a90bb0e	0.0011042075
200	0xbb06d221	-0.0020572024
201	0x39f70c15	0.00047120513
202	0x39118c0f	0.00013880453
203	0xb922e7ca	-0.00015535872
204	0xb8434f7b	-4.6565645e-05
205	0xba39a387	-0.00070815574
206	0xb81a0f84	-3.673091e-05
207	0x388ad5bd	6.620165e-05
208	0x381c886d	3.7320355e-05
209	0x36f37e53	7.2566704e-06
210	0xbacc1de0	-0.0015572868
211	0xbabf2e84	-0.0014586006
212	0xbab3711f	-0.0013690329
213	0xba16f256	-0.0005758157
214	0xb8ffa4ee	-0.00012190068
215	0x3b97b9cb	0.0046303025
216	0xbae07bb8	-0.0017126715
217	0xbb06bc51	-0.0020559023
218	0xba30771d	-0.00067316164
219	0xb8c98fd4	-9.611217e-05
220	0xbaea296d	-0.0017865129
221	0xbafe926b	-0.0019422298
222	0xbac1dadf	-0.001478996
223	0xb9da72c2	-0.000416657
224	0xb90e7fb3	-0.00013589747
225	0xbc1996fc	-0.009374376
226	0xbc0373aa	-0.008023182
227	0xbbeabd33	-0.0071636676
228	0xbb3d0bae	-0.0028846073
229	0xba158eb6	-0.00057051645
230	0x3ca905d5	0.020632664
231	0x3cb11e82	0.021620993
232	0x3cf7678f	0.030200748
233	0x3c8f31f0	0.017479867
234	0x3b95a284	0.0045664925
235	0x3c00c9b4	0.00786059
236	0x3ab00b9d	0.0013431195
237	0x3b874bbd	0.0041289018
238	0x3b693aa8	0.003558794
239	0x3a8c94f8	0.0010725548
240	0xb9a5afe1	-0.00031602292
241	0xb97f1695	-0.00024327108
242	0xb944a446	-0.00018753213
243	0xb880d981	-6.144029e-05
244	0xb688f882	-4.082046e-06
245	0x3ca36f3f	0.019950507
246	0x3cca16a8	0.024669006
247	0x3cd6f1bf	0.02623832
248	0x3c4782ea	0.012177208
249	0x3b3b0b02	0.0028540497
