CausalCVR/logs/simu3/eval/4/Vcnet_ckpt.pth.tar (torch, 123067 bytes, 16 tensors)

feature_weight.weight f4 [50, 8]
000000 45 0a 16 3a 48 06 40 3c 83 b2 e4 39 a2 3c 21 bc
       0.0005723576 0.011720248 0.0004362055 -0.009841116
000010 94 ce 6f 3b 2a b4 30 b9 97 c4 5a 3c f5 ce fb bb
       0.0036591636 -0.00016851784 0.013352535 -0.0076845833
000020 d7 e7 46 ba 59 ea 73 3c 84 97 10 3c 23 e5 4d 3c
       -0.00075876474 0.014887416 0.008825187 0.0125668375
000030 f1 38 3d 3c 7c 3d c0 3c 71 ec 04 3c d9 2f e3 ba
       0.01154922 0.023466818 0.008113013 -0.0017332985
000040 28 b6 87 3c ed a5 91 bb b2 c1 13 bc 6a 29 c7 bb
       0.016566351 -0.0044448287 -0.0090183485 -0.006077935
000050 46 20 3b bb d3 f5 5b bc 28 38 19 3b 31 0c 92 3a
       -0.0028553172 -0.013425308 0.002337942 0.0011142549
000060 64 8a de 3b 57 b1 a2 3b 93 cf 61 bc 31 7c cd 3b
       0.0067914 0.004964988 -0.0137824 0.0062709083
000070 be ed 02 3c c7 23 15 3c 39 d5 ee ba 86 10 68 3c
       0.0079912525 0.009102768 -0.0018221504 0.014164096
000080 f5 63 51 bc a4 31 07 3b ea f6 94 bb 67 d2 88 3c
       -0.012780179 0.0020628953 -0.004546036 0.01670189
000090 8d a0 ac 3b 2b 89 1f bb ba 8d ba b9 f2 0f 16 bb
       0.0052681626 -0.0024343233 -0.0003558228 -0.0022897688
0000a0 7a 17 81 bb a3 aa 59 3c 8f 11 02 bb fc a7 79 3b
       -0.003939566 0.013285312 -0.0019846892 0.0038094511
0000b0 65 05 ae 3c b8 de 82 3b c2 f8 cc 3b 39 01 46 3b
       0.021242807 0.0039938353 0.00625524 0.003021313
0000c0 be dc 2e 3a 16 ef 24 bc f1 e1 be 3b 8f c4 46 3c
       0.00066704664 -0.010066768 0.005825274 0.012131824
0000d0 b2 6b 97 3b f7 94 9b bc 2c b8 1b bc 76 23 36 3c
       0.0046209926 -0.01899193 -0.009504359 0.011116853
0000e0 75 1c 79 bb 78 13 ea 3b 3e 40 bd 3b 86 09 b9 bc
       -0.0038011346 0.007143434 0.0057754805 -0.022587549
0000f0 26 c8 89 39 87 1a 53 ba 36 a0 91 3b a5 e2 d1 ba
       0.00026279798 -0.0008052964 0.0044441475 -0.001601298
000100 b5 50 b8 bb cb 14 e1 3b 70 95 16 3c bb 73 23 bc
       -0.0056248554 0.006868934 0.009190902 -0.009976323
000110 01 2d 25 bc c1 ad 52 3b 87 17 e8 3b e4 3a 6b 3b
       -0.010081531 0.0032147022 0.007082883 0.0035893256
000120 d4 ca 80 bc 59 fc 20 bc d7 b6 b3 3c 74 c8 84 bc
       -0.015721716 -0.009825789 0.02193777 -0.016208865
000130 64 1c 16 bb ab 0c 0c bb c0 1a f1 3b 33 3b 8a 3c
       -0.0022905106 -0.0021369855 0.007357925 0.016873932
000140 d1 14 13 bc 4b 6c 8a b9 3b 8c ec 3a de 06 51 bc
       -0.008977131 -0.00026402096 0.0018047163 -0.012757985
000150 82 7e dd 3b d3 9f 0b 3c 90 cc 61 39 23 94 49 bc
       0.0067594657 0.008521992 0.00021533878 -0.012303385
000160 c9 bf 69 3b 14 45 81 3a aa 2f 13 3c e6 19 45 3c
       0.0035667291 0.0009862506 0.008983532 0.0120301
000170 97 e5 9e bb f7 4f ed bb e6 c5 94 bc 64 b8 98 3b
       -0.0048491466 -0.0072421986 -0.018160772 0.004660653
000180 60 e8 2a bc d3 b5 4e bc 6f 56 e6 3b c0 7a 11 3a
       -0.010431379 -0.012616592 0.0070293467 0.0005549602
000190 b6 ba 40 bb a9 2f 13 3b 42 0b c8 3b 81 7b b2 ba
       -0.0029408163 0.0022458828 0.0061048577 -0.0013617129
0001a0 f0 e0 9a bc f6 d4 46 3c 18 5e 26 3b ef b0 04 3c
       -0.018906087 0.012135735 0.0025385674 0.008098825
0001b0 91 d3 78 bc d3 dd ec ba 65 6f d2 bb e0 62 bf bb
       -0.01518716 -0.001807148 -0.0064219707 -0.0058406442
0001c0 6a 06 a0 ba 5b 10 5b 3a 56 55 6b 3c 6e e6 d1 3c
       -0.0012208943 0.0008356624 0.014363607 0.025622573
0001d0 10 22 53 bb 90 8d 8c 3c 30 bb 8a 3c fa 9a b0 3b
       -0.0032216348 0.017157346 0.016934961 0.0053895684
0001e0 24 73 a4 3c 16 7d 5c ba aa 69 31 3c 63 fa 85 3c
       0.020074435 -0.0008410973 0.010828415 0.016354745
0001f0 aa 3b a4 bb 0c 99 aa bb 62 a5 76 bc 01 d2 aa 3b
       -0.0050119953 -0.005206233 -0.015054079 0.0052130227
000200 a4 63 be ba 3e a4 71 bc 0f cd 8e bb 58 ca 92 bb
       -0.0014525545 -0.014748631 -0.004357941 -0.0044796877
000210 74 c6 3f 3c ec 89 62 bc cb f5 9d bb 2a f1 41 b8
       0.01170503 -0.013826828 -0.0048205606 -4.6239387e-05
000220 85 9c 27 3b 59 89 84 bc 37 17 f7 ba 82 5b 7d 3c
       0.002557547 -0.016178774 -0.0018851523 0.015463712
000230 0b 3f 7d bc 76 f5 dc 3a 56 fa 09 3c 0b 41 e0 ba
       -0.015456925 0.0016857821 0.008421501 -0.0017109228
000240 b8 04 84 3b cd fb 53 3c 23 b0 08 3b e8 bd 37 bc
       0.004028883 0.012938452 0.0020856939 -0.011214711
000250 0d 0a c2 3b 47 50 63 bc 62 86 c0 bb 98 db 3f 3c
       0.0059216083 -0.01387412 -0.0058753947 0.01171007
000260 0f c2 1f bc bf e0 6b ba e9 f5 e5 ba 80 1d 35 3c
       -0.009750857 -0.00089980284 -0.00175446 0.011054397
000270 04 3f 96 38 85 47 67 bb 1a 0a 94 3b ed 05 c3 3b
       7.164295e-05 -0.0035290432 0.0045178058 0.005951634
000280 d2 7a 6f bb 29 e9 5c bc 9a a2 c9 3b 1d d7 d4 3b
       -0.0036541712 -0.013483324 0.006153417 0.00649537
000290 04 1f 4f 3c 32 84 80 3c 55 f5 74 3b 7f 7e 8e 3b
       0.012641672 0.015688036 0.0037377675 0.0043485756
0002a0 5b 68 5c bc a6 ae a0 b9 ea f4 8c bb 3f 22 c4 bc
       -0.013452615 -0.000306477 -0.004301657 -0.023942111
0002b0 d7 1a 32 bc b4 35 b4 bb 9b 65 25 3c dd 02 cf 3b
       -0.010870657 -0.005499566 0.010095025 0.00631748
0002c0 29 67 3c 3a ba 72 92 3b b7 5b e1 bb 5d e4 3d bc
       0.0007187003 0.004469243 -0.0068773883 -0.011590091
0002d0 fd 0c ca bb cf 91 0a 3c 62 1b 93 b8 84 c0 ec bb
       -0.006166099 0.008457615 -7.014607e-05 -0.007225098
0002e0 47 97 19 bc 15 eb 20 bc 4b 9b 89 3a fa 7e 17 bb
       -0.009374446 -0.009821673 0.0010498551 -0.0023116455
0002f0 6a 88 ef 3a 8b 8f ab 3b 72 5a f7 3a 93 2d c6 bb
       0.0018274907 0.0052356175 0.0018871559 -0.0060479133
000300 70 16 ab 3b f0 77 20 3c 52 ff 2d bc 6d 73 4d bc
       0.0052211806 0.00979422 -0.010619955 -0.012539727
000310 1e 66 2b bc c7 76 b3 3b 66 a7 40 bc c6 08 f0 3b
       -0.010461358 0.005476806 -0.011758661 0.0073252646
000320 37 3e 0d 3c 40 a8 c2 bb c7 cd 65 bb 04 c2 46 bc
       0.00862079 -0.005940467 -0.003506528 -0.012131218
000330 e3 ab ce bb aa f1 2b 3b a9 f7 45 3c ba 32 89 3c
       -0.0063071116 0.0026236572 0.012082973 0.016747821
000340 f8 4d 29 b9 66 4a 12 3a f5 22 30 bc fd 6b 27 bc
       -0.00016146142 0.0005580544 -0.010750522 -0.0102186175
000350 7e af 4d 3c 07 ef d9 bb 4d 42 ea bb d5 d8 8d 3b
       0.012554048 -0.0066508087 -0.007149017 0.004328827
000360 42 e8 1f 3c 18 0c 73 3c 9a fb 4a 3b d3 2f 3b 3c
       0.009759964 0.014834426 0.003097272 0.011424976
000370 ba 90 1f bc b6 1c d7 ba 25 98 9c bc 3c 5f 1e bc
       -0.009739095 -0.0016411755 -0.019115517 -0.00966626
000380 92 2b a0 bc 0a 5c 38 3a 7c 2c 18 ba 28 70 b2 bb
       -0.019552026 0.0007032758 -0.00058049685 -0.005445499
000390 6e 59 6e 39 08 53 c2 bb e8 1c 72 3b c3 f6 a2 bb
       0.00022730764 -0.0059303083 0.00369435 -0.004973264
0003a0 ef bd 12 bc 41 cc 82 bc 52 c6 b7 bb 9b e1 aa bb
       -0.0089564165 -0.015966536 -0.0056083584 -0.0052148825
0003b0 39 db f2 ba 60 47 3d bc 8b e3 55 3c 61 2d 99 bc
       -0.0018528468 -0.011552662 0.013054739 -0.018698396
0003c0 81 b0 65 3c 4d 1d 11 bc 25 42 13 bc 52 04 6f bc
       0.014019133 -0.0088570835 -0.008987938 -0.014588432
0003d0 73 ff dc bb c5 97 99 bb 1e 03 d5 3b bb 76 ac ba
       -0.006744319 -0.004687282 0.0065006157 -0.0013157943
0003e0 ed ee 0c 3b 32 d6 03 bc 48 d5 42 3b 04 5e 9e 3c
       0.0021504716 -0.008046674 0.0029729176 0.01933194
0003f0 74 0b 97 bc c2 57 17 3a 1a a8 85 3c 44 36 06 3c
       -0.018438078 0.000577327 0.016315509 0.008191649

feature_weight.bias f4 [50]
000000 1c 79 97 b6 fa 89 e7 b7 54 5f ee b2 ee ed 7b 37
       -4.5142497e-06 -2.7601596e-05 -2.7750197e-08 1.5016163e-05
000010 f7 4f c8 37 cb 45 87 37 87 38 cc b7 98 a5 d8 36
       2.3879094e-05 1.6125754e-05 -2.4345018e-05 6.4565793e-06
000020 5b 73 0c b8 20 94 7e b6 c8 6e f7 35 80 66 38 37
       -3.3486034e-05 -3.793517e-06 1.8435176e-06 1.099112e-05
000030 dd 9a 87 37 0f 6d 04 b6 9f 73 34 b8 2f 8b 20 b7
       1.6165368e-05 -1.9733013e-06 -4.3023025e-05 -9.569149e-06
000040 37 c4 ef 32 e7 32 27 37 c2 4a 9a b7 39 23 27 b6
       2.791249e-08 9.965827e-06 -1.8393042e-05 -2.4905441e-06
000050 08 ce bd 38 34 fd 26 35 5b e3 ff b4 40 d0 f1 b4
       9.0505986e-05 6.220828e-07 -4.7662874e-07 -4.504127e-07
000060 13 fa 44 b6 42 b2 c1 b6 62 77 83 35 61 b9 6b b5
       -2.9351838e-06 -5.7726e-06 9.795006e-07 -8.7814084e-07
000070 69 6d cc b4 c4 a6 d0 33 62 73 79 b5 3e 91 62 38
       -3.8077567e-07 9.716089e-08 -9.292763e-07 5.4017866e-05
000080 8e 7e 29 b8 89 d5 91 b7 d6 7e c1 b7 b1 83 3e 37
       -4.0410603e-05 -1.7384782e-05 -2.3066455e-05 1.1355544e-05
000090 5d 7d e6 37 6b 20 30 38 4a ee d9 37 39 67 7a b6
       2.7476513e-05 4.199186e-05 2.5979378e-05 -3.7312986e-06
0000a0 d4 f6 7d b8 fb e3 65 b4 cd 54 26 b7 4f 42 e6 36
       -6.0549777e-05 -2.1410226e-07 -9.914115e-06 6.8622535e-06
0000b0 36 75 56 b7 f9 a5 da 34 96 fb d2 35 9d 8b 52 b6
       -1.2782684e-05 4.0726425e-07 1.571944e-06 -3.1373704e-06
0000c0 53 0c de 34 8c de 4b 37
       4.135969e-07 1.2151559e-05

hidden_features.0.weight f4 [50, 8]
000000 45 0a 16 3a 48 06 40 3c 83 b2 e4 39 a2 3c 21 bc
       0.0005723576 0.011720248 0.0004362055 -0.009841116
000010 94 ce 6f 3b 2a b4 30 b9 97 c4 5a 3c f5 ce fb bb
       0.0036591636 -0.00016851784 0.013352535 -0.0076845833
000020 d7 e7 46 ba 59 ea 73 3c 84 97 10 3c 23 e5 4d 3c
       -0.00075876474 0.014887416 0.008825187 0.0125668375
000030 f1 38 3d 3c 7c 3d c0 3c 71 ec 04 3c d9 2f e3 ba
       0.01154922 0.023466818 0.008113013 -0.0017332985
000040 28 b6 87 3c ed a5 91 bb b2 c1 13 bc 6a 29 c7 bb
       0.016566351 -0.0044448287 -0.0090183485 -0.006077935
000050 46 20 3b bb d3 f5 5b bc 28 38 19 3b 31 0c 92 3a
       -0.0028553172 -0.013425308 0.002337942 0.0011142549
000060 64 8a de 3b 57 b1 a2 3b 93 cf 61 bc 31 7c cd 3b
       0.0067914 0.004964988 -0.0137824 0.0062709083
000070 be ed 02 3c c7 23 15 3c 39 d5 ee ba 86 10 68 3c
       0.0079912525 0.009102768 -0.0018221504 0.014164096
000080 f5 63 51 bc a4 31 07 3b ea f6 94 bb 67 d2 88 3c
       -0.012780179 0.0020628953 -0.004546036 0.01670189
000090 8d a0 ac 3b 2b 89 1f bb ba 8d ba b9 f2 0f 16 bb
       0.0052681626 -0.0024343233 -0.0003558228 -0.0022897688
0000a0 7a 17 81 bb a3 aa 59 3c 8f 11 02 bb fc a7 79 3b
       -0.003939566 0.013285312 -0.0019846892 0.0038094511
0000b0 65 05 ae 3c b8 de 82 3b c2 f8 cc 3b 39 01 46 3b
       0.021242807 0.0039938353 0.00625524 0.003021313
0000c0 be dc 2e 3a 16 ef 24 bc f1 e1 be 3b 8f c4 46 3c
       0.00066704664 -0.010066768 0.005825274 0.012131824
0000d0 b2 6b 97 3b f7 94 9b bc 2c b8 1b bc 76 23 36 3c
       0.0046209926 -0.01899193 -0.009504359 0.011116853
0000e0 75 1c 79 bb 78 13 ea 3b 3e 40 bd 3b 86 09 b9 bc
       -0.0038011346 0.007143434 0.0057754805 -0.022587549
0000f0 26 c8 89 39 87 1a 53 ba 36 a0 91 3b a5 e2 d1 ba
       0.00026279798 -0.0008052964 0.0044441475 -0.001601298
000100 b5 50 b8 bb cb 14 e1 3b 70 95 16 3c bb 73 23 bc
       -0.0056248554 0.006868934 0.009190902 -0.009976323
000110 01 2d 25 bc c1 ad 52 3b 87 17 e8 3b e4 3a 6b 3b
       -0.010081531 0.0032147022 0.007082883 0.0035893256
000120 d4 ca 80 bc 59 fc 20 bc d7 b6 b3 3c 74 c8 84 bc
       -0.015721716 -0.009825789 0.02193777 -0.016208865
000130 64 1c 16 bb ab 0c 0c bb c0 1a f1 3b 33 3b 8a 3c
       -0.0022905106 -0.0021369855 0.007357925 0.016873932
000140 d1 14 13 bc 4b 6c 8a b9 3b 8c ec 3a de 06 51 bc
       -0.008977131 -0.00026402096 0.0018047163 -0.012757985
000150 82 7e dd 3b d3 9f 0b 3c 90 cc 61 39 23 94 49 bc
       0.0067594657 0.008521992 0.00021533878 -0.012303385
000160 c9 bf 69 3b 14 45 81 3a aa 2f 13 3c e6 19 45 3c
       0.0035667291 0.0009862506 0.008983532 0.0120301
000170 97 e5 9e bb f7 4f ed bb e6 c5 94 bc 64 b8 98 3b
       -0.0048491466 -0.0072421986 -0.018160772 0.004660653
000180 60 e8 2a bc d3 b5 4e bc 6f 56 e6 3b c0 7a 11 3a
       -0.010431379 -0.012616592 0.0070293467 0.0005549602
000190 b6 ba 40 bb a9 2f 13 3b 42 0b c8 3b 81 7b b2 ba
       -0.0029408163 0.0022458828 0.0061048577 -0.0013617129
0001a0 f0 e0 9a bc f6 d4 46 3c 18 5e 26 3b ef b0 04 3c
       -0.018906087 0.012135735 0.0025385674 0.008098825
0001b0 91 d3 78 bc d3 dd ec ba 65 6f d2 bb e0 62 bf bb
       -0.01518716 -0.001807148 -0.0064219707 -0.0058406442
0001c0 6a 06 a0 ba 5b 10 5b 3a 56 55 6b 3c 6e e6 d1 3c
       -0.0012208943 0.0008356624 0.014363607 0.025622573
0001d0 10 22 53 bb 90 8d 8c 3c 30 bb 8a 3c fa 9a b0 3b
       -0.0032216348 0.017157346 0.016934961 0.0053895684
0001e0 24 73 a4 3c 16 7d 5c ba aa 69 31 3c 63 fa 85 3c
       0.020074435 -0.0008410973 0.010828415 0.016354745
0001f0 aa 3b a4 bb 0c 99 aa bb 62 a5 76 bc 01 d2 aa 3b
       -0.0050119953 -0.005206233 -0.015054079 0.0052130227
000200 a4 63 be ba 3e a4 71 bc 0f cd 8e bb 58 ca 92 bb
       -0.0014525545 -0.014748631 -0.004357941 -0.0044796877
000210 74 c6 3f 3c ec 89 62 bc cb f5 9d bb 2a f1 41 b8
       0.01170503 -0.013826828 -0.0048205606 -4.6239387e-05
000220 85 9c 27 3b 59 89 84 bc 37 17 f7 ba 82 5b 7d 3c
       0.002557547 -0.016178774 -0.0018851523 0.015463712
000230 0b 3f 7d bc 76 f5 dc 3a 56 fa 09 3c 0b 41 e0 ba
       -0.015456925 0.0016857821 0.008421501 -0.0017109228
000240 b8 04 84 3b cd fb 53 3c 23 b0 08 3b e8 bd 37 bc
       0.004028883 0.012938452 0.0020856939 -0.011214711
000250 0d 0a c2 3b 47 50 63 bc 62 86 c0 bb 98 db 3f 3c
       0.0059216083 -0.01387412 -0.0058753947 0.01171007
000260 0f c2 1f bc bf e0 6b ba e9 f5 e5 ba 80 1d 35 3c
       -0.009750857 -0.00089980284 -0.00175446 0.011054397
000270 04 3f 96 38 85 47 67 bb 1a 0a 94 3b ed 05 c3 3b
       7.164295e-05 -0.0035290432 0.0045178058 0.005951634
000280 d2 7a 6f bb 29 e9 5c bc 9a a2 c9 3b 1d d7 d4 3b
       -0.0036541712 -0.013483324 0.006153417 0.00649537
000290 04 1f 4f 3c 32 84 80 3c 55 f5 74 3b 7f 7e 8e 3b
       0.012641672 0.015688036 0.0037377675 0.0043485756
0002a0 5b 68 5c bc a6 ae a0 b9 ea f4 8c bb 3f 22 c4 bc
       -0.013452615 -0.000306477 -0.004301657 -0.023942111
0002b0 d7 1a 32 bc b4 35 b4 bb 9b 65 25 3c dd 02 cf 3b
       -0.010870657 -0.005499566 0.010095025 0.00631748
0002c0 29 67 3c 3a ba 72 92 3b b7 5b e1 bb 5d e4 3d bc
       0.0007187003 0.004469243 -0.0068773883 -0.011590091
0002d0 fd 0c ca bb cf 91 0a 3c 62 1b 93 b8 84 c0 ec bb
       -0.006166099 0.008457615 -7.014607e-05 -0.007225098
0002e0 47 97 19 bc 15 eb 20 bc 4b 9b 89 3a fa 7e 17 bb
       -0.009374446 -0.009821673 0.0010498551 -0.0023116455
0002f0 6a 88 ef 3a 8b 8f ab 3b 72 5a f7 3a 93 2d c6 bb
       0.0018274907 0.0052356175 0.0018871559 -0.0060479133
000300 70 16 ab 3b f0 77 20 3c 52 ff 2d bc 6d 73 4d bc
       0.0052211806 0.00979422 -0.010619955 -0.012539727
000310 1e 66 2b bc c7 76 b3 3b 66 a7 40 bc c6 08 f0 3b
       -0.010461358 0.005476806 -0.011758661 0.0073252646
000320 37 3e 0d 3c 40 a8 c2 bb c7 cd 65 bb 04 c2 46 bc
       0.00862079 -0.005940467 -0.003506528 -0.012131218
000330 e3 ab ce bb aa f1 2b 3b a9 f7 45 3c ba 32 89 3c
       -0.0063071116 0.0026236572 0.012082973 0.016747821
000340 f8 4d 29 b9 66 4a 12 3a f5 22 30 bc fd 6b 27 bc
       -0.00016146142 0.0005580544 -0.010750522 -0.0102186175
000350 7e af 4d 3c 07 ef d9 bb 4d 42 ea bb d5 d8 8d 3b
       0.012554048 -0.0066508087 -0.007149017 0.004328827
000360 42 e8 1f 3c 18 0c 73 3c 9a fb 4a 3b d3 2f 3b 3c
       0.009759964 0.014834426 0.003097272 0.011424976
000370 ba 90 1f bc b6 1c d7 ba 25 98 9c bc 3c 5f 1e bc
       -0.009739095 -0.0016411755 -0.019115517 -0.00966626
000380 92 2b a0 bc 0a 5c 38 3a 7c 2c 18 ba 28 70 b2 bb
       -0.019552026 0.0007032758 -0.00058049685 -0.005445499
000390 6e 59 6e 39 08 53 c2 bb e8 1c 72 3b c3 f6 a2 bb
       0.00022730764 -0.0059303083 0.00369435 -0.004973264
0003a0 ef bd 12 bc 41 cc 82 bc 52 c6 b7 bb 9b e1 aa bb
       -0.0089564165 -0.015966536 -0.0056083584 -0.0052148825
0003b0 39 db f2 ba 60 47 3d bc 8b e3 55 3c 61 2d 99 bc
       -0.0018528468 -0.011552662 0.013054739 -0.018698396
0003c0 81 b0 65 3c 4d 1d 11 bc 25 42 13 bc 52 04 6f bc
       0.014019133 -0.0088570835 -0.008987938 -0.014588432
0003d0 73 ff dc bb c5 97 99 bb 1e 03 d5 3b bb 76 ac ba
       -0.006744319 -0.004687282 0.0065006157 -0.0013157943
0003e0 ed ee 0c 3b 32 d6 03 bc 48 d5 42 3b 04 5e 9e 3c
       0.0021504716 -0.008046674 0.0029729176 0.01933194
0003f0 74 0b 97 bc c2 57 17 3a 1a a8 85 3c 44 36 06 3c
       -0.018438078 0.000577327 0.016315509 0.008191649

hidden_features.0.bias f4 [50]
000000 1c 79 97 b6 fa 89 e7 b7 54 5f ee b2 ee ed 7b 37
       -4.5142497e-06 -2.7601596e-05 -2.7750197e-08 1.5016163e-05
000010 f7 4f c8 37 cb 45 87 37 87 38 cc b7 98 a5 d8 36
       2.3879094e-05 1.6125754e-05 -2.4345018e-05 6.4565793e-06
000020 5b 73 0c b8 20 94 7e b6 c8 6e f7 35 80 66 38 37
       -3.3486034e-05 -3.793517e-06 1.8435176e-06 1.099112e-05
000030 dd 9a 87 37 0f 6d 04 b6 9f 73 34 b8 2f 8b 20 b7
       1.6165368e-05 -1.9733013e-06 -4.3023025e-05 -9.569149e-06
000040 37 c4 ef 32 e7 32 27 37 c2 4a 9a b7 39 23 27 b6
       2.791249e-08 9.965827e-06 -1.8393042e-05 -2.4905441e-06
000050 08 ce bd 38 34 fd 26 35 5b e3 ff b4 40 d0 f1 b4
       9.0505986e-05 6.220828e-07 -4.7662874e-07 -4.504127e-07
000060 13 fa 44 b6 42 b2 c1 b6 62 77 83 35 61 b9 6b b5
       -2.9351838e-06 -5.7726e-06 9.795006e-07 -8.7814084e-07
000070 69 6d cc b4 c4 a6 d0 33 62 73 79 b5 3e 91 62 38
       -3.8077567e-07 9.716089e-08 -9.292763e-07 5.4017866e-05
000080 8e 7e 29 b8 89 d5 91 b7 d6 7e c1 b7 b1 83 3e 37
       -4.0410603e-05 -1.7384782e-05 -2.3066455e-05 1.1355544e-05
000090 5d 7d e6 37 6b 20 30 38 4a ee d9 37 39 67 7a b6
       2.7476513e-05 4.199186e-05 2.5979378e-05 -3.7312986e-06
0000a0 d4 f6 7d b8 fb e3 65 b4 cd 54 26 b7 4f 42 e6 36
       -6.0549777e-05 -2.1410226e-07 -9.914115e-06 6.8622535e-06
0000b0 36 75 56 b7 f9 a5 da 34 96 fb d2 35 9d 8b 52 b6
       -1.2782684e-05 4.0726425e-07 1.571944e-06 -3.1373704e-06
0000c0 53 0c de 34 8c de 4b 37
       4.135969e-07 1.2151559e-05

hidden_features.2.weight f4 [50, 50]
000000 4e 44 14 bc d7 33 d4 bb 8d e8 cc 3b 58 56 99 bb
       -0.009049488 -0.0064759064 0.006253308 -0.0046794824
000010 5e 7a b4 3a 4d 73 4a bc bd bb c7 3b b4 41 00 3c
       0.0013769378 -0.012356591 0.006095378 0.007828165
000020 de 03 6e 3c 02 57 d8 3b f9 2f 1b bb 35 8c 6d 3a
       0.014527289 0.006602169 -0.0023679717 0.0009061725
000030 77 3d 67 3c c5 ef 49 bc bf 56 43 3b 2a 9f 33 bc
       0.014113775 -0.012325232 0.0029806343 -0.010963241
000040 19 ad a8 3b d2 7e 00 3c a3 2b cd 39 bb d1 61 3a
       0.005147588 0.007842736 0.0003913316 0.0008614321
000050 79 db 33 bc 38 b0 b5 3a 4b 18 42 bb a0 84 20 3c
       -0.010977619 0.0013861721 -0.002961653 0.009797245
000060 d8 65 ab 3b 10 ec 44 3c e5 29 ec bb 9a 26 8c 3c
       0.0052306466 0.012019172 -0.0072071427 0.01710825
000070 27 5b ac bb 4b f7 c8 3b ae d3 b7 39 1c c3 0a bb
       -0.0052598896 0.0061329952 0.00035062194 -0.0021173423
000080 ba b5 1a bc 10 bc 10 3b d6 3a 94 bc ea 05 70 3c
       -0.009442741 0.002208475 -0.018094461 0.0146498475
000090 b5 36 76 3c e9 5d 0b bc e6 9f cc bb 98 85 37 bc
       0.015027692 -0.008506277 -0.0062446473 -0.011201285
0000a0 f1 a8 38 bb 3f 61 2d bb 5b 16 57 3b 76 fe 1f 3a
       -0.0028176869 -0.0026455668 0.0032819721 0.0006103286
0000b0 db 1f b1 3b 96 35 f5 3b 62 7d 84 3b 39 6b 62 3c
       0.005405409 0.0074831946 0.004043267 0.013819509
0000c0 fe 11 c3 3a 4a 3b 07 bc 3d b1 0d bb 9e e1 26 3c
       0.0014882681 -0.008253882 -0.0021620535 0.010185627
0000d0 06 fa 9d bb 4c 91 6c 3c 12 3d 77 bc c8 cb 2d 3c
       -0.004821065 0.014438938 -0.015090244 0.010607667
0000e0 9f b1 6f bc 30 6f 0c 3c 7d 09 4a bc 17 ef 8f bc
       -0.0146297505 0.008571431 -0.012331364 -0.017570062
0000f0 a2 8e 83 3a b7 a3 ac bb f1 4f 8c bb 39 ca 90 ba
       0.0010037015 -0.00526854 -0.0042819907 -0.0011046595
000100 60 7d 09 3c 29 cf fa bb 11 bf a9 3b 68 76 f3 b9
       0.008391708 -0.00765409 0.0051802476 -0.0004643679
000110 17 42 a8 bb ab 01 ba 3c b7 21 14 3b 93 7f 33 bb
       -0.0051348316 0.022705873 0.0022603103 -0.0027389273
000120 e7 61 13 3c c2 8c 45 3c 9f ad 96 bb f4 15 96 bb
       0.00899551 0.012057485 -0.004598334 -0.0045802537
000130 49 cd d9 bb 55 d3 27 bc 9b 61 27 bc 7b 97 5b 3b
       -0.0066467864 -0.010243257 -0.010216142 0.0033507037
000140 0b 1f 5c bc ed 23 47 bb 8b 9f 04 3a cc 6b 5e 3b
       -0.013435136 -0.0030386404 0.0005059174 0.0033938764
000150 79 18 5c bb 86 ec b5 3c b6 c7 40 3c b9 99 90 bc
       -0.0033583923 0.02220751 0.011766365 -0.017651426
000160 ac 61 ee 3b 52 f0 2c bc 11 3f 99 bb 9d 00 68 bc
       0.007274827 -0.010555344 -0.0046767076 -0.0141603025
000170 f3 ce aa 3b 5e 33 80 3a 24 61 43 bc 4d 3b 6a 3c
       0.0052126586 0.0009780934 -0.011925016 0.014296365
000180 06 8b f3 38 73 f7 8c 3c 65 33 21 bc a1 95 f0 3a
       0.00011613038 0.017207837 -0.009838914 0.001835514
000190 94 36 b8 3b dd 95 86 3a f4 05 f7 3b 94 56 e1 3b
       0.0056217406 0.0010268051 0.0075385515 0.006876776
0001a0 7c 28 f3 bb dd 59 ac 3b ea ba 2a 3b 34 21 2d 3c
       -0.0074205976 0.005259736 0.002605135 0.010566998
0001b0 42 5a 6b 3c 96 4c 51 3b d5 f3 4e 3b 14 23 d4 3a
       0.014364781 0.0031936518 0.003157844 0.001618477
0001c0 36 20 33 3c ff 3b 37 3c 80 67 a4 bb 17 4b 01 bb
       0.010932973 0.011183738 -0.005017221 -0.0019728595
0001d0 01 ed a7 3c d6 4e e5 3b 43 4a 25 bc b4 78 96 bb
       0.020498754 0.0069979234 -0.010088506 -0.0045920257
0001e0 73 31 6c bc ff 28 de bb 79 64 87 3c ae 02 e9 3b
       -0.0144160865 -0.0067797895 0.016527401 0.007110915
0001f0 ad 73 06 bc 92 05 34 bc 45 45 04 bb 5e e1 df bb
       -0.00820629 -0.010987656 -0.002018289 -0.006832286
000200 d8 76 12 bc 02 34 0b 3c b3 bc 2e bc 5f 7a b2 bc
       -0.008939467 0.008496286 -0.010665107 -0.021786867
000210 c0 5f 84 3c 6d 3e 57 bc 07 d7 a4 bb c0 c2 8a 3b
       0.016158938 -0.013137442 -0.005030516 0.004234642
000220 8c 99 ff 3b ad ec b7 bc 20 00 1e bc a5 ba 35 3c
       0.0078002866 -0.022451723 -0.0096435845 0.011091863
000230 b6 36 1a bb 1b ab 0f 3c 09 b0 98 3b 34 8a e1 ba
       -0.0023531145 0.008768822 0.004659657 -0.0017207325
000240 1a 8e 88 3c 22 e4 60 3b e3 30 31 bc 01 ee 20 3c
       0.016669322 0.0034315665 -0.010814878 0.00982237
000250 32 1a 19 3b 26 f2 c6 3c 08 c0 a9 bc 6f 01 9f bc
       0.002336156 0.024285387 -0.02072145 -0.019409863
000260 1d 45 28 bc 84 86 1b 3c 0a 3c 04 3c 32 42 4d 3c
       -0.010270384 0.00949252 0.008070955 0.012527989
000270 35 37 8d 3b b0 cd 76 3c 2f 3c 9c bc 52 b1 8a 3b
       0.0043095597 0.015063688 -0.019071667 0.004232564
000280 a2 ce 7f bc 2f 2b e8 bb 71 ee 85 3b 7a f8 2b bc
       -0.01561323 -0.007085226 0.0040872623 -0.010496253
000290 e1 50 db bb 9a 2c 1e bc 07 82 2d 3b b5 f5 a3 3b
       -0.006692991 -0.0096541885 0.0026475207 0.005003656
0002a0 93 ad 33 3c 7d e1 ba bc 9f b0 1b bc a1 34 91 bb
       0.010966676 -0.0228126 -0.009502559 -0.0044313227
0002b0 d4 ee 61 bc 8b f5 d2 bb 0d 8f e9 bb 61 85 47 bc
       -0.013789851 -0.0064379624 -0.0071276487 -0.012177796
0002c0 fa f0 03 bc 7f 6b c0 bb a6 21 95 3a fc b6 5e bc
       -0.008053059 -0.0058721895 0.0011377826 -0.013593432
0002d0 69 5f 84 3b ad b7 23 bb 71 68 f1 3b 98 e9 2b 3c
       0.004039694 -0.0024981305 0.0073671867 0.010492705
0002e0 8c d9 0f 3b ac 88 0c bc 61 81 0c bc 47 f6 db ba
       0.0021949736 -0.008577507 -0.008575768 -0.001678177
0002f0 82 fd 97 ba b5 b4 cc 3b 2f 7f 84 3c 81 52 86 bb
       -0.0011595937 0.006247128 0.016173927 -0.0040991907
000300 64 f4 c8 3c f5 3d 0e 3a 6f 98 ec 38 0c 47 27 bc
       0.024530597 0.00054261024 0.0001128175 -0.01020981
000310 57 88 2a bc 67 4a 87 bc 25 6b e2 38 bd a2 85 3a
       -0.0104084825 -0.01651497 0.00010796477 0.0010195595
000320 7e 2d 1d ba 65 30 8c bc 18 7f e1 bb e7 b8 3a 3c
       -0.00059958536 -0.01711292 -0.006881606 0.011396623
000330 a6 a4 e5 bb 40 be af ba db ee f9 bb 8a 97 b1 3b
       -0.007008153 -0.0013408139 -0.0076273507 0.005419676
000340 c9 d1 da bb 04 72 06 bc c0 bf 96 bc de 7e 56 3b
       -0.0066778404 -0.008205894 -0.01840198 0.0032729427
000350 91 ca 71 bb fe 37 98 ba b7 ee ab 3a 52 e6 67 3c
       -0.003689442 -0.0011613367 0.0013117407 0.014154034
000360 73 8d 02 bc e2 e7 bc 3a 91 5a c2 bb b9 21 69 3c
       -0.007968294 0.0014412368 -0.0059312065 0.0142292315
000370 e3 9e 8b 3c ed 41 6f 3b 6c 7f bc ba d6 0f c4 bb
       0.017043537 0.00365078 -0.0014381236 -0.005983333
000380 e6 5a 1f 3a 7e 88 bf 3b 55 b0 00 bc 34 4e 54 bc
       0.00060789136 0.0058451286 -0.007854541 -0.012958098
000390 d1 18 7e 3a 5b 62 b6 bb 4c 60 02 3c d9 24 a3 bb
       0.0009693029 -0.005565924 0.007957529 -0.004978758
0003a0 85 ed bd bb 38 10 af b9 e2 d4 e1 3b fc bc 1a 3c
       -0.005796137 -0.00033390685 0.0068918327 0.009444471
0003b0 3a 09 11 bc c3 1d 7c 3a f4 0f 86 3c 10 3a 12 bc
       -0.008852297 0.0009617472 0.016365029 -0.008924976
0003c0 5e ed 40 bb 94 ed 88 bc 54 7b 1a bc 56 b0 d1 3b
       -0.0029438357 -0.016714849 -0.009428818 0.0063991947
0003d0 ab e0 77 39 36 f9 95 bc ac c8 88 3b c1 e9 ed bb
       0.00023639451 -0.01830731 0.0041743126 -0.0072605317
0003e0 8c f9 81 bb c3 7d 09 3c 1f 7f 17 bc c9 6b ae 3c
       -0.003966516 0.0083918 -0.009246617 0.02129163
0003f0 50 99 0b bd 22 ca 8e bb 90 4e 7a 3c a3 a9 54 3c
       -0.034081757 -0.004357592 0.01527752 0.012979898

hidden_features.2.bias f4 [50]
000000 48 ea c2 37 1c fa 69 39 98 bf 68 38 00 00 00 00
       2.3235698e-05 0.00022313785 5.5491546e-05 0.0
000010 f9 40 0d 3a 95 fa a9 39 d0 e9 00 37 bf 8e db 39
       0.0005388405 0.0003242089 7.683833e-06 0.0004187729
000020 a4 80 6a b7 a0 b0 b5 ba 2d 6f 95 b8 00 00 00 00
       -1.3977438e-05 -0.0013861842 -7.125582e-05 0.0
000030 44 08 24 36 00 00 00 00 fd 65 23 b6 e2 b9 86 b8
       2.4442716e-06 0.0 -2.4348258e-06 -6.424241e-05
000040 7a 78 99 ba 00 00 00 00 ef a7 00 3a ef 41 4b b8
       -0.0011708878 0.0 0.00049078366 -4.8460377e-05
000050 27 92 c2 39 a1 b6 0e 3a 00 00 00 00 00 00 00 00
       0.00037111455 0.0005444084 0.0 0.0
000060 60 04 0c b8 9f ed 30 ba d2 5b 86 37 9d 3c a7 b7
       -3.3382676e-05 -0.00067492755 1.6016802e-05 -1.9936177e-05
000070 8e f8 54 3a d7 06 26 ba 00 ac cc b9 a2 01 b4 b9
       0.0008124196 -0.00063334167 -0.00039038062 -0.00034333492
000080 1f a2 8a 39 39 bd 28 3a 8b 47 3a 39 71 dd 41 3a
       0.000264422 0.0006436888 0.00017764994 0.0007395363
000090 00 00 00 00 a9 ba b2 b9 28 ff b7 39 d2 36 aa 38
       0.0 -0.00034089878 0.00035094586 8.116443e-05
0000a0 0f 07 70 b9 d7 d0 72 b9 08 eb e7 b7 41 d6 28 3a
       -0.00022890813 -0.00023156717 -2.764679e-05 0.0006440618
0000b0 77 d2 07 b7 71 7b cf b6 00 00 00 00 00 00 00 00
       -8.09563e-06 -6.183451e-06 0.0 0.0
0000c0 cf 0b 04 b7 54 2b ee b9
       -7.8705625e-06 -0.0004542718

density_estimator_head.weight f4 [50, 11]
000000 60 c6 43 3c e6 2d c0 bb 19 81 fc 3a a9 ed 1c 3c
       0.011949152 -0.0058648465 0.0019264548 0.009578147
000010 47 2e 50 3a f6 27 a0 3c 32 40 3a bc 25 8f ab bb
       0.0007941466 0.019550305 -0.011367844 -0.00523557
000020 59 1f 10 3c cb 29 1d 3a 6e e0 60 3c 9e 87 98 3b
       0.008796536 0.00059953023 0.013725383 0.0046548387
000030 c5 52 7a 3c 61 d2 aa bb df 08 2f 3c 3b cf 5d 3c
       0.015278523 -0.0052130674 0.010683267 0.013538177
000040 5f 99 5b 3c 00 4a 3c 3b 4a 3e c4 bb 5d 47 8b 3c
       0.013403266 0.002873063 -0.0059888707 0.017001802
000050 38 58 34 3c 57 e4 bb 3b be 31 0f bc c5 5d 84 3c
       0.011007361 0.0057340073 -0.008739887 0.016157994
000060 c8 11 ca bc 93 3b a0 3b 93 bf 06 3c ec d1 f5 3a
       -0.024666682 0.0048899143 0.008224386 0.0018754578
000070 c4 2c da bb b6 90 75 3a 81 29 e5 ba c4 81 dd 3b
       -0.0066581685 0.0009367572 -0.0017483683 0.006759854
000080 8d 7d cf 3b 73 23 88 bb 9d 61 70 bb 7f f1 a9 3b
       0.0063321055 -0.0041546165 -0.0036679276 0.0051862593
000090 73 3c b0 bb b8 36 e6 3b 95 01 a9 bc 3b a9 39 bb
       -0.0053783 0.007025566 -0.020630637 -0.002832963
0000a0 c0 e5 08 3b c5 f0 d5 3b f9 43 60 3c 0e c3 b0 bb
       0.0020888895 0.006528946 0.013688081 -0.005394346
0000b0 37 0e d2 ba 9a 04 7b bc a7 a1 d8 3b dc 6b 96 bc
       -0.0016025965 -0.015320921 0.0066110673 -0.018361978
0000c0 a1 4a a6 ba 1a 41 0f 3b 08 96 51 3b 9c d8 89 bc
       -0.0012687036 0.0021858872 0.0031980295 -0.01682692
0000d0 e5 ed 9e bb ca d3 7a 3b 39 70 f7 ba 84 2b 9e 3b
       -0.0048501366 0.0038273209 -0.001887805 0.004826965
0000e0 9a ff 9c bc dc 62 08 3b 9e cb 27 3b c3 63 51 3c
       -0.01916485 0.0020810878 0.0025603543 0.012780133
0000f0 a7 95 6e bc d4 04 b5 bb ef 72 9f bb ce 33 f4 bb
       -0.014562047 -0.005524257 -0.004865996 -0.0074524647
000100 a5 e3 04 3b 7c 79 6d 3b 20 43 89 3c a1 c6 54 bb
       0.0020277288 0.003623574 0.01675564 -0.0032467025
000110 28 9b a3 3c 84 cf cb bb d7 17 5e 3c 44 ab c8 b9
       0.019971445 -0.006219806 0.013555489 -0.00038274575
000120 95 98 11 bc 9c e5 17 bc b9 d0 82 bb e7 50 bb bb
       -0.008886476 -0.009271052 -0.003992167 -0.0057164314
000130 13 5a 0c bc a4 2b 13 bb 50 d3 52 bc f9 56 90 bb
       -0.008566397 -0.0022456432 -0.012867764 -0.004404899
000140 c6 01 72 3c 18 7f 47 bb 06 eb a1 3b 20 2f 66 bc
       0.014770931 -0.0030440744 0.004941347 -0.014049321
000150 ca 95 a7 bc f7 60 b4 3b 95 8d a1 bb ad 6e 40 3c
       -0.020457167 0.005504723 -0.004930208 0.011745137
000160 79 87 2d b9 92 20 c7 3b f2 11 7a 3c dc 5f 20 bc
       -0.00016549033 0.0060768807 0.015263068 -0.00978848
000170 73 df 0d bc 5f c1 96 3c 96 a7 d7 bb 59 88 14 bb
       -0.0086592315 0.018402753 -0.006581257 -0.0022664277
000180 82 f9 4e 3b 56 2b a3 39 d0 c6 d2 3b 34 ab 5b 3c
       0.0031581824 0.0003112207 0.0064323917 0.013407517
000190 28 a1 8c bb 0f 92 3c 3b b4 5d f9 bb 1f 23 de 3c
       -0.0042916723 0.002877358 -0.0076100472 0.027116356
0001a0 2d 72 07 3c fb 8d 29 bc 03 d4 9d bb 03 40 f2 bb
       0.008266968 -0.010348792 -0.0048165335 -0.0073928847
0001b0 dd 1b 88 bc 13 ca 90 bb 80 34 63 3c 55 dd 04 bb
       -0.016614849 -0.0044186204 0.013867497 -0.0020273526
0001c0 18 c1 34 bc 3c 53 35 ba c0 80 fb bb 89 7e 56 bb
       -0.011032365 -0.0006917005 -0.0076752603 -0.003272923
0001d0 5c cb a0 3b 70 d4 e7 bb e2 df 17 ba 2e 15 5e bc
       0.004907055 -0.007074885 -0.0005793554 -0.013554854
0001e0 85 33 5b 3b 65 5a 8a b9 a9 0e 8a 3b 77 c1 7b 3a
       0.0033447456 -0.0002638876 0.0042131734 0.00096037186
0001f0 7b 1b 12 3c ea 62 8a 3b 19 86 d6 ba ee 14 1d bc
       0.008917685 0.0042232173 -0.0016366869 -0.00958751
000200 63 87 ae ba e0 a8 04 bc cc fb dc 3b 3c 04 1c 3c
       -0.0013315495 -0.008096904 0.0067438837 0.009522494
000210 4d 04 15 3a 3e 4c 2e bb e8 0a 29 bc b4 7c 80 3c
       0.000568454 -0.0026595737 -0.010317542 0.015684463
000220 23 0c 7f bb 6e 58 a6 bb 00 7b 3d bc ef 87 e6 bc
       -0.0038917146 -0.0050764596 -0.01156497 -0.02814099
000230 73 e1 e1 b9 39 e2 85 3b af 24 6a bc 39 49 cc ba
       -0.00043083317 0.0040858057 -0.014290973 -0.0015585787
000240 02 d4 18 bc 1d 1d 95 bb d7 14 66 bb 4d fc 04 3c
       -0.00932789 -0.0045505897 -0.0035107636 0.008116794
000250 7d 34 2e bb f3 09 a8 bb 33 4f b6 3b 9a 66 dd 3b
       -0.0026581578 -0.005128139 0.0055636405 0.006756616
000260 40 92 1f 3c d8 32 34 bc 7c 4b 89 bb 00 54 2c bb
       0.009739459 -0.01099845 -0.0041899066 -0.0026295185
000270 a3 5b 0c 3c 46 28 19 bb 51 4e c7 b9 8a ef 1b 3c
       0.00856677 -0.0023369952 -0.00038014588 0.00951756
000280 c1 8c 9e 3c 1c 74 9d ba 85 ec a8 3c 9e 58 c6 3b
       0.019354226 -0.0012012753 0.020620594 0.0060530445
000290 97 cf 66 3c 80 77 bb 3b 35 7e ad 3a 47 3e 2e bb
       0.014087579 0.0057210326 0.0013236465 -0.0026587413
0002a0 bb 1c ca bb 38 b5 88 bc c8 e3 00 bc 3e 22 9b bb
       -0.0061679757 -0.016687974 -0.007866807 -0.0047343066
0002b0 16 16 2d bc 94 32 2b bc eb d6 99 bb 87 a0 9b bc
       -0.010564348 -0.0104490705 -0.0046948097 -0.018997444
0002c0 cc 9a 0e 3c bd a5 3e bc 76 7e b3 3b 2f 14 b7 3c
       0.008703899 -0.011636195 0.005477722 0.022348491
0002d0 b6 33 75 3a 1a 04 36 3c 57 55 a9 3c 62 40 85 bb
       0.0009353714 0.011109376 0.020670576 -0.004066513
0002e0 81 70 94 bb f2 fd 62 bc 15 78 ab bb 30 ac b7 3c
       -0.004530013 -0.013854491 -0.0052328208 0.022420973
0002f0 cd 41 5a bc 6b 91 6b bc ce 0e 45 3c 88 34 b5 bb
       -0.013321352 -0.014377932 0.0120274555 -0.005529944
000300 37 6a f5 3b 1c 77 2b bb 39 f9 14 3c 76 ca b5 3b
       0.0074894684 -0.0026163524 0.009092622 0.005547817
000310 98 4d b8 3c ca cd f4 b9 ea 35 4f bb 57 de 18 bc
       0.022497937 -0.0004669263 -0.0031617829 -0.009330354
000320 a7 64 fd 3a c1 54 d1 bb 68 92 40 bc 6b 50 a5 bb
       0.0019332365 -0.0063882773 -0.011753656 -0.005044987
000330 c0 91 8c 3a 75 23 41 ba 33 61 93 bc ec 8a 51 3c
       0.0010724589 -0.0007367649 -0.017990684 0.012789469
000340 b9 cf 0a bc 53 9c 03 3b 21 c5 56 bb 70 4e a7 bc
       -0.0084723765 0.002008219 -0.0032771307 -0.020423144
000350 7d c5 c6 3b 43 a9 36 bc 4b 18 a2 3c 57 6b be bb
       0.006066023 -0.011148754 0.019786974 -0.0058111358
000360 3f a6 bf bc 26 da cb bc 01 bf 42 bc b1 29 de bb
       -0.023394702 -0.024884295 -0.011886359 -0.0067798723
000370 3c cd 90 3b 81 53 b2 b9 65 4b 65 bc 31 05 5b bc
       0.004418997 -0.0003401302 -0.013995026 -0.013367937
000380 be 17 60 b9 69 29 fd bb 8a 06 e3 bb ec 25 a7 bb
       -0.0002137115 -0.0077258837 -0.0069282698 -0.005100956
000390 5c bf d6 3b 21 15 26 3b ba 74 24 bb 52 aa 4c ba
       0.0065535735 0.0025342184 -0.0025093989 -0.0007807362
0003a0 6a f1 4a 3c 32 92 e2 bb 6f e6 2e 3c 8d c7 ef 3c
       0.012386659 -0.0069144005 0.010675057 0.029269958
0003b0 ee 47 8c bb c5 6e 83 3b 93 40 28 3c 0a 44 95 3b
       -0.0042810356 0.0040110075 0.010269302 0.00455523
0003c0 32 3f c7 3c 34 af ec ba 23 cf 75 bb 0c 9f 2c bb
       0.024322126 -0.0018057586 -0.0037507496 -0.0026339917
0003d0 f8 9d 21 bc 10 8e 7d bb a6 18 63 3c 54 87 5f 38
       -0.009864323 -0.0038689412 0.013860857 5.3293377e-05
0003e0 95 bd da 3b b8 25 65 3b 6e 17 d5 3b 88 32 97 bb
       0.006675432 0.003496511 0.006503037 -0.004614178
0003f0 92 8b 82 bc 48 49 63 3c 99 ee 57 bb 94 b7 56 3b
       -0.015935693 0.013872452 -0.0032948612 0.003276323

density_estimator_head.bias f4 [11]
000000 a0 16 0c bd 02 3f d2 bc a0 31 2d bc d7 8a 0b bc
       -0.034201264 -0.02566481 -0.010570914 -0.008516989
000010 92 c7 35 bb b1 04 71 bb 82 80 38 3a b6 df 9d 3a
       -0.0027737361 -0.0036776478 0.0007038192 0.001204482
000020 39 7b 8e 3c d6 c0 33 3d 24 05 b6 3c
       0.017392742 0.043885075 0.022219248

Q1.0.weight f4 [50, 50, 5]
000000 ac 7c 85 bf fe c1 42 3e 53 52 9d 3f 4d 22 f4 be
       -1.0428672 0.19019315 1.2290748 -0.4768242
000010 57 36 ba 3e de d3 2e bf 02 8a a5 3f 6e 64 88 bd
       0.36369583 -0.68292034 1.2932742 -0.066597804
000020 3b b2 90 bc 5c ea 5f bf 05 47 b4 bc 08 77 88 be
       -0.017663112 -0.8746698 -0.022006521 -0.26653314
000030 34 01 79 be f8 c2 82 be 86 54 c1 bf c6 93 c1 3d
       -0.24316865 -0.25539374 -1.510392 0.09452014
000040 b7 2a fa bf 1d 38 d1 be 61 54 26 bc f6 81 d4 be
       -1.9544286 -0.40863124 -0.010151953 -0.41505402
000050 f0 fa 8c bf e7 e4 da 3f ca 75 80 3f c7 8e 1d 3f
       -1.101408 1.7101105 1.0035946 0.61545986
000060 ca a3 28 bf f9 d6 13 be 32 cf 21 bf 15 4b 23 be
       -0.6587492 -0.14437474 -0.6320678 -0.1594661
000070 b1 70 36 3f c7 d6 05 40 88 cf b4 3f c5 bb 0c 3f
       0.71265703 2.091234 1.4125834 0.54974014
000080 e2 f4 d1 3e da e6 2d 3e af 51 b6 bf a3 81 7c bd
       0.41007143 0.16982594 -1.4243678 -0.06164707
000090 8e 60 67 bf d9 4b ce bf 12 6c c8 3e 5b 35 13 3f
       -0.90381706 -1.6116897 0.3914495 0.5750329
0000a0 79 13 4d bf a2 b5 ae bd c8 7d b0 bf e7 2f 0c 3f
       -0.8010784 -0.085307375 -1.3788385 0.54760593
0000b0 65 1c fb bf 25 7d 8e 3f dd b6 c4 be 49 d9 96 bf
       -1.961804 1.1131941 -0.38420764 -1.178506
0000c0 d3 3e 10 3f 16 c8 a0 3d a9 ab 12 40 d7 85 73 3f
       0.5634586 0.07850663 2.2917273 0.951261
0000d0 00 58 9f 3e 53 0a 60 bf 7f 4d 18 be 19 1a a4 3f
       0.31121826 -0.87515754 -0.14873312 1.2820464
0000e0 a6 28 44 be 2c c4 28 bf ca bd 85 bf 09 89 b5 3e
       -0.19156131 -0.65924335 -1.0448544 0.35456112
0000f0 8d 37 4d 3f eb a6 a5 3e 25 65 1c 3e f3 ac 20 bd
       0.8016289 0.3235391 0.15272959 -0.039227437
000100 2b 3c e9 3e c8 35 63 3e cb a8 c7 bf 6e 8b aa 3e
       0.45553717 0.22188485 -1.5598387 0.333095
000110 b1 60 a3 bf 6d ec ad bf e8 74 a6 bf 8a 39 09 3f
       -1.2763883 -1.3587776 -1.3004427 0.5360342
000120 8e 50 e4 3e a7 16 42 3f 30 c0 73 3f 51 13 01 40
       0.44592708 0.75815815 0.9521513 2.016804
000130 99 67 94 3e 5e dc 00 bf 8e e6 d7 3f 0d 59 e5 bf
       0.2898529 -0.50336254 1.6867235 -1.7917801
000140 43 f9 92 3e ab 02 83 3f 70 5b d6 3d e5 e7 7b 3e
       0.28705797 1.0235189 0.10466659 0.2460018
000150 e0 46 99 3f e4 da 10 3f a2 98 64 3e c2 4e ef 3e
       1.1974754 0.56584 0.2232385 0.46739775
000160 92 39 90 3f 85 66 16 3f ba 75 87 3f 2f 14 a0 3f
       1.1267569 0.5875018 1.0582802 1.250616
000170 d8 c3 9f 3f 6f c2 4c 3e 73 c8 cf bf fb ae 07 3f
       1.2481642 0.19996046 -1.6233047 0.53001374
000180 34 38 60 bf 9d ef 7b bf 28 50 97 3e d1 b7 9d bf
       -0.8758576 -0.98412496 0.29553342 -1.2321721
000190 34 54 ff be f5 58 6e bf 00 aa 8d 3f 72 83 42 3f
       -0.4986893 -0.9310449 1.1067505 0.7598182
0001a0 83 06 44 bf 4b 3c ab 3f 20 d9 8d be b1 ab 34 be
       -0.76572436 1.3377775 -0.27704716 -0.1764362
0001b0 e9 69 a0 3e ca 15 b0 be e4 5c 60 bf 17 25 2d c0
       0.31330803 -0.34391624 -0.8764174 -2.7053888
0001c0 55 c5 95 3f 09 2e dd 3e 78 05 cf 3f 83 d2 ee 3f
       1.1700846 0.43199185 1.6173544 1.8657993
0001d0 2b 30 c5 3e 19 39 08 3f d2 86 93 3f e8 ca c1 3e
       0.38513312 0.53212124 1.1525519 0.37850118
0001e0 79 8b 21 bf 2d 32 a9 3f 9e 99 c2 be a2 b8 83 bf
       -0.63103443 1.3218437 -0.38007826 -1.029072
0001f0 d2 79 8d 3f c5 bc c3 bf 96 a3 f3 3e fa d0 b7 bd
       1.1052802 -1.5291983 0.47585744 -0.08975406
000200 bb 29 c8 3e 72 81 ac 3f 7f 99 85 bf b3 31 50 bf
       0.39094338 1.3477004 -1.0437468 -0.81325835
000210 f0 4c f5 bd 96 b0 a1 3f ee 8a a7 bf bd 9f ae be
       -0.11977565 1.2632015 -1.3089273 -0.34106246
000220 4d 43 c6 3e fc 5c 80 bf 2c d1 35 bf 7c 20 06 40
       0.3872322 -1.0028377 -0.71022296 2.0957327
000230 53 5d 87 be a5 37 b2 3f c9 c3 48 bf c2 b4 cb bf
       -0.26438388 1.3923231 -0.78423744 -1.5914538
000240 db 83 07 c0 1d 70 91 bd de 87 4e 3f 8e 41 e6 3d
       -2.1174228 -0.07101462 0.80676067 0.11242972
000250 88 11 9c bf d0 55 86 be d7 05 8d be 32 3d cf 3e
       -1.219285 -0.26237345 -0.27543518 0.40476376
000260 1f f0 81 3f 28 e6 01 40 dd 97 50 bf 9b d2 69 3f
       1.0151404 2.0296726 -0.81481725 0.91336983
000270 15 bc 88 bf 11 40 94 bf 00 e7 4b 3e 3b 8f a0 3e
       -1.0682398 -1.1582052 0.19912338 0.31359276
000280 75 f7 15 bf e4 63 da be af 1c 38 bf 66 bf ae 3f
       -0.58580714 -0.42654335 -0.7191877 1.365216
000290 e2 00 02 c0 4b ed eb bf fc ec 92 bf 1c 1c f9 3e
       -2.031304 -1.8431791 -1.1478572 0.48654258
0002a0 7e c0 36 3e c0 5b 56 bf cf ed 8e 3f 49 83 0c be
       0.17846867 -0.8373375 1.1166323 -0.13721956
0002b0 e0 c9 42 be 6c 8a a9 3e f8 bb 84 3f 23 f7 7b 3e
       -0.19022322 0.3311342 1.0369864 0.24605994
0002c0 be 35 ee be 13 c7 88 3f 2e ae f1 bd e8 58 af be
       -0.46525377 1.0685753 -0.118008 -0.34247518
0002d0 70 99 11 3f c7 b9 67 bf 7e b1 92 3f aa d0 cc 3e
       0.5687475 -0.9051785 1.1460416 0.40002948
0002e0 14 f8 80 bf 14 b4 8a be 50 7d e7 bf 48 3a 17 bf
       -1.0075707 -0.27090514 -1.8085117 -0.59073305
0002f0 cd f8 a8 bc fe 80 08 40 80 51 e8 3e e7 5d f2 bf
       -0.02062645 2.132873 0.4537468 -1.8934907
000300 dd 40 ab be 5f 59 3f 40 16 88 46 3f 53 f8 d3 3f
       -0.33447924 2.9898298 0.775514 1.6560158
000310 3e 80 fe 3e 56 c8 82 bf 8f 85 33 3f 98 59 7c 3f
       0.49707216 -1.0217388 0.7012567 0.9857421
000320 77 f5 77 3d 0d 7d de 3f 8b 4e 07 3f 13 9a 14 bf
       0.060536828 1.7381912 0.5285422 -0.580476
000330 d7 a4 50 bf 4f 16 83 bf f8 16 07 bf d9 82 fa 3e
       -0.81501526 -1.0241183 -0.5276942 0.48927954
000340 d0 d7 70 3f 87 28 2d bf 73 fb 03 bf b1 c8 93 be
       0.94079304 -0.67639965 -0.51555556 -0.28864053
000350 97 48 5f bf 29 e6 b9 3f 3c f3 b3 3f a0 fc 71 3e
       -0.8722014 1.4523364 1.4058604 0.23631525
000360 5e bc 91 bf 64 30 ca 3f 86 7a b0 3f 17 81 7c 3f
       -1.138561 1.5796018 1.3787391 0.98634475
000370 7f ca 98 3f 5c a7 4a 3f ba cf a8 be f9 0e e0 3e
       1.1936797 0.7916162 -0.32970983 0.43761423
000380 bb 7d 76 be 85 0f 0c be 5f f2 21 be 54 0f 0e be
       -0.240714 -0.13677795 -0.15815113 -0.13873035
000390 b4 e2 d6 be 48 88 2a bf 93 9f b5 bf 70 80 d4 be
       -0.41969836 -0.666142 -1.4189323 -0.4150424
0003a0 f1 96 f9 3d 36 5e e9 3f 4a 59 08 bf 45 fc 55 3e
       0.12186993 1.8231876 -0.53261244 0.20897014
0003b0 ba b0 a7 3f 28 06 e6 3f a7 10 65 be 0c 54 6f 3e
       1.3100808 1.7970629 -0.22369634 0.23371905
0003c0 03 83 ed 3e c1 22 d2 3f f0 05 19 c0 f5 3e 8a be
       0.46389017 1.6416856 -2.3909874 -0.27001157
0003d0 09 88 c7 bd 22 21 8f bf 33 12 74 be 14 de 33 3f
       -0.097427435 -1.1181986 -0.23835067 0.7026074
0003e0 59 27 5b bf b3 b2 33 bf d1 92 0c 3f cc 70 02 3f
       -0.85606915 -0.7019455 0.54911524 0.50953364
0003f0 79 90 a2 3e c4 46 03 40 ee e3 b2 be 64 d2 bd 3e
       0.3175085 2.0511942 -0.34939522 0.37074578

Q1.0.bias f4 [50, 5]
000000 71 d1 8c 39 28 b8 ac 38 78 dc 75 36 7f 68 c4 b7
       0.00026858927 8.235901e-05 3.6636175e-06 -2.341368e-05
000010 88 07 1b b7 88 35 5c 3c de 3b 2b 3c b4 13 33 3c
       -9.240473e-06 0.013440497 0.010451285 0.010929991
000020 e1 36 b0 3b 2b ae ba 3a 16 e6 28 3d 50 86 f6 3c
       0.005377636 0.001424258 0.041235052 0.030093342
000030 9a f8 01 3d ca 89 82 3c 76 a3 8c 3b 8e 7d df 3b
       0.031731226 0.015934844 0.004291947 0.006820387
000040 51 f4 ce 38 24 58 84 ba f1 75 f9 b9 5b e6 aa b8
       9.868353e-05 -0.0010097069 -0.00047580854 -8.149139e-05
000050 1d 95 05 38 66 eb 46 34 35 f9 c7 b4 00 00 00 00
       3.1848544e-05 1.8525824e-07 -3.724796e-07 0.0
000060 00 00 00 00 00 00 00 00 00 00 00 00 00 00 00 00
       0.0 0.0 0.0 0.0
000070 00 00 00 00 00 00 00 00 29 68 b5 3c 31 bc 85 3c
       0.0 0.0 0.022144394 0.016325088
000080 34 b6 93 3c ba 14 1a 3c 95 45 2b 3b fe 7a f5 b9
       0.018031217 0.009404356 0.0026134003 -0.00046821678
000090 c2 38 17 b9 98 4b 9d 38 ee fd f8 38 92 fe 7d 38
       -0.00014421626 7.500424e-05 0.000118728596 6.0556988e-05
0000a0 47 bb 2a ba 03 4b 6a 3a ca 2e 19 3a ab 65 b1 b7
       -0.0006512892 0.0008937569 0.0005843459 -2.1147387e-05
0000b0 ed 3d 95 b8 f1 7f 12 bc 24 c9 eb bb 3e 10 cb bb
       -7.116408e-05 -0.008941636 -0.0071956087 -0.0061970046
0000c0 fd 38 1e bb b7 ac ed b9 c4 bd 4c bb 16 b2 82 ba
       -0.0024142854 -0.00045332845 -0.0031241039 -0.0009971287
0000d0 30 d4 73 ba 51 82 19 ba e9 1e 48 b9 06 8c 7a bb
       -0.0009301333 -0.00058559055 -0.00019085001 -0.0038230433
0000e0 1c 2b 5c bb 47 b6 44 bb e3 5b 9d ba 38 6a 6d b9
       -0.003359503 -0.0030015872 -0.0012005534 -0.00022641651
0000f0 80 22 23 bc 38 b0 10 bc 83 b7 02 bc 49 dd 53 bb
       -0.009956956 -0.008831076 -0.007978323 -0.003232794
000100 b8 a2 23 ba df e6 07 3b 78 9b b7 3a 93 26 14 3b
       -0.00062422035 0.0020736975 0.0014008125 0.0022606
000110 9b c4 c4 3a 7a 15 f5 39 88 4c 4f b9 b1 4c 4d b9
       0.0015012206 0.00046746043 -0.00019769568 -0.00019578893
000120 67 3b 4b b9 5d a1 b4 b8 4a 92 b4 b7 76 50 e3 bb
       -0.00019381718 -8.613125e-05 -2.1525793e-05 -0.006937082
000130 49 59 b8 bb a8 ae 9f bb 65 3d fa ba 8a 1b bd b9
       -0.005625878 -0.0048731156 -0.0019091783 -0.00036069407
000140 c9 93 d9 3b e9 dd 89 3b 88 83 8e 3b f4 22 11 3b
       0.006639932 0.004207362 0.004349176 0.0022146078
000150 27 13 1f 3a 49 0d 6d 3c 85 b7 33 3c 76 47 36 3c
       0.00060682226 0.014468499 0.010969047 0.011125436
000160 ce 0b af 3b 95 b3 b6 3a b0 38 83 bb d7 89 8c bb
       0.0053419834 0.0013939018 -0.0040045604 -0.0042888927
000170 e2 56 8e bb 12 52 ff ba 2d 0e fb b9 7e 02 ce 3b
       -0.0043438533 -0.0019479415 -0.00047885012 0.006286918
000180 c8 29 88 3a dd 1d fb 39 5a 5a b7 39 01 72 15 39
       0.0010388428 0.000478967 0.00034971797 0.00014252217
000190 00 00 00 00 00 00 00 00 00 00 00 00 00 00 00 00
       0.0 0.0 0.0 0.0
0001a0 00 00 00 00 16 94 ac 3c 3b 01 ae 3a de ed 16 3a
       0.0 0.021066707 0.0013275513 0.0005757491
0001b0 94 3f bf 3a 05 a4 39 3a 0b 09 cd b9 67 d0 1c b8
       0.0014591091 0.0007081631 -0.00039107385 -3.7387388e-05
0001c0 49 70 22 b6 00 00 00 00 00 00 00 00 e2 f3 ff 3c
       -2.420524e-06 0.0 0.0 0.031244222
0001d0 4f 52 96 3c fe 26 9f 3c 0b 7a 28 3c 2c da 3d 3b
       0.018349795 0.019427773 0.010283004 0.0028969152
0001e0 13 70 7f b8 ab 18 e9 39 63 9b ed 39 11 6e 29 39
       -6.0901115e-05 0.00044459602 0.00045319935 0.00016158099
0001f0 33 49 ae 37 12 1e 5c b9 d7 e2 a3 b9 46 43 0d b9
       2.0776502e-05 -0.00020992037 -0.00031258792 -0.00013471869
000200 32 62 c9 b7 50 ba c5 b7 76 70 85 bb cc db 66 bb
       -2.4006793e-05 -2.3570989e-05 -0.0040722443 -0.0035226224
000210 36 c0 4b bb e2 bc a0 ba 4e 16 71 b9 9a e8 3e 3b
       -0.0031089908 -0.0012263323 -0.0002299186 0.002913034
000220 05 d2 4e 39 b7 ab df b8 a3 a0 1a 37 71 ee 11 38
       0.0001972393 -0.00010665453 9.216516e-06 3.479276e-05
000230 3d 65 b8 bb 46 8d 9f bb cc 31 8f bb a8 a1 e7 ba
       -0.005627303 -0.004869136 -0.00436995 -0.0017672079
000240 60 01 b9 b9 7e db 66 bb bc fc 1b bb 6f ed ff ba
       -0.00035286974 -0.0035226042 -0.0023801764 -0.0019525717
000250 f7 84 48 ba 28 e4 de b8 ec ea 1d 3c d7 76 80 3b
       -0.0007649208 -0.00010628282 0.009638529 0.003920417
000260 9e 36 6f 3b fd 4b 00 3b 2f c5 17 3a 75 40 be 3b
       0.003650106 0.0019576543 0.00057895755 0.0058060237
000270 57 f5 54 3b 96 f8 61 3b a1 a7 f2 3a 9a 1a 0a 3a
       0.0032494867 0.0034480444 0.0018513092 0.0005268246
000280 86 bd 41 bb 6c ba 84 ba 0d 86 60 39 a7 5c a1 39
       -0.0029562428 -0.0010126359 0.00021412242 0.00030777344
000290 68 23 0c 38 dc 58 a7 39 d8 4d 70 b8 59 41 8c b7
       3.3411576e-05 0.00031918928 -5.7292957e-05 -1.671973e-05
0002a0 00 00 00 00 00 00 00 00 f5 7c 03 bb c4 3d 49 bb
       0.0 0.0 -0.0020063494 -0.0030706981
0002b0 34 41 3c bb f9 30 90 ba 73 f4 69 b9 ee d8 ea bb
       -0.0028725388 -0.0011000923 -0.00022311676 -0.0071669733
0002c0 89 11 d8 bb 39 4e d1 bb be cc 33 bb c8 7b 05 ba
       -0.006593887 -0.0063874987 -0.0027435268 -0.0005091992
0002d0 16 43 09 bb 5d 3a 02 bb 7d a0 f9 ba cd ff 56 ba
       -0.0020944527 -0.0019871213 -0.0019045022 -0.00082015694
0002e0 3c cc 44 b9 43 ec 58 b9 bb a1 74 b8 4c 84 93 38
       -0.000187681 -0.0002068738 -5.8324757e-05 7.0341484e-05
0002f0 af be b3 38 54 cf 6d 38 00 00 00 00 00 00 00 00
       8.570903e-05 5.6698293e-05 0.0 0.0
000300 00 00 00 00 00 00 00 00 00 00 00 00 d3 ad 9a b9
       0.0 0.0 0.0 -0.00029502678
000310 ee 73 94 b9 79 78 33 b9 7c 76 14 b8 5c e5 32 b6
       -0.00028315134 -0.0001711565 -3.5396297e-05 -2.6657572e-06
000320 cd 17 55 ba 5d 30 77 b9 d7 3f 71 b8 c0 17 df 36
       -0.0008128852 -0.00023573772 -5.7518333e-05 6.6486828e-06
000330 90 44 05 36 01 b5 5d 3c 2f 4b 0c 3c a5 50 12 3c
       1.9858453e-06 0.013531924 0.008562847 0.00893036
000340 03 25 96 3b 48 3c a5 3a 1b 48 3c bc 82 4a a1 bb
       0.004582049 0.0012606466 -0.011491801 -0.004922212
000350 0b da 66 bb da de bb ba dd 64 8c b9 a0 71 50 3c
       -0.0035225179 -0.0014333383 -0.0002677803 0.012722403
000360 6c 17 2d 3c 39 f3 32 3c 30 e0 ab 3b cd 84 b2 3a
       0.010564666 0.010922247 0.005245231 0.00136199
000370 45 3e 55 bb 92 e3 41 bb 62 54 31 bb a1 2e 91 ba
       -0.0032538336 -0.0029585105 -0.0027058353 -0.0011076519
000380 fb a7 64 b9 8b 86 02 3c 33 55 95 3b bd d8 94 3b
       -0.00021806352 0.007966648 0.0045572757 0.004542439
000390 61 bb 16 3b 10 06 26 3a bf 57 78 bb 58 7a c8 3b
       0.002299987 0.0006333301 -0.0037894098 0.0061181
0003a0 49 a1 01 3c 57 23 70 3b 51 c2 5f 3a fb 07 57 3b
       0.0079119885 0.0036642158 0.00085357303 0.0032811153
0003b0 8e 86 81 3b 3a 37 8f 3b f8 a4 0a 3b 81 5e 0e 3a
       0.0039528077 0.004370597 0.0021155458 0.00054309523
0003c0 43 b4 81 3c 56 c3 41 3c fc 53 62 3c 3a 32 f6 3b
       0.015833026 0.011826357 0.013813969 0.0075133117
0003d0 b9 0c 0b 3b 55 2f 1b 3c 6b 4f b6 3b 53 b2 c3 3b
       0.00212173 0.009471734 0.0055636666 0.0059721856
0003e0 10 6d 51 3b c8 c4 6e 3a
       0.0031955875 0.0009108302
