CausalCVR/logs/simu3/eval/99/Vcnet_ckpt.pth.tar (torch, 123067 bytes, 16 tensors)

feature_weight.weight f4 [50, 8]
000000 92 ed 55 bc 21 f5 43 bc 89 14 50 bc a3 4c 7a bb
       -0.013057129 -0.011960299 -0.012700208 -0.0038192652
000010 79 63 99 3c 98 3e 92 bb ac c2 01 3c 4b 98 3a bc
       0.01872419 -0.004463028 0.007919949 -0.011388849
000020 a7 1c 05 bc 0e cd 49 ba b3 04 1d 3c 51 67 4d 3b
       -0.008124507 -0.0007698097 0.00958364 0.00313421
000030 46 17 13 bc 69 37 86 bc 82 49 53 3c 7a c9 5a bb
       -0.008977717 -0.016383843 0.012895944 -0.003338425
000040 87 7b 17 3a 34 7a bd ba 90 1f 8a b9 66 b7 8e bc
       0.00057786 -0.0014455975 -0.00026344927 -0.017421436
000050 18 02 dc 3b 77 a9 e5 b9 d4 6c 0b 3c ba 78 7a bb
       0.006714117 -0.00043804545 0.008509833 -0.0038218931
000060 f3 db 02 3b 48 81 00 bd ff b0 0f 3a 56 67 77 bb
       0.0019967526 -0.031373292 0.00054813916 -0.0037750802
000070 ba ca 92 bb dd 46 79 bc 60 4e 81 3c 33 62 3b 3b
       -0.0044797333 -0.015214649 0.015784442 0.0028592467
000080 c4 f6 30 bc 39 4d 65 3a 26 90 7b 3b f7 6c 5f bc
       -0.010801021 0.0008747164 0.003838548 -0.013636819
000090 96 ab 9c bc b9 c3 1f bc c1 d0 2a 3b 59 26 4a 3c
       -0.019124787 -0.009751254 0.0026064368 0.012338244
0000a0 fd a9 d9 bb 24 d9 87 ba 27 7c b3 bc af 2d 8b ba
       -0.0066425786 -0.0010364396 -0.021909786 -0.0010618473
0000b0 04 c6 a4 3c e4 75 21 3c c9 0f 8b 3b 05 0a 61 bb
       0.020113952 0.0098547675 0.004243825 -0.0034338247
0000c0 df c9 d5 bb 22 4c 10 bc cb 74 8a bb e1 a9 0c ba
       -0.006524309 -0.008807214 -0.0042253486 -0.000536589
0000d0 d8 16 91 bb f7 6c 8b 3a d3 25 53 bc 35 fd d6 bb
       -0.004427772 0.0010637332 -0.012887436 -0.0065609463
0000e0 0c fc 31 bc 2f 81 93 3a 4f 41 96 bb 2d e0 c5 bb
       -0.010863315 0.001125371 -0.004585422 -0.0060386867
0000f0 e6 83 df 3b 49 93 ea bb 85 75 83 bc af 08 80 3c
       0.0068211434 -0.007158671 -0.016047249 0.01562914
000100 11 7f 85 b9 f6 2d cd 3b 88 47 84 3c de ca 8c bc
       -0.0002546241 0.0062615825 0.01614739 -0.017186578
000110 e9 94 ce bb 38 3e 8f 3c 67 e8 c1 3b a3 d0 c9 bc
       -0.0063043726 0.017485723 0.005917597 -0.024635619
000120 c4 59 b6 3b 58 0f 2f 3c 48 87 0e 3b f2 c3 bd 3c
       0.0055649 0.010684811 0.0021748114 0.023164723
000130 42 e6 2f bc 5e 62 da 39 94 4d b2 bb 6e 15 07 bc
       -0.01073605 0.0004165349 -0.005441377 -0.008244855
000140 83 d9 2d 3b 5b 43 15 3c fb 9b 5a 3c b6 cd 38 3a
       0.0026527352 0.009110297 0.013342853 0.0007049696
000150 98 40 f7 3b 9f e1 95 3b 91 54 bc ba 79 e9 18 3b
       0.007545542 0.0045740153 -0.0014368464 0.002333252
000160 eb 2c 2b 3b da b1 a0 bc 37 f1 dc ba 42 8e ba 3b
       0.0026119302 -0.019616056 -0.0016856556 0.005693228
000170 c3 9c 2a bb b5 3b ce 3b 8e ee 80 bc 55 dc 5b 3c
       -0.0026033379 0.0062937387 -0.015738752 0.0134192305
000180 10 77 03 ba 20 ef 08 bb ba 4a db 3b e4 95 62 ba
       -0.0005014995 -0.0020894483 0.0066922577 -0.0008643551
000190 bb fb 22 3b 5f 0b 3f ba 5f a3 14 bb 4e c7 14 3c
       0.0024869281 -0.0007287766 -0.0022680385 0.009080721
0001a0 6a b9 53 3c 75 7c db bb 4e 21 31 3c d6 16 df 3b
       0.012922624 -0.006698186 0.010811163 0.006808142
0001b0 86 47 5c bc 73 e8 ec 3b 1e 4c ac bb 75 6a 1f 3c
       -0.013444787 0.0072298585 -0.0052580973 0.009729971
0001c0 30 85 ac bb cf 9f ef bb 84 24 c2 3c 26 8c e4 bb
       -0.0052649006 -0.007312752 0.023699053 -0.006974715
0001d0 3c af 44 3c 1d 60 58 bc 12 ef 8c ba a8 ad 54 3c
       0.01200467 -0.013206509 -0.0010752401 0.012980856
0001e0 55 b3 89 3a 6b 59 35 ba 45 6b 9c bb 5a 7c 1b bb
       0.0010505716 -0.00069179264 -0.0047735297 -0.0023725242
0001f0 c2 da 27 3c dd 99 2b bc b2 3c 4b 3c 0b 59 56 3c
       0.010245027 -0.010473696 0.012404608 0.013082753
000200 d0 fc 24 3c a0 0a b0 3b 88 c5 2a bc 90 be b9 3b
       0.010070041 0.0053723603 -0.010423072 0.005668469
000210 43 75 3d bc 27 aa cb bb 6c 54 17 3b 1e 97 d3 3b
       -0.011563602 -0.006215352 0.002309109 0.0064572236
000220 63 8c 0b 3c 06 dd 86 bc d1 45 8e bc 59 53 6f 3b
       0.0085173575 -0.016462814 -0.017367275 0.0036518185
000230 9f 02 73 3c fe 74 ae bb 2c 57 06 bc c6 55 f6 ba
       0.014832168 -0.005324005 -0.008199494 -0.0018793873
000240 1a 1d a8 bc f5 ac 29 bc ae 2b 11 bc 51 6d cf b8
       -0.02052169 -0.010356178 -0.008860512 -9.890891e-05
000250 89 cf 4f 3b 15 43 54 3c 12 f3 93 3c 8e fb b0 3b
       0.0031709394 0.012955447 0.01806024 0.0054010814
000260 2a 20 66 3c 80 7f 8b bb c2 a6 52 3b 73 13 97 bc
       0.014045754 -0.0042571425 0.0032142852 -0.018441891
000270 9f 0d d6 3b f6 9a b5 bc 4e 38 89 bc d6 cd 6c bc
       0.0065323855 -0.022168618 -0.016750481 -0.014453372
000280 8a 0f 35 bb 2d d6 11 bc 03 f7 15 3c 65 97 80 bc
       -0.002762767 -0.008901161 0.00915313 -0.01569719
000290 1f 63 94 3b 17 7e 52 bc e0 2c da 38 26 ad 0d 3c
       0.0045284177 -0.012847445 0.00010403409 0.008647239
0002a0 0a 12 53 bc cb 6a a2 bc 45 51 50 3b 8f 62 10 bc
       -0.012882719 -0.019826313 0.0031786722 -0.008812561
0002b0 5b 9a 7e 3c 61 fd 05 3c 89 e4 0d ba 3a a0 80 3b
       0.015539731 0.008178086 -0.00054127775 0.0039253505
0002c0 15 f8 8c bb da 50 bb 3c ef 95 87 36 26 bf bf 3b
       -0.0043020346 0.022865701 4.040768e-06 0.005851644
0002d0 de 37 85 ba 78 db f7 3b 55 c6 ff 3b e4 7e 95 bb
       -0.0010163744 0.0075640045 0.0078056254 -0.0045622457
0002e0 1c 12 06 bc 45 6d 23 bb e8 30 af ba a3 ec 11 bc
       -0.008183029 -0.0024936956 -0.0013366016 -0.008906516
0002f0 35 3e e5 bb d5 71 34 3a 9d 45 8d 3c 81 c4 a6 3a
       -0.006995941 0.00068834174 0.017245108 0.0012723358
000300 91 08 a5 3a d5 11 0a 3b ac b3 48 bc 31 a7 59 b9
       0.0012591054 0.0021067758 -0.012249868 -0.00020757016
000310 b2 29 31 3c ba 04 2b 3c 5b 11 e2 bc 39 ff 95 ba
       0.010813164 0.010438139 -0.027596166 -0.001144386
000320 72 e3 27 bc 6b ef 2e 3c 61 9b 59 bb ab f8 2c 3c
       -0.010247098 0.010677199 -0.0033204185 0.010557334
000330 d9 52 cc ba 33 73 a9 bb b7 91 cf 3a 93 73 2b bb
       -0.0015588655 -0.0051712035 0.0015836273 -0.0026161417
000340 dd 9d ed 3a c7 fe 3b 3a a7 ac 3b 39 26 af 27 3c
       0.0018128712 0.00071714487 0.00017898028 0.01023463
000350 bc 2e 83 bc 54 7b a6 3b 26 36 b6 3a 4d ec bb bc
       -0.016013496 0.00508062 0.0013901636 -0.022939825
000360 8e 4b ce 3b 03 e8 fc bb 67 12 db bb ac c5 1a b9
       0.006295628 -0.0077180876 -0.0066855433 -0.00014760223
000370 fa 50 e1 3b a0 5f 60 bc b6 10 e3 3b ae 5b 34 3b
       0.0068761082 -0.013694674 0.0069294823 0.0027520466
000380 37 5b 0a 39 b1 69 bd bb 4e c3 4e bb 76 98 d3 bc
       0.00013194686 -0.0057804217 -0.0031549516 -0.025829535
000390 fc 5e 00 3c 1a f7 be 3b f1 c9 70 bc fa a8 90 3a
       0.007835146 0.0058277966 -0.014696584 0.0011036687
0003a0 0e 15 34 bb 7e 31 0c bb 70 b3 51 3c 2d a4 25 3c
       -0.002747837 -0.0021391804 0.012799129 0.010109943
0003b0 b0 dc b4 3a 1f 2f 8a 3b a5 db bb 3b e6 a8 c3 bc
       0.001379868 0.004217043 0.005732971 -0.023884248
0003c0 1d 2a 87 3c b3 d8 d2 bb 6b e6 c7 ba 6b 20 03 3c
       0.016499573 -0.006434524 -0.0015251165 0.0080033345
0003d0 42 bf ba 3b be 8d 89 bc 6a 7c 4f bc 31 9a 92 3b
       0.0056990692 -0.01679122 -0.01266394 0.0044739475
0003e0 76 d3 19 bc c2 d7 c3 3a 82 98 fb bb 64 44 7d 3c
       -0.009388795 0.001494162 -0.0076780925 0.0154582
0003f0 f5 bc df 3a 25 0e ce 3b 05 e7 70 ba a4 60 49 3b
       0.0017069863 0.0062883073 -0.0009189698 0.0030727768

feature_weight.bias f4 [50]
000000 75 92 32 36 0d 42 2e b4 0d 19 07 37 39 fa d6 35
       2.6609316e-06 -1.6229042e-07 8.05246e-06 1.6017067e-06
000010 a5 87 32 b5 99 50 9a b6 00 00 00 00 bd f9 84 b6
       -6.6507556e-07 -4.5989404e-06 0.0 -3.96298e-06
000020 ee a6 46 b7 5b a8 1b b8 c6 c3 a3 b7 32 b3 1a b6
       -1.1840586e-05 -3.7111673e-05 -1.9522278e-05 -2.3052094e-06
000030 98 78 ce b6 38 5f d3 b7 30 5a a0 37 59 f9 ff 36
       -6.1533174e-06 -2.51975e-05 1.9115483e-05 7.62862e-06
000040 8b 62 6c 36 8b b7 af b6 b8 9e e8 b6 6a 31 45 35
       3.52241e-06 -5.2367736e-06 -6.932616e-06 7.3460126e-07
000050 e3 76 db b4 d9 dd b1 b6 bb 50 d1 36 72 75 5d 36
       -4.087843e-07 -5.3008375e-06 6.2380836e-06 3.2999928e-06
000060 3f 21 80 33 fa 8e a9 37 a5 26 08 b6 14 62 93 b6
       5.966512e-08 2.0212949e-05 -2.0288073e-06 -4.392359e-06
000070 41 6a f4 b5 b9 be 07 37 89 af f8 b5 08 f0 ee b7
       -1.8210341e-06 8.091033e-06 -1.8528527e-06 -2.8483584e-05
000080 6c 0b c4 37 3f de 20 36 e7 bb 2e 34 a0 fa 85 b7
       2.337034e-05 2.3971222e-06 1.6273371e-07 -1.5971542e-05
000090 f7 14 bb b6 3d ce b9 b7 a5 f8 89 b4 36 39 12 36
       -5.575475e-06 -2.2149756e-05 -2.569915e-07 2.1788996e-06
0000a0 1e a7 df b7 47 b6 59 b4 00 00 00 00 c2 95 32 b7
       -2.6661492e-05 -2.0276012e-07 0.0 -1.0644495e-05
0000b0 bd 22 bd 37 00 00 00 00 5c f0 4f b6 f7 f3 1e 37
       2.2546732e-05 0.0 -3.0985311e-06 9.474336e-06
0000c0 b9 6b b4 b4 81 f9 14 35
       -3.360599e-07 5.549737e-07

hidden_features.0.weight f4 [50, 8]
000000 92 ed 55 bc 21 f5 43 bc 89 14 50 bc a3 4c 7a bb
       -0.013057129 -0.011960299 -0.012700208 -0.0038192652
000010 79 63 99 3c 98 3e 92 bb ac c2 01 3c 4b 98 3a bc
       0.01872419 -0.004463028 0.007919949 -0.011388849
000020 a7 1c 05 bc 0e cd 49 ba b3 04 1d 3c 51 67 4d 3b
       -0.008124507 -0.0007698097 0.00958364 0.00313421
000030 46 17 13 bc 69 37 86 bc 82 49 53 3c 7a c9 5a bb
       -0.008977717 -0.016383843 0.012895944 -0.003338425
000040 87 7b 17 3a 34 7a bd ba 90 1f 8a b9 66 b7 8e bc
       0.00057786 -0.0014455975 -0.00026344927 -0.017421436
000050 18 02 dc 3b 77 a9 e5 b9 d4 6c 0b 3c ba 78 7a bb
       0.006714117 -0.00043804545 0.008509833 -0.0038218931
000060 f3 db 02 3b 48 81 00 bd ff b0 0f 3a 56 67 77 bb
       0.0019967526 -0.031373292 0.00054813916 -0.0037750802
000070 ba ca 92 bb dd 46 79 bc 60 4e 81 3c 33 62 3b 3b
       -0.0044797333 -0.015214649 0.015784442 0.0028592467
000080 c4 f6 30 bc 39 4d 65 3a 26 90 7b 3b f7 6c 5f bc
       -0.010801021 0.0008747164 0.003838548 -0.013636819
000090 96 ab 9c bc b9 c3 1f bc c1 d0 2a 3b 59 26 4a 3c
       -0.019124787 -0.009751254 0.0026064368 0.012338244
0000a0 fd a9 d9 bb 24 d9 87 ba 27 7c b3 bc af 2d 8b ba
       -0.0066425786 -0.0010364396 -0.021909786 -0.0010618473
0000b0 04 c6 a4 3c e4 75 21 3c c9 0f 8b 3b 05 0a 61 bb
       0.020113952 0.0098547675 0.004243825 -0.0034338247
0000c0 df c9 d5 bb 22 4c 10 bc cb 74 8a bb e1 a9 0c ba
       -0.006524309 -0.008807214 -0.0042253486 -0.000536589
0000d0 d8 16 91 bb f7 6c 8b 3a d3 25 53 bc 35 fd d6 bb
       -0.004427772 0.0010637332 -0.012887436 -0.0065609463
0000e0 0c fc 31 bc 2f 81 93 3a 4f 41 96 bb 2d e0 c5 bb
       -0.010863315 0.001125371 -0.004585422 -0.0060386867
0000f0 e6 83 df 3b 49 93 ea bb 85 75 83 bc af 08 80 3c
       0.0068211434 -0.007158671 -0.016047249 0.01562914
000100 11 7f 85 b9 f6 2d cd 3b 88 47 84 3c de ca 8c bc
       -0.0002546241 0.0062615825 0.01614739 -0.017186578
000110 e9 94 ce bb 38 3e 8f 3c 67 e8 c1 3b a3 d0 c9 bc
       -0.0063043726 0.017485723 0.005917597 -0.024635619
000120 c4 59 b6 3b 58 0f 2f 3c 48 87 0e 3b f2 c3 bd 3c
       0.0055649 0.010684811 0.0021748114 0.023164723
000130 42 e6 2f bc 5e 62 da 39 94 4d b2 bb 6e 15 07 bc
       -0.01073605 0.0004165349 -0.005441377 -0.008244855
000140 83 d9 2d 3b 5b 43 15 3c fb 9b 5a 3c b6 cd 38 3a
       0.0026527352 0.009110297 0.013342853 0.0007049696
000150 98 40 f7 3b 9f e1 95 3b 91 54 bc ba 79 e9 18 3b
       0.007545542 0.0045740153 -0.0014368464 0.002333252
000160 eb 2c 2b 3b da b1 a0 bc 37 f1 dc ba 42 8e ba 3b
       0.0026119302 -0.019616056 -0.0016856556 0.005693228
000170 c3 9c 2a bb b5 3b ce 3b 8e ee 80 bc 55 dc 5b 3c
       -0.0026033379 0.0062937387 -0.015738752 0.0134192305
000180 10 77 03 ba 20 ef 08 bb ba 4a db 3b e4 95 62 ba
       -0.0005014995 -0.0020894483 0.0066922577 -0.0008643551
000190 bb fb 22 3b 5f 0b 3f ba 5f a3 14 bb 4e c7 14 3c
       0.0024869281 -0.0007287766 -0.0022680385 0.009080721
0001a0 6a b9 53 3c 75 7c db bb 4e 21 31 3c d6 16 df 3b
       0.012922624 -0.006698186 0.010811163 0.006808142
0001b0 86 47 5c bc 73 e8 ec 3b 1e 4c ac bb 75 6a 1f 3c
       -0.013444787 0.0072298585 -0.0052580973 0.009729971
0001c0 30 85 ac bb cf 9f ef bb 84 24 c2 3c 26 8c e4 bb
       -0.0052649006 -0.007312752 0.023699053 -0.006974715
0001d0 3c af 44 3c 1d 60 58 bc 12 ef 8c ba a8 ad 54 3c
       0.01200467 -0.013206509 -0.0010752401 0.012980856
0001e0 55 b3 89 3a 6b 59 35 ba 45 6b 9c bb 5a 7c 1b bb
       0.0010505716 -0.00069179264 -0.0047735297 -0.0023725242
0001f0 c2 da 27 3c dd 99 2b bc b2 3c 4b 3c 0b 59 56 3c
       0.010245027 -0.010473696 0.012404608 0.013082753
000200 d0 fc 24 3c a0 0a b0 3b 88 c5 2a bc 90 be b9 3b
       0.010070041 0.0053723603 -0.010423072 0.005668469
000210 43 75 3d bc 27 aa cb bb 6c 54 17 3b 1e 97 d3 3b
       -0.011563602 -0.006215352 0.002309109 0.0064572236
000220 63 8c 0b 3c 06 dd 86 bc d1 45 8e bc 59 53 6f 3b
       0.0085173575 -0.016462814 -0.017367275 0.0036518185
000230 9f 02 73 3c fe 74 ae bb 2c 57 06 bc c6 55 f6 ba
       0.014832168 -0.005324005 -0.008199494 -0.0018793873
000240 1a 1d a8 bc f5 ac 29 bc ae 2b 11 bc 51 6d cf b8
       -0.02052169 -0.010356178 -0.008860512 -9.890891e-05
000250 89 cf 4f 3b 15 43 54 3c 12 f3 93 3c 8e fb b0 3b
       0.0031709394 0.012955447 0.01806024 0.0054010814
000260 2a 20 66 3c 80 7f 8b bb c2 a6 52 3b 73 13 97 bc
       0.014045754 -0.0042571425 0.0032142852 -0.018441891
000270 9f 0d d6 3b f6 9a b5 bc 4e 38 89 bc d6 cd 6c bc
       0.0065323855 -0.022168618 -0.016750481 -0.014453372
000280 8a 0f 35 bb 2d d6 11 bc 03 f7 15 3c 65 97 80 bc
       -0.002762767 -0.008901161 0.00915313 -0.01569719
000290 1f 63 94 3b 17 7e 52 bc e0 2c da 38 26 ad 0d 3c
       0.0045284177 -0.012847445 0.00010403409 0.008647239
0002a0 0a 12 53 bc cb 6a a2 bc 45 51 50 3b 8f 62 10 bc
       -0.012882719 -0.019826313 0.0031786722 -0.008812561
0002b0 5b 9a 7e 3c 61 fd 05 3c 89 e4 0d ba 3a a0 80 3b
       0.015539731 0.008178086 -0.00054127775 0.0039253505
0002c0 15 f8 8c bb da 50 bb 3c ef 95 87 36 26 bf bf 3b
       -0.0043020346 0.022865701 4.040768e-06 0.005851644
0002d0 de 37 85 ba 78 db f7 3b 55 c6 ff 3b e4 7e 95 bb
       -0.0010163744 0.0075640045 0.0078056254 -0.0045622457
0002e0 1c 12 06 bc 45 6d 23 bb e8 30 af ba a3 ec 11 bc
       -0.008183029 -0.0024936956 -0.0013366016 -0.008906516
0002f0 35 3e e5 bb d5 71 34 3a 9d 45 8d 3c 81 c4 a6 3a
       -0.006995941 0.00068834174 0.017245108 0.0012723358
000300 91 08 a5 3a d5 11 0a 3b ac b3 48 bc 31 a7 59 b9
       0.0012591054 0.0021067758 -0.012249868 -0.00020757016
000310 b2 29 31 3c ba 04 2b 3c 5b 11 e2 bc 39 ff 95 ba
       0.010813164 0.010438139 -0.027596166 -0.001144386
000320 72 e3 27 bc 6b ef 2e 3c 61 9b 59 bb ab f8 2c 3c
       -0.010247098 0.010677199 -0.0033204185 0.010557334
000330 d9 52 cc ba 33 73 a9 bb b7 91 cf 3a 93 73 2b bb
       -0.0015588655 -0.0051712035 0.0015836273 -0.0026161417
000340 dd 9d ed 3a c7 fe 3b 3a a7 ac 3b 39 26 af 27 3c
       0.0018128712 0.00071714487 0.00017898028 0.01023463
000350 bc 2e 83 bc 54 7b a6 3b 26 36 b6 3a 4d ec bb bc
       -0.016013496 0.00508062 0.0013901636 -0.022939825
000360 8e 4b ce 3b 03 e8 fc bb 67 12 db bb ac c5 1a b9
       0.006295628 -0.0077180876 -0.0066855433 -0.00014760223
000370 fa 50 e1 3b a0 5f 60 bc b6 10 e3 3b ae 5b 34 3b
       0.0068761082 -0.013694674 0.0069294823 0.0027520466
000380 37 5b 0a 39 b1 69 bd bb 4e c3 4e bb 76 98 d3 bc
       0.00013194686 -0.0057804217 -0.0031549516 -0.025829535
000390 fc 5e 00 3c 1a f7 be 3b f1 c9 70 bc fa a8 90 3a
       0.007835146 0.0058277966 -0.014696584 0.0011036687
0003a0 0e 15 34 bb 7e 31 0c bb 70 b3 51 3c 2d a4 25 3c
       -0.002747837 -0.0021391804 0.012799129 0.010109943
0003b0 b0 dc b4 3a 1f 2f 8a 3b a5 db bb 3b e6 a8 c3 bc
       0.001379868 0.004217043 0.005732971 -0.023884248
0003c0 1d 2a 87 3c b3 d8 d2 bb 6b e6 c7 ba 6b 20 03 3c
       0.016499573 -0.006434524 -0.0015251165 0.0080033345
0003d0 42 bf ba 3b be 8d 89 bc 6a 7c 4f bc 31 9a 92 3b
       0.0056990692 -0.01679122 -0.01266394 0.0044739475
0003e0 76 d3 19 bc c2 d7 c3 3a 82 98 fb bb 64 44 7d 3c
       -0.009388795 0.001494162 -0.0076780925 0.0154582
0003f0 f5 bc df 3a 25 0e ce 3b 05 e7 70 ba a4 60 49 3b
       0.0017069863 0.0062883073 -0.0009189698 0.0030727768

hidden_features.0.bias f4 [50]
000000 75 92 32 36 0d 42 2e b4 0d 19 07 37 39 fa d6 35
       2.6609316e-06 -1.6229042e-07 8.05246e-06 1.6017067e-06
000010 a5 87 32 b5 99 50 9a b6 00 00 00 00 bd f9 84 b6
       -6.6507556e-07 -4.5989404e-06 0.0 -3.96298e-06
000020 ee a6 46 b7 5b a8 1b b8 c6 c3 a3 b7 32 b3 1a b6
       -1.1840586e-05 -3.7111673e-05 -1.9522278e-05 -2.3052094e-06
000030 98 78 ce b6 38 5f d3 b7 30 5a a0 37 59 f9 ff 36
       -6.1533174e-06 -2.51975e-05 1.9115483e-05 7.62862e-06
000040 8b 62 6c 36 8b b7 af b6 b8 9e e8 b6 6a 31 45 35
       3.52241e-06 -5.2367736e-06 -6.932616e-06 7.3460126e-07
000050 e3 76 db b4 d9 dd b1 b6 bb 50 d1 36 72 75 5d 36
       -4.087843e-07 -5.3008375e-06 6.2380836e-06 3.2999928e-06
000060 3f 21 80 33 fa 8e a9 37 a5 26 08 b6 14 62 93 b6
       5.966512e-08 2.0212949e-05 -2.0288073e-06 -4.392359e-06
000070 41 6a f4 b5 b9 be 07 37 89 af f8 b5 08 f0 ee b7
       -1.8210341e-06 8.091033e-06 -1.8528527e-06 -2.8483584e-05
000080 6c 0b c4 37 3f de 20 36 e7 bb 2e 34 a0 fa 85 b7
       2.337034e-05 2.3971222e-06 1.6273371e-07 -1.5971542e-05
000090 f7 14 bb b6 3d ce b9 b7 a5 f8 89 b4 36 39 12 36
       -5.575475e-06 -2.2149756e-05 -2.569915e-07 2.1788996e-06
0000a0 1e a7 df b7 47 b6 59 b4 00 00 00 00 c2 95 32 b7
       -2.6661492e-05 -2.0276012e-07 0.0 -1.0644495e-05
0000b0 bd 22 bd 37 00 00 00 00 5c f0 4f b6 f7 f3 1e 37
       2.2546732e-05 0.0 -3.0985311e-06 9.474336e-06
0000c0 b9 6b b4 b4 81 f9 14 35
       -3.360599e-07 5.549737e-07

hidden_features.2.weight f4 [50, 50]
000000 ef 78 88 3c 9e b2 de 3a 78 fa 79 bb bf 52 62 3b
       0.016659228 0.0016990488 -0.0038143676 0.0034534184
000010 df e4 c0 3b ee 33 2a bc e5 b4 6c bb bf cf ef b7
       0.0058866586 -0.010388358 -0.0036118564 -2.858776e-05
000020 3f 1d 5b 3b 00 7c 0e bc 69 11 71 3b a4 b7 e5 3b
       0.003343418 -0.008696556 0.003678406 0.007010417
000030 26 90 a2 39 7f ec 27 bc e9 b1 7d bc 19 90 b6 3b
       0.00031006447 -0.010249256 -0.015484312 0.005571377
000040 4e 30 87 3b 68 11 91 bb 26 97 ba 3c ce 0e fd bb
       0.0041256314 -0.004427124 0.022777151 -0.007722712
000050 71 26 88 bc ef 3c a1 bb c6 68 6d 3b 9a 4a c2 3b
       -0.016619893 -0.004920594 0.003622578 0.0059293034
000060 dd a3 20 bc b0 df ef 3b 8b a5 8f bb ef 4f 6f 3c
       -0.009804693 0.007320367 -0.004383748 0.01460646
000070 df 33 99 3c 16 b7 c6 3b a2 d7 2a bc ef b3 57 bc
       0.018701492 0.006064306 -0.010427387 -0.013165458
000080 bf 6a 14 bb 7e a0 ea ba c5 db 12 bc 49 e8 5f bb
       -0.0022646633 -0.0017900614 -0.00896353 -0.0034165552
000090 0b bb 84 3a c5 b3 89 3b 9e 36 35 bc 12 ad 85 ba
       0.0010126544 0.0042023384 -0.011060385 -0.0010198674
0000a0 6a b3 7d 3c a6 9d f1 3b f5 d6 0a bc 64 35 ca bb
       0.01548467 0.0073735295 -0.008474101 -0.0061709154
0000b0 11 ab ad bc e3 3c 16 3c db a1 0c bb 9a e3 36 3c
       -0.021199735 0.00916979 -0.0021458778 0.011162663
0000c0 03 b8 95 ba 93 48 0c 3c 0f 70 b6 3b 95 b7 c1 bb
       -0.0011422638 0.008562225 0.0055675576 -0.0059117773
0000d0 5a ea f4 3b c1 1d d8 39 1a 91 b8 bb 13 08 29 3c
       0.007474226 0.000412209 -0.005632532 0.010316866
0000e0 68 66 82 ba d6 08 3b bc ab 2f 06 3c 75 cc af bb
       -0.0009948732 -0.011415681 0.008190076 -0.0053649493
0000f0 11 2e 99 bc d8 6b dc 3b 6a a1 42 ba c8 dd cb bb
       -0.018698724 0.006726723 -0.0007424565 -0.0062215067
000100 41 26 4f 3b 3e f7 81 bc 47 9c 4a 3c a5 76 5f 3b
       0.0031608494 -0.015864965 0.012366361 0.0034097817
000110 f7 2d f1 bb aa 87 86 bb 52 cd 5c 38 ff 66 c7 bb
       -0.0073602158 -0.004105528 5.2643307e-05 -0.006085276
000120 be 21 6e bc 40 8c 0f 3d cf 46 ec ba d4 87 36 bc
       -0.014534412 0.035045862 -0.0018026474 -0.011140782
000130 c4 3e 05 bc 44 47 86 3c c4 17 8a 3b 3c a4 e8 bb
       -0.00813264 0.016391404 0.004214259 -0.0070996564
000140 5c 42 7d bb 2d 27 9a 3c 51 08 d7 3b 43 29 95 3c
       -0.003864429 0.018817509 0.0065622707 0.018208152
000150 52 51 28 bc 79 7e 9c 3b 46 5f bf 3c fe eb 37 b8
       -0.0102732945 0.004775819 0.02336086 -4.3850385e-05
000160 cd 61 02 3c 2c 44 d7 bb 77 92 2d bb 0b 05 ab 3b
       0.007957888 -0.006569406 -0.0026485005 0.005219107
000170 98 9f 61 3b 7f e4 99 3c 23 24 06 bc b1 a1 56 bc
       0.00344274 0.018785713 -0.008187327 -0.013100074
000180 31 9c 41 bb 1e 7a 73 3b a9 d0 ea bb 94 79 66 ba
       -0.002954256 0.0037151645 -0.0071659875 -0.000879192
000190 59 eb a2 bc bf ed 18 bc 1b 44 c6 3a 8f 9f 30 bc
       -0.019887613 -0.009334027 0.0015126498 -0.010780229
0001a0 00 4d e8 37 6d 20 0f bb a1 ee e5 3a 79 ae 29 3c
       2.7692411e-05 -0.0021839396 0.001754243 0.010356539
0001b0 e7 6f b0 39 86 f1 87 b9 e9 16 55 bb c0 6e 8a bb
       0.0003365271 -0.00025929156 -0.0032514876 -0.004224628
0001c0 47 cc 2a bc 38 ec 9a 3a c1 4d e7 bb cf 7b 2d 3c
       -0.01042468 0.0011819666 -0.0070588295 0.0105886
0001d0 d7 be 67 3c ae 0f ea bb ad 1a 0d bc e5 ce d2 3a
       0.014144621 -0.0071429824 -0.008612317 0.0016083388
0001e0 73 98 54 bb d6 c2 5f 3b 9b c5 8d bb a5 24 8d ba
       -0.00324395 0.003414323 -0.004326535 -0.0010768367
0001f0 71 1a a9 3c 37 80 35 3b f2 83 26 3b 2c 46 70 3c
       0.020642491 0.002769483 0.0025408235 0.014665168
000200 0f 4f e9 3c b7 6c 9d 39 8c 2e a0 bb 59 ef 72 3b
       0.02848008 0.00030026372 -0.0048883613 0.0037068932
000210 f7 89 01 bb d3 17 1e 3c fe fb 16 3b 14 b1 c0 3c
       -0.0019766071 0.009649235 0.0023038383 0.023521937
000220 5c 4d cb 3a 7e 1d 31 bc 84 8c f3 3b d2 2e e4 bb
       0.0015510726 -0.010810254 0.0074325223 -0.006963589
000230 e0 ce 1c 3c 60 12 0c 3c df b6 b3 bb 2e 67 09 3c
       0.009570807 0.008549303 -0.0054844464 0.008386416
000240 b5 34 5c 3b 59 67 0a 3a d4 f3 41 3c ff 94 e7 bb
       0.0033600752 0.0005279682 0.011837918 -0.0070673223
000250 7d e3 92 3b 49 de 62 bc d7 c4 c3 3b 39 32 88 bb
       0.004482685 -0.013846942 0.005974393 -0.0041563776
000260 fc d4 db 3b 97 03 a6 3c b5 b5 c8 bb f5 60 20 bb
       0.0067087393 0.020265384 -0.006125177 -0.0024471853
000270 4c 60 a1 bc 81 8f ef 3b d8 59 9d bb 13 3c fd 3b
       -0.019699238 0.007310808 -0.00480197 0.0077281087
000280 b7 14 f4 3b 7d 4c 46 3c 16 5d 4d 3c 3f 2a 03 3b
       0.0074487585 0.012103197 0.0125344 0.0020014194
000290 4d eb 52 ba d8 bf 93 ba a2 72 86 bb f2 82 6f bb
       -0.0008045927 -0.0011272384 -0.0041030208 -0.0036546555
0002a0 d0 c0 06 bc c6 5e b2 3b 38 e0 21 bb 04 20 68 bc
       -0.008224681 0.005443427 -0.0024700295 -0.014167789
0002b0 88 99 c5 39 38 e9 57 3b 68 7d 8c 3b 5d be 50 3c
       0.00037689158 0.0032945406 0.0042874105 0.012740699
0002c0 10 34 3a bb 40 06 5d b9 40 fa be bb 33 d5 5e bc
       -0.002841238 -0.0002107853 -0.005828172 -0.013600635
0002d0 bc cb af 39 2b a6 b0 3b 8f 9b 73 bc 34 c4 37 3c
       0.00033530395 0.0053909025 -0.014868631 0.011216212
0002e0 c4 6d f9 bb 17 c2 6d 3c 22 ad b4 3c 71 8d 1a bc
       -0.007611962 0.014511607 0.022055212 -0.009433136
0002f0 27 fc ca bb ae 49 aa 3b 86 1a 70 bb 3b 0d 0d 3b
       -0.0061946097 0.0051967716 -0.0036636903 0.0021522779
000300 14 d3 2a 3c 3e d5 37 bc e0 4f 05 bb 56 c0 ec ba
       0.0104263015 -0.0112202745 -0.0020341799 -0.0018062692
000310 4e 81 27 3c e3 d3 8f 3c fe 6b 52 3c 59 07 30 3c
       0.0102237 0.01755709 0.01284313 0.010743939
000320 74 62 e0 bb 72 53 24 bb ec 47 ba bb 97 6e ce 3b
       -0.006847674 -0.0025074151 -0.0056848433 0.0062998044
000330 e4 76 ea b9 c7 b5 71 bc b7 1f 98 bb f5 cf 8a 3c
       -0.00044720538 -0.014752812 -0.0046424526 0.016944865
000340 91 e7 1d 3c a5 2f 10 bc e7 ce e7 3b d2 15 85 3b
       0.009637729 -0.008800422 0.007074225 0.004061439
000350 7c a8 a3 bb 96 b0 08 bb e9 c8 8d bb 10 18 f7 ba
       -0.00499445 -0.0020857207 -0.004326929 -0.0018851776
000360 61 cd 23 bc 16 94 63 3c 1d 27 4f bc db c9 d6 3b
       -0.009997697 0.013890287 -0.012643603 0.0065548248
000370 e7 68 1d 3c 1b ab e0 3a 92 3c 22 3c 3b 0a 43 bb
       0.00960753 0.0017140837 0.009902136 -0.0029760737
000380 f9 d0 2d 3b fc 40 7d bc 1b 69 f8 bb b7 d7 5f bc
       0.0026522262 -0.015457388 -0.007580889 -0.01366227
000390 dd fd 24 bc 3e e3 0b bb 90 2f 37 bb 92 b3 f6 3a
       -0.010070291 -0.0021345164 -0.0027951933 0.0018821827
0003a0 74 a4 21 3c 1b fe 33 3c 0c a9 b5 3a 11 4d b6 bb
       0.009865869 0.010985876 0.0013859584 -0.0055633863
0003b0 37 76 1e bc ac d6 aa bb c9 d6 d9 bb 3f c3 d4 3c
       -0.009671739 -0.005213579 -0.006647919 0.025972007
0003c0 48 ed 24 bc 18 e9 d0 bb 86 a7 18 3c c3 06 9a 3c
       -0.010066338 -0.006375443 0.009317284 0.018802052
0003d0 82 40 7b bb 19 cc 66 bc 51 78 83 bc 5d c1 73 b9
       -0.003833801 -0.014086747 -0.016048582 -0.0002324632
0003e0 83 b7 32 3b 08 66 9e 3c e8 c1 e2 ba 95 0f ea 3b
       0.0027270026 0.019335762 -0.001730022 0.007142971
0003f0 15 f8 1d 3c 56 ee 21 39 1a 3e bc 3b d6 e9 8d bb
       0.009641667 0.00015442944 0.005744708 -0.004330854

hidden_features.2.bias f4 [50]
000000 91 27 77 34 e0 e7 14 b6 ba 38 f1 39 4a 03 0a 39
       2.3018062e-07 -2.2188688e-06 0.00046009367 0.00013161931
000010 00 80 c3 38 aa 91 81 3a 4b c0 99 b9 93 b4 09 ba
       9.3221664e-05 0.000988533 -0.00029325704 -0.0005253043
000020 25 59 25 b9 a6 ae d6 b8 d6 bb 4b b9 0f 07 6b b9
       -0.00015768835 -0.00010236846 -0.00019429563 -0.00022413976
000030 fb f1 d7 39 a3 ac 4b 38 1c e4 8a b9 55 8f b0 b9
       0.00041188285 4.8559752e-05 -0.00026491366 -0.00033676127
000040 60 6f 9b 39 7b 65 96 b6 0e f2 16 39 ce 46 6c 39
       0.00029646885 -4.4821622e-06 0.00014395287 0.0002253309
000050 59 78 92 37 30 7a a5 b8 4e 2f 88 b9 61 ff 97 b9
       1.7460598e-05 -7.890572e-05 -0.00025975186 -0.00028991236
000060 70 50 c2 b9 7f 3e f7 34 ca 6e 21 ba 00 1b 9f 39
       -0.00037062494 4.6052807e-07 -0.00061581715 0.0003034696
000070 f9 5f d3 38 9d 32 ee b7 c2 1c 5e 39 f4 55 06 3a
       0.0001007914 -2.839538e-05 0.00021182283 0.00051245023
000080 e1 d8 2f 3a bd 84 d9 b9 72 4d b5 39 c2 d1 28 39
       0.00067080377 -0.00041488363 0.00034580712 0.0001609987
000090 ec 60 9e 39 a9 0f a9 b8 15 e1 45 ba 71 79 8d 39
       0.0003020832 -8.061465e-05 -0.00075484934 0.00026984097
0000a0 44 c3 78 b9 c1 a1 fc 37 00 00 00 00 a0 20 84 ba
       -0.00023723865 3.0116063e-05 0.0 -0.0010080524
0000b0 0b 3a cc 36 b0 76 81 38 00 00 00 00 c1 01 15 b9
       6.086431e-06 6.1733066e-05 0.0 -0.000142104
0000c0 99 90 11 b8 f5 38 ed 39
       -3.470536e-05 0.000452466

density_estimator_head.weight f4 [50, 11]
000000 23 5f 4b 3b fc 91 18 3c 4d 08 47 bc cd 7e 33 3c
       0.0031032048 0.009312149 -0.012147975 0.010955525
000010 89 c5 03 bc 51 60 ee 3b 38 a9 69 bc 5d e5 8e bb
       -0.0080427015 0.0072746654 -0.014261536 -0.0043608383
000020 51 60 c4 bb 16 3c b8 ba ac 1f 4b 3c b8 67 c5 3b
       -0.005992927 -0.0014055993 0.012397688 0.006024327
000030 59 09 25 3c a8 0b b1 bb 65 ab fb b9 30 be 0b 3c
       0.010073029 -0.005403001 -0.0004800215 0.008529231
000040 42 6d 3b bb 09 2c c3 bb 29 fd 17 bc 23 03 5b bc
       -0.0028599058 -0.005956177 -0.009276667 -0.013367447
000050 74 22 9f ba 4d 14 51 3c fd 24 06 bc ba 02 a8 bb
       -0.0012141005 0.012761188 -0.00818753 -0.005127278
000060 10 fe e3 39 16 17 52 3c 37 a8 80 bb 7a 2e 98 3c
       0.00043486105 0.012822887 -0.003926303 0.01857685
000070 a3 c0 3d bb 7b 01 34 3c 85 a2 7f 3c 1a b0 38 b8
       -0.0028953932 0.010986681 0.0156027125 -4.4033026e-05
000080 0b ca 09 b9 0a 86 23 3c 6d 52 ab bb 59 8d 80 3c
       -0.00013140605 0.009980688 -0.005228332 0.0156924
000090 62 ad 40 3c 0a e1 1a bc 29 2d 95 3c 10 8b 0d 3c
       0.011760088 -0.009453068 0.01821001 0.008639112
0000a0 bc d2 5b 3c fc 02 ca 3b 6a f3 89 3c fc 02 08 3b
       0.013416942 0.0061649065 0.016839702 0.0020753732
0000b0 d9 4c d3 ba 97 1f 9c 3a 75 46 27 ba e8 3d e1 3a
       -0.0016120925 0.001191127 -0.00063810433 0.0017184587
0000c0 de 15 04 3b 99 8e 13 3a f5 92 af 3b b0 b6 92 b6
       0.0020154635 0.00056288537 0.005358095 -4.3724067e-06
0000d0 48 6f 61 bc 8d db 2b 3c 9e 65 84 bb b8 df 15 bc
       -0.013759442 0.010489357 -0.004040434 -0.009147577
0000e0 57 23 8a 3b a6 81 85 bc e3 65 0e 3c 26 05 1a 3c
       0.0042156386 -0.016297173 0.008691284 0.009400642
0000f0 f6 25 ce 3b 16 09 33 bc f6 81 62 bb 9d dd bc bb
       0.0062911464 -0.010927459 -0.0034562326 -0.005763723
000100 20 d1 e8 3b 2c 3a 49 3c c6 da 17 3a 6f 2f 1f bb
       0.007105008 0.012281936 0.00057927927 -0.0024289747
000110 d0 ab c2 3c 65 88 e6 bb 84 44 65 ba 6d 2d 1a bc
       0.023763567 -0.0070353025 -0.00087458664 -0.009410244
000120 bf dd 37 3b 8f ec 55 3b 33 e2 6c bc e0 23 be bb
       0.0028055755 0.003264222 -0.014458227 -0.0058026165
000130 b6 93 a6 ba 0c f5 7e 39 27 db c0 3b 24 7a 28 3c
       -0.0012708816 0.00024314615 0.0058855 0.010283027
000140 8c 48 3b bb 00 80 bf bb 1c 3d 87 3c 04 6a ac bc
       -0.0028577177 -0.005844116 0.016508631 -0.021046646
000150 e1 2c 15 bc 40 5e 2a 3c 79 24 07 bc b8 b1 89 bc
       -0.009104938 0.0103984475 -0.008248442 -0.016808376
000160 ea b6 eb bc e9 34 6a 3b 87 18 97 ba 1e 02 c6 bb
       -0.028773744 0.0035737103 -0.0011527695 -0.006042733
000170 fc 6d 4d bc 91 05 37 3c 41 f4 00 3b 27 9a b8 3a
       -0.012538429 0.011170761 0.0019676837 0.0014084027
000180 1b 67 cf 3b 24 da 82 bc a6 ca c0 bc 87 f8 5f 3a
       0.00632943 -0.015973158 -0.02353413 0.00085438084
000190 4c 3b aa 3c c4 34 bf b9 fd 43 a4 bc 58 ab 82 3c
       0.020780228 -0.00036469672 -0.02005195 0.015950844
0001a0 ac a0 1e bc 4a 7f 10 3c 8f fa 8d bc fa a9 2e 3b
       -0.009681862 0.008819411 -0.01733139 0.0026651607
0001b0 ff 9d 5a bb 67 b2 0c 3b 14 f9 06 bc 34 d4 74 3c
       -0.0033358333 0.002146864 -0.008238096 0.014943171
0001c0 dc 21 85 3a 0b 77 30 bc 34 d8 71 bc da ec d6 bb
       0.0010157186 -0.01077057 -0.0147610195 -0.0065589966
0001d0 06 65 13 bc 43 9b 8e 3c ce a4 d1 3b 4c e5 f7 b9
       -0.008996254 0.017408019 0.00639782 -0.0004728235
0001e0 50 41 73 bc 5e aa 39 3b 28 d3 2c bb 8c ea 78 3c
       -0.014847115 0.0028330307 -0.0026370976 0.015192639
0001f0 36 37 80 bc 57 36 aa bb 40 ae 6d bb 48 da d0 3b
       -0.015651327 -0.005194466 -0.0036267191 0.0063736774
000200 33 fa 6e bb ff 79 02 ba 81 e2 59 bb 84 ed 2e bc
       -0.0036465048 -0.0004977285 -0.003324658 -0.010676745
000210 f8 34 ab bb e4 8b ba bb 51 e4 3f 3b 78 bf 75 bb
       -0.00522482 -0.005692946 0.0029280374 -0.0037498157
000220 b9 21 19 bb 1c 39 98 3b 21 34 3b bc d9 c9 82 3b
       -0.0023366048 0.00464548 -0.011426003 0.0039913473
000230 92 0b 68 3c 5f 58 d5 3a 87 86 83 bb 77 f6 57 b9
       0.014162915 0.0016276947 -0.0040138396 -0.00020595813
000240 d6 d0 91 3c 61 c4 3e 3a 4b a6 cd bb ae c3 31 3c
       0.017799776 0.00072771875 -0.006275927 0.010849876
000250 0f a4 28 bc 5b f9 96 3b 31 ec df bb ef a4 a7 3b
       -0.010293021 0.004607362 -0.006833576 0.005116097
000260 4c 29 29 3c e8 89 7f 3a 3b 15 04 bc 24 55 d6 3b
       0.010324787 0.00097480277 -0.008061702 0.0065409113
000270 c9 8f 78 bc 8e d4 9f 3b cb 9e 40 3b 63 b0 0e b8
       -0.015171 0.0048776334 0.0029391523 -3.401971e-05
000280 b9 61 37 3c 9a e6 36 3b b1 04 23 3a cb d8 bb bc
       0.0111927325 0.0027908445 0.00062186556 -0.022930523
000290 f6 09 76 3a 83 f8 21 3c c9 5f f5 bb 3c 75 d7 3b
       0.00093856396 0.00988591 -0.007488225 0.0065752547
0002a0 5c 40 1f ba d5 d2 b3 3b b2 49 c3 bb a9 24 ac 3a
       -0.0006074959 0.0054877796 -0.005959713 0.0013133484
0002b0 6f 2d 63 bc 21 54 88 bc 18 ce 7a bc c2 92 db bc
       -0.013865813 -0.016641678 -0.015307926 -0.026803378
0002c0 da 91 62 bb 48 a0 86 3b a8 fd f9 ba 8f 55 5a 3b
       -0.0034571798 0.0041084625 -0.0019072788 0.0033315157
0002d0 b2 3c a9 3b 7b 2d 37 bc ac 08 67 bc 10 b3 42 3b
       0.005164706 -0.011180277 -0.014101189 0.002970878
0002e0 09 d2 00 3b 2c 5e c4 3b f9 39 11 3b f2 dc 81 3a
       0.001965644 0.0059926715 0.0022159799 0.0009907766
0002f0 25 ca 78 bc ce cf 8a 3b c7 bf b9 bb bd 6c 33 b9
       -0.015184914 0.004236198 -0.0056686136 -0.00017111278
000300 f5 97 2b bb 42 be cc bb 1c 93 3c bc ec 21 6d bc
       -0.0026183103 -0.0062482664 -0.011509683 -0.01447342
000310 fd a2 99 3b b8 48 81 bc 8f bf 6e 3c 6d 1a ab bb
       0.004688619 -0.015781745 0.014572038 -0.005221656
000320 ad 34 99 bb 6e 4f 19 bb e7 76 80 3b 6b 1c 00 bb
       -0.004675469 -0.002339329 0.0039204243 -0.0019548188
000330 04 2d 64 3c 48 6d 9b bb 3d 4d 36 3c 1d 71 4f 3c
       0.013926748 -0.004743252 0.0111268135 0.012661246
000340 f6 f2 19 bb e6 4d 75 3b 7c a1 b6 3b 1d 7e d8 3a
       -0.0023490763 0.0037430464 0.0055734497 0.0016517077
000350 4e 75 3f ba 70 d5 89 bb 51 eb 4a 3c 23 15 21 bc
       -0.00073035515 -0.004206352 0.012385205 -0.0098317
000360 b4 e0 81 3c 12 a3 d9 bb 04 4c 8a bb 0e 4b 84 3c
       0.015854217 -0.006641754 -0.0042204875 0.01614907
000370 37 a5 17 3a bd b1 b4 3b 1f 03 52 bb 69 7d 21 3c
       0.0005784812 0.005514352 -0.0032045317 0.00985656
000380 76 dc 91 3b 60 9a a7 39 c8 c6 29 3c 74 78 fb bc
       0.00445133 0.0003196774 0.010362335 -0.030697085
000390 a7 67 12 3c ae 84 0f 3c 57 a2 5a ba 62 45 4d bc
       0.008935845 0.008759661 -0.00083402306 -0.012528749
0003a0 a2 97 82 3c b8 c0 8b 3b 13 d2 2f bc 2a 35 59 39
       0.015941445 0.004264917 -0.010731238 0.00020714538
0003b0 61 c8 77 bc 30 3f bd bc 05 38 9d bb af cf 3c 3b
       -0.015123458 -0.02310142 -0.004797938 0.0028810313
0003c0 c1 3e a4 39 47 11 2c bc d2 43 c4 3b b3 6d 1e 3c
       0.00031327273 -0.010502166 0.00598953 0.009669709
0003d0 12 1b 5e bb 8c 0f 35 3c ec 7f 97 bb 24 2c 0e 3b
       -0.0033890647 0.01105107 -0.004623404 0.002169379
0003e0 17 7a 27 bc e7 da 15 bc 60 3a d0 38 9c dd 0c bc
       -0.01022198 -0.009146429 9.929086e-05 -0.008597758
0003f0 ed 76 40 3b cb a3 bd 3a c3 14 c9 3b 75 19 44 3c
       0.002936776 0.001446837 0.006136508 0.01196896

density_estimator_head.bias f4 [11]
000000 70 c1 09 bd 68 f6 cf bc 92 04 6f bc 06 97 16 bc
       -0.033631742 -0.02538605 -0.014588492 -0.00919128
000010 b2 dd 43 bb 98 ba 5c bb f6 b3 7f bb 75 e1 c3 3b
       -0.002988678 -0.0033680554 -0.0039017177 0.0059778043
000020 ee d4 38 3c 8c db 22 3d 5a 9b 13 3d
       0.011281235 0.039760157 0.036036827

Q1.0.weight f4 [50, 50, 5]
000000 f7 2f 19 3f f2 fc a3 bf 58 2b 67 be 72 89 04 3f
       0.59838814 -1.2811568 -0.22575128 0.51772225
000010 30 da 7f 3d 2b bd 1b bf 1b fe 8c 3e 1f ff 09 be
       0.06246394 -0.6083552 0.27537617 -0.13476227
000020 23 e2 33 bf 34 f0 69 3f 7b 57 10 40 c4 60 53 bf
       -0.7026693 0.91382146 2.2553394 -0.8256953
000030 b2 ec 9e bf f4 eb 09 40 70 cf 4d be ba 84 50 3f
       -1.2415984 2.1550264 -0.20098662 0.81452525
000040 fa 05 80 3f 60 87 68 3f 02 be 80 bf af e4 70 bf
       1.0001824 0.90831566 -1.0057986 -0.94098943
000050 61 9b e3 3d 48 2c 89 bd a7 92 3c 3f d1 63 42 3e
       0.111136205 -0.06697899 0.73661274 0.1898339
000060 1d 89 50 3f d6 06 9c 3f b0 1e f9 3e 4d 45 4f bf
       0.8145922 1.2189586 0.48656225 -0.8096512
000070 41 6a 9b 3f 19 c2 b7 3e 45 e4 74 3f 3b b6 9b bf
       1.2141801 0.35890272 0.9566081 -1.2164987
000080 ac e7 02 3f 39 b5 38 be a9 cc 0a c0 74 21 de 3f
       0.51134753 -0.18037881 -2.1687415 1.7353959
000090 8b 2e 3e 3f 25 0e 62 3f e9 78 08 bf aa 3c 9f 3f
       0.7428977 0.8830283 -0.53309494 1.2440388
0000a0 97 c4 89 be e9 01 a8 be de ce 14 bf 1b b1 77 3e
       -0.269078 -0.32813957 -0.58128154 0.24188654
0000b0 95 ca 9d 3f 59 43 7e bf 02 d0 bd be 9c 72 ea be
       1.2327448 -0.99321514 -0.3707276 -0.45790565
0000c0 d9 83 08 3f 8b 30 9b bf ec dc fe 3e 61 8a 41 3e
       0.53326184 -1.2124189 0.49777925 0.18900444
0000d0 c3 35 2a be 60 35 5f 3f 18 55 54 3f 84 ed 75 3f
       -0.16622071 0.8719082 0.8294234 0.96065545
0000e0 fb 5d 8d 3d 76 19 81 3f b3 6d 8f be 3c 36 16 bf
       0.06902691 1.0085895 -0.2801338 -0.58676505
0000f0 76 c7 22 3f 19 83 b0 be b0 ea dc bc 45 85 1a bf
       0.63585603 -0.3447502 -0.026967376 -0.60359603
000100 2a ef 95 be b7 62 80 3e 3e 85 89 bf ec dd 96 3e
       -0.2928403 0.25075313 -1.0743787 0.29466188
000110 58 f9 8e 3d ac 2a 60 bf c0 a3 fb bf a2 ee a7 bf
       0.06981152 -0.8756511 -1.9659348 -1.31197
000120 65 68 d1 bf f3 02 8c be 15 75 92 bf fe ce 8f 3e
       -1.6359984 -0.27346 -1.1441981 0.2808761
000130 c8 e1 2a 3e ac 1e 8b bf d7 60 60 be 06 94 da 3e
       0.16687691 -1.0868735 -0.21911941 0.42691058
000140 49 18 0f 3f cb 5a 44 bf 69 ca 5c bf 9b dc ee bd
       0.5589643 -0.7670104 -0.86246353 -0.11663171
000150 1b ff 2a be dd 52 8b bf 34 dc a5 bf f4 3f e2 be
       -0.16698878 -1.0884663 -1.2957826 -0.44189417
000160 cc 0d db bf 13 f4 c7 bc cb 87 07 40 bb f2 1c bf
       -1.7113585 -0.024408376 2.1176631 -0.6130788
000170 d1 ba 01 be cf 92 db be c6 9b 86 3f 77 73 a9 bf
       -0.12668921 -0.42885444 1.0516288 -1.3238362
000180 67 e7 75 3f c2 27 c7 3f f4 c3 be 3e c1 f7 14 3f
       0.96056217 1.5559008 0.37258875 0.5819054
000190 9a 49 23 3b 54 4c 34 3f a6 fe c9 3f 37 16 c8 3d
       0.0024915696 0.7042897 1.5780838 0.09769862
0001a0 f8 fd 8f bf a8 1c 90 3f 37 10 01 be 17 93 91 3e
       -1.124938 1.1258745 -0.12603842 0.28432533
0001b0 c2 83 c0 3f 64 eb 8b bd be 62 60 bf f4 2b a6 3f
       1.5040209 -0.068320066 -0.8765067 1.2982163
0001c0 d5 4c 76 bf 9b 69 a6 3e d1 20 9d 3f 38 7b ed 3f
       -0.96210986 0.32502446 1.227564 1.8553228
0001d0 1a a6 3a bf 0e 4d c6 bd 37 53 07 be e8 57 b1 bf
       -0.729097 -0.09682666 -0.13215338 -1.3854952
0001e0 de 02 9d bf ca 0e f6 be 8a 01 e6 bd 83 b3 0a 3f
       -1.22665 -0.48058158 -0.11230762 0.54180163
0001f0 1c db 38 3f ee 41 6c 3f 04 b4 b2 3f a0 83 77 be
       0.72209334 0.922881 1.3961186 -0.24171305
000200 bd 46 4c 3e be c1 7c 3f d1 2e 65 3f d7 17 68 3f
       0.1994886 0.9873313 0.8952456 0.90661377
000210 a6 eb 34 3f 77 ce e6 3f 5b f6 62 bf 79 68 f1 be
       0.7067207 1.8031758 -0.8865716 -0.4715002
000220 f6 14 ca be f5 35 5f 3f d1 3a 26 3f c6 eb 89 3f
       -0.39469117 0.87191707 0.64933497 1.0775077
000230 c4 d3 0a c0 50 03 22 3f ab c5 33 c0 ac 2c 39 3e
       -2.1691751 0.63286304 -2.8089397 0.18083447
000240 1c c4 7c 3f bd a0 99 3f 60 0a 9a 3f 6d 44 e8 be
       0.9873674 1.2002178 1.2034416 -0.45364705
000250 22 42 65 3f fc 0a b2 3f b6 36 9f bf a7 a9 cb 3e
       0.89554036 1.3909602 -1.2438571 0.39777872
000260 eb 05 21 bd b2 4d 48 bf da ff 0c bf e9 01 fb bd
       -0.039312284 -0.78243554 -0.550779 -0.12256224
000270 05 70 f1 bf 2b d3 4f bf 77 02 af 3d 93 6f d4 bf
       -1.8862311 -0.8118159 0.08545392 -1.659655
000280 32 0d 8b 3e 0c 58 d2 bf b9 75 18 be 2e 60 47 3f
       0.27158505 -1.643312 -0.14888658 0.77881134
000290 cd 54 11 be 79 76 b2 be a6 54 9d bf c6 5f c0 3e
       -0.14192505 -0.34856012 -1.2291458 0.3757307
0002a0 9a d5 1e 3f 0d 6f 5f bf f9 2c 9d 3e 1d f7 85 3f
       0.6204468 -0.87278825 0.30698374 1.0466038
0002b0 68 e3 1a bf f3 77 18 c0 73 47 9b bf 8b d0 b4 bf
       -0.60503244 -2.3823211 -1.213118 -1.4126142
0002c0 17 da a1 bf 67 25 91 bf 21 99 02 3f 7d 22 b2 3f
       -1.2644681 -1.1339539 0.51014906 1.3916775
0002d0 ee 60 22 c0 d6 19 85 bf e6 81 c4 bf d6 8c 36 bf
       -2.537166 -1.039851 -1.5352142 -0.7130865
0002e0 f8 7e 15 be 13 c2 03 c0 0d 7f 63 3f c9 d1 96 3d
       -0.14599216 -2.0587204 0.8886574 0.07364232
0002f0 34 55 6a be 24 73 bf bf 3e b6 a9 bf d3 74 16 bf
       -0.22884065 -1.4957013 -1.3258741 -0.5877201
000300 8c 92 9a 3f 9a 48 ef 3e 74 95 0b c0 01 e9 75 bf
       1.2075973 0.46735078 -2.180997 -0.9605866
000310 79 ba 92 bf ac a0 aa bf 2b 7a fa 3d 4d 47 a3 bd
       -1.1463157 -1.3330283 0.12230333 -0.07972584
000320 0d 43 a5 be 2f a0 3f 3f b9 7e ec bf 6a b3 9c 3d
       -0.32277718 0.74853796 -1.8476173 0.07651408
000330 f8 fd 5e bf 37 70 32 bd 79 ae f5 3f 37 66 6a 3e
       -0.87106276 -0.043564048 1.919387 0.22890554
000340 1c 55 ae 3e 9b b8 92 3f bd bd eb 3e 28 dc 86 3e
       0.34049308 1.1462587 0.46043196 0.2633984
000350 43 f8 b2 be 6b 85 d5 3f fa 34 d1 3e b5 c6 ab 3f
       -0.34955034 1.6681341 0.4086073 1.3420016
000360 a6 37 ad 3f 6d d8 c3 3e 16 f3 3e bf 46 ba 3b 3f
       1.3532608 0.38251057 -0.7458967 0.73331106
000370 5a c4 6f be bf 00 3a bf 71 3a a3 3f 79 84 e3 bf
       -0.23414746 -0.7265739 1.275221 -1.7774802
000380 76 24 eb bf 31 a9 17 bf 37 88 4f 3f 2a 50 82 bf
       -1.8370502 -0.5924254 0.8106722 -1.0180714
000390 60 cd f5 bf 46 04 91 3f 52 5f ee bf e8 bc be be
       -1.92033 1.1329429 -1.862284 -0.372535
0003a0 fe 90 75 3e ce 32 9b 3f f5 96 2f bf 3e aa 34 3f
       0.23981091 1.2124879 -0.6858972 0.7057227
0003b0 76 72 a3 3d 89 17 48 bf ee 97 34 bf 86 6a e3 be
       0.07980816 -0.7816091 -0.70544326 -0.44417208
0003c0 50 62 01 3f ea 4e bf 3e 7a 28 15 bf b3 58 cc be
       0.5054064 0.37364894 -0.5826489 -0.39911422
0003d0 f6 c1 b6 be d3 5c 8b 3e e6 1c ac 3e 84 aa 7d be
       -0.35694855 0.27219257 0.33615798 -0.24772078
0003e0 57 31 88 bf ac 47 84 3f 54 f3 0b bf 43 54 a4 bf
       -1.0640057 1.0334373 -0.54668164 -1.2838215
0003f0 90 a9 b9 3f 41 a7 43 bf 18 46 99 3e 75 e3 0b c0
       1.4504871 -0.76427084 0.2993629 -2.1857579

Q1.0.bias f4 [50, 5]
000000 6f a0 b1 bb 33 fc 99 bb 74 88 8b bb 10 9e e4 ba
       -0.0054207365 -0.004699254 -0.00425821 -0.0017442126
000010 c6 ca c2 b9 1f 36 a6 ba 2b fb 71 ba 79 b5 47 ba
       -0.00037153641 -0.0012680924 -0.00092308474 -0.0007618289
000020 a0 6d 96 b9 a0 d7 3f b8 95 8d d7 3c a8 0f 92 3c
       -0.00028691906 -4.5738765e-05 0.026312629 0.017829731
000030 7d a7 96 3c d1 2d 17 3c 6b 91 06 3b 21 74 47 ba
       0.018390412 0.009227232 0.0020533453 -0.0007608552
000040 07 ac 2a ba 5e ff 44 ba f1 87 cd b9 98 24 c9 b8
       -0.00065106194 -0.00075148593 -0.0003920193 -9.591243e-05
000050 73 af 50 ba 6c 24 ea ba 60 e7 f4 ba b9 b9 4b ba
       -0.0007960714 -0.0017863638 -0.0018684678 -0.000777151
000060 2a 13 23 b9 98 a8 f7 38 58 60 c4 b9 e2 e5 71 ba
       -0.0001555203 0.00011809281 -0.00037455815 -0.00092276756
000070 cd 35 2a ba 3f 76 22 b9 1b 2a 01 ba 83 b8 82 b9
       -0.00064930023 -0.00015493574 -0.00049272337 -0.00024933004
000080 be 29 0e bb f4 ca 01 bb 12 42 1a ba 6b b9 e6 38
       -0.002169236 -0.0019804807 -0.0005884479 0.000110017914
000090 85 7c 5d 37 ee b2 d4 35 00 00 00 00 00 00 00 00
       1.32016185e-05 1.5847306e-06 0.0 0.0
0000a0 4d a8 60 bb d9 21 b7 ba cd 73 57 ba 3e b1 8d b9
       -0.0034280003 -0.0013971879 -0.0008218855 -0.0002702567
0000b0 6a af 5b b8 50 56 7e 3b 64 9e 04 37 f5 68 b2 39
       -5.2377036e-05 0.003880877 7.904691e-06 0.00034029005
0000c0 b5 03 2b 3a 33 e7 f1 38 ee 23 3a bb ea 5a 8d ba
       0.0006523685 0.0001153484 -0.0028402763 -0.0010784541
0000d0 3f 84 34 ba 60 f3 77 b9 c9 b3 1f b8 b2 11 a9 bb
       -0.0006886161 -0.0002364642 -3.8075992e-05 -0.00515958
0000e0 b3 19 53 bb 71 8e 2a bb da 98 81 ba a2 37 40 b9
       -0.0032211363 -0.0026024843 -0.0009887472 -0.00018331272
0000f0 64 dc ab bb 70 fb 91 bb 42 8b 7f bb 14 31 c8 ba
       -0.0052447785 -0.0044550225 -0.0038992916 -0.0015273415
000100 a4 a8 91 b9 1f d4 08 3a 06 09 60 3b 9e 4b 53 3b
       -0.00027782202 0.0005219597 0.0034185066 0.0032241116
000110 fe a1 91 3a 04 92 37 39 11 1f fb b9 bb d5 ae b9
       0.00111109 0.00017506635 -0.00047897597 -0.00033347108
000120 fa ef ba b9 c6 ef 41 b9 bd a5 65 b8 16 7d 1b b9
       -0.0003565548 -0.00018495237 -5.475221e-05 -0.0001482855
000130 c8 3d a7 ba a1 c4 03 bb 66 b6 9a ba fc 21 b2 b9
       -0.0012759501 -0.0020106214 -0.0011803627 -0.00033976126
000140 f5 69 04 b5 ce 72 ee b4 c5 a7 d6 b4 ee 5e 2c b4
       -4.932802e-07 -4.4414486e-07 -3.9982675e-07 -1.6053284e-07
000150 e0 c8 f4 b2 6d 36 65 3a ee 17 82 b8 c8 74 1f ba
       -2.8496686e-08 0.0008743767 -6.20334e-05 -0.00060827704
000160 97 5a f1 b9 e0 c3 c5 b8 4b 2c 53 3b fd 71 17 3b
       -0.00046034597 -9.4301766e-05 0.0032222446 0.0023108714
000170 dd 1a ee 3a 52 36 27 3a ed cc e6 38 00 00 00 00
       0.0018165965 0.0006378639 0.00011005425 0.0
000180 00 00 00 00 00 00 00 00 00 00 00 00 00 00 00 00
       0.0 0.0 0.0 0.0
000190 93 c2 4e 3b 46 76 4f ba 61 d9 44 ba 91 ec a6 32
       0.003154908 -0.00079140475 -0.00075091986 1.9432521e-08
0001a0 6a 1e 66 38 00 00 00 00 00 00 00 00 00 00 00 00
       5.48646e-05 0.0 0.0 0.0
0001b0 00 00 00 00 00 00 00 00 00 00 00 00 00 00 00 00
       0.0 0.0 0.0 0.0
0001c0 00 00 00 00 00 00 00 00 00 00 00 00 48 b5 86 3a
       0.0 0.0 0.0 0.0010277415
0001d0 c2 c3 04 3a f6 cb 28 39 1c 12 80 b8 af 18 7d b8
       0.00050645706 0.0001609771 -6.106889e-05 -6.034289e-05
0001e0 96 21 08 3b 07 90 0a b9 8d 3b 9c b9 b3 d3 dd b7
       0.0020771972 -0.0001321436 -0.00029799007 -2.6443833e-05
0001f0 e8 1e 57 37 f6 7d 87 3c b4 ee 62 3c 9a a4 70 3c
       1.2822195e-05 0.016539555 0.013850857 0.014687682
000200 98 a9 ec 3b e2 b2 ce 3a d2 23 8f 3a 2d 0d c9 39
       0.0072223656 0.0015769864 0.001092071 0.00038347524
000210 72 2d 9e b9 9c 3e d2 b9 70 d0 17 b9 e1 a2 87 3c
       -0.00030169968 -0.0004010097 -0.00014478131 0.016557159
000220 a5 24 85 3c fc 58 88 3c 4f 36 fb 3b 20 ea d0 3a
       0.016252825 0.016643994 0.007666386 0.0015938915
000230 66 6d 02 3d 29 59 cd 3c 67 ab ca 3c 19 ef 3b 3c
       0.03184261 0.025066929 0.024739934 0.01147058
000240 ea 60 1e 3b 3f 88 5b ba 2c dc be 3a 11 b5 e0 39
       0.0024166652 -0.0008374489 0.0014561466 0.00042859514
000250 85 7c 0f ba 21 75 8e b9 73 ad c3 3c 82 87 9b 3c
       -0.0005473572 -0.00027171618 0.023886418 0.018985514
000260 e1 6b 9f 3c d8 5d 19 3c f2 33 04 3b f2 cb d0 3a
       0.01946062 0.009360753 0.0020172563 0.0015929921
000270 5a 24 99 39 d2 c6 3c 39 89 35 28 39 c4 b8 60 38
       0.00029209518 0.00018003143 0.00016041672 5.3577838e-05
000280 3f 88 39 ba 7e 2a 12 3b 90 9f 4e 3b 39 8c d6 3a
       -0.0007077492 0.002230316 0.0031528212 0.0016368694
000290 5a c6 ba 39 ac 12 8c bb 6e 53 a0 ba 8d 58 b0 b8
       0.00035624468 -0.004274687 -0.0012231895 -8.408828e-05
0002a0 d2 16 d4 38 65 9a d9 37 33 24 85 3b 95 b1 3d 3a
       0.000101131984 2.5940311e-05 0.004063153 0.00072362396
0002b0 91 32 10 3b 55 53 00 3b 54 01 19 3a fb 4c 8d 3c
       0.0022002796 0.001958092 0.0005836685 0.017248621
0002c0 e2 c7 77 3c 6d 18 79 3c 64 fc e5 3b e3 57 c0 3a
       0.015123339 0.0152035775 0.0070186127 0.001467463
0002d0 24 c0 aa bb fb f9 99 bb 83 03 8d bb a6 d7 e7 ba
       -0.005210893 -0.0046989894 -0.004303397 -0.001768817
0002e0 ee 44 bd b9 eb f7 e7 3b 4d 1a 88 3b c3 4f 83 3b
       -0.00036100246 0.0070791147 0.004153526 0.004007311
0002f0 ef ce 00 3b 77 d9 e4 39 21 69 23 b9 77 92 03 b9
       0.0019654592 0.00043649573 -0.00015584055 -0.00012547696
000300 ba eb fb b8 af 5c 59 b8 2c ec 45 b7 f4 2e 16 3c
       -0.0001201252 -5.182315e-05 -1.1797103e-05 0.009166468
000310 c5 1f 99 3b 39 2e 83 3b f4 cd ef 3a fd 45 cd 39
       0.0046729767 0.004003313 0.0018295632 0.00039152792
000320 60 96 30 3b 29 aa 5e 38 26 02 91 b9 66 3b 4e b8
       0.00269451 5.30874e-05 -0.00027658156 -4.9169546e-05
000330 5f 4c 34 37 dc 1c 91 ba ec 7a 77 ba 52 b5 45 ba
       1.0746618e-05 -0.0011071223 -0.0009440619 -0.00075419724
000340 47 a8 87 b9 2e 34 1b b8 a0 99 05 36 73 7f f1 35
       -0.00025874583 -3.7003476e-05 1.9907966e-06 1.7992992e-06
000350 3e 46 da 35 a3 00 30 35 d9 05 fe 33 3f 79 5d b9
       1.6262709e-06 6.5566036e-07 1.18288604e-07 -0.0002112137
000360 3a 25 fe 39 d5 3b ca 39 2f f6 6f 38 e0 30 0f b6
       0.0004847439 0.0003857302 5.7211317e-05 -2.133711e-06
000370 7c a0 28 bb 96 8e 15 bb 94 ae 07 bb c2 42 5d ba
       -0.0025730422 -0.0022820584 -0.0020703422 -0.00084404286
000380 14 9f 2f b9 ec ca d5 3c a0 6f a1 3c dc 3a a3 3c
       -0.00016748562 0.026097737 0.019706547 0.019925527
000390 fb ad 1c 3c ef 1a 07 3b 68 01 55 bb 80 42 0a bb
       0.009562965 0.002061542 -0.003250206 -0.0021096766
0003a0 ad 55 02 bb f7 65 6b ba 62 97 62 b9 42 53 17 3c
       -0.0019887493 -0.00089797325 -0.00021609434 0.009236159
0003b0 c0 a6 3b 3c 6a 10 49 3c c3 4a bb 3b 77 3e 9c 3a
       0.0114533305 0.01227198 0.0057156994 0.0011920471
0003c0 b1 ad ad bb 18 ec 2c ba 0d 98 8e 38 2b a9 35 37
       -0.0053002466 -0.000659646 6.799409e-05 1.0827828e-05
0003d0 23 eb 5a b7 df 97 92 3c 99 94 f6 3b 84 59 fc 3b
       -1.304856e-05 0.017894683 0.0075250384 0.007701101
0003e0 36 95 90 3b 84 82 8c 3a
       0.0044123186 0.0010720049
