CausalCVR/logs/simu2/eval/15/Vcnet_ckpt.pth.tar (torch, 123067 bytes, 16 tensors)

feature_weight.weight f4 [50, 8]
0	0xbb7e3a72	-0.003879216
1	0xbbbcfd31	-0.0057674875
2	0xbb595f93	-0.003316854
3	0x3c351d5d	0.011054364
4	0x3a14206d	0.0005650584
5	0xbb6a4052	-0.0035743904
6	0xbc19554d	-0.009358716
7	0xbbf9ba48	-0.0076210834
8	0x3b46dbc5	0.0030343395
9	0xb9fb2b6d	-0.00047906805
10	0xbbabc984	-0.0052425284
11	0xbcb78f42	-0.022407178
12	0xba9bdff6	-0.0011892307
13	0xbc979918	-0.018505618
14	0x3ba8a1a0	0.0051462203
15	0x3c22aa1e	0.009928254
16	0x3a7e0336	0.00096898095
17	0xbb806e57	-0.0039194035
18	0xbbd00234	-0.006347919
19	0xbb56d6a5	-0.0032781747
20	0x3c3b39f6	0.011427393
21	0x3ba2aa33	0.004964137
22	0xbb1b76be	-0.00237219
23	0x3b2b907c	0.0026178649
24	0xba85ba1a	-0.0010202557
25	0xbb4cb13f	-0.0031233577
26	0x3b178d42	0.0023124968
27	0x3cd7ee5b	0.026358774
28	0x3bc13669	0.005896379
29	0xbca61654	-0.020274319
30	0xbc2ab95c	-0.01042017
31	0xbbd8fddb	-0.006622059
32	0x3b1fe41e	0.0024397443
33	0xbbdbe84f	-0.006711043
34	0xbc495e8e	-0.01229061
35	0xbba7ba8d	-0.005118674
36	0xbbc2a339	-0.005939868
37	0xbc79ef72	-0.015254842
38	0xbaf3737e	-0.0018573848
39	0x3b8e9474	0.004351193
40	0x3a8764ba	0.0010329701
41	0xbc10dc70	-0.008841619
42	0x3beb7524	0.007185595
43	0xbb849ba9	-0.0040468764
44	0x3c15fcd9	0.009154522
45	0x3bd866e0	0.0066040605
46	0xbce8ed4b	-0.028433463
47	0x3be4e393	0.006985137
48	0xbaeb931a	-0.0017972917
49	0x3ba3dce4	0.0050006974
50	0x3a102bb5	0.0005499677
51	0x3caa9815	0.020824471
52	0x3c86f349	0.01647343
53	0xbc8f059b	-0.017458728
54	0x3c1d2134	0.009590436
55	0x3c2da98f	0.010599508
56	0xbc59b8ef	-0.0132887205
57	0x3c18f5e5	0.00933597
58	0x3927fd17	0.00016020644
59	0x3c5c5c90	0.013449803
60	0x3c4796db	0.012181963
61	0xbbe44ef2	-0.006967419
62	0xbc171b48	-0.009222813
63	0x3be9e80c	0.007138258
64	0xbb708b36	-0.003670407
65	0x3bc55a8b	0.0060227565
66	0x39914be4	0.00027713098
67	0x3cafcf39	0.021461116
68	0xbbbabfd3	-0.0056991368
69	0xbc397745	-0.01131994
70	0x3b15c249	0.0022851399
71	0xbb2d5168	-0.0026446227
72	0xbc6d6b87	-0.014490969
73	0xbaa71382	-0.0012746903
74	0xbae042af	-0.0017109717
75	0x3c78121e	0.015141038
76	0xbc1f6453	-0.009728509
77	0x3c43ec0b	0.0119581325
78	0x3b6bb1f2	0.0035964218
79	0xbc793a8c	-0.015211713
80	0x3b10d4db	0.0022099528
81	0xbbb80f76	-0.0056170775
82	0xbb391bd9	-0.0028245358
83	0xbbb70025	-0.005584734
84	0x3b413df0	0.002948638
85	0x3c11eb91	0.008906261
86	0xbceb3ed6	-0.028716486
87	0x3c6b71dc	0.014370408
88	0x3a4c94c4	0.000780415
89	0xbc8bfdea	-0.01708885
90	0xbbdbf5ba	-0.0067126425
91	0xbc9809e8	-0.018559411
92	0xbc3aae3e	-0.011394082
93	0xbba8950a	-0.00514472
94	0x3b85e8f6	0.004086609
95	0x3c1ff5c9	0.00976319
96	0x3ba99fa5	0.005176502
97	0xbaecc547	-0.0018064164
98	0xbb785c7f	-0.003789693
99	0xbbe8f271	-0.0071089794
100	0xbbc93d64	-0.0061413515
101	0x3bcbcdff	0.006219625
102	0x3c455f61	0.012046666
103	0xbc69bf0a	-0.014266739
104	0xbb6ea222	-0.0036412557
105	0xbbaf2e74	-0.005346114
106	0x3b06228b	0.0020467367
107	0xbbb7c017	-0.0056076157
108	0x3d03248a	0.03201727
109	0x3c182938	0.009287171
110	0xbc04a472	-0.008095847
111	0x3b8584ac	0.0040746536
112	0xbba15739	-0.004923728
113	0x3c0f1bcb	0.008734654
114	0x3c14abf4	0.0090742
115	0xbb996559	-0.004681271
116	0xb8c06296	-9.1736365e-05
117	0x3cc68700	0.024234295
118	0xbbb5c470	-0.005547099
119	0xba5991b8	-0.0008299607
120	0xbb8ffc68	-0.004394103
121	0xbb8989f0	-0.0041973516
122	0xb8bac77d	-8.906329e-05
123	0xbc1c17fb	-0.009527202
124	0x3c053209	0.008129605
125	0xbc72c2dc	-0.014816966
126	0x3b6d1b3b	0.003617956
127	0x3c03b151	0.008037881
128	0xbb1586e8	-0.0022816006
129	0x3b9bc3d8	0.004753571
130	0x3ac9794d	0.0015371233
131	0xbc61a002	-0.013771059
132	0xbc9e552c	-0.019327722
133	0x3b8f4347	0.0043720338
134	0xbb29f798	-0.002593493
135	0xbbbfad06	-0.0058494834
136	0x3bebcc85	0.0071960115
137	0xbb70fed4	-0.0036772983
138	0x3ba6d863	0.0050917133
139	0xbcafcf7e	-0.021461245
140	0x3be0cea7	0.0068605724
141	0xbac21a1f	-0.001480881
142	0x3c31bdd0	0.0108484775
143	0x3c931d7a	0.017958391
144	0x3c03b44a	0.00803859
145	0x3c4de71a	0.012567306
146	0x3b31c374	0.0027124556
147	0xbb7a5ebf	-0.0038203446
148	0x3bfe8203	0.0077669634
149	0xbcababc9	-0.020955937
150	0x3c8774d7	0.016535206
151	0x3c85eaa1	0.016347231
152	0xbc2844a9	-0.010270276
153	0x3996b099	0.00028741805
154	0xbb6541a0	-0.0034981743
155	0x3c93e076	0.018051367
156	0xbb1ffa9f	-0.0024410856
157	0xbc930a7c	-0.017949335
158	0x3cbe21e8	0.023209527
159	0xbc4eb41e	-0.0126161855
160	0xbc8e1a25	-0.017346451
161	0x3d0a2739	0.033728812
162	0x3c7d4348	0.015457936
163	0xbc3033f7	-0.010754577
164	0xbb8a8f10	-0.00422848
165	0xbb07b11c	-0.002070493
166	0x3cba99f9	0.022778498
167	0x3cb2ccbd	0.021826142
168	0x3bceb76d	0.006308487
169	0x3c369f27	0.011146343
170	0x3bba6144	0.0056878645
171	0x3c459e25	0.01206163
172	0x3c65ff18	0.01403787
173	0x3c1c0720	0.009523183
174	0x3ccaa989	0.024739044
175	0xbb883698	-0.0041568987
176	0xbc67c9b0	-0.014147207
177	0x3c7ff743	0.015622917
178	0xbb3e638d	-0.0029051036
179	0xbbd79528	-0.00657906
180	0xbb08a547	-0.0020850466
181	0xbc37cd38	-0.011218362
182	0xbb0d507b	-0.0021562863
183	0x3c032f50	0.008006886
184	0xbb486a59	-0.0030580966
185	0x3c779228	0.01511053
186	0xbc1c804c	-0.009552073
187	0xbcaa2c9b	-0.020773223
188	0xbc26cda2	-0.010180863
189	0x3b072e2b	0.0020626883
190	0x3a27ff3b	0.0006408577
191	0x3c77c946	0.015123671
192	0xbc3ae91b	-0.011408116
193	0xbc62a17f	-0.013832449
194	0x3cbc0f99	0.022956656
195	0xbc61f9d3	-0.013792473
196	0x3c928c1d	0.017889077
197	0x3c405dbb	0.011741097
198	0xb8802fed	-6.1124425e-05
199	0x3cdc3399	0.026880072
200	0x3bf11a77	0.007357891
201	0xbae974aa	-0.0017811258
202	0x3b6a2f8f	0.0035733914
203	0xbcb10ffc	-0.021614067
204	0xbce1d978	-0.027569517
205	0xbc921162	-0.017830554
206	0x3a105c7a	0.0005506944
207	0xbbc72994	-0.0060779545
208	0xba8750ed	-0.00103238
209	0x3bb2fdb8	0.0054623745
210	0xbc20cae8	-0.009814002
211	0xbb3f77ea	-0.0029215761
212	0xbb64cf7b	-0.0034913707
213	0xbb32656c	-0.0027221097
214	0xbc0ff860	-0.008787245
215	0xb89d63c0	-7.504923e-05
216	0x3c39c3bb	0.01133817
217	0xbc234797	-0.009965799
218	0x3c036f40	0.00802213
219	0xbbcc912e	-0.0062428927
220	0xbc1eb522	-0.00968674
221	0x3c43bf77	0.011947504
222	0x3b57942a	0.003289471
223	0x3ba66d31	0.0050789346
224	0x3b10515d	0.0022021153
225	0xbc0c4f10	-0.008563772
226	0xbc7b04ef	-0.0153210005
227	0xba2df14a	-0.0006635381
228	0xbc222419	-0.009896302
229	0xbbaf2f76	-0.005346234
230	0xbc598d27	-0.013278282
231	0xbb1c8212	-0.002388124
232	0xba6c6001	-0.0009016991
233	0xbae1df67	-0.0017232717
234	0x3bc0879b	0.0058755404
235	0x3b448c24	0.0029990757
236	0x3c40263e	0.011727868
237	0x3a393af2	0.00070659735
238	0xba522771	-0.00080167415
239	0xbc6d4078	-0.014480703
240	0x3b54a2bb	0.0032445628
241	0x3c68b52a	0.014203349
242	0x3b315808	0.0027060527
243	0xbba53e1b	-0.005042804
244	0x3bc7d650	0.006098546
245	0x3bc5973e	0.0060299924
246	0x3cadd986	0.021221887
247	0x3bbdada7	0.0057885232
248	0xbb793492	-0.003802572
249	0x3bc60015	0.0060424902
250	0x3b91137c	0.0044273715
251	0x3aa29ceb	0.0012406384
252	0x3cb6ac8d	0.022299075
253	0xbc355161	-0.0110667655
254	0xbc0cd69e	-0.008596091
255	0x3bb86291	0.0056269844

feature_weight.bias f4 [50]
0	0xbaf52873	-0.0018704071
1	0x39b7c747	0.00035052953
2	0x3a51a050	0.0007996606
3	0xb9e28133	-0.0004320234
4	0x00000000	0.0
5	0x3b263ca0	0.0025365725
6	0x3acb7fa7	0.0015525714
7	0x3ae48fd1	0.001743788
8	0xba3c6e18	-0.0007188036
9	0x39273286	0.00015945183
10	0x3b272aea	0.0025507757
11	0xb988bcbd	-0.00026080562
12	0xba9ba651	-0.0011875128
13	0xb9fc7a87	-0.00048156476
14	0x3a5db89d	0.00084579905
15	0x39aa28d6	0.00032455352
16	0x367da542	3.779613e-06
17	0x385711e0	5.1276642e-05
18	0x3a71390c	0.0009201921
19	0xb82beb68	-4.0988816e-05
20	0x39eb5ded	0.00044892673
21	0x3a627172	0.00086381205
22	0xbaffcce3	-0.0019516017
23	0xba4e359a	-0.00078662636
24	0xb93b5105	-0.00017863892
25	0x39a048d8	0.0003057185
26	0x3926584d	0.00015863888
27	0xba500f1e	-0.0007936823
28	0x00000000	0.0
29	0xbac09667	-0.0014693261
30	0x3ab21199	0.0013585567
31	0x3978d16f	0.00023729143
32	0x00000000	0.0
33	0x00000000	0.0
34	0x3a0a5a44	0.0005277733
35	0xbad86d0d	-0.0016511992
36	0xbb171465	-0.0023052928
37	0x3ab96ece	0.0014147402
38	0x00000000	0.0
39	0x3aa25def	0.0012387614
40	0xb9b9aaa7	-0.00035413096
41	0xb814b0e9	-3.545071e-05
42	0x3a93fe07	0.0011290916
43	0xbaf4f74f	-0.0018689426
44	0x3a0bfa5b	0.0005339735
45	0x39586937	0.00020638561
46	0xba180f2a	-0.00058005995
47	0x3891dad0	6.954896e-05
48	0xbb899057	-0.004198115
49	0x39d7aa7a	0.0004113501

hidden_features.0.weight f4 [50, 8]
0	0xbb7e3a72	-0.003879216
1	0xbbbcfd31	-0.0057674875
2	0xbb595f93	-0.003316854
3	0x3c351d5d	0.011054364
4	0x3a14206d	0.0005650584
5	0xbb6a4052	-0.0035743904
6	0xbc19554d	-0.009358716
7	0xbbf9ba48	-0.0076210834
8	0x3b46dbc5	0.0030343395
9	0xb9fb2b6d	-0.00047906805
10	0xbbabc984	-0.0052425284
11	0xbcb78f42	-0.022407178
12	0xba9bdff6	-0.0011892307
13	0xbc979918	-0.018505618
14	0x3ba8a1a0	0.0051462203
15	0x3c22aa1e	0.009928254
16	0x3a7e0336	0.00096898095
17	0xbb806e57	-0.0039194035
18	0xbbd00234	-0.006347919
19	0xbb56d6a5	-0.0032781747
20	0x3c3b39f6	0.011427393
21	0x3ba2aa33	0.004964137
22	0xbb1b76be	-0.00237219
23	0x3b2b907c	0.0026178649
24	0xba85ba1a	-0.0010202557
25	0xbb4cb13f	-0.0031233577
26	0x3b178d42	0.0023124968
27	0x3cd7ee5b	0.026358774
28	0x3bc13669	0.005896379
29	0xbca61654	-0.020274319
30	0xbc2ab95c	-0.01042017
31	0xbbd8fddb	-0.006622059
32	0x3b1fe41e	0.0024397443
33	0xbbdbe84f	-0.006711043
34	0xbc495e8e	-0.01229061
35	0xbba7ba8d	-0.005118674
36	0xbbc2a339	-0.005939868
37	0xbc79ef72	-0.015254842
38	0xbaf3737e	-0.0018573848
39	0x3b8e9474	0.004351193
40	0x3a8764ba	0.0010329701
41	0xbc10dc70	-0.008841619
42	0x3beb7524	0.007185595
43	0xbb849ba9	-0.0040468764
44	0x3c15fcd9	0.009154522
45	0x3bd866e0	0.0066040605
46	0xbce8ed4b	-0.028433463
47	0x3be4e393	0.006985137
48	0xbaeb931a	-0.0017972917
49	0x3ba3dce4	0.0050006974
50	0x3a102bb5	0.0005499677
51	0x3caa9815	0.020824471
52	0x3c86f349	0.01647343
53	0xbc8f059b	-0.017458728
54	0x3c1d2134	0.009590436
55	0x3c2da98f	0.010599508
56	0xbc59b8ef	-0.0132887205
57	0x3c18f5e5	0.00933597
58	0x3927fd17	0.00016020644
59	0x3c5c5c90	0.013449803
60	0x3c4796db	0.012181963
61	0xbbe44ef2	-0.006967419
62	0xbc171b48	-0.009222813
63	0x3be9e80c	0.007138258
64	0xbb708b36	-0.003670407
65	0x3bc55a8b	0.0060227565
66	0x39914be4	0.00027713098
67	0x3cafcf39	0.021461116
68	0xbbbabfd3	-0.0056991368
69	0xbc397745	-0.01131994
70	0x3b15c249	0.0022851399
71	0xbb2d5168	-0.0026446227
72	0xbc6d6b87	-0.014490969
73	0xbaa71382	-0.0012746903
74	0xbae042af	-0.0017109717
75	0x3c78121e	0.015141038
76	0xbc1f6453	-0.009728509
77	0x3c43ec0b	0.0119581325
78	0x3b6bb1f2	0.0035964218
79	0xbc793a8c	-0.015211713
80	0x3b10d4db	0.0022099528
81	0xbbb80f76	-0.0056170775
82	0xbb391bd9	-0.0028245358
83	0xbbb70025	-0.005584734
84	0x3b413df0	0.002948638
85	0x3c11eb91	0.008906261
86	0xbceb3ed6	-0.028716486
87	0x3c6b71dc	0.014370408
88	0x3a4c94c4	0.000780415
89	0xbc8bfdea	-0.01708885
90	0xbbdbf5ba	-0.0067126425
91	0xbc9809e8	-0.018559411
92	0xbc3aae3e	-0.011394082
93	0xbba8950a	-0.00514472
94	0x3b85e8f6	0.004086609
95	0x3c1ff5c9	0.00976319
96	0x3ba99fa5	0.005176502
97	0xbaecc547	-0.0018064164
98	0xbb785c7f	-0.003789693
99	0xbbe8f271	-0.0071089794
100	0xbbc93d64	-0.0061413515
101	0x3bcbcdff	0.006219625
102	0x3c455f61	0.012046666
103	0xbc69bf0a	-0.014266739
104	0xbb6ea222	-0.0036412557
105	0xbbaf2e74	-0.005346114
106	0x3b06228b	0.0020467367
107	0xbbb7c017	-0.0056076157
108	0x3d03248a	0.03201727
109	0x3c182938	0.009287171
110	0xbc04a472	-0.008095847
111	0x3b8584ac	0.0040746536
112	0xbba15739	-0.004923728
113	0x3c0f1bcb	0.008734654
114	0x3c14abf4	0.0090742
115	0xbb996559	-0.004681271
116	0xb8c06296	-9.1736365e-05
117	0x3cc68700	0.024234295
118	0xbbb5c470	-0.005547099
119	0xba5991b8	-0.0008299607
120	0xbb8ffc68	-0.004394103
121	0xbb8989f0	-0.0041973516
122	0xb8bac77d	-8.906329e-05
123	0xbc1c17fb	-0.009527202
124	0x3c053209	0.008129605
125	0xbc72c2dc	-0.014816966
126	0x3b6d1b3b	0.003617956
127	0x3c03b151	0.008037881
128	0xbb1586e8	-0.0022816006
129	0x3b9bc3d8	0.004753571
130	0x3ac9794d	0.0015371233
131	0xbc61a002	-0.013771059
132	0xbc9e552c	-0.019327722
133	0x3b8f4347	0.0043720338
134	0xbb29f798	-0.002593493
135	0xbbbfad06	-0.0058494834
136	0x3bebcc85	0.0071960115
137	0xbb70fed4	-0.0036772983
138	0x3ba6d863	0.0050917133
139	0xbcafcf7e	-0.021461245
140	0x3be0cea7	0.0068605724
141	0xbac21a1f	-0.001480881
142	0x3c31bdd0	0.0108484775
143	0x3c931d7a	0.017958391
144	0x3c03b44a	0.00803859
145	0x3c4de71a	0.012567306
146	0x3b31c374	0.0027124556
147	0xbb7a5ebf	-0.0038203446
148	0x3bfe8203	0.0077669634
149	0xbcababc9	-0.020955937
150	0x3c8774d7	0.016535206
151	0x3c85eaa1	0.016347231
152	0xbc2844a9	-0.010270276
153	0x3996b099	0.00028741805
154	0xbb6541a0	-0.0034981743
155	0x3c93e076	0.018051367
156	0xbb1ffa9f	-0.0024410856
157	0xbc930a7c	-0.017949335
158	0x3cbe21e8	0.023209527
159	0xbc4eb41e	-0.0126161855
160	0xbc8e1a25	-0.017346451
161	0x3d0a2739	0.033728812
162	0x3c7d4348	0.015457936
163	0xbc3033f7	-0.010754577
164	0xbb8a8f10	-0.00422848
165	0xbb07b11c	-0.002070493
166	0x3cba99f9	0.022778498
167	0x3cb2ccbd	0.021826142
168	0x3bceb76d	0.006308487
169	0x3c369f27	0.011146343
170	0x3bba6144	0.0056878645
171	0x3c459e25	0.01206163
172	0x3c65ff18	0.01403787
173	0x3c1c0720	0.009523183
174	0x3ccaa989	0.024739044
175	0xbb883698	-0.0041568987
176	0xbc67c9b0	-0.014147207
177	0x3c7ff743	0.015622917
178	0xbb3e638d	-0.0029051036
179	0xbbd79528	-0.00657906
180	0xbb08a547	-0.0020850466
181	0xbc37cd38	-0.011218362
182	0xbb0d507b	-0.0021562863
183	0x3c032f50	0.008006886
184	0xbb486a59	-0.0030580966
185	0x3c779228	0.01511053
186	0xbc1c804c	-0.009552073
187	0xbcaa2c9b	-0.020773223
188	0xbc26cda2	-0.010180863
189	0x3b072e2b	0.0020626883
190	0x3a27ff3b	0.0006408577
191	0x3c77c946	0.015123671
192	0xbc3ae91b	-0.011408116
193	0xbc62a17f	-0.013832449
194	0x3cbc0f99	0.022956656
195	0xbc61f9d3	-0.013792473
196	0x3c928c1d	0.017889077
197	0x3c405dbb	0.011741097
198	0xb8802fed	-6.1124425e-05
199	0x3cdc3399	0.026880072
200	0x3bf11a77	0.007357891
201	0xbae974aa	-0.0017811258
202	0x3b6a2f8f	0.0035733914
203	0xbcb10ffc	-0.021614067
204	0xbce1d978	-0.027569517
205	0xbc921162	-0.017830554
206	0x3a105c7a	0.0005506944
207	0xbbc72994	-0.0060779545
208	0xba8750ed	-0.00103238
209	0x3bb2fdb8	0.0054623745
210	0xbc20cae8	-0.009814002
211	0xbb3f77ea	-0.0029215761
212	0xbb64cf7b	-0.0034913707
213	0xbb32656c	-0.0027221097
214	0xbc0ff860	-0.008787245
215	0xb89d63c0	-7.504923e-05
216	0x3c39c3bb	0.01133817
217	0xbc234797	-0.009965799
218	0x3c036f40	0.00802213
219	0xbbcc912e	-0.0062428927
220	0xbc1eb522	-0.00968674
221	0x3c43bf77	0.011947504
222	0x3b57942a	0.003289471
223	0x3ba66d31	0.0050789346
224	0x3b10515d	0.0022021153
225	0xbc0c4f10	-0.008563772
226	0xbc7b04ef	-0.0153210005
227	0xba2df14a	-0.0006635381
228	0xbc222419	-0.009896302
229	0xbbaf2f76	-0.005346234
230	0xbc598d27	-0.013278282
231	0xbb1c8212	-0.002388124
232	0xba6c6001	-0.0009016991
233	0xbae1df67	-0.0017232717
234	0x3bc0879b	0.0058755404
235	0x3b448c24	0.0029990757
236	0x3c40263e	0.011727868
237	0x3a393af2	0.00070659735
238	0xba522771	-0.00080167415
239	0xbc6d4078	-0.014480703
240	0x3b54a2bb	0.0032445628
241	0x3c68b52a	0.014203349
242	0x3b315808	0.0027060527
243	0xbba53e1b	-0.005042804
244	0x3bc7d650	0.006098546
245	0x3bc5973e	0.0060299924
246	0x3cadd986	0.021221887
247	0x3bbdada7	0.0057885232
248	0xbb793492	-0.003802572
249	0x3bc60015	0.0060424902
250	0x3b91137c	0.0044273715
251	0x3aa29ceb	0.0012406384
252	0x3cb6ac8d	0.022299075
253	0xbc355161	-0.0110667655
254	0xbc0cd69e	-0.008596091
255	0x3bb86291	0.0056269844

hidden_features.0.bias f4 [50]
0	0xbaf52873	-0.0018704071
1	0x39b7c747	0.00035052953
2	0x3a51a050	0.0007996606
3	0xb9e28133	-0.0004320234
4	0x00000000	0.0
5	0x3b263ca0	0.0025365725
6	0x3acb7fa7	0.0015525714
7	0x3ae48fd1	0.001743788
8	0xba3c6e18	-0.0007188036
9	0x39273286	0.00015945183
10	0x3b272aea	0.0025507757
11	0xb988bcbd	-0.00026080562
12	0xba9ba651	-0.0011875128
13	0xb9fc7a87	-0.00048156476
14	0x3a5db89d	0.00084579905
15	0x39aa28d6	0.00032455352
16	0x367da542	3.779613e-06
17	0x385711e0	5.1276642e-05
18	0x3a71390c	0.0009201921
19	0xb82beb68	-4.0988816e-05
20	0x39eb5ded	0.00044892673
21	0x3a627172	0.00086381205
22	0xbaffcce3	-0.0019516017
23	0xba4e359a	-0.00078662636
24	0xb93b5105	-0.00017863892
25	0x39a048d8	0.0003057185
26	0x3926584d	0.00015863888
27	0xba500f1e	-0.0007936823
28	0x00000000	0.0
29	0xbac09667	-0.0014693261
30	0x3ab21199	0.0013585567
31	0x3978d16f	0.00023729143
32	0x00000000	0.0
33	0x00000000	0.0
34	0x3a0a5a44	0.0005277733
35	0xbad86d0d	-0.0016511992
36	0xbb171465	-0.0023052928
37	0x3ab96ece	0.0014147402
38	0x00000000	0.0
39	0x3aa25def	0.0012387614
40	0xb9b9aaa7	-0.00035413096
41	0xb814b0e9	-3.545071e-05
42	0x3a93fe07	0.0011290916
43	0xbaf4f74f	-0.0018689426
44	0x3a0bfa5b	0.0005339735
45	0x39586937	0.00020638561
46	0xba180f2a	-0.00058005995
47	0x3891dad0	6.954896e-05
48	0xbb899057	-0.004198115
49	0x39d7aa7a	0.0004113501

hidden_features.2.weight f4 [50, 50]
0	0xbb6924a5	-0.003557482
1	0x3bcf72e1	0.0063308333
2	0x3c811c2d	0.015760506
3	0xbbf89288	-0.0075858273
4	0x3bc23c3d	0.005927591
5	0xbc16a36a	-0.009194234
6	0x3b2b9165	0.0026179191
7	0xbb9f0897	-0.004853319
8	0x3be16cd0	0.0068794265
9	0x3c0b5953	0.008505183
10	0xbacc8bdb	-0.0015605645
11	0xbc7951c6	-0.01521725
12	0xbc2526b2	-0.010080026
13	0x3b1638be	0.0022922005
14	0xbc042184	-0.008064631
15	0xbb63b0ff	-0.003474295
16	0x39e6904c	0.00043976528
17	0x38cdb829	9.809464e-05
18	0x3ccaf537	0.02477513
19	0x3ac6fba9	0.0015181202
20	0xbb5575cf	-0.003257144
21	0x39bd88d9	0.0003615085
22	0x3bd0c4e2	0.0063711265
23	0xbc62d0b2	-0.013843702
24	0x3b22c10e	0.0024834308
25	0xbb27765e	-0.002555273
26	0x3a297256	0.0006463876
27	0xbb6b9d9a	-0.0035952092
28	0x3c362d5e	0.011119215
29	0x3c1ab91a	0.009443546
30	0xba8b10ac	-0.0010609827
31	0xbaeb05ab	-0.0017930766
32	0xbc8435a7	-0.016138865
33	0x3c9f7ea3	0.019469565
34	0x3a6c86e1	0.0009022784
35	0x3c6f7463	0.014615151
36	0x3c5f99a5	0.013647472
37	0x3bbc78f1	0.005751722
38	0xbb662034	-0.003511441
39	0x3be144d6	0.006874661
40	0xbc05c335	-0.008164217
41	0xbc65316a	-0.013988832
42	0xbc449e08	-0.012000568
43	0x3af91fdc	0.0019006687
44	0x3c4cf297	0.01250901
45	0xbc453a04	-0.012037758
46	0x3a56f0cb	0.0008199333
47	0xbb35bc53	-0.0027730658
48	0x3d00da79	0.03145835
49	0x3be0e74d	0.0068635107
50	0xbc011d93	-0.007880586
51	0xbc0a1e8a	-0.008430133
52	0xba3ceb38	-0.0007206681
53	0x3c4deb2e	0.012568278
54	0xbc9b2c89	-0.018942134
55	0xbb34a1cb	-0.0027562256
56	0x3c568307	0.013092763
57	0x3b65b210	0.003504876
58	0xbac529da	-0.001504238
59	0x3c3895f7	0.011266223
60	0xbc00f545	-0.007870977
61	0xbab11f88	-0.0013513425
62	0xbc1d27c3	-0.009591999
63	0xbb564fde	-0.0032701413
64	0xb93bc9c9	-0.0001790888
65	0x3c461497	0.01208987
66	0x3be48350	0.0069736615
67	0xbaefda0e	-0.0018299238
68	0xbc62aa59	-0.013834559
69	0xbbf6c1af	-0.007530413
70	0xbc3186c5	-0.010835354
71	0x3cab192f	0.020886032
72	0xbc5ea269	-0.013588526
73	0x3c14e1e5	0.009087061
74	0xbbd56aa9	-0.006512959
75	0x3b074b03	0.0020644076
76	0x3c38df27	0.011283672
77	0xbc2373ee	-0.00997637
78	0xbad202d2	-0.0016022569
79	0xbc581d19	-0.013190531
80	0x3c49aaf3	0.012308824
81	0xbc48cb14	-0.012255449
82	0xbc67f5b9	-0.014157706
83	0x3c04e8d0	0.008112147
84	0xbbdf01ba	-0.0068056257
85	0x3c08262a	0.00830988
86	0x3c67d11d	0.014148978
87	0x3c1f19ad	0.009710711
88	0xbc07ebe9	-0.008295991
89	0x39fb79ef	0.00047965298
90	0x3c724505	0.014786963
91	0x3b8faf68	0.0043849237
92	0x3ca75583	0.020426517
93	0x3acf74ab	0.0015827616
94	0xbc028fb4	-0.007968832
95	0x3c716e8f	0.014735832
96	0x3c9382ca	0.018006701
97	0xbb059331	-0.0020381922
98	0x3ba415d6	0.005007486
99	0xbc3d2089	-0.0115434015
100	0x3b3334ba	0.002734466
101	0xbba34f09	-0.004983787
102	0x3c30bbde	0.0107869785
103	0x3bfdfe31	0.0077512492
104	0xbbbb7897	-0.0057211625
105	0xbc084fe8	-0.008319832
106	0xbbd2f877	-0.0064383107
107	0xbc4e8b72	-0.012606489
108	0x3c21bfa9	0.0098723555
109	0x3c358b30	0.011080548
110	0x3bb57c9f	0.0055385376
111	0xbbdd05c1	-0.0067450707
112	0xbc4624c8	-0.01209373
113	0xbc081a30	-0.008307025
114	0xbbb59ae2	-0.005542145
115	0x3c8d9c61	0.017286481
116	0x3b4fb9c8	0.0031696428
117	0xbaac3222	-0.0013137499
118	0x3c85a4b8	0.016313896
119	0x3c219615	0.0098624425
120	0x3bd31880	0.0064421296
121	0x3c97acb2	0.018514965
122	0xba8ca833	-0.001073128
123	0xbc7f9fe5	-0.015602087
124	0xbba6ae2c	-0.005086681
125	0x3ba9b49f	0.0051790024
126	0xbbb3654e	-0.005474723
127	0x3b08e135	0.0020886187
128	0x3c599da9	0.013282218
129	0xba82c9a2	-0.0009978304
130	0xbc03fff1	-0.008056627
131	0x3bc4bb29	0.0060037565
132	0x3b653486	0.0034973933
133	0xba7a1446	-0.0009539764
134	0xbbfc7603	-0.007704498
135	0xbab52c12	-0.0013822338
136	0x3c205e74	0.009788144
137	0x3b920a96	0.0044568283
138	0x3bbc668b	0.0057495288
139	0x3aebc87e	0.0017988828
140	0x3b38dce9	0.0028207845
141	0xbc44ce37	-0.012012056
142	0xbc19cc26	-0.009387052
143	0xbba695f7	-0.005083795
144	0xbca2a538	-0.019854173
145	0xbc2285f2	-0.00991963
146	0xbb49b0f9	-0.003077565
147	0x3cabdca9	0.020979242
148	0xbb1b47d0	-0.0023693927
149	0xbb00e8f2	-0.0019670096
150	0xbc81c7fe	-0.015842434
151	0xbc59cd4e	-0.013293577
152	0x3c17f6dc	0.009275164
153	0x3aedc3fb	0.0018140072
154	0xbc1b0ec8	-0.009463973
155	0x3cb40259	0.021973776
156	0x3bfe6928	0.0077640004
157	0x3bc6d8c4	0.006068321
158	0x3ae31971	0.0017326308
159	0x3ae6d56a	0.001761121
160	0x3b446bcd	0.002997148
161	0xbbde684f	-0.006787337
162	0xba1dff51	-0.000602712
163	0xba0edd20	-0.00054498203
164	0x3c3179bc	0.010832246
165	0xbb733669	-0.0037111288
166	0x3b16335e	0.00229188
167	0x3c4ad9c9	0.012381026
168	0xbbb4893d	-0.005509524
169	0x3c46561d	0.012105492
170	0x3c3da8c7	0.011575884
171	0x3ca7e67e	0.02049565
172	0xbb3b67ac	-0.0028595729
173	0xbcb0f29e	-0.021600064
174	0xbb840222	-0.0040285746
175	0x3b8e1649	0.0043361527
176	0x3b6cbaee	0.003612216
177	0xbb2c0f79	-0.002625434
178	0x3cc15715	0.023601094
179	0x3c0cf355	0.008602937
180	0x3ac3f9c9	0.0014951761
181	0x3c0ae9c3	0.008478585
182	0xbc042b80	-0.008067012
183	0x3aaec543	0.0013333935
184	0x3b9a0c70	0.0047011897
185	0xbc6caa37	-0.014444879
186	0xbb45f21f	-0.003020413
187	0x3b6aaec4	0.0035809735
188	0x3bbcd9d6	0.0057632728
189	0x3c98b24c	0.018639706
190	0x3b50b33b	0.003184511
191	0xbb3088a3	-0.002693691
192	0xbc3373ea	-0.010952929
193	0xbbe08e60	-0.00685291
194	0xbaa8a3c8	-0.0012866193
195	0xbc1beb66	-0.009516573
196	0xbba61bd1	-0.005069234
197	0x3c5792af	0.013157531
198	0xbb7d1075	-0.0038614545
199	0x3c0f6f15	0.008754511
200	0xbbfe8440	-0.0077672303
201	0xbc1c8206	-0.009552484
202	0xbb90b9f3	-0.004416698
203	0xbc4d8825	-0.012544666
204	0x3b93bc9e	0.004508569
205	0x3c8b35ab	0.016993364
206	0xbbd49f13	-0.0064886897
207	0x3c6d5505	0.014485602
208	0x3b2c64a3	0.0026305101
209	0x3b8d452d	0.004311225
210	0xbc084d71	-0.008319245
211	0x3c02c5ae	0.007981701
212	0xb9deb1fe	-0.00042475754
213	0x3a492d53	0.00076742953
214	0xbc1dacc9	-0.009623715
215	0x3bf863a6	0.0075802384
216	0x3ba43d29	0.0050121737
217	0x39acc60f	0.00032953962
218	0x3bf34120	0.007423535
219	0x3aa378c1	0.00124719
220	0x3c577f47	0.013152904
221	0x3b206db4	0.002447945
222	0xbb8456ec	-0.004038682
223	0x3c5f9ca2	0.013648184
224	0xbc9bd0c0	-0.019020438
225	0xbc1e3046	-0.009655064
226	0x3b2551ec	0.0025225831
227	0xbb08e6e2	-0.002088957
228	0xbb785cce	-0.0037897113
229	0xbc63342d	-0.01386742
230	0x3c44334f	0.011975124
231	0x3c3e6f1d	0.011623171
232	0xbb683062	-0.003542923
233	0xbbbe418d	-0.005806154
234	0x3b6291ab	0.0034571688
235	0xbc6ea018	-0.0145645365
236	0xbbdc615a	-0.0067254724
237	0x3a1af3fe	0.00059109915
238	0x3bc3bedc	0.00597368
239	0x3bc544e7	0.0060201767
240	0xbc3ec6e3	-0.011644098
241	0x3be418c1	0.0069609587
242	0x3c761e4c	0.015021872
243	0x3bf378eb	0.007430186
244	0x39f2dd20	0.00046322588
245	0x3c63a062	0.013893219
246	0xbc475538	-0.012166314
247	0xbc3e66e1	-0.011621208
248	0xbc521e95	-0.012824674
249	0xbadd7005	-0.0016894346
250	0xbc931f1e	-0.017959174
251	0x3b6aaef3	0.0035809844
252	0x3c067810	0.008207336
253	0x3b1e9244	0.0024196068
254	0x3b9237c4	0.004462214
255	0x3c15113f	0.00909835

hidden_features.2.bias f4 [50]
0	0x3bb7bbaf	0.0056070904
1	0x3bda23b6	0.006657089
2	0x3c88d7cb	0.01670446
3	0x3cb8ad3f	0.022543548
4	0xbafb0bdd	-0.0019153316
5	0x3ccd5209	0.025063531
6	0xba70860a	-0.0009175247
7	0xbb4285c0	-0.0029681772
8	0xbafaa737	-0.001912332
9	0xbabad2fe	-0.0014253554
10	0xba7cfabc	-0.00096503994
11	0x3bea338a	0.007147257
12	0xbb17edba	-0.0023182468
13	0x3b452e95	0.003008758
14	0x3c26038d	0.0101326825
15	0x39b812d5	0.00035109246
16	0xba344eed	-0.0006878216
17	0xb9f962d4	-0.00047566614
18	0xbb8eb3f8	-0.00435495
19	0xbbe41030	-0.0069599375
20	0x3b9930bc	0.004674999
21	0xbae0de5f	-0.0017156116
22	0xbb0e802a	-0.0021743872
23	0x00000000	0.0
24	0xbbaabfc3	-0.005210848
25	0xbabf8436	-0.0014611545
26	0xbb423492	-0.0029633385
27	0xbb34a88d	-0.0027566284
28	0xbbca0e5c	-0.0061662626
29	0xbb526dcc	-0.00321089
30	0xbbfb415f	-0.007667705
31	0x3bded592	0.006800362
32	0xb9858a84	-0.0002547094
33	0x3a171ec3	0.0005764777
34	0xbad10261	-0.0015946144
35	0x3bb4130c	0.0054954346
36	0x39c836eb	0.0003818789
37	0xbbcbf7a1	-0.006224588
38	0x3c3c6777	0.011499277
39	0xb96f6ef8	-0.00022834155
40	0x3c1b7a0b	0.0094895465
41	0x00000000	0.0
42	0x3ac63bae	0.0015123987
43	0x3ac1f7bb	0.0014798561
44	0xba16b6da	-0.0005749293
45	0xb9539d9b	-0.0002018124
46	0x3b92b485	0.004477086
47	0x3cd1ef0b	0.02562668
48	0x3ce95c78	0.028486475
49	0xb9946eb8	-0.00028311252

density_estimator_head.weight f4 [50, 11]
0	0xb9af182d	-0.00033396613
1	0x3bd88bcd	0.0066084624
2	0xbc5b0971	-0.01336895
3	0x3cf63de9	0.030058818
4	0x3bf8c634	0.007591987
5	0x3c8ad8f2	0.01694915
6	0xbbea020f	-0.0071413587
7	0xbc4feec2	-0.012691202
8	0xbc618751	-0.013765172
9	0x3bf07611	0.0073382934
10	0x3ba92090	0.0051613525
11	0xbb8b4286	-0.0042498736
12	0xbb458152	-0.0030136895
13	0x3922c944	0.00015524501
14	0xbbe02bf3	-0.0068411767
15	0x3c393ce1	0.011306019
16	0xbc1de903	-0.009638074
17	0xbc78c4ba	-0.015183622
18	0xbab1ae98	-0.0013556061
19	0x3cba3055	0.022728125
20	0xbc635e70	-0.013877496
21	0xbcbcad43	-0.023031836
22	0x3c9c7dd8	0.019102976
23	0xbb063eab	-0.002048413
24	0x3c76e84f	0.015070035
25	0x3a1b238f	0.00059180794
26	0x3bb8f033	0.0056438684
27	0xbc188903	-0.00931001
28	0x3b8d74b3	0.00431689
29	0x3b3ef80d	0.002913955
30	0x3ba5e6e7	0.005062926
31	0x3c8cd078	0.01718925
32	0xbc45c8b1	-0.012071774
33	0xba9bab9d	-0.0011876706
34	0xbc781070	-0.015140638
35	0x3a9e9d9d	0.0012101416
36	0xbbd92025	-0.0066261464
37	0xbbbe9c0a	-0.005816941
38	0xbc0cc18b	-0.008591066
39	0xbb42a65c	-0.0029701209
40	0x3b759717	0.003747409
41	0xbb6cc99c	-0.003613091
42	0x38c0c563	9.1920396e-05
43	0xbcd3493c	-0.025791757
44	0xbb7052b0	-0.003667038
45	0xbc9845df	-0.018588005
46	0xbc0291ab	-0.0079693
47	0x3bbaaf45	0.0056971633
48	0xbb6e501e	-0.0036363672
49	0x3c3baff1	0.011455522
50	0x3c70306b	0.014659981
51	0xbcafc98d	-0.021458412
52	0x3b1eb899	0.0024218915
53	0xbc6eae04	-0.014567856
54	0x3b171791	0.0023054818
55	0xbb986054	-0.004650155
56	0x3993d80d	0.00028198995
57	0x3b49c596	0.0030787936
58	0x3b2fc8f1	0.0026822651
59	0x3ac0da58	0.0014713509
60	0xbcfe1103	-0.031013971
61	0x3c6d26fd	0.014474628
62	0x3bddb0b5	0.00676545
63	0x3c6a4b05	0.014300113
64	0x3c0b68f8	0.008508913
65	0xbc053374	-0.008129943
66	0xbb237afb	-0.0024945128
67	0x3ba69cee	0.0050846254
68	0xbca78b8c	-0.020452283
69	0xbc0ad727	-0.008474148
70	0x3ae57f37	0.0017509226
71	0xbc72c55d	-0.014817563
72	0x3983e264	0.0002515494
73	0xb6c4b165	-5.8619066e-06
74	0xbb57c185	-0.0032921743
75	0x3c83adb1	0.016074033
76	0x3c2c46c0	0.010514915
77	0x3bdb6849	0.0066957814
78	0x398734bb	0.00025788494
79	0xbb9d1f10	-0.0047949627
80	0xbc77497c	-0.015093204
81	0x3c6e050f	0.014527573
82	0x3c1e6f57	0.0096701
83	0x3b5fec98	0.003416812
84	0xbb148b43	-0.0022666014
85	0x3c21a7e4	0.009866688
86	0xbc0ba122	-0.008522304
87	0x3c8c64a6	0.017137837
88	0x3b79f32f	0.0038139333
89	0xbb45f9a6	-0.0030208617
90	0xbc0788c3	-0.008272353
91	0x38420ad1	4.6263278e-05
92	0x3c86e837	0.01646815
93	0x3b8e8e66	0.0043504713
94	0x3b561da1	0.0032671469
95	0xbc68d44c	-0.014210772
96	0x3b0c35b1	0.0021394307
97	0xbb8b688b	-0.004254406
98	0xbc1b27ef	-0.00946997
99	0xb9e6090d	-0.00043875762
100	0xbb4468f3	-0.0029969781
101	0xbbdc6644	-0.006726058
102	0x3a6f3c19	0.0009126082
103	0x3b5bc0f8	0.0033531766
104	0x3bcbc64b	0.0062187067
105	0xbac3d172	-0.0014939739
106	0x3ca414e9	0.020029502
107	0xb9b612c4	-0.00034727727
108	0x3ca28bde	0.019842084
109	0xbba6350f	-0.005072243
110	0x3b387aee	0.0028149444
111	0x3c0454fb	0.008076902
112	0x3a9f1a31	0.0012138543
113	0x3b93d2cf	0.0045112143
114	0x3bcc2d8a	0.0062310146
115	0xbbfd8789	-0.0077371043
116	0xbbf2f154	-0.0074140225
117	0x3cb1b057	0.02169053
118	0x3b420591	0.0029605369
119	0xbc016963	-0.007898661
120	0xbbb41897	-0.0054960954
121	0x39893a00	0.0002617389
122	0xbbb20278	-0.005432423
123	0x3b51255a	0.0031913132
124	0x3bba326b	0.00568228
125	0xbc1f7c08	-0.009734161
126	0xbbc41c78	-0.005984839
127	0x3b315cc0	0.002706334
128	0x3c29e36e	0.010369165
129	0xbc5cd2e8	-0.013478018
130	0x3bd23bd3	0.006415823
131	0xbcb8e5d7	-0.022570534
132	0x3c04ae7c	0.008098241
133	0x3c1401ee	0.009033663
134	0x3c55c502	0.013047459
135	0xb9d203b8	-0.00040057092
136	0x3bb04973	0.0053798496
137	0x3b3f6a80	0.0029207766
138	0x3bc5a5cc	0.0060317274
139	0x3c87acb1	0.016561838
140	0x3b0cbaab	0.0021473567
141	0xbc0ca3a6	-0.008583939
142	0x3c415ce9	0.011801937
143	0x3b1ba03f	0.0023746637
144	0xbc35ff2c	-0.011108201
145	0xbb7f2e5d	-0.0038937547
146	0xbb9cde81	-0.0047872667
147	0x3b38c74d	0.0028194964
148	0xbae2511f	-0.0017266608
149	0x3c2accdd	0.01042482
150	0xbb1e69a2	-0.0024171849
151	0x3b0d0b4b	0.0021521624
152	0xbbb3a8bb	-0.0054827607
153	0x391bc288	0.0001485442
154	0x39c5e390	0.00037744315
155	0xbc3cc226	-0.011520898
156	0x3b3a41df	0.002842061
157	0x3b037f63	0.0020064942
158	0x3cc32637	0.023821933
159	0xbbcb835e	-0.0062107285
160	0x3b91b0f2	0.0044461424
161	0xbc683cfb	-0.014174695
162	0xbc8fe19a	-0.01756363
163	0xbb2ebe8d	-0.002666387
164	0x3b044125	0.002018043
165	0x3c82a544	0.015947945
166	0xbb06a4c6	-0.002054499
167	0x3c7c812a	0.0154116545
168	0xbb970dca	-0.004609798
169	0xbc288bf2	-0.010287272
170	0xbb253dd8	-0.0025213864
171	0xbc5a8648	-0.013337679
172	0xba620ebd	-0.0008623412
173	0xbc5c0f3f	-0.013431369
174	0x3b81d394	0.0039619897
175	0xbb17442f	-0.0023081412
176	0x3c0b4a7a	0.008501643
177	0x3b5b0c9a	0.003342426
178	0x3b59066a	0.0033115395
179	0x3bd61d59	0.00653426
180	0x3b7f931a	0.0038997591
181	0x3b751e58	0.003740212
182	0xbc538d7a	-0.012912149
183	0x3aa5abf8	0.0012639752
184	0x3bfae926	0.007657188
185	0xbb33cbb2	-0.0027434644
186	0xbba1f3d4	-0.0049423967
187	0xba262a8b	-0.0006338737
188	0xbc432a04	-0.011911873
189	0xbc55e15e	-0.01305422
190	0x3b8f99ac	0.004382333
191	0x3b9a813e	0.004715114
192	0x3bda7297	0.006666492
193	0xbc2b4aa1	-0.010454805
194	0x3c151055	0.009098132
195	0xbb508c25	-0.0031821814
196	0xbc782f5c	-0.01514801
197	0x3c8fd6b1	0.017558428
198	0x3c0d0c5e	0.008608906
199	0xbbd2d14b	-0.006433641
200	0xbc08f6e2	-0.008359643
201	0x3b03704b	0.0020055945
202	0x3c56feb4	0.013122249
203	0xbb7d1235	-0.0038615589
204	0x3c3c85be	0.011506496
205	0xbc023123	-0.007946285
206	0xbb98195d	-0.0046416954
207	0xbc825c31	-0.0159131
208	0x3bdd9856	0.0067625446
209	0xbb667db6	-0.0035170144
210	0x3c0e9ffe	0.008705137
211	0xbba426f4	-0.0050095264
212	0xba6b9ba2	-0.00089877297
213	0xbc9f2568	-0.019427016
214	0xbc5b988d	-0.01340307
215	0xbb238965	-0.002495372
216	0x3c05803e	0.008148251
217	0xbc67ca53	-0.014147359
218	0x3c604b27	0.013689793
219	0x3a49f4a5	0.00077039964
220	0x3bb2665b	0.0054443306
221	0x3cb98359	0.02264564
222	0xbbcde649	-0.0062835556
223	0x3c5947eb	0.0132617755
224	0xbc5d1c15	-0.013495465
225	0xbc5b65c1	-0.013390959
226	0x3ad0b1e8	0.0015922161
227	0x3c9bef85	0.01903511
228	0x3b05651a	0.002035445
229	0x3bdf1bc9	0.006808732
230	0xbc9a7831	-0.01885614
231	0x3bd6299f	0.0065357233
232	0x3c37a4c8	0.0112087205
233	0x3c3d6835	0.011560489
234	0xbc236b3e	-0.009974299
235	0xbbc0fe81	-0.005889714
236	0xba6248c6	-0.000863206
237	0x3c161314	0.009159822
238	0xbbcf590a	-0.006327753
239	0xba44abaa	-0.00075023866
240	0xbc90bf08	-0.017669216
241	0x38cefb0c	9.8696066e-05
242	0xba352440	-0.0006910004
243	0x3c4b6c45	0.01241595
244	0xbb5263b6	-0.003210289
245	0x3c01f7f8	0.0079326555
246	0x3b3f46a6	0.0029186397
247	0xbb66a9b0	-0.0035196356
248	0x3b900713	0.0043953746
249	0x3b8bd20b	0.0042669824
250	0x3c01d38e	0.007923974
251	0xbb1eb1b0	-0.0024214797
252	0xba5dcbda	-0.0008460857
253	0xbc706efd	-0.014674899
254	0x398478dd	0.00025267052
255	0x39a0bbef	0.000306576

density_estimator_head.bias f4 [11]
0	0xbd0a1c1b	-0.03371821
1	0xbcca0451	-0.024660261
2	0xbc5fd38c	-0.013661277
3	0xbc15e87b	-0.009149666
4	0xbabb0d16	-0.0014270868
5	0x3a00e3f6	0.00049167813
6	0xbad37a07	-0.001613439
7	0x3bcfe1bb	0.006344048
8	0x3c597e4c	0.01327474
9	0x3d13ad05	0.036053676
10	0x3ce5ea3f	0.028065799

Q1.0.weight f4 [50, 50, 5]
0	0xbfd4dadc	-1.662929
1	0xbf8cd560	-1.1002617
2	0xbdf3cd4c	-0.11904392
3	0xbe6c1084	-0.23053175
4	0x3f000cd2	0.5001956
5	0x4011cb00	2.2780151
6	0xbe457163	-0.19281535
7	0x3ee276bc	0.44231212
8	0xbf2020ea	-0.6255022
9	0x3de7f924	0.11326817
10	0x3f943dd1	1.1581365
11	0xbf47c4e4	-0.78034806
12	0x3fd28c44	1.6449056
13	0xbe624c95	-0.22099526
14	0x3fa54703	1.2912296
15	0xbf532fbb	-0.82494706
16	0xc005a653	-2.0882766
17	0xbed3bb38	-0.41353774
18	0xbf3afc0f	-0.7304086
19	0x3fdc0df6	1.719176
20	0xbe4a66c5	-0.19765766
21	0x3ec7004a	0.38867408
22	0xbf2caeda	-0.674543
23	0x3d50138e	0.0507999
24	0x3f5c54f0	0.86067104
25	0x3f1b61da	0.60696185
26	0x3d89da84	0.06731132
27	0xbe0f7e42	-0.14013007
28	0x3f7ba3b0	0.9829664
29	0xbf225512	-0.63411057
30	0x3f378fd6	0.7170385
31	0x3b11474a	0.0022167736
32	0xbf80a69a	-1.0050843
33	0x3fb05987	1.3777322
34	0xbe920080	-0.28516006
35	0x40051325	2.0792935
36	0xbe150d03	-0.14555745
37	0x3fab899e	1.3401372
38	0xbfda9cd3	-1.7079109
39	0x3fac89e2	1.3479578
40	0xbf9f8b8e	-1.2464464
41	0xbf9c5b2a	-1.2215321
42	0x3fabd6a4	1.3424878
43	0x3f57960e	0.8421334
44	0x402772eb	2.616389
45	0x3f4dde06	0.80416906
46	0xbf67a82c	-0.90490985
47	0x3f11a4f3	0.5689232
48	0xbe82f305	-0.25576034
49	0xbdaca407	-0.08429723
50	0xbff20e76	-1.8910663
51	0xbfff40a2	-1.9941599
52	0xbefaef23	-0.49010572
53	0x3fff585e	1.9948843
54	0xbe6d90be	-0.23199746
55	0x3f213d6d	0.62984353
56	0x3fa52eba	1.2904885
57	0x3fb1e29a	1.3897278
58	0xbc896227	-0.016770435
59	0xbf00441f	-0.50103945
60	0x3f2850f7	0.6574854
61	0x3edb477e	0.42827982
62	0x3f6ef26c	0.93338656
63	0x3dc47013	0.09591689
64	0xbee86a69	-0.45393685
65	0xbf4cc828	-0.79992914
66	0x4015474a	2.3324761
67	0xbf4e73fd	-0.80645734
68	0xbff70004	-1.929688
69	0x3fa46cb3	1.2845672
70	0xc03c3784	-2.9408884
71	0x3eea5759	0.45769766
72	0xbf653bcf	-0.89544386
73	0x3f46000f	0.7734384
74	0x3ea99595	0.33121935
75	0xbe4108e1	-0.18851043
76	0xbfaa3c6a	-1.3299687
77	0xbff6bcd6	-1.9276378
78	0xbec30deb	-0.38096556
79	0xbf5146d9	-0.8174873
80	0x3f1bff8e	0.6093682
81	0x3f1c128b	0.60965794
82	0xbf4431f3	-0.76638716
83	0xbef5e602	-0.48027045
84	0x3f6b096f	0.9181127
85	0xbe9fd97b	-0.31220612
86	0x3d38aa78	0.045084447
87	0x3f06547b	0.52472657
88	0xbc83a6b3	-0.0160707
89	0xbe9b043f	-0.30276677
90	0xc01b1efd	-2.4237664
91	0xbe677636	-0.22603688
92	0xc003d0a0	-2.0596085
93	0x3fad5ec2	1.3544543
94	0x3f675889	0.9036947
95	0x3fb99008	1.449708
96	0x3f955106	1.1665351
97	0xbfcea90a	-1.6145337
98	0x3e6ba411	0.23011805
99	0x3fc567a8	1.5422258
100	0x3e9cf351	0.30654386
101	0xbec6e6b1	-0.3884788
102	0xbeeb30d6	-0.45935696
103	0xbf626a97	-0.88443893
104	0x3f0ef351	0.5584002
105	0x3efe70c5	0.4969541
106	0x3b36a5b4	0.0027869763
107	0x3f3de067	0.74170536
108	0x3eff1ebf	0.49828145
109	0x3f5f01b6	0.87111986
110	0x3eb5c7ed	0.35504094
111	0x3f0c4336	0.54790056
112	0xbe8182b1	-0.25295022
113	0x3d97c547	0.074106745
114	0x3e161bbd	0.14659019
115	0xbf6cabe2	-0.9244977
116	0x3f0f93db	0.56084985
117	0xbf8d0657	-1.101756
118	0x3f8b7267	1.0894288
119	0xbf0875b3	-0.53304595
120	0xc0046713	-2.0687912
121	0xbed7d6f3	-0.4215618
122	0x3f08d4c1	0.53449637
123	0xbe5d6cb7	-0.21623503
124	0x3c46415a	0.012100542
125	0x3f61ae4e	0.8815659
126	0xbf96eb0f	-1.1790484
127	0x3fddf027	1.7338914
128	0xbf10316b	-0.56325406
129	0xbfd78f94	-1.6840692
130	0xbeb27cb9	-0.3486078
131	0xbec2b424	-0.3802806
132	0x3db682f9	0.089117
133	0xbfd3db40	-1.6551285
134	0xbf1d1e89	-0.6137472
135	0xbfa6061e	-1.2970617
136	0xbeaaa0e4	-0.33325875
137	0x3ec9b7f3	0.39398155
138	0x3f6dcb30	0.92888165
139	0xbf8ebbca	-1.1151059
140	0x3fbac25a	1.4590561
141	0x3c073719	0.008252882
142	0x3e4a03bd	0.19727989
143	0x3f8eab32	1.1145995
144	0xbfe6ac5a	-1.8021348
145	0x3eb144f0	0.34622908
146	0x3f824a9c	1.0179019
147	0xbff2a398	-1.8956175
148	0x3fd47778	1.6598959
149	0x3f94af1a	1.1615937
150	0x3f6ec3f2	0.9326774
151	0xbde11715	-0.10990731
152	0x3f4fc3d6	0.81158197
153	0x3da7f850	0.08201659
154	0xbf32cc74	-0.6984322
155	0xbfe85d2b	-1.8153433
156	0x3f096787	0.53673595
157	0x3fb7b306	1.4351509
158	0x3e840851	0.25787595
159	0xbf48cbc5	-0.7843593
160	0x3dbe8387	0.093024306
161	0xbf3a5aec	-0.72794986
162	0x3fc74fd5	1.5571238
163	0xbf67af4b	-0.9050185
164	0xbf0abc95	-0.54194003
165	0xbf24643b	-0.6421544
166	0xbf8570af	-1.0425013
167	0xbe403fe9	-0.1877438
168	0x3f5a5eb7	0.85300773
169	0xbef12f2e	-0.47106308
170	0x3f537a89	0.8260885
171	0xbf880021	-1.0625039
172	0x3fe53664	1.7907224
173	0x3f06dbf2	0.5267936
174	0xbe886631	-0.26640466
175	0x3f404b33	0.75114745
176	0x3e9a00cd	0.30078736
177	0x3f884765	1.0646788
178	0x3fefe565	1.8741881
179	0xbec6ead6	-0.3885104
180	0xbf9e6fb3	-1.2377838
181	0x3f73d698	0.9524932
182	0xbf4df111	-0.80445963
183	0x3ffc48ee	1.9709756
184	0xbdc235ae	-0.09482895
185	0xbf35a4ba	-0.7095448
186	0xbe5d5d9b	-0.21617739
187	0x3e6b9353	0.23005418
188	0xbf29cbe1	-0.6632672
189	0x3f964749	1.1740505
190	0xbdd8b7e4	-0.10581949
191	0xbe86efbf	-0.26354787
192	0xbf8afcec	-1.0858436
193	0xbe818e1a	-0.25303727
194	0xbf196c72	-0.599311
195	0xbf369f4a	-0.71336806
196	0xbf8b861f	-1.0900306
197	0x3fe2872f	1.7697505
198	0x3f0464e2	0.51716435
199	0xbe8c2224	-0.27369797
200	0xbf716bf5	-0.94305354
201	0x3fb65d2b	1.4247183
202	0x3f0d953f	0.55305856
203	0x3e082784	0.13296324
204	0xbe8dab1a	-0.27669603
205	0xbe68675c	-0.22695678
206	0xbf0d2ace	-0.5514344
207	0xbf0fe9de	-0.5621623
208	0xbf82eb13	-1.0227989
209	0xbe16f00b	-0.14740007
210	0x3fed7ede	1.8554342
211	0x3e800d29	0.2501004
212	0x3f272826	0.65295637
213	0xbe82173a	-0.25408345
214	0x3eb00cfd	0.3438491
215	0x3e73023d	0.23731323
216	0xbec415b4	-0.38297808
217	0xbeabd426	-0.33560294
218	0xbe16f777	-0.14742838
219	0xbf496a5b	-0.7867791
220	0xbdf1cff2	-0.118072405
221	0x3f156bb3	0.5836746
222	0x3f3bf024	0.734133
223	0x3f983926	1.189244
224	0xbef5ff55	-0.48046365
225	0xbf320a8e	-0.69547355
226	0xbf088a53	-0.53336066
227	0xbebc7f5e	-0.36815923
228	0x3dccec27	0.1000598
229	0x3f13f3fd	0.5779417
230	0x3fa420c8	1.2822504
231	0xbf6b2ac0	-0.91862106
232	0xbf46cdcd	-0.7765778
233	0x3f01a297	0.5063872
234	0xbe656937	-0.22403418
235	0xbf350339	-0.7070804
236	0xbf456f73	-0.77123183
237	0xbf2823dc	-0.6567972
238	0x3ebbebdb	0.3670338
239	0xbd830633	-0.06397667
240	0x3da363f3	0.07978048
241	0xbfb3412d	-1.4004265
242	0x3f9658c7	1.1745843
243	0x3e15d39b	0.14631502
244	0xbed7a664	-0.42119133
245	0xbe1f8294	-0.15577155
246	0x3ffa940b	1.9576429
247	0x3f854599	1.0411865
248	0x3f201730	0.6253538
249	0xbf68d74e	-0.9095353
250	0x3f8c0184	1.0937963
251	0xbf7e3b99	-0.9930969
252	0x3e4201bd	0.18945976
253	0x3d654bb9	0.055980418
254	0x3f805222	1.0025065
255	0x3df163c3	0.11786606

Q1.0.bias f4 [50, 5]
0	0xb5bb8cd8	-1.3973577e-06
1	0xb49ad16b	-2.8837107e-07
2	0xb4104717	-1.3436907e-07
3	0x300e28b8	5.1717164e-10
4	0x00000000	0.0
5	0xba0efd62	-0.0005454627
6	0x3a8f6568	0.0010940256
7	0xbac64eb3	-0.0015129655
8	0xbb060d69	-0.002045477
9	0xba83c982	-0.0010054561
10	0xba465122	-0.00075651903
11	0x3a83b00d	0.0010046974
12	0x3b3423c3	0.0027487136
13	0x3b0264e2	0.0019896557
14	0x3a4783e5	0.00076109014
15	0xba136693	-0.000562289
16	0xba064c8e	-0.0005123102
17	0xb9f7d2db	-0.0004726861
18	0xb94d50c0	-0.00019580405
19	0xb82bafc0	-4.0933257e-05
20	0xbb299f52	-0.0025882316
21	0xbb1af15a	-0.0023642392
22	0xbb12280c	-0.0022301702
23	0xba793a36	-0.00095072703
24	0xb9675425	-0.00022061223
25	0xbabff08d	-0.0014643833
26	0x39343821	0.00017187047
27	0x3b948678	0.0045326315
28	0x3b84e2fe	0.00405538
29	0x3ae1ebb6	0.0017236385
30	0x398a0c95	0.00026330785
31	0x3980a544	0.00024537195
32	0x3970fe7d	0.00022982988
33	0x38ca8d33	9.658411e-05
34	0x37ae5dfe	2.0786185e-05
35	0xbb94ede9	-0.0045449627
36	0x3a963cd6	0.0011462222
37	0x3b95f541	0.0045763557
38	0x3b604011	0.0034217874
39	0x3aab5b03	0.0013073388
40	0xbaea3ea0	-0.0017871447
41	0xbae32c3e	-0.0017331911
42	0xbadc6984	-0.0016816114
43	0xba3ffa57	-0.00073233753
44	0xb934a543	-0.00017227702
45	0xba299053	-0.00064683444
46	0xba214177	-0.00061514176
47	0xba1a25d3	-0.000588027
48	0xb98477a4	-0.0002526614
49	0xb8758107	-5.8532718e-05
50	0x00000000	0.0
51	0x00000000	0.0
52	0x00000000	0.0
53	0x00000000	0.0
54	0x00000000	0.0
55	0xb9f8f9e5	-0.00047488432
56	0xba121b0a	-0.0005573487
57	0xba258360	-0.0006313827
58	0xb9a529c2	-0.00031502364
59	0xb8d6e84d	-0.000102475846
60	0xb956cb37	-0.00020484334
61	0xb61b0dbc	-2.3104794e-06
62	0x371193ee	8.677116e-06
63	0x368a97de	4.1304e-06
64	0x357470d6	9.106128e-07
65	0xba1c625b	-0.0005965584
66	0xba2bf31c	-0.00065593584
67	0xba36a315	-0.000696705
68	0xb9ac682d	-0.00032884013
69	0xb8be7667	-9.08196e-05
70	0xba8fa4a4	-0.0010959101
71	0xb99401fe	-0.00028230244
72	0xb8d2b027	-0.00010046391
73	0xb6db3979	-6.5333993e-06
74	0xb47a29d3	-2.329828e-07
75	0xba894cac	-0.001047512
76	0xb878a77f	-5.92838e-05
77	0xb6ca91b3	-6.0370307e-06
78	0xb4b24305	-3.3203847e-07
79	0xb33c205c	-4.380159e-08
80	0x3bdc7252	0.006727495
81	0x3ad3baa2	0.0016153643
82	0x3bb7e45d	0.00561194
83	0x3b9b4b01	0.004739166
84	0x3b0391e2	0.0020075967
85	0x3aa66990	0.0012696255
86	0xba452fe7	-0.00075220916
87	0xb78bb663	-1.6655022e-05
88	0x39f27f54	0.00046252704
89	0x39998042	0.00029277994
90	0x3b90f1cc	0.0044233557
91	0x3b35cb6a	0.0027739652
92	0xba6009b5	-0.00085463683
93	0xbb06b2aa	-0.002055327
94	0xba8ff808	-0.0010983953
95	0x38746eb5	5.8277237e-05
96	0xb9934a0b	-0.0002809319
97	0xb996db37	-0.00028773557
98	0xb8dd5eca	-0.00010555757
99	0xb78977e0	-1.6387494e-05
100	0xb883ec55	-6.290587e-05
101	0xb8808c78	-6.12968e-05
102	0xb87cad9f	-6.024318e-05
103	0xb7df165c	-2.6594083e-05
104	0xb6dad04a	-6.5211543e-06
105	0x3c06d171	0.008228646
106	0x3935a265	0.00017322002
107	0x393be39d	0.00017918502
108	0x3a1df1aa	0.00060250855
109	0x39b70474	0.00034907798
110	0xbb84ff21	-0.004058734
111	0x3a577b67	0.00082199875
112	0xbba1e3dc	-0.004940493
113	0xbbad04a5	-0.0052800947
114	0xbb20674e	-0.0024475637
115	0x3b9032ea	0.0044006007
116	0x3a2b2549	0.0006528688
117	0x3b5fda77	0.0034157315
118	0x3b492176	0.003069011
119	0x3aaf664f	0.0013381931
120	0xb7d6d831	-2.561146e-05
121	0xb78adf4e	-1.6554866e-05
122	0xb76134fc	-1.34233815e-05
123	0xb6a95115	-5.0460317e-06
124	0xb53a682b	-6.9441984e-07
125	0xbb49446f	-0.0030710956
126	0xb9d2ee05	-0.0004023166
127	0xb8fc6379	-0.000120348246
128	0xb7bfd74f	-2.2869235e-05
129	0xb6546979	-3.1651855e-06
130	0x3a6edf0a	0.0009112215
131	0xbac788f4	-0.001522331
132	0x3a8e4e5f	0.0010857097
133	0x3afaf801	0.0019147397
134	0x3a826827	0.0009949253
135	0xb5983c0a	-1.1342356e-06
136	0xb5951cba	-1.1109726e-06
137	0xb5921089	-1.088266e-06
138	0xb5007321	-4.785125e-07
139	0xb3f8919d	-1.1574887e-07
140	0x37263310	9.90626e-06
141	0xb62ef28a	-2.6069197e-06
142	0xb65b06cd	-3.2637502e-06
143	0xb5c79cf1	-1.4872331e-06
144	0xb4b8d488	-3.4427308e-07
145	0xb5190086	-5.6997703e-07
146	0xb5151428	-5.5536157e-07
147	0xb4c9b3b4	-3.756992e-07
148	0xb39a1046	-7.174144e-08
149	0x00000000	0.0
150	0xbb64f849	-0.0034938029
151	0xbb0e2add	-0.002169303
152	0xbbf241c3	-0.0073930933
153	0xbbc224e1	-0.0059248065
154	0xbb1efd14	-0.0024259733
155	0x36c48dab	5.8577475e-06
156	0x37a42309	1.9566638e-05
157	0x37c8e136	2.394673e-05
158	0x37451e8e	1.1749229e-05
159	0x36441e92	2.922407e-06
160	0x3a6143bd	0.00085931626
161	0x3961e486	0.00021542804
162	0x38bd8dda	9.038644e-05
163	0x37c00418	2.289009e-05
164	0x36749c20	3.644971e-06
165	0x3b513dd9	0.0031927733
166	0x3a9a71bf	0.0011783167
167	0x3b8bf4fb	0.0042711473
168	0x3b661bf1	0.003511187
169	0x3abf6039	0.001460082
170	0xbb9458ba	-0.0045271786
171	0x3a4a9617	0.00077280536
172	0x3b99b405	0.0046906495
173	0x3b712676	0.0036796606
174	0x3abd59d1	0.0014446323
175	0x3b104961	0.0022016393
176	0x3b81d412	0.0039620483
177	0x3bbb196c	0.0057098176
178	0x3b59060f	0.0033115183
179	0x3a9892f6	0.0011640477
180	0x3baca1e3	0.005268322
181	0x3b576c65	0.0032871005
182	0x39cd430f	0.0003915061
183	0xba92f8d4	-0.0011213073
184	0xba4161a8	-0.00073769176
185	0xbb4fb000	-0.0031690598
186	0xbb3949e7	-0.002827281
187	0xbbd33c4b	-0.0064463965
188	0xbb990488	-0.0046697296
189	0xbaed21f8	-0.0018091789
190	0xbc1ed08c	-0.009693276
191	0xbbaa0f02	-0.0051897774
192	0xbb82cbec	-0.0039915945
193	0xbac744e4	-0.0015203026
194	0xb9af56b1	-0.0003344319
195	0x3b3d5588	0.0028890092
196	0x393d52a8	0.00018055236
197	0x3a482038	0.00076341955
198	0x3a49e517	0.00077016786
199	0x39bdd0ab	0.0003620436
200	0x3b3c4032	0.0028724787
201	0x3ae37a6d	0.0017355211
202	0x3a729618	0.0009253933
203	0x38c2a71b	9.281767e-05
204	0xb89ab2f6	-7.376626e-05
205	0xb8ae8d3d	-8.323274e-05
206	0xb820f06e	-3.837089e-05
207	0xb80ce1d8	-3.3588934e-05
208	0xb7633a05	-1.3543763e-05
209	0xb637d08a	-2.739051e-06
210	0x00000000	0.0
211	0x00000000	0.0
212	0x00000000	0.0
213	0x00000000	0.0
214	0x00000000	0.0
215	0x3b902602	0.004399062
216	0xbb43d64d	-0.0029882372
217	0xbb2902bb	-0.002578898
218	0xba02d161	-0.00049903063
219	0x38404851	4.5843717e-05
220	0x3b8523fa	0.0040631266
221	0x3b0fede1	0.0021961855
222	0x3ba9217b	0.005161462
223	0x3b7bfa56	0.0038448772
224	0x3ac7a4d1	0.0015231614
225	0xbb241223	-0.0025035224
226	0xbb8629d5	-0.0040943422
227	0xbbf31e2d	-0.0074193687
228	0xbb9e93ef	-0.0048394124
229	0xbae738f0	-0.001764087
230	0xbab86500	-0.0014068186
231	0x3a9ac75e	0.0011808684
232	0xba86fe5a	-0.0010299191
233	0xbadc2088	-0.0016794363
234	0xba644fa5	-0.0008709378
235	0xba8118be	-0.0009849293
236	0xba6f9ec5	-0.0009140785
237	0xba64f7af	-0.00087344175
238	0xb9c4f89f	-0.0003756927
239	0xb8b50851	-8.6323016e-05
240	0x3a959d4c	0.0011414676
241	0x3a8f4661	0.0010931009
242	0x3a8946b0	0.0010473337
243	0x39ec0e00	0.0004502386
244	0x38d5f26a	0.000102017846
245	0xbaf5e518	-0.0018760292
246	0xbb0b8bb8	-0.0021292996
247	0xbb1cb0bc	-0.0023909053
248	0xba9c4a3c	-0.0011923979
249	0xb9ccf84a	-0.00039094902
