CausalCVR/logs/simu3/eval/63/Vcnet_ckpt.pth.tar (torch, 123067 bytes, 16 tensors)

feature_weight.weight f4 [50, 8]
0.008966535 0.02105686 -0.0130986655 0.024375375 0.003947294 -0.0056173815 0.016272299 0.0032822893
-0.0010263369 -0.00046927598 -0.006427952 -0.004489454 -0.0077761766 0.014236017 -0.008619784 0.0007333762
-0.017409718 -0.0049501946 -0.024551481 -0.006082045 0.002392837 0.015819939 0.004255436 0.01209349
-0.008769654 -0.0141347665 -0.003372383 -0.008405078 0.0058600134 0.0073894863 -0.011731494 -0.011784759
0.00652503 -0.006623645 0.00042463117 0.017442347 -0.001079635 -0.0052553504 -0.0014356966 -0.0007598816
-0.013693037 -0.02100191 -0.005401526 0.0017165338 0.00513745 0.0061100116 0.0049623535 0.006546469
0.023974314 -0.0021692512 -0.005065582 0.016104145 -0.011998 -0.011151352 0.0040850677 0.0103998035
-0.017885208 0.012923148 -0.0082152225 -0.011039658 0.015583724 0.0044112513 -0.005106341 -0.00033355385
0.011526619 -0.010189352 0.008573755 0.003929273 0.001339716 0.010319315 -0.015558734 -0.015578514
0.0022207913 0.0026772742 0.0052579427 -0.014619662 0.00293914 -0.011845705 0.004833446 -0.00058901473
-0.0015337876 -0.00964432 0.0038336602 0.0044653085 -0.00023037606 0.0033931162 -0.009476881 0.014129631
-0.004597458 0.010311576 -0.0072990186 0.0021787647 0.00067962124 0.021535637 -0.008071718 -0.006197157
-0.0036413518 -0.0030086334 0.00045998872 -0.000737613 0.008726231 -0.012995045 -0.000100219 -0.004976325
-0.0013847157 0.0059288377 0.0075087915 0.0022607187 0.0041928017 0.015189367 -0.011969183 0.0046733757
-0.012447943 -0.004436189 -0.0046184757 -0.0050915205 -0.0018434311 0.004578047 0.015321602 -0.0053085545
-0.0032691308 0.023353817 0.0050089755 -0.016870622 0.019251183 -0.003670265 0.018570501 0.009048592
-0.01824106 -0.00424864 -0.00372688 -0.00399017 -0.0017305003 0.0061907046 -0.0012713084 0.012231172
0.011753536 -0.024888458 0.0049578752 0.016565181 0.008155839 -0.00999436 -0.0011490103 0.01226218
0.0037376154 0.007232309 0.0045359465 0.008657379 0.01296087 -0.008226173 -0.010379074 -0.008150246
-0.01674566 -0.012150769 -0.0056952373 -0.012601464 -0.0036465013 -0.0031691114 0.0005514445 0.010117375
-0.0032247247 0.002824133 -0.009573518 -0.0034487264 0.006761255 -0.010724982 0.0033256458 0.010783184
-0.0065537365 0.0005756321 0.0004655729 0.012992168 0.019132825 0.0025619906 0.008752527 -0.0050374586
0.0040277014 0.00037765392 -0.017352425 -0.005272373 0.0033770392 -0.0005728049 -0.014228835 -0.006545294
0.008743883 0.005053021 -0.0013654716 0.014884786 -0.001940619 0.0079878215 -0.0019331255 -0.010683245
-0.00080121 0.0034034906 0.0099424925 0.0012656512 -0.007993022 0.0022538537 -0.0008135983 -0.011231455
0.0016508438 -0.00047475213 0.00027213545 0.010835847 0.010165787 -0.0032819018 -0.0009649906 -0.0007187061
0.0034279092 -0.017955722 0.015176684 -0.006467982 -0.015652893 -0.010059395 0.0041055037 0.013046383
-0.0020779346 0.009681477 0.0048788185 0.0050504585 0.0009736327 0.0057386197 -0.0036750278 -0.0024975047
0.01745337 0.020306285 0.012768655 0.0055220216 0.01647388 -0.002038466 0.0050621084 -0.0059258863
0.002617263 0.0026838393 -0.008270283 0.019173 -0.0032038358 0.014732094 -0.00041372734 -0.013364953
-0.009542519 0.012430794 -0.016564317 -0.009027859 0.019698812 -0.004946949 -0.0045798654 -0.0017603878
-0.0011005752 -0.0113504585 0.0014383316 -0.0054981434 0.001515781 0.0008935474 -0.017743008 0.0040282374
00000000: 60e8 123c 707f ac3c c99b 56bc deae c73c
00000010: 4d58 813b 0312 b8bb 7c4d 853c ad1b 573b
00000020: 2786 86ba 2809 f6b9 92a1 d2bb 451c 93bb
00000030: 4ccf febb 2f3e 693c ff39 0dbc 0b40 403a
00000040: d39e 8ebc 3e35 a2bb 3020 c9bc e44b c7bb
00000050: 25d1 1c3b d198 813c 2f71 8b3b c623 463c
00000060: 98ae 0fbc 8295 67bc 3303 5dbb 74b5 09bc
00000070: 5b05 c03b 8123 f23b 7435 40bc dd14 41bc
00000080: ebcf d53b 290b d9bb 08a1 de39 41e3 8e3c
00000090: 8a82 8dba 1335 acbb fc2d bcba ca32 47ba
000000a0: c358 60bc 330c acbc 49ff b0bb 51fd e03a
000000b0: 0e58 a83b 7e36 c83b 3d9b a23b c383 d63b
000000c0: c865 c43c ff29 0ebb 2ffd a5bb d7ec 833c
000000d0: 4293 44bc 29b4 36bc 08dc 853b f063 2a3c
000000e0: 0084 92bc 9dbb 533c 2499 06bc afdf 34bc
000000f0: e052 7f3c 428c 903b 1853 a7bb d7e0 aeb9
00000100: 25da 3c3c 3df1 26bc ef78 0c3c 22c1 803b
00000110: 6999 af3a 5812 293c 0fea 7ebc 063d 7fbc
00000120: b28a 113b 3575 2f3b d24a ac3b 4f87 6fbc
00000130: 969e 403b 7d14 42bc e261 9e3b 1c68 1aba
00000140: 5f09 c9ba 3603 1ebc 253e 7b3b b951 923b
00000150: 1a91 71b9 0b5f 5e3b eb44 1bbc f87f 673c
00000160: 46a6 96bb e2f1 283c 9b2c efbb 9bc9 0e3b
00000170: 9c28 323a 816b b03c 3d3f 04bc 8511 cbbb
00000180: bfa3 6ebb 7e2c 45bb a42a f139 5f5c 41ba
00000190: 77f8 0e3c 2be9 54bc aa2c d2b8 7110 a3bb
000001a0: 597f b5ba b246 c23b 4f0c f63b 9128 143b
000001b0: c563 893b d3dc 783c 641a 44bc 1e23 993b
000001c0: 75f2 4bbc 735d 91bb 9556 97bb c5d6 a6bb
000001d0: 499f f1ba 7103 963b 7507 7b3c 62f3 adbb
000001e0: ea3e 56bb 8150 bf3c 5522 a43b 4234 8abc
000001f0: a8b4 9d3c d488 70bb 2a21 983c 8c40 143c
00000200: 476e 95bc 2d38 8bbb ac3e 74bb f9bf 82bb
00000210: f4d1 e2ba 65db ca3b 08a2 a6ba 4165 483c
00000220: e791 403c e1e2 cbbc ac75 a23b b4b3 873c
00000230: 11a0 053c 62bf 23bc 639a 96ba 50e7 483c
00000240: c8f2 743b 01fd ec3b 47a2 943b aed7 0d3c
00000250: d459 543c 12c7 06bc fe0c 2abc 9c88 05bc
00000260: 322e 89bc 0514 47bc 1d9f babb 5f76 4ebc
00000270: 24fa 6ebb deb0 4fbb d08e 103a 59c3 253c
00000280: e755 53bb 1715 393b 3fda 1cbc 0704 62bb
00000290: 858d dd3b d6b7 2fbc 14f3 593b f4ab 303c
000002a0: bac0 d6bb 04e6 163a 2318 f439 1add 543c
000002b0: 71bc 9c3c 12e7 273b c266 0f3c 4411 a5bb
000002c0: cffa 833b daff c539 ac26 8ebc dfc3 acbb
000002d0: 5151 5d3b 4928 16ba 0f20 69bc e879 d6bb
000002e0: 8142 0f3c d093 a53b a0f9 b2ba 51df 733c
000002f0: 5e5c feba 5adf 023c ee60 fdba c708 2fbc
00000300: 4b08 52ba 190d 5f3b d6e5 223c 35e4 a53a
00000310: 2af5 02bc 64b5 133b a847 55ba 2304 38bc
00000320: 2061 d83a 27e8 f8b9 67ad 8e39 d688 313c
00000330: 678e 263c 2d15 57bb 6cf7 7cba 8d67 3cba
00000340: c6a6 603b e117 93bc a0a7 783c 5ef1 d3bb
00000350: 7f3a 80bc 29d0 24bc 7687 863b 7fc0 553c
00000360: f52d 08bb 0f9f 1e3c 7fde 9f3b 517e a53b
00000370: 623b 7f3a 080b bc3b bcd8 70bb 2dad 23bb
00000380: 5ffa 8e3c 5e59 a63c 9f33 513c 13f2 b43b
00000390: 3bf4 863c c997 05bb 0be0 a53b f02d c2bb
000003a0: 6386 2b3b 5ae3 2f3b 1580 07bc b210 9d3c
000003b0: 72f7 51bb e15e 713c 8be9 d8b9 adf8 5abc
000003c0: 3a58 1cbc 87aa 4b3c e4b1 87bc 96e9 13bc
000003d0: 675f a13c 041a a2bb b212 96bb d0bc e6ba
000003e0: 2d41 90ba 46f7 39bc 6686 bc3a c529 b4bb
000003f0: 2cad c63a f33c 6a3a c959 91bc 4eff 833b

feature_weight.bias f4 [50]
-3.7038421e-06 -5.9243126e-07 -4.2833603e-06 1.400233e-07 -3.2975615e-05 3.3452736e-07 1.8394865e-05 -3.3763838e-06
-1.9325757e-05 -2.3820096e-06 -3.7660953e-05 -9.773584e-07 -6.031593e-07 -1.5282672e-05 -8.142432e-06 -0.000103824
-7.21853e-06 -1.9141704e-05 -3.5000558e-05 -3.120538e-08 -1.7823406e-05 -8.3669845e-05 2.928016e-07 -2.9012164e-05
-9.063274e-06 -1.7082819e-05 9.86872e-07 5.0754756e-05 -1.2832738e-05 9.156791e-06 -1.0547018e-05 6.937297e-07
3.0051224e-05 2.7867986e-07 0.0 3.982873e-06 5.421888e-06 -6.322367e-06 1.3774821e-05 1.395141e-05
-1.2941508e-05 -4.293918e-06 6.4973676e-07 -2.746509e-05 0.0 1.6685904e-05 0.0 -2.545922e-05
-2.3702773e-05 0.0
00000000: 868f 78b6 9107 1fb5 c9b9 8fb6 5059 1634
00000010: 4c4f 0ab8 1799 b334 ac4e 9a37 d595 62b6
00000020: bf1d a2b7 9dda 1fb6 24f6 1db8 c72d 83b5
00000030: cbe8 21b5 4a33 80b7 7b9b 08b7 16bc d9b8
00000040: b336 f2b6 7f92 a0b7 90cd 12b8 ae06 06b3
00000050: 7983 95b7 e877 afb8 5832 9d34 265f f3b7
00000060: 770e 18b7 134d 8fb7 aa74 8435 81e1 5438
00000070: 314c 57b7 1ea0 1937 19f3 30b7 be38 3a35
00000080: 8316 fc37 789d 9534 0000 0000 9ea4 8536
00000090: aaed b536 b824 d4b6 681a 6737 da10 6a37
000000a0: 5b1f 59b7 7a14 90b6 9269 2e35 d564 e6b7
000000b0: 0000 0000 b5f8 8b37 0000 0000 4291 d5b7
000000c0: 51d5 c6b7 0000 0000

hidden_features.0.weight f4 [50, 8]
0.008966535 0.02105686 -0.0130986655 0.024375375 0.003947294 -0.0056173815 0.016272299 0.0032822893
-0.0010263369 -0.00046927598 -0.006427952 -0.004489454 -0.0077761766 0.014236017 -0.008619784 0.0007333762
-0.017409718 -0.0049501946 -0.024551481 -0.006082045 0.002392837 0.015819939 0.004255436 0.01209349
-0.008769654 -0.0141347665 -0.003372383 -0.008405078 0.0058600134 0.0073894863 -0.011731494 -0.011784759
0.00652503 -0.006623645 0.00042463117 0.017442347 -0.001079635 -0.0052553504 -0.0014356966 -0.0007598816
-0.013693037 -0.02100191 -0.005401526 0.0017165338 0.00513745 0.0061100116 0.0049623535 0.006546469
0.023974314 -0.0021692512 -0.005065582 0.016104145 -0.011998 -0.011151352 0.0040850677 0.0103998035
-0.017885208 0.012923148 -0.0082152225 -0.011039658 0.015583724 0.0044112513 -0.005106341 -0.00033355385
0.011526619 -0.010189352 0.008573755 0.003929273 0.001339716 0.010319315 -0.015558734 -0.015578514
0.0022207913 0.0026772742 0.0052579427 -0.014619662 0.00293914 -0.011845705 0.004833446 -0.00058901473
-0.0015337876 -0.00964432 0.0038336602 0.0044653085 -0.00023037606 0.0033931162 -0.009476881 0.014129631
-0.004597458 0.010311576 -0.0072990186 0.0021787647 0.00067962124 0.021535637 -0.008071718 -0.006197157
-0.0036413518 -0.0030086334 0.00045998872 -0.000737613 0.008726231 -0.012995045 -0.000100219 -0.004976325
-0.0013847157 0.0059288377 0.0075087915 0.0022607187 0.0041928017 0.015189367 -0.011969183 0.0046733757
-0.012447943 -0.004436189 -0.0046184757 -0.0050915205 -0.0018434311 0.004578047 0.015321602 -0.0053085545
-0.0032691308 0.023353817 0.0050089755 -0.016870622 0.019251183 -0.003670265 0.018570501 0.009048592
-0.01824106 -0.00424864 -0.00372688 -0.00399017 -0.0017305003 0.0061907046 -0.0012713084 0.012231172
0.011753536 -0.024888458 0.0049578752 0.016565181 0.008155839 -0.00999436 -0.0011490103 0.01226218
0.0037376154 0.007232309 0.0045359465 0.008657379 0.01296087 -0.008226173 -0.010379074 -0.008150246
-0.01674566 -0.012150769 -0.0056952373 -0.012601464 -0.0036465013 -0.0031691114 0.0005514445 0.010117375
-0.0032247247 0.002824133 -0.009573518 -0.0034487264 0.006761255 -0.010724982 0.0033256458 0.010783184
-0.0065537365 0.0005756321 0.0004655729 0.012992168 0.019132825 0.0025619906 0.008752527 -0.0050374586
0.0040277014 0.00037765392 -0.017352425 -0.005272373 0.0033770392 -0.0005728049 -0.014228835 -0.006545294
0.008743883 0.005053021 -0.0013654716 0.014884786 -0.001940619 0.0079878215 -0.0019331255 -0.010683245
-0.00080121 0.0034034906 0.0099424925 0.0012656512 -0.007993022 0.0022538537 -0.0008135983 -0.011231455
0.0016508438 -0.00047475213 0.00027213545 0.010835847 0.010165787 -0.0032819018 -0.0009649906 -0.0007187061
0.0034279092 -0.017955722 0.015176684 -0.006467982 -0.015652893 -0.010059395 0.0041055037 0.013046383
-0.0020779346 0.009681477 0.0048788185 0.0050504585 0.0009736327 0.0057386197 -0.0036750278 -0.0024975047
0.01745337 0.020306285 0.012768655 0.0055220216 0.01647388 -0.002038466 0.0050621084 -0.0059258863
0.002617263 0.0026838393 -0.008270283 0.019173 -0.0032038358 0.014732094 -0.00041372734 -0.013364953
-0.009542519 0.012430794 -0.016564317 -0.009027859 0.019698812 -0.004946949 -0.0045798654 -0.0017603878
-0.0011005752 -0.0113504585 0.0014383316 -0.0054981434 0.001515781 0.0008935474 -0.017743008 0.0040282374
00000000: 60e8 123c 707f ac3c c99b 56bc deae c73c
00000010: 4d58 813b 0312 b8bb 7c4d 853c ad1b 573b
00000020: 2786 86ba 2809 f6b9 92a1 d2bb 451c 93bb
00000030: 4ccf febb 2f3e 693c ff39 0dbc 0b40 403a
00000040: d39e 8ebc 3e35 a2bb 3020 c9bc e44b c7bb
00000050: 25d1 1c3b d198 813c 2f71 8b3b c623 463c
00000060: 98ae 0fbc 8295 67bc 3303 5dbb 74b5 09bc
00000070: 5b05 c03b 8123 f23b 7435 40bc dd14 41bc
00000080: ebcf d53b 290b d9bb 08a1 de39 41e3 8e3c
00000090: 8a82 8dba 1335 acbb fc2d bcba ca32 47ba
000000a0: c358 60bc 330c acbc 49ff b0bb 51fd e03a
000000b0: 0e58 a83b 7e36 c83b 3d9b a23b c383 d63b
000000c0: c865 c43c ff29 0ebb 2ffd a5bb d7ec 833c
000000d0: 4293 44bc 29b4 36bc 08dc 853b f063 2a3c
000000e0: 0084 92bc 9dbb 533c 2499 06bc afdf 34bc
000000f0: e052 7f3c 428c 903b 1853 a7bb d7e0 aeb9
00000100: 25da 3c3c 3df1 26bc ef78 0c3c 22c1 803b
00000110: 6999 af3a 5812 293c 0fea 7ebc 063d 7fbc
00000120: b28a 113b 3575 2f3b d24a ac3b 4f87 6fbc
00000130: 969e 403b 7d14 42bc e261 9e3b 1c68 1aba
00000140: 5f09 c9ba 3603 1ebc 253e 7b3b b951 923b
00000150: 1a91 71b9 0b5f 5e3b eb44 1bbc f87f 673c
00000160: 46a6 96bb e2f1 283c 9b2c efbb 9bc9 0e3b
00000170: 9c28 323a 816b b03c 3d3f 04bc 8511 cbbb
00000180: bfa3 6ebb 7e2c 45bb a42a f139 5f5c 41ba
00000190: 77f8 0e3c 2be9 54bc aa2c d2b8 7110 a3bb
000001a0: 597f b5ba b246 c23b 4f0c f63b 9128 143b
000001b0: c563 893b d3dc 783c 641a 44bc 1e23 993b
000001c0: 75f2 4bbc 735d 91bb 9556 97bb c5d6 a6bb
000001d0: 499f f1ba 7103 963b 7507 7b3c 62f3 adbb
000001e0: ea3e 56bb 8150 bf3c 5522 a43b 4234 8abc
000001f0: a8b4 9d3c d488 70bb 2a21 983c 8c40 143c
00000200: 476e 95bc 2d38 8bbb ac3e 74bb f9bf 82bb
00000210: f4d1 e2ba 65db ca3b 08a2 a6ba 4165 483c
00000220: e791 403c e1e2 cbbc ac75 a23b b4b3 873c
00000230: 11a0 053c 62bf 23bc 639a 96ba 50e7 483c
00000240: c8f2 743b 01fd ec3b 47a2 943b aed7 0d3c
00000250: d459 543c 12c7 06bc fe0c 2abc 9c88 05bc
00000260: 322e 89bc 0514 47bc 1d9f babb 5f76 4ebc
00000270: 24fa 6ebb deb0 4fbb d08e 103a 59c3 253c
00000280: e755 53bb 1715 393b 3fda 1cbc 0704 62bb
00000290: 858d dd3b d6b7 2fbc 14f3 593b f4ab 303c
000002a0: bac0 d6bb 04e6 163a 2318 f439 1add 543c
000002b0: 71bc 9c3c 12e7 273b c266 0f3c 4411 a5bb
000002c0: cffa 833b daff c539 ac26 8ebc dfc3 acbb
000002d0: 5151 5d3b 4928 16ba 0f20 69bc e879 d6bb
000002e0: 8142 0f3c d093 a53b a0f9 b2ba 51df 733c
000002f0: 5e5c feba 5adf 023c ee60 fdba c708 2fbc
00000300: 4b08 52ba 190d 5f3b d6e5 223c 35e4 a53a
00000310: 2af5 02bc 64b5 133b a847 55ba 2304 38bc
00000320: 2061 d83a 27e8 f8b9 67ad 8e39 d688 313c
00000330: 678e 263c 2d15 57bb 6cf7 7cba 8d67 3cba
00000340: c6a6 603b e117 93bc a0a7 783c 5ef1 d3bb
00000350: 7f3a 80bc 29d0 24bc 7687 863b 7fc0 553c
00000360: f52d 08bb 0f9f 1e3c 7fde 9f3b 517e a53b
00000370: 623b 7f3a 080b bc3b bcd8 70bb 2dad 23bb
00000380: 5ffa 8e3c 5e59 a63c 9f33 513c 13f2 b43b
00000390: 3bf4 863c c997 05bb 0be0 a53b f02d c2bb
000003a0: 6386 2b3b 5ae3 2f3b 1580 07bc b210 9d3c
000003b0: 72f7 51bb e15e 713c 8be9 d8b9 adf8 5abc
000003c0: 3a58 1cbc 87aa 4b3c e4b1 87bc 96e9 13bc
000003d0: 675f a13c 041a a2bb b212 96bb d0bc e6ba
000003e0: 2d41 90ba 46f7 39bc 6686 bc3a c529 b4bb
000003f0: 2cad c63a f33c 6a3a c959 91bc 4eff 833b

hidden_features.0.bias f4 [50]
-3.7038421e-06 -5.9243126e-07 -4.2833603e-06 1.400233e-07 -3.2975615e-05 3.3452736e-07 1.8394865e-05 -3.3763838e-06
-1.9325757e-05 -2.3820096e-06 -3.7660953e-05 -9.773584e-07 -6.031593e-07 -1.5282672e-05 -8.142432e-06 -0.000103824
-7.21853e-06 -1.9141704e-05 -3.5000558e-05 -3.120538e-08 -1.7823406e-05 -8.3669845e-05 2.928016e-07 -2.9012164e-05
-9.063274e-06 -1.7082819e-05 9.86872e-07 5.0754756e-05 -1.2832738e-05 9.156791e-06 -1.0547018e-05 6.937297e-07
3.0051224e-05 2.7867986e-07 0.0 3.982873e-06 5.421888e-06 -6.322367e-06 1.3774821e-05 1.395141e-05
-1.2941508e-05 -4.293918e-06 6.4973676e-07 -2.746509e-05 0.0 1.6685904e-05 0.0 -2.545922e-05
-2.3702773e-05 0.0
00000000: 868f 78b6 9107 1fb5 c9b9 8fb6 5059 1634
00000010: 4c4f 0ab8 1799 b334 ac4e 9a37 d595 62b6
00000020: bf1d a2b7 9dda 1fb6 24f6 1db8 c72d 83b5
00000030: cbe8 21b5 4a33 80b7 7b9b 08b7 16bc d9b8
00000040: b336 f2b6 7f92 a0b7 90cd 12b8 ae06 06b3
00000050: 7983 95b7 e877 afb8 5832 9d34 265f f3b7
00000060: 770e 18b7 134d 8fb7 aa74 8435 81e1 5438
00000070: 314c 57b7 1ea0 1937 19f3 30b7 be38 3a35
00000080: 8316 fc37 789d 9534 0000 0000 9ea4 8536
00000090: aaed b536 b824 d4b6 681a 6737 da10 6a37
000000a0: 5b1f 59b7 7a14 90b6 9269 2e35 d564 e6b7
000000b0: 0000 0000 b5f8 8b37 0000 0000 4291 d5b7
000000c0: 51d5 c6b7 0000 0000

hidden_features.2.weight f4 [50, 50]
0.0062730275 0.0022297988 0.018554246 0.008354786 0.004662981 -0.008424059 -0.0012044862 0.0063069984
-0.0066918703 -0.008452935 0.018806215 0.014802894 0.0012931253 -0.0006037473 -0.0061710426 -0.019386047
-0.008101402 0.014444332 -0.013342773 0.0021129262 0.0043927026 0.010606332 0.0142095685 -0.0034001793
-0.0012950563 -0.0058856634 0.01377786 -7.431884e-05 -0.0159953 0.006040728 0.0018860493 -0.00969082
0.00492594 -0.012187737 -0.016149351 0.0048442264 0.017878918 -0.006802792 -0.018342158 0.0054960893
0.009685875 -0.0015110794 -0.01116028 0.006865079 0.0016003364 0.009532306 -0.005902252 0.0056153997
0.00919985 -0.011300789 -0.006873194 0.011795646 -0.003445377 -0.0021574965 -0.016052334 -0.004076906
-0.0010404717 0.0067797885 -0.009155904 -0.010879073 0.006517571 0.0004791806 0.0016437426 0.0011972468
-0.00025418535 -0.018764859 -0.018006299 0.0029841405 0.0041545895 -0.01488088 -0.010132495 0.026206419
0.01260949 -0.0022333341 -0.0108990725 0.010316312 0.0004063308 0.006045343 -0.008624033 0.007951454
0.0121404305 0.009423678 -0.0037911679 0.0012345043 0.0034022783 0.007159906 -0.009396703 -0.0015096902
-0.00454086 -0.018462999 -0.008729433 -0.0035994565 0.00029721373 -0.008215022 0.0014990399 -0.0010402096
0.00045545577 -0.0081992075 -0.0064686774 0.007023339 0.013564041 -0.004381703 -0.00862824 -0.0041235765
0.0023909397 -0.012790049 -0.001955757 0.0007128996 -0.0022167878 -0.004513758 0.003871755 -0.0036187589
-0.020080345 -0.0018107304 0.001436522 0.019390294 -0.0020024127 -0.0035742377 -0.006853085 0.0008461859
-0.01521484 0.010986133 0.012919474 0.0056356974 0.013001972 -0.013924979 -0.0015751364 -0.0134907365
-0.011919649 0.009450737 -0.002273038 -0.0004625157 -0.0023475995 -0.0045387945 -0.014306598 -0.0025874975
0.0023427783 0.001601347 -0.01822733 -0.0062800455 -0.003938171 -0.014364029 -0.008708772 0.0042556426
-0.014535138 -0.0036947853 -0.0031876508 0.011380123 -0.012033238 0.0066824076 0.027436536 0.0044519086
0.006259962 0.0073305364 -0.011637515 -0.002029279 0.0009180831 -0.010905417 0.01052277 0.019592682
0.008489854 -0.008467844 -0.009509612 0.0022962352 -0.0050450163 -0.008971612 0.007795172 -0.0123097105
-0.011662587 -0.0024389483 -0.003252778 -0.004890222 0.01994219 0.0011600635 0.013288237 -0.011922893
-0.001621708 0.005562561 -0.010771316 0.010100826 -0.009995138 -0.002140601 -0.0063981884 -0.0073561263
0.0027762535 -0.009266527 0.020869492 0.02229691 -0.0029625597 -0.010085306 0.0029484434 0.00014874572
-0.007843602 0.0086006345 -0.015136674 -0.0030396963 -0.0016622829 -0.0006379684 -0.0015954627 0.0111523615
-0.0018294997 0.007841501 0.0034718532 0.0016691057 -0.009510737 -0.0027276925 -0.0015111899 0.0058751255
-0.006700206 0.016412748 0.005762973 -0.0005338893 0.01703076 0.005537255 -0.005252885 -0.0011709465
-0.009076551 -0.013418718 -0.013789401 -0.0027539125 0.006395246 -0.014184735 0.00857593 -0.0002303523
-0.0076688295 0.021020215 0.006361482 0.0030090413 -0.0050955457 0.02089862 7.9928155e-05 0.0039899703
-0.007595631 -0.014187876 0.0015322338 -0.0044718888 -0.0035094928 0.007095589 0.007845687 -0.002267139
0.001031584 0.005655917 -0.0022580987 -0.024678709 0.004295367 -0.0028880031 -0.0057758302 -0.0003744419
-0.005909281 0.014211553 -0.0060117706 -0.0013843703 0.0012374782 0.0071365032 0.010989903 -0.0017657299
00000000: f88d cd3b d121 123b 13ff 973c 83e2 083c
00000010: ebcb 983b 1005 0abc dadf 9dba f0aa ce3b
00000020: 7a47 dbbb 2e7e 0abc 7e0f 9a3c d687 723c
00000030: 167e a93a cc44 1eba 7536 cabb 7dcf 9ebc
00000040: bebb 04bc eba7 6c3c a59b 5abc 0579 0a3b
00000050: a9f0 8f3b 2ec6 2d3c 40cf 683c 8bd5 5ebb
00000060: e1be a9ba 86dc c0bb 89bc 613c a0db 9bb8
00000070: 9308 83bc 4df1 c53b 5035 f73a 3fc6 1ebc
00000080: c869 a13b 13af 47bc a54b 84bc 51bc 9e3b
00000090: cf76 923c f5e9 debb 4b42 96bc 8a18 b43b
000000a0: 81b1 1e3c 690f c6ba 9bd9 36bc 75f4 e03b
000000b0: 61c2 d13a 642d 1c3c ae67 c1bb 6301 b83b
000000c0: f8ba 163c f226 39bc 8838 e1bb 8642 413c
000000d0: d6cb 61bb c964 0dbb 2f80 83bc 9197 85bb
000000e0: 7060 88ba fd28 de3b a502 16bc 243e 32bc
000000f0: 5991 d53b 883a fb39 d972 d73a f0ec 9c3a
00000100: 2e44 85b9 c3b8 99bc f281 93bc 9291 433b
00000110: 3923 883b efce 73bc c402 26bc d8ae d63c
00000120: 0998 4e3c 215d 12bb 0692 32bc c005 293c
00000130: cc08 d539 0318 c63b d14b 0dbc d146 023c
00000140: a8e8 463c c565 1a3c 3e75 78bb 17cf a13a
00000150: c2f8 5e3b a59d ea3b a1f4 19bc cce0 c5ba
00000160: 7fcb 94bb b73f 97bc e505 0fbc dce4 6bbb
00000170: 5ad3 9b39 4d98 06bc 6f7b c43a a457 88ba
00000180: 3dca ee39 f855 06bc 33f7 d3bb 0a24 e63b
00000190: b63b 5e3c 6494 8fbb 765d 0dbc 111f 87bb
000001a0: 50b1 1c3b 5b8d 51bc 282c 00bb e2e1 3a3a
000001b0: 8747 11bb 25e8 93bb 45bd 7d3b b328 6dbb
000001c0: 897f a4bc 0856 edba ae49 bc3a 65d8 9e3c
000001d0: e93a 03bb c23d 6abb d88f e0bb 93d2 5d3a
000001e0: aa47 79bc 2eff 333c 34ac 533c a8ab b83b
000001f0: 3906 553c 9825 64bc cf74 ceba 4008 5dbc
00000200: a24a 43bc 44d7 1a3c 40f7 14bb ce7d f2b9
00000210: 2fda 19bb 2bba 94bb 3966 6abc 0193 29bb
00000220: 4c89 193b 4ae4 d13a 7b51 95bc d7c8 cdbb
00000230: c60b 81bb 1b57 6bbc 3daf 0ebc eb72 8b3b
00000240: ca24 6ebc 3624 72bb e8e7 50bb b273 3a3c
00000250: 0f27 45bc 19f8 da3b 96c2 e03c 51e1 913b
00000260: 5e20 cd3b ff34 f03b 47ab 3ebc a7fd 04bb
00000270: 84ab 703a a2ac 32bc b267 2c3c d580 a03c
00000280: 0719 0b3c b6bc 0abc 34ce 1bbc 6f7c 163b
00000290: aa50 a5bb abfd 12bc a46e ff3b abae 49bc
000002a0: 6f14 3fbc c3d6 1fbb 8f2c 55bb 283e a0bb
000002b0: ce5d a33c 460d 983a e8b6 593c 3d58 43bc
000002c0: 7e8f d4ba 2546 b63b 2c7a 30bc ef7d 253c
000002d0: a6c2 23bc 5349 0cbb e5a7 d1bb a90b f1bb
000002e0: cef1 353b a2d2 17bc 7ff6 aa3c 02a8 b63c
000002f0: 8127 42bb d73c 25bc ac3a 413b a0f8 1b39
00000300: 7482 00bc ade9 0c3c d0ff 77bc a435 47bb
00000310: f5e0 d9ba 563d 27ba d81e d1ba 65b8 363c
00000320: d3cb efba a479 003c 0888 633b e5c5 da3a
00000330: ecd2 1bbc 16c3 32bb 1e13 c6ba 2084 c03b
00000340: 678d dbbb 0774 863c 52d7 bc3b b4f4 0bba
00000350: 1884 8b3c dd71 b53b 6520 acbb 727a 99ba
00000360: d0b5 14bc 2fda 5bbc f1ec 61bc fc7a 34bb
00000370: 368f d13b 1767 68bc 0f82 0c3c ba8a 71b9
00000380: ce4a fbbb 9632 ac3c fb73 d03b 5633 453b
00000390: 89f8 a6bb 9533 ab3c 1a9f a738 4cbe 823b
000003a0: c5e4 f8bb 4474 68bc 3cd5 c83a ec88 92bb
000003b0: 85ff 65bb 1d82 e83b 328b 003c 4894 14bb
000003c0: 3736 873a 4555 b93b 9cfc 13bb 012b cabc
000003d0: 26c0 8c3b a744 3dbb 2d43 bdbb be50 c4b9
000003e0: a4a2 c1bb 93d7 683c 63fe c4bb c273 b5ba
000003f0: e132 a23a 54d9 e93b fe0e 343c 1070 e7ba

hidden_features.2.bias f4 [50]
-5.1030114e-05 8.411088e-06 -7.575762e-05 -4.9884828e-05 2.2555723e-05 -0.001044766 -1.0520497e-05 0.000414992
-0.00086045876 0.0 -7.233194e-05 -0.00043474147 -5.1452857e-06 6.9300427e-07 -4.9731912e-05 -6.393248e-05
-3.854104e-05 -1.8726556e-05 -0.0008605016 -2.6678541e-05 0.0010510791 0.00012593174 -0.0006048861 -4.587251e-05
0.00021150557 -0.00011867415 -0.00024240614 0.00020772629 -0.00030898908 6.672036e-05 8.606351e-05 -9.633819e-06
-1.363602e-05 -2.594593e-05 1.7334623e-05 0.0 -0.0008243733 -0.00047540976 -0.00032608767 0.00037365037
-0.00085386506 0.00024213793 0.0005395093 0.0005665184 -0.0003694724 -3.7014175e-05 -0.00059778016 -0.00046221982
0.0 0.00023537246
00000000: 2b09 56b8 591d 0d37 10e0 9eb8 6d3b 51b8
00000010: 0c36 bd37 88f0 88ba 3181 30b7 4993 d939
00000020: 6990 61ba 0000 0000 eab0 97b8 03ee e3b9
00000030: aba5 acb6 e406 3a35 3c97 50b8 7d13 86b8
00000040: 20a7 21b8 f916 9db7 4993 61ba bbcb dfb7
00000050: 5dc4 893a 8b0c 0439 3891 1eba 3c67 40b8
00000060: 98c7 5d39 b3e0 f8b8 672e 7eb9 1ad1 5939
00000070: d0ff a1b9 38ec 8b38 ff7c b438 f0a0 21b7
00000080: 43c6 64b7 76a6 d9b7 d269 9137 0000 0000
00000090: c11a 58ba 6b40 f9b9 bff6 aab9 81e6 c339
000000a0: ead5 5fba 68e6 7d39 db6d 0d3a 6882 143a
000000b0: bfb5 c1b9 ab3f 1bb8 59b4 1cba 1856 f2b9
000000c0: 0000 0000 50ce 7639

density_estimator_head.weight f4 [50, 11]
-0.005653189 0.002501408 -0.007259836 -0.011160813 -0.015136573 0.00021932695 -0.012069026 0.01107357
-0.014528631 -0.014018487 0.014590539 0.011842432 0.016433738 -0.0011388909 0.0023200135 -0.012376043
-0.0073284702 -0.0016635145 0.011231114 0.016795937 0.0041752835 0.0035432335 -0.0040175878 -0.0024551675
0.019524574 0.005138331 9.052867e-05 -0.0062870015 0.013081454 -0.011607505 0.005262706 -0.00045587664
-0.0023792405 -0.012090355 -0.0105132535 -0.0112856915 0.014682323 -0.014568439 -0.0045903325 0.009953244
0.011708111 -0.018216742 -0.0052256626 -0.010067745 0.014930262 0.016615702 0.015598301 0.005246119
-0.01347721 -0.009698517 -0.00014874504 -0.016673587 -0.011575481 -0.004049126 0.015998462 0.0058639734
0.008083832 -0.0025687509 -0.004608054 0.0119184125 0.011436712 -0.0027331698 -0.014292324 -0.003263439
0.00511355 -0.023176778 0.010022578 -0.015071826 -0.004451079 -0.009621668 0.0055787927 0.008625575
-0.01219118 -0.00075186434 -0.0119117955 -0.00060861 0.0040512355 -0.0119269155 -0.0021857363 0.005737234
0.0027395217 -0.006125281 -0.0018421682 0.007053848 0.006249249 -0.017681869 0.012946036 -0.007788063
0.0003991842 0.003172929 0.010234809 0.0050586034 -0.011613272 -0.0013685173 -0.018040901 0.00398668
-0.005153522 -0.008943379 -0.015447212 0.003052415 0.011133942 -0.000102756814 -0.00833564 -0.019391526
-0.001013349 -0.010021847 -0.009515386 0.00466415 -0.0042948932 0.0093145175 -0.018610304 -0.0016153149
0.017330298 0.0001596796 0.019250853 0.009353383 -0.008224691 0.0038943351 -0.028809369 0.0005620007
-0.011837716 -0.00012702325 0.016448528 0.010065783 -0.006008702 -0.011860862 0.00845514 -0.003975195
0.005775425 -0.0037013744 -0.007203058 0.0031586625 -0.00075534196 0.005688167 0.004462497 0.008540207
-0.013355227 0.0023870915 -0.0026765007 -0.003498514 -0.0009335681 0.0063245203 0.009864229 -0.0016251964
0.00076386763 0.018530332 0.013324816 0.0038870901 -0.017730417 0.005358255 0.0135969585 0.011514895
-0.0029625676 0.0032275866 -0.013244613 0.01176234 0.0008668202 -0.016712675 0.019660642 0.013216085
-0.0021318407 0.0069642216 -0.003558645 -0.015852792 -0.0002552678 -0.007521527 -0.006514085 0.011024265
0.02358846 0.0017873208 0.008121619 0.003806268 -0.001216932 0.001539801 -0.012917852 0.016407046
0.013720382 0.00011583016 0.004004065 -0.004503294 0.017750137 -0.011467775 -0.0047044167 -0.021751098
0.01059074 0.005005301 -0.01115437 -0.008388163 0.005009944 -0.0010218972 0.001622494 -0.014856703
0.005749128 0.0041646073 -0.0035571821 0.012192797 0.0019053934 0.011295566 0.013363191 -0.007353362
0.010973825 0.01287117 -0.0021003848 0.009594755 0.017737512 -0.009028435 0.0054670484 -0.019027267
0.003530783 -0.004426217 0.0028220967 -0.012390194 -0.009960497 0.000867987 0.0027199138 0.01917767
0.011411161 0.00092945574 -0.015649369 0.0144043295 -0.011563519 -0.0015074617 0.0014500534 0.020088654
-0.017937128 -0.008538544 0.013541498 -0.004568413 0.004749585 0.011852136 0.008397707 0.0045686685
0.010565898 0.013768034 -0.008051976 -0.016196541 0.009031092 -0.0033909173 -0.00050694234 0.0005753622
0.0061362353 0.007074302 0.0036822625 0.017480232 -0.017881002 -0.0045586126 0.0137044275 -0.013667767
-0.0014290691 -0.015185607 0.014588853 -0.013477929 -0.014248802 0.0012195715 -0.001425081 0.01075378
00000000: 633e b9bb aaee 233b ebe3 edbb d8db 36bc
00000010: 64ff 77bc 21fb 6539 2abd 45bc eb6d 353c
00000020: 7f09 6ebc ccad 65bc 280d 6f3c c306 423c
00000030: 0ca0 863c d646 95ba 5e0b 183b e3c4 4abc
00000040: aa23 f0bb 490a daba b502 383c a297 893c
00000050: d1d0 883b 9835 683b f8a5 83bb e0e6 20bb
00000060: 00f2 9f3c 725f a83b 36da bd38 3103 cebb
00000070: 9853 563c 682d 3ebc c772 ac3b ba02 efb9
00000080: 08ed 1bbb a016 46bc c83f 2cbc 9fe7 38bc
00000090: 208e 703c 76b0 6ebc 806a 96bb ee12 233c
000000a0: 60d3 3f3c 473b 95bc 093c abbb 2ff3 24bc
000000b0: 0f9e 743c a71d 883c 0490 7f3c a3e7 ab3b
000000c0: 84cf 5cbc 87e6 1ebc 71f8 1bb9 0c97 88bc
000000d0: 16a7 3dbc 88ae 84bb 350f 833c 9326 c03b
000000e0: 0d72 043c 7d58 28bb 29ff 96bb 7245 433c
000000f0: 0c61 3b3c fb1e 33bb 5a2a 6abc 6cdf 55bb
00000100: 918f a73b 3add bdbc bd35 243c d2ef 76bc
00000110: 5bda 91bb 33a4 1dbc 4ece b63b 4952 0d3c
00000120: 84bd 47bc c318 45ba b129 43bc 208b 1fba
00000130: 3ac0 843b 1c69 43bc 923e 0fbb 68ff bb3b
00000140: 8c89 333b 95b6 c8bb e874 f1ba f723 e73b
00000150: 80c6 cc3b 91d9 90bc 9c1b 543c 0233 ffbb
00000160: 9949 d139 eaf0 4f3b e6af 273c a4c2 a53b
00000170: 9845 3ebc d25f b3ba 83ca 93bc b2a2 823b
00000180: e0de a8bb 4087 12bc 4e16 7dbc 070b 483b
00000190: 236b 363c 257f d7b8 3592 08bc fada 9ebc
000001a0: 5ad2 84ba ac32 24bc 6ce6 1bbc bad5 983b
000001b0: 2dbc 8cbb eb9b 183c a374 98bc f9b8 d3ba
000001c0: 45f8 8d3c ab6f 2739 f7b3 9d3c ef3e 193c
000001d0: dbc0 06bc 1a38 7f3b a001 ecbc 3b53 133a
000001e0: fbf2 41bc 8b31 05b9 10bf 863c f4ea 243c
000001f0: a5e4 c4bb 1054 42bc 6d87 0a3c 5a42 82bb
00000200: c73f bd3b c292 72bb a107 ecbb 9001 4f3b
00000210: 2402 46ba ce63 ba3b 233a 923b 39ec 0b3c
00000220: e2cf 5abc c070 1c3b 3b68 2fbb 5347 65bb
00000230: b2ba 74ba ec3d cf3b 939d 213c 8b04 d5ba
00000240: 4a3e 483a eccc 973c 5450 5a3c 8dbe 7e3b
00000250: 613f 91bc 4d94 af3b c7c5 5e3c f8a8 3c3c
00000260: a327 42bb eb85 533b efff 58bc d4b6 403c
00000270: 523b 633a 05e9 88bc 5b0f a13c 4788 583c
00000280: 5ab6 0bbb 2034 e43b 2838 69bb b7dd 81bc
00000290: 77d5 85b9 2477 f6bb 1b74 d5bb 1e9f 343c
000002a0: 963c c13c 8944 ea3a 8a10 053c 9572 793b
000002b0: 7681 9fba 26d3 c93a 66a5 53bc 1268 863c
000002c0: 74cb 603c d8e9 f238 8834 833b 5e90 93bb
000002d0: bc68 913c 56e3 3bbc 8227 9abb 5c2f b2bc
000002e0: c884 2d3c 8203 a43b d2c0 36bc 816e 09bc
000002f0: 752a a43b 2ef1 85ba dda9 d43a 8769 73bc
00000300: 2e63 bc3b 4277 883b 9d1f 69bb 4cc4 473c
00000310: 65be f93a 0a11 393c 49f1 5a3c 79f4 f0bb
00000320: 8fcb 333c 9ae1 523c 9ca6 09bb 5233 1d3c
00000330: 424e 913c 00ec 13bc ed24 b33b 12df 9bbc
00000340: b664 673b cd09 91bb edf2 383b 3e00 4bbc
00000350: 5a31 23bc 9f89 633a 9540 323b 7d1a 9d3c
00000360: e1f5 3a3c b8a6 733a 1b33 80bc 2300 6c3c
00000370: ea74 3dbc 0596 c5ba b80f be3a f690 a43c
00000380: e2f0 92bc 40e5 0bbc 29dd 5d3c a0b2 95bb
00000390: 68a2 9b3b 762f 423c 8996 093c c5b4 953b
000003a0: 971c 2d3c 5293 613c 6fec 03bc 9cae 84bc
000003b0: 25f7 133c 273a 5ebb 53e4 04ba e7d3 163a
000003c0: 7912 c93b 8ccf e73b 1d52 713b b432 8f3c
000003d0: 2e7b 92bc 6a60 95bb 8988 603c c5ee 5fbc
000003e0: 9a4f bbba 0dcd 78bc 1606 6f3c 88d2 5cbc
000003f0: cf73 69bc 07da 9f3a c9c9 baba 9f30 303c

density_estimator_head.bias f4 [11]
-0.034339864 -0.025716756 -0.0127166435 -0.0063654613 -0.004007706 -0.0019607225 0.00080203166 0.004119708
0.01368893 0.036515664 0.029980643
00000000: f5a7 0cbd f2ab d2bc 7859 50bc 5c95 d0bb
00000010: 1353 83bb 777f 00bb 6f3f 523a 9efe 863b
00000020: 8947 603c 7391 153d f799 f53c

Q1.0.weight f4 [50, 50, 5]
0.25434035 0.12462892 -0.60424834 -0.5147871 -1.0836082 -0.50744694 0.62296957 0.61241126
-1.9778352 -1.6290779 -0.7444685 -1.339805 0.47843558 -0.17277913 -0.0059994287 -0.66708964
-0.056946937 -0.23038845 0.46650574 0.56004256 -0.7473169 1.5421007 0.7727186 1.0771676
0.8148336 2.8247018 -0.92048186 -1.3036531 -0.0732007 1.8159016 -1.709245 -2.0319207
-0.34817168 1.024318 0.3891228 1.4722546 -0.13069813 -0.747266 1.0869555 0.5656376
0.32451943 0.0056236056 0.406114 -0.3314729 -1.7986865 -0.69441265 -0.24802144 -1.8858348
-0.58288765 -0.4579458 0.7036438 -0.8356378 0.8352756 -1.2024719 -0.4852449 0.6746959
2.6766284 0.1469923 1.8597515 -0.1095274 -0.57648057 -0.0742827 0.17168963 0.32879332
0.78569335 -0.4034997 -0.07527645 -0.06368854 -0.51469535 2.131602 -0.10645887 1.7462969
-0.5018027 -0.30932176 0.41569203 1.0344651 -0.20263536 1.2660767 -0.36585945 -0.15121828
0.017271625 1.5577126 -0.23590992 -0.55918074 -0.17945781 -1.0531102 -1.0322489 0.25484258
0.7604283 -0.100520305 0.44927657 1.6927745 -0.50649875 0.2760897 -0.2955341 -0.3848965
2.0235186 -1.0328114 -1.9589144 0.121088944 1.4145142 -0.40723997 -0.12526858 -0.8359476
-0.500705 0.64088446 -3.1529264 -0.36728543 0.6540664 0.050227348 -0.046684716 1.5373423
-0.43620393 0.4223581 -0.06902822 -0.0328731 -1.0538385 -1.2162706 1.912403 0.2790779
-0.061426863 -0.8719732 1.744084 -0.4744895 1.6306875 0.33615708 0.93720317 -1.404134
-0.9096857 -1.4687426 -0.6760739 2.0936384 -1.0864897 -0.4558338 -0.16110574 -1.4993389
-0.62508726 -1.1184963 -1.0884515 0.44601512 -0.9176606 -0.47458348 -0.7910524 0.07329161
-0.56995946 -1.1422294 -0.30731726 -0.42113554 -0.8887188 0.27183375 1.505706 -1.5658374
-0.5560423 -0.32473364 -1.8557851 -0.7007963 -1.106398 1.3251355 -0.020751376 -0.23261175
0.78966105 0.9434512 -1.3958777 1.2329835 -0.25726306 0.97853106 0.74410355 0.18808728
0.82927316 0.738476 -0.09267462 0.3351355 1.5341232 -1.367729 0.80789125 -0.3243818
-1.3503147 0.2782926 -1.7272243 0.34814522 -1.0971667 -1.2431742 -0.9844698 -0.011420634
0.08035008 -0.5843806 0.6721649 -1.5132198 0.41477066 -0.70097905 0.3766436 0.017267369
-0.079218216 -1.1195151 -1.2394342 -0.6980083 0.17814216 1.2476953 -0.3847876 -0.49818796
-1.2947537 0.20763159 -0.017101914 -0.3325743 -0.44827 0.7089082 0.24386021 0.37244678
-0.6475179 -0.27378663 -0.16699055 -0.25660834 0.53673404 -1.6384969 0.5029629 -1.498341
0.13900954 0.5206046 1.5297606 0.2348569 0.1637891 0.3821457 -2.5224602 1.7795565
-0.78264904 -2.3115897 0.3678829 -1.3384228 1.1039051 0.6122865 0.7369735 0.13762872
0.3651887 -0.030785292 -1.7510957 -1.3635226 -0.017861733 0.59796494 2.208537 0.8516977
-1.0590218 -0.55825204 1.0128708 -0.22992022 0.88739717 -0.45245934 -0.2877565 0.9645952
-0.44273797 0.16986619 0.523514 -1.0195485 0.34929636 1.853954 0.27600864 1.8258773
00000000: e638 823e 723d ff3d 05b0 1abf 16c9 03bf
00000010: acb3 8abf 0be8 01bf ef7a 1f3f fcc6 1c3f
00000020: b429 fdbf a085 d0bf 7d95 3ebf bb7e abbf
00000030: 82f5 f43e 03ed 30be db96 c4bb 63c6 2abf
00000040: 3141 69bd f3ea 6bbe d7d9 ee3e f35e 0f3f
00000050: 2950 3fbf 8e63 c53f e3d0 453f a1e0 893f
00000060: ef98 503f eac7 3440 b3a4 6bbf 1bde a6bf
00000070: 40ea 95bd 776f e83f 8ac8 dabf fd0a 02c0
00000080: 8f43 b2be da1c 833f 1b3b c73e d772 bc3f
00000090: bbd5 05be d34c 3fbf 5c21 8b3f a0cd 103f
000000a0: 6927 a63e 3946 b83b 2dee cf3e d1b6 a9be
000000b0: 5c3b e6bf 07c5 31bf 55f9 7dbe 0963 f1bf
000000c0: 2038 15bf df77 eabe 0022 343f 5cec 55bf
000000d0: 9fd4 553f 99ea 99bf 0572 f8be dfb8 2c3f
000000e0: e14d 2b40 2685 163e 560c ee3f e74f e0bd
000000f0: 3b94 13bf 8721 98bd 68cf 2f3e 9957 a83e
00000100: 3323 493f 8397 cebe 8a2a 9abd 236f 82bd
00000110: 13c3 03bf 2b6c 0840 1c07 dabd a886 df3f
00000120: 2476 00bf 6c5f 9ebe 96d5 d43e 5a69 843f
00000130: a57f 4fbe cd0e a23f ee51 bbbe f7d8 1abe
00000140: 397d 8d3c 2063 c73f 5f92 71be 7826 0fbf
00000150: cac3 37be 51cc 86bf bb20 84bf ba7a 823e
00000160: 6eab 423f 97dd cdbd 9407 e63e d6ac d83f
00000170: e7a9 01bf a15b 8d3e 3f50 97be 2711 c5be
00000180: 5481 0140 2a33 84bf b5bd fabf 7bfd f73d
00000190: cd0e b53f c281 d0be 6846 00be a900 56bf
000001a0: 342e 00bf 0111 243f 8cc9 49c0 d60c bcbe
000001b0: e570 273f 31bb 4d3d 7938 3fbd a2c7 c43f
000001c0: 1f56 dfbe 523f d83e ab5e 8dbd f2a5 06bd
000001d0: 2ee4 86bf c1ae 9bbf 9fc9 f43f 4ce3 8e3e
000001e0: bc9a 7bbd a339 5fbf 253e df3f 4af0 f2be
000001f0: 5eba d03f c81c ac3e 8cec 6f3f aaba b3bf
00000200: 29e1 68bf c2ff bbbf 2e13 2dbf 2cfe 0540
00000210: 1812 8bbf 0c63 e9be e7f8 24be 56ea bfbf
00000220: b805 20bf e32a 8fbf 6152 8bbf 185c e43e
00000230: ceeb 6abf 9bfc f2be 6982 4abf e919 963d
00000240: dde8 11bf 9334 92bf b058 9dbe 149f d7be
00000250: 1383 63bf cb2d 8b3e f9ba c03f 5c6d c8bf
00000260: ca58 0ebf 7d43 a6be 5e8a edbf 6367 33bf
00000270: 739e 8dbf 0a9e a93f cafe a9bc c631 6ebe
00000280: 3a27 4a3f 0586 713f 1fac b2bf 67d2 9d3f
00000290: fcb7 83be 0381 7a3f 927d 3e3f f499 403e
000002a0: 3f4b 543f c30c 3d3f 31cc bdbd e196 ab3e
000002b0: 265e c43f be11 afbf f6d1 4e3f 5f15 a6be
000002c0: 1dd7 acbf 5e7c 8e3e b015 ddbf 1740 b23e
000002d0: f56f 8cbf 5520 9fbf 3606 7cbf 9c1d 3bbc
000002e0: 958e a43d f899 15bf 0013 2c3f 30b1 c1bf
000002f0: d25c d43e 5d73 33bf 6ed7 c03e 4c74 8d3c
00000300: 293d a2bd 454c 8fbf c8a5 9ebf acb0 32bf
00000310: e66a 363e 7bb4 9f3f e102 c5be 7e12 ffbe
00000320: 7dba a5bf 609d 543e 5019 8cbc 2e47 aabe
00000330: a583 e5be 027b 353f 7eb6 793e 58b1 be3e
00000340: bcc3 25bf c32d 8cbe 92ff 2abe 2b62 83be
00000350: 6767 093f 44ba d1bf 2dc2 003f a3c9 bfbf
00000360: 8458 0e3e 5846 053f 32cf c33f 547e 703e
00000370: 54b8 273e 9aa8 c33e fd6f 21c0 82c8 e33f
00000380: b05b 48bf 16f1 13c0 265b bc3e 7051 abbf
00000390: c34c 8d3f cfbe 1c3f 4caa 3c3f 8bee 0c3e
000003a0: 03fa ba3e 7031 fcbc e723 e0bf e987 aebf
000003b0: c552 92bc 3b14 193f ac58 0d40 dc08 5a3f
000003c0: 078e 87bf 9be9 0ebf c0a5 813f 3570 6bbe
000003d0: 762c 633f c0a8 e7be d254 93be b6ef 763f
000003e0: 8dae e2be 67f1 2d3e 0305 063f 9180 82bf
000003f0: f9d6 b23e 5d4e ed3f 0151 8d3e 59b6 e93f

Q1.0.bias f4 [50, 5]
0.00068162923 7.083463e-05 5.923075e-06 1.8105233e-07 0.0 -0.0003734637 0.00053847383 0.00086409826
0.0004635349 0.00010240172 0.0016279733 -0.0020786857 -0.0024172422 -0.0009483528 -0.00013154803 0.013670165
0.00972265 0.010695123 0.005726285 0.0016352175 -0.0026247208 -0.0023083845 -0.002054683 -0.0008170261
-0.000149856 0.0018914045 -0.0009893252 -0.0026095698 -0.0017520216 -0.0004527497 -0.0021352065 -0.002188539
-0.0020783045 -0.0008675574 -0.0001759939 0.0010821733 -2.3577664e-05 -2.3161769e-05 0.00010203573 7.773505e-05
-0.0042557567 -0.0039454973 -0.0036287277 -0.0014867671 -0.00028037463 0.021798428 0.020377817 0.022343459
0.011238893 0.0029077996 0.022031352 0.02161337 0.022805318 0.010921677 0.002672884 -0.0012378903
-0.0025070745 -0.002574347 -0.0010502904 -0.00017099806 0.001161749 0.0012519635 0.001319495 0.00062079873
0.00017348964 0.018213399 0.018832937 0.020531394 0.010077278 0.0025081674 -0.0006129234 -0.00074474415
-0.00055048283 -3.9886105e-05 0.0 0.0002189894 0.00033866923 0.00023420542 6.5154934e-05 1.2909621e-07
0.0020866261 0.0032726894 0.002514677 0.0006283294 -1.3822703e-05 -0.0031618515 -0.0050632283 -0.0028691904
-0.00032599914 -2.7311044e-05 0.01891258 0.01814012 0.018360592 0.008433483 0.00198031 0.0
0.0 0.0 0.0 0.0 0.018726071 0.017175691 0.018012991 0.008692925
0.0021718233 0.0018070497 -0.0015137056 -0.0019668085 -0.00081259455 -0.000116765375 -0.0046987394 -0.0031559211
-0.0027566263 -0.0011519351 -0.00023300188 -0.002914603 -0.0026795377 -0.00249283 -0.0010419786 -0.00022463032
-0.004661998 -0.0012972772 -0.00047331103 -1.8500985e-05 0.0 -0.00060948514 -0.0003111378 -0.00022126563
-7.746668e-05 -1.5484318e-05 0.015759785 0.017357135 0.018550443 0.008813344 0.0020959994 0.018890223
0.018245906 0.019461315 0.009457792 0.0023568077 -0.00608445 -0.0040251273 -0.0031964926 -0.001187928
-0.00022038932 -0.002818263 -0.002660954 -0.0025207263 -0.0010713557 -0.00023460064 0.0 0.0
0.0 0.0 0.0 0.015472767 0.013640467 0.0150455935 0.0077006053 0.0020442966
-0.000102521204 -6.573263e-05 -3.691387e-05 -4.8101965e-06 7.7576635e-07 0.0014358857 0.00021111942 3.807786e-05
6.8257077e-06 -2.701165e-07 -0.0010144584 -5.843811e-05 0.0004891348 0.00040634218 0.00012759824 0.00057378446
-0.00097650936 -0.0009964948 -0.0003246241 -4.7683903e-07 0.0169168 0.015666919 0.01911111 0.010576971
0.0030004685 -0.00139989 -0.0013522154 -0.0013080048 -0.0005678799 -0.000132765 0.00011136381 9.010843e-05
-4.2636086e-05 -6.5065535e-05 -3.960136e-06 -0.00039247994 -0.0024476887 -0.0018269531 -0.00037362846 1.443375e-05
-0.004548456 -0.0042438386 -0.0037246146 -0.0014241936 -0.0001907733 0.007842963 0.005507348 0.00539712
0.0025962472 0.0006850691 8.756031e-05 2.4413022e-05 -0.00014921142 -0.00017170387 -5.2005656e-05 0.0002747098
-0.0013224606 -0.00029362302 0.00059318176 0.00036355385 -0.0005985764 -0.0012384343 -0.0022184497 -0.0014669476
-0.000448475 0.01952688 0.018501403 0.019836338 0.009730426 0.002448373 -0.0011147823 0.0011381654
0.0014370582 0.00065195654 0.00010737072 -0.0010365588 -0.00013465561 -1.0147041e-05 4.363957e-06 1.0804987e-06
0.00028971746 0.0003028058 0.00031252948 0.00014421996 3.904347e-05 0.0030714283 0.0032258157 0.0014982972
-0.000291114 -0.00039631486
00000000: 5daf 323a 0d8d 9438 d4be c636 4967 4234
00000010: 0000 0000 73cd c3b9 5e28 0d3a a784 623a
00000020: 9a06 f339 81c0 d638 b861 d53a 8f3a 08bb
00000030: 986a 1ebb e19a 78ba 28f0 09b9 d4f8 5f3c
00000040: c04b 1f3c 993a 2f3c 8fa3 bb3b cb54 d63a
00000050: 8203 2cbb 4448 17bb dca7 06bb b22d 56ba
00000060: aa22 1db9 01e9 f73a 3fac 81ba 5105 2bbb
00000070: 17a4 e5ba 095f edb9 d2ee 0bbb 976d 0fbb
00000080: 2a34 08bb cb6c 63ba 018b 38b9 b6d7 8d3a
00000090: a6c8 c5b7 854b c2b7 04fc d538 b005 a338
000000a0: e073 8bbb 3b49 81bb f3cf 6dbb a0df c2ba
000000b0: 3fff 92b9 9e92 b23c 61ef a63c a109 b73c
000000c0: 5523 383c c890 3e3b 187b b43c 860e b13c
000000d0: 38d2 ba3c d5f0 323c 8d2b 2f3b b540 a2ba
000000e0: bb4d 24bb 60b6 28bb e6a9 89ba f14d 33b9
000000f0: d445 983a ed18 a43a e8f2 ac3a 19bd 223a
00000100: c5ea 3539 4434 953c 8847 9a3c 7431 a83c
00000110: 2b1b 253c 1160 243b 98ac 20ba ef3a 43ba
00000120: 474e 10ba 614b 27b8 0000 0000 85a0 6539
00000130: 6a8f b139 0a95 7539 caa3 8838 b29d 0a34
00000140: c7bf 083b 9e7a 563b 47cd 243b 79b6 243a
00000150: 0fe8 67b7 1137 4fbb 70e9 a5bb 0709 3cbb
00000160: ddea aab9 051a e5b7 8eee 9a3c 979a 943c
00000170: f468 963c 972c 0a3c 17c8 013b 0000 0000
00000180: 0000 0000 0000 0000 0000 0000 0000 0000
00000190: 6b67 993c 09b4 8c3c fb8f 933c c56c 0e3c
000001a0: 2655 0e3b 87da ec3a 8867 c6ba 92e5 00bb
000001b0: 4c04 55ba efdf f4b8 e2f7 99bb 92d3 4ebb
000001c0: 84a8 34bb 87fc 96ba f751 74b9 ed02 3fbb
000001d0: 2f9b 2fbb bf5e 23bb 0093 88ba be8a 6bb9
000001e0: acc3 98bb 6609 aaba bb26 f8b9 9032 9bb7
000001f0: 0000 0000 dbc5 1fba 3520 a3b9 8a03 68b9
00000200: 9b75 a2b8 52e4 81b7 aa1a 813c 8d30 8e3c
00000210: 19f7 973c d865 103c 095d 093b abbf 9a3c
00000220: 7078 953c 566d 9f3c dbf4 1a3c ac74 1a3b
00000230: 1160 c7bb 37e5 83bb 3f7c 51bb 40b4 9bba
00000240: 4f18 67b9 9bb2 38bb 6663 2ebb c532 25bb
00000250: bb6c 8cba 21ff 75b9 0000 0000 0000 0000
00000260: 0000 0000 0000 0000 0000 0000 7d81 7d3c
00000270: 447c 5f3c cb81 763c 5c55 fc3b 9bf9 053b
00000280: a700 d7b8 f0d9 89b8 f7d3 1ab8 4667 a1b6
00000290: 423e 5035 5434 bc3a f05f 5d39 cab5 1f38
000002a0: 6208 e536 8704 91b4 93f7 84ba 711b 75b8
000002b0: 4839 003a 530a d539 e4cb 0539 066a 163a
000002c0: 6ffc 7fba d19c 82ba 4f32 aab9 2100 00b5
000002d0: 1a95 8a3c e957 803c e78e 9c3c 084b 2d3c
000002e0: 82a3 443b 847c b7ba d23c b1ba 5c71 abba
000002f0: c6dd 14ba d536 0bb9 fe8b e938 98f8 bc38
00000300: 26d4 32b8 cb73 88b8 4fe1 84b6 c4c5 cdb9
00000310: 6769 20bb 6076 efba 90e3 c3b9 7c28 7237
00000320: 370b 95bb e60f 8bbb aa18 74bb 02ac baba
00000330: 510a 48b9 c57f 003c fc76 b43b 53da b03b
00000340: cd25 2a3b 3696 333a 95a0 b738 91ca cc37
00000350: a375 1cb9 680b 34b9 a620 5ab8 ed06 9039
00000360: 6a56 adba 6af1 99b9 c17f 1b3a 5f9b be39
00000370: c8e9 1cba f652 a2ba 6963 11bb 9846 c0ba
00000380: 4c21 ebb9 d6f6 9f3c 4190 973c d17f a23c
00000390: 5d6c 1f3c e274 203b e31d 92ba 7e2e 953a
000003a0: ac5b bc3a 10e8 2a3a 372c e138 24dd 87ba
000003b0: 5732 0db9 363d 2ab7 1b6e 9236 a705 9135
000003c0: 38e5 9739 e8c1 9e39 ffda a339 c039 1739
000003d0: 9bc2 2338 044a 493b 3568 533b 8362 c43a
000003e0: a9a0 98b9 7bc8 cfb9

Q1.1.weight f4 [50, 1, 5]
-0.14515746 -0.74417996 -0.056168053 0.38635135 -0.85755825 0.25054944 -0.3361971 -0.33893603
0.62595916 0.70430845 -0.46250442 -0.37426984 1.4252053 -0.8245758 -0.57924765 -1.5409459
-0.06442242 0.6501428 -0.69022304 1.1962016 1.0308267 0.4883067 -0.15331452 -0.13437581
-0.13017793 0.14075066 -0.9435232 2.4680245 1.9472004 0.49533156 0.7848777 -0.065979265
0.06568402 -0.1976143 0.09556914 -0.35107908 0.18422809 0.06187775 0.16465844 -1.1693953
-0.88575816 1.6343597 -0.2961953 0.40223697 -0.58590037 -1.0146817 -1.2705845 0.06270224
-0.14025939 1.4742082 -0.7594136 -0.30524638 -0.29415348 -1.9120914 0.13629144 -0.13924271
-1.000732 1.538313 0.084630676 -1.200917 1.5702801 -0.13838983 -0.23942265 1.2443742
-0.6273476 -0.197362 -1.9247006 0.24987224 0.091779076 -0.84333146 2.6706507 -0.6509274
0.35277224 -0.0051296963 1.4916345 0.56586015 -0.39977172 0.26438254 0.57592535 -0.68905693
0.47676054 0.28617993 -0.19602269 -1.4031094 -0.47303534 2.5291708 -0.19170971 -1.0666596
0.043191858 0.6084884 -0.5259669 0.41919798 -0.6590021 -1.6951555 -0.91078323 -1.5066766
-0.088422745 -0.50913376 -1.8459374 1.1253611 -0.80110055 -0.24752852 -0.28072667 -0.46926275
-1.2479337 -1.3475626 1.6941978 0.11328521 -0.41930103 0.024348352 0.4889569 0.8260432
0.6242198 0.085668586 -1.2378353 1.0289181 1.5266237 1.0337722 -0.49119493 0.68592703
1.6070447 -0.9478937 1.2433889 -0.49276072 -1.0261647 0.06897703 2.2495244 -0.84659415
1.3162129 1.1326585 0.09370751 -1.0944792 -0.5369787 -0.3215123 0.2883596 -0.64252806
-0.40833762 -0.8974294 0.5441631 -0.9255562 0.75039744 2.401605 0.866734 -1.6660599
-2.5766668 -0.009040273 0.4480688 1.3714825 0.066900365 0.19379386 1.3881857 -0.98323184
0.05893376 0.14096358 0.2596862 -0.8577979 -1.4048234 1.0552647 -0.73076147 0.63220257
0.123490155 -0.9713352 1.2071921 -0.87893355 0.6055532 -1.0886108 0.27090406 1.1441944
0.09418741 -0.61892223 -0.08504575 -0.7462236 0.5317731 0.2993978 1.128231 -0.6739813
0.8565655 -0.34446597 -1.7973299 0.15973891 -1.8494116 -0.25533628 -0.9841328 -0.2934336
2.0729473 -0.23453796 0.5291912 0.0629995 -0.012902983 0.3459524 -0.1741319 -0.38156536
0.120920785 0.25834203 1.2244785 1.4188081 -0.0904137 -0.14448853 0.3584881 0.26100758
0.4464768 1.2109381 0.056963246 0.2902976 0.046230953 -0.8664179 0.9695677 -0.22158843
-1.0135561 0.49448428 0.12657444 -0.008224386 0.6789833 -1.4991364 0.88625234 -0.42455086
-1.4258201 1.0945425 1.2264762 0.9690572 0.6840329 0.40771353 -0.5727075 -0.028676255
-1.8549796 -0.8966751 -0.1616122 -0.78851163 -0.507707 1.4820663 1.0530394 -1.8801358
0.4023927 0.14989245 2.503188 2.0019104 -0.48009452 -1.1799303 -1.2857534 -0.03709535
1.6811125 -1.7402539 -0.42791408 0.6931463 -0.08779119 0.5062759 1.203388 -0.8377452
-0.63727134 -0.23436323
00000000: 28a4 14be 9482 3ebf 7910 66bd d8cf c53e
00000010: f088 5bbf 0448 803e 0722 acbe 0689 adbe
00000020: dc3e 203f 8f4d 343f 61cd ecbe 4ca0 bfbe
00000030: 216d b63f 6617 53bf 9349 14bf b73d c5bf
00000040: e7ef 83bd c26f 263f 75b2 30bf 221d 993f
00000050: 21f2 833f 5603 fa3e 7bfe 1cbe d099 09be
00000060: 5d4d 05be f120 103e bd8a 71bf 1df4 1d40
00000070: dd3d f93f 199c fd3e bfed 483f 2320 87bd
00000080: 5885 863d 675b 4abe c1b9 c33d a3c0 b3be
00000090: 4aa6 3c3e 8673 7d3d 399c 283e bfae 95bf
000000a0: 0cc1 62bf b332 d13f e9a6 97be 01f2 cd3e
000000b0: 91fd 15bf 17e1 81bf 83a2 a2bf 086a 803d
000000c0: 28a0 0fbe dbb2 bc3f ee68 42bf 4149 9cbe
000000d0: 499b 96be 69bf f4bf fc8f 0b3e a495 0ebe
000000e0: fc17 80bf 71e7 c43f d952 ad3d a6b7 99bf
000000f0: f0fe c83f 10b6 0dbe 362b 75be a747 9f3f
00000100: da99 20bf 4419 4abe 975c f6bf 82de 7f3e
00000110: abf6 bb3d 92e4 57bf f1eb 2a40 2ea3 26bf
00000120: 909e b43e 0317 a8bb e1ed be3f 36dc 103f
00000130: e1ae ccbe 265d 873e d86f 133f 0966 30bf
00000140: f519 f43e 2d86 923e 2cba 48be 1799 b3bf
00000150: b031 f2be efdd 2140 8d4f 44be 4d88 88bf
00000160: f2e9 303d e5c5 1b3f c4a5 06bf 1ea1 d63e
00000170: 5db4 28bf dbfa d8bf 1729 69bf c7da c0bf
00000180: fc16 b5bd 9756 02bf ad47 ecbf d50b 903f
00000190: ed14 4dbf 1e78 7dbe 68bb 8fbe 3543 f0be
000001a0: 4bbc 9fbf ee7c acbf 79db d83f 1402 e83d
000001b0: a0ae d6be 3276 c73c 8f58 fa3e 9177 533f
000001c0: decc 1f3f 0373 af3d 6371 9ebf 97b3 833f
000001d0: 6868 c33f a652 843f e77d fbbe ea98 2f3f
000001e0: a4b3 cd3f 29a9 72bf 5e27 9f3f 224b fcbe
000001f0: 5d59 83bf d443 8d3d 35f8 0f40 65ba 58bf
00000200: aa79 a83f f4fa 903f b9e9 bf3d e517 8cbf
00000210: 7077 09bf 439d a4be dfa3 933e b87c 24bf
00000220: a111 d1be efbd 65bf 464e 0b3f 40f1 6cbf
00000230: 0c1a 403f e5b3 1940 48e2 5d3f 7341 d5bf
00000240: 1ce8 24c0 a71d 14bc 4669 e53e bd8c af3f
00000250: 0f03 893d e671 463e 12b0 b13f 15b5 7bbf
00000260: 8764 713d c258 103e 97f5 843e a598 5bbf
00000270: 41d1 b3bf ea12 873f 2f13 3bbf 07d8 213f
00000280: 68e8 fc3d 6ca9 78bf 4585 9a3f ca01 61bf
00000290: 8905 1b3f 9957 8bbf f0b3 8a3e f674 923f
000002a0: 54e5 c03d b071 1ebf 772c aebd 8308 3fbf
000002b0: 4822 083f ab4a 993e e069 903f 0a8a 2cbf
000002c0: e047 5b3f d85d b0be e80e e6bf 9992 233e
000002d0: 85b9 ecbf 70bb 82be 21f0 7bbf ee3c 96be
000002e0: 2bab 0440 b82a 70be 1379 073f e205 813d
000002f0: 0967 53bc ac20 b13e a24f 32be 895c c3be
00000300: 51a5 f73d 6845 843e b6bb 9c3f 819b b53f
00000310: d12a b9bd cdf4 13be c18b b73e c9a2 853e
00000320: 9b98 e43e 0500 9b3f 4b52 693d e3a1 943e
00000330: ab5c 3d3d 90cd 5dbf 9735 783f 14e8 62be
00000340: 35bc 81bf 0b2d fd3e bb9c 013e 93bf 06bc
00000350: d9d1 2d3f b4e3 bfbf 6fe1 623f bb5e d9be
00000360: 4681 b6bf f819 8c3f 2cfd 9c3f 2214 783f
00000370: c81c 2f3f d4bf d03e f59c 12bf 77ea eabc
00000380: f96f edbf 808c 65bf ab7d 25be e6db 49bf
00000390: 16f9 01bf 59b4 bd3f ffc9 863f 4aa8 f0bf
000003a0: 6a06 ce3e 687d 193e 3b34 2040 4d1f 0040
000003b0: f3ce f5be f507 97bf 9193 a4bf 4bf1 17bd
000003c0: b22e d73f a4c0 debf 8e17 dbbe 0972 313f
000003d0: decb b3bd 4c9b 013f 9e08 9a3f 7876 56bf
000003e0: 3724 23bf eafc 6fbe

Q1.1.bias f4 [1, 5]
-0.01172953 -0.009294216 -0.010024649 -0.005138664 -0.0013920533
00000000: 372d 40bc c446 18bc 6d3e 24bc 3d62 a8bb
00000010: 8f75 b6ba
