CausalCVR/logs/simu2/eval/7/Vcnet_ckpt.pth.tar (torch, 123067 bytes, 16 tensors)

feature_weight.weight f4 [50, 8]
0	0x3b872bf2	0.0041251117
1	0xbc2985c3	-0.010346833
2	0x3c1af6f3	0.009458291
3	0x3c0d026c	0.008606534
4	0x3c7c1325	0.015385424
5	0xbbd3667b	-0.0064514256
6	0x3724608f	9.7976435e-06
7	0xbc185551	-0.009297685
8	0xbc503be6	-0.012709593
9	0x3c9097c8	0.0176505
10	0xbc0e48ab	-0.008684318
11	0x3bd96ab9	0.006635037
12	0x3ba3ef24	0.005002873
13	0xbb94ee21	-0.0045449887
14	0x3c7067db	0.014673199
15	0xbc1708cb	-0.009218405
16	0x3c88c096	0.016693395
17	0x3c114282	0.008865954
18	0x3b9f0b3e	0.004853635
19	0xbb3161f4	-0.0027066441
20	0xbc545ce3	-0.012961599
21	0x3c46af16	0.012126705
22	0xbbaa0593	-0.005188653
23	0x3c1f949c	0.009740021
24	0xbc3f40e6	-0.011673188
25	0xbbf72efb	-0.0075434423
26	0x3c36240a	0.011116991
27	0x3c8068ef	0.015675036
28	0x3aba5450	0.0014215801
29	0xbad39468	-0.0016142251
30	0x3c817466	0.015802573
31	0xbada9719	-0.0016677111
32	0x3c448acd	0.011995983
33	0x3bac368c	0.005255526
34	0x3c2d413c	0.010574635
35	0xbbd6fc11	-0.0065608104
36	0xbc73c062	-0.014877411
37	0x3cf80535	0.03027592
38	0x3b463dfb	0.0030249346
39	0x3c9c94e7	0.01911397
40	0xbc266d10	-0.010157838
41	0xbbfa5dec	-0.007640591
42	0xbbc93122	-0.0061398903
43	0xbc0bd460	-0.008534521
44	0x3c6a4416	0.0142984595
45	0xbc730f0e	-0.014835132
46	0xbc2d7362	-0.010586591
47	0xbc2d7121	-0.010586054
48	0x3b3611f4	0.0027781697
49	0x3be6a08c	0.0070381816
50	0x3c097d4a	0.008391688
51	0xbaee4458	-0.0018178327
52	0x3c05ea4e	0.008173538
53	0xbbbc4665	-0.0057456964
54	0x3c4119de	0.011785952
55	0xbcb8e690	-0.022570878
56	0x3b1588ae	0.0022817063
57	0x3c4b4a39	0.012407833
58	0xbcab523a	-0.020913232
59	0xbb782959	-0.0037866442
60	0x3b18f643	0.0023340143
61	0x3bad463a	0.0052879127
62	0x3a9eb3da	0.0012108043
63	0x3c646036	0.013938954
64	0x3c40728b	0.011746059
65	0x3c8c1bc8	0.01710309
66	0xbaccee96	-0.0015635069
67	0xbc1f78d5	-0.009733398
68	0xbc95dfc8	-0.018295184
69	0x3bf4c42b	0.007469674
70	0x3c0e520c	0.008686554
71	0x3bda5c18	0.0066638105
72	0x3b0d3ae0	0.0021549985
73	0x3c036fd4	0.008022267
74	0x3c2296b6	0.009923628
75	0xbb721d8b	-0.0036943879
76	0x3bba1d08	0.0056797303
77	0x3add90fd	0.0016904172
78	0x3c5c7fa6	0.013458168
79	0xbc1d6696	-0.009606978
80	0x3b8e5e9e	0.0043447753
81	0xbc93f254	-0.018059887
82	0xbb47cea9	-0.003048817
83	0x3ac7b831	0.0015237388
84	0x3a9dd270	0.0012040865
85	0x3bb95f6e	0.005657128
86	0xbcc57075	-0.024101475
87	0xbbf729a3	-0.0075428053
88	0xbc96009f	-0.018310843
89	0xbc01e533	-0.0079281805
90	0xbbd1a6d3	-0.006398061
91	0x3bbd209e	0.0057717105
92	0xbbc5eb04	-0.006039979
93	0x3ba21d20	0.0049473196
94	0xbca85b2b	-0.020551285
95	0xbc4a8a09	-0.012362012
96	0x3c1b3ee5	0.009475444
97	0xbc897f81	-0.016784431
98	0xbc5d44ce	-0.013505174
99	0xbb9ecae0	-0.004845962
100	0xbc1e32d6	-0.009655675
101	0xbb0bb3ca	-0.002131688
102	0x3b41434f	0.0029489582
103	0x3c825ff5	0.015914897
104	0xbc97a1b8	-0.01850973
105	0xb963c6b6	-0.00021722433
106	0xbb6e36ea	-0.003634865
107	0xbafba57c	-0.0019199098
108	0x3b8fedd0	0.004392363
109	0x3cc8cba5	0.024511168
110	0x3c08dfd2	0.008354144
111	0xbbb47a72	-0.0055077607
112	0xbb6c93a8	-0.0036098752
113	0x3c037b77	0.008025042
114	0xbc2a112e	-0.0103800725
115	0x3cc68bb4	0.024236538
116	0x3b2702a5	0.0025483754
117	0x3ae0f0f7	0.0017161657
118	0x3caa0923	0.02075631
119	0xbc76125a	-0.015019024
120	0xbbea7d02	-0.0071560154
121	0xbacb783d	-0.0015523505
122	0x3c9b98c2	0.018993739
123	0x3be8227b	0.0070841885
124	0xbbc3c80e	-0.005974776
125	0xba52acbb	-0.0008036603
126	0x3b5c3908	0.003360333
127	0xbc3016b2	-0.0107475985
128	0x3c50a9c4	0.012735788
129	0x3c004dd9	0.00783106
130	0x3bbc4fb9	0.0057468084
131	0xbaf6b1d8	-0.0018821312
132	0xbc19cd5b	-0.009387339
133	0xbcb5d7eb	-0.022197684
134	0xbc0e0a83	-0.008669498
135	0x3c6abb3a	0.014326865
136	0x3cf9df87	0.030502094
137	0xbba8510f	-0.005136616
138	0x3c3c43cc	0.011490773
139	0xbb92e294	-0.0044825766
140	0xbc5c955b	-0.0134633435
141	0x3b7b96bb	0.0038389403
142	0x3cda7fce	0.02667227
143	0x3be14786	0.0068749813
144	0xbb5794bf	-0.0032895056
145	0xbacaade0	-0.0015463196
146	0xbbc4321d	-0.0059874193
147	0x3b348f8a	0.0027551376
148	0x3c298767	0.010347224
149	0x3c00811a	0.00784328
150	0xbca847ba	-0.020542014
151	0xbae5c5a0	-0.001753021
152	0x3baca479	0.00526863
153	0xbc1d199b	-0.009588624
154	0xbc3a3939	-0.011366182
155	0x3c8de47a	0.01732086
156	0xbc1296a8	-0.008947052
157	0x3c0015d6	0.007817706
158	0xbc0386ea	-0.0080277715
159	0x3c5937f1	0.013257966
160	0xbb0f5d28	-0.0021875594
161	0xbb884b9e	-0.004159405
162	0xbc086067	-0.008323765
163	0x3c8ca637	0.017169101
164	0x3b9b3931	0.0047370424
165	0xb9f25e68	-0.00046228175
166	0xb944296b	-0.00018707446
167	0xbbf62eea	-0.007512917
168	0xbbd70758	-0.0065621547
169	0x3c5ba874	0.013406862
170	0xbc45ad69	-0.01206527
171	0x3c8b9f70	0.0170438
172	0x39a84ffd	0.00032103053
173	0x3c1851ea	0.009296874
174	0x3c00de46	0.007865494
175	0xbbe2087a	-0.006897983
176	0x3c538834	0.012910891
177	0xbafbefb9	-0.0019221223
178	0x3cdc2ab8	0.026875839
179	0xbb868761	-0.004105494
180	0xbbe51362	-0.006990836
181	0xb99caa76	-0.00029881642
182	0xbc4982a6	-0.012299215
183	0x3c237015	0.009975453
184	0x3bb09d0a	0.0053898143
185	0x3d06effe	0.032943718
186	0x3c09e578	0.008416526
187	0xbab69e5f	-0.0013932696
188	0x3c90d65e	0.017680343
189	0xbc79b038	-0.015239768
190	0xbc3d3e4a	-0.011550495
191	0x3c337ca2	0.010955008
192	0x3a88ee3a	0.0010446974
193	0xbadfd9aa	-0.0017078419
194	0xbc74b394	-0.014935393
195	0xbbcb613d	-0.00620666
196	0xbb8639eb	-0.00409626
197	0x3b572f64	0.0032834643
198	0x3cac901d	0.021064812
199	0xbc385ae5	-0.01125214
200	0x3c47532a	0.012165824
201	0xbc39cf51	-0.011340932
202	0xba60aec5	-0.00085709646
203	0xbb2e7896	-0.0026622168
204	0xbad59817	-0.0016295937
205	0x3be11af7	0.0068696695
206	0x3c58e8e9	0.013239124
207	0x3c455d85	0.012046223
208	0x3ba67af3	0.0050805747
209	0x3b26e239	0.002546443
210	0x37c42bb6	2.3385375e-05
211	0xbca922e5	-0.020646522
212	0x3c533358	0.012890659
213	0x3cbeb0ae	0.023277607
214	0xbb11792a	-0.0022197464
215	0x3b19bbdc	0.002345792
216	0xbbe0b38f	-0.0068573426
217	0x3b21d3b5	0.0024692838
218	0xba0a2861	-0.0005270299
219	0x3b1f2675	0.0024284397
220	0xbbb06df2	-0.0053842003
221	0xbbfbeb7c	-0.007687984
222	0xbc353a10	-0.011061206
223	0x3932a8ae	0.00017038241
224	0xba94e086	-0.0011358417
225	0x3baea08f	0.0053291987
226	0x3bca13d5	0.006166915
227	0xbc3a3759	-0.011365735
228	0xbc11fe88	-0.008910783
229	0x3bfae909	0.0076571745
230	0x3c34393b	0.010999973
231	0xbc965068	-0.018348888
232	0x3c21af10	0.009868398
233	0xbc581d27	-0.013190544
234	0xbc1b99d9	-0.009497129
235	0x3b31e3c3	0.0027143813
236	0x3c81e4c1	0.015856149
237	0xbb627bee	-0.003455873
238	0xbba0c041	-0.004905731
239	0x361d57d2	2.3445941e-06
240	0xbc1ab457	-0.00944241
241	0x3ad6c581	0.0016385765
242	0xbb92fef0	-0.0044859573
243	0x3cbb1df2	0.022841427
244	0x3b9fe6f7	0.004879828
245	0xbc423e1a	-0.0118556265
246	0x3bd8af3c	0.0066126864
247	0xbc8ded9a	-0.017325211
248	0xbc1806a8	-0.009278931
249	0xbc3ceee8	-0.011531569
250	0xbc25b721	-0.010114462
251	0xbbf68724	-0.0075234342
252	0x3c4bd891	0.01244177
253	0x3ab5aa60	0.001385998
254	0x3c551947	0.013006515
255	0x3d0091c1	0.031389

feature_weight.bias f4 [50]
0	0x3a7fe02f	0.0009760884
1	0x38a9e771	8.101657e-05
2	0x3b114bdb	0.0022170458
3	0x3a3e66b6	0.000726323
4	0x3b5c235a	0.0033590407
5	0x00000000	0.0
6	0x3b7f5759	0.0038961975
7	0xbae403a2	-0.0017396102
8	0x3bd264c1	0.006420702
9	0xba7fccf5	-0.0009758019
10	0x39d1330d	0.00039901622
11	0x00000000	0.0
12	0x3a636521	0.0008674432
13	0x3b050a1e	0.002030022
14	0x3b4d121a	0.0031291307
15	0xbb4e8d34	-0.003151727
16	0x3b6a7c4f	0.003577966
17	0x3b1a78ac	0.0023570461
18	0x3b19dd61	0.00234779
19	0x3a6d4fcc	0.0009052723
20	0x3b87914b	0.0041371933
21	0x3811ce75	3.4762972e-05
22	0x3b0194ce	0.0019772532
23	0xb93f675b	-0.00018253682
24	0xb90c62e2	-0.00013388277
25	0x3a5f251c	0.00085123046
26	0x3ad39789	0.0016143183
27	0x00000000	0.0
28	0xba20fec3	-0.0006141478
29	0x3a61ef78	0.00086187525
30	0x3baea27c	0.0053294282
31	0xb9fe5749	-0.00048511688
32	0xba218f10	-0.00061629806
33	0xb992fc00	-0.00028035045
34	0xbaf3e4ae	-0.001860758
35	0x39a395bc	0.00031201344
36	0xbab2cd03	-0.001364142
37	0x3a80b9d1	0.0009821003
38	0x00000000	0.0
39	0x3988fa07	0.00026126226
40	0xba46e2d8	-0.0007586903
41	0x396ec08d	0.0002276918
42	0x39f3415b	0.00046397265
43	0xba859562	-0.0010191614
44	0x39085f56	0.00013005486
45	0xbb1c8403	-0.0023882396
46	0xbab70ff5	-0.0013966548
47	0x3add21db	0.0016871052
48	0xbacfeff0	-0.0015864354
49	0xb9f50827	-0.00046736115

hidden_features.0.weight f4 [50, 8]
0	0x3b872bf2	0.0041251117
1	0xbc2985c3	-0.010346833
2	0x3c1af6f3	0.009458291
3	0x3c0d026c	0.008606534
4	0x3c7c1325	0.015385424
5	0xbbd3667b	-0.0064514256
6	0x3724608f	9.7976435e-06
7	0xbc185551	-0.009297685
8	0xbc503be6	-0.012709593
9	0x3c9097c8	0.0176505
10	0xbc0e48ab	-0.008684318
11	0x3bd96ab9	0.006635037
12	0x3ba3ef24	0.005002873
13	0xbb94ee21	-0.0045449887
14	0x3c7067db	0.014673199
15	0xbc1708cb	-0.009218405
16	0x3c88c096	0.016693395
17	0x3c114282	0.008865954
18	0x3b9f0b3e	0.004853635
19	0xbb3161f4	-0.0027066441
20	0xbc545ce3	-0.012961599
21	0x3c46af16	0.012126705
22	0xbbaa0593	-0.005188653
23	0x3c1f949c	0.009740021
24	0xbc3f40e6	-0.011673188
25	0xbbf72efb	-0.0075434423
26	0x3c36240a	0.011116991
27	0x3c8068ef	0.015675036
28	0x3aba5450	0.0014215801
29	0xbad39468	-0.0016142251
30	0x3c817466	0.015802573
31	0xbada9719	-0.0016677111
32	0x3c448acd	0.011995983
33	0x3bac368c	0.005255526
34	0x3c2d413c	0.010574635
35	0xbbd6fc11	-0.0065608104
36	0xbc73c062	-0.014877411
37	0x3cf80535	0.03027592
38	0x3b463dfb	0.0030249346
39	0x3c9c94e7	0.01911397
40	0xbc266d10	-0.010157838
41	0xbbfa5dec	-0.007640591
42	0xbbc93122	-0.0061398903
43	0xbc0bd460	-0.008534521
44	0x3c6a4416	0.0142984595
45	0xbc730f0e	-0.014835132
46	0xbc2d7362	-0.010586591
47	0xbc2d7121	-0.010586054
48	0x3b3611f4	0.0027781697
49	0x3be6a08c	0.0070381816
50	0x3c097d4a	0.008391688
51	0xbaee4458	-0.0018178327
52	0x3c05ea4e	0.008173538
53	0xbbbc4665	-0.0057456964
54	0x3c4119de	0.011785952
55	0xbcb8e690	-0.022570878
56	0x3b1588ae	0.0022817063
57	0x3c4b4a39	0.012407833
58	0xbcab523a	-0.020913232
59	0xbb782959	-0.0037866442
60	0x3b18f643	0.0023340143
61	0x3bad463a	0.0052879127
62	0x3a9eb3da	0.0012108043
63	0x3c646036	0.013938954
64	0x3c40728b	0.011746059
65	0x3c8c1bc8	0.01710309
66	0xbaccee96	-0.0015635069
67	0xbc1f78d5	-0.009733398
68	0xbc95dfc8	-0.018295184
69	0x3bf4c42b	0.007469674
70	0x3c0e520c	0.008686554
71	0x3bda5c18	0.0066638105
72	0x3b0d3ae0	0.0021549985
73	0x3c036fd4	0.008022267
74	0x3c2296b6	0.009923628
75	0xbb721d8b	-0.0036943879
76	0x3bba1d08	0.0056797303
77	0x3add90fd	0.0016904172
78	0x3c5c7fa6	0.013458168
79	0xbc1d6696	-0.009606978
80	0x3b8e5e9e	0.0043447753
81	0xbc93f254	-0.018059887
82	0xbb47cea9	-0.003048817
83	0x3ac7b831	0.0015237388
84	0x3a9dd270	0.0012040865
85	0x3bb95f6e	0.005657128
86	0xbcc57075	-0.024101475
87	0xbbf729a3	-0.0075428053
88	0xbc96009f	-0.018310843
89	0xbc01e533	-0.0079281805
90	0xbbd1a6d3	-0.006398061
91	0x3bbd209e	0.0057717105
92	0xbbc5eb04	-0.006039979
93	0x3ba21d20	0.0049473196
94	0xbca85b2b	-0.020551285
95	0xbc4a8a09	-0.012362012
96	0x3c1b3ee5	0.009475444
97	0xbc897f81	-0.016784431
98	0xbc5d44ce	-0.013505174
99	0xbb9ecae0	-0.004845962
100	0xbc1e32d6	-0.009655675
101	0xbb0bb3ca	-0.002131688
102	0x3b41434f	0.0029489582
103	0x3c825ff5	0.015914897
104	0xbc97a1b8	-0.01850973
105	0xb963c6b6	-0.00021722433
106	0xbb6e36ea	-0.003634865
107	0xbafba57c	-0.0019199098
108	0x3b8fedd0	0.004392363
109	0x3cc8cba5	0.024511168
110	0x3c08dfd2	0.008354144
111	0xbbb47a72	-0.0055077607
112	0xbb6c93a8	-0.0036098752
113	0x3c037b77	0.008025042
114	0xbc2a112e	-0.0103800725
115	0x3cc68bb4	0.024236538
116	0x3b2702a5	0.0025483754
117	0x3ae0f0f7	0.0017161657
118	0x3caa0923	0.02075631
119	0xbc76125a	-0.015019024
120	0xbbea7d02	-0.0071560154
121	0xbacb783d	-0.0015523505
122	0x3c9b98c2	0.018993739
123	0x3be8227b	0.0070841885
124	0xbbc3c80e	-0.005974776
125	0xba52acbb	-0.0008036603
126	0x3b5c3908	0.003360333
127	0xbc3016b2	-0.0107475985
128	0x3c50a9c4	0.012735788
129	0x3c004dd9	0.00783106
130	0x3bbc4fb9	0.0057468084
131	0xbaf6b1d8	-0.0018821312
132	0xbc19cd5b	-0.009387339
133	0xbcb5d7eb	-0.022197684
134	0xbc0e0a83	-0.008669498
135	0x3c6abb3a	0.014326865
136	0x3cf9df87	0.030502094
137	0xbba8510f	-0.005136616
138	0x3c3c43cc	0.011490773
139	0xbb92e294	-0.0044825766
140	0xbc5c955b	-0.0134633435
141	0x3b7b96bb	0.0038389403
142	0x3cda7fce	0.02667227
143	0x3be14786	0.0068749813
144	0xbb5794bf	-0.0032895056
145	0xbacaade0	-0.0015463196
146	0xbbc4321d	-0.0059874193
147	0x3b348f8a	0.0027551376
148	0x3c298767	0.010347224
149	0x3c00811a	0.00784328
150	0xbca847ba	-0.020542014
151	0xbae5c5a0	-0.001753021
152	0x3baca479	0.00526863
153	0xbc1d199b	-0.009588624
154	0xbc3a3939	-0.011366182
155	0x3c8de47a	0.01732086
156	0xbc1296a8	-0.008947052
157	0x3c0015d6	0.007817706
158	0xbc0386ea	-0.0080277715
159	0x3c5937f1	0.013257966
160	0xbb0f5d28	-0.0021875594
161	0xbb884b9e	-0.004159405
162	0xbc086067	-0.008323765
163	0x3c8ca637	0.017169101
164	0x3b9b3931	0.0047370424
165	0xb9f25e68	-0.00046228175
166	0xb944296b	-0.00018707446
167	0xbbf62eea	-0.007512917
168	0xbbd70758	-0.0065621547
169	0x3c5ba874	0.013406862
170	0xbc45ad69	-0.01206527
171	0x3c8b9f70	0.0170438
172	0x39a84ffd	0.00032103053
173	0x3c1851ea	0.009296874
174	0x3c00de46	0.007865494
175	0xbbe2087a	-0.006897983
176	0x3c538834	0.012910891
177	0xbafbefb9	-0.0019221223
178	0x3cdc2ab8	0.026875839
179	0xbb868761	-0.004105494
180	0xbbe51362	-0.006990836
181	0xb99caa76	-0.00029881642
182	0xbc4982a6	-0.012299215
183	0x3c237015	0.009975453
184	0x3bb09d0a	0.0053898143
185	0x3d06effe	0.032943718
186	0x3c09e578	0.008416526
187	0xbab69e5f	-0.0013932696
188	0x3c90d65e	0.017680343
189	0xbc79b038	-0.015239768
190	0xbc3d3e4a	-0.011550495
191	0x3c337ca2	0.010955008
192	0x3a88ee3a	0.0010446974
193	0xbadfd9aa	-0.0017078419
194	0xbc74b394	-0.014935393
195	0xbbcb613d	-0.00620666
196	0xbb8639eb	-0.00409626
197	0x3b572f64	0.0032834643
198	0x3cac901d	0.021064812
199	0xbc385ae5	-0.01125214
200	0x3c47532a	0.012165824
201	0xbc39cf51	-0.011340932
202	0xba60aec5	-0.00085709646
203	0xbb2e7896	-0.0026622168
204	0xbad59817	-0.0016295937
205	0x3be11af7	0.0068696695
206	0x3c58e8e9	0.013239124
207	0x3c455d85	0.012046223
208	0x3ba67af3	0.0050805747
209	0x3b26e239	0.002546443
210	0x37c42bb6	2.3385375e-05
211	0xbca922e5	-0.020646522
212	0x3c533358	0.012890659
213	0x3cbeb0ae	0.023277607
214	0xbb11792a	-0.0022197464
215	0x3b19bbdc	0.002345792
216	0xbbe0b38f	-0.0068573426
217	0x3b21d3b5	0.0024692838
218	0xba0a2861	-0.0005270299
219	0x3b1f2675	0.0024284397
220	0xbbb06df2	-0.0053842003
221	0xbbfbeb7c	-0.007687984
222	0xbc353a10	-0.011061206
223	0x3932a8ae	0.00017038241
224	0xba94e086	-0.0011358417
225	0x3baea08f	0.0053291987
226	0x3bca13d5	0.006166915
227	0xbc3a3759	-0.011365735
228	0xbc11fe88	-0.008910783
229	0x3bfae909	0.0076571745
230	0x3c34393b	0.010999973
231	0xbc965068	-0.018348888
232	0x3c21af10	0.009868398
233	0xbc581d27	-0.013190544
234	0xbc1b99d9	-0.009497129
235	0x3b31e3c3	0.0027143813
236	0x3c81e4c1	0.015856149
237	0xbb627bee	-0.003455873
238	0xbba0c041	-0.004905731
239	0x361d57d2	2.3445941e-06
240	0xbc1ab457	-0.00944241
241	0x3ad6c581	0.0016385765
242	0xbb92fef0	-0.0044859573
243	0x3cbb1df2	0.022841427
244	0x3b9fe6f7	0.004879828
245	0xbc423e1a	-0.0118556265
246	0x3bd8af3c	0.0066126864
247	0xbc8ded9a	-0.017325211
248	0xbc1806a8	-0.009278931
249	0xbc3ceee8	-0.011531569
250	0xbc25b721	-0.010114462
251	0xbbf68724	-0.0075234342
252	0x3c4bd891	0.01244177
253	0x3ab5aa60	0.001385998
254	0x3c551947	0.013006515
255	0x3d0091c1	0.031389

hidden_features.0.bias f4 [50]
0	0x3a7fe02f	0.0009760884
1	0x38a9e771	8.101657e-05
2	0x3b114bdb	0.0022170458
3	0x3a3e66b6	0.000726323
4	0x3b5c235a	0.0033590407
5	0x00000000	0.0
6	0x3b7f5759	0.0038961975
7	0xbae403a2	-0.0017396102
8	0x3bd264c1	0.006420702
9	0xba7fccf5	-0.0009758019
10	0x39d1330d	0.00039901622
11	0x00000000	0.0
12	0x3a636521	0.0008674432
13	0x3b050a1e	0.002030022
14	0x3b4d121a	0.0031291307
15	0xbb4e8d34	-0.003151727
16	0x3b6a7c4f	0.003577966
17	0x3b1a78ac	0.0023570461
18	0x3b19dd61	0.00234779
19	0x3a6d4fcc	0.0009052723
20	0x3b87914b	0.0041371933
21	0x3811ce75	3.4762972e-05
22	0x3b0194ce	0.0019772532
23	0xb93f675b	-0.00018253682
24	0xb90c62e2	-0.00013388277
25	0x3a5f251c	0.00085123046
26	0x3ad39789	0.0016143183
27	0x00000000	0.0
28	0xba20fec3	-0.0006141478
29	0x3a61ef78	0.00086187525
30	0x3baea27c	0.0053294282
31	0xb9fe5749	-0.00048511688
32	0xba218f10	-0.00061629806
33	0xb992fc00	-0.00028035045
34	0xbaf3e4ae	-0.001860758
35	0x39a395bc	0.00031201344
36	0xbab2cd03	-0.001364142
37	0x3a80b9d1	0.0009821003
38	0x00000000	0.0
39	0x3988fa07	0.00026126226
40	0xba46e2d8	-0.0007586903
41	0x396ec08d	0.0002276918
42	0x39f3415b	0.00046397265
43	0xba859562	-0.0010191614
44	0x39085f56	0.00013005486
45	0xbb1c8403	-0.0023882396
46	0xbab70ff5	-0.0013966548
47	0x3add21db	0.0016871052
48	0xbacfeff0	-0.0015864354
49	0xb9f50827	-0.00046736115

hidden_features.2.weight f4 [50, 50]
0	0xbbfd2f84	-0.0077266116
1	0x3c117ad8	0.008879386
2	0xbc487e50	-0.0122371465
3	0xbbff8641	-0.0077979867
4	0x3bf681c6	0.0075227944
5	0x3c482457	0.012215695
6	0x3c1064cf	0.008813097
7	0x3c44f7a6	0.012021935
8	0x3b267e62	0.002540492
9	0x3bdfd583	0.0068308725
10	0x3b99486d	0.0046778233
11	0x3c04c221	0.008102925
12	0xbb9c8156	-0.00477616
13	0xbbcd3e08	-0.006263498
14	0x3bbc395e	0.0057441434
15	0xbcd54266	-0.026032638
16	0x3aa6a9b5	0.0012715372
17	0x3c2e4d2f	0.010638519
18	0xbbd10bd5	-0.0063795843
19	0xbc96e69f	-0.018420516
20	0xbb63ce3f	-0.0034760383
21	0x3b04f21f	0.0020285917
22	0x3c566726	0.013086116
23	0xbb38d06a	-0.0028200396
24	0x3bbb1636	0.005709435
25	0x3bc5aa44	0.00603226
26	0x3bab4f36	0.0052279485
27	0x3b88f42d	0.0041794986
28	0x39e74908	0.00044114166
29	0x3c5b7607	0.013394839
30	0xbb602e1c	-0.003420717
31	0x3c95926d	0.018258298
32	0xbc2df53c	-0.01061755
33	0x3ace07a9	0.0015718836
34	0xbcc3eda7	-0.023917032
35	0xbb971820	-0.00461103
36	0xbc1239a0	-0.008924872
37	0x3b66ecee	0.0035236436
38	0xbc199bdd	-0.00937554
39	0x3c4889fc	0.012239929
40	0xbc32f2d6	-0.010922154
41	0x3aa3be0c	0.0012492551
42	0x3bf32611	0.0074203094
43	0x3c6552db	0.013996805
44	0x3b003260	0.0019561276
45	0x3c4bbf38	0.012435727
46	0xbc033f65	-0.00801072
47	0xbbf3aae0	-0.0074361414
48	0x3b541a79	0.0032364412
49	0xbc5881a1	-0.0132145
50	0x3b1360f9	0.002248822
51	0xbb7e11b5	-0.0038767878
52	0xbc22fa35	-0.009947349
53	0x3c19738b	0.0093659265
54	0x39deeebe	0.00042521016
55	0xbb5cdda2	-0.003370144
56	0x3c10b989	0.0088332975
57	0xbb73d79e	-0.0037207375
58	0x3bc846b7	0.0061119455
59	0x3973cd69	0.00023250807
60	0x3b9ef66b	0.0048511527
61	0x3bc32988	0.0059558786
62	0xbbd45e56	-0.0064809723
63	0xbcbada0e	-0.022809055
64	0x3b025538	0.001988722
65	0x3b6bd955	0.0035987694
66	0x3c80efe2	0.015739385
67	0x3abf4680	0.0014593154
68	0xbc194033	-0.009353685
69	0x3c9fb289	0.019494312
70	0xbb04c2af	-0.0020257642
71	0x3bee5b57	0.007274072
72	0xbbde5a19	-0.006785643
73	0xbb8e25f8	-0.0043380223
74	0xbbea8283	-0.0071566715
75	0x3c78e460	0.015191168
76	0x3b079ab1	0.0020691568
77	0x3b0322bb	0.0020009715
78	0x3c0785ae	0.008271618
79	0xbc2f6be4	-0.0107068755
80	0x3b5e1eac	0.0033892794
81	0xbc268a5b	-0.010164822
82	0xbb60a32b	-0.0034276943
83	0x3c5e8d64	0.013583515
84	0xbc8564dd	-0.016283447
85	0xbc61fd21	-0.013793261
86	0x3c2357ca	0.009969661
87	0x3bfcdcf8	0.007716771
88	0xbc46b989	-0.012129196
89	0xbcaabb37	-0.020841224
90	0x3c65abee	0.014018042
91	0x3c09f752	0.008420782
92	0x3b3c5a53	0.002874036
93	0xbb90f714	-0.0044239853
94	0x3a8a17a6	0.0010535612
95	0xbc3a81ad	-0.011383456
96	0xbb4257f9	-0.0029654487
97	0xbc2d7e68	-0.01058922
98	0x3b99435b	0.004677219
99	0x3c1a4797	0.009416482
100	0xbcceb290	-0.02523163
101	0xbc0b7a56	-0.008513054
102	0xbb6f02a2	-0.0036470075
103	0xbb4acee8	-0.003094608
104	0xbc17197f	-0.009222387
105	0xbbff3416	-0.0077881915
106	0xbb35f93d	-0.0027766966
107	0x3bc9f4c5	0.006163212
108	0xbb3fa5d4	-0.0029243128
109	0xbac2ac09	-0.0014852296
110	0x3b810b90	0.003938146
111	0x3b26674c	0.002539116
112	0x3baf6439	0.0053525236
113	0x3b32a102	0.0027256613
114	0x3b5fba5a	0.0034138174
115	0xbb8aaec8	-0.0042322613
116	0xbb6afd4c	-0.0035856543
117	0xbc2207c2	-0.009889545
118	0xbc3a08a6	-0.011354601
119	0x3bcbd756	0.0062207384
120	0x3ba9f504	0.005186679
121	0x3b96454b	0.004585897
122	0x3c67dd1b	0.014151837
123	0xbc8c50a4	-0.017128296
124	0x3c35c121	0.011093409
125	0x3c141447	0.009038038
126	0x3c52245b	0.012826051
127	0x3bb0de3a	0.005397585
128	0x3aee0aa8	0.0018161135
129	0x3b9cd7ce	0.004786468
130	0xbc3c8664	-0.011506651
131	0x3c3ad847	0.011404104
132	0xb756f106	-1.2811512e-05
133	0xbba4f255	-0.005033771
134	0x3915a68b	0.0001427179
135	0x3b8697f0	0.004107468
136	0xbada211a	-0.0016641945
137	0xbc0c2366	-0.0085533615
138	0xbc2cc6a6	-0.010545408
139	0x3bbc7fa0	0.005752519
140	0xbbd023ed	-0.006351939
141	0x3a8d8691	0.001079755
142	0x3a8e060b	0.0010835541
143	0x3b82e8b9	0.003995028
144	0xbbcdd38a	-0.006281321
145	0xbc05f711	-0.008176581
146	0xba9b5423	-0.0011850636
147	0x3b910a8f	0.0044263075
148	0xbb92bba8	-0.004477937
149	0x3ca06ae2	0.019582216
150	0xbbb4fbbc	-0.005523173
151	0x3b473ca2	0.003040113
152	0x3bd3b1e4	0.006460415
153	0xbc7261d7	-0.014793835
154	0xbc3a43aa	-0.011368671
155	0xbc0a9577	-0.008458487
156	0xbaa56ee7	-0.0012621552
157	0x3a60f7bd	0.0008581838
158	0x3c490ac3	0.012270632
159	0xbab593a7	-0.0013853208
160	0xbbf27daf	-0.0074002366
161	0x3c5a3b4c	0.013319802
162	0x3ba094b5	0.0049005398
163	0x3b8167dd	0.003949149
164	0xbc120f87	-0.008914835
165	0xbbc34511	-0.005959161
166	0xbc4883fb	-0.012238498
167	0x3bebd121	0.007196561
168	0x3c5c1304	0.013432268
169	0x3b18f2f6	0.0023338175
170	0x3c3f889a	0.011690283
171	0x3bd33fc0	0.0064468086
172	0x3c23141c	0.009953525
173	0x3c900eb0	0.017585129
174	0x3c8edcc1	0.017439248
175	0x3c302695	0.010751386
176	0x3c1822e6	0.009285664
177	0x3a37144a	0.00069839193
178	0xbbc0862f	-0.005875371
179	0x3ba6a2a4	0.0050853062
180	0x3a8f1b23	0.0010918122
181	0xbbdb94ba	-0.006701079
182	0x3bfe052d	0.007752082
183	0x3c11ba22	0.008894475
184	0xbba43685	-0.005011382
185	0xbbafb6be	-0.0053623607
186	0xbb711285	-0.003678472
187	0xbbd92551	-0.006626763
188	0xba4aa2dc	-0.00077299564
189	0xbbb0010b	-0.005371218
190	0xbc0efdc7	-0.008727497
191	0x3c3ff18e	0.011715306
192	0x3c1021d5	0.008797129
193	0x3c02368d	0.007947576
194	0x3bd9e6df	0.0066498364
195	0xbb0bfbc8	-0.002135979
196	0xba231a20	-0.00062218495
197	0xbca49b8d	-0.020093704
198	0x3c7807f7	0.015138618
199	0x3b6b8e6d	0.0035943047
200	0xbb67660e	-0.0035308632
201	0xbb81be21	-0.0039594327
202	0x3bf49528	0.00746407
203	0x3c2186d4	0.009858806
204	0x3c3a87b9	0.011384898
205	0xba516e35	-0.00079891394
206	0xbc57ab4b	-0.013163398
207	0xbb80302d	-0.003911993
208	0xbb9d2cdf	-0.004796609
209	0xbc98123c	-0.018563382
210	0xbb25f284	-0.0025321553
211	0xbb005ec8	-0.0019587744
212	0x3b5d597b	0.0033775258
213	0xbc0e2c2f	-0.008677526
214	0xbd0db5ae	-0.03459709
215	0xbc3693bd	-0.011143622
216	0xba0daa08	-0.000540406
217	0xbbd7b88b	-0.0065832785
218	0xbc239a5a	-0.009985531
219	0xbcb8ea32	-0.02257261
220	0x3b164e33	0.0022934794
221	0x3c2a64dc	0.010400023
222	0x3c172615	0.009225388
223	0x3c09f28d	0.008419645
224	0x3ab2e9fe	0.0013650057
225	0x3b90e671	0.004422002
226	0xbca037e7	-0.019557906
227	0x3bae1ff0	0.005313866
228	0x3c16975e	0.009191362
229	0xbbacc63a	-0.005272654
230	0x3bc23a4f	0.005927361
231	0xbc1ebf55	-0.009689172
232	0x3ac0f362	0.0014720971
233	0xbc26369f	-0.010144859
234	0x3b2d30a6	0.0026426702
235	0xbbd2c1c5	-0.0064317905
236	0xbb873d54	-0.004127184
237	0xbb3e7a34	-0.0029064538
238	0x3b85dce3	0.0040851696
239	0x3b402b0d	0.0029322535
240	0xbc21b4ea	-0.009869793
241	0x3c9ebe8e	0.019377973
242	0x39bfb9ef	0.0003656889
243	0xbcc5554d	-0.024088526
244	0xbce2a704	-0.02766753
245	0xbc8fd5c4	-0.017557986
246	0x3ba8645d	0.0051389174
247	0xbc646777	-0.013940684
248	0x3c7f4d6a	0.015582422
249	0xbc487cdf	-0.012236803
250	0xbc8e43d1	-0.017366322
251	0x3b0063a0	0.001959063
252	0x3b033107	0.0020018236
253	0x3b0beb0c	0.0021349816
254	0x3c959a5b	0.018262079
255	0xbb8b7375	-0.004255707

hidden_features.2.bias f4 [50]
0	0xbb024d05	-0.0019882333
1	0xbb0dce43	-0.0021637834
2	0xb9d908ca	-0.00041396014
3	0xbbc30d77	-0.005952533
4	0x00000000	0.0
5	0xbb8a971e	-0.0042294404
6	0xb9609de8	-0.0002142113
7	0x3cfb828b	0.030701896
8	0x3cead7bb	0.028667321
9	0x00000000	0.0
10	0x3cdd95e3	0.02704901
11	0x3cef703d	0.029228324
12	0xb9ffe2ba	-0.00048806315
13	0x3cebc7d4	0.028781809
14	0xbb684ad1	-0.0035444985
15	0x00000000	0.0
16	0x00000000	0.0
17	0xbb181b20	-0.0023209527
18	0x3d016d98	0.031598657
19	0xbac52c3f	-0.0015043094
20	0x3c8aa6fd	0.01692533
21	0xbbbabd4a	-0.0056988345
22	0xbb25bfd2	-0.0025291336
23	0xbb028045	-0.001991288
24	0xbb1aac28	-0.0023601148
25	0xb8c6992c	-9.469906e-05
26	0xbbd3435e	-0.00644724
27	0x3ca222b2	0.019791935
28	0x00000000	0.0
29	0x3bbfe816	0.005856524
30	0xbaf08410	-0.0018349905
31	0xbb814d3b	-0.003945974
32	0xb9d6a550	-0.00040940428
33	0xbb45161d	-0.0030072995
34	0xbb721c05	-0.003694297
35	0xbab91df1	-0.0014123303
36	0xbb1444ec	-0.0022624088
37	0xbad0a99d	-0.0015919689
38	0xbb14da4a	-0.0022713118
39	0x3cb07ece	0.02154484
40	0xbaa89f42	-0.0012864845
41	0x3a916b66	0.0011094629
42	0x3c2bb26d	0.010479552
43	0xbba7c672	-0.005120092
44	0xbb909f98	-0.0044135563
45	0x3a9506ee	0.0011369863
46	0xbb3bec23	-0.0028674684
47	0x00000000	0.0
48	0x00000000	0.0
49	0xbb1099d1	-0.0022064338

density_estimator_head.weight f4 [50, 11]
0	0xbb84bb61	-0.0040506576
1	0x3c6a6293	0.0143057285
2	0x3bb74bef	0.005593769
3	0x3bc7709e	0.006086423
4	0xbc3dc6a2	-0.011583002
5	0xbb89ac96	-0.004201482
6	0xbbbf4a47	-0.005837712
7	0x3acca903	0.0015614334
8	0xbb1b59eb	-0.0023704718
9	0xbaf4f793	-0.0018689506
10	0xbca720e6	-0.02040143
11	0x3c50e4cb	0.012749861
12	0x3bf5cbb2	0.007501089
13	0x3bf48fb0	0.007463418
14	0x3ab75695	0.0013987595
15	0xbca20846	-0.019779336
16	0xbc4ea2a8	-0.012612022
17	0x3b31608f	0.002706561
18	0x3bc46ff7	0.0059947926
19	0xba987caa	-0.0011633832
20	0x3b364a0d	0.0027815134
21	0x3c0a4cdb	0.008441175
22	0x3ae657e8	0.0017573806
23	0x3caeca41	0.021336677
24	0x3c5eb724	0.013593469
25	0xba9f2c8f	-0.0012144017
26	0xbba68e65	-0.0050828927
27	0xb9551054	-0.00020319346
28	0x3c15280a	0.009103784
29	0x3bf20823	0.007386224
30	0x3a27acdb	0.0006396302
31	0xbbf1a4a6	-0.007374364
32	0xb8a9c01a	-8.09433e-05
33	0x3af9e834	0.0019066394
34	0x3a4f7d60	0.00079151057
35	0xbbe428be	-0.0069628647
36	0x3c45869f	0.012056022
37	0x3bdfcdc1	0.0068299477
38	0x3b1568a5	0.0022797969
39	0x3a64bf1c	0.0008725987
40	0xbc298d31	-0.010348604
41	0xbc51843b	-0.012787874
42	0xbbf90f54	-0.007600704
43	0x3afc8f24	0.0019268733
44	0xbb1cc7d3	-0.0023922815
45	0xbb8ea533	-0.0043531894
46	0xbae8c171	-0.0017757845
47	0x3a5ac324	0.0008345118
48	0xbbe6d98b	-0.007044976
49	0xbc95bdd6	-0.018278997
50	0xbc3582b3	-0.011078524
51	0x3c174105	0.00923181
52	0x3bd57988	0.006514732
53	0xbc25fe0e	-0.010131372
54	0x3bca317d	0.0061704502
55	0x3c12c170	0.008957252
56	0x3c2792ef	0.010227903
57	0xbc8d30b6	-0.017235141
58	0xbbc75d22	-0.0060841003
59	0xbc6d2fa5	-0.014476691
60	0xbbe8f9e2	-0.0071098665
61	0x3bc654bf	0.006052583
62	0x3b606bc7	0.0034243928
63	0x3b87b111	0.004140981
64	0xbac62489	-0.001511709
65	0xbc7b53ae	-0.015339775
66	0xbc28f66e	-0.01031266
67	0x3c5871f9	0.013210767
68	0xbbf41427	-0.0074486914
69	0xbc2ffc2c	-0.010741275
70	0x3b85f17d	0.0040876255
71	0x3c87572d	0.01652106
72	0x3ccd48ff	0.025059221
73	0xbc8e5c9e	-0.017378148
74	0x3c8870b9	0.016655313
75	0x3c342277	0.010994545
76	0x3b16a0d1	0.0022984038
77	0x3b5dad6f	0.0033825298
78	0xbbb9c679	-0.0056694117
79	0xbb03c059	-0.0020103662
80	0x3bc587d9	0.006028157
81	0x39b82310	0.00035121338
82	0xbca88172	-0.020569537
83	0xbb71b096	-0.0036878935
84	0xbc565165	-0.013080929
85	0x3b959e12	0.0045659626
86	0x3af7045c	0.0018845904
87	0xbbb1d4d1	-0.005426981
88	0xbc9044d9	-0.017610954
89	0x3b6b715e	0.0035925726
90	0xbbd26809	-0.0064210934
91	0xbc2ee2a0	-0.010674149
92	0x3cbb6516	0.02287535
93	0xbc22c447	-0.0099344915
94	0x3a05c5ed	0.00051030406
95	0x3ab1922a	0.0013547589
96	0xbc2b721b	-0.010464217
97	0xbbb2f6c2	-0.0054615447
98	0x3b4931a3	0.0030699752
99	0xbb4ea9bd	-0.0031534277
100	0xbc3431e6	-0.010998225
101	0x3b9e4c6a	0.0048308866
102	0x3bda9056	0.006670038
103	0x3c346ce7	0.0110122925
104	0x3bd1ea3c	0.0064060967
105	0x3b89e458	0.004208129
106	0x3c9b2732	0.018939588
107	0xbb67e54e	-0.003538448
108	0x3c8ba76d	0.017047608
109	0x3c6c4156	0.014419874
110	0xbc5b1062	-0.013370605
111	0xbc2e842e	-0.010651631
112	0x3c467307	0.012112386
113	0xbac6a87a	-0.0015156411
114	0x3aacc440	0.0013181046
115	0x3bd565de	0.0065123877
116	0xbc6999d8	-0.014257871
117	0xbafd2005	-0.0019311911
118	0x3bd262d6	0.0064204736
119	0x3c48c9fb	0.012255187
120	0xbba774e1	-0.0051103686
121	0xbc1d6a52	-0.009607868
122	0xbca08470	-0.019594401
123	0xbc08fc75	-0.008360972
124	0x3bbb85a9	0.0057227206
125	0xbc44e156	-0.012016615
126	0xbc28c7f8	-0.0103015825
127	0x3b6d05d3	0.0036166802
128	0x3c0d9709	0.008641967
129	0xbb50996b	-0.0031829725
130	0xbbebb356	-0.0071930094
131	0xbcc20616	-0.023684543
132	0x3c5c4580	0.0134443045
133	0xbc51ab34	-0.012797166
134	0xbb81706c	-0.0039501693
135	0x3c4b4586	0.012406712
136	0xbb53f6eb	-0.003234322
137	0x3c3fdaf3	0.011709916
138	0x3c23afd6	0.009990653
139	0xbc8e560a	-0.017375011
140	0x3cce24cd	0.025164032
141	0x3b410fe7	0.0029458941
142	0xbc4b0b57	-0.01239284
143	0xbbd5aa25	-0.006520527
144	0xbb240a69	-0.002503062
145	0x3bbc2192	0.0057413066
146	0x3bbff368	0.0058578737
147	0x3c32350b	0.010876904
148	0xbbd4d0ca	-0.006494616
149	0x3b910af1	0.004426353
150	0x3b4e7435	0.003150237
151	0xbc3e9809	-0.011632928
152	0xbc1011c7	-0.008793301
153	0xbbf5c03c	-0.0074997228
154	0xbc04a6af	-0.008096381
155	0xbb86e6fe	-0.004116892
156	0xbaa1b9a6	-0.0012338653
157	0xbc4c96f3	-0.012487161
158	0xbc003c08	-0.007826813
159	0xbc194dde	-0.009356944
160	0x3af6e0d9	0.001883532
161	0xbc9d8e47	-0.019232882
162	0xbc145972	-0.009054529
163	0x3ba60ba5	0.005067306
164	0xbbb682fe	-0.0055698147
165	0xb90ae7a9	-0.00013247006
166	0x3bbed473	0.0058236658
167	0x3c99c992	0.018772874
168	0xbb6d7b3b	-0.003623678
169	0xbb8c9884	-0.004290642
170	0x3bc213ed	0.0059227855
171	0xbc93820c	-0.018006347
172	0x3bf1611a	0.0073663117
173	0xbc3ab5a5	-0.0113958465
174	0x3a9e5d9a	0.0012082339
175	0x3c116869	0.008874991
176	0x3b86ddf5	0.004115815
177	0x3b5593ee	0.0032589394
178	0xbb012b48	-0.0019709636
179	0x3bfdc0ea	0.0077439444
180	0x3bda771f	0.0066670324
181	0x3caa2e34	0.020773984
182	0x3b86c85b	0.0041132397
183	0x3accd268	0.0015626671
184	0xbae4e0e8	-0.0017462047
185	0xbba4f1d8	-0.005033713
186	0xbc0f1ba6	-0.008734619
187	0x3bc34400	0.005959034
188	0x3c127624	0.0089393
189	0xbba012e1	-0.004885063
190	0x3be735fb	0.0070559955
191	0xbbc504df	-0.0060125436
192	0x3c150373	0.009095061
193	0x3a738d62	0.0009290782
194	0x3b39e6e7	0.0028366388
195	0x39c21dba	0.00037024711
196	0x3a3fcca6	0.0007316567
197	0xbc73c04b	-0.014877389
198	0xbc9a67b1	-0.018848272
199	0x3cdb6260	0.026780307
200	0x3a9aa151	0.0011797344
201	0x3bdcc52d	0.0067373724
202	0x3b8f1761	0.0043668007
203	0x3b746a73	0.0037294894
204	0x3bd23281	0.006414712
205	0x3bbd619e	0.005779459
206	0xbba108ec	-0.0049143936
207	0x3cd4d89f	0.0259822
208	0x3c0716c2	0.008245172
209	0x3c7b8d95	0.01535358
210	0x3c814ff1	0.01578519
211	0x3c07ea12	0.008295553
212	0x3c1aaad7	0.009440145
213	0x3c014cf2	0.00789188
214	0x3b19c54c	0.0023463545
215	0xbca53e7e	-0.0201714
216	0x3c97c407	0.01852609
217	0xbb278c2d	-0.002556573
218	0x3c9a65fb	0.018847456
219	0xbca77f92	-0.020446572
220	0x3acef398	0.0015789149
221	0x3c484a71	0.012224779
222	0xbb61512d	-0.003438066
223	0x3ab46840	0.0013763979
224	0xbc05c1aa	-0.008163849
225	0x3c2b4ad7	0.010454855
226	0x3b45cef4	0.0030183168
227	0x3be51a1e	0.006991639
228	0xbc891b05	-0.016736517
229	0xbbbb210f	-0.005710728
230	0x3c750e7f	0.014957069
231	0x3a169cb3	0.0005745396
232	0xbc8db983	-0.017300373
233	0x3be7876e	0.007065705
234	0xbc148b31	-0.009066389
235	0x3b798a68	0.0038076881
236	0xbb311f08	-0.0027026553
237	0xbc00f020	-0.00786975
238	0x3c6ce300	0.014458418
239	0xbca29137	-0.019844634
240	0x3c33ed7e	0.0109819155
241	0x3b1b944c	0.0023739515
242	0x3c129d10	0.008948579
243	0xbc6cd2a9	-0.014454522
244	0x3b61a98a	0.0034433329
245	0x3c12fadf	0.008970945
246	0x3ce14897	0.027500434
247	0xb9bf2070	-0.00036454527
248	0x3acd6b1c	0.001567218
249	0xbb005e2e	-0.0019587385
250	0x3c91d9f8	0.01780413
251	0x3b2776ad	0.0025552914
252	0xbc70c688	-0.014695771
253	0xbbed356f	-0.007239036
254	0x3bd2908c	0.0064259227
255	0xbb9c38d8	-0.0047675185

density_estimator_head.bias f4 [11]
0	0xbd0cde6a	-0.034391798
1	0xbcdf4879	-0.027256237
2	0xbc26dabe	-0.010183988
3	0xba8557f1	-0.0010173303
4	0xbbf03f3e	-0.007331758
5	0x3a85f0fc	0.0010218914
6	0x3ab8424e	0.0014057846
7	0x3b5a80c5	0.0033340913
8	0x3c8bbb34	0.017057039
9	0x3d00e4d2	0.03146822
10	0x3cd41fda	0.025894094

Q1.0.weight f4 [50, 50, 5]
0	0xbee988aa	-0.4561208
1	0x3eea3e01	0.4575043
2	0xbfd0f41d	-1.6324497
3	0xbf96442b	-1.1739553
4	0xbcacc129	-0.0210882
5	0x3dbad4fa	0.09122653
6	0x3ee277fd	0.4423217
7	0xbca86157	-0.020554228
8	0x3f993156	1.1968181
9	0xbf95df96	-1.1708858
10	0x3f095345	0.53642684
11	0xbe4fcbd7	-0.20292602
12	0xbf9a2d4c	-1.2045074
13	0x3de7510f	0.112947576
14	0xbe88d894	-0.26727736
15	0xbee79951	-0.4523416
16	0xbf8ab2c7	-1.0835809
17	0x3e5769f3	0.2103651
18	0xbf58fedc	-0.84763885
19	0x3f15f4bb	0.58576554
20	0xbf0ba225	-0.5454429
21	0x3f5bcc06	0.8585819
22	0xbf977478	-1.1832418
23	0xbf4dc1be	-0.8037375
24	0xbebd3c26	-0.36959952
25	0xbf39393b	-0.7235295
26	0xbd6a0595	-0.05713423
27	0x3f496466	0.7866882
28	0x3eb8f02a	0.3612073
29	0xbe9aed71	-0.30259278
30	0xc0213274	-2.5187044
31	0x3bbf2a16	0.0058338745
32	0xbf1d0c59	-0.61346966
33	0xbf70ff5c	-0.9413965
34	0xbe2c07f5	-0.1679991
35	0x3f3d6e15	0.73996097
36	0xbfe18170	-1.7617626
37	0x4021370e	2.5189853
38	0x3f832f30	1.0248775
39	0x4033408c	2.8008146
40	0xbe69fbf7	-0.22850023
41	0xbfd5f5f0	-1.6715679
42	0xbf843f45	-1.0331808
43	0xbe77ce92	-0.24199894
44	0xbfb31ff6	-1.3994129
45	0xbe9f9179	-0.31165674
46	0xbfadab66	-1.3567932
47	0xbebe3cd9	-0.37155798
48	0x3fd40f84	1.6567235
49	0xbf214082	-0.62989056
50	0x3f3efc57	0.7460379
51	0xbf91be06	-1.1386116
52	0x3eb19805	0.34686294
53	0xbf88ac05	-1.0677496
54	0x3fafd713	1.373751
55	0x3f8a5f73	1.0810379
56	0xbf62297c	-0.8834455
57	0xbf0a9ce0	-0.5414562
58	0xc02eec86	-2.7331862
59	0xbd26a619	-0.040685747
60	0x3fb27e87	1.3944863
61	0x3fade651	1.3585912
62	0x40083df6	2.1287818
63	0x3ff6f0af	1.9292201
64	0xbf1a8171	-0.6035376
65	0xbe163ab9	-0.14670838
66	0x3fc466ed	1.534391
67	0x3e912cf4	0.2835461
68	0x3f443880	0.7664871
69	0xbf117975	-0.56825954
70	0x3f16b8db	0.5887582
71	0xbdaa1377	-0.08304494
72	0xbec16853	-0.37774906
73	0xbea56531	-0.32303765
74	0xbe94bd04	-0.29050457
75	0xbf290f68	-0.66039133
76	0x3f4c1ed3	0.79734534
77	0x3f9dde8d	1.2333542
78	0x3f8c4b9d	1.0960575
79	0x3edc937c	0.43081272
80	0x403a8d74	2.9148836
81	0xbf0a440f	-0.540101
82	0x3fd78146	1.6836326
83	0xbefa2618	-0.48857188
84	0x3df55d9c	0.11980745
85	0xbd61c082	-0.05511523
86	0x3f55e20f	0.83548063
87	0xbc208575	-0.009797444
88	0xbcf928ab	-0.0304149
89	0x3ee32113	0.4436117
90	0x3fa4cf50	1.2875767
91	0x3f557452	0.83380616
92	0xbf2f32b6	-0.68436754
93	0x3cc57007	0.02410127
94	0x3ebe1758	0.37127185
95	0xbe36b939	-0.17844094
96	0x3e7f877e	0.2495403
97	0xbeae7e50	-0.34080744
98	0xbf2103ec	-0.6289661
99	0xbe9caaca	-0.30599052
100	0x3f299783	0.66246814
101	0xbe5d5627	-0.21614896
102	0xbf84676c	-1.0344062
103	0x3f1ce96d	0.6129368
104	0xbc9222ed	-0.01783892
105	0x403aafdd	2.9169838
106	0x3ec4264c	0.38310468
107	0x3e9259ee	0.28584236
108	0x3fc908ff	1.570587
109	0xbf5574ae	-0.83381164
110	0xbdb0258f	-0.08600914
111	0x3e77d833	0.24203567
112	0x3e8d6599	0.27616575
113	0x3f926429	1.1436816
114	0x3d7d1dcb	0.06179599
115	0xbd633c32	-0.05547733
116	0xbff5a498	-1.9190855
117	0xbf03daf0	-0.5150595
118	0xbf7c49c0	-0.98550034
119	0x3fbbbc59	1.4666854
120	0x3f6843a8	0.90728235
121	0x3f7f9b8a	0.9984671
122	0xbf2b6d45	-0.6696361
123	0xc036747c	-2.8508596
124	0xbef817d2	-0.48455673
125	0x3ef95297	0.48695824
126	0xbfaa38f9	-1.3298637
127	0x3f5d09fd	0.86343366
128	0x3edde51d	0.43338862
129	0x3eafb846	0.34320277
130	0xbe1ade64	-0.15123898
131	0xc000fd50	-2.015461
132	0xbe536e20	-0.20647478
133	0x3fa20e01	1.2660524
134	0xbff09407	-1.8795174
135	0x3f9d7180	1.2300262
136	0xbf00eaf6	-0.5035852
137	0xbf5e0d65	-0.8673919
138	0x3f88f5f2	1.0700057
139	0xbf9f7dc0	-1.2460251
140	0x3ed17850	0.40912104
141	0x3f017444	0.5056803
142	0xbf8601be	-1.0469282
143	0xbfbc17e8	-1.4694796
144	0xbcff05bb	-0.031130662
145	0xbe960da0	-0.2930727
146	0x3f14d8e5	0.58143455
147	0x3ea429f6	0.32063264
148	0x3e6aa7fb	0.22915642
149	0xbf2de028	-0.6792016
150	0x3edb2503	0.42801675
151	0xbef86c7a	-0.4852026
152	0xbf7865a4	-0.9703009
153	0xbea31399	-0.3185089
154	0x3e129644	0.14315134
155	0x3fb9577e	1.4479825
156	0x3f506b9a	0.81414187
157	0xbf989f7f	-1.1923674
158	0xbf910009	-1.1328136
159	0xbf0aa887	-0.541634
160	0xbf20b5ce	-0.6277741
161	0xbf74e6e6	-0.95664823
162	0xbe24f372	-0.16108492
163	0x3ec4faf6	0.38472718
164	0xbdf4b2b5	-0.11948148
165	0x3f67c283	0.90531176
166	0x3eb236f7	0.3480756
167	0x3cf1c9ef	0.029515235
168	0xbee27ee4	-0.44237435
169	0xbfad8c54	-1.355845
170	0x3dd04fe8	0.10171491
171	0x3f299f04	0.66258264
172	0xbfa62d04	-1.2982488
173	0xbfbef4c9	-1.4918453
174	0x3f0a6ba8	0.5407052
175	0x3fbac9e0	1.4592857
176	0xbf2a2212	-0.6645824
177	0xbfda5a09	-1.7058727
178	0x3e723311	0.23652293
179	0xbf82bbe9	-1.0213596
180	0xbfb3fd83	-1.4061741
181	0x400ac578	2.1683025
182	0x3f6c192f	0.9222593
183	0xbe0400f8	-0.12890995
184	0x3f33447e	0.70026386
185	0x3ee78513	0.45218715
186	0x3f8fdaab	1.1238607
187	0xbcf4d020	-0.029884398
188	0xc017cc81	-2.371857
189	0x3edb8fc3	0.4288312
190	0x3f3756eb	0.71617
191	0x3f7fceb8	0.999248
192	0xbf8fb7d6	-1.1227977
193	0x3dceeb28	0.10103446
194	0x3e7ab245	0.24482067
195	0x3f0d9956	0.553121
196	0x3fb6ee23	1.4291424
197	0xbe7826db	-0.24233572
198	0xbe89180c	-0.2677616
199	0xbf6eb77f	-0.9324874
200	0xbe93bc27	-0.28854486
201	0x3f82be5a	1.0214341
202	0x3ef88720	0.48540592
203	0x3eacc929	0.33747223
204	0x3f7fc888	0.9991536
205	0x3fb75e4c	1.4325652
206	0x3f3f35b5	0.74691325
207	0x3ed311b5	0.41224447
208	0xbf9d578a	-1.229234
209	0xbf375adf	-0.71623033
210	0x3ec96321	0.39333442
211	0x3e0c12a3	0.13678984
212	0x3e3506bd	0.17678352
213	0x3f27a5da	0.65487444
214	0x402061ad	2.5059617
215	0xbe9ed07c	-0.31018436
216	0x3ff91cd4	1.9461923
217	0x3fac6c24	1.3470502
218	0xbe6055c1	-0.21907713
219	0xbf7c0a3d	-0.9845312
220	0x400f5d7c	2.2400808
221	0xbe7ec391	-0.2487929
222	0x3ed38a29	0.41316345
223	0x3ee402bf	0.44533345
224	0xbe27f974	-0.16403753
225	0xbe84ddc8	-0.25950456
226	0x3f722025	0.945803
227	0x3f625ff5	0.8842767
228	0xbf6eead6	-0.9332708
229	0x3ec0ca8e	0.37654537
230	0xbe2c37e0	-0.1681819
231	0x3f212a3b	0.62955064
232	0xbf8a1685	-1.0788122
233	0x3f7d7fb9	0.99023014
234	0x3da68f4d	0.08132801
235	0xbdbd9291	-0.09256471
236	0x3fb284fe	1.3946836
237	0x3f47b913	0.78016776
238	0xbf82a730	-1.0207272
239	0x3fd12af5	1.6341234
240	0xbfbdc9ea	-1.4827244
241	0x3ee42d18	0.44565654
242	0xbf54511f	-0.8293628
243	0xbf59adaa	-0.85030615
244	0xbe0e38a5	-0.13888796
245	0x3fbfc35b	1.4981493
246	0x3f694b11	0.9113017
247	0x3eb788e0	0.35846615
248	0xbf219c94	-0.63129544
249	0xbf03a9ce	-0.51430976
250	0xbfc16863	-1.5109981
251	0xbf18427a	-0.59476435
252	0xbef3e874	-0.47638285
253	0x3f3f38eb	0.74696225
254	0xbe4fe191	-0.2030089
255	0xbf6ebae0	-0.932539

Q1.0.bias f4 [50, 5]
0	0xbbee354a	-0.007269536
1	0xbb5dfde2	-0.003387325
2	0x3924b08e	0.0001570603
3	0x3ace3812	0.0015733263
4	0x3a9530ab	0.0011382302
5	0x38a6d360	7.9548685e-05
6	0x37cc183c	2.432998e-05
7	0x36e8a47b	6.933287e-06
8	0xb5798a8e	-9.296135e-07
9	0xb4120d7d	-1.3602217e-07
10	0x3aae7103	0.0013308827
11	0xbb503ea9	-0.003177563
12	0xbb4d4c05	-0.0031325829
13	0xba7f9a58	-0.0009750477
14	0xb7cb8774	-2.4262561e-05
15	0x3b8e4b49	0.004342471
16	0x3ba01264	0.004885005
17	0x3b4d0ee5	0.0031289395
18	0x39df18cf	0.00042552358
19	0xb9be637e	-0.00036313751
20	0x3a185750	0.00058113504
21	0x38c2177f	9.255017e-05
22	0xb7a96f7d	-2.0198286e-05
23	0xb7bd33e6	-2.2554723e-05
24	0xb6a46f5f	-4.900546e-06
25	0xb6f240cc	-7.2197054e-06
26	0xb6ebe402	-7.0300894e-06
27	0xb6e5d37a	-6.849351e-06
28	0xb649046f	-2.9953915e-06
29	0xb53fd2fc	-7.146007e-07
30	0x3b787e4c	0.0037917076
31	0xb7beb7e6	-2.27354e-05
32	0xba0fb3cc	-0.0005481809
33	0xb942f70a	-0.00018593311
34	0xb8842638	-6.301369e-05
35	0xbb77c1bc	-0.0037804684
36	0xb9acaaae	-0.00032933563
37	0x3a8a1551	0.0010534917
38	0x3a68f2c4	0.00088862726
39	0x39eb9844	0.0004493614
40	0x00000000	0.0
41	0x00000000	0.0
42	0x00000000	0.0
43	0x00000000	0.0
44	0x00000000	0.0
45	0xbbcbdc96	-0.0062213643
46	0xbae6e58a	-0.0017616015
47	0xba4cd25f	-0.000781333
48	0xb961b680	-0.00021525659
49	0xb82153bb	-3.846337e-05
50	0xb934ddc7	-0.00017248756
51	0xb8fd5f02	-0.00012081677
52	0xb8ca5fe6	-9.649973e-05
53	0xb813f3ac	-3.527447e-05
54	0xb6daa60a	-6.5162358e-06
55	0xbb4abfc2	-0.003093705
56	0xba7337ec	-0.00092780474
57	0xb9d95639	-0.00041453706
58	0xb8e4326b	-0.00010881278
59	0xb7a318b8	-1.9442625e-05
60	0x3a07018a	0.00051500706
61	0x39e0cb9c	0.0004287631
62	0x39c45c10	0.00037452625
63	0x391a9471	0.00014741883
64	0x37ec4219	2.8164171e-05
65	0xb9001b1d	-0.00012217132
66	0xb61f47ff	-2.3734754e-06
67	0x37b96be4	2.2103959e-05
68	0x374a3d55	1.2054418e-05
69	0x35be7da2	1.4192667e-06
70	0xbb77baff	-0.0037800667
71	0xbb956f64	-0.004560398
72	0xbb2794b4	-0.0025570812
73	0xb7db05f5	-2.6109608e-05
74	0x3a189faa	0.00058221316
75	0xbb54badd	-0.0032460012
76	0xba807956	-0.0009801786
77	0x39d62330	0.00040843477
78	0x3a397d46	0.0007075857
79	0x39effcd1	0.00045773995
80	0xba1f3129	-0.0006072694
81	0xb9a3b9d7	-0.00031228244
82	0xb9511575	-0.00019939787
83	0xb86fb43f	-5.7149908e-05
84	0xb6fc3247	-7.5160383e-06
85	0xb6a636f6	-4.953584e-06
86	0xb6851bb4	-3.966934e-06
87	0xb662c32c	-3.379023e-06
88	0xb5ae042a	-1.2965222e-06
89	0xb467afce	-2.1577509e-07
90	0xbc3ccd30	-0.01152353
91	0xbac56a0e	-0.0015061514
92	0x3ab59ba4	0.0013855589
93	0x3aa05306	0.0012231774
94	0x3a16a150	0.00057460833
95	0xba8773e5	-0.0010334222
96	0x3b300a66	0.0026861667
97	0x3b243e03	0.0025061376
98	0x3a349c0b	0.00068897073
99	0xb8823045	-6.207874e-05
100	0x3807bb33	3.236085e-05
101	0x3aada843	0.0013248998
102	0x3b29d17b	0.0025912214
103	0x3ae09f03	0.0017137233
104	0x3a45aafe	0.00075404334
105	0xbbc60774	-0.006043369
106	0xbbd5719b	-0.006513787
107	0xbbc4f9dc	-0.006011231
108	0xbb1cbcc2	-0.002391622
109	0xb9d18b8b	-0.00039967554
110	0xb937eda4	-0.00017540768
111	0x389eb974	7.5685704e-05
112	0x37d9530a	2.5907084e-05
113	0x34ce3a24	3.8412793e-07
114	0xb203485c	-7.641656e-09
115	0x3b6e90bb	0.0036402184
116	0x3b3bc53f	0.0028651503
117	0x3b0f9c7b	0.0021913338
118	0x3a369e3a	0.00069663266
119	0xb6ddf03e	-6.614281e-06
120	0xba30f969	-0.0006751032
121	0xba027e52	-0.00049779296
122	0xb9bff657	-0.00036613896
123	0xb8e95a19	-0.00011127088
124	0x3699a797	4.5792654e-06
125	0x3b516ada	0.0031954558
126	0xbb3114ab	-0.0027020376
127	0xbb363b78	-0.0027806442
128	0xba44fae9	-0.0007514195
129	0x38d604d0	0.000102052116
130	0xb93aefa2	-0.00017827612
131	0xb8d77ec7	-0.00010275613
132	0xb8b69142	-8.705493e-05
133	0xb80e9434	-3.3993463e-05
134	0xb6da243d	-6.501125e-06
135	0xba12f164	-0.0005605428
136	0xb9e11980	-0.00042934343
137	0xb9beb207	-0.00036372265
138	0xb9137be5	-0.00014065167
139	0xb7e3340a	-2.7084741e-05
140	0x3a224a12	0.0006190847
141	0xbb5561fa	-0.003255962
142	0xbb03d227	-0.0020114274
143	0x38c5371a	9.4039555e-05
144	0x3a1d347c	0.00059968955
145	0xbbc9f312	-0.0061630094
146	0xbb5ceb20	-0.0033709481
147	0x39c0b157	0.00036753222
148	0x3af7576b	0.0018870657
149	0x3ab382c6	0.001369559
150	0x3c606e0a	0.01369811
151	0x3c7d987c	0.01547825
152	0x3c32fed0	0.01092501
153	0x3b195199	0.0023394583
154	0xba336216	-0.0006842924
155	0xb48c1d41	-2.6098317e-07
156	0xb4912cbe	-2.704091e-07
157	0xb4860adf	-2.4967355e-07
158	0xb3d653ed	-9.9804176e-08
159	0xb2379e61	-1.0688013e-08
160	0xbc2440ca	-0.010025213
161	0xbb30b15b	-0.002696118
162	0xba5be588	-0.000838839
163	0xb90170a2	-0.00012344358
164	0xb7ba267c	-2.2190849e-05
165	0xbb311239	-0.0027018918
166	0xbafd1acc	-0.0019310354
167	0xbaccfcaa	-0.0015639265
168	0xba17f5ed	-0.00057968387
169	0xb8df640a	-0.00010652102
170	0xbc1ab8b0	-0.009443447
171	0xbbe8b7d2	-0.007101991
172	0xbb4bd1a3	-0.0031100295
173	0x3a00cd99	0.0004913449
174	0x3a9e7487	0.0012089171
175	0x3b3d2eec	0.002886708
176	0x3ac73b09	0.0015200089
177	0x3a81503f	0.0009865834
178	0x39996aec	0.00029262097
179	0x37a9b9bc	2.023286e-05
180	0x3b42dcb3	0.0029733598
181	0x39190b85	0.00014595508
182	0xb9a68f72	-0.00031768862
183	0xb9051523	-0.00012691742
184	0xb67bcde6	-3.7521763e-06
185	0x3aa70a11	0.0012744089
186	0x3ab5e949	0.0013878728
187	0x3a776fb1	0.00094389456
188	0x393e7eab	0.00018167
189	0xb8a12817	-7.6845456e-05
190	0xbbb41d3f	-0.0054966505
191	0xbbb97b16	-0.005660425
192	0xbb33063c	-0.0027316948
193	0x39ab24d7	0.0003264311
194	0x3a6c4723	0.0009013286
195	0x3b23c859	0.0024991243
196	0x3a43ef93	0.0007474359
197	0x39cc63db	0.0003898431
198	0x39181090	0.0001450202
199	0x379695b3	1.7951103e-05
200	0xb777c07f	-1.4767166e-05
201	0xb74db2c6	-1.2260576e-05
202	0xb735f6b0	-1.0845877e-05
203	0xb6924df1	-4.3602126e-06
204	0xb562b6ac	-8.4457383e-07
205	0x3b9deb2f	0.004819296
206	0x3b27dee2	0.0025615026
207	0x3a9ae22b	0.0011816671
208	0x37597a8e	1.2962742e-05
209	0xb983fe21	-0.00025175608
210	0x39aeb5ed	0.00033323411
211	0xbbcd1f90	-0.006259866
212	0xbb99c0a9	-0.0046921563
213	0xba326280	-0.0006804839
214	0x3a1fa8f6	0.0006090546
215	0x3be5302e	0.006994269
216	0x3b64ede6	0.0034931838
217	0x3a3d6201	0.00072243816
218	0xba572723	-0.0008207431
219	0xba676054	-0.00088263047
220	0xbb802522	-0.0039106766
221	0x3a691350	0.00088911224
222	0x3ac321ac	0.0014887354
223	0x3a0eaebc	0.00054429076
224	0x3850341f	4.9639606e-05
225	0x3bd5acb1	0.0065208306
226	0x3b975d75	0.0046192952
227	0x3b1a3f57	0.0023536289
228	0x37e7d0e7	2.7634624e-05
229	0xba31cedf	-0.00067828404
230	0x39c3da6a	0.0003735603
231	0x39b4b563	0.0003446742
232	0x39a89b49	0.00032159153
233	0x390d536a	0.00013477882
234	0x37f33ca6	2.8996099e-05
235	0x3b926692	0.0044677937
236	0x3b2ff9bd	0.0026851736
237	0x3ab838b4	0.0014054985
238	0x39028530	0.00012447382
239	0xb9586fb9	-0.00020640985
240	0x39986fda	0.00029075035
241	0x395e6513	0.00021209223
242	0x39199e06	0.00014650085
243	0x382465c1	3.9195413e-05
244	0xb661e6ea	-3.3662022e-06
245	0x3b3f81b6	0.00292216
246	0x3ac1d06f	0.001478685
247	0x3989ecb5	0.00026307037
248	0xb9cbdd48	-0.00038884045
249	0xb9c1c5d4	-0.00036959222
