CausalCVR/logs/simu3/eval/17/Vcnet_ckpt.pth.tar (torch, 123067 bytes, 16 tensors)

feature_weight.weight f4 [50, 8]
0.012087308 -0.0022474676 -0.02267559 -0.007193383 -0.001432149 -0.016702045 -0.0064126663 -0.010991102
0.008031845 0.010634322 0.0016212494 -0.0026272777 -0.0049553663 -0.0039509605 0.0091798855 0.0048505575
0.0144477105 -0.005016235 -0.01646729 0.005801885 -0.007060131 0.007037774 -0.0035647738 -0.00016668068
0.00041155817 -0.008230667 -0.0051354216 0.010757634 0.011967332 -0.010589103 -0.010675162 -0.007858983
-0.01668446 -0.0069454648 0.0027157078 0.021708475 -0.008117329 -0.0032322053 0.01479996 0.0026567923
0.017708248 0.0025547887 -0.0033906891 -0.0034579965 -0.02144833 0.009546625 0.014258058 0.00147307
-0.0099845035 0.006548386 0.0036470254 0.0018741142 0.000877754 0.022699023 -0.009990359 -0.016746743
-0.02126545 0.004017917 0.026079595 0.011263042 0.016861511 0.012285549 0.0019196547 0.026187303
-0.0034603474 -0.0014688161 0.0074233287 0.005066011 -0.0035185737 -0.0034659358 0.006815694 -0.0010353174
-0.006625834 -0.0026816195 0.007269097 0.0044929306 -0.027082358 0.0025298765 -0.0014866247 0.009309941
-0.0050590467 -0.0005007009 -0.0068051512 -0.010520863 -0.0032863503 -0.004901084 0.011338079 -0.01701012
0.0045634885 -0.015843246 -0.013644891 -0.0012527155 0.014421151 0.0018792301 0.0033459668 3.9749953e-05
-0.011895518 0.0082750665 0.0050336965 0.017906591 -0.0022353197 0.016858561 0.0074767135 -0.0013526983
0.010388489 0.018757083 0.020047361 0.008865051 0.0025892179 -0.002156792 0.01213733 -0.013099459
0.003355186 -0.0049882773 0.020696102 0.015126214 -0.0015022246 0.016983956 0.009444078 0.0004069298
0.017467191 -0.0065782736 -0.015551671 0.016423738 0.0021720685 -0.009796308 0.0022690464 -0.008937238
0.007281114 -0.0013911856 -0.003019723 -0.00013058916 0.007402113 0.019346641 -0.0044490504 -0.0081524355
-0.016780544 0.00033387615 -0.012286902 -0.016910963 -0.0013841722 0.013789298 -0.013733805 0.0065786857
0.0036004535 0.008263871 -0.017398017 0.013826706 0.004388363 0.012635477 -0.0021676186 0.0014645746
-0.0057089017 0.0029590677 -0.010202751 -0.004656795 0.023021204 -0.008431993 -0.013040795 -0.0041492833
-0.015053061 -0.0018246272 -0.0029923846 0.024568032 -0.007094673 -0.019520577 -0.004837969 0.0024384055
-1.5328082e-05 0.0054614134 -0.0025978878 -0.010646474 0.0022374636 0.008936897 0.008910325 0.0004008147
0.006304106 0.010984573 -0.0033757049 -0.0008262571 -0.0089020245 -0.0059049795 0.011679956 0.0079165725
-0.010831537 -0.01398173 0.012137704 0.0046184543 -0.0071380707 0.012391592 -0.013639881 -0.011872062
0.0006057857 0.010512034 0.015924854 0.0026877436 -0.0016979371 -0.008741156 0.00042828557 0.0059854914
0.0014796907 -0.00051292655 0.012015128 0.009850396 0.0045158663 -0.0042705876 0.0066606794 0.014430122
0.020994352 0.009893034 -0.00020148921 -0.004529722 0.0022987323 0.0024585393 0.003340921 0.0044266977
-0.0013063315 -0.006659852 0.0039633503 -0.0035564196 0.013717556 0.010000638 -0.0017933277 -0.0051148687
0.0022572181 0.013456331 -0.0100110695 0.00665067 0.01612386 -0.0071925162 -0.00524347 0.011695673
0.007910558 -0.0015736402 0.006522043 0.007453831 -0.0024385909 -0.008415887 0.007865872 -0.015159833
-0.00627631 -0.007982031 0.0072281267 0.0041775354 -0.0065709706 0.0007448403 0.00571591 0.007518097
-0.015975593 0.0006790133 -0.020659499 -0.009237786 -0.012769735 -0.02538224 -0.0063602393 -0.0067895143
00000000: d809 463c 404a 13bb 29c2 b9bc 78b6 ebbb
00000010: f2b6 bbba bad2 88bc 5821 d2bb 0614 34bc
00000020: 0098 033c 943b 2e3c 1a80 d43a 682e 2cbb
00000030: a060 a2bb 0f77 81bb 3b67 163c 6df1 9e3b
00000040: 17b6 6c3c 3b5f a4bb 69e6 86bc bd1d be3b
00000050: ac58 e7bb 219d e63b fb9e 69bb 01c7 2eb9
00000060: 67c6 d739 ebd9 06bc 0a47 a8bb ca40 303c
00000070: a112 443c eb7d 2dbc e0e6 2ebc f7c2 00bc
00000080: d9ad 88bc c896 e3bb 04fa 313b f9d5 b13c
00000090: 8cfe 04bc 68d3 53bb 887b 723c 941d 2e3b
000000a0: e310 913c 3e6e 273b 5336 5ebb 8e9f 62bb
000000b0: 68b4 afbc 7369 1c3c a19a 693c 0714 c13a
000000c0: 0b96 23bc d893 d63b ef02 6f3b d6a4 f53a
000000d0: 1319 663a 4df3 b93c 9aae 23bc 7730 89bc
000000e0: e234 aebc bba8 833b e0a4 d53c 9f88 383c
000000f0: 2721 8a3c 5449 493c ec9c fb3a c186 d63c
00000100: ffc6 62bb 4a85 c0ba 653f f33b c800 a63b
00000110: df97 66bb c124 63bb 2f56 df3b 7db3 87ba
00000120: 861d d9bb 1cbe 2fbb 9b31 ee3b 6f39 933b
00000130: d2db ddbc 49cc 253b d9da c2ba b988 183c
00000140: 5cc6 a5bb 7841 03ba bffd debb b35f 2cbc
00000150: cf5f 57bb 4699 a0bb 5ac3 393c cf58 8bbc
00000160: 5189 953b b2c9 81bc d28e 5fbc 2832 a4ba
00000170: b146 6c3c 8050 f63a 0248 5b3b 30b9 2638
00000180: 6be5 42bc 2594 073c b5f1 a43b d8b0 923c
00000190: 717e 12bb f71a 8a3c 38ff f43b 064d b1ba
000001a0: 7b34 2a3c 74a8 993c 5d3a a43c b83e 113c
000001b0: deaf 293b f758 0dbb a7db 463c 1d9f 56bc
000001c0: aee2 5b3b b474 a3bb df8a a93c f1d3 773c
000001d0: 4be6 c4ba f021 8b3c 56bb 1a3c 3159 d539
000001e0: 5b17 8f3c 8f8e d7bb 70cc 7ebc 138b 863c
000001f0: 4359 0e3b b280 20bc 48b4 143b 7e6d 12bc
00000200: 6996 ee3b 7158 b6ba 8ce6 45bb c3ee 08b9
00000210: 6d8d f23b d97c 9e3c 57c9 91bb cb91 05bc
00000220: 5a77 89bc 190c af39 014f 49bc dc88 8abc
00000230: 1d6d b5ba 82ec 613c c103 61bc 0492 d73b
00000240: 96f5 6b3b 3065 073c 4986 8ebc 6989 623c
00000250: 42cc 8f3b 0805 4f3c 9b0e 0ebb f8f6 bf3a
00000260: bd11 bbbb ebec 413b 7029 27bc 0798 98bb
00000270: f796 bc3c 5826 0abc 0fa9 55bc b6f6 87bb
00000280: 1da1 76bc 5428 efba e21b 44bb e642 c93c
00000290: 6e7a e8bb 9ee9 9fbc d387 9ebb a8cd 1f3b
000002a0: ce94 80b7 a8f5 b23b 5341 2abb 8c6e 2ebc
000002b0: 69a2 123b 106c 123c 9dfc 113c 7024 d239
000002c0: ad92 ce3b a3f8 333c ee3a 5dbb 2d99 58ba
000002d0: ccd9 11bc 8f7e c1bb 495d 3f3c 83b4 013c
000002e0: c276 31bc a013 65bc 38dd 463c 6756 973b
000002f0: 7ae6 e9bb 1b06 4b3c cf79 5fbc 0a83 42bc
00000300: 97cd 1e3a ab3a 2c3c d774 823c db24 303b
00000310: 518d deba 1137 0fbc 848b e039 f121 c43b
00000320: 2ef2 c13a eb75 06ba 19db 443c 8e63 213c
00000330: d5f9 933b 49f0 8bbb d441 da3b 526c 6c3c
00000340: 59fc ab3c 6416 223c d946 53b9 106e 94bb
00000350: 54a6 163b 721f 213b 5af3 5a3b d50d 913b
00000360: 3639 abba e33a dabb fede 813b d212 69bb
00000370: 9abf 603c b7d9 233c 180e ebba a19a a7bb
00000380: d6ed 133b f177 5c3c 7805 24bc dded d93b
00000390: 2f16 843c 33af ebbb 6ad1 abbb 359f 3f3c
000003a0: 499b 013c 9a42 ceba ddb6 d53b 443f f43b
000003b0: c4d0 1fbb cae2 09bc dcdf 003c f360 78bc
000003c0: 81a9 cdbb 11c7 02bc ecd9 ec3b b5e3 883b
000003d0: 4c51 d7bb 6341 433a 874c bb3b 5e5a f63b
000003e0: 3fdf 82bc d0ff 313a 1c3e a9bc 155a 17bc
000003f0: 2738 51bc 6aee cfbc 8e69 d0bb 937a debb

feature_weight.bias f4 [50]
0.0 4.0402792e-05 -1.8942674e-05 4.318987e-06 -1.1717406e-06 -2.8428508e-06 1.186213e-05 5.8854395e-05
-0.00010706232 -7.085918e-06 -6.690165e-07 -1.6580407e-05 -5.772007e-06 -2.8922192e-05 1.3814968e-05 -7.374604e-06
2.442001e-05 -5.94036e-07 2.7494534e-05 -5.1959014e-06 -3.04678e-06 -1.4887135e-05 1.4279643e-05 6.864904e-06
2.1629588e-05 -6.123079e-05 6.2846986e-05 1.1725368e-05 3.3551813e-05 -7.863329e-05 -2.9799328e-05 0.0
-1.3224179e-05 -3.234754e-07 -9.802344e-07 -2.4027304e-05 1.008036e-05 4.5462177e-05 -1.41837945e-05 1.3857077e-05
1.6954114e-05 -2.6763446e-06 -3.9376678e-06 0.0 8.143965e-06 1.6686467e-05 4.009148e-05 4.966834e-05
-4.1541185e-05 -1.1880351e-05
00000000: 0000 0000 2b76 2938 15e7 9eb7 d1eb 9036
00000010: b344 9db5 cec7 3eb6 7603 4737 6dda 7638
00000020: a586 e0b8 92c3 edb6 7796 33b5 2716 8bb7
00000030: 2aad c1b6 ef9d f2b7 d6c6 6737 5e73 f7b6
00000040: 92d9 cc37 d875 1fb5 10a4 e637 7458 aeb6
00000050: 4877 4cb6 c2c3 79b7 9a92 6f37 1459 e636
00000060: 3071 b537 0869 80b8 b8cc 8338 12b8 4437
00000070: fcb9 0c38 ede7 a4b8 92f9 f9b7 0000 0000
00000080: 6bdd 5db7 1faa adb4 9990 83b5 3e8e c9b7
00000090: d11e 2937 a4ae 3e38 eff6 6db7 b17b 6837
000000a0: af38 8e37 409b 33b6 4f20 84b6 0000 0000
000000b0: 10a2 0837 eaf9 8b37 e627 2838 f952 5038
000000c0: 823c 2eb8 b851 47b7

hidden_features.0.weight f4 [50, 8]
0.012087308 -0.0022474676 -0.02267559 -0.007193383 -0.001432149 -0.016702045 -0.0064126663 -0.010991102
0.008031845 0.010634322 0.0016212494 -0.0026272777 -0.0049553663 -0.0039509605 0.0091798855 0.0048505575
0.0144477105 -0.005016235 -0.01646729 0.005801885 -0.007060131 0.007037774 -0.0035647738 -0.00016668068
0.00041155817 -0.008230667 -0.0051354216 0.010757634 0.011967332 -0.010589103 -0.010675162 -0.007858983
-0.01668446 -0.0069454648 0.0027157078 0.021708475 -0.008117329 -0.0032322053 0.01479996 0.0026567923
0.017708248 0.0025547887 -0.0033906891 -0.0034579965 -0.02144833 0.009546625 0.014258058 0.00147307
-0.0099845035 0.006548386 0.0036470254 0.0018741142 0.000877754 0.022699023 -0.009990359 -0.016746743
-0.02126545 0.004017917 0.026079595 0.011263042 0.016861511 0.012285549 0.0019196547 0.026187303
-0.0034603474 -0.0014688161 0.0074233287 0.005066011 -0.0035185737 -0.0034659358 0.006815694 -0.0010353174
-0.006625834 -0.0026816195 0.007269097 0.0044929306 -0.027082358 0.0025298765 -0.0014866247 0.009309941
-0.0050590467 -0.0005007009 -0.0068051512 -0.010520863 -0.0032863503 -0.004901084 0.011338079 -0.01701012
0.0045634885 -0.015843246 -0.013644891 -0.0012527155 0.014421151 0.0018792301 0.0033459668 3.9749953e-05
-0.011895518 0.0082750665 0.0050336965 0.017906591 -0.0022353197 0.016858561 0.0074767135 -0.0013526983
0.010388489 0.018757083 0.020047361 0.008865051 0.0025892179 -0.002156792 0.01213733 -0.013099459
0.003355186 -0.0049882773 0.020696102 0.015126214 -0.0015022246 0.016983956 0.009444078 0.0004069298
0.017467191 -0.0065782736 -0.015551671 0.016423738 0.0021720685 -0.009796308 0.0022690464 -0.008937238
0.007281114 -0.0013911856 -0.003019723 -0.00013058916 0.007402113 0.019346641 -0.0044490504 -0.0081524355
-0.016780544 0.00033387615 -0.012286902 -0.016910963 -0.0013841722 0.013789298 -0.013733805 0.0065786857
0.0036004535 0.008263871 -0.017398017 0.013826706 0.004388363 0.012635477 -0.0021676186 0.0014645746
-0.0057089017 0.0029590677 -0.010202751 -0.004656795 0.023021204 -0.008431993 -0.013040795 -0.0041492833
-0.015053061 -0.0018246272 -0.0029923846 0.024568032 -0.007094673 -0.019520577 -0.004837969 0.0024384055
-1.5328082e-05 0.0054614134 -0.0025978878 -0.010646474 0.0022374636 0.008936897 0.008910325 0.0004008147
0.006304106 0.010984573 -0.0033757049 -0.0008262571 -0.0089020245 -0.0059049795 0.011679956 0.0079165725
-0.010831537 -0.01398173 0.012137704 0.0046184543 -0.0071380707 0.012391592 -0.013639881 -0.011872062
0.0006057857 0.010512034 0.015924854 0.0026877436 -0.0016979371 -0.008741156 0.00042828557 0.0059854914
0.0014796907 -0.00051292655 0.012015128 0.009850396 0.0045158663 -0.0042705876 0.0066606794 0.014430122
0.020994352 0.009893034 -0.00020148921 -0.004529722 0.0022987323 0.0024585393 0.003340921 0.0044266977
-0.0013063315 -0.006659852 0.0039633503 -0.0035564196 0.013717556 0.010000638 -0.0017933277 -0.0051148687
0.0022572181 0.013456331 -0.0100110695 0.00665067 0.01612386 -0.0071925162 -0.00524347 0.011695673
0.007910558 -0.0015736402 0.006522043 0.007453831 -0.0024385909 -0.008415887 0.007865872 -0.015159833
-0.00627631 -0.007982031 0.0072281267 0.0041775354 -0.0065709706 0.0007448403 0.00571591 0.007518097
-0.015975593 0.0006790133 -0.020659499 -0.009237786 -0.012769735 -0.02538224 -0.0063602393 -0.0067895143
00000000: d809 463c 404a 13bb 29c2 b9bc 78b6 ebbb
00000010: f2b6 bbba bad2 88bc 5821 d2bb 0614 34bc
00000020: 0098 033c 943b 2e3c 1a80 d43a 682e 2cbb
00000030: a060 a2bb 0f77 81bb 3b67 163c 6df1 9e3b
00000040: 17b6 6c3c 3b5f a4bb 69e6 86bc bd1d be3b
00000050: ac58 e7bb 219d e63b fb9e 69bb 01c7 2eb9
00000060: 67c6 d739 ebd9 06bc 0a47 a8bb ca40 303c
00000070: a112 443c eb7d 2dbc e0e6 2ebc f7c2 00bc
00000080: d9ad 88bc c896 e3bb 04fa 313b f9d5 b13c
00000090: 8cfe 04bc 68d3 53bb 887b 723c 941d 2e3b
000000a0: e310 913c 3e6e 273b 5336 5ebb 8e9f 62bb
000000b0: 68b4 afbc 7369 1c3c a19a 693c 0714 c13a
000000c0: 0b96 23bc d893 d63b ef02 6f3b d6a4 f53a
000000d0: 1319 663a 4df3 b93c 9aae 23bc 7730 89bc
000000e0: e234 aebc bba8 833b e0a4 d53c 9f88 383c
000000f0: 2721 8a3c 5449 493c ec9c fb3a c186 d63c
00000100: ffc6 62bb 4a85 c0ba 653f f33b c800 a63b
00000110: df97 66bb c124 63bb 2f56 df3b 7db3 87ba
00000120: 861d d9bb 1cbe 2fbb 9b31 ee3b 6f39 933b
00000130: d2db ddbc 49cc 253b d9da c2ba b988 183c
00000140: 5cc6 a5bb 7841 03ba bffd debb b35f 2cbc
00000150: cf5f 57bb 4699 a0bb 5ac3 393c cf58 8bbc
00000160: 5189 953b b2c9 81bc d28e 5fbc 2832 a4ba
00000170: b146 6c3c 8050 f63a 0248 5b3b 30b9 2638
00000180: 6be5 42bc 2594 073c b5f1 a43b d8b0 923c
00000190: 717e 12bb f71a 8a3c 38ff f43b 064d b1ba
000001a0: 7b34 2a3c 74a8 993c 5d3a a43c b83e 113c
000001b0: deaf 293b f758 0dbb a7db 463c 1d9f 56bc
000001c0: aee2 5b3b b474 a3bb df8a a93c f1d3 773c
000001d0: 4be6 c4ba f021 8b3c 56bb 1a3c 3159 d539
000001e0: 5b17 8f3c 8f8e d7bb 70cc 7ebc 138b 863c
000001f0: 4359 0e3b b280 20bc 48b4 143b 7e6d 12bc
00000200: 6996 ee3b 7158 b6ba 8ce6 45bb c3ee 08b9
00000210: 6d8d f23b d97c 9e3c 57c9 91bb cb91 05bc
00000220: 5a77 89bc 190c af39 014f 49bc dc88 8abc
00000230: 1d6d b5ba 82ec 613c c103 61bc 0492 d73b
00000240: 96f5 6b3b 3065 073c 4986 8ebc 6989 623c
00000250: 42cc 8f3b 0805 4f3c 9b0e 0ebb f8f6 bf3a
00000260: bd11 bbbb ebec 413b 7029 27bc 0798 98bb
00000270: f796 bc3c 5826 0abc 0fa9 55bc b6f6 87bb
00000280: 1da1 76bc 5428 efba e21b 44bb e642 c93c
00000290: 6e7a e8bb 9ee9 9fbc d387 9ebb a8cd 1f3b
000002a0: ce94 80b7 a8f5 b23b 5341 2abb 8c6e 2ebc
000002b0: 69a2 123b 106c 123c 9dfc 113c 7024 d239
000002c0: ad92 ce3b a3f8 333c ee3a 5dbb 2d99 58ba
000002d0: ccd9 11bc 8f7e c1bb 495d 3f3c 83b4 013c
000002e0: c276 31bc a013 65bc 38dd 463c 6756 973b
000002f0: 7ae6 e9bb 1b06 4b3c cf79 5fbc 0a83 42bc
00000300: 97cd 1e3a ab3a 2c3c d774 823c db24 303b
00000310: 518d deba 1137 0fbc 848b e039 f121 c43b
00000320: 2ef2 c13a eb75 06ba 19db 443c 8e63 213c
00000330: d5f9 933b 49f0 8bbb d441 da3b 526c 6c3c
00000340: 59fc ab3c 6416 223c d946 53b9 106e 94bb
00000350: 54a6 163b 721f 213b 5af3 5a3b d50d 913b
00000360: 3639 abba e33a dabb fede 813b d212 69bb
00000370: 9abf 603c b7d9 233c 180e ebba a19a a7bb
00000380: d6ed 133b f177 5c3c 7805 24bc dded d93b
00000390: 2f16 843c 33af ebbb 6ad1 abbb 359f 3f3c
000003a0: 499b 013c 9a42 ceba ddb6 d53b 443f f43b
000003b0: c4d0 1fbb cae2 09bc dcdf 003c f360 78bc
000003c0: 81a9 cdbb 11c7 02bc ecd9 ec3b b5e3 883b
000003d0: 4c51 d7bb 6341 433a 874c bb3b 5e5a f63b
000003e0: 3fdf 82bc d0ff 313a 1c3e a9bc 155a 17bc
000003f0: 2738 51bc 6aee cfbc 8e69 d0bb 937a debb

hidden_features.0.bias f4 [50]
0.0 4.0402792e-05 -1.8942674e-05 4.318987e-06 -1.1717406e-06 -2.8428508e-06 1.186213e-05 5.8854395e-05
-0.00010706232 -7.085918e-06 -6.690165e-07 -1.6580407e-05 -5.772007e-06 -2.8922192e-05 1.3814968e-05 -7.374604e-06
2.442001e-05 -5.94036e-07 2.7494534e-05 -5.1959014e-06 -3.04678e-06 -1.4887135e-05 1.4279643e-05 6.864904e-06
2.1629588e-05 -6.123079e-05 6.2846986e-05 1.1725368e-05 3.3551813e-05 -7.863329e-05 -2.9799328e-05 0.0
-1.3224179e-05 -3.234754e-07 -9.802344e-07 -2.4027304e-05 1.008036e-05 4.5462177e-05 -1.41837945e-05 1.3857077e-05
1.6954114e-05 -2.6763446e-06 -3.9376678e-06 0.0 8.143965e-06 1.6686467e-05 4.009148e-05 4.966834e-05
-4.1541185e-05 -1.1880351e-05
00000000: 0000 0000 2b76 2938 15e7 9eb7 d1eb 9036
00000010: b344 9db5 cec7 3eb6 7603 4737 6dda 7638
00000020: a586 e0b8 92c3 edb6 7796 33b5 2716 8bb7
00000030: 2aad c1b6 ef9d f2b7 d6c6 6737 5e73 f7b6
00000040: 92d9 cc37 d875 1fb5 10a4 e637 7458 aeb6
00000050: 4877 4cb6 c2c3 79b7 9a92 6f37 1459 e636
00000060: 3071 b537 0869 80b8 b8cc 8338 12b8 4437
00000070: fcb9 0c38 ede7 a4b8 92f9 f9b7 0000 0000
00000080: 6bdd 5db7 1faa adb4 9990 83b5 3e8e c9b7
00000090: d11e 2937 a4ae 3e38 eff6 6db7 b17b 6837
000000a0: af38 8e37 409b 33b6 4f20 84b6 0000 0000
000000b0: 10a2 0837 eaf9 8b37 e627 2838 f952 5038
000000c0: 823c 2eb8 b851 47b7

hidden_features.2.weight f4 [50, 50]
-0.0005478925 0.012945172 -0.002258496 0.00044423997 -0.0034658206 -0.0032284749 -0.010540008 -0.0006643856
-0.0057398686 -0.0015692837 0.012287345 -0.020232279 -0.023038244 0.0043309564 -0.014163301 -0.005091109
-0.004216821 0.0050518536 0.012133911 -0.013086093 -0.015475365 0.00014990933 -0.009807187 -0.0016127874
-0.001340096 -0.0005168689 -0.011322338 0.0041159373 -0.00083290663 -0.00901656 0.009081842 0.004585473
-0.0073814685 0.0010324934 0.00056072866 0.01322387 -0.008385238 0.01966337 -0.0051591676 0.018603874
0.0017038654 -0.0029696443 0.005833694 0.009956996 0.005487462 0.007800103 0.011626882 0.008812315
0.0026948755 0.005955245 -0.011987536 0.0016328385 0.012839393 -0.014624481 -0.012517218 0.0041787745
0.007844129 0.010494989 0.01976151 0.004172255 -0.0138148265 -0.002305963 0.00999433 0.005916588
0.008880545 -0.0027428837 -0.005020986 -0.014343263 0.0052083093 -0.009148679 -0.008378665 0.0026338717
0.008586464 0.0077912966 0.00048666087 0.0134375105 -0.020808982 0.01682313 0.0015473737 -2.6082147e-05
-0.007917906 0.0063972725 0.006821204 -0.009575052 -0.0065808725 0.008854881 -0.0075989924 -0.00999569
-0.003501331 -0.010894546 0.0067428183 -0.0028729832 0.011520841 -0.00040744722 0.007847576 -0.0070212493
-0.007835805 1.9554078e-05 -0.01073715 -0.0026059588 0.009519009 0.003921917 -0.010074391 0.022367503
0.009837872 0.0039158855 -0.007772217 -0.010497993 -0.0014458431 -0.0067239897 0.0010136872 0.002278749
-0.00049929245 0.007014315 0.027116533 0.006918305 -0.006871433 0.008881432 0.012758679 0.009433641
-0.0076654213 0.014458197 0.012864515 -0.0048260503 0.013966624 -0.025838643 0.005927806 0.0073230145
0.006565862 0.0015185439 -0.010354164 -0.00050198595 -0.002823786 -0.0053785755 -0.011298795 0.0025723882
0.023263913 0.0055808276 -0.009364041 0.009839988 -0.014843504 -0.01229602 0.0083407555 0.009334154
0.00028763374 0.007681839 -0.0040264507 -0.016591225 -0.0001597257 0.0050085783 -5.9729173e-06 -0.015729321
-0.0072924457 -0.001371344 -0.0038355312 -0.006329481 0.024800807 0.00728558 0.012793301 -0.004114763
0.0068546906 -0.0013210536 0.0008866268 0.026263174 0.0010416347 0.02523641 -0.0071639307 -0.0037302691
-0.0035347373 0.013082145 0.016249366 0.0016621923 -0.0026403512 0.0032732068 -0.019872025 0.0056924317
0.0007685031 -0.0002923073 -0.009340188 -0.0038485224 -0.008410454 -0.0018621617 -0.008947856 -0.006325279
0.017102998 0.0063447645 0.0043650735 -0.013997195 -0.006054431 0.0065356577 0.0050682835 0.0037258356
0.017579656 0.009328387 0.005229619 -0.0033819291 0.008007528 0.0023906438 0.011433741 -0.0021491998
-0.01954794 -0.005159856 -0.007832857 0.007048443 -0.015121565 -0.009597508 0.0011644379 0.021747619
-0.007050917 0.008888476 0.015095046 0.004420278 0.0034245271 -0.001940177 -0.0034118453 -0.00026319432
-0.001422758 -0.0016203019 -0.00071548094 -0.0062911306 -0.009880271 0.0050757653 0.014147048 -0.004261446
0.0054286835 -0.010001321 0.016868671 0.004982016 -0.0067328555 0.012783203 -0.009273249 -0.0060294364
-0.0021929538 -0.0013959819 0.0068168393 -0.001754586 0.0036482026 -0.004680664 0.014615375 0.0019157425
-0.005861864 0.0010063166 -0.007285365 0.009086862 -0.013536086 0.002828436 -0.011605315 -0.010059174
-0.005583203 -0.009263714 -0.0070864614 -0.014577758 -0.0019415024 0.0022105253 0.0051501095 -0.00011300689
00000000: 71a0 0fba fd17 543c 4603 14bb e1e8 e839
00000010: d222 63bb d294 53bb ffaf 2cbc 2a2a 2eba
00000020: 8215 bcbb 6cb0 cdba dc50 493c 2abe a5bc
00000030: b3ba bcbc b2ea 8d3b 310d 68bc 51d3 a6bb
00000040: 422d 8abb 058a a53b 50cd 463c 0d67 56bc
00000050: 638c 7dbc fb30 1d39 53ae 20bc 2a64 d3ba
00000060: 29a6 afba 7c7e 07ba 5481 39bc fcde 863b
00000070: 6b57 5aba 32ba 13bc 02cc 143c bc41 963b
00000080: 3fe0 f1bb bb54 873a ddfd 123a eea8 583c
00000090: 3d62 09bc 1315 a13c 3c0e a9bb 2767 983c
000000a0: 3c54 df3a 5d9e 42bb 9228 bf3b ab22 233c
000000b0: 2bd0 b33b 0298 ff3b ad7e 3e3c 8761 103c
000000c0: 829c 303b 3724 c33b 5f67 44bc f804 d63a
000000d0: 515c 523c 859b 6fbc 0415 4dbc 1aee 883b
000000e0: a984 003c 2df3 2b3c e4e2 a13c 69b7 883b
000000f0: 9557 62bc a41f 17bb 42bf 233c f0df c13b
00000100: b57f 113c f4c1 33bb 1587 a4bb 0100 6bbc
00000110: 77aa aa3b 57e4 15bc ab46 09bc 099d 2c3b
00000120: 3eae 0c3c 224e ff3b 8426 ff39 0129 5c3c
00000130: 9977 aabc a9d0 893c 3fd1 ca3a fcca dab7
00000140: 1bba 01bc 36a0 d13b 6884 df3b aee0 1cbc
00000150: 5ca4 d7bb 1014 113c f800 f9bb f6c4 23bc
00000160: 9676 65bb 0a7f 32bc dcf2 dc3b a948 3cbb
00000170: e9c1 3c3c a49e d5b9 1f93 003c 8212 e6bb
00000180: c061 00bc 1008 a437 dfea 2fbc bcc8 2abb
00000190: 9ef5 1b3c 6d83 803b 0f0f 25bc 0e3c b73c
000001a0: 072f 213c d450 803b 15ae febb c6ff 2bbc
000001b0: 7282 bdba ea54 dcbb b3dd 843a 1057 153b
000001c0: f3e2 02ba 57d8 e53b 7e23 de3c f3b2 e23b
000001d0: c229 e1bb 6d83 113c c709 513c 8f8f 1a3c
000001e0: 372e fbbb 13e2 6c3c b0c5 523c d823 9ebb
000001f0: 44d4 643c 90ab d3bc 0a3e c23b e6f5 ef3b
00000200: 7126 d73b e109 c73a 83a4 29bc b597 03ba
00000210: 450f 39bb c33e b0bb 951e 39bc 8395 283b
00000220: f693 be3c 60df b63b a26b 19bc e737 213c
00000230: 2b32 73bc 3f75 49bc aaa7 083c 48ee 183c
00000240: 8ccd 9639 f0b7 fb3b 51f0 83bb 52ea 87bc
00000250: 0b7c 27b9 001f a43b f86a c8b6 c7da 80bc
00000260: 78f5 eebb abbe b3ba 895d 7bbb 8967 cfbb
00000270: 102b cb3c e0bb ee3b fe9a 513c 22d5 86bb
00000280: 509d e03b 3427 adba 846c 683a de25 d73c
00000290: 7687 883a 96bc ce3c 68bf eabb 8877 74bb
000002a0: 0da7 67bb 7e56 563c 641d 853c ebdd d93a
000002b0: be09 2dbb 4c83 563b a8ca a2bc 9487 ba3b
000002c0: 5f75 493a d240 99b9 9607 19bc 7e37 7cbb
000002d0: 00cc 09bc c713 f4ba 079a 12bc 4944 cfbb
000002e0: 961b 8c3c bee7 cf3b e408 8f3b 7e54 65bc
000002f0: 4064 c6bb 1229 d63b d813 a63b 262d 743b
00000300: 3603 903c 17d6 183c 395d ab3b 5ba3 5dbb
00000310: 0232 033c 59ac 1c3b 9654 3b3c 97d9 0cbb
00000320: 0023 a0bc 0214 a9bb 6255 00bc a0f6 e63b
00000330: 71c0 77bc de3e 1dbc 0da0 983a 1028 b23c
00000340: 610b e7bb f8a0 113c 3651 773c fbd7 903b
00000350: 086e 603b 8a4d feba 4499 5fbb 58fd 89b9
00000360: d67b baba 4f60 d4ba 1d8f 3bba d425 cebb
00000370: dce0 21bc 9b52 a63b 05c9 673c 9aa3 8bbb
00000380: 19e3 b13b 95dc 23bc 2b30 8a3c 2e40 a33b
00000390: 499f dcbb a470 513c d3ee 17bc 9492 c5bb
000003a0: a9b7 0fbb 61f9 b6ba cb5f df3b 23fa e5ba
000003b0: af16 6f3b 4160 99bb 5375 6f3c a719 fb3a
000003c0: e114 c0bb 62e6 833a 12ba eebb 10e1 143c
000003d0: 76c6 5dbc 485d 393b 3824 3ebc 3ccf 24bc
000003e0: 4df3 b6bb d5c6 17bc 8c35 e8bb 8cd7 6ebc
000003f0: 037a feba 76de 103b 40c2 a83b 1dfe ecb8

hidden_features.2.bias f4 [50]
0.0005424792 -0.0002759144 0.0007425944 -0.00075232144 -5.293098e-05 -1.5139937e-05 -0.00066536875 0.0004092224
-0.0008774878 0.0012544446 -9.526668e-06 -0.00034062055 3.334546e-06 -0.0003024045 0.00077338464 3.1989053e-05
-0.0003910697 -8.90046e-05 0.0005529712 0.001716562 -1.7087523e-06 0.000116415016 0.0 4.5956454e-06
-7.950761e-05 0.0 0.00074638234 -3.3704084e-06 -2.9030869e-05 0.0001392597 0.00014770363 -6.576179e-07
-0.00023804593 0.0 -0.0009847417 0.0019534908 8.054036e-05 7.344885e-05 0.00082362624 0.00043455928
0.00015311435 0.00027158516 -0.00079000567 0.00022638527 -0.00031071404 -0.0003540597 0.00032286113 0.001022839
-7.6129596e-05 -1.3823972e-05
00000000: 2a35 0e3a 9ba8 90b9 abaa 423a 7037 45ba
00000010: 3502 5eb8 8901 7eb7 246c 2eba e78c d639
00000020: 3607 66ba 2d6c a43a bad4 1fb7 5195 b2b9
00000030: 10c7 5f36 0c8c 9eb9 f7bc 4a3a fc2b 0638
00000040: 7d08 cdb9 fba7 bab8 45f5 103a 43fe e03a
00000050: 4858 e5b5 d623 f438 0000 0000 4b34 9a36
00000060: 53bd a6b8 0000 0000 dfa8 433a 2d2f 62b6
00000070: 5187 f3b7 3e06 1239 e4e0 1a39 2887 30b5
00000080: f89b 79b9 0000 0000 7312 81ba 2306 003b
00000090: c7e7 a838 8d08 9a38 9fe8 573a 8fd5 e339
000000a0: 528d 2039 8b63 8e39 6218 4fba d561 6d39
000000b0: 55e7 a2b9 17a1 b9b9 b045 a939 c810 863a
000000c0: c4a7 9fb8 82ed 67b7

density_estimator_head.weight f4 [50, 11]
-0.006312966 -0.014383233 0.011923278 -0.011521895 -0.0036341613 -0.009340512 -0.0026814607 0.0035399122
0.012781175 0.023813404 -0.0034945977 0.00057558087 0.00614841 -0.007091277 0.004727648 0.0046468074
-0.0054803947 0.004246191 5.8347734e-05 -0.0052622217 -0.0030084457 0.00469264 0.011590065 -0.014477737
0.009389865 0.0016184369 0.009104634 -0.0022301963 -0.009902422 0.013134292 0.00042728247 0.017530654
0.016533192 -0.0009032143 0.004147341 -0.00080427586 -0.008700697 0.0063547473 -0.0022292305 -0.009778869
-0.00067894324 -0.011636964 -0.018599456 0.009793915 0.0027148796 -0.0026643553 0.0072108703 -0.003023152
-0.01931201 -0.0077943415 -0.0028451558 0.0001788196 -0.013890245 0.0023521483 0.0044206344 -0.003777374
0.012308699 -0.0072815344 0.015545706 -0.00946164 0.017158056 -0.005873811 0.0015032536 0.008895805
-0.018267544 0.009315777 0.015312984 0.004052741 0.0033351523 0.0056496253 -0.011363586 0.0034469445
-0.021792658 -0.016606158 0.0033315255 -0.014080413 -0.0045463163 -0.0051343143 -0.0030336191 -0.0075416495
-0.0048385714 -0.008983495 -0.011836043 -0.005900451 0.006696506 0.0022430879 -0.00050119834 -0.002068415
0.022480395 -0.0069942167 0.013786523 0.0050112195 0.0001800276 0.009591076 -0.027334416 -0.0061232955
-0.0019017744 -0.00047304053 0.0014311622 -0.009651482 0.0122477235 -0.0106985485 0.0072663026 0.0009412415
-0.006238711 0.0030124718 -0.00046249304 0.017125992 0.020281162 0.010542255 0.003872712 0.0072416114
-0.0020984472 -0.0073145158 -0.0031938467 -0.010403783 -0.005745303 0.004427262 -0.00067629624 -0.010203919
0.0063293898 0.014568788 0.0012113312 -0.0021531193 0.008210114 -0.004810834 -0.0047695595 0.0058065853
-0.0018042591 -0.0007513685 -0.008735264 -0.009589729 0.008204236 0.0045749797 0.00650311 -0.010418715
0.0013729931 -0.0044827526 0.016613517 -0.014828559 -0.0056981836 -0.006906337 0.008075412 0.004343643
0.016135953 -0.01643968 -0.01744511 0.0053109014 -0.009635936 0.010838411 0.006790612 -0.01622409
0.0016812948 0.008199339 -0.007907816 -0.007410126 0.008651616 0.01139385 -0.0012399146 0.02273978
0.0015807844 -0.0068449317 0.0039701983 0.01789592 -0.014250138 0.004456911 -0.018571673 -0.012956824
0.012881589 0.013638025 -0.0038750276 -0.009558322 0.009066317 -0.004001308 -0.011481986 0.009130565
0.005891526 0.013881852 0.0045125815 -0.02050015 0.0024581659 -0.0067810607 -0.005630928 -0.0069906753
0.0036246504 -0.00874282 0.011337616 -0.0058568264 0.0076706023 0.00922526 -0.018283589 -0.019007146
0.0015528894 0.00408909 -0.007444256 -0.0023615363 -0.00021216 -0.008734762 -0.018099649 0.0037062925
0.012204317 -0.013204575 0.0069194264 0.025482217 0.0038781306 -0.0057325554 0.0127191795 -0.0034070786
0.0055331085 -0.01842467 -0.024744216 -0.013875184 0.00010802901 0.010530112 0.00438357 0.009177832
-0.009825256 -0.0012252834 0.014834466 0.0032399546 -0.0081558 -0.009027879 0.0032832802 0.0068349056
0.006270021 -0.007497103 -0.002868386 0.00051498134 -0.0059191 0.008143747 -0.016313322 0.0037732932
-0.014082888 0.011329959 -0.017895227 -1.1359925e-05 0.016911613 0.0035352476 0.00479676 -0.001787335
-0.003986832 0.016995834 -0.013133236 0.013029562 -0.0053331745 -0.0022159887 -0.0039165826 0.003822434
-0.004530384 -0.0038967878 -0.012764826 0.012768087 -0.0032931136 -0.019626774 5.0562507e-05 -0.018466104
00000000: ffdc cebb a7a7 6bbc da59 433c 55c6 3cbc
00000010: 1c2b 6ebb f208 19bc 72bb 2fbb dffd 673b
00000020: 2268 513c 5414 c33c 9f05 65bb 94e2 163a
00000030: 9a78 c93b f15d e8bb 63ea 9a3b 3f44 983b
00000040: e294 b3bb a223 8b3b 67ba 7438 b76e acbb
00000050: 5829 45bb b8c4 993b 42e4 3d3c 0834 6dbc
00000060: f3d7 193c bb21 d43a 9a2b 153c 7c28 12bb
00000070: c53d 22bc 3731 573c e204 e039 729c 8f3c
00000080: 9e70 873c b0c5 6cba 6be6 873b 0ad6 52ba
00000090: 5e8d 0ebc 7c3b d03b 4818 12bb 8d37 20bc
000000a0: 1cfb 31ba f7a8 3ebc e35d 98bc a876 203c
000000b0: 1fec 313b 779c 2ebb 2a49 ec3b 1320 46bb
000000c0: 3834 9ebc ad67 ffbb cb75 3abb 8581 3b39
000000d0: e993 63bc 8026 1a3b f8da 903b d28d 77bb
000000e0: 6daa 493c f099 eebb 6bb3 7e3c ff04 1bbc
000000f0: 0d8f 8c3c 1979 c0bb d208 c53a b6bf 113c
00000100: d1a5 95bc 33a1 183c 4fe3 7a3c dbcc 843b
00000110: 9292 5a3b 7e20 b93b 562e 3abc 22e6 613b
00000120: 8486 b2bc a309 88bc b955 5a3b 88b1 66bc
00000130: 44f9 94bb c03d a8bb afcf 46bb f11f f7bb
00000140: e18c 9ebb 822f 13bc f6eb 41bc 9258 c1bb
00000150: 5d6e db3b c500 133b da62 03ba 3f8e 07bb
00000160: ce28 b83c be2f e5bb dee0 613c 2835 a43b
00000170: cac5 3c39 e323 1d3c 6dec dfbc eda5 c8bb
00000180: f644 f9ba 6d02 f8b9 d695 bb3a 4021 1ebc
00000190: adaa 483c f748 2fbc 2a1a ee3b a6bd 763a
000001a0: 1a6e ccbb e46c 453b c47a f2b9 cf4b 8c3c
000001b0: ae24 a63c 6cb9 2c3c 53cd 7d3b 0a4b ed3b
000001c0: 1a86 09bb 9bae efbb db4f 51bb a174 2abc
000001d0: 1843 bcbb 9112 913b 7949 31ba 572e 27bc
000001e0: c566 cf3b edb1 6e3c 88c5 9e3a 591b 0dbb
000001f0: b783 063c 33a4 9dbb f749 9cbb 2b45 be3b
00000200: e47c ecba 7df7 44ba 5a1e 0fbc 3d1e 1dbc
00000210: 0f6b 063c b6e9 953b 0a18 d53b 42b3 2abc
00000220: 01f6 b33a 0ee4 92bb 1219 883c 7cf3 72bc
00000230: d4b7 babb 8e4e e2bb bc4e 043c 1e55 8e3b
00000240: 8c2f 843c 82ac 86bc 0ce9 8ebc 1207 ae3b
00000250: 0be0 1dbc 9793 313c c883 de3b 62e8 84bc
00000260: e45e dc3a 8556 063c c98f 01bc a4d0 f2bb
00000270: 82bf 0d3c 45ad 3a3c a184 a2ba c648 ba3c
00000280: 5332 cf3a 734b e0bb 7018 823b 779a 923c
00000290: 6979 69bc 470b 923b 9f23 98bc dc48 54bc
000002a0: 4d0d 533c 0672 5f3c 2df4 7dbb 829a 1cbc
000002b0: e48a 143c 681d 83bb f11e 3cbc 5e98 153c
000002c0: b40d c13b b570 633c 47de 933b eeef a7bc
000002d0: 2e19 213b a933 debb a683 b8bb 0912 e5bb
000002e0: 8b8b 6d3b 0b3e 0fbc 68c1 393c 9fea bfbb
000002f0: ad59 fb3b 8b25 173c 77c7 95bc e0b4 9bbc
00000300: 528a cb3a c6fd 853b f2ee f3bb 01c4 1abb
00000310: 4477 5eb9 3f1c 0fbc b745 94bc 45e5 723b
00000320: 9ef4 473c 0058 58bc 5bbc e23b 15c0 d03c
00000330: 3c28 7e3b 29d8 bbbb 1b64 503c 4b49 5fbb
00000340: 144f b53b 55ef 96bc 62b4 cabc bd54 63bc
00000350: a28d e238 7e86 2c3c 0da4 8f3b 9e5e 163c
00000360: 1cfa 20bc b099 a0ba 430c 733c 6b55 543b
00000370: e89f 05bc abe9 13bc 4d2c 573b 58f7 df3b
00000380: c074 cd3b 42aa f5bb 88fb 3bbb d0ff 063a
00000390: 02f5 c1bb 5a6d 053c 84a3 85bc 5b49 773b
000003a0: eabb 66bc 4ba1 393c 0399 92bc 8296 3eb7
000003b0: 398a 8a3c 9daf 673b 242e 9d3b 0345 eaba
000003c0: f9a3 82bb d93a 8b3c c92c 57bc f279 553c
000003d0: e9c1 aebb 1f3a 11bb ad56 80bb cd81 7a3b
000003e0: 9e73 94bb 4061 7fbb 9023 51bc 3d31 513c
000003f0: 47d1 57bb 54c8 a0bc 1413 5438 3a46 97bc

density_estimator_head.bias f4 [11]
-0.033056147 -0.023824517 -0.012863501 -0.005040902 -0.0063595995 0.0016352269 0.00021309037 0.012334843
0.020085277 0.03394151 0.012934719
00000000: e265 07bd a22b c3bc 6fc1 52bc 272e a5bb
00000010: 3064 d0bb 1c55 d63a 0371 5f39 1518 4a3c
00000020: e189 a43c 4106 0b3d 25ec 533c

Q1.0.weight f4 [50, 50, 5]
-1.2469221 2.5524318 -0.89555395 -0.7439466 0.48526976 0.565164 -1.2179633 -0.07076225
-0.40301794 0.5310735 -1.1074258 -1.058045 1.0409613 1.4675916 -0.69131297 -1.2428577
0.4668425 -0.42089245 -0.8553173 -0.11396728 -1.5993603 0.107496485 -0.9172765 0.32147995
-0.14936592 -0.8579679 -1.622155 -0.9051497 0.72156006 -0.31366903 0.9855757 -0.025833009
0.8575934 0.9208624 2.1265745 1.454688 -0.5378509 0.17124213 -2.3453987 0.7037313
-0.09643686 -0.20639224 -0.78679353 1.0087087 0.086752735 -0.51467144 -0.4261353 0.63894325
0.41068837 -1.0258522 0.6184871 -0.21893053 -0.23144075 1.090831 -0.2778156 -1.1745756
-1.9149563 0.030085579 -0.42544168 0.86835104 -1.936826 -0.6034174 -0.12695922 0.48303068
-0.115611635 2.8768036 0.30617815 -0.34034276 1.3768415 -0.94761753 -0.95159554 0.8972958
0.72534907 0.64587516 0.510433 -0.41541043 -0.18092701 -2.250706 0.7345198 0.8064058
-0.009733978 -0.5394065 1.4216112 -0.3688751 0.40409702 -2.0844867 2.1792045 -0.39811897
-0.87323594 0.35289672 -0.27946433 1.5907215 -0.0049220654 0.5340586 -1.2802004 1.1475344
0.38219658 -1.5992312 -0.008163401 1.4117916 -1.5175786 -0.17384653 1.2370455 -0.03941465
-0.4512682 -0.005886668 0.59187776 -0.031250454 0.9771211 0.015358212 0.027720273 -0.0045430446
1.0549505 -0.5031549 0.84394294 -0.8976403 -1.1925168 -0.30487916 -1.6744751 1.7296548
-0.6703005 -0.89142007 -1.8868641 0.06231173 -0.5346449 -2.2412653 -1.3044971 1.1726024
0.92019814 -0.7500171 -1.913314 -0.21400978 0.6916719 1.6772991 0.5690087 1.0460851
-0.3430566 0.1769444 1.8063377 1.781467 0.7692695 0.95150495 1.36893 0.48273566
-0.40204975 0.63076746 0.12177046 -0.025452247 -0.15021107 -1.5632577 0.7598902 -1.0576754
0.20465901 -0.11847178 -0.5901234 -0.6484453 0.27223063 0.07526174 -1.2786208 0.11300997
0.5965057 -0.55702996 -0.040906 1.0029911 0.4613098 -0.38464272 -0.6451841 0.60662687
0.27716613 -1.1263545 -2.3784242 0.08894611 -0.29653248 1.1717728 0.45777887 -0.1750251
0.51986176 2.079706 0.8248924 -0.2123019 -0.10714241 -0.7271601 -0.36424983 -1.0919764
-1.7414085 0.12348504 0.005306627 -0.4597041 -0.040547147 0.26245832 -0.17657657 0.94359
-0.35229728 0.8268869 -1.14589 -0.09562432 1.8799025 0.21515423 -0.60259485 2.4047363
0.048099015 -0.019708116 -0.63932616 0.15522094 2.119539 -0.31501675 0.5866099 3.117497
1.2214785 1.488565 -3.1411998 1.0100193 1.298781 1.445815 1.375697 0.3378222
-0.42043436 0.15852232 0.36575544 -1.1495938 0.8547611 -0.48550272 0.055998713 0.82120514
-1.7212402 0.8021449 0.14220896 -2.039922 -0.07824572 1.7458761 0.6193234 -0.86938256
-0.51127243 -1.0728351 -0.4401413 -1.8810992 -0.14768554 -0.9687661 1.0272431 -1.8505832
2.0041053 -0.1148513 -1.4091171 1.947612 -0.09700986 -1.709529 0.103455946 0.25052884
-0.114618324 -0.23737332 1.6321886 -0.00078327773 1.3344852 0.21773697 -0.6288425 -0.07283858
00000000: 259b 9fbf 0b5b 2340 0643 65bf 4973 3ebf
00000010: 4775 f83e 97ae 103f 39e6 9bbf cceb 90bd
00000020: 5e58 cebe 6ff4 073f 21c0 8dbf 056e 87bf
00000030: 383e 853f 0bda bb3f e3f9 30bf f615 9fbf
00000040: fb05 ef3e 377f d7be 13f6 5abf ad67 e9bd
00000050: d7b7 ccbf 1e27 dc3d a2d2 6abf 0599 a43e
00000060: 61f3 18be c9a3 5bbf c6a2 cfbf e4b7 67bf
00000070: 29b8 383f 3a99 a0be b04e 7c3f bf9f d3bc
00000080: 3e8b 5b3f a3bd 6b3f cc19 0840 3733 ba3f
00000090: 99b0 09bf 195a 2f3e 031b 16c0 bc27 343f
000000a0: b080 c5bd 7d58 53be 4d6b 49bf 5e1d 813f
000000b0: 6bab b13d 82c1 03bf 682e dabe c991 233f
000000c0: bf45 d23e 204f 83bf 2c55 1e3f 532f 60be
000000d0: cefe 6cbe 5aa0 8b3f d93d 8ebe 7e58 96bf
000000e0: 4a1d f5bf 0876 f63c 7ed3 d9be 414c 5e3f
000000f0: eae9 f7bf 9079 1abf 9901 02be cc4f f73e
00000100: cbc5 ecbd 8d1d 3840 62c3 9c3e 6841 aebe
00000110: 583c b03f 1097 72bf c49b 73bf 2db5 653f
00000120: 7ab0 393f 1358 253f bdab 023f adb0 d4be
00000130: ee44 39be 910b 10c0 7d09 3c3f 9c70 4e3f
00000140: 437b 1fbc 8b16 0abf 5bf7 b53f 32dd bcbe
00000150: cee5 ce3e 3b68 05c0 1678 0b40 40d6 cbbe
00000160: 648c 5fbf e1ae b43e f315 8fbe c39c cb3f
00000170: 4749 a1bb 10b8 083f 9bdd a3bf 68e2 923f
00000180: 45af c33e 9cb3 ccbf c9bf 05bc 96b5 b43f
00000190: 0440 c2bf d304 32be 8257 9e3f 4271 21bd
000001a0: a00c e7be f3e4 c0bb 4d85 173f 7a00 00bd
000001b0: 9c24 7a3f 03a1 7b3c a015 e33c d2dd 94bb
000001c0: 9e08 873f c2ce 00bf a50c 583f c1cb 65bf
000001d0: 64a4 98bf 1f19 9cbe 3355 d6bf 5465 dd3f
000001e0: d098 2bbf 1b34 64bf c384 f1bf 963a 7f3d
000001f0: 7dde 08bf e470 0fc0 c3f9 a6bf d617 963f
00000200: 1b92 6b3f 1f01 40bf 79e7 f4bf 6125 5bbe
00000210: 6911 313f bdb1 d63f 8eaa 113f 1ee6 853f
00000220: 1da5 afbe ea30 353e 1336 e73f 1c07 e43f
00000230: d9ee 443f d495 733f 1939 af3f 2129 f73e
00000240: 77d9 cdbe fa79 213f ca62 f93d 3b81 d0bc
00000250: eed0 19be d418 c8bf 2a88 423f e861 87bf
00000260: 2292 513e 55a1 f2bd 5412 17bf 8300 26bf
00000270: d061 8b3e d422 9a3d d9a9 a3bf c571 e73d
00000280: 99b4 183f 8499 0ebf 0d8d 27bd 0362 803f
00000290: cc30 ec3e e4ef c4be c92a 25bf e64b 1b3f
000002a0: b8e8 8d3e 622c 90bf 1a38 18c0 6129 b63d
000002b0: 1bd3 97be a7fc 953f fe61 ea3e c839 33be
000002c0: a915 053f e719 0540 262c 533f ab65 59be
000002d0: 7b6d dbbd 2a27 3abf f47e babe e2c5 8bbf
000002e0: 79e6 debf bae5 fc3d 37e3 ad3b 565e ebbe
000002f0: c414 26bd f060 863e 7dd0 34be 1d8f 713f
00000300: 4f60 b4be dcae 533f 86ac 92bf afd6 c3bd
00000310: a5a0 f03f 6451 5c3e a843 1abf 33e7 1940
00000320: 7903 453d ea72 a1bc e1aa 23bf 3df2 1e3e
00000330: 87a6 0740 e049 a1be 112c 163f 1285 4740
00000340: 6859 9c3f 4c89 be3f 6b09 49c0 5048 813f
00000350: 753e a63f 7710 b93f d716 b03f 08f7 ac3e
00000360: 2c43 d7be ad53 223e 4c44 bb3e e425 93bf
00000370: a0d1 5a3f d093 f8be e85e 653d 803a 523f
00000380: 9951 dcbf 5e59 4d3f 3a9f 113e 158e 02c0
00000390: 4b3f a0bd de78 df3f fa8b 1e3f db8f 5ebf
000003a0: c0e2 02bf a952 89bf 335a e1be dcc7 f0bf
000003b0: e13a 17be 0e01 78bf b47c 833f e9df ecbf
000003c0: 4343 0040 2937 ebbd f35d b4bf 5a4b f93f
000003d0: 1bad c6bd d9d1 dabf b6e0 d33d 5145 803e
000003e0: 03bd eabd fe11 73be 8eeb d03f e154 4dba
000003f0: 69d0 aa3f 71f6 5e3e d2fb 20bf 652c 95bd

Q1.0.bias f4 [50, 5]
0.0027045952 0.00042499765 0.0001492502 4.315643e-06 2.7983953e-07 -0.0029907052 -0.0026678068 -0.0024275116
-0.000995408 -0.00020053153 0.0 0.0 0.0 0.0 0.0 0.015768547
0.014688058 0.013865696 0.0062047113 0.0015949428 -0.00069239794 -0.00065073 -0.00061434804 -0.00026026613
-5.7013334e-05 0.0028035603 0.0021242679 0.0017685905 0.0007369965 0.00017858735 0.0002873958 -8.64186e-05
-3.06162e-05 0.0 0.0 -4.0434013e-05 3.1470787e-05 -9.3474654e-07 -7.1509407e-06 -9.449e-07
0.0 0.0 0.0 0.0 0.0 -0.008269207 -0.0053806226 -0.0041906536
-0.0015103333 -0.0002581623 0.0014922348 0.0014344517 0.0013627275 0.000578458 0.00011931492 -0.0006098281
-0.00017440366 -0.00014063582 -6.1555555e-05 -1.6803091e-05 -0.00083303737 -0.00082286843 -0.00081310637 -0.00036058956
-8.958814e-05 -0.0027454083 -0.00078065053 -0.00024470527 -1.02538015e-05 -6.1089295e-06 -3.007307e-05 -5.52058e-06
2.8746017e-06 3.2339697e-06 1.7932935e-07 0.005081163 0.0056827124 0.00635386 0.0029475254 0.00072884146
0.019750312 0.017714562 0.017368456 0.007735841 0.0019105814 0.019359 0.014463876 0.011745656
0.004966005 0.0013038066 0.006421683 0.0039780326 0.0037895446 0.0016509303 0.0004124472 -0.010766967
-0.006500361 -0.0048823585 -0.0017113247 -0.00029147163 -0.008163393 -0.0032260835 -0.0018893251 -0.00052125525
-6.192533e-05 -0.0034085035 -0.0030531962 -0.0027743375 -0.001130548 -0.00022744248 0.00065202493 -0.00085539697
-0.001298809 -0.0006734054 -0.00016614527 -0.0010543674 -0.0003979516 -9.4033e-05 2.9443897e-06 0.0
0.0031230215 -2.8755834e-05 -0.0015902981 -0.0016222311 -0.0006961994 -0.0039197397 -0.0024291945 -0.0021038211
-0.000840236 -0.00014989355 0.011690313 0.009646455 0.009204475 0.004162448 0.001104201 -0.0026477324
-0.002595417 -0.002480153 -0.0010627798 -0.00023668766 -0.0069592185 -0.0064685624 -0.006042427 -0.0025344926
-0.00055276434 0.004847547 0.0026402646 0.0010448522 0.00028799128 0.000113425784 0.0009238399 -0.0005797674
-0.00029978124 -4.0671337e-05 0.0 0.0 0.0 0.0 0.0 0.0
0.033011783 0.027255608 0.02459552 0.010723056 0.0027181092 0.010740016 0.009180665 0.008418404
0.0036779281 0.000921116 -0.0008761407 -0.0002642254 -0.000103757775 -2.3813807e-06 -5.4406996e-06 -0.0028228697
-0.0025598975 -0.0023324315 -0.00095026864 -0.00018319102 0.014131612 0.012493874 0.012453311 0.0056624757
0.0014631152 -0.00050026074 -0.00067581085 -0.00061483803 -0.00022808395 -2.1269218e-05 0.014889008 0.01260085
0.012474109 0.005605155 0.0014075236 -7.936117e-05 -8.626979e-05 -9.169477e-05 -4.353602e-05 -1.2547949e-05
0.016801491 0.012656962 0.010933118 0.0048341914 0.0013237367 0.026168454 0.021469068 0.019939391
0.0087892115 0.0022301478 -0.00045772144 -0.00014587789 -0.00031158386 -0.00025753726 -0.00017188794 0.0028817856
0.003105919 0.004345375 0.002143175 0.00053971104 1.4830882e-05 5.9683357e-06 1.0460888e-06 -1.2780201e-06
-7.606989e-07 0.0041820672 0.0015979183 0.00076022913 1.540031e-05 -9.33085e-05 0.0026894633 0.0011598173
0.0006723804 0.00027521138 0.00010152837 0.027943863 0.023671186 0.022052854 0.0097133145 0.0024513889
-5.8113586e-05 1.6465847e-05 2.6773734e-05 1.1356503e-05 2.3570992e-06 0.00013308138 0.00039065728 0.00045079723
0.00020840802 4.8570408e-05
00000000: 943f 313b 38d2 de39 0c80 1c39 17cf 9036
00000010: da3c 9634 b5ff 43bb 5fd6 2ebb e316 1fbb
00000020: 5a78 82ba c645 52b9 0000 0000 0000 0000
00000030: 0000 0000 0000 0000 0000 0000 0a2d 813c
00000040: 2ea6 703c f22c 633c e450 cb3b 660d d13a
00000050: 0a82 35ba c095 2aba 330c 21ba 5474 88b9
00000060: 9a21 6fb8 f0bb 373b 4d37 0b3b 0dd0 e73a
00000070: ff32 413a 2d43 3b39 9cad 9639 a23b b5b8
00000080: e569 00b8 0000 0000 0000 0000 b197 29b8
00000090: 80ff 0338 4beb 7ab5 1df2 efb6 09a5 7db5
000000a0: 0000 0000 0000 0000 0000 0000 0000 0000
000000b0: 0000 0000 917b 07bc ef4f b0bb c051 89bb
000000c0: 60f6 c5ba f559 87b9 1797 c33a 3604 bc3a
000000d0: 8c9d b23a a9a3 173a b638 fa38 dfdc 1fba
000000e0: 20e0 36b9 a477 13b9 6317 81b8 5df4 8cb7
000000f0: 3160 5aba c4b5 57ba a526 55ba 830d bdb9
00000100: 44e1 bbb8 4fec 33bb 92a4 4cba c94b 80b9
00000110: be07 2cb7 4efb ccb6 6d45 fcb7 6c3d b9b6
00000120: 48e9 4036 2d07 5936 ad8d 4034 e27f a63b
00000130: 0c36 ba3b 0a34 d03b 452b 413b b90f 3f3a
00000140: 68cb a13c 211e 913c 4b48 8e3c f07c fd3b
00000150: 796c fa3a c496 9e3c e5f9 6c3c da70 403c
00000160: dfb9 a23b 7de4 aa3a fb6c d23b 285a 823b
00000170: 025a 783b 0764 d83a ba3d d839 ef67 30bc
00000180: fb00 d5bb 31fc 9fbb 874e e0ba a9d0 98b9
00000190: c0bf 05bc b36c 53bb 3ba3 f7ba d9a4 08ba
000001a0: e9dd 81b8 3361 5fbb 2218 48bb a9d1 35bb
000001b0: e52e 94ba a07d 6eb9 a7ec 2a3a b83c 60ba
000001c0: cc3c aaba 7987 30ba 4837 2eb9 b332 8aba
000001d0: 29a4 d0b9 9533 c5b8 3b98 4536 0000 0000
000001e0: 9bab 4c3b af38 f1b7 8d71 d0ba 0ba1 d4ba
000001f0: 2781 36ba 2971 80bb 1f33 1fbb 43e0 09bb
00000200: 4943 5cba be2c 1db9 ba88 3f3c 2a0c 1e3c
00000210: 5ece 163c 2565 883b d6ba 903a 9485 2dbb
00000220: df17 2abb 108a 22bb f94c 8bba 5c2f 78b9
00000230: 280a e4bb 3cf6 d3bb 8dff c5bb bb19 26bb
00000240: 63e7 10ba 2cd8 9e3b 4a08 2d3b 6cf3 883a
00000250: 89fd 9639 01df ed38 d92d 723a 88fb 17ba
00000260: f52b 9db9 8496 2ab8 0000 0000 0000 0000
00000270: 0000 0000 0000 0000 0000 0000 0000 0000
00000280: 5d37 073d 2747 df3c 8b7c c93c c2af 2f3c
00000290: 4e22 323b e4f6 2f3c 806a 163c 58ed 093c
000002a0: 6509 713b 0c77 713a cfac 65ba bc87 8ab9
000002b0: 8898 d9b8 cfcf 1fb6 418f b6b6 e5ff 38bb
000002c0: f4c3 27bb b5db 18bb 731b 79ba f716 40b9
000002d0: 4788 673c 1bb3 4c3c f908 4c3c 4a8c b93b
000002e0: 00c6 bf3a ee23 03ba e628 31ba 152d 21ba
000002f0: d229 6fb9 4c6b b2b7 07f1 733c cc73 4e3c
00000300: 3560 4c3c 73ab b73b a87c b83a b46e a6b8
00000310: beeb b4b8 414c c0b8 729a 36b8 0885 52b7
00000320: 48a3 893c 255f 4f3c d220 333c 2368 9e3b
00000330: 3c81 ad3a 3a5f d63c e6df af3c ef57 a33c
00000340: a000 103c ac27 123b 55fa efb9 ccf6 18b9
00000350: 145c a3b9 1106 87b9 d13c 34b9 57dc 3c3b
00000360: ad8c 4b3b a663 8e3b 8374 0c3b 657b 0d3a
00000370: 27d2 7837 9d43 c836 5667 8c35 7088 abb5
00000380: d532 4cb5 b909 893b 3e71 d13a 1d4a 473a
00000390: ea2f 8137 9fae c3b8 b541 303b 0305 983a
000003a0: af42 303a 3f4a 9039 a1eb d438 87ea e43c
000003b0: 13ea c13c 30a8 b43c 9824 1f3c 7ba7 203b
000003c0: fdbe 73b8 2320 8a37 2898 e037 cf87 3e37
000003d0: a82e 1e36 c38b 0b39 22d1 cc39 fb58 ec39
000003e0: 1a88 5a39 14b8 4b38

Q1.1.weight f4 [50, 1, 5]
0.3540397 -0.3347969 0.13429758 -0.4362571 -0.21357346 1.4145614 -1.3197385 0.054505162
2.1771734 -0.61038303 -0.6729962 -0.32549423 -1.6367577 -1.027952 0.6397833 -0.9879517
1.0600907 -2.4251144 0.48569494 0.68744904 -0.5474927 0.42308155 2.4755661 -0.33928832
2.1084023 -0.21696492 -0.115807064 0.42956847 -0.38158798 -1.5008175 2.1411042 0.8288935
0.5463134 -0.035267867 -0.21929196 -0.20655042 0.14192314 0.1531878 1.1312861 -0.38432178
-1.0381638 0.78563935 -0.14590803 0.12635033 0.27106777 1.387759 -0.19857135 1.6945049
-0.39144492 2.1158876 -1.015384 -0.7186767 1.3015783 0.84744066 0.19790046 -0.5183696
0.8862492 0.105615504 0.15034194 0.05474649 -0.27958685 1.3760251 1.7675563 0.83174634
1.1810036 0.81942475 0.29669926 -0.017705878 -0.008448136 0.7673056 -0.69347066 0.70713353
0.79131496 -0.21639834 0.97491467 0.61332893 -0.84189224 -0.35338715 -1.6759055 1.6023363
0.19807978 -1.4941621 -1.2354978 0.4089224 -0.90460163 -2.0451586 0.6766626 0.10769137
-0.9553018 1.2306342 1.2385857 -2.243492 0.8411532 -1.6122426 0.97695047 1.5394691
2.5238907 0.7911698 -0.44505605 1.4161448 2.0428648 1.4344941 0.65617454 -1.1921263
1.4195123 0.3442745 1.2177302 0.9934876 1.0617293 1.3455696 -0.1548049 -0.23388633
0.6532926 -0.5975469 -3.1496592 0.29912278 0.3110034 -1.3147218 -0.42745987 -2.7001984
1.1953883 -0.17624821 0.9540213 0.11324674 -0.5499735 -0.44944128 1.3122721 0.9889345
0.7395252 -0.47473425 -0.21913478 -1.0190562 -0.7335536 0.9851465 0.50842595 -0.18937555
0.25543597 -0.3477941 1.9524515 -0.013822745 -0.40269464 1.7673506 0.102711625 -0.22927555
-0.19308907 -1.3909521 1.3724887 -0.39891586 0.91684157 -0.6677805 0.81145215 0.8827885
-0.78187114 1.2860384 0.22602193 -1.4186597 -0.58740175 0.37748265 -0.38947362 0.913877
-1.6889796 -0.2326263 -1.5048774 -0.12481206 0.5908612 -0.4827401 -0.002853403 -0.4387383
-0.66450804 0.53043216 -1.4000283 -0.07839399 0.15274136 0.08499476 1.6523819 -0.74072486
-0.9245119 -1.2557964 0.6030709 0.66157484 0.17993107 -1.5450902 -0.8615326 -0.12763804
-0.25180173 -0.24593179 0.0042225625 -0.17046003 1.2767754 -0.91755885 0.44680044 -2.5598438
0.3263647 0.056617968 -0.10333124 -0.8108113 -0.021772584 -0.057276335 -0.9574602 -0.6154136
-1.357746 -0.6232753 0.42676106 -0.4322926 -2.134443 -0.62428 -1.8779482 -0.4737449
0.32319865 0.7127076 0.7621635 -0.39798763 0.52120036 -0.50058407 -1.5974836 1.3580686
-2.585033 -0.17918079 1.2400304 0.39490354 0.19216901 0.5441473 -0.17662366 -0.45416337
0.012405046 0.9865329 -0.32330945 0.33288565 -1.4021127 -0.046438437 -0.2505529 -0.72949904
0.69801265 0.5797653 -1.0689806 -0.83497036 -0.8443493 -1.9338098 1.0292908 0.9040246
-0.0040327758 0.31138054 -0.52053016 0.4226912 -1.0701821 -0.4067045 -1.999021 -1.2932199
-0.9294388 -1.0653353
00000000: b144 b53e 806a abbe 4e85 093e 175d dfbe
00000010: 00b3 5abe 5910 b53f 31ed a8bf ce40 5f3d
00000020: cf56 0b40 1042 1cbf 7b49 2cbf 2ea7 a6be
00000030: 4781 d1bf ee93 83bf d7c8 233f 67ea 7cbf
00000040: 0db1 873f 1335 1bc0 02ad f83e a9fc 2f3f
00000050: 7b28 0cbf 259e d83e ad6f 1e40 33b7 adbe
00000060: 10f0 0640 0d2c 5ebe 412c edbd 66f0 db3e
00000070: 805f c3be ca1a c0bf da07 0940 5d32 543f
00000080: 32db 0b3f 0a75 10bd 128e 60be f481 53be
00000090: 4d54 113e 43dd 1c3e fccd 903f d3c5 c4be
000000a0: 8de2 84bf a91f 493f ea68 15be fb61 013e
000000b0: 65c9 8a3e 16a2 b13f 4a56 4bbe 89e5 d83f
000000c0: 786b c8be b46a 0740 1af8 81bf 32fb 37bf
000000d0: 1e9a a63f dff1 583f 6ba6 4a3e dfb3 04bf
000000e0: 3ae1 623f f14c d83d 3df3 193e db3d 603d
000000f0: 0226 8fbe 9721 b03f 493f e23f 54ed 543f
00000100: 202b 973f d2c5 513f f7e8 973e eb0b 91bc
00000110: 0d6a 0abc 246e 443f 4b87 31bf b406 353f
00000120: 9e93 4a3f 8797 5dbe 0294 793f 2003 1d3f
00000130: 4086 57bf 29ef b4be 1284 d6bf 5b19 cd3f
00000140: 6dd5 4a3e b440 bfbf cb24 9ebf 475e d13e
00000150: f993 67bf e1e3 02c0 c339 2d3f 4b8d dc3d
00000160: a98e 74bf 6c85 9d3f fa89 9e3f 5f95 0fc0
00000170: d155 573f f75d cebf 6d19 7a3f 530d c53f
00000180: 6d87 2140 1b8a 4a3f 63de e3be 3c44 b53f
00000190: 4cbe 0240 819d b73f 0efb 273f 9897 98bf
000001a0: 94b2 b53f bf44 b03e 95de 9b3f 3455 7e3f
000001b0: bfe6 873f a03b ac3f 2d85 1ebe e67f 6fbe
000001c0: 2f3e 273f d5f8 18bf 0494 49c0 9f26 993e
000001d0: d63b 9f3e ce48 a8bf 05dc dabe 0dd0 2cc0
000001e0: 7c02 993f 697a 34be bd3a 743f e8ed e73d
000001f0: 10cb 0cbf 2b1d e6be 88f8 a73f d02a 7d3f
00000200: 8651 3d3f 5e10 f3be de64 60be 6f70 82bf
00000210: 2bca 3bbf 9032 7c3f 3428 023f aaeb 41be
00000220: 81c8 823e 1112 b2be eee9 f93f cb78 62bc
00000230: fe2d cebe 8b38 e23f 795a d23d 36c7 6abe
00000240: 24b9 45be b80a b2bf b6ad af3f b33e ccbe
00000250: 21b6 6a3f aaf3 2abf 54bb 4f3f 6dfe 613f
00000260: b528 48bf e89c a43f 4b72 673e a496 b5bf
00000270: f65f 16bf 6845 c13e 1669 c7be d8f3 693f
00000280: 7c30 d8bf 9735 6ebe d39f c0bf 779d ffbd
00000290: ae42 173f b629 f7be 2900 3bbb 4ea2 e0be
000002a0: 331d 2abf 67ca 073f 2134 b3bf 078d a0bd
000002b0: 3b68 1c3e bc11 ae3d 4081 d33f 25a0 3dbf
000002c0: d0ac 6cbf f0bd a0bf db62 1a3f f85c 293f
000002d0: da3f 383e 84c5 c5bf 678d 5cbf 8cb3 02be
000002e0: 28ec 80be 8bd5 7bbe 6c5d 8a3b 138d 2ebe
000002f0: 606d a33f 23e5 6abf 07c3 e43e 7bd4 23c0
00000300: 4619 a73e 3ee8 673d 549f d3bd 5491 4fbf
00000310: 6b5c b2bc 979a 6abd 1d1c 75bf bf8b 1dbf
00000320: 9fca adbf f88e 1fbf 6d80 da3e 7555 ddbe
00000330: b79a 08c0 d0d0 1fbf 9b60 f0bf b18e f2be
00000340: 4b7a a53e 0174 363f 261d 433f 09c5 cbbe
00000350: 636d 053f 4726 00bf 587a ccbf 31d5 ad3f
00000360: 2e71 25c0 2b7b 37be 51b9 9e3f cc30 ca3e
00000370: f4c7 443e 3d4d 0b3f d5dc 34be 1a88 e8be
00000380: 893e 4b3c 6c8d 7c3f d188 a5be fd6f aa3e
00000390: 6e78 b3bf 3b36 3ebd 7848 80be 73c0 3abf
000003a0: f5b0 323f 806b 143f 5bd4 88bf 9ec0 55bf
000003b0: 4727 58bf 1487 f7bf cdbf 833f 286e 673f
000003c0: 6025 84bb 456d 9f3e 7741 05bf fb6a d83e
000003d0: bafb 88bf 923b d0be ecdf ffbf 3b88 a5bf
000003e0: b4ef 6dbf e85c 88bf

Q1.1.bias f4 [1, 5]
-0.011840584 -0.008922675 -0.007477227 -0.0031943575 -0.00083153276
00000000: 02ff 41bc 6930 12bc 8703 f5bb 6d58 51bb
00000010: 38fb 59ba
